node {
  name: "metrics_2/sparse_categorical_accuracy/Const"
  op: "Const"
  device: "/job:localhost/replica:0/task:0/device:GPU:0"
  attr {
    key: "dtype"
    value {
      type: DT_INT32
    }
  }
  attr {
    key: "value"
    value {
      tensor {
        dtype: DT_INT32
        tensor_shape {
          dim {
            size: 1
          }
        }
        int_val: 0
      }
    }
  }
}
node {
  name: "metrics_2/sparse_categorical_accuracy/ArgMax/dimension"
  op: "Const"
  device: "/job:localhost/replica:0/task:0/device:GPU:0"
  attr {
    key: "dtype"
    value {
      type: DT_INT32
    }
  }
  attr {
    key: "value"
    value {
      tensor {
        dtype: DT_INT32
        tensor_shape {
        }
        int_val: -1
      }
    }
  }
}
node {
  name: "fc1000_biasadd_readvariableop_resource"
  op: "_Arg"
  device: "/job:localhost/replica:0/task:0/device:GPU:0"
  attr {
    key: "T"
    value {
      type: DT_RESOURCE
    }
  }
  attr {
    key: "_handle_dtypes"
    value {
      list {
        type: DT_FLOAT
      }
    }
  }
  attr {
    key: "_handle_shapes"
    value {
      list {
        shape {
          dim {
            size: 1001
          }
        }
      }
    }
  }
  attr {
    key: "index"
    value {
      i: 268
    }
  }
}
node {
  name: "fc1000_matmul_readvariableop_resource"
  op: "_Arg"
  device: "/job:localhost/replica:0/task:0/device:GPU:0"
  attr {
    key: "T"
    value {
      type: DT_RESOURCE
    }
  }
  attr {
    key: "_handle_dtypes"
    value {
      list {
        type: DT_FLOAT
      }
    }
  }
  attr {
    key: "_handle_shapes"
    value {
      list {
        shape {
          dim {
            size: 2048
          }
          dim {
            size: 1001
          }
        }
      }
    }
  }
  attr {
    key: "index"
    value {
      i: 267
    }
  }
}
node {
  name: "avg_pool_1/Mean/reduction_indices"
  op: "Const"
  device: "/job:localhost/replica:0/task:0/device:GPU:0"
  attr {
    key: "dtype"
    value {
      type: DT_INT32
    }
  }
  attr {
    key: "value"
    value {
      tensor {
        dtype: DT_INT32
        tensor_shape {
          dim {
            size: 2
          }
        }
        tensor_content: "\002\000\000\000\003\000\000\000"
      }
    }
  }
}
node {
  name: "bn5a_branch1_1/Const_1"
  op: "Const"
  device: "/job:localhost/replica:0/task:0/device:GPU:0"
  attr {
    key: "dtype"
    value {
      type: DT_FLOAT
    }
  }
  attr {
    key: "value"
    value {
      tensor {
        dtype: DT_FLOAT
        tensor_shape {
          dim {
          }
        }
      }
    }
  }
}
node {
  name: "bn5a_branch1_cond_input_1"
  op: "_Arg"
  device: "/job:localhost/replica:0/task:0/device:GPU:0"
  attr {
    key: "T"
    value {
      type: DT_RESOURCE
    }
  }
  attr {
    key: "_handle_dtypes"
    value {
      list {
        type: DT_FLOAT
      }
    }
  }
  attr {
    key: "_handle_shapes"
    value {
      list {
        shape {
          dim {
            size: 2048
          }
        }
      }
    }
  }
  attr {
    key: "index"
    value {
      i: 234
    }
  }
}
node {
  name: "bn5a_branch1_cond_input_0"
  op: "_Arg"
  device: "/job:localhost/replica:0/task:0/device:GPU:0"
  attr {
    key: "T"
    value {
      type: DT_RESOURCE
    }
  }
  attr {
    key: "_handle_dtypes"
    value {
      list {
        type: DT_FLOAT
      }
    }
  }
  attr {
    key: "_handle_shapes"
    value {
      list {
        shape {
          dim {
            size: 2048
          }
        }
      }
    }
  }
  attr {
    key: "index"
    value {
      i: 233
    }
  }
}
node {
  name: "res5a_branch1_conv2d_readvariableop_resource"
  op: "_Arg"
  device: "/job:localhost/replica:0/task:0/device:GPU:0"
  attr {
    key: "T"
    value {
      type: DT_RESOURCE
    }
  }
  attr {
    key: "_handle_dtypes"
    value {
      list {
        type: DT_FLOAT
      }
    }
  }
  attr {
    key: "_handle_shapes"
    value {
      list {
        shape {
          dim {
            size: 1
          }
          dim {
            size: 1
          }
          dim {
            size: 1024
          }
          dim {
            size: 2048
          }
        }
      }
    }
  }
  attr {
    key: "index"
    value {
      i: 232
    }
  }
}
node {
  name: "bn4a_branch1_cond_input_1"
  op: "_Arg"
  device: "/job:localhost/replica:0/task:0/device:GPU:0"
  attr {
    key: "T"
    value {
      type: DT_RESOURCE
    }
  }
  attr {
    key: "_handle_dtypes"
    value {
      list {
        type: DT_FLOAT
      }
    }
  }
  attr {
    key: "_handle_shapes"
    value {
      list {
        shape {
          dim {
            size: 1024
          }
        }
      }
    }
  }
  attr {
    key: "index"
    value {
      i: 139
    }
  }
}
node {
  name: "bn4a_branch1_cond_input_0"
  op: "_Arg"
  device: "/job:localhost/replica:0/task:0/device:GPU:0"
  attr {
    key: "T"
    value {
      type: DT_RESOURCE
    }
  }
  attr {
    key: "_handle_dtypes"
    value {
      list {
        type: DT_FLOAT
      }
    }
  }
  attr {
    key: "_handle_shapes"
    value {
      list {
        shape {
          dim {
            size: 1024
          }
        }
      }
    }
  }
  attr {
    key: "index"
    value {
      i: 138
    }
  }
}
node {
  name: "res4a_branch1_conv2d_readvariableop_resource"
  op: "_Arg"
  device: "/job:localhost/replica:0/task:0/device:GPU:0"
  attr {
    key: "T"
    value {
      type: DT_RESOURCE
    }
  }
  attr {
    key: "_handle_dtypes"
    value {
      list {
        type: DT_FLOAT
      }
    }
  }
  attr {
    key: "_handle_shapes"
    value {
      list {
        shape {
          dim {
            size: 1
          }
          dim {
            size: 1
          }
          dim {
            size: 512
          }
          dim {
            size: 1024
          }
        }
      }
    }
  }
  attr {
    key: "index"
    value {
      i: 137
    }
  }
}
node {
  name: "bn3a_branch1_cond_input_1"
  op: "_Arg"
  device: "/job:localhost/replica:0/task:0/device:GPU:0"
  attr {
    key: "T"
    value {
      type: DT_RESOURCE
    }
  }
  attr {
    key: "_handle_dtypes"
    value {
      list {
        type: DT_FLOAT
      }
    }
  }
  attr {
    key: "_handle_shapes"
    value {
      list {
        shape {
          dim {
            size: 512
          }
        }
      }
    }
  }
  attr {
    key: "index"
    value {
      i: 74
    }
  }
}
node {
  name: "bn3a_branch1_cond_input_0"
  op: "_Arg"
  device: "/job:localhost/replica:0/task:0/device:GPU:0"
  attr {
    key: "T"
    value {
      type: DT_RESOURCE
    }
  }
  attr {
    key: "_handle_dtypes"
    value {
      list {
        type: DT_FLOAT
      }
    }
  }
  attr {
    key: "_handle_shapes"
    value {
      list {
        shape {
          dim {
            size: 512
          }
        }
      }
    }
  }
  attr {
    key: "index"
    value {
      i: 73
    }
  }
}
node {
  name: "res3a_branch1_conv2d_readvariableop_resource"
  op: "_Arg"
  device: "/job:localhost/replica:0/task:0/device:GPU:0"
  attr {
    key: "T"
    value {
      type: DT_RESOURCE
    }
  }
  attr {
    key: "_handle_dtypes"
    value {
      list {
        type: DT_FLOAT
      }
    }
  }
  attr {
    key: "_handle_shapes"
    value {
      list {
        shape {
          dim {
            size: 1
          }
          dim {
            size: 1
          }
          dim {
            size: 256
          }
          dim {
            size: 512
          }
        }
      }
    }
  }
  attr {
    key: "index"
    value {
      i: 72
    }
  }
}
node {
  name: "bn2a_branch1_cond_input_1"
  op: "_Arg"
  device: "/job:localhost/replica:0/task:0/device:GPU:0"
  attr {
    key: "T"
    value {
      type: DT_RESOURCE
    }
  }
  attr {
    key: "_handle_dtypes"
    value {
      list {
        type: DT_FLOAT
      }
    }
  }
  attr {
    key: "_handle_shapes"
    value {
      list {
        shape {
          dim {
            size: 256
          }
        }
      }
    }
  }
  attr {
    key: "index"
    value {
      i: 24
    }
  }
}
node {
  name: "bn2a_branch1_cond_input_0"
  op: "_Arg"
  device: "/job:localhost/replica:0/task:0/device:GPU:0"
  attr {
    key: "T"
    value {
      type: DT_RESOURCE
    }
  }
  attr {
    key: "_handle_dtypes"
    value {
      list {
        type: DT_FLOAT
      }
    }
  }
  attr {
    key: "_handle_shapes"
    value {
      list {
        shape {
          dim {
            size: 256
          }
        }
      }
    }
  }
  attr {
    key: "index"
    value {
      i: 23
    }
  }
}
node {
  name: "res2a_branch1_conv2d_readvariableop_resource"
  op: "_Arg"
  device: "/job:localhost/replica:0/task:0/device:GPU:0"
  attr {
    key: "T"
    value {
      type: DT_RESOURCE
    }
  }
  attr {
    key: "_handle_dtypes"
    value {
      list {
        type: DT_FLOAT
      }
    }
  }
  attr {
    key: "_handle_shapes"
    value {
      list {
        shape {
          dim {
            size: 1
          }
          dim {
            size: 1
          }
          dim {
            size: 64
          }
          dim {
            size: 256
          }
        }
      }
    }
  }
  attr {
    key: "index"
    value {
      i: 22
    }
  }
}
node {
  name: "pool1_pad_1/Pad/paddings"
  op: "Const"
  device: "/job:localhost/replica:0/task:0/device:GPU:0"
  attr {
    key: "dtype"
    value {
      type: DT_INT32
    }
  }
  attr {
    key: "value"
    value {
      tensor {
        dtype: DT_INT32
        tensor_shape {
          dim {
            size: 4
          }
          dim {
            size: 2
          }
        }
        tensor_content: "…"
      }
    }
  }
}
node {
  name: "bn_conv1_cond_input_1"
  op: "_Arg"
  device: "/job:localhost/replica:0/task:0/device:GPU:0"
  attr {
    key: "T"
    value {
      type: DT_RESOURCE
    }
  }
  attr {
    key: "_handle_dtypes"
    value {
      list {
        type: DT_FLOAT
      }
    }
  }
  attr {
    key: "_handle_shapes"
    value {
      list {
        shape {
          dim {
            size: 64
          }
        }
      }
    }
  }
  attr {
    key: "index"
    value {
      i: 4
    }
  }
}
node {
  name: "bn_conv1_cond_input_0"
  op: "_Arg"
  device: "/job:localhost/replica:0/task:0/device:GPU:0"
  attr {
    key: "T"
    value {
      type: DT_RESOURCE
    }
  }
  attr {
    key: "_handle_dtypes"
    value {
      list {
        type: DT_FLOAT
      }
    }
  }
  attr {
    key: "_handle_shapes"
    value {
      list {
        shape {
          dim {
            size: 64
          }
        }
      }
    }
  }
  attr {
    key: "index"
    value {
      i: 3
    }
  }
}
node {
  name: "conv1_conv2d_readvariableop_resource"
  op: "_Arg"
  device: "/job:localhost/replica:0/task:0/device:GPU:0"
  attr {
    key: "T"
    value {
      type: DT_RESOURCE
    }
  }
  attr {
    key: "_handle_dtypes"
    value {
      list {
        type: DT_FLOAT
      }
    }
  }
  attr {
    key: "_handle_shapes"
    value {
      list {
        shape {
          dim {
            size: 7
          }
          dim {
            size: 7
          }
          dim {
            size: 3
          }
          dim {
            size: 64
          }
        }
      }
    }
  }
  attr {
    key: "index"
    value {
      i: 2
    }
  }
}
node {
  name: "conv1_pad_1/Pad/paddings"
  op: "Const"
  device: "/job:localhost/replica:0/task:0/device:GPU:0"
  attr {
    key: "dtype"
    value {
      type: DT_INT32
    }
  }
  attr {
    key: "value"
    value {
      tensor {
        dtype: DT_INT32
        tensor_shape {
          dim {
            size: 4
          }
          dim {
            size: 2
          }
        }
        tensor_content: "…"
      }
    }
  }
}
node {
  name: "transpose_1/transpose/perm"
  op: "Const"
  device: "/job:localhost/replica:0/task:0/device:GPU:0"
  attr {
    key: "dtype"
    value {
      type: DT_INT32
    }
  }
  attr {
    key: "value"
    value {
      tensor {
        dtype: DT_INT32
        tensor_shape {
          dim {
            size: 4
          }
        }
        tensor_content: "\000\000\000\000\003\000\000\000\001\000\000\000\002\000\000\000"
      }
    }
  }
}
node {
  name: "input_1_1"
  op: "_Arg"
  device: "/job:localhost/replica:0/task:0/device:GPU:0"
  attr {
    key: "T"
    value {
      type: DT_HALF
    }
  }
  attr {
    key: "index"
    value {
      i: 0
    }
  }
}
node {
  name: "bn2a_branch2c_cond_input_1"
  op: "_Arg"
  device: "/job:localhost/replica:0/task:0/device:GPU:0"
  attr {
    key: "T"
    value {
      type: DT_RESOURCE
    }
  }
  attr {
    key: "_handle_dtypes"
    value {
      list {
        type: DT_FLOAT
      }
    }
  }
  attr {
    key: "_handle_shapes"
    value {
      list {
        shape {
          dim {
            size: 256
          }
        }
      }
    }
  }
  attr {
    key: "index"
    value {
      i: 19
    }
  }
}
node {
  name: "bn2a_branch2c_cond_input_0"
  op: "_Arg"
  device: "/job:localhost/replica:0/task:0/device:GPU:0"
  attr {
    key: "T"
    value {
      type: DT_RESOURCE
    }
  }
  attr {
    key: "_handle_dtypes"
    value {
      list {
        type: DT_FLOAT
      }
    }
  }
  attr {
    key: "_handle_shapes"
    value {
      list {
        shape {
          dim {
            size: 256
          }
        }
      }
    }
  }
  attr {
    key: "index"
    value {
      i: 18
    }
  }
}
node {
  name: "res2a_branch2c_conv2d_readvariableop_resource"
  op: "_Arg"
  device: "/job:localhost/replica:0/task:0/device:GPU:0"
  attr {
    key: "T"
    value {
      type: DT_RESOURCE
    }
  }
  attr {
    key: "_handle_dtypes"
    value {
      list {
        type: DT_FLOAT
      }
    }
  }
  attr {
    key: "_handle_shapes"
    value {
      list {
        shape {
          dim {
            size: 1
          }
          dim {
            size: 1
          }
          dim {
            size: 64
          }
          dim {
            size: 256
          }
        }
      }
    }
  }
  attr {
    key: "index"
    value {
      i: 17
    }
  }
}
node {
  name: "bn2a_branch2b_cond_input_1"
  op: "_Arg"
  device: "/job:localhost/replica:0/task:0/device:GPU:0"
  attr {
    key: "T"
    value {
      type: DT_RESOURCE
    }
  }
  attr {
    key: "_handle_dtypes"
    value {
      list {
        type: DT_FLOAT
      }
    }
  }
  attr {
    key: "_handle_shapes"
    value {
      list {
        shape {
          dim {
            size: 64
          }
        }
      }
    }
  }
  attr {
    key: "index"
    value {
      i: 14
    }
  }
}
node {
  name: "bn2a_branch2b_cond_input_0"
  op: "_Arg"
  device: "/job:localhost/replica:0/task:0/device:GPU:0"
  attr {
    key: "T"
    value {
      type: DT_RESOURCE
    }
  }
  attr {
    key: "_handle_dtypes"
    value {
      list {
        type: DT_FLOAT
      }
    }
  }
  attr {
    key: "_handle_shapes"
    value {
      list {
        shape {
          dim {
            size: 64
          }
        }
      }
    }
  }
  attr {
    key: "index"
    value {
      i: 13
    }
  }
}
node {
  name: "res2a_branch2b_conv2d_readvariableop_resource"
  op: "_Arg"
  device: "/job:localhost/replica:0/task:0/device:GPU:0"
  attr {
    key: "T"
    value {
      type: DT_RESOURCE
    }
  }
  attr {
    key: "_handle_dtypes"
    value {
      list {
        type: DT_FLOAT
      }
    }
  }
  attr {
    key: "_handle_shapes"
    value {
      list {
        shape {
          dim {
            size: 3
          }
          dim {
            size: 3
          }
          dim {
            size: 64
          }
          dim {
            size: 64
          }
        }
      }
    }
  }
  attr {
    key: "index"
    value {
      i: 12
    }
  }
}
node {
  name: "bn2a_branch2a_cond_input_1"
  op: "_Arg"
  device: "/job:localhost/replica:0/task:0/device:GPU:0"
  attr {
    key: "T"
    value {
      type: DT_RESOURCE
    }
  }
  attr {
    key: "_handle_dtypes"
    value {
      list {
        type: DT_FLOAT
      }
    }
  }
  attr {
    key: "_handle_shapes"
    value {
      list {
        shape {
          dim {
            size: 64
          }
        }
      }
    }
  }
  attr {
    key: "index"
    value {
      i: 9
    }
  }
}
node {
  name: "bn2a_branch2a_cond_input_0"
  op: "_Arg"
  device: "/job:localhost/replica:0/task:0/device:GPU:0"
  attr {
    key: "T"
    value {
      type: DT_RESOURCE
    }
  }
  attr {
    key: "_handle_dtypes"
    value {
      list {
        type: DT_FLOAT
      }
    }
  }
  attr {
    key: "_handle_shapes"
    value {
      list {
        shape {
          dim {
            size: 64
          }
        }
      }
    }
  }
  attr {
    key: "index"
    value {
      i: 8
    }
  }
}
node {
  name: "res2a_branch2a_conv2d_readvariableop_resource"
  op: "_Arg"
  device: "/job:localhost/replica:0/task:0/device:GPU:0"
  attr {
    key: "T"
    value {
      type: DT_RESOURCE
    }
  }
  attr {
    key: "_handle_dtypes"
    value {
      list {
        type: DT_FLOAT
      }
    }
  }
  attr {
    key: "_handle_shapes"
    value {
      list {
        shape {
          dim {
            size: 1
          }
          dim {
            size: 1
          }
          dim {
            size: 64
          }
          dim {
            size: 64
          }
        }
      }
    }
  }
  attr {
    key: "index"
    value {
      i: 7
    }
  }
}
node {
  name: "bn2b_branch2c_cond_input_1"
  op: "_Arg"
  device: "/job:localhost/replica:0/task:0/device:GPU:0"
  attr {
    key: "T"
    value {
      type: DT_RESOURCE
    }
  }
  attr {
    key: "_handle_dtypes"
    value {
      list {
        type: DT_FLOAT
      }
    }
  }
  attr {
    key: "_handle_shapes"
    value {
      list {
        shape {
          dim {
            size: 256
          }
        }
      }
    }
  }
  attr {
    key: "index"
    value {
      i: 39
    }
  }
}
node {
  name: "bn2b_branch2c_cond_input_0"
  op: "_Arg"
  device: "/job:localhost/replica:0/task:0/device:GPU:0"
  attr {
    key: "T"
    value {
      type: DT_RESOURCE
    }
  }
  attr {
    key: "_handle_dtypes"
    value {
      list {
        type: DT_FLOAT
      }
    }
  }
  attr {
    key: "_handle_shapes"
    value {
      list {
        shape {
          dim {
            size: 256
          }
        }
      }
    }
  }
  attr {
    key: "index"
    value {
      i: 38
    }
  }
}
node {
  name: "res2b_branch2c_conv2d_readvariableop_resource"
  op: "_Arg"
  device: "/job:localhost/replica:0/task:0/device:GPU:0"
  attr {
    key: "T"
    value {
      type: DT_RESOURCE
    }
  }
  attr {
    key: "_handle_dtypes"
    value {
      list {
        type: DT_FLOAT
      }
    }
  }
  attr {
    key: "_handle_shapes"
    value {
      list {
        shape {
          dim {
            size: 1
          }
          dim {
            size: 1
          }
          dim {
            size: 64
          }
          dim {
            size: 256
          }
        }
      }
    }
  }
  attr {
    key: "index"
    value {
      i: 37
    }
  }
}
node {
  name: "bn2b_branch2b_cond_input_1"
  op: "_Arg"
  device: "/job:localhost/replica:0/task:0/device:GPU:0"
  attr {
    key: "T"
    value {
      type: DT_RESOURCE
    }
  }
  attr {
    key: "_handle_dtypes"
    value {
      list {
        type: DT_FLOAT
      }
    }
  }
  attr {
    key: "_handle_shapes"
    value {
      list {
        shape {
          dim {
            size: 64
          }
        }
      }
    }
  }
  attr {
    key: "index"
    value {
      i: 34
    }
  }
}
node {
  name: "bn2b_branch2b_cond_input_0"
  op: "_Arg"
  device: "/job:localhost/replica:0/task:0/device:GPU:0"
  attr {
    key: "T"
    value {
      type: DT_RESOURCE
    }
  }
  attr {
    key: "_handle_dtypes"
    value {
      list {
        type: DT_FLOAT
      }
    }
  }
  attr {
    key: "_handle_shapes"
    value {
      list {
        shape {
          dim {
            size: 64
          }
        }
      }
    }
  }
  attr {
    key: "index"
    value {
      i: 33
    }
  }
}
node {
  name: "res2b_branch2b_conv2d_readvariableop_resource"
  op: "_Arg"
  device: "/job:localhost/replica:0/task:0/device:GPU:0"
  attr {
    key: "T"
    value {
      type: DT_RESOURCE
    }
  }
  attr {
    key: "_handle_dtypes"
    value {
      list {
        type: DT_FLOAT
      }
    }
  }
  attr {
    key: "_handle_shapes"
    value {
      list {
        shape {
          dim {
            size: 3
          }
          dim {
            size: 3
          }
          dim {
            size: 64
          }
          dim {
            size: 64
          }
        }
      }
    }
  }
  attr {
    key: "index"
    value {
      i: 32
    }
  }
}
node {
  name: "bn2b_branch2a_cond_input_1"
  op: "_Arg"
  device: "/job:localhost/replica:0/task:0/device:GPU:0"
  attr {
    key: "T"
    value {
      type: DT_RESOURCE
    }
  }
  attr {
    key: "_handle_dtypes"
    value {
      list {
        type: DT_FLOAT
      }
    }
  }
  attr {
    key: "_handle_shapes"
    value {
      list {
        shape {
          dim {
            size: 64
          }
        }
      }
    }
  }
  attr {
    key: "index"
    value {
      i: 29
    }
  }
}
node {
  name: "bn2b_branch2a_cond_input_0"
  op: "_Arg"
  device: "/job:localhost/replica:0/task:0/device:GPU:0"
  attr {
    key: "T"
    value {
      type: DT_RESOURCE
    }
  }
  attr {
    key: "_handle_dtypes"
    value {
      list {
        type: DT_FLOAT
      }
    }
  }
  attr {
    key: "_handle_shapes"
    value {
      list {
        shape {
          dim {
            size: 64
          }
        }
      }
    }
  }
  attr {
    key: "index"
    value {
      i: 28
    }
  }
}
node {
  name: "res2b_branch2a_conv2d_readvariableop_resource"
  op: "_Arg"
  device: "/job:localhost/replica:0/task:0/device:GPU:0"
  attr {
    key: "T"
    value {
      type: DT_RESOURCE
    }
  }
  attr {
    key: "_handle_dtypes"
    value {
      list {
        type: DT_FLOAT
      }
    }
  }
  attr {
    key: "_handle_shapes"
    value {
      list {
        shape {
          dim {
            size: 1
          }
          dim {
            size: 1
          }
          dim {
            size: 256
          }
          dim {
            size: 64
          }
        }
      }
    }
  }
  attr {
    key: "index"
    value {
      i: 27
    }
  }
}
node {
  name: "bn2c_branch2c_cond_input_1"
  op: "_Arg"
  device: "/job:localhost/replica:0/task:0/device:GPU:0"
  attr {
    key: "T"
    value {
      type: DT_RESOURCE
    }
  }
  attr {
    key: "_handle_dtypes"
    value {
      list {
        type: DT_FLOAT
      }
    }
  }
  attr {
    key: "_handle_shapes"
    value {
      list {
        shape {
          dim {
            size: 256
          }
        }
      }
    }
  }
  attr {
    key: "index"
    value {
      i: 54
    }
  }
}
node {
  name: "bn2c_branch2c_cond_input_0"
  op: "_Arg"
  device: "/job:localhost/replica:0/task:0/device:GPU:0"
  attr {
    key: "T"
    value {
      type: DT_RESOURCE
    }
  }
  attr {
    key: "_handle_dtypes"
    value {
      list {
        type: DT_FLOAT
      }
    }
  }
  attr {
    key: "_handle_shapes"
    value {
      list {
        shape {
          dim {
            size: 256
          }
        }
      }
    }
  }
  attr {
    key: "index"
    value {
      i: 53
    }
  }
}
node {
  name: "res2c_branch2c_conv2d_readvariableop_resource"
  op: "_Arg"
  device: "/job:localhost/replica:0/task:0/device:GPU:0"
  attr {
    key: "T"
    value {
      type: DT_RESOURCE
    }
  }
  attr {
    key: "_handle_dtypes"
    value {
      list {
        type: DT_FLOAT
      }
    }
  }
  attr {
    key: "_handle_shapes"
    value {
      list {
        shape {
          dim {
            size: 1
          }
          dim {
            size: 1
          }
          dim {
            size: 64
          }
          dim {
            size: 256
          }
        }
      }
    }
  }
  attr {
    key: "index"
    value {
      i: 52
    }
  }
}
node {
  name: "bn2c_branch2b_cond_input_1"
  op: "_Arg"
  device: "/job:localhost/replica:0/task:0/device:GPU:0"
  attr {
    key: "T"
    value {
      type: DT_RESOURCE
    }
  }
  attr {
    key: "_handle_dtypes"
    value {
      list {
        type: DT_FLOAT
      }
    }
  }
  attr {
    key: "_handle_shapes"
    value {
      list {
        shape {
          dim {
            size: 64
          }
        }
      }
    }
  }
  attr {
    key: "index"
    value {
      i: 49
    }
  }
}
node {
  name: "bn2c_branch2b_cond_input_0"
  op: "_Arg"
  device: "/job:localhost/replica:0/task:0/device:GPU:0"
  attr {
    key: "T"
    value {
      type: DT_RESOURCE
    }
  }
  attr {
    key: "_handle_dtypes"
    value {
      list {
        type: DT_FLOAT
      }
    }
  }
  attr {
    key: "_handle_shapes"
    value {
      list {
        shape {
          dim {
            size: 64
          }
        }
      }
    }
  }
  attr {
    key: "index"
    value {
      i: 48
    }
  }
}
node {
  name: "res2c_branch2b_conv2d_readvariableop_resource"
  op: "_Arg"
  device: "/job:localhost/replica:0/task:0/device:GPU:0"
  attr {
    key: "T"
    value {
      type: DT_RESOURCE
    }
  }
  attr {
    key: "_handle_dtypes"
    value {
      list {
        type: DT_FLOAT
      }
    }
  }
  attr {
    key: "_handle_shapes"
    value {
      list {
        shape {
          dim {
            size: 3
          }
          dim {
            size: 3
          }
          dim {
            size: 64
          }
          dim {
            size: 64
          }
        }
      }
    }
  }
  attr {
    key: "index"
    value {
      i: 47
    }
  }
}
node {
  name: "bn2c_branch2a_cond_input_1"
  op: "_Arg"
  device: "/job:localhost/replica:0/task:0/device:GPU:0"
  attr {
    key: "T"
    value {
      type: DT_RESOURCE
    }
  }
  attr {
    key: "_handle_dtypes"
    value {
      list {
        type: DT_FLOAT
      }
    }
  }
  attr {
    key: "_handle_shapes"
    value {
      list {
        shape {
          dim {
            size: 64
          }
        }
      }
    }
  }
  attr {
    key: "index"
    value {
      i: 44
    }
  }
}
node {
  name: "bn2c_branch2a_cond_input_0"
  op: "_Arg"
  device: "/job:localhost/replica:0/task:0/device:GPU:0"
  attr {
    key: "T"
    value {
      type: DT_RESOURCE
    }
  }
  attr {
    key: "_handle_dtypes"
    value {
      list {
        type: DT_FLOAT
      }
    }
  }
  attr {
    key: "_handle_shapes"
    value {
      list {
        shape {
          dim {
            size: 64
          }
        }
      }
    }
  }
  attr {
    key: "index"
    value {
      i: 43
    }
  }
}
node {
  name: "res2c_branch2a_conv2d_readvariableop_resource"
  op: "_Arg"
  device: "/job:localhost/replica:0/task:0/device:GPU:0"
  attr {
    key: "T"
    value {
      type: DT_RESOURCE
    }
  }
  attr {
    key: "_handle_dtypes"
    value {
      list {
        type: DT_FLOAT
      }
    }
  }
  attr {
    key: "_handle_shapes"
    value {
      list {
        shape {
          dim {
            size: 1
          }
          dim {
            size: 1
          }
          dim {
            size: 256
          }
          dim {
            size: 64
          }
        }
      }
    }
  }
  attr {
    key: "index"
    value {
      i: 42
    }
  }
}
node {
  name: "bn3a_branch2c_cond_input_1"
  op: "_Arg"
  device: "/job:localhost/replica:0/task:0/device:GPU:0"
  attr {
    key: "T"
    value {
      type: DT_RESOURCE
    }
  }
  attr {
    key: "_handle_dtypes"
    value {
      list {
        type: DT_FLOAT
      }
    }
  }
  attr {
    key: "_handle_shapes"
    value {
      list {
        shape {
          dim {
            size: 512
          }
        }
      }
    }
  }
  attr {
    key: "index"
    value {
      i: 69
    }
  }
}
node {
  name: "bn3a_branch2c_cond_input_0"
  op: "_Arg"
  device: "/job:localhost/replica:0/task:0/device:GPU:0"
  attr {
    key: "T"
    value {
      type: DT_RESOURCE
    }
  }
  attr {
    key: "_handle_dtypes"
    value {
      list {
        type: DT_FLOAT
      }
    }
  }
  attr {
    key: "_handle_shapes"
    value {
      list {
        shape {
          dim {
            size: 512
          }
        }
      }
    }
  }
  attr {
    key: "index"
    value {
      i: 68
    }
  }
}
node {
  name: "res3a_branch2c_conv2d_readvariableop_resource"
  op: "_Arg"
  device: "/job:localhost/replica:0/task:0/device:GPU:0"
  attr {
    key: "T"
    value {
      type: DT_RESOURCE
    }
  }
  attr {
    key: "_handle_dtypes"
    value {
      list {
        type: DT_FLOAT
      }
    }
  }
  attr {
    key: "_handle_shapes"
    value {
      list {
        shape {
          dim {
            size: 1
          }
          dim {
            size: 1
          }
          dim {
            size: 128
          }
          dim {
            size: 512
          }
        }
      }
    }
  }
  attr {
    key: "index"
    value {
      i: 67
    }
  }
}
node {
  name: "bn3a_branch2b_cond_input_1"
  op: "_Arg"
  device: "/job:localhost/replica:0/task:0/device:GPU:0"
  attr {
    key: "T"
    value {
      type: DT_RESOURCE
    }
  }
  attr {
    key: "_handle_dtypes"
    value {
      list {
        type: DT_FLOAT
      }
    }
  }
  attr {
    key: "_handle_shapes"
    value {
      list {
        shape {
          dim {
            size: 128
          }
        }
      }
    }
  }
  attr {
    key: "index"
    value {
      i: 64
    }
  }
}
node {
  name: "bn3a_branch2b_cond_input_0"
  op: "_Arg"
  device: "/job:localhost/replica:0/task:0/device:GPU:0"
  attr {
    key: "T"
    value {
      type: DT_RESOURCE
    }
  }
  attr {
    key: "_handle_dtypes"
    value {
      list {
        type: DT_FLOAT
      }
    }
  }
  attr {
    key: "_handle_shapes"
    value {
      list {
        shape {
          dim {
            size: 128
          }
        }
      }
    }
  }
  attr {
    key: "index"
    value {
      i: 63
    }
  }
}
node {
  name: "res3a_branch2b_conv2d_readvariableop_resource"
  op: "_Arg"
  device: "/job:localhost/replica:0/task:0/device:GPU:0"
  attr {
    key: "T"
    value {
      type: DT_RESOURCE
    }
  }
  attr {
    key: "_handle_dtypes"
    value {
      list {
        type: DT_FLOAT
      }
    }
  }
  attr {
    key: "_handle_shapes"
    value {
      list {
        shape {
          dim {
            size: 3
          }
          dim {
            size: 3
          }
          dim {
            size: 128
          }
          dim {
            size: 128
          }
        }
      }
    }
  }
  attr {
    key: "index"
    value {
      i: 62
    }
  }
}
node {
  name: "bn3a_branch2a_cond_input_1"
  op: "_Arg"
  device: "/job:localhost/replica:0/task:0/device:GPU:0"
  attr {
    key: "T"
    value {
      type: DT_RESOURCE
    }
  }
  attr {
    key: "_handle_dtypes"
    value {
      list {
        type: DT_FLOAT
      }
    }
  }
  attr {
    key: "_handle_shapes"
    value {
      list {
        shape {
          dim {
            size: 128
          }
        }
      }
    }
  }
  attr {
    key: "index"
    value {
      i: 59
    }
  }
}
node {
  name: "bn3a_branch2a_cond_input_0"
  op: "_Arg"
  device: "/job:localhost/replica:0/task:0/device:GPU:0"
  attr {
    key: "T"
    value {
      type: DT_RESOURCE
    }
  }
  attr {
    key: "_handle_dtypes"
    value {
      list {
        type: DT_FLOAT
      }
    }
  }
  attr {
    key: "_handle_shapes"
    value {
      list {
        shape {
          dim {
            size: 128
          }
        }
      }
    }
  }
  attr {
    key: "index"
    value {
      i: 58
    }
  }
}
node {
  name: "res3a_branch2a_conv2d_readvariableop_resource"
  op: "_Arg"
  device: "/job:localhost/replica:0/task:0/device:GPU:0"
  attr {
    key: "T"
    value {
      type: DT_RESOURCE
    }
  }
  attr {
    key: "_handle_dtypes"
    value {
      list {
        type: DT_FLOAT
      }
    }
  }
  attr {
    key: "_handle_shapes"
    value {
      list {
        shape {
          dim {
            size: 1
          }
          dim {
            size: 1
          }
          dim {
            size: 256
          }
          dim {
            size: 128
          }
        }
      }
    }
  }
  attr {
    key: "index"
    value {
      i: 57
    }
  }
}
node {
  name: "bn3b_branch2c_cond_input_1"
  op: "_Arg"
  device: "/job:localhost/replica:0/task:0/device:GPU:0"
  attr {
    key: "T"
    value {
      type: DT_RESOURCE
    }
  }
  attr {
    key: "_handle_dtypes"
    value {
      list {
        type: DT_FLOAT
      }
    }
  }
  attr {
    key: "_handle_shapes"
    value {
      list {
        shape {
          dim {
            size: 512
          }
        }
      }
    }
  }
  attr {
    key: "index"
    value {
      i: 89
    }
  }
}
node {
  name: "bn3b_branch2c_cond_input_0"
  op: "_Arg"
  device: "/job:localhost/replica:0/task:0/device:GPU:0"
  attr {
    key: "T"
    value {
      type: DT_RESOURCE
    }
  }
  attr {
    key: "_handle_dtypes"
    value {
      list {
        type: DT_FLOAT
      }
    }
  }
  attr {
    key: "_handle_shapes"
    value {
      list {
        shape {
          dim {
            size: 512
          }
        }
      }
    }
  }
  attr {
    key: "index"
    value {
      i: 88
    }
  }
}
node {
  name: "res3b_branch2c_conv2d_readvariableop_resource"
  op: "_Arg"
  device: "/job:localhost/replica:0/task:0/device:GPU:0"
  attr {
    key: "T"
    value {
      type: DT_RESOURCE
    }
  }
  attr {
    key: "_handle_dtypes"
    value {
      list {
        type: DT_FLOAT
      }
    }
  }
  attr {
    key: "_handle_shapes"
    value {
      list {
        shape {
          dim {
            size: 1
          }
          dim {
            size: 1
          }
          dim {
            size: 128
          }
          dim {
            size: 512
          }
        }
      }
    }
  }
  attr {
    key: "index"
    value {
      i: 87
    }
  }
}
node {
  name: "bn3b_branch2b_cond_input_1"
  op: "_Arg"
  device: "/job:localhost/replica:0/task:0/device:GPU:0"
  attr {
    key: "T"
    value {
      type: DT_RESOURCE
    }
  }
  attr {
    key: "_handle_dtypes"
    value {
      list {
        type: DT_FLOAT
      }
    }
  }
  attr {
    key: "_handle_shapes"
    value {
      list {
        shape {
          dim {
            size: 128
          }
        }
      }
    }
  }
  attr {
    key: "index"
    value {
      i: 84
    }
  }
}
node {
  name: "bn3b_branch2b_cond_input_0"
  op: "_Arg"
  device: "/job:localhost/replica:0/task:0/device:GPU:0"
  attr {
    key: "T"
    value {
      type: DT_RESOURCE
    }
  }
  attr {
    key: "_handle_dtypes"
    value {
      list {
        type: DT_FLOAT
      }
    }
  }
  attr {
    key: "_handle_shapes"
    value {
      list {
        shape {
          dim {
            size: 128
          }
        }
      }
    }
  }
  attr {
    key: "index"
    value {
      i: 83
    }
  }
}
node {
  name: "res3b_branch2b_conv2d_readvariableop_resource"
  op: "_Arg"
  device: "/job:localhost/replica:0/task:0/device:GPU:0"
  attr {
    key: "T"
    value {
      type: DT_RESOURCE
    }
  }
  attr {
    key: "_handle_dtypes"
    value {
      list {
        type: DT_FLOAT
      }
    }
  }
  attr {
    key: "_handle_shapes"
    value {
      list {
        shape {
          dim {
            size: 3
          }
          dim {
            size: 3
          }
          dim {
            size: 128
          }
          dim {
            size: 128
          }
        }
      }
    }
  }
  attr {
    key: "index"
    value {
      i: 82
    }
  }
}
node {
  name: "bn3b_branch2a_cond_input_1"
  op: "_Arg"
  device: "/job:localhost/replica:0/task:0/device:GPU:0"
  attr {
    key: "T"
    value {
      type: DT_RESOURCE
    }
  }
  attr {
    key: "_handle_dtypes"
    value {
      list {
        type: DT_FLOAT
      }
    }
  }
  attr {
    key: "_handle_shapes"
    value {
      list {
        shape {
          dim {
            size: 128
          }
        }
      }
    }
  }
  attr {
    key: "index"
    value {
      i: 79
    }
  }
}
node {
  name: "bn3b_branch2a_cond_input_0"
  op: "_Arg"
  device: "/job:localhost/replica:0/task:0/device:GPU:0"
  attr {
    key: "T"
    value {
      type: DT_RESOURCE
    }
  }
  attr {
    key: "_handle_dtypes"
    value {
      list {
        type: DT_FLOAT
      }
    }
  }
  attr {
    key: "_handle_shapes"
    value {
      list {
        shape {
          dim {
            size: 128
          }
        }
      }
    }
  }
  attr {
    key: "index"
    value {
      i: 78
    }
  }
}
node {
  name: "res3b_branch2a_conv2d_readvariableop_resource"
  op: "_Arg"
  device: "/job:localhost/replica:0/task:0/device:GPU:0"
  attr {
    key: "T"
    value {
      type: DT_RESOURCE
    }
  }
  attr {
    key: "_handle_dtypes"
    value {
      list {
        type: DT_FLOAT
      }
    }
  }
  attr {
    key: "_handle_shapes"
    value {
      list {
        shape {
          dim {
            size: 1
          }
          dim {
            size: 1
          }
          dim {
            size: 512
          }
          dim {
            size: 128
          }
        }
      }
    }
  }
  attr {
    key: "index"
    value {
      i: 77
    }
  }
}
node {
  name: "bn3c_branch2c_cond_input_1"
  op: "_Arg"
  device: "/job:localhost/replica:0/task:0/device:GPU:0"
  attr {
    key: "T"
    value {
      type: DT_RESOURCE
    }
  }
  attr {
    key: "_handle_dtypes"
    value {
      list {
        type: DT_FLOAT
      }
    }
  }
  attr {
    key: "_handle_shapes"
    value {
      list {
        shape {
          dim {
            size: 512
          }
        }
      }
    }
  }
  attr {
    key: "index"
    value {
      i: 104
    }
  }
}
node {
  name: "bn3c_branch2c_cond_input_0"
  op: "_Arg"
  device: "/job:localhost/replica:0/task:0/device:GPU:0"
  attr {
    key: "T"
    value {
      type: DT_RESOURCE
    }
  }
  attr {
    key: "_handle_dtypes"
    value {
      list {
        type: DT_FLOAT
      }
    }
  }
  attr {
    key: "_handle_shapes"
    value {
      list {
        shape {
          dim {
            size: 512
          }
        }
      }
    }
  }
  attr {
    key: "index"
    value {
      i: 103
    }
  }
}
node {
  name: "res3c_branch2c_conv2d_readvariableop_resource"
  op: "_Arg"
  device: "/job:localhost/replica:0/task:0/device:GPU:0"
  attr {
    key: "T"
    value {
      type: DT_RESOURCE
    }
  }
  attr {
    key: "_handle_dtypes"
    value {
      list {
        type: DT_FLOAT
      }
    }
  }
  attr {
    key: "_handle_shapes"
    value {
      list {
        shape {
          dim {
            size: 1
          }
          dim {
            size: 1
          }
          dim {
            size: 128
          }
          dim {
            size: 512
          }
        }
      }
    }
  }
  attr {
    key: "index"
    value {
      i: 102
    }
  }
}
node {
  name: "bn3c_branch2b_cond_input_1"
  op: "_Arg"
  device: "/job:localhost/replica:0/task:0/device:GPU:0"
  attr {
    key: "T"
    value {
      type: DT_RESOURCE
    }
  }
  attr {
    key: "_handle_dtypes"
    value {
      list {
        type: DT_FLOAT
      }
    }
  }
  attr {
    key: "_handle_shapes"
    value {
      list {
        shape {
          dim {
            size: 128
          }
        }
      }
    }
  }
  attr {
    key: "index"
    value {
      i: 99
    }
  }
}
node {
  name: "bn3c_branch2b_cond_input_0"
  op: "_Arg"
  device: "/job:localhost/replica:0/task:0/device:GPU:0"
  attr {
    key: "T"
    value {
      type: DT_RESOURCE
    }
  }
  attr {
    key: "_handle_dtypes"
    value {
      list {
        type: DT_FLOAT
      }
    }
  }
  attr {
    key: "_handle_shapes"
    value {
      list {
        shape {
          dim {
            size: 128
          }
        }
      }
    }
  }
  attr {
    key: "index"
    value {
      i: 98
    }
  }
}
node {
  name: "res3c_branch2b_conv2d_readvariableop_resource"
  op: "_Arg"
  device: "/job:localhost/replica:0/task:0/device:GPU:0"
  attr {
    key: "T"
    value {
      type: DT_RESOURCE
    }
  }
  attr {
    key: "_handle_dtypes"
    value {
      list {
        type: DT_FLOAT
      }
    }
  }
  attr {
    key: "_handle_shapes"
    value {
      list {
        shape {
          dim {
            size: 3
          }
          dim {
            size: 3
          }
          dim {
            size: 128
          }
          dim {
            size: 128
          }
        }
      }
    }
  }
  attr {
    key: "index"
    value {
      i: 97
    }
  }
}
node {
  name: "bn3c_branch2a_cond_input_1"
  op: "_Arg"
  device: "/job:localhost/replica:0/task:0/device:GPU:0"
  attr {
    key: "T"
    value {
      type: DT_RESOURCE
    }
  }
  attr {
    key: "_handle_dtypes"
    value {
      list {
        type: DT_FLOAT
      }
    }
  }
  attr {
    key: "_handle_shapes"
    value {
      list {
        shape {
          dim {
            size: 128
          }
        }
      }
    }
  }
  attr {
    key: "index"
    value {
      i: 94
    }
  }
}
node {
  name: "bn3c_branch2a_cond_input_0"
  op: "_Arg"
  device: "/job:localhost/replica:0/task:0/device:GPU:0"
  attr {
    key: "T"
    value {
      type: DT_RESOURCE
    }
  }
  attr {
    key: "_handle_dtypes"
    value {
      list {
        type: DT_FLOAT
      }
    }
  }
  attr {
    key: "_handle_shapes"
    value {
      list {
        shape {
          dim {
            size: 128
          }
        }
      }
    }
  }
  attr {
    key: "index"
    value {
      i: 93
    }
  }
}
node {
  name: "res3c_branch2a_conv2d_readvariableop_resource"
  op: "_Arg"
  device: "/job:localhost/replica:0/task:0/device:GPU:0"
  attr {
    key: "T"
    value {
      type: DT_RESOURCE
    }
  }
  attr {
    key: "_handle_dtypes"
    value {
      list {
        type: DT_FLOAT
      }
    }
  }
  attr {
    key: "_handle_shapes"
    value {
      list {
        shape {
          dim {
            size: 1
          }
          dim {
            size: 1
          }
          dim {
            size: 512
          }
          dim {
            size: 128
          }
        }
      }
    }
  }
  attr {
    key: "index"
    value {
      i: 92
    }
  }
}
node {
  name: "bn3d_branch2c_cond_input_1"
  op: "_Arg"
  device: "/job:localhost/replica:0/task:0/device:GPU:0"
  attr {
    key: "T"
    value {
      type: DT_RESOURCE
    }
  }
  attr {
    key: "_handle_dtypes"
    value {
      list {
        type: DT_FLOAT
      }
    }
  }
  attr {
    key: "_handle_shapes"
    value {
      list {
        shape {
          dim {
            size: 512
          }
        }
      }
    }
  }
  attr {
    key: "index"
    value {
      i: 119
    }
  }
}
node {
  name: "bn3d_branch2c_cond_input_0"
  op: "_Arg"
  device: "/job:localhost/replica:0/task:0/device:GPU:0"
  attr {
    key: "T"
    value {
      type: DT_RESOURCE
    }
  }
  attr {
    key: "_handle_dtypes"
    value {
      list {
        type: DT_FLOAT
      }
    }
  }
  attr {
    key: "_handle_shapes"
    value {
      list {
        shape {
          dim {
            size: 512
          }
        }
      }
    }
  }
  attr {
    key: "index"
    value {
      i: 118
    }
  }
}
node {
  name: "res3d_branch2c_conv2d_readvariableop_resource"
  op: "_Arg"
  device: "/job:localhost/replica:0/task:0/device:GPU:0"
  attr {
    key: "T"
    value {
      type: DT_RESOURCE
    }
  }
  attr {
    key: "_handle_dtypes"
    value {
      list {
        type: DT_FLOAT
      }
    }
  }
  attr {
    key: "_handle_shapes"
    value {
      list {
        shape {
          dim {
            size: 1
          }
          dim {
            size: 1
          }
          dim {
            size: 128
          }
          dim {
            size: 512
          }
        }
      }
    }
  }
  attr {
    key: "index"
    value {
      i: 117
    }
  }
}
node {
  name: "bn3d_branch2b_cond_input_1"
  op: "_Arg"
  device: "/job:localhost/replica:0/task:0/device:GPU:0"
  attr {
    key: "T"
    value {
      type: DT_RESOURCE
    }
  }
  attr {
    key: "_handle_dtypes"
    value {
      list {
        type: DT_FLOAT
      }
    }
  }
  attr {
    key: "_handle_shapes"
    value {
      list {
        shape {
          dim {
            size: 128
          }
        }
      }
    }
  }
  attr {
    key: "index"
    value {
      i: 114
    }
  }
}
node {
  name: "bn3d_branch2b_cond_input_0"
  op: "_Arg"
  device: "/job:localhost/replica:0/task:0/device:GPU:0"
  attr {
    key: "T"
    value {
      type: DT_RESOURCE
    }
  }
  attr {
    key: "_handle_dtypes"
    value {
      list {
        type: DT_FLOAT
      }
    }
  }
  attr {
    key: "_handle_shapes"
    value {
      list {
        shape {
          dim {
            size: 128
          }
        }
      }
    }
  }
  attr {
    key: "index"
    value {
      i: 113
    }
  }
}
node {
  name: "res3d_branch2b_conv2d_readvariableop_resource"
  op: "_Arg"
  device: "/job:localhost/replica:0/task:0/device:GPU:0"
  attr {
    key: "T"
    value {
      type: DT_RESOURCE
    }
  }
  attr {
    key: "_handle_dtypes"
    value {
      list {
        type: DT_FLOAT
      }
    }
  }
  attr {
    key: "_handle_shapes"
    value {
      list {
        shape {
          dim {
            size: 3
          }
          dim {
            size: 3
          }
          dim {
            size: 128
          }
          dim {
            size: 128
          }
        }
      }
    }
  }
  attr {
    key: "index"
    value {
      i: 112
    }
  }
}
node {
  name: "bn3d_branch2a_cond_input_1"
  op: "_Arg"
  device: "/job:localhost/replica:0/task:0/device:GPU:0"
  attr {
    key: "T"
    value {
      type: DT_RESOURCE
    }
  }
  attr {
    key: "_handle_dtypes"
    value {
      list {
        type: DT_FLOAT
      }
    }
  }
  attr {
    key: "_handle_shapes"
    value {
      list {
        shape {
          dim {
            size: 128
          }
        }
      }
    }
  }
  attr {
    key: "index"
    value {
      i: 109
    }
  }
}
node {
  name: "bn3d_branch2a_cond_input_0"
  op: "_Arg"
  device: "/job:localhost/replica:0/task:0/device:GPU:0"
  attr {
    key: "T"
    value {
      type: DT_RESOURCE
    }
  }
  attr {
    key: "_handle_dtypes"
    value {
      list {
        type: DT_FLOAT
      }
    }
  }
  attr {
    key: "_handle_shapes"
    value {
      list {
        shape {
          dim {
            size: 128
          }
        }
      }
    }
  }
  attr {
    key: "index"
    value {
      i: 108
    }
  }
}
node {
  name: "res3d_branch2a_conv2d_readvariableop_resource"
  op: "_Arg"
  device: "/job:localhost/replica:0/task:0/device:GPU:0"
  attr {
    key: "T"
    value {
      type: DT_RESOURCE
    }
  }
  attr {
    key: "_handle_dtypes"
    value {
      list {
        type: DT_FLOAT
      }
    }
  }
  attr {
    key: "_handle_shapes"
    value {
      list {
        shape {
          dim {
            size: 1
          }
          dim {
            size: 1
          }
          dim {
            size: 512
          }
          dim {
            size: 128
          }
        }
      }
    }
  }
  attr {
    key: "index"
    value {
      i: 107
    }
  }
}
node {
  name: "bn4a_branch2c_cond_input_1"
  op: "_Arg"
  device: "/job:localhost/replica:0/task:0/device:GPU:0"
  attr {
    key: "T"
    value {
      type: DT_RESOURCE
    }
  }
  attr {
    key: "_handle_dtypes"
    value {
      list {
        type: DT_FLOAT
      }
    }
  }
  attr {
    key: "_handle_shapes"
    value {
      list {
        shape {
          dim {
            size: 1024
          }
        }
      }
    }
  }
  attr {
    key: "index"
    value {
      i: 134
    }
  }
}
node {
  name: "bn4a_branch2c_cond_input_0"
  op: "_Arg"
  device: "/job:localhost/replica:0/task:0/device:GPU:0"
  attr {
    key: "T"
    value {
      type: DT_RESOURCE
    }
  }
  attr {
    key: "_handle_dtypes"
    value {
      list {
        type: DT_FLOAT
      }
    }
  }
  attr {
    key: "_handle_shapes"
    value {
      list {
        shape {
          dim {
            size: 1024
          }
        }
      }
    }
  }
  attr {
    key: "index"
    value {
      i: 133
    }
  }
}
node {
  name: "res4a_branch2c_conv2d_readvariableop_resource"
  op: "_Arg"
  device: "/job:localhost/replica:0/task:0/device:GPU:0"
  attr {
    key: "T"
    value {
      type: DT_RESOURCE
    }
  }
  attr {
    key: "_handle_dtypes"
    value {
      list {
        type: DT_FLOAT
      }
    }
  }
  attr {
    key: "_handle_shapes"
    value {
      list {
        shape {
          dim {
            size: 1
          }
          dim {
            size: 1
          }
          dim {
            size: 256
          }
          dim {
            size: 1024
          }
        }
      }
    }
  }
  attr {
    key: "index"
    value {
      i: 132
    }
  }
}
node {
  name: "bn4a_branch2b_cond_input_1"
  op: "_Arg"
  device: "/job:localhost/replica:0/task:0/device:GPU:0"
  attr {
    key: "T"
    value {
      type: DT_RESOURCE
    }
  }
  attr {
    key: "_handle_dtypes"
    value {
      list {
        type: DT_FLOAT
      }
    }
  }
  attr {
    key: "_handle_shapes"
    value {
      list {
        shape {
          dim {
            size: 256
          }
        }
      }
    }
  }
  attr {
    key: "index"
    value {
      i: 129
    }
  }
}
node {
  name: "bn4a_branch2b_cond_input_0"
  op: "_Arg"
  device: "/job:localhost/replica:0/task:0/device:GPU:0"
  attr {
    key: "T"
    value {
      type: DT_RESOURCE
    }
  }
  attr {
    key: "_handle_dtypes"
    value {
      list {
        type: DT_FLOAT
      }
    }
  }
  attr {
    key: "_handle_shapes"
    value {
      list {
        shape {
          dim {
            size: 256
          }
        }
      }
    }
  }
  attr {
    key: "index"
    value {
      i: 128
    }
  }
}
node {
  name: "res4a_branch2b_conv2d_readvariableop_resource"
  op: "_Arg"
  device: "/job:localhost/replica:0/task:0/device:GPU:0"
  attr {
    key: "T"
    value {
      type: DT_RESOURCE
    }
  }
  attr {
    key: "_handle_dtypes"
    value {
      list {
        type: DT_FLOAT
      }
    }
  }
  attr {
    key: "_handle_shapes"
    value {
      list {
        shape {
          dim {
            size: 3
          }
          dim {
            size: 3
          }
          dim {
            size: 256
          }
          dim {
            size: 256
          }
        }
      }
    }
  }
  attr {
    key: "index"
    value {
      i: 127
    }
  }
}
node {
  name: "bn4a_branch2a_cond_input_1"
  op: "_Arg"
  device: "/job:localhost/replica:0/task:0/device:GPU:0"
  attr {
    key: "T"
    value {
      type: DT_RESOURCE
    }
  }
  attr {
    key: "_handle_dtypes"
    value {
      list {
        type: DT_FLOAT
      }
    }
  }
  attr {
    key: "_handle_shapes"
    value {
      list {
        shape {
          dim {
            size: 256
          }
        }
      }
    }
  }
  attr {
    key: "index"
    value {
      i: 124
    }
  }
}
node {
  name: "bn4a_branch2a_cond_input_0"
  op: "_Arg"
  device: "/job:localhost/replica:0/task:0/device:GPU:0"
  attr {
    key: "T"
    value {
      type: DT_RESOURCE
    }
  }
  attr {
    key: "_handle_dtypes"
    value {
      list {
        type: DT_FLOAT
      }
    }
  }
  attr {
    key: "_handle_shapes"
    value {
      list {
        shape {
          dim {
            size: 256
          }
        }
      }
    }
  }
  attr {
    key: "index"
    value {
      i: 123
    }
  }
}
node {
  name: "res4a_branch2a_conv2d_readvariableop_resource"
  op: "_Arg"
  device: "/job:localhost/replica:0/task:0/device:GPU:0"
  attr {
    key: "T"
    value {
      type: DT_RESOURCE
    }
  }
  attr {
    key: "_handle_dtypes"
    value {
      list {
        type: DT_FLOAT
      }
    }
  }
  attr {
    key: "_handle_shapes"
    value {
      list {
        shape {
          dim {
            size: 1
          }
          dim {
            size: 1
          }
          dim {
            size: 512
          }
          dim {
            size: 256
          }
        }
      }
    }
  }
  attr {
    key: "index"
    value {
      i: 122
    }
  }
}
node {
  name: "bn4b_branch2c_cond_input_1"
  op: "_Arg"
  device: "/job:localhost/replica:0/task:0/device:GPU:0"
  attr {
    key: "T"
    value {
      type: DT_RESOURCE
    }
  }
  attr {
    key: "_handle_dtypes"
    value {
      list {
        type: DT_FLOAT
      }
    }
  }
  attr {
    key: "_handle_shapes"
    value {
      list {
        shape {
          dim {
            size: 1024
          }
        }
      }
    }
  }
  attr {
    key: "index"
    value {
      i: 154
    }
  }
}
node {
  name: "bn4b_branch2c_cond_input_0"
  op: "_Arg"
  device: "/job:localhost/replica:0/task:0/device:GPU:0"
  attr {
    key: "T"
    value {
      type: DT_RESOURCE
    }
  }
  attr {
    key: "_handle_dtypes"
    value {
      list {
        type: DT_FLOAT
      }
    }
  }
  attr {
    key: "_handle_shapes"
    value {
      list {
        shape {
          dim {
            size: 1024
          }
        }
      }
    }
  }
  attr {
    key: "index"
    value {
      i: 153
    }
  }
}
node {
  name: "res4b_branch2c_conv2d_readvariableop_resource"
  op: "_Arg"
  device: "/job:localhost/replica:0/task:0/device:GPU:0"
  attr {
    key: "T"
    value {
      type: DT_RESOURCE
    }
  }
  attr {
    key: "_handle_dtypes"
    value {
      list {
        type: DT_FLOAT
      }
    }
  }
  attr {
    key: "_handle_shapes"
    value {
      list {
        shape {
          dim {
            size: 1
          }
          dim {
            size: 1
          }
          dim {
            size: 256
          }
          dim {
            size: 1024
          }
        }
      }
    }
  }
  attr {
    key: "index"
    value {
      i: 152
    }
  }
}
node {
  name: "bn4b_branch2b_cond_input_1"
  op: "_Arg"
  device: "/job:localhost/replica:0/task:0/device:GPU:0"
  attr {
    key: "T"
    value {
      type: DT_RESOURCE
    }
  }
  attr {
    key: "_handle_dtypes"
    value {
      list {
        type: DT_FLOAT
      }
    }
  }
  attr {
    key: "_handle_shapes"
    value {
      list {
        shape {
          dim {
            size: 256
          }
        }
      }
    }
  }
  attr {
    key: "index"
    value {
      i: 149
    }
  }
}
node {
  name: "bn4b_branch2b_cond_input_0"
  op: "_Arg"
  device: "/job:localhost/replica:0/task:0/device:GPU:0"
  attr {
    key: "T"
    value {
      type: DT_RESOURCE
    }
  }
  attr {
    key: "_handle_dtypes"
    value {
      list {
        type: DT_FLOAT
      }
    }
  }
  attr {
    key: "_handle_shapes"
    value {
      list {
        shape {
          dim {
            size: 256
          }
        }
      }
    }
  }
  attr {
    key: "index"
    value {
      i: 148
    }
  }
}
node {
  name: "res4b_branch2b_conv2d_readvariableop_resource"
  op: "_Arg"
  device: "/job:localhost/replica:0/task:0/device:GPU:0"
  attr {
    key: "T"
    value {
      type: DT_RESOURCE
    }
  }
  attr {
    key: "_handle_dtypes"
    value {
      list {
        type: DT_FLOAT
      }
    }
  }
  attr {
    key: "_handle_shapes"
    value {
      list {
        shape {
          dim {
            size: 3
          }
          dim {
            size: 3
          }
          dim {
            size: 256
          }
          dim {
            size: 256
          }
        }
      }
    }
  }
  attr {
    key: "index"
    value {
      i: 147
    }
  }
}
node {
  name: "bn4b_branch2a_cond_input_1"
  op: "_Arg"
  device: "/job:localhost/replica:0/task:0/device:GPU:0"
  attr {
    key: "T"
    value {
      type: DT_RESOURCE
    }
  }
  attr {
    key: "_handle_dtypes"
    value {
      list {
        type: DT_FLOAT
      }
    }
  }
  attr {
    key: "_handle_shapes"
    value {
      list {
        shape {
          dim {
            size: 256
          }
        }
      }
    }
  }
  attr {
    key: "index"
    value {
      i: 144
    }
  }
}
node {
  name: "bn4b_branch2a_cond_input_0"
  op: "_Arg"
  device: "/job:localhost/replica:0/task:0/device:GPU:0"
  attr {
    key: "T"
    value {
      type: DT_RESOURCE
    }
  }
  attr {
    key: "_handle_dtypes"
    value {
      list {
        type: DT_FLOAT
      }
    }
  }
  attr {
    key: "_handle_shapes"
    value {
      list {
        shape {
          dim {
            size: 256
          }
        }
      }
    }
  }
  attr {
    key: "index"
    value {
      i: 143
    }
  }
}
node {
  name: "res4b_branch2a_conv2d_readvariableop_resource"
  op: "_Arg"
  device: "/job:localhost/replica:0/task:0/device:GPU:0"
  attr {
    key: "T"
    value {
      type: DT_RESOURCE
    }
  }
  attr {
    key: "_handle_dtypes"
    value {
      list {
        type: DT_FLOAT
      }
    }
  }
  attr {
    key: "_handle_shapes"
    value {
      list {
        shape {
          dim {
            size: 1
          }
          dim {
            size: 1
          }
          dim {
            size: 1024
          }
          dim {
            size: 256
          }
        }
      }
    }
  }
  attr {
    key: "index"
    value {
      i: 142
    }
  }
}
node {
  name: "bn4c_branch2c_cond_input_1"
  op: "_Arg"
  device: "/job:localhost/replica:0/task:0/device:GPU:0"
  attr {
    key: "T"
    value {
      type: DT_RESOURCE
    }
  }
  attr {
    key: "_handle_dtypes"
    value {
      list {
        type: DT_FLOAT
      }
    }
  }
  attr {
    key: "_handle_shapes"
    value {
      list {
        shape {
          dim {
            size: 1024
          }
        }
      }
    }
  }
  attr {
    key: "index"
    value {
      i: 169
    }
  }
}
node {
  name: "bn4c_branch2c_cond_input_0"
  op: "_Arg"
  device: "/job:localhost/replica:0/task:0/device:GPU:0"
  attr {
    key: "T"
    value {
      type: DT_RESOURCE
    }
  }
  attr {
    key: "_handle_dtypes"
    value {
      list {
        type: DT_FLOAT
      }
    }
  }
  attr {
    key: "_handle_shapes"
    value {
      list {
        shape {
          dim {
            size: 1024
          }
        }
      }
    }
  }
  attr {
    key: "index"
    value {
      i: 168
    }
  }
}
node {
  name: "res4c_branch2c_conv2d_readvariableop_resource"
  op: "_Arg"
  device: "/job:localhost/replica:0/task:0/device:GPU:0"
  attr {
    key: "T"
    value {
      type: DT_RESOURCE
    }
  }
  attr {
    key: "_handle_dtypes"
    value {
      list {
        type: DT_FLOAT
      }
    }
  }
  attr {
    key: "_handle_shapes"
    value {
      list {
        shape {
          dim {
            size: 1
          }
          dim {
            size: 1
          }
          dim {
            size: 256
          }
          dim {
            size: 1024
          }
        }
      }
    }
  }
  attr {
    key: "index"
    value {
      i: 167
    }
  }
}
node {
  name: "bn4c_branch2b_cond_input_1"
  op: "_Arg"
  device: "/job:localhost/replica:0/task:0/device:GPU:0"
  attr {
    key: "T"
    value {
      type: DT_RESOURCE
    }
  }
  attr {
    key: "_handle_dtypes"
    value {
      list {
        type: DT_FLOAT
      }
    }
  }
  attr {
    key: "_handle_shapes"
    value {
      list {
        shape {
          dim {
            size: 256
          }
        }
      }
    }
  }
  attr {
    key: "index"
    value {
      i: 164
    }
  }
}
node {
  name: "bn4c_branch2b_cond_input_0"
  op: "_Arg"
  device: "/job:localhost/replica:0/task:0/device:GPU:0"
  attr {
    key: "T"
    value {
      type: DT_RESOURCE
    }
  }
  attr {
    key: "_handle_dtypes"
    value {
      list {
        type: DT_FLOAT
      }
    }
  }
  attr {
    key: "_handle_shapes"
    value {
      list {
        shape {
          dim {
            size: 256
          }
        }
      }
    }
  }
  attr {
    key: "index"
    value {
      i: 163
    }
  }
}
node {
  name: "res4c_branch2b_conv2d_readvariableop_resource"
  op: "_Arg"
  device: "/job:localhost/replica:0/task:0/device:GPU:0"
  attr {
    key: "T"
    value {
      type: DT_RESOURCE
    }
  }
  attr {
    key: "_handle_dtypes"
    value {
      list {
        type: DT_FLOAT
      }
    }
  }
  attr {
    key: "_handle_shapes"
    value {
      list {
        shape {
          dim {
            size: 3
          }
          dim {
            size: 3
          }
          dim {
            size: 256
          }
          dim {
            size: 256
          }
        }
      }
    }
  }
  attr {
    key: "index"
    value {
      i: 162
    }
  }
}
node {
  name: "bn4c_branch2a_cond_input_1"
  op: "_Arg"
  device: "/job:localhost/replica:0/task:0/device:GPU:0"
  attr {
    key: "T"
    value {
      type: DT_RESOURCE
    }
  }
  attr {
    key: "_handle_dtypes"
    value {
      list {
        type: DT_FLOAT
      }
    }
  }
  attr {
    key: "_handle_shapes"
    value {
      list {
        shape {
          dim {
            size: 256
          }
        }
      }
    }
  }
  attr {
    key: "index"
    value {
      i: 159
    }
  }
}
node {
  name: "bn4c_branch2a_cond_input_0"
  op: "_Arg"
  device: "/job:localhost/replica:0/task:0/device:GPU:0"
  attr {
    key: "T"
    value {
      type: DT_RESOURCE
    }
  }
  attr {
    key: "_handle_dtypes"
    value {
      list {
        type: DT_FLOAT
      }
    }
  }
  attr {
    key: "_handle_shapes"
    value {
      list {
        shape {
          dim {
            size: 256
          }
        }
      }
    }
  }
  attr {
    key: "index"
    value {
      i: 158
    }
  }
}
node {
  name: "res4c_branch2a_conv2d_readvariableop_resource"
  op: "_Arg"
  device: "/job:localhost/replica:0/task:0/device:GPU:0"
  attr {
    key: "T"
    value {
      type: DT_RESOURCE
    }
  }
  attr {
    key: "_handle_dtypes"
    value {
      list {
        type: DT_FLOAT
      }
    }
  }
  attr {
    key: "_handle_shapes"
    value {
      list {
        shape {
          dim {
            size: 1
          }
          dim {
            size: 1
          }
          dim {
            size: 1024
          }
          dim {
            size: 256
          }
        }
      }
    }
  }
  attr {
    key: "index"
    value {
      i: 157
    }
  }
}
node {
  name: "bn4d_branch2c_cond_input_1"
  op: "_Arg"
  device: "/job:localhost/replica:0/task:0/device:GPU:0"
  attr {
    key: "T"
    value {
      type: DT_RESOURCE
    }
  }
  attr {
    key: "_handle_dtypes"
    value {
      list {
        type: DT_FLOAT
      }
    }
  }
  attr {
    key: "_handle_shapes"
    value {
      list {
        shape {
          dim {
            size: 1024
          }
        }
      }
    }
  }
  attr {
    key: "index"
    value {
      i: 184
    }
  }
}
node {
  name: "bn4d_branch2c_cond_input_0"
  op: "_Arg"
  device: "/job:localhost/replica:0/task:0/device:GPU:0"
  attr {
    key: "T"
    value {
      type: DT_RESOURCE
    }
  }
  attr {
    key: "_handle_dtypes"
    value {
      list {
        type: DT_FLOAT
      }
    }
  }
  attr {
    key: "_handle_shapes"
    value {
      list {
        shape {
          dim {
            size: 1024
          }
        }
      }
    }
  }
  attr {
    key: "index"
    value {
      i: 183
    }
  }
}
node {
  name: "res4d_branch2c_conv2d_readvariableop_resource"
  op: "_Arg"
  device: "/job:localhost/replica:0/task:0/device:GPU:0"
  attr {
    key: "T"
    value {
      type: DT_RESOURCE
    }
  }
  attr {
    key: "_handle_dtypes"
    value {
      list {
        type: DT_FLOAT
      }
    }
  }
  attr {
    key: "_handle_shapes"
    value {
      list {
        shape {
          dim {
            size: 1
          }
          dim {
            size: 1
          }
          dim {
            size: 256
          }
          dim {
            size: 1024
          }
        }
      }
    }
  }
  attr {
    key: "index"
    value {
      i: 182
    }
  }
}
node {
  name: "bn4d_branch2b_cond_input_1"
  op: "_Arg"
  device: "/job:localhost/replica:0/task:0/device:GPU:0"
  attr {
    key: "T"
    value {
      type: DT_RESOURCE
    }
  }
  attr {
    key: "_handle_dtypes"
    value {
      list {
        type: DT_FLOAT
      }
    }
  }
  attr {
    key: "_handle_shapes"
    value {
      list {
        shape {
          dim {
            size: 256
          }
        }
      }
    }
  }
  attr {
    key: "index"
    value {
      i: 179
    }
  }
}
node {
  name: "bn4d_branch2b_cond_input_0"
  op: "_Arg"
  device: "/job:localhost/replica:0/task:0/device:GPU:0"
  attr {
    key: "T"
    value {
      type: DT_RESOURCE
    }
  }
  attr {
    key: "_handle_dtypes"
    value {
      list {
        type: DT_FLOAT
      }
    }
  }
  attr {
    key: "_handle_shapes"
    value {
      list {
        shape {
          dim {
            size: 256
          }
        }
      }
    }
  }
  attr {
    key: "index"
    value {
      i: 178
    }
  }
}
node {
  name: "res4d_branch2b_conv2d_readvariableop_resource"
  op: "_Arg"
  device: "/job:localhost/replica:0/task:0/device:GPU:0"
  attr {
    key: "T"
    value {
      type: DT_RESOURCE
    }
  }
  attr {
    key: "_handle_dtypes"
    value {
      list {
        type: DT_FLOAT
      }
    }
  }
  attr {
    key: "_handle_shapes"
    value {
      list {
        shape {
          dim {
            size: 3
          }
          dim {
            size: 3
          }
          dim {
            size: 256
          }
          dim {
            size: 256
          }
        }
      }
    }
  }
  attr {
    key: "index"
    value {
      i: 177
    }
  }
}
node {
  name: "bn4d_branch2a_cond_input_1"
  op: "_Arg"
  device: "/job:localhost/replica:0/task:0/device:GPU:0"
  attr {
    key: "T"
    value {
      type: DT_RESOURCE
    }
  }
  attr {
    key: "_handle_dtypes"
    value {
      list {
        type: DT_FLOAT
      }
    }
  }
  attr {
    key: "_handle_shapes"
    value {
      list {
        shape {
          dim {
            size: 256
          }
        }
      }
    }
  }
  attr {
    key: "index"
    value {
      i: 174
    }
  }
}
node {
  name: "bn4d_branch2a_cond_input_0"
  op: "_Arg"
  device: "/job:localhost/replica:0/task:0/device:GPU:0"
  attr {
    key: "T"
    value {
      type: DT_RESOURCE
    }
  }
  attr {
    key: "_handle_dtypes"
    value {
      list {
        type: DT_FLOAT
      }
    }
  }
  attr {
    key: "_handle_shapes"
    value {
      list {
        shape {
          dim {
            size: 256
          }
        }
      }
    }
  }
  attr {
    key: "index"
    value {
      i: 173
    }
  }
}
node {
  name: "res4d_branch2a_conv2d_readvariableop_resource"
  op: "_Arg"
  device: "/job:localhost/replica:0/task:0/device:GPU:0"
  attr {
    key: "T"
    value {
      type: DT_RESOURCE
    }
  }
  attr {
    key: "_handle_dtypes"
    value {
      list {
        type: DT_FLOAT
      }
    }
  }
  attr {
    key: "_handle_shapes"
    value {
      list {
        shape {
          dim {
            size: 1
          }
          dim {
            size: 1
          }
          dim {
            size: 1024
          }
          dim {
            size: 256
          }
        }
      }
    }
  }
  attr {
    key: "index"
    value {
      i: 172
    }
  }
}
node {
  name: "bn4e_branch2c_cond_input_1"
  op: "_Arg"
  device: "/job:localhost/replica:0/task:0/device:GPU:0"
  attr {
    key: "T"
    value {
      type: DT_RESOURCE
    }
  }
  attr {
    key: "_handle_dtypes"
    value {
      list {
        type: DT_FLOAT
      }
    }
  }
  attr {
    key: "_handle_shapes"
    value {
      list {
        shape {
          dim {
            size: 1024
          }
        }
      }
    }
  }
  attr {
    key: "index"
    value {
      i: 199
    }
  }
}
node {
  name: "bn4e_branch2c_cond_input_0"
  op: "_Arg"
  device: "/job:localhost/replica:0/task:0/device:GPU:0"
  attr {
    key: "T"
    value {
      type: DT_RESOURCE
    }
  }
  attr {
    key: "_handle_dtypes"
    value {
      list {
        type: DT_FLOAT
      }
    }
  }
  attr {
    key: "_handle_shapes"
    value {
      list {
        shape {
          dim {
            size: 1024
          }
        }
      }
    }
  }
  attr {
    key: "index"
    value {
      i: 198
    }
  }
}
node {
  name: "res4e_branch2c_conv2d_readvariableop_resource"
  op: "_Arg"
  device: "/job:localhost/replica:0/task:0/device:GPU:0"
  attr {
    key: "T"
    value {
      type: DT_RESOURCE
    }
  }
  attr {
    key: "_handle_dtypes"
    value {
      list {
        type: DT_FLOAT
      }
    }
  }
  attr {
    key: "_handle_shapes"
    value {
      list {
        shape {
          dim {
            size: 1
          }
          dim {
            size: 1
          }
          dim {
            size: 256
          }
          dim {
            size: 1024
          }
        }
      }
    }
  }
  attr {
    key: "index"
    value {
      i: 197
    }
  }
}
node {
  name: "bn4e_branch2b_cond_input_1"
  op: "_Arg"
  device: "/job:localhost/replica:0/task:0/device:GPU:0"
  attr {
    key: "T"
    value {
      type: DT_RESOURCE
    }
  }
  attr {
    key: "_handle_dtypes"
    value {
      list {
        type: DT_FLOAT
      }
    }
  }
  attr {
    key: "_handle_shapes"
    value {
      list {
        shape {
          dim {
            size: 256
          }
        }
      }
    }
  }
  attr {
    key: "index"
    value {
      i: 194
    }
  }
}
node {
  name: "bn4e_branch2b_cond_input_0"
  op: "_Arg"
  device: "/job:localhost/replica:0/task:0/device:GPU:0"
  attr {
    key: "T"
    value {
      type: DT_RESOURCE
    }
  }
  attr {
    key: "_handle_dtypes"
    value {
      list {
        type: DT_FLOAT
      }
    }
  }
  attr {
    key: "_handle_shapes"
    value {
      list {
        shape {
          dim {
            size: 256
          }
        }
      }
    }
  }
  attr {
    key: "index"
    value {
      i: 193
    }
  }
}
node {
  name: "res4e_branch2b_conv2d_readvariableop_resource"
  op: "_Arg"
  device: "/job:localhost/replica:0/task:0/device:GPU:0"
  attr {
    key: "T"
    value {
      type: DT_RESOURCE
    }
  }
  attr {
    key: "_handle_dtypes"
    value {
      list {
        type: DT_FLOAT
      }
    }
  }
  attr {
    key: "_handle_shapes"
    value {
      list {
        shape {
          dim {
            size: 3
          }
          dim {
            size: 3
          }
          dim {
            size: 256
          }
          dim {
            size: 256
          }
        }
      }
    }
  }
  attr {
    key: "index"
    value {
      i: 192
    }
  }
}
node {
  name: "bn4e_branch2a_cond_input_1"
  op: "_Arg"
  device: "/job:localhost/replica:0/task:0/device:GPU:0"
  attr {
    key: "T"
    value {
      type: DT_RESOURCE
    }
  }
  attr {
    key: "_handle_dtypes"
    value {
      list {
        type: DT_FLOAT
      }
    }
  }
  attr {
    key: "_handle_shapes"
    value {
      list {
        shape {
          dim {
            size: 256
          }
        }
      }
    }
  }
  attr {
    key: "index"
    value {
      i: 189
    }
  }
}
node {
  name: "bn4e_branch2a_cond_input_0"
  op: "_Arg"
  device: "/job:localhost/replica:0/task:0/device:GPU:0"
  attr {
    key: "T"
    value {
      type: DT_RESOURCE
    }
  }
  attr {
    key: "_handle_dtypes"
    value {
      list {
        type: DT_FLOAT
      }
    }
  }
  attr {
    key: "_handle_shapes"
    value {
      list {
        shape {
          dim {
            size: 256
          }
        }
      }
    }
  }
  attr {
    key: "index"
    value {
      i: 188
    }
  }
}
node {
  name: "res4e_branch2a_conv2d_readvariableop_resource"
  op: "_Arg"
  device: "/job:localhost/replica:0/task:0/device:GPU:0"
  attr {
    key: "T"
    value {
      type: DT_RESOURCE
    }
  }
  attr {
    key: "_handle_dtypes"
    value {
      list {
        type: DT_FLOAT
      }
    }
  }
  attr {
    key: "_handle_shapes"
    value {
      list {
        shape {
          dim {
            size: 1
          }
          dim {
            size: 1
          }
          dim {
            size: 1024
          }
          dim {
            size: 256
          }
        }
      }
    }
  }
  attr {
    key: "index"
    value {
      i: 187
    }
  }
}
node {
  name: "bn4f_branch2c_cond_input_1"
  op: "_Arg"
  device: "/job:localhost/replica:0/task:0/device:GPU:0"
  attr {
    key: "T"
    value {
      type: DT_RESOURCE
    }
  }
  attr {
    key: "_handle_dtypes"
    value {
      list {
        type: DT_FLOAT
      }
    }
  }
  attr {
    key: "_handle_shapes"
    value {
      list {
        shape {
          dim {
            size: 1024
          }
        }
      }
    }
  }
  attr {
    key: "index"
    value {
      i: 214
    }
  }
}
node {
  name: "bn4f_branch2c_cond_input_0"
  op: "_Arg"
  device: "/job:localhost/replica:0/task:0/device:GPU:0"
  attr {
    key: "T"
    value {
      type: DT_RESOURCE
    }
  }
  attr {
    key: "_handle_dtypes"
    value {
      list {
        type: DT_FLOAT
      }
    }
  }
  attr {
    key: "_handle_shapes"
    value {
      list {
        shape {
          dim {
            size: 1024
          }
        }
      }
    }
  }
  attr {
    key: "index"
    value {
      i: 213
    }
  }
}
node {
  name: "res4f_branch2c_conv2d_readvariableop_resource"
  op: "_Arg"
  device: "/job:localhost/replica:0/task:0/device:GPU:0"
  attr {
    key: "T"
    value {
      type: DT_RESOURCE
    }
  }
  attr {
    key: "_handle_dtypes"
    value {
      list {
        type: DT_FLOAT
      }
    }
  }
  attr {
    key: "_handle_shapes"
    value {
      list {
        shape {
          dim {
            size: 1
          }
          dim {
            size: 1
          }
          dim {
            size: 256
          }
          dim {
            size: 1024
          }
        }
      }
    }
  }
  attr {
    key: "index"
    value {
      i: 212
    }
  }
}
node {
  name: "bn4f_branch2b_cond_input_1"
  op: "_Arg"
  device: "/job:localhost/replica:0/task:0/device:GPU:0"
  attr {
    key: "T"
    value {
      type: DT_RESOURCE
    }
  }
  attr {
    key: "_handle_dtypes"
    value {
      list {
        type: DT_FLOAT
      }
    }
  }
  attr {
    key: "_handle_shapes"
    value {
      list {
        shape {
          dim {
            size: 256
          }
        }
      }
    }
  }
  attr {
    key: "index"
    value {
      i: 209
    }
  }
}
node {
  name: "bn4f_branch2b_cond_input_0"
  op: "_Arg"
  device: "/job:localhost/replica:0/task:0/device:GPU:0"
  attr {
    key: "T"
    value {
      type: DT_RESOURCE
    }
  }
  attr {
    key: "_handle_dtypes"
    value {
      list {
        type: DT_FLOAT
      }
    }
  }
  attr {
    key: "_handle_shapes"
    value {
      list {
        shape {
          dim {
            size: 256
          }
        }
      }
    }
  }
  attr {
    key: "index"
    value {
      i: 208
    }
  }
}
node {
  name: "res4f_branch2b_conv2d_readvariableop_resource"
  op: "_Arg"
  device: "/job:localhost/replica:0/task:0/device:GPU:0"
  attr {
    key: "T"
    value {
      type: DT_RESOURCE
    }
  }
  attr {
    key: "_handle_dtypes"
    value {
      list {
        type: DT_FLOAT
      }
    }
  }
  attr {
    key: "_handle_shapes"
    value {
      list {
        shape {
          dim {
            size: 3
          }
          dim {
            size: 3
          }
          dim {
            size: 256
          }
          dim {
            size: 256
          }
        }
      }
    }
  }
  attr {
    key: "index"
    value {
      i: 207
    }
  }
}
node {
  name: "bn4f_branch2a_cond_input_1"
  op: "_Arg"
  device: "/job:localhost/replica:0/task:0/device:GPU:0"
  attr {
    key: "T"
    value {
      type: DT_RESOURCE
    }
  }
  attr {
    key: "_handle_dtypes"
    value {
      list {
        type: DT_FLOAT
      }
    }
  }
  attr {
    key: "_handle_shapes"
    value {
      list {
        shape {
          dim {
            size: 256
          }
        }
      }
    }
  }
  attr {
    key: "index"
    value {
      i: 204
    }
  }
}
node {
  name: "bn4f_branch2a_cond_input_0"
  op: "_Arg"
  device: "/job:localhost/replica:0/task:0/device:GPU:0"
  attr {
    key: "T"
    value {
      type: DT_RESOURCE
    }
  }
  attr {
    key: "_handle_dtypes"
    value {
      list {
        type: DT_FLOAT
      }
    }
  }
  attr {
    key: "_handle_shapes"
    value {
      list {
        shape {
          dim {
            size: 256
          }
        }
      }
    }
  }
  attr {
    key: "index"
    value {
      i: 203
    }
  }
}
node {
  name: "res4f_branch2a_conv2d_readvariableop_resource"
  op: "_Arg"
  device: "/job:localhost/replica:0/task:0/device:GPU:0"
  attr {
    key: "T"
    value {
      type: DT_RESOURCE
    }
  }
  attr {
    key: "_handle_dtypes"
    value {
      list {
        type: DT_FLOAT
      }
    }
  }
  attr {
    key: "_handle_shapes"
    value {
      list {
        shape {
          dim {
            size: 1
          }
          dim {
            size: 1
          }
          dim {
            size: 1024
          }
          dim {
            size: 256
          }
        }
      }
    }
  }
  attr {
    key: "index"
    value {
      i: 202
    }
  }
}
node {
  name: "bn5a_branch2c_cond_input_1"
  op: "_Arg"
  device: "/job:localhost/replica:0/task:0/device:GPU:0"
  attr {
    key: "T"
    value {
      type: DT_RESOURCE
    }
  }
  attr {
    key: "_handle_dtypes"
    value {
      list {
        type: DT_FLOAT
      }
    }
  }
  attr {
    key: "_handle_shapes"
    value {
      list {
        shape {
          dim {
            size: 2048
          }
        }
      }
    }
  }
  attr {
    key: "index"
    value {
      i: 229
    }
  }
}
node {
  name: "bn5a_branch2c_cond_input_0"
  op: "_Arg"
  device: "/job:localhost/replica:0/task:0/device:GPU:0"
  attr {
    key: "T"
    value {
      type: DT_RESOURCE
    }
  }
  attr {
    key: "_handle_dtypes"
    value {
      list {
        type: DT_FLOAT
      }
    }
  }
  attr {
    key: "_handle_shapes"
    value {
      list {
        shape {
          dim {
            size: 2048
          }
        }
      }
    }
  }
  attr {
    key: "index"
    value {
      i: 228
    }
  }
}
node {
  name: "res5a_branch2c_conv2d_readvariableop_resource"
  op: "_Arg"
  device: "/job:localhost/replica:0/task:0/device:GPU:0"
  attr {
    key: "T"
    value {
      type: DT_RESOURCE
    }
  }
  attr {
    key: "_handle_dtypes"
    value {
      list {
        type: DT_FLOAT
      }
    }
  }
  attr {
    key: "_handle_shapes"
    value {
      list {
        shape {
          dim {
            size: 1
          }
          dim {
            size: 1
          }
          dim {
            size: 512
          }
          dim {
            size: 2048
          }
        }
      }
    }
  }
  attr {
    key: "index"
    value {
      i: 227
    }
  }
}
node {
  name: "bn5a_branch2b_cond_input_1"
  op: "_Arg"
  device: "/job:localhost/replica:0/task:0/device:GPU:0"
  attr {
    key: "T"
    value {
      type: DT_RESOURCE
    }
  }
  attr {
    key: "_handle_dtypes"
    value {
      list {
        type: DT_FLOAT
      }
    }
  }
  attr {
    key: "_handle_shapes"
    value {
      list {
        shape {
          dim {
            size: 512
          }
        }
      }
    }
  }
  attr {
    key: "index"
    value {
      i: 224
    }
  }
}
node {
  name: "bn5a_branch2b_cond_input_0"
  op: "_Arg"
  device: "/job:localhost/replica:0/task:0/device:GPU:0"
  attr {
    key: "T"
    value {
      type: DT_RESOURCE
    }
  }
  attr {
    key: "_handle_dtypes"
    value {
      list {
        type: DT_FLOAT
      }
    }
  }
  attr {
    key: "_handle_shapes"
    value {
      list {
        shape {
          dim {
            size: 512
          }
        }
      }
    }
  }
  attr {
    key: "index"
    value {
      i: 223
    }
  }
}
node {
  name: "res5a_branch2b_conv2d_readvariableop_resource"
  op: "_Arg"
  device: "/job:localhost/replica:0/task:0/device:GPU:0"
  attr {
    key: "T"
    value {
      type: DT_RESOURCE
    }
  }
  attr {
    key: "_handle_dtypes"
    value {
      list {
        type: DT_FLOAT
      }
    }
  }
  attr {
    key: "_handle_shapes"
    value {
      list {
        shape {
          dim {
            size: 3
          }
          dim {
            size: 3
          }
          dim {
            size: 512
          }
          dim {
            size: 512
          }
        }
      }
    }
  }
  attr {
    key: "index"
    value {
      i: 222
    }
  }
}
node {
  name: "bn5a_branch2a_cond_input_1"
  op: "_Arg"
  device: "/job:localhost/replica:0/task:0/device:GPU:0"
  attr {
    key: "T"
    value {
      type: DT_RESOURCE
    }
  }
  attr {
    key: "_handle_dtypes"
    value {
      list {
        type: DT_FLOAT
      }
    }
  }
  attr {
    key: "_handle_shapes"
    value {
      list {
        shape {
          dim {
            size: 512
          }
        }
      }
    }
  }
  attr {
    key: "index"
    value {
      i: 219
    }
  }
}
node {
  name: "bn5a_branch2a_cond_input_0"
  op: "_Arg"
  device: "/job:localhost/replica:0/task:0/device:GPU:0"
  attr {
    key: "T"
    value {
      type: DT_RESOURCE
    }
  }
  attr {
    key: "_handle_dtypes"
    value {
      list {
        type: DT_FLOAT
      }
    }
  }
  attr {
    key: "_handle_shapes"
    value {
      list {
        shape {
          dim {
            size: 512
          }
        }
      }
    }
  }
  attr {
    key: "index"
    value {
      i: 218
    }
  }
}
node {
  name: "res5a_branch2a_conv2d_readvariableop_resource"
  op: "_Arg"
  device: "/job:localhost/replica:0/task:0/device:GPU:0"
  attr {
    key: "T"
    value {
      type: DT_RESOURCE
    }
  }
  attr {
    key: "_handle_dtypes"
    value {
      list {
        type: DT_FLOAT
      }
    }
  }
  attr {
    key: "_handle_shapes"
    value {
      list {
        shape {
          dim {
            size: 1
          }
          dim {
            size: 1
          }
          dim {
            size: 1024
          }
          dim {
            size: 512
          }
        }
      }
    }
  }
  attr {
    key: "index"
    value {
      i: 217
    }
  }
}
node {
  name: "bn5b_branch2c_cond_input_1"
  op: "_Arg"
  device: "/job:localhost/replica:0/task:0/device:GPU:0"
  attr {
    key: "T"
    value {
      type: DT_RESOURCE
    }
  }
  attr {
    key: "_handle_dtypes"
    value {
      list {
        type: DT_FLOAT
      }
    }
  }
  attr {
    key: "_handle_shapes"
    value {
      list {
        shape {
          dim {
            size: 2048
          }
        }
      }
    }
  }
  attr {
    key: "index"
    value {
      i: 249
    }
  }
}
node {
  name: "bn5b_branch2c_cond_input_0"
  op: "_Arg"
  device: "/job:localhost/replica:0/task:0/device:GPU:0"
  attr {
    key: "T"
    value {
      type: DT_RESOURCE
    }
  }
  attr {
    key: "_handle_dtypes"
    value {
      list {
        type: DT_FLOAT
      }
    }
  }
  attr {
    key: "_handle_shapes"
    value {
      list {
        shape {
          dim {
            size: 2048
          }
        }
      }
    }
  }
  attr {
    key: "index"
    value {
      i: 248
    }
  }
}
node {
  name: "res5b_branch2c_conv2d_readvariableop_resource"
  op: "_Arg"
  device: "/job:localhost/replica:0/task:0/device:GPU:0"
  attr {
    key: "T"
    value {
      type: DT_RESOURCE
    }
  }
  attr {
    key: "_handle_dtypes"
    value {
      list {
        type: DT_FLOAT
      }
    }
  }
  attr {
    key: "_handle_shapes"
    value {
      list {
        shape {
          dim {
            size: 1
          }
          dim {
            size: 1
          }
          dim {
            size: 512
          }
          dim {
            size: 2048
          }
        }
      }
    }
  }
  attr {
    key: "index"
    value {
      i: 247
    }
  }
}
node {
  name: "bn5b_branch2b_cond_input_1"
  op: "_Arg"
  device: "/job:localhost/replica:0/task:0/device:GPU:0"
  attr {
    key: "T"
    value {
      type: DT_RESOURCE
    }
  }
  attr {
    key: "_handle_dtypes"
    value {
      list {
        type: DT_FLOAT
      }
    }
  }
  attr {
    key: "_handle_shapes"
    value {
      list {
        shape {
          dim {
            size: 512
          }
        }
      }
    }
  }
  attr {
    key: "index"
    value {
      i: 244
    }
  }
}
node {
  name: "bn5b_branch2b_cond_input_0"
  op: "_Arg"
  device: "/job:localhost/replica:0/task:0/device:GPU:0"
  attr {
    key: "T"
    value {
      type: DT_RESOURCE
    }
  }
  attr {
    key: "_handle_dtypes"
    value {
      list {
        type: DT_FLOAT
      }
    }
  }
  attr {
    key: "_handle_shapes"
    value {
      list {
        shape {
          dim {
            size: 512
          }
        }
      }
    }
  }
  attr {
    key: "index"
    value {
      i: 243
    }
  }
}
node {
  name: "res5b_branch2b_conv2d_readvariableop_resource"
  op: "_Arg"
  device: "/job:localhost/replica:0/task:0/device:GPU:0"
  attr {
    key: "T"
    value {
      type: DT_RESOURCE
    }
  }
  attr {
    key: "_handle_dtypes"
    value {
      list {
        type: DT_FLOAT
      }
    }
  }
  attr {
    key: "_handle_shapes"
    value {
      list {
        shape {
          dim {
            size: 3
          }
          dim {
            size: 3
          }
          dim {
            size: 512
          }
          dim {
            size: 512
          }
        }
      }
    }
  }
  attr {
    key: "index"
    value {
      i: 242
    }
  }
}
node {
  name: "bn5b_branch2a_cond_input_1"
  op: "_Arg"
  device: "/job:localhost/replica:0/task:0/device:GPU:0"
  attr {
    key: "T"
    value {
      type: DT_RESOURCE
    }
  }
  attr {
    key: "_handle_dtypes"
    value {
      list {
        type: DT_FLOAT
      }
    }
  }
  attr {
    key: "_handle_shapes"
    value {
      list {
        shape {
          dim {
            size: 512
          }
        }
      }
    }
  }
  attr {
    key: "index"
    value {
      i: 239
    }
  }
}
node {
  name: "bn5b_branch2a_cond_input_0"
  op: "_Arg"
  device: "/job:localhost/replica:0/task:0/device:GPU:0"
  attr {
    key: "T"
    value {
      type: DT_RESOURCE
    }
  }
  attr {
    key: "_handle_dtypes"
    value {
      list {
        type: DT_FLOAT
      }
    }
  }
  attr {
    key: "_handle_shapes"
    value {
      list {
        shape {
          dim {
            size: 512
          }
        }
      }
    }
  }
  attr {
    key: "index"
    value {
      i: 238
    }
  }
}
node {
  name: "res5b_branch2a_conv2d_readvariableop_resource"
  op: "_Arg"
  device: "/job:localhost/replica:0/task:0/device:GPU:0"
  attr {
    key: "T"
    value {
      type: DT_RESOURCE
    }
  }
  attr {
    key: "_handle_dtypes"
    value {
      list {
        type: DT_FLOAT
      }
    }
  }
  attr {
    key: "_handle_shapes"
    value {
      list {
        shape {
          dim {
            size: 1
          }
          dim {
            size: 1
          }
          dim {
            size: 2048
          }
          dim {
            size: 512
          }
        }
      }
    }
  }
  attr {
    key: "index"
    value {
      i: 237
    }
  }
}
node {
  name: "bn5c_branch2c_cond_input_1"
  op: "_Arg"
  device: "/job:localhost/replica:0/task:0/device:GPU:0"
  attr {
    key: "T"
    value {
      type: DT_RESOURCE
    }
  }
  attr {
    key: "_handle_dtypes"
    value {
      list {
        type: DT_FLOAT
      }
    }
  }
  attr {
    key: "_handle_shapes"
    value {
      list {
        shape {
          dim {
            size: 2048
          }
        }
      }
    }
  }
  attr {
    key: "index"
    value {
      i: 264
    }
  }
}
node {
  name: "bn5c_branch2c_cond_input_0"
  op: "_Arg"
  device: "/job:localhost/replica:0/task:0/device:GPU:0"
  attr {
    key: "T"
    value {
      type: DT_RESOURCE
    }
  }
  attr {
    key: "_handle_dtypes"
    value {
      list {
        type: DT_FLOAT
      }
    }
  }
  attr {
    key: "_handle_shapes"
    value {
      list {
        shape {
          dim {
            size: 2048
          }
        }
      }
    }
  }
  attr {
    key: "index"
    value {
      i: 263
    }
  }
}
node {
  name: "res5c_branch2c_conv2d_readvariableop_resource"
  op: "_Arg"
  device: "/job:localhost/replica:0/task:0/device:GPU:0"
  attr {
    key: "T"
    value {
      type: DT_RESOURCE
    }
  }
  attr {
    key: "_handle_dtypes"
    value {
      list {
        type: DT_FLOAT
      }
    }
  }
  attr {
    key: "_handle_shapes"
    value {
      list {
        shape {
          dim {
            size: 1
          }
          dim {
            size: 1
          }
          dim {
            size: 512
          }
          dim {
            size: 2048
          }
        }
      }
    }
  }
  attr {
    key: "index"
    value {
      i: 262
    }
  }
}
node {
  name: "bn5c_branch2b_cond_input_1"
  op: "_Arg"
  device: "/job:localhost/replica:0/task:0/device:GPU:0"
  attr {
    key: "T"
    value {
      type: DT_RESOURCE
    }
  }
  attr {
    key: "_handle_dtypes"
    value {
      list {
        type: DT_FLOAT
      }
    }
  }
  attr {
    key: "_handle_shapes"
    value {
      list {
        shape {
          dim {
            size: 512
          }
        }
      }
    }
  }
  attr {
    key: "index"
    value {
      i: 259
    }
  }
}
node {
  name: "bn5c_branch2b_cond_input_0"
  op: "_Arg"
  device: "/job:localhost/replica:0/task:0/device:GPU:0"
  attr {
    key: "T"
    value {
      type: DT_RESOURCE
    }
  }
  attr {
    key: "_handle_dtypes"
    value {
      list {
        type: DT_FLOAT
      }
    }
  }
  attr {
    key: "_handle_shapes"
    value {
      list {
        shape {
          dim {
            size: 512
          }
        }
      }
    }
  }
  attr {
    key: "index"
    value {
      i: 258
    }
  }
}
node {
  name: "res5c_branch2b_conv2d_readvariableop_resource"
  op: "_Arg"
  device: "/job:localhost/replica:0/task:0/device:GPU:0"
  attr {
    key: "T"
    value {
      type: DT_RESOURCE
    }
  }
  attr {
    key: "_handle_dtypes"
    value {
      list {
        type: DT_FLOAT
      }
    }
  }
  attr {
    key: "_handle_shapes"
    value {
      list {
        shape {
          dim {
            size: 3
          }
          dim {
            size: 3
          }
          dim {
            size: 512
          }
          dim {
            size: 512
          }
        }
      }
    }
  }
  attr {
    key: "index"
    value {
      i: 257
    }
  }
}
node {
  name: "bn5c_branch2a_cond_input_1"
  op: "_Arg"
  device: "/job:localhost/replica:0/task:0/device:GPU:0"
  attr {
    key: "T"
    value {
      type: DT_RESOURCE
    }
  }
  attr {
    key: "_handle_dtypes"
    value {
      list {
        type: DT_FLOAT
      }
    }
  }
  attr {
    key: "_handle_shapes"
    value {
      list {
        shape {
          dim {
            size: 512
          }
        }
      }
    }
  }
  attr {
    key: "index"
    value {
      i: 254
    }
  }
}
node {
  name: "bn5c_branch2a_cond_input_0"
  op: "_Arg"
  device: "/job:localhost/replica:0/task:0/device:GPU:0"
  attr {
    key: "T"
    value {
      type: DT_RESOURCE
    }
  }
  attr {
    key: "_handle_dtypes"
    value {
      list {
        type: DT_FLOAT
      }
    }
  }
  attr {
    key: "_handle_shapes"
    value {
      list {
        shape {
          dim {
            size: 512
          }
        }
      }
    }
  }
  attr {
    key: "index"
    value {
      i: 253
    }
  }
}
node {
  name: "res5c_branch2a_conv2d_readvariableop_resource"
  op: "_Arg"
  device: "/job:localhost/replica:0/task:0/device:GPU:0"
  attr {
    key: "T"
    value {
      type: DT_RESOURCE
    }
  }
  attr {
    key: "_handle_dtypes"
    value {
      list {
        type: DT_FLOAT
      }
    }
  }
  attr {
    key: "_handle_shapes"
    value {
      list {
        shape {
          dim {
            size: 1
          }
          dim {
            size: 1
          }
          dim {
            size: 2048
          }
          dim {
            size: 512
          }
        }
      }
    }
  }
  attr {
    key: "index"
    value {
      i: 252
    }
  }
}
node {
  name: "activation_49_target_1"
  op: "_Arg"
  device: "/job:localhost/replica:0/task:0/device:GPU:0"
  attr {
    key: "T"
    value {
      type: DT_FLOAT
    }
  }
  attr {
    key: "index"
    value {
      i: 1
    }
  }
}
node {
  name: "metrics_2_sparse_categorical_accuracy_assignaddvariableop_resource"
  op: "_Arg"
  device: "/job:localhost/replica:0/task:0/device:GPU:0"
  attr {
    key: "T"
    value {
      type: DT_RESOURCE
    }
  }
  attr {
    key: "_handle_dtypes"
    value {
      list {
        type: DT_FLOAT
      }
    }
  }
  attr {
    key: "_handle_shapes"
    value {
      list {
        shape {
        }
      }
    }
  }
  attr {
    key: "index"
    value {
      i: 269
    }
  }
}
node {
  name: "metrics_2_sparse_categorical_accuracy_assignaddvariableop_1_resource"
  op: "_Arg"
  device: "/job:localhost/replica:0/task:0/device:GPU:0"
  attr {
    key: "T"
    value {
      type: DT_RESOURCE
    }
  }
  attr {
    key: "_handle_dtypes"
    value {
      list {
        type: DT_FLOAT
      }
    }
  }
  attr {
    key: "_handle_shapes"
    value {
      list {
        shape {
        }
      }
    }
  }
  attr {
    key: "index"
    value {
      i: 270
    }
  }
}
node {
  name: "training_lossscaleoptimizer_sgd_update_resourceapplykerasmomentum_readvariableop_1_resource"
  op: "_Arg"
  device: "/job:localhost/replica:0/task:0/device:GPU:0"
  attr {
    key: "T"
    value {
      type: DT_RESOURCE
    }
  }
  attr {
    key: "_handle_dtypes"
    value {
      list {
        type: DT_FLOAT
      }
    }
  }
  attr {
    key: "_handle_shapes"
    value {
      list {
        shape {
        }
      }
    }
  }
  attr {
    key: "index"
    value {
      i: 273
    }
  }
}
node {
  name: "training/LossScaleOptimizer/truediv"
  op: "Const"
  device: "/job:localhost/replica:0/task:0/device:GPU:0"
  attr {
    key: "dtype"
    value {
      type: DT_FLOAT
    }
  }
  attr {
    key: "value"
    value {
      tensor {
        dtype: DT_FLOAT
        tensor_shape {
        }
        tensor_content: "\000\000\000<"
      }
    }
  }
}
node {
  name: "loss_1/activation_49_loss/Reshape/shape"
  op: "Const"
  device: "/job:localhost/replica:0/task:0/device:GPU:0"
  attr {
    key: "dtype"
    value {
      type: DT_INT32
    }
  }
  attr {
    key: "value"
    value {
      tensor {
        dtype: DT_INT32
        tensor_shape {
          dim {
            size: 1
          }
        }
        int_val: -1
      }
    }
  }
}
node {
  name: "training/LossScaleOptimizer/gradients/loss_1/res4c_branch2c/kernel/Regularizer/Square_grad/Mul"
  op: "Const"
  device: "/job:localhost/replica:0/task:0/device:GPU:0"
  attr {
    key: "dtype"
    value {
      type: DT_FLOAT
    }
  }
  attr {
    key: "value"
    value {
      tensor {
        dtype: DT_FLOAT
        tensor_shape {
          dim {
            size: 1
          }
          dim {
            size: 1
          }
          dim {
            size: 256
          }
          dim {
            size: 1024
          }
        }
        float_val: 0.0256
      }
    }
  }
}
node {
  name: "training_lossscaleoptimizer_sgd_update_resourceapplykerasmomentum_readvariableop_resource"
  op: "_Arg"
  device: "/job:localhost/replica:0/task:0/device:GPU:0"
  attr {
    key: "T"
    value {
      type: DT_RESOURCE
    }
  }
  attr {
    key: "_handle_dtypes"
    value {
      list {
        type: DT_FLOAT
      }
    }
  }
  attr {
    key: "_handle_shapes"
    value {
      list {
        shape {
        }
      }
    }
  }
  attr {
    key: "index"
    value {
      i: 272
    }
  }
}
node {
  name: "training_lossscaleoptimizer_sgd_update_99_resourceapplykerasmomentum_accum"
  op: "_Arg"
  device: "/job:localhost/replica:0/task:0/device:GPU:0"
  attr {
    key: "T"
    value {
      type: DT_RESOURCE
    }
  }
  attr {
    key: "_handle_dtypes"
    value {
      list {
        type: DT_FLOAT
      }
    }
  }
  attr {
    key: "_handle_shapes"
    value {
      list {
        shape {
          dim {
            size: 1
          }
          dim {
            size: 1
          }
          dim {
            size: 256
          }
          dim {
            size: 1024
          }
        }
      }
    }
  }
  attr {
    key: "index"
    value {
      i: 372
    }
  }
}
node {
  name: "training_lossscaleoptimizer_sgd_update_98_resourceapplykerasmomentum_accum"
  op: "_Arg"
  device: "/job:localhost/replica:0/task:0/device:GPU:0"
  attr {
    key: "T"
    value {
      type: DT_RESOURCE
    }
  }
  attr {
    key: "_handle_dtypes"
    value {
      list {
        type: DT_FLOAT
      }
    }
  }
  attr {
    key: "_handle_shapes"
    value {
      list {
        shape {
          dim {
            size: 256
          }
        }
      }
    }
  }
  attr {
    key: "index"
    value {
      i: 371
    }
  }
}
node {
  name: "training_lossscaleoptimizer_sgd_update_97_resourceapplykerasmomentum_accum"
  op: "_Arg"
  device: "/job:localhost/replica:0/task:0/device:GPU:0"
  attr {
    key: "T"
    value {
      type: DT_RESOURCE
    }
  }
  attr {
    key: "_handle_dtypes"
    value {
      list {
        type: DT_FLOAT
      }
    }
  }
  attr {
    key: "_handle_shapes"
    value {
      list {
        shape {
          dim {
            size: 256
          }
        }
      }
    }
  }
  attr {
    key: "index"
    value {
      i: 370
    }
  }
}
node {
  name: "training/LossScaleOptimizer/gradients/loss_1/res4c_branch2b/kernel/Regularizer/Square_grad/Mul"
  op: "Const"
  device: "/job:localhost/replica:0/task:0/device:GPU:0"
  attr {
    key: "dtype"
    value {
      type: DT_FLOAT
    }
  }
  attr {
    key: "value"
    value {
      tensor {
        dtype: DT_FLOAT
        tensor_shape {
          dim {
            size: 3
          }
          dim {
            size: 3
          }
          dim {
            size: 256
          }
          dim {
            size: 256
          }
        }
        float_val: 0.0256
      }
    }
  }
}
node {
  name: "training_lossscaleoptimizer_sgd_update_96_resourceapplykerasmomentum_accum"
  op: "_Arg"
  device: "/job:localhost/replica:0/task:0/device:GPU:0"
  attr {
    key: "T"
    value {
      type: DT_RESOURCE
    }
  }
  attr {
    key: "_handle_dtypes"
    value {
      list {
        type: DT_FLOAT
      }
    }
  }
  attr {
    key: "_handle_shapes"
    value {
      list {
        shape {
          dim {
            size: 3
          }
          dim {
            size: 3
          }
          dim {
            size: 256
          }
          dim {
            size: 256
          }
        }
      }
    }
  }
  attr {
    key: "index"
    value {
      i: 369
    }
  }
}
node {
  name: "training_lossscaleoptimizer_sgd_update_95_resourceapplykerasmomentum_accum"
  op: "_Arg"
  device: "/job:localhost/replica:0/task:0/device:GPU:0"
  attr {
    key: "T"
    value {
      type: DT_RESOURCE
    }
  }
  attr {
    key: "_handle_dtypes"
    value {
      list {
        type: DT_FLOAT
      }
    }
  }
  attr {
    key: "_handle_shapes"
    value {
      list {
        shape {
          dim {
            size: 256
          }
        }
      }
    }
  }
  attr {
    key: "index"
    value {
      i: 368
    }
  }
}
node {
  name: "training_lossscaleoptimizer_sgd_update_94_resourceapplykerasmomentum_accum"
  op: "_Arg"
  device: "/job:localhost/replica:0/task:0/device:GPU:0"
  attr {
    key: "T"
    value {
      type: DT_RESOURCE
    }
  }
  attr {
    key: "_handle_dtypes"
    value {
      list {
        type: DT_FLOAT
      }
    }
  }
  attr {
    key: "_handle_shapes"
    value {
      list {
        shape {
          dim {
            size: 256
          }
        }
      }
    }
  }
  attr {
    key: "index"
    value {
      i: 367
    }
  }
}
node {
  name: "training/LossScaleOptimizer/gradients/loss_1/res4c_branch2a/kernel/Regularizer/Square_grad/Mul"
  op: "Const"
  device: "/job:localhost/replica:0/task:0/device:GPU:0"
  attr {
    key: "dtype"
    value {
      type: DT_FLOAT
    }
  }
  attr {
    key: "value"
    value {
      tensor {
        dtype: DT_FLOAT
        tensor_shape {
          dim {
            size: 1
          }
          dim {
            size: 1
          }
          dim {
            size: 1024
          }
          dim {
            size: 256
          }
        }
        float_val: 0.0256
      }
    }
  }
}
node {
  name: "training_lossscaleoptimizer_sgd_update_93_resourceapplykerasmomentum_accum"
  op: "_Arg"
  device: "/job:localhost/replica:0/task:0/device:GPU:0"
  attr {
    key: "T"
    value {
      type: DT_RESOURCE
    }
  }
  attr {
    key: "_handle_dtypes"
    value {
      list {
        type: DT_FLOAT
      }
    }
  }
  attr {
    key: "_handle_shapes"
    value {
      list {
        shape {
          dim {
            size: 1
          }
          dim {
            size: 1
          }
          dim {
            size: 1024
          }
          dim {
            size: 256
          }
        }
      }
    }
  }
  attr {
    key: "index"
    value {
      i: 366
    }
  }
}
node {
  name: "training_lossscaleoptimizer_sgd_update_92_resourceapplykerasmomentum_accum"
  op: "_Arg"
  device: "/job:localhost/replica:0/task:0/device:GPU:0"
  attr {
    key: "T"
    value {
      type: DT_RESOURCE
    }
  }
  attr {
    key: "_handle_dtypes"
    value {
      list {
        type: DT_FLOAT
      }
    }
  }
  attr {
    key: "_handle_shapes"
    value {
      list {
        shape {
          dim {
            size: 1024
          }
        }
      }
    }
  }
  attr {
    key: "index"
    value {
      i: 365
    }
  }
}
node {
  name: "training_lossscaleoptimizer_sgd_update_91_resourceapplykerasmomentum_accum"
  op: "_Arg"
  device: "/job:localhost/replica:0/task:0/device:GPU:0"
  attr {
    key: "T"
    value {
      type: DT_RESOURCE
    }
  }
  attr {
    key: "_handle_dtypes"
    value {
      list {
        type: DT_FLOAT
      }
    }
  }
  attr {
    key: "_handle_shapes"
    value {
      list {
        shape {
          dim {
            size: 1024
          }
        }
      }
    }
  }
  attr {
    key: "index"
    value {
      i: 364
    }
  }
}
node {
  name: "training_lossscaleoptimizer_sgd_update_90_resourceapplykerasmomentum_accum"
  op: "_Arg"
  device: "/job:localhost/replica:0/task:0/device:GPU:0"
  attr {
    key: "T"
    value {
      type: DT_RESOURCE
    }
  }
  attr {
    key: "_handle_dtypes"
    value {
      list {
        type: DT_FLOAT
      }
    }
  }
  attr {
    key: "_handle_shapes"
    value {
      list {
        shape {
          dim {
            size: 1
          }
          dim {
            size: 1
          }
          dim {
            size: 256
          }
          dim {
            size: 1024
          }
        }
      }
    }
  }
  attr {
    key: "index"
    value {
      i: 363
    }
  }
}
node {
  name: "training/LossScaleOptimizer/gradients/loss_1/res2a_branch2c/kernel/Regularizer/Square_grad/Mul"
  op: "Const"
  device: "/job:localhost/replica:0/task:0/device:GPU:0"
  attr {
    key: "dtype"
    value {
      type: DT_FLOAT
    }
  }
  attr {
    key: "value"
    value {
      tensor {
        dtype: DT_FLOAT
        tensor_shape {
          dim {
            size: 1
          }
          dim {
            size: 1
          }
          dim {
            size: 64
          }
          dim {
            size: 256
          }
        }
        float_val: 0.0256
      }
    }
  }
}
node {
  name: "training_lossscaleoptimizer_sgd_update_9_resourceapplykerasmomentum_accum"
  op: "_Arg"
  device: "/job:localhost/replica:0/task:0/device:GPU:0"
  attr {
    key: "T"
    value {
      type: DT_RESOURCE
    }
  }
  attr {
    key: "_handle_dtypes"
    value {
      list {
        type: DT_FLOAT
      }
    }
  }
  attr {
    key: "_handle_shapes"
    value {
      list {
        shape {
          dim {
            size: 1
          }
          dim {
            size: 1
          }
          dim {
            size: 64
          }
          dim {
            size: 256
          }
        }
      }
    }
  }
  attr {
    key: "index"
    value {
      i: 282
    }
  }
}
node {
  name: "training_lossscaleoptimizer_sgd_update_89_resourceapplykerasmomentum_accum"
  op: "_Arg"
  device: "/job:localhost/replica:0/task:0/device:GPU:0"
  attr {
    key: "T"
    value {
      type: DT_RESOURCE
    }
  }
  attr {
    key: "_handle_dtypes"
    value {
      list {
        type: DT_FLOAT
      }
    }
  }
  attr {
    key: "_handle_shapes"
    value {
      list {
        shape {
          dim {
            size: 256
          }
        }
      }
    }
  }
  attr {
    key: "index"
    value {
      i: 362
    }
  }
}
node {
  name: "training_lossscaleoptimizer_sgd_update_88_resourceapplykerasmomentum_accum"
  op: "_Arg"
  device: "/job:localhost/replica:0/task:0/device:GPU:0"
  attr {
    key: "T"
    value {
      type: DT_RESOURCE
    }
  }
  attr {
    key: "_handle_dtypes"
    value {
      list {
        type: DT_FLOAT
      }
    }
  }
  attr {
    key: "_handle_shapes"
    value {
      list {
        shape {
          dim {
            size: 256
          }
        }
      }
    }
  }
  attr {
    key: "index"
    value {
      i: 361
    }
  }
}
node {
  name: "training_lossscaleoptimizer_sgd_update_87_resourceapplykerasmomentum_accum"
  op: "_Arg"
  device: "/job:localhost/replica:0/task:0/device:GPU:0"
  attr {
    key: "T"
    value {
      type: DT_RESOURCE
    }
  }
  attr {
    key: "_handle_dtypes"
    value {
      list {
        type: DT_FLOAT
      }
    }
  }
  attr {
    key: "_handle_shapes"
    value {
      list {
        shape {
          dim {
            size: 3
          }
          dim {
            size: 3
          }
          dim {
            size: 256
          }
          dim {
            size: 256
          }
        }
      }
    }
  }
  attr {
    key: "index"
    value {
      i: 360
    }
  }
}
node {
  name: "training_lossscaleoptimizer_sgd_update_86_resourceapplykerasmomentum_accum"
  op: "_Arg"
  device: "/job:localhost/replica:0/task:0/device:GPU:0"
  attr {
    key: "T"
    value {
      type: DT_RESOURCE
    }
  }
  attr {
    key: "_handle_dtypes"
    value {
      list {
        type: DT_FLOAT
      }
    }
  }
  attr {
    key: "_handle_shapes"
    value {
      list {
        shape {
          dim {
            size: 256
          }
        }
      }
    }
  }
  attr {
    key: "index"
    value {
      i: 359
    }
  }
}
node {
  name: "training_lossscaleoptimizer_sgd_update_85_resourceapplykerasmomentum_accum"
  op: "_Arg"
  device: "/job:localhost/replica:0/task:0/device:GPU:0"
  attr {
    key: "T"
    value {
      type: DT_RESOURCE
    }
  }
  attr {
    key: "_handle_dtypes"
    value {
      list {
        type: DT_FLOAT
      }
    }
  }
  attr {
    key: "_handle_shapes"
    value {
      list {
        shape {
          dim {
            size: 256
          }
        }
      }
    }
  }
  attr {
    key: "index"
    value {
      i: 358
    }
  }
}
node {
  name: "training_lossscaleoptimizer_sgd_update_84_resourceapplykerasmomentum_accum"
  op: "_Arg"
  device: "/job:localhost/replica:0/task:0/device:GPU:0"
  attr {
    key: "T"
    value {
      type: DT_RESOURCE
    }
  }
  attr {
    key: "_handle_dtypes"
    value {
      list {
        type: DT_FLOAT
      }
    }
  }
  attr {
    key: "_handle_shapes"
    value {
      list {
        shape {
          dim {
            size: 1
          }
          dim {
            size: 1
          }
          dim {
            size: 1024
          }
          dim {
            size: 256
          }
        }
      }
    }
  }
  attr {
    key: "index"
    value {
      i: 357
    }
  }
}
node {
  name: "training_lossscaleoptimizer_sgd_update_83_resourceapplykerasmomentum_accum"
  op: "_Arg"
  device: "/job:localhost/replica:0/task:0/device:GPU:0"
  attr {
    key: "T"
    value {
      type: DT_RESOURCE
    }
  }
  attr {
    key: "_handle_dtypes"
    value {
      list {
        type: DT_FLOAT
      }
    }
  }
  attr {
    key: "_handle_shapes"
    value {
      list {
        shape {
          dim {
            size: 1024
          }
        }
      }
    }
  }
  attr {
    key: "index"
    value {
      i: 356
    }
  }
}
node {
  name: "training_lossscaleoptimizer_sgd_update_82_resourceapplykerasmomentum_accum"
  op: "_Arg"
  device: "/job:localhost/replica:0/task:0/device:GPU:0"
  attr {
    key: "T"
    value {
      type: DT_RESOURCE
    }
  }
  attr {
    key: "_handle_dtypes"
    value {
      list {
        type: DT_FLOAT
      }
    }
  }
  attr {
    key: "_handle_shapes"
    value {
      list {
        shape {
          dim {
            size: 1024
          }
        }
      }
    }
  }
  attr {
    key: "index"
    value {
      i: 355
    }
  }
}
node {
  name: "training_lossscaleoptimizer_sgd_update_81_resourceapplykerasmomentum_accum"
  op: "_Arg"
  device: "/job:localhost/replica:0/task:0/device:GPU:0"
  attr {
    key: "T"
    value {
      type: DT_RESOURCE
    }
  }
  attr {
    key: "_handle_dtypes"
    value {
      list {
        type: DT_FLOAT
      }
    }
  }
  attr {
    key: "_handle_shapes"
    value {
      list {
        shape {
          dim {
            size: 1024
          }
        }
      }
    }
  }
  attr {
    key: "index"
    value {
      i: 354
    }
  }
}
node {
  name: "training_lossscaleoptimizer_sgd_update_80_resourceapplykerasmomentum_accum"
  op: "_Arg"
  device: "/job:localhost/replica:0/task:0/device:GPU:0"
  attr {
    key: "T"
    value {
      type: DT_RESOURCE
    }
  }
  attr {
    key: "_handle_dtypes"
    value {
      list {
        type: DT_FLOAT
      }
    }
  }
  attr {
    key: "_handle_shapes"
    value {
      list {
        shape {
          dim {
            size: 1024
          }
        }
      }
    }
  }
  attr {
    key: "index"
    value {
      i: 353
    }
  }
}
node {
  name: "training_lossscaleoptimizer_sgd_update_8_resourceapplykerasmomentum_accum"
  op: "_Arg"
  device: "/job:localhost/replica:0/task:0/device:GPU:0"
  attr {
    key: "T"
    value {
      type: DT_RESOURCE
    }
  }
  attr {
    key: "_handle_dtypes"
    value {
      list {
        type: DT_FLOAT
      }
    }
  }
  attr {
    key: "_handle_shapes"
    value {
      list {
        shape {
          dim {
            size: 64
          }
        }
      }
    }
  }
  attr {
    key: "index"
    value {
      i: 281
    }
  }
}
node {
  name: "training/LossScaleOptimizer/gradients/loss_1/res4a_branch1/kernel/Regularizer/Square_grad/Mul"
  op: "Const"
  device: "/job:localhost/replica:0/task:0/device:GPU:0"
  attr {
    key: "dtype"
    value {
      type: DT_FLOAT
    }
  }
  attr {
    key: "value"
    value {
      tensor {
        dtype: DT_FLOAT
        tensor_shape {
          dim {
            size: 1
          }
          dim {
            size: 1
          }
          dim {
            size: 512
          }
          dim {
            size: 1024
          }
        }
        float_val: 0.0256
      }
    }
  }
}
node {
  name: "training_lossscaleoptimizer_sgd_update_79_resourceapplykerasmomentum_accum"
  op: "_Arg"
  device: "/job:localhost/replica:0/task:0/device:GPU:0"
  attr {
    key: "T"
    value {
      type: DT_RESOURCE
    }
  }
  attr {
    key: "_handle_dtypes"
    value {
      list {
        type: DT_FLOAT
      }
    }
  }
  attr {
    key: "_handle_shapes"
    value {
      list {
        shape {
          dim {
            size: 1
          }
          dim {
            size: 1
          }
          dim {
            size: 512
          }
          dim {
            size: 1024
          }
        }
      }
    }
  }
  attr {
    key: "index"
    value {
      i: 352
    }
  }
}
node {
  name: "training_lossscaleoptimizer_sgd_update_78_resourceapplykerasmomentum_accum"
  op: "_Arg"
  device: "/job:localhost/replica:0/task:0/device:GPU:0"
  attr {
    key: "T"
    value {
      type: DT_RESOURCE
    }
  }
  attr {
    key: "_handle_dtypes"
    value {
      list {
        type: DT_FLOAT
      }
    }
  }
  attr {
    key: "_handle_shapes"
    value {
      list {
        shape {
          dim {
            size: 1
          }
          dim {
            size: 1
          }
          dim {
            size: 256
          }
          dim {
            size: 1024
          }
        }
      }
    }
  }
  attr {
    key: "index"
    value {
      i: 351
    }
  }
}
node {
  name: "training_lossscaleoptimizer_sgd_update_77_resourceapplykerasmomentum_accum"
  op: "_Arg"
  device: "/job:localhost/replica:0/task:0/device:GPU:0"
  attr {
    key: "T"
    value {
      type: DT_RESOURCE
    }
  }
  attr {
    key: "_handle_dtypes"
    value {
      list {
        type: DT_FLOAT
      }
    }
  }
  attr {
    key: "_handle_shapes"
    value {
      list {
        shape {
          dim {
            size: 256
          }
        }
      }
    }
  }
  attr {
    key: "index"
    value {
      i: 350
    }
  }
}
node {
  name: "training_lossscaleoptimizer_sgd_update_76_resourceapplykerasmomentum_accum"
  op: "_Arg"
  device: "/job:localhost/replica:0/task:0/device:GPU:0"
  attr {
    key: "T"
    value {
      type: DT_RESOURCE
    }
  }
  attr {
    key: "_handle_dtypes"
    value {
      list {
        type: DT_FLOAT
      }
    }
  }
  attr {
    key: "_handle_shapes"
    value {
      list {
        shape {
          dim {
            size: 256
          }
        }
      }
    }
  }
  attr {
    key: "index"
    value {
      i: 349
    }
  }
}
node {
  name: "training_lossscaleoptimizer_sgd_update_75_resourceapplykerasmomentum_accum"
  op: "_Arg"
  device: "/job:localhost/replica:0/task:0/device:GPU:0"
  attr {
    key: "T"
    value {
      type: DT_RESOURCE
    }
  }
  attr {
    key: "_handle_dtypes"
    value {
      list {
        type: DT_FLOAT
      }
    }
  }
  attr {
    key: "_handle_shapes"
    value {
      list {
        shape {
          dim {
            size: 3
          }
          dim {
            size: 3
          }
          dim {
            size: 256
          }
          dim {
            size: 256
          }
        }
      }
    }
  }
  attr {
    key: "index"
    value {
      i: 348
    }
  }
}
node {
  name: "training_lossscaleoptimizer_sgd_update_74_resourceapplykerasmomentum_accum"
  op: "_Arg"
  device: "/job:localhost/replica:0/task:0/device:GPU:0"
  attr {
    key: "T"
    value {
      type: DT_RESOURCE
    }
  }
  attr {
    key: "_handle_dtypes"
    value {
      list {
        type: DT_FLOAT
      }
    }
  }
  attr {
    key: "_handle_shapes"
    value {
      list {
        shape {
          dim {
            size: 256
          }
        }
      }
    }
  }
  attr {
    key: "index"
    value {
      i: 347
    }
  }
}
node {
  name: "training_lossscaleoptimizer_sgd_update_73_resourceapplykerasmomentum_accum"
  op: "_Arg"
  device: "/job:localhost/replica:0/task:0/device:GPU:0"
  attr {
    key: "T"
    value {
      type: DT_RESOURCE
    }
  }
  attr {
    key: "_handle_dtypes"
    value {
      list {
        type: DT_FLOAT
      }
    }
  }
  attr {
    key: "_handle_shapes"
    value {
      list {
        shape {
          dim {
            size: 256
          }
        }
      }
    }
  }
  attr {
    key: "index"
    value {
      i: 346
    }
  }
}
node {
  name: "training/LossScaleOptimizer/gradients/loss_1/res4a_branch2a/kernel/Regularizer/Square_grad/Mul"
  op: "Const"
  device: "/job:localhost/replica:0/task:0/device:GPU:0"
  attr {
    key: "dtype"
    value {
      type: DT_FLOAT
    }
  }
  attr {
    key: "value"
    value {
      tensor {
        dtype: DT_FLOAT
        tensor_shape {
          dim {
            size: 1
          }
          dim {
            size: 1
          }
          dim {
            size: 512
          }
          dim {
            size: 256
          }
        }
        float_val: 0.0256
      }
    }
  }
}
node {
  name: "training_lossscaleoptimizer_sgd_update_72_resourceapplykerasmomentum_accum"
  op: "_Arg"
  device: "/job:localhost/replica:0/task:0/device:GPU:0"
  attr {
    key: "T"
    value {
      type: DT_RESOURCE
    }
  }
  attr {
    key: "_handle_dtypes"
    value {
      list {
        type: DT_FLOAT
      }
    }
  }
  attr {
    key: "_handle_shapes"
    value {
      list {
        shape {
          dim {
            size: 1
          }
          dim {
            size: 1
          }
          dim {
            size: 512
          }
          dim {
            size: 256
          }
        }
      }
    }
  }
  attr {
    key: "index"
    value {
      i: 345
    }
  }
}
node {
  name: "training_lossscaleoptimizer_sgd_update_71_resourceapplykerasmomentum_accum"
  op: "_Arg"
  device: "/job:localhost/replica:0/task:0/device:GPU:0"
  attr {
    key: "T"
    value {
      type: DT_RESOURCE
    }
  }
  attr {
    key: "_handle_dtypes"
    value {
      list {
        type: DT_FLOAT
      }
    }
  }
  attr {
    key: "_handle_shapes"
    value {
      list {
        shape {
          dim {
            size: 512
          }
        }
      }
    }
  }
  attr {
    key: "index"
    value {
      i: 344
    }
  }
}
node {
  name: "training_lossscaleoptimizer_sgd_update_70_resourceapplykerasmomentum_accum"
  op: "_Arg"
  device: "/job:localhost/replica:0/task:0/device:GPU:0"
  attr {
    key: "T"
    value {
      type: DT_RESOURCE
    }
  }
  attr {
    key: "_handle_dtypes"
    value {
      list {
        type: DT_FLOAT
      }
    }
  }
  attr {
    key: "_handle_shapes"
    value {
      list {
        shape {
          dim {
            size: 512
          }
        }
      }
    }
  }
  attr {
    key: "index"
    value {
      i: 343
    }
  }
}
node {
  name: "training_lossscaleoptimizer_sgd_update_7_resourceapplykerasmomentum_accum"
  op: "_Arg"
  device: "/job:localhost/replica:0/task:0/device:GPU:0"
  attr {
    key: "T"
    value {
      type: DT_RESOURCE
    }
  }
  attr {
    key: "_handle_dtypes"
    value {
      list {
        type: DT_FLOAT
      }
    }
  }
  attr {
    key: "_handle_shapes"
    value {
      list {
        shape {
          dim {
            size: 64
          }
        }
      }
    }
  }
  attr {
    key: "index"
    value {
      i: 280
    }
  }
}
node {
  name: "training/LossScaleOptimizer/gradients/loss_1/res3d_branch2c/kernel/Regularizer/Square_grad/Mul"
  op: "Const"
  device: "/job:localhost/replica:0/task:0/device:GPU:0"
  attr {
    key: "dtype"
    value {
      type: DT_FLOAT
    }
  }
  attr {
    key: "value"
    value {
      tensor {
        dtype: DT_FLOAT
        tensor_shape {
          dim {
            size: 1
          }
          dim {
            size: 1
          }
          dim {
            size: 128
          }
          dim {
            size: 512
          }
        }
        float_val: 0.0256
      }
    }
  }
}
node {
  name: "training_lossscaleoptimizer_sgd_update_69_resourceapplykerasmomentum_accum"
  op: "_Arg"
  device: "/job:localhost/replica:0/task:0/device:GPU:0"
  attr {
    key: "T"
    value {
      type: DT_RESOURCE
    }
  }
  attr {
    key: "_handle_dtypes"
    value {
      list {
        type: DT_FLOAT
      }
    }
  }
  attr {
    key: "_handle_shapes"
    value {
      list {
        shape {
          dim {
            size: 1
          }
          dim {
            size: 1
          }
          dim {
            size: 128
          }
          dim {
            size: 512
          }
        }
      }
    }
  }
  attr {
    key: "index"
    value {
      i: 342
    }
  }
}
node {
  name: "training_lossscaleoptimizer_sgd_update_68_resourceapplykerasmomentum_accum"
  op: "_Arg"
  device: "/job:localhost/replica:0/task:0/device:GPU:0"
  attr {
    key: "T"
    value {
      type: DT_RESOURCE
    }
  }
  attr {
    key: "_handle_dtypes"
    value {
      list {
        type: DT_FLOAT
      }
    }
  }
  attr {
    key: "_handle_shapes"
    value {
      list {
        shape {
          dim {
            size: 128
          }
        }
      }
    }
  }
  attr {
    key: "index"
    value {
      i: 341
    }
  }
}
node {
  name: "training_lossscaleoptimizer_sgd_update_67_resourceapplykerasmomentum_accum"
  op: "_Arg"
  device: "/job:localhost/replica:0/task:0/device:GPU:0"
  attr {
    key: "T"
    value {
      type: DT_RESOURCE
    }
  }
  attr {
    key: "_handle_dtypes"
    value {
      list {
        type: DT_FLOAT
      }
    }
  }
  attr {
    key: "_handle_shapes"
    value {
      list {
        shape {
          dim {
            size: 128
          }
        }
      }
    }
  }
  attr {
    key: "index"
    value {
      i: 340
    }
  }
}
node {
  name: "training/LossScaleOptimizer/gradients/loss_1/res3d_branch2b/kernel/Regularizer/Square_grad/Mul"
  op: "Const"
  device: "/job:localhost/replica:0/task:0/device:GPU:0"
  attr {
    key: "dtype"
    value {
      type: DT_FLOAT
    }
  }
  attr {
    key: "value"
    value {
      tensor {
        dtype: DT_FLOAT
        tensor_shape {
          dim {
            size: 3
          }
          dim {
            size: 3
          }
          dim {
            size: 128
          }
          dim {
            size: 128
          }
        }
        float_val: 0.0256
      }
    }
  }
}
node {
  name: "training_lossscaleoptimizer_sgd_update_66_resourceapplykerasmomentum_accum"
  op: "_Arg"
  device: "/job:localhost/replica:0/task:0/device:GPU:0"
  attr {
    key: "T"
    value {
      type: DT_RESOURCE
    }
  }
  attr {
    key: "_handle_dtypes"
    value {
      list {
        type: DT_FLOAT
      }
    }
  }
  attr {
    key: "_handle_shapes"
    value {
      list {
        shape {
          dim {
            size: 3
          }
          dim {
            size: 3
          }
          dim {
            size: 128
          }
          dim {
            size: 128
          }
        }
      }
    }
  }
  attr {
    key: "index"
    value {
      i: 339
    }
  }
}
node {
  name: "training_lossscaleoptimizer_sgd_update_65_resourceapplykerasmomentum_accum"
  op: "_Arg"
  device: "/job:localhost/replica:0/task:0/device:GPU:0"
  attr {
    key: "T"
    value {
      type: DT_RESOURCE
    }
  }
  attr {
    key: "_handle_dtypes"
    value {
      list {
        type: DT_FLOAT
      }
    }
  }
  attr {
    key: "_handle_shapes"
    value {
      list {
        shape {
          dim {
            size: 128
          }
        }
      }
    }
  }
  attr {
    key: "index"
    value {
      i: 338
    }
  }
}
node {
  name: "training_lossscaleoptimizer_sgd_update_64_resourceapplykerasmomentum_accum"
  op: "_Arg"
  device: "/job:localhost/replica:0/task:0/device:GPU:0"
  attr {
    key: "T"
    value {
      type: DT_RESOURCE
    }
  }
  attr {
    key: "_handle_dtypes"
    value {
      list {
        type: DT_FLOAT
      }
    }
  }
  attr {
    key: "_handle_shapes"
    value {
      list {
        shape {
          dim {
            size: 128
          }
        }
      }
    }
  }
  attr {
    key: "index"
    value {
      i: 337
    }
  }
}
node {
  name: "training/LossScaleOptimizer/gradients/loss_1/res3d_branch2a/kernel/Regularizer/Square_grad/Mul"
  op: "Const"
  device: "/job:localhost/replica:0/task:0/device:GPU:0"
  attr {
    key: "dtype"
    value {
      type: DT_FLOAT
    }
  }
  attr {
    key: "value"
    value {
      tensor {
        dtype: DT_FLOAT
        tensor_shape {
          dim {
            size: 1
          }
          dim {
            size: 1
          }
          dim {
            size: 512
          }
          dim {
            size: 128
          }
        }
        float_val: 0.0256
      }
    }
  }
}
node {
  name: "training_lossscaleoptimizer_sgd_update_63_resourceapplykerasmomentum_accum"
  op: "_Arg"
  device: "/job:localhost/replica:0/task:0/device:GPU:0"
  attr {
    key: "T"
    value {
      type: DT_RESOURCE
    }
  }
  attr {
    key: "_handle_dtypes"
    value {
      list {
        type: DT_FLOAT
      }
    }
  }
  attr {
    key: "_handle_shapes"
    value {
      list {
        shape {
          dim {
            size: 1
          }
          dim {
            size: 1
          }
          dim {
            size: 512
          }
          dim {
            size: 128
          }
        }
      }
    }
  }
  attr {
    key: "index"
    value {
      i: 336
    }
  }
}
node {
  name: "training_lossscaleoptimizer_sgd_update_62_resourceapplykerasmomentum_accum"
  op: "_Arg"
  device: "/job:localhost/replica:0/task:0/device:GPU:0"
  attr {
    key: "T"
    value {
      type: DT_RESOURCE
    }
  }
  attr {
    key: "_handle_dtypes"
    value {
      list {
        type: DT_FLOAT
      }
    }
  }
  attr {
    key: "_handle_shapes"
    value {
      list {
        shape {
          dim {
            size: 512
          }
        }
      }
    }
  }
  attr {
    key: "index"
    value {
      i: 335
    }
  }
}
node {
  name: "training_lossscaleoptimizer_sgd_update_61_resourceapplykerasmomentum_accum"
  op: "_Arg"
  device: "/job:localhost/replica:0/task:0/device:GPU:0"
  attr {
    key: "T"
    value {
      type: DT_RESOURCE
    }
  }
  attr {
    key: "_handle_dtypes"
    value {
      list {
        type: DT_FLOAT
      }
    }
  }
  attr {
    key: "_handle_shapes"
    value {
      list {
        shape {
          dim {
            size: 512
          }
        }
      }
    }
  }
  attr {
    key: "index"
    value {
      i: 334
    }
  }
}
node {
  name: "training_lossscaleoptimizer_sgd_update_60_resourceapplykerasmomentum_accum"
  op: "_Arg"
  device: "/job:localhost/replica:0/task:0/device:GPU:0"
  attr {
    key: "T"
    value {
      type: DT_RESOURCE
    }
  }
  attr {
    key: "_handle_dtypes"
    value {
      list {
        type: DT_FLOAT
      }
    }
  }
  attr {
    key: "_handle_shapes"
    value {
      list {
        shape {
          dim {
            size: 1
          }
          dim {
            size: 1
          }
          dim {
            size: 128
          }
          dim {
            size: 512
          }
        }
      }
    }
  }
  attr {
    key: "index"
    value {
      i: 333
    }
  }
}
node {
  name: "training/LossScaleOptimizer/gradients/loss_1/res2a_branch2b/kernel/Regularizer/Square_grad/Mul"
  op: "Const"
  device: "/job:localhost/replica:0/task:0/device:GPU:0"
  attr {
    key: "dtype"
    value {
      type: DT_FLOAT
    }
  }
  attr {
    key: "value"
    value {
      tensor {
        dtype: DT_FLOAT
        tensor_shape {
          dim {
            size: 3
          }
          dim {
            size: 3
          }
          dim {
            size: 64
          }
          dim {
            size: 64
          }
        }
        float_val: 0.0256
      }
    }
  }
}
node {
  name: "training_lossscaleoptimizer_sgd_update_6_resourceapplykerasmomentum_accum"
  op: "_Arg"
  device: "/job:localhost/replica:0/task:0/device:GPU:0"
  attr {
    key: "T"
    value {
      type: DT_RESOURCE
    }
  }
  attr {
    key: "_handle_dtypes"
    value {
      list {
        type: DT_FLOAT
      }
    }
  }
  attr {
    key: "_handle_shapes"
    value {
      list {
        shape {
          dim {
            size: 3
          }
          dim {
            size: 3
          }
          dim {
            size: 64
          }
          dim {
            size: 64
          }
        }
      }
    }
  }
  attr {
    key: "index"
    value {
      i: 279
    }
  }
}
node {
  name: "training_lossscaleoptimizer_sgd_update_59_resourceapplykerasmomentum_accum"
  op: "_Arg"
  device: "/job:localhost/replica:0/task:0/device:GPU:0"
  attr {
    key: "T"
    value {
      type: DT_RESOURCE
    }
  }
  attr {
    key: "_handle_dtypes"
    value {
      list {
        type: DT_FLOAT
      }
    }
  }
  attr {
    key: "_handle_shapes"
    value {
      list {
        shape {
          dim {
            size: 128
          }
        }
      }
    }
  }
  attr {
    key: "index"
    value {
      i: 332
    }
  }
}
node {
  name: "training_lossscaleoptimizer_sgd_update_58_resourceapplykerasmomentum_accum"
  op: "_Arg"
  device: "/job:localhost/replica:0/task:0/device:GPU:0"
  attr {
    key: "T"
    value {
      type: DT_RESOURCE
    }
  }
  attr {
    key: "_handle_dtypes"
    value {
      list {
        type: DT_FLOAT
      }
    }
  }
  attr {
    key: "_handle_shapes"
    value {
      list {
        shape {
          dim {
            size: 128
          }
        }
      }
    }
  }
  attr {
    key: "index"
    value {
      i: 331
    }
  }
}
node {
  name: "training_lossscaleoptimizer_sgd_update_57_resourceapplykerasmomentum_accum"
  op: "_Arg"
  device: "/job:localhost/replica:0/task:0/device:GPU:0"
  attr {
    key: "T"
    value {
      type: DT_RESOURCE
    }
  }
  attr {
    key: "_handle_dtypes"
    value {
      list {
        type: DT_FLOAT
      }
    }
  }
  attr {
    key: "_handle_shapes"
    value {
      list {
        shape {
          dim {
            size: 3
          }
          dim {
            size: 3
          }
          dim {
            size: 128
          }
          dim {
            size: 128
          }
        }
      }
    }
  }
  attr {
    key: "index"
    value {
      i: 330
    }
  }
}
node {
  name: "training_lossscaleoptimizer_sgd_update_56_resourceapplykerasmomentum_accum"
  op: "_Arg"
  device: "/job:localhost/replica:0/task:0/device:GPU:0"
  attr {
    key: "T"
    value {
      type: DT_RESOURCE
    }
  }
  attr {
    key: "_handle_dtypes"
    value {
      list {
        type: DT_FLOAT
      }
    }
  }
  attr {
    key: "_handle_shapes"
    value {
      list {
        shape {
          dim {
            size: 128
          }
        }
      }
    }
  }
  attr {
    key: "index"
    value {
      i: 329
    }
  }
}
node {
  name: "training_lossscaleoptimizer_sgd_update_55_resourceapplykerasmomentum_accum"
  op: "_Arg"
  device: "/job:localhost/replica:0/task:0/device:GPU:0"
  attr {
    key: "T"
    value {
      type: DT_RESOURCE
    }
  }
  attr {
    key: "_handle_dtypes"
    value {
      list {
        type: DT_FLOAT
      }
    }
  }
  attr {
    key: "_handle_shapes"
    value {
      list {
        shape {
          dim {
            size: 128
          }
        }
      }
    }
  }
  attr {
    key: "index"
    value {
      i: 328
    }
  }
}
node {
  name: "training_lossscaleoptimizer_sgd_update_54_resourceapplykerasmomentum_accum"
  op: "_Arg"
  device: "/job:localhost/replica:0/task:0/device:GPU:0"
  attr {
    key: "T"
    value {
      type: DT_RESOURCE
    }
  }
  attr {
    key: "_handle_dtypes"
    value {
      list {
        type: DT_FLOAT
      }
    }
  }
  attr {
    key: "_handle_shapes"
    value {
      list {
        shape {
          dim {
            size: 1
          }
          dim {
            size: 1
          }
          dim {
            size: 512
          }
          dim {
            size: 128
          }
        }
      }
    }
  }
  attr {
    key: "index"
    value {
      i: 327
    }
  }
}
node {
  name: "training_lossscaleoptimizer_sgd_update_53_resourceapplykerasmomentum_accum"
  op: "_Arg"
  device: "/job:localhost/replica:0/task:0/device:GPU:0"
  attr {
    key: "T"
    value {
      type: DT_RESOURCE
    }
  }
  attr {
    key: "_handle_dtypes"
    value {
      list {
        type: DT_FLOAT
      }
    }
  }
  attr {
    key: "_handle_shapes"
    value {
      list {
        shape {
          dim {
            size: 512
          }
        }
      }
    }
  }
  attr {
    key: "index"
    value {
      i: 326
    }
  }
}
node {
  name: "training_lossscaleoptimizer_sgd_update_52_resourceapplykerasmomentum_accum"
  op: "_Arg"
  device: "/job:localhost/replica:0/task:0/device:GPU:0"
  attr {
    key: "T"
    value {
      type: DT_RESOURCE
    }
  }
  attr {
    key: "_handle_dtypes"
    value {
      list {
        type: DT_FLOAT
      }
    }
  }
  attr {
    key: "_handle_shapes"
    value {
      list {
        shape {
          dim {
            size: 512
          }
        }
      }
    }
  }
  attr {
    key: "index"
    value {
      i: 325
    }
  }
}
node {
  name: "training_lossscaleoptimizer_sgd_update_51_resourceapplykerasmomentum_accum"
  op: "_Arg"
  device: "/job:localhost/replica:0/task:0/device:GPU:0"
  attr {
    key: "T"
    value {
      type: DT_RESOURCE
    }
  }
  attr {
    key: "_handle_dtypes"
    value {
      list {
        type: DT_FLOAT
      }
    }
  }
  attr {
    key: "_handle_shapes"
    value {
      list {
        shape {
          dim {
            size: 1
          }
          dim {
            size: 1
          }
          dim {
            size: 128
          }
          dim {
            size: 512
          }
        }
      }
    }
  }
  attr {
    key: "index"
    value {
      i: 324
    }
  }
}
node {
  name: "training_lossscaleoptimizer_sgd_update_50_resourceapplykerasmomentum_accum"
  op: "_Arg"
  device: "/job:localhost/replica:0/task:0/device:GPU:0"
  attr {
    key: "T"
    value {
      type: DT_RESOURCE
    }
  }
  attr {
    key: "_handle_dtypes"
    value {
      list {
        type: DT_FLOAT
      }
    }
  }
  attr {
    key: "_handle_shapes"
    value {
      list {
        shape {
          dim {
            size: 128
          }
        }
      }
    }
  }
  attr {
    key: "index"
    value {
      i: 323
    }
  }
}
node {
  name: "training_lossscaleoptimizer_sgd_update_5_resourceapplykerasmomentum_accum"
  op: "_Arg"
  device: "/job:localhost/replica:0/task:0/device:GPU:0"
  attr {
    key: "T"
    value {
      type: DT_RESOURCE
    }
  }
  attr {
    key: "_handle_dtypes"
    value {
      list {
        type: DT_FLOAT
      }
    }
  }
  attr {
    key: "_handle_shapes"
    value {
      list {
        shape {
          dim {
            size: 64
          }
        }
      }
    }
  }
  attr {
    key: "index"
    value {
      i: 278
    }
  }
}
node {
  name: "training_lossscaleoptimizer_sgd_update_49_resourceapplykerasmomentum_accum"
  op: "_Arg"
  device: "/job:localhost/replica:0/task:0/device:GPU:0"
  attr {
    key: "T"
    value {
      type: DT_RESOURCE
    }
  }
  attr {
    key: "_handle_dtypes"
    value {
      list {
        type: DT_FLOAT
      }
    }
  }
  attr {
    key: "_handle_shapes"
    value {
      list {
        shape {
          dim {
            size: 128
          }
        }
      }
    }
  }
  attr {
    key: "index"
    value {
      i: 322
    }
  }
}
node {
  name: "training_lossscaleoptimizer_sgd_update_48_resourceapplykerasmomentum_accum"
  op: "_Arg"
  device: "/job:localhost/replica:0/task:0/device:GPU:0"
  attr {
    key: "T"
    value {
      type: DT_RESOURCE
    }
  }
  attr {
    key: "_handle_dtypes"
    value {
      list {
        type: DT_FLOAT
      }
    }
  }
  attr {
    key: "_handle_shapes"
    value {
      list {
        shape {
          dim {
            size: 3
          }
          dim {
            size: 3
          }
          dim {
            size: 128
          }
          dim {
            size: 128
          }
        }
      }
    }
  }
  attr {
    key: "index"
    value {
      i: 321
    }
  }
}
node {
  name: "training_lossscaleoptimizer_sgd_update_47_resourceapplykerasmomentum_accum"
  op: "_Arg"
  device: "/job:localhost/replica:0/task:0/device:GPU:0"
  attr {
    key: "T"
    value {
      type: DT_RESOURCE
    }
  }
  attr {
    key: "_handle_dtypes"
    value {
      list {
        type: DT_FLOAT
      }
    }
  }
  attr {
    key: "_handle_shapes"
    value {
      list {
        shape {
          dim {
            size: 128
          }
        }
      }
    }
  }
  attr {
    key: "index"
    value {
      i: 320
    }
  }
}
node {
  name: "training_lossscaleoptimizer_sgd_update_46_resourceapplykerasmomentum_accum"
  op: "_Arg"
  device: "/job:localhost/replica:0/task:0/device:GPU:0"
  attr {
    key: "T"
    value {
      type: DT_RESOURCE
    }
  }
  attr {
    key: "_handle_dtypes"
    value {
      list {
        type: DT_FLOAT
      }
    }
  }
  attr {
    key: "_handle_shapes"
    value {
      list {
        shape {
          dim {
            size: 128
          }
        }
      }
    }
  }
  attr {
    key: "index"
    value {
      i: 319
    }
  }
}
node {
  name: "training_lossscaleoptimizer_sgd_update_45_resourceapplykerasmomentum_accum"
  op: "_Arg"
  device: "/job:localhost/replica:0/task:0/device:GPU:0"
  attr {
    key: "T"
    value {
      type: DT_RESOURCE
    }
  }
  attr {
    key: "_handle_dtypes"
    value {
      list {
        type: DT_FLOAT
      }
    }
  }
  attr {
    key: "_handle_shapes"
    value {
      list {
        shape {
          dim {
            size: 1
          }
          dim {
            size: 1
          }
          dim {
            size: 512
          }
          dim {
            size: 128
          }
        }
      }
    }
  }
  attr {
    key: "index"
    value {
      i: 318
    }
  }
}
node {
  name: "training_lossscaleoptimizer_sgd_update_44_resourceapplykerasmomentum_accum"
  op: "_Arg"
  device: "/job:localhost/replica:0/task:0/device:GPU:0"
  attr {
    key: "T"
    value {
      type: DT_RESOURCE
    }
  }
  attr {
    key: "_handle_dtypes"
    value {
      list {
        type: DT_FLOAT
      }
    }
  }
  attr {
    key: "_handle_shapes"
    value {
      list {
        shape {
          dim {
            size: 512
          }
        }
      }
    }
  }
  attr {
    key: "index"
    value {
      i: 317
    }
  }
}
node {
  name: "training_lossscaleoptimizer_sgd_update_43_resourceapplykerasmomentum_accum"
  op: "_Arg"
  device: "/job:localhost/replica:0/task:0/device:GPU:0"
  attr {
    key: "T"
    value {
      type: DT_RESOURCE
    }
  }
  attr {
    key: "_handle_dtypes"
    value {
      list {
        type: DT_FLOAT
      }
    }
  }
  attr {
    key: "_handle_shapes"
    value {
      list {
        shape {
          dim {
            size: 512
          }
        }
      }
    }
  }
  attr {
    key: "index"
    value {
      i: 316
    }
  }
}
node {
  name: "training_lossscaleoptimizer_sgd_update_42_resourceapplykerasmomentum_accum"
  op: "_Arg"
  device: "/job:localhost/replica:0/task:0/device:GPU:0"
  attr {
    key: "T"
    value {
      type: DT_RESOURCE
    }
  }
  attr {
    key: "_handle_dtypes"
    value {
      list {
        type: DT_FLOAT
      }
    }
  }
  attr {
    key: "_handle_shapes"
    value {
      list {
        shape {
          dim {
            size: 512
          }
        }
      }
    }
  }
  attr {
    key: "index"
    value {
      i: 315
    }
  }
}
node {
  name: "training_lossscaleoptimizer_sgd_update_41_resourceapplykerasmomentum_accum"
  op: "_Arg"
  device: "/job:localhost/replica:0/task:0/device:GPU:0"
  attr {
    key: "T"
    value {
      type: DT_RESOURCE
    }
  }
  attr {
    key: "_handle_dtypes"
    value {
      list {
        type: DT_FLOAT
      }
    }
  }
  attr {
    key: "_handle_shapes"
    value {
      list {
        shape {
          dim {
            size: 512
          }
        }
      }
    }
  }
  attr {
    key: "index"
    value {
      i: 314
    }
  }
}
node {
  name: "training/LossScaleOptimizer/gradients/loss_1/res3a_branch1/kernel/Regularizer/Square_grad/Mul"
  op: "Const"
  device: "/job:localhost/replica:0/task:0/device:GPU:0"
  attr {
    key: "dtype"
    value {
      type: DT_FLOAT
    }
  }
  attr {
    key: "value"
    value {
      tensor {
        dtype: DT_FLOAT
        tensor_shape {
          dim {
            size: 1
          }
          dim {
            size: 1
          }
          dim {
            size: 256
          }
          dim {
            size: 512
          }
        }
        float_val: 0.0256
      }
    }
  }
}
node {
  name: "training_lossscaleoptimizer_sgd_update_40_resourceapplykerasmomentum_accum"
  op: "_Arg"
  device: "/job:localhost/replica:0/task:0/device:GPU:0"
  attr {
    key: "T"
    value {
      type: DT_RESOURCE
    }
  }
  attr {
    key: "_handle_dtypes"
    value {
      list {
        type: DT_FLOAT
      }
    }
  }
  attr {
    key: "_handle_shapes"
    value {
      list {
        shape {
          dim {
            size: 1
          }
          dim {
            size: 1
          }
          dim {
            size: 256
          }
          dim {
            size: 512
          }
        }
      }
    }
  }
  attr {
    key: "index"
    value {
      i: 313
    }
  }
}
node {
  name: "training_lossscaleoptimizer_sgd_update_4_resourceapplykerasmomentum_accum"
  op: "_Arg"
  device: "/job:localhost/replica:0/task:0/device:GPU:0"
  attr {
    key: "T"
    value {
      type: DT_RESOURCE
    }
  }
  attr {
    key: "_handle_dtypes"
    value {
      list {
        type: DT_FLOAT
      }
    }
  }
  attr {
    key: "_handle_shapes"
    value {
      list {
        shape {
          dim {
            size: 64
          }
        }
      }
    }
  }
  attr {
    key: "index"
    value {
      i: 277
    }
  }
}
node {
  name: "training_lossscaleoptimizer_sgd_update_39_resourceapplykerasmomentum_accum"
  op: "_Arg"
  device: "/job:localhost/replica:0/task:0/device:GPU:0"
  attr {
    key: "T"
    value {
      type: DT_RESOURCE
    }
  }
  attr {
    key: "_handle_dtypes"
    value {
      list {
        type: DT_FLOAT
      }
    }
  }
  attr {
    key: "_handle_shapes"
    value {
      list {
        shape {
          dim {
            size: 1
          }
          dim {
            size: 1
          }
          dim {
            size: 128
          }
          dim {
            size: 512
          }
        }
      }
    }
  }
  attr {
    key: "index"
    value {
      i: 312
    }
  }
}
node {
  name: "training_lossscaleoptimizer_sgd_update_38_resourceapplykerasmomentum_accum"
  op: "_Arg"
  device: "/job:localhost/replica:0/task:0/device:GPU:0"
  attr {
    key: "T"
    value {
      type: DT_RESOURCE
    }
  }
  attr {
    key: "_handle_dtypes"
    value {
      list {
        type: DT_FLOAT
      }
    }
  }
  attr {
    key: "_handle_shapes"
    value {
      list {
        shape {
          dim {
            size: 128
          }
        }
      }
    }
  }
  attr {
    key: "index"
    value {
      i: 311
    }
  }
}
node {
  name: "training_lossscaleoptimizer_sgd_update_37_resourceapplykerasmomentum_accum"
  op: "_Arg"
  device: "/job:localhost/replica:0/task:0/device:GPU:0"
  attr {
    key: "T"
    value {
      type: DT_RESOURCE
    }
  }
  attr {
    key: "_handle_dtypes"
    value {
      list {
        type: DT_FLOAT
      }
    }
  }
  attr {
    key: "_handle_shapes"
    value {
      list {
        shape {
          dim {
            size: 128
          }
        }
      }
    }
  }
  attr {
    key: "index"
    value {
      i: 310
    }
  }
}
node {
  name: "training_lossscaleoptimizer_sgd_update_36_resourceapplykerasmomentum_accum"
  op: "_Arg"
  device: "/job:localhost/replica:0/task:0/device:GPU:0"
  attr {
    key: "T"
    value {
      type: DT_RESOURCE
    }
  }
  attr {
    key: "_handle_dtypes"
    value {
      list {
        type: DT_FLOAT
      }
    }
  }
  attr {
    key: "_handle_shapes"
    value {
      list {
        shape {
          dim {
            size: 3
          }
          dim {
            size: 3
          }
          dim {
            size: 128
          }
          dim {
            size: 128
          }
        }
      }
    }
  }
  attr {
    key: "index"
    value {
      i: 309
    }
  }
}
node {
  name: "training_lossscaleoptimizer_sgd_update_35_resourceapplykerasmomentum_accum"
  op: "_Arg"
  device: "/job:localhost/replica:0/task:0/device:GPU:0"
  attr {
    key: "T"
    value {
      type: DT_RESOURCE
    }
  }
  attr {
    key: "_handle_dtypes"
    value {
      list {
        type: DT_FLOAT
      }
    }
  }
  attr {
    key: "_handle_shapes"
    value {
      list {
        shape {
          dim {
            size: 128
          }
        }
      }
    }
  }
  attr {
    key: "index"
    value {
      i: 308
    }
  }
}
node {
  name: "training_lossscaleoptimizer_sgd_update_34_resourceapplykerasmomentum_accum"
  op: "_Arg"
  device: "/job:localhost/replica:0/task:0/device:GPU:0"
  attr {
    key: "T"
    value {
      type: DT_RESOURCE
    }
  }
  attr {
    key: "_handle_dtypes"
    value {
      list {
        type: DT_FLOAT
      }
    }
  }
  attr {
    key: "_handle_shapes"
    value {
      list {
        shape {
          dim {
            size: 128
          }
        }
      }
    }
  }
  attr {
    key: "index"
    value {
      i: 307
    }
  }
}
node {
  name: "training/LossScaleOptimizer/gradients/loss_1/res3a_branch2a/kernel/Regularizer/Square_grad/Mul"
  op: "Const"
  device: "/job:localhost/replica:0/task:0/device:GPU:0"
  attr {
    key: "dtype"
    value {
      type: DT_FLOAT
    }
  }
  attr {
    key: "value"
    value {
      tensor {
        dtype: DT_FLOAT
        tensor_shape {
          dim {
            size: 1
          }
          dim {
            size: 1
          }
          dim {
            size: 256
          }
          dim {
            size: 128
          }
        }
        float_val: 0.0256
      }
    }
  }
}
node {
  name: "training_lossscaleoptimizer_sgd_update_33_resourceapplykerasmomentum_accum"
  op: "_Arg"
  device: "/job:localhost/replica:0/task:0/device:GPU:0"
  attr {
    key: "T"
    value {
      type: DT_RESOURCE
    }
  }
  attr {
    key: "_handle_dtypes"
    value {
      list {
        type: DT_FLOAT
      }
    }
  }
  attr {
    key: "_handle_shapes"
    value {
      list {
        shape {
          dim {
            size: 1
          }
          dim {
            size: 1
          }
          dim {
            size: 256
          }
          dim {
            size: 128
          }
        }
      }
    }
  }
  attr {
    key: "index"
    value {
      i: 306
    }
  }
}
node {
  name: "training_lossscaleoptimizer_sgd_update_32_resourceapplykerasmomentum_accum"
  op: "_Arg"
  device: "/job:localhost/replica:0/task:0/device:GPU:0"
  attr {
    key: "T"
    value {
      type: DT_RESOURCE
    }
  }
  attr {
    key: "_handle_dtypes"
    value {
      list {
        type: DT_FLOAT
      }
    }
  }
  attr {
    key: "_handle_shapes"
    value {
      list {
        shape {
          dim {
            size: 256
          }
        }
      }
    }
  }
  attr {
    key: "index"
    value {
      i: 305
    }
  }
}
node {
  name: "training_lossscaleoptimizer_sgd_update_31_resourceapplykerasmomentum_accum"
  op: "_Arg"
  device: "/job:localhost/replica:0/task:0/device:GPU:0"
  attr {
    key: "T"
    value {
      type: DT_RESOURCE
    }
  }
  attr {
    key: "_handle_dtypes"
    value {
      list {
        type: DT_FLOAT
      }
    }
  }
  attr {
    key: "_handle_shapes"
    value {
      list {
        shape {
          dim {
            size: 256
          }
        }
      }
    }
  }
  attr {
    key: "index"
    value {
      i: 304
    }
  }
}
node {
  name: "training_lossscaleoptimizer_sgd_update_30_resourceapplykerasmomentum_accum"
  op: "_Arg"
  device: "/job:localhost/replica:0/task:0/device:GPU:0"
  attr {
    key: "T"
    value {
      type: DT_RESOURCE
    }
  }
  attr {
    key: "_handle_dtypes"
    value {
      list {
        type: DT_FLOAT
      }
    }
  }
  attr {
    key: "_handle_shapes"
    value {
      list {
        shape {
          dim {
            size: 1
          }
          dim {
            size: 1
          }
          dim {
            size: 64
          }
          dim {
            size: 256
          }
        }
      }
    }
  }
  attr {
    key: "index"
    value {
      i: 303
    }
  }
}
node {
  name: "training/LossScaleOptimizer/gradients/loss_1/res2a_branch2a/kernel/Regularizer/Square_grad/Mul"
  op: "Const"
  device: "/job:localhost/replica:0/task:0/device:GPU:0"
  attr {
    key: "dtype"
    value {
      type: DT_FLOAT
    }
  }
  attr {
    key: "value"
    value {
      tensor {
        dtype: DT_FLOAT
        tensor_shape {
          dim {
            size: 1
          }
          dim {
            size: 1
          }
          dim {
            size: 64
          }
          dim {
            size: 64
          }
        }
        float_val: 0.0256
      }
    }
  }
}
node {
  name: "training_lossscaleoptimizer_sgd_update_3_resourceapplykerasmomentum_accum"
  op: "_Arg"
  device: "/job:localhost/replica:0/task:0/device:GPU:0"
  attr {
    key: "T"
    value {
      type: DT_RESOURCE
    }
  }
  attr {
    key: "_handle_dtypes"
    value {
      list {
        type: DT_FLOAT
      }
    }
  }
  attr {
    key: "_handle_shapes"
    value {
      list {
        shape {
          dim {
            size: 1
          }
          dim {
            size: 1
          }
          dim {
            size: 64
          }
          dim {
            size: 64
          }
        }
      }
    }
  }
  attr {
    key: "index"
    value {
      i: 276
    }
  }
}
node {
  name: "training_lossscaleoptimizer_sgd_update_29_resourceapplykerasmomentum_accum"
  op: "_Arg"
  device: "/job:localhost/replica:0/task:0/device:GPU:0"
  attr {
    key: "T"
    value {
      type: DT_RESOURCE
    }
  }
  attr {
    key: "_handle_dtypes"
    value {
      list {
        type: DT_FLOAT
      }
    }
  }
  attr {
    key: "_handle_shapes"
    value {
      list {
        shape {
          dim {
            size: 64
          }
        }
      }
    }
  }
  attr {
    key: "index"
    value {
      i: 302
    }
  }
}
node {
  name: "training_lossscaleoptimizer_sgd_update_28_resourceapplykerasmomentum_accum"
  op: "_Arg"
…
    ret {
      key: "const"
      value: "Const:output:0"
    }
  }
  function {
    signature {
      name: "bn2c_branch2b_cond_1_true_1183"
      output_arg {
        name: "const"
        type: DT_FLOAT
      }
    }
    node_def {
      name: "Const"
      op: "Const"
      attr {
        key: "dtype"
        value {
          type: DT_FLOAT
        }
      }
      attr {
        key: "value"
        value {
          tensor {
            dtype: DT_FLOAT
            tensor_shape {
            }
            float_val: 0.9
          }
        }
      }
    }
    ret {
      key: "const"
      value: "Const:output:0"
    }
  }
  function {
    signature {
      name: "bn4a_branch1_cond_1_true_3292"
      output_arg {
        name: "const"
        type: DT_FLOAT
      }
    }
    node_def {
      name: "Const"
      op: "Const"
      attr {
        key: "dtype"
        value {
          type: DT_FLOAT
        }
      }
      attr {
        key: "value"
        value {
          tensor {
            dtype: DT_FLOAT
            tensor_shape {
            }
            float_val: 0.9
          }
        }
      }
    }
    ret {
      key: "const"
      value: "Const:output:0"
    }
  }
  function {
    signature {
      name: "bn4f_branch2b_cond_1_true_4935"
      output_arg {
        name: "const"
        type: DT_FLOAT
      }
    }
    node_def {
      name: "Const"
      op: "Const"
      attr {
        key: "dtype"
        value {
          type: DT_FLOAT
        }
      }
      attr {
        key: "value"
        value {
          tensor {
            dtype: DT_FLOAT
            tensor_shape {
            }
            float_val: 0.9
          }
        }
      }
    }
    ret {
      key: "const"
      value: "Const:output:0"
    }
  }
  function {
    signature {
      name: "bn3a_branch2b_cond_1_true_1535"
      output_arg {
        name: "const"
        type: DT_FLOAT
      }
    }
    node_def {
      name: "Const"
      op: "Const"
      attr {
        key: "dtype"
        value {
          type: DT_FLOAT
        }
      }
      attr {
        key: "value"
        value {
          tensor {
            dtype: DT_FLOAT
            tensor_shape {
            }
            float_val: 0.9
          }
        }
      }
    }
    ret {
      key: "const"
      value: "Const:output:0"
    }
  }
  function {
    signature {
      name: "bn5b_branch2a_cond_1_false_5639"
      output_arg {
        name: "const"
        type: DT_FLOAT
      }
    }
    node_def {
      name: "Const"
      op: "Const"
      attr {
        key: "dtype"
        value {
          type: DT_FLOAT
        }
      }
      attr {
        key: "value"
        value {
          tensor {
            dtype: DT_FLOAT
            tensor_shape {
            }
            float_val: 1
          }
        }
      }
    }
    ret {
      key: "const"
      value: "Const:output:0"
    }
  }
  function {
    signature {
      name: "bn2c_branch2c_cond_1_false_1301"
      output_arg {
        name: "const"
        type: DT_FLOAT
      }
    }
    node_def {
      name: "Const"
      op: "Const"
      attr {
        key: "dtype"
        value {
          type: DT_FLOAT
        }
      }
      attr {
        key: "value"
        value {
          tensor {
            dtype: DT_FLOAT
            tensor_shape {
            }
            float_val: 1
          }
        }
      }
    }
    ret {
      key: "const"
      value: "Const:output:0"
    }
  }
  function {
    signature {
      name: "bn2a_branch2c_cond_1_true_480"
      output_arg {
        name: "const"
        type: DT_FLOAT
      }
    }
    node_def {
      name: "Const"
      op: "Const"
      attr {
        key: "dtype"
        value {
          type: DT_FLOAT
        }
      }
      attr {
        key: "value"
        value {
          tensor {
            dtype: DT_FLOAT
            tensor_shape {
            }
            float_val: 0.9
          }
        }
      }
    }
    ret {
      key: "const"
      value: "Const:output:0"
    }
  }
  function {
    signature {
      name: "bn3a_branch2a_cond_1_false_1419"
      output_arg {
        name: "const"
        type: DT_FLOAT
      }
    }
    node_def {
      name: "Const"
      op: "Const"
      attr {
        key: "dtype"
        value {
          type: DT_FLOAT
        }
      }
      attr {
        key: "value"
        value {
          tensor {
            dtype: DT_FLOAT
            tensor_shape {
            }
            float_val: 1
          }
        }
      }
    }
    ret {
      key: "const"
      value: "Const:output:0"
    }
  }
  function {
    signature {
      name: "bn4e_branch2c_cond_1_true_4700"
      output_arg {
        name: "const"
        type: DT_FLOAT
      }
    }
    node_def {
      name: "Const"
      op: "Const"
      attr {
        key: "dtype"
        value {
          type: DT_FLOAT
        }
      }
      attr {
        key: "value"
        value {
          tensor {
            dtype: DT_FLOAT
            tensor_shape {
            }
            float_val: 0.9
          }
        }
      }
    }
    ret {
      key: "const"
      value: "Const:output:0"
    }
  }
  function {
    signature {
      name: "bn4f_branch2b_cond_1_false_4936"
      output_arg {
        name: "const"
        type: DT_FLOAT
      }
    }
    node_def {
      name: "Const"
      op: "Const"
      attr {
        key: "dtype"
        value {
          type: DT_FLOAT
        }
      }
      attr {
        key: "value"
        value {
          tensor {
            dtype: DT_FLOAT
            tensor_shape {
            }
            float_val: 1
          }
        }
      }
    }
    ret {
      key: "const"
      value: "Const:output:0"
    }
  }
  function {
    signature {
      name: "bn4c_branch2c_cond_1_false_3997"
      output_arg {
        name: "const"
        type: DT_FLOAT
      }
    }
    node_def {
      name: "Const"
      op: "Const"
      attr {
        key: "dtype"
        value {
          type: DT_FLOAT
        }
      }
      attr {
        key: "value"
        value {
          tensor {
            dtype: DT_FLOAT
            tensor_shape {
            }
            float_val: 1
          }
        }
      }
    }
    ret {
      key: "const"
      value: "Const:output:0"
    }
  }
  function {
    signature {
      name: "bn4f_branch2a_cond_1_false_4819"
      output_arg {
        name: "const"
        type: DT_FLOAT
      }
    }
    node_def {
      name: "Const"
      op: "Const"
      attr {
        key: "dtype"
        value {
          type: DT_FLOAT
        }
      }
      attr {
        key: "value"
        value {
          tensor {
            dtype: DT_FLOAT
            tensor_shape {
            }
            float_val: 1
          }
        }
      }
    }
    ret {
      key: "const"
      value: "Const:output:0"
    }
  }
  function {
    signature {
      name: "bn2a_branch2a_cond_1_true_246"
      output_arg {
        name: "const"
        type: DT_FLOAT
      }
    }
    node_def {
      name: "Const"
      op: "Const"
      attr {
        key: "dtype"
        value {
          type: DT_FLOAT
        }
      }
      attr {
        key: "value"
        value {
          tensor {
            dtype: DT_FLOAT
            tensor_shape {
            }
            float_val: 0.9
          }
        }
      }
    }
    ret {
      key: "const"
      value: "Const:output:0"
    }
  }
  function {
    signature {
      name: "bn5a_branch2c_cond_1_false_5405"
      output_arg {
        name: "const"
        type: DT_FLOAT
      }
    }
    node_def {
      name: "Const"
      op: "Const"
      attr {
        key: "dtype"
        value {
          type: DT_FLOAT
        }
      }
      attr {
        key: "value"
        value {
          tensor {
            dtype: DT_FLOAT
            tensor_shape {
            }
            float_val: 1
          }
        }
      }
    }
    ret {
      key: "const"
      value: "Const:output:0"
    }
  }
  function {
    signature {
      name: "bn4c_branch2a_cond_1_false_3763"
      output_arg {
        name: "const"
        type: DT_FLOAT
      }
    }
    node_def {
      name: "Const"
      op: "Const"
      attr {
        key: "dtype"
        value {
          type: DT_FLOAT
        }
      }
      attr {
        key: "value"
        value {
          tensor {
            dtype: DT_FLOAT
            tensor_shape {
            }
            float_val: 1
          }
        }
      }
    }
    ret {
      key: "const"
      value: "Const:output:0"
    }
  }
  function {
    signature {
      name: "bn3d_branch2c_cond_1_false_2825"
      output_arg {
        name: "const"
        type: DT_FLOAT
      }
    }
    node_def {
      name: "Const"
      op: "Const"
      attr {
        key: "dtype"
        value {
          type: DT_FLOAT
        }
      }
      attr {
        key: "value"
        value {
          tensor {
            dtype: DT_FLOAT
            tensor_shape {
            }
            float_val: 1
          }
        }
      }
    }
    ret {
      key: "const"
      value: "Const:output:0"
    }
  }
  function {
    signature {
      name: "bn3b_branch2a_cond_1_false_1887"
      output_arg {
        name: "const"
        type: DT_FLOAT
      }
    }
    node_def {
      name: "Const"
      op: "Const"
      attr {
        key: "dtype"
        value {
          type: DT_FLOAT
        }
      }
      attr {
        key: "value"
        value {
          tensor {
            dtype: DT_FLOAT
            tensor_shape {
            }
            float_val: 1
          }
        }
      }
    }
    ret {
      key: "const"
      value: "Const:output:0"
    }
  }
  function {
    signature {
      name: "bn4c_branch2b_cond_1_true_3879"
      output_arg {
        name: "const"
        type: DT_FLOAT
      }
    }
    node_def {
      name: "Const"
      op: "Const"
      attr {
        key: "dtype"
        value {
          type: DT_FLOAT
        }
      }
      attr {
        key: "value"
        value {
          tensor {
            dtype: DT_FLOAT
            tensor_shape {
            }
            float_val: 0.9
          }
        }
      }
    }
    ret {
      key: "const"
      value: "Const:output:0"
    }
  }
  function {
    signature {
      name: "bn2a_branch1_cond_1_false_597"
      output_arg {
        name: "const"
        type: DT_FLOAT
      }
    }
    node_def {
      name: "Const"
      op: "Const"
      attr {
        key: "dtype"
        value {
          type: DT_FLOAT
        }
      }
      attr {
        key: "value"
        value {
          tensor {
            dtype: DT_FLOAT
            tensor_shape {
            }
            float_val: 1
          }
        }
      }
    }
    ret {
      key: "const"
      value: "Const:output:0"
    }
  }
  function {
    signature {
      name: "bn2c_branch2a_cond_1_true_1066"
      output_arg {
        name: "const"
        type: DT_FLOAT
      }
    }
    node_def {
      name: "Const"
      op: "Const"
      attr {
        key: "dtype"
        value {
          type: DT_FLOAT
        }
      }
      attr {
        key: "value"
        value {
          tensor {
            dtype: DT_FLOAT
            tensor_shape {
            }
            float_val: 0.9
          }
        }
      }
    }
    ret {
      key: "const"
      value: "Const:output:0"
    }
  }
  function {
    signature {
      name: "bn3a_branch2c_cond_1_false_1653"
      output_arg {
        name: "const"
        type: DT_FLOAT
      }
    }
    node_def {
      name: "Const"
      op: "Const"
      attr {
        key: "dtype"
        value {
          type: DT_FLOAT
        }
      }
      attr {
        key: "value"
        value {
          tensor {
            dtype: DT_FLOAT
            tensor_shape {
            }
            float_val: 1
          }
        }
      }
    }
    ret {
      key: "const"
      value: "Const:output:0"
    }
  }
  function {
    signature {
      name: "bn3a_branch1_cond_1_false_1769"
      output_arg {
        name: "const"
        type: DT_FLOAT
      }
    }
    node_def {
      name: "Const"
      op: "Const"
      attr {
        key: "dtype"
        value {
          type: DT_FLOAT
        }
      }
      attr {
        key: "value"
        value {
          tensor {
            dtype: DT_FLOAT
            tensor_shape {
            }
            float_val: 1
          }
        }
      }
    }
    ret {
      key: "const"
      value: "Const:output:0"
    }
  }
  function {
    signature {
      name: "bn4a_branch2a_cond_1_false_2943"
      output_arg {
        name: "const"
        type: DT_FLOAT
      }
    }
    node_def {
      name: "Const"
      op: "Const"
      attr {
        key: "dtype"
        value {
          type: DT_FLOAT
        }
      }
      attr {
        key: "value"
        value {
          tensor {
            dtype: DT_FLOAT
            tensor_shape {
            }
            float_val: 1
          }
        }
      }
    }
    ret {
      key: "const"
      value: "Const:output:0"
    }
  }
  function {
    signature {
      name: "bn5c_branch2a_cond_1_true_5990"
      output_arg {
        name: "const"
        type: DT_FLOAT
      }
    }
    node_def {
      name: "Const"
      op: "Const"
      attr {
        key: "dtype"
        value {
          type: DT_FLOAT
        }
      }
      attr {
        key: "value"
        value {
          tensor {
            dtype: DT_FLOAT
            tensor_shape {
            }
            float_val: 0.9
          }
        }
      }
    }
    ret {
      key: "const"
      value: "Const:output:0"
    }
  }
  function {
    signature {
      name: "bn5a_branch2c_cond_1_true_5404"
      output_arg {
        name: "const"
        type: DT_FLOAT
      }
    }
    node_def {
      name: "Const"
      op: "Const"
      attr {
        key: "dtype"
        value {
          type: DT_FLOAT
        }
      }
      attr {
        key: "value"
        value {
          tensor {
            dtype: DT_FLOAT
            tensor_shape {
            }
            float_val: 0.9
          }
        }
      }
    }
    ret {
      key: "const"
      value: "Const:output:0"
    }
  }
  function {
    signature {
      name: "bn3a_branch2b_cond_1_false_1536"
      output_arg {
        name: "const"
        type: DT_FLOAT
      }
    }
    node_def {
      name: "Const"
      op: "Const"
      attr {
        key: "dtype"
        value {
          type: DT_FLOAT
        }
      }
      attr {
        key: "value"
        value {
          tensor {
            dtype: DT_FLOAT
            tensor_shape {
            }
            float_val: 1
          }
        }
      }
    }
    ret {
      key: "const"
      value: "Const:output:0"
    }
  }
  function {
    signature {
      name: "bn4b_branch2c_cond_1_true_3644"
      output_arg {
        name: "const"
        type: DT_FLOAT
      }
    }
    node_def {
      name: "Const"
      op: "Const"
      attr {
        key: "dtype"
        value {
          type: DT_FLOAT
        }
      }
      attr {
        key: "value"
        value {
          tensor {
            dtype: DT_FLOAT
            tensor_shape {
            }
            float_val: 0.9
          }
        }
      }
    }
    ret {
      key: "const"
      value: "Const:output:0"
    }
  }
  function {
    signature {
      name: "bn2a_branch2c_cond_1_false_481"
      output_arg {
        name: "const"
        type: DT_FLOAT
      }
    }
    node_def {
      name: "Const"
      op: "Const"
      attr {
        key: "dtype"
        value {
          type: DT_FLOAT
        }
      }
      attr {
        key: "value"
        value {
          tensor {
            dtype: DT_FLOAT
            tensor_shape {
            }
            float_val: 1
          }
        }
      }
    }
    ret {
      key: "const"
      value: "Const:output:0"
    }
  }
  function {
    signature {
      name: "bn5a_branch2a_cond_1_true_5170"
      output_arg {
        name: "const"
        type: DT_FLOAT
      }
    }
    node_def {
      name: "Const"
      op: "Const"
      attr {
        key: "dtype"
        value {
          type: DT_FLOAT
        }
      }
      attr {
        key: "value"
        value {
          tensor {
            dtype: DT_FLOAT
            tensor_shape {
            }
            float_val: 0.9
          }
        }
      }
    }
    ret {
      key: "const"
      value: "Const:output:0"
    }
  }
  function {
    signature {
      name: "bn3a_branch2a_cond_1_true_1418"
      output_arg {
        name: "const"
        type: DT_FLOAT
      }
    }
    node_def {
      name: "Const"
      op: "Const"
      attr {
        key: "dtype"
        value {
          type: DT_FLOAT
        }
      }
      attr {
        key: "value"
        value {
          tensor {
            dtype: DT_FLOAT
            tensor_shape {
            }
            float_val: 0.9
          }
        }
      }
    }
    ret {
      key: "const"
      value: "Const:output:0"
    }
  }
  function {
    signature {
      name: "bn4e_branch2a_cond_1_true_4466"
      output_arg {
        name: "const"
        type: DT_FLOAT
      }
    }
    node_def {
      name: "Const"
      op: "Const"
      attr {
        key: "dtype"
        value {
          type: DT_FLOAT
        }
      }
      attr {
        key: "value"
        value {
          tensor {
            dtype: DT_FLOAT
            tensor_shape {
            }
            float_val: 0.9
          }
        }
      }
    }
    ret {
      key: "const"
      value: "Const:output:0"
    }
  }
  function {
    signature {
      name: "bn3c_branch2c_cond_1_false_2473"
      output_arg {
        name: "const"
        type: DT_FLOAT
      }
    }
    node_def {
      name: "Const"
      op: "Const"
      attr {
        key: "dtype"
        value {
          type: DT_FLOAT
        }
      }
      attr {
        key: "value"
        value {
          tensor {
            dtype: DT_FLOAT
            tensor_shape {
            }
            float_val: 1
          }
        }
      }
    }
    ret {
      key: "const"
      value: "Const:output:0"
    }
  }
  function {
    signature {
      name: "bn4a_branch2c_cond_1_true_3176"
      output_arg {
        name: "const"
        type: DT_FLOAT
      }
    }
    node_def {
      name: "Const"
      op: "Const"
      attr {
        key: "dtype"
        value {
          type: DT_FLOAT
        }
      }
      attr {
        key: "value"
        value {
          tensor {
            dtype: DT_FLOAT
            tensor_shape {
            }
            float_val: 0.9
          }
        }
      }
    }
    ret {
      key: "const"
      value: "Const:output:0"
    }
  }
  function {
    signature {
      name: "bn5c_branch2a_cond_1_false_5991"
      output_arg {
        name: "const"
        type: DT_FLOAT
      }
    }
    node_def {
      name: "Const"
      op: "Const"
      attr {
        key: "dtype"
        value {
          type: DT_FLOAT
        }
      }
      attr {
        key: "value"
        value {
          tensor {
            dtype: DT_FLOAT
            tensor_shape {
            }
            float_val: 1
          }
        }
      }
    }
    ret {
      key: "const"
      value: "Const:output:0"
    }
  }
  function {
    signature {
      name: "bn3c_branch2b_cond_1_false_2356"
      output_arg {
        name: "const"
        type: DT_FLOAT
      }
    }
    node_def {
      name: "Const"
      op: "Const"
      attr {
        key: "dtype"
        value {
          type: DT_FLOAT
        }
      }
      attr {
        key: "value"
        value {
          tensor {
            dtype: DT_FLOAT
            tensor_shape {
            }
            float_val: 1
          }
        }
      }
    }
    ret {
      key: "const"
      value: "Const:output:0"
    }
  }
  function {
    signature {
      name: "bn3c_branch2a_cond_1_true_2238"
      output_arg {
        name: "const"
        type: DT_FLOAT
      }
    }
    node_def {
      name: "Const"
      op: "Const"
      attr {
        key: "dtype"
        value {
          type: DT_FLOAT
        }
      }
      attr {
        key: "value"
        value {
          tensor {
            dtype: DT_FLOAT
            tensor_shape {
            }
            float_val: 0.9
          }
        }
      }
    }
    ret {
      key: "const"
      value: "Const:output:0"
    }
  }
  function {
    signature {
      name: "bn5b_branch2a_cond_1_true_5638"
      output_arg {
        name: "const"
        type: DT_FLOAT
      }
    }
    node_def {
      name: "Const"
      op: "Const"
      attr {
        key: "dtype"
        value {
          type: DT_FLOAT
        }
      }
      attr {
        key: "value"
        value {
          tensor {
            dtype: DT_FLOAT
            tensor_shape {
            }
            float_val: 0.9
          }
        }
      }
    }
    ret {
      key: "const"
      value: "Const:output:0"
    }
  }
  function {
    signature {
      name: "bn4c_branch2a_cond_1_true_3762"
      output_arg {
        name: "const"
        type: DT_FLOAT
      }
    }
    node_def {
      name: "Const"
      op: "Const"
      attr {
        key: "dtype"
        value {
          type: DT_FLOAT
        }
      }
      attr {
        key: "value"
        value {
          tensor {
            dtype: DT_FLOAT
            tensor_shape {
            }
            float_val: 0.9
          }
        }
      }
    }
    ret {
      key: "const"
      value: "Const:output:0"
    }
  }
  function {
    signature {
      name: "bn4a_branch2b_cond_1_false_3060"
      output_arg {
        name: "const"
        type: DT_FLOAT
      }
    }
    node_def {
      name: "Const"
      op: "Const"
      attr {
        key: "dtype"
        value {
          type: DT_FLOAT
        }
      }
      attr {
        key: "value"
        value {
          tensor {
            dtype: DT_FLOAT
            tensor_shape {
            }
            float_val: 1
          }
        }
      }
    }
    ret {
      key: "const"
      value: "Const:output:0"
    }
  }
  function {
    signature {
      name: "bn4c_branch2b_cond_1_false_3880"
      output_arg {
        name: "const"
        type: DT_FLOAT
      }
    }
    node_def {
      name: "Const"
      op: "Const"
      attr {
        key: "dtype"
        value {
          type: DT_FLOAT
        }
      }
      attr {
        key: "value"
        value {
          tensor {
            dtype: DT_FLOAT
            tensor_shape {
            }
            float_val: 1
          }
        }
      }
    }
    ret {
      key: "const"
      value: "Const:output:0"
    }
  }
  function {
    signature {
      name: "bn2c_branch2c_cond_1_true_1300"
      output_arg {
        name: "const"
        type: DT_FLOAT
      }
    }
    node_def {
      name: "Const"
      op: "Const"
      attr {
        key: "dtype"
        value {
          type: DT_FLOAT
        }
      }
      attr {
        key: "value"
        value {
          tensor {
            dtype: DT_FLOAT
            tensor_shape {
            }
            float_val: 0.9
          }
        }
      }
    }
    ret {
      key: "const"
      value: "Const:output:0"
    }
  }
  function {
    signature {
      name: "bn4b_branch2b_cond_1_true_3527"
      output_arg {
        name: "const"
        type: DT_FLOAT
      }
    }
    node_def {
      name: "Const"
      op: "Const"
      attr {
        key: "dtype"
        value {
          type: DT_FLOAT
        }
      }
      attr {
        key: "value"
        value {
          tensor {
            dtype: DT_FLOAT
            tensor_shape {
            }
            float_val: 0.9
          }
        }
      }
    }
    ret {
      key: "const"
      value: "Const:output:0"
    }
  }
  function {
    signature {
      name: "bn4f_branch2a_cond_1_true_4818"
      output_arg {
        name: "const"
        type: DT_FLOAT
      }
    }
    node_def {
      name: "Const"
      op: "Const"
      attr {
        key: "dtype"
        value {
          type: DT_FLOAT
        }
      }
      attr {
        key: "value"
        value {
          tensor {
            dtype: DT_FLOAT
            tensor_shape {
            }
            float_val: 0.9
          }
        }
      }
    }
    ret {
      key: "const"
      value: "Const:output:0"
    }
  }
  function {
    signature {
      name: "bn2b_branch2a_cond_1_true_714"
      output_arg {
        name: "const"
        type: DT_FLOAT
      }
    }
    node_def {
      name: "Const"
      op: "Const"
      attr {
        key: "dtype"
        value {
          type: DT_FLOAT
        }
      }
      attr {
        key: "value"
        value {
          tensor {
            dtype: DT_FLOAT
            tensor_shape {
            }
            float_val: 0.9
          }
        }
      }
    }
    ret {
      key: "const"
      value: "Const:output:0"
    }
  }
  function {
    signature {
      name: "bn4e_branch2b_cond_1_true_4583"
      output_arg {
        name: "const"
        type: DT_FLOAT
      }
    }
    node_def {
      name: "Const"
      op: "Const"
      attr {
        key: "dtype"
        value {
          type: DT_FLOAT
        }
      }
      attr {
        key: "value"
        value {
          tensor {
            dtype: DT_FLOAT
            tensor_shape {
            }
            float_val: 0.9
          }
        }
      }
    }
    ret {
      key: "const"
      value: "Const:output:0"
    }
  }
  function {
    signature {
      name: "bn3c_branch2c_cond_1_true_2472"
      output_arg {
        name: "const"
        type: DT_FLOAT
      }
    }
    node_def {
      name: "Const"
      op: "Const"
      attr {
        key: "dtype"
        value {
          type: DT_FLOAT
        }
      }
      attr {
        key: "value"
        value {
          tensor {
            dtype: DT_FLOAT
            tensor_shape {
            }
            float_val: 0.9
          }
        }
      }
    }
    ret {
      key: "const"
      value: "Const:output:0"
    }
  }
  function {
    signature {
      name: "bn5a_branch1_cond_1_false_5521"
      output_arg {
        name: "const"
        type: DT_FLOAT
      }
    }
    node_def {
      name: "Const"
      op: "Const"
      attr {
        key: "dtype"
        value {
          type: DT_FLOAT
        }
      }
      attr {
        key: "value"
        value {
          tensor {
            dtype: DT_FLOAT
            tensor_shape {
            }
            float_val: 1
          }
        }
      }
    }
    ret {
      key: "const"
      value: "Const:output:0"
    }
  }
  function {
    signature {
      name: "bn5b_branch2c_cond_1_false_5873"
      output_arg {
        name: "const"
        type: DT_FLOAT
      }
    }
    node_def {
      name: "Const"
      op: "Const"
      attr {
        key: "dtype"
        value {
          type: DT_FLOAT
        }
      }
      attr {
        key: "value"
        value {
          tensor {
            dtype: DT_FLOAT
            tensor_shape {
            }
            float_val: 1
          }
        }
      }
    }
    ret {
      key: "const"
      value: "Const:output:0"
    }
  }
  function {
    signature {
      name: "bn4c_branch2c_cond_1_true_3996"
      output_arg {
        name: "const"
        type: DT_FLOAT
      }
    }
    node_def {
      name: "Const"
      op: "Const"
      attr {
        key: "dtype"
        value {
          type: DT_FLOAT
        }
      }
      attr {
        key: "value"
        value {
          tensor {
            dtype: DT_FLOAT
            tensor_shape {
            }
            float_val: 0.9
          }
        }
      }
    }
    ret {
      key: "const"
      value: "Const:output:0"
    }
  }
  function {
    signature {
      name: "bn2b_branch2b_cond_1_true_831"
      output_arg {
        name: "const"
        type: DT_FLOAT
      }
    }
    node_def {
      name: "Const"
      op: "Const"
      attr {
        key: "dtype"
        value {
          type: DT_FLOAT
        }
      }
      attr {
        key: "value"
        value {
          tensor {
            dtype: DT_FLOAT
            tensor_shape {
            }
            float_val: 0.9
          }
        }
      }
    }
    ret {
      key: "const"
      value: "Const:output:0"
    }
  }
  function {
    signature {
      name: "bn3a_branch1_cond_1_true_1768"
      output_arg {
        name: "const"
        type: DT_FLOAT
      }
    }
    node_def {
      name: "Const"
      op: "Const"
      attr {
        key: "dtype"
        value {
          type: DT_FLOAT
        }
      }
      attr {
        key: "value"
        value {
          tensor {
            dtype: DT_FLOAT
            tensor_shape {
            }
            float_val: 0.9
          }
        }
      }
    }
    ret {
      key: "const"
      value: "Const:output:0"
    }
  }
  function {
    signature {
      name: "bn2a_branch2b_cond_1_true_363"
      output_arg {
        name: "const"
        type: DT_FLOAT
      }
    }
    node_def {
      name: "Const"
      op: "Const"
      attr {
        key: "dtype"
        value {
          type: DT_FLOAT
        }
      }
      attr {
        key: "value"
        value {
          tensor {
            dtype: DT_FLOAT
            tensor_shape {
            }
            float_val: 0.9
          }
        }
      }
    }
    ret {
      key: "const"
      value: "Const:output:0"
    }
  }
  function {
    signature {
      name: "bn4e_branch2c_cond_1_false_4701"
      output_arg {
        name: "const"
        type: DT_FLOAT
      }
    }
    node_def {
      name: "Const"
      op: "Const"
      attr {
        key: "dtype"
        value {
          type: DT_FLOAT
        }
      }
      attr {
        key: "value"
        value {
          tensor {
            dtype: DT_FLOAT
            tensor_shape {
            }
            float_val: 1
          }
        }
      }
    }
    ret {
      key: "const"
      value: "Const:output:0"
    }
  }
  function {
    signature {
      name: "bn_conv1_cond_1_true_126"
      output_arg {
        name: "const"
        type: DT_FLOAT
      }
    }
    node_def {
      name: "Const"
      op: "Const"
      attr {
        key: "dtype"
        value {
          type: DT_FLOAT
        }
      }
      attr {
        key: "value"
        value {
          tensor {
            dtype: DT_FLOAT
            tensor_shape {
            }
            float_val: 0.9
          }
        }
      }
    }
    ret {
      key: "const"
      value: "Const:output:0"
    }
  }
  function {
    signature {
      name: "bn3c_branch2b_cond_1_true_2355"
      output_arg {
        name: "const"
        type: DT_FLOAT
      }
    }
    node_def {
      name: "Const"
      op: "Const"
      attr {
        key: "dtype"
        value {
          type: DT_FLOAT
        }
      }
      attr {
        key: "value"
        value {
          tensor {
            dtype: DT_FLOAT
            tensor_shape {
            }
            float_val: 0.9
          }
        }
      }
    }
    ret {
      key: "const"
      value: "Const:output:0"
    }
  }
  function {
    signature {
      name: "bn4d_branch2c_cond_1_true_4348"
      output_arg {
        name: "const"
        type: DT_FLOAT
      }
    }
    node_def {
      name: "Const"
      op: "Const"
      attr {
        key: "dtype"
        value {
          type: DT_FLOAT
        }
      }
      attr {
        key: "value"
        value {
          tensor {
            dtype: DT_FLOAT
            tensor_shape {
            }
            float_val: 0.9
          }
        }
      }
    }
    ret {
      key: "const"
      value: "Const:output:0"
    }
  }
  function {
    signature {
      name: "bn2c_branch2b_cond_1_false_1184"
      output_arg {
        name: "const"
        type: DT_FLOAT
      }
    }
    node_def {
      name: "Const"
      op: "Const"
      attr {
        key: "dtype"
        value {
          type: DT_FLOAT
        }
      }
      attr {
        key: "value"
        value {
          tensor {
            dtype: DT_FLOAT
            tensor_shape {
            }
            float_val: 1
          }
        }
      }
    }
    ret {
      key: "const"
      value: "Const:output:0"
    }
  }
  function {
    signature {
      name: "bn4d_branch2a_cond_1_false_4115"
      output_arg {
        name: "const"
        type: DT_FLOAT
      }
    }
    node_def {
      name: "Const"
      op: "Const"
      attr {
        key: "dtype"
        value {
          type: DT_FLOAT
        }
      }
      attr {
        key: "value"
        value {
          tensor {
            dtype: DT_FLOAT
            tensor_shape {
            }
            float_val: 1
          }
        }
      }
    }
    ret {
      key: "const"
      value: "Const:output:0"
    }
  }
  function {
    signature {
      name: "bn4a_branch2c_cond_1_false_3177"
      output_arg {
        name: "const"
        type: DT_FLOAT
      }
    }
    node_def {
      name: "Const"
      op: "Const"
      attr {
        key: "dtype"
        value {
          type: DT_FLOAT
        }
      }
      attr {
        key: "value"
        value {
          tensor {
            dtype: DT_FLOAT
            tensor_shape {
            }
            float_val: 1
          }
        }
      }
    }
    ret {
      key: "const"
      value: "Const:output:0"
    }
  }
  function {
    signature {
      name: "bn3d_branch2b_cond_1_false_2708"
      output_arg {
        name: "const"
        type: DT_FLOAT
      }
    }
    node_def {
      name: "Const"
      op: "Const"
      attr {
        key: "dtype"
        value {
          type: DT_FLOAT
        }
      }
      attr {
        key: "value"
        value {
          tensor {
            dtype: DT_FLOAT
            tensor_shape {
            }
            float_val: 1
          }
        }
      }
    }
    ret {
      key: "const"
      value: "Const:output:0"
    }
  }
  function {
    signature {
      name: "bn3a_branch2c_cond_1_true_1652"
      output_arg {
        name: "const"
        type: DT_FLOAT
      }
    }
    node_def {
      name: "Const"
      op: "Const"
      attr {
        key: "dtype"
        value {
          type: DT_FLOAT
        }
      }
      attr {
        key: "value"
        value {
          tensor {
            dtype: DT_FLOAT
            tensor_shape {
            }
            float_val: 0.9
          }
        }
      }
    }
    ret {
      key: "const"
      value: "Const:output:0"
    }
  }
  function {
    signature {
      name: "bn4b_branch2a_cond_1_true_3410"
      output_arg {
        name: "const"
        type: DT_FLOAT
      }
    }
    node_def {
      name: "Const"
      op: "Const"
      attr {
        key: "dtype"
        value {
          type: DT_FLOAT
        }
      }
      attr {
        key: "value"
        value {
          tensor {
            dtype: DT_FLOAT
            tensor_shape {
            }
            float_val: 0.9
          }
        }
      }
    }
    ret {
      key: "const"
      value: "Const:output:0"
    }
  }
  function {
    signature {
      name: "bn2a_branch1_cond_1_true_596"
      output_arg {
        name: "const"
        type: DT_FLOAT
      }
    }
    node_def {
      name: "Const"
      op: "Const"
      attr {
        key: "dtype"
        value {
          type: DT_FLOAT
        }
      }
      attr {
        key: "value"
        value {
          tensor {
            dtype: DT_FLOAT
            tensor_shape {
            }
            float_val: 0.9
          }
        }
      }
    }
    ret {
      key: "const"
      value: "Const:output:0"
    }
  }
  function {
    signature {
      name: "bn5c_branch2b_cond_1_true_6107"
      output_arg {
        name: "const"
        type: DT_FLOAT
      }
    }
    node_def {
      name: "Const"
      op: "Const"
      attr {
        key: "dtype"
        value {
          type: DT_FLOAT
        }
      }
      attr {
        key: "value"
        value {
          tensor {
            dtype: DT_FLOAT
            tensor_shape {
            }
            float_val: 0.9
          }
        }
      }
    }
    ret {
      key: "const"
      value: "Const:output:0"
    }
  }
  function {
    signature {
      name: "bn3d_branch2b_cond_1_true_2707"
      output_arg {
        name: "const"
        type: DT_FLOAT
      }
    }
    node_def {
      name: "Const"
      op: "Const"
      attr {
        key: "dtype"
        value {
          type: DT_FLOAT
        }
      }
      attr {
        key: "value"
        value {
          tensor {
            dtype: DT_FLOAT
            tensor_shape {
            }
            float_val: 0.9
          }
        }
      }
    }
    ret {
      key: "const"
      value: "Const:output:0"
    }
  }
  function {
    signature {
      name: "bn4e_branch2b_cond_1_false_4584"
      output_arg {
        name: "const"
        type: DT_FLOAT
      }
    }
    node_def {
      name: "Const"
      op: "Const"
      attr {
        key: "dtype"
        value {
          type: DT_FLOAT
        }
      }
      attr {
        key: "value"
        value {
          tensor {
            dtype: DT_FLOAT
            tensor_shape {
            }
            float_val: 1
          }
        }
      }
    }
    ret {
      key: "const"
      value: "Const:output:0"
    }
  }
  function {
    signature {
      name: "bn_conv1_cond_1_false_127"
      output_arg {
        name: "const"
        type: DT_FLOAT
      }
    }
    node_def {
      name: "Const"
      op: "Const"
      attr {
        key: "dtype"
        value {
          type: DT_FLOAT
        }
      }
      attr {
        key: "value"
        value {
          tensor {
            dtype: DT_FLOAT
            tensor_shape {
            }
            float_val: 1
          }
        }
      }
    }
    ret {
      key: "const"
      value: "Const:output:0"
    }
  }
  function {
    signature {
      name: "bn5a_branch2b_cond_1_false_5288"
      output_arg {
        name: "const"
        type: DT_FLOAT
      }
    }
    node_def {
      name: "Const"
      op: "Const"
      attr {
        key: "dtype"
        value {
          type: DT_FLOAT
        }
      }
      attr {
        key: "value"
        value {
          tensor {
            dtype: DT_FLOAT
            tensor_shape {
            }
            float_val: 1
          }
        }
      }
    }
    ret {
      key: "const"
      value: "Const:output:0"
    }
  }
  function {
    signature {
      name: "bn3d_branch2a_cond_1_false_2591"
      output_arg {
        name: "const"
        type: DT_FLOAT
      }
    }
    node_def {
      name: "Const"
      op: "Const"
      attr {
        key: "dtype"
        value {
          type: DT_FLOAT
        }
      }
      attr {
        key: "value"
        value {
          tensor {
            dtype: DT_FLOAT
            tensor_shape {
            }
            float_val: 1
          }
        }
      }
    }
    ret {
      key: "const"
      value: "Const:output:0"
    }
  }
  function {
    signature {
      name: "bn2a_branch2b_cond_1_false_364"
      output_arg {
        name: "const"
        type: DT_FLOAT
      }
    }
    node_def {
      name: "Const"
      op: "Const"
      attr {
        key: "dtype"
        value {
          type: DT_FLOAT
        }
      }
      attr {
        key: "value"
        value {
          tensor {
            dtype: DT_FLOAT
            tensor_shape {
            }
            float_val: 1
          }
        }
      }
    }
    ret {
      key: "const"
      value: "Const:output:0"
    }
  }
  function {
    signature {
      name: "bn4d_branch2b_cond_1_false_4232"
      output_arg {
        name: "const"
        type: DT_FLOAT
      }
    }
    node_def {
      name: "Const"
      op: "Const"
      attr {
        key: "dtype"
        value {
          type: DT_FLOAT
        }
      }
      attr {
        key: "value"
        value {
          tensor {
            dtype: DT_FLOAT
            tensor_shape {
            }
            float_val: 1
          }
        }
      }
    }
    ret {
      key: "const"
      value: "Const:output:0"
    }
  }
  function {
    signature {
      name: "bn4e_branch2a_cond_1_false_4467"
      output_arg {
        name: "const"
        type: DT_FLOAT
      }
    }
    node_def {
      name: "Const"
      op: "Const"
      attr {
        key: "dtype"
        value {
          type: DT_FLOAT
        }
      }
      attr {
        key: "value"
        value {
          tensor {
            dtype: DT_FLOAT
            tensor_shape {
            }
            float_val: 1
          }
        }
      }
    }
    ret {
      key: "const"
      value: "Const:output:0"
    }
  }
  function {
    signature {
      name: "bn4a_branch2b_cond_1_true_3059"
      output_arg {
        name: "const"
        type: DT_FLOAT
      }
    }
    node_def {
      name: "Const"
      op: "Const"
      attr {
        key: "dtype"
        value {
          type: DT_FLOAT
        }
      }
      attr {
        key: "value"
        value {
          tensor {
            dtype: DT_FLOAT
            tensor_shape {
            }
            float_val: 0.9
          }
        }
      }
    }
    ret {
      key: "const"
      value: "Const:output:0"
    }
  }
  function {
    signature {
      name: "bn4b_branch2b_cond_1_false_3528"
      output_arg {
        name: "const"
        type: DT_FLOAT
      }
    }
    node_def {
      name: "Const"
      op: "Const"
      attr {
        key: "dtype"
        value {
          type: DT_FLOAT
        }
      }
      attr {
        key: "value"
        value {
          tensor {
            dtype: DT_FLOAT
            tensor_shape {
            }
            float_val: 1
          }
        }
      }
    }
    ret {
      key: "const"
      value: "Const:output:0"
    }
  }
  function {
    signature {
      name: "bn4f_branch2c_cond_1_true_5052"
      output_arg {
        name: "const"
        type: DT_FLOAT
      }
    }
    node_def {
      name: "Const"
      op: "Const"
      attr {
        key: "dtype"
        value {
          type: DT_FLOAT
        }
      }
      attr {
        key: "value"
        value {
          tensor {
            dtype: DT_FLOAT
            tensor_shape {
            }
            float_val: 0.9
          }
        }
      }
    }
    ret {
      key: "const"
      value: "Const:output:0"
    }
  }
  function {
    signature {
      name: "bn5a_branch1_cond_1_true_5520"
      output_arg {
        name: "const"
        type: DT_FLOAT
      }
    }
    node_def {
      name: "Const"
      op: "Const"
      attr {
        key: "dtype"
        value {
          type: DT_FLOAT
        }
      }
      attr {
        key: "value"
        value {
          tensor {
            dtype: DT_FLOAT
            tensor_shape {
            }
            float_val: 0.9
          }
        }
      }
    }
    ret {
      key: "const"
      value: "Const:output:0"
    }
  }
  function {
    signature {
      name: "bn3b_branch2c_cond_1_true_2120"
      output_arg {
        name: "const"
        type: DT_FLOAT
      }
    }
    node_def {
      name: "Const"
      op: "Const"
      attr {
        key: "dtype"
        value {
          type: DT_FLOAT
        }
      }
      attr {
        key: "value"
        value {
          tensor {
            dtype: DT_FLOAT
            tensor_shape {
            }
            float_val: 0.9
          }
        }
      }
    }
    ret {
      key: "const"
      value: "Const:output:0"
    }
  }
  function {
    signature {
      name: "bn4d_branch2a_cond_1_true_4114"
      output_arg {
        name: "const"
        type: DT_FLOAT
      }
    }
    node_def {
      name: "Const"
      op: "Const"
      attr {
        key: "dtype"
        value {
          type: DT_FLOAT
        }
      }
      attr {
        key: "value"
        value {
          tensor {
            dtype: DT_FLOAT
            tensor_shape {
            }
            float_val: 0.9
          }
        }
      }
    }
    ret {
      key: "const"
      value: "Const:output:0"
    }
  }
  function {
    signature {
      name: "bn3b_branch2b_cond_1_false_2004"
      output_arg {
        name: "const"
        type: DT_FLOAT
      }
    }
    node_def {
      name: "Const"
      op: "Const"
      attr {
        key: "dtype"
        value {
          type: DT_FLOAT
        }
      }
      attr {
        key: "value"
        value {
          tensor {
            dtype: DT_FLOAT
            tensor_shape {
            }
            float_val: 1
          }
        }
      }
    }
    ret {
      key: "const"
      value: "Const:output:0"
    }
  }
  function {
    signature {
      name: "bn4d_branch2c_cond_1_false_4349"
      output_arg {
        name: "const"
        type: DT_FLOAT
      }
    }
    node_def {
      name: "Const"
      op: "Const"
      attr {
        key: "dtype"
        value {
          type: DT_FLOAT
        }
      }
      attr {
        key: "value"
        value {
          tensor {
            dtype: DT_FLOAT
            tensor_shape {
            }
            float_val: 1
          }
        }
      }
    }
    ret {
      key: "const"
      value: "Const:output:0"
    }
  }
  function {
    signature {
      name: "bn2b_branch2c_cond_1_false_949"
      output_arg {
        name: "const"
        type: DT_FLOAT
      }
    }
    node_def {
      name: "Const"
      op: "Const"
      attr {
        key: "dtype"
        value {
          type: DT_FLOAT
        }
      }
      attr {
        key: "value"
        value {
          tensor {
            dtype: DT_FLOAT
            tensor_shape {
            }
            float_val: 1
          }
        }
      }
    }
    ret {
      key: "const"
      value: "Const:output:0"
    }
  }
  function {
    signature {
      name: "bn5b_branch2b_cond_1_false_5756"
      output_arg {
        name: "const"
        type: DT_FLOAT
      }
    }
    node_def {
      name: "Const"
      op: "Const"
      attr {
        key: "dtype"
        value {
          type: DT_FLOAT
        }
      }
      attr {
        key: "value"
        value {
          tensor {
            dtype: DT_FLOAT
            tensor_shape {
            }
            float_val: 1
          }
        }
      }
    }
    ret {
      key: "const"
      value: "Const:output:0"
    }
  }
  function {
    signature {
      name: "bn5b_branch2b_cond_1_true_5755"
      output_arg {
        name: "const"
        type: DT_FLOAT
      }
    }
    node_def {
      name: "Const"
      op: "Const"
      attr {
        key: "dtype"
        value {
          type: DT_FLOAT
        }
      }
      attr {
        key: "value"
        value {
          tensor {
            dtype: DT_FLOAT
            tensor_shape {
            }
            float_val: 0.9
          }
        }
      }
    }
    ret {
      key: "const"
      value: "Const:output:0"
    }
  }
  function {
    signature {
      name: "bn2b_branch2b_cond_1_false_832"
      output_arg {
        name: "const"
        type: DT_FLOAT
      }
    }
    node_def {
      name: "Const"
      op: "Const"
      attr {
        key: "dtype"
        value {
          type: DT_FLOAT
        }
      }
      attr {
        key: "value"
        value {
          tensor {
            dtype: DT_FLOAT
            tensor_shape {
            }
            float_val: 1
          }
        }
      }
    }
    ret {
      key: "const"
      value: "Const:output:0"
    }
  }
  function {
    signature {
      name: "bn2b_branch2a_cond_1_false_715"
      output_arg {
        name: "const"
        type: DT_FLOAT
      }
    }
    node_def {
      name: "Const"
      op: "Const"
      attr {
        key: "dtype"
        value {
          type: DT_FLOAT
        }
      }
      attr {
        key: "value"
        value {
          tensor {
            dtype: DT_FLOAT
            tensor_shape {
            }
            float_val: 1
          }
        }
      }
    }
    ret {
      key: "const"
      value: "Const:output:0"
    }
  }
  function {
    signature {
      name: "bn4f_branch2c_cond_1_false_5053"
      output_arg {
        name: "const"
        type: DT_FLOAT
      }
    }
    node_def {
      name: "Const"
      op: "Const"
      attr {
        key: "dtype"
        value {
          type: DT_FLOAT
        }
      }
      attr {
        key: "value"
        value {
          tensor {
            dtype: DT_FLOAT
            tensor_shape {
            }
            float_val: 1
          }
        }
      }
    }
    ret {
      key: "const"
      value: "Const:output:0"
    }
  }
  function {
    signature {
      name: "bn4d_branch2b_cond_1_true_4231"
      output_arg {
        name: "const"
        type: DT_FLOAT
      }
    }
    node_def {
      name: "Const"
      op: "Const"
      attr {
        key: "dtype"
        value {
          type: DT_FLOAT
        }
      }
      attr {
        key: "value"
        value {
          tensor {
            dtype: DT_FLOAT
            tensor_shape {
            }
            float_val: 0.9
          }
        }
      }
    }
    ret {
      key: "const"
      value: "Const:output:0"
    }
  }
  function {
    signature {
      name: "bn3d_branch2c_cond_1_true_2824"
      output_arg {
        name: "const"
        type: DT_FLOAT
      }
    }
    node_def {
      name: "Const"
      op: "Const"
      attr {
        key: "dtype"
        value {
          type: DT_FLOAT
        }
      }
      attr {
        key: "value"
        value {
          tensor {
            dtype: DT_FLOAT
            tensor_shape {
            }
            float_val: 0.9
          }
        }
      }
    }
    ret {
      key: "const"
      value: "Const:output:0"
    }
  }
}
versions {
  producer: 29
}
