node {
  name: "G4SM2HGMB5"
  op: "VarHandleOp"
  device: "/job:localhost/replica:0/task:0/device:GPU:0"
  attr {
    key: "_class"
    value {
      list {
        s: "loc:@G4SM2HGMB5/Read/ReadVariableOp"
      }
    }
  }
  attr {
    key: "container"
    value {
      s: ""
    }
  }
  attr {
    key: "dtype"
    value {
      type: DT_FLOAT
    }
  }
  attr {
    key: "shape"
    value {
      shape {
        dim {
          size: 117
        }
        dim {
          size: 224
        }
        dim {
          size: 224
        }
        dim {
          size: 3
        }
      }
    }
  }
  attr {
    key: "shared_name"
    value {
      s: "G4SM2HGMB5"
    }
  }
}
node {
  name: "HK0SX0WHBZ"
  op: "VarHandleOp"
  device: "/job:localhost/replica:0/task:0/device:GPU:0"
  attr {
    key: "_class"
    value {
      list {
        s: "loc:@HK0SX0WHBZ/Read/ReadVariableOp"
      }
    }
  }
  attr {
    key: "container"
    value {
      s: ""
    }
  }
  attr {
    key: "dtype"
    value {
      type: DT_FLOAT
    }
  }
  attr {
    key: "shape"
    value {
      shape {
        dim {
          size: 117
        }
        dim {
          size: 1
        }
      }
    }
  }
  attr {
    key: "shared_name"
    value {
      s: "HK0SX0WHBZ"
    }
  }
}
node {
  name: "bn2a_branch1/moving_mean"
  op: "VarHandleOp"
  device: "/job:localhost/replica:0/task:0/device:GPU:0"
  attr {
    key: "_class"
    value {
      list {
        s: "loc:@bn2a_branch1_1/AssignMovingAvg/AssignSubVariableOp"
      }
    }
  }
  attr {
    key: "container"
    value {
      s: ""
    }
  }
  attr {
    key: "dtype"
    value {
      type: DT_FLOAT
    }
  }
  attr {
    key: "shape"
    value {
      shape {
        dim {
          size: 256
        }
      }
    }
  }
  attr {
    key: "shared_name"
    value {
      s: "bn2a_branch1/moving_mean"
    }
  }
}
node {
  name: "bn2a_branch1/moving_variance"
  op: "VarHandleOp"
  device: "/job:localhost/replica:0/task:0/device:GPU:0"
  attr {
    key: "_class"
    value {
      list {
        s: "loc:@bn2a_branch1_1/AssignMovingAvg_1/AssignSubVariableOp"
      }
    }
  }
  attr {
    key: "container"
    value {
      s: ""
    }
  }
  attr {
    key: "dtype"
    value {
      type: DT_FLOAT
    }
  }
  attr {
    key: "shape"
    value {
      shape {
        dim {
          size: 256
        }
      }
    }
  }
  attr {
    key: "shared_name"
    value {
      s: "bn2a_branch1/moving_variance"
    }
  }
}
node {
  name: "bn2a_branch2a/moving_mean"
  op: "VarHandleOp"
  device: "/job:localhost/replica:0/task:0/device:GPU:0"
  attr {
    key: "_class"
    value {
      list {
        s: "loc:@bn2a_branch2a_1/AssignMovingAvg/AssignSubVariableOp"
      }
    }
  }
  attr {
    key: "container"
    value {
      s: ""
    }
  }
  attr {
    key: "dtype"
    value {
      type: DT_FLOAT
    }
  }
  attr {
    key: "shape"
    value {
      shape {
        dim {
          size: 64
        }
      }
    }
  }
  attr {
    key: "shared_name"
    value {
      s: "bn2a_branch2a/moving_mean"
    }
  }
}
node {
  name: "bn2a_branch2a/moving_variance"
  op: "VarHandleOp"
  device: "/job:localhost/replica:0/task:0/device:GPU:0"
  attr {
    key: "_class"
    value {
      list {
        s: "loc:@bn2a_branch2a_1/AssignMovingAvg_1/AssignSubVariableOp"
      }
    }
  }
  attr {
    key: "container"
    value {
      s: ""
    }
  }
  attr {
    key: "dtype"
    value {
      type: DT_FLOAT
    }
  }
  attr {
    key: "shape"
    value {
      shape {
        dim {
          size: 64
        }
      }
    }
  }
  attr {
    key: "shared_name"
    value {
      s: "bn2a_branch2a/moving_variance"
    }
  }
}
node {
  name: "bn2a_branch2b/moving_mean"
  op: "VarHandleOp"
  device: "/job:localhost/replica:0/task:0/device:GPU:0"
  attr {
    key: "_class"
    value {
      list {
        s: "loc:@bn2a_branch2b_1/AssignMovingAvg/AssignSubVariableOp"
      }
    }
  }
  attr {
    key: "container"
    value {
      s: ""
    }
  }
  attr {
    key: "dtype"
    value {
      type: DT_FLOAT
    }
  }
  attr {
    key: "shape"
    value {
      shape {
        dim {
          size: 64
        }
      }
    }
  }
  attr {
    key: "shared_name"
    value {
      s: "bn2a_branch2b/moving_mean"
    }
  }
}
node {
  name: "bn2a_branch2b/moving_variance"
  op: "VarHandleOp"
  device: "/job:localhost/replica:0/task:0/device:GPU:0"
  attr {
    key: "_class"
    value {
      list {
        s: "loc:@bn2a_branch2b_1/AssignMovingAvg_1/AssignSubVariableOp"
      }
    }
  }
  attr {
    key: "container"
    value {
      s: ""
    }
  }
  attr {
    key: "dtype"
    value {
      type: DT_FLOAT
    }
  }
  attr {
    key: "shape"
    value {
      shape {
        dim {
          size: 64
        }
      }
    }
  }
  attr {
    key: "shared_name"
    value {
      s: "bn2a_branch2b/moving_variance"
    }
  }
}
node {
  name: "bn2a_branch2c/moving_mean"
  op: "VarHandleOp"
  device: "/job:localhost/replica:0/task:0/device:GPU:0"
  attr {
    key: "_class"
    value {
      list {
        s: "loc:@bn2a_branch2c_1/AssignMovingAvg/AssignSubVariableOp"
      }
    }
  }
  attr {
    key: "container"
    value {
      s: ""
    }
  }
  attr {
    key: "dtype"
    value {
      type: DT_FLOAT
    }
  }
  attr {
    key: "shape"
    value {
      shape {
        dim {
          size: 256
        }
      }
    }
  }
  attr {
    key: "shared_name"
    value {
      s: "bn2a_branch2c/moving_mean"
    }
  }
}
node {
  name: "bn2a_branch2c/moving_variance"
  op: "VarHandleOp"
  device: "/job:localhost/replica:0/task:0/device:GPU:0"
  attr {
    key: "_class"
    value {
      list {
        s: "loc:@bn2a_branch2c_1/AssignMovingAvg_1/AssignSubVariableOp"
      }
    }
  }
  attr {
    key: "container"
    value {
      s: ""
    }
  }
  attr {
    key: "dtype"
    value {
      type: DT_FLOAT
    }
  }
  attr {
    key: "shape"
    value {
      shape {
        dim {
          size: 256
        }
      }
    }
  }
  attr {
    key: "shared_name"
    value {
      s: "bn2a_branch2c/moving_variance"
    }
  }
}
node {
  name: "bn2b_branch2a/moving_mean"
  op: "VarHandleOp"
  device: "/job:localhost/replica:0/task:0/device:GPU:0"
  attr {
    key: "_class"
    value {
      list {
        s: "loc:@bn2b_branch2a_1/AssignMovingAvg/AssignSubVariableOp"
      }
    }
  }
  attr {
    key: "container"
    value {
      s: ""
    }
  }
  attr {
    key: "dtype"
    value {
      type: DT_FLOAT
    }
  }
  attr {
    key: "shape"
    value {
      shape {
        dim {
          size: 64
        }
      }
    }
  }
  attr {
    key: "shared_name"
    value {
      s: "bn2b_branch2a/moving_mean"
    }
  }
}
node {
  name: "bn2b_branch2a/moving_variance"
  op: "VarHandleOp"
  device: "/job:localhost/replica:0/task:0/device:GPU:0"
  attr {
    key: "_class"
    value {
      list {
        s: "loc:@bn2b_branch2a_1/AssignMovingAvg_1/AssignSubVariableOp"
      }
    }
  }
  attr {
    key: "container"
    value {
      s: ""
    }
  }
  attr {
    key: "dtype"
    value {
      type: DT_FLOAT
    }
  }
  attr {
    key: "shape"
    value {
      shape {
        dim {
          size: 64
        }
      }
    }
  }
  attr {
    key: "shared_name"
    value {
      s: "bn2b_branch2a/moving_variance"
    }
  }
}
node {
  name: "bn2b_branch2b/moving_mean"
  op: "VarHandleOp"
  device: "/job:localhost/replica:0/task:0/device:GPU:0"
  attr {
    key: "_class"
    value {
      list {
        s: "loc:@bn2b_branch2b_1/AssignMovingAvg/AssignSubVariableOp"
      }
    }
  }
  attr {
    key: "container"
    value {
      s: ""
    }
  }
  attr {
    key: "dtype"
    value {
      type: DT_FLOAT
    }
  }
  attr {
    key: "shape"
    value {
      shape {
        dim {
          size: 64
        }
      }
    }
  }
  attr {
    key: "shared_name"
    value {
      s: "bn2b_branch2b/moving_mean"
    }
  }
}
node {
  name: "bn2b_branch2b/moving_variance"
  op: "VarHandleOp"
  device: "/job:localhost/replica:0/task:0/device:GPU:0"
  attr {
    key: "_class"
    value {
      list {
        s: "loc:@bn2b_branch2b_1/AssignMovingAvg_1/AssignSubVariableOp"
      }
    }
  }
  attr {
    key: "container"
    value {
      s: ""
    }
  }
  attr {
    key: "dtype"
    value {
      type: DT_FLOAT
    }
  }
  attr {
    key: "shape"
    value {
      shape {
        dim {
          size: 64
        }
      }
    }
  }
  attr {
    key: "shared_name"
    value {
      s: "bn2b_branch2b/moving_variance"
    }
  }
}
node {
  name: "bn2b_branch2c/moving_mean"
  op: "VarHandleOp"
  device: "/job:localhost/replica:0/task:0/device:GPU:0"
  attr {
    key: "_class"
    value {
      list {
        s: "loc:@bn2b_branch2c_1/AssignMovingAvg/AssignSubVariableOp"
      }
    }
  }
  attr {
    key: "container"
    value {
      s: ""
    }
  }
  attr {
    key: "dtype"
    value {
      type: DT_FLOAT
    }
  }
  attr {
    key: "shape"
    value {
      shape {
        dim {
          size: 256
        }
      }
    }
  }
  attr {
    key: "shared_name"
    value {
      s: "bn2b_branch2c/moving_mean"
    }
  }
}
node {
  name: "bn2b_branch2c/moving_variance"
  op: "VarHandleOp"
  device: "/job:localhost/replica:0/task:0/device:GPU:0"
  attr {
    key: "_class"
    value {
      list {
        s: "loc:@bn2b_branch2c_1/AssignMovingAvg_1/AssignSubVariableOp"
      }
    }
  }
  attr {
    key: "container"
    value {
      s: ""
    }
  }
  attr {
    key: "dtype"
    value {
      type: DT_FLOAT
    }
  }
  attr {
    key: "shape"
    value {
      shape {
        dim {
          size: 256
        }
      }
    }
  }
  attr {
    key: "shared_name"
    value {
      s: "bn2b_branch2c/moving_variance"
    }
  }
}
node {
  name: "bn2c_branch2a/moving_mean"
  op: "VarHandleOp"
  device: "/job:localhost/replica:0/task:0/device:GPU:0"
  attr {
    key: "_class"
    value {
      list {
        s: "loc:@bn2c_branch2a_1/AssignMovingAvg/AssignSubVariableOp"
      }
    }
  }
  attr {
    key: "container"
    value {
      s: ""
    }
  }
  attr {
    key: "dtype"
    value {
      type: DT_FLOAT
    }
  }
  attr {
    key: "shape"
    value {
      shape {
        dim {
          size: 64
        }
      }
    }
  }
  attr {
    key: "shared_name"
    value {
      s: "bn2c_branch2a/moving_mean"
    }
  }
}
node {
  name: "bn2c_branch2a/moving_variance"
  op: "VarHandleOp"
  device: "/job:localhost/replica:0/task:0/device:GPU:0"
  attr {
    key: "_class"
    value {
      list {
        s: "loc:@bn2c_branch2a_1/AssignMovingAvg_1/AssignSubVariableOp"
      }
    }
  }
  attr {
    key: "container"
    value {
      s: ""
    }
  }
  attr {
    key: "dtype"
    value {
      type: DT_FLOAT
    }
  }
  attr {
    key: "shape"
    value {
      shape {
        dim {
          size: 64
        }
      }
    }
  }
  attr {
    key: "shared_name"
    value {
      s: "bn2c_branch2a/moving_variance"
    }
  }
}
node {
  name: "bn2c_branch2b/moving_mean"
  op: "VarHandleOp"
  device: "/job:localhost/replica:0/task:0/device:GPU:0"
  attr {
    key: "_class"
    value {
      list {
        s: "loc:@bn2c_branch2b_1/AssignMovingAvg/AssignSubVariableOp"
      }
    }
  }
  attr {
    key: "container"
    value {
      s: ""
    }
  }
  attr {
    key: "dtype"
    value {
      type: DT_FLOAT
    }
  }
  attr {
    key: "shape"
    value {
      shape {
        dim {
          size: 64
        }
      }
    }
  }
  attr {
    key: "shared_name"
    value {
      s: "bn2c_branch2b/moving_mean"
    }
  }
}
node {
  name: "bn2c_branch2b/moving_variance"
  op: "VarHandleOp"
  device: "/job:localhost/replica:0/task:0/device:GPU:0"
  attr {
    key: "_class"
    value {
      list {
        s: "loc:@bn2c_branch2b_1/AssignMovingAvg_1/AssignSubVariableOp"
      }
    }
  }
  attr {
    key: "container"
    value {
      s: ""
    }
  }
  attr {
    key: "dtype"
    value {
      type: DT_FLOAT
    }
  }
  attr {
    key: "shape"
    value {
      shape {
        dim {
          size: 64
        }
      }
    }
  }
  attr {
    key: "shared_name"
    value {
      s: "bn2c_branch2b/moving_variance"
    }
  }
}
node {
  name: "bn2c_branch2c/moving_mean"
  op: "VarHandleOp"
  device: "/job:localhost/replica:0/task:0/device:GPU:0"
  attr {
    key: "_class"
    value {
      list {
        s: "loc:@bn2c_branch2c_1/AssignMovingAvg/AssignSubVariableOp"
      }
    }
  }
  attr {
    key: "container"
    value {
      s: ""
    }
  }
  attr {
    key: "dtype"
    value {
      type: DT_FLOAT
    }
  }
  attr {
    key: "shape"
    value {
      shape {
        dim {
          size: 256
        }
      }
    }
  }
  attr {
    key: "shared_name"
    value {
      s: "bn2c_branch2c/moving_mean"
    }
  }
}
node {
  name: "bn2c_branch2c/moving_variance"
  op: "VarHandleOp"
  device: "/job:localhost/replica:0/task:0/device:GPU:0"
  attr {
    key: "_class"
    value {
      list {
        s: "loc:@bn2c_branch2c_1/AssignMovingAvg_1/AssignSubVariableOp"
      }
    }
  }
  attr {
    key: "container"
    value {
      s: ""
    }
  }
  attr {
    key: "dtype"
    value {
      type: DT_FLOAT
    }
  }
  attr {
    key: "shape"
    value {
      shape {
        dim {
          size: 256
        }
      }
    }
  }
  attr {
    key: "shared_name"
    value {
      s: "bn2c_branch2c/moving_variance"
    }
  }
}
node {
  name: "bn3a_branch1/moving_mean"
  op: "VarHandleOp"
  device: "/job:localhost/replica:0/task:0/device:GPU:0"
  attr {
    key: "_class"
    value {
      list {
        s: "loc:@bn3a_branch1_1/AssignMovingAvg/AssignSubVariableOp"
      }
    }
  }
  attr {
    key: "container"
    value {
      s: ""
    }
  }
  attr {
    key: "dtype"
    value {
      type: DT_FLOAT
    }
  }
  attr {
    key: "shape"
    value {
      shape {
        dim {
          size: 512
        }
      }
    }
  }
  attr {
    key: "shared_name"
    value {
      s: "bn3a_branch1/moving_mean"
    }
  }
}
node {
  name: "bn3a_branch1/moving_variance"
  op: "VarHandleOp"
  device: "/job:localhost/replica:0/task:0/device:GPU:0"
  attr {
    key: "_class"
    value {
      list {
        s: "loc:@bn3a_branch1_1/AssignMovingAvg_1/AssignSubVariableOp"
      }
    }
  }
  attr {
    key: "container"
    value {
      s: ""
    }
  }
  attr {
    key: "dtype"
    value {
      type: DT_FLOAT
    }
  }
  attr {
    key: "shape"
    value {
      shape {
        dim {
          size: 512
        }
      }
    }
  }
  attr {
    key: "shared_name"
    value {
      s: "bn3a_branch1/moving_variance"
    }
  }
}
node {
  name: "bn3a_branch2a/moving_mean"
  op: "VarHandleOp"
  device: "/job:localhost/replica:0/task:0/device:GPU:0"
  attr {
    key: "_class"
    value {
      list {
        s: "loc:@bn3a_branch2a_1/AssignMovingAvg/AssignSubVariableOp"
      }
    }
  }
  attr {
    key: "container"
    value {
      s: ""
    }
  }
  attr {
    key: "dtype"
    value {
      type: DT_FLOAT
    }
  }
  attr {
    key: "shape"
    value {
      shape {
        dim {
          size: 128
        }
      }
    }
  }
  attr {
    key: "shared_name"
    value {
      s: "bn3a_branch2a/moving_mean"
    }
  }
}
node {
  name: "bn3a_branch2a/moving_variance"
  op: "VarHandleOp"
  device: "/job:localhost/replica:0/task:0/device:GPU:0"
  attr {
    key: "_class"
    value {
      list {
        s: "loc:@bn3a_branch2a_1/AssignMovingAvg_1/AssignSubVariableOp"
      }
    }
  }
  attr {
    key: "container"
    value {
      s: ""
    }
  }
  attr {
    key: "dtype"
    value {
      type: DT_FLOAT
    }
  }
  attr {
    key: "shape"
    value {
      shape {
        dim {
          size: 128
        }
      }
    }
  }
  attr {
    key: "shared_name"
    value {
      s: "bn3a_branch2a/moving_variance"
    }
  }
}
node {
  name: "bn3a_branch2b/moving_mean"
  op: "VarHandleOp"
  device: "/job:localhost/replica:0/task:0/device:GPU:0"
  attr {
    key: "_class"
    value {
      list {
        s: "loc:@bn3a_branch2b_1/AssignMovingAvg/AssignSubVariableOp"
      }
    }
  }
  attr {
    key: "container"
    value {
      s: ""
    }
  }
  attr {
    key: "dtype"
    value {
      type: DT_FLOAT
    }
  }
  attr {
    key: "shape"
    value {
      shape {
        dim {
          size: 128
        }
      }
    }
  }
  attr {
    key: "shared_name"
    value {
      s: "bn3a_branch2b/moving_mean"
    }
  }
}
node {
  name: "bn3a_branch2b/moving_variance"
  op: "VarHandleOp"
  device: "/job:localhost/replica:0/task:0/device:GPU:0"
  attr {
    key: "_class"
    value {
      list {
        s: "loc:@bn3a_branch2b_1/AssignMovingAvg_1/AssignSubVariableOp"
      }
    }
  }
  attr {
    key: "container"
    value {
      s: ""
    }
  }
  attr {
    key: "dtype"
    value {
      type: DT_FLOAT
    }
  }
  attr {
    key: "shape"
    value {
      shape {
        dim {
          size: 128
        }
      }
    }
  }
  attr {
    key: "shared_name"
    value {
      s: "bn3a_branch2b/moving_variance"
    }
  }
}
node {
  name: "bn3a_branch2c/moving_mean"
  op: "VarHandleOp"
  device: "/job:localhost/replica:0/task:0/device:GPU:0"
  attr {
    key: "_class"
    value {
      list {
        s: "loc:@bn3a_branch2c_1/AssignMovingAvg/AssignSubVariableOp"
      }
    }
  }
  attr {
    key: "container"
    value {
      s: ""
    }
  }
  attr {
    key: "dtype"
    value {
      type: DT_FLOAT
    }
  }
  attr {
    key: "shape"
    value {
      shape {
        dim {
          size: 512
        }
      }
    }
  }
  attr {
    key: "shared_name"
    value {
      s: "bn3a_branch2c/moving_mean"
    }
  }
}
node {
  name: "bn3a_branch2c/moving_variance"
  op: "VarHandleOp"
  device: "/job:localhost/replica:0/task:0/device:GPU:0"
  attr {
    key: "_class"
    value {
      list {
        s: "loc:@bn3a_branch2c_1/AssignMovingAvg_1/AssignSubVariableOp"
      }
    }
  }
  attr {
    key: "container"
    value {
      s: ""
    }
  }
  attr {
    key: "dtype"
    value {
      type: DT_FLOAT
    }
  }
  attr {
    key: "shape"
    value {
      shape {
        dim {
          size: 512
        }
      }
    }
  }
  attr {
    key: "shared_name"
    value {
      s: "bn3a_branch2c/moving_variance"
    }
  }
}
node {
  name: "bn3b_branch2a/moving_mean"
  op: "VarHandleOp"
  device: "/job:localhost/replica:0/task:0/device:GPU:0"
  attr {
    key: "_class"
    value {
      list {
        s: "loc:@bn3b_branch2a_1/AssignMovingAvg/AssignSubVariableOp"
      }
    }
  }
  attr {
    key: "container"
    value {
      s: ""
    }
  }
  attr {
    key: "dtype"
    value {
      type: DT_FLOAT
    }
  }
  attr {
    key: "shape"
    value {
      shape {
        dim {
          size: 128
        }
      }
    }
  }
  attr {
    key: "shared_name"
    value {
      s: "bn3b_branch2a/moving_mean"
    }
  }
}
node {
  name: "bn3b_branch2a/moving_variance"
  op: "VarHandleOp"
  device: "/job:localhost/replica:0/task:0/device:GPU:0"
  attr {
    key: "_class"
    value {
      list {
        s: "loc:@bn3b_branch2a_1/AssignMovingAvg_1/AssignSubVariableOp"
      }
    }
  }
  attr {
    key: "container"
    value {
      s: ""
    }
  }
  attr {
    key: "dtype"
    value {
      type: DT_FLOAT
    }
  }
  attr {
    key: "shape"
    value {
      shape {
        dim {
          size: 128
        }
      }
    }
  }
  attr {
    key: "shared_name"
    value {
      s: "bn3b_branch2a/moving_variance"
    }
  }
}
node {
  name: "bn3b_branch2b/moving_mean"
  op: "VarHandleOp"
  device: "/job:localhost/replica:0/task:0/device:GPU:0"
  attr {
    key: "_class"
    value {
      list {
        s: "loc:@bn3b_branch2b_1/AssignMovingAvg/AssignSubVariableOp"
      }
    }
  }
  attr {
    key: "container"
    value {
      s: ""
    }
  }
  attr {
    key: "dtype"
    value {
      type: DT_FLOAT
    }
  }
  attr {
    key: "shape"
    value {
      shape {
        dim {
          size: 128
        }
      }
    }
  }
  attr {
    key: "shared_name"
    value {
      s: "bn3b_branch2b/moving_mean"
    }
  }
}
node {
  name: "bn3b_branch2b/moving_variance"
  op: "VarHandleOp"
  device: "/job:localhost/replica:0/task:0/device:GPU:0"
  attr {
    key: "_class"
    value {
      list {
        s: "loc:@bn3b_branch2b_1/AssignMovingAvg_1/AssignSubVariableOp"
      }
    }
  }
  attr {
    key: "container"
    value {
      s: ""
    }
  }
  attr {
    key: "dtype"
    value {
      type: DT_FLOAT
    }
  }
  attr {
    key: "shape"
    value {
      shape {
        dim {
          size: 128
        }
      }
    }
  }
  attr {
    key: "shared_name"
    value {
      s: "bn3b_branch2b/moving_variance"
    }
  }
}
node {
  name: "bn3b_branch2c/moving_mean"
  op: "VarHandleOp"
  device: "/job:localhost/replica:0/task:0/device:GPU:0"
  attr {
    key: "_class"
    value {
      list {
        s: "loc:@bn3b_branch2c_1/AssignMovingAvg/AssignSubVariableOp"
      }
    }
  }
  attr {
    key: "container"
    value {
      s: ""
    }
  }
  attr {
    key: "dtype"
    value {
      type: DT_FLOAT
    }
  }
  attr {
    key: "shape"
    value {
      shape {
        dim {
          size: 512
        }
      }
    }
  }
  attr {
    key: "shared_name"
    value {
      s: "bn3b_branch2c/moving_mean"
    }
  }
}
node {
  name: "bn3b_branch2c/moving_variance"
  op: "VarHandleOp"
  device: "/job:localhost/replica:0/task:0/device:GPU:0"
  attr {
    key: "_class"
    value {
      list {
        s: "loc:@bn3b_branch2c_1/AssignMovingAvg_1/AssignSubVariableOp"
      }
    }
  }
  attr {
    key: "container"
    value {
      s: ""
    }
  }
  attr {
    key: "dtype"
    value {
      type: DT_FLOAT
    }
  }
  attr {
    key: "shape"
    value {
      shape {
        dim {
          size: 512
        }
      }
    }
  }
  attr {
    key: "shared_name"
    value {
      s: "bn3b_branch2c/moving_variance"
    }
  }
}
node {
  name: "bn3c_branch2a/moving_mean"
  op: "VarHandleOp"
  device: "/job:localhost/replica:0/task:0/device:GPU:0"
  attr {
    key: "_class"
    value {
      list {
        s: "loc:@bn3c_branch2a_1/AssignMovingAvg/AssignSubVariableOp"
      }
    }
  }
  attr {
    key: "container"
    value {
      s: ""
    }
  }
  attr {
    key: "dtype"
    value {
      type: DT_FLOAT
    }
  }
  attr {
    key: "shape"
    value {
      shape {
        dim {
          size: 128
        }
      }
    }
  }
  attr {
    key: "shared_name"
    value {
      s: "bn3c_branch2a/moving_mean"
    }
  }
}
node {
  name: "bn3c_branch2a/moving_variance"
  op: "VarHandleOp"
  device: "/job:localhost/replica:0/task:0/device:GPU:0"
  attr {
    key: "_class"
    value {
      list {
        s: "loc:@bn3c_branch2a_1/AssignMovingAvg_1/AssignSubVariableOp"
      }
    }
  }
  attr {
    key: "container"
    value {
      s: ""
    }
  }
  attr {
    key: "dtype"
    value {
      type: DT_FLOAT
    }
  }
  attr {
    key: "shape"
    value {
      shape {
        dim {
          size: 128
        }
      }
    }
  }
  attr {
    key: "shared_name"
    value {
      s: "bn3c_branch2a/moving_variance"
    }
  }
}
node {
  name: "bn3c_branch2b/moving_mean"
  op: "VarHandleOp"
  device: "/job:localhost/replica:0/task:0/device:GPU:0"
  attr {
    key: "_class"
    value {
      list {
        s: "loc:@bn3c_branch2b_1/AssignMovingAvg/AssignSubVariableOp"
      }
    }
  }
  attr {
    key: "container"
    value {
      s: ""
    }
  }
  attr {
    key: "dtype"
    value {
      type: DT_FLOAT
    }
  }
  attr {
    key: "shape"
    value {
      shape {
        dim {
          size: 128
        }
      }
    }
  }
  attr {
    key: "shared_name"
    value {
      s: "bn3c_branch2b/moving_mean"
    }
  }
}
node {
  name: "bn3c_branch2b/moving_variance"
  op: "VarHandleOp"
  device: "/job:localhost/replica:0/task:0/device:GPU:0"
  attr {
    key: "_class"
    value {
      list {
        s: "loc:@bn3c_branch2b_1/AssignMovingAvg_1/AssignSubVariableOp"
      }
    }
  }
  attr {
    key: "container"
    value {
      s: ""
    }
  }
  attr {
    key: "dtype"
    value {
      type: DT_FLOAT
    }
  }
  attr {
    key: "shape"
    value {
      shape {
        dim {
          size: 128
        }
      }
    }
  }
  attr {
    key: "shared_name"
    value {
      s: "bn3c_branch2b/moving_variance"
    }
  }
}
node {
  name: "bn3c_branch2c/moving_mean"
  op: "VarHandleOp"
  device: "/job:localhost/replica:0/task:0/device:GPU:0"
  attr {
    key: "_class"
    value {
      list {
        s: "loc:@bn3c_branch2c_1/AssignMovingAvg/AssignSubVariableOp"
      }
    }
  }
  attr {
    key: "container"
    value {
      s: ""
    }
  }
  attr {
    key: "dtype"
    value {
      type: DT_FLOAT
    }
  }
  attr {
    key: "shape"
    value {
      shape {
        dim {
          size: 512
        }
      }
    }
  }
  attr {
    key: "shared_name"
    value {
      s: "bn3c_branch2c/moving_mean"
    }
  }
}
node {
  name: "bn3c_branch2c/moving_variance"
  op: "VarHandleOp"
  device: "/job:localhost/replica:0/task:0/device:GPU:0"
  attr {
    key: "_class"
    value {
      list {
        s: "loc:@bn3c_branch2c_1/AssignMovingAvg_1/AssignSubVariableOp"
      }
    }
  }
  attr {
    key: "container"
    value {
      s: ""
    }
  }
  attr {
    key: "dtype"
    value {
      type: DT_FLOAT
    }
  }
  attr {
    key: "shape"
    value {
      shape {
        dim {
          size: 512
        }
      }
    }
  }
  attr {
    key: "shared_name"
    value {
      s: "bn3c_branch2c/moving_variance"
    }
  }
}
node {
  name: "bn3d_branch2a/moving_mean"
  op: "VarHandleOp"
  device: "/job:localhost/replica:0/task:0/device:GPU:0"
  attr {
    key: "_class"
    value {
      list {
        s: "loc:@bn3d_branch2a_1/AssignMovingAvg/AssignSubVariableOp"
      }
    }
  }
  attr {
    key: "container"
    value {
      s: ""
    }
  }
  attr {
    key: "dtype"
    value {
      type: DT_FLOAT
    }
  }
  attr {
    key: "shape"
    value {
      shape {
        dim {
          size: 128
        }
      }
    }
  }
  attr {
    key: "shared_name"
    value {
      s: "bn3d_branch2a/moving_mean"
    }
  }
}
node {
  name: "bn3d_branch2a/moving_variance"
  op: "VarHandleOp"
  device: "/job:localhost/replica:0/task:0/device:GPU:0"
  attr {
    key: "_class"
    value {
      list {
        s: "loc:@bn3d_branch2a_1/AssignMovingAvg_1/AssignSubVariableOp"
      }
    }
  }
  attr {
    key: "container"
    value {
      s: ""
    }
  }
  attr {
    key: "dtype"
    value {
      type: DT_FLOAT
    }
  }
  attr {
    key: "shape"
    value {
      shape {
        dim {
          size: 128
        }
      }
    }
  }
  attr {
    key: "shared_name"
    value {
      s: "bn3d_branch2a/moving_variance"
    }
  }
}
node {
  name: "bn3d_branch2b/moving_mean"
  op: "VarHandleOp"
  device: "/job:localhost/replica:0/task:0/device:GPU:0"
  attr {
    key: "_class"
    value {
      list {
        s: "loc:@bn3d_branch2b_1/AssignMovingAvg/AssignSubVariableOp"
      }
    }
  }
  attr {
    key: "container"
    value {
      s: ""
    }
  }
  attr {
    key: "dtype"
    value {
      type: DT_FLOAT
    }
  }
  attr {
    key: "shape"
    value {
      shape {
        dim {
          size: 128
        }
      }
    }
  }
  attr {
    key: "shared_name"
    value {
      s: "bn3d_branch2b/moving_mean"
    }
  }
}
node {
  name: "bn3d_branch2b/moving_variance"
  op: "VarHandleOp"
  device: "/job:localhost/replica:0/task:0/device:GPU:0"
  attr {
    key: "_class"
    value {
      list {
        s: "loc:@bn3d_branch2b_1/AssignMovingAvg_1/AssignSubVariableOp"
      }
    }
  }
  attr {
    key: "container"
    value {
      s: ""
    }
  }
  attr {
    key: "dtype"
    value {
      type: DT_FLOAT
    }
  }
  attr {
    key: "shape"
    value {
      shape {
        dim {
          size: 128
        }
      }
    }
  }
  attr {
    key: "shared_name"
    value {
      s: "bn3d_branch2b/moving_variance"
    }
  }
}
node {
  name: "bn3d_branch2c/moving_mean"
  op: "VarHandleOp"
  device: "/job:localhost/replica:0/task:0/device:GPU:0"
  attr {
    key: "_class"
    value {
      list {
        s: "loc:@bn3d_branch2c_1/AssignMovingAvg/AssignSubVariableOp"
      }
    }
  }
  attr {
    key: "container"
    value {
      s: ""
    }
  }
  attr {
    key: "dtype"
    value {
      type: DT_FLOAT
    }
  }
  attr {
    key: "shape"
    value {
      shape {
        dim {
          size: 512
        }
      }
    }
  }
  attr {
    key: "shared_name"
    value {
      s: "bn3d_branch2c/moving_mean"
    }
  }
}
node {
  name: "bn3d_branch2c/moving_variance"
  op: "VarHandleOp"
  device: "/job:localhost/replica:0/task:0/device:GPU:0"
  attr {
    key: "_class"
    value {
      list {
        s: "loc:@bn3d_branch2c_1/AssignMovingAvg_1/AssignSubVariableOp"
      }
    }
  }
  attr {
    key: "container"
    value {
      s: ""
    }
  }
  attr {
    key: "dtype"
    value {
      type: DT_FLOAT
    }
  }
  attr {
    key: "shape"
    value {
      shape {
        dim {
          size: 512
        }
      }
    }
  }
  attr {
    key: "shared_name"
    value {
      s: "bn3d_branch2c/moving_variance"
    }
  }
}
node {
  name: "bn4a_branch1/moving_mean"
  op: "VarHandleOp"
  device: "/job:localhost/replica:0/task:0/device:GPU:0"
  attr {
    key: "_class"
    value {
      list {
        s: "loc:@bn4a_branch1_1/AssignMovingAvg/AssignSubVariableOp"
      }
    }
  }
  attr {
    key: "container"
    value {
      s: ""
    }
  }
  attr {
    key: "dtype"
    value {
      type: DT_FLOAT
    }
  }
  attr {
    key: "shape"
    value {
      shape {
        dim {
          size: 1024
        }
      }
    }
  }
  attr {
    key: "shared_name"
    value {
      s: "bn4a_branch1/moving_mean"
    }
  }
}
node {
  name: "bn4a_branch1/moving_variance"
  op: "VarHandleOp"
  device: "/job:localhost/replica:0/task:0/device:GPU:0"
  attr {
    key: "_class"
    value {
      list {
        s: "loc:@bn4a_branch1_1/AssignMovingAvg_1/AssignSubVariableOp"
      }
    }
  }
  attr {
    key: "container"
    value {
      s: ""
    }
  }
  attr {
    key: "dtype"
    value {
      type: DT_FLOAT
    }
  }
  attr {
    key: "shape"
    value {
      shape {
        dim {
          size: 1024
        }
      }
    }
  }
  attr {
    key: "shared_name"
    value {
      s: "bn4a_branch1/moving_variance"
    }
  }
}
node {
  name: "bn4a_branch2a/moving_mean"
  op: "VarHandleOp"
  device: "/job:localhost/replica:0/task:0/device:GPU:0"
  attr {
    key: "_class"
    value {
      list {
        s: "loc:@bn4a_branch2a_1/AssignMovingAvg/AssignSubVariableOp"
      }
    }
  }
  attr {
    key: "container"
    value {
      s: ""
    }
  }
  attr {
    key: "dtype"
    value {
      type: DT_FLOAT
    }
  }
  attr {
    key: "shape"
    value {
      shape {
        dim {
          size: 256
        }
      }
    }
  }
  attr {
    key: "shared_name"
    value {
      s: "bn4a_branch2a/moving_mean"
    }
  }
}
node {
  name: "bn4a_branch2a/moving_variance"
  op: "VarHandleOp"
  device: "/job:localhost/replica:0/task:0/device:GPU:0"
  attr {
    key: "_class"
    value {
      list {
        s: "loc:@bn4a_branch2a_1/AssignMovingAvg_1/AssignSubVariableOp"
      }
    }
  }
  attr {
    key: "container"
    value {
      s: ""
    }
  }
  attr {
    key: "dtype"
    value {
      type: DT_FLOAT
    }
  }
  attr {
    key: "shape"
    value {
      shape {
        dim {
          size: 256
        }
      }
    }
  }
  attr {
    key: "shared_name"
    value {
      s: "bn4a_branch2a/moving_variance"
    }
  }
}
node {
  name: "bn4a_branch2b/moving_mean"
  op: "VarHandleOp"
  device: "/job:localhost/replica:0/task:0/device:GPU:0"
  attr {
    key: "_class"
    value {
      list {
        s: "loc:@bn4a_branch2b_1/AssignMovingAvg/AssignSubVariableOp"
      }
    }
  }
  attr {
    key: "container"
    value {
      s: ""
    }
  }
  attr {
    key: "dtype"
    value {
      type: DT_FLOAT
    }
  }
  attr {
    key: "shape"
    value {
      shape {
        dim {
          size: 256
        }
      }
    }
  }
  attr {
    key: "shared_name"
    value {
      s: "bn4a_branch2b/moving_mean"
    }
  }
}
node {
  name: "bn4a_branch2b/moving_variance"
  op: "VarHandleOp"
  device: "/job:localhost/replica:0/task:0/device:GPU:0"
  attr {
    key: "_class"
    value {
      list {
        s: "loc:@bn4a_branch2b_1/AssignMovingAvg_1/AssignSubVariableOp"
      }
    }
  }
  attr {
    key: "container"
    value {
      s: ""
    }
  }
  attr {
    key: "dtype"
    value {
      type: DT_FLOAT
    }
  }
  attr {
    key: "shape"
    value {
      shape {
        dim {
          size: 256
        }
      }
    }
  }
  attr {
    key: "shared_name"
    value {
      s: "bn4a_branch2b/moving_variance"
    }
  }
}
node {
  name: "bn4a_branch2c/moving_mean"
  op: "VarHandleOp"
  device: "/job:localhost/replica:0/task:0/device:GPU:0"
  attr {
    key: "_class"
    value {
      list {
        s: "loc:@bn4a_branch2c_1/AssignMovingAvg/AssignSubVariableOp"
      }
    }
  }
  attr {
    key: "container"
    value {
      s: ""
    }
  }
  attr {
    key: "dtype"
    value {
      type: DT_FLOAT
    }
  }
  attr {
    key: "shape"
    value {
      shape {
        dim {
          size: 1024
        }
      }
    }
  }
  attr {
    key: "shared_name"
    value {
      s: "bn4a_branch2c/moving_mean"
    }
  }
}
node {
  name: "bn4a_branch2c/moving_variance"
  op: "VarHandleOp"
  device: "/job:localhost/replica:0/task:0/device:GPU:0"
  attr {
    key: "_class"
    value {
      list {
        s: "loc:@bn4a_branch2c_1/AssignMovingAvg_1/AssignSubVariableOp"
      }
    }
  }
  attr {
    key: "container"
    value {
      s: ""
    }
  }
  attr {
    key: "dtype"
    value {
      type: DT_FLOAT
    }
  }
  attr {
    key: "shape"
    value {
      shape {
        dim {
          size: 1024
        }
      }
    }
  }
  attr {
    key: "shared_name"
    value {
      s: "bn4a_branch2c/moving_variance"
    }
  }
}
node {
  name: "bn4b_branch2a/moving_mean"
  op: "VarHandleOp"
  device: "/job:localhost/replica:0/task:0/device:GPU:0"
  attr {
    key: "_class"
    value {
      list {
        s: "loc:@bn4b_branch2a_1/AssignMovingAvg/AssignSubVariableOp"
      }
    }
  }
  attr {
    key: "container"
    value {
      s: ""
    }
  }
  attr {
    key: "dtype"
    value {
      type: DT_FLOAT
    }
  }
  attr {
    key: "shape"
    value {
      shape {
        dim {
          size: 256
        }
      }
    }
  }
  attr {
    key: "shared_name"
    value {
      s: "bn4b_branch2a/moving_mean"
    }
  }
}
node {
  name: "bn4b_branch2a/moving_variance"
  op: "VarHandleOp"
  device: "/job:localhost/replica:0/task:0/device:GPU:0"
  attr {
    key: "_class"
    value {
      list {
        s: "loc:@bn4b_branch2a_1/AssignMovingAvg_1/AssignSubVariableOp"
      }
    }
  }
  attr {
    key: "container"
    value {
      s: ""
    }
  }
  attr {
    key: "dtype"
    value {
      type: DT_FLOAT
    }
  }
  attr {
    key: "shape"
    value {
      shape {
        dim {
          size: 256
        }
      }
    }
  }
  attr {
    key: "shared_name"
    value {
      s: "bn4b_branch2a/moving_variance"
    }
  }
}
node {
  name: "bn4b_branch2b/moving_mean"
  op: "VarHandleOp"
  device: "/job:localhost/replica:0/task:0/device:GPU:0"
  attr {
    key: "_class"
    value {
      list {
        s: "loc:@bn4b_branch2b_1/AssignMovingAvg/AssignSubVariableOp"
      }
    }
  }
  attr {
    key: "container"
    value {
      s: ""
    }
  }
  attr {
    key: "dtype"
    value {
      type: DT_FLOAT
    }
  }
  attr {
    key: "shape"
    value {
      shape {
        dim {
          size: 256
        }
      }
    }
  }
  attr {
    key: "shared_name"
    value {
      s: "bn4b_branch2b/moving_mean"
    }
  }
}
node {
  name: "bn4b_branch2b/moving_variance"
  op: "VarHandleOp"
  device: "/job:localhost/replica:0/task:0/device:GPU:0"
  attr {
    key: "_class"
    value {
      list {
        s: "loc:@bn4b_branch2b_1/AssignMovingAvg_1/AssignSubVariableOp"
      }
    }
  }
  attr {
    key: "container"
    value {
      s: ""
    }
  }
  attr {
    key: "dtype"
    value {
      type: DT_FLOAT
    }
  }
  attr {
    key: "shape"
    value {
      shape {
        dim {
          size: 256
        }
      }
    }
  }
  attr {
    key: "shared_name"
    value {
      s: "bn4b_branch2b/moving_variance"
    }
  }
}
node {
  name: "bn4b_branch2c/moving_mean"
  op: "VarHandleOp"
  device: "/job:localhost/replica:0/task:0/device:GPU:0"
  attr {
    key: "_class"
    value {
      list {
        s: "loc:@bn4b_branch2c_1/AssignMovingAvg/AssignSubVariableOp"
      }
    }
  }
  attr {
    key: "container"
    value {
      s: ""
    }
  }
  attr {
    key: "dtype"
    value {
      type: DT_FLOAT
    }
  }
  attr {
    key: "shape"
    value {
      shape {
        dim {
          size: 1024
        }
      }
    }
  }
  attr {
    key: "shared_name"
    value {
      s: "bn4b_branch2c/moving_mean"
    }
  }
}
node {
  name: "bn4b_branch2c/moving_variance"
  op: "VarHandleOp"
  device: "/job:localhost/replica:0/task:0/device:GPU:0"
  attr {
    key: "_class"
    value {
      list {
        s: "loc:@bn4b_branch2c_1/AssignMovingAvg_1/AssignSubVariableOp"
      }
    }
  }
  attr {
    key: "container"
    value {
      s: ""
    }
  }
  attr {
    key: "dtype"
    value {
      type: DT_FLOAT
    }
  }
  attr {
    key: "shape"
    value {
      shape {
        dim {
          size: 1024
        }
      }
    }
  }
  attr {
    key: "shared_name"
    value {
      s: "bn4b_branch2c/moving_variance"
    }
  }
}
node {
  name: "bn4c_branch2a/moving_mean"
  op: "VarHandleOp"
  device: "/job:localhost/replica:0/task:0/device:GPU:0"
  attr {
    key: "_class"
    value {
      list {
        s: "loc:@bn4c_branch2a_1/AssignMovingAvg/AssignSubVariableOp"
      }
    }
  }
  attr {
    key: "container"
    value {
      s: ""
    }
  }
  attr {
    key: "dtype"
    value {
      type: DT_FLOAT
    }
  }
  attr {
    key: "shape"
    value {
      shape {
        dim {
          size: 256
        }
      }
    }
  }
  attr {
    key: "shared_name"
    value {
      s: "bn4c_branch2a/moving_mean"
    }
  }
}
node {
  name: "bn4c_branch2a/moving_variance"
  op: "VarHandleOp"
  device: "/job:localhost/replica:0/task:0/device:GPU:0"
  attr {
    key: "_class"
    value {
      list {
        s: "loc:@bn4c_branch2a_1/AssignMovingAvg_1/AssignSubVariableOp"
      }
    }
  }
  attr {
    key: "container"
    value {
      s: ""
    }
  }
  attr {
    key: "dtype"
    value {
      type: DT_FLOAT
    }
  }
  attr {
    key: "shape"
    value {
      shape {
        dim {
          size: 256
        }
      }
    }
  }
  attr {
    key: "shared_name"
    value {
      s: "bn4c_branch2a/moving_variance"
    }
  }
}
node {
  name: "bn4c_branch2b/moving_mean"
  op: "VarHandleOp"
  device: "/job:localhost/replica:0/task:0/device:GPU:0"
  attr {
    key: "_class"
    value {
      list {
        s: "loc:@bn4c_branch2b_1/AssignMovingAvg/AssignSubVariableOp"
      }
    }
  }
  attr {
    key: "container"
    value {
      s: ""
    }
  }
  attr {
    key: "dtype"
    value {
      type: DT_FLOAT
    }
  }
  attr {
    key: "shape"
    value {
      shape {
        dim {
          size: 256
        }
      }
    }
  }
  attr {
    key: "shared_name"
    value {
      s: "bn4c_branch2b/moving_mean"
    }
  }
}
node {
  name: "bn4c_branch2b/moving_variance"
  op: "VarHandleOp"
  device: "/job:localhost/replica:0/task:0/device:GPU:0"
  attr {
    key: "_class"
    value {
      list {
        s: "loc:@bn4c_branch2b_1/AssignMovingAvg_1/AssignSubVariableOp"
      }
    }
  }
  attr {
    key: "container"
    value {
      s: ""
    }
  }
  attr {
    key: "dtype"
    value {
      type: DT_FLOAT
    }
  }
  attr {
    key: "shape"
    value {
      shape {
        dim {
          size: 256
        }
      }
    }
  }
  attr {
    key: "shared_name"
    value {
      s: "bn4c_branch2b/moving_variance"
    }
  }
}
node {
  name: "bn4c_branch2c/moving_mean"
  op: "VarHandleOp"
  device: "/job:localhost/replica:0/task:0/device:GPU:0"
  attr {
    key: "_class"
    value {
      list {
        s: "loc:@bn4c_branch2c_1/AssignMovingAvg/AssignSubVariableOp"
      }
    }
  }
  attr {
    key: "container"
    value {
      s: ""
    }
  }
  attr {
    key: "dtype"
    value {
      type: DT_FLOAT
    }
  }
  attr {
    key: "shape"
    value {
      shape {
        dim {
          size: 1024
        }
      }
    }
  }
  attr {
    key: "shared_name"
    value {
      s: "bn4c_branch2c/moving_mean"
    }
  }
}
node {
  name: "bn4c_branch2c/moving_variance"
  op: "VarHandleOp"
  device: "/job:localhost/replica:0/task:0/device:GPU:0"
  attr {
    key: "_class"
    value {
      list {
        s: "loc:@bn4c_branch2c_1/AssignMovingAvg_1/AssignSubVariableOp"
      }
    }
  }
  attr {
    key: "container"
    value {
      s: ""
    }
  }
  attr {
    key: "dtype"
    value {
      type: DT_FLOAT
    }
  }
  attr {
    key: "shape"
    value {
      shape {
        dim {
          size: 1024
        }
      }
    }
  }
  attr {
    key: "shared_name"
    value {
      s: "bn4c_branch2c/moving_variance"
    }
  }
}
node {
  name: "bn4d_branch2a/moving_mean"
  op: "VarHandleOp"
  device: "/job:localhost/replica:0/task:0/device:GPU:0"
  attr {
    key: "_class"
    value {
      list {
        s: "loc:@bn4d_branch2a_1/AssignMovingAvg/AssignSubVariableOp"
      }
    }
  }
  attr {
    key: "container"
    value {
      s: ""
    }
  }
  attr {
    key: "dtype"
    value {
      type: DT_FLOAT
    }
  }
  attr {
    key: "shape"
    value {
      shape {
        dim {
          size: 256
        }
      }
    }
  }
  attr {
    key: "shared_name"
    value {
      s: "bn4d_branch2a/moving_mean"
    }
  }
}
node {
  name: "bn4d_branch2a/moving_variance"
  op: "VarHandleOp"
  device: "/job:localhost/replica:0/task:0/device:GPU:0"
  attr {
    key: "_class"
    value {
      list {
        s: "loc:@bn4d_branch2a_1/AssignMovingAvg_1/AssignSubVariableOp"
      }
    }
  }
  attr {
    key: "container"
    value {
      s: ""
    }
  }
  attr {
    key: "dtype"
    value {
      type: DT_FLOAT
    }
  }
  attr {
    key: "shape"
    value {
      shape {
        dim {
          size: 256
        }
      }
    }
  }
  attr {
    key: "shared_name"
    value {
      s: "bn4d_branch2a/moving_variance"
    }
  }
}
node {
  name: "bn4d_branch2b/moving_mean"
  op: "VarHandleOp"
  device: "/job:localhost/replica:0/task:0/device:GPU:0"
  attr {
    key: "_class"
    value {
      list {
        s: "loc:@bn4d_branch2b_1/AssignMovingAvg/AssignSubVariableOp"
      }
    }
  }
  attr {
    key: "container"
    value {
      s: ""
    }
  }
  attr {
    key: "dtype"
    value {
      type: DT_FLOAT
    }
  }
  attr {
    key: "shape"
    value {
      shape {
        dim {
          size: 256
        }
      }
    }
  }
  attr {
    key: "shared_name"
    value {
      s: "bn4d_branch2b/moving_mean"
    }
  }
}
node {
  name: "bn4d_branch2b/moving_variance"
  op: "VarHandleOp"
  device: "/job:localhost/replica:0/task:0/device:GPU:0"
  attr {
    key: "_class"
    value {
      list {
        s: "loc:@bn4d_branch2b_1/AssignMovingAvg_1/AssignSubVariableOp"
      }
    }
  }
  attr {
    key: "container"
    value {
      s: ""
    }
  }
  attr {
    key: "dtype"
    value {
      type: DT_FLOAT
    }
  }
  attr {
    key: "shape"
    value {
      shape {
        dim {
          size: 256
        }
      }
    }
  }
  attr {
    key: "shared_name"
    value {
      s: "bn4d_branch2b/moving_variance"
    }
  }
}
node {
  name: "bn4d_branch2c/moving_mean"
  op: "VarHandleOp"
  device: "/job:localhost/replica:0/task:0/device:GPU:0"
  attr {
    key: "_class"
    value {
      list {
        s: "loc:@bn4d_branch2c_1/AssignMovingAvg/AssignSubVariableOp"
      }
    }
  }
  attr {
    key: "container"
    value {
      s: ""
    }
  }
  attr {
    key: "dtype"
    value {
      type: DT_FLOAT
    }
  }
  attr {
    key: "shape"
    value {
      shape {
        dim {
          size: 1024
        }
      }
    }
  }
  attr {
    key: "shared_name"
    value {
      s: "bn4d_branch2c/moving_mean"
    }
  }
}
node {
  name: "bn4d_branch2c/moving_variance"
  op: "VarHandleOp"
  device: "/job:localhost/replica:0/task:0/device:GPU:0"
  attr {
    key: "_class"
    value {
      list {
        s: "loc:@bn4d_branch2c_1/AssignMovingAvg_1/AssignSubVariableOp"
      }
    }
  }
  attr {
    key: "container"
    value {
      s: ""
    }
  }
  attr {
    key: "dtype"
    value {
      type: DT_FLOAT
    }
  }
  attr {
    key: "shape"
    value {
      shape {
        dim {
          size: 1024
        }
      }
    }
  }
  attr {
    key: "shared_name"
    value {
      s: "bn4d_branch2c/moving_variance"
    }
  }
}
node {
  name: "bn4e_branch2a/moving_mean"
  op: "VarHandleOp"
  device: "/job:localhost/replica:0/task:0/device:GPU:0"
  attr {
    key: "_class"
    value {
      list {
        s: "loc:@bn4e_branch2a_1/AssignMovingAvg/AssignSubVariableOp"
      }
    }
  }
  attr {
    key: "container"
    value {
      s: ""
    }
  }
  attr {
    key: "dtype"
    value {
      type: DT_FLOAT
    }
  }
  attr {
    key: "shape"
    value {
      shape {
        dim {
          size: 256
        }
      }
    }
  }
  attr {
    key: "shared_name"
    value {
      s: "bn4e_branch2a/moving_mean"
    }
  }
}
node {
  name: "bn4e_branch2a/moving_variance"
  op: "VarHandleOp"
  device: "/job:localhost/replica:0/task:0/device:GPU:0"
  attr {
    key: "_class"
    value {
      list {
        s: "loc:@bn4e_branch2a_1/AssignMovingAvg_1/AssignSubVariableOp"
      }
    }
  }
  attr {
    key: "container"
    value {
      s: ""
    }
  }
  attr {
    key: "dtype"
    value {
      type: DT_FLOAT
    }
  }
  attr {
    key: "shape"
    value {
      shape {
        dim {
          size: 256
        }
      }
    }
  }
  attr {
    key: "shared_name"
    value {
      s: "bn4e_branch2a/moving_variance"
    }
  }
}
node {
  name: "bn4e_branch2b/moving_mean"
  op: "VarHandleOp"
  device: "/job:localhost/replica:0/task:0/device:GPU:0"
  attr {
    key: "_class"
    value {
      list {
        s: "loc:@bn4e_branch2b_1/AssignMovingAvg/AssignSubVariableOp"
      }
    }
  }
  attr {
    key: "container"
    value {
      s: ""
    }
  }
  attr {
    key: "dtype"
    value {
      type: DT_FLOAT
    }
  }
  attr {
    key: "shape"
    value {
      shape {
        dim {
          size: 256
        }
      }
    }
  }
  attr {
    key: "shared_name"
    value {
      s: "bn4e_branch2b/moving_mean"
    }
  }
}
node {
  name: "bn4e_branch2b/moving_variance"
  op: "VarHandleOp"
  device: "/job:localhost/replica:0/task:0/device:GPU:0"
  attr {
    key: "_class"
    value {
      list {
        s: "loc:@bn4e_branch2b_1/AssignMovingAvg_1/AssignSubVariableOp"
      }
    }
  }
  attr {
    key: "container"
    value {
      s: ""
    }
  }
  attr {
    key: "dtype"
    value {
      type: DT_FLOAT
    }
  }
  attr {
    key: "shape"
    value {
      shape {
        dim {
          size: 256
        }
      }
    }
  }
  attr {
    key: "shared_name"
    value {
      s: "bn4e_branch2b/moving_variance"
    }
  }
}
node {
  name: "bn4e_branch2c/moving_mean"
  op: "VarHandleOp"
  device: "/job:localhost/replica:0/task:0/device:GPU:0"
  attr {
    key: "_class"
    value {
      list {
        s: "loc:@bn4e_branch2c_1/AssignMovingAvg/AssignSubVariableOp"
      }
    }
  }
  attr {
    key: "container"
    value {
      s: ""
    }
  }
  attr {
    key: "dtype"
    value {
      type: DT_FLOAT
    }
  }
  attr {
    key: "shape"
    value {
      shape {
        dim {
          size: 1024
        }
      }
    }
  }
  attr {
    key: "shared_name"
    value {
      s: "bn4e_branch2c/moving_mean"
    }
  }
}
node {
  name: "bn4e_branch2c/moving_variance"
  op: "VarHandleOp"
  device: "/job:localhost/replica:0/task:0/device:GPU:0"
  attr {
    key: "_class"
    value {
      list {
        s: "loc:@bn4e_branch2c_1/AssignMovingAvg_1/AssignSubVariableOp"
      }
    }
  }
  attr {
    key: "container"
    value {
      s: ""
    }
  }
  attr {
    key: "dtype"
    value {
      type: DT_FLOAT
    }
  }
  attr {
    key: "shape"
    value {
      shape {
        dim {
          size: 1024
        }
      }
    }
  }
  attr {
    key: "shared_name"
    value {
      s: "bn4e_branch2c/moving_variance"
    }
  }
}
node {
  name: "bn4f_branch2a/moving_mean"
  op: "VarHandleOp"
  device: "/job:localhost/replica:0/task:0/device:GPU:0"
  attr {
    key: "_class"
    value {
      list {
        s: "loc:@bn4f_branch2a_1/AssignMovingAvg/AssignSubVariableOp"
      }
    }
  }
  attr {
    key: "container"
    value {
      s: ""
    }
  }
  attr {
    key: "dtype"
    value {
      type: DT_FLOAT
    }
  }
  attr {
    key: "shape"
    value {
      shape {
        dim {
          size: 256
        }
      }
    }
  }
  attr {
    key: "shared_name"
    value {
      s: "bn4f_branch2a/moving_mean"
    }
  }
}
node {
  name: "bn4f_branch2a/moving_variance"
  op: "VarHandleOp"
  device: "/job:localhost/replica:0/task:0/device:GPU:0"
  attr {
    key: "_class"
    value {
      list {
        s: "loc:@bn4f_branch2a_1/AssignMovingAvg_1/AssignSubVariableOp"
      }
    }
  }
  attr {
    key: "container"
    value {
      s: ""
    }
  }
  attr {
    key: "dtype"
    value {
      type: DT_FLOAT
    }
  }
  attr {
    key: "shape"
    value {
      shape {
        dim {
          size: 256
        }
      }
    }
  }
  attr {
    key: "shared_name"
    value {
      s: "bn4f_branch2a/moving_variance"
    }
  }
}
node {
  name: "bn4f_branch2b/moving_mean"
  op: "VarHandleOp"
  device: "/job:localhost/replica:0/task:0/device:GPU:0"
  attr {
    key: "_class"
    value {
      list {
        s: "loc:@bn4f_branch2b_1/AssignMovingAvg/AssignSubVariableOp"
      }
    }
  }
  attr {
    key: "container"
    value {
      s: ""
    }
  }
  attr {
    key: "dtype"
    value {
      type: DT_FLOAT
    }
  }
  attr {
    key: "shape"
    value {
      shape {
        dim {
          size: 256
        }
      }
    }
  }
  attr {
    key: "shared_name"
    value {
      s: "bn4f_branch2b/moving_mean"
    }
  }
}
node {
  name: "bn4f_branch2b/moving_variance"
  op: "VarHandleOp"
  device: "/job:localhost/replica:0/task:0/device:GPU:0"
  attr {
    key: "_class"
    value {
      list {
        s: "loc:@bn4f_branch2b_1/AssignMovingAvg_1/AssignSubVariableOp"
      }
    }
  }
  attr {
    key: "container"
    value {
      s: ""
    }
  }
  attr {
    key: "dtype"
    value {
      type: DT_FLOAT
    }
  }
  attr {
    key: "shape"
    value {
      shape {
        dim {
          size: 256
        }
      }
    }
  }
  attr {
    key: "shared_name"
    value {
      s: "bn4f_branch2b/moving_variance"
    }
  }
}
node {
  name: "bn4f_branch2c/moving_mean"
  op: "VarHandleOp"
  device: "/job:localhost/replica:0/task:0/device:GPU:0"
  attr {
    key: "_class"
    value {
      list {
        s: "loc:@bn4f_branch2c_1/AssignMovingAvg/AssignSubVariableOp"
      }
    }
  }
  attr {
    key: "container"
    value {
      s: ""
    }
  }
  attr {
    key: "dtype"
    value {
      type: DT_FLOAT
    }
  }
  attr {
    key: "shape"
    value {
      shape {
        dim {
          size: 1024
        }
      }
    }
  }
  attr {
    key: "shared_name"
    value {
      s: "bn4f_branch2c/moving_mean"
    }
  }
}
node {
  name: "bn4f_branch2c/moving_variance"
  op: "VarHandleOp"
  device: "/job:localhost/replica:0/task:0/device:GPU:0"
  attr {
    key: "_class"
    value {
      list {
        s: "loc:@bn4f_branch2c_1/AssignMovingAvg_1/AssignSubVariableOp"
      }
    }
  }
  attr {
    key: "container"
    value {
      s: ""
    }
  }
  attr {
    key: "dtype"
    value {
      type: DT_FLOAT
    }
  }
  attr {
    key: "shape"
    value {
      shape {
        dim {
          size: 1024
        }
      }
    }
  }
  attr {
    key: "shared_name"
    value {
      s: "bn4f_branch2c/moving_variance"
    }
  }
}
node {
  name: "bn5a_branch1/moving_mean"
  op: "VarHandleOp"
  device: "/job:localhost/replica:0/task:0/device:GPU:0"
  attr {
    key: "_class"
    value {
      list {
        s: "loc:@bn5a_branch1_1/AssignMovingAvg/AssignSubVariableOp"
      }
    }
  }
  attr {
    key: "container"
    value {
      s: ""
    }
  }
  attr {
    key: "dtype"
    value {
      type: DT_FLOAT
    }
  }
  attr {
    key: "shape"
    value {
      shape {
        dim {
          size: 2048
        }
      }
    }
  }
  attr {
    key: "shared_name"
    value {
      s: "bn5a_branch1/moving_mean"
    }
  }
}
node {
  name: "bn5a_branch1/moving_variance"
  op: "VarHandleOp"
  device: "/job:localhost/replica:0/task:0/device:GPU:0"
  attr {
    key: "_class"
    value {
      list {
        s: "loc:@bn5a_branch1_1/AssignMovingAvg_1/AssignSubVariableOp"
      }
    }
  }
  attr {
    key: "container"
    value {
      s: ""
    }
  }
  attr {
    key: "dtype"
    value {
      type: DT_FLOAT
    }
  }
  attr {
    key: "shape"
    value {
      shape {
        dim {
          size: 2048
        }
      }
    }
  }
  attr {
    key: "shared_name"
    value {
      s: "bn5a_branch1/moving_variance"
    }
  }
}
node {
  name: "bn5a_branch2a/moving_mean"
  op: "VarHandleOp"
  device: "/job:localhost/replica:0/task:0/device:GPU:0"
  attr {
    key: "_class"
    value {
      list {
        s: "loc:@bn5a_branch2a_1/AssignMovingAvg/AssignSubVariableOp"
      }
    }
  }
  attr {
    key: "container"
    value {
      s: ""
    }
  }
  attr {
    key: "dtype"
    value {
      type: DT_FLOAT
    }
  }
  attr {
    key: "shape"
    value {
      shape {
        dim {
          size: 512
        }
      }
    }
  }
  attr {
    key: "shared_name"
    value {
      s: "bn5a_branch2a/moving_mean"
    }
  }
}
node {
  name: "bn5a_branch2a/moving_variance"
  op: "VarHandleOp"
  device: "/job:localhost/replica:0/task:0/device:GPU:0"
  attr {
    key: "_class"
    value {
      list {
        s: "loc:@bn5a_branch2a_1/AssignMovingAvg_1/AssignSubVariableOp"
      }
    }
  }
  attr {
    key: "container"
    value {
      s: ""
    }
  }
  attr {
    key: "dtype"
    value {
      type: DT_FLOAT
    }
  }
  attr {
    key: "shape"
    value {
      shape {
        dim {
          size: 512
        }
      }
    }
  }
  attr {
    key: "shared_name"
    value {
      s: "bn5a_branch2a/moving_variance"
    }
  }
}
node {
  name: "bn5a_branch2b/moving_mean"
  op: "VarHandleOp"
  device: "/job:localhost/replica:0/task:0/device:GPU:0"
  attr {
    key: "_class"
    value {
      list {
        s: "loc:@bn5a_branch2b_1/AssignMovingAvg/AssignSubVariableOp"
      }
    }
  }
  attr {
    key: "container"
    value {
      s: ""
    }
  }
  attr {
    key: "dtype"
    value {
      type: DT_FLOAT
    }
  }
  attr {
    key: "shape"
    value {
      shape {
        dim {
          size: 512
        }
      }
    }
  }
  attr {
    key: "shared_name"
    value {
      s: "bn5a_branch2b/moving_mean"
    }
  }
}
node {
  name: "bn5a_branch2b/moving_variance"
  op: "VarHandleOp"
  device: "/job:localhost/replica:0/task:0/device:GPU:0"
  attr {
    key: "_class"
    value {
      list {
        s: "loc:@bn5a_branch2b_1/AssignMovingAvg_1/AssignSubVariableOp"
      }
    }
  }
  attr {
    key: "container"
    value {
      s: ""
    }
  }
  attr {
    key: "dtype"
    value {
      type: DT_FLOAT
    }
  }
  attr {
    key: "shape"
    value {
      shape {
        dim {
          size: 512
        }
      }
    }
  }
  attr {
    key: "shared_name"
    value {
      s: "bn5a_branch2b/moving_variance"
    }
  }
}
node {
  name: "bn5a_branch2c/moving_mean"
  op: "VarHandleOp"
  device: "/job:localhost/replica:0/task:0/device:GPU:0"
  attr {
    key: "_class"
    value {
      list {
        s: "loc:@bn5a_branch2c_1/AssignMovingAvg/AssignSubVariableOp"
      }
    }
  }
  attr {
    key: "container"
    value {
      s: ""
    }
  }
  attr {
    key: "dtype"
    value {
      type: DT_FLOAT
    }
  }
  attr {
    key: "shape"
    value {
      shape {
        dim {
          size: 2048
        }
      }
    }
  }
  attr {
    key: "shared_name"
    value {
      s: "bn5a_branch2c/moving_mean"
    }
  }
}
node {
  name: "bn5a_branch2c/moving_variance"
  op: "VarHandleOp"
  device: "/job:localhost/replica:0/task:0/device:GPU:0"
  attr {
    key: "_class"
    value {
      list {
        s: "loc:@bn5a_branch2c_1/AssignMovingAvg_1/AssignSubVariableOp"
      }
    }
  }
  attr {
    key: "container"
    value {
      s: ""
    }
  }
  attr {
    key: "dtype"
    value {
      type: DT_FLOAT
    }
  }
  attr {
    key: "shape"
    value {
      shape {
        dim {
          size: 2048
        }
      }
    }
  }
  attr {
    key: "shared_name"
    value {
      s: "bn5a_branch2c/moving_variance"
    }
  }
}
node {
  name: "bn5b_branch2a/moving_mean"
  op: "VarHandleOp"
  device: "/job:localhost/replica:0/task:0/device:GPU:0"
  attr {
    key: "_class"
    value {
      list {
        s: "loc:@bn5b_branch2a_1/AssignMovingAvg/AssignSubVariableOp"
      }
    }
  }
  attr {
    key: "container"
    value {
      s: ""
    }
  }
  attr {
    key: "dtype"
    value {
      type: DT_FLOAT
    }
  }
  attr {
    key: "shape"
    value {
      shape {
        dim {
          size: 512
        }
      }
    }
  }
  attr {
    key: "shared_name"
    value {
      s: "bn5b_branch2a/moving_mean"
    }
  }
}
node {
  name: "bn5b_branch2a/moving_variance"
  op: "VarHandleOp"
  device: "/job:localhost/replica:0/task:0/device:GPU:0"
  attr {
    key: "_class"
    value {
      list {
        s: "loc:@bn5b_branch2a_1/AssignMovingAvg_1/AssignSubVariableOp"
      }
    }
  }
  attr {
    key: "container"
    value {
      s: ""
    }
  }
  attr {
    key: "dtype"
    value {
      type: DT_FLOAT
    }
  }
  attr {
    key: "shape"
    value {
      shape {
        dim {
          size: 512
        }
      }
    }
  }
  attr {
    key: "shared_name"
    value {
      s: "bn5b_branch2a/moving_variance"
    }
  }
}
node {
  name: "bn5b_branch2b/moving_mean"
  op: "VarHandleOp"
  device: "/job:localhost/replica:0/task:0/device:GPU:0"
  attr {
    key: "_class"
    value {
      list {
        s: "loc:@bn5b_branch2b_1/AssignMovingAvg/AssignSubVariableOp"
      }
    }
  }
  attr {
    key: "container"
    value {
      s: ""
    }
  }
  attr {
    key: "dtype"
    value {
      type: DT_FLOAT
    }
  }
  attr {
    key: "shape"
    value {
      shape {
        dim {
          size: 512
        }
      }
    }
  }
  attr {
    key: "shared_name"
    value {
      s: "bn5b_branch2b/moving_mean"
    }
  }
}
node {
  name: "bn5b_branch2b/moving_variance"
  op: "VarHandleOp"
  device: "/job:localhost/replica:0/task:0/device:GPU:0"
  attr {
    key: "_class"
    value {
      list {
        s: "loc:@bn5b_branch2b_1/AssignMovingAvg_1/AssignSubVariableOp"
      }
    }
  }
  attr {
    key: "container"
    value {
      s: ""
    }
  }
  attr {
    key: "dtype"
    value {
      type: DT_FLOAT
    }
  }
  attr {
    key: "shape"
    value {
      shape {
        dim {
          size: 512
        }
      }
    }
  }
  attr {
    key: "shared_name"
    value {
      s: "bn5b_branch2b/moving_variance"
    }
  }
}
node {
  name: "bn5b_branch2c/moving_mean"
  op: "VarHandleOp"
  device: "/job:localhost/replica:0/task:0/device:GPU:0"
  attr {
    key: "_class"
    value {
      list {
        s: "loc:@bn5b_branch2c_1/AssignMovingAvg/AssignSubVariableOp"
      }
    }
  }
  attr {
    key: "container"
    value {
      s: ""
    }
  }
  attr {
    key: "dtype"
    value {
      type: DT_FLOAT
    }
  }
  attr {
    key: "shape"
    value {
      shape {
        dim {
          size: 2048
        }
      }
    }
  }
  attr {
    key: "shared_name"
    value {
      s: "bn5b_branch2c/moving_mean"
    }
  }
}
node {
  name: "bn5b_branch2c/moving_variance"
  op: "VarHandleOp"
  device: "/job:localhost/replica:0/task:0/device:GPU:0"
  attr {
    key: "_class"
    value {
      list {
        s: "loc:@bn5b_branch2c_1/AssignMovingAvg_1/AssignSubVariableOp"
      }
    }
  }
  attr {
    key: "container"
    value {
      s: ""
    }
  }
  attr {
    key: "dtype"
    value {
      type: DT_FLOAT
    }
  }
  attr {
    key: "shape"
    value {
      shape {
        dim {
          size: 2048
        }
      }
    }
  }
  attr {
    key: "shared_name"
    value {
      s: "bn5b_branch2c/moving_variance"
    }
  }
}
node {
  name: "bn5c_branch2a/moving_mean"
  op: "VarHandleOp"
  device: "/job:localhost/replica:0/task:0/device:GPU:0"
  attr {
    key: "_class"
    value {
      list {
        s: "loc:@bn5c_branch2a_1/AssignMovingAvg/AssignSubVariableOp"
      }
    }
  }
  attr {
    key: "container"
    value {
      s: ""
    }
  }
  attr {
    key: "dtype"
    value {
      type: DT_FLOAT
    }
  }
  attr {
    key: "shape"
    value {
      shape {
        dim {
          size: 512
        }
      }
    }
  }
  attr {
    key: "shared_name"
    value {
      s: "bn5c_branch2a/moving_mean"
    }
  }
}
node {
  name: "bn5c_branch2a/moving_variance"
  op: "VarHandleOp"
  device: "/job:localhost/replica:0/task:0/device:GPU:0"
  attr {
    key: "_class"
    value {
      list {
        s: "loc:@bn5c_branch2a_1/AssignMovingAvg_1/AssignSubVariableOp"
      }
    }
  }
  attr {
    key: "container"
    value {
      s: ""
    }
  }
  attr {
    key: "dtype"
    value {
      type: DT_FLOAT
    }
  }
  attr {
    key: "shape"
    value {
      shape {
        dim {
          size: 512
        }
      }
    }
  }
  attr {
    key: "shared_name"
    value {
      s: "bn5c_branch2a/moving_variance"
    }
  }
}
node {
  name: "bn5c_branch2b/moving_mean"
  op: "VarHandleOp"
  device: "/job:localhost/replica:0/task:0/device:GPU:0"
  attr {
    key: "_class"
    value {
      list {
        s: "loc:@bn5c_branch2b_1/AssignMovingAvg/AssignSubVariableOp"
      }
    }
  }
  attr {
    key: "container"
    value {
      s: ""
    }
  }
  attr {
    key: "dtype"
    value {
      type: DT_FLOAT
    }
  }
  attr {
    key: "shape"
    value {
      shape {
        dim {
          size: 512
        }
      }
    }
  }
  attr {
    key: "shared_name"
    value {
      s: "bn5c_branch2b/moving_mean"
    }
  }
}
node {
  name: "bn5c_branch2b/moving_variance"
  op: "VarHandleOp"
  device: "/job:localhost/replica:0/task:0/device:GPU:0"
  attr {
    key: "_class"
    value {
      list {
        s: "loc:@bn5c_branch2b_1/AssignMovingAvg_1/AssignSubVariableOp"
      }
    }
  }
  attr {
    key: "container"
    value {
      s: ""
    }
  }
  attr {
    key: "dtype"
    value {
      type: DT_FLOAT
    }
  }
  attr {
    key: "shape"
    value {
      shape {
        dim {
          size: 512
        }
      }
    }
  }
  attr {
    key: "shared_name"
    value {
      s: "bn5c_branch2b/moving_variance"
    }
  }
}
node {
  name: "bn5c_branch2c/moving_mean"
  op: "VarHandleOp"
  device: "/job:localhost/replica:0/task:0/device:GPU:0"
  attr {
    key: "_class"
    value {
      list {
        s: "loc:@bn5c_branch2c_1/AssignMovingAvg/AssignSubVariableOp"
      }
    }
  }
  attr {
    key: "container"
    value {
      s: ""
    }
  }
  attr {
    key: "dtype"
    value {
      type: DT_FLOAT
    }
  }
  attr {
    key: "shape"
    value {
      shape {
        dim {
          size: 2048
        }
      }
    }
  }
  attr {
    key: "shared_name"
    value {
      s: "bn5c_branch2c/moving_mean"
    }
  }
}
node {
  name: "bn5c_branch2c/moving_variance"
  op: "VarHandleOp"
  device: "/job:localhost/replica:0/task:0/device:GPU:0"
  attr {
    key: "_class"
    value {
      list {
        s: "loc:@bn5c_branch2c_1/AssignMovingAvg_1/AssignSubVariableOp"
      }
    }
  }
  attr {
    key: "container"
    value {
      s: ""
    }
  }
  attr {
    key: "dtype"
    value {
      type: DT_FLOAT
    }
  }
  attr {
    key: "shape"
    value {
      shape {
        dim {
          size: 2048
        }
      }
    }
  }
  attr {
    key: "shared_name"
    value {
      s: "bn5c_branch2c/moving_variance"
    }
  }
}
node {
  name: "bn_conv1/moving_mean"
  op: "VarHandleOp"
  device: "/job:localhost/replica:0/task:0/device:GPU:0"
  attr {
    key: "_class"
    value {
      list {
        s: "loc:@bn_conv1_1/AssignMovingAvg/AssignSubVariableOp"
      }
    }
  }
  attr {
    key: "container"
    value {
      s: ""
    }
  }
  attr {
    key: "dtype"
    value {
      type: DT_FLOAT
    }
  }
  attr {
    key: "shape"
    value {
      shape {
        dim {
          size: 64
        }
      }
    }
  }
  attr {
    key: "shared_name"
    value {
      s: "bn_conv1/moving_mean"
    }
  }
}
node {
  name: "bn_conv1_1/AssignMovingAvg_1/sub"
  op: "Const"
  device: "/job:localhost/replica:0/task:0/device:GPU:0"
  attr {
    key: "dtype"
    value {
      type: DT_FLOAT
    }
  }
  attr {
    key: "value"
    value {
      tensor {
        dtype: DT_FLOAT
        tensor_shape {
        }
        tensor_content: "\320\314\314="
      }
    }
  }
}
node {
  name: "bn_conv1/moving_variance"
  op: "VarHandleOp"
  device: "/job:localhost/replica:0/task:0/device:GPU:0"
  attr {
    key: "_class"
    value {
      list {
        s: "loc:@bn_conv1_1/AssignMovingAvg_1/AssignSubVariableOp"
      }
    }
  }
  attr {
    key: "container"
    value {
      s: ""
    }
  }
  attr {
    key: "dtype"
    value {
      type: DT_FLOAT
    }
  }
  attr {
    key: "shape"
    value {
      shape {
        dim {
          size: 64
        }
      }
    }
  }
  attr {
    key: "shared_name"
    value {
      s: "bn_conv1/moving_variance"
    }
  }
}
node {
  name: "training/SGD/iter"
  op: "VarHandleOp"
  device: "/job:localhost/replica:0/task:0/device:GPU:0"
  attr {
    key: "container"
    value {
      s: ""
    }
  }
  attr {
    key: "dtype"
    value {
      type: DT_INT64
    }
  }
  attr {
    key: "shape"
    value {
      shape {
      }
    }
  }
  attr {
    key: "shared_name"
    value {
      s: "training/SGD/iter"
    }
  }
}
node {
  name: "training/SGD/bn2a_branch1/beta/momentum"
  op: "VarHandleOp"
  device: "/job:localhost/replica:0/task:0/device:GPU:0"
  attr {
    key: "container"
    value {
      s: ""
    }
  }
  attr {
    key: "dtype"
    value {
      type: DT_FLOAT
    }
  }
  attr {
    key: "shape"
    value {
      shape {
        dim {
          size: 256
        }
      }
    }
  }
  attr {
    key: "shared_name"
    value {
      s: "training/SGD/bn2a_branch1/beta/momentum"
    }
  }
}
node {
  name: "training/SGD/bn2a_branch1/gamma/momentum"
  op: "VarHandleOp"
  device: "/job:localhost/replica:0/task:0/device:GPU:0"
  attr {
    key: "container"
    value {
      s: ""
    }
  }
  attr {
    key: "dtype"
    value {
      type: DT_FLOAT
    }
  }
  attr {
    key: "shape"
    value {
      shape {
        dim {
          size: 256
        }
      }
    }
  }
  attr {
    key: "shared_name"
    value {
      s: "training/SGD/bn2a_branch1/gamma/momentum"
    }
  }
}
node {
  name: "training/SGD/bn2a_branch2a/beta/momentum"
  op: "VarHandleOp"
  device: "/job:localhost/replica:0/task:0/device:GPU:0"
  attr {
    key: "container"
    value {
      s: ""
    }
  }
  attr {
    key: "dtype"
    value {
      type: DT_FLOAT
    }
  }
  attr {
    key: "shape"
    value {
      shape {
        dim {
          size: 64
        }
      }
    }
  }
  attr {
    key: "shared_name"
    value {
      s: "training/SGD/bn2a_branch2a/beta/momentum"
    }
  }
}
node {
  name: "training/SGD/bn2a_branch2a/gamma/momentum"
  op: "VarHandleOp"
  device: "/job:localhost/replica:0/task:0/device:GPU:0"
  attr {
    key: "container"
    value {
      s: ""
    }
  }
  attr {
    key: "dtype"
    value {
      type: DT_FLOAT
    }
  }
  attr {
    key: "shape"
    value {
      shape {
        dim {
          size: 64
        }
      }
    }
  }
  attr {
    key: "shared_name"
    value {
      s: "training/SGD/bn2a_branch2a/gamma/momentum"
    }
  }
}
node {
  name: "training/SGD/bn2a_branch2b/beta/momentum"
  op: "VarHandleOp"
  device: "/job:localhost/replica:0/task:0/device:GPU:0"
  attr {
    key: "container"
    value {
      s: ""
    }
  }
  attr {
    key: "dtype"
    value {
      type: DT_FLOAT
    }
  }
  attr {
    key: "shape"
    value {
      shape {
        dim {
          size: 64
        }
      }
    }
  }
  attr {
    key: "shared_name"
    value {
      s: "training/SGD/bn2a_branch2b/beta/momentum"
    }
  }
}
node {
  name: "training/SGD/bn2a_branch2b/gamma/momentum"
  op: "VarHandleOp"
  device: "/job:localhost/replica:0/task:0/device:GPU:0"
  attr {
    key: "container"
    value {
      s: ""
    }
  }
  attr {
    key: "dtype"
    value {
      type: DT_FLOAT
    }
  }
  attr {
    key: "shape"
    value {
      shape {
        dim {
          size: 64
        }
      }
    }
  }
  attr {
    key: "shared_name"
    value {
      s: "training/SGD/bn2a_branch2b/gamma/momentum"
    }
  }
}
node {
  name: "training/SGD/bn2a_branch2c/beta/momentum"
  op: "VarHandleOp"
  device: "/job:localhost/replica:0/task:0/device:GPU:0"
  attr {
    key: "container"
    value {
      s: ""
    }
  }
  attr {
    key: "dtype"
    value {
      type: DT_FLOAT
    }
  }
  attr {
    key: "shape"
    value {
      shape {
        dim {
          size: 256
        }
      }
    }
  }
  attr {
    key: "shared_name"
    value {
      s: "training/SGD/bn2a_branch2c/beta/momentum"
    }
  }
}
node {
  name: "training/SGD/bn2a_branch2c/gamma/momentum"
  op: "VarHandleOp"
  device: "/job:localhost/replica:0/task:0/device:GPU:0"
  attr {
    key: "container"
    value {
      s: ""
    }
  }
  attr {
    key: "dtype"
    value {
      type: DT_FLOAT
    }
  }
  attr {
    key: "shape"
    value {
      shape {
        dim {
          size: 256
        }
      }
    }
  }
  attr {
    key: "shared_name"
    value {
      s: "training/SGD/bn2a_branch2c/gamma/momentum"
    }
  }
}
node {
  name: "training/SGD/bn2b_branch2a/beta/momentum"
  op: "VarHandleOp"
  device: "/job:localhost/replica:0/task:0/device:GPU:0"
  attr {
    key: "container"
    value {
      s: ""
    }
  }
  attr {
    key: "dtype"
    value {
      type: DT_FLOAT
    }
  }
  attr {
    key: "shape"
    value {
      shape {
        dim {
          size: 64
        }
      }
    }
  }
  attr {
    key: "shared_name"
    value {
      s: "training/SGD/bn2b_branch2a/beta/momentum"
    }
  }
}
node {
  name: "training/SGD/bn2b_branch2a/gamma/momentum"
  op: "VarHandleOp"
  device: "/job:localhost/replica:0/task:0/device:GPU:0"
  attr {
    key: "container"
    value {
      s: ""
    }
  }
  attr {
    key: "dtype"
    value {
      type: DT_FLOAT
    }
  }
  attr {
    key: "shape"
    value {
      shape {
        dim {
          size: 64
        }
      }
    }
  }
  attr {
    key: "shared_name"
    value {
      s: "training/SGD/bn2b_branch2a/gamma/momentum"
    }
  }
}
node {
  name: "training/SGD/bn2b_branch2b/beta/momentum"
  op: "VarHandleOp"
  device: "/job:localhost/replica:0/task:0/device:GPU:0"
  attr {
    key: "container"
    value {
      s: ""
    }
  }
  attr {
    key: "dtype"
    value {
      type: DT_FLOAT
    }
  }
  attr {
    key: "shape"
    value {
      shape {
        dim {
          size: 64
        }
      }
    }
  }
  attr {
    key: "shared_name"
    value {
      s: "training/SGD/bn2b_branch2b/beta/momentum"
    }
  }
}
node {
  name: "training/SGD/bn2b_branch2b/gamma/momentum"
  op: "VarHandleOp"
  device: "/job:localhost/replica:0/task:0/device:GPU:0"
  attr {
    key: "container"
    value {
      s: ""
    }
  }
  attr {
    key: "dtype"
    value {
      type: DT_FLOAT
    }
  }
  attr {
    key: "shape"
    value {
      shape {
        dim {
          size: 64
        }
      }
    }
  }
  attr {
    key: "shared_name"
    value {
      s: "training/SGD/bn2b_branch2b/gamma/momentum"
    }
  }
}
node {
  name: "training/SGD/bn2b_branch2c/beta/momentum"
  op: "VarHandleOp"
  device: "/job:localhost/replica:0/task:0/device:GPU:0"
  attr {
    key: "container"
    value {
      s: ""
    }
  }
  attr {
    key: "dtype"
    value {
      type: DT_FLOAT
    }
  }
  attr {
    key: "shape"
    value {
      shape {
        dim {
          size: 256
        }
      }
    }
  }
  attr {
    key: "shared_name"
    value {
      s: "training/SGD/bn2b_branch2c/beta/momentum"
    }
  }
}
node {
  name: "training/SGD/bn2b_branch2c/gamma/momentum"
  op: "VarHandleOp"
  device: "/job:localhost/replica:0/task:0/device:GPU:0"
  attr {
    key: "container"
    value {
      s: ""
    }
  }
  attr {
    key: "dtype"
    value {
      type: DT_FLOAT
    }
  }
  attr {
    key: "shape"
    value {
      shape {
        dim {
          size: 256
        }
      }
    }
  }
  attr {
    key: "shared_name"
    value {
      s: "training/SGD/bn2b_branch2c/gamma/momentum"
    }
  }
}
node {
  name: "training/SGD/bn2c_branch2a/beta/momentum"
  op: "VarHandleOp"
  device: "/job:localhost/replica:0/task:0/device:GPU:0"
  attr {
    key: "container"
    value {
      s: ""
    }
  }
  attr {
    key: "dtype"
    value {
      type: DT_FLOAT
    }
  }
  attr {
    key: "shape"
    value {
      shape {
        dim {
          size: 64
        }
      }
    }
  }
  attr {
    key: "shared_name"
    value {
      s: "training/SGD/bn2c_branch2a/beta/momentum"
    }
  }
}
node {
  name: "training/SGD/bn2c_branch2a/gamma/momentum"
  op: "VarHandleOp"
  device: "/job:localhost/replica:0/task:0/device:GPU:0"
  attr {
    key: "container"
    value {
      s: ""
    }
  }
  attr {
    key: "dtype"
    value {
      type: DT_FLOAT
    }
  }
  attr {
    key: "shape"
    value {
      shape {
        dim {
          size: 64
        }
      }
    }
  }
  attr {
    key: "shared_name"
    value {
      s: "training/SGD/bn2c_branch2a/gamma/momentum"
    }
  }
}
node {
  name: "training/SGD/bn2c_branch2b/beta/momentum"
  op: "VarHandleOp"
  device: "/job:localhost/replica:0/task:0/device:GPU:0"
  attr {
    key: "container"
    value {
      s: ""
    }
  }
  attr {
    key: "dtype"
    value {
      type: DT_FLOAT
    }
  }
  attr {
    key: "shape"
    value {
      shape {
        dim {
          size: 64
        }
      }
    }
  }
  attr {
    key: "shared_name"
    value {
      s: "training/SGD/bn2c_branch2b/beta/momentum"
    }
  }
}
node {
  name: "training/SGD/bn2c_branch2b/gamma/momentum"
  op: "VarHandleOp"
  device: "/job:localhost/replica:0/task:0/device:GPU:0"
  attr {
    key: "container"
    value {
      s: ""
    }
  }
  attr {
    key: "dtype"
    value {
      type: DT_FLOAT
    }
  }
  attr {
    key: "shape"
    value {
      shape {
        dim {
          size: 64
        }
      }
    }
  }
  attr {
    key: "shared_name"
    value {
      s: "training/SGD/bn2c_branch2b/gamma/momentum"
    }
  }
}
node {
  name: "training/SGD/bn2c_branch2c/beta/momentum"
  op: "VarHandleOp"
  device: "/job:localhost/replica:0/task:0/device:GPU:0"
  attr {
    key: "container"
    value {
      s: ""
    }
  }
  attr {
    key: "dtype"
    value {
      type: DT_FLOAT
    }
  }
  attr {
    key: "shape"
    value {
      shape {
        dim {
          size: 256
        }
      }
    }
  }
  attr {
    key: "shared_name"
    value {
      s: "training/SGD/bn2c_branch2c/beta/momentum"
    }
  }
}
node {
  name: "training/SGD/bn2c_branch2c/gamma/momentum"
  op: "VarHandleOp"
  device: "/job:localhost/replica:0/task:0/device:GPU:0"
  attr {
    key: "container"
    value {
      s: ""
    }
  }
  attr {
    key: "dtype"
    value {
      type: DT_FLOAT
    }
  }
  attr {
    key: "shape"
    value {
      shape {
        dim {
          size: 256
        }
      }
    }
  }
  attr {
    key: "shared_name"
    value {
      s: "training/SGD/bn2c_branch2c/gamma/momentum"
    }
  }
}
node {
  name: "training/SGD/bn3a_branch1/beta/momentum"
  op: "VarHandleOp"
  device: "/job:localhost/replica:0/task:0/device:GPU:0"
  attr {
    key: "container"
    value {
      s: ""
    }
  }
  attr {
    key: "dtype"
    value {
      type: DT_FLOAT
    }
  }
  attr {
    key: "shape"
    value {
      shape {
        dim {
          size: 512
        }
      }
    }
  }
  attr {
    key: "shared_name"
    value {
      s: "training/SGD/bn3a_branch1/beta/momentum"
    }
  }
}
node {
  name: "training/SGD/bn3a_branch1/gamma/momentum"
  op: "VarHandleOp"
  device: "/job:localhost/replica:0/task:0/device:GPU:0"
  attr {
    key: "container"
    value {
      s: ""
    }
  }
  attr {
    key: "dtype"
    value {
      type: DT_FLOAT
    }
  }
  attr {
    key: "shape"
    value {
      shape {
        dim {
          size: 512
        }
      }
    }
  }
  attr {
    key: "shared_name"
    value {
      s: "training/SGD/bn3a_branch1/gamma/momentum"
    }
  }
}
node {
  name: "training/SGD/bn3a_branch2a/beta/momentum"
  op: "VarHandleOp"
  device: "/job:localhost/replica:0/task:0/device:GPU:0"
  attr {
    key: "container"
    value {
      s: ""
    }
  }
  attr {
    key: "dtype"
    value {
      type: DT_FLOAT
    }
  }
  attr {
    key: "shape"
    value {
      shape {
        dim {
          size: 128
        }
      }
    }
  }
  attr {
    key: "shared_name"
    value {
      s: "training/SGD/bn3a_branch2a/beta/momentum"
    }
  }
}
node {
  name: "training/SGD/bn3a_branch2a/gamma/momentum"
  op: "VarHandleOp"
  device: "/job:localhost/replica:0/task:0/device:GPU:0"
  attr {
    key: "container"
    value {
      s: ""
    }
  }
  attr {
    key: "dtype"
    value {
      type: DT_FLOAT
    }
  }
  attr {
    key: "shape"
    value {
      shape {
        dim {
          size: 128
        }
      }
    }
  }
  attr {
    key: "shared_name"
    value {
      s: "training/SGD/bn3a_branch2a/gamma/momentum"
    }
  }
}
node {
  name: "training/SGD/bn3a_branch2b/beta/momentum"
  op: "VarHandleOp"
  device: "/job:localhost/replica:0/task:0/device:GPU:0"
  attr {
    key: "container"
    value {
      s: ""
    }
  }
  attr {
    key: "dtype"
    value {
      type: DT_FLOAT
    }
  }
  attr {
    key: "shape"
    value {
      shape {
        dim {
          size: 128
        }
      }
    }
  }
  attr {
    key: "shared_name"
    value {
      s: "training/SGD/bn3a_branch2b/beta/momentum"
    }
  }
}
node {
  name: "training/SGD/bn3a_branch2b/gamma/momentum"
  op: "VarHandleOp"
  device: "/job:localhost/replica:0/task:0/device:GPU:0"
  attr {
    key: "container"
    value {
      s: ""
    }
  }
  attr {
    key: "dtype"
    value {
      type: DT_FLOAT
    }
  }
  attr {
    key: "shape"
    value {
      shape {
        dim {
          size: 128
        }
      }
    }
  }
  attr {
    key: "shared_name"
    value {
      s: "training/SGD/bn3a_branch2b/gamma/momentum"
    }
  }
}
node {
  name: "training/SGD/bn3a_branch2c/beta/momentum"
  op: "VarHandleOp"
  device: "/job:localhost/replica:0/task:0/device:GPU:0"
  attr {
    key: "container"
    value {
      s: ""
    }
  }
  attr {
    key: "dtype"
    value {
      type: DT_FLOAT
    }
  }
  attr {
    key: "shape"
    value {
      shape {
        dim {
          size: 512
        }
      }
    }
  }
  attr {
    key: "shared_name"
    value {
      s: "training/SGD/bn3a_branch2c/beta/momentum"
    }
  }
}
node {
  name: "training/SGD/bn3a_branch2c/gamma/momentum"
  op: "VarHandleOp"
  device: "/job:localhost/replica:0/task:0/device:GPU:0"
  attr {
    key: "container"
    value {
      s: ""
    }
  }
  attr {
    key: "dtype"
    value {
      type: DT_FLOAT
    }
  }
  attr {
    key: "shape"
    value {
      shape {
        dim {
          size: 512
        }
      }
    }
  }
  attr {
    key: "shared_name"
    value {
      s: "training/SGD/bn3a_branch2c/gamma/momentum"
    }
  }
}
node {
  name: "training/SGD/bn3b_branch2a/beta/momentum"
  op: "VarHandleOp"
  device: "/job:localhost/replica:0/task:0/device:GPU:0"
  attr {
    key: "container"
    value {
      s: ""
    }
  }
  attr {
    key: "dtype"
    value {
      type: DT_FLOAT
    }
  }
  attr {
    key: "shape"
    value {
      shape {
        dim {
          size: 128
        }
      }
    }
  }
  attr {
    key: "shared_name"
    value {
      s: "training/SGD/bn3b_branch2a/beta/momentum"
    }
  }
}
node {
  name: "training/SGD/bn3b_branch2a/gamma/momentum"
  op: "VarHandleOp"
  device: "/job:localhost/replica:0/task:0/device:GPU:0"
  attr {
    key: "container"
    value {
      s: ""
    }
  }
  attr {
    key: "dtype"
    value {
      type: DT_FLOAT
    }
  }
  attr {
    key: "shape"
    value {
      shape {
        dim {
          size: 128
        }
      }
    }
  }
  attr {
    key: "shared_name"
    value {
      s: "training/SGD/bn3b_branch2a/gamma/momentum"
    }
  }
}
node {
  name: "training/SGD/bn3b_branch2b/beta/momentum"
  op: "VarHandleOp"
  device: "/job:localhost/replica:0/task:0/device:GPU:0"
  attr {
    key: "container"
    value {
      s: ""
    }
  }
  attr {
    key: "dtype"
    value {
      type: DT_FLOAT
    }
  }
  attr {
    key: "shape"
    value {
      shape {
        dim {
          size: 128
        }
      }
    }
  }
  attr {
    key: "shared_name"
    value {
      s: "training/SGD/bn3b_branch2b/beta/momentum"
    }
  }
}
node {
  name: "training/SGD/bn3b_branch2b/gamma/momentum"
  op: "VarHandleOp"
  device: "/job:localhost/replica:0/task:0/device:GPU:0"
  attr {
    key: "container"
    value {
      s: ""
    }
  }
  attr {
    key: "dtype"
    value {
      type: DT_FLOAT
    }
  }
  attr {
    key: "shape"
    value {
      shape {
        dim {
          size: 128
        }
      }
    }
  }
  attr {
    key: "shared_name"
    value {
      s: "training/SGD/bn3b_branch2b/gamma/momentum"
    }
  }
}
node {
  name: "training/SGD/bn3b_branch2c/beta/momentum"
  op: "VarHandleOp"
  device: "/job:localhost/replica:0/task:0/device:GPU:0"
  attr {
    key: "container"
    value {
      s: ""
    }
  }
  attr {
    key: "dtype"
    value {
      type: DT_FLOAT
    }
  }
  attr {
    key: "shape"
    value {
      shape {
        dim {
          size: 512
        }
      }
    }
  }
  attr {
    key: "shared_name"
    value {
      s: "training/SGD/bn3b_branch2c/beta/momentum"
    }
  }
}
node {
  name: "training/SGD/bn3b_branch2c/gamma/momentum"
  op: "VarHandleOp"
  device: "/job:localhost/replica:0/task:0/device:GPU:0"
  attr {
    key: "container"
    value {
      s: ""
    }
  }
  attr {
    key: "dtype"
    value {
      type: DT_FLOAT
    }
  }
  attr {
    key: "shape"
    value {
      shape {
        dim {
          size: 512
        }
      }
    }
  }
  attr {
    key: "shared_name"
    value {
      s: "training/SGD/bn3b_branch2c/gamma/momentum"
    }
  }
}
node {
  name: "training/SGD/bn3c_branch2a/beta/momentum"
  op: "VarHandleOp"
  device: "/job:localhost/replica:0/task:0/device:GPU:0"
  attr {
    key: "container"
    value {
      s: ""
    }
  }
  attr {
    key: "dtype"
    value {
      type: DT_FLOAT
    }
  }
  attr {
    key: "shape"
    value {
      shape {
        dim {
          size: 128
        }
      }
    }
  }
  attr {
    key: "shared_name"
    value {
      s: "training/SGD/bn3c_branch2a/beta/momentum"
    }
  }
}
node {
  name: "training/SGD/bn3c_branch2a/gamma/momentum"
  op: "VarHandleOp"
  device: "/job:localhost/replica:0/task:0/device:GPU:0"
  attr {
    key: "container"
    value {
      s: ""
    }
  }
  attr {
    key: "dtype"
    value {
      type: DT_FLOAT
    }
  }
  attr {
    key: "shape"
    value {
      shape {
        dim {
          size: 128
        }
      }
    }
  }
  attr {
    key: "shared_name"
    value {
      s: "training/SGD/bn3c_branch2a/gamma/momentum"
    }
  }
}
node {
  name: "training/SGD/bn3c_branch2b/beta/momentum"
  op: "VarHandleOp"
  device: "/job:localhost/replica:0/task:0/device:GPU:0"
  attr {
    key: "container"
    value {
      s: ""
    }
  }
  attr {
    key: "dtype"
    value {
      type: DT_FLOAT
    }
  }
  attr {
    key: "shape"
    value {
      shape {
        dim {
          size: 128
        }
      }
    }
  }
  attr {
    key: "shared_name"
    value {
      s: "training/SGD/bn3c_branch2b/beta/momentum"
    }
  }
}
node {
  name: "training/SGD/bn3c_branch2b/gamma/momentum"
  op: "VarHandleOp"
  device: "/job:localhost/replica:0/task:0/device:GPU:0"
  attr {
    key: "container"
    value {
      s: ""
    }
  }
  attr {
    key: "dtype"
    value {
      type: DT_FLOAT
    }
  }
  attr {
    key: "shape"
    value {
      shape {
        dim {
          size: 128
        }
      }
    }
  }
  attr {
    key: "shared_name"
    value {
      s: "training/SGD/bn3c_branch2b/gamma/momentum"
    }
  }
}
node {
  name: "training/SGD/bn3c_branch2c/beta/momentum"
  op: "VarHandleOp"
  device: "/job:localhost/replica:0/task:0/device:GPU:0"
  attr {
    key: "container"
    value {
      s: ""
    }
  }
  attr {
    key: "dtype"
    value {
      type: DT_FLOAT
    }
  }
  attr {
    key: "shape"
    value {
      shape {
        dim {
          size: 512
        }
      }
    }
  }
  attr {
    key: "shared_name"
    value {
      s: "training/SGD/bn3c_branch2c/beta/momentum"
    }
  }
}
node {
  name: "training/SGD/bn3c_branch2c/gamma/momentum"
  op: "VarHandleOp"
  device: "/job:localhost/replica:0/task:0/device:GPU:0"
  attr {
    key: "container"
    value {
      s: ""
    }
  }
  attr {
    key: "dtype"
    value {
      type: DT_FLOAT
    }
  }
  attr {
    key: "shape"
    value {
      shape {
        dim {
          size: 512
        }
      }
    }
  }
  attr {
    key: "shared_name"
    value {
      s: "training/SGD/bn3c_branch2c/gamma/momentum"
    }
  }
}
node {
  name: "training/SGD/bn3d_branch2a/beta/momentum"
  op: "VarHandleOp"
  device: "/job:localhost/replica:0/task:0/device:GPU:0"
  attr {
    key: "container"
    value {
      s: ""
    }
  }
  attr {
    key: "dtype"
    value {
      type: DT_FLOAT
    }
  }
  attr {
    key: "shape"
    value {
      shape {
        dim {
          size: 128
        }
      }
    }
  }
  attr {
    key: "shared_name"
    value {
      s: "training/SGD/bn3d_branch2a/beta/momentum"
    }
  }
}
node {
  name: "training/SGD/bn3d_branch2a/gamma/momentum"
  op: "VarHandleOp"
  device: "/job:localhost/replica:0/task:0/device:GPU:0"
  attr {
    key: "container"
    value {
      s: ""
    }
  }
  attr {
    key: "dtype"
    value {
      type: DT_FLOAT
    }
  }
  attr {
    key: "shape"
    value {
      shape {
        dim {
          size: 128
        }
      }
    }
  }
  attr {
    key: "shared_name"
    value {
      s: "training/SGD/bn3d_branch2a/gamma/momentum"
    }
  }
}
node {
  name: "training/SGD/bn3d_branch2b/beta/momentum"
  op: "VarHandleOp"
  device: "/job:localhost/replica:0/task:0/device:GPU:0"
  attr {
    key: "container"
    value {
      s: ""
    }
  }
  attr {
    key: "dtype"
    value {
      type: DT_FLOAT
    }
  }
  attr {
    key: "shape"
    value {
      shape {
        dim {
          size: 128
        }
      }
    }
  }
  attr {
    key: "shared_name"
    value {
      s: "training/SGD/bn3d_branch2b/beta/momentum"
    }
  }
}
node {
  name: "training/SGD/bn3d_branch2b/gamma/momentum"
  op: "VarHandleOp"
  device: "/job:localhost/replica:0/task:0/device:GPU:0"
  attr {
    key: "container"
    value {
      s: ""
    }
  }
  attr {
    key: "dtype"
    value {
      type: DT_FLOAT
    }
  }
  attr {
    key: "shape"
    value {
      shape {
        dim {
          size: 128
        }
      }
    }
  }
  attr {
    key: "shared_name"
    value {
      s: "training/SGD/bn3d_branch2b/gamma/momentum"
    }
  }
}
node {
  name: "training/SGD/bn3d_branch2c/beta/momentum"
  op: "VarHandleOp"
  device: "/job:localhost/replica:0/task:0/device:GPU:0"
  attr {
    key: "container"
    value {
      s: ""
    }
  }
  attr {
    key: "dtype"
    value {
      type: DT_FLOAT
    }
  }
  attr {
    key: "shape"
    value {
      shape {
        dim {
          size: 512
        }
      }
    }
  }
  attr {
    key: "shared_name"
    value {
      s: "training/SGD/bn3d_branch2c/beta/momentum"
    }
  }
}
node {
  name: "training/SGD/bn3d_branch2c/gamma/momentum"
  op: "VarHandleOp"
  device: "/job:localhost/replica:0/task:0/device:GPU:0"
  attr {
    key: "container"
    value {
      s: ""
    }
  }
  attr {
    key: "dtype"
    value {
      type: DT_FLOAT
    }
  }
  attr {
    key: "shape"
    value {
      shape {
        dim {
          size: 512
        }
      }
    }
  }
  attr {
    key: "shared_name"
    value {
      s: "training/SGD/bn3d_branch2c/gamma/momentum"
    }
  }
}
node {
  name: "training/SGD/bn4a_branch1/beta/momentum"
  op: "VarHandleOp"
  device: "/job:localhost/replica:0/task:0/device:GPU:0"
  attr {
    key: "container"
    value {
      s: ""
    }
  }
  attr {
    key: "dtype"
    value {
      type: DT_FLOAT
    }
  }
  attr {
    key: "shape"
    value {
      shape {
        dim {
          size: 1024
        }
      }
    }
  }
  attr {
    key: "shared_name"
    value {
      s: "training/SGD/bn4a_branch1/beta/momentum"
    }
  }
}
node {
  name: "training/SGD/bn4a_branch1/gamma/momentum"
  op: "VarHandleOp"
  device: "/job:localhost/replica:0/task:0/device:GPU:0"
  attr {
    key: "container"
    value {
      s: ""
    }
  }
  attr {
    key: "dtype"
    value {
      type: DT_FLOAT
    }
  }
  attr {
    key: "shape"
    value {
      shape {
        dim {
          size: 1024
        }
      }
    }
  }
  attr {
    key: "shared_name"
    value {
      s: "training/SGD/bn4a_branch1/gamma/momentum"
    }
  }
}
node {
  name: "training/SGD/bn4a_branch2a/beta/momentum"
  op: "VarHandleOp"
  device: "/job:localhost/replica:0/task:0/device:GPU:0"
  attr {
    key: "container"
    value {
      s: ""
    }
  }
  attr {
    key: "dtype"
    value {
      type: DT_FLOAT
    }
  }
  attr {
    key: "shape"
    value {
      shape {
        dim {
          size: 256
        }
      }
    }
  }
  attr {
    key: "shared_name"
    value {
      s: "training/SGD/bn4a_branch2a/beta/momentum"
    }
  }
}
node {
  name: "training/SGD/bn4a_branch2a/gamma/momentum"
  op: "VarHandleOp"
  device: "/job:localhost/replica:0/task:0/device:GPU:0"
  attr {
    key: "container"
    value {
      s: ""
    }
  }
  attr {
    key: "dtype"
    value {
      type: DT_FLOAT
    }
  }
  attr {
    key: "shape"
    value {
      shape {
        dim {
          size: 256
        }
      }
    }
  }
  attr {
    key: "shared_name"
    value {
      s: "training/SGD/bn4a_branch2a/gamma/momentum"
    }
  }
}
node {
  name: "training/SGD/bn4a_branch2b/beta/momentum"
  op: "VarHandleOp"
  device: "/job:localhost/replica:0/task:0/device:GPU:0"
  attr {
    key: "container"
    value {
      s: ""
    }
  }
  attr {
    key: "dtype"
    value {
      type: DT_FLOAT
    }
  }
  attr {
    key: "shape"
    value {
      shape {
        dim {
          size: 256
        }
      }
    }
  }
  attr {
    key: "shared_name"
    value {
      s: "training/SGD/bn4a_branch2b/beta/momentum"
    }
  }
}
node {
  name: "training/SGD/bn4a_branch2b/gamma/momentum"
  op: "VarHandleOp"
  device: "/job:localhost/replica:0/task:0/device:GPU:0"
  attr {
    key: "container"
    value {
      s: ""
    }
  }
  attr {
    key: "dtype"
    value {
      type: DT_FLOAT
    }
  }
  attr {
    key: "shape"
    value {
      shape {
        dim {
          size: 256
        }
      }
    }
  }
  attr {
    key: "shared_name"
    value {
      s: "training/SGD/bn4a_branch2b/gamma/momentum"
    }
  }
}
node {
  name: "training/SGD/bn4a_branch2c/beta/momentum"
  op: "VarHandleOp"
  device: "/job:localhost/replica:0/task:0/device:GPU:0"
  attr {
    key: "container"
    value {
      s: ""
    }
  }
  attr {
    key: "dtype"
    value {
      type: DT_FLOAT
    }
  }
  attr {
    key: "shape"
    value {
      shape {
        dim {
          size: 1024
        }
      }
    }
  }
  attr {
    key: "shared_name"
    value {
      s: "training/SGD/bn4a_branch2c/beta/momentum"
    }
  }
}
node {
  name: "training/SGD/bn4a_branch2c/gamma/momentum"
  op: "VarHandleOp"
  device: "/job:localhost/replica:0/task:0/device:GPU:0"
  attr {
    key: "container"
    value {
      s: ""
    }
  }
  attr {
    key: "dtype"
    value {
      type: DT_FLOAT
    }
  }
  attr {
    key: "shape"
    value {
      shape {
        dim {
          size: 1024
        }
      }
    }
  }
  attr {
    key: "shared_name"
    value {
      s: "training/SGD/bn4a_branch2c/gamma/momentum"
    }
  }
}
node {
  name: "training/SGD/bn4b_branch2a/beta/momentum"
  op: "VarHandleOp"
  device: "/job:localhost/replica:0/task:0/device:GPU:0"
  attr {
    key: "container"
    value {
      s: ""
    }
  }
  attr {
    key: "dtype"
    value {
      type: DT_FLOAT
    }
  }
  attr {
    key: "shape"
    value {
      shape {
        dim {
          size: 256
        }
      }
    }
  }
  attr {
    key: "shared_name"
    value {
      s: "training/SGD/bn4b_branch2a/beta/momentum"
    }
  }
}
node {
  name: "training/SGD/bn4b_branch2a/gamma/momentum"
  op: "VarHandleOp"
  device: "/job:localhost/replica:0/task:0/device:GPU:0"
  attr {
    key: "container"
    value {
      s: ""
    }
  }
  attr {
    key: "dtype"
    value {
      type: DT_FLOAT
    }
  }
  attr {
    key: "shape"
    value {
      shape {
        dim {
          size: 256
        }
      }
    }
  }
  attr {
    key: "shared_name"
    value {
      s: "training/SGD/bn4b_branch2a/gamma/momentum"
    }
  }
}
node {
  name: "training/SGD/bn4b_branch2b/beta/momentum"
  op: "VarHandleOp"
  device: "/job:localhost/replica:0/task:0/device:GPU:0"
  attr {
    key: "container"
    value {
      s: ""
    }
  }
  attr {
    key: "dtype"
    value {
      type: DT_FLOAT
    }
  }
  attr {
    key: "shape"
    value {
      shape {
        dim {
          size: 256
        }
      }
    }
  }
  attr {
    key: "shared_name"
    value {
      s: "training/SGD/bn4b_branch2b/beta/momentum"
    }
  }
}
node {
  name: "training/SGD/bn4b_branch2b/gamma/momentum"
  op: "VarHandleOp"
  device: "/job:localhost/replica:0/task:0/device:GPU:0"
  attr {
    key: "container"
    value {
      s: ""
    }
  }
  attr {
    key: "dtype"
    value {
      type: DT_FLOAT
    }
  }
  attr {
    key: "shape"
    value {
      shape {
        dim {
          size: 256
        }
      }
    }
  }
  attr {
    key: "shared_name"
    value {
      s: "training/SGD/bn4b_branch2b/gamma/momentum"
    }
  }
}
node {
  name: "training/SGD/bn4b_branch2c/beta/momentum"
  op: "VarHandleOp"
  device: "/job:localhost/replica:0/task:0/device:GPU:0"
  attr {
    key: "container"
    value {
      s: ""
    }
  }
  attr {
    key: "dtype"
    value {
      type: DT_FLOAT
    }
  }
  attr {
    key: "shape"
    value {
      shape {
        dim {
          size: 1024
        }
      }
    }
  }
  attr {
    key: "shared_name"
    value {
      s: "training/SGD/bn4b_branch2c/beta/momentum"
    }
  }
}
node {
  name: "training/SGD/bn4b_branch2c/gamma/momentum"
  op: "VarHandleOp"
  device: "/job:localhost/replica:0/task:0/device:GPU:0"
  attr {
    key: "container"
    value {
      s: ""
    }
  }
  attr {
    key: "dtype"
    value {
      type: DT_FLOAT
    }
  }
  attr {
    key: "shape"
    value {
      shape {
        dim {
          size: 1024
        }
      }
    }
  }
  attr {
    key: "shared_name"
    value {
      s: "training/SGD/bn4b_branch2c/gamma/momentum"
    }
  }
}
node {
  name: "training/SGD/bn4c_branch2a/beta/momentum"
  op: "VarHandleOp"
  device: "/job:localhost/replica:0/task:0/device:GPU:0"
  attr {
    key: "container"
    value {
      s: ""
    }
  }
  attr {
    key: "dtype"
    value {
      type: DT_FLOAT
    }
  }
  attr {
    key: "shape"
    value {
      shape {
        dim {
          size: 256
        }
      }
    }
  }
  attr {
    key: "shared_name"
    value {
      s: "training/SGD/bn4c_branch2a/beta/momentum"
    }
  }
}
node {
  name: "training/SGD/bn4c_branch2a/gamma/momentum"
  op: "VarHandleOp"
  device: "/job:localhost/replica:0/task:0/device:GPU:0"
  attr {
    key: "container"
    value {
      s: ""
    }
  }
  attr {
    key: "dtype"
    value {
      type: DT_FLOAT
    }
  }
  attr {
    key: "shape"
    value {
      shape {
        dim {
          size: 256
        }
      }
    }
  }
  attr {
    key: "shared_name"
    value {
      s: "training/SGD/bn4c_branch2a/gamma/momentum"
    }
  }
}
node {
  name: "training/SGD/bn4c_branch2b/beta/momentum"
  op: "VarHandleOp"
  device: "/job:localhost/replica:0/task:0/device:GPU:0"
  attr {
    key: "container"
    value {
      s: ""
    }
  }
  attr {
    key: "dtype"
    value {
      type: DT_FLOAT
    }
  }
  attr {
    key: "shape"
    value {
      shape {
        dim {
          size: 256
        }
      }
    }
  }
  attr {
    key: "shared_name"
    value {
      s: "training/SGD/bn4c_branch2b/beta/momentum"
    }
  }
}
node {
  name: "training/SGD/bn4c_branch2b/gamma/momentum"
  op: "VarHandleOp"
  device: "/job:localhost/replica:0/task:0/device:GPU:0"
  attr {
    key: "container"
    value {
      s: ""
    }
  }
  attr {
    key: "dtype"
    value {
      type: DT_FLOAT
    }
  }
  attr {
    key: "shape"
    value {
      shape {
        dim {
          size: 256
        }
      }
    }
  }
  attr {
    key: "shared_name"
    value {
      s: "training/SGD/bn4c_branch2b/gamma/momentum"
    }
  }
}
node {
  name: "training/SGD/bn4c_branch2c/beta/momentum"
  op: "VarHandleOp"
  device: "/job:localhost/replica:0/task:0/device:GPU:0"
  attr {
    key: "container"
    value {
      s: ""
    }
  }
  attr {
    key: "dtype"
    value {
      type: DT_FLOAT
    }
  }
  attr {
    key: "shape"
    value {
      shape {
        dim {
          size: 1024
        }
      }
    }
  }
  attr {
    key: "shared_name"
    value {
      s: "training/SGD/bn4c_branch2c/beta/momentum"
    }
  }
}
node {
  name: "training/SGD/bn4c_branch2c/gamma/momentum"
  op: "VarHandleOp"
  device: "/job:localhost/replica:0/task:0/device:GPU:0"
  attr {
    key: "container"
    value {
      s: ""
    }
  }
  attr {
    key: "dtype"
    value {
      type: DT_FLOAT
    }
  }
  attr {
    key: "shape"
    value {
      shape {
        dim {
          size: 1024
        }
      }
    }
  }
  attr {
    key: "shared_name"
    value {
      s: "training/SGD/bn4c_branch2c/gamma/momentum"
    }
  }
}
node {
  name: "training/SGD/bn4d_branch2a/beta/momentum"
  op: "VarHandleOp"
  device: "/job:localhost/replica:0/task:0/device:GPU:0"
  attr {
    key: "container"
    value {
      s: ""
    }
  }
  attr {
    key: "dtype"
    value {
      type: DT_FLOAT
    }
  }
  attr {
    key: "shape"
    value {
      shape {
        dim {
          size: 256
        }
      }
    }
  }
  attr {
    key: "shared_name"
    value {
      s: "training/SGD/bn4d_branch2a/beta/momentum"
    }
  }
}
node {
  name: "training/SGD/bn4d_branch2a/gamma/momentum"
  op: "VarHandleOp"
  device: "/job:localhost/replica:0/task:0/device:GPU:0"
  attr {
    key: "container"
    value {
      s: ""
    }
  }
  attr {
    key: "dtype"
    value {
      type: DT_FLOAT
    }
  }
  attr {
    key: "shape"
    value {
      shape {
        dim {
          size: 256
        }
      }
    }
  }
  attr {
    key: "shared_name"
    value {
      s: "training/SGD/bn4d_branch2a/gamma/momentum"
    }
  }
}
node {
  name: "training/SGD/bn4d_branch2b/beta/momentum"
  op: "VarHandleOp"
  device: "/job:localhost/replica:0/task:0/device:GPU:0"
  attr {
    key: "container"
    value {
      s: ""
    }
  }
  attr {
    key: "dtype"
    value {
      type: DT_FLOAT
    }
  }
  attr {
    key: "shape"
    value {
      shape {
        dim {
          size: 256
        }
      }
    }
  }
  attr {
    key: "shared_name"
    value {
      s: "training/SGD/bn4d_branch2b/beta/momentum"
    }
  }
}
node {
  name: "training/SGD/bn4d_branch2b/gamma/momentum"
  op: "VarHandleOp"
  device: "/job:localhost/replica:0/task:0/device:GPU:0"
  attr {
    key: "container"
    value {
      s: ""
    }
  }
  attr {
    key: "dtype"
    value {
      type: DT_FLOAT
    }
  }
  attr {
    key: "shape"
    value {
      shape {
        dim {
          size: 256
        }
      }
    }
  }
  attr {
    key: "shared_name"
    value {
      s: "training/SGD/bn4d_branch2b/gamma/momentum"
    }
  }
}
node {
  name: "training/SGD/bn4d_branch2c/beta/momentum"
  op: "VarHandleOp"
  device: "/job:localhost/replica:0/task:0/device:GPU:0"
  attr {
    key: "container"
    value {
      s: ""
    }
  }
  attr {
    key: "dtype"
    value {
      type: DT_FLOAT
    }
  }
  attr {
    key: "shape"
    value {
      shape {
        dim {
          size: 1024
        }
      }
    }
  }
  attr {
    key: "shared_name"
    value {
      s: "training/SGD/bn4d_branch2c/beta/momentum"
    }
  }
}
node {
  name: "training/SGD/bn4d_branch2c/gamma/momentum"
  op: "VarHandleOp"
  device: "/job:localhost/replica:0/task:0/device:GPU:0"
  attr {
    key: "container"
    value {
      s: ""
    }
  }
  attr {
    key: "dtype"
    value {
      type: DT_FLOAT
    }
  }
  attr {
    key: "shape"
    value {
      shape {
        dim {
          size: 1024
        }
      }
    }
  }
  attr {
    key: "shared_name"
    value {
      s: "training/SGD/bn4d_branch2c/gamma/momentum"
    }
  }
}
node {
  name: "training/SGD/bn4e_branch2a/beta/momentum"
  op: "VarHandleOp"
  device: "/job:localhost/replica:0/task:0/device:GPU:0"
  attr {
    key: "container"
    value {
      s: ""
    }
  }
  attr {
    key: "dtype"
    value {
      type: DT_FLOAT
    }
  }
  attr {
    key: "shape"
    value {
      shape {
        dim {
          size: 256
        }
      }
    }
  }
  attr {
    key: "shared_name"
    value {
      s: "training/SGD/bn4e_branch2a/beta/momentum"
    }
  }
}
node {
  name: "training/SGD/bn4e_branch2a/gamma/momentum"
  op: "VarHandleOp"
  device: "/job:localhost/replica:0/task:0/device:GPU:0"
  attr {
    key: "container"
    value {
      s: ""
    }
  }
  attr {
    key: "dtype"
    value {
      type: DT_FLOAT
    }
  }
  attr {
    key: "shape"
    value {
      shape {
        dim {
          size: 256
        }
      }
    }
  }
  attr {
    key: "shared_name"
    value {
      s: "training/SGD/bn4e_branch2a/gamma/momentum"
    }
  }
}
node {
  name: "training/SGD/bn4e_branch2b/beta/momentum"
  op: "VarHandleOp"
  device: "/job:localhost/replica:0/task:0/device:GPU:0"
  attr {
    key: "container"
    value {
      s: ""
    }
  }
  attr {
    key: "dtype"
    value {
      type: DT_FLOAT
    }
  }
  attr {
    key: "shape"
    value {
      shape {
        dim {
          size: 256
        }
      }
    }
  }
  attr {
    key: "shared_name"
    value {
      s: "training/SGD/bn4e_branch2b/beta/momentum"
    }
  }
}
node {
  name: "training/SGD/bn4e_branch2b/gamma/momentum"
  op: "VarHandleOp"
  device: "/job:localhost/replica:0/task:0/device:GPU:0"
  attr {
    key: "container"
    value {
      s: ""
    }
  }
  attr {
    key: "dtype"
    value {
      type: DT_FLOAT
    }
  }
  attr {
    key: "shape"
    value {
      shape {
        dim {
          size: 256
        }
      }
    }
  }
  attr {
    key: "shared_name"
    value {
      s: "training/SGD/bn4e_branch2b/gamma/momentum"
    }
  }
}
node {
  name: "training/SGD/bn4e_branch2c/beta/momentum"
  op: "VarHandleOp"
  device: "/job:localhost/replica:0/task:0/device:GPU:0"
  attr {
    key: "container"
    value {
      s: ""
    }
  }
  attr {
    key: "dtype"
    value {
      type: DT_FLOAT
    }
  }
  attr {
    key: "shape"
    value {
      shape {
        dim {
          size: 1024
        }
      }
    }
  }
  attr {
    key: "shared_name"
    value {
      s: "training/SGD/bn4e_branch2c/beta/momentum"
    }
  }
}
node {
  name: "training/SGD/bn4e_branch2c/gamma/momentum"
  op: "VarHandleOp"
  device: "/job:localhost/replica:0/task:0/device:GPU:0"
  attr {
    key: "container"
    value {
      s: ""
    }
  }
  attr {
    key: "dtype"
    value {
      type: DT_FLOAT
    }
  }
  attr {
    key: "shape"
    value {
      shape {
        dim {
          size: 1024
        }
      }
    }
  }
  attr {
    key: "shared_name"
    value {
      s: "training/SGD/bn4e_branch2c/gamma/momentum"
    }
  }
}
node {
  name: "training/SGD/bn4f_branch2a/beta/momentum"
  op: "VarHandleOp"
  device: "/job:localhost/replica:0/task:0/device:GPU:0"
  attr {
    key: "container"
    value {
      s: ""
    }
  }
  attr {
    key: "dtype"
    value {
      type: DT_FLOAT
    }
  }
  attr {
    key: "shape"
    value {
      shape {
        dim {
          size: 256
        }
      }
    }
  }
  attr {
    key: "shared_name"
    value {
      s: "training/SGD/bn4f_branch2a/beta/momentum"
    }
  }
}
node {
  name: "training/SGD/bn4f_branch2a/gamma/momentum"
  op: "VarHandleOp"
  device: "/job:localhost/replica:0/task:0/device:GPU:0"
  attr {
    key: "container"
    value {
      s: ""
    }
  }
  attr {
    key: "dtype"
    value {
      type: DT_FLOAT
    }
  }
  attr {
    key: "shape"
    value {
      shape {
        dim {
          size: 256
        }
      }
    }
  }
  attr {
    key: "shared_name"
    value {
      s: "training/SGD/bn4f_branch2a/gamma/momentum"
    }
  }
}
node {
  name: "training/SGD/bn4f_branch2b/beta/momentum"
  op: "VarHandleOp"
  device: "/job:localhost/replica:0/task:0/device:GPU:0"
  attr {
    key: "container"
    value {
      s: ""
    }
  }
  attr {
    key: "dtype"
    value {
      type: DT_FLOAT
    }
  }
  attr {
    key: "shape"
    value {
      shape {
        dim {
          size: 256
        }
      }
    }
  }
  attr {
    key: "shared_name"
    value {
      s: "training/SGD/bn4f_branch2b/beta/momentum"
    }
  }
}
node {
  name: "training/SGD/bn4f_branch2b/gamma/momentum"
  op: "VarHandleOp"
  device: "/job:localhost/replica:0/task:0/device:GPU:0"
  attr {
    key: "container"
    value {
      s: ""
    }
  }
  attr {
    key: "dtype"
    value {
      type: DT_FLOAT
    }
  }
  attr {
    key: "shape"
    value {
      shape {
        dim {
          size: 256
        }
      }
    }
  }
  attr {
    key: "shared_name"
    value {
      s: "training/SGD/bn4f_branch2b/gamma/momentum"
    }
  }
}
node {
  name: "training/SGD/bn4f_branch2c/beta/momentum"
  op: "VarHandleOp"
  device: "/job:localhost/replica:0/task:0/device:GPU:0"
  attr {
    key: "container"
    value {
      s: ""
    }
  }
  attr {
    key: "dtype"
    value {
      type: DT_FLOAT
    }
  }
  attr {
    key: "shape"
    value {
      shape {
        dim {
          size: 1024
        }
      }
    }
  }
  attr {
    key: "shared_name"
    value {
      s: "training/SGD/bn4f_branch2c/beta/momentum"
    }
  }
}
node {
  name: "training/SGD/bn4f_branch2c/gamma/momentum"
  op: "VarHandleOp"
  device: "/job:localhost/replica:0/task:0/device:GPU:0"
  attr {
    key: "container"
    value {
      s: ""
    }
  }
  attr {
    key: "dtype"
    value {
      type: DT_FLOAT
    }
  }
  attr {
    key: "shape"
    value {
      shape {
        dim {
          size: 1024
        }
      }
    }
  }
  attr {
    key: "shared_name"
    value {
      s: "training/SGD/bn4f_branch2c/gamma/momentum"
    }
  }
}
node {
  name: "training/SGD/bn5a_branch1/beta/momentum"
  op: "VarHandleOp"
  device: "/job:localhost/replica:0/task:0/device:GPU:0"
  attr {
    key: "container"
    value {
      s: ""
    }
  }
  attr {
    key: "dtype"
    value {
      type: DT_FLOAT
    }
  }
  attr {
    key: "shape"
    value {
      shape {
        dim {
          size: 2048
        }
      }
    }
  }
  attr {
    key: "shared_name"
    value {
      s: "training/SGD/bn5a_branch1/beta/momentum"
    }
  }
}
node {
  name: "training/SGD/bn5a_branch1/gamma/momentum"
  op: "VarHandleOp"
  device: "/job:localhost/replica:0/task:0/device:GPU:0"
  attr {
    key: "container"
    value {
      s: ""
    }
  }
  attr {
    key: "dtype"
    value {
      type: DT_FLOAT
    }
  }
  attr {
    key: "shape"
    value {
      shape {
        dim {
          size: 2048
        }
      }
    }
  }
  attr {
    key: "shared_name"
    value {
      s: "training/SGD/bn5a_branch1/gamma/momentum"
    }
  }
}
node {
  name: "training/SGD/bn5a_branch2a/beta/momentum"
  op: "VarHandleOp"
  device: "/job:localhost/replica:0/task:0/device:GPU:0"
  attr {
    key: "container"
    value {
      s: ""
    }
  }
  attr {
    key: "dtype"
    value {
      type: DT_FLOAT
    }
  }
  attr {
    key: "shape"
    value {
      shape {
        dim {
          size: 512
        }
      }
    }
  }
  attr {
    key: "shared_name"
    value {
      s: "training/SGD/bn5a_branch2a/beta/momentum"
    }
  }
}
node {
  name: "training/SGD/bn5a_branch2a/gamma/momentum"
  op: "VarHandleOp"
  device: "/job:localhost/replica:0/task:0/device:GPU:0"
  attr {
    key: "container"
    value {
      s: ""
    }
  }
  attr {
    key: "dtype"
    value {
      type: DT_FLOAT
    }
  }
  attr {
    key: "shape"
    value {
      shape {
        dim {
          size: 512
        }
      }
    }
  }
  attr {
    key: "shared_name"
    value {
      s: "training/SGD/bn5a_branch2a/gamma/momentum"
    }
  }
}
node {
  name: "training/SGD/bn5a_branch2b/beta/momentum"
  op: "VarHandleOp"
  device: "/job:localhost/replica:0/task:0/device:GPU:0"
  attr {
    key: "container"
    value {
      s: ""
    }
  }
  attr {
    key: "dtype"
    value {
      type: DT_FLOAT
    }
  }
  attr {
    key: "shape"
    value {
      shape {
        dim {
          size: 512
        }
      }
    }
  }
  attr {
    key: "shared_name"
    value {
      s: "training/SGD/bn5a_branch2b/beta/momentum"
    }
  }
}
node {
  name: "training/SGD/bn5a_branch2b/gamma/momentum"
  op: "VarHandleOp"
  device: "/job:localhost/replica:0/task:0/device:GPU:0"
  attr {
    key: "container"
    value {
      s: ""
    }
  }
  attr {
    key: "dtype"
    value {
      type: DT_FLOAT
    }
  }
  attr {
    key: "shape"
    value {
      shape {
        dim {
          size: 512
        }
      }
    }
  }
  attr {
    key: "shared_name"
    value {
      s: "training/SGD/bn5a_branch2b/gamma/momentum"
    }
  }
}
node {
  name: "training/SGD/bn5a_branch2c/beta/momentum"
  op: "VarHandleOp"
  device: "/job:localhost/replica:0/task:0/device:GPU:0"
  attr {
    key: "container"
    value {
      s: ""
    }
  }
  attr {
    key: "dtype"
    value {
      type: DT_FLOAT
    }
  }
  attr {
    key: "shape"
    value {
      shape {
        dim {
          size: 2048
        }
      }
    }
  }
  attr {
    key: "shared_name"
    value {
      s: "training/SGD/bn5a_branch2c/beta/momentum"
    }
  }
}
node {
  name: "training/SGD/bn5a_branch2c/gamma/momentum"
  op: "VarHandleOp"
  device: "/job:localhost/replica:0/task:0/device:GPU:0"
  attr {
    key: "container"
    value {
      s: ""
    }
  }
  attr {
    key: "dtype"
    value {
      type: DT_FLOAT
    }
  }
  attr {
    key: "shape"
    value {
      shape {
        dim {
          size: 2048
        }
      }
    }
  }
  attr {
    key: "shared_name"
    value {
      s: "training/SGD/bn5a_branch2c/gamma/momentum"
    }
  }
}
node {
  name: "training/SGD/bn5b_branch2a/beta/momentum"
  op: "VarHandleOp"
  device: "/job:localhost/replica:0/task:0/device:GPU:0"
  attr {
    key: "container"
    value {
      s: ""
    }
  }
  attr {
    key: "dtype"
    value {
      type: DT_FLOAT
    }
  }
  attr {
    key: "shape"
    value {
      shape {
        dim {
          size: 512
        }
      }
    }
  }
  attr {
    key: "shared_name"
    value {
      s: "training/SGD/bn5b_branch2a/beta/momentum"
    }
  }
}
node {
  name: "training/SGD/bn5b_branch2a/gamma/momentum"
  op: "VarHandleOp"
  device: "/job:localhost/replica:0/task:0/device:GPU:0"
  attr {
    key: "container"
    value {
      s: ""
    }
  }
  attr {
    key: "dtype"
    value {
      type: DT_FLOAT
    }
  }
  attr {
    key: "shape"
    value {
      shape {
        dim {
          size: 512
        }
      }
    }
  }
  attr {
    key: "shared_name"
    value {
      s: "training/SGD/bn5b_branch2a/gamma/momentum"
    }
  }
}
node {
  name: "training/SGD/bn5b_branch2b/beta/momentum"
  op: "VarHandleOp"
  device: "/job:localhost/replica:0/task:0/device:GPU:0"
  attr {
    key: "container"
    value {
      s: ""
    }
  }
  attr {
    key: "dtype"
    value {
      type: DT_FLOAT
    }
  }
  attr {
    key: "shape"
    value {
      shape {
        dim {
          size: 512
        }
      }
    }
  }
  attr {
    key: "shared_name"
    value {
      s: "training/SGD/bn5b_branch2b/beta/momentum"
    }
  }
}
node {
  name: "training/SGD/bn5b_branch2b/gamma/momentum"
  op: "VarHandleOp"
  device: "/job:localhost/replica:0/task:0/device:GPU:0"
  attr {
    key: "container"
    value {
      s: ""
    }
  }
  attr {
    key: "dtype"
    value {
      type: DT_FLOAT
    }
  }
  attr {
    key: "shape"
    value {
      shape {
        dim {
          size: 512
        }
      }
    }
  }
  attr {
    key: "shared_name"
    value {
      s: "training/SGD/bn5b_branch2b/gamma/momentum"
    }
  }
}
node {
  name: "training/SGD/bn5b_branch2c/beta/momentum"
  op: "VarHandleOp"
  device: "/job:localhost/replica:0/task:0/device:GPU:0"
  attr {
    key: "container"
    value {
      s: ""
    }
  }
  attr {
    key: "dtype"
    value {
      type: DT_FLOAT
    }
  }
  attr {
    key: "shape"
    value {
      shape {
        dim {
          size: 2048
        }
      }
    }
  }
  attr {
    key: "shared_name"
    value {
      s: "training/SGD/bn5b_branch2c/beta/momentum"
    }
  }
}
node {
  name: "training/SGD/bn5b_branch2c/gamma/momentum"
  op: "VarHandleOp"
  device: "/job:localhost/replica:0/task:0/device:GPU:0"
  attr {
    key: "container"
    value {
      s: ""
    }
  }
  attr {
    key: "dtype"
    value {
      type: DT_FLOAT
    }
  }
  attr {
    key: "shape"
    value {
      shape {
        dim {
          size: 2048
        }
      }
    }
  }
  attr {
    key: "shared_name"
    value {
      s: "training/SGD/bn5b_branch2c/gamma/momentum"
    }
  }
}
node {
  name: "training/SGD/bn5c_branch2a/beta/momentum"
  op: "VarHandleOp"
  device: "/job:localhost/replica:0/task:0/device:GPU:0"
  attr {
    key: "container"
    value {
      s: ""
    }
  }
  attr {
    key: "dtype"
    value {
      type: DT_FLOAT
    }
  }
  attr {
    key: "shape"
    value {
      shape {
        dim {
          size: 512
        }
      }
    }
  }
  attr {
    key: "shared_name"
    value {
      s: "training/SGD/bn5c_branch2a/beta/momentum"
    }
  }
}
node {
  name: "training/SGD/bn5c_branch2a/gamma/momentum"
  op: "VarHandleOp"
  device: "/job:localhost/replica:0/task:0/device:GPU:0"
  attr {
    key: "container"
    value {
      s: ""
    }
  }
  attr {
    key: "dtype"
    value {
      type: DT_FLOAT
    }
  }
  attr {
    key: "shape"
    value {
      shape {
        dim {
          size: 512
        }
      }
    }
  }
  attr {
    key: "shared_name"
    value {
      s: "training/SGD/bn5c_branch2a/gamma/momentum"
    }
  }
}
node {
  name: "training/SGD/bn5c_branch2b/beta/momentum"
  op: "VarHandleOp"
  device: "/job:localhost/replica:0/task:0/device:GPU:0"
  attr {
    key: "container"
    value {
      s: ""
    }
  }
  attr {
    key: "dtype"
    value {
      type: DT_FLOAT
    }
  }
  attr {
    key: "shape"
    value {
      shape {
        dim {
          size: 512
        }
      }
    }
  }
  attr {
    key: "shared_name"
    value {
      s: "training/SGD/bn5c_branch2b/beta/momentum"
    }
  }
}
node {
  name: "training/SGD/bn5c_branch2b/gamma/momentum"
  op: "VarHandleOp"
  device: "/job:localhost/replica:0/task:0/device:GPU:0"
  attr {
    key: "container"
    value {
      s: ""
    }
  }
  attr {
    key: "dtype"
    value {
      type: DT_FLOAT
    }
  }
  attr {
    key: "shape"
    value {
      shape {
        dim {
          size: 512
        }
      }
    }
  }
  attr {
    key: "shared_name"
    value {
      s: "training/SGD/bn5c_branch2b/gamma/momentum"
    }
  }
}
node {
  name: "training/SGD/bn5c_branch2c/beta/momentum"
  op: "VarHandleOp"
  device: "/job:localhost/replica:0/task:0/device:GPU:0"
  attr {
    key: "container"
    value {
      s: ""
    }
  }
  attr {
    key: "dtype"
    value {
      type: DT_FLOAT
    }
  }
  attr {
    key: "shape"
    value {
      shape {
        dim {
          size: 2048
        }
      }
    }
  }
  attr {
    key: "shared_name"
    value {
      s: "training/SGD/bn5c_branch2c/beta/momentum"
    }
  }
}
node {
  name: "training/SGD/bn5c_branch2c/gamma/momentum"
  op: "VarHandleOp"
  device: "/job:localhost/replica:0/task:0/device:GPU:0"
  attr {
    key: "container"
    value {
      s: ""
    }
  }
  attr {
    key: "dtype"
    value {
      type: DT_FLOAT
    }
  }
  attr {
    key: "shape"
    value {
      shape {
        dim {
          size: 2048
        }
      }
    }
  }
  attr {
    key: "shared_name"
    value {
      s: "training/SGD/bn5c_branch2c/gamma/momentum"
    }
  }
}
node {
  name: "training/SGD/bn_conv1/beta/momentum"
  op: "VarHandleOp"
  device: "/job:localhost/replica:0/task:0/device:GPU:0"
  attr {
    key: "container"
    value {
      s: ""
    }
  }
  attr {
    key: "dtype"
    value {
      type: DT_FLOAT
    }
  }
  attr {
    key: "shape"
    value {
      shape {
        dim {
          size: 64
        }
      }
    }
  }
  attr {
    key: "shared_name"
    value {
      s: "training/SGD/bn_conv1/beta/momentum"
    }
  }
}
node {
  name: "training/SGD/bn_conv1/gamma/momentum"
  op: "VarHandleOp"
  device: "/job:localhost/replica:0/task:0/device:GPU:0"
  attr {
    key: "container"
    value {
      s: ""
    }
  }
  attr {
    key: "dtype"
    value {
      type: DT_FLOAT
    }
  }
  attr {
    key: "shape"
    value {
      shape {
        dim {
          size: 64
        }
      }
    }
  }
  attr {
    key: "shared_name"
    value {
      s: "training/SGD/bn_conv1/gamma/momentum"
    }
  }
}
node {
  name: "training/SGD/conv1/kernel/momentum"
  op: "VarHandleOp"
  device: "/job:localhost/replica:0/task:0/device:GPU:0"
  attr {
    key: "container"
    value {
      s: ""
    }
  }
  attr {
    key: "dtype"
    value {
      type: DT_FLOAT
    }
  }
  attr {
    key: "shape"
    value {
      shape {
        dim {
          size: 7
        }
        dim {
          size: 7
        }
        dim {
          size: 3
        }
        dim {
          size: 64
        }
      }
    }
  }
  attr {
    key: "shared_name"
    value {
      s: "training/SGD/conv1/kernel/momentum"
    }
  }
}
node {
  name: "training/SGD/gradients/loss_1/conv1/kernel/Regularizer/Square_grad/Mul"
  op: "Const"
  device: "/job:localhost/replica:0/task:0/device:GPU:0"
  attr {
    key: "dtype"
    value {
      type: DT_FLOAT
    }
  }
  attr {
    key: "value"
    value {
      tensor {
        dtype: DT_FLOAT
        tensor_shape {
          dim {
            size: 7
          }
          dim {
            size: 7
          }
          dim {
            size: 3
          }
          dim {
            size: 64
          }
        }
        float_val: 0.0002
      }
    }
  }
}
node {
  name: "training/SGD/fc1000/bias/momentum"
  op: "VarHandleOp"
  device: "/job:localhost/replica:0/task:0/device:GPU:0"
  attr {
    key: "container"
    value {
      s: ""
    }
  }
  attr {
    key: "dtype"
    value {
      type: DT_FLOAT
    }
  }
  attr {
    key: "shape"
    value {
      shape {
        dim {
          size: 1001
        }
      }
    }
  }
  attr {
    key: "shared_name"
    value {
      s: "training/SGD/fc1000/bias/momentum"
    }
  }
}
node {
  name: "training/SGD/gradients/loss_1/fc1000/bias/Regularizer/Square_grad/Mul"
  op: "Const"
  device: "/job:localhost/replica:0/task:0/device:GPU:0"
  attr {
    key: "dtype"
    value {
      type: DT_FLOAT
    }
  }
  attr {
    key: "value"
    value {
      tensor {
        dtype: DT_FLOAT
        tensor_shape {
          dim {
            size: 1001
          }
        }
        float_val: 0.0002
      }
    }
  }
}
node {
  name: "training/SGD/fc1000/kernel/momentum"
  op: "VarHandleOp"
  device: "/job:localhost/replica:0/task:0/device:GPU:0"
  attr {
    key: "container"
    value {
      s: ""
    }
  }
  attr {
    key: "dtype"
    value {
      type: DT_FLOAT
    }
  }
  attr {
    key: "shape"
    value {
      shape {
        dim {
          size: 2048
        }
        dim {
          size: 1001
        }
      }
    }
  }
  attr {
    key: "shared_name"
    value {
      s: "training/SGD/fc1000/kernel/momentum"
    }
  }
}
node {
  name: "training/SGD/gradients/loss_1/fc1000/kernel/Regularizer/Square_grad/Mul"
  op: "Const"
  device: "/job:localhost/replica:0/task:0/device:GPU:0"
  attr {
    key: "dtype"
    value {
      type: DT_FLOAT
    }
  }
  attr {
    key: "value"
    value {
      tensor {
        dtype: DT_FLOAT
        tensor_shape {
          dim {
            size: 2048
          }
          dim {
            size: 1001
          }
        }
        float_val: 0.0002
      }
    }
  }
}
node {
  name: "training/SGD/res2a_branch1/kernel/momentum"
  op: "VarHandleOp"
  device: "/job:localhost/replica:0/task:0/device:GPU:0"
  attr {
    key: "container"
    value {
      s: ""
    }
  }
  attr {
    key: "dtype"
    value {
      type: DT_FLOAT
    }
  }
  attr {
    key: "shape"
    value {
      shape {
        dim {
          size: 1
        }
        dim {
          size: 1
        }
        dim {
          size: 64
        }
        dim {
          size: 256
        }
      }
    }
  }
  attr {
    key: "shared_name"
    value {
      s: "training/SGD/res2a_branch1/kernel/momentum"
    }
  }
}
node {
  name: "training/SGD/res2a_branch2a/kernel/momentum"
  op: "VarHandleOp"
  device: "/job:localhost/replica:0/task:0/device:GPU:0"
  attr {
    key: "container"
    value {
      s: ""
    }
  }
  attr {
    key: "dtype"
    value {
      type: DT_FLOAT
    }
  }
  attr {
    key: "shape"
    value {
      shape {
        dim {
          size: 1
        }
        dim {
          size: 1
        }
        dim {
          size: 64
        }
        dim {
          size: 64
        }
      }
    }
  }
  attr {
    key: "shared_name"
    value {
      s: "training/SGD/res2a_branch2a/kernel/momentum"
    }
  }
}
node {
  name: "training/SGD/gradients/loss_1/res2a_branch2a/kernel/Regularizer/Square_grad/Mul"
  op: "Const"
  device: "/job:localhost/replica:0/task:0/device:GPU:0"
  attr {
    key: "dtype"
    value {
      type: DT_FLOAT
    }
  }
  attr {
    key: "value"
    value {
      tensor {
        dtype: DT_FLOAT
        tensor_shape {
          dim {
            size: 1
          }
          dim {
            size: 1
          }
          dim {
            size: 64
          }
          dim {
            size: 64
          }
        }
        float_val: 0.0002
      }
    }
  }
}
node {
  name: "training/SGD/res2a_branch2b/kernel/momentum"
  op: "VarHandleOp"
  device: "/job:localhost/replica:0/task:0/device:GPU:0"
  attr {
    key: "container"
    value {
      s: ""
    }
  }
  attr {
    key: "dtype"
    value {
      type: DT_FLOAT
    }
  }
  attr {
    key: "shape"
    value {
      shape {
        dim {
          size: 3
        }
        dim {
          size: 3
        }
        dim {
          size: 64
        }
        dim {
          size: 64
        }
      }
    }
  }
  attr {
    key: "shared_name"
    value {
      s: "training/SGD/res2a_branch2b/kernel/momentum"
    }
  }
}
node {
  name: "training/SGD/res2a_branch2c/kernel/momentum"
  op: "VarHandleOp"
  device: "/job:localhost/replica:0/task:0/device:GPU:0"
  attr {
    key: "container"
    value {
      s: ""
    }
  }
  attr {
    key: "dtype"
    value {
      type: DT_FLOAT
    }
  }
  attr {
    key: "shape"
    value {
      shape {
        dim {
          size: 1
        }
        dim {
          size: 1
        }
        dim {
          size: 64
        }
        dim {
          size: 256
        }
      }
    }
  }
  attr {
    key: "shared_name"
    value {
      s: "training/SGD/res2a_branch2c/kernel/momentum"
    }
  }
}
node {
  name: "training/SGD/res2b_branch2a/kernel/momentum"
  op: "VarHandleOp"
  device: "/job:localhost/replica:0/task:0/device:GPU:0"
  attr {
    key: "container"
    value {
      s: ""
    }
  }
  attr {
    key: "dtype"
    value {
      type: DT_FLOAT
    }
  }
  attr {
    key: "shape"
    value {
      shape {
        dim {
          size: 1
        }
        dim {
          size: 1
        }
        dim {
          size: 256
        }
        dim {
          size: 64
        }
      }
    }
  }
  attr {
    key: "shared_name"
    value {
      s: "training/SGD/res2b_branch2a/kernel/momentum"
    }
  }
}
node {
  name: "training/SGD/res2b_branch2b/kernel/momentum"
  op: "VarHandleOp"
  device: "/job:localhost/replica:0/task:0/device:GPU:0"
  attr {
    key: "container"
    value {
      s: ""
    }
  }
  attr {
    key: "dtype"
    value {
      type: DT_FLOAT
    }
  }
  attr {
    key: "shape"
    value {
      shape {
        dim {
          size: 3
        }
        dim {
          size: 3
        }
        dim {
          size: 64
        }
        dim {
          size: 64
        }
      }
    }
  }
  attr {
    key: "shared_name"
    value {
      s: "training/SGD/res2b_branch2b/kernel/momentum"
    }
  }
}
node {
  name: "training/SGD/res2b_branch2c/kernel/momentum"
  op: "VarHandleOp"
  device: "/job:localhost/replica:0/task:0/device:GPU:0"
  attr {
    key: "container"
    value {
      s: ""
    }
  }
  attr {
    key: "dtype"
    value {
      type: DT_FLOAT
    }
  }
  attr {
    key: "shape"
    value {
      shape {
        dim {
          size: 1
        }
        dim {
          size: 1
        }
        dim {
          size: 64
        }
        dim {
          size: 256
        }
      }
    }
  }
  attr {
    key: "shared_name"
    value {
      s: "training/SGD/res2b_branch2c/kernel/momentum"
    }
  }
}
node {
  name: "training/SGD/res2c_branch2a/kernel/momentum"
  op: "VarHandleOp"
  device: "/job:localhost/replica:0/task:0/device:GPU:0"
  attr {
    key: "container"
    value {
      s: ""
    }
  }
  attr {
    key: "dtype"
    value {
      type: DT_FLOAT
    }
  }
  attr {
    key: "shape"
    value {
      shape {
        dim {
          size: 1
        }
        dim {
          size: 1
        }
        dim {
          size: 256
        }
        dim {
          size: 64
        }
      }
    }
  }
  attr {
    key: "shared_name"
    value {
      s: "training/SGD/res2c_branch2a/kernel/momentum"
    }
  }
}
node {
  name: "training/SGD/gradients/loss_1/res2c_branch2a/kernel/Regularizer/Square_grad/Mul"
  op: "Const"
  device: "/job:localhost/replica:0/task:0/device:GPU:0"
  attr {
    key: "dtype"
    value {
      type: DT_FLOAT
    }
  }
  attr {
    key: "value"
    value {
      tensor {
        dtype: DT_FLOAT
        tensor_shape {
          dim {
            size: 1
          }
          dim {
            size: 1
          }
          dim {
            size: 256
          }
          dim {
            size: 64
          }
        }
        float_val: 0.0002
      }
    }
  }
}
node {
  name: "training/SGD/res2c_branch2b/kernel/momentum"
  op: "VarHandleOp"
  device: "/job:localhost/replica:0/task:0/device:GPU:0"
  attr {
    key: "container"
    value {
      s: ""
    }
  }
  attr {
    key: "dtype"
    value {
      type: DT_FLOAT
    }
  }
  attr {
    key: "shape"
    value {
      shape {
        dim {
          size: 3
        }
        dim {
          size: 3
        }
        dim {
          size: 64
        }
        dim {
          size: 64
        }
      }
    }
  }
  attr {
    key: "shared_name"
    value {
      s: "training/SGD/res2c_branch2b/kernel/momentum"
    }
  }
}
node {
  name: "training/SGD/gradients/loss_1/res2c_branch2b/kernel/Regularizer/Square_grad/Mul"
  op: "Const"
  device: "/job:localhost/replica:0/task:0/device:GPU:0"
  attr {
    key: "dtype"
    value {
      type: DT_FLOAT
    }
  }
  attr {
    key: "value"
    value {
      tensor {
        dtype: DT_FLOAT
        tensor_shape {
          dim {
            size: 3
          }
          dim {
            size: 3
          }
          dim {
            size: 64
          }
          dim {
            size: 64
          }
        }
        float_val: 0.0002
      }
    }
  }
}
node {
  name: "training/SGD/res2c_branch2c/kernel/momentum"
  op: "VarHandleOp"
  device: "/job:localhost/replica:0/task:0/device:GPU:0"
  attr {
    key: "container"
    value {
      s: ""
    }
  }
  attr {
    key: "dtype"
    value {
      type: DT_FLOAT
    }
  }
  attr {
    key: "shape"
    value {
      shape {
        dim {
          size: 1
        }
        dim {
          size: 1
        }
        dim {
          size: 64
        }
        dim {
          size: 256
        }
      }
    }
  }
  attr {
    key: "shared_name"
    value {
      s: "training/SGD/res2c_branch2c/kernel/momentum"
    }
  }
}
node {
  name: "training/SGD/gradients/loss_1/res2c_branch2c/kernel/Regularizer/Square_grad/Mul"
  op: "Const"
  device: "/job:localhost/replica:0/task:0/device:GPU:0"
  attr {
    key: "dtype"
    value {
      type: DT_FLOAT
    }
  }
  attr {
    key: "value"
    value {
      tensor {
        dtype: DT_FLOAT
        tensor_shape {
          dim {
            size: 1
          }
          dim {
            size: 1
          }
          dim {
            size: 64
          }
          dim {
            size: 256
          }
        }
        float_val: 0.0002
      }
    }
  }
}
node {
  name: "training/SGD/res3a_branch1/kernel/momentum"
  op: "VarHandleOp"
  device: "/job:localhost/replica:0/task:0/device:GPU:0"
  attr {
    key: "container"
    value {
      s: ""
    }
  }
  attr {
    key: "dtype"
    value {
      type: DT_FLOAT
    }
  }
  attr {
    key: "shape"
    value {
      shape {
        dim {
          size: 1
        }
        dim {
          size: 1
        }
        dim {
          size: 256
        }
        dim {
          size: 512
        }
      }
    }
  }
  attr {
    key: "shared_name"
    value {
      s: "training/SGD/res3a_branch1/kernel/momentum"
    }
  }
}
node {
  name: "training/SGD/gradients/loss_1/res3a_branch1/kernel/Regularizer/Square_grad/Mul"
  op: "Const"
  device: "/job:localhost/replica:0/task:0/device:GPU:0"
  attr {
    key: "dtype"
    value {
      type: DT_FLOAT
    }
  }
  attr {
    key: "value"
    value {
      tensor {
        dtype: DT_FLOAT
        tensor_shape {
          dim {
            size: 1
          }
          dim {
            size: 1
          }
          dim {
            size: 256
          }
          dim {
            size: 512
          }
        }
        float_val: 0.0002
      }
    }
  }
}
node {
  name: "training/SGD/res3a_branch2a/kernel/momentum"
  op: "VarHandleOp"
  device: "/job:localhost/replica:0/task:0/device:GPU:0"
  attr {
    key: "container"
    value {
      s: ""
    }
  }
  attr {
    key: "dtype"
    value {
      type: DT_FLOAT
    }
  }
  attr {
    key: "shape"
    value {
      shape {
        dim {
          size: 1
        }
        dim {
          size: 1
        }
        dim {
          size: 256
        }
        dim {
          size: 128
        }
      }
    }
  }
  attr {
    key: "shared_name"
    value {
      s: "training/SGD/res3a_branch2a/kernel/momentum"
    }
  }
}
node {
  name: "training/SGD/gradients/loss_1/res3a_branch2a/kernel/Regularizer/Square_grad/Mul"
  op: "Const"
  device: "/job:localhost/replica:0/task:0/device:GPU:0"
  attr {
    key: "dtype"
    value {
      type: DT_FLOAT
    }
  }
  attr {
    key: "value"
    value {
      tensor {
        dtype: DT_FLOAT
        tensor_shape {
          dim {
            size: 1
          }
          dim {
            size: 1
          }
          dim {
            size: 256
          }
          dim {
            size: 128
          }
        }
        float_val: 0.0002
      }
    }
  }
}
node {
  name: "training/SGD/res3a_branch2b/kernel/momentum"
  op: "VarHandleOp"
  device: "/job:localhost/replica:0/task:0/device:GPU:0"
  attr {
    key: "container"
    value {
      s: ""
    }
  }
  attr {
    key: "dtype"
    value {
      type: DT_FLOAT
    }
  }
  attr {
    key: "shape"
    value {
      shape {
        dim {
          size: 3
        }
        dim {
          size: 3
        }
        dim {
          size: 128
        }
        dim {
          size: 128
        }
      }
    }
  }
  attr {
    key: "shared_name"
    value {
      s: "training/SGD/res3a_branch2b/kernel/momentum"
    }
  }
}
node {
  name: "training/SGD/res3a_branch2c/kernel/momentum"
  op: "VarHandleOp"
  device: "/job:localhost/replica:0/task:0/device:GPU:0"
  attr {
    key: "container"
    value {
      s: ""
    }
  }
  attr {
    key: "dtype"
    value {
      type: DT_FLOAT
    }
  }
  attr {
    key: "shape"
    value {
      shape {
        dim {
          size: 1
        }
        dim {
          size: 1
        }
        dim {
          size: 128
        }
        dim {
          size: 512
        }
      }
    }
  }
  attr {
    key: "shared_name"
    value {
      s: "training/SGD/res3a_branch2c/kernel/momentum"
    }
  }
}
node {
  name: "training/SGD/res3b_branch2a/kernel/momentum"
  op: "VarHandleOp"
  device: "/job:localhost/replica:0/task:0/device:GPU:0"
  attr {
    key: "container"
    value {
      s: ""
    }
  }
  attr {
    key: "dtype"
    value {
      type: DT_FLOAT
    }
  }
  attr {
    key: "shape"
    value {
      shape {
        dim {
          size: 1
        }
        dim {
          size: 1
        }
        dim {
          size: 512
        }
        dim {
          size: 128
        }
      }
    }
  }
  attr {
    key: "shared_name"
    value {
      s: "training/SGD/res3b_branch2a/kernel/momentum"
    }
  }
}
node {
  name: "training/SGD/res3b_branch2b/kernel/momentum"
  op: "VarHandleOp"
  device: "/job:localhost/replica:0/task:0/device:GPU:0"
  attr {
    key: "container"
    value {
      s: ""
    }
  }
  attr {
    key: "dtype"
    value {
      type: DT_FLOAT
    }
  }
  attr {
    key: "shape"
    value {
      shape {
        dim {
          size: 3
        }
        dim {
          size: 3
        }
        dim {
          size: 128
        }
        dim {
          size: 128
        }
      }
    }
  }
  attr {
    key: "shared_name"
    value {
      s: "training/SGD/res3b_branch2b/kernel/momentum"
    }
  }
}
node {
  name: "training/SGD/res3b_branch2c/kernel/momentum"
  op: "VarHandleOp"
  device: "/job:localhost/replica:0/task:0/device:GPU:0"
  attr {
    key: "container"
    value {
      s: ""
    }
  }
  attr {
    key: "dtype"
    value {
      type: DT_FLOAT
    }
  }
  attr {
    key: "shape"
    value {
      shape {
        dim {
          size: 1
        }
        dim {
          size: 1
        }
        dim {
          size: 128
        }
        dim {
          size: 512
        }
      }
    }
  }
  attr {
    key: "shared_name"
    value {
      s: "training/SGD/res3b_branch2c/kernel/momentum"
    }
  }
}
node {
  name: "training/SGD/res3c_branch2a/kernel/momentum"
  op: "VarHandleOp"
  device: "/job:localhost/replica:0/task:0/device:GPU:0"
  attr {
    key: "container"
    value {
      s: ""
    }
  }
  attr {
    key: "dtype"
    value {
      type: DT_FLOAT
    }
  }
  attr {
    key: "shape"
    value {
      shape {
        dim {
          size: 1
        }
        dim {
          size: 1
        }
        dim {
          size: 512
        }
        dim {
          size: 128
        }
      }
    }
  }
  attr {
    key: "shared_name"
    value {
      s: "training/SGD/res3c_branch2a/kernel/momentum"
    }
  }
}
node {
  name: "training/SGD/res3c_branch2b/kernel/momentum"
  op: "VarHandleOp"
  device: "/job:localhost/replica:0/task:0/device:GPU:0"
  attr {
    key: "container"
    value {
      s: ""
    }
  }
  attr {
    key: "dtype"
    value {
      type: DT_FLOAT
    }
  }
  attr {
    key: "shape"
    value {
      shape {
        dim {
          size: 3
        }
        dim {
          size: 3
        }
        dim {
          size: 128
        }
        dim {
          size: 128
        }
      }
    }
  }
  attr {
    key: "shared_name"
    value {
      s: "training/SGD/res3c_branch2b/kernel/momentum"
    }
  }
}
node {
  name: "training/SGD/res3c_branch2c/kernel/momentum"
  op: "VarHandleOp"
  device: "/job:localhost/replica:0/task:0/device:GPU:0"
  attr {
    key: "container"
    value {
      s: ""
    }
  }
  attr {
    key: "dtype"
    value {
      type: DT_FLOAT
    }
  }
  attr {
    key: "shape"
    value {
      shape {
        dim {
          size: 1
        }
        dim {
          size: 1
        }
        dim {
          size: 128
        }
        dim {
          size: 512
        }
      }
    }
  }
  attr {
    key: "shared_name"
    value {
      s: "training/SGD/res3c_branch2c/kernel/momentum"
    }
  }
}
node {
  name: "training/SGD/res3d_branch2a/kernel/momentum"
  op: "VarHandleOp"
  device: "/job:localhost/replica:0/task:0/device:GPU:0"
  attr {
    key: "container"
    value {
      s: ""
    }
  }
  attr {
    key: "dtype"
    value {
      type: DT_FLOAT
    }
  }
  attr {
    key: "shape"
    value {
      shape {
        dim {
          size: 1
        }
        dim {
          size: 1
        }
        dim {
          size: 512
        }
        dim {
          size: 128
        }
      }
    }
  }
  attr {
    key: "shared_name"
    value {
      s: "training/SGD/res3d_branch2a/kernel/momentum"
    }
  }
}
node {
  name: "training/SGD/gradients/loss_1/res3d_branch2a/kernel/Regularizer/Square_grad/Mul"
  op: "Const"
  device: "/job:localhost/replica:0/task:0/device:GPU:0"
  attr {
    key: "dtype"
    value {
      type: DT_FLOAT
    }
  }
  attr {
    key: "value"
    value {
      tensor {
        dtype: DT_FLOAT
        tensor_shape {
          dim {
            size: 1
          }
          dim {
            size: 1
          }
          dim {
            size: 512
          }
          dim {
            size: 128
          }
        }
        float_val: 0.0002
      }
    }
  }
}
node {
  name: "training/SGD/res3d_branch2b/kernel/momentum"
  op: "VarHandleOp"
  device: "/job:localhost/replica:0/task:0/device:GPU:0"
  attr {
    key: "container"
    value {
      s: ""
    }
  }
  attr {
    key: "dtype"
    value {
      type: DT_FLOAT
    }
  }
  attr {
    key: "shape"
    value {
      shape {
        dim {
          size: 3
        }
        dim {
          size: 3
        }
        dim {
          size: 128
        }
        dim {
          size: 128
        }
      }
    }
  }
  attr {
    key: "shared_name"
    value {
      s: "training/SGD/res3d_branch2b/kernel/momentum"
    }
  }
}
node {
  name: "training/SGD/gradients/loss_1/res3d_branch2b/kernel/Regularizer/Square_grad/Mul"
  op: "Const"
  device: "/job:localhost/replica:0/task:0/device:GPU:0"
  attr {
    key: "dtype"
    value {
      type: DT_FLOAT
    }
  }
  attr {
    key: "value"
    value {
      tensor {
        dtype: DT_FLOAT
        tensor_shape {
          dim {
            size: 3
          }
          dim {
            size: 3
          }
          dim {
            size: 128
          }
          dim {
            size: 128
          }
        }
        float_val: 0.0002
      }
    }
  }
}
node {
  name: "training/SGD/res3d_branch2c/kernel/momentum"
  op: "VarHandleOp"
  device: "/job:localhost/replica:0/task:0/device:GPU:0"
  attr {
    key: "container"
    value {
      s: ""
    }
  }
  attr {
    key: "dtype"
    value {
      type: DT_FLOAT
    }
  }
  attr {
    key: "shape"
    value {
      shape {
        dim {
          size: 1
        }
        dim {
          size: 1
        }
        dim {
          size: 128
        }
        dim {
          size: 512
        }
      }
    }
  }
  attr {
    key: "shared_name"
    value {
      s: "training/SGD/res3d_branch2c/kernel/momentum"
    }
  }
}
node {
  name: "training/SGD/gradients/loss_1/res3d_branch2c/kernel/Regularizer/Square_grad/Mul"
  op: "Const"
  device: "/job:localhost/replica:0/task:0/device:GPU:0"
  attr {
    key: "dtype"
    value {
      type: DT_FLOAT
    }
  }
  attr {
    key: "value"
    value {
…
}
node {
  name: "training/SGD/SGD/update_bn2a_branch1/beta/ResourceApplyKerasMomentum"
  op: "ResourceApplyKerasMomentum"
  input: "bn2a_branch1/beta"
  input: "training/SGD/bn2a_branch1/beta/momentum"
  input: "training/SGD/SGD/update_bn2a_branch1/beta/ResourceApplyKerasMomentum/ReadVariableOp"
  input: "training/SGD/gradients/bn2a_branch1_1/FusedBatchNorm_grad/FusedBatchNormGrad:2"
  input: "training/SGD/SGD/update_bn2a_branch1/beta/ResourceApplyKerasMomentum/ReadVariableOp_1"
  device: "/job:localhost/replica:0/task:0/device:GPU:0"
  attr {
    key: "T"
    value {
      type: DT_FLOAT
    }
  }
  attr {
    key: "use_locking"
    value {
      b: true
    }
  }
  attr {
    key: "use_nesterov"
    value {
      b: false
    }
  }
}
node {
  name: "training/SGD/SGD/update_bn2a_branch1/gamma/ResourceApplyKerasMomentum"
  op: "ResourceApplyKerasMomentum"
  input: "bn2a_branch1/gamma"
  input: "training/SGD/bn2a_branch1/gamma/momentum"
  input: "training/SGD/SGD/update_bn2a_branch1/gamma/ResourceApplyKerasMomentum/ReadVariableOp"
  input: "training/SGD/gradients/bn2a_branch1_1/FusedBatchNorm_grad/FusedBatchNormGrad:1"
  input: "training/SGD/SGD/update_bn2a_branch1/gamma/ResourceApplyKerasMomentum/ReadVariableOp_1"
  device: "/job:localhost/replica:0/task:0/device:GPU:0"
  attr {
    key: "T"
    value {
      type: DT_FLOAT
    }
  }
  attr {
    key: "use_locking"
    value {
      b: true
    }
  }
  attr {
    key: "use_nesterov"
    value {
      b: false
    }
  }
}
node {
  name: "training/SGD/gradients/res2a_branch1_1/Conv2D_grad/Conv2DBackpropInput"
  op: "Conv2DBackpropInput"
  input: "training/SGD/gradients/res2a_branch1_1/Conv2D_grad/ShapeN"
  input: "res2a_branch1_1/Conv2D/ReadVariableOp"
  input: "training/SGD/gradients/bn2a_branch1_1/FusedBatchNorm_grad/FusedBatchNormGrad"
  device: "/job:localhost/replica:0/task:0/device:GPU:0"
  attr {
    key: "T"
    value {
      type: DT_FLOAT
    }
  }
  attr {
    key: "_class"
    value {
      list {
        s: "loc:@training/SGD/gradients/AddN_68"
      }
    }
  }
  attr {
    key: "data_format"
    value {
      s: "NCHW"
    }
  }
  attr {
    key: "dilations"
    value {
      list {
        i: 1
        i: 1
        i: 1
        i: 1
      }
    }
  }
  attr {
    key: "explicit_paddings"
    value {
      list {
      }
    }
  }
  attr {
    key: "padding"
    value {
      s: "VALID"
    }
  }
  attr {
    key: "strides"
    value {
      list {
        i: 1
        i: 1
        i: 1
        i: 1
      }
    }
  }
  attr {
    key: "use_cudnn_on_gpu"
    value {
      b: true
    }
  }
}
node {
  name: "training/SGD/gradients/res2a_branch1_1/Conv2D_grad/Conv2DBackpropFilter"
  op: "Conv2DBackpropFilter"
  input: "max_pooling2d_1/MaxPool"
  input: "ConstantFolding/training/SGD/gradients/res2a_branch1_1/Conv2D_grad/ShapeN-matshapes-1"
  input: "training/SGD/gradients/bn2a_branch1_1/FusedBatchNorm_grad/FusedBatchNormGrad"
  device: "/job:localhost/replica:0/task:0/device:GPU:0"
  attr {
    key: "T"
    value {
      type: DT_FLOAT
    }
  }
  attr {
    key: "data_format"
    value {
      s: "NCHW"
    }
  }
  attr {
    key: "dilations"
    value {
      list {
        i: 1
        i: 1
        i: 1
        i: 1
      }
    }
  }
  attr {
    key: "explicit_paddings"
    value {
      list {
      }
    }
  }
  attr {
    key: "padding"
    value {
      s: "VALID"
    }
  }
  attr {
    key: "strides"
    value {
      list {
        i: 1
        i: 1
        i: 1
        i: 1
      }
    }
  }
  attr {
    key: "use_cudnn_on_gpu"
    value {
      b: true
    }
  }
}
node {
  name: "training/SGD/SGD/update_bn2a_branch2c/beta/ResourceApplyKerasMomentum"
  op: "ResourceApplyKerasMomentum"
  input: "bn2a_branch2c/beta"
  input: "training/SGD/bn2a_branch2c/beta/momentum"
  input: "training/SGD/SGD/update_bn2a_branch2c/beta/ResourceApplyKerasMomentum/ReadVariableOp"
  input: "training/SGD/gradients/bn2a_branch2c_1/FusedBatchNorm_grad/FusedBatchNormGrad:2"
  input: "training/SGD/SGD/update_bn2a_branch2c/beta/ResourceApplyKerasMomentum/ReadVariableOp_1"
  device: "/job:localhost/replica:0/task:0/device:GPU:0"
  attr {
    key: "T"
    value {
      type: DT_FLOAT
    }
  }
  attr {
    key: "use_locking"
    value {
      b: true
    }
  }
  attr {
    key: "use_nesterov"
    value {
      b: false
    }
  }
}
node {
  name: "training/SGD/SGD/update_bn2a_branch2c/gamma/ResourceApplyKerasMomentum"
  op: "ResourceApplyKerasMomentum"
  input: "bn2a_branch2c/gamma"
  input: "training/SGD/bn2a_branch2c/gamma/momentum"
  input: "training/SGD/SGD/update_bn2a_branch2c/gamma/ResourceApplyKerasMomentum/ReadVariableOp"
  input: "training/SGD/gradients/bn2a_branch2c_1/FusedBatchNorm_grad/FusedBatchNormGrad:1"
  input: "training/SGD/SGD/update_bn2a_branch2c/gamma/ResourceApplyKerasMomentum/ReadVariableOp_1"
  device: "/job:localhost/replica:0/task:0/device:GPU:0"
  attr {
    key: "T"
    value {
      type: DT_FLOAT
    }
  }
  attr {
    key: "use_locking"
    value {
      b: true
    }
  }
  attr {
    key: "use_nesterov"
    value {
      b: false
    }
  }
}
node {
  name: "training/SGD/gradients/res2a_branch2c_1/Conv2D_grad/Conv2DBackpropInput"
  op: "Conv2DBackpropInput"
  input: "training/SGD/gradients/res2a_branch2c_1/Conv2D_grad/ShapeN"
  input: "res2a_branch2c_1/Conv2D/ReadVariableOp"
  input: "training/SGD/gradients/bn2a_branch2c_1/FusedBatchNorm_grad/FusedBatchNormGrad"
  device: "/job:localhost/replica:0/task:0/device:GPU:0"
  attr {
    key: "T"
    value {
      type: DT_FLOAT
    }
  }
  attr {
    key: "data_format"
    value {
      s: "NCHW"
    }
  }
  attr {
    key: "dilations"
    value {
      list {
        i: 1
        i: 1
        i: 1
        i: 1
      }
    }
  }
  attr {
    key: "explicit_paddings"
    value {
      list {
      }
    }
  }
  attr {
    key: "padding"
    value {
      s: "VALID"
    }
  }
  attr {
    key: "strides"
    value {
      list {
        i: 1
        i: 1
        i: 1
        i: 1
      }
    }
  }
  attr {
    key: "use_cudnn_on_gpu"
    value {
      b: true
    }
  }
}
node {
  name: "training/SGD/gradients/res2a_branch2c_1/Conv2D_grad/Conv2DBackpropFilter"
  op: "Conv2DBackpropFilter"
  input: "activation_2_1/Relu"
  input: "ConstantFolding/training/SGD/gradients/res2a_branch2c_1/Conv2D_grad/ShapeN-matshapes-1"
  input: "training/SGD/gradients/bn2a_branch2c_1/FusedBatchNorm_grad/FusedBatchNormGrad"
  device: "/job:localhost/replica:0/task:0/device:GPU:0"
  attr {
    key: "T"
    value {
      type: DT_FLOAT
    }
  }
  attr {
    key: "data_format"
    value {
      s: "NCHW"
    }
  }
  attr {
    key: "dilations"
    value {
      list {
        i: 1
        i: 1
        i: 1
        i: 1
      }
    }
  }
  attr {
    key: "explicit_paddings"
    value {
      list {
      }
    }
  }
  attr {
    key: "padding"
    value {
      s: "VALID"
    }
  }
  attr {
    key: "strides"
    value {
      list {
        i: 1
        i: 1
        i: 1
        i: 1
      }
    }
  }
  attr {
    key: "use_cudnn_on_gpu"
    value {
      b: true
    }
  }
}
node {
  name: "training/SGD/gradients/AddN_66"
  op: "AddN"
  input: "training/SGD/gradients/loss_1/res2a_branch1/kernel/Regularizer/Square_grad/Mul_1"
  input: "training/SGD/gradients/res2a_branch1_1/Conv2D_grad/Conv2DBackpropFilter"
  device: "/job:localhost/replica:0/task:0/device:GPU:0"
  attr {
    key: "N"
    value {
      i: 2
    }
  }
  attr {
    key: "T"
    value {
      type: DT_FLOAT
    }
  }
}
node {
  name: "training/SGD/gradients/activation_2_1/Relu_grad/ReluGrad"
  op: "ReluGrad"
  input: "training/SGD/gradients/res2a_branch2c_1/Conv2D_grad/Conv2DBackpropInput"
  input: "activation_2_1/Relu"
  device: "/job:localhost/replica:0/task:0/device:GPU:0"
  attr {
    key: "T"
    value {
      type: DT_FLOAT
    }
  }
}
node {
  name: "training/SGD/gradients/AddN_65"
  op: "AddN"
  input: "training/SGD/gradients/loss_1/res2a_branch2c/kernel/Regularizer/Square_grad/Mul_1"
  input: "training/SGD/gradients/res2a_branch2c_1/Conv2D_grad/Conv2DBackpropFilter"
  device: "/job:localhost/replica:0/task:0/device:GPU:0"
  attr {
    key: "N"
    value {
      i: 2
    }
  }
  attr {
    key: "T"
    value {
      type: DT_FLOAT
    }
  }
}
node {
  name: "training/SGD/SGD/update_res2a_branch1/kernel/ResourceApplyKerasMomentum"
  op: "ResourceApplyKerasMomentum"
  input: "res2a_branch1/kernel"
  input: "training/SGD/res2a_branch1/kernel/momentum"
  input: "training/SGD/SGD/update_res2a_branch1/kernel/ResourceApplyKerasMomentum/ReadVariableOp"
  input: "training/SGD/gradients/AddN_66"
  input: "training/SGD/SGD/update_res2a_branch1/kernel/ResourceApplyKerasMomentum/ReadVariableOp_1"
  device: "/job:localhost/replica:0/task:0/device:GPU:0"
  attr {
    key: "T"
    value {
      type: DT_FLOAT
    }
  }
  attr {
    key: "use_locking"
    value {
      b: true
    }
  }
  attr {
    key: "use_nesterov"
    value {
      b: false
    }
  }
}
node {
  name: "training/SGD/gradients/bn2a_branch2b_1/FusedBatchNorm_grad/FusedBatchNormGrad"
  op: "FusedBatchNormGrad"
  input: "training/SGD/gradients/activation_2_1/Relu_grad/ReluGrad"
  input: "res2a_branch2b_1/Conv2D"
  input: "bn2a_branch2b_1/ReadVariableOp"
  input: "bn2a_branch2b_1/FusedBatchNorm:3"
  input: "bn2a_branch2b_1/FusedBatchNorm:4"
  device: "/job:localhost/replica:0/task:0/device:GPU:0"
  attr {
    key: "T"
    value {
      type: DT_FLOAT
    }
  }
  attr {
    key: "data_format"
    value {
      s: "NCHW"
    }
  }
  attr {
    key: "epsilon"
    value {
      f: 1.001e-05
    }
  }
  attr {
    key: "is_training"
    value {
      b: true
    }
  }
}
node {
  name: "training/SGD/SGD/update_res2a_branch2c/kernel/ResourceApplyKerasMomentum"
  op: "ResourceApplyKerasMomentum"
  input: "res2a_branch2c/kernel"
  input: "training/SGD/res2a_branch2c/kernel/momentum"
  input: "training/SGD/SGD/update_res2a_branch2c/kernel/ResourceApplyKerasMomentum/ReadVariableOp"
  input: "training/SGD/gradients/AddN_65"
  input: "training/SGD/SGD/update_res2a_branch2c/kernel/ResourceApplyKerasMomentum/ReadVariableOp_1"
  device: "/job:localhost/replica:0/task:0/device:GPU:0"
  attr {
    key: "T"
    value {
      type: DT_FLOAT
    }
  }
  attr {
    key: "use_locking"
    value {
      b: true
    }
  }
  attr {
    key: "use_nesterov"
    value {
      b: false
    }
  }
}
node {
  name: "training/SGD/SGD/update_bn2a_branch2b/beta/ResourceApplyKerasMomentum"
  op: "ResourceApplyKerasMomentum"
  input: "bn2a_branch2b/beta"
  input: "training/SGD/bn2a_branch2b/beta/momentum"
  input: "training/SGD/SGD/update_bn2a_branch2b/beta/ResourceApplyKerasMomentum/ReadVariableOp"
  input: "training/SGD/gradients/bn2a_branch2b_1/FusedBatchNorm_grad/FusedBatchNormGrad:2"
  input: "training/SGD/SGD/update_bn2a_branch2b/beta/ResourceApplyKerasMomentum/ReadVariableOp_1"
  device: "/job:localhost/replica:0/task:0/device:GPU:0"
  attr {
    key: "T"
    value {
      type: DT_FLOAT
    }
  }
  attr {
    key: "use_locking"
    value {
      b: true
    }
  }
  attr {
    key: "use_nesterov"
    value {
      b: false
    }
  }
}
node {
  name: "training/SGD/SGD/update_bn2a_branch2b/gamma/ResourceApplyKerasMomentum"
  op: "ResourceApplyKerasMomentum"
  input: "bn2a_branch2b/gamma"
  input: "training/SGD/bn2a_branch2b/gamma/momentum"
  input: "training/SGD/SGD/update_bn2a_branch2b/gamma/ResourceApplyKerasMomentum/ReadVariableOp"
  input: "training/SGD/gradients/bn2a_branch2b_1/FusedBatchNorm_grad/FusedBatchNormGrad:1"
  input: "training/SGD/SGD/update_bn2a_branch2b/gamma/ResourceApplyKerasMomentum/ReadVariableOp_1"
  device: "/job:localhost/replica:0/task:0/device:GPU:0"
  attr {
    key: "T"
    value {
      type: DT_FLOAT
    }
  }
  attr {
    key: "use_locking"
    value {
      b: true
    }
  }
  attr {
    key: "use_nesterov"
    value {
      b: false
    }
  }
}
node {
  name: "training/SGD/gradients/res2a_branch2b_1/Conv2D_grad/Conv2DBackpropInput"
  op: "Conv2DBackpropInput"
  input: "training/SGD/gradients/res2a_branch2b_1/Conv2D_grad/ShapeN"
  input: "res2a_branch2b_1/Conv2D/ReadVariableOp"
  input: "training/SGD/gradients/bn2a_branch2b_1/FusedBatchNorm_grad/FusedBatchNormGrad"
  device: "/job:localhost/replica:0/task:0/device:GPU:0"
  attr {
    key: "T"
    value {
      type: DT_FLOAT
    }
  }
  attr {
    key: "data_format"
    value {
      s: "NCHW"
    }
  }
  attr {
    key: "dilations"
    value {
      list {
        i: 1
        i: 1
        i: 1
        i: 1
      }
    }
  }
  attr {
    key: "explicit_paddings"
    value {
      list {
      }
    }
  }
  attr {
    key: "padding"
    value {
      s: "SAME"
    }
  }
  attr {
    key: "strides"
    value {
      list {
        i: 1
        i: 1
        i: 1
        i: 1
      }
    }
  }
  attr {
    key: "use_cudnn_on_gpu"
    value {
      b: true
    }
  }
}
node {
  name: "training/SGD/gradients/res2a_branch2b_1/Conv2D_grad/Conv2DBackpropFilter"
  op: "Conv2DBackpropFilter"
  input: "activation_1_1/Relu"
  input: "ConstantFolding/training/SGD/gradients/res2a_branch2b_1/Conv2D_grad/ShapeN-matshapes-1"
  input: "training/SGD/gradients/bn2a_branch2b_1/FusedBatchNorm_grad/FusedBatchNormGrad"
  device: "/job:localhost/replica:0/task:0/device:GPU:0"
  attr {
    key: "T"
    value {
      type: DT_FLOAT
    }
  }
  attr {
    key: "data_format"
    value {
      s: "NCHW"
    }
  }
  attr {
    key: "dilations"
    value {
      list {
        i: 1
        i: 1
        i: 1
        i: 1
      }
    }
  }
  attr {
    key: "explicit_paddings"
    value {
      list {
      }
    }
  }
  attr {
    key: "padding"
    value {
      s: "SAME"
    }
  }
  attr {
    key: "strides"
    value {
      list {
        i: 1
        i: 1
        i: 1
        i: 1
      }
    }
  }
  attr {
    key: "use_cudnn_on_gpu"
    value {
      b: true
    }
  }
}
node {
  name: "training/SGD/gradients/activation_1_1/Relu_grad/ReluGrad"
  op: "ReluGrad"
  input: "training/SGD/gradients/res2a_branch2b_1/Conv2D_grad/Conv2DBackpropInput"
  input: "activation_1_1/Relu"
  device: "/job:localhost/replica:0/task:0/device:GPU:0"
  attr {
    key: "T"
    value {
      type: DT_FLOAT
    }
  }
}
node {
  name: "training/SGD/gradients/AddN_67"
  op: "AddN"
  input: "training/SGD/gradients/loss_1/res2a_branch2b/kernel/Regularizer/Square_grad/Mul_1"
  input: "training/SGD/gradients/res2a_branch2b_1/Conv2D_grad/Conv2DBackpropFilter"
  device: "/job:localhost/replica:0/task:0/device:GPU:0"
  attr {
    key: "N"
    value {
      i: 2
    }
  }
  attr {
    key: "T"
    value {
      type: DT_FLOAT
    }
  }
}
node {
  name: "training/SGD/gradients/bn2a_branch2a_1/FusedBatchNorm_grad/FusedBatchNormGrad"
  op: "FusedBatchNormGrad"
  input: "training/SGD/gradients/activation_1_1/Relu_grad/ReluGrad"
  input: "res2a_branch2a_1/Conv2D"
  input: "bn2a_branch2a_1/ReadVariableOp"
  input: "bn2a_branch2a_1/FusedBatchNorm:3"
  input: "bn2a_branch2a_1/FusedBatchNorm:4"
  device: "/job:localhost/replica:0/task:0/device:GPU:0"
  attr {
    key: "T"
    value {
      type: DT_FLOAT
    }
  }
  attr {
    key: "data_format"
    value {
      s: "NCHW"
    }
  }
  attr {
    key: "epsilon"
    value {
      f: 1.001e-05
    }
  }
  attr {
    key: "is_training"
    value {
      b: true
    }
  }
}
node {
  name: "training/SGD/SGD/update_res2a_branch2b/kernel/ResourceApplyKerasMomentum"
  op: "ResourceApplyKerasMomentum"
  input: "res2a_branch2b/kernel"
  input: "training/SGD/res2a_branch2b/kernel/momentum"
  input: "training/SGD/SGD/update_res2a_branch2b/kernel/ResourceApplyKerasMomentum/ReadVariableOp"
  input: "training/SGD/gradients/AddN_67"
  input: "training/SGD/SGD/update_res2a_branch2b/kernel/ResourceApplyKerasMomentum/ReadVariableOp_1"
  device: "/job:localhost/replica:0/task:0/device:GPU:0"
  attr {
    key: "T"
    value {
      type: DT_FLOAT
    }
  }
  attr {
    key: "use_locking"
    value {
      b: true
    }
  }
  attr {
    key: "use_nesterov"
    value {
      b: false
    }
  }
}
node {
  name: "training/SGD/SGD/update_bn2a_branch2a/beta/ResourceApplyKerasMomentum"
  op: "ResourceApplyKerasMomentum"
  input: "bn2a_branch2a/beta"
  input: "training/SGD/bn2a_branch2a/beta/momentum"
  input: "training/SGD/SGD/update_bn2a_branch2a/beta/ResourceApplyKerasMomentum/ReadVariableOp"
  input: "training/SGD/gradients/bn2a_branch2a_1/FusedBatchNorm_grad/FusedBatchNormGrad:2"
  input: "training/SGD/SGD/update_bn2a_branch2a/beta/ResourceApplyKerasMomentum/ReadVariableOp_1"
  device: "/job:localhost/replica:0/task:0/device:GPU:0"
  attr {
    key: "T"
    value {
      type: DT_FLOAT
    }
  }
  attr {
    key: "use_locking"
    value {
      b: true
    }
  }
  attr {
    key: "use_nesterov"
    value {
      b: false
    }
  }
}
node {
  name: "training/SGD/SGD/update_bn2a_branch2a/gamma/ResourceApplyKerasMomentum"
  op: "ResourceApplyKerasMomentum"
  input: "bn2a_branch2a/gamma"
  input: "training/SGD/bn2a_branch2a/gamma/momentum"
  input: "training/SGD/SGD/update_bn2a_branch2a/gamma/ResourceApplyKerasMomentum/ReadVariableOp"
  input: "training/SGD/gradients/bn2a_branch2a_1/FusedBatchNorm_grad/FusedBatchNormGrad:1"
  input: "training/SGD/SGD/update_bn2a_branch2a/gamma/ResourceApplyKerasMomentum/ReadVariableOp_1"
  device: "/job:localhost/replica:0/task:0/device:GPU:0"
  attr {
    key: "T"
    value {
      type: DT_FLOAT
    }
  }
  attr {
    key: "use_locking"
    value {
      b: true
    }
  }
  attr {
    key: "use_nesterov"
    value {
      b: false
    }
  }
}
node {
  name: "training/SGD/gradients/res2a_branch2a_1/Conv2D_grad/Conv2DBackpropInput"
  op: "Conv2DBackpropInput"
  input: "training/SGD/gradients/res2a_branch2a_1/Conv2D_grad/ShapeN"
  input: "res2a_branch2a_1/Conv2D/ReadVariableOp"
  input: "training/SGD/gradients/bn2a_branch2a_1/FusedBatchNorm_grad/FusedBatchNormGrad"
  device: "/job:localhost/replica:0/task:0/device:GPU:0"
  attr {
    key: "T"
    value {
      type: DT_FLOAT
    }
  }
  attr {
    key: "data_format"
    value {
      s: "NCHW"
    }
  }
  attr {
    key: "dilations"
    value {
      list {
        i: 1
        i: 1
        i: 1
        i: 1
      }
    }
  }
  attr {
    key: "explicit_paddings"
    value {
      list {
      }
    }
  }
  attr {
    key: "padding"
    value {
      s: "VALID"
    }
  }
  attr {
    key: "strides"
    value {
      list {
        i: 1
        i: 1
        i: 1
        i: 1
      }
    }
  }
  attr {
    key: "use_cudnn_on_gpu"
    value {
      b: true
    }
  }
}
node {
  name: "training/SGD/gradients/res2a_branch2a_1/Conv2D_grad/Conv2DBackpropFilter"
  op: "Conv2DBackpropFilter"
  input: "max_pooling2d_1/MaxPool"
  input: "ConstantFolding/training/SGD/gradients/res2a_branch2a_1/Conv2D_grad/ShapeN-matshapes-1"
  input: "training/SGD/gradients/bn2a_branch2a_1/FusedBatchNorm_grad/FusedBatchNormGrad"
  device: "/job:localhost/replica:0/task:0/device:GPU:0"
  attr {
    key: "T"
    value {
      type: DT_FLOAT
    }
  }
  attr {
    key: "data_format"
    value {
      s: "NCHW"
    }
  }
  attr {
    key: "dilations"
    value {
      list {
        i: 1
        i: 1
        i: 1
        i: 1
      }
    }
  }
  attr {
    key: "explicit_paddings"
    value {
      list {
      }
    }
  }
  attr {
    key: "padding"
    value {
      s: "VALID"
    }
  }
  attr {
    key: "strides"
    value {
      list {
        i: 1
        i: 1
        i: 1
        i: 1
      }
    }
  }
  attr {
    key: "use_cudnn_on_gpu"
    value {
      b: true
    }
  }
}
node {
  name: "training/SGD/gradients/AddN_68"
  op: "AddN"
  input: "training/SGD/gradients/res2a_branch1_1/Conv2D_grad/Conv2DBackpropInput"
  input: "training/SGD/gradients/res2a_branch2a_1/Conv2D_grad/Conv2DBackpropInput"
  device: "/job:localhost/replica:0/task:0/device:GPU:0"
  attr {
    key: "N"
    value {
      i: 2
    }
  }
  attr {
    key: "T"
    value {
      type: DT_FLOAT
    }
  }
}
node {
  name: "training/SGD/gradients/AddN_69"
  op: "AddN"
  input: "training/SGD/gradients/loss_1/res2a_branch2a/kernel/Regularizer/Square_grad/Mul_1"
  input: "training/SGD/gradients/res2a_branch2a_1/Conv2D_grad/Conv2DBackpropFilter"
  device: "/job:localhost/replica:0/task:0/device:GPU:0"
  attr {
    key: "N"
    value {
      i: 2
    }
  }
  attr {
    key: "T"
    value {
      type: DT_FLOAT
    }
  }
}
node {
  name: "training/SGD/gradients/max_pooling2d_1/MaxPool_grad/MaxPoolGrad"
  op: "MaxPoolGrad"
  input: "activation_50/Relu"
  input: "max_pooling2d_1/MaxPool"
  input: "training/SGD/gradients/AddN_68"
  device: "/job:localhost/replica:0/task:0/device:GPU:0"
  attr {
    key: "T"
    value {
      type: DT_FLOAT
    }
  }
  attr {
    key: "data_format"
    value {
      s: "NCHW"
    }
  }
  attr {
    key: "ksize"
    value {
      list {
        i: 1
        i: 1
        i: 3
        i: 3
      }
    }
  }
  attr {
    key: "padding"
    value {
      s: "SAME"
    }
  }
  attr {
    key: "strides"
    value {
      list {
        i: 1
        i: 1
        i: 2
        i: 2
      }
    }
  }
}
node {
  name: "training/SGD/SGD/update_res2a_branch2a/kernel/ResourceApplyKerasMomentum"
  op: "ResourceApplyKerasMomentum"
  input: "res2a_branch2a/kernel"
  input: "training/SGD/res2a_branch2a/kernel/momentum"
  input: "training/SGD/SGD/update_res2a_branch2a/kernel/ResourceApplyKerasMomentum/ReadVariableOp"
  input: "training/SGD/gradients/AddN_69"
  input: "training/SGD/SGD/update_res2a_branch2a/kernel/ResourceApplyKerasMomentum/ReadVariableOp_1"
  device: "/job:localhost/replica:0/task:0/device:GPU:0"
  attr {
    key: "T"
    value {
      type: DT_FLOAT
    }
  }
  attr {
    key: "use_locking"
    value {
      b: true
    }
  }
  attr {
    key: "use_nesterov"
    value {
      b: false
    }
  }
}
node {
  name: "training/SGD/gradients/activation_50/Relu_grad/ReluGrad"
  op: "ReluGrad"
  input: "training/SGD/gradients/max_pooling2d_1/MaxPool_grad/MaxPoolGrad"
  input: "activation_50/Relu"
  device: "/job:localhost/replica:0/task:0/device:GPU:0"
  attr {
    key: "T"
    value {
      type: DT_FLOAT
    }
  }
}
node {
  name: "training/SGD/gradients/bn_conv1_1/FusedBatchNorm_grad/FusedBatchNormGrad"
  op: "FusedBatchNormGrad"
  input: "training/SGD/gradients/activation_50/Relu_grad/ReluGrad"
  input: "conv1_1/Conv2D"
  input: "bn_conv1_1/ReadVariableOp"
  input: "bn_conv1_1/FusedBatchNorm:3"
  input: "bn_conv1_1/FusedBatchNorm:4"
  device: "/job:localhost/replica:0/task:0/device:GPU:0"
  attr {
    key: "T"
    value {
      type: DT_FLOAT
    }
  }
  attr {
    key: "data_format"
    value {
      s: "NCHW"
    }
  }
  attr {
    key: "epsilon"
    value {
      f: 1.001e-05
    }
  }
  attr {
    key: "is_training"
    value {
      b: true
    }
  }
}
node {
  name: "training/SGD/SGD/update_bn_conv1/beta/ResourceApplyKerasMomentum"
  op: "ResourceApplyKerasMomentum"
  input: "bn_conv1/beta"
  input: "training/SGD/bn_conv1/beta/momentum"
  input: "training/SGD/SGD/update_bn_conv1/beta/ResourceApplyKerasMomentum/ReadVariableOp"
  input: "training/SGD/gradients/bn_conv1_1/FusedBatchNorm_grad/FusedBatchNormGrad:2"
  input: "training/SGD/SGD/update_bn_conv1/beta/ResourceApplyKerasMomentum/ReadVariableOp_1"
  device: "/job:localhost/replica:0/task:0/device:GPU:0"
  attr {
    key: "T"
    value {
      type: DT_FLOAT
    }
  }
  attr {
    key: "use_locking"
    value {
      b: true
    }
  }
  attr {
    key: "use_nesterov"
    value {
      b: false
    }
  }
}
node {
  name: "training/SGD/SGD/update_bn_conv1/gamma/ResourceApplyKerasMomentum"
  op: "ResourceApplyKerasMomentum"
  input: "bn_conv1/gamma"
  input: "training/SGD/bn_conv1/gamma/momentum"
  input: "training/SGD/SGD/update_bn_conv1/gamma/ResourceApplyKerasMomentum/ReadVariableOp"
  input: "training/SGD/gradients/bn_conv1_1/FusedBatchNorm_grad/FusedBatchNormGrad:1"
  input: "training/SGD/SGD/update_bn_conv1/gamma/ResourceApplyKerasMomentum/ReadVariableOp_1"
  device: "/job:localhost/replica:0/task:0/device:GPU:0"
  attr {
    key: "T"
    value {
      type: DT_FLOAT
    }
  }
  attr {
    key: "use_locking"
    value {
      b: true
    }
  }
  attr {
    key: "use_nesterov"
    value {
      b: false
    }
  }
}
node {
  name: "training/SGD/gradients/conv1_1/Conv2D_grad/Conv2DBackpropFilter"
  op: "Conv2DBackpropFilter"
  input: "conv1_pad_1/Pad"
  input: "ConstantFolding/training/SGD/gradients/conv1_1/Conv2D_grad/ShapeN-matshapes-1"
  input: "training/SGD/gradients/bn_conv1_1/FusedBatchNorm_grad/FusedBatchNormGrad"
  device: "/job:localhost/replica:0/task:0/device:GPU:0"
  attr {
    key: "T"
    value {
      type: DT_FLOAT
    }
  }
  attr {
    key: "data_format"
    value {
      s: "NCHW"
    }
  }
  attr {
    key: "dilations"
    value {
      list {
        i: 1
        i: 1
        i: 1
        i: 1
      }
    }
  }
  attr {
    key: "explicit_paddings"
    value {
      list {
      }
    }
  }
  attr {
    key: "padding"
    value {
      s: "VALID"
    }
  }
  attr {
    key: "strides"
    value {
      list {
        i: 1
        i: 1
        i: 2
        i: 2
      }
    }
  }
  attr {
    key: "use_cudnn_on_gpu"
    value {
      b: true
    }
  }
}
node {
  name: "training/SGD/gradients/AddN_70"
  op: "AddN"
  input: "training/SGD/gradients/conv1_1/Conv2D_grad/Conv2DBackpropFilter"
  input: "training/SGD/gradients/loss_1/conv1/kernel/Regularizer/Square_grad/Mul_1"
  device: "/job:localhost/replica:0/task:0/device:GPU:0"
  attr {
    key: "N"
    value {
      i: 2
    }
  }
  attr {
    key: "T"
    value {
      type: DT_FLOAT
    }
  }
}
node {
  name: "training/SGD/SGD/update_conv1/kernel/ResourceApplyKerasMomentum"
  op: "ResourceApplyKerasMomentum"
  input: "conv1/kernel"
  input: "training/SGD/conv1/kernel/momentum"
  input: "training/SGD/SGD/update_conv1/kernel/ResourceApplyKerasMomentum/ReadVariableOp"
  input: "training/SGD/gradients/AddN_70"
  input: "training/SGD/SGD/update_conv1/kernel/ResourceApplyKerasMomentum/ReadVariableOp_1"
  device: "/job:localhost/replica:0/task:0/device:GPU:0"
  attr {
    key: "T"
    value {
      type: DT_FLOAT
    }
  }
  attr {
    key: "use_locking"
    value {
      b: true
    }
  }
  attr {
    key: "use_nesterov"
    value {
      b: false
    }
  }
}
node {
  name: "training/SGD/SGD/Const"
  op: "Const"
  input: "^training/SGD/SGD/update_bn2a_branch1/beta/ResourceApplyKerasMomentum"
  input: "^training/SGD/SGD/update_bn2a_branch1/gamma/ResourceApplyKerasMomentum"
  input: "^training/SGD/SGD/update_bn2a_branch2a/beta/ResourceApplyKerasMomentum"
  input: "^training/SGD/SGD/update_bn2a_branch2a/gamma/ResourceApplyKerasMomentum"
  input: "^training/SGD/SGD/update_bn2a_branch2b/beta/ResourceApplyKerasMomentum"
  input: "^training/SGD/SGD/update_bn2a_branch2b/gamma/ResourceApplyKerasMomentum"
  input: "^training/SGD/SGD/update_bn2a_branch2c/beta/ResourceApplyKerasMomentum"
  input: "^training/SGD/SGD/update_bn2a_branch2c/gamma/ResourceApplyKerasMomentum"
  input: "^training/SGD/SGD/update_bn2b_branch2a/beta/ResourceApplyKerasMomentum"
  input: "^training/SGD/SGD/update_bn2b_branch2a/gamma/ResourceApplyKerasMomentum"
  input: "^training/SGD/SGD/update_bn2b_branch2b/beta/ResourceApplyKerasMomentum"
  input: "^training/SGD/SGD/update_bn2b_branch2b/gamma/ResourceApplyKerasMomentum"
  input: "^training/SGD/SGD/update_bn2b_branch2c/beta/ResourceApplyKerasMomentum"
  input: "^training/SGD/SGD/update_bn2b_branch2c/gamma/ResourceApplyKerasMomentum"
  input: "^training/SGD/SGD/update_bn2c_branch2a/beta/ResourceApplyKerasMomentum"
  input: "^training/SGD/SGD/update_bn2c_branch2a/gamma/ResourceApplyKerasMomentum"
  input: "^training/SGD/SGD/update_bn2c_branch2b/beta/ResourceApplyKerasMomentum"
  input: "^training/SGD/SGD/update_bn2c_branch2b/gamma/ResourceApplyKerasMomentum"
  input: "^training/SGD/SGD/update_bn2c_branch2c/beta/ResourceApplyKerasMomentum"
  input: "^training/SGD/SGD/update_bn2c_branch2c/gamma/ResourceApplyKerasMomentum"
  input: "^training/SGD/SGD/update_bn3a_branch1/beta/ResourceApplyKerasMomentum"
  input: "^training/SGD/SGD/update_bn3a_branch1/gamma/ResourceApplyKerasMomentum"
  input: "^training/SGD/SGD/update_bn3a_branch2a/beta/ResourceApplyKerasMomentum"
  input: "^training/SGD/SGD/update_bn3a_branch2a/gamma/ResourceApplyKerasMomentum"
  input: "^training/SGD/SGD/update_bn3a_branch2b/beta/ResourceApplyKerasMomentum"
  input: "^training/SGD/SGD/update_bn3a_branch2b/gamma/ResourceApplyKerasMomentum"
  input: "^training/SGD/SGD/update_bn3a_branch2c/beta/ResourceApplyKerasMomentum"
  input: "^training/SGD/SGD/update_bn3a_branch2c/gamma/ResourceApplyKerasMomentum"
  input: "^training/SGD/SGD/update_bn3b_branch2a/beta/ResourceApplyKerasMomentum"
  input: "^training/SGD/SGD/update_bn3b_branch2a/gamma/ResourceApplyKerasMomentum"
  input: "^training/SGD/SGD/update_bn3b_branch2b/beta/ResourceApplyKerasMomentum"
  input: "^training/SGD/SGD/update_bn3b_branch2b/gamma/ResourceApplyKerasMomentum"
  input: "^training/SGD/SGD/update_bn3b_branch2c/beta/ResourceApplyKerasMomentum"
  input: "^training/SGD/SGD/update_bn3b_branch2c/gamma/ResourceApplyKerasMomentum"
  input: "^training/SGD/SGD/update_bn3c_branch2a/beta/ResourceApplyKerasMomentum"
  input: "^training/SGD/SGD/update_bn3c_branch2a/gamma/ResourceApplyKerasMomentum"
  input: "^training/SGD/SGD/update_bn3c_branch2b/beta/ResourceApplyKerasMomentum"
  input: "^training/SGD/SGD/update_bn3c_branch2b/gamma/ResourceApplyKerasMomentum"
  input: "^training/SGD/SGD/update_bn3c_branch2c/beta/ResourceApplyKerasMomentum"
  input: "^training/SGD/SGD/update_bn3c_branch2c/gamma/ResourceApplyKerasMomentum"
  input: "^training/SGD/SGD/update_bn3d_branch2a/beta/ResourceApplyKerasMomentum"
  input: "^training/SGD/SGD/update_bn3d_branch2a/gamma/ResourceApplyKerasMomentum"
  input: "^training/SGD/SGD/update_bn3d_branch2b/beta/ResourceApplyKerasMomentum"
  input: "^training/SGD/SGD/update_bn3d_branch2b/gamma/ResourceApplyKerasMomentum"
  input: "^training/SGD/SGD/update_bn3d_branch2c/beta/ResourceApplyKerasMomentum"
  input: "^training/SGD/SGD/update_bn3d_branch2c/gamma/ResourceApplyKerasMomentum"
  input: "^training/SGD/SGD/update_bn4a_branch1/beta/ResourceApplyKerasMomentum"
  input: "^training/SGD/SGD/update_bn4a_branch1/gamma/ResourceApplyKerasMomentum"
  input: "^training/SGD/SGD/update_bn4a_branch2a/beta/ResourceApplyKerasMomentum"
  input: "^training/SGD/SGD/update_bn4a_branch2a/gamma/ResourceApplyKerasMomentum"
  input: "^training/SGD/SGD/update_bn4a_branch2b/beta/ResourceApplyKerasMomentum"
  input: "^training/SGD/SGD/update_bn4a_branch2b/gamma/ResourceApplyKerasMomentum"
  input: "^training/SGD/SGD/update_bn4a_branch2c/beta/ResourceApplyKerasMomentum"
  input: "^training/SGD/SGD/update_bn4a_branch2c/gamma/ResourceApplyKerasMomentum"
  input: "^training/SGD/SGD/update_bn4b_branch2a/beta/ResourceApplyKerasMomentum"
  input: "^training/SGD/SGD/update_bn4b_branch2a/gamma/ResourceApplyKerasMomentum"
  input: "^training/SGD/SGD/update_bn4b_branch2b/beta/ResourceApplyKerasMomentum"
  input: "^training/SGD/SGD/update_bn4b_branch2b/gamma/ResourceApplyKerasMomentum"
  input: "^training/SGD/SGD/update_bn4b_branch2c/beta/ResourceApplyKerasMomentum"
  input: "^training/SGD/SGD/update_bn4b_branch2c/gamma/ResourceApplyKerasMomentum"
  input: "^training/SGD/SGD/update_bn4c_branch2a/beta/ResourceApplyKerasMomentum"
  input: "^training/SGD/SGD/update_bn4c_branch2a/gamma/ResourceApplyKerasMomentum"
  input: "^training/SGD/SGD/update_bn4c_branch2b/beta/ResourceApplyKerasMomentum"
  input: "^training/SGD/SGD/update_bn4c_branch2b/gamma/ResourceApplyKerasMomentum"
  input: "^training/SGD/SGD/update_bn4c_branch2c/beta/ResourceApplyKerasMomentum"
  input: "^training/SGD/SGD/update_bn4c_branch2c/gamma/ResourceApplyKerasMomentum"
  input: "^training/SGD/SGD/update_bn4d_branch2a/beta/ResourceApplyKerasMomentum"
  input: "^training/SGD/SGD/update_bn4d_branch2a/gamma/ResourceApplyKerasMomentum"
  input: "^training/SGD/SGD/update_bn4d_branch2b/beta/ResourceApplyKerasMomentum"
  input: "^training/SGD/SGD/update_bn4d_branch2b/gamma/ResourceApplyKerasMomentum"
  input: "^training/SGD/SGD/update_bn4d_branch2c/beta/ResourceApplyKerasMomentum"
  input: "^training/SGD/SGD/update_bn4d_branch2c/gamma/ResourceApplyKerasMomentum"
  input: "^training/SGD/SGD/update_bn4e_branch2a/beta/ResourceApplyKerasMomentum"
  input: "^training/SGD/SGD/update_bn4e_branch2a/gamma/ResourceApplyKerasMomentum"
  input: "^training/SGD/SGD/update_bn4e_branch2b/beta/ResourceApplyKerasMomentum"
  input: "^training/SGD/SGD/update_bn4e_branch2b/gamma/ResourceApplyKerasMomentum"
  input: "^training/SGD/SGD/update_bn4e_branch2c/beta/ResourceApplyKerasMomentum"
  input: "^training/SGD/SGD/update_bn4e_branch2c/gamma/ResourceApplyKerasMomentum"
  input: "^training/SGD/SGD/update_bn4f_branch2a/beta/ResourceApplyKerasMomentum"
  input: "^training/SGD/SGD/update_bn4f_branch2a/gamma/ResourceApplyKerasMomentum"
  input: "^training/SGD/SGD/update_bn4f_branch2b/beta/ResourceApplyKerasMomentum"
  input: "^training/SGD/SGD/update_bn4f_branch2b/gamma/ResourceApplyKerasMomentum"
  input: "^training/SGD/SGD/update_bn4f_branch2c/beta/ResourceApplyKerasMomentum"
  input: "^training/SGD/SGD/update_bn4f_branch2c/gamma/ResourceApplyKerasMomentum"
  input: "^training/SGD/SGD/update_bn5a_branch1/beta/ResourceApplyKerasMomentum"
  input: "^training/SGD/SGD/update_bn5a_branch1/gamma/ResourceApplyKerasMomentum"
  input: "^training/SGD/SGD/update_bn5a_branch2a/beta/ResourceApplyKerasMomentum"
  input: "^training/SGD/SGD/update_bn5a_branch2a/gamma/ResourceApplyKerasMomentum"
  input: "^training/SGD/SGD/update_bn5a_branch2b/beta/ResourceApplyKerasMomentum"
  input: "^training/SGD/SGD/update_bn5a_branch2b/gamma/ResourceApplyKerasMomentum"
  input: "^training/SGD/SGD/update_bn5a_branch2c/beta/ResourceApplyKerasMomentum"
  input: "^training/SGD/SGD/update_bn5a_branch2c/gamma/ResourceApplyKerasMomentum"
  input: "^training/SGD/SGD/update_bn5b_branch2a/beta/ResourceApplyKerasMomentum"
  input: "^training/SGD/SGD/update_bn5b_branch2a/gamma/ResourceApplyKerasMomentum"
  input: "^training/SGD/SGD/update_bn5b_branch2b/beta/ResourceApplyKerasMomentum"
  input: "^training/SGD/SGD/update_bn5b_branch2b/gamma/ResourceApplyKerasMomentum"
  input: "^training/SGD/SGD/update_bn5b_branch2c/beta/ResourceApplyKerasMomentum"
  input: "^training/SGD/SGD/update_bn5b_branch2c/gamma/ResourceApplyKerasMomentum"
  input: "^training/SGD/SGD/update_bn5c_branch2a/beta/ResourceApplyKerasMomentum"
  input: "^training/SGD/SGD/update_bn5c_branch2a/gamma/ResourceApplyKerasMomentum"
  input: "^training/SGD/SGD/update_bn5c_branch2b/beta/ResourceApplyKerasMomentum"
  input: "^training/SGD/SGD/update_bn5c_branch2b/gamma/ResourceApplyKerasMomentum"
  input: "^training/SGD/SGD/update_bn5c_branch2c/beta/ResourceApplyKerasMomentum"
  input: "^training/SGD/SGD/update_bn5c_branch2c/gamma/ResourceApplyKerasMomentum"
  input: "^training/SGD/SGD/update_bn_conv1/beta/ResourceApplyKerasMomentum"
  input: "^training/SGD/SGD/update_bn_conv1/gamma/ResourceApplyKerasMomentum"
  input: "^training/SGD/SGD/update_conv1/kernel/ResourceApplyKerasMomentum"
  input: "^training/SGD/SGD/update_fc1000/bias/ResourceApplyKerasMomentum"
  input: "^training/SGD/SGD/update_fc1000/kernel/ResourceApplyKerasMomentum"
  input: "^training/SGD/SGD/update_res2a_branch1/kernel/ResourceApplyKerasMomentum"
  input: "^training/SGD/SGD/update_res2a_branch2a/kernel/ResourceApplyKerasMomentum"
  input: "^training/SGD/SGD/update_res2a_branch2b/kernel/ResourceApplyKerasMomentum"
  input: "^training/SGD/SGD/update_res2a_branch2c/kernel/ResourceApplyKerasMomentum"
  input: "^training/SGD/SGD/update_res2b_branch2a/kernel/ResourceApplyKerasMomentum"
  input: "^training/SGD/SGD/update_res2b_branch2b/kernel/ResourceApplyKerasMomentum"
  input: "^training/SGD/SGD/update_res2b_branch2c/kernel/ResourceApplyKerasMomentum"
  input: "^training/SGD/SGD/update_res2c_branch2a/kernel/ResourceApplyKerasMomentum"
  input: "^training/SGD/SGD/update_res2c_branch2b/kernel/ResourceApplyKerasMomentum"
  input: "^training/SGD/SGD/update_res2c_branch2c/kernel/ResourceApplyKerasMomentum"
  input: "^training/SGD/SGD/update_res3a_branch1/kernel/ResourceApplyKerasMomentum"
  input: "^training/SGD/SGD/update_res3a_branch2a/kernel/ResourceApplyKerasMomentum"
  input: "^training/SGD/SGD/update_res3a_branch2b/kernel/ResourceApplyKerasMomentum"
  input: "^training/SGD/SGD/update_res3a_branch2c/kernel/ResourceApplyKerasMomentum"
  input: "^training/SGD/SGD/update_res3b_branch2a/kernel/ResourceApplyKerasMomentum"
  input: "^training/SGD/SGD/update_res3b_branch2b/kernel/ResourceApplyKerasMomentum"
  input: "^training/SGD/SGD/update_res3b_branch2c/kernel/ResourceApplyKerasMomentum"
  input: "^training/SGD/SGD/update_res3c_branch2a/kernel/ResourceApplyKerasMomentum"
  input: "^training/SGD/SGD/update_res3c_branch2b/kernel/ResourceApplyKerasMomentum"
  input: "^training/SGD/SGD/update_res3c_branch2c/kernel/ResourceApplyKerasMomentum"
  input: "^training/SGD/SGD/update_res3d_branch2a/kernel/ResourceApplyKerasMomentum"
  input: "^training/SGD/SGD/update_res3d_branch2b/kernel/ResourceApplyKerasMomentum"
  input: "^training/SGD/SGD/update_res3d_branch2c/kernel/ResourceApplyKerasMomentum"
  input: "^training/SGD/SGD/update_res4a_branch1/kernel/ResourceApplyKerasMomentum"
  input: "^training/SGD/SGD/update_res4a_branch2a/kernel/ResourceApplyKerasMomentum"
  input: "^training/SGD/SGD/update_res4a_branch2b/kernel/ResourceApplyKerasMomentum"
  input: "^training/SGD/SGD/update_res4a_branch2c/kernel/ResourceApplyKerasMomentum"
  input: "^training/SGD/SGD/update_res4b_branch2a/kernel/ResourceApplyKerasMomentum"
  input: "^training/SGD/SGD/update_res4b_branch2b/kernel/ResourceApplyKerasMomentum"
  input: "^training/SGD/SGD/update_res4b_branch2c/kernel/ResourceApplyKerasMomentum"
  input: "^training/SGD/SGD/update_res4c_branch2a/kernel/ResourceApplyKerasMomentum"
  input: "^training/SGD/SGD/update_res4c_branch2b/kernel/ResourceApplyKerasMomentum"
  input: "^training/SGD/SGD/update_res4c_branch2c/kernel/ResourceApplyKerasMomentum"
  input: "^training/SGD/SGD/update_res4d_branch2a/kernel/ResourceApplyKerasMomentum"
  input: "^training/SGD/SGD/update_res4d_branch2b/kernel/ResourceApplyKerasMomentum"
  input: "^training/SGD/SGD/update_res4d_branch2c/kernel/ResourceApplyKerasMomentum"
  input: "^training/SGD/SGD/update_res4e_branch2a/kernel/ResourceApplyKerasMomentum"
  input: "^training/SGD/SGD/update_res4e_branch2b/kernel/ResourceApplyKerasMomentum"
  input: "^training/SGD/SGD/update_res4e_branch2c/kernel/ResourceApplyKerasMomentum"
  input: "^training/SGD/SGD/update_res4f_branch2a/kernel/ResourceApplyKerasMomentum"
  input: "^training/SGD/SGD/update_res4f_branch2b/kernel/ResourceApplyKerasMomentum"
  input: "^training/SGD/SGD/update_res4f_branch2c/kernel/ResourceApplyKerasMomentum"
  input: "^training/SGD/SGD/update_res5a_branch1/kernel/ResourceApplyKerasMomentum"
  input: "^training/SGD/SGD/update_res5a_branch2a/kernel/ResourceApplyKerasMomentum"
  input: "^training/SGD/SGD/update_res5a_branch2b/kernel/ResourceApplyKerasMomentum"
  input: "^training/SGD/SGD/update_res5a_branch2c/kernel/ResourceApplyKerasMomentum"
  input: "^training/SGD/SGD/update_res5b_branch2a/kernel/ResourceApplyKerasMomentum"
  input: "^training/SGD/SGD/update_res5b_branch2b/kernel/ResourceApplyKerasMomentum"
  input: "^training/SGD/SGD/update_res5b_branch2c/kernel/ResourceApplyKerasMomentum"
  input: "^training/SGD/SGD/update_res5c_branch2a/kernel/ResourceApplyKerasMomentum"
  input: "^training/SGD/SGD/update_res5c_branch2b/kernel/ResourceApplyKerasMomentum"
  input: "^training/SGD/SGD/update_res5c_branch2c/kernel/ResourceApplyKerasMomentum"
  device: "/job:localhost/replica:0/task:0/device:GPU:0"
  attr {
    key: "dtype"
    value {
      type: DT_INT64
    }
  }
  attr {
    key: "value"
    value {
      tensor {
        dtype: DT_INT64
        tensor_shape {
        }
        int64_val: 1
      }
    }
  }
}
node {
  name: "training/SGD/SGD/AssignAddVariableOp"
  op: "AssignAddVariableOp"
  input: "training/SGD/iter"
  input: "training/SGD/SGD/Const"
  device: "/job:localhost/replica:0/task:0/device:GPU:0"
  attr {
    key: "dtype"
    value {
      type: DT_INT64
    }
  }
}
node {
  name: "group_deps_1"
  op: "NoOp"
  input: "^bn2a_branch1_1/AssignMovingAvg/AssignSubVariableOp"
  input: "^bn2a_branch1_1/AssignMovingAvg_1/AssignSubVariableOp"
  input: "^bn2a_branch2a_1/AssignMovingAvg/AssignSubVariableOp"
  input: "^bn2a_branch2a_1/AssignMovingAvg_1/AssignSubVariableOp"
  input: "^bn2a_branch2b_1/AssignMovingAvg/AssignSubVariableOp"
  input: "^bn2a_branch2b_1/AssignMovingAvg_1/AssignSubVariableOp"
  input: "^bn2a_branch2c_1/AssignMovingAvg/AssignSubVariableOp"
  input: "^bn2a_branch2c_1/AssignMovingAvg_1/AssignSubVariableOp"
  input: "^bn2b_branch2a_1/AssignMovingAvg/AssignSubVariableOp"
  input: "^bn2b_branch2a_1/AssignMovingAvg_1/AssignSubVariableOp"
  input: "^bn2b_branch2b_1/AssignMovingAvg/AssignSubVariableOp"
  input: "^bn2b_branch2b_1/AssignMovingAvg_1/AssignSubVariableOp"
  input: "^bn2b_branch2c_1/AssignMovingAvg/AssignSubVariableOp"
  input: "^bn2b_branch2c_1/AssignMovingAvg_1/AssignSubVariableOp"
  input: "^bn2c_branch2a_1/AssignMovingAvg/AssignSubVariableOp"
  input: "^bn2c_branch2a_1/AssignMovingAvg_1/AssignSubVariableOp"
  input: "^bn2c_branch2b_1/AssignMovingAvg/AssignSubVariableOp"
  input: "^bn2c_branch2b_1/AssignMovingAvg_1/AssignSubVariableOp"
  input: "^bn2c_branch2c_1/AssignMovingAvg/AssignSubVariableOp"
  input: "^bn2c_branch2c_1/AssignMovingAvg_1/AssignSubVariableOp"
  input: "^bn3a_branch1_1/AssignMovingAvg/AssignSubVariableOp"
  input: "^bn3a_branch1_1/AssignMovingAvg_1/AssignSubVariableOp"
  input: "^bn3a_branch2a_1/AssignMovingAvg/AssignSubVariableOp"
  input: "^bn3a_branch2a_1/AssignMovingAvg_1/AssignSubVariableOp"
  input: "^bn3a_branch2b_1/AssignMovingAvg/AssignSubVariableOp"
  input: "^bn3a_branch2b_1/AssignMovingAvg_1/AssignSubVariableOp"
  input: "^bn3a_branch2c_1/AssignMovingAvg/AssignSubVariableOp"
  input: "^bn3a_branch2c_1/AssignMovingAvg_1/AssignSubVariableOp"
  input: "^bn3b_branch2a_1/AssignMovingAvg/AssignSubVariableOp"
  input: "^bn3b_branch2a_1/AssignMovingAvg_1/AssignSubVariableOp"
  input: "^bn3b_branch2b_1/AssignMovingAvg/AssignSubVariableOp"
  input: "^bn3b_branch2b_1/AssignMovingAvg_1/AssignSubVariableOp"
  input: "^bn3b_branch2c_1/AssignMovingAvg/AssignSubVariableOp"
  input: "^bn3b_branch2c_1/AssignMovingAvg_1/AssignSubVariableOp"
  input: "^bn3c_branch2a_1/AssignMovingAvg/AssignSubVariableOp"
  input: "^bn3c_branch2a_1/AssignMovingAvg_1/AssignSubVariableOp"
  input: "^bn3c_branch2b_1/AssignMovingAvg/AssignSubVariableOp"
  input: "^bn3c_branch2b_1/AssignMovingAvg_1/AssignSubVariableOp"
  input: "^bn3c_branch2c_1/AssignMovingAvg/AssignSubVariableOp"
  input: "^bn3c_branch2c_1/AssignMovingAvg_1/AssignSubVariableOp"
  input: "^bn3d_branch2a_1/AssignMovingAvg/AssignSubVariableOp"
  input: "^bn3d_branch2a_1/AssignMovingAvg_1/AssignSubVariableOp"
  input: "^bn3d_branch2b_1/AssignMovingAvg/AssignSubVariableOp"
  input: "^bn3d_branch2b_1/AssignMovingAvg_1/AssignSubVariableOp"
  input: "^bn3d_branch2c_1/AssignMovingAvg/AssignSubVariableOp"
  input: "^bn3d_branch2c_1/AssignMovingAvg_1/AssignSubVariableOp"
  input: "^bn4a_branch1_1/AssignMovingAvg/AssignSubVariableOp"
  input: "^bn4a_branch1_1/AssignMovingAvg_1/AssignSubVariableOp"
  input: "^bn4a_branch2a_1/AssignMovingAvg/AssignSubVariableOp"
  input: "^bn4a_branch2a_1/AssignMovingAvg_1/AssignSubVariableOp"
  input: "^bn4a_branch2b_1/AssignMovingAvg/AssignSubVariableOp"
  input: "^bn4a_branch2b_1/AssignMovingAvg_1/AssignSubVariableOp"
  input: "^bn4a_branch2c_1/AssignMovingAvg/AssignSubVariableOp"
  input: "^bn4a_branch2c_1/AssignMovingAvg_1/AssignSubVariableOp"
  input: "^bn4b_branch2a_1/AssignMovingAvg/AssignSubVariableOp"
  input: "^bn4b_branch2a_1/AssignMovingAvg_1/AssignSubVariableOp"
  input: "^bn4b_branch2b_1/AssignMovingAvg/AssignSubVariableOp"
  input: "^bn4b_branch2b_1/AssignMovingAvg_1/AssignSubVariableOp"
  input: "^bn4b_branch2c_1/AssignMovingAvg/AssignSubVariableOp"
  input: "^bn4b_branch2c_1/AssignMovingAvg_1/AssignSubVariableOp"
  input: "^bn4c_branch2a_1/AssignMovingAvg/AssignSubVariableOp"
  input: "^bn4c_branch2a_1/AssignMovingAvg_1/AssignSubVariableOp"
  input: "^bn4c_branch2b_1/AssignMovingAvg/AssignSubVariableOp"
  input: "^bn4c_branch2b_1/AssignMovingAvg_1/AssignSubVariableOp"
  input: "^bn4c_branch2c_1/AssignMovingAvg/AssignSubVariableOp"
  input: "^bn4c_branch2c_1/AssignMovingAvg_1/AssignSubVariableOp"
  input: "^bn4d_branch2a_1/AssignMovingAvg/AssignSubVariableOp"
  input: "^bn4d_branch2a_1/AssignMovingAvg_1/AssignSubVariableOp"
  input: "^bn4d_branch2b_1/AssignMovingAvg/AssignSubVariableOp"
  input: "^bn4d_branch2b_1/AssignMovingAvg_1/AssignSubVariableOp"
  input: "^bn4d_branch2c_1/AssignMovingAvg/AssignSubVariableOp"
  input: "^bn4d_branch2c_1/AssignMovingAvg_1/AssignSubVariableOp"
  input: "^bn4e_branch2a_1/AssignMovingAvg/AssignSubVariableOp"
  input: "^bn4e_branch2a_1/AssignMovingAvg_1/AssignSubVariableOp"
  input: "^bn4e_branch2b_1/AssignMovingAvg/AssignSubVariableOp"
  input: "^bn4e_branch2b_1/AssignMovingAvg_1/AssignSubVariableOp"
  input: "^bn4e_branch2c_1/AssignMovingAvg/AssignSubVariableOp"
  input: "^bn4e_branch2c_1/AssignMovingAvg_1/AssignSubVariableOp"
  input: "^bn4f_branch2a_1/AssignMovingAvg/AssignSubVariableOp"
  input: "^bn4f_branch2a_1/AssignMovingAvg_1/AssignSubVariableOp"
  input: "^bn4f_branch2b_1/AssignMovingAvg/AssignSubVariableOp"
  input: "^bn4f_branch2b_1/AssignMovingAvg_1/AssignSubVariableOp"
  input: "^bn4f_branch2c_1/AssignMovingAvg/AssignSubVariableOp"
  input: "^bn4f_branch2c_1/AssignMovingAvg_1/AssignSubVariableOp"
  input: "^bn5a_branch1_1/AssignMovingAvg/AssignSubVariableOp"
  input: "^bn5a_branch1_1/AssignMovingAvg_1/AssignSubVariableOp"
  input: "^bn5a_branch2a_1/AssignMovingAvg/AssignSubVariableOp"
  input: "^bn5a_branch2a_1/AssignMovingAvg_1/AssignSubVariableOp"
  input: "^bn5a_branch2b_1/AssignMovingAvg/AssignSubVariableOp"
  input: "^bn5a_branch2b_1/AssignMovingAvg_1/AssignSubVariableOp"
  input: "^bn5a_branch2c_1/AssignMovingAvg/AssignSubVariableOp"
  input: "^bn5a_branch2c_1/AssignMovingAvg_1/AssignSubVariableOp"
  input: "^bn5b_branch2a_1/AssignMovingAvg/AssignSubVariableOp"
  input: "^bn5b_branch2a_1/AssignMovingAvg_1/AssignSubVariableOp"
  input: "^bn5b_branch2b_1/AssignMovingAvg/AssignSubVariableOp"
  input: "^bn5b_branch2b_1/AssignMovingAvg_1/AssignSubVariableOp"
  input: "^bn5b_branch2c_1/AssignMovingAvg/AssignSubVariableOp"
  input: "^bn5b_branch2c_1/AssignMovingAvg_1/AssignSubVariableOp"
  input: "^bn5c_branch2a_1/AssignMovingAvg/AssignSubVariableOp"
  input: "^bn5c_branch2a_1/AssignMovingAvg_1/AssignSubVariableOp"
  input: "^bn5c_branch2b_1/AssignMovingAvg/AssignSubVariableOp"
  input: "^bn5c_branch2b_1/AssignMovingAvg_1/AssignSubVariableOp"
  input: "^bn5c_branch2c_1/AssignMovingAvg/AssignSubVariableOp"
  input: "^bn5c_branch2c_1/AssignMovingAvg_1/AssignSubVariableOp"
  input: "^bn_conv1_1/AssignMovingAvg/AssignSubVariableOp"
  input: "^bn_conv1_1/AssignMovingAvg_1/AssignSubVariableOp"
  input: "^loss_1/add"
  input: "^training/SGD/SGD/AssignAddVariableOp"
  device: "/job:localhost/replica:0/task:0/device:GPU:0"
}
node {
  name: "_identity_input_1_1_0"
  op: "Identity"
  input: "G4SM2HGMB5/Read/ReadVariableOp"
  device: "/job:localhost/replica:0/task:0/device:GPU:0"
  attr {
    key: "T"
    value {
      type: DT_FLOAT
    }
  }
}
node {
  name: "_identity_activation_49_target_1_0"
  op: "Identity"
  input: "HK0SX0WHBZ/Read/ReadVariableOp"
  device: "/job:localhost/replica:0/task:0/device:GPU:0"
  attr {
    key: "T"
    value {
      type: DT_FLOAT
    }
  }
}
node {
  name: "_retval_loss_1/add_0_0"
  op: "_Retval"
  input: "loss_1/add"
  device: "/job:localhost/replica:0/task:0/device:CPU:0"
  attr {
    key: "T"
    value {
      type: DT_FLOAT
    }
  }
  attr {
    key: "index"
    value {
      i: 0
    }
  }
}
node {
  name: "_retval_metrics_2/sparse_categorical_accuracy/Identity_0_1"
  op: "_Retval"
  input: "metrics_2/sparse_categorical_accuracy/Identity"
  device: "/job:localhost/replica:0/task:0/device:CPU:0"
  attr {
    key: "T"
    value {
      type: DT_FLOAT
    }
  }
  attr {
    key: "index"
    value {
      i: 1
    }
  }
}
library {
}
versions {
  producer: 41
}
