HloModule pjit_ref_func

region_0.23 {
  Arg_0.24 = f32[] parameter(0)
  Arg_1.25 = f32[] parameter(1)
  ROOT maximum.26 = f32[] maximum(Arg_0.24, Arg_1.25)
}

region_1.35 {
  Arg_0.36 = f32[] parameter(0)
  Arg_1.37 = f32[] parameter(1)
  ROOT add.38 = f32[] add(Arg_0.36, Arg_1.37)
}

integer_pow.45 {
  constant.47 = f32[] constant(1)
  broadcast.48 = f32[32,12,512,1]{3,2,1,0} broadcast(constant.47), dimensions={}
  Arg_0.46 = f32[32,12,512,1]{3,2,1,0} parameter(0)
  multiply.49 = f32[32,12,512,1]{3,2,1,0} multiply(Arg_0.46, Arg_0.46)
  ROOT divide.50 = f32[32,12,512,1]{3,2,1,0} divide(broadcast.48, multiply.49)
}

region_2.54 {
  Arg_0.55 = f32[] parameter(0)
  Arg_1.56 = f32[] parameter(1)
  ROOT add.57 = f32[] add(Arg_0.55, Arg_1.56)
}

region_3.72 {
  Arg_0.73 = f32[] parameter(0)
  Arg_1.74 = f32[] parameter(1)
  ROOT add.75 = f32[] add(Arg_0.73, Arg_1.74)
}

region_4.83 {
  Arg_0.84 = f32[] parameter(0)
  Arg_1.85 = f32[] parameter(1)
  ROOT add.86 = f32[] add(Arg_0.84, Arg_1.85)
}

ENTRY main.107 {
  Arg_0.1 = f16[32,512,3,12,64]{4,3,2,1,0} parameter(0), sharding={devices=[2,1,1,1,1]<=[2]}
  slice.14 = f16[32,512,1,12,64]{4,3,2,1,0} slice(Arg_0.1), slice={[0:32], [0:512], [2:3], [0:12], [0:64]}
  reshape.17 = f16[32,512,12,64]{3,2,1,0} reshape(slice.14)
  convert.20 = f32[32,512,12,64]{3,2,1,0} convert(reshape.17)
  slice.12 = f16[32,512,1,12,64]{4,3,2,1,0} slice(Arg_0.1), slice={[0:32], [0:512], [0:1], [0:12], [0:64]}
  reshape.15 = f16[32,512,12,64]{3,2,1,0} reshape(slice.12)
  convert.18 = f32[32,512,12,64]{3,2,1,0} convert(reshape.15)
  constant.6 = f32[] constant(8)
  broadcast.7 = f32[32,512,12,64]{3,2,1,0} broadcast(constant.6), dimensions={}
  divide.21 = f32[32,512,12,64]{3,2,1,0} divide(convert.18, broadcast.7)
  slice.13 = f16[32,512,1,12,64]{4,3,2,1,0} slice(Arg_0.1), slice={[0:32], [0:512], [1:2], [0:12], [0:64]}
  reshape.16 = f16[32,512,12,64]{3,2,1,0} reshape(slice.13)
  convert.19 = f32[32,512,12,64]{3,2,1,0} convert(reshape.16)
  dot.22 = f32[32,12,512,512]{3,2,1,0} dot(divide.21, convert.19), lhs_batch_dims={0,2}, lhs_contracting_dims={3}, rhs_batch_dims={0,2}, rhs_contracting_dims={3}
  constant.11 = f32[] constant(-inf)
  reduce.27 = f32[32,12,512]{2,1,0} reduce(dot.22, constant.11), dimensions={3}, to_apply=region_0.23
  constant.4 = f32[] constant(-inf)
  broadcast.5 = f32[32,12,512]{2,1,0} broadcast(constant.4), dimensions={}
  maximum.28 = f32[32,12,512]{2,1,0} maximum(reduce.27, broadcast.5)
  reshape.29 = f32[32,12,512,1]{3,2,1,0} reshape(maximum.28)
  broadcast.30 = f32[32,12,512,1]{3,2,1,0} broadcast(reshape.29), dimensions={0,1,2,3}
  reshape.31 = f32[32,12,512]{2,1,0} reshape(broadcast.30)
  broadcast.32 = f32[32,12,512,512]{3,2,1,0} broadcast(reshape.31), dimensions={0,1,2}
  subtract.33 = f32[32,12,512,512]{3,2,1,0} subtract(dot.22, broadcast.32)
  exponential.34 = f32[32,12,512,512]{3,2,1,0} exponential(subtract.33)
  constant.10 = f32[] constant(0)
  reduce.39 = f32[32,12,512]{2,1,0} reduce(exponential.34, constant.10), dimensions={3}, to_apply=region_1.35
  reshape.40 = f32[32,12,512,1]{3,2,1,0} reshape(reduce.39)
  broadcast.41 = f32[32,12,512,1]{3,2,1,0} broadcast(reshape.40), dimensions={0,1,2,3}
  reshape.42 = f32[32,12,512]{2,1,0} reshape(broadcast.41)
  broadcast.43 = f32[32,12,512,512]{3,2,1,0} broadcast(reshape.42), dimensions={0,1,2}
  divide.44 = f32[32,12,512,512]{3,2,1,0} divide(exponential.34, broadcast.43)
  dot.52 = f32[32,12,64,512]{3,2,1,0} dot(convert.20, divide.44), lhs_batch_dims={0,2}, lhs_contracting_dims={1}, rhs_batch_dims={0,1}, rhs_contracting_dims={3}
  transpose.53 = f32[32,512,12,64]{1,3,2,0} transpose(dot.52), dimensions={0,3,1,2}
  reduce.58 = f32[] reduce(transpose.53, constant.10), dimensions={0,1,2,3}, to_apply=region_2.54
  constant.9 = f32[] constant(12582912)
  divide.59 = f32[] divide(reduce.58, constant.9)
  convert.60 = f16[] convert(divide.59)
  reshape.104 = f16[] reshape(convert.60), sharding={replicated}
  constant.2 = f32[] constant(7.94728621e-08)
  broadcast.3 = f32[32,12,64,512]{3,2,1,0} broadcast(constant.2), dimensions={}
  dot.62 = f32[32,12,64,512]{3,2,1,0} dot(broadcast.3, divide.44), lhs_batch_dims={0,1}, lhs_contracting_dims={3}, rhs_batch_dims={0,1}, rhs_contracting_dims={2}
  transpose.63 = f32[32,512,12,64]{1,3,2,0} transpose(dot.62), dimensions={0,3,1,2}
  convert.64 = f16[32,512,12,64]{1,3,2,0} convert(transpose.63)
  reshape.65 = f16[32,512,1,12,64]{4,3,2,1,0} reshape(convert.64)
  constant.8 = f16[] constant(0)
  pad.66 = f16[32,512,3,12,64]{4,3,2,1,0} pad(reshape.65, constant.8), padding=0_0x0_0x2_0x0_0x0_0
  dot.61 = f32[32,12,512,512]{3,2,1,0} dot(broadcast.3, convert.20), lhs_batch_dims={0,1}, lhs_contracting_dims={2}, rhs_batch_dims={0,2}, rhs_contracting_dims={3}
  broadcast.79 = f32[32,12,512,1]{3,2,1,0} broadcast(reshape.40), dimensions={0,1,2,3}
  reshape.80 = f32[32,12,512]{2,1,0} reshape(broadcast.79)
  broadcast.81 = f32[32,12,512,512]{3,2,1,0} broadcast(reshape.80), dimensions={0,1,2}
  divide.82 = f32[32,12,512,512]{3,2,1,0} divide(dot.61, broadcast.81)
  call.51 = f32[32,12,512,1]{3,2,1,0} call(reshape.40), to_apply=integer_pow.45
  broadcast.67 = f32[32,12,512,1]{3,2,1,0} broadcast(call.51), dimensions={0,1,2,3}
  reshape.68 = f32[32,12,512]{2,1,0} reshape(broadcast.67)
  broadcast.69 = f32[32,12,512,512]{3,2,1,0} broadcast(reshape.68), dimensions={0,1,2}
  multiply.70 = f32[32,12,512,512]{3,2,1,0} multiply(dot.61, broadcast.69)
  multiply.71 = f32[32,12,512,512]{3,2,1,0} multiply(multiply.70, exponential.34)
  reduce.76 = f32[32,12,512]{2,1,0} reduce(multiply.71, constant.10), dimensions={3}, to_apply=region_3.72
  reshape.77 = f32[32,12,512,1]{3,2,1,0} reshape(reduce.76)
  negate.78 = f32[32,12,512,1]{3,2,1,0} negate(reshape.77)
  reduce.87 = f32[32,12,512]{2,1,0} reduce(negate.78, constant.10), dimensions={3}, to_apply=region_4.83
  broadcast.88 = f32[32,12,512,512]{3,2,1,0} broadcast(reduce.87), dimensions={0,1,2}
  add.89 = f32[32,12,512,512]{3,2,1,0} add(divide.82, broadcast.88)
  multiply.90 = f32[32,12,512,512]{3,2,1,0} multiply(add.89, exponential.34)
  dot.91 = f32[32,12,512,64]{3,2,1,0} dot(multiply.90, divide.21), lhs_batch_dims={0,1}, lhs_contracting_dims={2}, rhs_batch_dims={0,2}, rhs_contracting_dims={1}
  transpose.92 = f32[32,512,12,64]{3,1,2,0} transpose(dot.91), dimensions={0,2,1,3}
  convert.95 = f16[32,512,12,64]{3,1,2,0} convert(transpose.92)
  reshape.96 = f16[32,512,1,12,64]{4,3,2,1,0} reshape(convert.95)
  pad.97 = f16[32,512,3,12,64]{4,3,2,1,0} pad(reshape.96, constant.8), padding=0_0x0_0x1_1x0_0x0_0
  add.98 = f16[32,512,3,12,64]{4,3,2,1,0} add(pad.66, pad.97)
  dot.93 = f32[32,12,512,64]{3,2,1,0} dot(multiply.90, convert.19), lhs_batch_dims={0,1}, lhs_contracting_dims={3}, rhs_batch_dims={0,2}, rhs_contracting_dims={1}
  transpose.94 = f32[32,512,12,64]{3,1,2,0} transpose(dot.93), dimensions={0,2,1,3}
  divide.99 = f32[32,512,12,64]{3,1,2,0} divide(transpose.94, broadcast.7)
  convert.100 = f16[32,512,12,64]{3,1,2,0} convert(divide.99)
  reshape.101 = f16[32,512,1,12,64]{4,3,2,1,0} reshape(convert.100)
  pad.102 = f16[32,512,3,12,64]{4,3,2,1,0} pad(reshape.101, constant.8), padding=0_0x0_0x0_2x0_0x0_0
  add.103 = f16[32,512,3,12,64]{4,3,2,1,0} add(add.98, pad.102)
  reshape.105 = f16[32,512,3,12,64]{4,3,2,1,0} reshape(add.103), sharding={devices=[2,1,1,1,1]<=[2]}
  ROOT tuple.106 = (f16[], f16[32,512,3,12,64]{4,3,2,1,0}) tuple(reshape.104, reshape.105), sharding={{replicated}, {devices=[2,1,1,1,1]<=[2]}}
} // main.107

