builtin.func @test(%V__0: tensor<?xf32>, %V__1: tensor<2xi32>) -> tensor<?x?xf32> {
  %0 = "tf.Atanh"(%V__0) : (tensor<?xf32>) -> tensor<?xf32>
  %1 = "tf.Sinh"(%0) : (tensor<?xf32>) -> tensor<?xf32>
  %2 = "tf.Log1p"(%1) : (tensor<?xf32>) -> tensor<?xf32>
  %3 = "tf.Xdivy"(%2, %V__0) : (tensor<?xf32>, tensor<?xf32>) -> tensor<?xf32>
  %4 = "tf.Sub"(%3, %V__0) : (tensor<?xf32>, tensor<?xf32>) -> tensor<?xf32>
  %5 = "tf.LeakyRelu"(%4) {alpha = 0.2 : f32} : (tensor<?xf32>) -> tensor<?xf32>
  %6 = "tf.LeakyRelu"(%5) {alpha = 0.2 : f32} : (tensor<?xf32>) -> tensor<?xf32>
  %7 = "tf.Elu"(%6) : (tensor<?xf32>) -> tensor<?xf32>
  %8 = "tf.Softsign"(%7) : (tensor<?xf32>) -> tensor<?xf32>
  %9 = "tf.Acosh"(%V__0) : (tensor<?xf32>) -> tensor<?xf32>
  %10 = "tf.Elu"(%9) : (tensor<?xf32>) -> tensor<?xf32>
  %11 = "tf.Sinh"(%V__0) : (tensor<?xf32>) -> tensor<?xf32>
  %12 = "tf.MulNoNan"(%10, %11) : (tensor<?xf32>, tensor<?xf32>) -> tensor<?xf32>
  %13 = "tf.Sin"(%12) : (tensor<?xf32>) -> tensor<?xf32>
  %14 = "tf.Xdivy"(%8, %13) : (tensor<?xf32>, tensor<?xf32>) -> tensor<?xf32>
  %15 = "tf.LeakyRelu"(%14) {alpha = 0.2 : f32} : (tensor<?xf32>) -> tensor<?xf32>
  %16 = "tf.Relu"(%15) : (tensor<?xf32>) -> tensor<?xf32>
  %17 = "tf.Tanh"(%16) : (tensor<?xf32>) -> tensor<?xf32>
  %18 = "tf.BroadcastTo"(%17, %V__1) : (tensor<?xf32>, tensor<2xi32>) -> tensor<?x?xf32>
  %19 = "tf.Tanh"(%18) : (tensor<?x?xf32>) -> tensor<?x?xf32>
  %20 = "tf.LeakyRelu"(%19) {alpha = 0.2 : f32} : (tensor<?x?xf32>) -> tensor<?x?xf32>
  return %20 : tensor<?x?xf32>
}
