saved_model_schema_version: 1
meta_graphs {
  meta_info_def {
    stripped_op_list {
      op {
        name: "Const"
        output_arg {
          name: "output"
          type_attr: "dtype"
        }
        attr {
          name: "value"
          type: "tensor"
        }
        attr {
          name: "dtype"
          type: "type"
        }
      }
      op {
        name: "Identity"
        input_arg {
          name: "input"
          type_attr: "T"
        }
        output_arg {
          name: "output"
          type_attr: "T"
        }
        attr {
          name: "T"
          type: "type"
        }
      }
      op {
        name: "MergeV2Checkpoints"
        input_arg {
          name: "checkpoint_prefixes"
          type: DT_STRING
        }
        input_arg {
          name: "destination_prefix"
          type: DT_STRING
        }
        attr {
          name: "delete_old_dirs"
          type: "bool"
          default_value {
            b: true
          }
        }
        attr {
          name: "allow_missing_files"
          type: "bool"
          default_value {
            b: false
          }
        }
        is_stateful: true
      }
      op {
        name: "NoOp"
      }
      op {
        name: "Pack"
        input_arg {
          name: "values"
          type_attr: "T"
          number_attr: "N"
        }
        output_arg {
          name: "output"
          type_attr: "T"
        }
        attr {
          name: "N"
          type: "int"
          has_minimum: true
          minimum: 1
        }
        attr {
          name: "T"
          type: "type"
        }
        attr {
          name: "axis"
          type: "int"
          default_value {
            i: 0
          }
        }
      }
      op {
        name: "PartitionedCall"
        input_arg {
          name: "args"
          type_list_attr: "Tin"
        }
        output_arg {
          name: "output"
          type_list_attr: "Tout"
        }
        attr {
          name: "Tin"
          type: "list(type)"
          has_minimum: true
        }
        attr {
          name: "Tout"
          type: "list(type)"
          has_minimum: true
        }
        attr {
          name: "f"
          type: "func"
        }
        attr {
          name: "config"
          type: "string"
          default_value {
            s: ""
          }
        }
        attr {
          name: "config_proto"
          type: "string"
          default_value {
            s: ""
          }
        }
        attr {
          name: "executor_type"
          type: "string"
          default_value {
            s: ""
          }
        }
      }
      op {
        name: "Placeholder"
        output_arg {
          name: "output"
          type_attr: "dtype"
        }
        attr {
          name: "dtype"
          type: "type"
        }
        attr {
          name: "shape"
          type: "shape"
          default_value {
            shape {
              unknown_rank: true
            }
          }
        }
      }
      op {
        name: "RestoreV2"
        input_arg {
          name: "prefix"
          type: DT_STRING
        }
        input_arg {
          name: "tensor_names"
          type: DT_STRING
        }
        input_arg {
          name: "shape_and_slices"
          type: DT_STRING
        }
        output_arg {
          name: "tensors"
          type_list_attr: "dtypes"
        }
        attr {
          name: "dtypes"
          type: "list(type)"
          has_minimum: true
          minimum: 1
        }
        is_stateful: true
      }
      op {
        name: "SaveV2"
        input_arg {
          name: "prefix"
          type: DT_STRING
        }
        input_arg {
          name: "tensor_names"
          type: DT_STRING
        }
        input_arg {
          name: "shape_and_slices"
          type: DT_STRING
        }
        input_arg {
          name: "tensors"
          type_list_attr: "dtypes"
        }
        attr {
          name: "dtypes"
          type: "list(type)"
          has_minimum: true
          minimum: 1
        }
        is_stateful: true
      }
      op {
        name: "Select"
        input_arg {
          name: "condition"
          type: DT_BOOL
        }
        input_arg {
          name: "t"
          type_attr: "T"
        }
        input_arg {
          name: "e"
          type_attr: "T"
        }
        output_arg {
          name: "output"
          type_attr: "T"
        }
        attr {
          name: "T"
          type: "type"
        }
      }
      op {
        name: "ShardedFilename"
        input_arg {
          name: "basename"
          type: DT_STRING
        }
        input_arg {
          name: "shard"
          type: DT_INT32
        }
        input_arg {
          name: "num_shards"
          type: DT_INT32
        }
        output_arg {
          name: "filename"
          type: DT_STRING
        }
      }
      op {
        name: "StatefulPartitionedCall"
        input_arg {
          name: "args"
          type_list_attr: "Tin"
        }
        output_arg {
          name: "output"
          type_list_attr: "Tout"
        }
        attr {
          name: "Tin"
          type: "list(type)"
          has_minimum: true
        }
        attr {
          name: "Tout"
          type: "list(type)"
          has_minimum: true
        }
        attr {
          name: "f"
          type: "func"
        }
        attr {
          name: "config"
          type: "string"
          default_value {
            s: ""
          }
        }
        attr {
          name: "config_proto"
          type: "string"
          default_value {
            s: ""
          }
        }
        attr {
          name: "executor_type"
          type: "string"
          default_value {
            s: ""
          }
        }
        is_stateful: true
        is_distributed_communication: true
      }
      op {
        name: "StaticRegexFullMatch"
        input_arg {
          name: "input"
          type: DT_STRING
        }
        output_arg {
          name: "output"
          type: DT_BOOL
        }
        attr {
          name: "pattern"
          type: "string"
        }
      }
      op {
        name: "StringJoin"
        input_arg {
          name: "inputs"
          type: DT_STRING
          number_attr: "N"
        }
        output_arg {
          name: "output"
          type: DT_STRING
        }
        attr {
          name: "N"
          type: "int"
          has_minimum: true
        }
        attr {
          name: "separator"
          type: "string"
          default_value {
            s: ""
          }
        }
      }
    }
    tags: "serve"
    tensorflow_version: "2.14.0"
    tensorflow_git_version: "unknown"
    stripped_default_attrs: true
  }
  graph_def {
    node {
      name: "Const"
      op: "Const"
      attr {
        key: "_output_shapes"
        value {
          list {
            shape {
              dim {
                size: 150
              }
              dim {
                size: 150
              }
            }
          }
        }
      }
      attr {
        key: "dtype"
        value {
          type: DT_DOUBLE
        }
      }
      attr {
        key: "value"
        value {
          tensor {
            dtype: DT_DOUBLE
            tensor_shape {
              dim {
                size: 150
              }
              dim {
                size: 150
              }
            }
            tensor_content: "…"
          }
        }
      }
    }
    node {
      name: "PartitionedCall"
      op: "PartitionedCall"
      input: "Const"
      attr {
        key: "Tin"
        value {
          list {
            type: DT_DOUBLE
          }
        }
      }
      attr {
        key: "Tout"
        value {
          list {
            type: DT_DOUBLE
          }
        }
      }
      attr {
        key: "_collective_manager_ids"
        value {
          list {
          }
        }
      }
      attr {
        key: "_output_shapes"
        value {
          list {
            shape {
              dim {
                size: 150
              }
              dim {
                size: 150
              }
            }
          }
        }
      }
      attr {
        key: "_read_only_resource_inputs"
        value {
          list {
          }
        }
      }
      attr {
        key: "config_proto"
        value {
          s: "\202\001\0008\0012\002J\000\n\007\n\003CPU\020\001\n\007\n\003GPU\020\000"
        }
      }
      attr {
        key: "f"
        value {
          func {
            name: "__inference_signature_wrapper_13"
          }
        }
      }
    }
    node {
      name: "NoOp"
      op: "NoOp"
    }
    node {
      name: "Const_1"
      op: "Const"
      device: "/device:CPU:0"
      attr {
        key: "_output_shapes"
        value {
          list {
            shape {
            }
          }
        }
      }
      attr {
        key: "dtype"
        value {
          type: DT_STRING
        }
      }
      attr {
        key: "value"
        value {
          tensor {
            dtype: DT_STRING
            tensor_shape {
            }
            string_val: "…"
          }
        }
      }
    }
    node {
      name: "saver_filename"
      op: "Placeholder"
      attr {
        key: "_output_shapes"
        value {
          list {
            shape {
            }
          }
        }
      }
      attr {
        key: "dtype"
        value {
          type: DT_STRING
        }
      }
      attr {
        key: "shape"
        value {
          shape {
          }
        }
      }
    }
    node {
      name: "StatefulPartitionedCall"
      op: "StatefulPartitionedCall"
      input: "saver_filename"
      input: "Const_1"
      attr {
        key: "Tin"
        value {
          list {
            type: DT_STRING
            type: DT_STRING
          }
        }
      }
      attr {
        key: "Tout"
        value {
          list {
            type: DT_STRING
          }
        }
      }
      attr {
        key: "_collective_manager_ids"
        value {
          list {
          }
        }
      }
      attr {
        key: "_output_shapes"
        value {
          list {
            shape {
            }
          }
        }
      }
      attr {
        key: "_read_only_resource_inputs"
        value {
          list {
          }
        }
      }
      attr {
        key: "config_proto"
        value {
          s: "\202\001\0008\0012\002J\000\n\007\n\003CPU\020\001\n\007\n\003GPU\020\000"
        }
      }
      attr {
        key: "f"
        value {
          func {
            name: "__inference__traced_save_40"
          }
        }
      }
    }
    node {
      name: "StatefulPartitionedCall_1"
      op: "StatefulPartitionedCall"
      input: "saver_filename"
      attr {
        key: "Tin"
        value {
          list {
            type: DT_STRING
          }
        }
      }
      attr {
        key: "Tout"
        value {
          list {
            type: DT_STRING
          }
        }
      }
      attr {
        key: "_collective_manager_ids"
        value {
          list {
          }
        }
      }
      attr {
        key: "_output_shapes"
        value {
          list {
            shape {
            }
          }
        }
      }
      attr {
        key: "_read_only_resource_inputs"
        value {
          list {
          }
        }
      }
      attr {
        key: "config_proto"
        value {
          s: "\202\001\0008\0012\002J\000\n\007\n\003CPU\020\001\n\007\n\003GPU\020\000"
        }
      }
      attr {
        key: "f"
        value {
          func {
            name: "__inference__traced_restore_49"
          }
        }
      }
    }
    library {
      function {
        signature {
          name: "__inference_signature_wrapper_13"
          input_arg {
            name: "unknown"
            type: DT_DOUBLE
          }
          output_arg {
            name: "identity"
            type: DT_DOUBLE
          }
        }
        node_def {
          name: "PartitionedCall"
          op: "PartitionedCall"
          input: "unknown"
          attr {
            key: "Tin"
            value {
              list {
                type: DT_DOUBLE
              }
            }
          }
          attr {
            key: "Tout"
            value {
              list {
                type: DT_DOUBLE
              }
            }
          }
          attr {
            key: "_collective_manager_ids"
            value {
              list {
              }
            }
          }
          attr {
            key: "_output_shapes"
            value {
              list {
                shape {
                  dim {
                    size: 150
                  }
                  dim {
                    size: 150
                  }
                }
              }
            }
          }
          attr {
            key: "_read_only_resource_inputs"
            value {
              list {
              }
            }
          }
          attr {
            key: "config_proto"
            value {
              s: "\202\001\0008\0012\002J\000\n\007\n\003CPU\020\001\n\007\n\003GPU\020\000"
            }
          }
          attr {
            key: "f"
            value {
              func {
                name: "__inference_<lambda>_6"
              }
            }
          }
        }
        node_def {
          name: "Identity"
          op: "Identity"
          input: "PartitionedCall:output:0"
          attr {
            key: "T"
            value {
              type: DT_DOUBLE
            }
          }
          attr {
            key: "_output_shapes"
            value {
              list {
                shape {
                  dim {
                    size: 150
                  }
                  dim {
                    size: 150
                  }
                }
              }
            }
          }
        }
        ret {
          key: "identity"
          value: "Identity:output:0"
        }
        attr {
          key: "_construction_context"
          value {
            s: "kEagerRuntime"
          }
        }
        attr {
          key: "_input_shapes"
          value {
            list {
              shape {
                dim {
                  size: 150
                }
                dim {
                  size: 150
                }
              }
            }
          }
        }
        arg_attr {
          key: 0
          value {
            attr {
              key: "_output_shapes"
              value {
                list {
                  shape {
                    dim {
                      size: 150
                    }
                    dim {
                      size: 150
                    }
                  }
                }
              }
            }
            attr {
              key: "_user_specified_name"
              value {
                s: "9"
              }
            }
          }
        }
      }
      function {
        signature {
          name: "__inference__traced_save_40"
          input_arg {
            name: "file_prefix"
            type: DT_STRING
          }
          input_arg {
            name: "savev2_const_1"
            type: DT_STRING
          }
          output_arg {
            name: "identity_1"
            type: DT_STRING
          }
          is_stateful: true
          control_output: "MergeV2Checkpoints"
        }
        node_def {
          name: "StaticRegexFullMatch"
          op: "StaticRegexFullMatch"
          input: "file_prefix"
          device: "/device:CPU:*"
          attr {
            key: "_output_shapes"
            value {
              list {
                shape {
                }
              }
            }
          }
          attr {
            key: "pattern"
            value {
              s: "^s3://.*"
            }
          }
        }
        node_def {
          name: "Const"
          op: "Const"
          device: "/device:CPU:*"
          attr {
            key: "_output_shapes"
            value {
              list {
                shape {
                }
              }
            }
          }
          attr {
            key: "dtype"
            value {
              type: DT_STRING
            }
          }
          attr {
            key: "value"
            value {
              tensor {
                dtype: DT_STRING
                tensor_shape {
                }
                string_val: ".part"
              }
            }
          }
        }
        node_def {
          name: "Const_1"
          op: "Const"
          device: "/device:CPU:*"
          attr {
            key: "_output_shapes"
            value {
              list {
                shape {
                }
              }
            }
          }
          attr {
            key: "dtype"
            value {
              type: DT_STRING
            }
          }
          attr {
            key: "value"
            value {
              tensor {
                dtype: DT_STRING
                tensor_shape {
                }
                string_val: "_temp/part"
              }
            }
          }
        }
        node_def {
          name: "Select"
          op: "Select"
          input: "StaticRegexFullMatch:output:0"
          input: "Const:output:0"
          input: "Const_1:output:0"
          device: "/device:CPU:*"
          attr {
            key: "T"
            value {
              type: DT_STRING
            }
          }
          attr {
            key: "_output_shapes"
            value {
              list {
                shape {
                }
              }
            }
          }
        }
        node_def {
          name: "StringJoin"
          op: "StringJoin"
          input: "file_prefix"
          input: "Select:output:0"
          device: "/device:CPU:*"
          attr {
            key: "N"
            value {
              i: 2
            }
          }
          attr {
            key: "_output_shapes"
            value {
              list {
                shape {
                }
              }
            }
          }
        }
        node_def {
          name: "num_shards"
          op: "Const"
          attr {
            key: "_output_shapes"
            value {
              list {
                shape {
                }
              }
            }
          }
          attr {
            key: "dtype"
            value {
              type: DT_INT32
            }
          }
          attr {
            key: "value"
            value {
              tensor {
                dtype: DT_INT32
                tensor_shape {
                }
                int_val: 1
              }
            }
          }
        }
        node_def {
          name: "ShardedFilename/shard"
          op: "Const"
          device: "/device:CPU:0"
          attr {
            key: "_output_shapes"
            value {
              list {
                shape {
                }
              }
            }
          }
          attr {
            key: "dtype"
            value {
              type: DT_INT32
            }
          }
          attr {
            key: "value"
            value {
              tensor {
                dtype: DT_INT32
                tensor_shape {
                }
                int_val: 0
              }
            }
          }
        }
        node_def {
          name: "ShardedFilename"
          op: "ShardedFilename"
          input: "StringJoin:output:0"
          input: "ShardedFilename/shard:output:0"
          input: "num_shards:output:0"
          device: "/device:CPU:0"
          attr {
            key: "_output_shapes"
            value {
              list {
                shape {
                }
              }
            }
          }
        }
        node_def {
          name: "SaveV2/tensor_names"
          op: "Const"
          device: "/device:CPU:0"
          attr {
            key: "_output_shapes"
            value {
              list {
                shape {
                  dim {
                    size: 1
                  }
                }
              }
            }
          }
          attr {
            key: "dtype"
            value {
              type: DT_STRING
            }
          }
          attr {
            key: "value"
            value {
              tensor {
                dtype: DT_STRING
                tensor_shape {
                  dim {
                    size: 1
                  }
                }
                string_val: "_CHECKPOINTABLE_OBJECT_GRAPH"
              }
            }
          }
        }
        node_def {
          name: "SaveV2/shape_and_slices"
          op: "Const"
          device: "/device:CPU:0"
          attr {
            key: "_output_shapes"
            value {
              list {
                shape {
                  dim {
                    size: 1
                  }
                }
              }
            }
          }
          attr {
            key: "dtype"
            value {
              type: DT_STRING
            }
          }
          attr {
            key: "value"
            value {
              tensor {
                dtype: DT_STRING
                tensor_shape {
                  dim {
                    size: 1
                  }
                }
                string_val: ""
              }
            }
          }
        }
        node_def {
          name: "SaveV2"
          op: "SaveV2"
          input: "ShardedFilename:filename:0"
          input: "SaveV2/tensor_names:output:0"
          input: "SaveV2/shape_and_slices:output:0"
          input: "savev2_const_1"
          device: "/device:CPU:0"
          attr {
            key: "_has_manual_control_dependencies"
            value {
              b: true
            }
          }
          attr {
            key: "_output_shapes"
            value {
              list {
              }
            }
          }
          attr {
            key: "dtypes"
            value {
              list {
                type: DT_STRING
              }
            }
          }
        }
        node_def {
          name: "MergeV2Checkpoints/checkpoint_prefixes"
          op: "Pack"
          input: "ShardedFilename:filename:0"
          input: "^SaveV2"
          device: "/device:CPU:0"
          attr {
            key: "N"
            value {
              i: 1
            }
          }
          attr {
            key: "T"
            value {
              type: DT_STRING
            }
          }
          attr {
            key: "_output_shapes"
            value {
              list {
                shape {
                  dim {
                    size: 1
                  }
                }
              }
            }
          }
        }
        node_def {
          name: "MergeV2Checkpoints"
          op: "MergeV2Checkpoints"
          input: "MergeV2Checkpoints/checkpoint_prefixes:output:0"
          input: "file_prefix"
          device: "/device:CPU:0"
          attr {
            key: "_has_manual_control_dependencies"
            value {
              b: true
            }
          }
          attr {
            key: "_output_shapes"
            value {
              list {
              }
            }
          }
        }
        node_def {
          name: "Identity"
          op: "Identity"
          input: "file_prefix"
          input: "^MergeV2Checkpoints"
          device: "/device:CPU:0"
          attr {
            key: "T"
            value {
              type: DT_STRING
            }
          }
          attr {
            key: "_output_shapes"
            value {
              list {
                shape {
                }
              }
            }
          }
        }
        node_def {
          name: "Identity_1"
          op: "Identity"
          input: "Identity:output:0"
          input: "^NoOp"
          attr {
            key: "T"
            value {
              type: DT_STRING
            }
          }
          attr {
            key: "_output_shapes"
            value {
              list {
                shape {
                }
              }
            }
          }
        }
        node_def {
          name: "NoOp"
          op: "NoOp"
          input: "^MergeV2Checkpoints"
          attr {
            key: "_output_shapes"
            value {
              list {
              }
            }
          }
        }
        ret {
          key: "identity_1"
          value: "Identity_1:output:0"
        }
        attr {
          key: "_construction_context"
          value {
            s: "kEagerRuntime"
          }
        }
        attr {
          key: "_input_shapes"
          value {
            list {
              shape {
              }
              shape {
              }
            }
          }
        }
        control_ret {
          key: "MergeV2Checkpoints"
          value: "MergeV2Checkpoints"
        }
        arg_attr {
          key: 0
          value {
            attr {
              key: "_output_shapes"
              value {
                list {
                  shape {
                  }
                }
              }
            }
            attr {
              key: "_user_specified_name"
              value {
                s: "file_prefix"
              }
            }
          }
        }
        arg_attr {
          key: 1
          value {
            attr {
              key: "_output_shapes"
              value {
                list {
                  shape {
                  }
                }
              }
            }
            attr {
              key: "_user_specified_name"
              value {
                s: "Const_1"
              }
            }
          }
        }
      }
      function {
        signature {
          name: "__inference_<lambda>_18"
          input_arg {
            name: "unknown"
            type: DT_DOUBLE
          }
          output_arg {
            name: "identity"
            type: DT_DOUBLE
          }
        }
        node_def {
          name: "Identity"
          op: "Identity"
          input: "unknown"
          attr {
            key: "T"
            value {
              type: DT_DOUBLE
            }
          }
          attr {
            key: "_output_shapes"
            value {
              list {
                shape {
                  dim {
                    size: 150
                  }
                  dim {
                    size: 150
                  }
                }
              }
            }
          }
        }
        ret {
          key: "identity"
          value: "Identity:output:0"
        }
        attr {
          key: "_construction_context"
          value {
            s: "kEagerRuntime"
          }
        }
        attr {
          key: "_input_shapes"
          value {
            list {
              shape {
                dim {
                  size: 150
                }
                dim {
                  size: 150
                }
              }
            }
          }
        }
        arg_attr {
          key: 0
          value {
            attr {
              key: "_output_shapes"
              value {
                list {
                  shape {
                    dim {
                      size: 150
                    }
                    dim {
                      size: 150
                    }
                  }
                }
              }
            }
            attr {
              key: "_user_specified_name"
              value {
                s: "15"
              }
            }
          }
        }
      }
      function {
        signature {
          name: "__inference__traced_restore_49"
          input_arg {
            name: "file_prefix"
            type: DT_STRING
          }
          output_arg {
            name: "identity_1"
            type: DT_STRING
          }
          is_stateful: true
        }
        node_def {
          name: "RestoreV2/tensor_names"
          op: "Const"
          device: "/device:CPU:0"
          attr {
            key: "_output_shapes"
            value {
              list {
                shape {
                  dim {
                    size: 1
                  }
                }
              }
            }
          }
          attr {
            key: "dtype"
            value {
              type: DT_STRING
            }
          }
          attr {
            key: "value"
            value {
              tensor {
                dtype: DT_STRING
                tensor_shape {
                  dim {
                    size: 1
                  }
                }
                string_val: "_CHECKPOINTABLE_OBJECT_GRAPH"
              }
            }
          }
        }
        node_def {
          name: "RestoreV2/shape_and_slices"
          op: "Const"
          device: "/device:CPU:0"
          attr {
            key: "_output_shapes"
            value {
              list {
                shape {
                  dim {
                    size: 1
                  }
                }
              }
            }
          }
          attr {
            key: "dtype"
            value {
              type: DT_STRING
            }
          }
          attr {
            key: "value"
            value {
              tensor {
                dtype: DT_STRING
                tensor_shape {
                  dim {
                    size: 1
                  }
                }
                string_val: ""
              }
            }
          }
        }
        node_def {
          name: "RestoreV2"
          op: "RestoreV2"
          input: "file_prefix"
          input: "RestoreV2/tensor_names:output:0"
          input: "RestoreV2/shape_and_slices:output:0"
          device: "/device:CPU:0"
          attr {
            key: "_output_shapes"
            value {
              list {
                shape {
                  unknown_rank: true
                }
              }
            }
          }
          attr {
            key: "dtypes"
            value {
              list {
                type: DT_STRING
              }
            }
          }
        }
        node_def {
          name: "NoOp"
          op: "NoOp"
          device: "/device:CPU:0"
          attr {
            key: "_has_manual_control_dependencies"
            value {
              b: true
            }
          }
          attr {
            key: "_output_shapes"
            value {
              list {
              }
            }
          }
        }
        node_def {
          name: "Identity"
          op: "Identity"
          input: "file_prefix"
          input: "^NoOp"
          device: "/device:CPU:0"
          attr {
            key: "T"
            value {
              type: DT_STRING
            }
          }
          attr {
            key: "_output_shapes"
            value {
              list {
                shape {
                }
              }
            }
          }
        }
        node_def {
          name: "Identity_1"
          op: "Identity"
          input: "Identity:output:0"
          attr {
            key: "T"
            value {
              type: DT_STRING
            }
          }
          attr {
            key: "_output_shapes"
            value {
              list {
                shape {
                }
              }
            }
          }
        }
        ret {
          key: "identity_1"
          value: "Identity_1:output:0"
        }
        attr {
          key: "_construction_context"
          value {
            s: "kEagerRuntime"
          }
        }
        attr {
          key: "_input_shapes"
          value {
            list {
              shape {
              }
            }
          }
        }
        arg_attr {
          key: 0
          value {
            attr {
              key: "_output_shapes"
              value {
                list {
                  shape {
                  }
                }
              }
            }
            attr {
              key: "_user_specified_name"
              value {
                s: "file_prefix"
              }
            }
          }
        }
      }
      function {
        signature {
          name: "__inference_<lambda>_6"
          input_arg {
            name: "unknown"
            type: DT_DOUBLE
          }
          output_arg {
            name: "identity"
            type: DT_DOUBLE
          }
        }
        node_def {
          name: "Identity"
          op: "Identity"
          input: "unknown"
          attr {
            key: "T"
            value {
              type: DT_DOUBLE
            }
          }
          attr {
            key: "_output_shapes"
            value {
              list {
                shape {
                  dim {
                    size: 150
                  }
                  dim {
                    size: 150
                  }
                }
              }
            }
          }
        }
        ret {
          key: "identity"
          value: "Identity:output:0"
        }
        attr {
          key: "_construction_context"
          value {
            s: "kEagerRuntime"
          }
        }
        attr {
          key: "_input_shapes"
          value {
            list {
              shape {
                dim {
                  size: 150
                }
                dim {
                  size: 150
                }
              }
            }
          }
        }
        arg_attr {
          key: 0
          value {
            attr {
              key: "_output_shapes"
              value {
                list {
                  shape {
                    dim {
                      size: 150
                    }
                    dim {
                      size: 150
                    }
                  }
                }
              }
            }
            attr {
              key: "_user_specified_name"
              value {
                s: "3"
              }
            }
          }
        }
      }
    }
    versions {
      producer: 1520
      min_consumer: 12
    }
  }
  saver_def {
    filename_tensor_name: "saver_filename:0"
    save_tensor_name: "StatefulPartitionedCall:0"
    restore_op_name: "StatefulPartitionedCall_1"
    version: V2
  }
  collection_def {
    key: "saved_model_main_op"
    value {
      node_list {
        value: "NoOp"
      }
    }
  }
  signature_def {
    key: "__saved_model_init_op"
    value {
      outputs {
        key: "__saved_model_init_op"
        value {
          name: "NoOp"
          tensor_shape {
            unknown_rank: true
          }
        }
      }
    }
  }
  signature_def {
    key: "serving_default"
    value {
      outputs {
        key: "output_0"
        value {
          name: "PartitionedCall:0"
          dtype: DT_DOUBLE
          tensor_shape {
            dim {
              size: 150
            }
            dim {
              size: 150
            }
          }
        }
      }
      method_name: "tensorflow/serving/predict"
    }
  }
  object_graph_def {
    nodes {
      children {
        node_id: 1
        local_name: "get_c"
      }
      children {
        node_id: 2
        local_name: "signatures"
      }
      user_object {
        identifier: "_generic_user_object"
        version {
          producer: 1
          min_consumer: 1
        }
      }
    }
    nodes {
      children {
        node_id: 3
        local_name: "trace_0"
      }
      function {
        concrete_functions: "__inference_<lambda>_18"
        function_spec {
          fullargspec {
            named_tuple_value {
              name: "FullArgSpec"
              values {
                key: "args"
                value {
                  list_value {
                  }
                }
              }
              values {
                key: "varargs"
                value {
                  none_value {
                  }
                }
              }
              values {
                key: "varkw"
                value {
                  none_value {
                  }
                }
              }
              values {
                key: "defaults"
                value {
                  none_value {
                  }
                }
              }
              values {
                key: "kwonlyargs"
                value {
                  list_value {
                  }
                }
              }
              values {
                key: "kwonlydefaults"
                value {
                  none_value {
                  }
                }
              }
              values {
                key: "annotations"
                value {
                  dict_value {
                  }
                }
              }
            }
          }
          input_signature {
            tuple_value {
            }
          }
        }
      }
      dependencies {
        node_id: 3
        local_name: "trace_0"
      }
    }
    nodes {
      children {
        node_id: 4
        local_name: "serving_default"
      }
      user_object {
        identifier: "signature_map"
        version {
          producer: 1
          min_consumer: 1
        }
      }
    }
    nodes {
      children {
        node_id: 5
        local_name: "capture_0"
      }
      bare_concrete_function {
        concrete_function_name: "__inference_<lambda>_18"
        function_spec {
          fullargspec {
            named_tuple_value {
              name: "FullArgSpec"
              values {
                key: "args"
                value {
                  list_value {
                  }
                }
              }
              values {
                key: "varargs"
                value {
                  none_value {
                  }
                }
              }
              values {
                key: "varkw"
                value {
                  none_value {
                  }
                }
              }
              values {
                key: "defaults"
                value {
                  none_value {
                  }
                }
              }
              values {
                key: "kwonlyargs"
                value {
                  list_value {
                  }
                }
              }
              values {
                key: "kwonlydefaults"
                value {
                  none_value {
                  }
                }
              }
              values {
                key: "annotations"
                value {
                  dict_value {
                  }
                }
              }
            }
          }
          input_signature {
            tuple_value {
            }
          }
        }
      }
      dependencies {
        node_id: 5
        local_name: "capture_0"
      }
    }
    nodes {
      children {
        node_id: 5
        local_name: "capture_0"
      }
      bare_concrete_function {
        concrete_function_name: "__inference_signature_wrapper_13"
        function_spec {
          fullargspec {
            named_tuple_value {
              name: "FullArgSpec"
              values {
                key: "args"
                value {
                  list_value {
                  }
                }
              }
              values {
                key: "varargs"
                value {
                  none_value {
                  }
                }
              }
              values {
                key: "varkw"
                value {
                  none_value {
                  }
                }
              }
              values {
                key: "defaults"
                value {
                  none_value {
                  }
                }
              }
              values {
                key: "kwonlyargs"
                value {
                  list_value {
                  }
                }
              }
              values {
                key: "kwonlydefaults"
                value {
                  none_value {
                  }
                }
              }
              values {
                key: "annotations"
                value {
                  dict_value {
                  }
                }
              }
            }
          }
          input_signature {
            tuple_value {
            }
          }
        }
      }
      dependencies {
        node_id: 5
        local_name: "capture_0"
      }
    }
    nodes {
      constant {
        operation: "Const"
      }
      registered_name: "tf.TrackableConstant"
    }
    concrete_functions {
      key: "__inference_<lambda>_18"
      value {
        bound_inputs: 5
        canonicalized_input_signature {
          tuple_value {
            values {
              tuple_value {
              }
            }
            values {
              dict_value {
              }
            }
          }
        }
        output_signature {
          tensor_spec_value {
            name: "unknown"
            shape {
              dim {
                size: 150
              }
              dim {
                size: 150
              }
            }
            dtype: DT_DOUBLE
          }
        }
      }
    }
    concrete_functions {
      key: "__inference_signature_wrapper_13"
      value {
        bound_inputs: 5
        canonicalized_input_signature {
          tuple_value {
            values {
              tuple_value {
              }
            }
            values {
              dict_value {
              }
            }
          }
        }
        output_signature {
          dict_value {
            fields {
              key: "output_0"
              value {
                tensor_spec_value {
                  name: "output_0"
                  shape {
                    dim {
                      size: 150
                    }
                    dim {
                      size: 150
                    }
                  }
                  dtype: DT_DOUBLE
                }
              }
            }
          }
        }
      }
    }
  }
}
