// RUN: fusion_to_mlir %s | FileCheck %s --check-prefix=CHECK-PARTITIONED-HLO
// RUN: fusion_to_mlir %s | emitters_opt -xla-gpu-test-optimize \
// RUN:   -xla-gpu-test-transform-loops | FileCheck %s

HloModule m

%fused_multiply {
  %constant_84353_39 = f32[] constant(-1.99999988)
  %broadcast.244407.384 = f32[1280,1280]{1,0} broadcast(%constant_84353_39), dimensions={}
  %constant_84358_39 = f32[] constant(-0.954499722)
  %broadcast.244408.1024 = f32[1280,1280]{1,0} broadcast(%constant_84358_39), dimensions={}
  %param_0.210024 = u64[1280]{0} parameter(0)
  %broadcast.244410.17671 = u64[1280,1280]{1,0} broadcast(%param_0.210024), dimensions={0}
  %iota.3149.17671 = u64[1280,1280]{1,0} iota(), iota_dimension=1
  %add.244064.17671 = u64[1280,1280]{1,0} add(%broadcast.244410.17671, %iota.3149.17671)
  %constant_39483_353 = u64[] constant(32)
  %broadcast.244411.4867 = u64[1280,1280]{1,0} broadcast(%constant_39483_353), dimensions={}
  %shift-right-logical.113832.4867 = u64[1280,1280]{1,0} shift-right-logical(%add.244064.17671, %broadcast.244411.4867)
  %convert.3610.4865 = u32[1280,1280]{1,0} convert(%shift-right-logical.113832.4867)
  %constant_158097_1 = u32[] constant(2326687384)
  %broadcast.244412.44 = u32[1280,1280]{1,0} broadcast(%constant_158097_1), dimensions={}
  %add.244065.37 = u32[1280,1280]{1,0} add(%convert.3610.4865, %broadcast.244412.44)
  %convert.3611.12801 = u32[1280,1280]{1,0} convert(%add.244064.17671)
  %constant_158104_1 = u32[] constant(3182756316)
  %broadcast.244413.113 = u32[1280,1280]{1,0} broadcast(%constant_158104_1), dimensions={}
  %add.244067.99 = u32[1280,1280]{1,0} add(%convert.3611.12801, %broadcast.244413.113)
  %add.244068.35 = u32[1280,1280]{1,0} add(%add.244065.37, %add.244067.99)
  %constant_39484_252 = u32[] constant(13)
  %broadcast.244414.6272 = u32[1280,1280]{1,0} broadcast(%constant_39484_252), dimensions={}
  %shift-left.107747.31 = u32[1280,1280]{1,0} shift-left(%add.244067.99, %broadcast.244414.6272)
  %constant_39485_252 = u32[] constant(19)
  %broadcast.244415.6016 = u32[1280,1280]{1,0} broadcast(%constant_39485_252), dimensions={}
  %shift-right-logical.113833.29 = u32[1280,1280]{1,0} shift-right-logical(%add.244067.99, %broadcast.244415.6016)
  %or.113347.29 = u32[1280,1280]{1,0} or(%shift-left.107747.31, %shift-right-logical.113833.29)
  %xor.119908.27 = u32[1280,1280]{1,0} xor(%add.244068.35, %or.113347.29)
  %add.244069.5 = u32[1280,1280]{1,0} add(%add.244068.35, %xor.119908.27)
  %constant_39486_382 = u32[] constant(15)
  %broadcast.244416.5760 = u32[1280,1280]{1,0} broadcast(%constant_39486_382), dimensions={}
  %shift-left.107748.9 = u32[1280,1280]{1,0} shift-left(%xor.119908.27, %broadcast.244416.5760)
  %constant_39487_382 = u32[] constant(17)
  %broadcast.244417.5760 = u32[1280,1280]{1,0} broadcast(%constant_39487_382), dimensions={}
  %shift-right-logical.113834.9 = u32[1280,1280]{1,0} shift-right-logical(%xor.119908.27, %broadcast.244417.5760)
  %or.113348.7 = u32[1280,1280]{1,0} or(%shift-left.107748.9, %shift-right-logical.113834.9)
  %xor.119909.5 = u32[1280,1280]{1,0} xor(%add.244069.5, %or.113348.7)
  %add.244070.3 = u32[1280,1280]{1,0} add(%add.244069.5, %xor.119909.5)
  %constant_39488_447 = u32[] constant(26)
  %broadcast.244418.4352 = u32[1280,1280]{1,0} broadcast(%constant_39488_447), dimensions={}
  %shift-left.107749.5 = u32[1280,1280]{1,0} shift-left(%xor.119909.5, %broadcast.244418.4352)
  %constant_39489_447 = u32[] constant(6)
  %broadcast.244419.4352 = u32[1280,1280]{1,0} broadcast(%constant_39489_447), dimensions={}
  %shift-right-logical.113835.5 = u32[1280,1280]{1,0} shift-right-logical(%xor.119909.5, %broadcast.244419.4352)
  %or.113349.3 = u32[1280,1280]{1,0} or(%shift-left.107749.5, %shift-right-logical.113835.5)
  %xor.119911.3 = u32[1280,1280]{1,0} xor(%add.244070.3, %or.113349.3)
  %add.244072.3 = u32[1280,1280]{1,0} add(%add.244070.3, %xor.119911.3)
  %add.244073.7 = u32[1280,1280]{1,0} add(%add.244072.3, %broadcast.244413.113)
  %shift-left.107751.5 = u32[1280,1280]{1,0} shift-left(%xor.119911.3, %broadcast.244419.4352)
  %shift-right-logical.113836.5 = u32[1280,1280]{1,0} shift-right-logical(%xor.119911.3, %broadcast.244418.4352)
  %or.113351.3 = u32[1280,1280]{1,0} or(%shift-left.107751.5, %shift-right-logical.113836.5)
  %xor.119912.3 = u32[1280,1280]{1,0} xor(%add.244072.3, %or.113351.3)
  %constant_217763_1 = u32[] constant(751465631)
  %broadcast.244425.5 = u32[1280,1280]{1,0} broadcast(%constant_217763_1), dimensions={}
  %add.244074.5 = u32[1280,1280]{1,0} add(%xor.119912.3, %broadcast.244425.5)
  %add.244075.5 = u32[1280,1280]{1,0} add(%add.244073.7, %add.244074.5)
  %shift-left.107752.9 = u32[1280,1280]{1,0} shift-left(%add.244074.5, %broadcast.244417.5760)
  %shift-right-logical.113838.9 = u32[1280,1280]{1,0} shift-right-logical(%add.244074.5, %broadcast.244416.5760)
  %or.113352.7 = u32[1280,1280]{1,0} or(%shift-left.107752.9, %shift-right-logical.113838.9)
  %xor.119913.5 = u32[1280,1280]{1,0} xor(%add.244075.5, %or.113352.7)
  %add.244077.3 = u32[1280,1280]{1,0} add(%add.244075.5, %xor.119913.5)
  %constant_39492_187 = u32[] constant(29)
  %broadcast.244428.2304 = u32[1280,1280]{1,0} broadcast(%constant_39492_187), dimensions={}
  %shift-left.107753.9 = u32[1280,1280]{1,0} shift-left(%xor.119913.5, %broadcast.244428.2304)
  %constant_39493_187 = u32[] constant(3)
  %broadcast.244429.2304 = u32[1280,1280]{1,0} broadcast(%constant_39493_187), dimensions={}
  %shift-right-logical.113839.9 = u32[1280,1280]{1,0} shift-right-logical(%xor.119913.5, %broadcast.244429.2304)
  %or.113353.7 = u32[1280,1280]{1,0} or(%shift-left.107753.9, %shift-right-logical.113839.9)
  %xor.119914.5 = u32[1280,1280]{1,0} xor(%add.244077.3, %or.113353.7)
  %add.244078.3 = u32[1280,1280]{1,0} add(%add.244077.3, %xor.119914.5)
  %constant_39494_317 = u32[] constant(16)
  %broadcast.244430.4608 = u32[1280,1280]{1,0} broadcast(%constant_39494_317), dimensions={}
  %shift-left.107754.9 = u32[1280,1280]{1,0} shift-left(%xor.119914.5, %broadcast.244430.4608)
  %shift-right-logical.113840.9 = u32[1280,1280]{1,0} shift-right-logical(%xor.119914.5, %broadcast.244430.4608)
  %or.113354.7 = u32[1280,1280]{1,0} or(%shift-left.107754.9, %shift-right-logical.113840.9)
  %xor.119916.5 = u32[1280,1280]{1,0} xor(%add.244078.3, %or.113354.7)
  %add.244079.3 = u32[1280,1280]{1,0} add(%add.244078.3, %xor.119916.5)
  %constant_158106_1 = u32[] constant(751465630)
  %broadcast.244432.24 = u32[1280,1280]{1,0} broadcast(%constant_158106_1), dimensions={}
  %add.244080.7 = u32[1280,1280]{1,0} add(%add.244079.3, %broadcast.244432.24)
  %constant_39495_187 = u32[] constant(24)
  %broadcast.244433.2816 = u32[1280,1280]{1,0} broadcast(%constant_39495_187), dimensions={}
  %shift-left.107755.11 = u32[1280,1280]{1,0} shift-left(%xor.119916.5, %broadcast.244433.2816)
  %constant_39496_187 = u32[] constant(8)
  %broadcast.244434.2816 = u32[1280,1280]{1,0} broadcast(%constant_39496_187), dimensions={}
  %shift-right-logical.113841.11 = u32[1280,1280]{1,0} shift-right-logical(%xor.119916.5, %broadcast.244434.2816)
  %or.113356.9 = u32[1280,1280]{1,0} or(%shift-left.107755.11, %shift-right-logical.113841.11)
  %xor.119917.7 = u32[1280,1280]{1,0} xor(%add.244079.3, %or.113356.9)
  %constant_217764_1 = u32[] constant(2326687386)
  %broadcast.244435.5 = u32[1280,1280]{1,0} broadcast(%constant_217764_1), dimensions={}
  %add.244081.5 = u32[1280,1280]{1,0} add(%xor.119917.7, %broadcast.244435.5)
  %add.244083.5 = u32[1280,1280]{1,0} add(%add.244080.7, %add.244081.5)
  %shift-left.107756.9 = u32[1280,1280]{1,0} shift-left(%add.244081.5, %broadcast.244414.6272)
  %shift-right-logical.113842.9 = u32[1280,1280]{1,0} shift-right-logical(%add.244081.5, %broadcast.244415.6016)
  %or.113357.7 = u32[1280,1280]{1,0} or(%shift-left.107756.9, %shift-right-logical.113842.9)
  %xor.119918.5 = u32[1280,1280]{1,0} xor(%add.244083.5, %or.113357.7)
  %add.244087.3 = u32[1280,1280]{1,0} add(%add.244083.5, %xor.119918.5)
  %shift-left.107757.9 = u32[1280,1280]{1,0} shift-left(%xor.119918.5, %broadcast.244416.5760)
  %shift-right-logical.113843.9 = u32[1280,1280]{1,0} shift-right-logical(%xor.119918.5, %broadcast.244417.5760)
  %or.113358.7 = u32[1280,1280]{1,0} or(%shift-left.107757.9, %shift-right-logical.113843.9)
  %xor.119919.5 = u32[1280,1280]{1,0} xor(%add.244087.3, %or.113358.7)
  %add.244088.3 = u32[1280,1280]{1,0} add(%add.244087.3, %xor.119919.5)
  %shift-left.107758.7 = u32[1280,1280]{1,0} shift-left(%xor.119919.5, %broadcast.244418.4352)
  %shift-right-logical.113844.7 = u32[1280,1280]{1,0} shift-right-logical(%xor.119919.5, %broadcast.244419.4352)
  %or.113359.5 = u32[1280,1280]{1,0} or(%shift-left.107758.7, %shift-right-logical.113844.7)
  %xor.119921.3 = u32[1280,1280]{1,0} xor(%add.244088.3, %or.113359.5)
  %add.244089.3 = u32[1280,1280]{1,0} add(%add.244088.3, %xor.119921.3)
  %add.244090.7 = u32[1280,1280]{1,0} add(%add.244089.3, %broadcast.244412.44)
  %shift-left.107759.7 = u32[1280,1280]{1,0} shift-left(%xor.119921.3, %broadcast.244419.4352)
  %shift-right-logical.113845.7 = u32[1280,1280]{1,0} shift-right-logical(%xor.119921.3, %broadcast.244418.4352)
  %or.113360.5 = u32[1280,1280]{1,0} or(%shift-left.107759.7, %shift-right-logical.113845.7)
  %xor.119922.3 = u32[1280,1280]{1,0} xor(%add.244089.3, %or.113360.5)
  %constant_217765_1 = u32[] constant(3182756319)
  %broadcast.244445.5 = u32[1280,1280]{1,0} broadcast(%constant_217765_1), dimensions={}
  %add.244092.5 = u32[1280,1280]{1,0} add(%xor.119922.3, %broadcast.244445.5)
  %add.244093.5 = u32[1280,1280]{1,0} add(%add.244090.7, %add.244092.5)
  %shift-left.107761.9 = u32[1280,1280]{1,0} shift-left(%add.244092.5, %broadcast.244417.5760)
  %shift-right-logical.113846.9 = u32[1280,1280]{1,0} shift-right-logical(%add.244092.5, %broadcast.244416.5760)
  %or.113361.7 = u32[1280,1280]{1,0} or(%shift-left.107761.9, %shift-right-logical.113846.9)
  %xor.119923.5 = u32[1280,1280]{1,0} xor(%add.244093.5, %or.113361.7)
  %add.244094.3 = u32[1280,1280]{1,0} add(%add.244093.5, %xor.119923.5)
  %shift-left.107762.9 = u32[1280,1280]{1,0} shift-left(%xor.119923.5, %broadcast.244428.2304)
  %shift-right-logical.113847.9 = u32[1280,1280]{1,0} shift-right-logical(%xor.119923.5, %broadcast.244429.2304)
  %or.113362.7 = u32[1280,1280]{1,0} or(%shift-left.107762.9, %shift-right-logical.113847.9)
  %xor.119924.5 = u32[1280,1280]{1,0} xor(%add.244094.3, %or.113362.7)
  %add.244095.3 = u32[1280,1280]{1,0} add(%add.244094.3, %xor.119924.5)
  %shift-left.107763.9 = u32[1280,1280]{1,0} shift-left(%xor.119924.5, %broadcast.244430.4608)
  %shift-right-logical.113848.9 = u32[1280,1280]{1,0} shift-right-logical(%xor.119924.5, %broadcast.244430.4608)
  %or.113363.7 = u32[1280,1280]{1,0} or(%shift-left.107763.9, %shift-right-logical.113848.9)
  %xor.119925.5 = u32[1280,1280]{1,0} xor(%add.244095.3, %or.113363.7)
  %add.244097.3 = u32[1280,1280]{1,0} add(%add.244095.3, %xor.119925.5)
  %add.244098.7 = u32[1280,1280]{1,0} add(%add.244097.3, %broadcast.244413.113)
  %shift-left.107764.11 = u32[1280,1280]{1,0} shift-left(%xor.119925.5, %broadcast.244433.2816)
  %shift-right-logical.113849.11 = u32[1280,1280]{1,0} shift-right-logical(%xor.119925.5, %broadcast.244434.2816)
  %or.113364.9 = u32[1280,1280]{1,0} or(%shift-left.107764.11, %shift-right-logical.113849.11)
  %xor.119926.7 = u32[1280,1280]{1,0} xor(%add.244097.3, %or.113364.9)
  %constant_217766_1 = u32[] constant(751465634)
  %broadcast.244457.5 = u32[1280,1280]{1,0} broadcast(%constant_217766_1), dimensions={}
  %add.244099.5 = u32[1280,1280]{1,0} add(%xor.119926.7, %broadcast.244457.5)
  %add.244100.5 = u32[1280,1280]{1,0} add(%add.244098.7, %add.244099.5)
  %shift-left.107766.9 = u32[1280,1280]{1,0} shift-left(%add.244099.5, %broadcast.244414.6272)
  %shift-right-logical.113850.9 = u32[1280,1280]{1,0} shift-right-logical(%add.244099.5, %broadcast.244415.6016)
  %or.113366.7 = u32[1280,1280]{1,0} or(%shift-left.107766.9, %shift-right-logical.113850.9)
  %xor.119927.5 = u32[1280,1280]{1,0} xor(%add.244100.5, %or.113366.7)
  %add.244102.3 = u32[1280,1280]{1,0} add(%add.244100.5, %xor.119927.5)
  %shift-left.107767.9 = u32[1280,1280]{1,0} shift-left(%xor.119927.5, %broadcast.244416.5760)
  %shift-right-logical.113851.9 = u32[1280,1280]{1,0} shift-right-logical(%xor.119927.5, %broadcast.244417.5760)
  %or.113367.7 = u32[1280,1280]{1,0} or(%shift-left.107767.9, %shift-right-logical.113851.9)
  %xor.119928.5 = u32[1280,1280]{1,0} xor(%add.244102.3, %or.113367.7)
  %add.244103.3 = u32[1280,1280]{1,0} add(%add.244102.3, %xor.119928.5)
  %shift-left.107768.5 = u32[1280,1280]{1,0} shift-left(%xor.119928.5, %broadcast.244418.4352)
  %shift-right-logical.113852.5 = u32[1280,1280]{1,0} shift-right-logical(%xor.119928.5, %broadcast.244419.4352)
  %or.113368.3 = u32[1280,1280]{1,0} or(%shift-left.107768.5, %shift-right-logical.113852.5)
  %xor.119929.3 = u32[1280,1280]{1,0} xor(%add.244103.3, %or.113368.3)
  %add.244104.3 = u32[1280,1280]{1,0} add(%add.244103.3, %xor.119929.3)
  %add.244105.17 = u32[1280,1280]{1,0} add(%add.244104.3, %broadcast.244432.24)
  %shift-left.107769.5 = u32[1280,1280]{1,0} shift-left(%xor.119929.3, %broadcast.244419.4352)
  %shift-right-logical.113853.5 = u32[1280,1280]{1,0} shift-right-logical(%xor.119929.3, %broadcast.244418.4352)
  %or.113369.3 = u32[1280,1280]{1,0} or(%shift-left.107769.5, %shift-right-logical.113853.5)
  %xor.119931.15 = u32[1280,1280]{1,0} xor(%add.244104.3, %or.113369.3)
  %constant_217767_1 = u32[] constant(2326687389)
  %broadcast.244467.19 = u32[1280,1280]{1,0} broadcast(%constant_217767_1), dimensions={}
  %add.244106.19 = u32[1280,1280]{1,0} add(%xor.119931.15, %broadcast.244467.19)
  %xor.119932.17 = u32[1280,1280]{1,0} xor(%add.244105.17, %add.244106.19)
  %constant_39500_122 = u32[] constant(9)
  %broadcast.244468.1920 = u32[1280,1280]{1,0} broadcast(%constant_39500_122), dimensions={}
  %shift-right-logical.113854.15 = u32[1280,1280]{1,0} shift-right-logical(%xor.119932.17, %broadcast.244468.1920)
  %constant_39501_122 = u32[] constant(1065353216)
  %broadcast.244469.1664 = u32[1280,1280]{1,0} broadcast(%constant_39501_122), dimensions={}
  %or.113371.13 = u32[1280,1280]{1,0} or(%shift-right-logical.113854.15, %broadcast.244469.1664)
  %bitcast-convert.5669.11 = f32[1280,1280]{1,0} bitcast-convert(%or.113371.13)
  %constant_84831_250 = f32[] constant(-1)
  %broadcast.244470.1152 = f32[1280,1280]{1,0} broadcast(%constant_84831_250), dimensions={}
  %add.244108.9 = f32[1280,1280]{1,0} add(%bitcast-convert.5669.11, %broadcast.244470.1152)
  %constant_84836_39 = f32[] constant(1.90899944)
  %broadcast.244471.896 = f32[1280,1280]{1,0} broadcast(%constant_84836_39), dimensions={}
  %multiply.25583.7 = f32[1280,1280]{1,0} multiply(%add.244108.9, %broadcast.244471.896)
  %add.244112.5 = f32[1280,1280]{1,0} add(%multiply.25583.7, %broadcast.244408.1024)
  %maximum.3601.3 = f32[1280,1280]{1,0} maximum(%broadcast.244408.1024, %add.244112.5)
  %abs.1483.3 = f32[1280,1280]{1,0} abs(%maximum.3601.3)
  %constant_23_60 = f32[] constant(1)
  %broadcast.244475.384 = f32[1280,1280]{1,0} broadcast(%constant_23_60), dimensions={}
  %compare.7114.3 = pred[1280,1280]{1,0} compare(%abs.1483.3, %broadcast.244475.384), direction=EQ
  %constant_39504_52 = f32[] constant(inf)
  %broadcast.244476.1152 = f32[1280,1280]{1,0} broadcast(%constant_39504_52), dimensions={}
  %multiply.25584.9 = f32[1280,1280]{1,0} multiply(%maximum.3601.3, %broadcast.244476.1152)
  %negate.4471.5 = f32[1280,1280]{1,0} negate(%maximum.3601.3)
  %multiply.25585.5 = f32[1280,1280]{1,0} multiply(%maximum.3601.3, %negate.4471.5)
  %log-plus-one.1483.3 = f32[1280,1280]{1,0} log-plus-one(%multiply.25585.5)
  %negate.4472.4 = f32[1280,1280]{1,0} negate(%log-plus-one.1483.3)
  %constant_39505_52 = f32[] constant(5)
  %broadcast.244477.384 = f32[1280,1280]{1,0} broadcast(%constant_39505_52), dimensions={}
  %compare.7115.3 = pred[1280,1280]{1,0} compare(%negate.4472.4, %broadcast.244477.384), direction=LT
  %constant_39506_52 = f32[] constant(1.50140941)
  %broadcast.244478.896 = f32[1280,1280]{1,0} broadcast(%constant_39506_52), dimensions={}
  %constant_39507_52 = f32[] constant(2.83297682)
  %broadcast.244479.896 = f32[1280,1280]{1,0} broadcast(%constant_39507_52), dimensions={}
  %select.20357.7 = f32[1280,1280]{1,0} select(%compare.7115.3, %broadcast.244478.896, %broadcast.244479.896)
  %constant_39508_52 = f32[] constant(0.246640727)
  %broadcast.244480.1408 = f32[1280,1280]{1,0} broadcast(%constant_39508_52), dimensions={}
  %constant_39509_52 = f32[] constant(1.00167406)
  %broadcast.244481.1408 = f32[1280,1280]{1,0} broadcast(%constant_39509_52), dimensions={}
  %select.20358.11 = f32[1280,1280]{1,0} select(%compare.7115.3, %broadcast.244480.1408, %broadcast.244481.1408)
  %constant_39510_52 = f32[] constant(-0.00417768164)
  %broadcast.244482.640 = f32[1280,1280]{1,0} broadcast(%constant_39510_52), dimensions={}
  %constant_39511_52 = f32[] constant(0.00943887047)
  %broadcast.244483.640 = f32[1280,1280]{1,0} broadcast(%constant_39511_52), dimensions={}
  %select.20359.5 = f32[1280,1280]{1,0} select(%compare.7115.3, %broadcast.244482.640, %broadcast.244483.640)
  %constant_39512_52 = f32[] constant(-0.00125372503)
  %broadcast.244484.640 = f32[1280,1280]{1,0} broadcast(%constant_39512_52), dimensions={}
  %constant_39513_52 = f32[] constant(-0.0076224613)
  %broadcast.244485.640 = f32[1280,1280]{1,0} broadcast(%constant_39513_52), dimensions={}
  %select.20360.5 = f32[1280,1280]{1,0} select(%compare.7115.3, %broadcast.244484.640, %broadcast.244485.640)
  %constant_39514_52 = f32[] constant(0.00021858087)
  %broadcast.244486.384 = f32[1280,1280]{1,0} broadcast(%constant_39514_52), dimensions={}
  %constant_39515_52 = f32[] constant(0.00573950773)
  %broadcast.244487.384 = f32[1280,1280]{1,0} broadcast(%constant_39515_52), dimensions={}
  %select.20361.3 = f32[1280,1280]{1,0} select(%compare.7115.3, %broadcast.244486.384, %broadcast.244487.384)
  %constant_39516_52 = f32[] constant(-4.39150654e-06)
  %broadcast.244488.384 = f32[1280,1280]{1,0} broadcast(%constant_39516_52), dimensions={}
  %constant_39517_52 = f32[] constant(-0.00367342844)
  %broadcast.244489.384 = f32[1280,1280]{1,0} broadcast(%constant_39517_52), dimensions={}
  %select.20362.3 = f32[1280,1280]{1,0} select(%compare.7115.3, %broadcast.244488.384, %broadcast.244489.384)
  %constant_39518_52 = f32[] constant(-3.5233877e-06)
  %broadcast.244490.384 = f32[1280,1280]{1,0} broadcast(%constant_39518_52), dimensions={}
  %constant_39519_52 = f32[] constant(0.00134934322)
  %broadcast.244491.384 = f32[1280,1280]{1,0} broadcast(%constant_39519_52), dimensions={}
  %select.20363.3 = f32[1280,1280]{1,0} select(%compare.7115.3, %broadcast.244490.384, %broadcast.244491.384)
  %constant_39520_52 = f32[] constant(3.43273939e-07)
  %broadcast.244492.384 = f32[1280,1280]{1,0} broadcast(%constant_39520_52), dimensions={}
  %constant_39521_52 = f32[] constant(0.000100950558)
  %broadcast.244493.384 = f32[1280,1280]{1,0} broadcast(%constant_39521_52), dimensions={}
  %select.20364.3 = f32[1280,1280]{1,0} select(%compare.7115.3, %broadcast.244492.384, %broadcast.244493.384)
  %constant_39522_52 = f32[] constant(2.81022636e-08)
  %broadcast.244494.384 = f32[1280,1280]{1,0} broadcast(%constant_39522_52), dimensions={}
  %constant_39523_52 = f32[] constant(-0.000200214257)
  %broadcast.244495.384 = f32[1280,1280]{1,0} broadcast(%constant_39523_52), dimensions={}
  %select.20365.3 = f32[1280,1280]{1,0} select(%compare.7115.3, %broadcast.244494.384, %broadcast.244495.384)
  %constant_84838_52 = f32[] constant(-2.5)
  %broadcast.244496.640 = f32[1280,1280]{1,0} broadcast(%constant_84838_52), dimensions={}
  %add.244113.5 = f32[1280,1280]{1,0} add(%negate.4472.4, %broadcast.244496.640)
  %sqrt.1483.5 = f32[1280,1280]{1,0} sqrt(%negate.4472.4)
  %constant_84839_52 = f32[] constant(-3)
  %broadcast.244498.640 = f32[1280,1280]{1,0} broadcast(%constant_84839_52), dimensions={}
  %add.244114.5 = f32[1280,1280]{1,0} add(%sqrt.1483.5, %broadcast.244498.640)
  %select.20366.3 = f32[1280,1280]{1,0} select(%compare.7115.3, %add.244113.5, %add.244114.5)
  %multiply.25586.1 = f32[1280,1280]{1,0} multiply(%select.20365.3, %select.20366.3)
  %add.244115.1 = f32[1280,1280]{1,0} add(%select.20364.3, %multiply.25586.1)
  %multiply.25587.1 = f32[1280,1280]{1,0} multiply(%add.244115.1, %select.20366.3)
  %add.244117.1 = f32[1280,1280]{1,0} add(%select.20363.3, %multiply.25587.1)
  %multiply.25588.1 = f32[1280,1280]{1,0} multiply(%add.244117.1, %select.20366.3)
  %add.244118.1 = f32[1280,1280]{1,0} add(%select.20362.3, %multiply.25588.1)
  %multiply.25589.1 = f32[1280,1280]{1,0} multiply(%add.244118.1, %select.20366.3)
  %add.244119.1 = f32[1280,1280]{1,0} add(%select.20361.3, %multiply.25589.1)
  %multiply.25590.1 = f32[1280,1280]{1,0} multiply(%add.244119.1, %select.20366.3)
  %add.244120.3 = f32[1280,1280]{1,0} add(%select.20360.5, %multiply.25590.1)
  %multiply.25591.1 = f32[1280,1280]{1,0} multiply(%add.244120.3, %select.20366.3)
  %add.244122.3 = f32[1280,1280]{1,0} add(%select.20359.5, %multiply.25591.1)
  %multiply.25592.7 = f32[1280,1280]{1,0} multiply(%add.244122.3, %select.20366.3)
  %add.244123.9 = f32[1280,1280]{1,0} add(%select.20358.11, %multiply.25592.7)
  %multiply.25593.7 = f32[1280,1280]{1,0} multiply(%add.244123.9, %select.20366.3)
  %add.244124.7 = f32[1280,1280]{1,0} add(%select.20357.7, %multiply.25593.7)
  %multiply.25594.7 = f32[1280,1280]{1,0} multiply(%add.244124.7, %maximum.3601.3)
  %select.20367.7 = f32[1280,1280]{1,0} select(%compare.7114.3, %multiply.25584.9, %multiply.25594.7)
  %constant_39526_43 = f32[] constant(1.41421354)
  %broadcast.244500.640 = f32[1280,1280]{1,0} broadcast(%constant_39526_43), dimensions={}
  %multiply.25595.5 = f32[1280,1280]{1,0} multiply(%select.20367.7, %broadcast.244500.640)
  %constant_84330_39 = f32[] constant(1.99999988)
  %broadcast.244501.384 = f32[1280,1280]{1,0} broadcast(%constant_84330_39), dimensions={}
  %clamp.1127.3 = f32[1280,1280]{1,0} clamp(%broadcast.244407.384, %multiply.25595.5, %broadcast.244501.384)
  %constant_106_2 = f32[] constant(0.0317758434)
  %broadcast.244502.1 = f32[1280,1280]{1,0} broadcast(%constant_106_2), dimensions={}
  %multiply.25596.1 = f32[1280,1280]{1,0} multiply(%clamp.1127.3, %broadcast.244502.1)
  %constant_158523_1_clone_1 = u32[] constant(2951773949)
  %broadcast.244607.44.clone.1 = u32[1280,1280]{1,0} broadcast(%constant_158523_1_clone_1), dimensions={}
  %add.244174.37.clone.1 = u32[1280,1280]{1,0} add(%convert.3610.4865, %broadcast.244607.44.clone.1)
  %constant_158531_1_clone_1 = u32[] constant(1662691728)
  %broadcast.244608.113.clone.1 = u32[1280,1280]{1,0} broadcast(%constant_158531_1_clone_1), dimensions={}
  %add.244175.99.clone.1 = u32[1280,1280]{1,0} add(%convert.3611.12801, %broadcast.244608.113.clone.1)
  %add.244176.35.clone.1 = u32[1280,1280]{1,0} add(%add.244174.37.clone.1, %add.244175.99.clone.1)
  %shift-left.107794.31.clone.1 = u32[1280,1280]{1,0} shift-left(%add.244175.99.clone.1, %broadcast.244414.6272)
  %shift-right-logical.113876.29.clone.1 = u32[1280,1280]{1,0} shift-right-logical(%add.244175.99.clone.1, %broadcast.244415.6016)
  %or.113397.29.clone.1 = u32[1280,1280]{1,0} or(%shift-left.107794.31.clone.1, %shift-right-logical.113876.29.clone.1)
  %xor.119958.27.clone.1 = u32[1280,1280]{1,0} xor(%add.244176.35.clone.1, %or.113397.29.clone.1)
  %add.244177.5.clone.1 = u32[1280,1280]{1,0} add(%add.244176.35.clone.1, %xor.119958.27.clone.1)
  %shift-left.107796.9.clone.1 = u32[1280,1280]{1,0} shift-left(%xor.119958.27.clone.1, %broadcast.244416.5760)
  %shift-right-logical.113877.9.clone.1 = u32[1280,1280]{1,0} shift-right-logical(%xor.119958.27.clone.1, %broadcast.244417.5760)
  %or.113398.7.clone.1 = u32[1280,1280]{1,0} or(%shift-left.107796.9.clone.1, %shift-right-logical.113877.9.clone.1)
  %xor.119959.5.clone.1 = u32[1280,1280]{1,0} xor(%add.244177.5.clone.1, %or.113398.7.clone.1)
  %add.244178.3.clone.1 = u32[1280,1280]{1,0} add(%add.244177.5.clone.1, %xor.119959.5.clone.1)
  %shift-left.107797.5.clone.1 = u32[1280,1280]{1,0} shift-left(%xor.119959.5.clone.1, %broadcast.244418.4352)
  %shift-right-logical.113878.5.clone.1 = u32[1280,1280]{1,0} shift-right-logical(%xor.119959.5.clone.1, %broadcast.244419.4352)
  %or.113399.3.clone.1 = u32[1280,1280]{1,0} or(%shift-left.107797.5.clone.1, %shift-right-logical.113878.5.clone.1)
  %xor.119961.3.clone.1 = u32[1280,1280]{1,0} xor(%add.244178.3.clone.1, %or.113399.3.clone.1)
  %add.244179.3.clone.1 = u32[1280,1280]{1,0} add(%add.244178.3.clone.1, %xor.119961.3.clone.1)
  %add.244180.7.clone.1 = u32[1280,1280]{1,0} add(%add.244179.3.clone.1, %broadcast.244608.113.clone.1)
  %shift-left.107798.5.clone.1 = u32[1280,1280]{1,0} shift-left(%xor.119961.3.clone.1, %broadcast.244419.4352)
  %shift-right-logical.113879.5.clone.1 = u32[1280,1280]{1,0} shift-right-logical(%xor.119961.3.clone.1, %broadcast.244418.4352)
  %or.113401.3.clone.1 = u32[1280,1280]{1,0} or(%shift-left.107798.5.clone.1, %shift-right-logical.113879.5.clone.1)
  %xor.119962.3.clone.1 = u32[1280,1280]{1,0} xor(%add.244179.3.clone.1, %or.113401.3.clone.1)
  %constant_217773_1_clone_1 = u32[] constant(3611020472)
  %broadcast.244618.5.clone.1 = u32[1280,1280]{1,0} broadcast(%constant_217773_1_clone_1), dimensions={}
  %add.244181.5.clone.1 = u32[1280,1280]{1,0} add(%xor.119962.3.clone.1, %broadcast.244618.5.clone.1)
  %add.244182.5.clone.1 = u32[1280,1280]{1,0} add(%add.244180.7.clone.1, %add.244181.5.clone.1)
  %shift-left.107799.9.clone.1 = u32[1280,1280]{1,0} shift-left(%add.244181.5.clone.1, %broadcast.244417.5760)
  %shift-right-logical.113880.9.clone.1 = u32[1280,1280]{1,0} shift-right-logical(%add.244181.5.clone.1, %broadcast.244416.5760)
  %or.113402.7.clone.1 = u32[1280,1280]{1,0} or(%shift-left.107799.9.clone.1, %shift-right-logical.113880.9.clone.1)
  %xor.119963.5.clone.1 = u32[1280,1280]{1,0} xor(%add.244182.5.clone.1, %or.113402.7.clone.1)
  %add.244184.3.clone.1 = u32[1280,1280]{1,0} add(%add.244182.5.clone.1, %xor.119963.5.clone.1)
  %shift-left.107801.9.clone.1 = u32[1280,1280]{1,0} shift-left(%xor.119963.5.clone.1, %broadcast.244428.2304)
  %shift-right-logical.113881.9.clone.1 = u32[1280,1280]{1,0} shift-right-logical(%xor.119963.5.clone.1, %broadcast.244429.2304)
  %or.113403.7.clone.1 = u32[1280,1280]{1,0} or(%shift-left.107801.9.clone.1, %shift-right-logical.113881.9.clone.1)
  %xor.119964.5.clone.1 = u32[1280,1280]{1,0} xor(%add.244184.3.clone.1, %or.113403.7.clone.1)
  %add.244185.3.clone.1 = u32[1280,1280]{1,0} add(%add.244184.3.clone.1, %xor.119964.5.clone.1)
  %shift-left.107802.9.clone.1 = u32[1280,1280]{1,0} shift-left(%xor.119964.5.clone.1, %broadcast.244430.4608)
  %shift-right-logical.113882.9.clone.1 = u32[1280,1280]{1,0} shift-right-logical(%xor.119964.5.clone.1, %broadcast.244430.4608)
  %or.113404.7.clone.1 = u32[1280,1280]{1,0} or(%shift-left.107802.9.clone.1, %shift-right-logical.113882.9.clone.1)
  %xor.119966.5.clone.1 = u32[1280,1280]{1,0} xor(%add.244185.3.clone.1, %or.113404.7.clone.1)
  %add.244186.3.clone.1 = u32[1280,1280]{1,0} add(%add.244185.3.clone.1, %xor.119966.5.clone.1)
  %constant_158541_1_clone_1 = u32[] constant(3611020471)
  %broadcast.244625.24.clone.1 = u32[1280,1280]{1,0} broadcast(%constant_158541_1_clone_1), dimensions={}
  %add.244187.7.clone.1 = u32[1280,1280]{1,0} add(%add.244186.3.clone.1, %broadcast.244625.24.clone.1)
  %shift-left.107803.11.clone.1 = u32[1280,1280]{1,0} shift-left(%xor.119966.5.clone.1, %broadcast.244433.2816)
  %shift-right-logical.113883.11.clone.1 = u32[1280,1280]{1,0} shift-right-logical(%xor.119966.5.clone.1, %broadcast.244434.2816)
  %or.113406.9.clone.1 = u32[1280,1280]{1,0} or(%shift-left.107803.11.clone.1, %shift-right-logical.113883.11.clone.1)
  %xor.119967.7.clone.1 = u32[1280,1280]{1,0} xor(%add.244186.3.clone.1, %or.113406.9.clone.1)
  %constant_217774_1_clone_1 = u32[] constant(2951773951)
  %broadcast.244628.5.clone.1 = u32[1280,1280]{1,0} broadcast(%constant_217774_1_clone_1), dimensions={}
  %add.244188.5.clone.1 = u32[1280,1280]{1,0} add(%xor.119967.7.clone.1, %broadcast.244628.5.clone.1)
  %add.244189.5.clone.1 = u32[1280,1280]{1,0} add(%add.244187.7.clone.1, %add.244188.5.clone.1)
  %shift-left.107804.9.clone.1 = u32[1280,1280]{1,0} shift-left(%add.244188.5.clone.1, %broadcast.244414.6272)
  %shift-right-logical.113884.9.clone.1 = u32[1280,1280]{1,0} shift-right-logical(%add.244188.5.clone.1, %broadcast.244415.6016)
  %or.113407.7.clone.1 = u32[1280,1280]{1,0} or(%shift-left.107804.9.clone.1, %shift-right-logical.113884.9.clone.1)
  %xor.119968.5.clone.1 = u32[1280,1280]{1,0} xor(%add.244189.5.clone.1, %or.113407.7.clone.1)
  %add.244190.3.clone.1 = u32[1280,1280]{1,0} add(%add.244189.5.clone.1, %xor.119968.5.clone.1)
  %shift-left.107805.9.clone.1 = u32[1280,1280]{1,0} shift-left(%xor.119968.5.clone.1, %broadcast.244416.5760)
  %shift-right-logical.113886.9.clone.1 = u32[1280,1280]{1,0} shift-right-logical(%xor.119968.5.clone.1, %broadcast.244417.5760)
  %or.113408.7.clone.1 = u32[1280,1280]{1,0} or(%shift-left.107805.9.clone.1, %shift-right-logical.113886.9.clone.1)
  %xor.119969.5.clone.1 = u32[1280,1280]{1,0} xor(%add.244190.3.clone.1, %or.113408.7.clone.1)
  %add.244191.3.clone.1 = u32[1280,1280]{1,0} add(%add.244190.3.clone.1, %xor.119969.5.clone.1)
  %shift-left.107806.7.clone.1 = u32[1280,1280]{1,0} shift-left(%xor.119969.5.clone.1, %broadcast.244418.4352)
  %shift-right-logical.113887.7.clone.1 = u32[1280,1280]{1,0} shift-right-logical(%xor.119969.5.clone.1, %broadcast.244419.4352)
  %or.113409.5.clone.1 = u32[1280,1280]{1,0} or(%shift-left.107806.7.clone.1, %shift-right-logical.113887.7.clone.1)
  %xor.119971.3.clone.1 = u32[1280,1280]{1,0} xor(%add.244191.3.clone.1, %or.113409.5.clone.1)
  %add.244192.3.clone.1 = u32[1280,1280]{1,0} add(%add.244191.3.clone.1, %xor.119971.3.clone.1)
  %add.244193.7.clone.1 = u32[1280,1280]{1,0} add(%add.244192.3.clone.1, %broadcast.244607.44.clone.1)
  %shift-left.107807.7.clone.1 = u32[1280,1280]{1,0} shift-left(%xor.119971.3.clone.1, %broadcast.244419.4352)
  %shift-right-logical.113888.7.clone.1 = u32[1280,1280]{1,0} shift-right-logical(%xor.119971.3.clone.1, %broadcast.244418.4352)
  %or.113410.5.clone.1 = u32[1280,1280]{1,0} or(%shift-left.107807.7.clone.1, %shift-right-logical.113888.7.clone.1)
  %xor.119972.3.clone.1 = u32[1280,1280]{1,0} xor(%add.244192.3.clone.1, %or.113410.5.clone.1)
  %constant_217775_1_clone_1 = u32[] constant(1662691731)
  %broadcast.244638.5.clone.1 = u32[1280,1280]{1,0} broadcast(%constant_217775_1_clone_1), dimensions={}
  %add.244194.5.clone.1 = u32[1280,1280]{1,0} add(%xor.119972.3.clone.1, %broadcast.244638.5.clone.1)
  %add.244195.5.clone.1 = u32[1280,1280]{1,0} add(%add.244193.7.clone.1, %add.244194.5.clone.1)
  %shift-left.107808.9.clone.1 = u32[1280,1280]{1,0} shift-left(%add.244194.5.clone.1, %broadcast.244417.5760)
  %shift-right-logical.113889.9.clone.1 = u32[1280,1280]{1,0} shift-right-logical(%add.244194.5.clone.1, %broadcast.244416.5760)
  %or.113411.7.clone.1 = u32[1280,1280]{1,0} or(%shift-left.107808.9.clone.1, %shift-right-logical.113889.9.clone.1)
  %xor.119973.5.clone.1 = u32[1280,1280]{1,0} xor(%add.244195.5.clone.1, %or.113411.7.clone.1)
  %add.244196.3.clone.1 = u32[1280,1280]{1,0} add(%add.244195.5.clone.1, %xor.119973.5.clone.1)
  %shift-left.107809.9.clone.1 = u32[1280,1280]{1,0} shift-left(%xor.119973.5.clone.1, %broadcast.244428.2304)
  %shift-right-logical.113891.9.clone.1 = u32[1280,1280]{1,0} shift-right-logical(%xor.119973.5.clone.1, %broadcast.244429.2304)
  %or.113412.7.clone.1 = u32[1280,1280]{1,0} or(%shift-left.107809.9.clone.1, %shift-right-logical.113891.9.clone.1)
  %xor.119974.5.clone.1 = u32[1280,1280]{1,0} xor(%add.244196.3.clone.1, %or.113412.7.clone.1)
  %add.244197.3.clone.1 = u32[1280,1280]{1,0} add(%add.244196.3.clone.1, %xor.119974.5.clone.1)
  %shift-left.107811.9.clone.1 = u32[1280,1280]{1,0} shift-left(%xor.119974.5.clone.1, %broadcast.244430.4608)
  %shift-right-logical.113892.9.clone.1 = u32[1280,1280]{1,0} shift-right-logical(%xor.119974.5.clone.1, %broadcast.244430.4608)
  %or.113413.7.clone.1 = u32[1280,1280]{1,0} or(%shift-left.107811.9.clone.1, %shift-right-logical.113892.9.clone.1)
  %xor.119975.5.clone.1 = u32[1280,1280]{1,0} xor(%add.244197.3.clone.1, %or.113413.7.clone.1)
  %add.244198.3.clone.1 = u32[1280,1280]{1,0} add(%add.244197.3.clone.1, %xor.119975.5.clone.1)
  %add.244199.7.clone.1 = u32[1280,1280]{1,0} add(%add.244198.3.clone.1, %broadcast.244608.113.clone.1)
  %shift-left.107812.11.clone.1 = u32[1280,1280]{1,0} shift-left(%xor.119975.5.clone.1, %broadcast.244433.2816)
  %shift-right-logical.113893.11.clone.1 = u32[1280,1280]{1,0} shift-right-logical(%xor.119975.5.clone.1, %broadcast.244434.2816)
  %or.113414.9.clone.1 = u32[1280,1280]{1,0} or(%shift-left.107812.11.clone.1, %shift-right-logical.113893.11.clone.1)
  %xor.119976.7.clone.1 = u32[1280,1280]{1,0} xor(%add.244198.3.clone.1, %or.113414.9.clone.1)
  %constant_217776_1_clone_1 = u32[] constant(3611020475)
  %broadcast.244648.5.clone.1 = u32[1280,1280]{1,0} broadcast(%constant_217776_1_clone_1), dimensions={}
  %add.244200.5.clone.1 = u32[1280,1280]{1,0} add(%xor.119976.7.clone.1, %broadcast.244648.5.clone.1)
  %add.244201.5.clone.1 = u32[1280,1280]{1,0} add(%add.244199.7.clone.1, %add.244200.5.clone.1)
  %shift-left.107813.9.clone.1 = u32[1280,1280]{1,0} shift-left(%add.244200.5.clone.1, %broadcast.244414.6272)
  %shift-right-logical.113894.9.clone.1 = u32[1280,1280]{1,0} shift-right-logical(%add.244200.5.clone.1, %broadcast.244415.6016)
  %or.113415.7.clone.1 = u32[1280,1280]{1,0} or(%shift-left.107813.9.clone.1, %shift-right-logical.113894.9.clone.1)
  %xor.119977.5.clone.1 = u32[1280,1280]{1,0} xor(%add.244201.5.clone.1, %or.113415.7.clone.1)
  %add.244202.3.clone.1 = u32[1280,1280]{1,0} add(%add.244201.5.clone.1, %xor.119977.5.clone.1)
  %shift-left.107814.9.clone.1 = u32[1280,1280]{1,0} shift-left(%xor.119977.5.clone.1, %broadcast.244416.5760)
  %shift-right-logical.113896.9.clone.1 = u32[1280,1280]{1,0} shift-right-logical(%xor.119977.5.clone.1, %broadcast.244417.5760)
  %or.113416.7.clone.1 = u32[1280,1280]{1,0} or(%shift-left.107814.9.clone.1, %shift-right-logical.113896.9.clone.1)
  %xor.119978.5.clone.1 = u32[1280,1280]{1,0} xor(%add.244202.3.clone.1, %or.113416.7.clone.1)
  %add.244203.3.clone.1 = u32[1280,1280]{1,0} add(%add.244202.3.clone.1, %xor.119978.5.clone.1)
  %shift-left.107816.5.clone.1 = u32[1280,1280]{1,0} shift-left(%xor.119978.5.clone.1, %broadcast.244418.4352)
  %shift-right-logical.113897.5.clone.1 = u32[1280,1280]{1,0} shift-right-logical(%xor.119978.5.clone.1, %broadcast.244419.4352)
  %or.113417.3.clone.1 = u32[1280,1280]{1,0} or(%shift-left.107816.5.clone.1, %shift-right-logical.113897.5.clone.1)
  %xor.119979.3.clone.1 = u32[1280,1280]{1,0} xor(%add.244203.3.clone.1, %or.113417.3.clone.1)
  %add.244204.3.clone.1 = u32[1280,1280]{1,0} add(%add.244203.3.clone.1, %xor.119979.3.clone.1)
  %add.244205.17.clone.1 = u32[1280,1280]{1,0} add(%add.244204.3.clone.1, %broadcast.244625.24.clone.1)
  %shift-left.107817.5.clone.1 = u32[1280,1280]{1,0} shift-left(%xor.119979.3.clone.1, %broadcast.244419.4352)
  %shift-right-logical.113898.5.clone.1 = u32[1280,1280]{1,0} shift-right-logical(%xor.119979.3.clone.1, %broadcast.244418.4352)
  %or.113418.3.clone.1 = u32[1280,1280]{1,0} or(%shift-left.107817.5.clone.1, %shift-right-logical.113898.5.clone.1)
  %xor.119980.15.clone.1 = u32[1280,1280]{1,0} xor(%add.244204.3.clone.1, %or.113418.3.clone.1)
  %constant_217777_1_clone_1 = u32[] constant(2951773954)
  %broadcast.244658.19.clone.1 = u32[1280,1280]{1,0} broadcast(%constant_217777_1_clone_1), dimensions={}
  %add.244206.19.clone.1 = u32[1280,1280]{1,0} add(%xor.119980.15.clone.1, %broadcast.244658.19.clone.1)
  %xor.119981.17.clone.1 = u32[1280,1280]{1,0} xor(%add.244205.17.clone.1, %add.244206.19.clone.1)
  %shift-right-logical.113899.15.clone.1 = u32[1280,1280]{1,0} shift-right-logical(%xor.119981.17.clone.1, %broadcast.244468.1920)
  %or.113419.13.clone.1 = u32[1280,1280]{1,0} or(%shift-right-logical.113899.15.clone.1, %broadcast.244469.1664)
  %bitcast-convert.5671.11.clone.1 = f32[1280,1280]{1,0} bitcast-convert(%or.113419.13.clone.1)
  %add.244207.9.clone.1 = f32[1280,1280]{1,0} add(%bitcast-convert.5671.11.clone.1, %broadcast.244470.1152)
  %multiply.25611.7.clone.1 = f32[1280,1280]{1,0} multiply(%add.244207.9.clone.1, %broadcast.244471.896)
  %add.244208.5.clone.1 = f32[1280,1280]{1,0} add(%multiply.25611.7.clone.1, %broadcast.244408.1024)
  %maximum.3603.3.clone.1 = f32[1280,1280]{1,0} maximum(%broadcast.244408.1024, %add.244208.5.clone.1)
  %abs.1485.3.clone.1 = f32[1280,1280]{1,0} abs(%maximum.3603.3.clone.1)
  %compare.7118.3.clone.1 = pred[1280,1280]{1,0} compare(%abs.1485.3.clone.1, %broadcast.244475.384), direction=EQ
  %multiply.25612.9.clone.1 = f32[1280,1280]{1,0} multiply(%maximum.3603.3.clone.1, %broadcast.244476.1152)
  %negate.4475.5.clone.1 = f32[1280,1280]{1,0} negate(%maximum.3603.3.clone.1)
  %multiply.25613.5.clone.1 = f32[1280,1280]{1,0} multiply(%maximum.3603.3.clone.1, %negate.4475.5.clone.1)
  %log-plus-one.1485.3.clone.1 = f32[1280,1280]{1,0} log-plus-one(%multiply.25613.5.clone.1)
  %negate.4476.4.clone.1 = f32[1280,1280]{1,0} negate(%log-plus-one.1485.3.clone.1)
  %compare.7119.3.clone.1 = pred[1280,1280]{1,0} compare(%negate.4476.4.clone.1, %broadcast.244477.384), direction=LT
  %select.20379.7.clone.1 = f32[1280,1280]{1,0} select(%compare.7119.3.clone.1, %broadcast.244478.896, %broadcast.244479.896)
  %select.20380.11.clone.1 = f32[1280,1280]{1,0} select(%compare.7119.3.clone.1, %broadcast.244480.1408, %broadcast.244481.1408)
  %select.20381.5.clone.1 = f32[1280,1280]{1,0} select(%compare.7119.3.clone.1, %broadcast.244482.640, %broadcast.244483.640)
  %select.20382.5.clone.1 = f32[1280,1280]{1,0} select(%compare.7119.3.clone.1, %broadcast.244484.640, %broadcast.244485.640)
  %select.20383.3.clone.1 = f32[1280,1280]{1,0} select(%compare.7119.3.clone.1, %broadcast.244486.384, %broadcast.244487.384)
  %select.20384.3.clone.1 = f32[1280,1280]{1,0} select(%compare.7119.3.clone.1, %broadcast.244488.384, %broadcast.244489.384)
  %select.20385.3.clone.1 = f32[1280,1280]{1,0} select(%compare.7119.3.clone.1, %broadcast.244490.384, %broadcast.244491.384)
  %select.20386.3.clone.1 = f32[1280,1280]{1,0} select(%compare.7119.3.clone.1, %broadcast.244492.384, %broadcast.244493.384)
  %select.20387.3.clone.1 = f32[1280,1280]{1,0} select(%compare.7119.3.clone.1, %broadcast.244494.384, %broadcast.244495.384)
  %add.244209.5.clone.1 = f32[1280,1280]{1,0} add(%negate.4476.4.clone.1, %broadcast.244496.640)
  %sqrt.1485.5.clone.1 = f32[1280,1280]{1,0} sqrt(%negate.4476.4.clone.1)
  %add.244210.5.clone.1 = f32[1280,1280]{1,0} add(%sqrt.1485.5.clone.1, %broadcast.244498.640)
  %select.20388.3.clone.1 = f32[1280,1280]{1,0} select(%compare.7119.3.clone.1, %add.244209.5.clone.1, %add.244210.5.clone.1)
  %multiply.25614.1.clone.1 = f32[1280,1280]{1,0} multiply(%select.20387.3.clone.1, %select.20388.3.clone.1)
  %add.244211.1.clone.1 = f32[1280,1280]{1,0} add(%select.20386.3.clone.1, %multiply.25614.1.clone.1)
  %multiply.25615.1.clone.1 = f32[1280,1280]{1,0} multiply(%add.244211.1.clone.1, %select.20388.3.clone.1)
  %add.244212.1.clone.1 = f32[1280,1280]{1,0} add(%select.20385.3.clone.1, %multiply.25615.1.clone.1)
  %multiply.25616.1.clone.1 = f32[1280,1280]{1,0} multiply(%add.244212.1.clone.1, %select.20388.3.clone.1)
  %add.244213.1.clone.1 = f32[1280,1280]{1,0} add(%select.20384.3.clone.1, %multiply.25616.1.clone.1)
  %multiply.25617.1.clone.1 = f32[1280,1280]{1,0} multiply(%add.244213.1.clone.1, %select.20388.3.clone.1)
  %add.244214.1.clone.1 = f32[1280,1280]{1,0} add(%select.20383.3.clone.1, %multiply.25617.1.clone.1)
  %multiply.25618.1.clone.1 = f32[1280,1280]{1,0} multiply(%add.244214.1.clone.1, %select.20388.3.clone.1)
  %add.244216.3.clone.1 = f32[1280,1280]{1,0} add(%select.20382.5.clone.1, %multiply.25618.1.clone.1)
  %multiply.25619.1.clone.1 = f32[1280,1280]{1,0} multiply(%add.244216.3.clone.1, %select.20388.3.clone.1)
  %add.244219.3.clone.1 = f32[1280,1280]{1,0} add(%select.20381.5.clone.1, %multiply.25619.1.clone.1)
  %multiply.25620.7.clone.1 = f32[1280,1280]{1,0} multiply(%add.244219.3.clone.1, %select.20388.3.clone.1)
  %add.244220.9.clone.1 = f32[1280,1280]{1,0} add(%select.20380.11.clone.1, %multiply.25620.7.clone.1)
  %multiply.25621.7.clone.1 = f32[1280,1280]{1,0} multiply(%add.244220.9.clone.1, %select.20388.3.clone.1)
  %add.244221.7.clone.1 = f32[1280,1280]{1,0} add(%select.20379.7.clone.1, %multiply.25621.7.clone.1)
  %multiply.25622.7.clone.1 = f32[1280,1280]{1,0} multiply(%add.244221.7.clone.1, %maximum.3603.3.clone.1)
  %select.20389.7.clone.1 = f32[1280,1280]{1,0} select(%compare.7118.3.clone.1, %multiply.25612.9.clone.1, %multiply.25622.7.clone.1)
  %multiply.25623.5.clone.1 = f32[1280,1280]{1,0} multiply(%select.20389.7.clone.1, %broadcast.244500.640)
  %clamp.1129.3.clone.1 = f32[1280,1280]{1,0} clamp(%broadcast.244407.384, %multiply.25623.5.clone.1, %broadcast.244501.384)
  %multiply.25624.1.clone.1 = f32[1280,1280]{1,0} multiply(%clamp.1129.3.clone.1, %broadcast.244502.1)
  %constant_177603_1_clone_1 = u32[] constant(3731615297)
  %broadcast.252810.44.clone.1 = u32[1280,1280]{1,0} broadcast(%constant_177603_1_clone_1), dimensions={}
  %add.248884.37.clone.1 = u32[1280,1280]{1,0} add(%convert.3610.4865, %broadcast.252810.44.clone.1)
  %constant_177614_1_clone_1 = u32[] constant(961749960)
  %broadcast.252811.113.clone.1 = u32[1280,1280]{1,0} broadcast(%constant_177614_1_clone_1), dimensions={}
  %add.248886.99.clone.1 = u32[1280,1280]{1,0} add(%convert.3611.12801, %broadcast.252811.113.clone.1)
  %add.248887.35.clone.1 = u32[1280,1280]{1,0} add(%add.248884.37.clone.1, %add.248886.99.clone.1)
  %shift-left.109834.31.clone.1 = u32[1280,1280]{1,0} shift-left(%add.248886.99.clone.1, %broadcast.244414.6272)
  %shift-right-logical.116024.29.clone.1 = u32[1280,1280]{1,0} shift-right-logical(%add.248886.99.clone.1, %broadcast.244415.6016)
  %or.115553.29.clone.1 = u32[1280,1280]{1,0} or(%shift-left.109834.31.clone.1, %shift-right-logical.116024.29.clone.1)
  %xor.122103.27.clone.1 = u32[1280,1280]{1,0} xor(%add.248887.35.clone.1, %or.115553.29.clone.1)
  %add.248888.5.clone.1 = u32[1280,1280]{1,0} add(%add.248887.35.clone.1, %xor.122103.27.clone.1)
  %shift-left.109835.9.clone.1 = u32[1280,1280]{1,0} shift-left(%xor.122103.27.clone.1, %broadcast.244416.5760)
  %shift-right-logical.116025.9.clone.1 = u32[1280,1280]{1,0} shift-right-logical(%xor.122103.27.clone.1, %broadcast.244417.5760)
  %or.115555.7.clone.1 = u32[1280,1280]{1,0} or(%shift-left.109835.9.clone.1, %shift-right-logical.116025.9.clone.1)
  %xor.122104.5.clone.1 = u32[1280,1280]{1,0} xor(%add.248888.5.clone.1, %or.115555.7.clone.1)
  %add.248889.3.clone.1 = u32[1280,1280]{1,0} add(%add.248888.5.clone.1, %xor.122104.5.clone.1)
  %shift-left.109836.5.clone.1 = u32[1280,1280]{1,0} shift-left(%xor.122104.5.clone.1, %broadcast.244418.4352)
  %shift-right-logical.116026.5.clone.1 = u32[1280,1280]{1,0} shift-right-logical(%xor.122104.5.clone.1, %broadcast.244419.4352)
  %or.115556.3.clone.1 = u32[1280,1280]{1,0} or(%shift-left.109836.5.clone.1, %shift-right-logical.116026.5.clone.1)
  %xor.122105.3.clone.1 = u32[1280,1280]{1,0} xor(%add.248889.3.clone.1, %or.115556.3.clone.1)
  %add.248891.3.clone.1 = u32[1280,1280]{1,0} add(%add.248889.3.clone.1, %xor.122105.3.clone.1)
  %add.248892.7.clone.1 = u32[1280,1280]{1,0} add(%add.248891.3.clone.1, %broadcast.252811.113.clone.1)
  %shift-left.109837.5.clone.1 = u32[1280,1280]{1,0} shift-left(%xor.122105.3.clone.1, %broadcast.244419.4352)
  %shift-right-logical.116027.5.clone.1 = u32[1280,1280]{1,0} shift-right-logical(%xor.122105.3.clone.1, %broadcast.244418.4352)
  %or.115557.3.clone.1 = u32[1280,1280]{1,0} or(%shift-left.109837.5.clone.1, %shift-right-logical.116027.5.clone.1)
  %xor.122106.3.clone.1 = u32[1280,1280]{1,0} xor(%add.248891.3.clone.1, %or.115557.3.clone.1)
  %constant_218297_1_clone_1 = u32[] constant(4243183188)
  %broadcast.252821.5.clone.1 = u32[1280,1280]{1,0} broadcast(%constant_218297_1_clone_1), dimensions={}
  %add.248893.5.clone.1 = u32[1280,1280]{1,0} add(%xor.122106.3.clone.1, %broadcast.252821.5.clone.1)
  %add.248894.5.clone.1 = u32[1280,1280]{1,0} add(%add.248892.7.clone.1, %add.248893.5.clone.1)
  %shift-left.109839.9.clone.1 = u32[1280,1280]{1,0} shift-left(%add.248893.5.clone.1, %broadcast.244417.5760)
  %shift-right-logical.116028.9.clone.1 = u32[1280,1280]{1,0} shift-right-logical(%add.248893.5.clone.1, %broadcast.244416.5760)
  %or.115558.7.clone.1 = u32[1280,1280]{1,0} or(%shift-left.109839.9.clone.1, %shift-right-logical.116028.9.clone.1)
  %xor.122107.5.clone.1 = u32[1280,1280]{1,0} xor(%add.248894.5.clone.1, %or.115558.7.clone.1)
  %add.248895.3.clone.1 = u32[1280,1280]{1,0} add(%add.248894.5.clone.1, %xor.122107.5.clone.1)
  %shift-left.109840.9.clone.1 = u32[1280,1280]{1,0} shift-left(%xor.122107.5.clone.1, %broadcast.244428.2304)
  %shift-right-logical.116029.9.clone.1 = u32[1280,1280]{1,0} shift-right-logical(%xor.122107.5.clone.1, %broadcast.244429.2304)
  %or.115559.7.clone.1 = u32[1280,1280]{1,0} or(%shift-left.109840.9.clone.1, %shift-right-logical.116029.9.clone.1)
  %xor.122108.5.clone.1 = u32[1280,1280]{1,0} xor(%add.248895.3.clone.1, %or.115559.7.clone.1)
  %add.248897.3.clone.1 = u32[1280,1280]{1,0} add(%add.248895.3.clone.1, %xor.122108.5.clone.1)
  %shift-left.109841.9.clone.1 = u32[1280,1280]{1,0} shift-left(%xor.122108.5.clone.1, %broadcast.244430.4608)
  %shift-right-logical.116030.9.clone.1 = u32[1280,1280]{1,0} shift-right-logical(%xor.122108.5.clone.1, %broadcast.244430.4608)
  %or.115560.7.clone.1 = u32[1280,1280]{1,0} or(%shift-left.109841.9.clone.1, %shift-right-logical.116030.9.clone.1)
  %xor.122110.5.clone.1 = u32[1280,1280]{1,0} xor(%add.248897.3.clone.1, %or.115560.7.clone.1)
  %add.248901.3.clone.1 = u32[1280,1280]{1,0} add(%add.248897.3.clone.1, %xor.122110.5.clone.1)
  %constant_177616_1_clone_1 = u32[] constant(4243183187)
  %broadcast.252828.24.clone.1 = u32[1280,1280]{1,0} broadcast(%constant_177616_1_clone_1), dimensions={}
  %add.248902.7.clone.1 = u32[1280,1280]{1,0} add(%add.248901.3.clone.1, %broadcast.252828.24.clone.1)
  %shift-left.109842.11.clone.1 = u32[1280,1280]{1,0} shift-left(%xor.122110.5.clone.1, %broadcast.244433.2816)
  %shift-right-logical.116031.11.clone.1 = u32[1280,1280]{1,0} shift-right-logical(%xor.122110.5.clone.1, %broadcast.244434.2816)
  %or.115561.9.clone.1 = u32[1280,1280]{1,0} or(%shift-left.109842.11.clone.1, %shift-right-logical.116031.11.clone.1)
  %xor.122111.7.clone.1 = u32[1280,1280]{1,0} xor(%add.248901.3.clone.1, %or.115561.9.clone.1)
  %constant_218298_1_clone_1 = u32[] constant(3731615299)
  %broadcast.252831.5.clone.1 = u32[1280,1280]{1,0} broadcast(%constant_218298_1_clone_1), dimensions={}
  %add.248903.5.clone.1 = u32[1280,1280]{1,0} add(%xor.122111.7.clone.1, %broadcast.252831.5.clone.1)
  %add.248904.5.clone.1 = u32[1280,1280]{1,0} add(%add.248902.7.clone.1, %add.248903.5.clone.1)
  %shift-left.109844.9.clone.1 = u32[1280,1280]{1,0} shift-left(%add.248903.5.clone.1, %broadcast.244414.6272)
  %shift-right-logical.116032.9.clone.1 = u32[1280,1280]{1,0} shift-right-logical(%add.248903.5.clone.1, %broadcast.244415.6016)
  %or.115562.7.clone.1 = u32[1280,1280]{1,0} or(%shift-left.109844.9.clone.1, %shift-right-logical.116032.9.clone.1)
  %xor.122112.5.clone.1 = u32[1280,1280]{1,0} xor(%add.248904.5.clone.1, %or.115562.7.clone.1)
  %add.248906.3.clone.1 = u32[1280,1280]{1,0} add(%add.248904.5.clone.1, %xor.122112.5.clone.1)
  %shift-left.109845.9.clone.1 = u32[1280,1280]{1,0} shift-left(%xor.122112.5.clone.1, %broadcast.244416.5760)
  %shift-right-logical.116033.9.clone.1 = u32[1280,1280]{1,0} shift-right-logical(%xor.122112.5.clone.1, %broadcast.244417.5760)
  %or.115563.7.clone.1 = u32[1280,1280]{1,0} or(%shift-left.109845.9.clone.1, %shift-right-logical.116033.9.clone.1)
  %xor.122113.5.clone.1 = u32[1280,1280]{1,0} xor(%add.248906.3.clone.1, %or.115563.7.clone.1)
  %add.248907.3.clone.1 = u32[1280,1280]{1,0} add(%add.248906.3.clone.1, %xor.122113.5.clone.1)
  %shift-left.109846.7.clone.1 = u32[1280,1280]{1,0} shift-left(%xor.122113.5.clone.1, %broadcast.244418.4352)
  %shift-right-logical.116034.7.clone.1 = u32[1280,1280]{1,0} shift-right-logical(%xor.122113.5.clone.1, %broadcast.244419.4352)
  %or.115565.5.clone.1 = u32[1280,1280]{1,0} or(%shift-left.109846.7.clone.1, %shift-right-logical.116034.7.clone.1)
  %xor.122115.3.clone.1 = u32[1280,1280]{1,0} xor(%add.248907.3.clone.1, %or.115565.5.clone.1)
  %add.248908.3.clone.1 = u32[1280,1280]{1,0} add(%add.248907.3.clone.1, %xor.122115.3.clone.1)
  %add.248909.7.clone.1 = u32[1280,1280]{1,0} add(%add.248908.3.clone.1, %broadcast.252810.44.clone.1)
  %shift-left.109847.7.clone.1 = u32[1280,1280]{1,0} shift-left(%xor.122115.3.clone.1, %broadcast.244419.4352)
  %shift-right-logical.116035.7.clone.1 = u32[1280,1280]{1,0} shift-right-logical(%xor.122115.3.clone.1, %broadcast.244418.4352)
  %or.115566.5.clone.1 = u32[1280,1280]{1,0} or(%shift-left.109847.7.clone.1, %shift-right-logical.116035.7.clone.1)
  %xor.122116.3.clone.1 = u32[1280,1280]{1,0} xor(%add.248908.3.clone.1, %or.115566.5.clone.1)
  %constant_218299_1_clone_1 = u32[] constant(961749963)
  %broadcast.252841.5.clone.1 = u32[1280,1280]{1,0} broadcast(%constant_218299_1_clone_1), dimensions={}
  %add.248911.5.clone.1 = u32[1280,1280]{1,0} add(%xor.122116.3.clone.1, %broadcast.252841.5.clone.1)
  %add.248912.5.clone.1 = u32[1280,1280]{1,0} add(%add.248909.7.clone.1, %add.248911.5.clone.1)
  %shift-left.109848.9.clone.1 = u32[1280,1280]{1,0} shift-left(%add.248911.5.clone.1, %broadcast.244417.5760)
  %shift-right-logical.116036.9.clone.1 = u32[1280,1280]{1,0} shift-right-logical(%add.248911.5.clone.1, %broadcast.244416.5760)
  %or.115567.7.clone.1 = u32[1280,1280]{1,0} or(%shift-left.109848.9.clone.1, %shift-right-logical.116036.9.clone.1)
  %xor.122117.5.clone.1 = u32[1280,1280]{1,0} xor(%add.248912.5.clone.1, %or.115567.7.clone.1)
  %add.248913.3.clone.1 = u32[1280,1280]{1,0} add(%add.248912.5.clone.1, %xor.122117.5.clone.1)
  %shift-left.109849.9.clone.1 = u32[1280,1280]{1,0} shift-left(%xor.122117.5.clone.1, %broadcast.244428.2304)
  %shift-right-logical.116037.9.clone.1 = u32[1280,1280]{1,0} shift-right-logical(%xor.122117.5.clone.1, %broadcast.244429.2304)
  %or.115568.7.clone.1 = u32[1280,1280]{1,0} or(%shift-left.109849.9.clone.1, %shift-right-logical.116037.9.clone.1)
  %xor.122118.5.clone.1 = u32[1280,1280]{1,0} xor(%add.248913.3.clone.1, %or.115568.7.clone.1)
  %add.248914.3.clone.1 = u32[1280,1280]{1,0} add(%add.248913.3.clone.1, %xor.122118.5.clone.1)
  %shift-left.109850.9.clone.1 = u32[1280,1280]{1,0} shift-left(%xor.122118.5.clone.1, %broadcast.244430.4608)
  %shift-right-logical.116038.9.clone.1 = u32[1280,1280]{1,0} shift-right-logical(%xor.122118.5.clone.1, %broadcast.244430.4608)
  %or.115570.7.clone.1 = u32[1280,1280]{1,0} or(%shift-left.109850.9.clone.1, %shift-right-logical.116038.9.clone.1)
  %xor.122120.5.clone.1 = u32[1280,1280]{1,0} xor(%add.248914.3.clone.1, %or.115570.7.clone.1)
  %add.248916.3.clone.1 = u32[1280,1280]{1,0} add(%add.248914.3.clone.1, %xor.122120.5.clone.1)
  %add.248917.7.clone.1 = u32[1280,1280]{1,0} add(%add.248916.3.clone.1, %broadcast.252811.113.clone.1)
  %shift-left.109851.11.clone.1 = u32[1280,1280]{1,0} shift-left(%xor.122120.5.clone.1, %broadcast.244433.2816)
  %shift-right-logical.116039.11.clone.1 = u32[1280,1280]{1,0} shift-right-logical(%xor.122120.5.clone.1, %broadcast.244434.2816)
  %or.115571.9.clone.1 = u32[1280,1280]{1,0} or(%shift-left.109851.11.clone.1, %shift-right-logical.116039.11.clone.1)
  %xor.122121.7.clone.1 = u32[1280,1280]{1,0} xor(%add.248916.3.clone.1, %or.115571.9.clone.1)
  %constant_218300_1_clone_1 = u32[] constant(4243183191)
  %broadcast.252851.5.clone.1 = u32[1280,1280]{1,0} broadcast(%constant_218300_1_clone_1), dimensions={}
  %add.248918.5.clone.1 = u32[1280,1280]{1,0} add(%xor.122121.7.clone.1, %broadcast.252851.5.clone.1)
  %add.248919.5.clone.1 = u32[1280,1280]{1,0} add(%add.248917.7.clone.1, %add.248918.5.clone.1)
  %shift-left.109852.9.clone.1 = u32[1280,1280]{1,0} shift-left(%add.248918.5.clone.1, %broadcast.244414.6272)
  %shift-right-logical.116040.9.clone.1 = u32[1280,1280]{1,0} shift-right-logical(%add.248918.5.clone.1, %broadcast.244415.6016)
  %or.115572.7.clone.1 = u32[1280,1280]{1,0} or(%shift-left.109852.9.clone.1, %shift-right-logical.116040.9.clone.1)
  %xor.122122.5.clone.1 = u32[1280,1280]{1,0} xor(%add.248919.5.clone.1, %or.115572.7.clone.1)
  %add.248920.3.clone.1 = u32[1280,1280]{1,0} add(%add.248919.5.clone.1, %xor.122122.5.clone.1)
  %shift-left.109854.9.clone.1 = u32[1280,1280]{1,0} shift-left(%xor.122122.5.clone.1, %broadcast.244416.5760)
  %shift-right-logical.116041.9.clone.1 = u32[1280,1280]{1,0} shift-right-logical(%xor.122122.5.clone.1, %broadcast.244417.5760)
  %or.115573.7.clone.1 = u32[1280,1280]{1,0} or(%shift-left.109854.9.clone.1, %shift-right-logical.116041.9.clone.1)
  %xor.122123.5.clone.1 = u32[1280,1280]{1,0} xor(%add.248920.3.clone.1, %or.115573.7.clone.1)
  %add.248922.3.clone.1 = u32[1280,1280]{1,0} add(%add.248920.3.clone.1, %xor.122123.5.clone.1)
  %shift-left.109855.5.clone.1 = u32[1280,1280]{1,0} shift-left(%xor.122123.5.clone.1, %broadcast.244418.4352)
  %shift-right-logical.116042.5.clone.1 = u32[1280,1280]{1,0} shift-right-logical(%xor.122123.5.clone.1, %broadcast.244419.4352)
  %or.115575.3.clone.1 = u32[1280,1280]{1,0} or(%shift-left.109855.5.clone.1, %shift-right-logical.116042.5.clone.1)
  %xor.122125.3.clone.1 = u32[1280,1280]{1,0} xor(%add.248922.3.clone.1, %or.115575.3.clone.1)
  %add.248926.3.clone.1 = u32[1280,1280]{1,0} add(%add.248922.3.clone.1, %xor.122125.3.clone.1)
  %add.248927.17.clone.1 = u32[1280,1280]{1,0} add(%add.248926.3.clone.1, %broadcast.252828.24.clone.1)
  %shift-left.109856.5.clone.1 = u32[1280,1280]{1,0} shift-left(%xor.122125.3.clone.1, %broadcast.244419.4352)
  %shift-right-logical.116043.5.clone.1 = u32[1280,1280]{1,0} shift-right-logical(%xor.122125.3.clone.1, %broadcast.244418.4352)
  %or.115576.3.clone.1 = u32[1280,1280]{1,0} or(%shift-left.109856.5.clone.1, %shift-right-logical.116043.5.clone.1)
  %xor.122126.15.clone.1 = u32[1280,1280]{1,0} xor(%add.248926.3.clone.1, %or.115576.3.clone.1)
  %constant_218301_1_clone_1 = u32[] constant(3731615302)
  %broadcast.252861.19.clone.1 = u32[1280,1280]{1,0} broadcast(%constant_218301_1_clone_1), dimensions={}
  %add.248928.19.clone.1 = u32[1280,1280]{1,0} add(%xor.122126.15.clone.1, %broadcast.252861.19.clone.1)
  %xor.122127.17.clone.1 = u32[1280,1280]{1,0} xor(%add.248927.17.clone.1, %add.248928.19.clone.1)
  %shift-right-logical.116044.15.clone.1 = u32[1280,1280]{1,0} shift-right-logical(%xor.122127.17.clone.1, %broadcast.244468.1920)
  %or.115577.13.clone.1 = u32[1280,1280]{1,0} or(%shift-right-logical.116044.15.clone.1, %broadcast.244469.1664)
  %bitcast-convert.5765.11.clone.1 = f32[1280,1280]{1,0} bitcast-convert(%or.115577.13.clone.1)
  %add.248929.9.clone.1 = f32[1280,1280]{1,0} add(%bitcast-convert.5765.11.clone.1, %broadcast.244470.1152)
  %multiply.26575.7.clone.1 = f32[1280,1280]{1,0} multiply(%add.248929.9.clone.1, %broadcast.244471.896)
  %add.248931.5.clone.1 = f32[1280,1280]{1,0} add(%multiply.26575.7.clone.1, %broadcast.244408.1024)
  %maximum.3697.3.clone.1 = f32[1280,1280]{1,0} maximum(%broadcast.244408.1024, %add.248931.5.clone.1)
  %abs.1547.3.clone.1 = f32[1280,1280]{1,0} abs(%maximum.3697.3.clone.1)
  %compare.7242.3.clone.1 = pred[1280,1280]{1,0} compare(%abs.1547.3.clone.1, %broadcast.244475.384), direction=EQ
  %multiply.26576.9.clone.1 = f32[1280,1280]{1,0} multiply(%maximum.3697.3.clone.1, %broadcast.244476.1152)
  %negate.4599.5.clone.1 = f32[1280,1280]{1,0} negate(%maximum.3697.3.clone.1)
  %multiply.26577.5.clone.1 = f32[1280,1280]{1,0} multiply(%maximum.3697.3.clone.1, %negate.4599.5.clone.1)
  %log-plus-one.1547.3.clone.1 = f32[1280,1280]{1,0} log-plus-one(%multiply.26577.5.clone.1)
  %negate.4600.4.clone.1 = f32[1280,1280]{1,0} negate(%log-plus-one.1547.3.clone.1)
  %compare.7243.3.clone.1 = pred[1280,1280]{1,0} compare(%negate.4600.4.clone.1, %broadcast.244477.384), direction=LT
  %select.21103.7.clone.1 = f32[1280,1280]{1,0} select(%compare.7243.3.clone.1, %broadcast.244478.896, %broadcast.244479.896)
  %select.21104.11.clone.1 = f32[1280,1280]{1,0} select(%compare.7243.3.clone.1, %broadcast.244480.1408, %broadcast.244481.1408)
  %select.21105.5.clone.1 = f32[1280,1280]{1,0} select(%compare.7243.3.clone.1, %broadcast.244482.640, %broadcast.244483.640)
  %select.21106.5.clone.1 = f32[1280,1280]{1,0} select(%compare.7243.3.clone.1, %broadcast.244484.640, %broadcast.244485.640)
  %select.21107.3.clone.1 = f32[1280,1280]{1,0} select(%compare.7243.3.clone.1, %broadcast.244486.384, %broadcast.244487.384)
  %select.21108.3.clone.1 = f32[1280,1280]{1,0} select(%compare.7243.3.clone.1, %broadcast.244488.384, %broadcast.244489.384)
  %select.21109.3.clone.1 = f32[1280,1280]{1,0} select(%compare.7243.3.clone.1, %broadcast.244490.384, %broadcast.244491.384)
  %select.21110.3.clone.1 = f32[1280,1280]{1,0} select(%compare.7243.3.clone.1, %broadcast.244492.384, %broadcast.244493.384)
  %select.21111.3.clone.1 = f32[1280,1280]{1,0} select(%compare.7243.3.clone.1, %broadcast.244494.384, %broadcast.244495.384)
  %add.248932.5.clone.1 = f32[1280,1280]{1,0} add(%negate.4600.4.clone.1, %broadcast.244496.640)
  %sqrt.1547.5.clone.1 = f32[1280,1280]{1,0} sqrt(%negate.4600.4.clone.1)
  %add.248933.5.clone.1 = f32[1280,1280]{1,0} add(%sqrt.1547.5.clone.1, %broadcast.244498.640)
  %select.21112.3.clone.1 = f32[1280,1280]{1,0} select(%compare.7243.3.clone.1, %add.248932.5.clone.1, %add.248933.5.clone.1)
  %multiply.26578.1.clone.1 = f32[1280,1280]{1,0} multiply(%select.21111.3.clone.1, %select.21112.3.clone.1)
  %add.248934.1.clone.1 = f32[1280,1280]{1,0} add(%select.21110.3.clone.1, %multiply.26578.1.clone.1)
  %multiply.26579.1.clone.1 = f32[1280,1280]{1,0} multiply(%add.248934.1.clone.1, %select.21112.3.clone.1)
  %add.248936.1.clone.1 = f32[1280,1280]{1,0} add(%select.21109.3.clone.1, %multiply.26579.1.clone.1)
  %multiply.26580.1.clone.1 = f32[1280,1280]{1,0} multiply(%add.248936.1.clone.1, %select.21112.3.clone.1)
  %add.248937.1.clone.1 = f32[1280,1280]{1,0} add(%select.21108.3.clone.1, %multiply.26580.1.clone.1)
  %multiply.26581.1.clone.1 = f32[1280,1280]{1,0} multiply(%add.248937.1.clone.1, %select.21112.3.clone.1)
  %add.248938.1.clone.1 = f32[1280,1280]{1,0} add(%select.21107.3.clone.1, %multiply.26581.1.clone.1)
  %multiply.26582.1.clone.1 = f32[1280,1280]{1,0} multiply(%add.248938.1.clone.1, %select.21112.3.clone.1)
  %add.248939.3.clone.1 = f32[1280,1280]{1,0} add(%select.21106.5.clone.1, %multiply.26582.1.clone.1)
  %multiply.26583.1.clone.1 = f32[1280,1280]{1,0} multiply(%add.248939.3.clone.1, %select.21112.3.clone.1)
  %add.248941.3.clone.1 = f32[1280,1280]{1,0} add(%select.21105.5.clone.1, %multiply.26583.1.clone.1)
  %multiply.26584.7.clone.1 = f32[1280,1280]{1,0} multiply(%add.248941.3.clone.1, %select.21112.3.clone.1)
  %add.248942.9.clone.1 = f32[1280,1280]{1,0} add(%select.21104.11.clone.1, %multiply.26584.7.clone.1)
  %multiply.26585.7.clone.1 = f32[1280,1280]{1,0} multiply(%add.248942.9.clone.1, %select.21112.3.clone.1)
  %add.248943.7.clone.1 = f32[1280,1280]{1,0} add(%select.21103.7.clone.1, %multiply.26585.7.clone.1)
  %multiply.26586.7.clone.1 = f32[1280,1280]{1,0} multiply(%add.248943.7.clone.1, %maximum.3697.3.clone.1)
  %select.21113.7.clone.1 = f32[1280,1280]{1,0} select(%compare.7242.3.clone.1, %multiply.26576.9.clone.1, %multiply.26586.7.clone.1)
  %multiply.26587.5.clone.1 = f32[1280,1280]{1,0} multiply(%select.21113.7.clone.1, %broadcast.244500.640)
  %clamp.1191.3.clone.1 = f32[1280,1280]{1,0} clamp(%broadcast.244407.384, %multiply.26587.5.clone.1, %broadcast.244501.384)
  %multiply.26588.1.clone.1 = f32[1280,1280]{1,0} multiply(%clamp.1191.3.clone.1, %broadcast.244502.1)
  %constant_177814_1_clone_1 = u32[] constant(3930035116)
  %broadcast.252896.44.clone.1 = u32[1280,1280]{1,0} broadcast(%constant_177814_1_clone_1), dimensions={}
  %add.248944.37.clone.1 = u32[1280,1280]{1,0} add(%convert.3610.4865, %broadcast.252896.44.clone.1)
  %constant_177828_1_clone_1 = u32[] constant(595127978)
  %broadcast.252897.113.clone.1 = u32[1280,1280]{1,0} broadcast(%constant_177828_1_clone_1), dimensions={}
  %add.248945.99.clone.1 = u32[1280,1280]{1,0} add(%convert.3611.12801, %broadcast.252897.113.clone.1)
  %add.248947.35.clone.1 = u32[1280,1280]{1,0} add(%add.248944.37.clone.1, %add.248945.99.clone.1)
  %shift-left.109857.31.clone.1 = u32[1280,1280]{1,0} shift-left(%add.248945.99.clone.1, %broadcast.244414.6272)
  %shift-right-logical.116045.29.clone.1 = u32[1280,1280]{1,0} shift-right-logical(%add.248945.99.clone.1, %broadcast.244415.6016)
  %or.115578.29.clone.1 = u32[1280,1280]{1,0} or(%shift-left.109857.31.clone.1, %shift-right-logical.116045.29.clone.1)
  %xor.122128.27.clone.1 = u32[1280,1280]{1,0} xor(%add.248947.35.clone.1, %or.115578.29.clone.1)
  %add.248951.5.clone.1 = u32[1280,1280]{1,0} add(%add.248947.35.clone.1, %xor.122128.27.clone.1)
  %shift-left.109859.9.clone.1 = u32[1280,1280]{1,0} shift-left(%xor.122128.27.clone.1, %broadcast.244416.5760)
  %shift-right-logical.116046.9.clone.1 = u32[1280,1280]{1,0} shift-right-logical(%xor.122128.27.clone.1, %broadcast.244417.5760)
  %or.115580.7.clone.1 = u32[1280,1280]{1,0} or(%shift-left.109859.9.clone.1, %shift-right-logical.116046.9.clone.1)
  %xor.122129.5.clone.1 = u32[1280,1280]{1,0} xor(%add.248951.5.clone.1, %or.115580.7.clone.1)
  %add.248952.3.clone.1 = u32[1280,1280]{1,0} add(%add.248951.5.clone.1, %xor.122129.5.clone.1)
  %shift-left.109860.5.clone.1 = u32[1280,1280]{1,0} shift-left(%xor.122129.5.clone.1, %broadcast.244418.4352)
  %shift-right-logical.116047.5.clone.1 = u32[1280,1280]{1,0} shift-right-logical(%xor.122129.5.clone.1, %broadcast.244419.4352)
  %or.115581.3.clone.1 = u32[1280,1280]{1,0} or(%shift-left.109860.5.clone.1, %shift-right-logical.116047.5.clone.1)
  %xor.122130.3.clone.1 = u32[1280,1280]{1,0} xor(%add.248952.3.clone.1, %or.115581.3.clone.1)
  %add.248953.3.clone.1 = u32[1280,1280]{1,0} add(%add.248952.3.clone.1, %xor.122130.3.clone.1)
  %add.248954.7.clone.1 = u32[1280,1280]{1,0} add(%add.248953.3.clone.1, %broadcast.252897.113.clone.1)
  %shift-left.109861.5.clone.1 = u32[1280,1280]{1,0} shift-left(%xor.122130.3.clone.1, %broadcast.244419.4352)
  %shift-right-logical.116048.5.clone.1 = u32[1280,1280]{1,0} shift-right-logical(%xor.122130.3.clone.1, %broadcast.244418.4352)
  %or.115582.3.clone.1 = u32[1280,1280]{1,0} or(%shift-left.109861.5.clone.1, %shift-right-logical.116048.5.clone.1)
  %xor.122131.3.clone.1 = u32[1280,1280]{1,0} xor(%add.248953.3.clone.1, %or.115582.3.clone.1)
  %constant_218302_1_clone_1 = u32[] constant(3533072093)
  %broadcast.252907.5.clone.1 = u32[1280,1280]{1,0} broadcast(%constant_218302_1_clone_1), dimensions={}
  %add.248956.5.clone.1 = u32[1280,1280]{1,0} add(%xor.122131.3.clone.1, %broadcast.252907.5.clone.1)
  %add.248957.5.clone.1 = u32[1280,1280]{1,0} add(%add.248954.7.clone.1, %add.248956.5.clone.1)
  %shift-left.109862.9.clone.1 = u32[1280,1280]{1,0} shift-left(%add.248956.5.clone.1, %broadcast.244417.5760)
  %shift-right-logical.116049.9.clone.1 = u32[1280,1280]{1,0} shift-right-logical(%add.248956.5.clone.1, %broadcast.244416.5760)
  %or.115583.7.clone.1 = u32[1280,1280]{1,0} or(%shift-left.109862.9.clone.1, %shift-right-logical.116049.9.clone.1)
  %xor.122132.5.clone.1 = u32[1280,1280]{1,0} xor(%add.248957.5.clone.1, %or.115583.7.clone.1)
  %add.248958.3.clone.1 = u32[1280,1280]{1,0} add(%add.248957.5.clone.1, %xor.122132.5.clone.1)
  %shift-left.109864.9.clone.1 = u32[1280,1280]{1,0} shift-left(%xor.122132.5.clone.1, %broadcast.244428.2304)
  %shift-right-logical.116050.9.clone.1 = u32[1280,1280]{1,0} shift-right-logical(%xor.122132.5.clone.1, %broadcast.244429.2304)
  %or.115584.7.clone.1 = u32[1280,1280]{1,0} or(%shift-left.109864.9.clone.1, %shift-right-logical.116050.9.clone.1)
  %xor.122133.5.clone.1 = u32[1280,1280]{1,0} xor(%add.248958.3.clone.1, %or.115584.7.clone.1)
  %add.248959.3.clone.1 = u32[1280,1280]{1,0} add(%add.248958.3.clone.1, %xor.122133.5.clone.1)
  %shift-left.109865.9.clone.1 = u32[1280,1280]{1,0} shift-left(%xor.122133.5.clone.1, %broadcast.244430.4608)
  %shift-right-logical.116051.9.clone.1 = u32[1280,1280]{1,0} shift-right-logical(%xor.122133.5.clone.1, %broadcast.244430.4608)
  %or.115585.7.clone.1 = u32[1280,1280]{1,0} or(%shift-left.109865.9.clone.1, %shift-right-logical.116051.9.clone.1)
  %xor.122135.5.clone.1 = u32[1280,1280]{1,0} xor(%add.248959.3.clone.1, %or.115585.7.clone.1)
  %add.248961.3.clone.1 = u32[1280,1280]{1,0} add(%add.248959.3.clone.1, %xor.122135.5.clone.1)
  %constant_177832_1_clone_1 = u32[] constant(3533072092)
  %broadcast.252916.24.clone.1 = u32[1280,1280]{1,0} broadcast(%constant_177832_1_clone_1), dimensions={}
  %add.248962.7.clone.1 = u32[1280,1280]{1,0} add(%add.248961.3.clone.1, %broadcast.252916.24.clone.1)
  %shift-left.109866.11.clone.1 = u32[1280,1280]{1,0} shift-left(%xor.122135.5.clone.1, %broadcast.244433.2816)
  %shift-right-logical.116052.11.clone.1 = u32[1280,1280]{1,0} shift-right-logical(%xor.122135.5.clone.1, %broadcast.244434.2816)
  %or.115586.9.clone.1 = u32[1280,1280]{1,0} or(%shift-left.109866.11.clone.1, %shift-right-logical.116052.11.clone.1)
  %xor.122136.7.clone.1 = u32[1280,1280]{1,0} xor(%add.248961.3.clone.1, %or.115586.9.clone.1)
  %constant_218303_1_clone_1 = u32[] constant(3930035118)
  %broadcast.252922.5.clone.1 = u32[1280,1280]{1,0} broadcast(%constant_218303_1_clone_1), dimensions={}
  %add.248963.5.clone.1 = u32[1280,1280]{1,0} add(%xor.122136.7.clone.1, %broadcast.252922.5.clone.1)
  %add.248964.5.clone.1 = u32[1280,1280]{1,0} add(%add.248962.7.clone.1, %add.248963.5.clone.1)
  %shift-left.109867.9.clone.1 = u32[1280,1280]{1,0} shift-left(%add.248963.5.clone.1, %broadcast.244414.6272)
  %shift-right-logical.116053.9.clone.1 = u32[1280,1280]{1,0} shift-right-logical(%add.248963.5.clone.1, %broadcast.244415.6016)
  %or.115587.7.clone.1 = u32[1280,1280]{1,0} or(%shift-left.109867.9.clone.1, %shift-right-logical.116053.9.clone.1)
  %xor.122137.5.clone.1 = u32[1280,1280]{1,0} xor(%add.248964.5.clone.1, %or.115587.7.clone.1)
  %add.248966.3.clone.1 = u32[1280,1280]{1,0} add(%add.248964.5.clone.1, %xor.122137.5.clone.1)
  %shift-left.109869.9.clone.1 = u32[1280,1280]{1,0} shift-left(%xor.122137.5.clone.1, %broadcast.244416.5760)
  %shift-right-logical.116054.9.clone.1 = u32[1280,1280]{1,0} shift-right-logical(%xor.122137.5.clone.1, %broadcast.244417.5760)
  %or.115588.7.clone.1 = u32[1280,1280]{1,0} or(%shift-left.109869.9.clone.1, %shift-right-logical.116054.9.clone.1)
  %xor.122138.5.clone.1 = u32[1280,1280]{1,0} xor(%add.248966.3.clone.1, %or.115588.7.clone.1)
  %add.248967.3.clone.1 = u32[1280,1280]{1,0} add(%add.248966.3.clone.1, %xor.122138.5.clone.1)
  %shift-left.109870.7.clone.1 = u32[1280,1280]{1,0} shift-left(%xor.122138.5.clone.1, %broadcast.244418.4352)
  %shift-right-logical.116055.7.clone.1 = u32[1280,1280]{1,0} shift-right-logical(%xor.122138.5.clone.1, %broadcast.244419.4352)
  %or.115590.5.clone.1 = u32[1280,1280]{1,0} or(%shift-left.109870.7.clone.1, %shift-right-logical.116055.7.clone.1)
  %xor.122140.3.clone.1 = u32[1280,1280]{1,0} xor(%add.248967.3.clone.1, %or.115590.5.clone.1)
  %add.248968.3.clone.1 = u32[1280,1280]{1,0} add(%add.248967.3.clone.1, %xor.122140.3.clone.1)
  %add.248969.7.clone.1 = u32[1280,1280]{1,0} add(%add.248968.3.clone.1, %broadcast.252896.44.clone.1)
  %shift-left.109871.7.clone.1 = u32[1280,1280]{1,0} shift-left(%xor.122140.3.clone.1, %broadcast.244419.4352)
  %shift-right-logical.116056.7.clone.1 = u32[1280,1280]{1,0} shift-right-logical(%xor.122140.3.clone.1, %broadcast.244418.4352)
  %or.115591.5.clone.1 = u32[1280,1280]{1,0} or(%shift-left.109871.7.clone.1, %shift-right-logical.116056.7.clone.1)
  %xor.122141.3.clone.1 = u32[1280,1280]{1,0} xor(%add.248968.3.clone.1, %or.115591.5.clone.1)
  %constant_218304_1_clone_1 = u32[] constant(595127981)
  %broadcast.252942.5.clone.1 = u32[1280,1280]{1,0} broadcast(%constant_218304_1_clone_1), dimensions={}
  %add.248970.5.clone.1 = u32[1280,1280]{1,0} add(%xor.122141.3.clone.1, %broadcast.252942.5.clone.1)
  %add.248972.5.clone.1 = u32[1280,1280]{1,0} add(%add.248969.7.clone.1, %add.248970.5.clone.1)
  %shift-left.109872.9.clone.1 = u32[1280,1280]{1,0} shift-left(%add.248970.5.clone.1, %broadcast.244417.5760)
  %shift-right-logical.116057.9.clone.1 = u32[1280,1280]{1,0} shift-right-logical(%add.248970.5.clone.1, %broadcast.244416.5760)
  %or.115592.7.clone.1 = u32[1280,1280]{1,0} or(%shift-left.109872.9.clone.1, %shift-right-logical.116057.9.clone.1)
  %xor.122142.5.clone.1 = u32[1280,1280]{1,0} xor(%add.248972.5.clone.1, %or.115592.7.clone.1)
  %add.248976.3.clone.1 = u32[1280,1280]{1,0} add(%add.248972.5.clone.1, %xor.122142.5.clone.1)
  %shift-left.109873.9.clone.1 = u32[1280,1280]{1,0} shift-left(%xor.122142.5.clone.1, %broadcast.244428.2304)
  %shift-right-logical.116058.9.clone.1 = u32[1280,1280]{1,0} shift-right-logical(%xor.122142.5.clone.1, %broadcast.244429.2304)
  %or.115593.7.clone.1 = u32[1280,1280]{1,0} or(%shift-left.109873.9.clone.1, %shift-right-logical.116058.9.clone.1)
  %xor.122143.5.clone.1 = u32[1280,1280]{1,0} xor(%add.248976.3.clone.1, %or.115593.7.clone.1)
  %add.248977.3.clone.1 = u32[1280,1280]{1,0} add(%add.248976.3.clone.1, %xor.122143.5.clone.1)
  %shift-left.109874.9.clone.1 = u32[1280,1280]{1,0} shift-left(%xor.122143.5.clone.1, %broadcast.244430.4608)
  %shift-right-logical.116059.9.clone.1 = u32[1280,1280]{1,0} shift-right-logical(%xor.122143.5.clone.1, %broadcast.244430.4608)
  %or.115595.7.clone.1 = u32[1280,1280]{1,0} or(%shift-left.109874.9.clone.1, %shift-right-logical.116059.9.clone.1)
  %xor.122145.5.clone.1 = u32[1280,1280]{1,0} xor(%add.248977.3.clone.1, %or.115595.7.clone.1)
  %add.248978.3.clone.1 = u32[1280,1280]{1,0} add(%add.248977.3.clone.1, %xor.122145.5.clone.1)
  %add.248979.7.clone.1 = u32[1280,1280]{1,0} add(%add.248978.3.clone.1, %broadcast.252897.113.clone.1)
  %shift-left.109875.11.clone.1 = u32[1280,1280]{1,0} shift-left(%xor.122145.5.clone.1, %broadcast.244433.2816)
  %shift-right-logical.116060.11.clone.1 = u32[1280,1280]{1,0} shift-right-logical(%xor.122145.5.clone.1, %broadcast.244434.2816)
  %or.115596.9.clone.1 = u32[1280,1280]{1,0} or(%shift-left.109875.11.clone.1, %shift-right-logical.116060.11.clone.1)
  %xor.122146.7.clone.1 = u32[1280,1280]{1,0} xor(%add.248978.3.clone.1, %or.115596.9.clone.1)
  %constant_218305_1_clone_1 = u32[] constant(3533072096)
  %broadcast.252954.5.clone.1 = u32[1280,1280]{1,0} broadcast(%constant_218305_1_clone_1), dimensions={}
  %add.248981.5.clone.1 = u32[1280,1280]{1,0} add(%xor.122146.7.clone.1, %broadcast.252954.5.clone.1)
  %add.248982.5.clone.1 = u32[1280,1280]{1,0} add(%add.248979.7.clone.1, %add.248981.5.clone.1)
  %shift-left.109876.9.clone.1 = u32[1280,1280]{1,0} shift-left(%add.248981.5.clone.1, %broadcast.244414.6272)
  %shift-right-logical.116061.9.clone.1 = u32[1280,1280]{1,0} shift-right-logical(%add.248981.5.clone.1, %broadcast.244415.6016)
  %or.115597.7.clone.1 = u32[1280,1280]{1,0} or(%shift-left.109876.9.clone.1, %shift-right-logical.116061.9.clone.1)
  %xor.122147.5.clone.1 = u32[1280,1280]{1,0} xor(%add.248982.5.clone.1, %or.115597.7.clone.1)
  %add.248983.3.clone.1 = u32[1280,1280]{1,0} add(%add.248982.5.clone.1, %xor.122147.5.clone.1)
  %shift-left.109877.9.clone.1 = u32[1280,1280]{1,0} shift-left(%xor.122147.5.clone.1, %broadcast.244416.5760)
  %shift-right-logical.116062.9.clone.1 = u32[1280,1280]{1,0} shift-right-logical(%xor.122147.5.clone.1, %broadcast.244417.5760)
  %or.115598.7.clone.1 = u32[1280,1280]{1,0} or(%shift-left.109877.9.clone.1, %shift-right-logical.116062.9.clone.1)
  %xor.122148.5.clone.1 = u32[1280,1280]{1,0} xor(%add.248983.3.clone.1, %or.115598.7.clone.1)
  %add.248984.3.clone.1 = u32[1280,1280]{1,0} add(%add.248983.3.clone.1, %xor.122148.5.clone.1)
  %shift-left.109878.5.clone.1 = u32[1280,1280]{1,0} shift-left(%xor.122148.5.clone.1, %broadcast.244418.4352)
  %shift-right-logical.116063.5.clone.1 = u32[1280,1280]{1,0} shift-right-logical(%xor.122148.5.clone.1, %broadcast.244419.4352)
  %or.115600.3.clone.1 = u32[1280,1280]{1,0} or(%shift-left.109878.5.clone.1, %shift-right-logical.116063.5.clone.1)
  %xor.122150.3.clone.1 = u32[1280,1280]{1,0} xor(%add.248984.3.clone.1, %or.115600.3.clone.1)
  %add.248986.3.clone.1 = u32[1280,1280]{1,0} add(%add.248984.3.clone.1, %xor.122150.3.clone.1)
  %add.248987.17.clone.1 = u32[1280,1280]{1,0} add(%add.248986.3.clone.1, %broadcast.252916.24.clone.1)
  %shift-left.109879.5.clone.1 = u32[1280,1280]{1,0} shift-left(%xor.122150.3.clone.1, %broadcast.244419.4352)
  %shift-right-logical.116064.5.clone.1 = u32[1280,1280]{1,0} shift-right-logical(%xor.122150.3.clone.1, %broadcast.244418.4352)
  %or.115601.3.clone.1 = u32[1280,1280]{1,0} or(%shift-left.109879.5.clone.1, %shift-right-logical.116064.5.clone.1)
  %xor.122151.15.clone.1 = u32[1280,1280]{1,0} xor(%add.248986.3.clone.1, %or.115601.3.clone.1)
  %constant_218306_1_clone_1 = u32[] constant(3930035121)
  %broadcast.252964.19.clone.1 = u32[1280,1280]{1,0} broadcast(%constant_218306_1_clone_1), dimensions={}
  %add.248988.19.clone.1 = u32[1280,1280]{1,0} add(%xor.122151.15.clone.1, %broadcast.252964.19.clone.1)
  %xor.122152.17.clone.1 = u32[1280,1280]{1,0} xor(%add.248987.17.clone.1, %add.248988.19.clone.1)
  %shift-right-logical.116065.15.clone.1 = u32[1280,1280]{1,0} shift-right-logical(%xor.122152.17.clone.1, %broadcast.244468.1920)
  %or.115602.13.clone.1 = u32[1280,1280]{1,0} or(%shift-right-logical.116065.15.clone.1, %broadcast.244469.1664)
  %bitcast-convert.5766.11.clone.1 = f32[1280,1280]{1,0} bitcast-convert(%or.115602.13.clone.1)
  %add.248989.9.clone.1 = f32[1280,1280]{1,0} add(%bitcast-convert.5766.11.clone.1, %broadcast.244470.1152)
  %multiply.26589.7.clone.1 = f32[1280,1280]{1,0} multiply(%add.248989.9.clone.1, %broadcast.244471.896)
  %add.248991.5.clone.1 = f32[1280,1280]{1,0} add(%multiply.26589.7.clone.1, %broadcast.244408.1024)
  %maximum.3698.3.clone.1 = f32[1280,1280]{1,0} maximum(%broadcast.244408.1024, %add.248991.5.clone.1)
  %abs.1548.3.clone.1 = f32[1280,1280]{1,0} abs(%maximum.3698.3.clone.1)
  %compare.7244.3.clone.1 = pred[1280,1280]{1,0} compare(%abs.1548.3.clone.1, %broadcast.244475.384), direction=EQ
  %multiply.26590.9.clone.1 = f32[1280,1280]{1,0} multiply(%maximum.3698.3.clone.1, %broadcast.244476.1152)
  %negate.4601.5.clone.1 = f32[1280,1280]{1,0} negate(%maximum.3698.3.clone.1)
  %multiply.26591.5.clone.1 = f32[1280,1280]{1,0} multiply(%maximum.3698.3.clone.1, %negate.4601.5.clone.1)
  %log-plus-one.1548.3.clone.1 = f32[1280,1280]{1,0} log-plus-one(%multiply.26591.5.clone.1)
  %negate.4602.4.clone.1 = f32[1280,1280]{1,0} negate(%log-plus-one.1548.3.clone.1)
  %compare.7245.3.clone.1 = pred[1280,1280]{1,0} compare(%negate.4602.4.clone.1, %broadcast.244477.384), direction=LT
  %select.21114.7.clone.1 = f32[1280,1280]{1,0} select(%compare.7245.3.clone.1, %broadcast.244478.896, %broadcast.244479.896)
  %select.21115.11.clone.1 = f32[1280,1280]{1,0} select(%compare.7245.3.clone.1, %broadcast.244480.1408, %broadcast.244481.1408)
  %select.21116.5.clone.1 = f32[1280,1280]{1,0} select(%compare.7245.3.clone.1, %broadcast.244482.640, %broadcast.244483.640)
  %select.21117.5.clone.1 = f32[1280,1280]{1,0} select(%compare.7245.3.clone.1, %broadcast.244484.640, %broadcast.244485.640)
  %select.21118.3.clone.1 = f32[1280,1280]{1,0} select(%compare.7245.3.clone.1, %broadcast.244486.384, %broadcast.244487.384)
  %select.21119.3.clone.1 = f32[1280,1280]{1,0} select(%compare.7245.3.clone.1, %broadcast.244488.384, %broadcast.244489.384)
  %select.21120.3.clone.1 = f32[1280,1280]{1,0} select(%compare.7245.3.clone.1, %broadcast.244490.384, %broadcast.244491.384)
  %select.21121.3.clone.1 = f32[1280,1280]{1,0} select(%compare.7245.3.clone.1, %broadcast.244492.384, %broadcast.244493.384)
  %select.21122.3.clone.1 = f32[1280,1280]{1,0} select(%compare.7245.3.clone.1, %broadcast.244494.384, %broadcast.244495.384)
  %add.248992.5.clone.1 = f32[1280,1280]{1,0} add(%negate.4602.4.clone.1, %broadcast.244496.640)
  %sqrt.1548.5.clone.1 = f32[1280,1280]{1,0} sqrt(%negate.4602.4.clone.1)
  %add.248993.5.clone.1 = f32[1280,1280]{1,0} add(%sqrt.1548.5.clone.1, %broadcast.244498.640)
  %select.21123.3.clone.1 = f32[1280,1280]{1,0} select(%compare.7245.3.clone.1, %add.248992.5.clone.1, %add.248993.5.clone.1)
  %multiply.26592.1.clone.1 = f32[1280,1280]{1,0} multiply(%select.21122.3.clone.1, %select.21123.3.clone.1)
  %add.248994.1.clone.1 = f32[1280,1280]{1,0} add(%select.21121.3.clone.1, %multiply.26592.1.clone.1)
  %multiply.26593.1.clone.1 = f32[1280,1280]{1,0} multiply(%add.248994.1.clone.1, %select.21123.3.clone.1)
  %add.248995.1.clone.1 = f32[1280,1280]{1,0} add(%select.21120.3.clone.1, %multiply.26593.1.clone.1)
  %multiply.26594.1.clone.1 = f32[1280,1280]{1,0} multiply(%add.248995.1.clone.1, %select.21123.3.clone.1)
  %add.248997.1.clone.1 = f32[1280,1280]{1,0} add(%select.21119.3.clone.1, %multiply.26594.1.clone.1)
  %multiply.26595.1.clone.1 = f32[1280,1280]{1,0} multiply(%add.248997.1.clone.1, %select.21123.3.clone.1)
  %add.249000.1.clone.1 = f32[1280,1280]{1,0} add(%select.21118.3.clone.1, %multiply.26595.1.clone.1)
  %multiply.26596.1.clone.1 = f32[1280,1280]{1,0} multiply(%add.249000.1.clone.1, %select.21123.3.clone.1)
  %add.249001.3.clone.1 = f32[1280,1280]{1,0} add(%select.21117.5.clone.1, %multiply.26596.1.clone.1)
  %multiply.26597.1.clone.1 = f32[1280,1280]{1,0} multiply(%add.249001.3.clone.1, %select.21123.3.clone.1)
  %add.249002.3.clone.1 = f32[1280,1280]{1,0} add(%select.21116.5.clone.1, %multiply.26597.1.clone.1)
  %multiply.26598.7.clone.1 = f32[1280,1280]{1,0} multiply(%add.249002.3.clone.1, %select.21123.3.clone.1)
  %add.249003.9.clone.1 = f32[1280,1280]{1,0} add(%select.21115.11.clone.1, %multiply.26598.7.clone.1)
  %multiply.26599.7.clone.1 = f32[1280,1280]{1,0} multiply(%add.249003.9.clone.1, %select.21123.3.clone.1)
  %add.249004.7.clone.1 = f32[1280,1280]{1,0} add(%select.21114.7.clone.1, %multiply.26599.7.clone.1)
  %multiply.26600.7.clone.1 = f32[1280,1280]{1,0} multiply(%add.249004.7.clone.1, %maximum.3698.3.clone.1)
  %select.21124.7.clone.1 = f32[1280,1280]{1,0} select(%compare.7244.3.clone.1, %multiply.26590.9.clone.1, %multiply.26600.7.clone.1)
  %multiply.26601.5.clone.1 = f32[1280,1280]{1,0} multiply(%select.21124.7.clone.1, %broadcast.244500.640)
  %clamp.1192.3.clone.1 = f32[1280,1280]{1,0} clamp(%broadcast.244407.384, %multiply.26601.5.clone.1, %broadcast.244501.384)
  %multiply.26602.1.clone.1 = f32[1280,1280]{1,0} multiply(%clamp.1192.3.clone.1, %broadcast.244502.1)
  %constant_187357_1_clone_1 = u32[] constant(3486608628)
  %broadcast.257058.44.clone.1 = u32[1280,1280]{1,0} broadcast(%constant_187357_1_clone_1), dimensions={}
  %add.251290.37.clone.1 = u32[1280,1280]{1,0} add(%convert.3610.4865, %broadcast.257058.44.clone.1)
  %constant_187364_1_clone_1 = u32[] constant(2943763298)
  %broadcast.257059.113.clone.1 = u32[1280,1280]{1,0} broadcast(%constant_187364_1_clone_1), dimensions={}
  %add.251291.99.clone.1 = u32[1280,1280]{1,0} add(%convert.3611.12801, %broadcast.257059.113.clone.1)
  %add.251293.35.clone.1 = u32[1280,1280]{1,0} add(%add.251290.37.clone.1, %add.251291.99.clone.1)
  %shift-left.110880.31.clone.1 = u32[1280,1280]{1,0} shift-left(%add.251291.99.clone.1, %broadcast.244414.6272)
  %shift-right-logical.117156.29.clone.1 = u32[1280,1280]{1,0} shift-right-logical(%add.251291.99.clone.1, %broadcast.244415.6016)
  %or.116665.29.clone.1 = u32[1280,1280]{1,0} or(%shift-left.110880.31.clone.1, %shift-right-logical.117156.29.clone.1)
  %xor.123236.27.clone.1 = u32[1280,1280]{1,0} xor(%add.251293.35.clone.1, %or.116665.29.clone.1)
  %add.251294.5.clone.1 = u32[1280,1280]{1,0} add(%add.251293.35.clone.1, %xor.123236.27.clone.1)
  %shift-left.110881.9.clone.1 = u32[1280,1280]{1,0} shift-left(%xor.123236.27.clone.1, %broadcast.244416.5760)
  %shift-right-logical.117157.9.clone.1 = u32[1280,1280]{1,0} shift-right-logical(%xor.123236.27.clone.1, %broadcast.244417.5760)
  %or.116666.7.clone.1 = u32[1280,1280]{1,0} or(%shift-left.110881.9.clone.1, %shift-right-logical.117157.9.clone.1)
  %xor.123237.5.clone.1 = u32[1280,1280]{1,0} xor(%add.251294.5.clone.1, %or.116666.7.clone.1)
  %add.251295.3.clone.1 = u32[1280,1280]{1,0} add(%add.251294.5.clone.1, %xor.123237.5.clone.1)
  %shift-left.110882.5.clone.1 = u32[1280,1280]{1,0} shift-left(%xor.123237.5.clone.1, %broadcast.244418.4352)
  %shift-right-logical.117159.5.clone.1 = u32[1280,1280]{1,0} shift-right-logical(%xor.123237.5.clone.1, %broadcast.244419.4352)
  %or.116667.3.clone.1 = u32[1280,1280]{1,0} or(%shift-left.110882.5.clone.1, %shift-right-logical.117159.5.clone.1)
  %xor.123238.3.clone.1 = u32[1280,1280]{1,0} xor(%add.251295.3.clone.1, %or.116667.3.clone.1)
  %add.251296.3.clone.1 = u32[1280,1280]{1,0} add(%add.251295.3.clone.1, %xor.123238.3.clone.1)
  %add.251297.7.clone.1 = u32[1280,1280]{1,0} add(%add.251296.3.clone.1, %broadcast.257059.113.clone.1)
  %shift-left.110883.5.clone.1 = u32[1280,1280]{1,0} shift-left(%xor.123238.3.clone.1, %broadcast.244419.4352)
  %shift-right-logical.117160.5.clone.1 = u32[1280,1280]{1,0} shift-right-logical(%xor.123238.3.clone.1, %broadcast.244418.4352)
  %or.116668.3.clone.1 = u32[1280,1280]{1,0} or(%shift-left.110883.5.clone.1, %shift-right-logical.117160.5.clone.1)
  %xor.123239.3.clone.1 = u32[1280,1280]{1,0} xor(%add.251296.3.clone.1, %or.116668.3.clone.1)
  %constant_218559_1_clone_1 = u32[] constant(2071344205)
  %broadcast.257069.5.clone.1 = u32[1280,1280]{1,0} broadcast(%constant_218559_1_clone_1), dimensions={}
  %add.251299.5.clone.1 = u32[1280,1280]{1,0} add(%xor.123239.3.clone.1, %broadcast.257069.5.clone.1)
  %add.251303.5.clone.1 = u32[1280,1280]{1,0} add(%add.251297.7.clone.1, %add.251299.5.clone.1)
  %shift-left.110884.9.clone.1 = u32[1280,1280]{1,0} shift-left(%add.251299.5.clone.1, %broadcast.244417.5760)
  %shift-right-logical.117161.9.clone.1 = u32[1280,1280]{1,0} shift-right-logical(%add.251299.5.clone.1, %broadcast.244416.5760)
  %or.116670.7.clone.1 = u32[1280,1280]{1,0} or(%shift-left.110884.9.clone.1, %shift-right-logical.117161.9.clone.1)
  %xor.123240.5.clone.1 = u32[1280,1280]{1,0} xor(%add.251303.5.clone.1, %or.116670.7.clone.1)
  %add.251304.3.clone.1 = u32[1280,1280]{1,0} add(%add.251303.5.clone.1, %xor.123240.5.clone.1)
  %shift-left.110885.9.clone.1 = u32[1280,1280]{1,0} shift-left(%xor.123240.5.clone.1, %broadcast.244428.2304)
  %shift-right-logical.117162.9.clone.1 = u32[1280,1280]{1,0} shift-right-logical(%xor.123240.5.clone.1, %broadcast.244429.2304)
  %or.116671.7.clone.1 = u32[1280,1280]{1,0} or(%shift-left.110885.9.clone.1, %shift-right-logical.117162.9.clone.1)
  %xor.123241.5.clone.1 = u32[1280,1280]{1,0} xor(%add.251304.3.clone.1, %or.116671.7.clone.1)
  %add.251305.3.clone.1 = u32[1280,1280]{1,0} add(%add.251304.3.clone.1, %xor.123241.5.clone.1)
  %shift-left.110886.9.clone.1 = u32[1280,1280]{1,0} shift-left(%xor.123241.5.clone.1, %broadcast.244430.4608)
  %shift-right-logical.117164.9.clone.1 = u32[1280,1280]{1,0} shift-right-logical(%xor.123241.5.clone.1, %broadcast.244430.4608)
  %or.116672.7.clone.1 = u32[1280,1280]{1,0} or(%shift-left.110886.9.clone.1, %shift-right-logical.117164.9.clone.1)
  %xor.123242.5.clone.1 = u32[1280,1280]{1,0} xor(%add.251305.3.clone.1, %or.116672.7.clone.1)
  %add.251306.3.clone.1 = u32[1280,1280]{1,0} add(%add.251305.3.clone.1, %xor.123242.5.clone.1)
  %constant_187366_1_clone_1 = u32[] constant(2071344204)
  %broadcast.257076.24.clone.1 = u32[1280,1280]{1,0} broadcast(%constant_187366_1_clone_1), dimensions={}
  %add.251308.7.clone.1 = u32[1280,1280]{1,0} add(%add.251306.3.clone.1, %broadcast.257076.24.clone.1)
  %shift-left.110887.11.clone.1 = u32[1280,1280]{1,0} shift-left(%xor.123242.5.clone.1, %broadcast.244433.2816)
  %shift-right-logical.117165.11.clone.1 = u32[1280,1280]{1,0} shift-right-logical(%xor.123242.5.clone.1, %broadcast.244434.2816)
  %or.116673.9.clone.1 = u32[1280,1280]{1,0} or(%shift-left.110887.11.clone.1, %shift-right-logical.117165.11.clone.1)
  %xor.123243.7.clone.1 = u32[1280,1280]{1,0} xor(%add.251306.3.clone.1, %or.116673.9.clone.1)
  %constant_218560_1_clone_1 = u32[] constant(3486608630)
  %broadcast.257079.5.clone.1 = u32[1280,1280]{1,0} broadcast(%constant_218560_1_clone_1), dimensions={}
  %add.251309.5.clone.1 = u32[1280,1280]{1,0} add(%xor.123243.7.clone.1, %broadcast.257079.5.clone.1)
  %add.251310.5.clone.1 = u32[1280,1280]{1,0} add(%add.251308.7.clone.1, %add.251309.5.clone.1)
  %shift-left.110888.9.clone.1 = u32[1280,1280]{1,0} shift-left(%add.251309.5.clone.1, %broadcast.244414.6272)
  %shift-right-logical.117166.9.clone.1 = u32[1280,1280]{1,0} shift-right-logical(%add.251309.5.clone.1, %broadcast.244415.6016)
  %or.116675.7.clone.1 = u32[1280,1280]{1,0} or(%shift-left.110888.9.clone.1, %shift-right-logical.117166.9.clone.1)
  %xor.123244.5.clone.1 = u32[1280,1280]{1,0} xor(%add.251310.5.clone.1, %or.116675.7.clone.1)
  %add.251311.3.clone.1 = u32[1280,1280]{1,0} add(%add.251310.5.clone.1, %xor.123244.5.clone.1)
  %shift-left.110889.9.clone.1 = u32[1280,1280]{1,0} shift-left(%xor.123244.5.clone.1, %broadcast.244416.5760)
  %shift-right-logical.117167.9.clone.1 = u32[1280,1280]{1,0} shift-right-logical(%xor.123244.5.clone.1, %broadcast.244417.5760)
  %or.116676.7.clone.1 = u32[1280,1280]{1,0} or(%shift-left.110889.9.clone.1, %shift-right-logical.117167.9.clone.1)
  %xor.123245.5.clone.1 = u32[1280,1280]{1,0} xor(%add.251311.3.clone.1, %or.116676.7.clone.1)
  %add.251313.3.clone.1 = u32[1280,1280]{1,0} add(%add.251311.3.clone.1, %xor.123245.5.clone.1)
  %shift-left.110890.7.clone.1 = u32[1280,1280]{1,0} shift-left(%xor.123245.5.clone.1, %broadcast.244418.4352)
  %shift-right-logical.117169.7.clone.1 = u32[1280,1280]{1,0} shift-right-logical(%xor.123245.5.clone.1, %broadcast.244419.4352)
  %or.116677.5.clone.1 = u32[1280,1280]{1,0} or(%shift-left.110890.7.clone.1, %shift-right-logical.117169.7.clone.1)
  %xor.123246.3.clone.1 = u32[1280,1280]{1,0} xor(%add.251313.3.clone.1, %or.116677.5.clone.1)
  %add.251314.3.clone.1 = u32[1280,1280]{1,0} add(%add.251313.3.clone.1, %xor.123246.3.clone.1)
  %add.251315.7.clone.1 = u32[1280,1280]{1,0} add(%add.251314.3.clone.1, %broadcast.257058.44.clone.1)
  %shift-left.110891.7.clone.1 = u32[1280,1280]{1,0} shift-left(%xor.123246.3.clone.1, %broadcast.244419.4352)
  %shift-right-logical.117170.7.clone.1 = u32[1280,1280]{1,0} shift-right-logical(%xor.123246.3.clone.1, %broadcast.244418.4352)
  %or.116678.5.clone.1 = u32[1280,1280]{1,0} or(%shift-left.110891.7.clone.1, %shift-right-logical.117170.7.clone.1)
  %xor.123247.3.clone.1 = u32[1280,1280]{1,0} xor(%add.251314.3.clone.1, %or.116678.5.clone.1)
  %constant_218561_1_clone_1 = u32[] constant(2943763301)
  %broadcast.257089.5.clone.1 = u32[1280,1280]{1,0} broadcast(%constant_218561_1_clone_1), dimensions={}
  %add.251316.5.clone.1 = u32[1280,1280]{1,0} add(%xor.123247.3.clone.1, %broadcast.257089.5.clone.1)
  %add.251318.5.clone.1 = u32[1280,1280]{1,0} add(%add.251315.7.clone.1, %add.251316.5.clone.1)
  %shift-left.110892.9.clone.1 = u32[1280,1280]{1,0} shift-left(%add.251316.5.clone.1, %broadcast.244417.5760)
  %shift-right-logical.117171.9.clone.1 = u32[1280,1280]{1,0} shift-right-logical(%add.251316.5.clone.1, %broadcast.244416.5760)
  %or.116680.7.clone.1 = u32[1280,1280]{1,0} or(%shift-left.110892.9.clone.1, %shift-right-logical.117171.9.clone.1)
  %xor.123248.5.clone.1 = u32[1280,1280]{1,0} xor(%add.251318.5.clone.1, %or.116680.7.clone.1)
  %add.251319.3.clone.1 = u32[1280,1280]{1,0} add(%add.251318.5.clone.1, %xor.123248.5.clone.1)
  %shift-left.110893.9.clone.1 = u32[1280,1280]{1,0} shift-left(%xor.123248.5.clone.1, %broadcast.244428.2304)
  %shift-right-logical.117172.9.clone.1 = u32[1280,1280]{1,0} shift-right-logical(%xor.123248.5.clone.1, %broadcast.244429.2304)
  %or.116681.7.clone.1 = u32[1280,1280]{1,0} or(%shift-left.110893.9.clone.1, %shift-right-logical.117172.9.clone.1)
  %xor.123249.5.clone.1 = u32[1280,1280]{1,0} xor(%add.251319.3.clone.1, %or.116681.7.clone.1)
  %add.251320.3.clone.1 = u32[1280,1280]{1,0} add(%add.251319.3.clone.1, %xor.123249.5.clone.1)
  %shift-left.110894.9.clone.1 = u32[1280,1280]{1,0} shift-left(%xor.123249.5.clone.1, %broadcast.244430.4608)
  %shift-right-logical.117173.9.clone.1 = u32[1280,1280]{1,0} shift-right-logical(%xor.123249.5.clone.1, %broadcast.244430.4608)
  %or.116682.7.clone.1 = u32[1280,1280]{1,0} or(%shift-left.110894.9.clone.1, %shift-right-logical.117173.9.clone.1)
  %xor.123250.5.clone.1 = u32[1280,1280]{1,0} xor(%add.251320.3.clone.1, %or.116682.7.clone.1)
  %add.251321.3.clone.1 = u32[1280,1280]{1,0} add(%add.251320.3.clone.1, %xor.123250.5.clone.1)
  %add.251322.7.clone.1 = u32[1280,1280]{1,0} add(%add.251321.3.clone.1, %broadcast.257059.113.clone.1)
  %shift-left.110895.11.clone.1 = u32[1280,1280]{1,0} shift-left(%xor.123250.5.clone.1, %broadcast.244433.2816)
  %shift-right-logical.117174.11.clone.1 = u32[1280,1280]{1,0} shift-right-logical(%xor.123250.5.clone.1, %broadcast.244434.2816)
  %or.116683.9.clone.1 = u32[1280,1280]{1,0} or(%shift-left.110895.11.clone.1, %shift-right-logical.117174.11.clone.1)
  %xor.123251.7.clone.1 = u32[1280,1280]{1,0} xor(%add.251321.3.clone.1, %or.116683.9.clone.1)
  %constant_218562_1_clone_1 = u32[] constant(2071344208)
  %broadcast.257099.5.clone.1 = u32[1280,1280]{1,0} broadcast(%constant_218562_1_clone_1), dimensions={}
  %add.251324.5.clone.1 = u32[1280,1280]{1,0} add(%xor.123251.7.clone.1, %broadcast.257099.5.clone.1)
  %add.251327.5.clone.1 = u32[1280,1280]{1,0} add(%add.251322.7.clone.1, %add.251324.5.clone.1)
  %shift-left.110896.9.clone.1 = u32[1280,1280]{1,0} shift-left(%add.251324.5.clone.1, %broadcast.244414.6272)
  %shift-right-logical.117175.9.clone.1 = u32[1280,1280]{1,0} shift-right-logical(%add.251324.5.clone.1, %broadcast.244415.6016)
  %or.116684.7.clone.1 = u32[1280,1280]{1,0} or(%shift-left.110896.9.clone.1, %shift-right-logical.117175.9.clone.1)
  %xor.123252.5.clone.1 = u32[1280,1280]{1,0} xor(%add.251327.5.clone.1, %or.116684.7.clone.1)
  %add.251328.3.clone.1 = u32[1280,1280]{1,0} add(%add.251327.5.clone.1, %xor.123252.5.clone.1)
  %shift-left.110897.9.clone.1 = u32[1280,1280]{1,0} shift-left(%xor.123252.5.clone.1, %broadcast.244416.5760)
  %shift-right-logical.117176.9.clone.1 = u32[1280,1280]{1,0} shift-right-logical(%xor.123252.5.clone.1, %broadcast.244417.5760)
  %or.116685.7.clone.1 = u32[1280,1280]{1,0} or(%shift-left.110897.9.clone.1, %shift-right-logical.117176.9.clone.1)
  %xor.123253.5.clone.1 = u32[1280,1280]{1,0} xor(%add.251328.3.clone.1, %or.116685.7.clone.1)
  %add.251329.3.clone.1 = u32[1280,1280]{1,0} add(%add.251328.3.clone.1, %xor.123253.5.clone.1)
  %shift-left.110898.5.clone.1 = u32[1280,1280]{1,0} shift-left(%xor.123253.5.clone.1, %broadcast.244418.4352)
  %shift-right-logical.117177.5.clone.1 = u32[1280,1280]{1,0} shift-right-logical(%xor.123253.5.clone.1, %broadcast.244419.4352)
  %or.116686.3.clone.1 = u32[1280,1280]{1,0} or(%shift-left.110898.5.clone.1, %shift-right-logical.117177.5.clone.1)
  %xor.123254.3.clone.1 = u32[1280,1280]{1,0} xor(%add.251329.3.clone.1, %or.116686.3.clone.1)
  %add.251330.3.clone.1 = u32[1280,1280]{1,0} add(%add.251329.3.clone.1, %xor.123254.3.clone.1)
  %add.251331.17.clone.1 = u32[1280,1280]{1,0} add(%add.251330.3.clone.1, %broadcast.257076.24.clone.1)
  %shift-left.110899.5.clone.1 = u32[1280,1280]{1,0} shift-left(%xor.123254.3.clone.1, %broadcast.244419.4352)
  %shift-right-logical.117178.5.clone.1 = u32[1280,1280]{1,0} shift-right-logical(%xor.123254.3.clone.1, %broadcast.244418.4352)
  %or.116687.3.clone.1 = u32[1280,1280]{1,0} or(%shift-left.110899.5.clone.1, %shift-right-logical.117178.5.clone.1)
  %xor.123255.15.clone.1 = u32[1280,1280]{1,0} xor(%add.251330.3.clone.1, %or.116687.3.clone.1)
  %constant_218563_1_clone_1 = u32[] constant(3486608633)
  %broadcast.257109.19.clone.1 = u32[1280,1280]{1,0} broadcast(%constant_218563_1_clone_1), dimensions={}
  %add.251332.19.clone.1 = u32[1280,1280]{1,0} add(%xor.123255.15.clone.1, %broadcast.257109.19.clone.1)
  %xor.123256.17.clone.1 = u32[1280,1280]{1,0} xor(%add.251331.17.clone.1, %add.251332.19.clone.1)
  %shift-right-logical.117179.15.clone.1 = u32[1280,1280]{1,0} shift-right-logical(%xor.123256.17.clone.1, %broadcast.244468.1920)
  %or.116688.13.clone.1 = u32[1280,1280]{1,0} or(%shift-right-logical.117179.15.clone.1, %broadcast.244469.1664)
  %bitcast-convert.5813.11.clone.1 = f32[1280,1280]{1,0} bitcast-convert(%or.116688.13.clone.1)
  %add.251333.9.clone.1 = f32[1280,1280]{1,0} add(%bitcast-convert.5813.11.clone.1, %broadcast.244470.1152)
  %multiply.27069.7.clone.1 = f32[1280,1280]{1,0} multiply(%add.251333.9.clone.1, %broadcast.244471.896)
  %add.251334.5.clone.1 = f32[1280,1280]{1,0} add(%multiply.27069.7.clone.1, %broadcast.244408.1024)
  %maximum.3745.3.clone.1 = f32[1280,1280]{1,0} maximum(%broadcast.244408.1024, %add.251334.5.clone.1)
  %abs.1579.3.clone.1 = f32[1280,1280]{1,0} abs(%maximum.3745.3.clone.1)
  %compare.7320.3.clone.1 = pred[1280,1280]{1,0} compare(%abs.1579.3.clone.1, %broadcast.244475.384), direction=EQ
  %multiply.27070.9.clone.1 = f32[1280,1280]{1,0} multiply(%maximum.3745.3.clone.1, %broadcast.244476.1152)
  %negate.4663.5.clone.1 = f32[1280,1280]{1,0} negate(%maximum.3745.3.clone.1)
  %multiply.27071.5.clone.1 = f32[1280,1280]{1,0} multiply(%maximum.3745.3.clone.1, %negate.4663.5.clone.1)
  %log-plus-one.1579.3.clone.1 = f32[1280,1280]{1,0} log-plus-one(%multiply.27071.5.clone.1)
  %negate.4664.4.clone.1 = f32[1280,1280]{1,0} negate(%log-plus-one.1579.3.clone.1)
  %compare.7321.3.clone.1 = pred[1280,1280]{1,0} compare(%negate.4664.4.clone.1, %broadcast.244477.384), direction=LT
  %select.21455.7.clone.1 = f32[1280,1280]{1,0} select(%compare.7321.3.clone.1, %broadcast.244478.896, %broadcast.244479.896)
  %select.21456.11.clone.1 = f32[1280,1280]{1,0} select(%compare.7321.3.clone.1, %broadcast.244480.1408, %broadcast.244481.1408)
  %select.21457.5.clone.1 = f32[1280,1280]{1,0} select(%compare.7321.3.clone.1, %broadcast.244482.640, %broadcast.244483.640)
  %select.21458.5.clone.1 = f32[1280,1280]{1,0} select(%compare.7321.3.clone.1, %broadcast.244484.640, %broadcast.244485.640)
  %select.21459.3.clone.1 = f32[1280,1280]{1,0} select(%compare.7321.3.clone.1, %broadcast.244486.384, %broadcast.244487.384)
  %select.21460.3.clone.1 = f32[1280,1280]{1,0} select(%compare.7321.3.clone.1, %broadcast.244488.384, %broadcast.244489.384)
  %select.21461.3.clone.1 = f32[1280,1280]{1,0} select(%compare.7321.3.clone.1, %broadcast.244490.384, %broadcast.244491.384)
  %select.21462.3.clone.1 = f32[1280,1280]{1,0} select(%compare.7321.3.clone.1, %broadcast.244492.384, %broadcast.244493.384)
  %select.21463.3.clone.1 = f32[1280,1280]{1,0} select(%compare.7321.3.clone.1, %broadcast.244494.384, %broadcast.244495.384)
  %add.251335.5.clone.1 = f32[1280,1280]{1,0} add(%negate.4664.4.clone.1, %broadcast.244496.640)
  %sqrt.1579.5.clone.1 = f32[1280,1280]{1,0} sqrt(%negate.4664.4.clone.1)
  %add.251336.5.clone.1 = f32[1280,1280]{1,0} add(%sqrt.1579.5.clone.1, %broadcast.244498.640)
  %select.21464.3.clone.1 = f32[1280,1280]{1,0} select(%compare.7321.3.clone.1, %add.251335.5.clone.1, %add.251336.5.clone.1)
  %multiply.27072.1.clone.1 = f32[1280,1280]{1,0} multiply(%select.21463.3.clone.1, %select.21464.3.clone.1)
  %add.251337.1.clone.1 = f32[1280,1280]{1,0} add(%select.21462.3.clone.1, %multiply.27072.1.clone.1)
  %multiply.27073.1.clone.1 = f32[1280,1280]{1,0} multiply(%add.251337.1.clone.1, %select.21464.3.clone.1)
  %add.251338.1.clone.1 = f32[1280,1280]{1,0} add(%select.21461.3.clone.1, %multiply.27073.1.clone.1)
  %multiply.27074.1.clone.1 = f32[1280,1280]{1,0} multiply(%add.251338.1.clone.1, %select.21464.3.clone.1)
  %add.251339.1.clone.1 = f32[1280,1280]{1,0} add(%select.21460.3.clone.1, %multiply.27074.1.clone.1)
  %multiply.27075.1.clone.1 = f32[1280,1280]{1,0} multiply(%add.251339.1.clone.1, %select.21464.3.clone.1)
  %add.251340.1.clone.1 = f32[1280,1280]{1,0} add(%select.21459.3.clone.1, %multiply.27075.1.clone.1)
  %multiply.27076.1.clone.1 = f32[1280,1280]{1,0} multiply(%add.251340.1.clone.1, %select.21464.3.clone.1)
  %add.251341.3.clone.1 = f32[1280,1280]{1,0} add(%select.21458.5.clone.1, %multiply.27076.1.clone.1)
  %multiply.27077.1.clone.1 = f32[1280,1280]{1,0} multiply(%add.251341.3.clone.1, %select.21464.3.clone.1)
  %add.251342.3.clone.1 = f32[1280,1280]{1,0} add(%select.21457.5.clone.1, %multiply.27077.1.clone.1)
  %multiply.27078.7.clone.1 = f32[1280,1280]{1,0} multiply(%add.251342.3.clone.1, %select.21464.3.clone.1)
  %add.251343.9.clone.1 = f32[1280,1280]{1,0} add(%select.21456.11.clone.1, %multiply.27078.7.clone.1)
  %multiply.27079.7.clone.1 = f32[1280,1280]{1,0} multiply(%add.251343.9.clone.1, %select.21464.3.clone.1)
  %add.251344.7.clone.1 = f32[1280,1280]{1,0} add(%select.21455.7.clone.1, %multiply.27079.7.clone.1)
  %multiply.27080.7.clone.1 = f32[1280,1280]{1,0} multiply(%add.251344.7.clone.1, %maximum.3745.3.clone.1)
  %select.21465.7.clone.1 = f32[1280,1280]{1,0} select(%compare.7320.3.clone.1, %multiply.27070.9.clone.1, %multiply.27080.7.clone.1)
  %multiply.27081.5.clone.1 = f32[1280,1280]{1,0} multiply(%select.21465.7.clone.1, %broadcast.244500.640)
  %clamp.1223.3.clone.1 = f32[1280,1280]{1,0} clamp(%broadcast.244407.384, %multiply.27081.5.clone.1, %broadcast.244501.384)
  %multiply.27082.1.clone.1 = f32[1280,1280]{1,0} multiply(%clamp.1223.3.clone.1, %broadcast.244502.1)
  %constant_177052_1_clone_1 = u32[] constant(196262093)
  %broadcast.252577.44.clone.1 = u32[1280,1280]{1,0} broadcast(%constant_177052_1_clone_1), dimensions={}
  %add.248749.37.clone.1 = u32[1280,1280]{1,0} add(%convert.3610.4865, %broadcast.252577.44.clone.1)
  %constant_177063_1_clone_1 = u32[] constant(157763338)
  %broadcast.252578.113.clone.1 = u32[1280,1280]{1,0} broadcast(%constant_177063_1_clone_1), dimensions={}
  %add.248750.99.clone.1 = u32[1280,1280]{1,0} add(%convert.3611.12801, %broadcast.252578.113.clone.1)
  %add.248752.35.clone.1 = u32[1280,1280]{1,0} add(%add.248749.37.clone.1, %add.248750.99.clone.1)
  %shift-left.109762.31.clone.1 = u32[1280,1280]{1,0} shift-left(%add.248750.99.clone.1, %broadcast.244414.6272)
  %shift-right-logical.115961.29.clone.1 = u32[1280,1280]{1,0} shift-right-logical(%add.248750.99.clone.1, %broadcast.244415.6016)
  %or.115485.29.clone.1 = u32[1280,1280]{1,0} or(%shift-left.109762.31.clone.1, %shift-right-logical.115961.29.clone.1)
  %xor.122030.27.clone.1 = u32[1280,1280]{1,0} xor(%add.248752.35.clone.1, %or.115485.29.clone.1)
  %add.248753.5.clone.1 = u32[1280,1280]{1,0} add(%add.248752.35.clone.1, %xor.122030.27.clone.1)
  %shift-left.109764.9.clone.1 = u32[1280,1280]{1,0} shift-left(%xor.122030.27.clone.1, %broadcast.244416.5760)
  %shift-right-logical.115962.9.clone.1 = u32[1280,1280]{1,0} shift-right-logical(%xor.122030.27.clone.1, %broadcast.244417.5760)
  %or.115486.7.clone.1 = u32[1280,1280]{1,0} or(%shift-left.109764.9.clone.1, %shift-right-logical.115962.9.clone.1)
  %xor.122031.5.clone.1 = u32[1280,1280]{1,0} xor(%add.248753.5.clone.1, %or.115486.7.clone.1)
  %add.248754.3.clone.1 = u32[1280,1280]{1,0} add(%add.248753.5.clone.1, %xor.122031.5.clone.1)
  %shift-left.109765.5.clone.1 = u32[1280,1280]{1,0} shift-left(%xor.122031.5.clone.1, %broadcast.244418.4352)
  %shift-right-logical.115963.5.clone.1 = u32[1280,1280]{1,0} shift-right-logical(%xor.122031.5.clone.1, %broadcast.244419.4352)
  %or.115487.3.clone.1 = u32[1280,1280]{1,0} or(%shift-left.109765.5.clone.1, %shift-right-logical.115963.5.clone.1)
  %xor.122032.3.clone.1 = u32[1280,1280]{1,0} xor(%add.248754.3.clone.1, %or.115487.3.clone.1)
  %add.248755.3.clone.1 = u32[1280,1280]{1,0} add(%add.248754.3.clone.1, %xor.122032.3.clone.1)
  %add.248757.7.clone.1 = u32[1280,1280]{1,0} add(%add.248755.3.clone.1, %broadcast.252578.113.clone.1)
  %shift-left.109766.5.clone.1 = u32[1280,1280]{1,0} shift-left(%xor.122032.3.clone.1, %broadcast.244419.4352)
  %shift-right-logical.115964.5.clone.1 = u32[1280,1280]{1,0} shift-right-logical(%xor.122032.3.clone.1, %broadcast.244418.4352)
  %or.115488.3.clone.1 = u32[1280,1280]{1,0} or(%shift-left.109766.5.clone.1, %shift-right-logical.115964.5.clone.1)
  %xor.122033.3.clone.1 = u32[1280,1280]{1,0} xor(%add.248755.3.clone.1, %or.115488.3.clone.1)
  %constant_218282_1_clone_1 = u32[] constant(419750942)
  %broadcast.252590.5.clone.1 = u32[1280,1280]{1,0} broadcast(%constant_218282_1_clone_1), dimensions={}
  %add.248758.5.clone.1 = u32[1280,1280]{1,0} add(%xor.122033.3.clone.1, %broadcast.252590.5.clone.1)
  %add.248759.5.clone.1 = u32[1280,1280]{1,0} add(%add.248757.7.clone.1, %add.248758.5.clone.1)
  %shift-left.109767.9.clone.1 = u32[1280,1280]{1,0} shift-left(%add.248758.5.clone.1, %broadcast.244417.5760)
  %shift-right-logical.115965.9.clone.1 = u32[1280,1280]{1,0} shift-right-logical(%add.248758.5.clone.1, %broadcast.244416.5760)
  %or.115489.7.clone.1 = u32[1280,1280]{1,0} or(%shift-left.109767.9.clone.1, %shift-right-logical.115965.9.clone.1)
  %xor.122034.5.clone.1 = u32[1280,1280]{1,0} xor(%add.248759.5.clone.1, %or.115489.7.clone.1)
  %add.248760.3.clone.1 = u32[1280,1280]{1,0} add(%add.248759.5.clone.1, %xor.122034.5.clone.1)
  %shift-left.109769.9.clone.1 = u32[1280,1280]{1,0} shift-left(%xor.122034.5.clone.1, %broadcast.244428.2304)
  %shift-right-logical.115966.9.clone.1 = u32[1280,1280]{1,0} shift-right-logical(%xor.122034.5.clone.1, %broadcast.244429.2304)
  %or.115490.7.clone.1 = u32[1280,1280]{1,0} or(%shift-left.109769.9.clone.1, %shift-right-logical.115966.9.clone.1)
  %xor.122035.5.clone.1 = u32[1280,1280]{1,0} xor(%add.248760.3.clone.1, %or.115490.7.clone.1)
  %add.248761.3.clone.1 = u32[1280,1280]{1,0} add(%add.248760.3.clone.1, %xor.122035.5.clone.1)
  %shift-left.109770.9.clone.1 = u32[1280,1280]{1,0} shift-left(%xor.122035.5.clone.1, %broadcast.244430.4608)
  %shift-right-logical.115967.9.clone.1 = u32[1280,1280]{1,0} shift-right-logical(%xor.122035.5.clone.1, %broadcast.244430.4608)
  %or.115491.7.clone.1 = u32[1280,1280]{1,0} or(%shift-left.109770.9.clone.1, %shift-right-logical.115967.9.clone.1)
  %xor.122036.5.clone.1 = u32[1280,1280]{1,0} xor(%add.248761.3.clone.1, %or.115491.7.clone.1)
  %add.248763.3.clone.1 = u32[1280,1280]{1,0} add(%add.248761.3.clone.1, %xor.122036.5.clone.1)
  %constant_177065_1_clone_1 = u32[] constant(419750941)
  %broadcast.252597.24.clone.1 = u32[1280,1280]{1,0} broadcast(%constant_177065_1_clone_1), dimensions={}
  %add.248767.7.clone.1 = u32[1280,1280]{1,0} add(%add.248763.3.clone.1, %broadcast.252597.24.clone.1)
  %shift-left.109771.11.clone.1 = u32[1280,1280]{1,0} shift-left(%xor.122036.5.clone.1, %broadcast.244433.2816)
  %shift-right-logical.115968.11.clone.1 = u32[1280,1280]{1,0} shift-right-logical(%xor.122036.5.clone.1, %broadcast.244434.2816)
  %or.115492.9.clone.1 = u32[1280,1280]{1,0} or(%shift-left.109771.11.clone.1, %shift-right-logical.115968.11.clone.1)
  %xor.122037.7.clone.1 = u32[1280,1280]{1,0} xor(%add.248763.3.clone.1, %or.115492.9.clone.1)
  %constant_218283_1_clone_1 = u32[] constant(196262095)
  %broadcast.252600.5.clone.1 = u32[1280,1280]{1,0} broadcast(%constant_218283_1_clone_1), dimensions={}
  %add.248768.5.clone.1 = u32[1280,1280]{1,0} add(%xor.122037.7.clone.1, %broadcast.252600.5.clone.1)
  %add.248769.5.clone.1 = u32[1280,1280]{1,0} add(%add.248767.7.clone.1, %add.248768.5.clone.1)
  %shift-left.109772.9.clone.1 = u32[1280,1280]{1,0} shift-left(%add.248768.5.clone.1, %broadcast.244414.6272)
  %shift-right-logical.115969.9.clone.1 = u32[1280,1280]{1,0} shift-right-logical(%add.248768.5.clone.1, %broadcast.244415.6016)
  %or.115493.7.clone.1 = u32[1280,1280]{1,0} or(%shift-left.109772.9.clone.1, %shift-right-logical.115969.9.clone.1)
  %xor.122038.5.clone.1 = u32[1280,1280]{1,0} xor(%add.248769.5.clone.1, %or.115493.7.clone.1)
  %add.248770.3.clone.1 = u32[1280,1280]{1,0} add(%add.248769.5.clone.1, %xor.122038.5.clone.1)
  %shift-left.109773.9.clone.1 = u32[1280,1280]{1,0} shift-left(%xor.122038.5.clone.1, %broadcast.244416.5760)
  %shift-right-logical.115970.9.clone.1 = u32[1280,1280]{1,0} shift-right-logical(%xor.122038.5.clone.1, %broadcast.244417.5760)
  %or.115495.7.clone.1 = u32[1280,1280]{1,0} or(%shift-left.109773.9.clone.1, %shift-right-logical.115970.9.clone.1)
  %xor.122039.5.clone.1 = u32[1280,1280]{1,0} xor(%add.248770.3.clone.1, %or.115495.7.clone.1)
  %add.248772.3.clone.1 = u32[1280,1280]{1,0} add(%add.248770.3.clone.1, %xor.122039.5.clone.1)
  %shift-left.109774.7.clone.1 = u32[1280,1280]{1,0} shift-left(%xor.122039.5.clone.1, %broadcast.244418.4352)
  %shift-right-logical.115971.7.clone.1 = u32[1280,1280]{1,0} shift-right-logical(%xor.122039.5.clone.1, %broadcast.244419.4352)
  %or.115496.5.clone.1 = u32[1280,1280]{1,0} or(%shift-left.109774.7.clone.1, %shift-right-logical.115971.7.clone.1)
  %xor.122040.3.clone.1 = u32[1280,1280]{1,0} xor(%add.248772.3.clone.1, %or.115496.5.clone.1)
  %add.248773.3.clone.1 = u32[1280,1280]{1,0} add(%add.248772.3.clone.1, %xor.122040.3.clone.1)
  %add.248774.7.clone.1 = u32[1280,1280]{1,0} add(%add.248773.3.clone.1, %broadcast.252577.44.clone.1)
  %shift-left.109775.7.clone.1 = u32[1280,1280]{1,0} shift-left(%xor.122040.3.clone.1, %broadcast.244419.4352)
  %shift-right-logical.115972.7.clone.1 = u32[1280,1280]{1,0} shift-right-logical(%xor.122040.3.clone.1, %broadcast.244418.4352)
  %or.115498.5.clone.1 = u32[1280,1280]{1,0} or(%shift-left.109775.7.clone.1, %shift-right-logical.115972.7.clone.1)
  %xor.122041.3.clone.1 = u32[1280,1280]{1,0} xor(%add.248773.3.clone.1, %or.115498.5.clone.1)
  %constant_218284_1_clone_1 = u32[] constant(157763341)
  %broadcast.252612.5.clone.1 = u32[1280,1280]{1,0} broadcast(%constant_218284_1_clone_1), dimensions={}
  %add.248775.5.clone.1 = u32[1280,1280]{1,0} add(%xor.122041.3.clone.1, %broadcast.252612.5.clone.1)
  %add.248777.5.clone.1 = u32[1280,1280]{1,0} add(%add.248774.7.clone.1, %add.248775.5.clone.1)
  %shift-left.109776.9.clone.1 = u32[1280,1280]{1,0} shift-left(%add.248775.5.clone.1, %broadcast.244417.5760)
  %shift-right-logical.115973.9.clone.1 = u32[1280,1280]{1,0} shift-right-logical(%add.248775.5.clone.1, %broadcast.244416.5760)
  %or.115499.7.clone.1 = u32[1280,1280]{1,0} or(%shift-left.109776.9.clone.1, %shift-right-logical.115973.9.clone.1)
  %xor.122042.5.clone.1 = u32[1280,1280]{1,0} xor(%add.248777.5.clone.1, %or.115499.7.clone.1)
  %add.248778.3.clone.1 = u32[1280,1280]{1,0} add(%add.248777.5.clone.1, %xor.122042.5.clone.1)
  %shift-left.109777.9.clone.1 = u32[1280,1280]{1,0} shift-left(%xor.122042.5.clone.1, %broadcast.244428.2304)
  %shift-right-logical.115974.9.clone.1 = u32[1280,1280]{1,0} shift-right-logical(%xor.122042.5.clone.1, %broadcast.244429.2304)
  %or.115500.7.clone.1 = u32[1280,1280]{1,0} or(%shift-left.109777.9.clone.1, %shift-right-logical.115974.9.clone.1)
  %xor.122043.5.clone.1 = u32[1280,1280]{1,0} xor(%add.248778.3.clone.1, %or.115500.7.clone.1)
  %add.248779.3.clone.1 = u32[1280,1280]{1,0} add(%add.248778.3.clone.1, %xor.122043.5.clone.1)
  %shift-left.109779.9.clone.1 = u32[1280,1280]{1,0} shift-left(%xor.122043.5.clone.1, %broadcast.244430.4608)
  %shift-right-logical.115975.9.clone.1 = u32[1280,1280]{1,0} shift-right-logical(%xor.122043.5.clone.1, %broadcast.244430.4608)
  %or.115501.7.clone.1 = u32[1280,1280]{1,0} or(%shift-left.109779.9.clone.1, %shift-right-logical.115975.9.clone.1)
  %xor.122044.5.clone.1 = u32[1280,1280]{1,0} xor(%add.248779.3.clone.1, %or.115501.7.clone.1)
  %add.248780.3.clone.1 = u32[1280,1280]{1,0} add(%add.248779.3.clone.1, %xor.122044.5.clone.1)
  %add.248782.7.clone.1 = u32[1280,1280]{1,0} add(%add.248780.3.clone.1, %broadcast.252578.113.clone.1)
  %shift-left.109780.11.clone.1 = u32[1280,1280]{1,0} shift-left(%xor.122044.5.clone.1, %broadcast.244433.2816)
  %shift-right-logical.115976.11.clone.1 = u32[1280,1280]{1,0} shift-right-logical(%xor.122044.5.clone.1, %broadcast.244434.2816)
  %or.115502.9.clone.1 = u32[1280,1280]{1,0} or(%shift-left.109780.11.clone.1, %shift-right-logical.115976.11.clone.1)
  %xor.122045.7.clone.1 = u32[1280,1280]{1,0} xor(%add.248780.3.clone.1, %or.115502.9.clone.1)
  %constant_218285_1_clone_1 = u32[] constant(419750945)
  %broadcast.252622.5.clone.1 = u32[1280,1280]{1,0} broadcast(%constant_218285_1_clone_1), dimensions={}
  %add.248783.5.clone.1 = u32[1280,1280]{1,0} add(%xor.122045.7.clone.1, %broadcast.252622.5.clone.1)
  %add.248784.5.clone.1 = u32[1280,1280]{1,0} add(%add.248782.7.clone.1, %add.248783.5.clone.1)
  %shift-left.109781.9.clone.1 = u32[1280,1280]{1,0} shift-left(%add.248783.5.clone.1, %broadcast.244414.6272)
  %shift-right-logical.115977.9.clone.1 = u32[1280,1280]{1,0} shift-right-logical(%add.248783.5.clone.1, %broadcast.244415.6016)
  %or.115503.7.clone.1 = u32[1280,1280]{1,0} or(%shift-left.109781.9.clone.1, %shift-right-logical.115977.9.clone.1)
  %xor.122046.5.clone.1 = u32[1280,1280]{1,0} xor(%add.248784.5.clone.1, %or.115503.7.clone.1)
  %add.248785.3.clone.1 = u32[1280,1280]{1,0} add(%add.248784.5.clone.1, %xor.122046.5.clone.1)
  %shift-left.109782.9.clone.1 = u32[1280,1280]{1,0} shift-left(%xor.122046.5.clone.1, %broadcast.244416.5760)
  %shift-right-logical.115978.9.clone.1 = u32[1280,1280]{1,0} shift-right-logical(%xor.122046.5.clone.1, %broadcast.244417.5760)
  %or.115504.7.clone.1 = u32[1280,1280]{1,0} or(%shift-left.109782.9.clone.1, %shift-right-logical.115978.9.clone.1)
  %xor.122047.5.clone.1 = u32[1280,1280]{1,0} xor(%add.248785.3.clone.1, %or.115504.7.clone.1)
  %add.248786.3.clone.1 = u32[1280,1280]{1,0} add(%add.248785.3.clone.1, %xor.122047.5.clone.1)
  %shift-left.109784.5.clone.1 = u32[1280,1280]{1,0} shift-left(%xor.122047.5.clone.1, %broadcast.244418.4352)
  %shift-right-logical.115979.5.clone.1 = u32[1280,1280]{1,0} shift-right-logical(%xor.122047.5.clone.1, %broadcast.244419.4352)
  %or.115505.3.clone.1 = u32[1280,1280]{1,0} or(%shift-left.109784.5.clone.1, %shift-right-logical.115979.5.clone.1)
  %xor.122048.3.clone.1 = u32[1280,1280]{1,0} xor(%add.248786.3.clone.1, %or.115505.3.clone.1)
  %add.248788.3.clone.1 = u32[1280,1280]{1,0} add(%add.248786.3.clone.1, %xor.122048.3.clone.1)
  %add.248792.17.clone.1 = u32[1280,1280]{1,0} add(%add.248788.3.clone.1, %broadcast.252597.24.clone.1)
  %shift-left.109785.5.clone.1 = u32[1280,1280]{1,0} shift-left(%xor.122048.3.clone.1, %broadcast.244419.4352)
  %shift-right-logical.115980.5.clone.1 = u32[1280,1280]{1,0} shift-right-logical(%xor.122048.3.clone.1, %broadcast.244418.4352)
  %or.115506.3.clone.1 = u32[1280,1280]{1,0} or(%shift-left.109785.5.clone.1, %shift-right-logical.115980.5.clone.1)
  %xor.122051.15.clone.1 = u32[1280,1280]{1,0} xor(%add.248788.3.clone.1, %or.115506.3.clone.1)
  %constant_218286_1_clone_1 = u32[] constant(196262098)
  %broadcast.252634.19.clone.1 = u32[1280,1280]{1,0} broadcast(%constant_218286_1_clone_1), dimensions={}
  %add.248793.19.clone.1 = u32[1280,1280]{1,0} add(%xor.122051.15.clone.1, %broadcast.252634.19.clone.1)
  %xor.122052.17.clone.1 = u32[1280,1280]{1,0} xor(%add.248792.17.clone.1, %add.248793.19.clone.1)
  %shift-right-logical.115981.15.clone.1 = u32[1280,1280]{1,0} shift-right-logical(%xor.122052.17.clone.1, %broadcast.244468.1920)
  %or.115507.13.clone.1 = u32[1280,1280]{1,0} or(%shift-right-logical.115981.15.clone.1, %broadcast.244469.1664)
  %bitcast-convert.5762.11.clone.1 = f32[1280,1280]{1,0} bitcast-convert(%or.115507.13.clone.1)
  %add.248794.9.clone.1 = f32[1280,1280]{1,0} add(%bitcast-convert.5762.11.clone.1, %broadcast.244470.1152)
  %multiply.26557.7.clone.1 = f32[1280,1280]{1,0} multiply(%add.248794.9.clone.1, %broadcast.244471.896)
  %add.248795.5.clone.1 = f32[1280,1280]{1,0} add(%multiply.26557.7.clone.1, %broadcast.244408.1024)
  %maximum.3694.3.clone.1 = f32[1280,1280]{1,0} maximum(%broadcast.244408.1024, %add.248795.5.clone.1)
  %abs.1546.3.clone.1 = f32[1280,1280]{1,0} abs(%maximum.3694.3.clone.1)
  %compare.7240.3.clone.1 = pred[1280,1280]{1,0} compare(%abs.1546.3.clone.1, %broadcast.244475.384), direction=EQ
  %multiply.26558.9.clone.1 = f32[1280,1280]{1,0} multiply(%maximum.3694.3.clone.1, %broadcast.244476.1152)
  %negate.4597.5.clone.1 = f32[1280,1280]{1,0} negate(%maximum.3694.3.clone.1)
  %multiply.26559.5.clone.1 = f32[1280,1280]{1,0} multiply(%maximum.3694.3.clone.1, %negate.4597.5.clone.1)
  %log-plus-one.1546.3.clone.1 = f32[1280,1280]{1,0} log-plus-one(%multiply.26559.5.clone.1)
  %negate.4598.4.clone.1 = f32[1280,1280]{1,0} negate(%log-plus-one.1546.3.clone.1)
  %compare.7241.3.clone.1 = pred[1280,1280]{1,0} compare(%negate.4598.4.clone.1, %broadcast.244477.384), direction=LT
  %select.21092.7.clone.1 = f32[1280,1280]{1,0} select(%compare.7241.3.clone.1, %broadcast.244478.896, %broadcast.244479.896)
  %select.21093.11.clone.1 = f32[1280,1280]{1,0} select(%compare.7241.3.clone.1, %broadcast.244480.1408, %broadcast.244481.1408)
  %select.21094.5.clone.1 = f32[1280,1280]{1,0} select(%compare.7241.3.clone.1, %broadcast.244482.640, %broadcast.244483.640)
  %select.21095.5.clone.1 = f32[1280,1280]{1,0} select(%compare.7241.3.clone.1, %broadcast.244484.640, %broadcast.244485.640)
  %select.21096.3.clone.1 = f32[1280,1280]{1,0} select(%compare.7241.3.clone.1, %broadcast.244486.384, %broadcast.244487.384)
  %select.21097.3.clone.1 = f32[1280,1280]{1,0} select(%compare.7241.3.clone.1, %broadcast.244488.384, %broadcast.244489.384)
  %select.21098.3.clone.1 = f32[1280,1280]{1,0} select(%compare.7241.3.clone.1, %broadcast.244490.384, %broadcast.244491.384)
  %select.21099.3.clone.1 = f32[1280,1280]{1,0} select(%compare.7241.3.clone.1, %broadcast.244492.384, %broadcast.244493.384)
  %select.21100.3.clone.1 = f32[1280,1280]{1,0} select(%compare.7241.3.clone.1, %broadcast.244494.384, %broadcast.244495.384)
  %add.248797.5.clone.1 = f32[1280,1280]{1,0} add(%negate.4598.4.clone.1, %broadcast.244496.640)
  %sqrt.1546.5.clone.1 = f32[1280,1280]{1,0} sqrt(%negate.4598.4.clone.1)
  %add.248798.5.clone.1 = f32[1280,1280]{1,0} add(%sqrt.1546.5.clone.1, %broadcast.244498.640)
  %select.21101.3.clone.1 = f32[1280,1280]{1,0} select(%compare.7241.3.clone.1, %add.248797.5.clone.1, %add.248798.5.clone.1)
  %multiply.26560.1.clone.1 = f32[1280,1280]{1,0} multiply(%select.21100.3.clone.1, %select.21101.3.clone.1)
  %add.248799.1.clone.1 = f32[1280,1280]{1,0} add(%select.21099.3.clone.1, %multiply.26560.1.clone.1)
  %multiply.26561.1.clone.1 = f32[1280,1280]{1,0} multiply(%add.248799.1.clone.1, %select.21101.3.clone.1)
  %add.248800.1.clone.1 = f32[1280,1280]{1,0} add(%select.21098.3.clone.1, %multiply.26561.1.clone.1)
  %multiply.26562.1.clone.1 = f32[1280,1280]{1,0} multiply(%add.248800.1.clone.1, %select.21101.3.clone.1)
  %add.248802.1.clone.1 = f32[1280,1280]{1,0} add(%select.21097.3.clone.1, %multiply.26562.1.clone.1)
  %multiply.26563.1.clone.1 = f32[1280,1280]{1,0} multiply(%add.248802.1.clone.1, %select.21101.3.clone.1)
  %add.248803.1.clone.1 = f32[1280,1280]{1,0} add(%select.21096.3.clone.1, %multiply.26563.1.clone.1)
  %multiply.26564.1.clone.1 = f32[1280,1280]{1,0} multiply(%add.248803.1.clone.1, %select.21101.3.clone.1)
  %add.248804.3.clone.1 = f32[1280,1280]{1,0} add(%select.21095.5.clone.1, %multiply.26564.1.clone.1)
  %multiply.26565.1.clone.1 = f32[1280,1280]{1,0} multiply(%add.248804.3.clone.1, %select.21101.3.clone.1)
  %add.248805.3.clone.1 = f32[1280,1280]{1,0} add(%select.21094.5.clone.1, %multiply.26565.1.clone.1)
  %multiply.26566.7.clone.1 = f32[1280,1280]{1,0} multiply(%add.248805.3.clone.1, %select.21101.3.clone.1)
  %add.248807.9.clone.1 = f32[1280,1280]{1,0} add(%select.21093.11.clone.1, %multiply.26566.7.clone.1)
  %multiply.26567.7.clone.1 = f32[1280,1280]{1,0} multiply(%add.248807.9.clone.1, %select.21101.3.clone.1)
  %add.248808.7.clone.1 = f32[1280,1280]{1,0} add(%select.21092.7.clone.1, %multiply.26567.7.clone.1)
  %multiply.26568.7.clone.1 = f32[1280,1280]{1,0} multiply(%add.248808.7.clone.1, %maximum.3694.3.clone.1)
  %select.21102.7.clone.1 = f32[1280,1280]{1,0} select(%compare.7240.3.clone.1, %multiply.26558.9.clone.1, %multiply.26568.7.clone.1)
  %multiply.26569.5.clone.1 = f32[1280,1280]{1,0} multiply(%select.21102.7.clone.1, %broadcast.244500.640)
  %clamp.1190.3.clone.1 = f32[1280,1280]{1,0} clamp(%broadcast.244407.384, %multiply.26569.5.clone.1, %broadcast.244501.384)
  %multiply.26570.1.clone.1 = f32[1280,1280]{1,0} multiply(%clamp.1190.3.clone.1, %broadcast.244502.1)
  %constant_192244_1_clone_1 = u32[] constant(2225837459)
  %broadcast.259151.44.clone.1 = u32[1280,1280]{1,0} broadcast(%constant_192244_1_clone_1), dimensions={}
  %add.252505.37.clone.1 = u32[1280,1280]{1,0} add(%convert.3610.4865, %broadcast.259151.44.clone.1)
  %constant_192251_1_clone_1 = u32[] constant(1598632266)
  %broadcast.259152.113.clone.1 = u32[1280,1280]{1,0} broadcast(%constant_192251_1_clone_1), dimensions={}
  %add.252506.99.clone.1 = u32[1280,1280]{1,0} add(%convert.3611.12801, %broadcast.259152.113.clone.1)
  %add.252507.35.clone.1 = u32[1280,1280]{1,0} add(%add.252505.37.clone.1, %add.252506.99.clone.1)
  %shift-left.111400.31.clone.1 = u32[1280,1280]{1,0} shift-left(%add.252506.99.clone.1, %broadcast.244414.6272)
  %shift-right-logical.117702.29.clone.1 = u32[1280,1280]{1,0} shift-right-logical(%add.252506.99.clone.1, %broadcast.244415.6016)
  %or.117230.29.clone.1 = u32[1280,1280]{1,0} or(%shift-left.111400.31.clone.1, %shift-right-logical.117702.29.clone.1)
  %xor.123785.27.clone.1 = u32[1280,1280]{1,0} xor(%add.252507.35.clone.1, %or.117230.29.clone.1)
  %add.252508.5.clone.1 = u32[1280,1280]{1,0} add(%add.252507.35.clone.1, %xor.123785.27.clone.1)
  %shift-left.111401.9.clone.1 = u32[1280,1280]{1,0} shift-left(%xor.123785.27.clone.1, %broadcast.244416.5760)
  %shift-right-logical.117703.9.clone.1 = u32[1280,1280]{1,0} shift-right-logical(%xor.123785.27.clone.1, %broadcast.244417.5760)
  %or.117231.7.clone.1 = u32[1280,1280]{1,0} or(%shift-left.111401.9.clone.1, %shift-right-logical.117703.9.clone.1)
  %xor.123786.5.clone.1 = u32[1280,1280]{1,0} xor(%add.252508.5.clone.1, %or.117231.7.clone.1)
  %add.252509.3.clone.1 = u32[1280,1280]{1,0} add(%add.252508.5.clone.1, %xor.123786.5.clone.1)
  %shift-left.111402.5.clone.1 = u32[1280,1280]{1,0} shift-left(%xor.123786.5.clone.1, %broadcast.244418.4352)
  %shift-right-logical.117705.5.clone.1 = u32[1280,1280]{1,0} shift-right-logical(%xor.123786.5.clone.1, %broadcast.244419.4352)
  %or.117232.3.clone.1 = u32[1280,1280]{1,0} or(%shift-left.111402.5.clone.1, %shift-right-logical.117705.5.clone.1)
  %xor.123787.3.clone.1 = u32[1280,1280]{1,0} xor(%add.252509.3.clone.1, %or.117232.3.clone.1)
  %add.252510.3.clone.1 = u32[1280,1280]{1,0} add(%add.252509.3.clone.1, %xor.123787.3.clone.1)
  %add.252511.7.clone.1 = u32[1280,1280]{1,0} add(%add.252510.3.clone.1, %broadcast.259152.113.clone.1)
  %shift-left.111403.5.clone.1 = u32[1280,1280]{1,0} shift-left(%xor.123787.3.clone.1, %broadcast.244419.4352)
  %shift-right-logical.117706.5.clone.1 = u32[1280,1280]{1,0} shift-right-logical(%xor.123787.3.clone.1, %broadcast.244418.4352)
  %or.117233.3.clone.1 = u32[1280,1280]{1,0} or(%shift-left.111403.5.clone.1, %shift-right-logical.117706.5.clone.1)
  %xor.123788.3.clone.1 = u32[1280,1280]{1,0} xor(%add.252510.3.clone.1, %or.117233.3.clone.1)
  %constant_218695_1_clone_1 = u32[] constant(3224616708)
  %broadcast.259162.5.clone.1 = u32[1280,1280]{1,0} broadcast(%constant_218695_1_clone_1), dimensions={}
  %add.252512.5.clone.1 = u32[1280,1280]{1,0} add(%xor.123788.3.clone.1, %broadcast.259162.5.clone.1)
  %add.252513.5.clone.1 = u32[1280,1280]{1,0} add(%add.252511.7.clone.1, %add.252512.5.clone.1)
  %shift-left.111404.9.clone.1 = u32[1280,1280]{1,0} shift-left(%add.252512.5.clone.1, %broadcast.244417.5760)
  %shift-right-logical.117707.9.clone.1 = u32[1280,1280]{1,0} shift-right-logical(%add.252512.5.clone.1, %broadcast.244416.5760)
  %or.117234.7.clone.1 = u32[1280,1280]{1,0} or(%shift-left.111404.9.clone.1, %shift-right-logical.117707.9.clone.1)
  %xor.123789.5.clone.1 = u32[1280,1280]{1,0} xor(%add.252513.5.clone.1, %or.117234.7.clone.1)
  %add.252514.3.clone.1 = u32[1280,1280]{1,0} add(%add.252513.5.clone.1, %xor.123789.5.clone.1)
  %shift-left.111405.9.clone.1 = u32[1280,1280]{1,0} shift-left(%xor.123789.5.clone.1, %broadcast.244428.2304)
  %shift-right-logical.117708.9.clone.1 = u32[1280,1280]{1,0} shift-right-logical(%xor.123789.5.clone.1, %broadcast.244429.2304)
  %or.117235.7.clone.1 = u32[1280,1280]{1,0} or(%shift-left.111405.9.clone.1, %shift-right-logical.117708.9.clone.1)
  %xor.123790.5.clone.1 = u32[1280,1280]{1,0} xor(%add.252514.3.clone.1, %or.117235.7.clone.1)
  %add.252515.3.clone.1 = u32[1280,1280]{1,0} add(%add.252514.3.clone.1, %xor.123790.5.clone.1)
  %shift-left.111406.9.clone.1 = u32[1280,1280]{1,0} shift-left(%xor.123790.5.clone.1, %broadcast.244430.4608)
  %shift-right-logical.117710.9.clone.1 = u32[1280,1280]{1,0} shift-right-logical(%xor.123790.5.clone.1, %broadcast.244430.4608)
  %or.117236.7.clone.1 = u32[1280,1280]{1,0} or(%shift-left.111406.9.clone.1, %shift-right-logical.117710.9.clone.1)
  %xor.123791.5.clone.1 = u32[1280,1280]{1,0} xor(%add.252515.3.clone.1, %or.117236.7.clone.1)
  %add.252516.3.clone.1 = u32[1280,1280]{1,0} add(%add.252515.3.clone.1, %xor.123791.5.clone.1)
  %constant_192253_1_clone_1 = u32[] constant(3224616707)
  %broadcast.259169.24.clone.1 = u32[1280,1280]{1,0} broadcast(%constant_192253_1_clone_1), dimensions={}
  %add.252517.7.clone.1 = u32[1280,1280]{1,0} add(%add.252516.3.clone.1, %broadcast.259169.24.clone.1)
  %shift-left.111407.11.clone.1 = u32[1280,1280]{1,0} shift-left(%xor.123791.5.clone.1, %broadcast.244433.2816)
  %shift-right-logical.117711.11.clone.1 = u32[1280,1280]{1,0} shift-right-logical(%xor.123791.5.clone.1, %broadcast.244434.2816)
  %or.117237.9.clone.1 = u32[1280,1280]{1,0} or(%shift-left.111407.11.clone.1, %shift-right-logical.117711.11.clone.1)
  %xor.123792.7.clone.1 = u32[1280,1280]{1,0} xor(%add.252516.3.clone.1, %or.117237.9.clone.1)
  %constant_218696_1_clone_1 = u32[] constant(2225837461)
  %broadcast.259172.5.clone.1 = u32[1280,1280]{1,0} broadcast(%constant_218696_1_clone_1), dimensions={}
  %add.252518.5.clone.1 = u32[1280,1280]{1,0} add(%xor.123792.7.clone.1, %broadcast.259172.5.clone.1)
  %add.252519.5.clone.1 = u32[1280,1280]{1,0} add(%add.252517.7.clone.1, %add.252518.5.clone.1)
  %shift-left.111408.9.clone.1 = u32[1280,1280]{1,0} shift-left(%add.252518.5.clone.1, %broadcast.244414.6272)
  %shift-right-logical.117712.9.clone.1 = u32[1280,1280]{1,0} shift-right-logical(%add.252518.5.clone.1, %broadcast.244415.6016)
  %or.117238.7.clone.1 = u32[1280,1280]{1,0} or(%shift-left.111408.9.clone.1, %shift-right-logical.117712.9.clone.1)
  %xor.123793.5.clone.1 = u32[1280,1280]{1,0} xor(%add.252519.5.clone.1, %or.117238.7.clone.1)
  %add.252520.3.clone.1 = u32[1280,1280]{1,0} add(%add.252519.5.clone.1, %xor.123793.5.clone.1)
  %shift-left.111409.9.clone.1 = u32[1280,1280]{1,0} shift-left(%xor.123793.5.clone.1, %broadcast.244416.5760)
  %shift-right-logical.117713.9.clone.1 = u32[1280,1280]{1,0} shift-right-logical(%xor.123793.5.clone.1, %broadcast.244417.5760)
  %or.117239.7.clone.1 = u32[1280,1280]{1,0} or(%shift-left.111409.9.clone.1, %shift-right-logical.117713.9.clone.1)
  %xor.123794.5.clone.1 = u32[1280,1280]{1,0} xor(%add.252520.3.clone.1, %or.117239.7.clone.1)
  %add.252521.3.clone.1 = u32[1280,1280]{1,0} add(%add.252520.3.clone.1, %xor.123794.5.clone.1)
  %shift-left.111410.7.clone.1 = u32[1280,1280]{1,0} shift-left(%xor.123794.5.clone.1, %broadcast.244418.4352)
  %shift-right-logical.117715.7.clone.1 = u32[1280,1280]{1,0} shift-right-logical(%xor.123794.5.clone.1, %broadcast.244419.4352)
  %or.117240.5.clone.1 = u32[1280,1280]{1,0} or(%shift-left.111410.7.clone.1, %shift-right-logical.117715.7.clone.1)
  %xor.123795.3.clone.1 = u32[1280,1280]{1,0} xor(%add.252521.3.clone.1, %or.117240.5.clone.1)
  %add.252522.3.clone.1 = u32[1280,1280]{1,0} add(%add.252521.3.clone.1, %xor.123795.3.clone.1)
  %add.252523.7.clone.1 = u32[1280,1280]{1,0} add(%add.252522.3.clone.1, %broadcast.259151.44.clone.1)
  %shift-left.111411.7.clone.1 = u32[1280,1280]{1,0} shift-left(%xor.123795.3.clone.1, %broadcast.244419.4352)
  %shift-right-logical.117716.7.clone.1 = u32[1280,1280]{1,0} shift-right-logical(%xor.123795.3.clone.1, %broadcast.244418.4352)
  %or.117241.5.clone.1 = u32[1280,1280]{1,0} or(%shift-left.111411.7.clone.1, %shift-right-logical.117716.7.clone.1)
  %xor.123796.3.clone.1 = u32[1280,1280]{1,0} xor(%add.252522.3.clone.1, %or.117241.5.clone.1)
  %constant_218697_1_clone_1 = u32[] constant(1598632269)
  %broadcast.259182.5.clone.1 = u32[1280,1280]{1,0} broadcast(%constant_218697_1_clone_1), dimensions={}
  %add.252524.5.clone.1 = u32[1280,1280]{1,0} add(%xor.123796.3.clone.1, %broadcast.259182.5.clone.1)
  %add.252525.5.clone.1 = u32[1280,1280]{1,0} add(%add.252523.7.clone.1, %add.252524.5.clone.1)
  %shift-left.111412.9.clone.1 = u32[1280,1280]{1,0} shift-left(%add.252524.5.clone.1, %broadcast.244417.5760)
  %shift-right-logical.117717.9.clone.1 = u32[1280,1280]{1,0} shift-right-logical(%add.252524.5.clone.1, %broadcast.244416.5760)
  %or.117242.7.clone.1 = u32[1280,1280]{1,0} or(%shift-left.111412.9.clone.1, %shift-right-logical.117717.9.clone.1)
  %xor.123797.5.clone.1 = u32[1280,1280]{1,0} xor(%add.252525.5.clone.1, %or.117242.7.clone.1)
  %add.252526.3.clone.1 = u32[1280,1280]{1,0} add(%add.252525.5.clone.1, %xor.123797.5.clone.1)
  %shift-left.111413.9.clone.1 = u32[1280,1280]{1,0} shift-left(%xor.123797.5.clone.1, %broadcast.244428.2304)
  %shift-right-logical.117718.9.clone.1 = u32[1280,1280]{1,0} shift-right-logical(%xor.123797.5.clone.1, %broadcast.244429.2304)
  %or.117243.7.clone.1 = u32[1280,1280]{1,0} or(%shift-left.111413.9.clone.1, %shift-right-logical.117718.9.clone.1)
  %xor.123798.5.clone.1 = u32[1280,1280]{1,0} xor(%add.252526.3.clone.1, %or.117243.7.clone.1)
  %add.252527.3.clone.1 = u32[1280,1280]{1,0} add(%add.252526.3.clone.1, %xor.123798.5.clone.1)
  %shift-left.111414.9.clone.1 = u32[1280,1280]{1,0} shift-left(%xor.123798.5.clone.1, %broadcast.244430.4608)
  %shift-right-logical.117720.9.clone.1 = u32[1280,1280]{1,0} shift-right-logical(%xor.123798.5.clone.1, %broadcast.244430.4608)
  %or.117244.7.clone.1 = u32[1280,1280]{1,0} or(%shift-left.111414.9.clone.1, %shift-right-logical.117720.9.clone.1)
  %xor.123799.5.clone.1 = u32[1280,1280]{1,0} xor(%add.252527.3.clone.1, %or.117244.7.clone.1)
  %add.252528.3.clone.1 = u32[1280,1280]{1,0} add(%add.252527.3.clone.1, %xor.123799.5.clone.1)
  %add.252529.7.clone.1 = u32[1280,1280]{1,0} add(%add.252528.3.clone.1, %broadcast.259152.113.clone.1)
  %shift-left.111415.11.clone.1 = u32[1280,1280]{1,0} shift-left(%xor.123799.5.clone.1, %broadcast.244433.2816)
  %shift-right-logical.117721.11.clone.1 = u32[1280,1280]{1,0} shift-right-logical(%xor.123799.5.clone.1, %broadcast.244434.2816)
  %or.117245.9.clone.1 = u32[1280,1280]{1,0} or(%shift-left.111415.11.clone.1, %shift-right-logical.117721.11.clone.1)
  %xor.123800.7.clone.1 = u32[1280,1280]{1,0} xor(%add.252528.3.clone.1, %or.117245.9.clone.1)
  %constant_218698_1_clone_1 = u32[] constant(3224616711)
  %broadcast.259192.5.clone.1 = u32[1280,1280]{1,0} broadcast(%constant_218698_1_clone_1), dimensions={}
  %add.252530.5.clone.1 = u32[1280,1280]{1,0} add(%xor.123800.7.clone.1, %broadcast.259192.5.clone.1)
  %add.252531.5.clone.1 = u32[1280,1280]{1,0} add(%add.252529.7.clone.1, %add.252530.5.clone.1)
  %shift-left.111416.9.clone.1 = u32[1280,1280]{1,0} shift-left(%add.252530.5.clone.1, %broadcast.244414.6272)
  %shift-right-logical.117722.9.clone.1 = u32[1280,1280]{1,0} shift-right-logical(%add.252530.5.clone.1, %broadcast.244415.6016)
  %or.117246.7.clone.1 = u32[1280,1280]{1,0} or(%shift-left.111416.9.clone.1, %shift-right-logical.117722.9.clone.1)
  %xor.123801.5.clone.1 = u32[1280,1280]{1,0} xor(%add.252531.5.clone.1, %or.117246.7.clone.1)
  %add.252532.3.clone.1 = u32[1280,1280]{1,0} add(%add.252531.5.clone.1, %xor.123801.5.clone.1)
  %shift-left.111417.9.clone.1 = u32[1280,1280]{1,0} shift-left(%xor.123801.5.clone.1, %broadcast.244416.5760)
  %shift-right-logical.117723.9.clone.1 = u32[1280,1280]{1,0} shift-right-logical(%xor.123801.5.clone.1, %broadcast.244417.5760)
  %or.117247.7.clone.1 = u32[1280,1280]{1,0} or(%shift-left.111417.9.clone.1, %shift-right-logical.117723.9.clone.1)
  %xor.123802.5.clone.1 = u32[1280,1280]{1,0} xor(%add.252532.3.clone.1, %or.117247.7.clone.1)
  %add.252533.3.clone.1 = u32[1280,1280]{1,0} add(%add.252532.3.clone.1, %xor.123802.5.clone.1)
  %shift-left.111418.5.clone.1 = u32[1280,1280]{1,0} shift-left(%xor.123802.5.clone.1, %broadcast.244418.4352)
  %shift-right-logical.117724.5.clone.1 = u32[1280,1280]{1,0} shift-right-logical(%xor.123802.5.clone.1, %broadcast.244419.4352)
  %or.117248.3.clone.1 = u32[1280,1280]{1,0} or(%shift-left.111418.5.clone.1, %shift-right-logical.117724.5.clone.1)
  %xor.123803.3.clone.1 = u32[1280,1280]{1,0} xor(%add.252533.3.clone.1, %or.117248.3.clone.1)
  %add.252534.3.clone.1 = u32[1280,1280]{1,0} add(%add.252533.3.clone.1, %xor.123803.3.clone.1)
  %add.252535.17.clone.1 = u32[1280,1280]{1,0} add(%add.252534.3.clone.1, %broadcast.259169.24.clone.1)
  %shift-left.111419.5.clone.1 = u32[1280,1280]{1,0} shift-left(%xor.123803.3.clone.1, %broadcast.244419.4352)
  %shift-right-logical.117725.5.clone.1 = u32[1280,1280]{1,0} shift-right-logical(%xor.123803.3.clone.1, %broadcast.244418.4352)
  %or.117249.3.clone.1 = u32[1280,1280]{1,0} or(%shift-left.111419.5.clone.1, %shift-right-logical.117725.5.clone.1)
  %xor.123804.15.clone.1 = u32[1280,1280]{1,0} xor(%add.252534.3.clone.1, %or.117249.3.clone.1)
  %constant_218699_1_clone_1 = u32[] constant(2225837464)
  %broadcast.259202.19.clone.1 = u32[1280,1280]{1,0} broadcast(%constant_218699_1_clone_1), dimensions={}
  %add.252536.19.clone.1 = u32[1280,1280]{1,0} add(%xor.123804.15.clone.1, %broadcast.259202.19.clone.1)
  %xor.123805.17.clone.1 = u32[1280,1280]{1,0} xor(%add.252535.17.clone.1, %add.252536.19.clone.1)
  %shift-right-logical.117726.15.clone.1 = u32[1280,1280]{1,0} shift-right-logical(%xor.123805.17.clone.1, %broadcast.244468.1920)
  %or.117250.13.clone.1 = u32[1280,1280]{1,0} or(%shift-right-logical.117726.15.clone.1, %broadcast.244469.1664)
  %bitcast-convert.5837.11.clone.1 = f32[1280,1280]{1,0} bitcast-convert(%or.117250.13.clone.1)
  %add.252537.9.clone.1 = f32[1280,1280]{1,0} add(%bitcast-convert.5837.11.clone.1, %broadcast.244470.1152)
  %multiply.27310.7.clone.1 = f32[1280,1280]{1,0} multiply(%add.252537.9.clone.1, %broadcast.244471.896)
  %add.252538.5.clone.1 = f32[1280,1280]{1,0} add(%multiply.27310.7.clone.1, %broadcast.244408.1024)
  %maximum.3769.3.clone.1 = f32[1280,1280]{1,0} maximum(%broadcast.244408.1024, %add.252538.5.clone.1)
  %abs.1595.3.clone.1 = f32[1280,1280]{1,0} abs(%maximum.3769.3.clone.1)
  %compare.7352.3.clone.1 = pred[1280,1280]{1,0} compare(%abs.1595.3.clone.1, %broadcast.244475.384), direction=EQ
  %multiply.27311.9.clone.1 = f32[1280,1280]{1,0} multiply(%maximum.3769.3.clone.1, %broadcast.244476.1152)
  %negate.4695.5.clone.1 = f32[1280,1280]{1,0} negate(%maximum.3769.3.clone.1)
  %multiply.27312.5.clone.1 = f32[1280,1280]{1,0} multiply(%maximum.3769.3.clone.1, %negate.4695.5.clone.1)
  %log-plus-one.1595.3.clone.1 = f32[1280,1280]{1,0} log-plus-one(%multiply.27312.5.clone.1)
  %negate.4696.4.clone.1 = f32[1280,1280]{1,0} negate(%log-plus-one.1595.3.clone.1)
  %compare.7353.3.clone.1 = pred[1280,1280]{1,0} compare(%negate.4696.4.clone.1, %broadcast.244477.384), direction=LT
  %select.21652.7.clone.1 = f32[1280,1280]{1,0} select(%compare.7353.3.clone.1, %broadcast.244478.896, %broadcast.244479.896)
  %select.21653.11.clone.1 = f32[1280,1280]{1,0} select(%compare.7353.3.clone.1, %broadcast.244480.1408, %broadcast.244481.1408)
  %select.21654.5.clone.1 = f32[1280,1280]{1,0} select(%compare.7353.3.clone.1, %broadcast.244482.640, %broadcast.244483.640)
  %select.21655.5.clone.1 = f32[1280,1280]{1,0} select(%compare.7353.3.clone.1, %broadcast.244484.640, %broadcast.244485.640)
  %select.21656.3.clone.1 = f32[1280,1280]{1,0} select(%compare.7353.3.clone.1, %broadcast.244486.384, %broadcast.244487.384)
  %select.21657.3.clone.1 = f32[1280,1280]{1,0} select(%compare.7353.3.clone.1, %broadcast.244488.384, %broadcast.244489.384)
  %select.21658.3.clone.1 = f32[1280,1280]{1,0} select(%compare.7353.3.clone.1, %broadcast.244490.384, %broadcast.244491.384)
  %select.21659.3.clone.1 = f32[1280,1280]{1,0} select(%compare.7353.3.clone.1, %broadcast.244492.384, %broadcast.244493.384)
  %select.21660.3.clone.1 = f32[1280,1280]{1,0} select(%compare.7353.3.clone.1, %broadcast.244494.384, %broadcast.244495.384)
  %add.252539.5.clone.1 = f32[1280,1280]{1,0} add(%negate.4696.4.clone.1, %broadcast.244496.640)
  %sqrt.1595.5.clone.1 = f32[1280,1280]{1,0} sqrt(%negate.4696.4.clone.1)
  %add.252540.5.clone.1 = f32[1280,1280]{1,0} add(%sqrt.1595.5.clone.1, %broadcast.244498.640)
  %select.21661.3.clone.1 = f32[1280,1280]{1,0} select(%compare.7353.3.clone.1, %add.252539.5.clone.1, %add.252540.5.clone.1)
  %multiply.27313.1.clone.1 = f32[1280,1280]{1,0} multiply(%select.21660.3.clone.1, %select.21661.3.clone.1)
  %add.252541.1.clone.1 = f32[1280,1280]{1,0} add(%select.21659.3.clone.1, %multiply.27313.1.clone.1)
  %multiply.27314.1.clone.1 = f32[1280,1280]{1,0} multiply(%add.252541.1.clone.1, %select.21661.3.clone.1)
  %add.252542.1.clone.1 = f32[1280,1280]{1,0} add(%select.21658.3.clone.1, %multiply.27314.1.clone.1)
  %multiply.27315.1.clone.1 = f32[1280,1280]{1,0} multiply(%add.252542.1.clone.1, %select.21661.3.clone.1)
  %add.252543.1.clone.1 = f32[1280,1280]{1,0} add(%select.21657.3.clone.1, %multiply.27315.1.clone.1)
  %multiply.27316.1.clone.1 = f32[1280,1280]{1,0} multiply(%add.252543.1.clone.1, %select.21661.3.clone.1)
  %add.252544.1.clone.1 = f32[1280,1280]{1,0} add(%select.21656.3.clone.1, %multiply.27316.1.clone.1)
  %multiply.27317.1.clone.1 = f32[1280,1280]{1,0} multiply(%add.252544.1.clone.1, %select.21661.3.clone.1)
  %add.252545.3.clone.1 = f32[1280,1280]{1,0} add(%select.21655.5.clone.1, %multiply.27317.1.clone.1)
  %multiply.27318.1.clone.1 = f32[1280,1280]{1,0} multiply(%add.252545.3.clone.1, %select.21661.3.clone.1)
  %add.252546.3.clone.1 = f32[1280,1280]{1,0} add(%select.21654.5.clone.1, %multiply.27318.1.clone.1)
  %multiply.27319.7.clone.1 = f32[1280,1280]{1,0} multiply(%add.252546.3.clone.1, %select.21661.3.clone.1)
  %add.252547.9.clone.1 = f32[1280,1280]{1,0} add(%select.21653.11.clone.1, %multiply.27319.7.clone.1)
  %multiply.27320.7.clone.1 = f32[1280,1280]{1,0} multiply(%add.252547.9.clone.1, %select.21661.3.clone.1)
  %add.252548.7.clone.1 = f32[1280,1280]{1,0} add(%select.21652.7.clone.1, %multiply.27320.7.clone.1)
  %multiply.27321.7.clone.1 = f32[1280,1280]{1,0} multiply(%add.252548.7.clone.1, %maximum.3769.3.clone.1)
  %select.21662.7.clone.1 = f32[1280,1280]{1,0} select(%compare.7352.3.clone.1, %multiply.27311.9.clone.1, %multiply.27321.7.clone.1)
  %multiply.27322.5.clone.1 = f32[1280,1280]{1,0} multiply(%select.21662.7.clone.1, %broadcast.244500.640)
  %clamp.1239.3.clone.1 = f32[1280,1280]{1,0} clamp(%broadcast.244407.384, %multiply.27322.5.clone.1, %broadcast.244501.384)
  %multiply.27323.1.clone.1 = f32[1280,1280]{1,0} multiply(%clamp.1239.3.clone.1, %broadcast.244502.1)
  %constant_176829_1_clone_1 = u32[] constant(109760836)
  %broadcast.252474.44.clone.1 = u32[1280,1280]{1,0} broadcast(%constant_176829_1_clone_1), dimensions={}
  %add.248687.37.clone.1 = u32[1280,1280]{1,0} add(%convert.3610.4865, %broadcast.252474.44.clone.1)
  %constant_176836_1_clone_1 = u32[] constant(546401704)
  %broadcast.252475.113.clone.1 = u32[1280,1280]{1,0} broadcast(%constant_176836_1_clone_1), dimensions={}
  %add.248689.99.clone.1 = u32[1280,1280]{1,0} add(%convert.3611.12801, %broadcast.252475.113.clone.1)
  %add.248692.35.clone.1 = u32[1280,1280]{1,0} add(%add.248687.37.clone.1, %add.248689.99.clone.1)
  %shift-left.109740.31.clone.1 = u32[1280,1280]{1,0} shift-left(%add.248689.99.clone.1, %broadcast.244414.6272)
  %shift-right-logical.115940.29.clone.1 = u32[1280,1280]{1,0} shift-right-logical(%add.248689.99.clone.1, %broadcast.244415.6016)
  %or.115462.29.clone.1 = u32[1280,1280]{1,0} or(%shift-left.109740.31.clone.1, %shift-right-logical.115940.29.clone.1)
  %xor.122009.27.clone.1 = u32[1280,1280]{1,0} xor(%add.248692.35.clone.1, %or.115462.29.clone.1)
  %add.248693.5.clone.1 = u32[1280,1280]{1,0} add(%add.248692.35.clone.1, %xor.122009.27.clone.1)
  %shift-left.109741.9.clone.1 = u32[1280,1280]{1,0} shift-left(%xor.122009.27.clone.1, %broadcast.244416.5760)
  %shift-right-logical.115941.9.clone.1 = u32[1280,1280]{1,0} shift-right-logical(%xor.122009.27.clone.1, %broadcast.244417.5760)
  %or.115463.7.clone.1 = u32[1280,1280]{1,0} or(%shift-left.109741.9.clone.1, %shift-right-logical.115941.9.clone.1)
  %xor.122010.5.clone.1 = u32[1280,1280]{1,0} xor(%add.248693.5.clone.1, %or.115463.7.clone.1)
  %add.248694.3.clone.1 = u32[1280,1280]{1,0} add(%add.248693.5.clone.1, %xor.122010.5.clone.1)
  %shift-left.109742.5.clone.1 = u32[1280,1280]{1,0} shift-left(%xor.122010.5.clone.1, %broadcast.244418.4352)
  %shift-right-logical.115942.5.clone.1 = u32[1280,1280]{1,0} shift-right-logical(%xor.122010.5.clone.1, %broadcast.244419.4352)
  %or.115464.3.clone.1 = u32[1280,1280]{1,0} or(%shift-left.109742.5.clone.1, %shift-right-logical.115942.5.clone.1)
  %xor.122011.3.clone.1 = u32[1280,1280]{1,0} xor(%add.248694.3.clone.1, %or.115464.3.clone.1)
  %add.248695.3.clone.1 = u32[1280,1280]{1,0} add(%add.248694.3.clone.1, %xor.122011.3.clone.1)
  %add.248697.7.clone.1 = u32[1280,1280]{1,0} add(%add.248695.3.clone.1, %broadcast.252475.113.clone.1)
  %shift-left.109743.5.clone.1 = u32[1280,1280]{1,0} shift-left(%xor.122011.3.clone.1, %broadcast.244419.4352)
  %shift-right-logical.115943.5.clone.1 = u32[1280,1280]{1,0} shift-right-logical(%xor.122011.3.clone.1, %broadcast.244418.4352)
  %or.115465.3.clone.1 = u32[1280,1280]{1,0} or(%shift-left.109743.5.clone.1, %shift-right-logical.115943.5.clone.1)
  %xor.122012.3.clone.1 = u32[1280,1280]{1,0} xor(%add.248695.3.clone.1, %or.115465.3.clone.1)
  %constant_218277_1_clone_1 = u32[] constant(1036691255)
  %broadcast.252485.5.clone.1 = u32[1280,1280]{1,0} broadcast(%constant_218277_1_clone_1), dimensions={}
  %add.248698.5.clone.1 = u32[1280,1280]{1,0} add(%xor.122012.3.clone.1, %broadcast.252485.5.clone.1)
  %add.248699.5.clone.1 = u32[1280,1280]{1,0} add(%add.248697.7.clone.1, %add.248698.5.clone.1)
  %shift-left.109744.9.clone.1 = u32[1280,1280]{1,0} shift-left(%add.248698.5.clone.1, %broadcast.244417.5760)
  %shift-right-logical.115944.9.clone.1 = u32[1280,1280]{1,0} shift-right-logical(%add.248698.5.clone.1, %broadcast.244416.5760)
  %or.115466.7.clone.1 = u32[1280,1280]{1,0} or(%shift-left.109744.9.clone.1, %shift-right-logical.115944.9.clone.1)
  %xor.122013.5.clone.1 = u32[1280,1280]{1,0} xor(%add.248699.5.clone.1, %or.115466.7.clone.1)
  %add.248700.3.clone.1 = u32[1280,1280]{1,0} add(%add.248699.5.clone.1, %xor.122013.5.clone.1)
  %shift-left.109745.9.clone.1 = u32[1280,1280]{1,0} shift-left(%xor.122013.5.clone.1, %broadcast.244428.2304)
  %shift-right-logical.115945.9.clone.1 = u32[1280,1280]{1,0} shift-right-logical(%xor.122013.5.clone.1, %broadcast.244429.2304)
  %or.115467.7.clone.1 = u32[1280,1280]{1,0} or(%shift-left.109745.9.clone.1, %shift-right-logical.115945.9.clone.1)
  %xor.122014.5.clone.1 = u32[1280,1280]{1,0} xor(%add.248700.3.clone.1, %or.115467.7.clone.1)
  %add.248702.3.clone.1 = u32[1280,1280]{1,0} add(%add.248700.3.clone.1, %xor.122014.5.clone.1)
  %shift-left.109746.9.clone.1 = u32[1280,1280]{1,0} shift-left(%xor.122014.5.clone.1, %broadcast.244430.4608)
  %shift-right-logical.115946.9.clone.1 = u32[1280,1280]{1,0} shift-right-logical(%xor.122014.5.clone.1, %broadcast.244430.4608)
  %or.115468.7.clone.1 = u32[1280,1280]{1,0} or(%shift-left.109746.9.clone.1, %shift-right-logical.115946.9.clone.1)
  %xor.122015.5.clone.1 = u32[1280,1280]{1,0} xor(%add.248702.3.clone.1, %or.115468.7.clone.1)
  %add.248703.3.clone.1 = u32[1280,1280]{1,0} add(%add.248702.3.clone.1, %xor.122015.5.clone.1)
  %constant_176838_1_clone_1 = u32[] constant(1036691254)
  %broadcast.252492.24.clone.1 = u32[1280,1280]{1,0} broadcast(%constant_176838_1_clone_1), dimensions={}
  %add.248704.7.clone.1 = u32[1280,1280]{1,0} add(%add.248703.3.clone.1, %broadcast.252492.24.clone.1)
  %shift-left.109747.11.clone.1 = u32[1280,1280]{1,0} shift-left(%xor.122015.5.clone.1, %broadcast.244433.2816)
  %shift-right-logical.115947.11.clone.1 = u32[1280,1280]{1,0} shift-right-logical(%xor.122015.5.clone.1, %broadcast.244434.2816)
  %or.115469.9.clone.1 = u32[1280,1280]{1,0} or(%shift-left.109747.11.clone.1, %shift-right-logical.115947.11.clone.1)
  %xor.122016.7.clone.1 = u32[1280,1280]{1,0} xor(%add.248703.3.clone.1, %or.115469.9.clone.1)
  %constant_218278_1_clone_1 = u32[] constant(109760838)
  %broadcast.252495.5.clone.1 = u32[1280,1280]{1,0} broadcast(%constant_218278_1_clone_1), dimensions={}
  %add.248705.5.clone.1 = u32[1280,1280]{1,0} add(%xor.122016.7.clone.1, %broadcast.252495.5.clone.1)
  %add.248707.5.clone.1 = u32[1280,1280]{1,0} add(%add.248704.7.clone.1, %add.248705.5.clone.1)
  %shift-left.109748.9.clone.1 = u32[1280,1280]{1,0} shift-left(%add.248705.5.clone.1, %broadcast.244414.6272)
  %shift-right-logical.115948.9.clone.1 = u32[1280,1280]{1,0} shift-right-logical(%add.248705.5.clone.1, %broadcast.244415.6016)
  %or.115470.7.clone.1 = u32[1280,1280]{1,0} or(%shift-left.109748.9.clone.1, %shift-right-logical.115948.9.clone.1)
  %xor.122017.5.clone.1 = u32[1280,1280]{1,0} xor(%add.248707.5.clone.1, %or.115470.7.clone.1)
  %add.248708.3.clone.1 = u32[1280,1280]{1,0} add(%add.248707.5.clone.1, %xor.122017.5.clone.1)
  %shift-left.109749.9.clone.1 = u32[1280,1280]{1,0} shift-left(%xor.122017.5.clone.1, %broadcast.244416.5760)
  %shift-right-logical.115949.9.clone.1 = u32[1280,1280]{1,0} shift-right-logical(%xor.122017.5.clone.1, %broadcast.244417.5760)
  %or.115471.7.clone.1 = u32[1280,1280]{1,0} or(%shift-left.109749.9.clone.1, %shift-right-logical.115949.9.clone.1)
  %xor.122018.5.clone.1 = u32[1280,1280]{1,0} xor(%add.248708.3.clone.1, %or.115471.7.clone.1)
  %add.248709.3.clone.1 = u32[1280,1280]{1,0} add(%add.248708.3.clone.1, %xor.122018.5.clone.1)
  %shift-left.109750.7.clone.1 = u32[1280,1280]{1,0} shift-left(%xor.122018.5.clone.1, %broadcast.244418.4352)
  %shift-right-logical.115950.7.clone.1 = u32[1280,1280]{1,0} shift-right-logical(%xor.122018.5.clone.1, %broadcast.244419.4352)
  %or.115473.5.clone.1 = u32[1280,1280]{1,0} or(%shift-left.109750.7.clone.1, %shift-right-logical.115950.7.clone.1)
  %xor.122019.3.clone.1 = u32[1280,1280]{1,0} xor(%add.248709.3.clone.1, %or.115473.5.clone.1)
  %add.248710.3.clone.1 = u32[1280,1280]{1,0} add(%add.248709.3.clone.1, %xor.122019.3.clone.1)
  %add.248711.7.clone.1 = u32[1280,1280]{1,0} add(%add.248710.3.clone.1, %broadcast.252474.44.clone.1)
  %shift-left.109751.7.clone.1 = u32[1280,1280]{1,0} shift-left(%xor.122019.3.clone.1, %broadcast.244419.4352)
  %shift-right-logical.115951.7.clone.1 = u32[1280,1280]{1,0} shift-right-logical(%xor.122019.3.clone.1, %broadcast.244418.4352)
  %or.115474.5.clone.1 = u32[1280,1280]{1,0} or(%shift-left.109751.7.clone.1, %shift-right-logical.115951.7.clone.1)
  %xor.122020.3.clone.1 = u32[1280,1280]{1,0} xor(%add.248710.3.clone.1, %or.115474.5.clone.1)
  %constant_218279_1_clone_1 = u32[] constant(546401707)
  %broadcast.252505.5.clone.1 = u32[1280,1280]{1,0} broadcast(%constant_218279_1_clone_1), dimensions={}
  %add.248713.5.clone.1 = u32[1280,1280]{1,0} add(%xor.122020.3.clone.1, %broadcast.252505.5.clone.1)
  %add.248717.5.clone.1 = u32[1280,1280]{1,0} add(%add.248711.7.clone.1, %add.248713.5.clone.1)
  %shift-left.109752.9.clone.1 = u32[1280,1280]{1,0} shift-left(%add.248713.5.clone.1, %broadcast.244417.5760)
  %shift-right-logical.115952.9.clone.1 = u32[1280,1280]{1,0} shift-right-logical(%add.248713.5.clone.1, %broadcast.244416.5760)
  %or.115476.7.clone.1 = u32[1280,1280]{1,0} or(%shift-left.109752.9.clone.1, %shift-right-logical.115952.9.clone.1)
  %xor.122021.5.clone.1 = u32[1280,1280]{1,0} xor(%add.248717.5.clone.1, %or.115476.7.clone.1)
  %add.248718.3.clone.1 = u32[1280,1280]{1,0} add(%add.248717.5.clone.1, %xor.122021.5.clone.1)
  %shift-left.109754.9.clone.1 = u32[1280,1280]{1,0} shift-left(%xor.122021.5.clone.1, %broadcast.244428.2304)
  %shift-right-logical.115953.9.clone.1 = u32[1280,1280]{1,0} shift-right-logical(%xor.122021.5.clone.1, %broadcast.244429.2304)
  %or.115477.7.clone.1 = u32[1280,1280]{1,0} or(%shift-left.109754.9.clone.1, %shift-right-logical.115953.9.clone.1)
  %xor.122022.5.clone.1 = u32[1280,1280]{1,0} xor(%add.248718.3.clone.1, %or.115477.7.clone.1)
  %add.248719.3.clone.1 = u32[1280,1280]{1,0} add(%add.248718.3.clone.1, %xor.122022.5.clone.1)
  %shift-left.109755.9.clone.1 = u32[1280,1280]{1,0} shift-left(%xor.122022.5.clone.1, %broadcast.244430.4608)
  %shift-right-logical.115954.9.clone.1 = u32[1280,1280]{1,0} shift-right-logical(%xor.122022.5.clone.1, %broadcast.244430.4608)
  %or.115478.7.clone.1 = u32[1280,1280]{1,0} or(%shift-left.109755.9.clone.1, %shift-right-logical.115954.9.clone.1)
  %xor.122023.5.clone.1 = u32[1280,1280]{1,0} xor(%add.248719.3.clone.1, %or.115478.7.clone.1)
  %add.248720.3.clone.1 = u32[1280,1280]{1,0} add(%add.248719.3.clone.1, %xor.122023.5.clone.1)
  %add.248722.7.clone.1 = u32[1280,1280]{1,0} add(%add.248720.3.clone.1, %broadcast.252475.113.clone.1)
  %shift-left.109756.11.clone.1 = u32[1280,1280]{1,0} shift-left(%xor.122023.5.clone.1, %broadcast.244433.2816)
  %shift-right-logical.115955.11.clone.1 = u32[1280,1280]{1,0} shift-right-logical(%xor.122023.5.clone.1, %broadcast.244434.2816)
  %or.115479.9.clone.1 = u32[1280,1280]{1,0} or(%shift-left.109756.11.clone.1, %shift-right-logical.115955.11.clone.1)
  %xor.122024.7.clone.1 = u32[1280,1280]{1,0} xor(%add.248720.3.clone.1, %or.115479.9.clone.1)
  %constant_218280_1_clone_1 = u32[] constant(1036691258)
  %broadcast.252515.5.clone.1 = u32[1280,1280]{1,0} broadcast(%constant_218280_1_clone_1), dimensions={}
  %add.248723.5.clone.1 = u32[1280,1280]{1,0} add(%xor.122024.7.clone.1, %broadcast.252515.5.clone.1)
  %add.248724.5.clone.1 = u32[1280,1280]{1,0} add(%add.248722.7.clone.1, %add.248723.5.clone.1)
  %shift-left.109757.9.clone.1 = u32[1280,1280]{1,0} shift-left(%add.248723.5.clone.1, %broadcast.244414.6272)
  %shift-right-logical.115956.9.clone.1 = u32[1280,1280]{1,0} shift-right-logical(%add.248723.5.clone.1, %broadcast.244415.6016)
  %or.115480.7.clone.1 = u32[1280,1280]{1,0} or(%shift-left.109757.9.clone.1, %shift-right-logical.115956.9.clone.1)
  %xor.122025.5.clone.1 = u32[1280,1280]{1,0} xor(%add.248724.5.clone.1, %or.115480.7.clone.1)
  %add.248725.3.clone.1 = u32[1280,1280]{1,0} add(%add.248724.5.clone.1, %xor.122025.5.clone.1)
  %shift-left.109759.9.clone.1 = u32[1280,1280]{1,0} shift-left(%xor.122025.5.clone.1, %broadcast.244416.5760)
  %shift-right-logical.115957.9.clone.1 = u32[1280,1280]{1,0} shift-right-logical(%xor.122025.5.clone.1, %broadcast.244417.5760)
  %or.115481.7.clone.1 = u32[1280,1280]{1,0} or(%shift-left.109759.9.clone.1, %shift-right-logical.115957.9.clone.1)
  %xor.122026.5.clone.1 = u32[1280,1280]{1,0} xor(%add.248725.3.clone.1, %or.115481.7.clone.1)
  %add.248727.3.clone.1 = u32[1280,1280]{1,0} add(%add.248725.3.clone.1, %xor.122026.5.clone.1)
  %shift-left.109760.5.clone.1 = u32[1280,1280]{1,0} shift-left(%xor.122026.5.clone.1, %broadcast.244418.4352)
  %shift-right-logical.115958.5.clone.1 = u32[1280,1280]{1,0} shift-right-logical(%xor.122026.5.clone.1, %broadcast.244419.4352)
  %or.115482.3.clone.1 = u32[1280,1280]{1,0} or(%shift-left.109760.5.clone.1, %shift-right-logical.115958.5.clone.1)
  %xor.122027.3.clone.1 = u32[1280,1280]{1,0} xor(%add.248727.3.clone.1, %or.115482.3.clone.1)
  %add.248728.3.clone.1 = u32[1280,1280]{1,0} add(%add.248727.3.clone.1, %xor.122027.3.clone.1)
  %add.248729.17.clone.1 = u32[1280,1280]{1,0} add(%add.248728.3.clone.1, %broadcast.252492.24.clone.1)
  %shift-left.109761.5.clone.1 = u32[1280,1280]{1,0} shift-left(%xor.122027.3.clone.1, %broadcast.244419.4352)
  %shift-right-logical.115959.5.clone.1 = u32[1280,1280]{1,0} shift-right-logical(%xor.122027.3.clone.1, %broadcast.244418.4352)
  %or.115483.3.clone.1 = u32[1280,1280]{1,0} or(%shift-left.109761.5.clone.1, %shift-right-logical.115959.5.clone.1)
  %xor.122028.15.clone.1 = u32[1280,1280]{1,0} xor(%add.248728.3.clone.1, %or.115483.3.clone.1)
  %constant_218281_1_clone_1 = u32[] constant(109760841)
  %broadcast.252528.19.clone.1 = u32[1280,1280]{1,0} broadcast(%constant_218281_1_clone_1), dimensions={}
  %add.248730.19.clone.1 = u32[1280,1280]{1,0} add(%xor.122028.15.clone.1, %broadcast.252528.19.clone.1)
  %xor.122029.17.clone.1 = u32[1280,1280]{1,0} xor(%add.248729.17.clone.1, %add.248730.19.clone.1)
  %shift-right-logical.115960.15.clone.1 = u32[1280,1280]{1,0} shift-right-logical(%xor.122029.17.clone.1, %broadcast.244468.1920)
  %or.115484.13.clone.1 = u32[1280,1280]{1,0} or(%shift-right-logical.115960.15.clone.1, %broadcast.244469.1664)
  %bitcast-convert.5761.11.clone.1 = f32[1280,1280]{1,0} bitcast-convert(%or.115484.13.clone.1)
…
  %or.114066.7.clone.1 = u32[1280,1280]{1,0} or(%shift-left.108417.9.clone.1, %shift-right-logical.114544.9.clone.1)
  %xor.120618.5.clone.1 = u32[1280,1280]{1,0} xor(%add.245613.3.clone.1, %or.114066.7.clone.1)
  %add.245614.3.clone.1 = u32[1280,1280]{1,0} add(%add.245613.3.clone.1, %xor.120618.5.clone.1)
  %shift-left.108418.5.clone.1 = u32[1280,1280]{1,0} shift-left(%xor.120618.5.clone.1, %broadcast.244418.4352)
  %shift-right-logical.114545.5.clone.1 = u32[1280,1280]{1,0} shift-right-logical(%xor.120618.5.clone.1, %broadcast.244419.4352)
  %or.114067.3.clone.1 = u32[1280,1280]{1,0} or(%shift-left.108418.5.clone.1, %shift-right-logical.114545.5.clone.1)
  %xor.120619.3.clone.1 = u32[1280,1280]{1,0} xor(%add.245614.3.clone.1, %or.114067.3.clone.1)
  %add.245616.3.clone.1 = u32[1280,1280]{1,0} add(%add.245614.3.clone.1, %xor.120619.3.clone.1)
  %add.245617.17.clone.1 = u32[1280,1280]{1,0} add(%add.245616.3.clone.1, %broadcast.247081.24.clone.1)
  %shift-left.108419.5.clone.1 = u32[1280,1280]{1,0} shift-left(%xor.120619.3.clone.1, %broadcast.244419.4352)
  %shift-right-logical.114547.5.clone.1 = u32[1280,1280]{1,0} shift-right-logical(%xor.120619.3.clone.1, %broadcast.244418.4352)
  %or.114068.3.clone.1 = u32[1280,1280]{1,0} or(%shift-left.108419.5.clone.1, %shift-right-logical.114547.5.clone.1)
  %xor.120621.15.clone.1 = u32[1280,1280]{1,0} xor(%add.245616.3.clone.1, %or.114068.3.clone.1)
  %constant_217933_1_clone_1 = u32[] constant(961610875)
  %broadcast.247114.19.clone.1 = u32[1280,1280]{1,0} broadcast(%constant_217933_1_clone_1), dimensions={}
  %add.245618.19.clone.1 = u32[1280,1280]{1,0} add(%xor.120621.15.clone.1, %broadcast.247114.19.clone.1)
  %xor.120622.17.clone.1 = u32[1280,1280]{1,0} xor(%add.245617.17.clone.1, %add.245618.19.clone.1)
  %shift-right-logical.114548.15.clone.1 = u32[1280,1280]{1,0} shift-right-logical(%xor.120622.17.clone.1, %broadcast.244468.1920)
  %or.114069.13.clone.1 = u32[1280,1280]{1,0} or(%shift-right-logical.114548.15.clone.1, %broadcast.244469.1664)
  %bitcast-convert.5699.11.clone.1 = f32[1280,1280]{1,0} bitcast-convert(%or.114069.13.clone.1)
  %add.245619.9.clone.1 = f32[1280,1280]{1,0} add(%bitcast-convert.5699.11.clone.1, %broadcast.244470.1152)
  %multiply.25887.7.clone.1 = f32[1280,1280]{1,0} multiply(%add.245619.9.clone.1, %broadcast.244471.896)
  %add.245620.5.clone.1 = f32[1280,1280]{1,0} add(%multiply.25887.7.clone.1, %broadcast.244408.1024)
  %maximum.3631.3.clone.1 = f32[1280,1280]{1,0} maximum(%broadcast.244408.1024, %add.245620.5.clone.1)
  %abs.1503.3.clone.1 = f32[1280,1280]{1,0} abs(%maximum.3631.3.clone.1)
  %compare.7154.3.clone.1 = pred[1280,1280]{1,0} compare(%abs.1503.3.clone.1, %broadcast.244475.384), direction=EQ
  %multiply.25888.9.clone.1 = f32[1280,1280]{1,0} multiply(%maximum.3631.3.clone.1, %broadcast.244476.1152)
  %negate.4511.5.clone.1 = f32[1280,1280]{1,0} negate(%maximum.3631.3.clone.1)
  %multiply.25889.5.clone.1 = f32[1280,1280]{1,0} multiply(%maximum.3631.3.clone.1, %negate.4511.5.clone.1)
  %log-plus-one.1503.3.clone.1 = f32[1280,1280]{1,0} log-plus-one(%multiply.25889.5.clone.1)
  %negate.4512.4.clone.1 = f32[1280,1280]{1,0} negate(%log-plus-one.1503.3.clone.1)
  %compare.7155.3.clone.1 = pred[1280,1280]{1,0} compare(%negate.4512.4.clone.1, %broadcast.244477.384), direction=LT
  %select.20598.7.clone.1 = f32[1280,1280]{1,0} select(%compare.7155.3.clone.1, %broadcast.244478.896, %broadcast.244479.896)
  %select.20599.11.clone.1 = f32[1280,1280]{1,0} select(%compare.7155.3.clone.1, %broadcast.244480.1408, %broadcast.244481.1408)
  %select.20600.5.clone.1 = f32[1280,1280]{1,0} select(%compare.7155.3.clone.1, %broadcast.244482.640, %broadcast.244483.640)
  %select.20601.5.clone.1 = f32[1280,1280]{1,0} select(%compare.7155.3.clone.1, %broadcast.244484.640, %broadcast.244485.640)
  %select.20602.3.clone.1 = f32[1280,1280]{1,0} select(%compare.7155.3.clone.1, %broadcast.244486.384, %broadcast.244487.384)
  %select.20603.3.clone.1 = f32[1280,1280]{1,0} select(%compare.7155.3.clone.1, %broadcast.244488.384, %broadcast.244489.384)
  %select.20604.3.clone.1 = f32[1280,1280]{1,0} select(%compare.7155.3.clone.1, %broadcast.244490.384, %broadcast.244491.384)
  %select.20605.3.clone.1 = f32[1280,1280]{1,0} select(%compare.7155.3.clone.1, %broadcast.244492.384, %broadcast.244493.384)
  %select.20606.3.clone.1 = f32[1280,1280]{1,0} select(%compare.7155.3.clone.1, %broadcast.244494.384, %broadcast.244495.384)
  %add.245622.5.clone.1 = f32[1280,1280]{1,0} add(%negate.4512.4.clone.1, %broadcast.244496.640)
  %sqrt.1503.5.clone.1 = f32[1280,1280]{1,0} sqrt(%negate.4512.4.clone.1)
  %add.245626.5.clone.1 = f32[1280,1280]{1,0} add(%sqrt.1503.5.clone.1, %broadcast.244498.640)
  %select.20607.3.clone.1 = f32[1280,1280]{1,0} select(%compare.7155.3.clone.1, %add.245622.5.clone.1, %add.245626.5.clone.1)
  %multiply.25890.1.clone.1 = f32[1280,1280]{1,0} multiply(%select.20606.3.clone.1, %select.20607.3.clone.1)
  %add.245627.1.clone.1 = f32[1280,1280]{1,0} add(%select.20605.3.clone.1, %multiply.25890.1.clone.1)
  %multiply.25891.1.clone.1 = f32[1280,1280]{1,0} multiply(%add.245627.1.clone.1, %select.20607.3.clone.1)
  %add.245628.1.clone.1 = f32[1280,1280]{1,0} add(%select.20604.3.clone.1, %multiply.25891.1.clone.1)
  %multiply.25892.1.clone.1 = f32[1280,1280]{1,0} multiply(%add.245628.1.clone.1, %select.20607.3.clone.1)
  %add.245629.1.clone.1 = f32[1280,1280]{1,0} add(%select.20603.3.clone.1, %multiply.25892.1.clone.1)
  %multiply.25893.1.clone.1 = f32[1280,1280]{1,0} multiply(%add.245629.1.clone.1, %select.20607.3.clone.1)
  %add.245631.1.clone.1 = f32[1280,1280]{1,0} add(%select.20602.3.clone.1, %multiply.25893.1.clone.1)
  %multiply.25894.1.clone.1 = f32[1280,1280]{1,0} multiply(%add.245631.1.clone.1, %select.20607.3.clone.1)
  %add.245632.3.clone.1 = f32[1280,1280]{1,0} add(%select.20601.5.clone.1, %multiply.25894.1.clone.1)
  %multiply.25895.1.clone.1 = f32[1280,1280]{1,0} multiply(%add.245632.3.clone.1, %select.20607.3.clone.1)
  %add.245633.3.clone.1 = f32[1280,1280]{1,0} add(%select.20600.5.clone.1, %multiply.25895.1.clone.1)
  %multiply.25896.7.clone.1 = f32[1280,1280]{1,0} multiply(%add.245633.3.clone.1, %select.20607.3.clone.1)
  %add.245634.9.clone.1 = f32[1280,1280]{1,0} add(%select.20599.11.clone.1, %multiply.25896.7.clone.1)
  %multiply.25897.7.clone.1 = f32[1280,1280]{1,0} multiply(%add.245634.9.clone.1, %select.20607.3.clone.1)
  %add.245636.7.clone.1 = f32[1280,1280]{1,0} add(%select.20598.7.clone.1, %multiply.25897.7.clone.1)
  %multiply.25898.7.clone.1 = f32[1280,1280]{1,0} multiply(%add.245636.7.clone.1, %maximum.3631.3.clone.1)
  %select.20608.7.clone.1 = f32[1280,1280]{1,0} select(%compare.7154.3.clone.1, %multiply.25888.9.clone.1, %multiply.25898.7.clone.1)
  %multiply.25899.5.clone.1 = f32[1280,1280]{1,0} multiply(%select.20608.7.clone.1, %broadcast.244500.640)
  %clamp.1147.3.clone.1 = f32[1280,1280]{1,0} clamp(%broadcast.244407.384, %multiply.25899.5.clone.1, %broadcast.244501.384)
  %multiply.25900.1.clone.1 = f32[1280,1280]{1,0} multiply(%clamp.1147.3.clone.1, %broadcast.244502.1)
  %constant_180474_1_clone_1 = u32[] constant(594086741)
  %broadcast.254080.44.clone.1 = u32[1280,1280]{1,0} broadcast(%constant_180474_1_clone_1), dimensions={}
  %add.249588.37.clone.1 = u32[1280,1280]{1,0} add(%convert.3610.4865, %broadcast.254080.44.clone.1)
  %constant_180481_1_clone_1 = u32[] constant(3794055208)
  %broadcast.254081.113.clone.1 = u32[1280,1280]{1,0} broadcast(%constant_180481_1_clone_1), dimensions={}
  %add.249590.99.clone.1 = u32[1280,1280]{1,0} add(%convert.3611.12801, %broadcast.254081.113.clone.1)
  %add.249591.35.clone.1 = u32[1280,1280]{1,0} add(%add.249588.37.clone.1, %add.249590.99.clone.1)
  %shift-left.110121.31.clone.1 = u32[1280,1280]{1,0} shift-left(%add.249590.99.clone.1, %broadcast.244414.6272)
  %shift-right-logical.116352.29.clone.1 = u32[1280,1280]{1,0} shift-right-logical(%add.249590.99.clone.1, %broadcast.244415.6016)
  %or.115885.29.clone.1 = u32[1280,1280]{1,0} or(%shift-left.110121.31.clone.1, %shift-right-logical.116352.29.clone.1)
  %xor.122432.27.clone.1 = u32[1280,1280]{1,0} xor(%add.249591.35.clone.1, %or.115885.29.clone.1)
  %add.249592.5.clone.1 = u32[1280,1280]{1,0} add(%add.249591.35.clone.1, %xor.122432.27.clone.1)
  %shift-left.110122.9.clone.1 = u32[1280,1280]{1,0} shift-left(%xor.122432.27.clone.1, %broadcast.244416.5760)
  %shift-right-logical.116354.9.clone.1 = u32[1280,1280]{1,0} shift-right-logical(%xor.122432.27.clone.1, %broadcast.244417.5760)
  %or.115886.7.clone.1 = u32[1280,1280]{1,0} or(%shift-left.110122.9.clone.1, %shift-right-logical.116354.9.clone.1)
  %xor.122433.5.clone.1 = u32[1280,1280]{1,0} xor(%add.249592.5.clone.1, %or.115886.7.clone.1)
  %add.249593.3.clone.1 = u32[1280,1280]{1,0} add(%add.249592.5.clone.1, %xor.122433.5.clone.1)
  %shift-left.110123.5.clone.1 = u32[1280,1280]{1,0} shift-left(%xor.122433.5.clone.1, %broadcast.244418.4352)
  %shift-right-logical.116355.5.clone.1 = u32[1280,1280]{1,0} shift-right-logical(%xor.122433.5.clone.1, %broadcast.244419.4352)
  %or.115887.3.clone.1 = u32[1280,1280]{1,0} or(%shift-left.110123.5.clone.1, %shift-right-logical.116355.5.clone.1)
  %xor.122434.3.clone.1 = u32[1280,1280]{1,0} xor(%add.249593.3.clone.1, %or.115887.3.clone.1)
  %add.249595.3.clone.1 = u32[1280,1280]{1,0} add(%add.249593.3.clone.1, %xor.122434.3.clone.1)
  %add.249596.7.clone.1 = u32[1280,1280]{1,0} add(%add.249595.3.clone.1, %broadcast.254081.113.clone.1)
  %shift-left.110124.5.clone.1 = u32[1280,1280]{1,0} shift-left(%xor.122434.3.clone.1, %broadcast.244419.4352)
  %shift-right-logical.116356.5.clone.1 = u32[1280,1280]{1,0} shift-right-logical(%xor.122434.3.clone.1, %broadcast.244418.4352)
  %or.115888.3.clone.1 = u32[1280,1280]{1,0} or(%shift-left.110124.5.clone.1, %shift-right-logical.116356.5.clone.1)
  %xor.122435.3.clone.1 = u32[1280,1280]{1,0} xor(%add.249595.3.clone.1, %or.115888.3.clone.1)
  %constant_218381_1_clone_1 = u32[] constant(3667697832)
  %broadcast.254091.5.clone.1 = u32[1280,1280]{1,0} broadcast(%constant_218381_1_clone_1), dimensions={}
  %add.249597.5.clone.1 = u32[1280,1280]{1,0} add(%xor.122435.3.clone.1, %broadcast.254091.5.clone.1)
  %add.249598.5.clone.1 = u32[1280,1280]{1,0} add(%add.249596.7.clone.1, %add.249597.5.clone.1)
  %shift-left.110126.9.clone.1 = u32[1280,1280]{1,0} shift-left(%add.249597.5.clone.1, %broadcast.244417.5760)
  %shift-right-logical.116357.9.clone.1 = u32[1280,1280]{1,0} shift-right-logical(%add.249597.5.clone.1, %broadcast.244416.5760)
  %or.115889.7.clone.1 = u32[1280,1280]{1,0} or(%shift-left.110126.9.clone.1, %shift-right-logical.116357.9.clone.1)
  %xor.122436.5.clone.1 = u32[1280,1280]{1,0} xor(%add.249598.5.clone.1, %or.115889.7.clone.1)
  %add.249600.3.clone.1 = u32[1280,1280]{1,0} add(%add.249598.5.clone.1, %xor.122436.5.clone.1)
  %shift-left.110127.9.clone.1 = u32[1280,1280]{1,0} shift-left(%xor.122436.5.clone.1, %broadcast.244428.2304)
  %shift-right-logical.116359.9.clone.1 = u32[1280,1280]{1,0} shift-right-logical(%xor.122436.5.clone.1, %broadcast.244429.2304)
  %or.115890.7.clone.1 = u32[1280,1280]{1,0} or(%shift-left.110127.9.clone.1, %shift-right-logical.116359.9.clone.1)
  %xor.122437.5.clone.1 = u32[1280,1280]{1,0} xor(%add.249600.3.clone.1, %or.115890.7.clone.1)
  %add.249601.3.clone.1 = u32[1280,1280]{1,0} add(%add.249600.3.clone.1, %xor.122437.5.clone.1)
  %shift-left.110128.9.clone.1 = u32[1280,1280]{1,0} shift-left(%xor.122437.5.clone.1, %broadcast.244430.4608)
  %shift-right-logical.116360.9.clone.1 = u32[1280,1280]{1,0} shift-right-logical(%xor.122437.5.clone.1, %broadcast.244430.4608)
  %or.115891.7.clone.1 = u32[1280,1280]{1,0} or(%shift-left.110128.9.clone.1, %shift-right-logical.116360.9.clone.1)
  %xor.122438.5.clone.1 = u32[1280,1280]{1,0} xor(%add.249601.3.clone.1, %or.115891.7.clone.1)
  %add.249602.3.clone.1 = u32[1280,1280]{1,0} add(%add.249601.3.clone.1, %xor.122438.5.clone.1)
  %constant_180483_1_clone_1 = u32[] constant(3667697831)
  %broadcast.254098.24.clone.1 = u32[1280,1280]{1,0} broadcast(%constant_180483_1_clone_1), dimensions={}
  %add.249603.7.clone.1 = u32[1280,1280]{1,0} add(%add.249602.3.clone.1, %broadcast.254098.24.clone.1)
  %shift-left.110129.11.clone.1 = u32[1280,1280]{1,0} shift-left(%xor.122438.5.clone.1, %broadcast.244433.2816)
  %shift-right-logical.116361.11.clone.1 = u32[1280,1280]{1,0} shift-right-logical(%xor.122438.5.clone.1, %broadcast.244434.2816)
  %or.115892.9.clone.1 = u32[1280,1280]{1,0} or(%shift-left.110129.11.clone.1, %shift-right-logical.116361.11.clone.1)
  %xor.122441.7.clone.1 = u32[1280,1280]{1,0} xor(%add.249602.3.clone.1, %or.115892.9.clone.1)
  %constant_218383_1_clone_1 = u32[] constant(594086743)
  %broadcast.254101.5.clone.1 = u32[1280,1280]{1,0} broadcast(%constant_218383_1_clone_1), dimensions={}
  %add.249604.5.clone.1 = u32[1280,1280]{1,0} add(%xor.122441.7.clone.1, %broadcast.254101.5.clone.1)
  %add.249606.5.clone.1 = u32[1280,1280]{1,0} add(%add.249603.7.clone.1, %add.249604.5.clone.1)
  %shift-left.110131.9.clone.1 = u32[1280,1280]{1,0} shift-left(%add.249604.5.clone.1, %broadcast.244414.6272)
  %shift-right-logical.116362.9.clone.1 = u32[1280,1280]{1,0} shift-right-logical(%add.249604.5.clone.1, %broadcast.244415.6016)
  %or.115893.7.clone.1 = u32[1280,1280]{1,0} or(%shift-left.110131.9.clone.1, %shift-right-logical.116362.9.clone.1)
  %xor.122442.5.clone.1 = u32[1280,1280]{1,0} xor(%add.249606.5.clone.1, %or.115893.7.clone.1)
  %add.249610.3.clone.1 = u32[1280,1280]{1,0} add(%add.249606.5.clone.1, %xor.122442.5.clone.1)
  %shift-left.110132.9.clone.1 = u32[1280,1280]{1,0} shift-left(%xor.122442.5.clone.1, %broadcast.244416.5760)
  %shift-right-logical.116364.9.clone.1 = u32[1280,1280]{1,0} shift-right-logical(%xor.122442.5.clone.1, %broadcast.244417.5760)
  %or.115894.7.clone.1 = u32[1280,1280]{1,0} or(%shift-left.110132.9.clone.1, %shift-right-logical.116364.9.clone.1)
  %xor.122443.5.clone.1 = u32[1280,1280]{1,0} xor(%add.249610.3.clone.1, %or.115894.7.clone.1)
  %add.249611.3.clone.1 = u32[1280,1280]{1,0} add(%add.249610.3.clone.1, %xor.122443.5.clone.1)
  %shift-left.110133.7.clone.1 = u32[1280,1280]{1,0} shift-left(%xor.122443.5.clone.1, %broadcast.244418.4352)
  %shift-right-logical.116365.7.clone.1 = u32[1280,1280]{1,0} shift-right-logical(%xor.122443.5.clone.1, %broadcast.244419.4352)
  %or.115895.5.clone.1 = u32[1280,1280]{1,0} or(%shift-left.110133.7.clone.1, %shift-right-logical.116365.7.clone.1)
  %xor.122444.3.clone.1 = u32[1280,1280]{1,0} xor(%add.249611.3.clone.1, %or.115895.5.clone.1)
  %add.249612.3.clone.1 = u32[1280,1280]{1,0} add(%add.249611.3.clone.1, %xor.122444.3.clone.1)
  %add.249613.7.clone.1 = u32[1280,1280]{1,0} add(%add.249612.3.clone.1, %broadcast.254080.44.clone.1)
  %shift-left.110134.7.clone.1 = u32[1280,1280]{1,0} shift-left(%xor.122444.3.clone.1, %broadcast.244419.4352)
  %shift-right-logical.116366.7.clone.1 = u32[1280,1280]{1,0} shift-right-logical(%xor.122444.3.clone.1, %broadcast.244418.4352)
  %or.115896.5.clone.1 = u32[1280,1280]{1,0} or(%shift-left.110134.7.clone.1, %shift-right-logical.116366.7.clone.1)
  %xor.122445.3.clone.1 = u32[1280,1280]{1,0} xor(%add.249612.3.clone.1, %or.115896.5.clone.1)
  %constant_218385_1_clone_1 = u32[] constant(3794055211)
  %broadcast.254111.5.clone.1 = u32[1280,1280]{1,0} broadcast(%constant_218385_1_clone_1), dimensions={}
  %add.249615.5.clone.1 = u32[1280,1280]{1,0} add(%xor.122445.3.clone.1, %broadcast.254111.5.clone.1)
  %add.249616.5.clone.1 = u32[1280,1280]{1,0} add(%add.249613.7.clone.1, %add.249615.5.clone.1)
  %shift-left.110136.9.clone.1 = u32[1280,1280]{1,0} shift-left(%add.249615.5.clone.1, %broadcast.244417.5760)
  %shift-right-logical.116367.9.clone.1 = u32[1280,1280]{1,0} shift-right-logical(%add.249615.5.clone.1, %broadcast.244416.5760)
  %or.115897.7.clone.1 = u32[1280,1280]{1,0} or(%shift-left.110136.9.clone.1, %shift-right-logical.116367.9.clone.1)
  %xor.122446.5.clone.1 = u32[1280,1280]{1,0} xor(%add.249616.5.clone.1, %or.115897.7.clone.1)
  %add.249617.3.clone.1 = u32[1280,1280]{1,0} add(%add.249616.5.clone.1, %xor.122446.5.clone.1)
  %shift-left.110137.9.clone.1 = u32[1280,1280]{1,0} shift-left(%xor.122446.5.clone.1, %broadcast.244428.2304)
  %shift-right-logical.116368.9.clone.1 = u32[1280,1280]{1,0} shift-right-logical(%xor.122446.5.clone.1, %broadcast.244429.2304)
  %or.115898.7.clone.1 = u32[1280,1280]{1,0} or(%shift-left.110137.9.clone.1, %shift-right-logical.116368.9.clone.1)
  %xor.122447.5.clone.1 = u32[1280,1280]{1,0} xor(%add.249617.3.clone.1, %or.115898.7.clone.1)
  %add.249618.3.clone.1 = u32[1280,1280]{1,0} add(%add.249617.3.clone.1, %xor.122447.5.clone.1)
  %shift-left.110138.9.clone.1 = u32[1280,1280]{1,0} shift-left(%xor.122447.5.clone.1, %broadcast.244430.4608)
  %shift-right-logical.116369.9.clone.1 = u32[1280,1280]{1,0} shift-right-logical(%xor.122447.5.clone.1, %broadcast.244430.4608)
  %or.115899.7.clone.1 = u32[1280,1280]{1,0} or(%shift-left.110138.9.clone.1, %shift-right-logical.116369.9.clone.1)
  %xor.122448.5.clone.1 = u32[1280,1280]{1,0} xor(%add.249618.3.clone.1, %or.115899.7.clone.1)
  %add.249620.3.clone.1 = u32[1280,1280]{1,0} add(%add.249618.3.clone.1, %xor.122448.5.clone.1)
  %add.249621.7.clone.1 = u32[1280,1280]{1,0} add(%add.249620.3.clone.1, %broadcast.254081.113.clone.1)
  %shift-left.110139.11.clone.1 = u32[1280,1280]{1,0} shift-left(%xor.122448.5.clone.1, %broadcast.244433.2816)
  %shift-right-logical.116370.11.clone.1 = u32[1280,1280]{1,0} shift-right-logical(%xor.122448.5.clone.1, %broadcast.244434.2816)
  %or.115900.9.clone.1 = u32[1280,1280]{1,0} or(%shift-left.110139.11.clone.1, %shift-right-logical.116370.11.clone.1)
  %xor.122450.7.clone.1 = u32[1280,1280]{1,0} xor(%add.249620.3.clone.1, %or.115900.9.clone.1)
  %constant_218387_1_clone_1 = u32[] constant(3667697835)
  %broadcast.254121.5.clone.1 = u32[1280,1280]{1,0} broadcast(%constant_218387_1_clone_1), dimensions={}
  %add.249622.5.clone.1 = u32[1280,1280]{1,0} add(%xor.122450.7.clone.1, %broadcast.254121.5.clone.1)
  %add.249623.5.clone.1 = u32[1280,1280]{1,0} add(%add.249621.7.clone.1, %add.249622.5.clone.1)
  %shift-left.110140.9.clone.1 = u32[1280,1280]{1,0} shift-left(%add.249622.5.clone.1, %broadcast.244414.6272)
  %shift-right-logical.116371.9.clone.1 = u32[1280,1280]{1,0} shift-right-logical(%add.249622.5.clone.1, %broadcast.244415.6016)
  %or.115901.7.clone.1 = u32[1280,1280]{1,0} or(%shift-left.110140.9.clone.1, %shift-right-logical.116371.9.clone.1)
  %xor.122451.5.clone.1 = u32[1280,1280]{1,0} xor(%add.249623.5.clone.1, %or.115901.7.clone.1)
  %add.249625.3.clone.1 = u32[1280,1280]{1,0} add(%add.249623.5.clone.1, %xor.122451.5.clone.1)
  %shift-left.110141.9.clone.1 = u32[1280,1280]{1,0} shift-left(%xor.122451.5.clone.1, %broadcast.244416.5760)
  %shift-right-logical.116372.9.clone.1 = u32[1280,1280]{1,0} shift-right-logical(%xor.122451.5.clone.1, %broadcast.244417.5760)
  %or.115902.7.clone.1 = u32[1280,1280]{1,0} or(%shift-left.110141.9.clone.1, %shift-right-logical.116372.9.clone.1)
  %xor.122452.5.clone.1 = u32[1280,1280]{1,0} xor(%add.249625.3.clone.1, %or.115902.7.clone.1)
  %add.249626.3.clone.1 = u32[1280,1280]{1,0} add(%add.249625.3.clone.1, %xor.122452.5.clone.1)
  %shift-left.110142.5.clone.1 = u32[1280,1280]{1,0} shift-left(%xor.122452.5.clone.1, %broadcast.244418.4352)
  %shift-right-logical.116374.5.clone.1 = u32[1280,1280]{1,0} shift-right-logical(%xor.122452.5.clone.1, %broadcast.244419.4352)
  %or.115903.3.clone.1 = u32[1280,1280]{1,0} or(%shift-left.110142.5.clone.1, %shift-right-logical.116374.5.clone.1)
  %xor.122453.3.clone.1 = u32[1280,1280]{1,0} xor(%add.249626.3.clone.1, %or.115903.3.clone.1)
  %add.249627.3.clone.1 = u32[1280,1280]{1,0} add(%add.249626.3.clone.1, %xor.122453.3.clone.1)
  %add.249628.17.clone.1 = u32[1280,1280]{1,0} add(%add.249627.3.clone.1, %broadcast.254098.24.clone.1)
  %shift-left.110143.5.clone.1 = u32[1280,1280]{1,0} shift-left(%xor.122453.3.clone.1, %broadcast.244419.4352)
  %shift-right-logical.116375.5.clone.1 = u32[1280,1280]{1,0} shift-right-logical(%xor.122453.3.clone.1, %broadcast.244418.4352)
  %or.115904.3.clone.1 = u32[1280,1280]{1,0} or(%shift-left.110143.5.clone.1, %shift-right-logical.116375.5.clone.1)
  %xor.122455.15.clone.1 = u32[1280,1280]{1,0} xor(%add.249627.3.clone.1, %or.115904.3.clone.1)
  %constant_218388_1_clone_1 = u32[] constant(594086746)
  %broadcast.254131.19.clone.1 = u32[1280,1280]{1,0} broadcast(%constant_218388_1_clone_1), dimensions={}
  %add.249629.19.clone.1 = u32[1280,1280]{1,0} add(%xor.122455.15.clone.1, %broadcast.254131.19.clone.1)
  %xor.122456.17.clone.1 = u32[1280,1280]{1,0} xor(%add.249628.17.clone.1, %add.249629.19.clone.1)
  %shift-right-logical.116376.15.clone.1 = u32[1280,1280]{1,0} shift-right-logical(%xor.122456.17.clone.1, %broadcast.244468.1920)
  %or.115905.13.clone.1 = u32[1280,1280]{1,0} or(%shift-right-logical.116376.15.clone.1, %broadcast.244469.1664)
  %bitcast-convert.5779.11.clone.1 = f32[1280,1280]{1,0} bitcast-convert(%or.115905.13.clone.1)
  %add.249631.9.clone.1 = f32[1280,1280]{1,0} add(%bitcast-convert.5779.11.clone.1, %broadcast.244470.1152)
  %multiply.26723.7.clone.1 = f32[1280,1280]{1,0} multiply(%add.249631.9.clone.1, %broadcast.244471.896)
  %add.249635.5.clone.1 = f32[1280,1280]{1,0} add(%multiply.26723.7.clone.1, %broadcast.244408.1024)
  %maximum.3711.3.clone.1 = f32[1280,1280]{1,0} maximum(%broadcast.244408.1024, %add.249635.5.clone.1)
  %abs.1557.3.clone.1 = f32[1280,1280]{1,0} abs(%maximum.3711.3.clone.1)
  %compare.7263.3.clone.1 = pred[1280,1280]{1,0} compare(%abs.1557.3.clone.1, %broadcast.244475.384), direction=EQ
  %multiply.26724.9.clone.1 = f32[1280,1280]{1,0} multiply(%maximum.3711.3.clone.1, %broadcast.244476.1152)
  %negate.4619.5.clone.1 = f32[1280,1280]{1,0} negate(%maximum.3711.3.clone.1)
  %multiply.26725.5.clone.1 = f32[1280,1280]{1,0} multiply(%maximum.3711.3.clone.1, %negate.4619.5.clone.1)
  %log-plus-one.1557.3.clone.1 = f32[1280,1280]{1,0} log-plus-one(%multiply.26725.5.clone.1)
  %negate.4620.4.clone.1 = f32[1280,1280]{1,0} negate(%log-plus-one.1557.3.clone.1)
  %compare.7264.3.clone.1 = pred[1280,1280]{1,0} compare(%negate.4620.4.clone.1, %broadcast.244477.384), direction=LT
  %select.21213.7.clone.1 = f32[1280,1280]{1,0} select(%compare.7264.3.clone.1, %broadcast.244478.896, %broadcast.244479.896)
  %select.21214.11.clone.1 = f32[1280,1280]{1,0} select(%compare.7264.3.clone.1, %broadcast.244480.1408, %broadcast.244481.1408)
  %select.21215.5.clone.1 = f32[1280,1280]{1,0} select(%compare.7264.3.clone.1, %broadcast.244482.640, %broadcast.244483.640)
  %select.21216.5.clone.1 = f32[1280,1280]{1,0} select(%compare.7264.3.clone.1, %broadcast.244484.640, %broadcast.244485.640)
  %select.21217.3.clone.1 = f32[1280,1280]{1,0} select(%compare.7264.3.clone.1, %broadcast.244486.384, %broadcast.244487.384)
  %select.21218.3.clone.1 = f32[1280,1280]{1,0} select(%compare.7264.3.clone.1, %broadcast.244488.384, %broadcast.244489.384)
  %select.21219.3.clone.1 = f32[1280,1280]{1,0} select(%compare.7264.3.clone.1, %broadcast.244490.384, %broadcast.244491.384)
  %select.21220.3.clone.1 = f32[1280,1280]{1,0} select(%compare.7264.3.clone.1, %broadcast.244492.384, %broadcast.244493.384)
  %select.21221.3.clone.1 = f32[1280,1280]{1,0} select(%compare.7264.3.clone.1, %broadcast.244494.384, %broadcast.244495.384)
  %add.249636.5.clone.1 = f32[1280,1280]{1,0} add(%negate.4620.4.clone.1, %broadcast.244496.640)
  %sqrt.1557.5.clone.1 = f32[1280,1280]{1,0} sqrt(%negate.4620.4.clone.1)
  %add.249637.5.clone.1 = f32[1280,1280]{1,0} add(%sqrt.1557.5.clone.1, %broadcast.244498.640)
  %select.21222.3.clone.1 = f32[1280,1280]{1,0} select(%compare.7264.3.clone.1, %add.249636.5.clone.1, %add.249637.5.clone.1)
  %multiply.26726.1.clone.1 = f32[1280,1280]{1,0} multiply(%select.21221.3.clone.1, %select.21222.3.clone.1)
  %add.249638.1.clone.1 = f32[1280,1280]{1,0} add(%select.21220.3.clone.1, %multiply.26726.1.clone.1)
  %multiply.26727.1.clone.1 = f32[1280,1280]{1,0} multiply(%add.249638.1.clone.1, %select.21222.3.clone.1)
  %add.249640.1.clone.1 = f32[1280,1280]{1,0} add(%select.21219.3.clone.1, %multiply.26727.1.clone.1)
  %multiply.26728.1.clone.1 = f32[1280,1280]{1,0} multiply(%add.249640.1.clone.1, %select.21222.3.clone.1)
  %add.249641.1.clone.1 = f32[1280,1280]{1,0} add(%select.21218.3.clone.1, %multiply.26728.1.clone.1)
  %multiply.26729.1.clone.1 = f32[1280,1280]{1,0} multiply(%add.249641.1.clone.1, %select.21222.3.clone.1)
  %add.249642.1.clone.1 = f32[1280,1280]{1,0} add(%select.21217.3.clone.1, %multiply.26729.1.clone.1)
  %multiply.26730.1.clone.1 = f32[1280,1280]{1,0} multiply(%add.249642.1.clone.1, %select.21222.3.clone.1)
  %add.249643.3.clone.1 = f32[1280,1280]{1,0} add(%select.21216.5.clone.1, %multiply.26730.1.clone.1)
  %multiply.26731.1.clone.1 = f32[1280,1280]{1,0} multiply(%add.249643.3.clone.1, %select.21222.3.clone.1)
  %add.249645.3.clone.1 = f32[1280,1280]{1,0} add(%select.21215.5.clone.1, %multiply.26731.1.clone.1)
  %multiply.26732.7.clone.1 = f32[1280,1280]{1,0} multiply(%add.249645.3.clone.1, %select.21222.3.clone.1)
  %add.249646.9.clone.1 = f32[1280,1280]{1,0} add(%select.21214.11.clone.1, %multiply.26732.7.clone.1)
  %multiply.26733.7.clone.1 = f32[1280,1280]{1,0} multiply(%add.249646.9.clone.1, %select.21222.3.clone.1)
  %add.249647.7.clone.1 = f32[1280,1280]{1,0} add(%select.21213.7.clone.1, %multiply.26733.7.clone.1)
  %multiply.26734.7.clone.1 = f32[1280,1280]{1,0} multiply(%add.249647.7.clone.1, %maximum.3711.3.clone.1)
  %select.21223.7.clone.1 = f32[1280,1280]{1,0} select(%compare.7263.3.clone.1, %multiply.26724.9.clone.1, %multiply.26734.7.clone.1)
  %multiply.26735.5.clone.1 = f32[1280,1280]{1,0} multiply(%select.21223.7.clone.1, %broadcast.244500.640)
  %clamp.1201.3.clone.1 = f32[1280,1280]{1,0} clamp(%broadcast.244407.384, %multiply.26735.5.clone.1, %broadcast.244501.384)
  %multiply.26736.1.clone.1 = f32[1280,1280]{1,0} multiply(%clamp.1201.3.clone.1, %broadcast.244502.1)
  %constant_163637_1_clone_1 = u32[] constant(1982261340)
  %broadcast.246792.44.clone.1 = u32[1280,1280]{1,0} broadcast(%constant_163637_1_clone_1), dimensions={}
  %add.245442.37.clone.1 = u32[1280,1280]{1,0} add(%convert.3610.4865, %broadcast.246792.44.clone.1)
  %constant_163660_1_clone_1 = u32[] constant(4196244297)
  %broadcast.246793.113.clone.1 = u32[1280,1280]{1,0} broadcast(%constant_163660_1_clone_1), dimensions={}
  %add.245443.99.clone.1 = u32[1280,1280]{1,0} add(%convert.3611.12801, %broadcast.246793.113.clone.1)
  %add.245444.35.clone.1 = u32[1280,1280]{1,0} add(%add.245442.37.clone.1, %add.245443.99.clone.1)
  %shift-left.108340.31.clone.1 = u32[1280,1280]{1,0} shift-left(%add.245443.99.clone.1, %broadcast.244414.6272)
  %shift-right-logical.114449.29.clone.1 = u32[1280,1280]{1,0} shift-right-logical(%add.245443.99.clone.1, %broadcast.244415.6016)
  %or.113982.29.clone.1 = u32[1280,1280]{1,0} or(%shift-left.108340.31.clone.1, %shift-right-logical.114449.29.clone.1)
  %xor.120531.27.clone.1 = u32[1280,1280]{1,0} xor(%add.245444.35.clone.1, %or.113982.29.clone.1)
  %add.245445.5.clone.1 = u32[1280,1280]{1,0} add(%add.245444.35.clone.1, %xor.120531.27.clone.1)
  %shift-left.108341.9.clone.1 = u32[1280,1280]{1,0} shift-left(%xor.120531.27.clone.1, %broadcast.244416.5760)
  %shift-right-logical.114450.9.clone.1 = u32[1280,1280]{1,0} shift-right-logical(%xor.120531.27.clone.1, %broadcast.244417.5760)
  %or.113983.7.clone.1 = u32[1280,1280]{1,0} or(%shift-left.108341.9.clone.1, %shift-right-logical.114450.9.clone.1)
  %xor.120532.5.clone.1 = u32[1280,1280]{1,0} xor(%add.245445.5.clone.1, %or.113983.7.clone.1)
  %add.245447.3.clone.1 = u32[1280,1280]{1,0} add(%add.245445.5.clone.1, %xor.120532.5.clone.1)
  %shift-left.108342.5.clone.1 = u32[1280,1280]{1,0} shift-left(%xor.120532.5.clone.1, %broadcast.244418.4352)
  %shift-right-logical.114452.5.clone.1 = u32[1280,1280]{1,0} shift-right-logical(%xor.120532.5.clone.1, %broadcast.244419.4352)
  %or.113984.3.clone.1 = u32[1280,1280]{1,0} or(%shift-left.108342.5.clone.1, %shift-right-logical.114452.5.clone.1)
  %xor.120533.3.clone.1 = u32[1280,1280]{1,0} xor(%add.245447.3.clone.1, %or.113984.3.clone.1)
  %add.245448.3.clone.1 = u32[1280,1280]{1,0} add(%add.245447.3.clone.1, %xor.120533.3.clone.1)
  %add.245449.7.clone.1 = u32[1280,1280]{1,0} add(%add.245448.3.clone.1, %broadcast.246793.113.clone.1)
  %shift-left.108343.5.clone.1 = u32[1280,1280]{1,0} shift-left(%xor.120533.3.clone.1, %broadcast.244419.4352)
  %shift-right-logical.114453.5.clone.1 = u32[1280,1280]{1,0} shift-right-logical(%xor.120533.3.clone.1, %broadcast.244418.4352)
  %or.113985.3.clone.1 = u32[1280,1280]{1,0} or(%shift-left.108343.5.clone.1, %shift-right-logical.114453.5.clone.1)
  %xor.120534.3.clone.1 = u32[1280,1280]{1,0} xor(%add.245448.3.clone.1, %or.113985.3.clone.1)
  %constant_217914_1_clone_1 = u32[] constant(2548721872)
  %broadcast.246810.5.clone.1 = u32[1280,1280]{1,0} broadcast(%constant_217914_1_clone_1), dimensions={}
  %add.245450.5.clone.1 = u32[1280,1280]{1,0} add(%xor.120534.3.clone.1, %broadcast.246810.5.clone.1)
  %add.245452.5.clone.1 = u32[1280,1280]{1,0} add(%add.245449.7.clone.1, %add.245450.5.clone.1)
  %shift-left.108344.9.clone.1 = u32[1280,1280]{1,0} shift-left(%add.245450.5.clone.1, %broadcast.244417.5760)
  %shift-right-logical.114454.9.clone.1 = u32[1280,1280]{1,0} shift-right-logical(%add.245450.5.clone.1, %broadcast.244416.5760)
  %or.113987.7.clone.1 = u32[1280,1280]{1,0} or(%shift-left.108344.9.clone.1, %shift-right-logical.114454.9.clone.1)
  %xor.120535.5.clone.1 = u32[1280,1280]{1,0} xor(%add.245452.5.clone.1, %or.113987.7.clone.1)
  %add.245453.3.clone.1 = u32[1280,1280]{1,0} add(%add.245452.5.clone.1, %xor.120535.5.clone.1)
  %shift-left.108345.9.clone.1 = u32[1280,1280]{1,0} shift-left(%xor.120535.5.clone.1, %broadcast.244428.2304)
  %shift-right-logical.114455.9.clone.1 = u32[1280,1280]{1,0} shift-right-logical(%xor.120535.5.clone.1, %broadcast.244429.2304)
  %or.113988.7.clone.1 = u32[1280,1280]{1,0} or(%shift-left.108345.9.clone.1, %shift-right-logical.114455.9.clone.1)
  %xor.120536.5.clone.1 = u32[1280,1280]{1,0} xor(%add.245453.3.clone.1, %or.113988.7.clone.1)
  %add.245454.3.clone.1 = u32[1280,1280]{1,0} add(%add.245453.3.clone.1, %xor.120536.5.clone.1)
  %shift-left.108346.9.clone.1 = u32[1280,1280]{1,0} shift-left(%xor.120536.5.clone.1, %broadcast.244430.4608)
  %shift-right-logical.114456.9.clone.1 = u32[1280,1280]{1,0} shift-right-logical(%xor.120536.5.clone.1, %broadcast.244430.4608)
  %or.113989.7.clone.1 = u32[1280,1280]{1,0} or(%shift-left.108346.9.clone.1, %shift-right-logical.114456.9.clone.1)
  %xor.120537.5.clone.1 = u32[1280,1280]{1,0} xor(%add.245454.3.clone.1, %or.113989.7.clone.1)
  %add.245455.3.clone.1 = u32[1280,1280]{1,0} add(%add.245454.3.clone.1, %xor.120537.5.clone.1)
  %constant_163662_1_clone_1 = u32[] constant(2548721871)
  %broadcast.246824.24.clone.1 = u32[1280,1280]{1,0} broadcast(%constant_163662_1_clone_1), dimensions={}
  %add.245457.7.clone.1 = u32[1280,1280]{1,0} add(%add.245455.3.clone.1, %broadcast.246824.24.clone.1)
  %shift-left.108347.11.clone.1 = u32[1280,1280]{1,0} shift-left(%xor.120537.5.clone.1, %broadcast.244433.2816)
  %shift-right-logical.114457.11.clone.1 = u32[1280,1280]{1,0} shift-right-logical(%xor.120537.5.clone.1, %broadcast.244434.2816)
  %or.113990.9.clone.1 = u32[1280,1280]{1,0} or(%shift-left.108347.11.clone.1, %shift-right-logical.114457.11.clone.1)
  %xor.120538.7.clone.1 = u32[1280,1280]{1,0} xor(%add.245455.3.clone.1, %or.113990.9.clone.1)
  %constant_217915_1_clone_1 = u32[] constant(1982261342)
  %broadcast.246828.5.clone.1 = u32[1280,1280]{1,0} broadcast(%constant_217915_1_clone_1), dimensions={}
  %add.245458.5.clone.1 = u32[1280,1280]{1,0} add(%xor.120538.7.clone.1, %broadcast.246828.5.clone.1)
  %add.245459.5.clone.1 = u32[1280,1280]{1,0} add(%add.245457.7.clone.1, %add.245458.5.clone.1)
  %shift-left.108348.9.clone.1 = u32[1280,1280]{1,0} shift-left(%add.245458.5.clone.1, %broadcast.244414.6272)
  %shift-right-logical.114458.9.clone.1 = u32[1280,1280]{1,0} shift-right-logical(%add.245458.5.clone.1, %broadcast.244415.6016)
  %or.113992.7.clone.1 = u32[1280,1280]{1,0} or(%shift-left.108348.9.clone.1, %shift-right-logical.114458.9.clone.1)
  %xor.120539.5.clone.1 = u32[1280,1280]{1,0} xor(%add.245459.5.clone.1, %or.113992.7.clone.1)
  %add.245460.3.clone.1 = u32[1280,1280]{1,0} add(%add.245459.5.clone.1, %xor.120539.5.clone.1)
  %shift-left.108349.9.clone.1 = u32[1280,1280]{1,0} shift-left(%xor.120539.5.clone.1, %broadcast.244416.5760)
  %shift-right-logical.114459.9.clone.1 = u32[1280,1280]{1,0} shift-right-logical(%xor.120539.5.clone.1, %broadcast.244417.5760)
  %or.113993.7.clone.1 = u32[1280,1280]{1,0} or(%shift-left.108349.9.clone.1, %shift-right-logical.114459.9.clone.1)
  %xor.120540.5.clone.1 = u32[1280,1280]{1,0} xor(%add.245460.3.clone.1, %or.113993.7.clone.1)
  %add.245461.3.clone.1 = u32[1280,1280]{1,0} add(%add.245460.3.clone.1, %xor.120540.5.clone.1)
  %shift-left.108350.7.clone.1 = u32[1280,1280]{1,0} shift-left(%xor.120540.5.clone.1, %broadcast.244418.4352)
  %shift-right-logical.114460.7.clone.1 = u32[1280,1280]{1,0} shift-right-logical(%xor.120540.5.clone.1, %broadcast.244419.4352)
  %or.113994.5.clone.1 = u32[1280,1280]{1,0} or(%shift-left.108350.7.clone.1, %shift-right-logical.114460.7.clone.1)
  %xor.120541.3.clone.1 = u32[1280,1280]{1,0} xor(%add.245461.3.clone.1, %or.113994.5.clone.1)
  %add.245463.3.clone.1 = u32[1280,1280]{1,0} add(%add.245461.3.clone.1, %xor.120541.3.clone.1)
  %add.245467.7.clone.1 = u32[1280,1280]{1,0} add(%add.245463.3.clone.1, %broadcast.246792.44.clone.1)
  %shift-left.108351.7.clone.1 = u32[1280,1280]{1,0} shift-left(%xor.120541.3.clone.1, %broadcast.244419.4352)
  %shift-right-logical.114462.7.clone.1 = u32[1280,1280]{1,0} shift-right-logical(%xor.120541.3.clone.1, %broadcast.244418.4352)
  %or.113995.5.clone.1 = u32[1280,1280]{1,0} or(%shift-left.108351.7.clone.1, %shift-right-logical.114462.7.clone.1)
  %xor.120542.3.clone.1 = u32[1280,1280]{1,0} xor(%add.245463.3.clone.1, %or.113995.5.clone.1)
  %constant_217916_1_clone_1 = u32[] constant(4196244300)
  %broadcast.246840.5.clone.1 = u32[1280,1280]{1,0} broadcast(%constant_217916_1_clone_1), dimensions={}
  %add.245468.5.clone.1 = u32[1280,1280]{1,0} add(%xor.120542.3.clone.1, %broadcast.246840.5.clone.1)
  %add.245469.5.clone.1 = u32[1280,1280]{1,0} add(%add.245467.7.clone.1, %add.245468.5.clone.1)
  %shift-left.108352.9.clone.1 = u32[1280,1280]{1,0} shift-left(%add.245468.5.clone.1, %broadcast.244417.5760)
  %shift-right-logical.114463.9.clone.1 = u32[1280,1280]{1,0} shift-right-logical(%add.245468.5.clone.1, %broadcast.244416.5760)
  %or.113997.7.clone.1 = u32[1280,1280]{1,0} or(%shift-left.108352.9.clone.1, %shift-right-logical.114463.9.clone.1)
  %xor.120543.5.clone.1 = u32[1280,1280]{1,0} xor(%add.245469.5.clone.1, %or.113997.7.clone.1)
  %add.245470.3.clone.1 = u32[1280,1280]{1,0} add(%add.245469.5.clone.1, %xor.120543.5.clone.1)
  %shift-left.108353.9.clone.1 = u32[1280,1280]{1,0} shift-left(%xor.120543.5.clone.1, %broadcast.244428.2304)
  %shift-right-logical.114464.9.clone.1 = u32[1280,1280]{1,0} shift-right-logical(%xor.120543.5.clone.1, %broadcast.244429.2304)
  %or.113998.7.clone.1 = u32[1280,1280]{1,0} or(%shift-left.108353.9.clone.1, %shift-right-logical.114464.9.clone.1)
  %xor.120544.5.clone.1 = u32[1280,1280]{1,0} xor(%add.245470.3.clone.1, %or.113998.7.clone.1)
  %add.245472.3.clone.1 = u32[1280,1280]{1,0} add(%add.245470.3.clone.1, %xor.120544.5.clone.1)
  %shift-left.108354.9.clone.1 = u32[1280,1280]{1,0} shift-left(%xor.120544.5.clone.1, %broadcast.244430.4608)
  %shift-right-logical.114465.9.clone.1 = u32[1280,1280]{1,0} shift-right-logical(%xor.120544.5.clone.1, %broadcast.244430.4608)
  %or.113999.7.clone.1 = u32[1280,1280]{1,0} or(%shift-left.108354.9.clone.1, %shift-right-logical.114465.9.clone.1)
  %xor.120545.5.clone.1 = u32[1280,1280]{1,0} xor(%add.245472.3.clone.1, %or.113999.7.clone.1)
  %add.245473.3.clone.1 = u32[1280,1280]{1,0} add(%add.245472.3.clone.1, %xor.120545.5.clone.1)
  %add.245474.7.clone.1 = u32[1280,1280]{1,0} add(%add.245473.3.clone.1, %broadcast.246793.113.clone.1)
  %shift-left.108355.11.clone.1 = u32[1280,1280]{1,0} shift-left(%xor.120545.5.clone.1, %broadcast.244433.2816)
  %shift-right-logical.114467.11.clone.1 = u32[1280,1280]{1,0} shift-right-logical(%xor.120545.5.clone.1, %broadcast.244434.2816)
  %or.114000.9.clone.1 = u32[1280,1280]{1,0} or(%shift-left.108355.11.clone.1, %shift-right-logical.114467.11.clone.1)
  %xor.120546.7.clone.1 = u32[1280,1280]{1,0} xor(%add.245473.3.clone.1, %or.114000.9.clone.1)
  %constant_217917_1_clone_1 = u32[] constant(2548721875)
  %broadcast.246850.5.clone.1 = u32[1280,1280]{1,0} broadcast(%constant_217917_1_clone_1), dimensions={}
  %add.245475.5.clone.1 = u32[1280,1280]{1,0} add(%xor.120546.7.clone.1, %broadcast.246850.5.clone.1)
  %add.245477.5.clone.1 = u32[1280,1280]{1,0} add(%add.245474.7.clone.1, %add.245475.5.clone.1)
  %shift-left.108356.9.clone.1 = u32[1280,1280]{1,0} shift-left(%add.245475.5.clone.1, %broadcast.244414.6272)
  %shift-right-logical.114468.9.clone.1 = u32[1280,1280]{1,0} shift-right-logical(%add.245475.5.clone.1, %broadcast.244415.6016)
  %or.114002.7.clone.1 = u32[1280,1280]{1,0} or(%shift-left.108356.9.clone.1, %shift-right-logical.114468.9.clone.1)
  %xor.120547.5.clone.1 = u32[1280,1280]{1,0} xor(%add.245477.5.clone.1, %or.114002.7.clone.1)
  %add.245478.3.clone.1 = u32[1280,1280]{1,0} add(%add.245477.5.clone.1, %xor.120547.5.clone.1)
  %shift-left.108357.9.clone.1 = u32[1280,1280]{1,0} shift-left(%xor.120547.5.clone.1, %broadcast.244416.5760)
  %shift-right-logical.114469.9.clone.1 = u32[1280,1280]{1,0} shift-right-logical(%xor.120547.5.clone.1, %broadcast.244417.5760)
  %or.114003.7.clone.1 = u32[1280,1280]{1,0} or(%shift-left.108357.9.clone.1, %shift-right-logical.114469.9.clone.1)
  %xor.120548.5.clone.1 = u32[1280,1280]{1,0} xor(%add.245478.3.clone.1, %or.114003.7.clone.1)
  %add.245479.3.clone.1 = u32[1280,1280]{1,0} add(%add.245478.3.clone.1, %xor.120548.5.clone.1)
  %shift-left.108358.5.clone.1 = u32[1280,1280]{1,0} shift-left(%xor.120548.5.clone.1, %broadcast.244418.4352)
  %shift-right-logical.114470.5.clone.1 = u32[1280,1280]{1,0} shift-right-logical(%xor.120548.5.clone.1, %broadcast.244419.4352)
  %or.114004.3.clone.1 = u32[1280,1280]{1,0} or(%shift-left.108358.5.clone.1, %shift-right-logical.114470.5.clone.1)
  %xor.120549.3.clone.1 = u32[1280,1280]{1,0} xor(%add.245479.3.clone.1, %or.114004.3.clone.1)
  %add.245480.3.clone.1 = u32[1280,1280]{1,0} add(%add.245479.3.clone.1, %xor.120549.3.clone.1)
  %add.245482.17.clone.1 = u32[1280,1280]{1,0} add(%add.245480.3.clone.1, %broadcast.246824.24.clone.1)
  %shift-left.108359.5.clone.1 = u32[1280,1280]{1,0} shift-left(%xor.120549.3.clone.1, %broadcast.244419.4352)
  %shift-right-logical.114472.5.clone.1 = u32[1280,1280]{1,0} shift-right-logical(%xor.120549.3.clone.1, %broadcast.244418.4352)
  %or.114005.3.clone.1 = u32[1280,1280]{1,0} or(%shift-left.108359.5.clone.1, %shift-right-logical.114472.5.clone.1)
  %xor.120550.15.clone.1 = u32[1280,1280]{1,0} xor(%add.245480.3.clone.1, %or.114005.3.clone.1)
  %constant_217918_1_clone_1 = u32[] constant(1982261345)
  %broadcast.246862.19.clone.1 = u32[1280,1280]{1,0} broadcast(%constant_217918_1_clone_1), dimensions={}
  %add.245483.19.clone.1 = u32[1280,1280]{1,0} add(%xor.120550.15.clone.1, %broadcast.246862.19.clone.1)
  %xor.120551.17.clone.1 = u32[1280,1280]{1,0} xor(%add.245482.17.clone.1, %add.245483.19.clone.1)
  %shift-right-logical.114473.15.clone.1 = u32[1280,1280]{1,0} shift-right-logical(%xor.120551.17.clone.1, %broadcast.244468.1920)
  %or.114006.13.clone.1 = u32[1280,1280]{1,0} or(%shift-right-logical.114473.15.clone.1, %broadcast.244469.1664)
  %bitcast-convert.5696.11.clone.1 = f32[1280,1280]{1,0} bitcast-convert(%or.114006.13.clone.1)
  %add.245484.9.clone.1 = f32[1280,1280]{1,0} add(%bitcast-convert.5696.11.clone.1, %broadcast.244470.1152)
  %multiply.25869.7.clone.1 = f32[1280,1280]{1,0} multiply(%add.245484.9.clone.1, %broadcast.244471.896)
  %add.245485.5.clone.1 = f32[1280,1280]{1,0} add(%multiply.25869.7.clone.1, %broadcast.244408.1024)
  %maximum.3628.3.clone.1 = f32[1280,1280]{1,0} maximum(%broadcast.244408.1024, %add.245485.5.clone.1)
  %abs.1502.3.clone.1 = f32[1280,1280]{1,0} abs(%maximum.3628.3.clone.1)
  %compare.7152.3.clone.1 = pred[1280,1280]{1,0} compare(%abs.1502.3.clone.1, %broadcast.244475.384), direction=EQ
  %multiply.25870.9.clone.1 = f32[1280,1280]{1,0} multiply(%maximum.3628.3.clone.1, %broadcast.244476.1152)
  %negate.4509.5.clone.1 = f32[1280,1280]{1,0} negate(%maximum.3628.3.clone.1)
  %multiply.25871.5.clone.1 = f32[1280,1280]{1,0} multiply(%maximum.3628.3.clone.1, %negate.4509.5.clone.1)
  %log-plus-one.1502.3.clone.1 = f32[1280,1280]{1,0} log-plus-one(%multiply.25871.5.clone.1)
  %negate.4510.4.clone.1 = f32[1280,1280]{1,0} negate(%log-plus-one.1502.3.clone.1)
  %compare.7153.3.clone.1 = pred[1280,1280]{1,0} compare(%negate.4510.4.clone.1, %broadcast.244477.384), direction=LT
  %select.20587.7.clone.1 = f32[1280,1280]{1,0} select(%compare.7153.3.clone.1, %broadcast.244478.896, %broadcast.244479.896)
  %select.20588.11.clone.1 = f32[1280,1280]{1,0} select(%compare.7153.3.clone.1, %broadcast.244480.1408, %broadcast.244481.1408)
  %select.20589.5.clone.1 = f32[1280,1280]{1,0} select(%compare.7153.3.clone.1, %broadcast.244482.640, %broadcast.244483.640)
  %select.20590.5.clone.1 = f32[1280,1280]{1,0} select(%compare.7153.3.clone.1, %broadcast.244484.640, %broadcast.244485.640)
  %select.20591.3.clone.1 = f32[1280,1280]{1,0} select(%compare.7153.3.clone.1, %broadcast.244486.384, %broadcast.244487.384)
  %select.20592.3.clone.1 = f32[1280,1280]{1,0} select(%compare.7153.3.clone.1, %broadcast.244488.384, %broadcast.244489.384)
  %select.20593.3.clone.1 = f32[1280,1280]{1,0} select(%compare.7153.3.clone.1, %broadcast.244490.384, %broadcast.244491.384)
  %select.20594.3.clone.1 = f32[1280,1280]{1,0} select(%compare.7153.3.clone.1, %broadcast.244492.384, %broadcast.244493.384)
  %select.20595.3.clone.1 = f32[1280,1280]{1,0} select(%compare.7153.3.clone.1, %broadcast.244494.384, %broadcast.244495.384)
  %add.245486.5.clone.1 = f32[1280,1280]{1,0} add(%negate.4510.4.clone.1, %broadcast.244496.640)
  %sqrt.1502.5.clone.1 = f32[1280,1280]{1,0} sqrt(%negate.4510.4.clone.1)
  %add.245488.5.clone.1 = f32[1280,1280]{1,0} add(%sqrt.1502.5.clone.1, %broadcast.244498.640)
  %select.20596.3.clone.1 = f32[1280,1280]{1,0} select(%compare.7153.3.clone.1, %add.245486.5.clone.1, %add.245488.5.clone.1)
  %multiply.25872.1.clone.1 = f32[1280,1280]{1,0} multiply(%select.20595.3.clone.1, %select.20596.3.clone.1)
  %add.245492.1.clone.1 = f32[1280,1280]{1,0} add(%select.20594.3.clone.1, %multiply.25872.1.clone.1)
  %multiply.25873.1.clone.1 = f32[1280,1280]{1,0} multiply(%add.245492.1.clone.1, %select.20596.3.clone.1)
  %add.245493.1.clone.1 = f32[1280,1280]{1,0} add(%select.20593.3.clone.1, %multiply.25873.1.clone.1)
  %multiply.25874.1.clone.1 = f32[1280,1280]{1,0} multiply(%add.245493.1.clone.1, %select.20596.3.clone.1)
  %add.245494.1.clone.1 = f32[1280,1280]{1,0} add(%select.20592.3.clone.1, %multiply.25874.1.clone.1)
  %multiply.25875.1.clone.1 = f32[1280,1280]{1,0} multiply(%add.245494.1.clone.1, %select.20596.3.clone.1)
  %add.245495.1.clone.1 = f32[1280,1280]{1,0} add(%select.20591.3.clone.1, %multiply.25875.1.clone.1)
  %multiply.25876.1.clone.1 = f32[1280,1280]{1,0} multiply(%add.245495.1.clone.1, %select.20596.3.clone.1)
  %add.245497.3.clone.1 = f32[1280,1280]{1,0} add(%select.20590.5.clone.1, %multiply.25876.1.clone.1)
  %multiply.25877.1.clone.1 = f32[1280,1280]{1,0} multiply(%add.245497.3.clone.1, %select.20596.3.clone.1)
  %add.245498.3.clone.1 = f32[1280,1280]{1,0} add(%select.20589.5.clone.1, %multiply.25877.1.clone.1)
  %multiply.25878.7.clone.1 = f32[1280,1280]{1,0} multiply(%add.245498.3.clone.1, %select.20596.3.clone.1)
  %add.245499.9.clone.1 = f32[1280,1280]{1,0} add(%select.20588.11.clone.1, %multiply.25878.7.clone.1)
  %multiply.25879.7.clone.1 = f32[1280,1280]{1,0} multiply(%add.245499.9.clone.1, %select.20596.3.clone.1)
  %add.245500.7.clone.1 = f32[1280,1280]{1,0} add(%select.20587.7.clone.1, %multiply.25879.7.clone.1)
  %multiply.25880.7.clone.1 = f32[1280,1280]{1,0} multiply(%add.245500.7.clone.1, %maximum.3628.3.clone.1)
  %select.20597.7.clone.1 = f32[1280,1280]{1,0} select(%compare.7152.3.clone.1, %multiply.25870.9.clone.1, %multiply.25880.7.clone.1)
  %multiply.25881.5.clone.1 = f32[1280,1280]{1,0} multiply(%select.20597.7.clone.1, %broadcast.244500.640)
  %clamp.1146.3.clone.1 = f32[1280,1280]{1,0} clamp(%broadcast.244407.384, %multiply.25881.5.clone.1, %broadcast.244501.384)
  %multiply.25882.1.clone.1 = f32[1280,1280]{1,0} multiply(%clamp.1146.3.clone.1, %broadcast.244502.1)
  ROOT %tuple.3392 = (f32[1280,1280]{1,0}, f32[1280,1280]{1,0}, f32[1280,1280]{1,0}, f32[1280,1280]{1,0}, f32[1280,1280]{1,0}, /*index=5*/f32[1280,1280]{1,0}, f32[1280,1280]{1,0}, f32[1280,1280]{1,0}, f32[1280,1280]{1,0}, f32[1280,1280]{1,0}, /*index=10*/f32[1280,1280]{1,0}, f32[1280,1280]{1,0}, f32[1280,1280]{1,0}, f32[1280,1280]{1,0}, f32[1280,1280]{1,0}, /*index=15*/f32[1280,1280]{1,0}, f32[1280,1280]{1,0}, f32[1280,1280]{1,0}, f32[1280,1280]{1,0}, f32[1280,1280]{1,0}, /*index=20*/f32[1280,1280]{1,0}, f32[1280,1280]{1,0}, f32[1280,1280]{1,0}, f32[1280,1280]{1,0}, f32[1280,1280]{1,0}, /*index=25*/f32[1280,1280]{1,0}, f32[1280,1280]{1,0}, f32[1280,1280]{1,0}, f32[1280,1280]{1,0}, f32[1280,1280]{1,0}, /*index=30*/f32[1280,1280]{1,0}, f32[1280,1280]{1,0}, f32[1280,1280]{1,0}, f32[1280,1280]{1,0}, f32[1280,1280]{1,0}, /*index=35*/f32[1280,1280]{1,0}, f32[1280,1280]{1,0}, f32[1280,1280]{1,0}, f32[1280,1280]{1,0}, f32[1280,1280]{1,0}, /*index=40*/f32[1280,1280]{1,0}, f32[1280,1280]{1,0}, f32[1280,1280]{1,0}, f32[1280,1280]{1,0}, f32[1280,1280]{1,0}, /*index=45*/f32[1280,1280]{1,0}, f32[1280,1280]{1,0}, f32[1280,1280]{1,0}, f32[1280,1280]{1,0}, f32[1280,1280]{1,0}, /*index=50*/f32[1280,1280]{1,0}, f32[1280,1280]{1,0}, f32[1280,1280]{1,0}, f32[1280,1280]{1,0}, f32[1280,1280]{1,0}, /*index=55*/f32[1280,1280]{1,0}, f32[1280,1280]{1,0}, f32[1280,1280]{1,0}, f32[1280,1280]{1,0}, f32[1280,1280]{1,0}, /*index=60*/f32[1280,1280]{1,0}, f32[1280,1280]{1,0}, f32[1280,1280]{1,0}, f32[1280,1280]{1,0}, f32[1280,1280]{1,0}, /*index=65*/f32[1280,1280]{1,0}, f32[1280,1280]{1,0}, f32[1280,1280]{1,0}, f32[1280,1280]{1,0}, f32[1280,1280]{1,0}, /*index=70*/f32[1280,1280]{1,0}, f32[1280,1280]{1,0}, f32[1280,1280]{1,0}, f32[1280,1280]{1,0}, f32[1280,1280]{1,0}, /*index=75*/f32[1280,1280]{1,0}, f32[1280,1280]{1,0}, f32[1280,1280]{1,0}, f32[1280,1280]{1,0}, f32[1280,1280]{1,0}, /*index=80*/f32[1280,1280]{1,0}, f32[1280,1280]{1,0}, f32[1280,1280]{1,0}, f32[1280,1280]{1,0}, f32[1280,1280]{1,0}, /*index=85*/f32[1280,1280]{1,0}, f32[1280,1280]{1,0}, f32[1280,1280]{1,0}, f32[1280,1280]{1,0}, f32[1280,1280]{1,0}, /*index=90*/f32[1280,1280]{1,0}, f32[1280,1280]{1,0}, f32[1280,1280]{1,0}, f32[1280,1280]{1,0}) tuple(%multiply.25596.1, %multiply.25624.1.clone.1, %multiply.26588.1.clone.1, %multiply.26602.1.clone.1, %multiply.27082.1.clone.1, /*index=5*/%multiply.26570.1.clone.1, %multiply.27323.1.clone.1, %multiply.26556.1.clone.1, %multiply.27064.1.clone.1, %multiply.26541.1.clone.1, /*index=10*/%multiply.27443.1.clone.1, %multiply.26527.1.clone.1, %multiply.27047.1.clone.1, %multiply.26509.1.clone.1, %multiply.27305.1.clone.1, /*index=15*/%multiply.26489.1.clone.1, %multiply.27026.1.clone.1, %multiply.26470.1.clone.1, %multiply.27505.1.clone.1, %multiply.26455.1.clone.1, /*index=20*/%multiply.27010.1.clone.1, %multiply.26437.1.clone.1, %multiply.27291.1.clone.1, %multiply.26423.1.clone.1, %multiply.26992.1.clone.1, /*index=25*/%multiply.26409.1.clone.1, %multiply.27425.1.clone.1, %multiply.26395.1.clone.1, %multiply.26978.1.clone.1, %multiply.26376.1.clone.1, /*index=30*/%multiply.27277.1.clone.1, %multiply.26361.1.clone.1, %multiply.26964.1.clone.1, %multiply.26347.1.clone.1, %multiply.27533.1.clone.1, /*index=35*/%multiply.26333.1.clone.1, %multiply.26950.1.clone.1, %multiply.26315.1.clone.1, %multiply.27263.1.clone.1, %multiply.26301.1.clone.1, /*index=40*/%multiply.26932.1.clone.1, %multiply.26287.1.clone.1, %multiply.27411.1.clone.1, %multiply.26273.1.clone.1, %multiply.26917.1.clone.1, /*index=45*/%multiply.26255.1.clone.1, %multiply.27245.1.clone.1, %multiply.26241.1.clone.1, %multiply.26902.1.clone.1, %multiply.26227.1.clone.1, /*index=50*/%multiply.27487.1.clone.1, %multiply.26213.1.clone.1, %multiply.26888.1.clone.1, %multiply.26195.1.clone.1, %multiply.27231.1.clone.1, /*index=55*/%multiply.26181.1.clone.1, %multiply.26870.1.clone.1, %multiply.26167.1.clone.1, %multiply.27397.1.clone.1, %multiply.26153.1.clone.1, /*index=60*/%multiply.26856.1.clone.1, %multiply.26135.1.clone.1, %multiply.27217.1.clone.1, %multiply.26121.1.clone.1, %multiply.26842.1.clone.1, /*index=65*/%multiply.26107.1.clone.1, %multiply.27547.1.clone.1, %multiply.26093.1.clone.1, %multiply.26828.1.clone.1, %multiply.26075.1.clone.1, /*index=70*/%multiply.27203.1.clone.1, %multiply.26061.1.clone.1, %multiply.26810.1.clone.1, %multiply.26047.1.clone.1, %multiply.27383.1.clone.1, /*index=75*/%multiply.26033.1.clone.1, %multiply.26796.1.clone.1, %multiply.26015.1.clone.1, %multiply.27185.1.clone.1, %multiply.26001.1.clone.1, /*index=80*/%multiply.26782.1.clone.1, %multiply.25986.1.clone.1, %multiply.27472.1.clone.1, %multiply.25972.1.clone.1, %multiply.26768.1.clone.1, /*index=85*/%multiply.25954.1.clone.1, %multiply.27171.1.clone.1, %multiply.25932.1.clone.1, %multiply.26750.1.clone.1, %multiply.25914.1.clone.1, /*index=90*/%multiply.27365.1.clone.1, %multiply.25900.1.clone.1, %multiply.26736.1.clone.1, %multiply.25882.1.clone.1)
}
// CHECK-PARTITIONED-HLO-COUNT-100:  func.func private
// CHECK-COUNT-100:       func.func private