diff --git a/shardy/dialect/sdy/transforms/import/lift_inlined_meshes.cc b/shardy/dialect/sdy/transforms/import/lift_inlined_meshes.cc
index 7c46ca9d..2722b45d 100644
--- a/shardy/dialect/sdy/transforms/import/lift_inlined_meshes.cc
+++ b/shardy/dialect/sdy/transforms/import/lift_inlined_meshes.cc
@@ -26,7 +26,6 @@ limitations under the License.
 #include "mlir/IR/Builders.h"
 #include "mlir/IR/BuiltinAttributes.h"
 #include "mlir/IR/BuiltinOps.h"
-#include "mlir/IR/MLIRContext.h"
 #include "mlir/IR/SymbolTable.h"
 #include "mlir/Support/LLVM.h"
 #include "shardy/dialect/sdy/ir/constants.h"
@@ -73,35 +72,6 @@ MeshOp createNewMeshOp(Location loc, mlir::stablehlo::MeshAttr mesh,
   return createMesh("mesh", sdyMeshAttr);
 }
 
-DictionaryAttr getStablehloMeshAttrAsDict(MeshAttr sdyMeshAttr) {
-  MLIRContext* ctx = sdyMeshAttr.getContext();
-  Builder builder(ctx);
-
-  SmallVector<Attribute> axesAttrs;
-  for (MeshAxisAttr axisAttr : sdyMeshAttr.getAxes()) {
-    NamedAttribute nameAttr =
-        builder.getNamedAttr("name", builder.getStringAttr(axisAttr.getName()));
-    NamedAttribute sizeAttr = builder.getNamedAttr(
-        "size", builder.getI64IntegerAttr(axisAttr.getSize()));
-    axesAttrs.push_back(builder.getDictionaryAttr({nameAttr, sizeAttr}));
-  }
-  ArrayAttr axesArrayAttr = builder.getArrayAttr(axesAttrs);
-
-  SmallVector<NamedAttribute> dictFields;
-  dictFields.push_back(builder.getNamedAttr("axes", axesArrayAttr));
-
-  if (!sdyMeshAttr.getDeviceIds().empty()) {
-    auto type = RankedTensorType::get(
-        {static_cast<int64_t>(sdyMeshAttr.getDeviceIds().size())},
-        builder.getI64Type());
-    auto deviceIds =
-        DenseIntElementsAttr::get(type, sdyMeshAttr.getDeviceIds());
-    dictFields.push_back(builder.getNamedAttr("device_ids", deviceIds));
-  }
-
-  return builder.getDictionaryAttr(dictFields);
-}
-
 TensorShardingAttr replaceMesh(TensorShardingAttr sharding,
                                StringAttr meshName) {
   return TensorShardingAttr::get(
@@ -226,14 +196,6 @@ struct LiftInlinedMeshesPass
     moduleOp.walk([&](stablehlo::CollectiveBroadcastOp op) {
       processMeshInReplicaGroups(op);
     });
-
-    // Attach discardable `stablehlo.mesh` attributes to all named meshes.
-    for (auto meshOp : llvm::make_early_inc_range(moduleOp.getOps<MeshOp>())) {
-      if (!meshOp->hasAttr("stablehlo.mesh")) {
-        meshOp->setAttr("stablehlo.mesh",
-                        getStablehloMeshAttrAsDict(meshOp.getMesh()));
-      }
-    }
   }
 };
 
diff --git a/shardy/dialect/sdy/transforms/import/test/lift_inlined_meshes.mlir b/shardy/dialect/sdy/transforms/import/test/lift_inlined_meshes.mlir
index f45829cd..de18acb6 100644
--- a/shardy/dialect/sdy/transforms/import/test/lift_inlined_meshes.mlir
+++ b/shardy/dialect/sdy/transforms/import/test/lift_inlined_meshes.mlir
@@ -256,17 +256,3 @@ func.func private @foo(%arg0: tensor<8x8xf32> {sdy.sharding = #sdy.sharding<@mes
   %0 = stablehlo.negate %arg0 {sdy.sharding = #sdy.sharding_per_value<[<@mesh, [{"x"}, {}]>]>} : tensor<8x8xf32>
   return %0 : tensor<8x8xf32>
 }
-
-// -----
-
-// CHECK: sdy.mesh @mesh = <["a"=4]> {stablehlo.mesh = {axes = [{name = "a", size = 4 : i64}]}}
-sdy.mesh @mesh = <["a"=4]>
-
-// CHECK: sdy.mesh @mesh_0 = <["b"=2]> {stablehlo.mesh = {axes = [{name = "b", size = 2 : i64}]}}
-
-// CHECK-LABEL: func @tagged_stablehlo_mesh_attribute
-func.func @tagged_stablehlo_mesh_attribute(%arg0: tensor<4x4xf32> {sdy.sharding = #sdy.sharding<@mesh, [{"a"}, {}]>}, %arg1: tensor<4x4xf32>) -> tensor<4x4xf32> {
-  // CHECK-NEXT: stablehlo.add %arg0, %arg1 {sdy.sharding = #sdy.sharding_per_value<[<@mesh_0, [{"b"}, {}]>]>}
-  %0 = stablehlo.add %arg0, %arg1 {sdy.sharding = #sdy.sharding_per_value<[<mesh<["b"=2]>, [{"b"}, {}]>]>} : tensor<4x4xf32>
-  return %0 : tensor<4x4xf32>
-}
diff --git a/shardy/dialect/sdy/transforms/propagation/test/propagation_pipeline.mlir b/shardy/dialect/sdy/transforms/propagation/test/propagation_pipeline.mlir
index f021e075..a80a25a3 100644
--- a/shardy/dialect/sdy/transforms/propagation/test/propagation_pipeline.mlir
+++ b/shardy/dialect/sdy/transforms/propagation/test/propagation_pipeline.mlir
@@ -1,4 +1,4 @@
-// RUN: sdy_opt %s -split-input-file -sdy-propagation-pipeline | FileCheck %s
+// RUN: sdy_opt %s -split-input-file -sdy-propagation-pipeline 2>&1 | FileCheck %s
 
 sdy.mesh @mesh = <["a"=2, "b"=2, "c"=2]>
 
diff --git a/third_party/llvm/workspace.bzl b/third_party/llvm/workspace.bzl
index bf16ff8f..de600e09 100644
--- a/third_party/llvm/workspace.bzl
+++ b/third_party/llvm/workspace.bzl
@@ -4,8 +4,8 @@ load("//third_party:repo.bzl", "tf_http_archive")
 
 def repo(name):
     """Imports LLVM."""
-    LLVM_COMMIT = "0e6d57648584c3895abd3021fb8fa2a767146d5a"
-    LLVM_SHA256 = "bbd2acb1760bb6a3566a0ffa272f0828c4f2d8233be1759741023abb73910c44"
+    LLVM_COMMIT = "87d42c13cd6b119240781f31e5869981d500a186"
+    LLVM_SHA256 = "66b7f645a9a67d6692c5bea033a536972fcd2e80aa31408d579aae5811521869"
 
     tf_http_archive(
         name = name,
diff --git a/third_party/stablehlo/temporary.patch b/third_party/stablehlo/temporary.patch
index 6c4788de..98e44999 100644
--- a/third_party/stablehlo/temporary.patch
+++ b/third_party/stablehlo/temporary.patch
@@ -565,112 +565,6 @@ diff --ruN a/stablehlo/stablehlo/reference/Tensor.cpp b/stablehlo/stablehlo/refe
              return std::complex<double>(value.real().convertToDouble(),
                                          value.imag().convertToDouble());
            });
-diff --ruN a/stablehlo/stablehlo/tests/transforms/mesh_axes_replica_group_compatibility.mlir b/stablehlo/stablehlo/tests/transforms/mesh_axes_replica_group_compatibility.mlir
---- stablehlo/stablehlo/tests/transforms/mesh_axes_replica_group_compatibility.mlir
-+++ stablehlo/stablehlo/tests/transforms/mesh_axes_replica_group_compatibility.mlir
-@@ -1,4 +1,4 @@
--// RUN: stablehlo-opt %s -stablehlo-compatibility-expander="target=1.14.0" | FileCheck %s
-+// RUN: stablehlo-opt %s -stablehlo-compatibility-expander="target=1.14.0" -allow-unregistered-dialect | FileCheck %s
- 
- module {
- 
-@@ -40,4 +40,48 @@
- 
-     return %0 : tensor<4xf32>
-   }
-+  "sdy.mesh"() {sym_name = "sdy_mesh", stablehlo.mesh = {axes = [{name = "x", size = 2 : i64}, {name = "y", size = 2 : i64}]}} : () -> ()
-+
-+  // CHECK-LABEL: @all_reduce_sdy_mesh
-+  func.func @all_reduce_sdy_mesh(%arg0: tensor<4xf32>) -> tensor<4xf32> {
-+    // CHECK: replica_groups = dense<{{\[\[}}0, 2], [1, 3]]> : tensor<2x2xi64>
-+    %0 = "stablehlo.all_reduce"(%arg0) ({
-+    ^bb0(%arg1: tensor<f32>, %arg2: tensor<f32>):
-+      %1 = "stablehlo.add"(%arg1, %arg2) : (tensor<f32>, tensor<f32>) -> tensor<f32>
-+      "stablehlo.return"(%1) : (tensor<f32>) -> ()
-+    }) {
-+      replica_groups = #stablehlo.replica_group_mesh_axes<mesh = @sdy_mesh, axes = [#stablehlo.axis_ref<name = "x">]>
-+    } : (tensor<4xf32>) -> tensor<4xf32>
-+    return %0 : tensor<4xf32>
-+  }
-+
-+  "sdy.mesh"() {sym_name = "sdy_mesh_dev", stablehlo.mesh = {axes = [{name = "x", size = 2 : i64}, {name = "y", size = 2 : i64}], device_ids = dense<[0, 2, 1, 3]> : tensor<4xi64>}} : () -> ()
-+
-+  // CHECK-LABEL: @all_reduce_sdy_mesh_dev
-+  func.func @all_reduce_sdy_mesh_dev(%arg0: tensor<4xf32>) -> tensor<4xf32> {
-+    // CHECK: replica_groups = dense<{{\[\[}}0, 1], [2, 3]]> : tensor<2x2xi64>
-+    %0 = "stablehlo.all_reduce"(%arg0) ({
-+    ^bb0(%arg1: tensor<f32>, %arg2: tensor<f32>):
-+      %1 = "stablehlo.add"(%arg1, %arg2) : (tensor<f32>, tensor<f32>) -> tensor<f32>
-+      "stablehlo.return"(%1) : (tensor<f32>) -> ()
-+    }) {
-+      replica_groups = #stablehlo.replica_group_mesh_axes<mesh = @sdy_mesh_dev, axes = [#stablehlo.axis_ref<name = "x">]>
-+    } : (tensor<4xf32>) -> tensor<4xf32>
-+    return %0 : tensor<4xf32>
-+  }
-+
-+  "sdy.mesh"() {sym_name = "sdy_mesh_max", stablehlo.mesh = {axes = [], device_ids = dense<0> : tensor<1xi64>}} : () -> ()
-+
-+  // CHECK-LABEL: @all_reduce_sdy_mesh_max
-+  func.func @all_reduce_sdy_mesh_max(%arg0: tensor<4xf32>) -> tensor<4xf32> {
-+    // CHECK: replica_groups = dense<0> : tensor<1x1xi64>
-+    %0 = "stablehlo.all_reduce"(%arg0) ({
-+    ^bb0(%arg1: tensor<f32>, %arg2: tensor<f32>):
-+      %1 = "stablehlo.add"(%arg1, %arg2) : (tensor<f32>, tensor<f32>) -> tensor<f32>
-+      "stablehlo.return"(%1) : (tensor<f32>) -> ()
-+    }) {
-+      replica_groups = #stablehlo.replica_group_mesh_axes<mesh = @sdy_mesh_max, axes = []>
-+    } : (tensor<4xf32>) -> tensor<4xf32>
-+    return %0 : tensor<4xf32>
-+  }
- }
-diff --ruN a/stablehlo/stablehlo/transforms/StablehloCompatibilityExpander.cpp b/stablehlo/stablehlo/transforms/StablehloCompatibilityExpander.cpp
---- stablehlo/stablehlo/transforms/StablehloCompatibilityExpander.cpp
-+++ stablehlo/stablehlo/transforms/StablehloCompatibilityExpander.cpp
-@@ -311,6 +311,31 @@
-   }
- };
- 
-+stablehlo::MeshAttr resolveMeshAttrFromDict(DictionaryAttr dictAttr) {
-+  MLIRContext* ctx = dictAttr.getContext();
-+
-+  // Extract axes
-+  auto axesAttr = dictAttr.getAs<ArrayAttr>("axes");
-+  if (!axesAttr) return {};
-+
-+  SmallVector<stablehlo::MeshAxisAttr> axes;
-+  for (Attribute attr : axesAttr) {
-+    auto axisDict = dyn_cast<DictionaryAttr>(attr);
-+    if (!axisDict) return {};
-+    auto nameAttr = axisDict.getAs<StringAttr>("name");
-+    auto sizeAttr = axisDict.getAs<IntegerAttr>("size");
-+    if (!nameAttr || !sizeAttr) return {};
-+    axes.push_back(stablehlo::MeshAxisAttr::get(ctx, nameAttr.getValue(),
-+                                                sizeAttr.getInt()));
-+  }
-+
-+  // Extract device_ids
-+  DenseIntElementsAttr deviceIds =
-+      dictAttr.getAs<DenseIntElementsAttr>("device_ids");
-+
-+  return stablehlo::MeshAttr::get(ctx, axes, deviceIds);
-+}
-+
- // ReplicaGroupMeshAxesExpander handles the conversion of
- // #stablehlo.replica_group_mesh_axes to a dense I64ElementsAttr for target
- // versions that do not support it.
-@@ -341,6 +366,12 @@
-             symbolOp->getAttrOfType<stablehlo::MeshAttr>("stablehlo.mesh");
-       }
-       if (!meshAttr) {
-+        if (auto dictAttr =
-+                symbolOp->getAttrOfType<DictionaryAttr>("stablehlo.mesh")) {
-+          meshAttr = resolveMeshAttrFromDict(dictAttr);
-+        }
-+      }
-+      if (!meshAttr) {
-         return op->emitError("Failed to find mesh attribute on symbol");
-       }
-     }
 diff --ruN a/stablehlo/stablehlo/transforms/StablehloLegalizeDeprecatedOps.cpp b/stablehlo/stablehlo/transforms/StablehloLegalizeDeprecatedOps.cpp
 --- stablehlo/stablehlo/transforms/StablehloLegalizeDeprecatedOps.cpp
 +++ stablehlo/stablehlo/transforms/StablehloLegalizeDeprecatedOps.cpp
