diff --git a/third_party/llvm/workspace.bzl b/third_party/llvm/workspace.bzl
index a8a877a..6a7c609 100644
--- a/third_party/llvm/workspace.bzl
+++ b/third_party/llvm/workspace.bzl
@@ -4,8 +4,8 @@ load("//third_party:repo.bzl", "tf_http_archive")
 
 def repo(name):
     """Imports LLVM."""
-    LLVM_COMMIT = "19463aab0271572a3e9e2f45ec21014553241c05"
-    LLVM_SHA256 = "fdc4b645b58f85ee75ddefc4d2725f54b39faaed07e935443ceff21b87acbe5e"
+    LLVM_COMMIT = "bb092120f1f031824def23311d8ceb0f39941f3b"
+    LLVM_SHA256 = "1d7e43354b24a8278e664c323911545a9530744e4c89c15b6470b9cc3008bfcd"
 
     tf_http_archive(
         name = name,
diff --git a/third_party/stablehlo/temporary.patch b/third_party/stablehlo/temporary.patch
index 9639787..6c41eab 100644
--- a/third_party/stablehlo/temporary.patch
+++ b/third_party/stablehlo/temporary.patch
@@ -240,6 +240,132 @@ diff --ruN a/stablehlo/stablehlo/tests/ops_chlo.mlir b/stablehlo/stablehlo/tests
  func.func @scan_size_mismatch(%arg0: tensor<2x3xf32>, %arg1: tensor<3xf32>) -> tensor<2x3xf32> {
    // expected-error @+1 {{'chlo.scan' op expects 1 arguments in the body, but got 2}}
    %0 = chlo.scan(%arg0) inits () dimension = 0 {
+diff --ruN a/stablehlo/stablehlo/tests/ops_stablehlo_quantized.mlir b/stablehlo/stablehlo/tests/ops_stablehlo_quantized.mlir
+--- stablehlo/stablehlo/tests/ops_stablehlo_quantized.mlir
++++ stablehlo/stablehlo/tests/ops_stablehlo_quantized.mlir
+@@ -437,7 +437,7 @@
+ // -----
+ 
+ func.func @negative_clamp_quantization(%arg0: tensor<1x!quant.uniform<ui8:f32:0, {0.1:-30}>>) -> tensor<1x!quant.uniform<ui8:f32:0, {0.1:-30}>> {
+-  // expected-error-re@+1 {{operand #0 must be ranked tensor of {{.*}}, but got 'tensor<1x!quant.uniform<u8:f32:0, {1.000000e-01:-30}>>'}}
++  // expected-error-re@+1 {{operand #0 must be ranked tensor of {{.*}}, but got 'tensor<1x!quant.uniform<ui8:f32:0, {1.000000e-01:-30}>>'}}
+   %0 = "stablehlo.clamp"(%arg0, %arg0, %arg0) : (tensor<1x!quant.uniform<ui8:f32:0, {0.1:-30}>>, tensor<1x!quant.uniform<ui8:f32:0, {0.1:-30}>>, tensor<1x!quant.uniform<ui8:f32:0, {0.1:-30}>>) -> tensor<1x!quant.uniform<ui8:f32:0, {0.1:-30}>>
+   func.return %0: tensor<1x!quant.uniform<ui8:f32:0, {0.1:-30}>>
+ }
+@@ -888,7 +888,7 @@
+ // -----
+ 
+ func.func @illegal_storage_type_for_quantized_element_type(%arg0: tensor<4x!quant.uniform<si8:f32, 1.000000e+00>>) -> tensor<4xf32> {
+-  // expected-error-re@+1 {{operand #0 must be ranked tensor of {{.*}}, but got 'tensor<4x!quant.uniform<i8:f32, 1.000000e+00>>}}
++  // expected-error-re@+1 {{operand #0 must be ranked tensor of {{.*}}, but got 'tensor<4x!quant.uniform<si8:f32, 1.000000e+00>>}}
+   %0 = "stablehlo.uniform_dequantize"(%arg0) : (tensor<4x!quant.uniform<si8:f32, 1.000000e+00>>) -> tensor<4xf32>
+   func.return %0 : tensor<4xf32>
+ }
+diff --ruN a/stablehlo/stablehlo/tests/transforms/stablehlo_legalize_qdq_to_quantized_op.mlir b/stablehlo/stablehlo/tests/transforms/stablehlo_legalize_qdq_to_quantized_op.mlir
+--- stablehlo/stablehlo/tests/transforms/stablehlo_legalize_qdq_to_quantized_op.mlir
++++ stablehlo/stablehlo/tests/transforms/stablehlo_legalize_qdq_to_quantized_op.mlir
+@@ -3,8 +3,8 @@
+ // -----
+ 
+ // CHECK-LABEL @compose_quantized_abs_op
+-// CHECK:      %[[abs0:.*]] = stablehlo.abs %arg0 : tensor<16x16x!quant.uniform<u8:f32, 3.400000e+01:16>>
+-// CHECK-NEXT: return %[[abs0]] : tensor<16x16x!quant.uniform<u8:f32, 3.400000e+01:16>>
++// CHECK:      %[[abs0:.*]] = stablehlo.abs %arg0 : tensor<16x16x!quant.uniform<ui8:f32, 3.400000e+01:16>>
++// CHECK-NEXT: return %[[abs0]] : tensor<16x16x!quant.uniform<ui8:f32, 3.400000e+01:16>>
+ func.func @compose_quantized_abs_op(%arg0: tensor<16x16x!quant.uniform<ui8:f32, 34.0:16>>) -> tensor<16x16x!quant.uniform<ui8:f32, 34.0:16>> {
+     %0 = stablehlo.uniform_dequantize %arg0 : (tensor<16x16x!quant.uniform<ui8:f32, 34.0:16>>) -> tensor<16x16xf32>
+     %1 = stablehlo.abs %0 : tensor<16x16xf32>
+@@ -15,8 +15,8 @@
+ // -----
+ 
+ // CHECK-LABEL @failed_to_match_uniform_quant_op_operand_not_defined_by_op
+-// CHECK:       %0 = stablehlo.uniform_quantize %arg0 : (tensor<16x16xf32>) -> tensor<16x16x!quant.uniform<u8:f32, 3.400000e+01:16>>
+-// CHECK-NEXT:  return %0 : tensor<16x16x!quant.uniform<u8:f32, 3.400000e+01:16>>
++// CHECK:       %0 = stablehlo.uniform_quantize %arg0 : (tensor<16x16xf32>) -> tensor<16x16x!quant.uniform<ui8:f32, 3.400000e+01:16>>
++// CHECK-NEXT:  return %0 : tensor<16x16x!quant.uniform<ui8:f32, 3.400000e+01:16>>
+ func.func @failed_to_match_uniform_quant_op_operand_not_defined_by_op(%arg0: tensor<16x16xf32>) -> tensor<16x16x!quant.uniform<ui8:f32, 34.0:16>> {
+   %0 = stablehlo.uniform_quantize %arg0 : (tensor<16x16xf32>) -> tensor<16x16x!quant.uniform<ui8:f32, 34.0:16>>
+   func.return %0 : tensor<16x16x!quant.uniform<ui8:f32, 34.0:16>>
+@@ -30,8 +30,8 @@
+ // CHECK-NEXT:    %2 = stablehlo.add %arg1, %arg2 : tensor<f32>
+ // CHECK-NEXT:    stablehlo.return %2 : tensor<f32>
+ // CHECK-NEXT:    }) : (tensor<4xf32>) -> tensor<4xf32>
+-// CHECK-NEXT:  %1 = stablehlo.uniform_quantize %0 : (tensor<4xf32>) -> tensor<4x!quant.uniform<u8:f32, 3.400000e+01:16>>
+-// CHECK-NEXT:  return %1 : tensor<4x!quant.uniform<u8:f32, 3.400000e+01:16>>
++// CHECK-NEXT:  %1 = stablehlo.uniform_quantize %0 : (tensor<4xf32>) -> tensor<4x!quant.uniform<ui8:f32, 3.400000e+01:16>>
++// CHECK-NEXT:  return %1 : tensor<4x!quant.uniform<ui8:f32, 3.400000e+01:16>>
+ 
+ func.func @failed_to_match_op_with_region(%operand0 : tensor<4xf32>) -> (tensor<4x!quant.uniform<ui8:f32, 34.0:16>>) {
+   %0 = stablehlo.uniform_quantize %operand0 : (tensor<4xf32>) -> tensor<4x!quant.uniform<ui8:f32, 34.0:16>>
+@@ -51,13 +51,13 @@
+ // -----
+ 
+ // CHECK-LABEL failed_to_match_varidic_op
+-// CHECK:       %0 = stablehlo.uniform_quantize %arg0 : (tensor<8x2xf32>) -> tensor<8x2x!quant.uniform<u8:f32, 3.400000e+01:16>>
+-// CHECK-NEXT:  %1 = stablehlo.uniform_dequantize %0 : (tensor<8x2x!quant.uniform<u8:f32, 3.400000e+01:16>>) -> tensor<8x2xf32>
+-// CHECK-NEXT:  %2 = stablehlo.uniform_quantize %arg1 : (tensor<2x2xf32>) -> tensor<2x2x!quant.uniform<u8:f32, 3.400000e+01:16>>
+-// CHECK-NEXT:  %3 = stablehlo.uniform_dequantize %2 : (tensor<2x2x!quant.uniform<u8:f32, 3.400000e+01:16>>) -> tensor<2x2xf32>
++// CHECK:       %0 = stablehlo.uniform_quantize %arg0 : (tensor<8x2xf32>) -> tensor<8x2x!quant.uniform<ui8:f32, 3.400000e+01:16>>
++// CHECK-NEXT:  %1 = stablehlo.uniform_dequantize %0 : (tensor<8x2x!quant.uniform<ui8:f32, 3.400000e+01:16>>) -> tensor<8x2xf32>
++// CHECK-NEXT:  %2 = stablehlo.uniform_quantize %arg1 : (tensor<2x2xf32>) -> tensor<2x2x!quant.uniform<ui8:f32, 3.400000e+01:16>>
++// CHECK-NEXT:  %3 = stablehlo.uniform_dequantize %2 : (tensor<2x2x!quant.uniform<ui8:f32, 3.400000e+01:16>>) -> tensor<2x2xf32>
+ // CHECK-NEXT:  %4:2 = "stablehlo.all_gather"(%1, %3) {{.*}} : (tensor<8x2xf32>, tensor<2x2xf32>) -> (tensor<8x8xf32>, tensor<2x4xf32>)
+-// CHECK-NEXT:  %5 = stablehlo.uniform_quantize %4#0 : (tensor<8x8xf32>) -> tensor<8x8x!quant.uniform<u8:f32, 3.400000e+01:16>>
+-// CHECK-NEXT:  return %5, %4#1 : tensor<8x8x!quant.uniform<u8:f32, 3.400000e+01:16>>, tensor<2x4xf32>
++// CHECK-NEXT:  %5 = stablehlo.uniform_quantize %4#0 : (tensor<8x8xf32>) -> tensor<8x8x!quant.uniform<ui8:f32, 3.400000e+01:16>>
++// CHECK-NEXT:  return %5, %4#1 : tensor<8x8x!quant.uniform<ui8:f32, 3.400000e+01:16>>, tensor<2x4xf32>
+ func.func @failed_to_match_varidic_op(%arg0: tensor<8x2xf32>, %arg1: tensor<2x2xf32>) -> (tensor<8x8x!quant.uniform<ui8:f32, 34.0:16>>, tensor<2x4xf32>) {
+   %0 = stablehlo.uniform_quantize %arg0 : (tensor<8x2xf32>) -> tensor<8x2x!quant.uniform<ui8:f32, 34.0:16>>
+   %1 = stablehlo.uniform_dequantize %0 : (tensor<8x2x!quant.uniform<ui8:f32, 34.0:16>>) -> tensor<8x2xf32>
+@@ -75,12 +75,12 @@
+ // -----
+ 
+ // CHECK-LABEL @failed_to_match_operand_of_compute_op_already_quantized
+-// CHECK:        %0 = stablehlo.uniform_quantize %arg0 : (tensor<1x8x8x207xf32>) -> tensor<1x8x8x207x!quant.uniform<u8:f32, 3.400000e+01:16>>
+-// CHECK-NEXT:   %1 = stablehlo.uniform_dequantize %0 : (tensor<1x8x8x207x!quant.uniform<u8:f32, 3.400000e+01:16>>) -> tensor<1x8x8x207xf32>
++// CHECK:        %0 = stablehlo.uniform_quantize %arg0 : (tensor<1x8x8x207xf32>) -> tensor<1x8x8x207x!quant.uniform<ui8:f32, 3.400000e+01:16>>
++// CHECK-NEXT:   %1 = stablehlo.uniform_dequantize %0 : (tensor<1x8x8x207x!quant.uniform<ui8:f32, 3.400000e+01:16>>) -> tensor<1x8x8x207xf32>
+ // CHECK-NEXT:   %2 = stablehlo.abs %arg1 : tensor<3x3x207x16x!quant.uniform<i8:f32, 5.000000e+00:20>>
+ // CHECK-NEXT:   %3 = stablehlo.convolution(%1, %2) {{.*}} : (tensor<1x8x8x207xf32>, tensor<3x3x207x16x!quant.uniform<i8:f32, 5.000000e+00:20>>) -> tensor<1x8x8x16xf32>
+-// CHECK-NEXT:   %4 = stablehlo.uniform_quantize %3 : (tensor<1x8x8x16xf32>) -> tensor<1x8x8x16x!quant.uniform<u8:f32, 3.400000e+01:16>>
+-// CHECK-NEXT:   return %4 : tensor<1x8x8x16x!quant.uniform<u8:f32, 3.400000e+01:16>>
++// CHECK-NEXT:   %4 = stablehlo.uniform_quantize %3 : (tensor<1x8x8x16xf32>) -> tensor<1x8x8x16x!quant.uniform<ui8:f32, 3.400000e+01:16>>
++// CHECK-NEXT:   return %4 : tensor<1x8x8x16x!quant.uniform<ui8:f32, 3.400000e+01:16>>
+ func.func @failed_to_match_operand_of_compute_op_already_quantized(%arg0: tensor<1x8x8x207xf32>, %arg1: tensor<3x3x207x16x!quant.uniform<i8:f32, 5.0:20>>) -> tensor<1x8x8x16x!quant.uniform<ui8:f32, 34.0:16>> {
+     %0 = stablehlo.uniform_quantize %arg0 : (tensor<1x8x8x207xf32>) -> tensor<1x8x8x207x!quant.uniform<ui8:f32, 34.0:16>>
+     %1 = stablehlo.uniform_dequantize %0 : (tensor<1x8x8x207x!quant.uniform<ui8:f32, 34.0:16>>) -> tensor<1x8x8x207xf32>
+@@ -97,11 +97,11 @@
+ // -----
+ 
+ // CHECK-LABEL @failed_to_match_operand_not_defined_by_op
+-// CHECK:       %0 = stablehlo.uniform_quantize %arg1 : (tensor<16x16xf32>) -> tensor<16x16x!quant.uniform<u8:f32, 3.400000e+01:16>>
+-// CHECK-NEXT:  %1 = stablehlo.uniform_dequantize %0 : (tensor<16x16x!quant.uniform<u8:f32, 3.400000e+01:16>>) -> tensor<16x16xf32>
++// CHECK:       %0 = stablehlo.uniform_quantize %arg1 : (tensor<16x16xf32>) -> tensor<16x16x!quant.uniform<ui8:f32, 3.400000e+01:16>>
++// CHECK-NEXT:  %1 = stablehlo.uniform_dequantize %0 : (tensor<16x16x!quant.uniform<ui8:f32, 3.400000e+01:16>>) -> tensor<16x16xf32>
+ // CHECK-NEXT:  %2 = stablehlo.add %arg0, %1 : tensor<16x16xf32>
+-// CHECK-NEXT:  %3 = stablehlo.uniform_quantize %2 : (tensor<16x16xf32>) -> tensor<16x16x!quant.uniform<u8:f32, 3.400000e+01:16>>
+-// CHECK-NEXT:  return %3 : tensor<16x16x!quant.uniform<u8:f32, 3.400000e+01:16>>
++// CHECK-NEXT:  %3 = stablehlo.uniform_quantize %2 : (tensor<16x16xf32>) -> tensor<16x16x!quant.uniform<ui8:f32, 3.400000e+01:16>>
++// CHECK-NEXT:  return %3 : tensor<16x16x!quant.uniform<ui8:f32, 3.400000e+01:16>>
+ func.func @failed_to_match_operand_not_defined_by_op(%arg0: tensor<16x16xf32>, %arg1: tensor<16x16xf32>) -> tensor<16x16x!quant.uniform<ui8:f32, 34.0:16>> {
+     %1 = stablehlo.uniform_quantize %arg1 : (tensor<16x16xf32>) -> tensor<16x16x!quant.uniform<ui8:f32, 34.0:16>>
+     %2 = stablehlo.uniform_dequantize %1 : (tensor<16x16x!quant.uniform<ui8:f32, 34.0:16>>) -> tensor<16x16xf32>
+@@ -114,11 +114,11 @@
+ 
+ // CHECK-LABEL @failed_to_match_defining_op_is_not_a_uniform_dequantized_op
+ // CHECK:       %0 = stablehlo.abs %arg0 : tensor<16x16xf32>
+-// CHECK-NEXT:  %1 = stablehlo.uniform_quantize %arg1 : (tensor<16x16xf32>) -> tensor<16x16x!quant.uniform<u8:f32, 3.400000e+01:16>>
+-// CHECK-NEXT:  %2 = stablehlo.uniform_dequantize %1 : (tensor<16x16x!quant.uniform<u8:f32, 3.400000e+01:16>>) -> tensor<16x16xf32>
++// CHECK-NEXT:  %1 = stablehlo.uniform_quantize %arg1 : (tensor<16x16xf32>) -> tensor<16x16x!quant.uniform<ui8:f32, 3.400000e+01:16>>
++// CHECK-NEXT:  %2 = stablehlo.uniform_dequantize %1 : (tensor<16x16x!quant.uniform<ui8:f32, 3.400000e+01:16>>) -> tensor<16x16xf32>
+ // CHECK-NEXT:  %3 = stablehlo.add %0, %2 : tensor<16x16xf32>
+-// CHECK-NEXT:  %4 = stablehlo.uniform_quantize %3 : (tensor<16x16xf32>) -> tensor<16x16x!quant.uniform<u8:f32, 3.400000e+01:16>>
+-// CHECK-NEXT:  return %4 : tensor<16x16x!quant.uniform<u8:f32, 3.400000e+01:16>>
++// CHECK-NEXT:  %4 = stablehlo.uniform_quantize %3 : (tensor<16x16xf32>) -> tensor<16x16x!quant.uniform<ui8:f32, 3.400000e+01:16>>
++// CHECK-NEXT:  return %4 : tensor<16x16x!quant.uniform<ui8:f32, 3.400000e+01:16>>
+ func.func @failed_to_match_defining_op_is_not_a_uniform_dequantized_op(%arg0: tensor<16x16xf32>, %arg1: tensor<16x16xf32>) -> tensor<16x16x!quant.uniform<ui8:f32, 34.0:16>> {
+     %0 = stablehlo.abs %arg0 : tensor<16x16xf32>
+     %1 = stablehlo.uniform_quantize %arg1 : (tensor<16x16xf32>) -> tensor<16x16x!quant.uniform<ui8:f32, 34.0:16>>
 diff --ruN a/stablehlo/stablehlo/transforms/VhloLegalizeToStablehlo.cpp b/stablehlo/stablehlo/transforms/VhloLegalizeToStablehlo.cpp
 --- stablehlo/stablehlo/transforms/VhloLegalizeToStablehlo.cpp
 +++ stablehlo/stablehlo/transforms/VhloLegalizeToStablehlo.cpp
