diff --git a/shardy/dialect/sdy/ir/attrs.td b/shardy/dialect/sdy/ir/attrs.td
index c1dd472..6a3e639 100644
--- a/shardy/dialect/sdy/ir/attrs.td
+++ b/shardy/dialect/sdy/ir/attrs.td
@@ -756,27 +756,23 @@ def Sdy_TensorSharding : AttrDef<Sdy_Dialect, "TensorSharding"> {
     static TensorShardingAttr getFullyClosed(
         MLIRContext* context, int64_t rank, StringRef meshName);
 
-    // Builds a fully closed `TensorShardingAttr` matching `sharding` in
-    // `mesh_or_ref` and rank.
+    // Builds a fully open `TensorShardingAttr` with all dim shardings and
+    // replicated axes being marked closed and matching `sharding` in
+    // `mesh_sym_name` and rank.
     static TensorShardingAttr getFullyClosedLike(TensorShardingAttr sharding);
 
-    // Builds a `TensorShardingAttr` with all dim shardings being marked closed
-    // and matching `sharding` in dim sharding axes, `mesh_or_ref` and rank.
+    // Builds a fully open `TensorShardingAttr` with all dim shardings and
+    // replicated axes being marked closed and matching `sharding` in dim
+    // sharding axes, `mesh_sym_name` and rank.
     static TensorShardingAttr getClosedLike(TensorShardingAttr sharding);
 
-    // Builds a `TensorShardingAttr` with a closed dim sharding for each axis
-    // list in `axesPerDim`.
-    static TensorShardingAttr getClosed(
-        MLIRContext* context, Attribute meshOrRef,
-        ArrayRef<SmallVector<AxisRefAttr>> axesPerDim);
-
     // Builds a `TensorShardingAttr` with all dim shardings and replicated axes
     // being marked open (can be further replicated/sharded).
     static TensorShardingAttr getFullyOpen(
         MLIRContext* context, int64_t rank, StringRef meshName);
 
     // Builds a fully open `TensorShardingAttr` matching `sharding` in
-    // `mesh_or_ref` and rank.
+    // `mesh_sym_name` and rank.
     static TensorShardingAttr getFullyOpenLike(TensorShardingAttr sharding);
 
     // Gets the local tensor type from a global RankedTensorType w.r.t. the
@@ -894,10 +890,6 @@ def Sdy_TensorMapping : AttrDef<Sdy_Dialect, "TensorMapping"> {
 
   let extraClassDeclaration = [{
     int64_t getRank() const { return getDimMappings().size(); }
-    bool empty() const { return getDimMappings().empty(); }
-
-    // Returns true if any of the dimension mappings contains the `factorIndex`.
-    bool containsFactor(int64_t factorIndex) const;
   }];
 }
 
@@ -1011,21 +1003,6 @@ def Sdy_OpShardingRule : AttrDef<Sdy_Dialect, "OpShardingRule"> {
     // Returns a vector of the sizes of all operand and result tensors, the
     // operands come before the results.
     SmallVector<int64_t> getTensorSizes() const;
-
-    // Returns true if the `factorIndex` is a reduction factor.
-    bool isReductionFactor(int64_t factorIndex) const;
-
-    // Returns true if the `factorIndex` is a factor requiring full replication.
-    bool isNeedReplicationFactor(int64_t factorIndex) const;
-
-    // Returns true if the `factorIndex` is a factor in all non-scalar tensors.
-    bool isFactorInAllNonScalarTensors(int64_t factorIndex) const;
-
-    // Returns true if the `factorIndex` is a batching factor, which satisfys:
-    // 1. It is not a reduction factor.
-    // 2. It is not a need replication factor.
-    // 3. It is used in all non-scalar tensors.
-    bool isBatchingFactor(int64_t factorIndex) const;
   }];
 }
 
diff --git a/shardy/dialect/sdy/ir/dialect.cc b/shardy/dialect/sdy/ir/dialect.cc
index 8f54ebc..ebbe530 100644
--- a/shardy/dialect/sdy/ir/dialect.cc
+++ b/shardy/dialect/sdy/ir/dialect.cc
@@ -766,12 +766,6 @@ TensorShardingAttr TensorShardingAttr::getFullyClosed(MLIRContext* context,
   return getTensorShardingAttr(context, rank, meshName, /*isClosed=*/true);
 }
 
-TensorShardingAttr TensorShardingAttr::getFullyClosedLike(
-    TensorShardingAttr sharding) {
-  return getTensorShardingAttr(sharding.getContext(), sharding.getRank(),
-                               sharding.getMeshOrRef(), /*isClosed=*/true);
-}
-
 TensorShardingAttr TensorShardingAttr::getClosedLike(
     TensorShardingAttr sharding) {
   SmallVector<DimensionShardingAttr> closedDimShardings(sharding.getRank());
@@ -784,17 +778,10 @@ TensorShardingAttr TensorShardingAttr::getClosedLike(
                                  /*replicatedAxes=*/{});
 }
 
-TensorShardingAttr TensorShardingAttr::getClosed(
-    MLIRContext* context, Attribute meshOrRef,
-    ArrayRef<SmallVector<AxisRefAttr>> axesPerDim) {
-  SmallVector<DimensionShardingAttr> dimShardings;
-  dimShardings.reserve(axesPerDim.size());
-  for (ArrayRef<AxisRefAttr> axes : axesPerDim) {
-    dimShardings.push_back(
-        DimensionShardingAttr::get(context, axes, /*is_closed=*/true));
-  }
-  return TensorShardingAttr::get(context, meshOrRef, dimShardings,
-                                 /*replicatedAxes=*/{});
+TensorShardingAttr TensorShardingAttr::getFullyClosedLike(
+    TensorShardingAttr sharding) {
+  return getTensorShardingAttr(sharding.getContext(), sharding.getRank(),
+                               sharding.getMeshOrRef(), /*isClosed=*/true);
 }
 
 TensorShardingAttr TensorShardingAttr::getFullyOpen(MLIRContext* context,
@@ -881,17 +868,6 @@ TensorShardingPerValueAttr TensorShardingPerValueAttr::replaceValueSharding(
   return TensorShardingPerValueAttr::get(getContext(), shardings);
 }
 
-//===----------------------------------------------------------------------===//
-// TensorMappingAttr
-//===----------------------------------------------------------------------===//
-
-bool TensorMappingAttr::containsFactor(int64_t factorIndex) const {
-  return llvm::any_of(
-      getDimMappings(), [factorIndex](DimMappingAttr dimMapping) {
-        return llvm::is_contained(dimMapping.getFactorIndices(), factorIndex);
-      });
-}
-
 //===----------------------------------------------------------------------===//
 // OpShardingRuleAttr
 //===----------------------------------------------------------------------===//
@@ -915,36 +891,6 @@ SmallVector<int64_t> OpShardingRuleAttr::getTensorSizes() const {
   return tensorSizes;
 }
 
-bool OpShardingRuleAttr::isReductionFactor(int64_t factorIndex) const {
-  return llvm::is_contained(getReductionFactors(), factorIndex);
-}
-
-bool OpShardingRuleAttr::isNeedReplicationFactor(int64_t factorIndex) const {
-  return llvm::is_contained(getNeedReplicationFactors(), factorIndex);
-}
-
-bool OpShardingRuleAttr::isFactorInAllNonScalarTensors(
-    int64_t factorIndex) const {
-  for (const TensorMappingAttr& tensorMapping :
-       llvm::concat<const TensorMappingAttr>(getOperandMappings(),
-                                             getResultMappings())) {
-    if (tensorMapping.empty()) {
-      // We do not consider scalar tensors.
-      continue;
-    }
-    if (!tensorMapping.containsFactor(factorIndex)) {
-      return false;
-    }
-  }
-  return true;
-}
-
-bool OpShardingRuleAttr::isBatchingFactor(int64_t factorIndex) const {
-  return !isReductionFactor(factorIndex) &&
-         !isNeedReplicationFactor(factorIndex) &&
-         isFactorInAllNonScalarTensors(factorIndex);
-}
-
 //===----------------------------------------------------------------------===//
 // ManualComputationOp
 //===----------------------------------------------------------------------===//
diff --git a/shardy/dialect/sdy/ir/dialect_test.cc b/shardy/dialect/sdy/ir/dialect_test.cc
index cde0334..a67d296 100644
--- a/shardy/dialect/sdy/ir/dialect_test.cc
+++ b/shardy/dialect/sdy/ir/dialect_test.cc
@@ -66,26 +66,6 @@ class DialectTest : public ::testing::Test {
                                    replicatedAxes);
   }
 
-  DimMappingAttr createDimMapping(ArrayRef<int64_t> factorIndices) {
-    return DimMappingAttr::get(&context, factorIndices);
-  }
-
-  TensorMappingAttr createTensorMapping(ArrayRef<DimMappingAttr> dimMappings) {
-    return TensorMappingAttr::get(&context, dimMappings);
-  }
-
-  OpShardingRuleAttr createOpShardingRule(
-      ArrayRef<int64_t> factorSizes,
-      ArrayRef<TensorMappingAttr> operandMappings,
-      ArrayRef<TensorMappingAttr> resultMappings,
-      ArrayRef<int64_t> reductionFactors = {},
-      ArrayRef<int64_t> needReplicationFactors = {},
-      bool isCustomRule = false) {
-    return OpShardingRuleAttr::get(&context, factorSizes, operandMappings,
-                                   resultMappings, reductionFactors,
-                                   needReplicationFactors, isCustomRule);
-  }
-
   MLIRContext context;
 };
 
@@ -617,117 +597,6 @@ TEST_F(DialectTest, DimensionShardingAttrGetShardedSize) {
   EXPECT_EQ(dimShardings[0].getShardedSize(mesh), 8);
   EXPECT_EQ(dimShardings[1].getShardedSize(mesh), 3);
 }
-
-TEST_F(DialectTest, TensorMappingAttrContainsFactor) {
-  TensorMappingAttr tensorMapping =
-      createTensorMapping({createDimMapping({0, 3}), createDimMapping({2})});
-
-  EXPECT_TRUE(tensorMapping.containsFactor(0));
-  EXPECT_TRUE(tensorMapping.containsFactor(2));
-  EXPECT_TRUE(tensorMapping.containsFactor(3));
-
-  EXPECT_FALSE(tensorMapping.containsFactor(-1));
-  EXPECT_FALSE(tensorMapping.containsFactor(1));
-  EXPECT_FALSE(tensorMapping.containsFactor(4));
-}
-
-TEST_F(DialectTest, OpShardingRuleAttrElementWiseOperation) {
-  // An element-wise operation with two operands, e.g., a + b where operand has
-  // shape 8x16x32.
-  TensorMappingAttr tensorMapping = createTensorMapping(
-      {createDimMapping({0}), createDimMapping({1}), createDimMapping({2})});
-  OpShardingRuleAttr rule = createOpShardingRule(
-      /*factorSizes=*/{8, 16, 32},
-      /*operandMappings=*/{tensorMapping, tensorMapping},
-      /*resultMappings=*/{tensorMapping});
-
-  EXPECT_EQ(rule.getNumFactors(), 3);
-  EXPECT_EQ(rule.getNumOperands(), 2);
-  EXPECT_EQ(rule.getNumResults(), 1);
-
-  auto verifyBatchingFactor = [&](int64_t factorIndex) {
-    EXPECT_FALSE(rule.isReductionFactor(factorIndex));
-    EXPECT_FALSE(rule.isNeedReplicationFactor(factorIndex));
-    EXPECT_TRUE(rule.isFactorInAllNonScalarTensors(factorIndex));
-    EXPECT_TRUE(rule.isBatchingFactor(factorIndex));
-  };
-  verifyBatchingFactor(0);
-  verifyBatchingFactor(1);
-  verifyBatchingFactor(2);
-}
-
-TEST_F(DialectTest, OpShardingRuleAttrDotGeneralOperation) {
-  // An einsum with sharding rule ([i, j, l], [i, l, k])->([i, j, k]), where l
-  // is the contracting dimension.
-  TensorMappingAttr lhs = createTensorMapping(
-      {createDimMapping({0}), createDimMapping({1}), createDimMapping({3})});
-  TensorMappingAttr rhs = createTensorMapping(
-      {createDimMapping({0}), createDimMapping({3}), createDimMapping({2})});
-  TensorMappingAttr result = createTensorMapping(
-      {createDimMapping({0}), createDimMapping({1}), createDimMapping({2})});
-  OpShardingRuleAttr rule = createOpShardingRule(
-      /*factorSizes=*/{8, 16, 32, 64}, /*operandMappings=*/{lhs, rhs},
-      /*resultMappings=*/{result}, /*reductionFactors=*/{3});
-
-  EXPECT_EQ(rule.getNumFactors(), 4);
-  EXPECT_EQ(rule.getNumOperands(), 2);
-  EXPECT_EQ(rule.getNumResults(), 1);
-
-  // Verify the first factor is a batching factor.
-  EXPECT_FALSE(rule.isReductionFactor(0));
-  EXPECT_FALSE(rule.isNeedReplicationFactor(0));
-  EXPECT_TRUE(rule.isFactorInAllNonScalarTensors(0));
-  EXPECT_TRUE(rule.isBatchingFactor(0));
-
-  auto verifyNonContractingDimension = [&](int64_t factorIndex) {
-    EXPECT_FALSE(rule.isReductionFactor(factorIndex));
-    EXPECT_FALSE(rule.isNeedReplicationFactor(factorIndex));
-    EXPECT_FALSE(rule.isFactorInAllNonScalarTensors(factorIndex));
-    EXPECT_FALSE(rule.isBatchingFactor(factorIndex));
-  };
-  verifyNonContractingDimension(1);
-  verifyNonContractingDimension(2);
-
-  // Verify the contracting dimension is a reduction factor.
-  EXPECT_TRUE(rule.isReductionFactor(3));
-  EXPECT_FALSE(rule.isNeedReplicationFactor(3));
-  EXPECT_FALSE(rule.isFactorInAllNonScalarTensors(3));
-  EXPECT_FALSE(rule.isBatchingFactor(3));
-}
-
-TEST_F(DialectTest, OpShardingRuleAttrDynamicSlice) {
-  // An dynamic_slice with sharding rule ([i, j, k], [], [], [])->([i, l, m]),
-  // {i=32, j=1, k=1, l=1, m=1}.
-  TensorMappingAttr operand = createTensorMapping(
-      {createDimMapping({0}), createDimMapping({1}), createDimMapping({2})});
-  TensorMappingAttr index = createTensorMapping({});
-  TensorMappingAttr result = createTensorMapping(
-      {createDimMapping({0}), createDimMapping({3}), createDimMapping({4})});
-  OpShardingRuleAttr rule =
-      createOpShardingRule(/*factorSizes=*/{8, 1, 1, 1, 1},
-                           /*operandMappings=*/{operand, index, index, index},
-                           /*resultMappings=*/{result});
-
-  EXPECT_EQ(rule.getNumFactors(), 5);
-  EXPECT_EQ(rule.getNumOperands(), 4);
-  EXPECT_EQ(rule.getNumResults(), 1);
-
-  // Verify the first factor is a batching factor.
-  EXPECT_FALSE(rule.isReductionFactor(0));
-  EXPECT_FALSE(rule.isNeedReplicationFactor(0));
-  EXPECT_TRUE(rule.isFactorInAllNonScalarTensors(0));
-  EXPECT_TRUE(rule.isBatchingFactor(0));
-
-  auto verifyNonBatchingFactor = [&](int64_t factorIndex) {
-    EXPECT_FALSE(rule.isReductionFactor(factorIndex));
-    EXPECT_FALSE(rule.isNeedReplicationFactor(factorIndex));
-    EXPECT_FALSE(rule.isFactorInAllNonScalarTensors(factorIndex));
-    EXPECT_FALSE(rule.isBatchingFactor(factorIndex));
-  };
-  verifyNonBatchingFactor(1);
-  verifyNonBatchingFactor(2);
-}
-
 }  // namespace
 
 }  // namespace sdy
diff --git a/shardy/dialect/sdy/transforms/export/insert_explicit_reshards.cc b/shardy/dialect/sdy/transforms/export/insert_explicit_reshards.cc
index 531577b..af4c28e 100644
--- a/shardy/dialect/sdy/transforms/export/insert_explicit_reshards.cc
+++ b/shardy/dialect/sdy/transforms/export/insert_explicit_reshards.cc
@@ -337,7 +337,8 @@ FactorAxesCandidateBag findFactorAxesCandidates(
                                                  projection.getResults())) {
     for (const auto& [factorIndex, factorSharding] :
          tensorFactorSharding.factorIndexToSharding) {
-      if (shardingRule.isNeedReplicationFactor(factorIndex)) {
+      if (llvm::is_contained(shardingRule.getNeedReplicationFactors(),
+                             factorIndex)) {
         continue;
       }
       ArrayRef<AxisRefAttr> axisRefs = factorSharding.axisRefs;
@@ -359,7 +360,8 @@ FactorAxesCandidateBag findFactorAxesCandidates(
     for (const auto& [factorIndex, factorSharding] :
          tensorFactorSharding.factorIndexToSharding) {
       if (factorSharding.axisRefs.empty() ||
-          shardingRule.isNeedReplicationFactor(factorIndex)) {
+          llvm::is_contained(shardingRule.getNeedReplicationFactors(),
+                             factorIndex)) {
         continue;
       }
       FactorAxesPair factorAxes(factorIndex,
diff --git a/shardy/dialect/sdy/transforms/export/reshard_to_collectives.cc b/shardy/dialect/sdy/transforms/export/reshard_to_collectives.cc
index 955f093..cd19ad3 100644
--- a/shardy/dialect/sdy/transforms/export/reshard_to_collectives.cc
+++ b/shardy/dialect/sdy/transforms/export/reshard_to_collectives.cc
@@ -14,19 +14,13 @@ limitations under the License.
 ==============================================================================*/
 
 #include <cassert>
-#include <cstdint>
-#include <iterator>
-#include <list>
+#include <cstddef>
 #include <memory>  // IWYU pragma: keep
-#include <optional>
-#include <set>
 #include <utility>
 
 #include "llvm/ADT/STLExtras.h"
-#include "llvm/ADT/SmallVector.h"
 #include "mlir/Dialect/Func/IR/FuncOps.h"  // IWYU pragma: keep
 #include "mlir/IR/Diagnostics.h"
-#include "mlir/IR/MLIRContext.h"
 #include "mlir/IR/PatternMatch.h"
 #include "mlir/Pass/Pass.h"  // IWYU pragma: keep
 #include "mlir/Rewrite/FrozenRewritePatternSet.h"
@@ -44,248 +38,13 @@ namespace sdy {
 
 namespace {
 
-using OptionalAxisRef = std::optional<AxisRefAttr>;
-
-// We use an std::list so we can pop from the front and the back and with an
-// iterator at constant time.
-// TODO(tomnatan): Consider using AxisListRef instead of std::list once it can
-// also replace the first axis in the list with a different sub-axis.
-using AxisList = std::list<AxisRefAttr>;
-
-// We use an std::set so sub-axes are ordered by their pre-size and size, and
-// we can use set::lower_bound to find the first overlapping axis (see
-// getFirstOverlapping).
-using AvailableAxes = std::set<AxisRefAttr>;
-
-// Removes the common prefix of both `first` and `second`.
-void removeCommonPrefix(AxisList& first, AxisList& second, MeshAttr mesh) {
-  while (!first.empty() && !second.empty() && first.front() == second.front()) {
-    first.pop_front();
-    second.pop_front();
-  }
-  if (first.empty() || second.empty()) {
-    return;
-  }
-  if (OptionalAxisRef suffix =
-          first.front().removeCommonPrefix(second.front(), mesh)) {
-    first.front() = *suffix;
-    second.pop_front();
-  } else if (OptionalAxisRef suffix =
-                 second.front().removeCommonPrefix(first.front(), mesh)) {
-    second.front() = *suffix;
-    first.pop_front();
-  }
-}
-
-// Returns a vector of `InnerAxisList` per dimension from the given `sharding`.
-template <class InnerAxisList>
-SmallVector<InnerAxisList> getAxesPerDim(TensorShardingAttr sharding) {
-  SmallVector<InnerAxisList> axesPerDim;
-  axesPerDim.reserve(sharding.getRank());
-  for (DimensionShardingAttr dimSharding : sharding.getDimShardings()) {
-    axesPerDim.emplace_back(dimSharding.axis_begin(), dimSharding.axis_end());
-  }
-  return axesPerDim;
-}
-
-AvailableAxes::const_iterator getPrevOrEnd(AvailableAxes::iterator it,
-                                           const AvailableAxes& availableAxes) {
-  return it == availableAxes.begin() ? availableAxes.end() : std::prev(it);
-}
-
-// Returns an iterator to the first axis in `availableAxes` that overlaps with
-// `axis`, or `availableAxes.end()` if there is no such axis.
-AvailableAxes::iterator getFirstOverlapping(
-    AxisRefAttr axis, const AvailableAxes& availableAxes) {
-  if (availableAxes.empty()) {
-    return availableAxes.end();
-  }
-  auto afterIt = availableAxes.lower_bound(axis);
-  auto beforeIt = getPrevOrEnd(afterIt, availableAxes);
-  // If there is at least one overlapping axis, the first one is necessarily
-  // `afterIt` or `beforeIt`.
-  //
-  // Proof:
-  // Let `axis` be A and the first overlapping axis in `availableAxes` be B.
-  //
-  // Note that there can't be two overlapping available axes. `lower_bound`
-  // returns the first available axis greater or equal to A.
-  //
-  // * If `B >= A`, then there can't be another available axis C such that
-  //   `A <= C < B` since it would have to be overlapping with A and thus the
-  //   first overlapping axis instead of B. Therefore, `lower_bound` will
-  //   return B.
-  // * If `B < A`, then there can't be another available axis C such that
-  //   `B < C < A` since B and C can't overlap. Therefore, `lower_bound` will
-  //   return the axis after B, which doesn't overlap with A.
-
-  if (beforeIt != availableAxes.end() && beforeIt->overlaps(axis)) {
-    return beforeIt;
-  }
-  if (afterIt != availableAxes.end() && afterIt->overlaps(axis)) {
-    return afterIt;
-  }
-  return availableAxes.end();
-}
-
-// Removes `availableAxis` from `availableAxes` and adds the prefix and suffix
-// of `availableAxis` that don't overlap with `overlap` back to `availableAxes`.
-//
-// We assume that `availableAxis` overlaps with `overlap`.
-void removeOverlapFromAvailable(AxisRefAttr availableAxis, AxisRefAttr overlap,
-                                AvailableAxes& availableAxes, MeshAttr mesh) {
-  availableAxes.erase(availableAxis);
-  if (OptionalAxisRef prefix = availableAxis.getPrefixWithoutOverlap(overlap)) {
-    availableAxes.insert(*prefix);
-  }
-  if (OptionalAxisRef suffix =
-          availableAxis.getSuffixWithoutOverlap(overlap, mesh)) {
-    availableAxes.insert(*suffix);
-  }
-}
-
-// Adds `axis` to `availableAxes` and merges it with sub-axes in
-// `availableAxes` that can be merged with `axis`.
-//
-// We assume that `axis` doesn't overlap with any axis in `availableAxes`.
-void addAvailableAxis(AxisRefAttr axis, AvailableAxes& availableAxes,
-                      MeshAttr mesh) {
-  // `lower_bound` returns the first available axis greater or equal to `axis`,
-  // and we know `axis` doesn't overlap with any available axis.
-  auto afterIt = availableAxes.lower_bound(axis);
-  auto beforeIt = getPrevOrEnd(afterIt, availableAxes);
-  AxisRefAttr axisToAdd = axis;
-  // Try to merge `axisToAdd` with the first axis greater than it from the left.
-  if (afterIt != availableAxes.end() && axisToAdd.canMerge(*afterIt)) {
-    axisToAdd = axisToAdd.merge(*afterIt, mesh);
-    availableAxes.erase(afterIt);
-  }
-
-  // Try to merge `axisToAdd` with the last axis less than it from the right.
-  if (beforeIt != availableAxes.end() && beforeIt->canMerge(axisToAdd)) {
-    axisToAdd = beforeIt->merge(axisToAdd, mesh);
-    availableAxes.erase(beforeIt);
-  }
-  availableAxes.insert(axisToAdd);
-}
-
-// If there is a prefix of `axis` that fully overlaps with an axis in
-// `availableAxes`, returns that prefix and removes it from `availableAxes`.
-// Otherwise, returns `std::nullopt` and leaves `availableAxes` unchanged.
-std::optional<AxisRefAttr> takeAvailablePrefix(AxisRefAttr axis,
-                                               AvailableAxes& availableAxes,
-                                               MeshAttr mesh) {
-  // It's enough to check the first overlapping axis since any other overlapping
-  // axis would necessarily not fully overlap with a prefix of `axis`.
-  auto availableIt = getFirstOverlapping(axis, availableAxes);
-  if (availableIt == availableAxes.end()) {
-    return std::nullopt;
-  }
-  AxisRefAttr availableAxis = *availableIt;
-  if (OptionalAxisRef result = axis.getPrefixWithOverlap(availableAxis, mesh)) {
-    removeOverlapFromAvailable(availableAxis, *result, availableAxes, mesh);
-    return result;
-  }
-  return std::nullopt;
-}
-
-// Removes all axis refs in `axes` from `availableAxes`.
-//
-// We assume for every axis ref in `axes` there is exactly one axis ref in
-// `availableAxes` that contains it, and if they aren't equal, we remove the
-// containing axis and add back the prefix and suffix that don't overlap, if
-// exist.
-void removeUnavailableAxes(ArrayRef<AxisRefAttr> axes, MeshAttr mesh,
-                           AvailableAxes& availableAxes) {
-  for (AxisRefAttr axis : axes) {
-    removeOverlapFromAvailable(*getFirstOverlapping(axis, availableAxes), axis,
-                               availableAxes, mesh);
-  }
-}
-
-// Returns all available axes or sub-axes in `mesh` that aren't used in
-// `axesPerDim`.
-AvailableAxes getAvailableAxes(ArrayRef<SmallVector<AxisRefAttr>> axesPerDim,
-                               MeshAttr mesh) {
-  AvailableAxes unboundAxes;
-  for (MeshAxisAttr axis : mesh.getAxes()) {
-    unboundAxes.insert(AxisRefAttr::get(mesh.getContext(), axis.getName()));
-  }
-  for (ArrayRef<AxisRefAttr> axes : axesPerDim) {
-    removeUnavailableAxes(axes, mesh, unboundAxes);
-  }
-  return unboundAxes;
-}
-
-// Returns the axes to slice for a specific dimension.
-//
-// If `inAxes` is empty, the prefix of `outAxes` that is available (i.e., fully
-// contained by axes in `availableAxes`) can be sliced. The slicing axes are
-// removed from `outAxes` and `availableAxes`, and added to `currentAxes`.
-SmallVector<AxisRefAttr> getSlicingAxes(const AxisList& inAxes,
-                                        AxisList& outAxes,
-                                        SmallVector<AxisRefAttr>& currentAxes,
-                                        AvailableAxes& availableAxes,
-                                        MeshAttr mesh) {
-  if (!inAxes.empty()) {
-    return {};
-  }
-  SmallVector<AxisRefAttr> slicingAxes;
-  while (!outAxes.empty()) {
-    AxisRefAttr outAxis = outAxes.front();
-    std::optional<AxisRefAttr> availablePrefix =
-        takeAvailablePrefix(outAxis, availableAxes, mesh);
-    if (!availablePrefix) {
-      break;
-    }
-    slicingAxes.push_back(*availablePrefix);
-    addAxisOrMerge(currentAxes, *availablePrefix, mesh);
-    outAxes.pop_front();
-    if (*availablePrefix != outAxis) {
-      // Safe to dereference since we know `availablePrefix` and `outAxis` have
-      // a common prefix and aren't equal.
-      outAxes.push_front(
-          *outAxis.getSuffixWithoutOverlap(*availablePrefix, mesh));
-      break;
-    }
-  }
-  return slicingAxes;
-}
-
-// Returns the axes to gather for a specific dimension.
-//
-// All axes in `inAxes` are gathered greedily. The gathering axes are removed
-// from `availableAxes`, popped from the back of `currentAxes`, and `inAxes` is
-// cleared.
-SmallVector<AxisRefAttr> getGatheringAxes(AxisList& inAxes,
-                                          SmallVector<AxisRefAttr>& currentAxes,
-                                          AvailableAxes& availableAxes,
-                                          MeshAttr mesh) {
-  if (inAxes.empty()) {
-    return {};
-  }
-  SmallVector<AxisRefAttr> gatheringAxes = llvm::to_vector(inAxes);
-  currentAxes.pop_back_n(inAxes.size() - 1);
-  if (OptionalAxisRef prefix =
-          currentAxes.back().getPrefixWithoutOverlap(inAxes.front())) {
-    currentAxes.back() = *prefix;
-  } else {
-    currentAxes.pop_back();
-  }
-
-  for (AxisRefAttr axis : inAxes) {
-    addAvailableAxis(axis, availableAxes, mesh);
-  }
-  inAxes.clear();
-  return gatheringAxes;
-}
-
 class ReshardPattern : public OpConversionPattern<ReshardOp> {
  public:
   using OpConversionPattern::OpConversionPattern;
 
  private:
-  // For the moment we only consider all_gather and all_slice.
+  // For the moment we only consider all_gather.
+  // If the reshard can't be expressed exclusively as an all_gather, we fail.
   // TODO(b/380226848): Add support for other collectives.
   LogicalResult matchAndRewrite(
       ReshardOp op, OpAdaptor adaptor,
@@ -296,96 +55,38 @@ class ReshardPattern : public OpConversionPattern<ReshardOp> {
     if (inputSharding.getRank() != outputSharding.getRank() ||
         inputSharding.getMeshName() != outputSharding.getMeshName()) {
       return rewriter.notifyMatchFailure(
-          op, [](Diagnostic& diag) { diag << "Incompatible shardings"; });
-    }
-    int64_t rank = inputSharding.getRank();
-
-    // TODO(tomnatan): we should verify that the operand of ReshardOp has a
-    // sharding.
-    // TODO(tomnatan): use a SymbolTable.
-
-    MeshAttr mesh = inputSharding.getMesh(op);
-    SmallVector<AxisList> inAxesPerDim = getAxesPerDim<AxisList>(inputSharding);
-    SmallVector<AxisList> outAxesPerDim =
-        getAxesPerDim<AxisList>(outputSharding);
-    // We remove the common prefix of `inAxes` and `outAxes`, since those axes
-    // stay exactly the same during the reshard. We are left with `inAxes` that
-    // need to be transformed into `outAxes`, via a sequence of collectives.
-    for (auto [inAxes, outAxes] :
-         llvm::zip_equal(inAxesPerDim, outAxesPerDim)) {
-      removeCommonPrefix(inAxes, outAxes, mesh);
-    }
-
-    auto hasRemainingAxes = [](const AxisList& axes) { return !axes.empty(); };
-    bool hasRemainingInAxes = llvm::any_of(inAxesPerDim, hasRemainingAxes);
-    bool hasRemainingOutAxes = llvm::any_of(outAxesPerDim, hasRemainingAxes);
-
-    if (!hasRemainingInAxes && !hasRemainingOutAxes) {
-      rewriter.replaceOp(op, adaptor.getInput());
-      return success();
+          op, [](Diagnostic& diag) { diag << "Uncompatible shardings"; });
     }
-
-    SmallVector<SmallVector<AxisRefAttr>> currentAxesPerDim =
-        getAxesPerDim<SmallVector<AxisRefAttr>>(inputSharding);
-    AvailableAxes availableAxes = getAvailableAxes(currentAxesPerDim, mesh);
-
-    Value input = adaptor.getInput();
-    MLIRContext* context = rewriter.getContext();
-
-    auto getCurrentSharding = [&]() {
-      return TensorShardingAttr::getClosed(
-          context, inputSharding.getMeshOrRef(), currentAxesPerDim);
-    };
-
-    SmallVector<AxisRefListAttr> collectiveAxesPerDim(rank);
-
-    // We aren't done until both `inAxesPerDim` and `outAxesPerDim` are
-    // empty.
-    // TODO(b/380226848): this is an initial implementation that only inserts
-    // all-gathers and all-slices, and greedily all-gathers axes after the first
-    // attempt to insert an all-slice.
-    while (hasRemainingInAxes || hasRemainingOutAxes) {
-      // 1. Try to insert an all-slice first, as it decreases the size of the
-      // tensor.
-      hasRemainingOutAxes = false;
-      bool hasSlicingAxes = false;
-      for (auto [inAxes, outAxes, currentAxes, collectiveAxes] :
-           llvm::zip_equal(inAxesPerDim, outAxesPerDim, currentAxesPerDim,
-                           collectiveAxesPerDim)) {
-        SmallVector<AxisRefAttr> slicingAxes =
-            getSlicingAxes(inAxes, outAxes, currentAxes, availableAxes, mesh);
-        if (!slicingAxes.empty()) {
-          hasSlicingAxes = true;
-        }
-        if (!outAxes.empty()) {
-          hasRemainingOutAxes = true;
-        }
-        collectiveAxes = AxisRefListAttr::get(context, slicingAxes);
-      }
-      if (hasSlicingAxes) {
-        input = rewriter.create<AllSliceOp>(
-            op.getLoc(), input, collectiveAxesPerDim, getCurrentSharding());
-      }
-
-      // 2. Try to insert an all-gather, that increases the size of the tensor.
-      hasRemainingInAxes = false;
-      bool hasGatheringAxes = false;
-      for (auto [inAxes, currentAxes, collectiveAxes] : llvm::zip_equal(
-               inAxesPerDim, currentAxesPerDim, collectiveAxesPerDim)) {
-        SmallVector<AxisRefAttr> gatheringAxes =
-            getGatheringAxes(inAxes, currentAxes, availableAxes, mesh);
-        if (!gatheringAxes.empty()) {
-          hasGatheringAxes = true;
-        }
-        collectiveAxes = AxisRefListAttr::get(context, gatheringAxes);
-      }
-      if (hasGatheringAxes) {
-        input = rewriter.create<AllGatherOp>(
-            op.getLoc(), input, collectiveAxesPerDim, getCurrentSharding());
+    auto gatheringAxesPerDim =
+        SmallVector<AxisRefListAttr>(inputSharding.getRank());
+    size_t dimIdx = 0;
+    for (auto [inDimSharding, outDimSharding] :
+         llvm::zip_equal(inputSharding.getDimShardings(),
+                         outputSharding.getDimShardings())) {
+      // We look for the greatest common prefix between the input and output
+      // shardings. The gathering axes should be the output sharding without
+      // this prefix.
+      ArrayRef<AxisRefAttr> inShardingDimAxes = inDimSharding.getAxes();
+      ArrayRef<AxisRefAttr> outShardingDimAxes = outDimSharding.getAxes();
+      SmallVector<AxisRefAttr> greatestCommonPrefix =
+          getGreatestCommonPrefix(inShardingDimAxes, outShardingDimAxes);
+      if (greatestCommonPrefix != outShardingDimAxes) {
+        return rewriter.notifyMatchFailure(op, [](Diagnostic& diag) {
+          diag << "Couldn't match reshard as all_gather";
+        });
       }
+      // TODO (b/379838852): Add support for gathering a sub axis out of a
+      // bigger or full sub axis or full axis.
+      ArrayRef<AxisRefAttr> gatheringAxes =
+          inShardingDimAxes.drop_front(greatestCommonPrefix.size());
+      gatheringAxesPerDim[dimIdx] =
+          AxisRefListAttr::get(rewriter.getContext(), gatheringAxes);
+      dimIdx++;
     }
-
-    rewriter.replaceOp(op, input);
+    rewriter.replaceOpWithNewOp<AllGatherOp>(
+        op, adaptor.getInput(),
+        ListOfAxisRefListsAttr::get(rewriter.getContext(), gatheringAxesPerDim),
+        adaptor.getSharding());
     return success();
   }
 };
@@ -397,7 +98,7 @@ struct ReshardToCollectivesPass
   LogicalResult initialize(MLIRContext* context) final {
     target = std::make_shared<ConversionTarget>(*context);
     target->addIllegalOp<ReshardOp>();
-    target->addLegalOp<AllGatherOp, AllSliceOp>();
+    target->addLegalOp<AllGatherOp>();
 
     RewritePatternSet patternsInternal(context);
     patternsInternal.add<ReshardPattern>(context);
diff --git a/shardy/dialect/sdy/transforms/export/test/reshard_to_collectives.mlir b/shardy/dialect/sdy/transforms/export/test/reshard_to_collectives.mlir
index 0f92727..5272c85 100644
--- a/shardy/dialect/sdy/transforms/export/test/reshard_to_collectives.mlir
+++ b/shardy/dialect/sdy/transforms/export/test/reshard_to_collectives.mlir
@@ -1,145 +1,37 @@
 // RUN: sdy_opt %s -sdy-reshard-to-collectives | FileCheck %s
 
-sdy.mesh @mesh1d_6 = <["x"=6]>
 sdy.mesh @mesh2d = <["x"=2, "y"=2]>
+sdy.mesh @mesh3d = <["x"=2, "y"=2, "z"=2]>
 sdy.mesh @mesh2d_4x2 = <["x"=4, "y"=2]>
 sdy.mesh @mesh2d_2x8 = <["x"=2, "y"=8]>
-sdy.mesh @mesh3d = <["x"=2, "y"=2, "z"=2]>
-sdy.mesh @mesh4d_w4 = <["x"=2, "y"=2, "z"=2, "w"=4]>
-sdy.mesh @mesh4d_w16 = <["x"=2, "y"=2, "z"=2, "w"=16]>
-
-// CHECK-LABEL: func @redundant_reshard
-func.func @redundant_reshard(%arg0 : tensor<16x8xf32> {sdy.sharding=#sdy.sharding<@mesh2d, [{"x"}, {"y"}]>}) -> tensor<16x8xf32> {
-  // CHECK-NEXT: return %arg0
-  %0 = sdy.reshard %arg0 <@mesh2d, [{"x", ?}, {"y", ?}]> : tensor<16x8xf32>
-  return %0 : tensor<16x8xf32>
-}
 
 // CHECK-LABEL: func @reshard_to_all_gather_single_axis
-func.func @reshard_to_all_gather_single_axis(%arg0 : tensor<16x8xf32> {sdy.sharding=#sdy.sharding<@mesh2d, [{"y"}, {"x"}]>}) -> tensor<16x8xf32> {
-  // CHECK-NEXT: sdy.all_gather [{}, {"x"}] %arg0 out_sharding=<@mesh2d, [{"y"}, {}]>
-  %0 = sdy.reshard %arg0 <@mesh2d, [{"y"}, {}]> : tensor<16x8xf32>
-  return %0 : tensor<16x8xf32>
-}
-
-// CHECK-LABEL: func @reshard_to_all_gather_multiple_axes
-func.func @reshard_to_all_gather_multiple_axes(%arg0 : tensor<16x8xf32> {sdy.sharding=#sdy.sharding<@mesh3d, [{"x", "y", "z"}, {}]>}) -> tensor<16x8xf32> {
-  // CHECK-NEXT: sdy.all_gather [{"y", "z"}, {}] %arg0 out_sharding=<@mesh3d, [{"x"}, {}]>
-  %0 = sdy.reshard %arg0 <@mesh3d, [{"x"}, {}]> : tensor<16x8xf32>
-  return %0 : tensor<16x8xf32>
-}
-
-// CHECK-LABEL: func @reshard_to_all_gather_multiple_dims
-func.func @reshard_to_all_gather_multiple_dims(%arg0 : tensor<16x8xf32> {sdy.sharding=#sdy.sharding<@mesh3d, [{"y", "z"}, {"x"}]>}) -> tensor<16x8xf32> {
-  // CHECK-NEXT: sdy.all_gather [{"z"}, {}] %arg0 out_sharding=<@mesh3d, [{"y"}, {"x"}]>
-  %0 = sdy.reshard %arg0 <@mesh3d, [{"y"}, {"x"}]> : tensor<16x8xf32>
-  return %0 : tensor<16x8xf32>
-}
-
-// CHECK-LABEL: func @reshard_to_all_gather_with_subaxis
-func.func @reshard_to_all_gather_with_subaxis(%arg0 : tensor<16x8xf32> {sdy.sharding=#sdy.sharding<@mesh2d_2x8, [{"y"}, {"x"}]>}) -> tensor<16x8xf32> {
-  // CHECK-NEXT: sdy.all_gather [{"y":(4)2}, {}] %arg0 out_sharding=<@mesh2d_2x8, [{"y":(1)4}, {"x"}]>
- %0 = sdy.reshard %arg0 <@mesh2d_2x8, [{"y":(1)4}, {"x"}]> :  tensor<16x8xf32>
- return %0 : tensor<16x8xf32>
-}
-
-// CHECK-LABEL: func @reshard_to_all_slice_multiple_axes
-func.func @reshard_to_all_slice_multiple_axes(%arg0 : tensor<16x8xf32> {sdy.sharding=#sdy.sharding<@mesh3d, [{}, {}]>}) -> tensor<16x8xf32> {
-  // CHECK-NEXT: sdy.all_slice [{"x"}, {"y", "z"}] %arg0 out_sharding=<@mesh3d, [{"x"}, {"y", "z"}]>
-  %0 = sdy.reshard %arg0 <@mesh3d, [{"x"}, {"y", "z"}]> : tensor<16x8xf32>
-  return %0 : tensor<16x8xf32>
+func.func @reshard_to_all_gather_single_axis(%arg0 : tensor<16x2xf32> {sdy.sharding=#sdy.sharding<@mesh2d, [{"y"}, {"x"}]>}) -> tensor<16x2xf32> {
+  // CHECK-NEXT: sdy.all_gather [{}, {"x"}] %arg0 out_sharding=<@mesh2d, [{"y"}, {}]> :  tensor<16x2xf32>
+  %0 = sdy.reshard %arg0 <@mesh2d, [{"y"}, {}]> : tensor<16x2xf32>
+  return %0 : tensor<16x2xf32>
 }
 
-// CHECK-LABEL: func @reshard_to_all_slice_minor_axis
-func.func @reshard_to_all_slice_minor_axis(%arg0 : tensor<16x8xf32> {sdy.sharding=#sdy.sharding<@mesh3d, [{"x"}, {"y"}]>}) -> tensor<16x8xf32> {
-  // CHECK-NEXT: sdy.all_slice [{}, {"z"}] %arg0 out_sharding=<@mesh3d, [{"x"}, {"y", "z"}]>
-  %0 = sdy.reshard %arg0 <@mesh3d, [{"x"}, {"y", "z"}]> : tensor<16x8xf32>
-  return %0 : tensor<16x8xf32>
-}
-
-// CHECK-LABEL: func @major_axis_available_to_slice
-func.func @major_axis_available_to_slice(%arg0: tensor<16x8xf32> {sdy.sharding = #sdy.sharding<@mesh4d_w4, [{"y", "z", "w"}, {}]>}) -> tensor<16x8xf32> {
-  // CHECK-NEXT: %[[ALL_SLICE_0:.*]] = sdy.all_slice [{}, {"x"}] %arg0 out_sharding=<@mesh4d_w4, [{"y", "z", "w"}, {"x"}]>
-  // CHECK-NEXT: %[[ALL_GATHER:.*]] = sdy.all_gather [{"z", "w"}, {}] %[[ALL_SLICE_0]] out_sharding=<@mesh4d_w4, [{"y"}, {"x"}]>
-  // CHECK-NEXT: %[[ALL_SLICE_1:.*]] = sdy.all_slice [{}, {"w"}] %[[ALL_GATHER]] out_sharding=<@mesh4d_w4, [{"y"}, {"x", "w"}]>
-  // CHECK-NEXT: return %[[ALL_SLICE_1]]
-  %0 = sdy.reshard %arg0 <@mesh4d_w4, [{"y"}, {"x", "w"}]> : tensor<16x8xf32>
-  return %0 : tensor<16x8xf32>
-}
-
-// CHECK-LABEL: func @prefix_subaxis_available_to_slice
-func.func @prefix_subaxis_available_to_slice(%arg0: tensor<16x8xf32> {sdy.sharding = #sdy.sharding<@mesh4d_w4, [{"y", "z", "w":(2)2}, {}]>}) -> tensor<16x8xf32> {
-  // CHECK-NEXT: %[[ALL_SLICE_0:.*]] = sdy.all_slice [{}, {"x", "w":(1)2}] %arg0 out_sharding=<@mesh4d_w4, [{"y", "z", "w":(2)2}, {"x", "w":(1)2}]>
-  // CHECK-NEXT: %[[ALL_GATHER:.*]] = sdy.all_gather [{"z", "w":(2)2}, {}] %[[ALL_SLICE_0]] out_sharding=<@mesh4d_w4, [{"y"}, {"x", "w":(1)2}]>
-  // CHECK-NEXT: %[[ALL_SLICE_1:.*]] = sdy.all_slice [{}, {"w":(2)2}] %[[ALL_GATHER]] out_sharding=<@mesh4d_w4, [{"y"}, {"x", "w"}]>
-  // CHECK-NEXT: return %[[ALL_SLICE_1]]
-  %0 = sdy.reshard %arg0 <@mesh4d_w4, [{"y"}, {"x", "w"}]> : tensor<16x8xf32>
-  return %0 : tensor<16x8xf32>
-}
-
-// CHECK-LABEL: func @prefix_subaxis_available_to_slice_2
-func.func @prefix_subaxis_available_to_slice_2(%arg0: tensor<16x8xf32> {sdy.sharding = #sdy.sharding<@mesh4d_w16, [{"y", "w":(4)2, "z", "w":(1)2}, {}]>}) -> tensor<16x8xf32> {
-  // CHECK-NEXT: %[[ALL_SLICE_0:.*]] = sdy.all_slice [{}, {"x", "w":(2)2}] %arg0 out_sharding=<@mesh4d_w16, [{"y", "w":(4)2, "z", "w":(1)2}, {"x", "w":(2)2}]>
-  // CHECK-NEXT: %[[ALL_GATHER:.*]] = sdy.all_gather [{"w":(4)2, "z", "w":(1)2}, {}] %[[ALL_SLICE_0]] out_sharding=<@mesh4d_w16, [{"y"}, {"x", "w":(2)2}]>
-  // CHECK-NEXT: %[[ALL_SLICE_1:.*]] = sdy.all_slice [{}, {"w":(4)4}] %[[ALL_GATHER]] out_sharding=<@mesh4d_w16, [{"y"}, {"x", "w":(2)8}]>
-  // CHECK-NEXT: return %[[ALL_SLICE_1]]
-  %0 = sdy.reshard %arg0 <@mesh4d_w16, [{"y"}, {"x", "w":(2)8}]> : tensor<16x8xf32>
-  return %0 : tensor<16x8xf32>
-}
 
-// CHECK-LABEL: func @split_full_axis_not_available_to_slice
-func.func @split_full_axis_not_available_to_slice(%arg0: tensor<16x8xf32> {sdy.sharding = #sdy.sharding<@mesh4d_w4, [{"y", "w":(1)2, "z", "w":(2)2}, {}]>}) -> tensor<16x8xf32> {
-  // CHECK-NEXT: %[[ALL_SLICE_0:.*]] = sdy.all_slice [{}, {"x"}] %arg0 out_sharding=<@mesh4d_w4, [{"y", "w":(1)2, "z", "w":(2)2}, {"x"}]>
-  // CHECK-NEXT: %[[ALL_GATHER:.*]] = sdy.all_gather [{"w":(1)2, "z", "w":(2)2}, {}] %[[ALL_SLICE_0]] out_sharding=<@mesh4d_w4, [{"y"}, {"x"}]>
-  // CHECK-NEXT: %[[ALL_SLICE_1:.*]] = sdy.all_slice [{}, {"w"}] %[[ALL_GATHER]] out_sharding=<@mesh4d_w4, [{"y"}, {"x", "w"}]>
-  // CHECK-NEXT: return %[[ALL_SLICE_1]]
-  %0 = sdy.reshard %arg0 <@mesh4d_w4, [{"y"}, {"x", "w"}]> : tensor<16x8xf32>
-  return %0 : tensor<16x8xf32>
-}
-
-// CHECK-LABEL: func @prefix_subaxis_not_available_to_slice
-func.func @prefix_subaxis_not_available_to_slice(%arg0: tensor<16x8xf32> {sdy.sharding = #sdy.sharding<@mesh4d_w4, [{"y", "z", "w":(1)2}, {}]>}) -> tensor<16x8xf32> {
-  // CHECK-NEXT: %[[ALL_SLICE_0:.*]] = sdy.all_slice [{}, {"x"}] %arg0 out_sharding=<@mesh4d_w4, [{"y", "z", "w":(1)2}, {"x"}]>
-  // CHECK-NEXT: %[[ALL_GATHER:.*]] = sdy.all_gather [{"z", "w":(1)2}, {}] %[[ALL_SLICE_0]] out_sharding=<@mesh4d_w4, [{"y"}, {"x"}]>
-  // CHECK-NEXT: %[[ALL_SLICE_1:.*]] = sdy.all_slice [{}, {"w"}] %[[ALL_GATHER]] out_sharding=<@mesh4d_w4, [{"y"}, {"x", "w"}]>
-  // CHECK-NEXT: return %[[ALL_SLICE_1]]
-  %0 = sdy.reshard %arg0 <@mesh4d_w4, [{"y"}, {"x", "w"}]> : tensor<16x8xf32>
-  return %0 : tensor<16x8xf32>
+// CHECK-LABEL: func @reshard_to_all_gather_multiple_axes
+func.func @reshard_to_all_gather_multiple_axes(%arg0 : tensor<16x2xf32> {sdy.sharding=#sdy.sharding<@mesh3d, [{"x", "y", "z"}, {}]>}) -> tensor<16x2xf32> {
+  // CHECK-NEXT: sdy.all_gather [{"y", "z"}, {}] %arg0 out_sharding=<@mesh3d, [{"x"}, {}]> :  tensor<16x2xf32>
+  %0 = sdy.reshard %arg0 <@mesh3d, [{"x"}, {}]> : tensor<16x2xf32>
+  return %0 : tensor<16x2xf32>
 }
 
-// CHECK-LABEL: func @prefix_and_suffix_subaxes_not_available_to_slice
-func.func @prefix_and_suffix_subaxes_not_available_to_slice(%arg0: tensor<16x8xf32> {sdy.sharding = #sdy.sharding<@mesh4d_w16, [{"y", "w":(4)2, "z", "w":(1)2}, {}]>}) -> tensor<16x8xf32> {
-  // CHECK-NEXT: %[[ALL_SLICE_0:.*]] = sdy.all_slice [{}, {"x"}] %arg0 out_sharding=<@mesh4d_w16, [{"y", "w":(4)2, "z", "w":(1)2}, {"x"}]>
-  // CHECK-NEXT: %[[ALL_GATHER:.*]] = sdy.all_gather [{"w":(4)2, "z", "w":(1)2}, {}] %[[ALL_SLICE_0]] out_sharding=<@mesh4d_w16, [{"y"}, {"x"}]>
-  // CHECK-NEXT: %[[ALL_SLICE_1:.*]] = sdy.all_slice [{}, {"w"}] %[[ALL_GATHER]] out_sharding=<@mesh4d_w16, [{"y"}, {"x", "w"}]>
-  // CHECK-NEXT: return %[[ALL_SLICE_1]]
-  %0 = sdy.reshard %arg0 <@mesh4d_w16, [{"y"}, {"x", "w"}]> : tensor<16x8xf32>
-  return %0 : tensor<16x8xf32>
-}
 
-// CHECK-LABEL: func @reshard_with_non_divisible_subaxes_same_pre_size
-func.func @reshard_with_non_divisible_subaxes_same_pre_size(%arg0 : tensor<6x2xf32> {sdy.sharding=#sdy.sharding<@mesh1d_6, [{"x":(1)2}, {}]>}) -> tensor<6x2xf32> {
-  // CHECK-NEXT: %[[ALL_GATHER:.*]] = sdy.all_gather [{"x":(1)2}, {}] %arg0 out_sharding=<@mesh1d_6, [{}, {}]>
-  // CHECK-NEXT: %[[ALL_SLICE:.*]] = sdy.all_slice [{"x":(1)3}, {}] %[[ALL_GATHER]] out_sharding=<@mesh1d_6, [{"x":(1)3}, {}]>
-  // CHECK-NEXT: return %[[ALL_SLICE]]
- %0 = sdy.reshard %arg0 <@mesh1d_6, [{"x":(1)3}, {}]> :  tensor<6x2xf32>
- return %0 : tensor<6x2xf32>
+// CHECK-LABEL: func @reshard_to_all_gather_multiple_dims
+func.func @reshard_to_all_gather_multiple_dims(%arg0 : tensor<16x2xf32> {sdy.sharding=#sdy.sharding<@mesh3d, [{"y", "z"}, {"x"}]>}) -> tensor<16x2xf32> {
+  // CHECK-NEXT: sdy.all_gather [{"z"}, {}] %arg0 out_sharding=<@mesh3d, [{"y"}, {"x"}]> :  tensor<16x2xf32>
+  %0 = sdy.reshard %arg0 <@mesh3d, [{"y"}, {"x"}]> : tensor<16x2xf32>
+  return %0 : tensor<16x2xf32>
 }
 
-// CHECK-LABEL: func @reshard_with_non_divisible_overlapping_subaxes
-func.func @reshard_with_non_divisible_overlapping_subaxes(%arg0 : tensor<6x2xf32> {sdy.sharding=#sdy.sharding<@mesh1d_6, [{"x":(2)3}, {}]>}) -> tensor<6x2xf32> {
-  // CHECK-NEXT: %[[ALL_GATHER:.*]] = sdy.all_gather [{"x":(2)3}, {}] %arg0 out_sharding=<@mesh1d_6, [{}, {}]>
-  // CHECK-NEXT: %[[ALL_SLICE:.*]] = sdy.all_slice [{"x":(1)3}, {}] %[[ALL_GATHER]] out_sharding=<@mesh1d_6, [{"x":(1)3}, {}]>
-  // CHECK-NEXT: return %[[ALL_SLICE]]
- %0 = sdy.reshard %arg0 <@mesh1d_6, [{"x":(1)3}, {}]> :  tensor<6x2xf32>
- return %0 : tensor<6x2xf32>
-}
 
-// CHECK-LABEL: func @reshard_with_non_divisible_overlapping_diff_dim
-func.func @reshard_with_non_divisible_overlapping_diff_dim(%arg0 : tensor<6x2xf32> {sdy.sharding=#sdy.sharding<@mesh1d_6, [{"x":(2)3}, {}]>}) -> tensor<6x2xf32> {
-  // CHECK-NEXT: %[[ALL_GATHER:.*]] = sdy.all_gather [{"x":(2)3}, {}] %arg0 out_sharding=<@mesh1d_6, [{}, {}]>
-  // CHECK-NEXT: %[[ALL_SLICE:.*]] = sdy.all_slice [{}, {"x":(1)3}] %[[ALL_GATHER]] out_sharding=<@mesh1d_6, [{}, {"x":(1)3}]>
-  // CHECK-NEXT: return %[[ALL_SLICE]]
- %0 = sdy.reshard %arg0 <@mesh1d_6, [{}, {"x":(1)3}]> :  tensor<6x2xf32>
- return %0 : tensor<6x2xf32>
-}
+// LABEL: func @reshard_to_all_gather_with_subaxis
+// func.func @reshard_to_all_gather_with_subaxis(%arg0 : tensor<16x2xf32> {sdy.sharding=#sdy.sharding<@mesh2d_4x2, [{"y":(1)4}, {"x"}]>}) -> tensor<16x2xf32> {
+//  // NEXT: sdy.all_gather [{"y":(4)1}, {}] %arg0 out_sharding=<@mesh2d_4x2, [{"y":(1)4}, {}]> :  tensor<16x2xf32>
+//  %0 = sdy.reshard %arg0 <@mesh2d_4x2, [{"y":(1)4}, {"x"}]> :  tensor<16x2xf32>
+//  return %0 : tensor<16x2xf32>
+// }
diff --git a/third_party/llvm/generated.patch b/third_party/llvm/generated.patch
index b2fb8d9..776d4e6 100644
--- a/third_party/llvm/generated.patch
+++ b/third_party/llvm/generated.patch
@@ -1,1361 +1,56 @@
 Auto generated patch. Do not edit or delete it, even if empty.
-diff -ruN --strip-trailing-cr a/llvm/lib/Transforms/InstCombine/InstCombineSelect.cpp b/llvm/lib/Transforms/InstCombine/InstCombineSelect.cpp
---- a/llvm/lib/Transforms/InstCombine/InstCombineSelect.cpp
-+++ b/llvm/lib/Transforms/InstCombine/InstCombineSelect.cpp
-@@ -428,10 +428,10 @@
-     CmpPredicate TPred, FPred;
-     if (match(TI, m_ICmp(TPred, m_Value(), m_Value())) &&
-         match(FI, m_ICmp(FPred, m_Value(), m_Value()))) {
--      bool Swapped = ICmpInst::isRelational(FPred) &&
--                     CmpPredicate::getMatching(
--                         TPred, ICmpInst::getSwappedCmpPredicate(FPred));
--      if (CmpPredicate::getMatching(TPred, FPred) || Swapped) {
-+      // FIXME: Use CmpPredicate::getMatching here.
-+      CmpInst::Predicate T = TPred, F = FPred;
-+      if (T == F || T == ICmpInst::getSwappedCmpPredicate(F)) {
-+        bool Swapped = T != F;
-         if (Value *MatchOp =
-                 getCommonOp(TI, FI, ICmpInst::isEquality(TPred), Swapped)) {
-           Value *NewSel = Builder.CreateSelect(Cond, OtherOpT, OtherOpF,
-diff -ruN --strip-trailing-cr a/llvm/lib/Transforms/Vectorize/LoopVectorize.cpp b/llvm/lib/Transforms/Vectorize/LoopVectorize.cpp
---- a/llvm/lib/Transforms/Vectorize/LoopVectorize.cpp
-+++ b/llvm/lib/Transforms/Vectorize/LoopVectorize.cpp
-@@ -8682,12 +8682,12 @@
- /// are valid so recipes can be formed later.
- void VPRecipeBuilder::collectScaledReductions(VFRange &Range) {
-   // Find all possible partial reductions.
--  SmallVector<std::pair<PartialReductionChain, unsigned>>
-+  SmallVector<std::pair<PartialReductionChain, unsigned>, 1>
-       PartialReductionChains;
--  for (const auto &[Phi, RdxDesc] : Legal->getReductionVars()) {
--    if (auto SR = getScaledReduction(Phi, RdxDesc.getLoopExitInstr(), Range))
--      PartialReductionChains.append(*SR);
--  }
-+  for (const auto &[Phi, RdxDesc] : Legal->getReductionVars())
-+    if (std::optional<std::pair<PartialReductionChain, unsigned>> Pair =
-+            getScaledReduction(Phi, RdxDesc, Range))
-+      PartialReductionChains.push_back(*Pair);
- 
-   // A partial reduction is invalid if any of its extends are used by
-   // something that isn't another partial reduction. This is because the
-@@ -8715,44 +8715,26 @@
+diff -ruN --strip-trailing-cr a/llvm/lib/CodeGen/GlobalMerge.cpp b/llvm/lib/CodeGen/GlobalMerge.cpp
+--- a/llvm/lib/CodeGen/GlobalMerge.cpp
++++ b/llvm/lib/CodeGen/GlobalMerge.cpp
+@@ -423,12 +423,24 @@
+     }
    }
- }
- 
--std::optional<SmallVector<std::pair<PartialReductionChain, unsigned>>>
--VPRecipeBuilder::getScaledReduction(Instruction *PHI, Instruction *RdxExitInstr,
-+std::optional<std::pair<PartialReductionChain, unsigned>>
-+VPRecipeBuilder::getScaledReduction(PHINode *PHI,
-+                                    const RecurrenceDescriptor &Rdx,
-                                     VFRange &Range) {
--
--  if (!CM.TheLoop->contains(RdxExitInstr))
--    return std::nullopt;
--
-   // TODO: Allow scaling reductions when predicating. The select at
-   // the end of the loop chooses between the phi value and most recent
-   // reduction result, both of which have different VFs to the active lane
-   // mask when scaling.
--  if (CM.blockNeedsPredicationForAnyReason(RdxExitInstr->getParent()))
-+  if (CM.blockNeedsPredicationForAnyReason(Rdx.getLoopExitInstr()->getParent()))
-     return std::nullopt;
- 
--  auto *Update = dyn_cast<BinaryOperator>(RdxExitInstr);
-+  auto *Update = dyn_cast<BinaryOperator>(Rdx.getLoopExitInstr());
-   if (!Update)
-     return std::nullopt;
  
-   Value *Op = Update->getOperand(0);
-   Value *PhiOp = Update->getOperand(1);
--  if (Op == PHI)
--    std::swap(Op, PhiOp);
--
--  SmallVector<std::pair<PartialReductionChain, unsigned>> Chains;
--
--  // Try and get a scaled reduction from the first non-phi operand.
--  // If one is found, we use the discovered reduction instruction in
--  // place of the accumulator for costing.
--  if (auto *OpInst = dyn_cast<Instruction>(Op)) {
--    if (auto SR0 = getScaledReduction(PHI, OpInst, Range)) {
--      Chains.append(*SR0);
--      PHI = SR0->rbegin()->first.Reduction;
--
--      Op = Update->getOperand(0);
--      PhiOp = Update->getOperand(1);
--      if (Op == PHI)
--        std::swap(Op, PhiOp);
--    }
-+  if (Op == PHI) {
-+    Op = Update->getOperand(1);
-+    PhiOp = Update->getOperand(0);
++  // Now we found a bunch of sets of globals used together.  We accumulated
++  // the number of times we encountered the sets (i.e., the number of functions
++  // that use that exact set of globals).
++  //
++  // Multiply that by the size of the set to give us a crude profitability
++  // metric.
++  llvm::stable_sort(UsedGlobalSets,
++                    [](const UsedGlobalSet &UGS1, const UsedGlobalSet &UGS2) {
++                      return UGS1.Globals.count() * UGS1.UsageCount <
++                             UGS2.Globals.count() * UGS2.UsageCount;
++                    });
++
+   // We can choose to merge all globals together, but ignore globals never used
+   // with another global.  This catches the obviously non-profitable cases of
+   // having a single global, but is aggressive enough for any other case.
+   if (GlobalMergeIgnoreSingleUse) {
+     BitVector AllGlobals(Globals.size());
+-    for (const UsedGlobalSet &UGS : UsedGlobalSets) {
++    for (const UsedGlobalSet &UGS : llvm::reverse(UsedGlobalSets)) {
+       if (UGS.UsageCount == 0)
+         continue;
+       if (UGS.Globals.count() > 1)
+@@ -437,16 +449,6 @@
+     return doMerge(Globals, AllGlobals, M, isConst, AddrSpace);
    }
-   if (PhiOp != PHI)
-     return std::nullopt;
-@@ -8775,7 +8757,7 @@
-   TTI::PartialReductionExtendKind OpBExtend =
-       TargetTransformInfo::getPartialReductionExtendKind(ExtB);
- 
--  PartialReductionChain Chain(RdxExitInstr, ExtA, ExtB, BinOp);
-+  PartialReductionChain Chain(Rdx.getLoopExitInstr(), ExtA, ExtB, BinOp);
- 
-   unsigned TargetScaleFactor =
-       PHI->getType()->getPrimitiveSizeInBits().getKnownScalarFactor(
-@@ -8790,9 +8772,9 @@
-             return Cost.isValid();
-           },
-           Range))
--    Chains.push_back(std::make_pair(Chain, TargetScaleFactor));
-+    return std::make_pair(Chain, TargetScaleFactor);
- 
--  return Chains;
-+  return std::nullopt;
- }
- 
- VPRecipeBase *
-@@ -8887,14 +8869,12 @@
-          "Unexpected number of operands for partial reduction");
- 
-   VPValue *BinOp = Operands[0];
--  VPValue *Accumulator = Operands[1];
--  VPRecipeBase *BinOpRecipe = BinOp->getDefiningRecipe();
--  if (isa<VPReductionPHIRecipe>(BinOpRecipe) ||
--      isa<VPPartialReductionRecipe>(BinOpRecipe))
--    std::swap(BinOp, Accumulator);
-+  VPValue *Phi = Operands[1];
-+  if (isa<VPReductionPHIRecipe>(BinOp->getDefiningRecipe()))
-+    std::swap(BinOp, Phi);
- 
--  return new VPPartialReductionRecipe(Reduction->getOpcode(), BinOp,
--                                      Accumulator, Reduction);
-+  return new VPPartialReductionRecipe(Reduction->getOpcode(), BinOp, Phi,
-+                                      Reduction);
- }
- 
- void LoopVectorizationPlanner::buildVPlansWithVPRecipes(ElementCount MinVF,
-diff -ruN --strip-trailing-cr a/llvm/lib/Transforms/Vectorize/VPlan.h b/llvm/lib/Transforms/Vectorize/VPlan.h
---- a/llvm/lib/Transforms/Vectorize/VPlan.h
-+++ b/llvm/lib/Transforms/Vectorize/VPlan.h
-@@ -2461,10 +2461,7 @@
-       : VPSingleDefRecipe(VPDef::VPPartialReductionSC,
-                           ArrayRef<VPValue *>({Op0, Op1}), ReductionInst),
-         Opcode(Opcode) {
--    [[maybe_unused]] auto *AccumulatorRecipe =
--        getOperand(1)->getDefiningRecipe();
--    assert((isa<VPReductionPHIRecipe>(AccumulatorRecipe) ||
--            isa<VPPartialReductionRecipe>(AccumulatorRecipe)) &&
-+    assert(isa<VPReductionPHIRecipe>(getOperand(1)->getDefiningRecipe()) &&
-            "Unexpected operand order for partial reduction recipe");
-   }
-   ~VPPartialReductionRecipe() override = default;
-diff -ruN --strip-trailing-cr a/llvm/lib/Transforms/Vectorize/VPRecipeBuilder.h b/llvm/lib/Transforms/Vectorize/VPRecipeBuilder.h
---- a/llvm/lib/Transforms/Vectorize/VPRecipeBuilder.h
-+++ b/llvm/lib/Transforms/Vectorize/VPRecipeBuilder.h
-@@ -142,8 +142,8 @@
-   /// Returns null if no scaled reduction was found, otherwise a pair with a
-   /// struct containing reduction information and the scaling factor between the
-   /// number of elements in the input and output.
--  std::optional<SmallVector<std::pair<PartialReductionChain, unsigned>>>
--  getScaledReduction(Instruction *PHI, Instruction *RdxExitInstr,
-+  std::optional<std::pair<PartialReductionChain, unsigned>>
-+  getScaledReduction(PHINode *PHI, const RecurrenceDescriptor &Rdx,
-                      VFRange &Range);
- 
- public:
-diff -ruN --strip-trailing-cr a/llvm/test/Transforms/InstCombine/select-cmp.ll b/llvm/test/Transforms/InstCombine/select-cmp.ll
---- a/llvm/test/Transforms/InstCombine/select-cmp.ll
-+++ b/llvm/test/Transforms/InstCombine/select-cmp.ll
-@@ -23,18 +23,6 @@
-   ret i1 %r
- }
  
--define i1 @icmp_ne_samesign_common(i1 %c, i6 %x, i6 %y, i6 %z) {
--; CHECK-LABEL: @icmp_ne_samesign_common(
--; CHECK-NEXT:    [[R_V:%.*]] = select i1 [[C:%.*]], i6 [[Y:%.*]], i6 [[Z:%.*]]
--; CHECK-NEXT:    [[R:%.*]] = icmp ne i6 [[X:%.*]], [[R_V]]
--; CHECK-NEXT:    ret i1 [[R]]
--;
--  %cmp1 = icmp samesign ne i6 %x, %y
--  %cmp2 = icmp ne i6 %x, %z
--  %r = select i1 %c, i1 %cmp1, i1 %cmp2
--  ret i1 %r
--}
--
- define i1 @icmp_ne_common_op01(i1 %c, i3 %x, i3 %y, i3 %z) {
- ; CHECK-LABEL: @icmp_ne_common_op01(
- ; CHECK-NEXT:    [[R_V:%.*]] = select i1 [[C:%.*]], i3 [[Y:%.*]], i3 [[Z:%.*]]
-@@ -83,18 +71,6 @@
-   ret i1 %r
- }
- 
--define i1 @icmp_eq_samesign_common(i1 %c, i5 %x, i5 %y, i5 %z) {
--; CHECK-LABEL: @icmp_eq_samesign_common(
--; CHECK-NEXT:    [[R_V:%.*]] = select i1 [[C:%.*]], i5 [[Y:%.*]], i5 [[Z:%.*]]
--; CHECK-NEXT:    [[R:%.*]] = icmp eq i5 [[X:%.*]], [[R_V]]
--; CHECK-NEXT:    ret i1 [[R]]
--;
--  %cmp1 = icmp eq i5 %x, %y
--  %cmp2 = icmp samesign eq i5 %x, %z
--  %r = select i1 %c, i1 %cmp1, i1 %cmp2
--  ret i1 %r
--}
--
- define <5 x i1> @icmp_eq_common_op01(<5 x i1> %c, <5 x i7> %x, <5 x i7> %y, <5 x i7> %z) {
- ; CHECK-LABEL: @icmp_eq_common_op01(
- ; CHECK-NEXT:    [[R_V:%.*]] = select <5 x i1> [[C:%.*]], <5 x i7> [[Y:%.*]], <5 x i7> [[Z:%.*]]
-@@ -158,18 +134,6 @@
-   ret i1 %r
- }
- 
--define i1 @icmp_slt_samesign_common(i1 %c, i6 %x, i6 %y, i6 %z) {
--; CHECK-LABEL: @icmp_slt_samesign_common(
--; CHECK-NEXT:    [[R_V:%.*]] = select i1 [[C:%.*]], i6 [[Y:%.*]], i6 [[Z:%.*]]
--; CHECK-NEXT:    [[R:%.*]] = icmp ult i6 [[X:%.*]], [[R_V]]
--; CHECK-NEXT:    ret i1 [[R]]
--;
--  %cmp1 = icmp samesign ult i6 %x, %y
--  %cmp2 = icmp slt i6 %x, %z
--  %r = select i1 %c, i1 %cmp1, i1 %cmp2
--  ret i1 %r
--}
--
- define i1 @icmp_sgt_common(i1 %c, i6 %x, i6 %y, i6 %z) {
- ; CHECK-LABEL: @icmp_sgt_common(
- ; CHECK-NEXT:    [[R_V:%.*]] = select i1 [[C:%.*]], i6 [[Y:%.*]], i6 [[Z:%.*]]
-@@ -182,18 +146,6 @@
-   ret i1 %r
- }
- 
--define i1 @icmp_sgt_samesign_common(i1 %c, i6 %x, i6 %y, i6 %z) {
--; CHECK-LABEL: @icmp_sgt_samesign_common(
--; CHECK-NEXT:    [[R_V:%.*]] = select i1 [[C:%.*]], i6 [[Y:%.*]], i6 [[Z:%.*]]
--; CHECK-NEXT:    [[R:%.*]] = icmp ugt i6 [[X:%.*]], [[R_V]]
--; CHECK-NEXT:    ret i1 [[R]]
--;
--  %cmp1 = icmp samesign ugt i6 %x, %y
--  %cmp2 = icmp sgt i6 %x, %z
--  %r = select i1 %c, i1 %cmp1, i1 %cmp2
--  ret i1 %r
--}
--
- define i1 @icmp_sle_common(i1 %c, i6 %x, i6 %y, i6 %z) {
- ; CHECK-LABEL: @icmp_sle_common(
- ; CHECK-NEXT:    [[R_V:%.*]] = select i1 [[C:%.*]], i6 [[Y:%.*]], i6 [[Z:%.*]]
-@@ -206,18 +158,6 @@
-   ret i1 %r
- }
- 
--define i1 @icmp_sle_samesign_common(i1 %c, i6 %x, i6 %y, i6 %z) {
--; CHECK-LABEL: @icmp_sle_samesign_common(
--; CHECK-NEXT:    [[R_V:%.*]] = select i1 [[C:%.*]], i6 [[Y:%.*]], i6 [[Z:%.*]]
--; CHECK-NEXT:    [[R:%.*]] = icmp sge i6 [[X:%.*]], [[R_V]]
--; CHECK-NEXT:    ret i1 [[R]]
--;
--  %cmp1 = icmp sle i6 %y, %x
--  %cmp2 = icmp samesign ule i6 %z, %x
--  %r = select i1 %c, i1 %cmp1, i1 %cmp2
--  ret i1 %r
--}
--
- define i1 @icmp_sge_common(i1 %c, i6 %x, i6 %y, i6 %z) {
- ; CHECK-LABEL: @icmp_sge_common(
- ; CHECK-NEXT:    [[R_V:%.*]] = select i1 [[C:%.*]], i6 [[Y:%.*]], i6 [[Z:%.*]]
-@@ -230,18 +170,6 @@
-   ret i1 %r
- }
- 
--define i1 @icmp_sge_samesign_common(i1 %c, i6 %x, i6 %y, i6 %z) {
--; CHECK-LABEL: @icmp_sge_samesign_common(
--; CHECK-NEXT:    [[R_V:%.*]] = select i1 [[C:%.*]], i6 [[Y:%.*]], i6 [[Z:%.*]]
--; CHECK-NEXT:    [[R:%.*]] = icmp sle i6 [[X:%.*]], [[R_V]]
--; CHECK-NEXT:    ret i1 [[R]]
--;
--  %cmp1 = icmp sge i6 %y, %x
--  %cmp2 = icmp samesign uge i6 %z, %x
--  %r = select i1 %c, i1 %cmp1, i1 %cmp2
--  ret i1 %r
--}
--
- define i1 @icmp_slt_sgt_common(i1 %c, i6 %x, i6 %y, i6 %z) {
- ; CHECK-LABEL: @icmp_slt_sgt_common(
- ; CHECK-NEXT:    [[R_V:%.*]] = select i1 [[C:%.*]], i6 [[Y:%.*]], i6 [[Z:%.*]]
-@@ -254,18 +182,6 @@
-   ret i1 %r
- }
- 
--define i1 @icmp_slt_sgt_samesign_common(i1 %c, i6 %x, i6 %y, i6 %z) {
--; CHECK-LABEL: @icmp_slt_sgt_samesign_common(
--; CHECK-NEXT:    [[R_V:%.*]] = select i1 [[C:%.*]], i6 [[Y:%.*]], i6 [[Z:%.*]]
--; CHECK-NEXT:    [[R:%.*]] = icmp ult i6 [[X:%.*]], [[R_V]]
--; CHECK-NEXT:    ret i1 [[R]]
--;
--  %cmp1 = icmp samesign ult i6 %x, %y
--  %cmp2 = icmp sgt i6 %z, %x
--  %r = select i1 %c, i1 %cmp1, i1 %cmp2
--  ret i1 %r
--}
--
- define i1 @icmp_sle_sge_common(i1 %c, i6 %x, i6 %y, i6 %z) {
- ; CHECK-LABEL: @icmp_sle_sge_common(
- ; CHECK-NEXT:    [[R_V:%.*]] = select i1 [[C:%.*]], i6 [[Y:%.*]], i6 [[Z:%.*]]
-@@ -277,18 +193,6 @@
-   %r = select i1 %c, i1 %cmp1, i1 %cmp2
-   ret i1 %r
- }
--
--define i1 @icmp_sle_sge_samesign_common(i1 %c, i6 %x, i6 %y, i6 %z) {
--; CHECK-LABEL: @icmp_sle_sge_samesign_common(
--; CHECK-NEXT:    [[R_V:%.*]] = select i1 [[C:%.*]], i6 [[Y:%.*]], i6 [[Z:%.*]]
--; CHECK-NEXT:    [[R:%.*]] = icmp sge i6 [[X:%.*]], [[R_V]]
--; CHECK-NEXT:    ret i1 [[R]]
--;
--  %cmp1 = icmp sle i6 %y, %x
--  %cmp2 = icmp samesign uge i6 %x, %z
--  %r = select i1 %c, i1 %cmp1, i1 %cmp2
--  ret i1 %r
--}
- 
- define i1 @icmp_ult_common(i1 %c, i6 %x, i6 %y, i6 %z) {
- ; CHECK-LABEL: @icmp_ult_common(
-diff -ruN --strip-trailing-cr a/llvm/test/Transforms/LoopVectorize/AArch64/partial-reduce-chained.ll b/llvm/test/Transforms/LoopVectorize/AArch64/partial-reduce-chained.ll
---- a/llvm/test/Transforms/LoopVectorize/AArch64/partial-reduce-chained.ll
-+++ b/llvm/test/Transforms/LoopVectorize/AArch64/partial-reduce-chained.ll
-@@ -1,1025 +0,0 @@
--; NOTE: Assertions have been autogenerated by utils/update_test_checks.py UTC_ARGS: --version 4
--; RUN: opt --mattr=+neon,+dotprod -passes=loop-vectorize -force-vector-interleave=1 -enable-epilogue-vectorization=false -S < %s | FileCheck %s --check-prefixes=CHECK-NEON
--; RUN: opt --mattr=+sve -passes=loop-vectorize -force-vector-interleave=1 -enable-epilogue-vectorization=false -S < %s | FileCheck %s --check-prefixes=CHECK-SVE
--; RUN: opt --mattr=+sve -vectorizer-maximize-bandwidth -passes=loop-vectorize -force-vector-interleave=1 -enable-epilogue-vectorization=false -S < %s | FileCheck %s --check-prefixes=CHECK-SVE-MAXBW
--
--target datalayout = "e-m:e-i8:8:32-i16:16:32-i64:64-i128:128-n32:64-S128"
--target triple = "aarch64-none-unknown-elf"
--
--; Function Attrs: mustprogress nofree norecurse nosync nounwind willreturn memory(argmem: read) vscale_range(1,16)
--define i32 @chained_partial_reduce_add_sub(ptr %a, ptr %b, ptr %c, i32 %N) #0 {
--; CHECK-NEON-LABEL: define i32 @chained_partial_reduce_add_sub(
--; CHECK-NEON-SAME: ptr [[A:%.*]], ptr [[B:%.*]], ptr [[C:%.*]], i32 [[N:%.*]]) #[[ATTR0:[0-9]+]] {
--; CHECK-NEON-NEXT:  entry:
--; CHECK-NEON-NEXT:    [[CMP28_NOT:%.*]] = icmp ult i32 [[N]], 2
--; CHECK-NEON-NEXT:    [[DIV27:%.*]] = lshr i32 [[N]], 1
--; CHECK-NEON-NEXT:    [[WIDE_TRIP_COUNT:%.*]] = zext nneg i32 [[DIV27]] to i64
--; CHECK-NEON-NEXT:    [[MIN_ITERS_CHECK:%.*]] = icmp ult i64 [[WIDE_TRIP_COUNT]], 16
--; CHECK-NEON-NEXT:    br i1 [[MIN_ITERS_CHECK]], label [[SCALAR_PH:%.*]], label [[VECTOR_PH:%.*]]
--; CHECK-NEON:       vector.ph:
--; CHECK-NEON-NEXT:    [[N_MOD_VF:%.*]] = urem i64 [[WIDE_TRIP_COUNT]], 16
--; CHECK-NEON-NEXT:    [[N_VEC:%.*]] = sub i64 [[WIDE_TRIP_COUNT]], [[N_MOD_VF]]
--; CHECK-NEON-NEXT:    br label [[VECTOR_BODY:%.*]]
--; CHECK-NEON:       vector.body:
--; CHECK-NEON-NEXT:    [[INDEX:%.*]] = phi i64 [ 0, [[VECTOR_PH]] ], [ [[INDEX_NEXT:%.*]], [[VECTOR_BODY]] ]
--; CHECK-NEON-NEXT:    [[VEC_PHI:%.*]] = phi <16 x i32> [ zeroinitializer, [[VECTOR_PH]] ], [ [[TMP13:%.*]], [[VECTOR_BODY]] ]
--; CHECK-NEON-NEXT:    [[TMP0:%.*]] = add i64 [[INDEX]], 0
--; CHECK-NEON-NEXT:    [[TMP1:%.*]] = getelementptr inbounds nuw i8, ptr [[A]], i64 [[TMP0]]
--; CHECK-NEON-NEXT:    [[TMP2:%.*]] = getelementptr inbounds nuw i8, ptr [[B]], i64 [[TMP0]]
--; CHECK-NEON-NEXT:    [[TMP3:%.*]] = getelementptr inbounds nuw i8, ptr [[C]], i64 [[TMP0]]
--; CHECK-NEON-NEXT:    [[TMP4:%.*]] = getelementptr inbounds nuw i8, ptr [[TMP1]], i32 0
--; CHECK-NEON-NEXT:    [[WIDE_LOAD:%.*]] = load <16 x i8>, ptr [[TMP4]], align 1
--; CHECK-NEON-NEXT:    [[TMP5:%.*]] = getelementptr inbounds nuw i8, ptr [[TMP2]], i32 0
--; CHECK-NEON-NEXT:    [[WIDE_LOAD1:%.*]] = load <16 x i8>, ptr [[TMP5]], align 1
--; CHECK-NEON-NEXT:    [[TMP6:%.*]] = getelementptr inbounds nuw i8, ptr [[TMP3]], i32 0
--; CHECK-NEON-NEXT:    [[WIDE_LOAD2:%.*]] = load <16 x i8>, ptr [[TMP6]], align 1
--; CHECK-NEON-NEXT:    [[TMP7:%.*]] = sext <16 x i8> [[WIDE_LOAD]] to <16 x i32>
--; CHECK-NEON-NEXT:    [[TMP8:%.*]] = sext <16 x i8> [[WIDE_LOAD1]] to <16 x i32>
--; CHECK-NEON-NEXT:    [[TMP9:%.*]] = sext <16 x i8> [[WIDE_LOAD2]] to <16 x i32>
--; CHECK-NEON-NEXT:    [[TMP10:%.*]] = mul nsw <16 x i32> [[TMP7]], [[TMP8]]
--; CHECK-NEON-NEXT:    [[TMP11:%.*]] = add <16 x i32> [[VEC_PHI]], [[TMP10]]
--; CHECK-NEON-NEXT:    [[TMP12:%.*]] = mul nsw <16 x i32> [[TMP7]], [[TMP9]]
--; CHECK-NEON-NEXT:    [[TMP13]] = sub <16 x i32> [[TMP11]], [[TMP12]]
--; CHECK-NEON-NEXT:    [[INDEX_NEXT]] = add nuw i64 [[INDEX]], 16
--; CHECK-NEON-NEXT:    [[TMP14:%.*]] = icmp eq i64 [[INDEX_NEXT]], [[N_VEC]]
--; CHECK-NEON-NEXT:    br i1 [[TMP14]], label [[MIDDLE_BLOCK:%.*]], label [[VECTOR_BODY]], !llvm.loop [[LOOP0:![0-9]+]]
--; CHECK-NEON:       middle.block:
--; CHECK-NEON-NEXT:    [[TMP15:%.*]] = call i32 @llvm.vector.reduce.add.v16i32(<16 x i32> [[TMP13]])
--; CHECK-NEON-NEXT:    [[CMP_N:%.*]] = icmp eq i64 [[WIDE_TRIP_COUNT]], [[N_VEC]]
--; CHECK-NEON-NEXT:    br i1 [[CMP_N]], label [[FOR_COND_CLEANUP:%.*]], label [[SCALAR_PH]]
--;
--; CHECK-SVE-LABEL: define i32 @chained_partial_reduce_add_sub(
--; CHECK-SVE-SAME: ptr [[A:%.*]], ptr [[B:%.*]], ptr [[C:%.*]], i32 [[N:%.*]]) #[[ATTR0:[0-9]+]] {
--; CHECK-SVE-NEXT:  entry:
--; CHECK-SVE-NEXT:    [[CMP28_NOT:%.*]] = icmp ult i32 [[N]], 2
--; CHECK-SVE-NEXT:    [[DIV27:%.*]] = lshr i32 [[N]], 1
--; CHECK-SVE-NEXT:    [[WIDE_TRIP_COUNT:%.*]] = zext nneg i32 [[DIV27]] to i64
--; CHECK-SVE-NEXT:    [[TMP0:%.*]] = call i64 @llvm.vscale.i64()
--; CHECK-SVE-NEXT:    [[TMP1:%.*]] = mul i64 [[TMP0]], 4
--; CHECK-SVE-NEXT:    [[MIN_ITERS_CHECK:%.*]] = icmp ult i64 [[WIDE_TRIP_COUNT]], [[TMP1]]
--; CHECK-SVE-NEXT:    br i1 [[MIN_ITERS_CHECK]], label [[SCALAR_PH:%.*]], label [[VECTOR_PH:%.*]]
--; CHECK-SVE:       vector.ph:
--; CHECK-SVE-NEXT:    [[TMP2:%.*]] = call i64 @llvm.vscale.i64()
--; CHECK-SVE-NEXT:    [[TMP3:%.*]] = mul i64 [[TMP2]], 4
--; CHECK-SVE-NEXT:    [[N_MOD_VF:%.*]] = urem i64 [[WIDE_TRIP_COUNT]], [[TMP3]]
--; CHECK-SVE-NEXT:    [[N_VEC:%.*]] = sub i64 [[WIDE_TRIP_COUNT]], [[N_MOD_VF]]
--; CHECK-SVE-NEXT:    [[TMP4:%.*]] = call i64 @llvm.vscale.i64()
--; CHECK-SVE-NEXT:    [[TMP5:%.*]] = mul i64 [[TMP4]], 4
--; CHECK-SVE-NEXT:    br label [[VECTOR_BODY:%.*]]
--; CHECK-SVE:       vector.body:
--; CHECK-SVE-NEXT:    [[INDEX:%.*]] = phi i64 [ 0, [[VECTOR_PH]] ], [ [[INDEX_NEXT:%.*]], [[VECTOR_BODY]] ]
--; CHECK-SVE-NEXT:    [[VEC_PHI:%.*]] = phi <vscale x 4 x i32> [ zeroinitializer, [[VECTOR_PH]] ], [ [[TMP19:%.*]], [[VECTOR_BODY]] ]
--; CHECK-SVE-NEXT:    [[TMP6:%.*]] = add i64 [[INDEX]], 0
--; CHECK-SVE-NEXT:    [[TMP7:%.*]] = getelementptr inbounds nuw i8, ptr [[A]], i64 [[TMP6]]
--; CHECK-SVE-NEXT:    [[TMP8:%.*]] = getelementptr inbounds nuw i8, ptr [[B]], i64 [[TMP6]]
--; CHECK-SVE-NEXT:    [[TMP9:%.*]] = getelementptr inbounds nuw i8, ptr [[C]], i64 [[TMP6]]
--; CHECK-SVE-NEXT:    [[TMP10:%.*]] = getelementptr inbounds nuw i8, ptr [[TMP7]], i32 0
--; CHECK-SVE-NEXT:    [[WIDE_LOAD:%.*]] = load <vscale x 4 x i8>, ptr [[TMP10]], align 1
--; CHECK-SVE-NEXT:    [[TMP11:%.*]] = getelementptr inbounds nuw i8, ptr [[TMP8]], i32 0
--; CHECK-SVE-NEXT:    [[WIDE_LOAD1:%.*]] = load <vscale x 4 x i8>, ptr [[TMP11]], align 1
--; CHECK-SVE-NEXT:    [[TMP12:%.*]] = getelementptr inbounds nuw i8, ptr [[TMP9]], i32 0
--; CHECK-SVE-NEXT:    [[WIDE_LOAD2:%.*]] = load <vscale x 4 x i8>, ptr [[TMP12]], align 1
--; CHECK-SVE-NEXT:    [[TMP13:%.*]] = sext <vscale x 4 x i8> [[WIDE_LOAD]] to <vscale x 4 x i32>
--; CHECK-SVE-NEXT:    [[TMP14:%.*]] = sext <vscale x 4 x i8> [[WIDE_LOAD1]] to <vscale x 4 x i32>
--; CHECK-SVE-NEXT:    [[TMP15:%.*]] = sext <vscale x 4 x i8> [[WIDE_LOAD2]] to <vscale x 4 x i32>
--; CHECK-SVE-NEXT:    [[TMP16:%.*]] = mul nsw <vscale x 4 x i32> [[TMP13]], [[TMP14]]
--; CHECK-SVE-NEXT:    [[TMP17:%.*]] = add <vscale x 4 x i32> [[VEC_PHI]], [[TMP16]]
--; CHECK-SVE-NEXT:    [[TMP18:%.*]] = mul nsw <vscale x 4 x i32> [[TMP13]], [[TMP15]]
--; CHECK-SVE-NEXT:    [[TMP19]] = sub <vscale x 4 x i32> [[TMP17]], [[TMP18]]
--; CHECK-SVE-NEXT:    [[INDEX_NEXT]] = add nuw i64 [[INDEX]], [[TMP5]]
--; CHECK-SVE-NEXT:    [[TMP20:%.*]] = icmp eq i64 [[INDEX_NEXT]], [[N_VEC]]
--; CHECK-SVE-NEXT:    br i1 [[TMP20]], label [[MIDDLE_BLOCK:%.*]], label [[VECTOR_BODY]], !llvm.loop [[LOOP0:![0-9]+]]
--; CHECK-SVE:       middle.block:
--; CHECK-SVE-NEXT:    [[TMP21:%.*]] = call i32 @llvm.vector.reduce.add.nxv4i32(<vscale x 4 x i32> [[TMP19]])
--; CHECK-SVE-NEXT:    [[CMP_N:%.*]] = icmp eq i64 [[WIDE_TRIP_COUNT]], [[N_VEC]]
--; CHECK-SVE-NEXT:    br i1 [[CMP_N]], label [[FOR_COND_CLEANUP:%.*]], label [[SCALAR_PH]]
--;
--; CHECK-SVE-MAXBW-LABEL: define i32 @chained_partial_reduce_add_sub(
--; CHECK-SVE-MAXBW-SAME: ptr [[A:%.*]], ptr [[B:%.*]], ptr [[C:%.*]], i32 [[N:%.*]]) #[[ATTR0:[0-9]+]] {
--; CHECK-SVE-MAXBW-NEXT:  entry:
--; CHECK-SVE-MAXBW-NEXT:    [[CMP28_NOT:%.*]] = icmp ult i32 [[N]], 2
--; CHECK-SVE-MAXBW-NEXT:    [[DIV27:%.*]] = lshr i32 [[N]], 1
--; CHECK-SVE-MAXBW-NEXT:    [[WIDE_TRIP_COUNT:%.*]] = zext nneg i32 [[DIV27]] to i64
--; CHECK-SVE-MAXBW-NEXT:    [[TMP0:%.*]] = call i64 @llvm.vscale.i64()
--; CHECK-SVE-MAXBW-NEXT:    [[TMP1:%.*]] = mul i64 [[TMP0]], 8
--; CHECK-SVE-MAXBW-NEXT:    [[MIN_ITERS_CHECK:%.*]] = icmp ult i64 [[WIDE_TRIP_COUNT]], [[TMP1]]
--; CHECK-SVE-MAXBW-NEXT:    br i1 [[MIN_ITERS_CHECK]], label [[SCALAR_PH:%.*]], label [[VECTOR_PH:%.*]]
--; CHECK-SVE-MAXBW:       vector.ph:
--; CHECK-SVE-MAXBW-NEXT:    [[TMP2:%.*]] = call i64 @llvm.vscale.i64()
--; CHECK-SVE-MAXBW-NEXT:    [[TMP3:%.*]] = mul i64 [[TMP2]], 8
--; CHECK-SVE-MAXBW-NEXT:    [[N_MOD_VF:%.*]] = urem i64 [[WIDE_TRIP_COUNT]], [[TMP3]]
--; CHECK-SVE-MAXBW-NEXT:    [[N_VEC:%.*]] = sub i64 [[WIDE_TRIP_COUNT]], [[N_MOD_VF]]
--; CHECK-SVE-MAXBW-NEXT:    [[TMP4:%.*]] = call i64 @llvm.vscale.i64()
--; CHECK-SVE-MAXBW-NEXT:    [[TMP5:%.*]] = mul i64 [[TMP4]], 8
--; CHECK-SVE-MAXBW-NEXT:    br label [[VECTOR_BODY:%.*]]
--; CHECK-SVE-MAXBW:       vector.body:
--; CHECK-SVE-MAXBW-NEXT:    [[INDEX:%.*]] = phi i64 [ 0, [[VECTOR_PH]] ], [ [[INDEX_NEXT:%.*]], [[VECTOR_BODY]] ]
--; CHECK-SVE-MAXBW-NEXT:    [[VEC_PHI:%.*]] = phi <vscale x 8 x i32> [ zeroinitializer, [[VECTOR_PH]] ], [ [[TMP19:%.*]], [[VECTOR_BODY]] ]
--; CHECK-SVE-MAXBW-NEXT:    [[TMP6:%.*]] = add i64 [[INDEX]], 0
--; CHECK-SVE-MAXBW-NEXT:    [[TMP7:%.*]] = getelementptr inbounds nuw i8, ptr [[A]], i64 [[TMP6]]
--; CHECK-SVE-MAXBW-NEXT:    [[TMP8:%.*]] = getelementptr inbounds nuw i8, ptr [[B]], i64 [[TMP6]]
--; CHECK-SVE-MAXBW-NEXT:    [[TMP9:%.*]] = getelementptr inbounds nuw i8, ptr [[C]], i64 [[TMP6]]
--; CHECK-SVE-MAXBW-NEXT:    [[TMP10:%.*]] = getelementptr inbounds nuw i8, ptr [[TMP7]], i32 0
--; CHECK-SVE-MAXBW-NEXT:    [[WIDE_LOAD:%.*]] = load <vscale x 8 x i8>, ptr [[TMP10]], align 1
--; CHECK-SVE-MAXBW-NEXT:    [[TMP11:%.*]] = getelementptr inbounds nuw i8, ptr [[TMP8]], i32 0
--; CHECK-SVE-MAXBW-NEXT:    [[WIDE_LOAD1:%.*]] = load <vscale x 8 x i8>, ptr [[TMP11]], align 1
--; CHECK-SVE-MAXBW-NEXT:    [[TMP12:%.*]] = getelementptr inbounds nuw i8, ptr [[TMP9]], i32 0
--; CHECK-SVE-MAXBW-NEXT:    [[WIDE_LOAD2:%.*]] = load <vscale x 8 x i8>, ptr [[TMP12]], align 1
--; CHECK-SVE-MAXBW-NEXT:    [[TMP13:%.*]] = sext <vscale x 8 x i8> [[WIDE_LOAD]] to <vscale x 8 x i32>
--; CHECK-SVE-MAXBW-NEXT:    [[TMP14:%.*]] = sext <vscale x 8 x i8> [[WIDE_LOAD1]] to <vscale x 8 x i32>
--; CHECK-SVE-MAXBW-NEXT:    [[TMP15:%.*]] = sext <vscale x 8 x i8> [[WIDE_LOAD2]] to <vscale x 8 x i32>
--; CHECK-SVE-MAXBW-NEXT:    [[TMP16:%.*]] = mul nsw <vscale x 8 x i32> [[TMP13]], [[TMP14]]
--; CHECK-SVE-MAXBW-NEXT:    [[TMP17:%.*]] = add <vscale x 8 x i32> [[VEC_PHI]], [[TMP16]]
--; CHECK-SVE-MAXBW-NEXT:    [[TMP18:%.*]] = mul nsw <vscale x 8 x i32> [[TMP13]], [[TMP15]]
--; CHECK-SVE-MAXBW-NEXT:    [[TMP19]] = sub <vscale x 8 x i32> [[TMP17]], [[TMP18]]
--; CHECK-SVE-MAXBW-NEXT:    [[INDEX_NEXT]] = add nuw i64 [[INDEX]], [[TMP5]]
--; CHECK-SVE-MAXBW-NEXT:    [[TMP20:%.*]] = icmp eq i64 [[INDEX_NEXT]], [[N_VEC]]
--; CHECK-SVE-MAXBW-NEXT:    br i1 [[TMP20]], label [[MIDDLE_BLOCK:%.*]], label [[VECTOR_BODY]], !llvm.loop [[LOOP0:![0-9]+]]
--; CHECK-SVE-MAXBW:       middle.block:
--; CHECK-SVE-MAXBW-NEXT:    [[TMP21:%.*]] = call i32 @llvm.vector.reduce.add.nxv8i32(<vscale x 8 x i32> [[TMP19]])
--; CHECK-SVE-MAXBW-NEXT:    [[CMP_N:%.*]] = icmp eq i64 [[WIDE_TRIP_COUNT]], [[N_VEC]]
--; CHECK-SVE-MAXBW-NEXT:    br i1 [[CMP_N]], label [[FOR_COND_CLEANUP:%.*]], label [[SCALAR_PH]]
--;
--entry:
--  %cmp28.not = icmp ult i32 %N, 2
--  %div27 = lshr i32 %N, 1
--  %wide.trip.count = zext nneg i32 %div27 to i64
--  br label %for.body
--
--for.cond.cleanup:                                 ; preds = %for.cond.cleanup.loopexit, %entry
--  %res.0.lcssa = phi i32 [ %sub, %for.body ]
--  ret i32 %res.0.lcssa
--
--for.body:                                         ; preds = %for.body.preheader, %for.body
--  %indvars.iv = phi i64 [ 0, %entry ], [ %indvars.iv.next, %for.body ]
--  %res = phi i32 [ 0, %entry ], [ %sub, %for.body ]
--  %a.ptr = getelementptr inbounds nuw i8, ptr %a, i64 %indvars.iv
--  %b.ptr = getelementptr inbounds nuw i8, ptr %b, i64 %indvars.iv
--  %c.ptr = getelementptr inbounds nuw i8, ptr %c, i64 %indvars.iv
--  %a.val = load i8, ptr %a.ptr, align 1
--  %b.val = load i8, ptr %b.ptr, align 1
--  %c.val = load i8, ptr %c.ptr, align 1
--  %a.ext = sext i8 %a.val to i32
--  %b.ext = sext i8 %b.val to i32
--  %c.ext = sext i8 %c.val to i32
--  %mul.ab = mul nsw i32 %a.ext, %b.ext
--  %add = add nsw i32 %res, %mul.ab
--  %mul.ac = mul nsw i32 %a.ext, %c.ext
--  %sub = sub i32 %add, %mul.ac
--  %indvars.iv.next = add nuw nsw i64 %indvars.iv, 1
--  %exitcond.not = icmp eq i64 %indvars.iv.next, %wide.trip.count
--  br i1 %exitcond.not, label %for.cond.cleanup, label %for.body, !loop !1
--}
--
--define i32 @chained_partial_reduce_add_add(ptr %a, ptr %b, ptr %c, i32 %N) #0 {
--; CHECK-NEON-LABEL: define i32 @chained_partial_reduce_add_add(
--; CHECK-NEON-SAME: ptr [[A:%.*]], ptr [[B:%.*]], ptr [[C:%.*]], i32 [[N:%.*]]) #[[ATTR0]] {
--; CHECK-NEON-NEXT:  entry:
--; CHECK-NEON-NEXT:    [[CMP28_NOT:%.*]] = icmp ult i32 [[N]], 2
--; CHECK-NEON-NEXT:    [[DIV27:%.*]] = lshr i32 [[N]], 1
--; CHECK-NEON-NEXT:    [[WIDE_TRIP_COUNT:%.*]] = zext nneg i32 [[DIV27]] to i64
--; CHECK-NEON-NEXT:    [[MIN_ITERS_CHECK:%.*]] = icmp ult i64 [[WIDE_TRIP_COUNT]], 16
--; CHECK-NEON-NEXT:    br i1 [[MIN_ITERS_CHECK]], label [[SCALAR_PH:%.*]], label [[VECTOR_PH:%.*]]
--; CHECK-NEON:       vector.ph:
--; CHECK-NEON-NEXT:    [[N_MOD_VF:%.*]] = urem i64 [[WIDE_TRIP_COUNT]], 16
--; CHECK-NEON-NEXT:    [[N_VEC:%.*]] = sub i64 [[WIDE_TRIP_COUNT]], [[N_MOD_VF]]
--; CHECK-NEON-NEXT:    br label [[VECTOR_BODY:%.*]]
--; CHECK-NEON:       vector.body:
--; CHECK-NEON-NEXT:    [[INDEX:%.*]] = phi i64 [ 0, [[VECTOR_PH]] ], [ [[INDEX_NEXT:%.*]], [[VECTOR_BODY]] ]
--; CHECK-NEON-NEXT:    [[VEC_PHI:%.*]] = phi <4 x i32> [ zeroinitializer, [[VECTOR_PH]] ], [ [[PARTIAL_REDUCE3:%.*]], [[VECTOR_BODY]] ]
--; CHECK-NEON-NEXT:    [[TMP0:%.*]] = add i64 [[INDEX]], 0
--; CHECK-NEON-NEXT:    [[TMP1:%.*]] = getelementptr inbounds nuw i8, ptr [[A]], i64 [[TMP0]]
--; CHECK-NEON-NEXT:    [[TMP2:%.*]] = getelementptr inbounds nuw i8, ptr [[B]], i64 [[TMP0]]
--; CHECK-NEON-NEXT:    [[TMP3:%.*]] = getelementptr inbounds nuw i8, ptr [[C]], i64 [[TMP0]]
--; CHECK-NEON-NEXT:    [[TMP4:%.*]] = getelementptr inbounds nuw i8, ptr [[TMP1]], i32 0
--; CHECK-NEON-NEXT:    [[WIDE_LOAD:%.*]] = load <16 x i8>, ptr [[TMP4]], align 1
--; CHECK-NEON-NEXT:    [[TMP5:%.*]] = getelementptr inbounds nuw i8, ptr [[TMP2]], i32 0
--; CHECK-NEON-NEXT:    [[WIDE_LOAD1:%.*]] = load <16 x i8>, ptr [[TMP5]], align 1
--; CHECK-NEON-NEXT:    [[TMP6:%.*]] = getelementptr inbounds nuw i8, ptr [[TMP3]], i32 0
--; CHECK-NEON-NEXT:    [[WIDE_LOAD2:%.*]] = load <16 x i8>, ptr [[TMP6]], align 1
--; CHECK-NEON-NEXT:    [[TMP7:%.*]] = sext <16 x i8> [[WIDE_LOAD]] to <16 x i32>
--; CHECK-NEON-NEXT:    [[TMP8:%.*]] = sext <16 x i8> [[WIDE_LOAD1]] to <16 x i32>
--; CHECK-NEON-NEXT:    [[TMP9:%.*]] = sext <16 x i8> [[WIDE_LOAD2]] to <16 x i32>
--; CHECK-NEON-NEXT:    [[TMP10:%.*]] = mul nsw <16 x i32> [[TMP7]], [[TMP8]]
--; CHECK-NEON-NEXT:    [[PARTIAL_REDUCE:%.*]] = call <4 x i32> @llvm.experimental.vector.partial.reduce.add.v4i32.v16i32(<4 x i32> [[VEC_PHI]], <16 x i32> [[TMP10]])
--; CHECK-NEON-NEXT:    [[TMP11:%.*]] = mul nsw <16 x i32> [[TMP7]], [[TMP9]]
--; CHECK-NEON-NEXT:    [[PARTIAL_REDUCE3]] = call <4 x i32> @llvm.experimental.vector.partial.reduce.add.v4i32.v16i32(<4 x i32> [[PARTIAL_REDUCE]], <16 x i32> [[TMP11]])
--; CHECK-NEON-NEXT:    [[INDEX_NEXT]] = add nuw i64 [[INDEX]], 16
--; CHECK-NEON-NEXT:    [[TMP12:%.*]] = icmp eq i64 [[INDEX_NEXT]], [[N_VEC]]
--; CHECK-NEON-NEXT:    br i1 [[TMP12]], label [[MIDDLE_BLOCK:%.*]], label [[VECTOR_BODY]], !llvm.loop [[LOOP6:![0-9]+]]
--; CHECK-NEON:       middle.block:
--; CHECK-NEON-NEXT:    [[TMP13:%.*]] = call i32 @llvm.vector.reduce.add.v4i32(<4 x i32> [[PARTIAL_REDUCE3]])
--; CHECK-NEON-NEXT:    [[CMP_N:%.*]] = icmp eq i64 [[WIDE_TRIP_COUNT]], [[N_VEC]]
--; CHECK-NEON-NEXT:    br i1 [[CMP_N]], label [[FOR_COND_CLEANUP:%.*]], label [[SCALAR_PH]]
--;
--; CHECK-SVE-LABEL: define i32 @chained_partial_reduce_add_add(
--; CHECK-SVE-SAME: ptr [[A:%.*]], ptr [[B:%.*]], ptr [[C:%.*]], i32 [[N:%.*]]) #[[ATTR0]] {
--; CHECK-SVE-NEXT:  entry:
--; CHECK-SVE-NEXT:    [[CMP28_NOT:%.*]] = icmp ult i32 [[N]], 2
--; CHECK-SVE-NEXT:    [[DIV27:%.*]] = lshr i32 [[N]], 1
--; CHECK-SVE-NEXT:    [[WIDE_TRIP_COUNT:%.*]] = zext nneg i32 [[DIV27]] to i64
--; CHECK-SVE-NEXT:    [[TMP0:%.*]] = call i64 @llvm.vscale.i64()
--; CHECK-SVE-NEXT:    [[TMP1:%.*]] = mul i64 [[TMP0]], 4
--; CHECK-SVE-NEXT:    [[MIN_ITERS_CHECK:%.*]] = icmp ult i64 [[WIDE_TRIP_COUNT]], [[TMP1]]
--; CHECK-SVE-NEXT:    br i1 [[MIN_ITERS_CHECK]], label [[SCALAR_PH:%.*]], label [[VECTOR_PH:%.*]]
--; CHECK-SVE:       vector.ph:
--; CHECK-SVE-NEXT:    [[TMP2:%.*]] = call i64 @llvm.vscale.i64()
--; CHECK-SVE-NEXT:    [[TMP3:%.*]] = mul i64 [[TMP2]], 4
--; CHECK-SVE-NEXT:    [[N_MOD_VF:%.*]] = urem i64 [[WIDE_TRIP_COUNT]], [[TMP3]]
--; CHECK-SVE-NEXT:    [[N_VEC:%.*]] = sub i64 [[WIDE_TRIP_COUNT]], [[N_MOD_VF]]
--; CHECK-SVE-NEXT:    [[TMP4:%.*]] = call i64 @llvm.vscale.i64()
--; CHECK-SVE-NEXT:    [[TMP5:%.*]] = mul i64 [[TMP4]], 4
--; CHECK-SVE-NEXT:    br label [[VECTOR_BODY:%.*]]
--; CHECK-SVE:       vector.body:
--; CHECK-SVE-NEXT:    [[INDEX:%.*]] = phi i64 [ 0, [[VECTOR_PH]] ], [ [[INDEX_NEXT:%.*]], [[VECTOR_BODY]] ]
--; CHECK-SVE-NEXT:    [[VEC_PHI:%.*]] = phi <vscale x 4 x i32> [ zeroinitializer, [[VECTOR_PH]] ], [ [[TMP19:%.*]], [[VECTOR_BODY]] ]
--; CHECK-SVE-NEXT:    [[TMP6:%.*]] = add i64 [[INDEX]], 0
--; CHECK-SVE-NEXT:    [[TMP7:%.*]] = getelementptr inbounds nuw i8, ptr [[A]], i64 [[TMP6]]
--; CHECK-SVE-NEXT:    [[TMP8:%.*]] = getelementptr inbounds nuw i8, ptr [[B]], i64 [[TMP6]]
--; CHECK-SVE-NEXT:    [[TMP9:%.*]] = getelementptr inbounds nuw i8, ptr [[C]], i64 [[TMP6]]
--; CHECK-SVE-NEXT:    [[TMP10:%.*]] = getelementptr inbounds nuw i8, ptr [[TMP7]], i32 0
--; CHECK-SVE-NEXT:    [[WIDE_LOAD:%.*]] = load <vscale x 4 x i8>, ptr [[TMP10]], align 1
--; CHECK-SVE-NEXT:    [[TMP11:%.*]] = getelementptr inbounds nuw i8, ptr [[TMP8]], i32 0
--; CHECK-SVE-NEXT:    [[WIDE_LOAD1:%.*]] = load <vscale x 4 x i8>, ptr [[TMP11]], align 1
--; CHECK-SVE-NEXT:    [[TMP12:%.*]] = getelementptr inbounds nuw i8, ptr [[TMP9]], i32 0
--; CHECK-SVE-NEXT:    [[WIDE_LOAD2:%.*]] = load <vscale x 4 x i8>, ptr [[TMP12]], align 1
--; CHECK-SVE-NEXT:    [[TMP13:%.*]] = sext <vscale x 4 x i8> [[WIDE_LOAD]] to <vscale x 4 x i32>
--; CHECK-SVE-NEXT:    [[TMP14:%.*]] = sext <vscale x 4 x i8> [[WIDE_LOAD1]] to <vscale x 4 x i32>
--; CHECK-SVE-NEXT:    [[TMP15:%.*]] = sext <vscale x 4 x i8> [[WIDE_LOAD2]] to <vscale x 4 x i32>
--; CHECK-SVE-NEXT:    [[TMP16:%.*]] = mul nsw <vscale x 4 x i32> [[TMP13]], [[TMP14]]
--; CHECK-SVE-NEXT:    [[TMP17:%.*]] = add <vscale x 4 x i32> [[VEC_PHI]], [[TMP16]]
--; CHECK-SVE-NEXT:    [[TMP18:%.*]] = mul nsw <vscale x 4 x i32> [[TMP13]], [[TMP15]]
--; CHECK-SVE-NEXT:    [[TMP19]] = add <vscale x 4 x i32> [[TMP17]], [[TMP18]]
--; CHECK-SVE-NEXT:    [[INDEX_NEXT]] = add nuw i64 [[INDEX]], [[TMP5]]
--; CHECK-SVE-NEXT:    [[TMP20:%.*]] = icmp eq i64 [[INDEX_NEXT]], [[N_VEC]]
--; CHECK-SVE-NEXT:    br i1 [[TMP20]], label [[MIDDLE_BLOCK:%.*]], label [[VECTOR_BODY]], !llvm.loop [[LOOP6:![0-9]+]]
--; CHECK-SVE:       middle.block:
--; CHECK-SVE-NEXT:    [[TMP21:%.*]] = call i32 @llvm.vector.reduce.add.nxv4i32(<vscale x 4 x i32> [[TMP19]])
--; CHECK-SVE-NEXT:    [[CMP_N:%.*]] = icmp eq i64 [[WIDE_TRIP_COUNT]], [[N_VEC]]
--; CHECK-SVE-NEXT:    br i1 [[CMP_N]], label [[FOR_COND_CLEANUP:%.*]], label [[SCALAR_PH]]
--;
--; CHECK-SVE-MAXBW-LABEL: define i32 @chained_partial_reduce_add_add(
--; CHECK-SVE-MAXBW-SAME: ptr [[A:%.*]], ptr [[B:%.*]], ptr [[C:%.*]], i32 [[N:%.*]]) #[[ATTR0]] {
--; CHECK-SVE-MAXBW-NEXT:  entry:
--; CHECK-SVE-MAXBW-NEXT:    [[CMP28_NOT:%.*]] = icmp ult i32 [[N]], 2
--; CHECK-SVE-MAXBW-NEXT:    [[DIV27:%.*]] = lshr i32 [[N]], 1
--; CHECK-SVE-MAXBW-NEXT:    [[WIDE_TRIP_COUNT:%.*]] = zext nneg i32 [[DIV27]] to i64
--; CHECK-SVE-MAXBW-NEXT:    [[TMP0:%.*]] = call i64 @llvm.vscale.i64()
--; CHECK-SVE-MAXBW-NEXT:    [[TMP1:%.*]] = mul i64 [[TMP0]], 8
--; CHECK-SVE-MAXBW-NEXT:    [[MIN_ITERS_CHECK:%.*]] = icmp ult i64 [[WIDE_TRIP_COUNT]], [[TMP1]]
--; CHECK-SVE-MAXBW-NEXT:    br i1 [[MIN_ITERS_CHECK]], label [[SCALAR_PH:%.*]], label [[VECTOR_PH:%.*]]
--; CHECK-SVE-MAXBW:       vector.ph:
--; CHECK-SVE-MAXBW-NEXT:    [[TMP2:%.*]] = call i64 @llvm.vscale.i64()
--; CHECK-SVE-MAXBW-NEXT:    [[TMP3:%.*]] = mul i64 [[TMP2]], 8
--; CHECK-SVE-MAXBW-NEXT:    [[N_MOD_VF:%.*]] = urem i64 [[WIDE_TRIP_COUNT]], [[TMP3]]
--; CHECK-SVE-MAXBW-NEXT:    [[N_VEC:%.*]] = sub i64 [[WIDE_TRIP_COUNT]], [[N_MOD_VF]]
--; CHECK-SVE-MAXBW-NEXT:    [[TMP4:%.*]] = call i64 @llvm.vscale.i64()
--; CHECK-SVE-MAXBW-NEXT:    [[TMP5:%.*]] = mul i64 [[TMP4]], 8
--; CHECK-SVE-MAXBW-NEXT:    br label [[VECTOR_BODY:%.*]]
--; CHECK-SVE-MAXBW:       vector.body:
--; CHECK-SVE-MAXBW-NEXT:    [[INDEX:%.*]] = phi i64 [ 0, [[VECTOR_PH]] ], [ [[INDEX_NEXT:%.*]], [[VECTOR_BODY]] ]
--; CHECK-SVE-MAXBW-NEXT:    [[VEC_PHI:%.*]] = phi <vscale x 2 x i32> [ zeroinitializer, [[VECTOR_PH]] ], [ [[PARTIAL_REDUCE3:%.*]], [[VECTOR_BODY]] ]
--; CHECK-SVE-MAXBW-NEXT:    [[TMP6:%.*]] = add i64 [[INDEX]], 0
--; CHECK-SVE-MAXBW-NEXT:    [[TMP7:%.*]] = getelementptr inbounds nuw i8, ptr [[A]], i64 [[TMP6]]
--; CHECK-SVE-MAXBW-NEXT:    [[TMP8:%.*]] = getelementptr inbounds nuw i8, ptr [[B]], i64 [[TMP6]]
--; CHECK-SVE-MAXBW-NEXT:    [[TMP9:%.*]] = getelementptr inbounds nuw i8, ptr [[C]], i64 [[TMP6]]
--; CHECK-SVE-MAXBW-NEXT:    [[TMP10:%.*]] = getelementptr inbounds nuw i8, ptr [[TMP7]], i32 0
--; CHECK-SVE-MAXBW-NEXT:    [[WIDE_LOAD:%.*]] = load <vscale x 8 x i8>, ptr [[TMP10]], align 1
--; CHECK-SVE-MAXBW-NEXT:    [[TMP11:%.*]] = getelementptr inbounds nuw i8, ptr [[TMP8]], i32 0
--; CHECK-SVE-MAXBW-NEXT:    [[WIDE_LOAD1:%.*]] = load <vscale x 8 x i8>, ptr [[TMP11]], align 1
--; CHECK-SVE-MAXBW-NEXT:    [[TMP12:%.*]] = getelementptr inbounds nuw i8, ptr [[TMP9]], i32 0
--; CHECK-SVE-MAXBW-NEXT:    [[WIDE_LOAD2:%.*]] = load <vscale x 8 x i8>, ptr [[TMP12]], align 1
--; CHECK-SVE-MAXBW-NEXT:    [[TMP13:%.*]] = sext <vscale x 8 x i8> [[WIDE_LOAD]] to <vscale x 8 x i32>
--; CHECK-SVE-MAXBW-NEXT:    [[TMP14:%.*]] = sext <vscale x 8 x i8> [[WIDE_LOAD1]] to <vscale x 8 x i32>
--; CHECK-SVE-MAXBW-NEXT:    [[TMP15:%.*]] = sext <vscale x 8 x i8> [[WIDE_LOAD2]] to <vscale x 8 x i32>
--; CHECK-SVE-MAXBW-NEXT:    [[TMP16:%.*]] = mul nsw <vscale x 8 x i32> [[TMP13]], [[TMP14]]
--; CHECK-SVE-MAXBW-NEXT:    [[PARTIAL_REDUCE:%.*]] = call <vscale x 2 x i32> @llvm.experimental.vector.partial.reduce.add.nxv2i32.nxv8i32(<vscale x 2 x i32> [[VEC_PHI]], <vscale x 8 x i32> [[TMP16]])
--; CHECK-SVE-MAXBW-NEXT:    [[TMP17:%.*]] = mul nsw <vscale x 8 x i32> [[TMP13]], [[TMP15]]
--; CHECK-SVE-MAXBW-NEXT:    [[PARTIAL_REDUCE3]] = call <vscale x 2 x i32> @llvm.experimental.vector.partial.reduce.add.nxv2i32.nxv8i32(<vscale x 2 x i32> [[PARTIAL_REDUCE]], <vscale x 8 x i32> [[TMP17]])
--; CHECK-SVE-MAXBW-NEXT:    [[INDEX_NEXT]] = add nuw i64 [[INDEX]], [[TMP5]]
--; CHECK-SVE-MAXBW-NEXT:    [[TMP18:%.*]] = icmp eq i64 [[INDEX_NEXT]], [[N_VEC]]
--; CHECK-SVE-MAXBW-NEXT:    br i1 [[TMP18]], label [[MIDDLE_BLOCK:%.*]], label [[VECTOR_BODY]], !llvm.loop [[LOOP6:![0-9]+]]
--; CHECK-SVE-MAXBW:       middle.block:
--; CHECK-SVE-MAXBW-NEXT:    [[TMP19:%.*]] = call i32 @llvm.vector.reduce.add.nxv2i32(<vscale x 2 x i32> [[PARTIAL_REDUCE3]])
--; CHECK-SVE-MAXBW-NEXT:    [[CMP_N:%.*]] = icmp eq i64 [[WIDE_TRIP_COUNT]], [[N_VEC]]
--; CHECK-SVE-MAXBW-NEXT:    br i1 [[CMP_N]], label [[FOR_COND_CLEANUP:%.*]], label [[SCALAR_PH]]
--;
--entry:
--  %cmp28.not = icmp ult i32 %N, 2
--  %div27 = lshr i32 %N, 1
--  %wide.trip.count = zext nneg i32 %div27 to i64
--  br label %for.body
--
--for.cond.cleanup:                                 ; preds = %for.cond.cleanup.loopexit, %entry
--  %res.0.lcssa = phi i32 [ %add.2, %for.body ]
--  ret i32 %res.0.lcssa
--
--for.body:                                         ; preds = %for.body.preheader, %for.body
--  %indvars.iv = phi i64 [ 0, %entry ], [ %indvars.iv.next, %for.body ]
--  %res = phi i32 [ 0, %entry ], [ %add.2, %for.body ]
--  %a.ptr = getelementptr inbounds nuw i8, ptr %a, i64 %indvars.iv
--  %b.ptr = getelementptr inbounds nuw i8, ptr %b, i64 %indvars.iv
--  %c.ptr = getelementptr inbounds nuw i8, ptr %c, i64 %indvars.iv
--  %a.val = load i8, ptr %a.ptr, align 1
--  %b.val = load i8, ptr %b.ptr, align 1
--  %c.val = load i8, ptr %c.ptr, align 1
--  %a.ext = sext i8 %a.val to i32
--  %b.ext = sext i8 %b.val to i32
--  %c.ext = sext i8 %c.val to i32
--  %mul.ab = mul nsw i32 %a.ext, %b.ext
--  %add = add nsw i32 %res, %mul.ab
--  %mul.ac = mul nsw i32 %a.ext, %c.ext
--  %add.2 = add i32 %add, %mul.ac
--  %indvars.iv.next = add nuw nsw i64 %indvars.iv, 1
--  %exitcond.not = icmp eq i64 %indvars.iv.next, %wide.trip.count
--  br i1 %exitcond.not, label %for.cond.cleanup, label %for.body, !loop !1
--}
--
--define i32 @chained_partial_reduce_sub_add(ptr %a, ptr %b, ptr %c, i32 %N) #0 {
--; CHECK-NEON-LABEL: define i32 @chained_partial_reduce_sub_add(
--; CHECK-NEON-SAME: ptr [[A:%.*]], ptr [[B:%.*]], ptr [[C:%.*]], i32 [[N:%.*]]) #[[ATTR0]] {
--; CHECK-NEON-NEXT:  entry:
--; CHECK-NEON-NEXT:    [[CMP28_NOT:%.*]] = icmp ult i32 [[N]], 2
--; CHECK-NEON-NEXT:    [[DIV27:%.*]] = lshr i32 [[N]], 1
--; CHECK-NEON-NEXT:    [[WIDE_TRIP_COUNT:%.*]] = zext nneg i32 [[DIV27]] to i64
--; CHECK-NEON-NEXT:    [[MIN_ITERS_CHECK:%.*]] = icmp ult i64 [[WIDE_TRIP_COUNT]], 16
--; CHECK-NEON-NEXT:    br i1 [[MIN_ITERS_CHECK]], label [[SCALAR_PH:%.*]], label [[VECTOR_PH:%.*]]
--; CHECK-NEON:       vector.ph:
--; CHECK-NEON-NEXT:    [[N_MOD_VF:%.*]] = urem i64 [[WIDE_TRIP_COUNT]], 16
--; CHECK-NEON-NEXT:    [[N_VEC:%.*]] = sub i64 [[WIDE_TRIP_COUNT]], [[N_MOD_VF]]
--; CHECK-NEON-NEXT:    br label [[VECTOR_BODY:%.*]]
--; CHECK-NEON:       vector.body:
--; CHECK-NEON-NEXT:    [[INDEX:%.*]] = phi i64 [ 0, [[VECTOR_PH]] ], [ [[INDEX_NEXT:%.*]], [[VECTOR_BODY]] ]
--; CHECK-NEON-NEXT:    [[VEC_PHI:%.*]] = phi <16 x i32> [ zeroinitializer, [[VECTOR_PH]] ], [ [[TMP13:%.*]], [[VECTOR_BODY]] ]
--; CHECK-NEON-NEXT:    [[TMP0:%.*]] = add i64 [[INDEX]], 0
--; CHECK-NEON-NEXT:    [[TMP1:%.*]] = getelementptr inbounds nuw i8, ptr [[A]], i64 [[TMP0]]
--; CHECK-NEON-NEXT:    [[TMP2:%.*]] = getelementptr inbounds nuw i8, ptr [[B]], i64 [[TMP0]]
--; CHECK-NEON-NEXT:    [[TMP3:%.*]] = getelementptr inbounds nuw i8, ptr [[C]], i64 [[TMP0]]
--; CHECK-NEON-NEXT:    [[TMP4:%.*]] = getelementptr inbounds nuw i8, ptr [[TMP1]], i32 0
--; CHECK-NEON-NEXT:    [[WIDE_LOAD:%.*]] = load <16 x i8>, ptr [[TMP4]], align 1
--; CHECK-NEON-NEXT:    [[TMP5:%.*]] = getelementptr inbounds nuw i8, ptr [[TMP2]], i32 0
--; CHECK-NEON-NEXT:    [[WIDE_LOAD1:%.*]] = load <16 x i8>, ptr [[TMP5]], align 1
--; CHECK-NEON-NEXT:    [[TMP6:%.*]] = getelementptr inbounds nuw i8, ptr [[TMP3]], i32 0
--; CHECK-NEON-NEXT:    [[WIDE_LOAD2:%.*]] = load <16 x i8>, ptr [[TMP6]], align 1
--; CHECK-NEON-NEXT:    [[TMP7:%.*]] = sext <16 x i8> [[WIDE_LOAD]] to <16 x i32>
--; CHECK-NEON-NEXT:    [[TMP8:%.*]] = sext <16 x i8> [[WIDE_LOAD1]] to <16 x i32>
--; CHECK-NEON-NEXT:    [[TMP9:%.*]] = sext <16 x i8> [[WIDE_LOAD2]] to <16 x i32>
--; CHECK-NEON-NEXT:    [[TMP10:%.*]] = mul nsw <16 x i32> [[TMP7]], [[TMP8]]
--; CHECK-NEON-NEXT:    [[TMP11:%.*]] = sub <16 x i32> [[VEC_PHI]], [[TMP10]]
--; CHECK-NEON-NEXT:    [[TMP12:%.*]] = mul nsw <16 x i32> [[TMP7]], [[TMP9]]
--; CHECK-NEON-NEXT:    [[TMP13]] = add <16 x i32> [[TMP11]], [[TMP12]]
--; CHECK-NEON-NEXT:    [[INDEX_NEXT]] = add nuw i64 [[INDEX]], 16
--; CHECK-NEON-NEXT:    [[TMP14:%.*]] = icmp eq i64 [[INDEX_NEXT]], [[N_VEC]]
--; CHECK-NEON-NEXT:    br i1 [[TMP14]], label [[MIDDLE_BLOCK:%.*]], label [[VECTOR_BODY]], !llvm.loop [[LOOP8:![0-9]+]]
--; CHECK-NEON:       middle.block:
--; CHECK-NEON-NEXT:    [[TMP15:%.*]] = call i32 @llvm.vector.reduce.add.v16i32(<16 x i32> [[TMP13]])
--; CHECK-NEON-NEXT:    [[CMP_N:%.*]] = icmp eq i64 [[WIDE_TRIP_COUNT]], [[N_VEC]]
--; CHECK-NEON-NEXT:    br i1 [[CMP_N]], label [[FOR_COND_CLEANUP:%.*]], label [[SCALAR_PH]]
--;
--; CHECK-SVE-LABEL: define i32 @chained_partial_reduce_sub_add(
--; CHECK-SVE-SAME: ptr [[A:%.*]], ptr [[B:%.*]], ptr [[C:%.*]], i32 [[N:%.*]]) #[[ATTR0]] {
--; CHECK-SVE-NEXT:  entry:
--; CHECK-SVE-NEXT:    [[CMP28_NOT:%.*]] = icmp ult i32 [[N]], 2
--; CHECK-SVE-NEXT:    [[DIV27:%.*]] = lshr i32 [[N]], 1
--; CHECK-SVE-NEXT:    [[WIDE_TRIP_COUNT:%.*]] = zext nneg i32 [[DIV27]] to i64
--; CHECK-SVE-NEXT:    [[TMP0:%.*]] = call i64 @llvm.vscale.i64()
--; CHECK-SVE-NEXT:    [[TMP1:%.*]] = mul i64 [[TMP0]], 4
--; CHECK-SVE-NEXT:    [[MIN_ITERS_CHECK:%.*]] = icmp ult i64 [[WIDE_TRIP_COUNT]], [[TMP1]]
--; CHECK-SVE-NEXT:    br i1 [[MIN_ITERS_CHECK]], label [[SCALAR_PH:%.*]], label [[VECTOR_PH:%.*]]
--; CHECK-SVE:       vector.ph:
--; CHECK-SVE-NEXT:    [[TMP2:%.*]] = call i64 @llvm.vscale.i64()
--; CHECK-SVE-NEXT:    [[TMP3:%.*]] = mul i64 [[TMP2]], 4
--; CHECK-SVE-NEXT:    [[N_MOD_VF:%.*]] = urem i64 [[WIDE_TRIP_COUNT]], [[TMP3]]
--; CHECK-SVE-NEXT:    [[N_VEC:%.*]] = sub i64 [[WIDE_TRIP_COUNT]], [[N_MOD_VF]]
--; CHECK-SVE-NEXT:    [[TMP4:%.*]] = call i64 @llvm.vscale.i64()
--; CHECK-SVE-NEXT:    [[TMP5:%.*]] = mul i64 [[TMP4]], 4
--; CHECK-SVE-NEXT:    br label [[VECTOR_BODY:%.*]]
--; CHECK-SVE:       vector.body:
--; CHECK-SVE-NEXT:    [[INDEX:%.*]] = phi i64 [ 0, [[VECTOR_PH]] ], [ [[INDEX_NEXT:%.*]], [[VECTOR_BODY]] ]
--; CHECK-SVE-NEXT:    [[VEC_PHI:%.*]] = phi <vscale x 4 x i32> [ zeroinitializer, [[VECTOR_PH]] ], [ [[TMP19:%.*]], [[VECTOR_BODY]] ]
--; CHECK-SVE-NEXT:    [[TMP6:%.*]] = add i64 [[INDEX]], 0
--; CHECK-SVE-NEXT:    [[TMP7:%.*]] = getelementptr inbounds nuw i8, ptr [[A]], i64 [[TMP6]]
--; CHECK-SVE-NEXT:    [[TMP8:%.*]] = getelementptr inbounds nuw i8, ptr [[B]], i64 [[TMP6]]
--; CHECK-SVE-NEXT:    [[TMP9:%.*]] = getelementptr inbounds nuw i8, ptr [[C]], i64 [[TMP6]]
--; CHECK-SVE-NEXT:    [[TMP10:%.*]] = getelementptr inbounds nuw i8, ptr [[TMP7]], i32 0
--; CHECK-SVE-NEXT:    [[WIDE_LOAD:%.*]] = load <vscale x 4 x i8>, ptr [[TMP10]], align 1
--; CHECK-SVE-NEXT:    [[TMP11:%.*]] = getelementptr inbounds nuw i8, ptr [[TMP8]], i32 0
--; CHECK-SVE-NEXT:    [[WIDE_LOAD1:%.*]] = load <vscale x 4 x i8>, ptr [[TMP11]], align 1
--; CHECK-SVE-NEXT:    [[TMP12:%.*]] = getelementptr inbounds nuw i8, ptr [[TMP9]], i32 0
--; CHECK-SVE-NEXT:    [[WIDE_LOAD2:%.*]] = load <vscale x 4 x i8>, ptr [[TMP12]], align 1
--; CHECK-SVE-NEXT:    [[TMP13:%.*]] = sext <vscale x 4 x i8> [[WIDE_LOAD]] to <vscale x 4 x i32>
--; CHECK-SVE-NEXT:    [[TMP14:%.*]] = sext <vscale x 4 x i8> [[WIDE_LOAD1]] to <vscale x 4 x i32>
--; CHECK-SVE-NEXT:    [[TMP15:%.*]] = sext <vscale x 4 x i8> [[WIDE_LOAD2]] to <vscale x 4 x i32>
--; CHECK-SVE-NEXT:    [[TMP16:%.*]] = mul nsw <vscale x 4 x i32> [[TMP13]], [[TMP14]]
--; CHECK-SVE-NEXT:    [[TMP17:%.*]] = sub <vscale x 4 x i32> [[VEC_PHI]], [[TMP16]]
--; CHECK-SVE-NEXT:    [[TMP18:%.*]] = mul nsw <vscale x 4 x i32> [[TMP13]], [[TMP15]]
--; CHECK-SVE-NEXT:    [[TMP19]] = add <vscale x 4 x i32> [[TMP17]], [[TMP18]]
--; CHECK-SVE-NEXT:    [[INDEX_NEXT]] = add nuw i64 [[INDEX]], [[TMP5]]
--; CHECK-SVE-NEXT:    [[TMP20:%.*]] = icmp eq i64 [[INDEX_NEXT]], [[N_VEC]]
--; CHECK-SVE-NEXT:    br i1 [[TMP20]], label [[MIDDLE_BLOCK:%.*]], label [[VECTOR_BODY]], !llvm.loop [[LOOP8:![0-9]+]]
--; CHECK-SVE:       middle.block:
--; CHECK-SVE-NEXT:    [[TMP21:%.*]] = call i32 @llvm.vector.reduce.add.nxv4i32(<vscale x 4 x i32> [[TMP19]])
--; CHECK-SVE-NEXT:    [[CMP_N:%.*]] = icmp eq i64 [[WIDE_TRIP_COUNT]], [[N_VEC]]
--; CHECK-SVE-NEXT:    br i1 [[CMP_N]], label [[FOR_COND_CLEANUP:%.*]], label [[SCALAR_PH]]
--;
--; CHECK-SVE-MAXBW-LABEL: define i32 @chained_partial_reduce_sub_add(
--; CHECK-SVE-MAXBW-SAME: ptr [[A:%.*]], ptr [[B:%.*]], ptr [[C:%.*]], i32 [[N:%.*]]) #[[ATTR0]] {
--; CHECK-SVE-MAXBW-NEXT:  entry:
--; CHECK-SVE-MAXBW-NEXT:    [[CMP28_NOT:%.*]] = icmp ult i32 [[N]], 2
--; CHECK-SVE-MAXBW-NEXT:    [[DIV27:%.*]] = lshr i32 [[N]], 1
--; CHECK-SVE-MAXBW-NEXT:    [[WIDE_TRIP_COUNT:%.*]] = zext nneg i32 [[DIV27]] to i64
--; CHECK-SVE-MAXBW-NEXT:    [[TMP0:%.*]] = call i64 @llvm.vscale.i64()
--; CHECK-SVE-MAXBW-NEXT:    [[TMP1:%.*]] = mul i64 [[TMP0]], 8
--; CHECK-SVE-MAXBW-NEXT:    [[MIN_ITERS_CHECK:%.*]] = icmp ult i64 [[WIDE_TRIP_COUNT]], [[TMP1]]
--; CHECK-SVE-MAXBW-NEXT:    br i1 [[MIN_ITERS_CHECK]], label [[SCALAR_PH:%.*]], label [[VECTOR_PH:%.*]]
--; CHECK-SVE-MAXBW:       vector.ph:
--; CHECK-SVE-MAXBW-NEXT:    [[TMP2:%.*]] = call i64 @llvm.vscale.i64()
--; CHECK-SVE-MAXBW-NEXT:    [[TMP3:%.*]] = mul i64 [[TMP2]], 8
--; CHECK-SVE-MAXBW-NEXT:    [[N_MOD_VF:%.*]] = urem i64 [[WIDE_TRIP_COUNT]], [[TMP3]]
--; CHECK-SVE-MAXBW-NEXT:    [[N_VEC:%.*]] = sub i64 [[WIDE_TRIP_COUNT]], [[N_MOD_VF]]
--; CHECK-SVE-MAXBW-NEXT:    [[TMP4:%.*]] = call i64 @llvm.vscale.i64()
--; CHECK-SVE-MAXBW-NEXT:    [[TMP5:%.*]] = mul i64 [[TMP4]], 8
--; CHECK-SVE-MAXBW-NEXT:    br label [[VECTOR_BODY:%.*]]
--; CHECK-SVE-MAXBW:       vector.body:
--; CHECK-SVE-MAXBW-NEXT:    [[INDEX:%.*]] = phi i64 [ 0, [[VECTOR_PH]] ], [ [[INDEX_NEXT:%.*]], [[VECTOR_BODY]] ]
--; CHECK-SVE-MAXBW-NEXT:    [[VEC_PHI:%.*]] = phi <vscale x 8 x i32> [ zeroinitializer, [[VECTOR_PH]] ], [ [[TMP19:%.*]], [[VECTOR_BODY]] ]
--; CHECK-SVE-MAXBW-NEXT:    [[TMP6:%.*]] = add i64 [[INDEX]], 0
--; CHECK-SVE-MAXBW-NEXT:    [[TMP7:%.*]] = getelementptr inbounds nuw i8, ptr [[A]], i64 [[TMP6]]
--; CHECK-SVE-MAXBW-NEXT:    [[TMP8:%.*]] = getelementptr inbounds nuw i8, ptr [[B]], i64 [[TMP6]]
--; CHECK-SVE-MAXBW-NEXT:    [[TMP9:%.*]] = getelementptr inbounds nuw i8, ptr [[C]], i64 [[TMP6]]
--; CHECK-SVE-MAXBW-NEXT:    [[TMP10:%.*]] = getelementptr inbounds nuw i8, ptr [[TMP7]], i32 0
--; CHECK-SVE-MAXBW-NEXT:    [[WIDE_LOAD:%.*]] = load <vscale x 8 x i8>, ptr [[TMP10]], align 1
--; CHECK-SVE-MAXBW-NEXT:    [[TMP11:%.*]] = getelementptr inbounds nuw i8, ptr [[TMP8]], i32 0
--; CHECK-SVE-MAXBW-NEXT:    [[WIDE_LOAD1:%.*]] = load <vscale x 8 x i8>, ptr [[TMP11]], align 1
--; CHECK-SVE-MAXBW-NEXT:    [[TMP12:%.*]] = getelementptr inbounds nuw i8, ptr [[TMP9]], i32 0
--; CHECK-SVE-MAXBW-NEXT:    [[WIDE_LOAD2:%.*]] = load <vscale x 8 x i8>, ptr [[TMP12]], align 1
--; CHECK-SVE-MAXBW-NEXT:    [[TMP13:%.*]] = sext <vscale x 8 x i8> [[WIDE_LOAD]] to <vscale x 8 x i32>
--; CHECK-SVE-MAXBW-NEXT:    [[TMP14:%.*]] = sext <vscale x 8 x i8> [[WIDE_LOAD1]] to <vscale x 8 x i32>
--; CHECK-SVE-MAXBW-NEXT:    [[TMP15:%.*]] = sext <vscale x 8 x i8> [[WIDE_LOAD2]] to <vscale x 8 x i32>
--; CHECK-SVE-MAXBW-NEXT:    [[TMP16:%.*]] = mul nsw <vscale x 8 x i32> [[TMP13]], [[TMP14]]
--; CHECK-SVE-MAXBW-NEXT:    [[TMP17:%.*]] = sub <vscale x 8 x i32> [[VEC_PHI]], [[TMP16]]
--; CHECK-SVE-MAXBW-NEXT:    [[TMP18:%.*]] = mul nsw <vscale x 8 x i32> [[TMP13]], [[TMP15]]
--; CHECK-SVE-MAXBW-NEXT:    [[TMP19]] = add <vscale x 8 x i32> [[TMP17]], [[TMP18]]
--; CHECK-SVE-MAXBW-NEXT:    [[INDEX_NEXT]] = add nuw i64 [[INDEX]], [[TMP5]]
--; CHECK-SVE-MAXBW-NEXT:    [[TMP20:%.*]] = icmp eq i64 [[INDEX_NEXT]], [[N_VEC]]
--; CHECK-SVE-MAXBW-NEXT:    br i1 [[TMP20]], label [[MIDDLE_BLOCK:%.*]], label [[VECTOR_BODY]], !llvm.loop [[LOOP8:![0-9]+]]
--; CHECK-SVE-MAXBW:       middle.block:
--; CHECK-SVE-MAXBW-NEXT:    [[TMP21:%.*]] = call i32 @llvm.vector.reduce.add.nxv8i32(<vscale x 8 x i32> [[TMP19]])
--; CHECK-SVE-MAXBW-NEXT:    [[CMP_N:%.*]] = icmp eq i64 [[WIDE_TRIP_COUNT]], [[N_VEC]]
--; CHECK-SVE-MAXBW-NEXT:    br i1 [[CMP_N]], label [[FOR_COND_CLEANUP:%.*]], label [[SCALAR_PH]]
--;
--entry:
--  %cmp28.not = icmp ult i32 %N, 2
--  %div27 = lshr i32 %N, 1
--  %wide.trip.count = zext nneg i32 %div27 to i64
--  br label %for.body
--
--for.cond.cleanup:                                 ; preds = %for.cond.cleanup.loopexit, %entry
--  %res.0.lcssa = phi i32 [ %add, %for.body ]
--  ret i32 %res.0.lcssa
--
--for.body:                                         ; preds = %for.body.preheader, %for.body
--  %indvars.iv = phi i64 [ 0, %entry ], [ %indvars.iv.next, %for.body ]
--  %res = phi i32 [ 0, %entry ], [ %add, %for.body ]
--
--  %a.ptr = getelementptr inbounds nuw i8, ptr %a, i64 %indvars.iv
--  %b.ptr = getelementptr inbounds nuw i8, ptr %b, i64 %indvars.iv
--  %c.ptr = getelementptr inbounds nuw i8, ptr %c, i64 %indvars.iv
--  %a.val = load i8, ptr %a.ptr, align 1
--  %b.val = load i8, ptr %b.ptr, align 1
--  %c.val = load i8, ptr %c.ptr, align 1
--
--  %a.ext = sext i8 %a.val to i32
--  %b.ext = sext i8 %b.val to i32
--  %c.ext = sext i8 %c.val to i32
--  %mul.ab = mul nsw i32 %a.ext, %b.ext
--  %sub = sub nsw i32 %res, %mul.ab
--  %mul.ac = mul nsw i32 %a.ext, %c.ext
--  %add = add i32 %sub, %mul.ac
--  %indvars.iv.next = add nuw nsw i64 %indvars.iv, 1
--  %exitcond.not = icmp eq i64 %indvars.iv.next, %wide.trip.count
--  br i1 %exitcond.not, label %for.cond.cleanup, label %for.body, !loop !1
--}
--
--define i32 @chained_partial_reduce_sub_sub(ptr %a, ptr %b, ptr %c, i32 %N) #0 {
--; CHECK-NEON-LABEL: define i32 @chained_partial_reduce_sub_sub(
--; CHECK-NEON-SAME: ptr [[A:%.*]], ptr [[B:%.*]], ptr [[C:%.*]], i32 [[N:%.*]]) #[[ATTR0]] {
--; CHECK-NEON-NEXT:  entry:
--; CHECK-NEON-NEXT:    [[CMP28_NOT:%.*]] = icmp ult i32 [[N]], 2
--; CHECK-NEON-NEXT:    [[DIV27:%.*]] = lshr i32 [[N]], 1
--; CHECK-NEON-NEXT:    [[WIDE_TRIP_COUNT:%.*]] = zext nneg i32 [[DIV27]] to i64
--; CHECK-NEON-NEXT:    [[MIN_ITERS_CHECK:%.*]] = icmp ult i64 [[WIDE_TRIP_COUNT]], 16
--; CHECK-NEON-NEXT:    br i1 [[MIN_ITERS_CHECK]], label [[SCALAR_PH:%.*]], label [[VECTOR_PH:%.*]]
--; CHECK-NEON:       vector.ph:
--; CHECK-NEON-NEXT:    [[N_MOD_VF:%.*]] = urem i64 [[WIDE_TRIP_COUNT]], 16
--; CHECK-NEON-NEXT:    [[N_VEC:%.*]] = sub i64 [[WIDE_TRIP_COUNT]], [[N_MOD_VF]]
--; CHECK-NEON-NEXT:    br label [[VECTOR_BODY:%.*]]
--; CHECK-NEON:       vector.body:
--; CHECK-NEON-NEXT:    [[INDEX:%.*]] = phi i64 [ 0, [[VECTOR_PH]] ], [ [[INDEX_NEXT:%.*]], [[VECTOR_BODY]] ]
--; CHECK-NEON-NEXT:    [[VEC_PHI:%.*]] = phi <16 x i32> [ zeroinitializer, [[VECTOR_PH]] ], [ [[TMP13:%.*]], [[VECTOR_BODY]] ]
--; CHECK-NEON-NEXT:    [[TMP0:%.*]] = add i64 [[INDEX]], 0
--; CHECK-NEON-NEXT:    [[TMP1:%.*]] = getelementptr inbounds nuw i8, ptr [[A]], i64 [[TMP0]]
--; CHECK-NEON-NEXT:    [[TMP2:%.*]] = getelementptr inbounds nuw i8, ptr [[B]], i64 [[TMP0]]
--; CHECK-NEON-NEXT:    [[TMP3:%.*]] = getelementptr inbounds nuw i8, ptr [[C]], i64 [[TMP0]]
--; CHECK-NEON-NEXT:    [[TMP4:%.*]] = getelementptr inbounds nuw i8, ptr [[TMP1]], i32 0
--; CHECK-NEON-NEXT:    [[WIDE_LOAD:%.*]] = load <16 x i8>, ptr [[TMP4]], align 1
--; CHECK-NEON-NEXT:    [[TMP5:%.*]] = getelementptr inbounds nuw i8, ptr [[TMP2]], i32 0
--; CHECK-NEON-NEXT:    [[WIDE_LOAD1:%.*]] = load <16 x i8>, ptr [[TMP5]], align 1
--; CHECK-NEON-NEXT:    [[TMP6:%.*]] = getelementptr inbounds nuw i8, ptr [[TMP3]], i32 0
--; CHECK-NEON-NEXT:    [[WIDE_LOAD2:%.*]] = load <16 x i8>, ptr [[TMP6]], align 1
--; CHECK-NEON-NEXT:    [[TMP7:%.*]] = sext <16 x i8> [[WIDE_LOAD]] to <16 x i32>
--; CHECK-NEON-NEXT:    [[TMP8:%.*]] = sext <16 x i8> [[WIDE_LOAD1]] to <16 x i32>
--; CHECK-NEON-NEXT:    [[TMP9:%.*]] = sext <16 x i8> [[WIDE_LOAD2]] to <16 x i32>
--; CHECK-NEON-NEXT:    [[TMP10:%.*]] = mul nsw <16 x i32> [[TMP7]], [[TMP8]]
--; CHECK-NEON-NEXT:    [[TMP11:%.*]] = sub <16 x i32> [[VEC_PHI]], [[TMP10]]
--; CHECK-NEON-NEXT:    [[TMP12:%.*]] = mul nsw <16 x i32> [[TMP7]], [[TMP9]]
--; CHECK-NEON-NEXT:    [[TMP13]] = sub <16 x i32> [[TMP11]], [[TMP12]]
--; CHECK-NEON-NEXT:    [[INDEX_NEXT]] = add nuw i64 [[INDEX]], 16
--; CHECK-NEON-NEXT:    [[TMP14:%.*]] = icmp eq i64 [[INDEX_NEXT]], [[N_VEC]]
--; CHECK-NEON-NEXT:    br i1 [[TMP14]], label [[MIDDLE_BLOCK:%.*]], label [[VECTOR_BODY]], !llvm.loop [[LOOP10:![0-9]+]]
--; CHECK-NEON:       middle.block:
--; CHECK-NEON-NEXT:    [[TMP15:%.*]] = call i32 @llvm.vector.reduce.add.v16i32(<16 x i32> [[TMP13]])
--; CHECK-NEON-NEXT:    [[CMP_N:%.*]] = icmp eq i64 [[WIDE_TRIP_COUNT]], [[N_VEC]]
--; CHECK-NEON-NEXT:    br i1 [[CMP_N]], label [[FOR_COND_CLEANUP:%.*]], label [[SCALAR_PH]]
--;
--; CHECK-SVE-LABEL: define i32 @chained_partial_reduce_sub_sub(
--; CHECK-SVE-SAME: ptr [[A:%.*]], ptr [[B:%.*]], ptr [[C:%.*]], i32 [[N:%.*]]) #[[ATTR0]] {
--; CHECK-SVE-NEXT:  entry:
--; CHECK-SVE-NEXT:    [[CMP28_NOT:%.*]] = icmp ult i32 [[N]], 2
--; CHECK-SVE-NEXT:    [[DIV27:%.*]] = lshr i32 [[N]], 1
--; CHECK-SVE-NEXT:    [[WIDE_TRIP_COUNT:%.*]] = zext nneg i32 [[DIV27]] to i64
--; CHECK-SVE-NEXT:    [[TMP0:%.*]] = call i64 @llvm.vscale.i64()
--; CHECK-SVE-NEXT:    [[TMP1:%.*]] = mul i64 [[TMP0]], 4
--; CHECK-SVE-NEXT:    [[MIN_ITERS_CHECK:%.*]] = icmp ult i64 [[WIDE_TRIP_COUNT]], [[TMP1]]
--; CHECK-SVE-NEXT:    br i1 [[MIN_ITERS_CHECK]], label [[SCALAR_PH:%.*]], label [[VECTOR_PH:%.*]]
--; CHECK-SVE:       vector.ph:
--; CHECK-SVE-NEXT:    [[TMP2:%.*]] = call i64 @llvm.vscale.i64()
--; CHECK-SVE-NEXT:    [[TMP3:%.*]] = mul i64 [[TMP2]], 4
--; CHECK-SVE-NEXT:    [[N_MOD_VF:%.*]] = urem i64 [[WIDE_TRIP_COUNT]], [[TMP3]]
--; CHECK-SVE-NEXT:    [[N_VEC:%.*]] = sub i64 [[WIDE_TRIP_COUNT]], [[N_MOD_VF]]
--; CHECK-SVE-NEXT:    [[TMP4:%.*]] = call i64 @llvm.vscale.i64()
--; CHECK-SVE-NEXT:    [[TMP5:%.*]] = mul i64 [[TMP4]], 4
--; CHECK-SVE-NEXT:    br label [[VECTOR_BODY:%.*]]
--; CHECK-SVE:       vector.body:
--; CHECK-SVE-NEXT:    [[INDEX:%.*]] = phi i64 [ 0, [[VECTOR_PH]] ], [ [[INDEX_NEXT:%.*]], [[VECTOR_BODY]] ]
--; CHECK-SVE-NEXT:    [[VEC_PHI:%.*]] = phi <vscale x 4 x i32> [ zeroinitializer, [[VECTOR_PH]] ], [ [[TMP19:%.*]], [[VECTOR_BODY]] ]
--; CHECK-SVE-NEXT:    [[TMP6:%.*]] = add i64 [[INDEX]], 0
--; CHECK-SVE-NEXT:    [[TMP7:%.*]] = getelementptr inbounds nuw i8, ptr [[A]], i64 [[TMP6]]
--; CHECK-SVE-NEXT:    [[TMP8:%.*]] = getelementptr inbounds nuw i8, ptr [[B]], i64 [[TMP6]]
--; CHECK-SVE-NEXT:    [[TMP9:%.*]] = getelementptr inbounds nuw i8, ptr [[C]], i64 [[TMP6]]
--; CHECK-SVE-NEXT:    [[TMP10:%.*]] = getelementptr inbounds nuw i8, ptr [[TMP7]], i32 0
--; CHECK-SVE-NEXT:    [[WIDE_LOAD:%.*]] = load <vscale x 4 x i8>, ptr [[TMP10]], align 1
--; CHECK-SVE-NEXT:    [[TMP11:%.*]] = getelementptr inbounds nuw i8, ptr [[TMP8]], i32 0
--; CHECK-SVE-NEXT:    [[WIDE_LOAD1:%.*]] = load <vscale x 4 x i8>, ptr [[TMP11]], align 1
--; CHECK-SVE-NEXT:    [[TMP12:%.*]] = getelementptr inbounds nuw i8, ptr [[TMP9]], i32 0
--; CHECK-SVE-NEXT:    [[WIDE_LOAD2:%.*]] = load <vscale x 4 x i8>, ptr [[TMP12]], align 1
--; CHECK-SVE-NEXT:    [[TMP13:%.*]] = sext <vscale x 4 x i8> [[WIDE_LOAD]] to <vscale x 4 x i32>
--; CHECK-SVE-NEXT:    [[TMP14:%.*]] = sext <vscale x 4 x i8> [[WIDE_LOAD1]] to <vscale x 4 x i32>
--; CHECK-SVE-NEXT:    [[TMP15:%.*]] = sext <vscale x 4 x i8> [[WIDE_LOAD2]] to <vscale x 4 x i32>
--; CHECK-SVE-NEXT:    [[TMP16:%.*]] = mul nsw <vscale x 4 x i32> [[TMP13]], [[TMP14]]
--; CHECK-SVE-NEXT:    [[TMP17:%.*]] = sub <vscale x 4 x i32> [[VEC_PHI]], [[TMP16]]
--; CHECK-SVE-NEXT:    [[TMP18:%.*]] = mul nsw <vscale x 4 x i32> [[TMP13]], [[TMP15]]
--; CHECK-SVE-NEXT:    [[TMP19]] = sub <vscale x 4 x i32> [[TMP17]], [[TMP18]]
--; CHECK-SVE-NEXT:    [[INDEX_NEXT]] = add nuw i64 [[INDEX]], [[TMP5]]
--; CHECK-SVE-NEXT:    [[TMP20:%.*]] = icmp eq i64 [[INDEX_NEXT]], [[N_VEC]]
--; CHECK-SVE-NEXT:    br i1 [[TMP20]], label [[MIDDLE_BLOCK:%.*]], label [[VECTOR_BODY]], !llvm.loop [[LOOP10:![0-9]+]]
--; CHECK-SVE:       middle.block:
--; CHECK-SVE-NEXT:    [[TMP21:%.*]] = call i32 @llvm.vector.reduce.add.nxv4i32(<vscale x 4 x i32> [[TMP19]])
--; CHECK-SVE-NEXT:    [[CMP_N:%.*]] = icmp eq i64 [[WIDE_TRIP_COUNT]], [[N_VEC]]
--; CHECK-SVE-NEXT:    br i1 [[CMP_N]], label [[FOR_COND_CLEANUP:%.*]], label [[SCALAR_PH]]
--;
--; CHECK-SVE-MAXBW-LABEL: define i32 @chained_partial_reduce_sub_sub(
--; CHECK-SVE-MAXBW-SAME: ptr [[A:%.*]], ptr [[B:%.*]], ptr [[C:%.*]], i32 [[N:%.*]]) #[[ATTR0]] {
--; CHECK-SVE-MAXBW-NEXT:  entry:
--; CHECK-SVE-MAXBW-NEXT:    [[CMP28_NOT:%.*]] = icmp ult i32 [[N]], 2
--; CHECK-SVE-MAXBW-NEXT:    [[DIV27:%.*]] = lshr i32 [[N]], 1
--; CHECK-SVE-MAXBW-NEXT:    [[WIDE_TRIP_COUNT:%.*]] = zext nneg i32 [[DIV27]] to i64
--; CHECK-SVE-MAXBW-NEXT:    [[TMP0:%.*]] = call i64 @llvm.vscale.i64()
--; CHECK-SVE-MAXBW-NEXT:    [[TMP1:%.*]] = mul i64 [[TMP0]], 8
--; CHECK-SVE-MAXBW-NEXT:    [[MIN_ITERS_CHECK:%.*]] = icmp ult i64 [[WIDE_TRIP_COUNT]], [[TMP1]]
--; CHECK-SVE-MAXBW-NEXT:    br i1 [[MIN_ITERS_CHECK]], label [[SCALAR_PH:%.*]], label [[VECTOR_PH:%.*]]
--; CHECK-SVE-MAXBW:       vector.ph:
--; CHECK-SVE-MAXBW-NEXT:    [[TMP2:%.*]] = call i64 @llvm.vscale.i64()
--; CHECK-SVE-MAXBW-NEXT:    [[TMP3:%.*]] = mul i64 [[TMP2]], 8
--; CHECK-SVE-MAXBW-NEXT:    [[N_MOD_VF:%.*]] = urem i64 [[WIDE_TRIP_COUNT]], [[TMP3]]
--; CHECK-SVE-MAXBW-NEXT:    [[N_VEC:%.*]] = sub i64 [[WIDE_TRIP_COUNT]], [[N_MOD_VF]]
--; CHECK-SVE-MAXBW-NEXT:    [[TMP4:%.*]] = call i64 @llvm.vscale.i64()
--; CHECK-SVE-MAXBW-NEXT:    [[TMP5:%.*]] = mul i64 [[TMP4]], 8
--; CHECK-SVE-MAXBW-NEXT:    br label [[VECTOR_BODY:%.*]]
--; CHECK-SVE-MAXBW:       vector.body:
--; CHECK-SVE-MAXBW-NEXT:    [[INDEX:%.*]] = phi i64 [ 0, [[VECTOR_PH]] ], [ [[INDEX_NEXT:%.*]], [[VECTOR_BODY]] ]
--; CHECK-SVE-MAXBW-NEXT:    [[VEC_PHI:%.*]] = phi <vscale x 8 x i32> [ zeroinitializer, [[VECTOR_PH]] ], [ [[TMP19:%.*]], [[VECTOR_BODY]] ]
--; CHECK-SVE-MAXBW-NEXT:    [[TMP6:%.*]] = add i64 [[INDEX]], 0
--; CHECK-SVE-MAXBW-NEXT:    [[TMP7:%.*]] = getelementptr inbounds nuw i8, ptr [[A]], i64 [[TMP6]]
--; CHECK-SVE-MAXBW-NEXT:    [[TMP8:%.*]] = getelementptr inbounds nuw i8, ptr [[B]], i64 [[TMP6]]
--; CHECK-SVE-MAXBW-NEXT:    [[TMP9:%.*]] = getelementptr inbounds nuw i8, ptr [[C]], i64 [[TMP6]]
--; CHECK-SVE-MAXBW-NEXT:    [[TMP10:%.*]] = getelementptr inbounds nuw i8, ptr [[TMP7]], i32 0
--; CHECK-SVE-MAXBW-NEXT:    [[WIDE_LOAD:%.*]] = load <vscale x 8 x i8>, ptr [[TMP10]], align 1
--; CHECK-SVE-MAXBW-NEXT:    [[TMP11:%.*]] = getelementptr inbounds nuw i8, ptr [[TMP8]], i32 0
--; CHECK-SVE-MAXBW-NEXT:    [[WIDE_LOAD1:%.*]] = load <vscale x 8 x i8>, ptr [[TMP11]], align 1
--; CHECK-SVE-MAXBW-NEXT:    [[TMP12:%.*]] = getelementptr inbounds nuw i8, ptr [[TMP9]], i32 0
--; CHECK-SVE-MAXBW-NEXT:    [[WIDE_LOAD2:%.*]] = load <vscale x 8 x i8>, ptr [[TMP12]], align 1
--; CHECK-SVE-MAXBW-NEXT:    [[TMP13:%.*]] = sext <vscale x 8 x i8> [[WIDE_LOAD]] to <vscale x 8 x i32>
--; CHECK-SVE-MAXBW-NEXT:    [[TMP14:%.*]] = sext <vscale x 8 x i8> [[WIDE_LOAD1]] to <vscale x 8 x i32>
--; CHECK-SVE-MAXBW-NEXT:    [[TMP15:%.*]] = sext <vscale x 8 x i8> [[WIDE_LOAD2]] to <vscale x 8 x i32>
--; CHECK-SVE-MAXBW-NEXT:    [[TMP16:%.*]] = mul nsw <vscale x 8 x i32> [[TMP13]], [[TMP14]]
--; CHECK-SVE-MAXBW-NEXT:    [[TMP17:%.*]] = sub <vscale x 8 x i32> [[VEC_PHI]], [[TMP16]]
--; CHECK-SVE-MAXBW-NEXT:    [[TMP18:%.*]] = mul nsw <vscale x 8 x i32> [[TMP13]], [[TMP15]]
--; CHECK-SVE-MAXBW-NEXT:    [[TMP19]] = sub <vscale x 8 x i32> [[TMP17]], [[TMP18]]
--; CHECK-SVE-MAXBW-NEXT:    [[INDEX_NEXT]] = add nuw i64 [[INDEX]], [[TMP5]]
--; CHECK-SVE-MAXBW-NEXT:    [[TMP20:%.*]] = icmp eq i64 [[INDEX_NEXT]], [[N_VEC]]
--; CHECK-SVE-MAXBW-NEXT:    br i1 [[TMP20]], label [[MIDDLE_BLOCK:%.*]], label [[VECTOR_BODY]], !llvm.loop [[LOOP10:![0-9]+]]
--; CHECK-SVE-MAXBW:       middle.block:
--; CHECK-SVE-MAXBW-NEXT:    [[TMP21:%.*]] = call i32 @llvm.vector.reduce.add.nxv8i32(<vscale x 8 x i32> [[TMP19]])
--; CHECK-SVE-MAXBW-NEXT:    [[CMP_N:%.*]] = icmp eq i64 [[WIDE_TRIP_COUNT]], [[N_VEC]]
--; CHECK-SVE-MAXBW-NEXT:    br i1 [[CMP_N]], label [[FOR_COND_CLEANUP:%.*]], label [[SCALAR_PH]]
--;
--entry:
--  %cmp28.not = icmp ult i32 %N, 2
--  %div27 = lshr i32 %N, 1
--  %wide.trip.count = zext nneg i32 %div27 to i64
--  br label %for.body
--
--for.cond.cleanup:                                 ; preds = %for.cond.cleanup.loopexit, %entry
--  %res.0.lcssa = phi i32 [ %sub.2, %for.body ]
--  ret i32 %res.0.lcssa
--
--for.body:                                         ; preds = %for.body.preheader, %for.body
--  %indvars.iv = phi i64 [ 0, %entry ], [ %indvars.iv.next, %for.body ]
--  %res = phi i32 [ 0, %entry ], [ %sub.2, %for.body ]
--
--  %a.ptr = getelementptr inbounds nuw i8, ptr %a, i64 %indvars.iv
--  %b.ptr = getelementptr inbounds nuw i8, ptr %b, i64 %indvars.iv
--  %c.ptr = getelementptr inbounds nuw i8, ptr %c, i64 %indvars.iv
--  %a.val = load i8, ptr %a.ptr, align 1
--  %b.val = load i8, ptr %b.ptr, align 1
--  %c.val = load i8, ptr %c.ptr, align 1
--
--  %a.ext = sext i8 %a.val to i32
--  %b.ext = sext i8 %b.val to i32
--  %c.ext = sext i8 %c.val to i32
--
--  %mul.ab = mul nsw i32 %a.ext, %b.ext
--  %sub = sub nsw i32 %res, %mul.ab
--  %mul.ac = mul nsw i32 %a.ext, %c.ext
--  %sub.2 = sub i32 %sub, %mul.ac
--  %indvars.iv.next = add nuw nsw i64 %indvars.iv, 1
--  %exitcond.not = icmp eq i64 %indvars.iv.next, %wide.trip.count
--  br i1 %exitcond.not, label %for.cond.cleanup, label %for.body, !loop !1
--}
--
--define i32 @chained_partial_reduce_add_add_add(ptr %a, ptr %b, ptr %c, i32 %N) #0 {
--; CHECK-NEON-LABEL: define i32 @chained_partial_reduce_add_add_add(
--; CHECK-NEON-SAME: ptr [[A:%.*]], ptr [[B:%.*]], ptr [[C:%.*]], i32 [[N:%.*]]) #[[ATTR0]] {
--; CHECK-NEON-NEXT:  entry:
--; CHECK-NEON-NEXT:    [[CMP28_NOT:%.*]] = icmp ult i32 [[N]], 2
--; CHECK-NEON-NEXT:    [[DIV27:%.*]] = lshr i32 [[N]], 1
--; CHECK-NEON-NEXT:    [[WIDE_TRIP_COUNT:%.*]] = zext nneg i32 [[DIV27]] to i64
--; CHECK-NEON-NEXT:    [[MIN_ITERS_CHECK:%.*]] = icmp ult i64 [[WIDE_TRIP_COUNT]], 16
--; CHECK-NEON-NEXT:    br i1 [[MIN_ITERS_CHECK]], label [[SCALAR_PH:%.*]], label [[VECTOR_PH:%.*]]
--; CHECK-NEON:       vector.ph:
--; CHECK-NEON-NEXT:    [[N_MOD_VF:%.*]] = urem i64 [[WIDE_TRIP_COUNT]], 16
--; CHECK-NEON-NEXT:    [[N_VEC:%.*]] = sub i64 [[WIDE_TRIP_COUNT]], [[N_MOD_VF]]
--; CHECK-NEON-NEXT:    br label [[VECTOR_BODY:%.*]]
--; CHECK-NEON:       vector.body:
--; CHECK-NEON-NEXT:    [[INDEX:%.*]] = phi i64 [ 0, [[VECTOR_PH]] ], [ [[INDEX_NEXT:%.*]], [[VECTOR_BODY]] ]
--; CHECK-NEON-NEXT:    [[VEC_PHI:%.*]] = phi <4 x i32> [ zeroinitializer, [[VECTOR_PH]] ], [ [[PARTIAL_REDUCE4:%.*]], [[VECTOR_BODY]] ]
--; CHECK-NEON-NEXT:    [[TMP0:%.*]] = add i64 [[INDEX]], 0
--; CHECK-NEON-NEXT:    [[TMP1:%.*]] = getelementptr inbounds nuw i8, ptr [[A]], i64 [[TMP0]]
--; CHECK-NEON-NEXT:    [[TMP2:%.*]] = getelementptr inbounds nuw i8, ptr [[B]], i64 [[TMP0]]
--; CHECK-NEON-NEXT:    [[TMP3:%.*]] = getelementptr inbounds nuw i8, ptr [[C]], i64 [[TMP0]]
--; CHECK-NEON-NEXT:    [[TMP4:%.*]] = getelementptr inbounds nuw i8, ptr [[TMP1]], i32 0
--; CHECK-NEON-NEXT:    [[WIDE_LOAD:%.*]] = load <16 x i8>, ptr [[TMP4]], align 1
--; CHECK-NEON-NEXT:    [[TMP5:%.*]] = getelementptr inbounds nuw i8, ptr [[TMP2]], i32 0
--; CHECK-NEON-NEXT:    [[WIDE_LOAD1:%.*]] = load <16 x i8>, ptr [[TMP5]], align 1
--; CHECK-NEON-NEXT:    [[TMP6:%.*]] = getelementptr inbounds nuw i8, ptr [[TMP3]], i32 0
--; CHECK-NEON-NEXT:    [[WIDE_LOAD2:%.*]] = load <16 x i8>, ptr [[TMP6]], align 1
--; CHECK-NEON-NEXT:    [[TMP7:%.*]] = sext <16 x i8> [[WIDE_LOAD]] to <16 x i32>
--; CHECK-NEON-NEXT:    [[TMP8:%.*]] = sext <16 x i8> [[WIDE_LOAD1]] to <16 x i32>
--; CHECK-NEON-NEXT:    [[TMP9:%.*]] = sext <16 x i8> [[WIDE_LOAD2]] to <16 x i32>
--; CHECK-NEON-NEXT:    [[TMP10:%.*]] = mul nsw <16 x i32> [[TMP7]], [[TMP8]]
--; CHECK-NEON-NEXT:    [[PARTIAL_REDUCE:%.*]] = call <4 x i32> @llvm.experimental.vector.partial.reduce.add.v4i32.v16i32(<4 x i32> [[VEC_PHI]], <16 x i32> [[TMP10]])
--; CHECK-NEON-NEXT:    [[TMP11:%.*]] = mul nsw <16 x i32> [[TMP7]], [[TMP9]]
--; CHECK-NEON-NEXT:    [[PARTIAL_REDUCE3:%.*]] = call <4 x i32> @llvm.experimental.vector.partial.reduce.add.v4i32.v16i32(<4 x i32> [[PARTIAL_REDUCE]], <16 x i32> [[TMP11]])
--; CHECK-NEON-NEXT:    [[TMP12:%.*]] = mul nsw <16 x i32> [[TMP8]], [[TMP9]]
--; CHECK-NEON-NEXT:    [[PARTIAL_REDUCE4]] = call <4 x i32> @llvm.experimental.vector.partial.reduce.add.v4i32.v16i32(<4 x i32> [[PARTIAL_REDUCE3]], <16 x i32> [[TMP12]])
--; CHECK-NEON-NEXT:    [[INDEX_NEXT]] = add nuw i64 [[INDEX]], 16
--; CHECK-NEON-NEXT:    [[TMP13:%.*]] = icmp eq i64 [[INDEX_NEXT]], [[N_VEC]]
--; CHECK-NEON-NEXT:    br i1 [[TMP13]], label [[MIDDLE_BLOCK:%.*]], label [[VECTOR_BODY]], !llvm.loop [[LOOP12:![0-9]+]]
--; CHECK-NEON:       middle.block:
--; CHECK-NEON-NEXT:    [[TMP14:%.*]] = call i32 @llvm.vector.reduce.add.v4i32(<4 x i32> [[PARTIAL_REDUCE4]])
--; CHECK-NEON-NEXT:    [[CMP_N:%.*]] = icmp eq i64 [[WIDE_TRIP_COUNT]], [[N_VEC]]
--; CHECK-NEON-NEXT:    br i1 [[CMP_N]], label [[FOR_COND_CLEANUP:%.*]], label [[SCALAR_PH]]
--;
--; CHECK-SVE-LABEL: define i32 @chained_partial_reduce_add_add_add(
--; CHECK-SVE-SAME: ptr [[A:%.*]], ptr [[B:%.*]], ptr [[C:%.*]], i32 [[N:%.*]]) #[[ATTR0]] {
--; CHECK-SVE-NEXT:  entry:
--; CHECK-SVE-NEXT:    [[CMP28_NOT:%.*]] = icmp ult i32 [[N]], 2
--; CHECK-SVE-NEXT:    [[DIV27:%.*]] = lshr i32 [[N]], 1
--; CHECK-SVE-NEXT:    [[WIDE_TRIP_COUNT:%.*]] = zext nneg i32 [[DIV27]] to i64
--; CHECK-SVE-NEXT:    [[TMP0:%.*]] = call i64 @llvm.vscale.i64()
--; CHECK-SVE-NEXT:    [[TMP1:%.*]] = mul i64 [[TMP0]], 4
--; CHECK-SVE-NEXT:    [[MIN_ITERS_CHECK:%.*]] = icmp ult i64 [[WIDE_TRIP_COUNT]], [[TMP1]]
--; CHECK-SVE-NEXT:    br i1 [[MIN_ITERS_CHECK]], label [[SCALAR_PH:%.*]], label [[VECTOR_PH:%.*]]
--; CHECK-SVE:       vector.ph:
--; CHECK-SVE-NEXT:    [[TMP2:%.*]] = call i64 @llvm.vscale.i64()
--; CHECK-SVE-NEXT:    [[TMP3:%.*]] = mul i64 [[TMP2]], 4
--; CHECK-SVE-NEXT:    [[N_MOD_VF:%.*]] = urem i64 [[WIDE_TRIP_COUNT]], [[TMP3]]
--; CHECK-SVE-NEXT:    [[N_VEC:%.*]] = sub i64 [[WIDE_TRIP_COUNT]], [[N_MOD_VF]]
--; CHECK-SVE-NEXT:    [[TMP4:%.*]] = call i64 @llvm.vscale.i64()
--; CHECK-SVE-NEXT:    [[TMP5:%.*]] = mul i64 [[TMP4]], 4
--; CHECK-SVE-NEXT:    br label [[VECTOR_BODY:%.*]]
--; CHECK-SVE:       vector.body:
--; CHECK-SVE-NEXT:    [[INDEX:%.*]] = phi i64 [ 0, [[VECTOR_PH]] ], [ [[INDEX_NEXT:%.*]], [[VECTOR_BODY]] ]
--; CHECK-SVE-NEXT:    [[VEC_PHI:%.*]] = phi <vscale x 4 x i32> [ zeroinitializer, [[VECTOR_PH]] ], [ [[TMP21:%.*]], [[VECTOR_BODY]] ]
--; CHECK-SVE-NEXT:    [[TMP6:%.*]] = add i64 [[INDEX]], 0
--; CHECK-SVE-NEXT:    [[TMP7:%.*]] = getelementptr inbounds nuw i8, ptr [[A]], i64 [[TMP6]]
--; CHECK-SVE-NEXT:    [[TMP8:%.*]] = getelementptr inbounds nuw i8, ptr [[B]], i64 [[TMP6]]
--; CHECK-SVE-NEXT:    [[TMP9:%.*]] = getelementptr inbounds nuw i8, ptr [[C]], i64 [[TMP6]]
--; CHECK-SVE-NEXT:    [[TMP10:%.*]] = getelementptr inbounds nuw i8, ptr [[TMP7]], i32 0
--; CHECK-SVE-NEXT:    [[WIDE_LOAD:%.*]] = load <vscale x 4 x i8>, ptr [[TMP10]], align 1
--; CHECK-SVE-NEXT:    [[TMP11:%.*]] = getelementptr inbounds nuw i8, ptr [[TMP8]], i32 0
--; CHECK-SVE-NEXT:    [[WIDE_LOAD1:%.*]] = load <vscale x 4 x i8>, ptr [[TMP11]], align 1
--; CHECK-SVE-NEXT:    [[TMP12:%.*]] = getelementptr inbounds nuw i8, ptr [[TMP9]], i32 0
--; CHECK-SVE-NEXT:    [[WIDE_LOAD2:%.*]] = load <vscale x 4 x i8>, ptr [[TMP12]], align 1
--; CHECK-SVE-NEXT:    [[TMP13:%.*]] = sext <vscale x 4 x i8> [[WIDE_LOAD]] to <vscale x 4 x i32>
--; CHECK-SVE-NEXT:    [[TMP14:%.*]] = sext <vscale x 4 x i8> [[WIDE_LOAD1]] to <vscale x 4 x i32>
--; CHECK-SVE-NEXT:    [[TMP15:%.*]] = sext <vscale x 4 x i8> [[WIDE_LOAD2]] to <vscale x 4 x i32>
--; CHECK-SVE-NEXT:    [[TMP16:%.*]] = mul nsw <vscale x 4 x i32> [[TMP13]], [[TMP14]]
--; CHECK-SVE-NEXT:    [[TMP17:%.*]] = add <vscale x 4 x i32> [[VEC_PHI]], [[TMP16]]
--; CHECK-SVE-NEXT:    [[TMP18:%.*]] = mul nsw <vscale x 4 x i32> [[TMP13]], [[TMP15]]
--; CHECK-SVE-NEXT:    [[TMP19:%.*]] = add <vscale x 4 x i32> [[TMP17]], [[TMP18]]
--; CHECK-SVE-NEXT:    [[TMP20:%.*]] = mul nsw <vscale x 4 x i32> [[TMP14]], [[TMP15]]
--; CHECK-SVE-NEXT:    [[TMP21]] = add <vscale x 4 x i32> [[TMP19]], [[TMP20]]
--; CHECK-SVE-NEXT:    [[INDEX_NEXT]] = add nuw i64 [[INDEX]], [[TMP5]]
--; CHECK-SVE-NEXT:    [[TMP22:%.*]] = icmp eq i64 [[INDEX_NEXT]], [[N_VEC]]
--; CHECK-SVE-NEXT:    br i1 [[TMP22]], label [[MIDDLE_BLOCK:%.*]], label [[VECTOR_BODY]], !llvm.loop [[LOOP12:![0-9]+]]
--; CHECK-SVE:       middle.block:
--; CHECK-SVE-NEXT:    [[TMP23:%.*]] = call i32 @llvm.vector.reduce.add.nxv4i32(<vscale x 4 x i32> [[TMP21]])
--; CHECK-SVE-NEXT:    [[CMP_N:%.*]] = icmp eq i64 [[WIDE_TRIP_COUNT]], [[N_VEC]]
--; CHECK-SVE-NEXT:    br i1 [[CMP_N]], label [[FOR_COND_CLEANUP:%.*]], label [[SCALAR_PH]]
--;
--; CHECK-SVE-MAXBW-LABEL: define i32 @chained_partial_reduce_add_add_add(
--; CHECK-SVE-MAXBW-SAME: ptr [[A:%.*]], ptr [[B:%.*]], ptr [[C:%.*]], i32 [[N:%.*]]) #[[ATTR0]] {
--; CHECK-SVE-MAXBW-NEXT:  entry:
--; CHECK-SVE-MAXBW-NEXT:    [[CMP28_NOT:%.*]] = icmp ult i32 [[N]], 2
--; CHECK-SVE-MAXBW-NEXT:    [[DIV27:%.*]] = lshr i32 [[N]], 1
--; CHECK-SVE-MAXBW-NEXT:    [[WIDE_TRIP_COUNT:%.*]] = zext nneg i32 [[DIV27]] to i64
--; CHECK-SVE-MAXBW-NEXT:    [[TMP0:%.*]] = call i64 @llvm.vscale.i64()
--; CHECK-SVE-MAXBW-NEXT:    [[TMP1:%.*]] = mul i64 [[TMP0]], 16
--; CHECK-SVE-MAXBW-NEXT:    [[MIN_ITERS_CHECK:%.*]] = icmp ult i64 [[WIDE_TRIP_COUNT]], [[TMP1]]
--; CHECK-SVE-MAXBW-NEXT:    br i1 [[MIN_ITERS_CHECK]], label [[SCALAR_PH:%.*]], label [[VECTOR_PH:%.*]]
--; CHECK-SVE-MAXBW:       vector.ph:
--; CHECK-SVE-MAXBW-NEXT:    [[TMP2:%.*]] = call i64 @llvm.vscale.i64()
--; CHECK-SVE-MAXBW-NEXT:    [[TMP3:%.*]] = mul i64 [[TMP2]], 16
--; CHECK-SVE-MAXBW-NEXT:    [[N_MOD_VF:%.*]] = urem i64 [[WIDE_TRIP_COUNT]], [[TMP3]]
--; CHECK-SVE-MAXBW-NEXT:    [[N_VEC:%.*]] = sub i64 [[WIDE_TRIP_COUNT]], [[N_MOD_VF]]
--; CHECK-SVE-MAXBW-NEXT:    [[TMP4:%.*]] = call i64 @llvm.vscale.i64()
--; CHECK-SVE-MAXBW-NEXT:    [[TMP5:%.*]] = mul i64 [[TMP4]], 16
--; CHECK-SVE-MAXBW-NEXT:    br label [[VECTOR_BODY:%.*]]
--; CHECK-SVE-MAXBW:       vector.body:
--; CHECK-SVE-MAXBW-NEXT:    [[INDEX:%.*]] = phi i64 [ 0, [[VECTOR_PH]] ], [ [[INDEX_NEXT:%.*]], [[VECTOR_BODY]] ]
--; CHECK-SVE-MAXBW-NEXT:    [[VEC_PHI:%.*]] = phi <vscale x 4 x i32> [ zeroinitializer, [[VECTOR_PH]] ], [ [[PARTIAL_REDUCE4:%.*]], [[VECTOR_BODY]] ]
--; CHECK-SVE-MAXBW-NEXT:    [[TMP6:%.*]] = add i64 [[INDEX]], 0
--; CHECK-SVE-MAXBW-NEXT:    [[TMP7:%.*]] = getelementptr inbounds nuw i8, ptr [[A]], i64 [[TMP6]]
--; CHECK-SVE-MAXBW-NEXT:    [[TMP8:%.*]] = getelementptr inbounds nuw i8, ptr [[B]], i64 [[TMP6]]
--; CHECK-SVE-MAXBW-NEXT:    [[TMP9:%.*]] = getelementptr inbounds nuw i8, ptr [[C]], i64 [[TMP6]]
--; CHECK-SVE-MAXBW-NEXT:    [[TMP10:%.*]] = getelementptr inbounds nuw i8, ptr [[TMP7]], i32 0
--; CHECK-SVE-MAXBW-NEXT:    [[WIDE_LOAD:%.*]] = load <vscale x 16 x i8>, ptr [[TMP10]], align 1
--; CHECK-SVE-MAXBW-NEXT:    [[TMP11:%.*]] = getelementptr inbounds nuw i8, ptr [[TMP8]], i32 0
--; CHECK-SVE-MAXBW-NEXT:    [[WIDE_LOAD1:%.*]] = load <vscale x 16 x i8>, ptr [[TMP11]], align 1
--; CHECK-SVE-MAXBW-NEXT:    [[TMP12:%.*]] = getelementptr inbounds nuw i8, ptr [[TMP9]], i32 0
--; CHECK-SVE-MAXBW-NEXT:    [[WIDE_LOAD2:%.*]] = load <vscale x 16 x i8>, ptr [[TMP12]], align 1
--; CHECK-SVE-MAXBW-NEXT:    [[TMP13:%.*]] = sext <vscale x 16 x i8> [[WIDE_LOAD]] to <vscale x 16 x i32>
--; CHECK-SVE-MAXBW-NEXT:    [[TMP14:%.*]] = sext <vscale x 16 x i8> [[WIDE_LOAD1]] to <vscale x 16 x i32>
--; CHECK-SVE-MAXBW-NEXT:    [[TMP15:%.*]] = sext <vscale x 16 x i8> [[WIDE_LOAD2]] to <vscale x 16 x i32>
--; CHECK-SVE-MAXBW-NEXT:    [[TMP16:%.*]] = mul nsw <vscale x 16 x i32> [[TMP13]], [[TMP14]]
--; CHECK-SVE-MAXBW-NEXT:    [[PARTIAL_REDUCE:%.*]] = call <vscale x 4 x i32> @llvm.experimental.vector.partial.reduce.add.nxv4i32.nxv16i32(<vscale x 4 x i32> [[VEC_PHI]], <vscale x 16 x i32> [[TMP16]])
--; CHECK-SVE-MAXBW-NEXT:    [[TMP17:%.*]] = mul nsw <vscale x 16 x i32> [[TMP13]], [[TMP15]]
--; CHECK-SVE-MAXBW-NEXT:    [[PARTIAL_REDUCE3:%.*]] = call <vscale x 4 x i32> @llvm.experimental.vector.partial.reduce.add.nxv4i32.nxv16i32(<vscale x 4 x i32> [[PARTIAL_REDUCE]], <vscale x 16 x i32> [[TMP17]])
--; CHECK-SVE-MAXBW-NEXT:    [[TMP18:%.*]] = mul nsw <vscale x 16 x i32> [[TMP14]], [[TMP15]]
--; CHECK-SVE-MAXBW-NEXT:    [[PARTIAL_REDUCE4]] = call <vscale x 4 x i32> @llvm.experimental.vector.partial.reduce.add.nxv4i32.nxv16i32(<vscale x 4 x i32> [[PARTIAL_REDUCE3]], <vscale x 16 x i32> [[TMP18]])
--; CHECK-SVE-MAXBW-NEXT:    [[INDEX_NEXT]] = add nuw i64 [[INDEX]], [[TMP5]]
--; CHECK-SVE-MAXBW-NEXT:    [[TMP19:%.*]] = icmp eq i64 [[INDEX_NEXT]], [[N_VEC]]
--; CHECK-SVE-MAXBW-NEXT:    br i1 [[TMP19]], label [[MIDDLE_BLOCK:%.*]], label [[VECTOR_BODY]], !llvm.loop [[LOOP12:![0-9]+]]
--; CHECK-SVE-MAXBW:       middle.block:
--; CHECK-SVE-MAXBW-NEXT:    [[TMP23:%.*]] = call i32 @llvm.vector.reduce.add.nxv4i32(<vscale x 4 x i32> [[PARTIAL_REDUCE4]])
--; CHECK-SVE-MAXBW-NEXT:    [[CMP_N:%.*]] = icmp eq i64 [[WIDE_TRIP_COUNT]], [[N_VEC]]
--; CHECK-SVE-MAXBW-NEXT:    br i1 [[CMP_N]], label [[FOR_COND_CLEANUP:%.*]], label [[SCALAR_PH]]
--;
--entry:
--  %cmp28.not = icmp ult i32 %N, 2
--  %div27 = lshr i32 %N, 1
--  %wide.trip.count = zext nneg i32 %div27 to i64
--  br label %for.body
--
--for.cond.cleanup:                                 ; preds = %for.cond.cleanup.loopexit, %entry
--  %res.0.lcssa = phi i32 [ %sub.2, %for.body ]
--  ret i32 %res.0.lcssa
--
--for.body:                                         ; preds = %for.body.preheader, %for.body
--  %indvars.iv = phi i64 [ 0, %entry ], [ %indvars.iv.next, %for.body ]
--  %res = phi i32 [ 0, %entry ], [ %sub.2, %for.body ]
--
--  %a.ptr = getelementptr inbounds nuw i8, ptr %a, i64 %indvars.iv
--  %b.ptr = getelementptr inbounds nuw i8, ptr %b, i64 %indvars.iv
--  %c.ptr = getelementptr inbounds nuw i8, ptr %c, i64 %indvars.iv
--  %a.val = load i8, ptr %a.ptr, align 1
--  %b.val = load i8, ptr %b.ptr, align 1
--  %c.val = load i8, ptr %c.ptr, align 1
--
--  %a.ext = sext i8 %a.val to i32
--  %b.ext = sext i8 %b.val to i32
--  %c.ext = sext i8 %c.val to i32
--
--  %mul.ab = mul nsw i32 %a.ext, %b.ext
--  %sub = add nsw i32 %res, %mul.ab
--  %mul.ac = mul nsw i32 %a.ext, %c.ext
--  %add = add nsw i32 %sub, %mul.ac
--  %mul.bc = mul nsw i32 %b.ext, %c.ext
--  %sub.2 = add i32 %add, %mul.bc
--  %indvars.iv.next = add nuw nsw i64 %indvars.iv, 1
--  %exitcond.not = icmp eq i64 %indvars.iv.next, %wide.trip.count
--  br i1 %exitcond.not, label %for.cond.cleanup, label %for.body, !loop !1
--}
--
--define i32 @chained_partial_reduce_sub_add_sub(ptr %a, ptr %b, ptr %c, i32 %N) #0 {
--; CHECK-NEON-LABEL: define i32 @chained_partial_reduce_sub_add_sub(
--; CHECK-NEON-SAME: ptr [[A:%.*]], ptr [[B:%.*]], ptr [[C:%.*]], i32 [[N:%.*]]) #[[ATTR0]] {
--; CHECK-NEON-NEXT:  entry:
--; CHECK-NEON-NEXT:    [[CMP28_NOT:%.*]] = icmp ult i32 [[N]], 2
--; CHECK-NEON-NEXT:    [[DIV27:%.*]] = lshr i32 [[N]], 1
--; CHECK-NEON-NEXT:    [[WIDE_TRIP_COUNT:%.*]] = zext nneg i32 [[DIV27]] to i64
--; CHECK-NEON-NEXT:    [[MIN_ITERS_CHECK:%.*]] = icmp ult i64 [[WIDE_TRIP_COUNT]], 16
--; CHECK-NEON-NEXT:    br i1 [[MIN_ITERS_CHECK]], label [[SCALAR_PH:%.*]], label [[VECTOR_PH:%.*]]
--; CHECK-NEON:       vector.ph:
--; CHECK-NEON-NEXT:    [[N_MOD_VF:%.*]] = urem i64 [[WIDE_TRIP_COUNT]], 16
--; CHECK-NEON-NEXT:    [[N_VEC:%.*]] = sub i64 [[WIDE_TRIP_COUNT]], [[N_MOD_VF]]
--; CHECK-NEON-NEXT:    br label [[VECTOR_BODY:%.*]]
--; CHECK-NEON:       vector.body:
--; CHECK-NEON-NEXT:    [[INDEX:%.*]] = phi i64 [ 0, [[VECTOR_PH]] ], [ [[INDEX_NEXT:%.*]], [[VECTOR_BODY]] ]
--; CHECK-NEON-NEXT:    [[VEC_PHI:%.*]] = phi <16 x i32> [ zeroinitializer, [[VECTOR_PH]] ], [ [[TMP15:%.*]], [[VECTOR_BODY]] ]
--; CHECK-NEON-NEXT:    [[TMP0:%.*]] = add i64 [[INDEX]], 0
--; CHECK-NEON-NEXT:    [[TMP1:%.*]] = getelementptr inbounds nuw i8, ptr [[A]], i64 [[TMP0]]
--; CHECK-NEON-NEXT:    [[TMP2:%.*]] = getelementptr inbounds nuw i8, ptr [[B]], i64 [[TMP0]]
--; CHECK-NEON-NEXT:    [[TMP3:%.*]] = getelementptr inbounds nuw i8, ptr [[C]], i64 [[TMP0]]
--; CHECK-NEON-NEXT:    [[TMP4:%.*]] = getelementptr inbounds nuw i8, ptr [[TMP1]], i32 0
--; CHECK-NEON-NEXT:    [[WIDE_LOAD:%.*]] = load <16 x i8>, ptr [[TMP4]], align 1
--; CHECK-NEON-NEXT:    [[TMP5:%.*]] = getelementptr inbounds nuw i8, ptr [[TMP2]], i32 0
--; CHECK-NEON-NEXT:    [[WIDE_LOAD1:%.*]] = load <16 x i8>, ptr [[TMP5]], align 1
--; CHECK-NEON-NEXT:    [[TMP6:%.*]] = getelementptr inbounds nuw i8, ptr [[TMP3]], i32 0
--; CHECK-NEON-NEXT:    [[WIDE_LOAD2:%.*]] = load <16 x i8>, ptr [[TMP6]], align 1
--; CHECK-NEON-NEXT:    [[TMP7:%.*]] = sext <16 x i8> [[WIDE_LOAD]] to <16 x i32>
--; CHECK-NEON-NEXT:    [[TMP8:%.*]] = sext <16 x i8> [[WIDE_LOAD1]] to <16 x i32>
--; CHECK-NEON-NEXT:    [[TMP9:%.*]] = sext <16 x i8> [[WIDE_LOAD2]] to <16 x i32>
--; CHECK-NEON-NEXT:    [[TMP10:%.*]] = mul nsw <16 x i32> [[TMP7]], [[TMP8]]
--; CHECK-NEON-NEXT:    [[TMP11:%.*]] = sub <16 x i32> [[VEC_PHI]], [[TMP10]]
--; CHECK-NEON-NEXT:    [[TMP12:%.*]] = mul nsw <16 x i32> [[TMP7]], [[TMP9]]
--; CHECK-NEON-NEXT:    [[TMP13:%.*]] = add <16 x i32> [[TMP11]], [[TMP12]]
--; CHECK-NEON-NEXT:    [[TMP14:%.*]] = mul nsw <16 x i32> [[TMP8]], [[TMP9]]
--; CHECK-NEON-NEXT:    [[TMP15]] = sub <16 x i32> [[TMP13]], [[TMP14]]
--; CHECK-NEON-NEXT:    [[INDEX_NEXT]] = add nuw i64 [[INDEX]], 16
--; CHECK-NEON-NEXT:    [[TMP16:%.*]] = icmp eq i64 [[INDEX_NEXT]], [[N_VEC]]
--; CHECK-NEON-NEXT:    br i1 [[TMP16]], label [[MIDDLE_BLOCK:%.*]], label [[VECTOR_BODY]], !llvm.loop [[LOOP14:![0-9]+]]
--; CHECK-NEON:       middle.block:
--; CHECK-NEON-NEXT:    [[TMP17:%.*]] = call i32 @llvm.vector.reduce.add.v16i32(<16 x i32> [[TMP15]])
--; CHECK-NEON-NEXT:    [[CMP_N:%.*]] = icmp eq i64 [[WIDE_TRIP_COUNT]], [[N_VEC]]
--; CHECK-NEON-NEXT:    br i1 [[CMP_N]], label [[FOR_COND_CLEANUP:%.*]], label [[SCALAR_PH]]
--;
--; CHECK-SVE-LABEL: define i32 @chained_partial_reduce_sub_add_sub(
--; CHECK-SVE-SAME: ptr [[A:%.*]], ptr [[B:%.*]], ptr [[C:%.*]], i32 [[N:%.*]]) #[[ATTR0]] {
--; CHECK-SVE-NEXT:  entry:
--; CHECK-SVE-NEXT:    [[CMP28_NOT:%.*]] = icmp ult i32 [[N]], 2
--; CHECK-SVE-NEXT:    [[DIV27:%.*]] = lshr i32 [[N]], 1
--; CHECK-SVE-NEXT:    [[WIDE_TRIP_COUNT:%.*]] = zext nneg i32 [[DIV27]] to i64
--; CHECK-SVE-NEXT:    [[TMP0:%.*]] = call i64 @llvm.vscale.i64()
--; CHECK-SVE-NEXT:    [[TMP1:%.*]] = mul i64 [[TMP0]], 4
--; CHECK-SVE-NEXT:    [[MIN_ITERS_CHECK:%.*]] = icmp ult i64 [[WIDE_TRIP_COUNT]], [[TMP1]]
--; CHECK-SVE-NEXT:    br i1 [[MIN_ITERS_CHECK]], label [[SCALAR_PH:%.*]], label [[VECTOR_PH:%.*]]
--; CHECK-SVE:       vector.ph:
--; CHECK-SVE-NEXT:    [[TMP2:%.*]] = call i64 @llvm.vscale.i64()
--; CHECK-SVE-NEXT:    [[TMP3:%.*]] = mul i64 [[TMP2]], 4
--; CHECK-SVE-NEXT:    [[N_MOD_VF:%.*]] = urem i64 [[WIDE_TRIP_COUNT]], [[TMP3]]
--; CHECK-SVE-NEXT:    [[N_VEC:%.*]] = sub i64 [[WIDE_TRIP_COUNT]], [[N_MOD_VF]]
--; CHECK-SVE-NEXT:    [[TMP4:%.*]] = call i64 @llvm.vscale.i64()
--; CHECK-SVE-NEXT:    [[TMP5:%.*]] = mul i64 [[TMP4]], 4
--; CHECK-SVE-NEXT:    br label [[VECTOR_BODY:%.*]]
--; CHECK-SVE:       vector.body:
--; CHECK-SVE-NEXT:    [[INDEX:%.*]] = phi i64 [ 0, [[VECTOR_PH]] ], [ [[INDEX_NEXT:%.*]], [[VECTOR_BODY]] ]
--; CHECK-SVE-NEXT:    [[VEC_PHI:%.*]] = phi <vscale x 4 x i32> [ zeroinitializer, [[VECTOR_PH]] ], [ [[TMP21:%.*]], [[VECTOR_BODY]] ]
--; CHECK-SVE-NEXT:    [[TMP6:%.*]] = add i64 [[INDEX]], 0
--; CHECK-SVE-NEXT:    [[TMP7:%.*]] = getelementptr inbounds nuw i8, ptr [[A]], i64 [[TMP6]]
--; CHECK-SVE-NEXT:    [[TMP8:%.*]] = getelementptr inbounds nuw i8, ptr [[B]], i64 [[TMP6]]
--; CHECK-SVE-NEXT:    [[TMP9:%.*]] = getelementptr inbounds nuw i8, ptr [[C]], i64 [[TMP6]]
--; CHECK-SVE-NEXT:    [[TMP10:%.*]] = getelementptr inbounds nuw i8, ptr [[TMP7]], i32 0
--; CHECK-SVE-NEXT:    [[WIDE_LOAD:%.*]] = load <vscale x 4 x i8>, ptr [[TMP10]], align 1
--; CHECK-SVE-NEXT:    [[TMP11:%.*]] = getelementptr inbounds nuw i8, ptr [[TMP8]], i32 0
--; CHECK-SVE-NEXT:    [[WIDE_LOAD1:%.*]] = load <vscale x 4 x i8>, ptr [[TMP11]], align 1
--; CHECK-SVE-NEXT:    [[TMP12:%.*]] = getelementptr inbounds nuw i8, ptr [[TMP9]], i32 0
--; CHECK-SVE-NEXT:    [[WIDE_LOAD2:%.*]] = load <vscale x 4 x i8>, ptr [[TMP12]], align 1
--; CHECK-SVE-NEXT:    [[TMP13:%.*]] = sext <vscale x 4 x i8> [[WIDE_LOAD]] to <vscale x 4 x i32>
--; CHECK-SVE-NEXT:    [[TMP14:%.*]] = sext <vscale x 4 x i8> [[WIDE_LOAD1]] to <vscale x 4 x i32>
--; CHECK-SVE-NEXT:    [[TMP15:%.*]] = sext <vscale x 4 x i8> [[WIDE_LOAD2]] to <vscale x 4 x i32>
--; CHECK-SVE-NEXT:    [[TMP16:%.*]] = mul nsw <vscale x 4 x i32> [[TMP13]], [[TMP14]]
--; CHECK-SVE-NEXT:    [[TMP17:%.*]] = sub <vscale x 4 x i32> [[VEC_PHI]], [[TMP16]]
--; CHECK-SVE-NEXT:    [[TMP18:%.*]] = mul nsw <vscale x 4 x i32> [[TMP13]], [[TMP15]]
--; CHECK-SVE-NEXT:    [[TMP19:%.*]] = add <vscale x 4 x i32> [[TMP17]], [[TMP18]]
--; CHECK-SVE-NEXT:    [[TMP20:%.*]] = mul nsw <vscale x 4 x i32> [[TMP14]], [[TMP15]]
--; CHECK-SVE-NEXT:    [[TMP21]] = sub <vscale x 4 x i32> [[TMP19]], [[TMP20]]
--; CHECK-SVE-NEXT:    [[INDEX_NEXT]] = add nuw i64 [[INDEX]], [[TMP5]]
--; CHECK-SVE-NEXT:    [[TMP22:%.*]] = icmp eq i64 [[INDEX_NEXT]], [[N_VEC]]
--; CHECK-SVE-NEXT:    br i1 [[TMP22]], label [[MIDDLE_BLOCK:%.*]], label [[VECTOR_BODY]], !llvm.loop [[LOOP14:![0-9]+]]
--; CHECK-SVE:       middle.block:
--; CHECK-SVE-NEXT:    [[TMP23:%.*]] = call i32 @llvm.vector.reduce.add.nxv4i32(<vscale x 4 x i32> [[TMP21]])
--; CHECK-SVE-NEXT:    [[CMP_N:%.*]] = icmp eq i64 [[WIDE_TRIP_COUNT]], [[N_VEC]]
--; CHECK-SVE-NEXT:    br i1 [[CMP_N]], label [[FOR_COND_CLEANUP:%.*]], label [[SCALAR_PH]]
--;
--; CHECK-SVE-MAXBW-LABEL: define i32 @chained_partial_reduce_sub_add_sub(
--; CHECK-SVE-MAXBW-SAME: ptr [[A:%.*]], ptr [[B:%.*]], ptr [[C:%.*]], i32 [[N:%.*]]) #[[ATTR0]] {
--; CHECK-SVE-MAXBW-NEXT:  entry:
--; CHECK-SVE-MAXBW-NEXT:    [[CMP28_NOT:%.*]] = icmp ult i32 [[N]], 2
--; CHECK-SVE-MAXBW-NEXT:    [[DIV27:%.*]] = lshr i32 [[N]], 1
--; CHECK-SVE-MAXBW-NEXT:    [[WIDE_TRIP_COUNT:%.*]] = zext nneg i32 [[DIV27]] to i64
--; CHECK-SVE-MAXBW-NEXT:    [[TMP0:%.*]] = call i64 @llvm.vscale.i64()
--; CHECK-SVE-MAXBW-NEXT:    [[TMP1:%.*]] = mul i64 [[TMP0]], 8
--; CHECK-SVE-MAXBW-NEXT:    [[MIN_ITERS_CHECK:%.*]] = icmp ult i64 [[WIDE_TRIP_COUNT]], [[TMP1]]
--; CHECK-SVE-MAXBW-NEXT:    br i1 [[MIN_ITERS_CHECK]], label [[SCALAR_PH:%.*]], label [[VECTOR_PH:%.*]]
--; CHECK-SVE-MAXBW:       vector.ph:
--; CHECK-SVE-MAXBW-NEXT:    [[TMP2:%.*]] = call i64 @llvm.vscale.i64()
--; CHECK-SVE-MAXBW-NEXT:    [[TMP3:%.*]] = mul i64 [[TMP2]], 8
--; CHECK-SVE-MAXBW-NEXT:    [[N_MOD_VF:%.*]] = urem i64 [[WIDE_TRIP_COUNT]], [[TMP3]]
--; CHECK-SVE-MAXBW-NEXT:    [[N_VEC:%.*]] = sub i64 [[WIDE_TRIP_COUNT]], [[N_MOD_VF]]
--; CHECK-SVE-MAXBW-NEXT:    [[TMP4:%.*]] = call i64 @llvm.vscale.i64()
--; CHECK-SVE-MAXBW-NEXT:    [[TMP5:%.*]] = mul i64 [[TMP4]], 8
--; CHECK-SVE-MAXBW-NEXT:    br label [[VECTOR_BODY:%.*]]
--; CHECK-SVE-MAXBW:       vector.body:
--; CHECK-SVE-MAXBW-NEXT:    [[INDEX:%.*]] = phi i64 [ 0, [[VECTOR_PH]] ], [ [[INDEX_NEXT:%.*]], [[VECTOR_BODY]] ]
--; CHECK-SVE-MAXBW-NEXT:    [[VEC_PHI:%.*]] = phi <vscale x 8 x i32> [ zeroinitializer, [[VECTOR_PH]] ], [ [[TMP21:%.*]], [[VECTOR_BODY]] ]
--; CHECK-SVE-MAXBW-NEXT:    [[TMP6:%.*]] = add i64 [[INDEX]], 0
--; CHECK-SVE-MAXBW-NEXT:    [[TMP7:%.*]] = getelementptr inbounds nuw i8, ptr [[A]], i64 [[TMP6]]
--; CHECK-SVE-MAXBW-NEXT:    [[TMP8:%.*]] = getelementptr inbounds nuw i8, ptr [[B]], i64 [[TMP6]]
--; CHECK-SVE-MAXBW-NEXT:    [[TMP9:%.*]] = getelementptr inbounds nuw i8, ptr [[C]], i64 [[TMP6]]
--; CHECK-SVE-MAXBW-NEXT:    [[TMP10:%.*]] = getelementptr inbounds nuw i8, ptr [[TMP7]], i32 0
--; CHECK-SVE-MAXBW-NEXT:    [[WIDE_LOAD:%.*]] = load <vscale x 8 x i8>, ptr [[TMP10]], align 1
--; CHECK-SVE-MAXBW-NEXT:    [[TMP11:%.*]] = getelementptr inbounds nuw i8, ptr [[TMP8]], i32 0
--; CHECK-SVE-MAXBW-NEXT:    [[WIDE_LOAD1:%.*]] = load <vscale x 8 x i8>, ptr [[TMP11]], align 1
--; CHECK-SVE-MAXBW-NEXT:    [[TMP12:%.*]] = getelementptr inbounds nuw i8, ptr [[TMP9]], i32 0
--; CHECK-SVE-MAXBW-NEXT:    [[WIDE_LOAD2:%.*]] = load <vscale x 8 x i8>, ptr [[TMP12]], align 1
--; CHECK-SVE-MAXBW-NEXT:    [[TMP13:%.*]] = sext <vscale x 8 x i8> [[WIDE_LOAD]] to <vscale x 8 x i32>
--; CHECK-SVE-MAXBW-NEXT:    [[TMP14:%.*]] = sext <vscale x 8 x i8> [[WIDE_LOAD1]] to <vscale x 8 x i32>
--; CHECK-SVE-MAXBW-NEXT:    [[TMP15:%.*]] = sext <vscale x 8 x i8> [[WIDE_LOAD2]] to <vscale x 8 x i32>
--; CHECK-SVE-MAXBW-NEXT:    [[TMP16:%.*]] = mul nsw <vscale x 8 x i32> [[TMP13]], [[TMP14]]
--; CHECK-SVE-MAXBW-NEXT:    [[TMP17:%.*]] = sub <vscale x 8 x i32> [[VEC_PHI]], [[TMP16]]
--; CHECK-SVE-MAXBW-NEXT:    [[TMP18:%.*]] = mul nsw <vscale x 8 x i32> [[TMP13]], [[TMP15]]
--; CHECK-SVE-MAXBW-NEXT:    [[TMP19:%.*]] = add <vscale x 8 x i32> [[TMP17]], [[TMP18]]
--; CHECK-SVE-MAXBW-NEXT:    [[TMP20:%.*]] = mul nsw <vscale x 8 x i32> [[TMP14]], [[TMP15]]
--; CHECK-SVE-MAXBW-NEXT:    [[TMP21]] = sub <vscale x 8 x i32> [[TMP19]], [[TMP20]]
--; CHECK-SVE-MAXBW-NEXT:    [[INDEX_NEXT]] = add nuw i64 [[INDEX]], [[TMP5]]
--; CHECK-SVE-MAXBW-NEXT:    [[TMP22:%.*]] = icmp eq i64 [[INDEX_NEXT]], [[N_VEC]]
--; CHECK-SVE-MAXBW-NEXT:    br i1 [[TMP22]], label [[MIDDLE_BLOCK:%.*]], label [[VECTOR_BODY]], !llvm.loop [[LOOP14:![0-9]+]]
--; CHECK-SVE-MAXBW:       middle.block:
--; CHECK-SVE-MAXBW-NEXT:    [[TMP23:%.*]] = call i32 @llvm.vector.reduce.add.nxv8i32(<vscale x 8 x i32> [[TMP21]])
--; CHECK-SVE-MAXBW-NEXT:    [[CMP_N:%.*]] = icmp eq i64 [[WIDE_TRIP_COUNT]], [[N_VEC]]
--; CHECK-SVE-MAXBW-NEXT:    br i1 [[CMP_N]], label [[FOR_COND_CLEANUP:%.*]], label [[SCALAR_PH]]
--;
--entry:
--  %cmp28.not = icmp ult i32 %N, 2
--  %div27 = lshr i32 %N, 1
--  %wide.trip.count = zext nneg i32 %div27 to i64
--  br label %for.body
--
--for.cond.cleanup:                                 ; preds = %for.cond.cleanup.loopexit, %entry
--  %res.0.lcssa = phi i32 [ %sub.2, %for.body ]
--  ret i32 %res.0.lcssa
--
--for.body:                                         ; preds = %for.body.preheader, %for.body
--  %indvars.iv = phi i64 [ 0, %entry ], [ %indvars.iv.next, %for.body ]
--  %res = phi i32 [ 0, %entry ], [ %sub.2, %for.body ]
--
--  %a.ptr = getelementptr inbounds nuw i8, ptr %a, i64 %indvars.iv
--  %b.ptr = getelementptr inbounds nuw i8, ptr %b, i64 %indvars.iv
--  %c.ptr = getelementptr inbounds nuw i8, ptr %c, i64 %indvars.iv
--  %a.val = load i8, ptr %a.ptr, align 1
--  %b.val = load i8, ptr %b.ptr, align 1
--  %c.val = load i8, ptr %c.ptr, align 1
--
--  %a.ext = sext i8 %a.val to i32
--  %b.ext = sext i8 %b.val to i32
--  %c.ext = sext i8 %c.val to i32
--
--  %mul.ab = mul nsw i32 %a.ext, %b.ext
--  %sub = sub nsw i32 %res, %mul.ab
--  %mul.ac = mul nsw i32 %a.ext, %c.ext
--  %add = add nsw i32 %sub, %mul.ac
--  %mul.bc = mul nsw i32 %b.ext, %c.ext
--  %sub.2 = sub i32 %add, %mul.bc
--  %indvars.iv.next = add nuw nsw i64 %indvars.iv, 1
--  %exitcond.not = icmp eq i64 %indvars.iv.next, %wide.trip.count
--  br i1 %exitcond.not, label %for.cond.cleanup, label %for.body, !loop !1
--}
--
--attributes #0 = { vscale_range(1,16) }
--
--
--!0 = !{!"llvm.loop.vectorize.scalable.enable", i1 true}
--!1 = distinct !{!0}
-diff -ruN --strip-trailing-cr a/utils/bazel/llvm-project-overlay/clang/BUILD.bazel b/utils/bazel/llvm-project-overlay/clang/BUILD.bazel
---- a/utils/bazel/llvm-project-overlay/clang/BUILD.bazel
-+++ b/utils/bazel/llvm-project-overlay/clang/BUILD.bazel
-@@ -584,6 +584,10 @@
-             "-gen-clang-regular-keyword-attr-info",
-             "include/clang/Basic/RegularKeywordAttrInfo.inc",
-         ),
-+        (
-+            "-gen-cxx11-attribute-info",
-+            "include/clang/Basic/CXX11AttributeInfo.inc",
-+        ),
-     ],
-     tblgen = ":clang-tblgen",
-     td_file = "include/clang/Basic/Attr.td",
+-  // Now we found a bunch of sets of globals used together. We accumulated
+-  // the number of times we encountered the sets (i.e., the number of functions
+-  // that use that exact set of globals). Multiply that by the size of the set
+-  // to give us a crude profitability metric.
+-  llvm::stable_sort(UsedGlobalSets,
+-                    [](const UsedGlobalSet &UGS1, const UsedGlobalSet &UGS2) {
+-                      return UGS1.Globals.count() * UGS1.UsageCount >=
+-                             UGS2.Globals.count() * UGS2.UsageCount;
+-                    });
+-
+   // Starting from the sets with the best (=biggest) profitability, find a
+   // good combination.
+   // The ideal (and expensive) solution can only be found by trying all
+@@ -456,7 +458,7 @@
+   BitVector PickedGlobals(Globals.size());
+   bool Changed = false;
+ 
+-  for (const UsedGlobalSet &UGS : UsedGlobalSets) {
++  for (const UsedGlobalSet &UGS : llvm::reverse(UsedGlobalSets)) {
+     if (UGS.UsageCount == 0)
+       continue;
+     if (PickedGlobals.anyCommon(UGS.Globals))
diff --git a/third_party/llvm/workspace.bzl b/third_party/llvm/workspace.bzl
index 4190ce0..f512ae1 100644
--- a/third_party/llvm/workspace.bzl
+++ b/third_party/llvm/workspace.bzl
@@ -4,8 +4,8 @@ load("//third_party:repo.bzl", "tf_http_archive")
 
 def repo(name):
     """Imports LLVM."""
-    LLVM_COMMIT = "4018317407006b2c632fbb75729de624a2426439"
-    LLVM_SHA256 = "4bed59156733b7a9f6f60c9e89d686bd3dcddf0e4fe23d44073b8867d4528fbf"
+    LLVM_COMMIT = "e2005d1461942539f7533a518aa78017074f6bf9"
+    LLVM_SHA256 = "8de9ea7a3b130f4a00499c15292126aa2b59172b1d6a0911fae46412f106af2e"
 
     tf_http_archive(
         name = name,
diff --git a/third_party/stablehlo/temporary.patch b/third_party/stablehlo/temporary.patch
index dcea911..e9cad1d 100755
--- a/third_party/stablehlo/temporary.patch
+++ b/third_party/stablehlo/temporary.patch
@@ -1,15 +1,3 @@
-diff --ruN a/stablehlo/BUILD.bazel b/stablehlo/BUILD.bazel
---- stablehlo/BUILD.bazel
-+++ stablehlo/BUILD.bazel
-@@ -1547,7 +1547,7 @@
-         ),
-     ],
-     tblgen = "@llvm-project//mlir:mlir-tblgen",
--    td_file = "stablehlo/dialect/VhloAttrs.td",
-+    td_file = "stablehlo/dialect/VhloEnums.td",
-     deps = [
-         ":vhlo_ops_td_files",
-     ],
 diff --ruN a/stablehlo/examples/c++/ExampleAdd.cpp b/stablehlo/examples/c++/ExampleAdd.cpp
 --- stablehlo/examples/c++/ExampleAdd.cpp
 +++ stablehlo/examples/c++/ExampleAdd.cpp
@@ -68,462 +56,6 @@ diff --ruN a/stablehlo/stablehlo/conversions/tosa/transforms/StablehloLegalizeTo
      return success();
    }
  };
-diff --ruN a/stablehlo/stablehlo/dialect/AssemblyFormat.cpp b/stablehlo/stablehlo/dialect/AssemblyFormat.cpp
---- stablehlo/stablehlo/dialect/AssemblyFormat.cpp
-+++ stablehlo/stablehlo/dialect/AssemblyFormat.cpp
-@@ -860,6 +860,29 @@
-   return parser.parseSymbolName(target);
- }
- 
-+void printResultAccuracyAttr(AsmPrinter& odsPrinter, APFloat atol, APFloat rtol,
-+                             int64_t ulps, Attribute mode) {
-+  odsPrinter << "<";
-+  if (!atol.isZero()) {
-+    odsPrinter << "atol = ";
-+    odsPrinter.printFloat(atol);
-+    odsPrinter << ", ";
-+  }
-+  if (!rtol.isZero()) {
-+    odsPrinter << "rtol = ";
-+    odsPrinter.printFloat(rtol);
-+    odsPrinter << ", ";
-+  }
-+  if (ulps != 0) {
-+    odsPrinter << "ulps = ";
-+    odsPrinter << ulps;
-+    odsPrinter << ", ";
-+  }
-+  odsPrinter << "mode = ";
-+  odsPrinter.printAttribute(mode);
-+  odsPrinter << ">";
-+}
-+
- void printTypeExtensions(BoundedAttrInterface attr, DialectAsmPrinter& os) {
-   os << "bounds<";
-   llvm::interleaveComma(attr.getBounds(), os,
-diff --ruN a/stablehlo/stablehlo/dialect/AssemblyFormat.h b/stablehlo/stablehlo/dialect/AssemblyFormat.h
---- stablehlo/stablehlo/dialect/AssemblyFormat.h
-+++ stablehlo/stablehlo/dialect/AssemblyFormat.h
-@@ -378,6 +378,65 @@
-   return success();
- }
- 
-+// ResultAccuracyAttr - Custom printing and parsing for ResultAccuracyAttr.
-+//
-+// ResultAccuractAttr ::= `<` OptAtolAccuracy OptRtolAccuracy
-+//                            OptUlpAccuracy  ModeAccuracy `>`
-+// OptAtolAccuracy ::= `atol` `=` APFloat `, ` | eps
-+// OptRtolAccuracy ::= `rtol` `=` APFloat `, ` | eps
-+// OptUlpAccuracy  ::= `ulps` `=` int64_t `, ` | eps
-+// ModeAccuracy    ::= `mode` `=` ResultAccuracyModeAttr
-+void printResultAccuracyAttr(AsmPrinter& odsPrinter, APFloat atol, APFloat rtol,
-+                             int64_t ulps, Attribute mode);
-+
-+template <typename AttrTy, typename ModeTy>
-+Attribute parseResultAccuracyAttr(AsmParser& parser, Type type) {
-+  APFloat resultAtol = APFloat::getZero(APFloat::IEEEdouble());
-+  APFloat resultRtol = APFloat::getZero(APFloat::IEEEdouble());
-+  int64_t resultUlps = 0;
-+
-+  // Parse literal '<'
-+  if (parser.parseLess()) return {};
-+
-+  // OptAtolAccuracy
-+  if (succeeded(parser.parseOptionalKeyword("atol"))) {
-+    double value;
-+    if (parser.parseEqual() || parser.parseFloat(value) || parser.parseComma())
-+      return {};
-+    resultAtol = APFloat(value);
-+  }
-+
-+  // OptRtolAccuracy
-+  if (succeeded(parser.parseOptionalKeyword("rtol"))) {
-+    double value;
-+    if (parser.parseEqual() || parser.parseFloat(value) || parser.parseComma())
-+      return {};
-+    resultRtol = APFloat(value);
-+  }
-+
-+  // OptUlpAccuracy
-+  if (succeeded(parser.parseOptionalKeyword("ulps"))) {
-+    int64_t value;
-+    if (parser.parseEqual() || parser.parseInteger(value) ||
-+        parser.parseComma())
-+      return {};
-+    resultUlps = value;
-+  }
-+
-+  // ModeAccuracy
-+  ModeTy modeAttr;
-+  if (parser.parseKeyword("mode") || parser.parseEqual() ||
-+      parser.parseAttribute(modeAttr)) {
-+    return {};
-+  }
-+
-+  // Parse literal '>'
-+  if (parser.parseGreater()) return {};
-+  return parser.getChecked<AttrTy>(
-+      parser.getCurrentLocation(), parser.getContext(), resultAtol, resultRtol,
-+      resultUlps, modeAttr);
-+}
-+
- }  // namespace hlo
- }  // namespace mlir
- 
-diff --ruN a/stablehlo/stablehlo/dialect/CMakeLists.txt b/stablehlo/stablehlo/dialect/CMakeLists.txt
---- stablehlo/stablehlo/dialect/CMakeLists.txt
-+++ stablehlo/stablehlo/dialect/CMakeLists.txt
-@@ -190,7 +190,7 @@
- set(LLVM_TARGET_DEFINITIONS VhloOps.td)
- mlir_tablegen(VhloAttrs.h.inc -gen-attrdef-decls)
- mlir_tablegen(VhloAttrs.cpp.inc -gen-attrdef-defs)
--set(LLVM_TARGET_DEFINITIONS VhloAttrs.td)
-+set(LLVM_TARGET_DEFINITIONS VhloEnums.td)
- mlir_tablegen(VhloAttrInterfaces.h.inc -gen-attr-interface-decls)
- mlir_tablegen(VhloAttrInterfaces.cpp.inc -gen-attr-interface-defs)
- set(LLVM_TARGET_DEFINITIONS VhloTypes.td)
-diff --ruN a/stablehlo/stablehlo/dialect/StablehloAttrs.td b/stablehlo/stablehlo/dialect/StablehloAttrs.td
---- stablehlo/stablehlo/dialect/StablehloAttrs.td
-+++ stablehlo/stablehlo/dialect/StablehloAttrs.td
-@@ -19,6 +19,7 @@
- 
- include "mlir/IR/OpBase.td"
- include "mlir/IR/TensorEncoding.td"
-+include "stablehlo/dialect/StablehloTypes.td"
- 
- def StableHLO_Dims : ArrayRefParameter<"int64_t", "Dimension"> {
-   let parser = "parseDimSizes($_parser)";
-@@ -209,4 +210,18 @@
-   let hasCustomAssemblyFormat = 1;
- }
- 
-+def StableHLO_ResultAccuracyAttr : AttrDef<StableHLO_Dialect, "ResultAccuracy"> {
-+  let mnemonic = "result_accuracy";
-+  let summary = "The requested accuracy for transcendental unary ops.";
-+  let parameters = (ins
-+      "APFloat":$atol,
-+      "APFloat":$rtol,
-+      "int64_t":$ulps,
-+      StableHLO_ResultAccuracyModeAttr:$mode
-+  );
-+  let hasCustomAssemblyFormat = 1;
-+  let genVerifyDecl = 1;
-+  let constBuilderCall = "ResultAccuracyAttr::get($_builder.getContext(), APFloat(0.0), APFloat(0.0), 0, ResultAccuracyModeAttr::get($_builder.getContext(), $0))";
-+}
-+
- #endif // STABLEHLO_DIALECT_STABLEHLO_ATTRS
-diff --ruN a/stablehlo/stablehlo/dialect/StablehloBytecode.cpp b/stablehlo/stablehlo/dialect/StablehloBytecode.cpp
---- stablehlo/stablehlo/dialect/StablehloBytecode.cpp
-+++ stablehlo/stablehlo/dialect/StablehloBytecode.cpp
-@@ -18,6 +18,7 @@
- #include <cstdint>
- #include <memory>
- 
-+#include "llvm/ADT/APFloat.h"
- #include "llvm/ADT/SmallVector.h"
- #include "llvm/ADT/StringRef.h"
- #include "llvm/ADT/TypeSwitch.h"
-@@ -180,6 +181,18 @@
-   ///     allowImpreciseAccumulation : svarint
-   ///   }
-   kDotAlgorithmAttr = 15,
-+
-+  // ResultAccuracyModeAttr {
-+  //   mode: varint (encoded enum)
-+  // }
-+  kResultAccuracyModeAttr = 16,
-+
-+  // ResultAccuracyAttr {
-+  //   atol: APFloat
-+  //   rtol: APFloat
-+  //   ulps: svarint
-+  // }
-+  kResultAccuracyAttr = 17,
- };
- 
- /// This enum contains marker codes used to indicate which type is
-@@ -241,6 +254,10 @@
-   OutputOperandAliasAttr readOutputOperandAliasAttr(
-       DialectBytecodeReader &reader) const;
-   PrecisionAttr readPrecisionAttr(DialectBytecodeReader &reader) const;
-+  ResultAccuracyAttr readResultAccuracyAttr(
-+      DialectBytecodeReader &reader) const;
-+  ResultAccuracyModeAttr readResultAccuracyModeAttr(
-+      DialectBytecodeReader &reader) const;
-   RngAlgorithmAttr readRngAlgorithmAttr(DialectBytecodeReader &reader) const;
-   RngDistributionAttr readRngDistributionAttr(
-       DialectBytecodeReader &reader) const;
-@@ -264,6 +281,8 @@
-              DialectBytecodeWriter &writer) const;
-   void write(OutputOperandAliasAttr attr, DialectBytecodeWriter &writer) const;
-   void write(PrecisionAttr attr, DialectBytecodeWriter &writer) const;
-+  void write(ResultAccuracyAttr attr, DialectBytecodeWriter &writer) const;
-+  void write(ResultAccuracyModeAttr attr, DialectBytecodeWriter &writer) const;
-   void write(RngAlgorithmAttr attr, DialectBytecodeWriter &writer) const;
-   void write(RngDistributionAttr attr, DialectBytecodeWriter &writer) const;
-   void write(ScatterDimensionNumbersAttr attr,
-@@ -327,6 +346,10 @@
-       return readOutputOperandAliasAttr(reader);
-     case stablehlo_encoding::kPrecisionAttr:
-       return readPrecisionAttr(reader);
-+    case stablehlo_encoding::kResultAccuracyAttr:
-+      return readResultAccuracyAttr(reader);
-+    case stablehlo_encoding::kResultAccuracyModeAttr:
-+      return readResultAccuracyModeAttr(reader);
-     case stablehlo_encoding::kRngAlgorithmAttr:
-       return readRngAlgorithmAttr(reader);
-     case stablehlo_encoding::kRngDistributionAttr:
-@@ -352,13 +375,13 @@
-       .Case<ChannelHandleAttr, ComparisonDirectionAttr, ComparisonTypeAttr,
-             ConvDimensionNumbersAttr, DotAlgorithmAttr, DotDimensionNumbersAttr,
-             FftTypeAttr, GatherDimensionNumbersAttr, OutputOperandAliasAttr,
--            PrecisionAttr, RngAlgorithmAttr, RngDistributionAttr,
--            ScatterDimensionNumbersAttr, TransposeAttr, TypeExtensionsAttr>(
--          [&](auto attr) {
--            LOG_WRITE_CALL;
--            write(attr, writer);
--            return success();
--          })
-+            PrecisionAttr, ResultAccuracyAttr, ResultAccuracyModeAttr,
-+            RngAlgorithmAttr, RngDistributionAttr, ScatterDimensionNumbersAttr,
-+            TransposeAttr, TypeExtensionsAttr>([&](auto attr) {
-+        LOG_WRITE_CALL;
-+        write(attr, writer);
-+        return success();
-+      })
-       .Default([&](Attribute) {
-         LOG_NOT_IMPLEMENTED;
-         return failure();
-@@ -806,6 +829,55 @@
-   }
- }
- 
-+//===----------------------------------------------------------------------===//
-+// ResultAccuracyModeAttr
-+
-+ResultAccuracyModeAttr StablehloBytecodeInterface::readResultAccuracyModeAttr(
-+    DialectBytecodeReader &reader) const {
-+  LOG_READ_CALL;
-+  return hlo::bytecode::readEnumAttribute<ResultAccuracyModeAttr>(
-+      reader, getContext(),
-+      [](uint32_t val) { return symbolizeResultAccuracyMode(val); });
-+}
-+
-+void StablehloBytecodeInterface::write(ResultAccuracyModeAttr attr,
-+                                       DialectBytecodeWriter &writer) const {
-+  writer.writeVarInt(stablehlo_encoding::kResultAccuracyModeAttr);
-+  hlo::bytecode::writeEnumAttribute<ResultAccuracyMode>(attr, writer);
-+}
-+
-+//===----------------------------------------------------------------------===//
-+// ResultAccuracyAttr
-+
-+ResultAccuracyAttr StablehloBytecodeInterface::readResultAccuracyAttr(
-+    DialectBytecodeReader &reader) const {
-+  LOG_READ_CALL;
-+  FailureOr<APFloat> atol;
-+  FailureOr<APFloat> rtol;
-+  int64_t ulps;
-+  ResultAccuracyModeAttr mode;
-+  if (failed(atol =
-+                 reader.readAPFloatWithKnownSemantics(APFloat::IEEEdouble())) ||
-+      failed(rtol =
-+                 reader.readAPFloatWithKnownSemantics(APFloat::IEEEdouble())) ||
-+      failed(reader.readSignedVarInt(ulps)) ||
-+      failed(reader.readAttribute(mode))) {
-+    mlir::emitWarning(mlir::UnknownLoc::get(getContext()))
-+        << "failed to read APFloat for atol";
-+    return ResultAccuracyAttr();
-+  }
-+  return ResultAccuracyAttr::get(getContext(), *atol, *rtol, ulps, mode);
-+}
-+
-+void StablehloBytecodeInterface::write(ResultAccuracyAttr attr,
-+                                       DialectBytecodeWriter &writer) const {
-+  writer.writeVarInt(stablehlo_encoding::kResultAccuracyAttr);
-+  writer.writeAPFloatWithKnownSemantics(attr.getAtol());
-+  writer.writeAPFloatWithKnownSemantics(attr.getRtol());
-+  writer.writeSignedVarInt(attr.getUlps());
-+  writer.writeAttribute(attr.getMode());
-+}
-+
- }  // namespace
- 
- void addBytecodeInterface(StablehloDialect *dialect) {
-diff --ruN a/stablehlo/stablehlo/dialect/StablehloEnums.td b/stablehlo/stablehlo/dialect/StablehloEnums.td
---- stablehlo/stablehlo/dialect/StablehloEnums.td
-+++ stablehlo/stablehlo/dialect/StablehloEnums.td
-@@ -45,6 +45,29 @@
- // TODO(b/129153247) See if it's possible to also validate the size.
- def StableHLO_PrecisionConfigAttr:
-   TypedArrayAttrBase<StableHLO_PrecisionAttr, "Precision Config attribute">;
-+
-+//===----------------------------------------------------------------------===//
-+// Result Accuracy enum definitions.
-+//===----------------------------------------------------------------------===//
-+
-+def STABLEHLO_RESULT_ACCURACY_DEFAULT : I32EnumAttrCase<"DEFAULT", 0>;
-+def STABLEHLO_RESULT_ACCURACY_HIGHEST : I32EnumAttrCase<"HIGHEST", 1>;
-+def STABLEHLO_RESULT_ACCURACY_TOLERANCE: I32EnumAttrCase<"TOLERANCE", 2>;
-+
-+def StableHLO_ResultAccuracyMode : I32EnumAttr<"ResultAccuracyMode",
-+    "XLA result accuracy mode.",
-+    [
-+      STABLEHLO_RESULT_ACCURACY_DEFAULT,
-+      STABLEHLO_RESULT_ACCURACY_HIGHEST,
-+      STABLEHLO_RESULT_ACCURACY_TOLERANCE
-+    ]> {
-+  let genSpecializedAttr = 0;
-+  let cppNamespace = "::mlir::stablehlo";
-+}
-+
-+def StableHLO_ResultAccuracyModeAttr : EnumAttr<StableHLO_Dialect, StableHLO_ResultAccuracyMode, "result_accuracy_mode"> {
-+  let assemblyFormat = "`<` $value `>`";
-+}
- 
- //===----------------------------------------------------------------------===//
- // Fast Fourier Transform Type enum definitions.
-diff --ruN a/stablehlo/stablehlo/dialect/StablehloOps.cpp b/stablehlo/stablehlo/dialect/StablehloOps.cpp
---- stablehlo/stablehlo/dialect/StablehloOps.cpp
-+++ stablehlo/stablehlo/dialect/StablehloOps.cpp
-@@ -792,6 +792,29 @@
-       allowImpreciseAccumulation);
- }
- 
…
-+// CHECK-NEXT: (%[[ARG0:.*]]: {{.*}}, %[[ARG1:.*]]: {{.*}})
-+func.func @type_i2(%arg0: tensor<i2>, %arg1: tensor<i2>) -> tensor<i2> {
-+  // CHECK: "vhlo.add_v1"(%[[ARG0]], %[[ARG1]]) : (!vhlo.tensor_v1<!vhlo.i2_v1>, !vhlo.tensor_v1<!vhlo.i2_v1>) -> !vhlo.tensor_v1<!vhlo.i2_v1>
-+  %0 = "stablehlo.add"(%arg0, %arg1) : (tensor<i2>, tensor<i2>) -> tensor<i2>
-+  func.return %0 : tensor<i2>
-+}
-+
-+// CHECK-LABEL: "type_i4"
-+// CHECK-NEXT: (%[[ARG0:.*]]: {{.*}}, %[[ARG1:.*]]: {{.*}})
-+func.func @type_i4(%arg0: tensor<i4>, %arg1: tensor<i4>) -> tensor<i4> {
-+  // CHECK: "vhlo.add_v1"(%[[ARG0]], %[[ARG1]]) : (!vhlo.tensor_v1<!vhlo.i4_v1>, !vhlo.tensor_v1<!vhlo.i4_v1>) -> !vhlo.tensor_v1<!vhlo.i4_v1>
-+  %0 = "stablehlo.add"(%arg0, %arg1) : (tensor<i4>, tensor<i4>) -> tensor<i4>
-+  func.return %0 : tensor<i4>
-+}
-+
-+// CHECK-LABEL: "type_i8"
-+// CHECK-NEXT: (%[[ARG0:.*]]: {{.*}}, %[[ARG1:.*]]: {{.*}})
-+func.func @type_i8(%arg0: tensor<i8>, %arg1: tensor<i8>) -> tensor<i8> {
-+  // CHECK: "vhlo.add_v1"(%[[ARG0]], %[[ARG1]]) : (!vhlo.tensor_v1<!vhlo.i8_v1>, !vhlo.tensor_v1<!vhlo.i8_v1>) -> !vhlo.tensor_v1<!vhlo.i8_v1>
-+  %0 = "stablehlo.add"(%arg0, %arg1) : (tensor<i8>, tensor<i8>) -> tensor<i8>
-+  func.return %0 : tensor<i8>
-+}
-+
-+// CHECK-LABEL: "type_i16"
-+// CHECK-NEXT: (%[[ARG0:.*]]: {{.*}}, %[[ARG1:.*]]: {{.*}})
-+func.func @type_i16(%arg0: tensor<i16>, %arg1: tensor<i16>) -> tensor<i16> {
-+  // CHECK: "vhlo.add_v1"(%[[ARG0]], %[[ARG1]]) : (!vhlo.tensor_v1<!vhlo.i16_v1>, !vhlo.tensor_v1<!vhlo.i16_v1>) -> !vhlo.tensor_v1<!vhlo.i16_v1>
-+  %0 = "stablehlo.add"(%arg0, %arg1) : (tensor<i16>, tensor<i16>) -> tensor<i16>
-+  func.return %0 : tensor<i16>
-+}
-+
-+// CHECK-LABEL: "type_i32"
-+// CHECK-NEXT: (%[[ARG0:.*]]: {{.*}}, %[[ARG1:.*]]: {{.*}})
-+func.func @type_i32(%arg0: tensor<i32>, %arg1: tensor<i32>) -> tensor<i32> {
-+  // CHECK: "vhlo.add_v1"(%[[ARG0]], %[[ARG1]]) : (!vhlo.tensor_v1<!vhlo.i32_v1>, !vhlo.tensor_v1<!vhlo.i32_v1>) -> !vhlo.tensor_v1<!vhlo.i32_v1>
-+  %0 = "stablehlo.add"(%arg0, %arg1) : (tensor<i32>, tensor<i32>) -> tensor<i32>
-+  func.return %0 : tensor<i32>
-+}
-+
-+// CHECK-LABEL: "type_i64"
-+// CHECK-NEXT: (%[[ARG0:.*]]: {{.*}}, %[[ARG1:.*]]: {{.*}})
-+func.func @type_i64(%arg0: tensor<i64>, %arg1: tensor<i64>) -> tensor<i64> {
-+  // CHECK: "vhlo.add_v1"(%[[ARG0]], %[[ARG1]]) : (!vhlo.tensor_v1<!vhlo.i64_v1>, !vhlo.tensor_v1<!vhlo.i64_v1>) -> !vhlo.tensor_v1<!vhlo.i64_v1>
-+  %0 = "stablehlo.add"(%arg0, %arg1) : (tensor<i64>, tensor<i64>) -> tensor<i64>
-+  func.return %0 : tensor<i64>
-+}
-+
-+// CHECK-LABEL: "type_ui2"
-+// CHECK-NEXT: (%[[ARG0:.*]]: {{.*}}, %[[ARG1:.*]]: {{.*}})
-+func.func @type_ui2(%arg0: tensor<ui2>, %arg1: tensor<ui2>) -> tensor<ui2> {
-+  // CHECK: "vhlo.add_v1"(%[[ARG0]], %[[ARG1]]) : (!vhlo.tensor_v1<!vhlo.ui2_v1>, !vhlo.tensor_v1<!vhlo.ui2_v1>) -> !vhlo.tensor_v1<!vhlo.ui2_v1>
-+  %0 = "stablehlo.add"(%arg0, %arg1) : (tensor<ui2>, tensor<ui2>) -> tensor<ui2>
-+  func.return %0 : tensor<ui2>
-+}
-+
-+// CHECK-LABEL: "type_ui4"
-+// CHECK-NEXT: (%[[ARG0:.*]]: {{.*}}, %[[ARG1:.*]]: {{.*}})
-+func.func @type_ui4(%arg0: tensor<ui4>, %arg1: tensor<ui4>) -> tensor<ui4> {
-+  // CHECK: "vhlo.add_v1"(%[[ARG0]], %[[ARG1]]) : (!vhlo.tensor_v1<!vhlo.ui4_v1>, !vhlo.tensor_v1<!vhlo.ui4_v1>) -> !vhlo.tensor_v1<!vhlo.ui4_v1>
-+  %0 = "stablehlo.add"(%arg0, %arg1) : (tensor<ui4>, tensor<ui4>) -> tensor<ui4>
-+  func.return %0 : tensor<ui4>
-+}
-+
-+// CHECK-LABEL: "type_ui8"
-+// CHECK-NEXT: (%[[ARG0:.*]]: {{.*}}, %[[ARG1:.*]]: {{.*}})
-+func.func @type_ui8(%arg0: tensor<ui8>, %arg1: tensor<ui8>) -> tensor<ui8> {
-+  // CHECK: "vhlo.add_v1"(%[[ARG0]], %[[ARG1]]) : (!vhlo.tensor_v1<!vhlo.ui8_v1>, !vhlo.tensor_v1<!vhlo.ui8_v1>) -> !vhlo.tensor_v1<!vhlo.ui8_v1>
-+  %0 = "stablehlo.add"(%arg0, %arg1) : (tensor<ui8>, tensor<ui8>) -> tensor<ui8>
-+  func.return %0 : tensor<ui8>
-+}
-+
-+// CHECK-LABEL: "type_ui16"
-+// CHECK-NEXT: (%[[ARG0:.*]]: {{.*}}, %[[ARG1:.*]]: {{.*}})
-+func.func @type_ui16(%arg0: tensor<ui16>, %arg1: tensor<ui16>) -> tensor<ui16> {
-+  // CHECK: "vhlo.add_v1"(%[[ARG0]], %[[ARG1]]) : (!vhlo.tensor_v1<!vhlo.ui16_v1>, !vhlo.tensor_v1<!vhlo.ui16_v1>) -> !vhlo.tensor_v1<!vhlo.ui16_v1>
-+  %0 = "stablehlo.add"(%arg0, %arg1) : (tensor<ui16>, tensor<ui16>) -> tensor<ui16>
-+  func.return %0 : tensor<ui16>
-+}
-+
-+// CHECK-LABEL: "type_ui32"
-+// CHECK-NEXT: (%[[ARG0:.*]]: {{.*}}, %[[ARG1:.*]]: {{.*}})
-+func.func @type_ui32(%arg0: tensor<ui32>, %arg1: tensor<ui32>) -> tensor<ui32> {
-+  // CHECK: "vhlo.add_v1"(%[[ARG0]], %[[ARG1]]) : (!vhlo.tensor_v1<!vhlo.ui32_v1>, !vhlo.tensor_v1<!vhlo.ui32_v1>) -> !vhlo.tensor_v1<!vhlo.ui32_v1>
-+  %0 = "stablehlo.add"(%arg0, %arg1) : (tensor<ui32>, tensor<ui32>) -> tensor<ui32>
-+  func.return %0 : tensor<ui32>
-+}
-+
-+// CHECK-LABEL: "type_ui64"
-+// CHECK-NEXT: (%[[ARG0:.*]]: {{.*}}, %[[ARG1:.*]]: {{.*}})
-+func.func @type_ui64(%arg0: tensor<ui64>, %arg1: tensor<ui64>) -> tensor<ui64> {
-+  // CHECK: "vhlo.add_v1"(%[[ARG0]], %[[ARG1]]) : (!vhlo.tensor_v1<!vhlo.ui64_v1>, !vhlo.tensor_v1<!vhlo.ui64_v1>) -> !vhlo.tensor_v1<!vhlo.ui64_v1>
-+  %0 = "stablehlo.add"(%arg0, %arg1) : (tensor<ui64>, tensor<ui64>) -> tensor<ui64>
-+  func.return %0 : tensor<ui64>
-+}
-+
-+// CHECK-LABEL: "type_f4E2M1FN"
-+// CHECK-NEXT: (%[[ARG0:.*]]: {{.*}}, %[[ARG1:.*]]: {{.*}})
-+func.func @type_f4E2M1FN(%arg0: tensor<f4E2M1FN>, %arg1: tensor<f4E2M1FN>) -> tensor<f4E2M1FN> {
-+  // CHECK: "vhlo.add_v1"(%[[ARG0]], %[[ARG1]]) : (!vhlo.tensor_v1<!vhlo.f4E2M1FN_v1>, !vhlo.tensor_v1<!vhlo.f4E2M1FN_v1>) -> !vhlo.tensor_v1<!vhlo.f4E2M1FN_v1>
-+  %0 = "stablehlo.add"(%arg0, %arg1) : (tensor<f4E2M1FN>, tensor<f4E2M1FN>) -> tensor<f4E2M1FN>
-+  func.return %0 : tensor<f4E2M1FN>
-+}
-+
-+// CHECK-LABEL: "type_f6E2M3FN"
-+// CHECK-NEXT: (%[[ARG0:.*]]: {{.*}}, %[[ARG1:.*]]: {{.*}})
-+func.func @type_f6E2M3FN(%arg0: tensor<f6E2M3FN>, %arg1: tensor<f6E2M3FN>) -> tensor<f6E2M3FN> {
-+  // CHECK: "vhlo.add_v1"(%[[ARG0]], %[[ARG1]]) : (!vhlo.tensor_v1<!vhlo.f6E2M3FN_v1>, !vhlo.tensor_v1<!vhlo.f6E2M3FN_v1>) -> !vhlo.tensor_v1<!vhlo.f6E2M3FN_v1>
-+  %0 = "stablehlo.add"(%arg0, %arg1) : (tensor<f6E2M3FN>, tensor<f6E2M3FN>) -> tensor<f6E2M3FN>
-+  func.return %0 : tensor<f6E2M3FN>
-+}
-+
-+// CHECK-LABEL: "type_f6E3M2FN"
-+// CHECK-NEXT: (%[[ARG0:.*]]: {{.*}}, %[[ARG1:.*]]: {{.*}})
-+func.func @type_f6E3M2FN(%arg0: tensor<f6E3M2FN>, %arg1: tensor<f6E3M2FN>) -> tensor<f6E3M2FN> {
-+  // CHECK: "vhlo.add_v1"(%[[ARG0]], %[[ARG1]]) : (!vhlo.tensor_v1<!vhlo.f6E3M2FN_v1>, !vhlo.tensor_v1<!vhlo.f6E3M2FN_v1>) -> !vhlo.tensor_v1<!vhlo.f6E3M2FN_v1>
-+  %0 = "stablehlo.add"(%arg0, %arg1) : (tensor<f6E3M2FN>, tensor<f6E3M2FN>) -> tensor<f6E3M2FN>
-+  func.return %0 : tensor<f6E3M2FN>
-+}
-+
-+// CHECK-LABEL: "type_f8E3M4"
-+// CHECK-NEXT: (%[[ARG0:.*]]: {{.*}}, %[[ARG1:.*]]: {{.*}})
-+func.func @type_f8E3M4(%arg0: tensor<f8E3M4>, %arg1: tensor<f8E3M4>) -> tensor<f8E3M4> {
-+  // CHECK: "vhlo.add_v1"(%[[ARG0]], %[[ARG1]]) : (!vhlo.tensor_v1<!vhlo.f8E3M4_v1>, !vhlo.tensor_v1<!vhlo.f8E3M4_v1>) -> !vhlo.tensor_v1<!vhlo.f8E3M4_v1>
-+  %0 = "stablehlo.add"(%arg0, %arg1) : (tensor<f8E3M4>, tensor<f8E3M4>) -> tensor<f8E3M4>
-+  func.return %0 : tensor<f8E3M4>
-+}
-+
-+// CHECK-LABEL: "type_f8E4M3"
-+// CHECK-NEXT: (%[[ARG0:.*]]: {{.*}}, %[[ARG1:.*]]: {{.*}})
-+func.func @type_f8E4M3(%arg0: tensor<f8E4M3>, %arg1: tensor<f8E4M3>) -> tensor<f8E4M3> {
-+  // CHECK: "vhlo.add_v1"(%[[ARG0]], %[[ARG1]]) : (!vhlo.tensor_v1<!vhlo.f8E4M3_v1>, !vhlo.tensor_v1<!vhlo.f8E4M3_v1>) -> !vhlo.tensor_v1<!vhlo.f8E4M3_v1>
-+  %0 = "stablehlo.add"(%arg0, %arg1) : (tensor<f8E4M3>, tensor<f8E4M3>) -> tensor<f8E4M3>
-+  func.return %0 : tensor<f8E4M3>
-+}
-+
-+// CHECK-LABEL: "type_f8E4M3FN"
-+// CHECK-NEXT: (%[[ARG0:.*]]: {{.*}}, %[[ARG1:.*]]: {{.*}})
-+func.func @type_f8E4M3FN(%arg0: tensor<f8E4M3FN>, %arg1: tensor<f8E4M3FN>) -> tensor<f8E4M3FN> {
-+  // CHECK: "vhlo.add_v1"(%[[ARG0]], %[[ARG1]]) : (!vhlo.tensor_v1<!vhlo.f8E4M3FN_v1>, !vhlo.tensor_v1<!vhlo.f8E4M3FN_v1>) -> !vhlo.tensor_v1<!vhlo.f8E4M3FN_v1>
-+  %0 = "stablehlo.add"(%arg0, %arg1) : (tensor<f8E4M3FN>, tensor<f8E4M3FN>) -> tensor<f8E4M3FN>
-+  func.return %0 : tensor<f8E4M3FN>
-+}
-+
-+// CHECK-LABEL: "type_f8E5M2"
-+// CHECK-NEXT: (%[[ARG0:.*]]: {{.*}}, %[[ARG1:.*]]: {{.*}})
-+func.func @type_f8E5M2(%arg0: tensor<f8E5M2>, %arg1: tensor<f8E5M2>) -> tensor<f8E5M2> {
-+  // CHECK: "vhlo.add_v1"(%[[ARG0]], %[[ARG1]]) : (!vhlo.tensor_v1<!vhlo.f8E5M2_v1>, !vhlo.tensor_v1<!vhlo.f8E5M2_v1>) -> !vhlo.tensor_v1<!vhlo.f8E5M2_v1>
-+  %0 = "stablehlo.add"(%arg0, %arg1) : (tensor<f8E5M2>, tensor<f8E5M2>) -> tensor<f8E5M2>
-+  func.return %0 : tensor<f8E5M2>
-+}
-+
-+// CHECK-LABEL: "type_f8E4M3FNUZ"
-+// CHECK-NEXT: (%[[ARG0:.*]]: {{.*}}, %[[ARG1:.*]]: {{.*}})
-+func.func @type_f8E4M3FNUZ(%arg0: tensor<f8E4M3FNUZ>, %arg1: tensor<f8E4M3FNUZ>) -> tensor<f8E4M3FNUZ> {
-+  // CHECK: "vhlo.add_v1"(%[[ARG0]], %[[ARG1]]) : (!vhlo.tensor_v1<!vhlo.f8E4M3FNUZ_v1>, !vhlo.tensor_v1<!vhlo.f8E4M3FNUZ_v1>) -> !vhlo.tensor_v1<!vhlo.f8E4M3FNUZ_v1>
-+  %0 = "stablehlo.add"(%arg0, %arg1) : (tensor<f8E4M3FNUZ>, tensor<f8E4M3FNUZ>) -> tensor<f8E4M3FNUZ>
-+  func.return %0 : tensor<f8E4M3FNUZ>
-+}
-+
-+// CHECK-LABEL: "type_f8E4M3B11FNUZ"
-+// CHECK-NEXT: (%[[ARG0:.*]]: {{.*}}, %[[ARG1:.*]]: {{.*}})
-+func.func @type_f8E4M3B11FNUZ(%arg0: tensor<f8E4M3B11FNUZ>, %arg1: tensor<f8E4M3B11FNUZ>) -> tensor<f8E4M3B11FNUZ> {
-+  // CHECK: "vhlo.add_v1"(%[[ARG0]], %[[ARG1]]) : (!vhlo.tensor_v1<!vhlo.f8E4M3B11FNUZ_v1>, !vhlo.tensor_v1<!vhlo.f8E4M3B11FNUZ_v1>) -> !vhlo.tensor_v1<!vhlo.f8E4M3B11FNUZ_v1>
-+  %0 = "stablehlo.add"(%arg0, %arg1) : (tensor<f8E4M3B11FNUZ>, tensor<f8E4M3B11FNUZ>) -> tensor<f8E4M3B11FNUZ>
-+  func.return %0 : tensor<f8E4M3B11FNUZ>
-+}
-+
-+// CHECK-LABEL: "type_f8E5M2FNUZ"
-+// CHECK-NEXT: (%[[ARG0:.*]]: {{.*}}, %[[ARG1:.*]]: {{.*}})
-+func.func @type_f8E5M2FNUZ(%arg0: tensor<f8E5M2FNUZ>, %arg1: tensor<f8E5M2FNUZ>) -> tensor<f8E5M2FNUZ> {
-+  // CHECK: "vhlo.add_v1"(%[[ARG0]], %[[ARG1]]) : (!vhlo.tensor_v1<!vhlo.f8E5M2FNUZ_v1>, !vhlo.tensor_v1<!vhlo.f8E5M2FNUZ_v1>) -> !vhlo.tensor_v1<!vhlo.f8E5M2FNUZ_v1>
-+  %0 = "stablehlo.add"(%arg0, %arg1) : (tensor<f8E5M2FNUZ>, tensor<f8E5M2FNUZ>) -> tensor<f8E5M2FNUZ>
-+  func.return %0 : tensor<f8E5M2FNUZ>
-+}
-+
-+// CHECK-LABEL: "type_f8E8M0FNU"
-+// CHECK-NEXT: (%[[ARG0:.*]]: {{.*}}, %[[ARG1:.*]]: {{.*}})
-+func.func @type_f8E8M0FNU(%arg0: tensor<f8E8M0FNU>, %arg1: tensor<f8E8M0FNU>) -> tensor<f8E8M0FNU> {
-+  // CHECK: "vhlo.add_v1"(%[[ARG0]], %[[ARG1]]) : (!vhlo.tensor_v1<!vhlo.f8E8M0FNU_v1>, !vhlo.tensor_v1<!vhlo.f8E8M0FNU_v1>) -> !vhlo.tensor_v1<!vhlo.f8E8M0FNU_v1>
-+  %0 = "stablehlo.add"(%arg0, %arg1) : (tensor<f8E8M0FNU>, tensor<f8E8M0FNU>) -> tensor<f8E8M0FNU>
-+  func.return %0 : tensor<f8E8M0FNU>
-+}
-+
-+// CHECK-LABEL: "type_bf16"
-+// CHECK-NEXT: (%[[ARG0:.*]]: {{.*}}, %[[ARG1:.*]]: {{.*}})
-+func.func @type_bf16(%arg0: tensor<bf16>, %arg1: tensor<bf16>) -> tensor<bf16> {
-+  // CHECK: "vhlo.add_v1"(%[[ARG0]], %[[ARG1]]) : (!vhlo.tensor_v1<!vhlo.bf16_v1>, !vhlo.tensor_v1<!vhlo.bf16_v1>) -> !vhlo.tensor_v1<!vhlo.bf16_v1>
-+  %0 = "stablehlo.add"(%arg0, %arg1) : (tensor<bf16>, tensor<bf16>) -> tensor<bf16>
-+  func.return %0 : tensor<bf16>
-+}
-+
-+// CHECK-LABEL: "type_f16"
-+// CHECK-NEXT: (%[[ARG0:.*]]: {{.*}}, %[[ARG1:.*]]: {{.*}})
-+func.func @type_f16(%arg0: tensor<f16>, %arg1: tensor<f16>) -> tensor<f16> {
-+  // CHECK: "vhlo.add_v1"(%[[ARG0]], %[[ARG1]]) : (!vhlo.tensor_v1<!vhlo.f16_v1>, !vhlo.tensor_v1<!vhlo.f16_v1>) -> !vhlo.tensor_v1<!vhlo.f16_v1>
-+  %0 = "stablehlo.add"(%arg0, %arg1) : (tensor<f16>, tensor<f16>) -> tensor<f16>
-+  func.return %0 : tensor<f16>
-+}
-+
-+// CHECK-LABEL: "type_f32"
-+// CHECK-NEXT: (%[[ARG0:.*]]: {{.*}}, %[[ARG1:.*]]: {{.*}})
-+func.func @type_f32(%arg0: tensor<f32>, %arg1: tensor<f32>) -> tensor<f32> {
-+  // CHECK: "vhlo.add_v1"(%[[ARG0]], %[[ARG1]]) : (!vhlo.tensor_v1<!vhlo.f32_v1>, !vhlo.tensor_v1<!vhlo.f32_v1>) -> !vhlo.tensor_v1<!vhlo.f32_v1>
-+  %0 = "stablehlo.add"(%arg0, %arg1) : (tensor<f32>, tensor<f32>) -> tensor<f32>
-+  func.return %0 : tensor<f32>
-+}
-+
-+// CHECK-LABEL: "type_f64"
-+// CHECK-NEXT: (%[[ARG0:.*]]: {{.*}}, %[[ARG1:.*]]: {{.*}})
-+func.func @type_f64(%arg0: tensor<f64>, %arg1: tensor<f64>) -> tensor<f64> {
-+  // CHECK: "vhlo.add_v1"(%[[ARG0]], %[[ARG1]]) : (!vhlo.tensor_v1<!vhlo.f64_v1>, !vhlo.tensor_v1<!vhlo.f64_v1>) -> !vhlo.tensor_v1<!vhlo.f64_v1>
-+  %0 = "stablehlo.add"(%arg0, %arg1) : (tensor<f64>, tensor<f64>) -> tensor<f64>
-+  func.return %0 : tensor<f64>
-+}
-+
-+// CHECK-LABEL: "type_complex_f32"
-+// CHECK-NEXT: (%[[ARG0:.*]]: {{.*}}, %[[ARG1:.*]]: {{.*}})
-+func.func @type_complex_f32(%arg0: tensor<complex<f32>>, %arg1: tensor<complex<f32>>) -> tensor<complex<f32>> {
-+  // CHECK: "vhlo.add_v1"(%[[ARG0]], %[[ARG1]]) : (!vhlo.tensor_v1<!vhlo.complex_v1<!vhlo.f32_v1>>, !vhlo.tensor_v1<!vhlo.complex_v1<!vhlo.f32_v1>>) -> !vhlo.tensor_v1<!vhlo.complex_v1<!vhlo.f32_v1>>
-+  %0 = "stablehlo.add"(%arg0, %arg1) : (tensor<complex<f32>>, tensor<complex<f32>>) -> tensor<complex<f32>>
-+  func.return %0 : tensor<complex<f32>>
-+}
-+
-+// CHECK-LABEL: "type_complex_f64"
-+// CHECK-NEXT: (%[[ARG0:.*]]: {{.*}}, %[[ARG1:.*]]: {{.*}})
-+func.func @type_complex_f64(%arg0: tensor<complex<f64>>, %arg1: tensor<complex<f64>>) -> tensor<complex<f64>> {
-+  // CHECK: "vhlo.add_v1"(%[[ARG0]], %[[ARG1]]) : (!vhlo.tensor_v1<!vhlo.complex_v1<!vhlo.f64_v1>>, !vhlo.tensor_v1<!vhlo.complex_v1<!vhlo.f64_v1>>) -> !vhlo.tensor_v1<!vhlo.complex_v1<!vhlo.f64_v1>>
-+  %0 = "stablehlo.add"(%arg0, %arg1) : (tensor<complex<f64>>, tensor<complex<f64>>) -> tensor<complex<f64>>
-+  func.return %0 : tensor<complex<f64>>
-+}
-+
-+// CHECK-LABEL: "type_tf32"
-+// CHECK: #vhlo.type_v1<!vhlo.tf31_v1>
-+func.func @type_tf32() attributes {stablehlo.attr = tf32 } {
-+  return
-+}
-+
-+// CHECK-LABEL: "type_none"
-+// CHECK: #vhlo.type_v1<!vhlo.none_v1>
-+func.func @type_none() attributes {stablehlo.attr = none } {
-+  return
-+}
-+
-+// CHECK-LABEL: "type_dynamism_ranked"
-+// CHECK-NEXT: (%[[ARG0:.*]]: {{.*}})
-+func.func @type_dynamism_ranked(%arg0: tensor<?xf32>) -> tensor<?xf32> {
-+  // CHECK: "vhlo.abs_v1"(%[[ARG0]]) : (!vhlo.tensor_v1<?x!vhlo.f32_v1>) -> !vhlo.tensor_v1<?x!vhlo.f32_v1>
-+  %0 = "stablehlo.abs"(%arg0) : (tensor<?xf32>) -> tensor<?xf32>
-+  func.return %0 : tensor<?xf32>
-+}
-+
-+// CHECK-LABEL: "type_per_tensor_quantization"
-+// CHECK-NEXT: (%[[ARG0:.*]]: {{.*}}, %[[ARG1:.*]]: {{.*}})
-+func.func @type_per_tensor_quantization(%arg0: tensor<!quant.uniform<i8:f32, 34.0:16>>, %arg1: tensor<!quant.uniform<i8:f32, 34.0:16>>) -> tensor<!quant.uniform<i8:f32, 34.0:16>> {
-+  // CHECK: "vhlo.add_v1"(%[[ARG0]], %[[ARG1]]) : (!vhlo.tensor_v1<!vhlo.quant_v1<!vhlo.i8_v1:!vhlo.f32_v1, 3.400000e+01:16, -128:127, 1>>, !vhlo.tensor_v1<!vhlo.quant_v1<!vhlo.i8_v1:!vhlo.f32_v1, 3.400000e+01:16, -128:127, 1>>) -> !vhlo.tensor_v1<!vhlo.quant_v1<!vhlo.i8_v1:!vhlo.f32_v1, 3.400000e+01:16, -128:127, 1>>
-+  %0 = "stablehlo.add"(%arg0, %arg1) : (tensor<!quant.uniform<i8:f32, 34.0:16>>, tensor<!quant.uniform<i8:f32, 34.0:16>>) -> tensor<!quant.uniform<i8:f32, 34.0:16>>
-+  func.return %0 : tensor<!quant.uniform<i8:f32, 34.0:16>>
-+}
-+
-+// CHECK-LABEL: "type_per_axis_quantization"
-+// CHECK-NEXT: (%[[ARG0:.*]]: {{.*}})
-+func.func @type_per_axis_quantization(%arg0: tensor<2x!quant.uniform<i8:f32:0, {34.0:16, 34.0:16}>>) -> tensor<2x!quant.uniform<i8:f32:0, {34.0:16, 34.0:16}>> {
-+  // CHECK: "vhlo.add_v1"(%[[ARG0]], %[[ARG0]]) : (!vhlo.tensor_v1<2x!vhlo.quant_per_axis_v1<!vhlo.i8_v1:!vhlo.f32_v1, 0, [3.400000e+01, 3.400000e+01], [16, 16], -128:127, 1>>, !vhlo.tensor_v1<2x!vhlo.quant_per_axis_v1<!vhlo.i8_v1:!vhlo.f32_v1, 0, [3.400000e+01, 3.400000e+01], [16, 16], -128:127, 1>>) -> !vhlo.tensor_v1<2x!vhlo.quant_per_axis_v1<!vhlo.i8_v1:!vhlo.f32_v1, 0, [3.400000e+01, 3.400000e+01], [16, 16], -128:127, 1>>
-+  %0 = stablehlo.add %arg0, %arg0 : tensor<2x!quant.uniform<i8:f32:0, {34.0:16, 34.0:16}>>
-+  func.return %0 : tensor<2x!quant.uniform<i8:f32:0, {34.0:16, 34.0:16}>>
-+}
-+
-+//       CHECK: function_type = #vhlo.type_v1<!vhlo.func_v1<(!vhlo.token_v1) -> !vhlo.token_v1>>
-+// CHECK-LABEL: "type_token_callee"
-+// CHECK-NEXT: (%[[ARG0:.*]]: {{.*}})
-+func.func @type_token_callee(%arg0: !stablehlo.token) -> !stablehlo.token {
-+  // CHECK: "vhlo.return_v1"(%[[ARG0]]) : (!vhlo.token_v1) -> ()
-+  return %arg0 : !stablehlo.token
-+}
-+
-+//       CHECK: function_type = #vhlo.type_v1<!vhlo.func_v1<(!vhlo.token_v1) -> !vhlo.token_v1>>
-+// CHECK-LABEL: "type_token_caller"
-+// CHECK-NEXT: (%[[ARG0:.*]]: {{.*}})
-+func.func @type_token_caller(%arg0: !stablehlo.token) -> !stablehlo.token {
-+  // CHECK:      "vhlo.call_v1"(%[[ARG0]]) <{callee = #vhlo.string_v1<"type_token_callee">}
-+  // CHECK-SAME: (!vhlo.token_v1) -> !vhlo.token_v1
-+  %0 = func.call @type_token_callee(%arg0) : (!stablehlo.token) -> !stablehlo.token
-+  return %0 : !stablehlo.token
-+}
-+
-+// CHECK-LABEL: "type_tuple"
-+// CHECK-NEXT: (%[[ARG0:.*]]: {{.*}})
-+func.func @type_tuple(%arg0: tuple<tensor<f32>>) -> tuple<!stablehlo.token> {
-+  %0 = "stablehlo.custom_call"(%arg0) {
-+    call_target_name = "foo"
-+  // CHECK: (!vhlo.tuple_v1<!vhlo.tensor_v1<!vhlo.f32_v1>>) -> !vhlo.tuple_v1<!vhlo.token_v1>
-+  } : (tuple<tensor<f32>>) -> tuple<!stablehlo.token>
-+  return %0 : tuple<!stablehlo.token>
-+}
-+
-+// ============ DEPENDENCIES  ============
-+
-+func.func @composite_target(%arg0: tensor<f32>) -> tensor<f32> {
-+  return %arg0: tensor<f32>
-+}
-diff --ruN a/stablehlo/stablehlo/tests/vhlo/stablehlo_legalize_to_vhlo.mlir b/stablehlo/stablehlo/tests/vhlo/stablehlo_legalize_to_vhlo.mlir
---- stablehlo/stablehlo/tests/vhlo/stablehlo_legalize_to_vhlo.mlir
-+++ stablehlo/stablehlo/tests/vhlo/stablehlo_legalize_to_vhlo.mlir
-@@ -248,6 +248,36 @@
-     fft_length = array<i64: 16>
-   } : (tensor<9xcomplex<f32>>) -> tensor<16xf32>
-   func.return %0 : tensor<16xf32>
++      rhs_batching_dimensions = [],
++      lhs_contracting_dimensions = [1],
++      rhs_contracting_dimensions = [1],
++      lhs_ragged_dimensions = [0],
++      rhs_group_dimensions = [0]
++    >,
++    precision_config = [#chlo<precision DEFAULT>, #chlo<precision DEFAULT>]
++  } : (tensor<11x5xf32>, tensor<3x5x7xf32>, tensor<3xi64>) -> tensor<11x7xf32>
++  check.expect_almost_eq_const %result, dense<[
++    [-0.0199659951, 0.00206358638, 0.0285578221, -0.00411329232, -0.00885893404, -0.0113086831, 0.0343487822],
++    [0.0108370036, 0.0196357146, 0.0464844741, 0.032903526, 0.00752512738, -0.00205732603, 0.0463109687],
++    [-0.0279003512, 0.0171403233, 0.00885203853, -0.022806216, -0.0135696121, -0.00375272054, 0.0139928926],
++    [0.0116565451, -0.00521556707, -0.0245668497, -0.00946252606, 2.734600e-03, 0.00460146647, -0.0332586318],
++    [0.0373648889, 0.040080104, 0.0792120546, 0.0687142611, 0.0129001699, 0.048170276, 6.067640e-02],
++    [-0.00489785476, 0.0151357278, 0.0273378156, 0.0379059538, 0.0080597708, 0.0209609158, 0.0248660222],
++    [0.00253825542, -1.175260e-02, 0.0339594558, 0.0408501513, 0.0275165718, 0.0101594552, 0.0491689071],
++    [5.275800e-02, 0.0415463448, 0.0749897882, 0.0470644757, 0.00624182029, 0.0391805507, 0.03869069],
++    [0.0637338459, 0.00614991458, 0.0153763723, 0.0190313365, 0.0142990183, 0.0227143262, 0.0187453162],
++    [0.0359746702, 0.0182777364, -0.00368779944, -0.0100486111, 6.89582666E-5, -0.00202751439, 0.0124766938],
++    [-0.0151847685, -0.0175893605, 0.0247314386, 0.018632818, 0.00798455066, -0.00110600982, 0.00244264561]
++  ]> : tensor<11x7xf32>
++  func.return
 +}
 +
-+// CHECK-LABEL: "attr_result_accuracy_HIGHEST"
-+// CHECK-NEXT: (%[[ARG0:.*]]: {{.*}}
-+func.func @attr_result_accuracy_HIGHEST(%arg0: tensor<8x16xf32>) -> tensor<8x16xf32> {
-+  %0 = "stablehlo.exponential"(%arg0) {
-+    // CHECK: result_accuracy = #vhlo.result_accuracy_v1<atol = 0.000000e+00, rtol = 0.000000e+00, ulps = 0, mode = #vhlo<result_accuracy_mode_v1 HIGHEST>>
-+    result_accuracy = #stablehlo.result_accuracy<atol = 0.000000e+00, rtol = 0.000000e+00, ulps = 0, mode = #stablehlo.result_accuracy_mode<HIGHEST>>
-+  } : (tensor<8x16xf32>) -> tensor<8x16xf32>
-+  func.return %0 : tensor<8x16xf32>
-+}
++// -----
 +
-+// CHECK-LABEL: "attr_result_accuracy_TOLERANCE"
-+// CHECK-NEXT: (%[[ARG0:.*]]: {{.*}}
-+func.func @attr_result_accuracy_TOLERANCE(%arg0: tensor<8x16xf32>) -> tensor<8x16xf32> {
-+  %0 = "stablehlo.exponential"(%arg0) {
-+    // CHECK: result_accuracy = #vhlo.result_accuracy_v1<atol = 1.000000e-05, rtol = 0.000000e+00, ulps = 1, mode = #vhlo<result_accuracy_mode_v1 TOLERANCE>>
-+    result_accuracy = #stablehlo.result_accuracy<atol = 1.000000e-5, rtol = 0.000000e+00, ulps = 1, mode = #stablehlo.result_accuracy_mode<TOLERANCE>>
-+  } : (tensor<8x16xf32>) -> tensor<8x16xf32>
-+  func.return %0 : tensor<8x16xf32>
++func.func @ragged_dot_mode_1_batching() {
++  %lhs = stablehlo.constant dense<[
++    [
++      [ -0.0999976546, -0.0605386607, 0.126681596, 0.0375950411, 0.0598301813 ],
++      [ -0.0343122408, -0.0858866125, 0.103659429, 0.103788935, 0.180407882 ],
++      [ 0.0150506198, 0.055824928, 0.149289608, -0.0896283686, -0.0839615092 ],
++      [ 0.0589100644, 0.101344816, -0.097690545, 0.0150246918, -0.0799473301 ],
++      [ 0.0252457932, 0.106031813, 0.076692991, 0.179130971, 0.153850079 ],
++      [ 0.0580786392, -0.0724105313, 0.0961757079, 0.0247998089, 0.110357188 ],
++      [ 0.173096269, 0.128659427, -0.0212640986, -0.0857606456, 0.120824583 ],
++      [ -0.00152973086, 0.0897915736, 0.126923144, 0.197311223, 0.00960160792 ],
++      [ -0.0258883312, 0.194765091, 0.11679814, 0.126006752, 0.0954555795 ],
++      [ -0.0781942382, 0.0894904211, 0.165412158, -0.0181870088, 0.0309234336 ],
++      [ 0.129948437, 0.0433195308, -0.028667666, -0.0175279453, 0.00777949393 ]
++    ],
++    [
++      [ -0.0500478409, 0.0459552184, 0.16929689, 0.172762454, -0.0818307 ],
++      [ 0.171395928, 0.0513568744, 0.0548876, -0.00429011881, 0.195992649 ],
++      [ 0.0481930152, -0.0201566443, -0.0727801323, 0.184329301, -0.0778752789 ],
++      [ 0.0502121374, 0.0152426511, -0.0168754607, 0.174145252, 0.0589242205 ],
++      [ 0.0393337533, 0.182294011, -0.0849748, 0.128454268, 0.131061375 ],
++      [ 0.148345202, -0.0623903871, -0.0952396914, 0.10653659, 0.160474151 ],
++      [ 0.0888630375, 0.120867364, 0.117623605, 0.199837387, 0.166571677 ],
++      [ -0.0300415382, -0.00810345262, 0.00530457497, 0.0539821163, 0.0773340687 ],
++      [ 0.153794467, 0.0236242339, 0.152453214, -0.0192048177, 0.0246183872 ],
++      [ 0.0611911938, 0.0403752252, -0.013836287, -0.0465016849, -0.053884007 ],
++      [ 0.0714964494, 0.140721709, -0.0900838748, 0.0603349432, 0.0495440438 ]
++    ]]> : tensor<2x11x5xf32>
++  %rhs = stablehlo.constant dense<[
++    [
++      [
++        [ 0.186608255, 0.124487795, 0.0663751587, 0.167221248, 0.0874548, 0.152611881, -0.0520697422 ],
++        [ -0.0361745432, 0.114412986, -0.0608718246, -0.0727029, -0.0176235586, -0.0991001204, 0.0242879838 ],
++        [ -0.0919371173, 0.112945892, 0.181369215, -0.0280267522, -0.0457312278, -0.00473813713, 0.166097224 ],
++        [ 0.0956176, -0.0548994839, 0.104403876, 0.0157444105, 0.0163175985, 0.0499223098, -0.0557401 ],
++        [ 0.076156, 0.153672695, 0.0770325884, 0.186622649, 0.066843845, -0.0555545315, 0.194991559 ]
++      ],
++      [
++        [ 0.0226300061, -0.0574540682, 0.0694696084, -0.0243620798, 0.0465543643, 0.0392091647, 0.188328564 ],
++        [ -0.0621907599, -0.0400728397, -0.0042250976, 0.0887807682, -0.0619863532, 0.0953761414, 0.0864902064 ],
++        [ 0.140921891, -0.0256474689, 0.0429295525, 0.0167942569, -0.0390249, -0.0914874449, 0.170502067 ],
++        [ 0.0279492214, -0.0573936924, 0.184246033, 0.0230939165, -0.060643442, 0.165694535, -0.0723479092 ],
++        [ -0.051340431, -0.0786809325, 0.00960171223, -0.0240827873, -0.059467189, 0.134945959, 0.0365921929 ]
++      ]
++    ],
++    [
++      [
++        [ 0.00485724211, 0.0356900468, 0.142683387, 0.179502338, 0.0954938307, -0.0354254842, 0.103877716 ],
++        [ 0.172676593, -0.0249623209, 0.158257961, 0.0413787, 0.0517867729, 0.0801181123, 0.14526847 ],
++        [ 0.126753062, 0.0386734977, 0.185410261, 0.0898216143, 0.0317991, 0.14740923, 0.106694289 ],
++        [ 0.110662006, 0.196143657, 0.186324477, 0.155380905, -0.0132051334, 0.0612277314, 0.054330416 ],
++        [ -0.0689698234, 0.0242085531, 0.073015, 0.162969738, 0.0320116058, 0.118924297, 0.160779119 ]
++      ],
++      [
++        [ 0.11469271, 0.140216112, 0.111960642, 0.122514777, -0.0942722782, 0.165809333, 0.0574962273 ],
++        [ 0.0389968231, -0.08044184, 0.114026703, 0.0466829464, 0.100303732, 0.104614742, -0.0401335768 ],
++        [ 0.174990177, 0.159764826, 0.167005628, 0.0631844923, -0.0582415, 0.0351042375, 0.196808755 ],
++        [ -0.035340406, 0.0338070318, -0.00528027117, 0.0543978438, 0.164451241, 0.0319176689, 0.0402595326 ],
++        [ 0.141994983, 0.00954742, -0.0365443081, 0.199735016, -0.053918656, 0.0891464874, 0.0849051103 ]
++      ]
++    ],
++    [
++      [
++        [ -0.0998214856, -0.0997363, 0.132005602, 0.118200503, -0.00424671918, 0.025317125, 0.104748271 ],
++        [ 0.104168601, -0.0384214334, 0.150926, 0.112676181, 0.14861238, -0.071635358, -0.0754787177 ],
++        [ 0.129201442, 0.088871561, -0.0358443409, -0.0359359607, -0.0756817609, 0.0166469738, 0.185647905 ],
++        [ 0.184263527, 0.0169560835, -0.0192355737, 0.10765069, -0.0147894919, 0.13305977, 0.135159582 ],
++        [ 0.0267379507, -0.0153532401, -0.0418097563, -0.096605137, -0.0424528457, 0.194970757, -0.0267837271 ]
++      ],
++      [
++        [ 0.145917833, -0.0590635166, 0.0194431096, 0.0803030357, -0.0469358861, 0.148506433, -0.0526806451 ],
++        [ 0.196381122, -0.0228494033, -0.0299202427, -0.069508791, -0.0341768041, 0.0904152468, 0.108802207 ],
++        [ 0.138430953, 0.108872853, 0.125882119, 0.100856192, 0.0900289789, -0.0830678046, 0.0794649944 ],
++        [ -0.0318976864, -0.00436662883, 0.109950341, -0.0647689179, 0.128771216, 0.0578369871, 0.0661734 ],
++        [ 0.0763966814, -0.00110008568, 0.110896833, -0.057086423, -0.0514936894, 0.0455975607, 0.158067733 ]
++      ]
++    ]]> : tensor<3x2x5x7xf32>
++  %group_sizes = stablehlo.constant dense<[4, 4, 3]> : tensor<3xi64>
++  %result = "chlo.ragged_dot"(%lhs, %rhs, %group_sizes) {
++    ragged_dot_dimension_numbers = #chlo.ragged_dot<
++      lhs_batching_dimensions = [0],
++      rhs_batching_dimensions = [1],
++      lhs_contracting_dimensions = [2],
++      rhs_contracting_dimensions = [2],
++      lhs_ragged_dimensions = [1],
++      rhs_group_dimensions = [0]
++    >,
++    precision_config = [#chlo<precision DEFAULT>, #chlo<precision DEFAULT>]
++  } : (tensor<2x11x5xf32>, tensor<3x2x5x7xf32>, tensor<3xi64>) -> tensor<2x11x7xf32>
++  check.expect_almost_eq_const %result, dense<[
++    [
++      [-0.0199659951, 0.00206358638, 0.0285578221, -0.00411329232, -0.00885893404, -0.0113086831, 0.0343487822],
++      [0.0108370036, 0.0196357146, 0.0464844741, 0.032903526, 0.00752512738, -0.00205732603, 0.0463109687],
++      [-0.0279003512, 0.0171403233, 0.00885203853, -0.022806216, -0.0135696121, -0.00375272054, 0.0139928926],
++      [0.0116565451, -0.00521556707, -0.0245668497, -0.00946252606, 2.734600e-03, 0.00460146647, -0.0332586318],
++      [0.0373648889, 0.040080104, 0.0792120546, 0.0687142611, 0.0129001699, 0.048170276, 6.067640e-02],
++      [-0.00489785476, 0.0151357278, 0.0273378156, 0.0379059538, 0.0080597708, 0.0209609158, 0.0248660222],
++      [0.00253825542, -1.175260e-02, 0.0339594558, 0.0408501513, 0.0275165718, 0.0101594552, 0.0491689071],
++      [5.275800e-02, 0.0415463448, 0.0749897882, 0.0470644757, 0.00624182029, 0.0391805507, 0.03869069],
++      [0.0637338459, 0.00614991458, 0.0153763723, 0.0190313365, 0.0142990183, 0.0227143262, 0.0187453162],
++      [0.0359746702, 0.0182777364, -0.00368779944, -0.0100486111, 6.89582666E-5, -0.00202751439, 0.0124766938],
++      [-0.0151847685, -0.0175893605, 0.0247314386, 0.018632818, 0.00798455066, -0.00110600982, 0.00244264561]
++    ],
++    [
++      [0.0288968664, -0.00678509939, 0.0346419513, 0.0141028976, -0.017396003, 0.00451522879, 0.00792134088],
++      [-0.0017626211, -0.0284877941, 0.0151375476, -0.00351338694, -0.00874114502, 0.0323345512, 0.0535612516],
++      [0.00123786228, -0.00454656407, 0.0335229039, 0.0019464466, -2.14070082E-4, 0.0266590156, -0.0212618597],
++      [-3.47743975E-4, -0.017693948, 0.0353507064, 0.00244920771, -0.0120135043, 0.0417729542, -0.0025454592],
++      [0.0108208582, -0.0171308704, 0.00553112756, 0.0411250815, 0.0335835591, 0.038393192, -0.00547906291],
++      [0.0169365555, 0.0157370344, -0.0128378682, 0.0470919088, -0.00582840201, 0.0324328542, 0.010203423],
++      [0.0520783663, 0.0298755895, 0.0362326317, 0.0681023895, 0.0207777359, 0.052735541, 0.0455959477],
++      [0.00623999349, -1.49650674E-4, -0.00651274621, 0.0146591738, 0.00641800836, 0.00297434814, 0.00838128477],
++      [0.0506783053, 0.00703135319, 0.0220930576, 0.0259224195, 0.001958607, 0.0123232938, 0.00920359604],
++      [0.0123091843, -5.780780e-03, -0.0128484722, 0.00679983944, -0.00871101767, 0.0087406747, -0.0115246754],
++      [0.0274577513, -0.0175638888, -0.00203213934, -0.0198616516, -0.0110571291, 0.0365728177, 0.0162097216]
++    ]
++  ]> : tensor<2x11x7xf32>
++  func.return
 +}
-+
-+// CHECK-LABEL: "attr_result_accuracy_DEFAULT"
-+// CHECK-NEXT: (%[[ARG0:.*]]: {{.*}}
-+func.func @attr_result_accuracy_DEFAULT(%arg0: tensor<8x16xf32>) -> tensor<8x16xf32> {
-+  %0 = "stablehlo.exponential"(%arg0) {
-+    // CHECK: result_accuracy = #vhlo.result_accuracy_v1<atol = 0.000000e+00, rtol = 0.000000e+00, ulps = 0, mode = #vhlo<result_accuracy_mode_v1 DEFAULT>>
-+    result_accuracy = #stablehlo.result_accuracy<atol = 0.000000e+00, rtol = 0.000000e+00, ulps = 0, mode = #stablehlo.result_accuracy_mode<DEFAULT>>
-+  } : (tensor<8x16xf32>) -> tensor<8x16xf32>
-+  func.return %0 : tensor<8x16xf32>
+diff --ruN a/stablehlo/stablehlo/tests/transforms/stablehlo_aggressive_simplification.mlir b/stablehlo/stablehlo/tests/transforms/stablehlo_aggressive_simplification.mlir
+--- stablehlo/stablehlo/tests/transforms/stablehlo_aggressive_simplification.mlir
++++ stablehlo/stablehlo/tests/transforms/stablehlo_aggressive_simplification.mlir
+@@ -1940,6 +1940,17 @@
+   return %1 : tensor<12xi64>
  }
  
- // GatherDimensionNumbers aka #stablehlo.gather is covered below.
-@@ -1621,7 +1651,7 @@
- // CHECK-LABEL: "op_exponential"
- // CHECK-NEXT: (%[[ARG0:.*]]: {{.*}})
- func.func @op_exponential(%arg0: tensor<f32>) -> tensor<f32> {
--  // CHECK: "vhlo.exponential_v1"(%[[ARG0]]) : (!vhlo.tensor_v1<!vhlo.f32_v1>) -> !vhlo.tensor_v1<!vhlo.f32_v1>
-+  // CHECK: "vhlo.exponential_v2"(%[[ARG0]]) <{result_accuracy = #vhlo.result_accuracy_v1<atol = 0.000000e+00, rtol = 0.000000e+00, ulps = 0, mode = #vhlo<result_accuracy_mode_v1 DEFAULT>>}> : (!vhlo.tensor_v1<!vhlo.f32_v1>) -> !vhlo.tensor_v1<!vhlo.f32_v1>
-   %0 = "stablehlo.exponential"(%arg0) : (tensor<f32>) -> tensor<f32>
-   func.return %0 : tensor<f32>
- }
-diff --ruN a/stablehlo/stablehlo/tests/vhlo/vhlo_attributes_invalid.mlir b/stablehlo/stablehlo/tests/vhlo/vhlo_attributes_invalid.mlir
---- stablehlo/stablehlo/tests/vhlo/vhlo_attributes_invalid.mlir
-+++ stablehlo/stablehlo/tests/vhlo/vhlo_attributes_invalid.mlir
-@@ -0,0 +1,26 @@
-+// RUN: stablehlo-opt --vhlo-to-version=target=1.9.0 -verify-diagnostics --split-input-file %s
-+
-+func.func @invalid_array_element() -> () attributes {
-+  // expected-error @+1 {{expected array of VHLO attriutes}}
-+  vhlo.attr = #vhlo.array_v1<[#stablehlo<precision DEFAULT>]>
-+} {
-+  return
-+}
-+
-+// -----
-+
-+func.func @invalid_dict_element_value() -> () attributes {
-+  // expected-error @+1 {{expected VHLO attribute}}
-+  vhlo.attr = #vhlo.dict_v1<{#vhlo.string_v1<"attr1"> = 3 : i32}>
-+} {
-+  return
-+}
-+
-+// -----
-+
-+func.func @invalid_result_accuracy() -> () attributes {
-+  // expected-error @+1 {{expected VHLO result accuracy mode}}
-+  vhlo.attr = #vhlo.result_accuracy_v1<atol = 0.000000e+00, rtol = 0.000000e+00, ulps = 0, mode = #stablehlo.result_accuracy_mode<DEFAULT>>
-+} {
-+  return
-+}
-diff --ruN a/stablehlo/stablehlo/tests/vhlo/vhlo_to_version_downgrade.1_8_0.mlir b/stablehlo/stablehlo/tests/vhlo/vhlo_to_version_downgrade.1_8_0.mlir
---- stablehlo/stablehlo/tests/vhlo/vhlo_to_version_downgrade.1_8_0.mlir
-+++ stablehlo/stablehlo/tests/vhlo/vhlo_to_version_downgrade.1_8_0.mlir
-@@ -0,0 +1,24 @@
-+// RUN: stablehlo-opt --stablehlo-legalize-to-vhlo --vhlo-to-version='target=1.8.0' %s | FileCheck %s
-+
-+// ExpOp was changed in  v1.9.0 to have
-+// result_accuracy attribute. Ensure that serializing for 1.8.0 is valid and targets the
-+// v1.8.0 opset.
-+//
-+// This will catch issues in op `isLegal` checks:
-+//   op.minVersion() <= target <= op.maxVersion()
-+
-+// CHECK-LABEL: vhlo.func_v1 @exp_op
-+func.func public @exp_op(%arg0: tensor<f32>) -> tensor<f32> {
-+  // CHECK: vhlo.exponential_v1
-+  %0 = "stablehlo.exponential"(%arg0) : (tensor<f32>) -> tensor<f32>
-+  return %0 : tensor<f32>
-+}
-+
-+// CHECK-LABEL: vhlo.func_v1 @exp_op_default
-+func.func @exp_op_default(%arg0: tensor<f32>) -> tensor<f32> {
-+  %0 = "stablehlo.exponential"(%arg0) {
-+    // CHECK: vhlo.exponential_v1
-+    result_accuracy = #stablehlo.result_accuracy<atol = 0.000000e+00, rtol = 0.000000e+00, ulps = 0, mode = #stablehlo.result_accuracy_mode<DEFAULT>>
-+  } : (tensor<f32>) -> tensor<f32>
-+  func.return %0 : tensor<f32>
-+}
-diff --ruN a/stablehlo/stablehlo/tests/vhlo/vhlo_to_version_downgrade_invalid.1_8_0.mlir b/stablehlo/stablehlo/tests/vhlo/vhlo_to_version_downgrade_invalid.1_8_0.mlir
---- stablehlo/stablehlo/tests/vhlo/vhlo_to_version_downgrade_invalid.1_8_0.mlir
-+++ stablehlo/stablehlo/tests/vhlo/vhlo_to_version_downgrade_invalid.1_8_0.mlir
-@@ -0,0 +1,22 @@
-+// RUN: stablehlo-opt --stablehlo-legalize-to-vhlo --vhlo-to-version='target=1.8.0' --verify-diagnostics --split-input-file %s
-+
-+
-+func.func @attr_result_accuracy_default(%arg0: tensor<f32>) -> tensor<f32> {
-+  %0 = "stablehlo.exponential"(%arg0) {
-+    // CHECK: vhlo.exponential_v1
-+    result_accuracy = #stablehlo.result_accuracy<atol = 0.000000e+00, rtol = 0.000000e+00, ulps = 0, mode = #stablehlo.result_accuracy_mode<DEFAULT>>
-+  } : (tensor<f32>) -> tensor<f32>
-+  func.return %0 : tensor<f32>
-+}
-+
 +// -----
 +
-+// expected-error @-3 {{failed to convert VHLO to v1.8.0}}
-+func.func @attr_result_accuracy_highest(%arg0: tensor<f32>) -> tensor<f32> {
-+  // expected-error @+1 {{failed to legalize operation 'vhlo.exponential_v2' that was explicitly marked illegal}}
-+  %0 = "stablehlo.exponential"(%arg0) {
-+    result_accuracy = #stablehlo.result_accuracy<atol = 0.000000e+00, rtol = 0.000000e+00, ulps = 0, mode = #stablehlo.result_accuracy_mode<HIGHEST>>
-+  } : (tensor<f32>) -> tensor<f32>
-+  func.return %0 : tensor<f32>
++// CHECK-LABEL: @reorder_invalid_with_dynamic_shape
++func.func @reorder_invalid_with_dynamic_shape(%arg0: tensor<1x3x4xf32>) -> (tensor<?x4xf32>) {
++  // CHECK:      %[[RESHAPE:.+]] = stablehlo.reshape %arg0 : (tensor<1x3x4xf32>) -> tensor<3x4xf32>
++  // CHECK-NEXT: %[[CONVERT:.+]] = stablehlo.convert %[[RESHAPE]] : (tensor<3x4xf32>) -> tensor<?x4xf32>
++  // CHECK: return %[[CONVERT]]
++  %0 = stablehlo.reshape %arg0 : (tensor<1x3x4xf32>) -> tensor<3x4xf32>
++  %1 = stablehlo.convert %0 : (tensor<3x4xf32>) -> tensor<?x4xf32>
++  return %1 : tensor<?x4xf32>
 +}
-+
+ 
+ // -----
+ 
+diff --ruN a/stablehlo/stablehlo/tests/transforms/stablehlo_refine_parameters.mlir b/stablehlo/stablehlo/tests/transforms/stablehlo_refine_parameters.mlir
+--- stablehlo/stablehlo/tests/transforms/stablehlo_refine_parameters.mlir
++++ stablehlo/stablehlo/tests/transforms/stablehlo_refine_parameters.mlir
+@@ -36,7 +36,7 @@
+ 
+ // -----
+ 
+-// expected-error @+1 {{number of refinements must match number of function operands 6 vs 1}}
++// expected-error @+1 {{number of refinements must match number of op operands 6 vs 1}}
+ func.func @refine_arguments_invalid_arg_num_mismatch(%arg0: tensor<f32>) {
+   return
+ }
 diff --ruN a/stablehlo/stablehlo/transforms/ChloLegalizeToStablehlo.cpp b/stablehlo/stablehlo/transforms/ChloLegalizeToStablehlo.cpp
 --- stablehlo/stablehlo/transforms/ChloLegalizeToStablehlo.cpp
 +++ stablehlo/stablehlo/transforms/ChloLegalizeToStablehlo.cpp
@@ -4822,18 +701,6 @@ diff --ruN a/stablehlo/stablehlo/transforms/ChloLegalizeToStablehlo.cpp b/stable
  }
  }  // namespace
  
-diff --ruN a/stablehlo/stablehlo/transforms/MapStablehloToVhlo.h b/stablehlo/stablehlo/transforms/MapStablehloToVhlo.h
---- stablehlo/stablehlo/transforms/MapStablehloToVhlo.h
-+++ stablehlo/stablehlo/transforms/MapStablehloToVhlo.h
-@@ -94,7 +94,7 @@
- MAP_STABLEHLO_TO_VHLO(DynamicUpdateSliceOp, V1)
- MAP_STABLEHLO_TO_VHLO(EinsumOp, V1)
- MAP_STABLEHLO_TO_VHLO(Expm1Op, V1)
--MAP_STABLEHLO_TO_VHLO(ExpOp, V1)
-+MAP_STABLEHLO_TO_VHLO(ExpOp, V2)
- MAP_STABLEHLO_TO_VHLO(FftOp, V1)
- MAP_STABLEHLO_TO_VHLO(FloorOp, V1)
- MAP_STABLEHLO_TO_VHLO(GatherOp, V2)
 diff --ruN a/stablehlo/stablehlo/transforms/Passes.h b/stablehlo/stablehlo/transforms/Passes.h
 --- stablehlo/stablehlo/transforms/Passes.h
 +++ stablehlo/stablehlo/transforms/Passes.h
@@ -4937,84 +804,6 @@ diff --ruN a/stablehlo/stablehlo/transforms/StablehloAggressiveSimplification.cp
 +
  }  // namespace stablehlo
  }  // namespace mlir
-diff --ruN a/stablehlo/stablehlo/transforms/StablehloComplexMathExpanderPatterns.td b/stablehlo/stablehlo/transforms/StablehloComplexMathExpanderPatterns.td
---- stablehlo/stablehlo/transforms/StablehloComplexMathExpanderPatterns.td
-+++ stablehlo/stablehlo/transforms/StablehloComplexMathExpanderPatterns.td
-@@ -683,12 +683,15 @@
- //     Notice that for `y != 0`, neither `cos(y)` nor `sin(y)` is never
- //     zero on the set of floating point numbers.
- //
--def ExpOp_ComplexElementType_ComplexMathExpander: Pat<(StableHLO_ExpOp ComplexElementType:$z),
-+def ConstDefaultResultAccuracyAttr :
-+  ConstantAttr<StableHLO_ResultAccuracyAttr, "::mlir::stablehlo::ResultAccuracyMode::DEFAULT">;
-+
-+def ExpOp_ComplexElementType_ComplexMathExpander: Pat<(StableHLO_ExpOp ComplexElementType:$z, ConstDefaultResultAccuracyAttr),
-   (StableHLO_ComplexOp
-     (StableHLO_SelectOp
-       (StableHLO_CompareOp:$eq_e_constant_posinf
-        (StableHLO_ExpOp:$e
--         (StableHLO_RealOp:$x $z)),
-+         (StableHLO_RealOp:$x $z), ConstDefaultResultAccuracyAttr),
-        (StableHLO_ConstantLikePosInfValue $x),
-         StableHLO_ComparisonDirectionValue<"EQ">,
-         (STABLEHLO_DEFAULT_COMPARISON_TYPE)),
-@@ -697,7 +700,7 @@
-           (StableHLO_ExpOp:$e2
-             (StableHLO_MulOp
-               $x,
--              (StableHLO_ConstantLike<"0.5"> $x))),
-+              (StableHLO_ConstantLike<"0.5"> $x)), ConstDefaultResultAccuracyAttr),
-           (StableHLO_CosineOp:$cs
-             (StableHLO_ImagOp:$y $z))),
-         $e2),
-diff --ruN a/stablehlo/stablehlo/transforms/StablehloLegalizeToVhlo.cpp b/stablehlo/stablehlo/transforms/StablehloLegalizeToVhlo.cpp
---- stablehlo/stablehlo/transforms/StablehloLegalizeToVhlo.cpp
-+++ stablehlo/stablehlo/transforms/StablehloLegalizeToVhlo.cpp
-@@ -19,6 +19,7 @@
- 
- #include "llvm/Support/Casting.h"
- #include "llvm/Support/Debug.h"
-+#include "llvm/Support/ErrorHandling.h"
- #include "mlir/Dialect/Func/IR/FuncOps.h"
- #include "mlir/IR/Attributes.h"
- #include "mlir/IR/Builders.h"
-@@ -129,6 +130,16 @@
-   }
-   if (auto attr = dyn_cast<stablehlo::TransposeAttr>(stablehloAttr)) {
-     RETURN_CONVERTED_ENUM_ATTR(Transpose, V1);
-+  }
-+  if (auto attr = dyn_cast<stablehlo::ResultAccuracyModeAttr>(stablehloAttr)) {
-+    RETURN_CONVERTED_ENUM_ATTR(ResultAccuracyMode, V1);
-+  }
-+  if (auto attr = dyn_cast<stablehlo::ResultAccuracyAttr>(stablehloAttr)) {
-+    auto modeAttr = convertGeneric(attr.getMode(), typeConverter);
-+    if (!modeAttr) return {};
-+    return vhlo::ResultAccuracyV1Attr::get(attr.getContext(), attr.getAtol(),
-+                                           attr.getRtol(), attr.getUlps(),
-+                                           modeAttr);
-   }
-   if (stablehloAttr.getDialect().getNamespace() ==
-       stablehlo::StablehloDialect::getDialectNamespace()) {
-@@ -815,6 +826,19 @@
-       }
-     }
-   }
-+  if constexpr (std::is_same<StablehloOpTy, stablehlo::ExpOp>::value) {
-+    if (!stablehloOp.getResultAccuracyAttr())
-+      addDefaultAttr("result_accuracy",
-+                     stablehlo::ResultAccuracyAttr::get(
-+                         pattern.getContext(),
-+                         /*atol=*/APFloat(0.0),
-+                         /*rtol=*/APFloat(0.0),
-+                         /*ulps=*/0,
-+                         /*mode=*/
-+                         stablehlo::ResultAccuracyModeAttr::get(
-+                             pattern.getContext(),
-+                             stablehlo::ResultAccuracyMode::DEFAULT)));
-+  }
-   if constexpr (std::is_same<StablehloOpTy,
-                              stablehlo::DynamicBroadcastInDimOp>::value) {
-     if (!stablehloOp.getKnownExpandingDimensionsAttr())
 diff --ruN a/stablehlo/stablehlo/transforms/StablehloRefineArguments.cpp b/stablehlo/stablehlo/transforms/StablehloRefineArguments.cpp
 --- stablehlo/stablehlo/transforms/StablehloRefineArguments.cpp
 +++ stablehlo/stablehlo/transforms/StablehloRefineArguments.cpp
@@ -5232,180 +1021,4 @@ diff --ruN a/stablehlo/stablehlo/transforms/StablehloRefineShapes.h b/stablehlo/
  
  // Gets a FuncOp that --stablehlo-refine-shapes will run on.
  // Returns a nullptr and emits appropriate errors if such a function cannot
-diff --ruN a/stablehlo/stablehlo/transforms/VhloLegalizeToStablehlo.cpp b/stablehlo/stablehlo/transforms/VhloLegalizeToStablehlo.cpp
---- stablehlo/stablehlo/transforms/VhloLegalizeToStablehlo.cpp
-+++ stablehlo/stablehlo/transforms/VhloLegalizeToStablehlo.cpp
-@@ -23,6 +23,7 @@
- #include "llvm/Support/AllocatorBase.h"
- #include "llvm/Support/Casting.h"
- #include "llvm/Support/Debug.h"
-+#include "llvm/Support/ErrorHandling.h"
- #include "mlir/Dialect/Func/IR/FuncOps.h"
- #include "mlir/IR/Attributes.h"
- #include "mlir/IR/BuiltinAttributes.h"
-@@ -168,6 +169,17 @@
-     auto builtinType = typeConverter->convertType(attr.getValue());
-     if (!builtinType) return {};
-     return TypeAttr::get(builtinType);
-+  }
-+  if (auto attr = dyn_cast<vhlo::ResultAccuracyModeV1Attr>(vhloAttr)) {
-+    RETURN_CONVERTED_ENUM_ATTR(ResultAccuracyMode, V1);
-+  }
-+  if (auto attr = dyn_cast<vhlo::ResultAccuracyV1Attr>(vhloAttr)) {
-+    auto modeAttr = dyn_cast_or_null<stablehlo::ResultAccuracyModeAttr>(
-+        convertGeneric(attr.getMode(), typeConverter));
-+    if (!modeAttr) return {};
-+    return stablehlo::ResultAccuracyAttr::get(attr.getContext(), attr.getAtol(),
-+                                              attr.getRtol(), attr.getUlps(),
-+                                              modeAttr);
-   }
- 
-   // All VHLO Attributes must be converted by now.
-@@ -737,6 +749,13 @@
-          });
- }
- 
-+bool isDefaultResultAccuracyAttribute(Attribute vhloAttr) {
-+  auto attr = dyn_cast_or_null<vhlo::ResultAccuracyV1Attr>(vhloAttr);
-+  return attr.getAtol().isZero() && attr.getRtol().isZero() &&
-+         attr.getUlps() == 0 &&
-+         dyn_cast<vhlo::ResultAccuracyModeV1Attr>(attr.getMode()).getValue() ==
-+             vhlo::ResultAccuracyModeV1::DEFAULT;
-+}
- template <typename T>
- bool isSplatTensor(const ConversionPattern& pattern, Attribute vhloAttr,
-                    T splatValue) {
-@@ -897,6 +916,11 @@
-       eraseAttrs(vhloAttrs, "dimension");
-     if (isBoolean(vhloOp.getIsStableAttr(), false))
-       eraseAttrs(vhloAttrs, "is_stable");
-+  }
-+  if constexpr (std::is_same<VhloOpTy, vhlo::ExpOpV2>::value) {
-+    if (isDefaultResultAccuracyAttribute(vhloOp.getResultAccuracyAttr())) {
-+      eraseAttrs(vhloAttrs, "result_accuracy");
-+    }
-   }
-   return success();
- }
-diff --ruN a/stablehlo/stablehlo/transforms/VhloToVersion.cpp b/stablehlo/stablehlo/transforms/VhloToVersion.cpp
---- stablehlo/stablehlo/transforms/VhloToVersion.cpp
-+++ stablehlo/stablehlo/transforms/VhloToVersion.cpp
-@@ -139,6 +139,8 @@
-     return isLegalType(tensorAttr.getType(), targetVersion);
-   if (auto typeAttr = dyn_cast<TypeV1Attr>(attr))
-     return isLegalType(typeAttr.getValue(), targetVersion);
-+  if (auto resultAccuracyAttr = dyn_cast<ResultAccuracyV1Attr>(attr))
-+    return isLegalAttribute(resultAccuracyAttr.getMode(), targetVersion);
- 
-   // Is VHLO and valid version, success.
-   return success();
-@@ -324,6 +326,22 @@
-       denseElements.getRawData());
- }
- 
-+bool isDefaultResultAccuracy(Attribute attr) {
-+  auto resultAccuracy = dyn_cast<ResultAccuracyV1Attr>(attr);
-+  auto default_mode = ResultAccuracyModeV1Attr::get(
-+      attr.getContext(), ResultAccuracyModeV1::DEFAULT);
-+  return resultAccuracy.getAtol().isZero() &&
-+         resultAccuracy.getRtol().isZero() && resultAccuracy.getUlps() == 0 &&
-+         resultAccuracy.getMode() == default_mode;
-+}
-+
-+ResultAccuracyV1Attr getDefaultResultAccuracy(OpBuilder& builder) {
-+  return ResultAccuracyV1Attr::get(
-+      builder.getContext(), APFloat(0.0), APFloat(0.0), 0,
-+      ResultAccuracyModeV1Attr::get(builder.getContext(),
-+                                    ResultAccuracyModeV1::DEFAULT));
-+}
-+
- // DRR has limited support for ops with regions
- struct ScatterOpV2ToV1 : public OpRewritePattern<ScatterOpV2> {
-   using OpRewritePattern<ScatterOpV2>::OpRewritePattern;
-@@ -393,6 +411,40 @@
-   }
- };
- 
-+struct ExpOpV1ToV2 : public OpRewritePattern<ExpOpV1> {
-+  using OpRewritePattern<ExpOpV1>::OpRewritePattern;
-+
-+  LogicalResult matchAndRewrite(ExpOpV1 op,
-+                                PatternRewriter& rewriter) const override {
-+    ResultAccuracyV1Attr defaultResultAccuracy = ResultAccuracyV1Attr::get(
-+        rewriter.getContext(), APFloat(0.0), APFloat(0.0), 0,
-+        ResultAccuracyModeV1Attr::get(rewriter.getContext(),
-+                                      ResultAccuracyModeV1::DEFAULT));
-+    rewriter.replaceOpWithNewOp<ExpOpV2>(
-+        op, op->getResultTypes(), op.getOperand(), defaultResultAccuracy);
-+    return success();
-+  }
-+};
-+
-+struct ExpOpV2ToV1 : public OpRewritePattern<ExpOpV2> {
-+  using OpRewritePattern<ExpOpV2>::OpRewritePattern;
-+
-+  LogicalResult matchAndRewrite(ExpOpV2 op,
-+                                PatternRewriter& rewriter) const override {
-+    auto defaultResultAccuracy = ResultAccuracyV1Attr::get(
-+        rewriter.getContext(), APFloat(0.0), APFloat(0.0), 0,
-+        ResultAccuracyModeV1Attr::get(rewriter.getContext(),
-+                                      ResultAccuracyModeV1::DEFAULT));
-+    if (op.getResultAccuracy() != defaultResultAccuracy) {
-+      return rewriter.notifyMatchFailure(op,
-+                                         "non-default result accuracy attr");
-+    }
-+    rewriter.replaceOpWithNewOp<ExpOpV1>(op, op->getResultTypes(),
-+                                         op.getOperand());
-+    return success();
-+  }
-+};
-+
- #include "stablehlo/transforms/VhloToVersionPatterns.h.inc"
- 
- }  // namespace
-@@ -405,6 +457,7 @@
-   vhlo::populateWithGenerated(*patterns);
-   patterns->add<vhlo::ScatterOpV1ToV2, vhlo::ScatterOpV2ToV1>(context);
-   patterns->add<vhlo::AllReduceOpV1ToV2, vhlo::AllReduceOpV2ToV1>(context);
-+  patterns->add<vhlo::ExpOpV1ToV2, vhlo::ExpOpV2ToV1>(context);
- }
- 
- }  // namespace stablehlo
-diff --ruN a/stablehlo/stablehlo/transforms/VhloToVersionPatterns.td b/stablehlo/stablehlo/transforms/VhloToVersionPatterns.td
---- stablehlo/stablehlo/transforms/VhloToVersionPatterns.td
-+++ stablehlo/stablehlo/transforms/VhloToVersionPatterns.td
-@@ -15,6 +15,9 @@
- 
- include "mlir/IR/OpBase.td"
- include "stablehlo/dialect/VhloOps.td"
-+include "mlir/IR/CommonAttrConstraints.td"
-+include "stablehlo/dialect/VhloEnums.td"
-+include "stablehlo/dialect/VhloAttrs.td"
- 
- def VHLO_GetEmptyDims : NativeCodeCall<"getEmptyI64Tensor($_builder)">;
- 
-@@ -31,6 +34,11 @@
- def VHLO_GetFirstOperand : NativeCodeCall<"$0.front()">;
- 
- def VHLO_WrapInVector : NativeCodeCall<"{$0}">;
-+
-+def VHLO_GetDefaultResultAccuracyAttr : NativeCodeCall<"getDefaultResultAccuracy($_builder)">;
-+
-+
-+def VHLO_DefaultResultAccuracy : AttrConstraint<CPred<"isDefaultResultAccuracy($_self)">, "Default result accuracy">;
- 
- def DynamicConvUpgradeV1ToV2:
-   Pat<(VHLO_DynamicConvOpV1 $lhs, $rhs, $d_padding, $window_strides, $padding, $lhs_dilation, $rhs_dilation, $window_reversal, $input_batch_dimension, $input_feature_dimension, $input_spatial_dimensions, $kernel_input_feature_dimension, $kernel_output_feature_dimension, $kernel_spatial_dimensions, $output_batch_dimension, $output_feature_dimension, $output_spatial_dimensions, $feature_group_count, $batch_group_count, $precision_config),
-@@ -83,3 +91,11 @@
-   Pat<(VHLO_DotGeneralOpV1 $lhs, $rhs, $lhs_batching_dimensions, $rhs_batching_dimensions, $lhs_contracting_dimensions, $rhs_contracting_dimensions, $precision_config),
-       (VHLO_DotGeneralOpV2 $lhs, $rhs, $lhs_batching_dimensions, $rhs_batching_dimensions, $lhs_contracting_dimensions, $rhs_contracting_dimensions, $precision_config,
-          (VHLO_GetNoneType), (VHLO_GetNoneType), (VHLO_GetNoneType), (VHLO_GetNoneType), (VHLO_GetNoneType), (VHLO_GetNoneType), (VHLO_GetNoneType))>;
-+
-+def ExpOpDowngradeV2ToV1 :
-+  Pat<(VHLO_ExpOpV2 $operand, VHLO_DefaultResultAccuracy:$result_accuracy),
-+      (VHLO_ExpOpV1 $operand)>;
-+
-+def ExpOpUpgradeV1ToV2 :
-+  Pat<(VHLO_ExpOpV1 $operand),
-+      (VHLO_ExpOpV2 $operand, (VHLO_GetDefaultResultAccuracyAttr))>;
 
