HloModule jit_compiled_generate_function, entry_computation_layout={(pred[1,110]{1,0}, s32[1,110]{1,0}, f32[262144,2560]{1,0}, f32[2560]{0}, f32[2560]{0}, /*index=5*/f32[8,2560,256]{2,1,0}, f32[4,2560,256]{2,1,0}, f32[4,2560,256]{2,1,0}, f32[256]{0}, f32[256]{0}, /*index=10*/f32[8,256,2560]{2,1,0}, f32[2560]{0}, f32[2560]{0}, f32[2560,10240]{1,0}, f32[2560,10240]{1,0}, /*index=15*/f32[10240,2560]{1,0}, f32[2560]{0}, f32[2560]{0}, f32[8,2560,256]{2,1,0}, f32[4,2560,256]{2,1,0}, /*index=20*/f32[4,2560,256]{2,1,0}, f32[256]{0}, f32[256]{0}, f32[8,256,2560]{2,1,0}, f32[2560]{0}, /*index=25*/f32[2560]{0}, f32[2560,10240]{1,0}, f32[2560,10240]{1,0}, f32[10240,2560]{1,0}, f32[2560]{0}, /*index=30*/f32[2560]{0}, f32[8,2560,256]{2,1,0}, f32[4,2560,256]{2,1,0}, f32[4,2560,256]{2,1,0}, f32[256]{0}, /*index=35*/f32[256]{0}, f32[8,256,2560]{2,1,0}, f32[2560]{0}, f32[2560]{0}, f32[2560,10240]{1,0}, /*index=40*/f32[2560,10240]{1,0}, f32[10240,2560]{1,0}, f32[2560]{0}, f32[2560]{0}, f32[8,2560,256]{2,1,0}, /*index=45*/f32[4,2560,256]{2,1,0}, f32[4,2560,256]{2,1,0}, f32[256]{0}, f32[256]{0}, f32[8,256,2560]{2,1,0}, /*index=50*/f32[2560]{0}, f32[2560]{0}, f32[2560,10240]{1,0}, f32[2560,10240]{1,0}, f32[10240,2560]{1,0}, /*index=55*/f32[2560]{0}, f32[2560]{0}, f32[8,2560,256]{2,1,0}, f32[4,2560,256]{2,1,0}, f32[4,2560,256]{2,1,0}, /*index=60*/f32[256]{0}, f32[256]{0}, f32[8,256,2560]{2,1,0}, f32[2560]{0}, f32[2560]{0}, /*index=65*/f32[2560,10240]{1,0}, f32[2560,10240]{1,0}, f32[10240,2560]{1,0}, f32[2560]{0}, f32[2560]{0}, /*index=70*/f32[8,2560,256]{2,1,0}, f32[4,2560,256]{2,1,0}, f32[4,2560,256]{2,1,0}, f32[256]{0}, f32[256]{0}, /*index=75*/f32[8,256,2560]{2,1,0}, f32[2560]{0}, f32[2560]{0}, f32[2560,10240]{1,0}, f32[2560,10240]{1,0}, /*index=80*/f32[10240,2560]{1,0}, f32[2560]{0}, f32[2560]{0}, f32[8,2560,256]{2,1,0}, f32[4,2560,256]{2,1,0}, /*index=85*/f32[4,2560,256]{2,1,0}, f32[256]{0}, f32[256]{0}, f32[8,256,2560]{2,1,0}, f32[2560]{0}, /*index=90*/f32[2560]{0}, f32[2560,10240]{1,0}, f32[2560,10240]{1,0}, f32[10240,2560]{1,0}, f32[2560]{0}, /*index=95*/f32[2560]{0}, f32[8,2560,256]{2,1,0}, f32[4,2560,256]{2,1,0}, f32[4,2560,256]{2,1,0}, f32[256]{0}, /*index=100*/f32[256]{0}, f32[8,256,2560]{2,1,0}, f32[2560]{0}, f32[2560]{0}, f32[2560,10240]{1,0}, /*index=105*/f32[2560,10240]{1,0}, f32[10240,2560]{1,0}, f32[2560]{0}, f32[2560]{0}, f32[8,2560,256]{2,1,0}, /*index=110*/f32[4,2560,256]{2,1,0}, f32[4,2560,256]{2,1,0}, f32[256]{0}, f32[256]{0}, f32[8,256,2560]{2,1,0}, /*index=115*/f32[2560]{0}, f32[2560]{0}, f32[2560,10240]{1,0}, f32[2560,10240]{1,0}, f32[10240,2560]{1,0}, /*index=120*/f32[2560]{0}, f32[2560]{0}, f32[8,2560,256]{2,1,0}, f32[4,2560,256]{2,1,0}, f32[4,2560,256]{2,1,0}, /*index=125*/f32[256]{0}, f32[256]{0}, f32[8,256,2560]{2,1,0}, f32[2560]{0}, f32[2560]{0}, /*index=130*/f32[2560,10240]{1,0}, f32[2560,10240]{1,0}, f32[10240,2560]{1,0}, f32[2560]{0}, f32[2560]{0}, /*index=135*/f32[8,2560,256]{2,1,0}, f32[4,2560,256]{2,1,0}, f32[4,2560,256]{2,1,0}, f32[256]{0}, f32[256]{0}, /*index=140*/f32[8,256,2560]{2,1,0}, f32[2560]{0}, f32[2560]{0}, f32[2560,10240]{1,0}, f32[2560,10240]{1,0}, /*index=145*/f32[10240,2560]{1,0}, f32[2560]{0}, f32[2560]{0}, f32[8,2560,256]{2,1,0}, f32[4,2560,256]{2,1,0}, /*index=150*/f32[4,2560,256]{2,1,0}, f32[256]{0}, f32[256]{0}, f32[8,256,2560]{2,1,0}, f32[2560]{0}, /*index=155*/f32[2560]{0}, f32[2560,10240]{1,0}, f32[2560,10240]{1,0}, f32[10240,2560]{1,0}, f32[2560]{0}, /*index=160*/f32[2560]{0}, f32[8,2560,256]{2,1,0}, f32[4,2560,256]{2,1,0}, f32[4,2560,256]{2,1,0}, f32[256]{0}, /*index=165*/f32[256]{0}, f32[8,256,2560]{2,1,0}, f32[2560]{0}, f32[2560]{0}, f32[2560,10240]{1,0}, /*index=170*/f32[2560,10240]{1,0}, f32[10240,2560]{1,0}, f32[2560]{0}, f32[2560]{0}, f32[8,2560,256]{2,1,0}, /*index=175*/f32[4,2560,256]{2,1,0}, f32[4,2560,256]{2,1,0}, f32[256]{0}, f32[256]{0}, f32[8,256,2560]{2,1,0}, /*index=180*/f32[2560]{0}, f32[2560]{0}, f32[2560,10240]{1,0}, f32[2560,10240]{1,0}, f32[10240,2560]{1,0}, /*index=185*/f32[2560]{0}, f32[2560]{0}, f32[8,2560,256]{2,1,0}, f32[4,2560,256]{2,1,0}, f32[4,2560,256]{2,1,0}, /*index=190*/f32[256]{0}, f32[256]{0}, f32[8,256,2560]{2,1,0}, f32[2560]{0}, f32[2560]{0}, /*index=195*/f32[2560,10240]{1,0}, f32[2560,10240]{1,0}, f32[10240,2560]{1,0}, f32[2560]{0}, f32[2560]{0}, /*index=200*/f32[8,2560,256]{2,1,0}, f32[4,2560,256]{2,1,0}, f32[4,2560,256]{2,1,0}, f32[256]{0}, f32[256]{0}, /*index=205*/f32[8,256,2560]{2,1,0}, f32[2560]{0}, f32[2560]{0}, f32[2560,10240]{1,0}, f32[2560,10240]{1,0}, /*index=210*/f32[10240,2560]{1,0}, f32[2560]{0}, f32[2560]{0}, f32[8,2560,256]{2,1,0}, f32[4,2560,256]{2,1,0}, /*index=215*/f32[4,2560,256]{2,1,0}, f32[256]{0}, f32[256]{0}, f32[8,256,2560]{2,1,0}, f32[2560]{0}, /*index=220*/f32[2560]{0}, f32[2560,10240]{1,0}, f32[2560,10240]{1,0}, f32[10240,2560]{1,0}, f32[2560]{0}, /*index=225*/f32[2560]{0}, f32[8,2560,256]{2,1,0}, f32[4,2560,256]{2,1,0}, f32[4,2560,256]{2,1,0}, f32[256]{0}, /*index=230*/f32[256]{0}, f32[8,256,2560]{2,1,0}, f32[2560]{0}, f32[2560]{0}, f32[2560,10240]{1,0}, /*index=235*/f32[2560,10240]{1,0}, f32[10240,2560]{1,0}, f32[2560]{0}, f32[2560]{0}, f32[8,2560,256]{2,1,0}, /*index=240*/f32[4,2560,256]{2,1,0}, f32[4,2560,256]{2,1,0}, f32[256]{0}, f32[256]{0}, f32[8,256,2560]{2,1,0}, /*index=245*/f32[2560]{0}, f32[2560]{0}, f32[2560,10240]{1,0}, f32[2560,10240]{1,0}, f32[10240,2560]{1,0}, /*index=250*/f32[2560]{0}, f32[2560]{0}, f32[8,2560,256]{2,1,0}, f32[4,2560,256]{2,1,0}, f32[4,2560,256]{2,1,0}, /*index=255*/f32[256]{0}, f32[256]{0}, f32[8,256,2560]{2,1,0}, f32[2560]{0}, f32[2560]{0}, /*index=260*/f32[2560,10240]{1,0}, f32[2560,10240]{1,0}, f32[10240,2560]{1,0}, f32[2560]{0}, f32[2560]{0}, /*index=265*/f32[8,2560,256]{2,1,0}, f32[4,2560,256]{2,1,0}, f32[4,2560,256]{2,1,0}, f32[256]{0}, f32[256]{0}, /*index=270*/f32[8,256,2560]{2,1,0}, f32[2560]{0}, f32[2560]{0}, f32[2560,10240]{1,0}, f32[2560,10240]{1,0}, /*index=275*/f32[10240,2560]{1,0}, f32[2560]{0}, f32[2560]{0}, f32[8,2560,256]{2,1,0}, f32[4,2560,256]{2,1,0}, /*index=280*/f32[4,2560,256]{2,1,0}, f32[256]{0}, f32[256]{0}, f32[8,256,2560]{2,1,0}, f32[2560]{0}, /*index=285*/f32[2560]{0}, f32[2560,10240]{1,0}, f32[2560,10240]{1,0}, f32[10240,2560]{1,0}, f32[2560]{0}, /*index=290*/f32[2560]{0}, f32[8,2560,256]{2,1,0}, f32[4,2560,256]{2,1,0}, f32[4,2560,256]{2,1,0}, f32[256]{0}, /*index=295*/f32[256]{0}, f32[8,256,2560]{2,1,0}, f32[2560]{0}, f32[2560]{0}, f32[2560,10240]{1,0}, /*index=300*/f32[2560,10240]{1,0}, f32[10240,2560]{1,0}, f32[2560]{0}, f32[2560]{0}, f32[8,2560,256]{2,1,0}, /*index=305*/f32[4,2560,256]{2,1,0}, f32[4,2560,256]{2,1,0}, f32[256]{0}, f32[256]{0}, f32[8,256,2560]{2,1,0}, /*index=310*/f32[2560]{0}, f32[2560]{0}, f32[2560,10240]{1,0}, f32[2560,10240]{1,0}, f32[10240,2560]{1,0}, /*index=315*/f32[2560]{0}, f32[2560]{0}, f32[8,2560,256]{2,1,0}, f32[4,2560,256]{2,1,0}, f32[4,2560,256]{2,1,0}, /*index=320*/f32[256]{0}, f32[256]{0}, f32[8,256,2560]{2,1,0}, f32[2560]{0}, f32[2560]{0}, /*index=325*/f32[2560,10240]{1,0}, f32[2560,10240]{1,0}, f32[10240,2560]{1,0}, f32[2560]{0}, f32[2560]{0}, /*index=330*/f32[8,2560,256]{2,1,0}, f32[4,2560,256]{2,1,0}, f32[4,2560,256]{2,1,0}, f32[256]{0}, f32[256]{0}, /*index=335*/f32[8,256,2560]{2,1,0}, f32[2560]{0}, f32[2560]{0}, f32[2560,10240]{1,0}, f32[2560,10240]{1,0}, /*index=340*/f32[10240,2560]{1,0}, f32[2560]{0}, f32[2560]{0}, f32[8,2560,256]{2,1,0}, f32[4,2560,256]{2,1,0}, /*index=345*/f32[4,2560,256]{2,1,0}, f32[256]{0}, f32[256]{0}, f32[8,256,2560]{2,1,0}, f32[2560]{0}, /*index=350*/f32[2560]{0}, f32[2560,10240]{1,0}, f32[2560,10240]{1,0}, f32[10240,2560]{1,0}, f32[2560]{0}, /*index=355*/f32[2560]{0}, f32[8,2560,256]{2,1,0}, f32[4,2560,256]{2,1,0}, f32[4,2560,256]{2,1,0}, f32[256]{0}, /*index=360*/f32[256]{0}, f32[8,256,2560]{2,1,0}, f32[2560]{0}, f32[2560]{0}, f32[2560,10240]{1,0}, /*index=365*/f32[2560,10240]{1,0}, f32[10240,2560]{1,0}, f32[2560]{0}, f32[2560]{0}, f32[8,2560,256]{2,1,0}, /*index=370*/f32[4,2560,256]{2,1,0}, f32[4,2560,256]{2,1,0}, f32[256]{0}, f32[256]{0}, f32[8,256,2560]{2,1,0}, /*index=375*/f32[2560]{0}, f32[2560]{0}, f32[2560,10240]{1,0}, f32[2560,10240]{1,0}, f32[10240,2560]{1,0}, /*index=380*/f32[2560]{0}, f32[2560]{0}, f32[8,2560,256]{2,1,0}, f32[4,2560,256]{2,1,0}, f32[4,2560,256]{2,1,0}, /*index=385*/f32[256]{0}, f32[256]{0}, f32[8,256,2560]{2,1,0}, f32[2560]{0}, f32[2560]{0}, /*index=390*/f32[2560,10240]{1,0}, f32[2560,10240]{1,0}, f32[10240,2560]{1,0}, f32[2560]{0}, f32[2560]{0}, /*index=395*/f32[8,2560,256]{2,1,0}, f32[4,2560,256]{2,1,0}, f32[4,2560,256]{2,1,0}, f32[256]{0}, f32[256]{0}, /*index=400*/f32[8,256,2560]{2,1,0}, f32[2560]{0}, f32[2560]{0}, f32[2560,10240]{1,0}, f32[2560,10240]{1,0}, /*index=405*/f32[10240,2560]{1,0}, f32[2560]{0}, f32[2560]{0}, f32[8,2560,256]{2,1,0}, f32[4,2560,256]{2,1,0}, /*index=410*/f32[4,2560,256]{2,1,0}, f32[256]{0}, f32[256]{0}, f32[8,256,2560]{2,1,0}, f32[2560]{0}, /*index=415*/f32[2560]{0}, f32[2560,10240]{1,0}, f32[2560,10240]{1,0}, f32[10240,2560]{1,0}, f32[2560]{0}, /*index=420*/f32[2560]{0}, f32[8,2560,256]{2,1,0}, f32[4,2560,256]{2,1,0}, f32[4,2560,256]{2,1,0}, f32[256]{0}, /*index=425*/f32[256]{0}, f32[8,256,2560]{2,1,0}, f32[2560]{0}, f32[2560]{0}, f32[2560,10240]{1,0}, /*index=430*/f32[2560,10240]{1,0}, f32[10240,2560]{1,0}, f32[2560]{0}, f32[2560]{0}, f32[8,2560,256]{2,1,0}, /*index=435*/f32[4,2560,256]{2,1,0}, f32[4,2560,256]{2,1,0}, f32[256]{0}, f32[256]{0}, f32[8,256,2560]{2,1,0}, /*index=440*/f32[2560]{0}, f32[2560]{0}, f32[2560,10240]{1,0}, f32[2560,10240]{1,0}, f32[10240,2560]{1,0}, /*index=445*/f32[2560]{0})->(pred[1,110]{1,0}, s32[1,110]{1,0})}, allow_spmd_sharding_propagation_to_parameters={true,true,true,true,true,true,true,true,true,true,true,true,true,true,true,true,true,true,true,true,true,true,true,true,true,true,true,true,true,true,true,true,true,true,true,true,true,true,true,true,true,true,true,true,true,true,true,true,true,true,true,true,true,true,true,true,true,true,true,true,true,true,true,true,true,true,true,true,true,true,true,true,true,true,true,true,true,true,true,true,true,true,true,true,true,true,true,true,true,true,true,true,true,true,true,true,true,true,true,true,true,true,true,true,true,true,true,true,true,true,true,true,true,true,true,true,true,true,true,true,true,true,true,true,true,true,true,true,true,true,true,true,true,true,true,true,true,true,true,true,true,true,true,true,true,true,true,true,true,true,true,true,true,true,true,true,true,true,true,true,true,true,true,true,true,true,true,true,true,true,true,true,true,true,true,true,true,true,true,true,true,true,true,true,true,true,true,true,true,true,true,true,true,true,true,true,true,true,true,true,true,true,true,true,true,true,true,true,true,true,true,true,true,true,true,true,true,true,true,true,true,true,true,true,true,true,true,true,true,true,true,true,true,true,true,true,true,true,true,true,true,true,true,true,true,true,true,true,true,true,true,true,true,true,true,true,true,true,true,true,true,true,true,true,true,true,true,true,true,true,true,true,true,true,true,true,true,true,true,true,true,true,true,true,true,true,true,true,true,true,true,true,true,true,true,true,true,true,true,true,true,true,true,true,true,true,true,true,true,true,true,true,true,true,true,true,true,true,true,true,true,true,true,true,true,true,true,true,true,true,true,true,true,true,true,true,true,true,true,true,true,true,true,true,true,true,true,true,true,true,true,true,true,true,true,true,true,true,true,true,true,true,true,true,true,true,true,true,true,true,true,true,true,true,true,true,true,true,true,true,true,true,true,true,true,true,true,true,true,true,true,true,true,true,true,true,true,true,true,true,true,true,true,true,true,true,true,true,true,true,true,true,true,true,true,true,true,true,true,true,true,true,true,true,true,true,true,true,true,true,true,true,true,true,true,true,true,true,true,true,true,true,true,true,true,true}, allow_spmd_sharding_propagation_to_output={true,true}

%_where.1 (Arg_0.2: pred[1,110], Arg_1.2: s32[1,110], Arg_2.1: s32[1,110]) -> s32[1,110] {
  %Arg_0.2 = pred[1,110]{1,0} parameter(0)
  %Arg_1.2 = s32[1,110]{1,0} parameter(1)
  %Arg_2.1 = s32[1,110]{1,0} parameter(2)
  ROOT %select_n.1 = s32[1,110]{1,0} select(%Arg_0.2, %Arg_1.2, %Arg_2.1), metadata={op_name="select_n" stack_frame_id=33}
}

%region_0.2 (reduce_and.3: pred[], reduce_and.4: pred[]) -> pred[] {
  %reduce_and.3 = pred[] parameter(0), metadata={op_name="reduce_and"}
  %reduce_and.4 = pred[] parameter(1), metadata={op_name="reduce_and"}
  ROOT %reduce_and.5 = pred[] and(%reduce_and.3, %reduce_and.4), metadata={op_name="reduce_and" stack_frame_id=33}
}

%_take.3 (Arg_0.3: f32[262144,2560], Arg_1.3: s32[1,110]) -> f32[1,110,2560] {
  %Arg_1.3 = s32[1,110]{1,0} parameter(1)
  %constant.48 = s32[] constant(0)
  %lt.2 = s32[1,110]{1,0} broadcast(%constant.48), dimensions={}, metadata={op_name="lt" stack_frame_id=33}
  %lt.3 = pred[1,110]{1,0} compare(%Arg_1.3, %lt.2), direction=LT, metadata={op_name="lt" stack_frame_id=33}
  %constant.46 = s32[] constant(262144)
  %add.2 = s32[1,110]{1,0} broadcast(%constant.46), dimensions={}, metadata={op_name="add" stack_frame_id=33}
  %add.3 = s32[1,110]{1,0} add(%Arg_1.3, %add.2), metadata={op_name="add" stack_frame_id=33}
  %jit__where_.1 = s32[1,110]{1,0} call(%lt.3, %add.3, %Arg_1.3), to_apply=%_where.1, metadata={op_name="jit(_where)" stack_frame_id=33}
  %broadcast_in_dim.4 = s32[1,110,1]{2,1,0} reshape(%jit__where_.1), metadata={op_name="broadcast_in_dim" stack_frame_id=33}
  %constant.45 = s32[] constant(0)
  %ge.2 = s32[1,110,1]{2,1,0} broadcast(%constant.45), dimensions={}, metadata={op_name="ge" stack_frame_id=33}
  %ge.3 = pred[1,110,1]{2,1,0} compare(%broadcast_in_dim.4, %ge.2), direction=GE, metadata={op_name="ge" stack_frame_id=33}
  %constant.44 = s32[] constant(262143)
  %le.2 = s32[1,110,1]{2,1,0} broadcast(%constant.44), dimensions={}, metadata={op_name="le" stack_frame_id=33}
  %le.3 = pred[1,110,1]{2,1,0} compare(%broadcast_in_dim.4, %le.2), direction=LE, metadata={op_name="le" stack_frame_id=33}
  %and.1 = pred[1,110,1]{2,1,0} and(%ge.3, %le.3), metadata={op_name="and" stack_frame_id=33}
  %constant.47 = pred[] constant(true)
  %reduce_and.7 = pred[1,110]{1,0} reduce(%and.1, %constant.47), dimensions={2}, to_apply=%region_0.2, metadata={op_name="reduce_and" stack_frame_id=33}
  %broadcast_in_dim.5 = pred[1,110,2560]{2,1,0} broadcast(%reduce_and.7), dimensions={0,1}, metadata={op_name="broadcast_in_dim" stack_frame_id=33}
  %Arg_0.3 = f32[262144,2560]{1,0} parameter(0)
  %gather.1 = f32[1,110,2560]{2,1,0} gather(%Arg_0.3, %broadcast_in_dim.4), offset_dims={2}, collapsed_slice_dims={0}, start_index_map={0}, index_vector_dim=2, slice_sizes={1,2560}, metadata={op_name="gather" stack_frame_id=33}
  %constant.43 = f32[] constant(nan)
  %broadcast_in_dim.3 = f32[1,110,2560]{2,1,0} broadcast(%constant.43), dimensions={}, metadata={op_name="broadcast_in_dim" stack_frame_id=33}
  ROOT %select_n.3 = f32[1,110,2560]{2,1,0} select(%broadcast_in_dim.5, %gather.1, %broadcast_in_dim.3), metadata={op_name="select_n" stack_frame_id=33}
}

%region_1.4 (reduce_sum.3: f32[], reduce_sum.4: f32[]) -> f32[] {
  %reduce_sum.3 = f32[] parameter(0), metadata={op_name="reduce_sum"}
  %reduce_sum.4 = f32[] parameter(1), metadata={op_name="reduce_sum"}
  ROOT %reduce_sum.5 = f32[] add(%reduce_sum.3, %reduce_sum.4), metadata={op_name="jit(compiled_generate_function)/decoder_block_0/pre_attention_norm/reduce_sum" stack_frame_id=53}
}

%region_2.5 (reduce_sum.10: f32[], reduce_sum.11: f32[]) -> f32[] {
  %reduce_sum.10 = f32[] parameter(0), metadata={op_name="reduce_sum"}
  %reduce_sum.11 = f32[] parameter(1), metadata={op_name="reduce_sum"}
  ROOT %reduce_sum.12 = f32[] add(%reduce_sum.10, %reduce_sum.11), metadata={op_name="jit(compiled_generate_function)/decoder_block_0/attention/query_norm/reduce_sum" stack_frame_id=148}
}

%region_3.6 (reduce_sum.17: f32[], reduce_sum.18: f32[]) -> f32[] {
  %reduce_sum.17 = f32[] parameter(0), metadata={op_name="reduce_sum"}
  %reduce_sum.18 = f32[] parameter(1), metadata={op_name="reduce_sum"}
  ROOT %reduce_sum.19 = f32[] add(%reduce_sum.17, %reduce_sum.18), metadata={op_name="jit(compiled_generate_function)/decoder_block_0/attention/key_norm/reduce_sum" stack_frame_id=259}
}

%triu.7 (Arg_0.5: pred[110,110]) -> pred[110,110] {
  %iota.8 = s32[110]{0} iota(), iota_dimension=0, metadata={op_name="iota" stack_frame_id=322}
  %iota.9 = s32[110,110]{1,0} broadcast(%iota.8), dimensions={0}, metadata={op_name="iota" stack_frame_id=322}
  %constant.52 = s32[] constant(-1024)
  %add.14 = s32[110,110]{1,0} broadcast(%constant.52), dimensions={}, metadata={op_name="add" stack_frame_id=322}
  %add.15 = s32[110,110]{1,0} add(%iota.9, %add.14), metadata={op_name="add" stack_frame_id=322}
  %iota.10 = s32[110]{0} iota(), iota_dimension=0, metadata={op_name="iota" stack_frame_id=322}
  %iota.11 = s32[110,110]{1,0} broadcast(%iota.10), dimensions={1}, metadata={op_name="iota" stack_frame_id=322}
  %ge.12 = pred[110,110]{1,0} compare(%add.15, %iota.11), direction=GE, metadata={op_name="ge" stack_frame_id=322}
  %constant.51 = pred[] constant(false)
  %broadcast_in_dim.29 = pred[110,110]{1,0} broadcast(%constant.51), dimensions={}, metadata={op_name="broadcast_in_dim" stack_frame_id=322}
  %Arg_0.5 = pred[110,110]{1,0} parameter(0)
  ROOT %select_n.5 = pred[110,110]{1,0} select(%ge.12, %broadcast_in_dim.29, %Arg_0.5), metadata={op_name="select_n" stack_frame_id=322}
}

%tril.8 (Arg_0.7: pred[110,110]) -> pred[110,110] {
  %iota.16 = s32[110]{0} iota(), iota_dimension=0, metadata={op_name="iota" stack_frame_id=325}
  %iota.17 = s32[110,110]{1,0} broadcast(%iota.16), dimensions={0}, metadata={op_name="iota" stack_frame_id=325}
  %constant.56 = s32[] constant(1023)
  %add.18 = s32[110,110]{1,0} broadcast(%constant.56), dimensions={}, metadata={op_name="add" stack_frame_id=325}
  %add.19 = s32[110,110]{1,0} add(%iota.17, %add.18), metadata={op_name="add" stack_frame_id=325}
  %iota.18 = s32[110]{0} iota(), iota_dimension=0, metadata={op_name="iota" stack_frame_id=325}
  %iota.19 = s32[110,110]{1,0} broadcast(%iota.18), dimensions={1}, metadata={op_name="iota" stack_frame_id=325}
  %ge.14 = pred[110,110]{1,0} compare(%add.19, %iota.19), direction=GE, metadata={op_name="ge" stack_frame_id=325}
  %Arg_0.7 = pred[110,110]{1,0} parameter(0)
  %constant.55 = pred[] constant(false)
  %broadcast_in_dim.31 = pred[110,110]{1,0} broadcast(%constant.55), dimensions={}, metadata={op_name="broadcast_in_dim" stack_frame_id=325}
  ROOT %select_n.7 = pred[110,110]{1,0} select(%ge.14, %Arg_0.7, %broadcast_in_dim.31), metadata={op_name="select_n" stack_frame_id=325}
}

%_where_76.9 (Arg_0.9: pred[1,1,1,110,110], Arg_1.5: f32[1,4,2,110,110], Arg_2.3: f32[]) -> f32[1,4,2,110,110] {
  %Arg_0.9 = pred[1,1,1,110,110]{4,3,2,1,0} parameter(0)
  %broadcast_in_dim.38 = pred[1,1,1,110,110]{4,3,2,1,0} broadcast(%Arg_0.9), dimensions={0,1,2,3,4}, metadata={op_name="broadcast_in_dim" stack_frame_id=367}
  %broadcast_in_dim.39 = pred[1,110,110]{2,1,0} reshape(%broadcast_in_dim.38), metadata={op_name="broadcast_in_dim" stack_frame_id=367}
  %broadcast_in_dim.40 = pred[1,4,2,110,110]{4,3,2,1,0} broadcast(%broadcast_in_dim.39), dimensions={0,3,4}, metadata={op_name="broadcast_in_dim" stack_frame_id=367}
  %Arg_1.5 = f32[1,4,2,110,110]{4,3,2,1,0} parameter(1)
  %Arg_2.3 = f32[] parameter(2)
  %broadcast_in_dim.41 = f32[1,4,2,110,110]{4,3,2,1,0} broadcast(%Arg_2.3), dimensions={}, metadata={op_name="broadcast_in_dim" stack_frame_id=367}
  ROOT %select_n.9 = f32[1,4,2,110,110]{4,3,2,1,0} select(%broadcast_in_dim.40, %Arg_1.5, %broadcast_in_dim.41), metadata={op_name="select_n" stack_frame_id=367}
}

%region_4.10 (reduce_max.3: f32[], reduce_max.4: f32[]) -> f32[] {
  %reduce_max.3 = f32[] parameter(0), metadata={op_name="reduce_max"}
  %reduce_max.4 = f32[] parameter(1), metadata={op_name="reduce_max"}
  ROOT %reduce_max.5 = f32[] maximum(%reduce_max.3, %reduce_max.4), metadata={op_name="jit(compiled_generate_function)/decoder_block_0/attention/softmax/reduce_max" stack_frame_id=377}
}

%region_5.11 (reduce_sum.24: f32[], reduce_sum.25: f32[]) -> f32[] {
  %reduce_sum.24 = f32[] parameter(0), metadata={op_name="reduce_sum"}
  %reduce_sum.25 = f32[] parameter(1), metadata={op_name="reduce_sum"}
  ROOT %reduce_sum.26 = f32[] add(%reduce_sum.24, %reduce_sum.25), metadata={op_name="jit(compiled_generate_function)/decoder_block_0/attention/softmax/reduce_sum" stack_frame_id=377}
}

%region_6.12 (reduce_and.11: pred[], reduce_and.12: pred[]) -> pred[] {
  %reduce_and.11 = pred[] parameter(0), metadata={op_name="reduce_and"}
  %reduce_and.12 = pred[] parameter(1), metadata={op_name="reduce_and"}
  ROOT %reduce_and.13 = pred[] and(%reduce_and.11, %reduce_and.12), metadata={op_name="jit(compiled_generate_function)/decoder_block_0/attention/reduce_and" stack_frame_id=401}
}

%_where_92.13 (Arg_0.11: pred[1,110,1,1], Arg_1.7: f32[1,110,8,256], Arg_2.5: f32[1,110,8,256]) -> f32[1,110,8,256] {
  %Arg_0.11 = pred[1,110,1,1]{3,2,1,0} parameter(0)
  %broadcast_in_dim.48 = pred[1,110,1,1]{3,2,1,0} broadcast(%Arg_0.11), dimensions={0,1,2,3}, metadata={op_name="broadcast_in_dim" stack_frame_id=404}
  %broadcast_in_dim.49 = pred[1,110]{1,0} reshape(%broadcast_in_dim.48), metadata={op_name="broadcast_in_dim" stack_frame_id=404}
  %broadcast_in_dim.50 = pred[1,110,8,256]{3,2,1,0} broadcast(%broadcast_in_dim.49), dimensions={0,1}, metadata={op_name="broadcast_in_dim" stack_frame_id=404}
  %Arg_1.7 = f32[1,110,8,256]{3,2,1,0} parameter(1)
  %Arg_2.5 = f32[1,110,8,256]{3,2,1,0} parameter(2)
  ROOT %select_n.11 = f32[1,110,8,256]{3,2,1,0} select(%broadcast_in_dim.50, %Arg_1.7, %Arg_2.5), metadata={op_name="select_n" stack_frame_id=404}
}

%region_7.14 (reduce_sum.31: f32[], reduce_sum.32: f32[]) -> f32[] {
  %reduce_sum.31 = f32[] parameter(0), metadata={op_name="reduce_sum"}
  %reduce_sum.32 = f32[] parameter(1), metadata={op_name="reduce_sum"}
  ROOT %reduce_sum.33 = f32[] add(%reduce_sum.31, %reduce_sum.32), metadata={op_name="jit(compiled_generate_function)/decoder_block_0/post_attention_norm/reduce_sum" stack_frame_id=432}
}

%region_8.15 (reduce_sum.38: f32[], reduce_sum.39: f32[]) -> f32[] {
  %reduce_sum.38 = f32[] parameter(0), metadata={op_name="reduce_sum"}
  %reduce_sum.39 = f32[] parameter(1), metadata={op_name="reduce_sum"}
  ROOT %reduce_sum.40 = f32[] add(%reduce_sum.38, %reduce_sum.39), metadata={op_name="jit(compiled_generate_function)/decoder_block_0/pre_ffw_norm/reduce_sum" stack_frame_id=479}
}

%region_9.16 (reduce_sum.45: f32[], reduce_sum.46: f32[]) -> f32[] {
  %reduce_sum.45 = f32[] parameter(0), metadata={op_name="reduce_sum"}
  %reduce_sum.46 = f32[] parameter(1), metadata={op_name="reduce_sum"}
  ROOT %reduce_sum.47 = f32[] add(%reduce_sum.45, %reduce_sum.46), metadata={op_name="jit(compiled_generate_function)/decoder_block_0/post_ffw_norm/reduce_sum" stack_frame_id=554}
}

%region_10.17 (reduce_sum.52: f32[], reduce_sum.53: f32[]) -> f32[] {
  %reduce_sum.52 = f32[] parameter(0), metadata={op_name="reduce_sum"}
  %reduce_sum.53 = f32[] parameter(1), metadata={op_name="reduce_sum"}
  ROOT %reduce_sum.54 = f32[] add(%reduce_sum.52, %reduce_sum.53), metadata={op_name="jit(compiled_generate_function)/decoder_block_1/pre_attention_norm/reduce_sum" stack_frame_id=53}
}

%region_11.18 (reduce_sum.59: f32[], reduce_sum.60: f32[]) -> f32[] {
  %reduce_sum.59 = f32[] parameter(0), metadata={op_name="reduce_sum"}
  %reduce_sum.60 = f32[] parameter(1), metadata={op_name="reduce_sum"}
  ROOT %reduce_sum.61 = f32[] add(%reduce_sum.59, %reduce_sum.60), metadata={op_name="jit(compiled_generate_function)/decoder_block_1/attention/query_norm/reduce_sum" stack_frame_id=148}
}

%region_12.19 (reduce_sum.66: f32[], reduce_sum.67: f32[]) -> f32[] {
  %reduce_sum.66 = f32[] parameter(0), metadata={op_name="reduce_sum"}
  %reduce_sum.67 = f32[] parameter(1), metadata={op_name="reduce_sum"}
  ROOT %reduce_sum.68 = f32[] add(%reduce_sum.66, %reduce_sum.67), metadata={op_name="jit(compiled_generate_function)/decoder_block_1/attention/key_norm/reduce_sum" stack_frame_id=259}
}

%region_13.20 (reduce_max.10: f32[], reduce_max.11: f32[]) -> f32[] {
  %reduce_max.10 = f32[] parameter(0), metadata={op_name="reduce_max"}
  %reduce_max.11 = f32[] parameter(1), metadata={op_name="reduce_max"}
  ROOT %reduce_max.12 = f32[] maximum(%reduce_max.10, %reduce_max.11), metadata={op_name="jit(compiled_generate_function)/decoder_block_1/attention/softmax_1/reduce_max" stack_frame_id=377}
}

%region_14.21 (reduce_sum.73: f32[], reduce_sum.74: f32[]) -> f32[] {
  %reduce_sum.73 = f32[] parameter(0), metadata={op_name="reduce_sum"}
  %reduce_sum.74 = f32[] parameter(1), metadata={op_name="reduce_sum"}
  ROOT %reduce_sum.75 = f32[] add(%reduce_sum.73, %reduce_sum.74), metadata={op_name="jit(compiled_generate_function)/decoder_block_1/attention/softmax_1/reduce_sum" stack_frame_id=377}
}

%region_15.22 (reduce_and.18: pred[], reduce_and.19: pred[]) -> pred[] {
  %reduce_and.18 = pred[] parameter(0), metadata={op_name="reduce_and"}
  %reduce_and.19 = pred[] parameter(1), metadata={op_name="reduce_and"}
  ROOT %reduce_and.20 = pred[] and(%reduce_and.18, %reduce_and.19), metadata={op_name="jit(compiled_generate_function)/decoder_block_1/attention/reduce_and" stack_frame_id=401}
}

%region_16.23 (reduce_sum.80: f32[], reduce_sum.81: f32[]) -> f32[] {
  %reduce_sum.80 = f32[] parameter(0), metadata={op_name="reduce_sum"}
  %reduce_sum.81 = f32[] parameter(1), metadata={op_name="reduce_sum"}
  ROOT %reduce_sum.82 = f32[] add(%reduce_sum.80, %reduce_sum.81), metadata={op_name="jit(compiled_generate_function)/decoder_block_1/post_attention_norm/reduce_sum" stack_frame_id=432}
}

%region_17.24 (reduce_sum.87: f32[], reduce_sum.88: f32[]) -> f32[] {
  %reduce_sum.87 = f32[] parameter(0), metadata={op_name="reduce_sum"}
  %reduce_sum.88 = f32[] parameter(1), metadata={op_name="reduce_sum"}
  ROOT %reduce_sum.89 = f32[] add(%reduce_sum.87, %reduce_sum.88), metadata={op_name="jit(compiled_generate_function)/decoder_block_1/pre_ffw_norm/reduce_sum" stack_frame_id=479}
}

%region_18.25 (reduce_sum.94: f32[], reduce_sum.95: f32[]) -> f32[] {
  %reduce_sum.94 = f32[] parameter(0), metadata={op_name="reduce_sum"}
  %reduce_sum.95 = f32[] parameter(1), metadata={op_name="reduce_sum"}
  ROOT %reduce_sum.96 = f32[] add(%reduce_sum.94, %reduce_sum.95), metadata={op_name="jit(compiled_generate_function)/decoder_block_1/post_ffw_norm/reduce_sum" stack_frame_id=554}
}

%region_19.26 (reduce_sum.101: f32[], reduce_sum.102: f32[]) -> f32[] {
  %reduce_sum.101 = f32[] parameter(0), metadata={op_name="reduce_sum"}
  %reduce_sum.102 = f32[] parameter(1), metadata={op_name="reduce_sum"}
  ROOT %reduce_sum.103 = f32[] add(%reduce_sum.101, %reduce_sum.102), metadata={op_name="jit(compiled_generate_function)/decoder_block_2/pre_attention_norm/reduce_sum" stack_frame_id=53}
}

%region_20.27 (reduce_sum.108: f32[], reduce_sum.109: f32[]) -> f32[] {
  %reduce_sum.108 = f32[] parameter(0), metadata={op_name="reduce_sum"}
  %reduce_sum.109 = f32[] parameter(1), metadata={op_name="reduce_sum"}
  ROOT %reduce_sum.110 = f32[] add(%reduce_sum.108, %reduce_sum.109), metadata={op_name="jit(compiled_generate_function)/decoder_block_2/attention/query_norm/reduce_sum" stack_frame_id=148}
}

%region_21.28 (reduce_sum.115: f32[], reduce_sum.116: f32[]) -> f32[] {
  %reduce_sum.115 = f32[] parameter(0), metadata={op_name="reduce_sum"}
  %reduce_sum.116 = f32[] parameter(1), metadata={op_name="reduce_sum"}
  ROOT %reduce_sum.117 = f32[] add(%reduce_sum.115, %reduce_sum.116), metadata={op_name="jit(compiled_generate_function)/decoder_block_2/attention/key_norm/reduce_sum" stack_frame_id=259}
}

%region_22.29 (reduce_max.17: f32[], reduce_max.18: f32[]) -> f32[] {
  %reduce_max.17 = f32[] parameter(0), metadata={op_name="reduce_max"}
  %reduce_max.18 = f32[] parameter(1), metadata={op_name="reduce_max"}
  ROOT %reduce_max.19 = f32[] maximum(%reduce_max.17, %reduce_max.18), metadata={op_name="jit(compiled_generate_function)/decoder_block_2/attention/softmax_2/reduce_max" stack_frame_id=377}
}

%region_23.30 (reduce_sum.122: f32[], reduce_sum.123: f32[]) -> f32[] {
  %reduce_sum.122 = f32[] parameter(0), metadata={op_name="reduce_sum"}
  %reduce_sum.123 = f32[] parameter(1), metadata={op_name="reduce_sum"}
  ROOT %reduce_sum.124 = f32[] add(%reduce_sum.122, %reduce_sum.123), metadata={op_name="jit(compiled_generate_function)/decoder_block_2/attention/softmax_2/reduce_sum" stack_frame_id=377}
}

%region_24.31 (reduce_and.25: pred[], reduce_and.26: pred[]) -> pred[] {
  %reduce_and.25 = pred[] parameter(0), metadata={op_name="reduce_and"}
  %reduce_and.26 = pred[] parameter(1), metadata={op_name="reduce_and"}
  ROOT %reduce_and.27 = pred[] and(%reduce_and.25, %reduce_and.26), metadata={op_name="jit(compiled_generate_function)/decoder_block_2/attention/reduce_and" stack_frame_id=401}
}

%region_25.32 (reduce_sum.129: f32[], reduce_sum.130: f32[]) -> f32[] {
  %reduce_sum.129 = f32[] parameter(0), metadata={op_name="reduce_sum"}
  %reduce_sum.130 = f32[] parameter(1), metadata={op_name="reduce_sum"}
  ROOT %reduce_sum.131 = f32[] add(%reduce_sum.129, %reduce_sum.130), metadata={op_name="jit(compiled_generate_function)/decoder_block_2/post_attention_norm/reduce_sum" stack_frame_id=432}
}

%region_26.33 (reduce_sum.136: f32[], reduce_sum.137: f32[]) -> f32[] {
  %reduce_sum.136 = f32[] parameter(0), metadata={op_name="reduce_sum"}
  %reduce_sum.137 = f32[] parameter(1), metadata={op_name="reduce_sum"}
  ROOT %reduce_sum.138 = f32[] add(%reduce_sum.136, %reduce_sum.137), metadata={op_name="jit(compiled_generate_function)/decoder_block_2/pre_ffw_norm/reduce_sum" stack_frame_id=479}
}

%region_27.34 (reduce_sum.143: f32[], reduce_sum.144: f32[]) -> f32[] {
  %reduce_sum.143 = f32[] parameter(0), metadata={op_name="reduce_sum"}
  %reduce_sum.144 = f32[] parameter(1), metadata={op_name="reduce_sum"}
  ROOT %reduce_sum.145 = f32[] add(%reduce_sum.143, %reduce_sum.144), metadata={op_name="jit(compiled_generate_function)/decoder_block_2/post_ffw_norm/reduce_sum" stack_frame_id=554}
}

%region_28.35 (reduce_sum.150: f32[], reduce_sum.151: f32[]) -> f32[] {
  %reduce_sum.150 = f32[] parameter(0), metadata={op_name="reduce_sum"}
  %reduce_sum.151 = f32[] parameter(1), metadata={op_name="reduce_sum"}
  ROOT %reduce_sum.152 = f32[] add(%reduce_sum.150, %reduce_sum.151), metadata={op_name="jit(compiled_generate_function)/decoder_block_3/pre_attention_norm/reduce_sum" stack_frame_id=53}
}

%region_29.36 (reduce_sum.157: f32[], reduce_sum.158: f32[]) -> f32[] {
  %reduce_sum.157 = f32[] parameter(0), metadata={op_name="reduce_sum"}
  %reduce_sum.158 = f32[] parameter(1), metadata={op_name="reduce_sum"}
  ROOT %reduce_sum.159 = f32[] add(%reduce_sum.157, %reduce_sum.158), metadata={op_name="jit(compiled_generate_function)/decoder_block_3/attention/query_norm/reduce_sum" stack_frame_id=148}
}

%region_30.37 (reduce_sum.164: f32[], reduce_sum.165: f32[]) -> f32[] {
  %reduce_sum.164 = f32[] parameter(0), metadata={op_name="reduce_sum"}
  %reduce_sum.165 = f32[] parameter(1), metadata={op_name="reduce_sum"}
  ROOT %reduce_sum.166 = f32[] add(%reduce_sum.164, %reduce_sum.165), metadata={op_name="jit(compiled_generate_function)/decoder_block_3/attention/key_norm/reduce_sum" stack_frame_id=259}
}

%region_31.38 (reduce_max.24: f32[], reduce_max.25: f32[]) -> f32[] {
  %reduce_max.24 = f32[] parameter(0), metadata={op_name="reduce_max"}
  %reduce_max.25 = f32[] parameter(1), metadata={op_name="reduce_max"}
  ROOT %reduce_max.26 = f32[] maximum(%reduce_max.24, %reduce_max.25), metadata={op_name="jit(compiled_generate_function)/decoder_block_3/attention/softmax_3/reduce_max" stack_frame_id=377}
}

%region_32.39 (reduce_sum.171: f32[], reduce_sum.172: f32[]) -> f32[] {
  %reduce_sum.171 = f32[] parameter(0), metadata={op_name="reduce_sum"}
  %reduce_sum.172 = f32[] parameter(1), metadata={op_name="reduce_sum"}
  ROOT %reduce_sum.173 = f32[] add(%reduce_sum.171, %reduce_sum.172), metadata={op_name="jit(compiled_generate_function)/decoder_block_3/attention/softmax_3/reduce_sum" stack_frame_id=377}
}

%region_33.40 (reduce_and.32: pred[], reduce_and.33: pred[]) -> pred[] {
  %reduce_and.32 = pred[] parameter(0), metadata={op_name="reduce_and"}
  %reduce_and.33 = pred[] parameter(1), metadata={op_name="reduce_and"}
  ROOT %reduce_and.34 = pred[] and(%reduce_and.32, %reduce_and.33), metadata={op_name="jit(compiled_generate_function)/decoder_block_3/attention/reduce_and" stack_frame_id=401}
}

%region_34.41 (reduce_sum.178: f32[], reduce_sum.179: f32[]) -> f32[] {
  %reduce_sum.178 = f32[] parameter(0), metadata={op_name="reduce_sum"}
  %reduce_sum.179 = f32[] parameter(1), metadata={op_name="reduce_sum"}
  ROOT %reduce_sum.180 = f32[] add(%reduce_sum.178, %reduce_sum.179), metadata={op_name="jit(compiled_generate_function)/decoder_block_3/post_attention_norm/reduce_sum" stack_frame_id=432}
}

%region_35.42 (reduce_sum.185: f32[], reduce_sum.186: f32[]) -> f32[] {
  %reduce_sum.185 = f32[] parameter(0), metadata={op_name="reduce_sum"}
  %reduce_sum.186 = f32[] parameter(1), metadata={op_name="reduce_sum"}
  ROOT %reduce_sum.187 = f32[] add(%reduce_sum.185, %reduce_sum.186), metadata={op_name="jit(compiled_generate_function)/decoder_block_3/pre_ffw_norm/reduce_sum" stack_frame_id=479}
}

%region_36.43 (reduce_sum.192: f32[], reduce_sum.193: f32[]) -> f32[] {
  %reduce_sum.192 = f32[] parameter(0), metadata={op_name="reduce_sum"}
  %reduce_sum.193 = f32[] parameter(1), metadata={op_name="reduce_sum"}
  ROOT %reduce_sum.194 = f32[] add(%reduce_sum.192, %reduce_sum.193), metadata={op_name="jit(compiled_generate_function)/decoder_block_3/post_ffw_norm/reduce_sum" stack_frame_id=554}
}

%region_37.44 (reduce_sum.199: f32[], reduce_sum.200: f32[]) -> f32[] {
  %reduce_sum.199 = f32[] parameter(0), metadata={op_name="reduce_sum"}
  %reduce_sum.200 = f32[] parameter(1), metadata={op_name="reduce_sum"}
  ROOT %reduce_sum.201 = f32[] add(%reduce_sum.199, %reduce_sum.200), metadata={op_name="jit(compiled_generate_function)/decoder_block_4/pre_attention_norm/reduce_sum" stack_frame_id=53}
}

%region_38.45 (reduce_sum.206: f32[], reduce_sum.207: f32[]) -> f32[] {
  %reduce_sum.206 = f32[] parameter(0), metadata={op_name="reduce_sum"}
  %reduce_sum.207 = f32[] parameter(1), metadata={op_name="reduce_sum"}
  ROOT %reduce_sum.208 = f32[] add(%reduce_sum.206, %reduce_sum.207), metadata={op_name="jit(compiled_generate_function)/decoder_block_4/attention/query_norm/reduce_sum" stack_frame_id=148}
}

%region_39.46 (reduce_sum.213: f32[], reduce_sum.214: f32[]) -> f32[] {
  %reduce_sum.213 = f32[] parameter(0), metadata={op_name="reduce_sum"}
  %reduce_sum.214 = f32[] parameter(1), metadata={op_name="reduce_sum"}
  ROOT %reduce_sum.215 = f32[] add(%reduce_sum.213, %reduce_sum.214), metadata={op_name="jit(compiled_generate_function)/decoder_block_4/attention/key_norm/reduce_sum" stack_frame_id=259}
}

%region_40.47 (reduce_max.31: f32[], reduce_max.32: f32[]) -> f32[] {
  %reduce_max.31 = f32[] parameter(0), metadata={op_name="reduce_max"}
  %reduce_max.32 = f32[] parameter(1), metadata={op_name="reduce_max"}
  ROOT %reduce_max.33 = f32[] maximum(%reduce_max.31, %reduce_max.32), metadata={op_name="jit(compiled_generate_function)/decoder_block_4/attention/softmax_4/reduce_max" stack_frame_id=377}
}

%region_41.48 (reduce_sum.220: f32[], reduce_sum.221: f32[]) -> f32[] {
  %reduce_sum.220 = f32[] parameter(0), metadata={op_name="reduce_sum"}
  %reduce_sum.221 = f32[] parameter(1), metadata={op_name="reduce_sum"}
  ROOT %reduce_sum.222 = f32[] add(%reduce_sum.220, %reduce_sum.221), metadata={op_name="jit(compiled_generate_function)/decoder_block_4/attention/softmax_4/reduce_sum" stack_frame_id=377}
}

%region_42.49 (reduce_and.39: pred[], reduce_and.40: pred[]) -> pred[] {
  %reduce_and.39 = pred[] parameter(0), metadata={op_name="reduce_and"}
  %reduce_and.40 = pred[] parameter(1), metadata={op_name="reduce_and"}
  ROOT %reduce_and.41 = pred[] and(%reduce_and.39, %reduce_and.40), metadata={op_name="jit(compiled_generate_function)/decoder_block_4/attention/reduce_and" stack_frame_id=401}
}

%region_43.50 (reduce_sum.227: f32[], reduce_sum.228: f32[]) -> f32[] {
  %reduce_sum.227 = f32[] parameter(0), metadata={op_name="reduce_sum"}
  %reduce_sum.228 = f32[] parameter(1), metadata={op_name="reduce_sum"}
  ROOT %reduce_sum.229 = f32[] add(%reduce_sum.227, %reduce_sum.228), metadata={op_name="jit(compiled_generate_function)/decoder_block_4/post_attention_norm/reduce_sum" stack_frame_id=432}
}

%region_44.51 (reduce_sum.234: f32[], reduce_sum.235: f32[]) -> f32[] {
  %reduce_sum.234 = f32[] parameter(0), metadata={op_name="reduce_sum"}
  %reduce_sum.235 = f32[] parameter(1), metadata={op_name="reduce_sum"}
  ROOT %reduce_sum.236 = f32[] add(%reduce_sum.234, %reduce_sum.235), metadata={op_name="jit(compiled_generate_function)/decoder_block_4/pre_ffw_norm/reduce_sum" stack_frame_id=479}
}

%region_45.52 (reduce_sum.241: f32[], reduce_sum.242: f32[]) -> f32[] {
  %reduce_sum.241 = f32[] parameter(0), metadata={op_name="reduce_sum"}
  %reduce_sum.242 = f32[] parameter(1), metadata={op_name="reduce_sum"}
  ROOT %reduce_sum.243 = f32[] add(%reduce_sum.241, %reduce_sum.242), metadata={op_name="jit(compiled_generate_function)/decoder_block_4/post_ffw_norm/reduce_sum" stack_frame_id=554}
}

%region_46.53 (reduce_sum.248: f32[], reduce_sum.249: f32[]) -> f32[] {
  %reduce_sum.248 = f32[] parameter(0), metadata={op_name="reduce_sum"}
  %reduce_sum.249 = f32[] parameter(1), metadata={op_name="reduce_sum"}
  ROOT %reduce_sum.250 = f32[] add(%reduce_sum.248, %reduce_sum.249), metadata={op_name="jit(compiled_generate_function)/decoder_block_5/pre_attention_norm/reduce_sum" stack_frame_id=53}
}

%region_47.54 (reduce_sum.255: f32[], reduce_sum.256: f32[]) -> f32[] {
  %reduce_sum.255 = f32[] parameter(0), metadata={op_name="reduce_sum"}
  %reduce_sum.256 = f32[] parameter(1), metadata={op_name="reduce_sum"}
  ROOT %reduce_sum.257 = f32[] add(%reduce_sum.255, %reduce_sum.256), metadata={op_name="jit(compiled_generate_function)/decoder_block_5/attention/query_norm/reduce_sum" stack_frame_id=148}
}

%region_48.55 (reduce_sum.262: f32[], reduce_sum.263: f32[]) -> f32[] {
  %reduce_sum.262 = f32[] parameter(0), metadata={op_name="reduce_sum"}
  %reduce_sum.263 = f32[] parameter(1), metadata={op_name="reduce_sum"}
  ROOT %reduce_sum.264 = f32[] add(%reduce_sum.262, %reduce_sum.263), metadata={op_name="jit(compiled_generate_function)/decoder_block_5/attention/key_norm/reduce_sum" stack_frame_id=259}
}

%region_49.56 (reduce_max.38: f32[], reduce_max.39: f32[]) -> f32[] {
  %reduce_max.38 = f32[] parameter(0), metadata={op_name="reduce_max"}
  %reduce_max.39 = f32[] parameter(1), metadata={op_name="reduce_max"}
  ROOT %reduce_max.40 = f32[] maximum(%reduce_max.38, %reduce_max.39), metadata={op_name="jit(compiled_generate_function)/decoder_block_5/attention/softmax_5/reduce_max" stack_frame_id=377}
}

%region_50.57 (reduce_sum.269: f32[], reduce_sum.270: f32[]) -> f32[] {
  %reduce_sum.269 = f32[] parameter(0), metadata={op_name="reduce_sum"}
  %reduce_sum.270 = f32[] parameter(1), metadata={op_name="reduce_sum"}
  ROOT %reduce_sum.271 = f32[] add(%reduce_sum.269, %reduce_sum.270), metadata={op_name="jit(compiled_generate_function)/decoder_block_5/attention/softmax_5/reduce_sum" stack_frame_id=377}
}

%region_51.58 (reduce_and.46: pred[], reduce_and.47: pred[]) -> pred[] {
  %reduce_and.46 = pred[] parameter(0), metadata={op_name="reduce_and"}
  %reduce_and.47 = pred[] parameter(1), metadata={op_name="reduce_and"}
  ROOT %reduce_and.48 = pred[] and(%reduce_and.46, %reduce_and.47), metadata={op_name="jit(compiled_generate_function)/decoder_block_5/attention/reduce_and" stack_frame_id=401}
}

%region_52.59 (reduce_sum.276: f32[], reduce_sum.277: f32[]) -> f32[] {
  %reduce_sum.276 = f32[] parameter(0), metadata={op_name="reduce_sum"}
  %reduce_sum.277 = f32[] parameter(1), metadata={op_name="reduce_sum"}
  ROOT %reduce_sum.278 = f32[] add(%reduce_sum.276, %reduce_sum.277), metadata={op_name="jit(compiled_generate_function)/decoder_block_5/post_attention_norm/reduce_sum" stack_frame_id=432}
}

%region_53.60 (reduce_sum.283: f32[], reduce_sum.284: f32[]) -> f32[] {
  %reduce_sum.283 = f32[] parameter(0), metadata={op_name="reduce_sum"}
  %reduce_sum.284 = f32[] parameter(1), metadata={op_name="reduce_sum"}
  ROOT %reduce_sum.285 = f32[] add(%reduce_sum.283, %reduce_sum.284), metadata={op_name="jit(compiled_generate_function)/decoder_block_5/pre_ffw_norm/reduce_sum" stack_frame_id=479}
}

%region_54.61 (reduce_sum.290: f32[], reduce_sum.291: f32[]) -> f32[] {
  %reduce_sum.290 = f32[] parameter(0), metadata={op_name="reduce_sum"}
  %reduce_sum.291 = f32[] parameter(1), metadata={op_name="reduce_sum"}
  ROOT %reduce_sum.292 = f32[] add(%reduce_sum.290, %reduce_sum.291), metadata={op_name="jit(compiled_generate_function)/decoder_block_5/post_ffw_norm/reduce_sum" stack_frame_id=554}
}

%region_55.62 (reduce_sum.297: f32[], reduce_sum.298: f32[]) -> f32[] {
  %reduce_sum.297 = f32[] parameter(0), metadata={op_name="reduce_sum"}
  %reduce_sum.298 = f32[] parameter(1), metadata={op_name="reduce_sum"}
  ROOT %reduce_sum.299 = f32[] add(%reduce_sum.297, %reduce_sum.298), metadata={op_name="jit(compiled_generate_function)/decoder_block_6/pre_attention_norm/reduce_sum" stack_frame_id=53}
}

%region_56.63 (reduce_sum.304: f32[], reduce_sum.305: f32[]) -> f32[] {
  %reduce_sum.304 = f32[] parameter(0), metadata={op_name="reduce_sum"}
  %reduce_sum.305 = f32[] parameter(1), metadata={op_name="reduce_sum"}
  ROOT %reduce_sum.306 = f32[] add(%reduce_sum.304, %reduce_sum.305), metadata={op_name="jit(compiled_generate_function)/decoder_block_6/attention/query_norm/reduce_sum" stack_frame_id=148}
}

%region_57.64 (reduce_sum.311: f32[], reduce_sum.312: f32[]) -> f32[] {
  %reduce_sum.311 = f32[] parameter(0), metadata={op_name="reduce_sum"}
  %reduce_sum.312 = f32[] parameter(1), metadata={op_name="reduce_sum"}
  ROOT %reduce_sum.313 = f32[] add(%reduce_sum.311, %reduce_sum.312), metadata={op_name="jit(compiled_generate_function)/decoder_block_6/attention/key_norm/reduce_sum" stack_frame_id=259}
}

%region_58.65 (reduce_max.45: f32[], reduce_max.46: f32[]) -> f32[] {
  %reduce_max.45 = f32[] parameter(0), metadata={op_name="reduce_max"}
  %reduce_max.46 = f32[] parameter(1), metadata={op_name="reduce_max"}
  ROOT %reduce_max.47 = f32[] maximum(%reduce_max.45, %reduce_max.46), metadata={op_name="jit(compiled_generate_function)/decoder_block_6/attention/softmax_6/reduce_max" stack_frame_id=377}
}

%region_59.66 (reduce_sum.318: f32[], reduce_sum.319: f32[]) -> f32[] {
  %reduce_sum.318 = f32[] parameter(0), metadata={op_name="reduce_sum"}
  %reduce_sum.319 = f32[] parameter(1), metadata={op_name="reduce_sum"}
  ROOT %reduce_sum.320 = f32[] add(%reduce_sum.318, %reduce_sum.319), metadata={op_name="jit(compiled_generate_function)/decoder_block_6/attention/softmax_6/reduce_sum" stack_frame_id=377}
}

%region_60.67 (reduce_and.53: pred[], reduce_and.54: pred[]) -> pred[] {
  %reduce_and.53 = pred[] parameter(0), metadata={op_name="reduce_and"}
  %reduce_and.54 = pred[] parameter(1), metadata={op_name="reduce_and"}
  ROOT %reduce_and.55 = pred[] and(%reduce_and.53, %reduce_and.54), metadata={op_name="jit(compiled_generate_function)/decoder_block_6/attention/reduce_and" stack_frame_id=401}
}

%region_61.68 (reduce_sum.325: f32[], reduce_sum.326: f32[]) -> f32[] {
  %reduce_sum.325 = f32[] parameter(0), metadata={op_name="reduce_sum"}
  %reduce_sum.326 = f32[] parameter(1), metadata={op_name="reduce_sum"}
  ROOT %reduce_sum.327 = f32[] add(%reduce_sum.325, %reduce_sum.326), metadata={op_name="jit(compiled_generate_function)/decoder_block_6/post_attention_norm/reduce_sum" stack_frame_id=432}
}

%region_62.69 (reduce_sum.332: f32[], reduce_sum.333: f32[]) -> f32[] {
  %reduce_sum.332 = f32[] parameter(0), metadata={op_name="reduce_sum"}
  %reduce_sum.333 = f32[] parameter(1), metadata={op_name="reduce_sum"}
  ROOT %reduce_sum.334 = f32[] add(%reduce_sum.332, %reduce_sum.333), metadata={op_name="jit(compiled_generate_function)/decoder_block_6/pre_ffw_norm/reduce_sum" stack_frame_id=479}
}

%region_63.70 (reduce_sum.339: f32[], reduce_sum.340: f32[]) -> f32[] {
  %reduce_sum.339 = f32[] parameter(0), metadata={op_name="reduce_sum"}
  %reduce_sum.340 = f32[] parameter(1), metadata={op_name="reduce_sum"}
  ROOT %reduce_sum.341 = f32[] add(%reduce_sum.339, %reduce_sum.340), metadata={op_name="jit(compiled_generate_function)/decoder_block_6/post_ffw_norm/reduce_sum" stack_frame_id=554}
}

%region_64.71 (reduce_sum.346: f32[], reduce_sum.347: f32[]) -> f32[] {
  %reduce_sum.346 = f32[] parameter(0), metadata={op_name="reduce_sum"}
  %reduce_sum.347 = f32[] parameter(1), metadata={op_name="reduce_sum"}
  ROOT %reduce_sum.348 = f32[] add(%reduce_sum.346, %reduce_sum.347), metadata={op_name="jit(compiled_generate_function)/decoder_block_7/pre_attention_norm/reduce_sum" stack_frame_id=53}
}

%region_65.72 (reduce_sum.353: f32[], reduce_sum.354: f32[]) -> f32[] {
  %reduce_sum.353 = f32[] parameter(0), metadata={op_name="reduce_sum"}
  %reduce_sum.354 = f32[] parameter(1), metadata={op_name="reduce_sum"}
  ROOT %reduce_sum.355 = f32[] add(%reduce_sum.353, %reduce_sum.354), metadata={op_name="jit(compiled_generate_function)/decoder_block_7/attention/query_norm/reduce_sum" stack_frame_id=148}
}

%region_66.73 (reduce_sum.360: f32[], reduce_sum.361: f32[]) -> f32[] {
  %reduce_sum.360 = f32[] parameter(0), metadata={op_name="reduce_sum"}
  %reduce_sum.361 = f32[] parameter(1), metadata={op_name="reduce_sum"}
  ROOT %reduce_sum.362 = f32[] add(%reduce_sum.360, %reduce_sum.361), metadata={op_name="jit(compiled_generate_function)/decoder_block_7/attention/key_norm/reduce_sum" stack_frame_id=259}
}

%region_67.74 (reduce_max.52: f32[], reduce_max.53: f32[]) -> f32[] {
  %reduce_max.52 = f32[] parameter(0), metadata={op_name="reduce_max"}
  %reduce_max.53 = f32[] parameter(1), metadata={op_name="reduce_max"}
  ROOT %reduce_max.54 = f32[] maximum(%reduce_max.52, %reduce_max.53), metadata={op_name="jit(compiled_generate_function)/decoder_block_7/attention/softmax_7/reduce_max" stack_frame_id=377}
}

%region_68.75 (reduce_sum.367: f32[], reduce_sum.368: f32[]) -> f32[] {
  %reduce_sum.367 = f32[] parameter(0), metadata={op_name="reduce_sum"}
  %reduce_sum.368 = f32[] parameter(1), metadata={op_name="reduce_sum"}
  ROOT %reduce_sum.369 = f32[] add(%reduce_sum.367, %reduce_sum.368), metadata={op_name="jit(compiled_generate_function)/decoder_block_7/attention/softmax_7/reduce_sum" stack_frame_id=377}
}

%region_69.76 (reduce_and.60: pred[], reduce_and.61: pred[]) -> pred[] {
  %reduce_and.60 = pred[] parameter(0), metadata={op_name="reduce_and"}
  %reduce_and.61 = pred[] parameter(1), metadata={op_name="reduce_and"}
  ROOT %reduce_and.62 = pred[] and(%reduce_and.60, %reduce_and.61), metadata={op_name="jit(compiled_generate_function)/decoder_block_7/attention/reduce_and" stack_frame_id=401}
}

%region_70.77 (reduce_sum.374: f32[], reduce_sum.375: f32[]) -> f32[] {
  %reduce_sum.374 = f32[] parameter(0), metadata={op_name="reduce_sum"}
  %reduce_sum.375 = f32[] parameter(1), metadata={op_name="reduce_sum"}
  ROOT %reduce_sum.376 = f32[] add(%reduce_sum.374, %reduce_sum.375), metadata={op_name="jit(compiled_generate_function)/decoder_block_7/post_attention_norm/reduce_sum" stack_frame_id=432}
}

%region_71.78 (reduce_sum.381: f32[], reduce_sum.382: f32[]) -> f32[] {
  %reduce_sum.381 = f32[] parameter(0), metadata={op_name="reduce_sum"}
  %reduce_sum.382 = f32[] parameter(1), metadata={op_name="reduce_sum"}
  ROOT %reduce_sum.383 = f32[] add(%reduce_sum.381, %reduce_sum.382), metadata={op_name="jit(compiled_generate_function)/decoder_block_7/pre_ffw_norm/reduce_sum" stack_frame_id=479}
}

%region_72.79 (reduce_sum.388: f32[], reduce_sum.389: f32[]) -> f32[] {
  %reduce_sum.388 = f32[] parameter(0), metadata={op_name="reduce_sum"}
  %reduce_sum.389 = f32[] parameter(1), metadata={op_name="reduce_sum"}
  ROOT %reduce_sum.390 = f32[] add(%reduce_sum.388, %reduce_sum.389), metadata={op_name="jit(compiled_generate_function)/decoder_block_7/post_ffw_norm/reduce_sum" stack_frame_id=554}
}

%region_73.80 (reduce_sum.395: f32[], reduce_sum.396: f32[]) -> f32[] {
  %reduce_sum.395 = f32[] parameter(0), metadata={op_name="reduce_sum"}
  %reduce_sum.396 = f32[] parameter(1), metadata={op_name="reduce_sum"}
  ROOT %reduce_sum.397 = f32[] add(%reduce_sum.395, %reduce_sum.396), metadata={op_name="jit(compiled_generate_function)/decoder_block_8/pre_attention_norm/reduce_sum" stack_frame_id=53}
}

%region_74.81 (reduce_sum.402: f32[], reduce_sum.403: f32[]) -> f32[] {
  %reduce_sum.402 = f32[] parameter(0), metadata={op_name="reduce_sum"}
  %reduce_sum.403 = f32[] parameter(1), metadata={op_name="reduce_sum"}
  ROOT %reduce_sum.404 = f32[] add(%reduce_sum.402, %reduce_sum.403), metadata={op_name="jit(compiled_generate_function)/decoder_block_8/attention/query_norm/reduce_sum" stack_frame_id=148}
}

%region_75.82 (reduce_sum.409: f32[], reduce_sum.410: f32[]) -> f32[] {
  %reduce_sum.409 = f32[] parameter(0), metadata={op_name="reduce_sum"}
  %reduce_sum.410 = f32[] parameter(1), metadata={op_name="reduce_sum"}
  ROOT %reduce_sum.411 = f32[] add(%reduce_sum.409, %reduce_sum.410), metadata={op_name="jit(compiled_generate_function)/decoder_block_8/attention/key_norm/reduce_sum" stack_frame_id=259}
}

%region_76.83 (reduce_max.59: f32[], reduce_max.60: f32[]) -> f32[] {
  %reduce_max.59 = f32[] parameter(0), metadata={op_name="reduce_max"}
  %reduce_max.60 = f32[] parameter(1), metadata={op_name="reduce_max"}
  ROOT %reduce_max.61 = f32[] maximum(%reduce_max.59, %reduce_max.60), metadata={op_name="jit(compiled_generate_function)/decoder_block_8/attention/softmax_8/reduce_max" stack_frame_id=377}
}

%region_77.84 (reduce_sum.416: f32[], reduce_sum.417: f32[]) -> f32[] {
  %reduce_sum.416 = f32[] parameter(0), metadata={op_name="reduce_sum"}
  %reduce_sum.417 = f32[] parameter(1), metadata={op_name="reduce_sum"}
  ROOT %reduce_sum.418 = f32[] add(%reduce_sum.416, %reduce_sum.417), metadata={op_name="jit(compiled_generate_function)/decoder_block_8/attention/softmax_8/reduce_sum" stack_frame_id=377}
}

%region_78.85 (reduce_and.67: pred[], reduce_and.68: pred[]) -> pred[] {
  %reduce_and.67 = pred[] parameter(0), metadata={op_name="reduce_and"}
  %reduce_and.68 = pred[] parameter(1), metadata={op_name="reduce_and"}
  ROOT %reduce_and.69 = pred[] and(%reduce_and.67, %reduce_and.68), metadata={op_name="jit(compiled_generate_function)/decoder_block_8/attention/reduce_and" stack_frame_id=401}
}

%region_79.86 (reduce_sum.423: f32[], reduce_sum.424: f32[]) -> f32[] {
  %reduce_sum.423 = f32[] parameter(0), metadata={op_name="reduce_sum"}
  %reduce_sum.424 = f32[] parameter(1), metadata={op_name="reduce_sum"}
  ROOT %reduce_sum.425 = f32[] add(%reduce_sum.423, %reduce_sum.424), metadata={op_name="jit(compiled_generate_function)/decoder_block_8/post_attention_norm/reduce_sum" stack_frame_id=432}
}

%region_80.87 (reduce_sum.430: f32[], reduce_sum.431: f32[]) -> f32[] {
  %reduce_sum.430 = f32[] parameter(0), metadata={op_name="reduce_sum"}
  %reduce_sum.431 = f32[] parameter(1), metadata={op_name="reduce_sum"}
  ROOT %reduce_sum.432 = f32[] add(%reduce_sum.430, %reduce_sum.431), metadata={op_name="jit(compiled_generate_function)/decoder_block_8/pre_ffw_norm/reduce_sum" stack_frame_id=479}
}

%region_81.88 (reduce_sum.437: f32[], reduce_sum.438: f32[]) -> f32[] {
  %reduce_sum.437 = f32[] parameter(0), metadata={op_name="reduce_sum"}
  %reduce_sum.438 = f32[] parameter(1), metadata={op_name="reduce_sum"}
  ROOT %reduce_sum.439 = f32[] add(%reduce_sum.437, %reduce_sum.438), metadata={op_name="jit(compiled_generate_function)/decoder_block_8/post_ffw_norm/reduce_sum" stack_frame_id=554}
}

%region_82.89 (reduce_sum.444: f32[], reduce_sum.445: f32[]) -> f32[] {
  %reduce_sum.444 = f32[] parameter(0), metadata={op_name="reduce_sum"}
  %reduce_sum.445 = f32[] parameter(1), metadata={op_name="reduce_sum"}
  ROOT %reduce_sum.446 = f32[] add(%reduce_sum.444, %reduce_sum.445), metadata={op_name="jit(compiled_generate_function)/decoder_block_9/pre_attention_norm/reduce_sum" stack_frame_id=53}
}

%region_83.90 (reduce_sum.451: f32[], reduce_sum.452: f32[]) -> f32[] {
  %reduce_sum.451 = f32[] parameter(0), metadata={op_name="reduce_sum"}
  %reduce_sum.452 = f32[] parameter(1), metadata={op_name="reduce_sum"}
  ROOT %reduce_sum.453 = f32[] add(%reduce_sum.451, %reduce_sum.452), metadata={op_name="jit(compiled_generate_function)/decoder_block_9/attention/query_norm/reduce_sum" stack_frame_id=148}
}

%region_84.91 (reduce_sum.458: f32[], reduce_sum.459: f32[]) -> f32[] {
  %reduce_sum.458 = f32[] parameter(0), metadata={op_name="reduce_sum"}
  %reduce_sum.459 = f32[] parameter(1), metadata={op_name="reduce_sum"}
  ROOT %reduce_sum.460 = f32[] add(%reduce_sum.458, %reduce_sum.459), metadata={op_name="jit(compiled_generate_function)/decoder_block_9/attention/key_norm/reduce_sum" stack_frame_id=259}
}

%region_85.92 (reduce_max.66: f32[], reduce_max.67: f32[]) -> f32[] {
  %reduce_max.66 = f32[] parameter(0), metadata={op_name="reduce_max"}
  %reduce_max.67 = f32[] parameter(1), metadata={op_name="reduce_max"}
  ROOT %reduce_max.68 = f32[] maximum(%reduce_max.66, %reduce_max.67), metadata={op_name="jit(compiled_generate_function)/decoder_block_9/attention/softmax_9/reduce_max" stack_frame_id=377}
}

%region_86.93 (reduce_sum.465: f32[], reduce_sum.466: f32[]) -> f32[] {
  %reduce_sum.465 = f32[] parameter(0), metadata={op_name="reduce_sum"}
  %reduce_sum.466 = f32[] parameter(1), metadata={op_name="reduce_sum"}
  ROOT %reduce_sum.467 = f32[] add(%reduce_sum.465, %reduce_sum.466), metadata={op_name="jit(compiled_generate_function)/decoder_block_9/attention/softmax_9/reduce_sum" stack_frame_id=377}
}

%region_87.94 (reduce_and.74: pred[], reduce_and.75: pred[]) -> pred[] {
  %reduce_and.74 = pred[] parameter(0), metadata={op_name="reduce_and"}
  %reduce_and.75 = pred[] parameter(1), metadata={op_name="reduce_and"}
  ROOT %reduce_and.76 = pred[] and(%reduce_and.74, %reduce_and.75), metadata={op_name="jit(compiled_generate_function)/decoder_block_9/attention/reduce_and" stack_frame_id=401}
}

%region_88.95 (reduce_sum.472: f32[], reduce_sum.473: f32[]) -> f32[] {
  %reduce_sum.472 = f32[] parameter(0), metadata={op_name="reduce_sum"}
  %reduce_sum.473 = f32[] parameter(1), metadata={op_name="reduce_sum"}
  ROOT %reduce_sum.474 = f32[] add(%reduce_sum.472, %reduce_sum.473), metadata={op_name="jit(compiled_generate_function)/decoder_block_9/post_attention_norm/reduce_sum" stack_frame_id=432}
}

%region_89.96 (reduce_sum.479: f32[], reduce_sum.480: f32[]) -> f32[] {
  %reduce_sum.479 = f32[] parameter(0), metadata={op_name="reduce_sum"}
  %reduce_sum.480 = f32[] parameter(1), metadata={op_name="reduce_sum"}
  ROOT %reduce_sum.481 = f32[] add(%reduce_sum.479, %reduce_sum.480), metadata={op_name="jit(compiled_generate_function)/decoder_block_9/pre_ffw_norm/reduce_sum" stack_frame_id=479}
}

%region_90.97 (reduce_sum.486: f32[], reduce_sum.487: f32[]) -> f32[] {
  %reduce_sum.486 = f32[] parameter(0), metadata={op_name="reduce_sum"}
  %reduce_sum.487 = f32[] parameter(1), metadata={op_name="reduce_sum"}
  ROOT %reduce_sum.488 = f32[] add(%reduce_sum.486, %reduce_sum.487), metadata={op_name="jit(compiled_generate_function)/decoder_block_9/post_ffw_norm/reduce_sum" stack_frame_id=554}
}

%region_91.98 (reduce_sum.493: f32[], reduce_sum.494: f32[]) -> f32[] {
  %reduce_sum.493 = f32[] parameter(0), metadata={op_name="reduce_sum"}
  %reduce_sum.494 = f32[] parameter(1), metadata={op_name="reduce_sum"}
  ROOT %reduce_sum.495 = f32[] add(%reduce_sum.493, %reduce_sum.494), metadata={op_name="jit(compiled_generate_function)/decoder_block_10/pre_attention_norm/reduce_sum" stack_frame_id=53}
}

%region_92.99 (reduce_sum.500: f32[], reduce_sum.501: f32[]) -> f32[] {
  %reduce_sum.500 = f32[] parameter(0), metadata={op_name="reduce_sum"}
  %reduce_sum.501 = f32[] parameter(1), metadata={op_name="reduce_sum"}
  ROOT %reduce_sum.502 = f32[] add(%reduce_sum.500, %reduce_sum.501), metadata={op_name="jit(compiled_generate_function)/decoder_block_10/attention/query_norm/reduce_sum" stack_frame_id=148}
}

%region_93.100 (reduce_sum.507: f32[], reduce_sum.508: f32[]) -> f32[] {
  %reduce_sum.507 = f32[] parameter(0), metadata={op_name="reduce_sum"}
  %reduce_sum.508 = f32[] parameter(1), metadata={op_name="reduce_sum"}
  ROOT %reduce_sum.509 = f32[] add(%reduce_sum.507, %reduce_sum.508), metadata={op_name="jit(compiled_generate_function)/decoder_block_10/attention/key_norm/reduce_sum" stack_frame_id=259}
}

%region_94.101 (reduce_max.73: f32[], reduce_max.74: f32[]) -> f32[] {
  %reduce_max.73 = f32[] parameter(0), metadata={op_name="reduce_max"}
  %reduce_max.74 = f32[] parameter(1), metadata={op_name="reduce_max"}
  ROOT %reduce_max.75 = f32[] maximum(%reduce_max.73, %reduce_max.74), metadata={op_name="jit(compiled_generate_function)/decoder_block_10/attention/softmax_10/reduce_max" stack_frame_id=377}
}

%region_95.102 (reduce_sum.514: f32[], reduce_sum.515: f32[]) -> f32[] {
  %reduce_sum.514 = f32[] parameter(0), metadata={op_name="reduce_sum"}
  %reduce_sum.515 = f32[] parameter(1), metadata={op_name="reduce_sum"}
  ROOT %reduce_sum.516 = f32[] add(%reduce_sum.514, %reduce_sum.515), metadata={op_name="jit(compiled_generate_function)/decoder_block_10/attention/softmax_10/reduce_sum" stack_frame_id=377}
}

%region_96.103 (reduce_and.81: pred[], reduce_and.82: pred[]) -> pred[] {
  %reduce_and.81 = pred[] parameter(0), metadata={op_name="reduce_and"}
  %reduce_and.82 = pred[] parameter(1), metadata={op_name="reduce_and"}
  ROOT %reduce_and.83 = pred[] and(%reduce_and.81, %reduce_and.82), metadata={op_name="jit(compiled_generate_function)/decoder_block_10/attention/reduce_and" stack_frame_id=401}
}

%region_97.104 (reduce_sum.521: f32[], reduce_sum.522: f32[]) -> f32[] {
  %reduce_sum.521 = f32[] parameter(0), metadata={op_name="reduce_sum"}
  %reduce_sum.522 = f32[] parameter(1), metadata={op_name="reduce_sum"}
  ROOT %reduce_sum.523 = f32[] add(%reduce_sum.521, %reduce_sum.522), metadata={op_name="jit(compiled_generate_function)/decoder_block_10/post_attention_norm/reduce_sum" stack_frame_id=432}
}

%region_98.105 (reduce_sum.528: f32[], reduce_sum.529: f32[]) -> f32[] {
  %reduce_sum.528 = f32[] parameter(0), metadata={op_name="reduce_sum"}
  %reduce_sum.529 = f32[] parameter(1), metadata={op_name="reduce_sum"}
  ROOT %reduce_sum.530 = f32[] add(%reduce_sum.528, %reduce_sum.529), metadata={op_name="jit(compiled_generate_function)/decoder_block_10/pre_ffw_norm/reduce_sum" stack_frame_id=479}
}

%region_99.106 (reduce_sum.535: f32[], reduce_sum.536: f32[]) -> f32[] {
  %reduce_sum.535 = f32[] parameter(0), metadata={op_name="reduce_sum"}
  %reduce_sum.536 = f32[] parameter(1), metadata={op_name="reduce_sum"}
  ROOT %reduce_sum.537 = f32[] add(%reduce_sum.535, %reduce_sum.536), metadata={op_name="jit(compiled_generate_function)/decoder_block_10/post_ffw_norm/reduce_sum" stack_frame_id=554}
}

%region_100.107 (reduce_sum.542: f32[], reduce_sum.543: f32[]) -> f32[] {
  %reduce_sum.542 = f32[] parameter(0), metadata={op_name="reduce_sum"}
  %reduce_sum.543 = f32[] parameter(1), metadata={op_name="reduce_sum"}
  ROOT %reduce_sum.544 = f32[] add(%reduce_sum.542, %reduce_sum.543), metadata={op_name="jit(compiled_generate_function)/decoder_block_11/pre_attention_norm/reduce_sum" stack_frame_id=53}
}

%region_101.108 (reduce_sum.549: f32[], reduce_sum.550: f32[]) -> f32[] {
  %reduce_sum.549 = f32[] parameter(0), metadata={op_name="reduce_sum"}
  %reduce_sum.550 = f32[] parameter(1), metadata={op_name="reduce_sum"}
  ROOT %reduce_sum.551 = f32[] add(%reduce_sum.549, %reduce_sum.550), metadata={op_name="jit(compiled_generate_function)/decoder_block_11/attention/query_norm/reduce_sum" stack_frame_id=148}
}

%region_102.109 (reduce_sum.556: f32[], reduce_sum.557: f32[]) -> f32[] {
  %reduce_sum.556 = f32[] parameter(0), metadata={op_name="reduce_sum"}
  %reduce_sum.557 = f32[] parameter(1), metadata={op_name="reduce_sum"}
  ROOT %reduce_sum.558 = f32[] add(%reduce_sum.556, %reduce_sum.557), metadata={op_name="jit(compiled_generate_function)/decoder_block_11/attention/key_norm/reduce_sum" stack_frame_id=259}
}

%region_103.110 (reduce_max.80: f32[], reduce_max.81: f32[]) -> f32[] {
  %reduce_max.80 = f32[] parameter(0), metadata={op_name="reduce_max"}
  %reduce_max.81 = f32[] parameter(1), metadata={op_name="reduce_max"}
  ROOT %reduce_max.82 = f32[] maximum(%reduce_max.80, %reduce_max.81), metadata={op_name="jit(compiled_generate_function)/decoder_block_11/attention/softmax_11/reduce_max" stack_frame_id=377}
}

%region_104.111 (reduce_sum.563: f32[], reduce_sum.564: f32[]) -> f32[] {
  %reduce_sum.563 = f32[] parameter(0), metadata={op_name="reduce_sum"}
  %reduce_sum.564 = f32[] parameter(1), metadata={op_name="reduce_sum"}
  ROOT %reduce_sum.565 = f32[] add(%reduce_sum.563, %reduce_sum.564), metadata={op_name="jit(compiled_generate_function)/decoder_block_11/attention/softmax_11/reduce_sum" stack_frame_id=377}
}

%region_105.112 (reduce_and.88: pred[], reduce_and.89: pred[]) -> pred[] {
  %reduce_and.88 = pred[] parameter(0), metadata={op_name="reduce_and"}
  %reduce_and.89 = pred[] parameter(1), metadata={op_name="reduce_and"}
  ROOT %reduce_and.90 = pred[] and(%reduce_and.88, %reduce_and.89), metadata={op_name="jit(compiled_generate_function)/decoder_block_11/attention/reduce_and" stack_frame_id=401}
}

%region_106.113 (reduce_sum.570: f32[], reduce_sum.571: f32[]) -> f32[] {
  %reduce_sum.570 = f32[] parameter(0), metadata={op_name="reduce_sum"}
  %reduce_sum.571 = f32[] parameter(1), metadata={op_name="reduce_sum"}
  ROOT %reduce_sum.572 = f32[] add(%reduce_sum.570, %reduce_sum.571), metadata={op_name="jit(compiled_generate_function)/decoder_block_11/post_attention_norm/reduce_sum" stack_frame_id=432}
}

%region_107.114 (reduce_sum.577: f32[], reduce_sum.578: f32[]) -> f32[] {
  %reduce_sum.577 = f32[] parameter(0), metadata={op_name="reduce_sum"}
  %reduce_sum.578 = f32[] parameter(1), metadata={op_name="reduce_sum"}
  ROOT %reduce_sum.579 = f32[] add(%reduce_sum.577, %reduce_sum.578), metadata={op_name="jit(compiled_generate_function)/decoder_block_11/pre_ffw_norm/reduce_sum" stack_frame_id=479}
}

%region_108.115 (reduce_sum.584: f32[], reduce_sum.585: f32[]) -> f32[] {
  %reduce_sum.584 = f32[] parameter(0), metadata={op_name="reduce_sum"}
  %reduce_sum.585 = f32[] parameter(1), metadata={op_name="reduce_sum"}
  ROOT %reduce_sum.586 = f32[] add(%reduce_sum.584, %reduce_sum.585), metadata={op_name="jit(compiled_generate_function)/decoder_block_11/post_ffw_norm/reduce_sum" stack_frame_id=554}
}

%region_109.116 (reduce_sum.591: f32[], reduce_sum.592: f32[]) -> f32[] {
  %reduce_sum.591 = f32[] parameter(0), metadata={op_name="reduce_sum"}
  %reduce_sum.592 = f32[] parameter(1), metadata={op_name="reduce_sum"}
  ROOT %reduce_sum.593 = f32[] add(%reduce_sum.591, %reduce_sum.592), metadata={op_name="jit(compiled_generate_function)/decoder_block_12/pre_attention_norm/reduce_sum" stack_frame_id=53}
}

%region_110.117 (reduce_sum.598: f32[], reduce_sum.599: f32[]) -> f32[] {
  %reduce_sum.598 = f32[] parameter(0), metadata={op_name="reduce_sum"}
  %reduce_sum.599 = f32[] parameter(1), metadata={op_name="reduce_sum"}
  ROOT %reduce_sum.600 = f32[] add(%reduce_sum.598, %reduce_sum.599), metadata={op_name="jit(compiled_generate_function)/decoder_block_12/attention/query_norm/reduce_sum" stack_frame_id=148}
}

%region_111.118 (reduce_sum.605: f32[], reduce_sum.606: f32[]) -> f32[] {
  %reduce_sum.605 = f32[] parameter(0), metadata={op_name="reduce_sum"}
  %reduce_sum.606 = f32[] parameter(1), metadata={op_name="reduce_sum"}
  ROOT %reduce_sum.607 = f32[] add(%reduce_sum.605, %reduce_sum.606), metadata={op_name="jit(compiled_generate_function)/decoder_block_12/attention/key_norm/reduce_sum" stack_frame_id=259}
}

%region_112.119 (reduce_max.87: f32[], reduce_max.88: f32[]) -> f32[] {
  %reduce_max.87 = f32[] parameter(0), metadata={op_name="reduce_max"}
  %reduce_max.88 = f32[] parameter(1), metadata={op_name="reduce_max"}
  ROOT %reduce_max.89 = f32[] maximum(%reduce_max.87, %reduce_max.88), metadata={op_name="jit(compiled_generate_function)/decoder_block_12/attention/softmax_12/reduce_max" stack_frame_id=377}
}

%region_113.120 (reduce_sum.612: f32[], reduce_sum.613: f32[]) -> f32[] {
  %reduce_sum.612 = f32[] parameter(0), metadata={op_name="reduce_sum"}
  %reduce_sum.613 = f32[] parameter(1), metadata={op_name="reduce_sum"}
  ROOT %reduce_sum.614 = f32[] add(%reduce_sum.612, %reduce_sum.613), metadata={op_name="jit(compiled_generate_function)/decoder_block_12/attention/softmax_12/reduce_sum" stack_frame_id=377}
}

%region_114.121 (reduce_and.95: pred[], reduce_and.96: pred[]) -> pred[] {
  %reduce_and.95 = pred[] parameter(0), metadata={op_name="reduce_and"}
  %reduce_and.96 = pred[] parameter(1), metadata={op_name="reduce_and"}
  ROOT %reduce_and.97 = pred[] and(%reduce_and.95, %reduce_and.96), metadata={op_name="jit(compiled_generate_function)/decoder_block_12/attention/reduce_and" stack_frame_id=401}
}

%region_115.122 (reduce_sum.619: f32[], reduce_sum.620: f32[]) -> f32[] {
  %reduce_sum.619 = f32[] parameter(0), metadata={op_name="reduce_sum"}
  %reduce_sum.620 = f32[] parameter(1), metadata={op_name="reduce_sum"}
  ROOT %reduce_sum.621 = f32[] add(%reduce_sum.619, %reduce_sum.620), metadata={op_name="jit(compiled_generate_function)/decoder_block_12/post_attention_norm/reduce_sum" stack_frame_id=432}
}

%region_116.123 (reduce_sum.626: f32[], reduce_sum.627: f32[]) -> f32[] {
  %reduce_sum.626 = f32[] parameter(0), metadata={op_name="reduce_sum"}
  %reduce_sum.627 = f32[] parameter(1), metadata={op_name="reduce_sum"}
  ROOT %reduce_sum.628 = f32[] add(%reduce_sum.626, %reduce_sum.627), metadata={op_name="jit(compiled_generate_function)/decoder_block_12/pre_ffw_norm/reduce_sum" stack_frame_id=479}
}

%region_117.124 (reduce_sum.633: f32[], reduce_sum.634: f32[]) -> f32[] {
  %reduce_sum.633 = f32[] parameter(0), metadata={op_name="reduce_sum"}
  %reduce_sum.634 = f32[] parameter(1), metadata={op_name="reduce_sum"}
  ROOT %reduce_sum.635 = f32[] add(%reduce_sum.633, %reduce_sum.634), metadata={op_name="jit(compiled_generate_function)/decoder_block_12/post_ffw_norm/reduce_sum" stack_frame_id=554}
}

%region_118.125 (reduce_sum.640: f32[], reduce_sum.641: f32[]) -> f32[] {
  %reduce_sum.640 = f32[] parameter(0), metadata={op_name="reduce_sum"}
  %reduce_sum.641 = f32[] parameter(1), metadata={op_name="reduce_sum"}
  ROOT %reduce_sum.642 = f32[] add(%reduce_sum.640, %reduce_sum.641), metadata={op_name="jit(compiled_generate_function)/decoder_block_13/pre_attention_norm/reduce_sum" stack_frame_id=53}
}

%region_119.126 (reduce_sum.647: f32[], reduce_sum.648: f32[]) -> f32[] {
  %reduce_sum.647 = f32[] parameter(0), metadata={op_name="reduce_sum"}
  %reduce_sum.648 = f32[] parameter(1), metadata={op_name="reduce_sum"}
  ROOT %reduce_sum.649 = f32[] add(%reduce_sum.647, %reduce_sum.648), metadata={op_name="jit(compiled_generate_function)/decoder_block_13/attention/query_norm/reduce_sum" stack_frame_id=148}
}

%region_120.127 (reduce_sum.654: f32[], reduce_sum.655: f32[]) -> f32[] {
  %reduce_sum.654 = f32[] parameter(0), metadata={op_name="reduce_sum"}
  %reduce_sum.655 = f32[] parameter(1), metadata={op_name="reduce_sum"}
  ROOT %reduce_sum.656 = f32[] add(%reduce_sum.654, %reduce_sum.655), metadata={op_name="jit(compiled_generate_function)/decoder_block_13/attention/key_norm/reduce_sum" stack_frame_id=259}
}

%region_121.128 (reduce_max.94: f32[], reduce_max.95: f32[]) -> f32[] {
  %reduce_max.94 = f32[] parameter(0), metadata={op_name="reduce_max"}
  %reduce_max.95 = f32[] parameter(1), metadata={op_name="reduce_max"}
  ROOT %reduce_max.96 = f32[] maximum(%reduce_max.94, %reduce_max.95), metadata={op_name="jit(compiled_generate_function)/decoder_block_13/attention/softmax_13/reduce_max" stack_frame_id=377}
}

%region_122.129 (reduce_sum.661: f32[], reduce_sum.662: f32[]) -> f32[] {
  %reduce_sum.661 = f32[] parameter(0), metadata={op_name="reduce_sum"}
  %reduce_sum.662 = f32[] parameter(1), metadata={op_name="reduce_sum"}
  ROOT %reduce_sum.663 = f32[] add(%reduce_sum.661, %reduce_sum.662), metadata={op_name="jit(compiled_generate_function)/decoder_block_13/attention/softmax_13/reduce_sum" stack_frame_id=377}
}

%region_123.130 (reduce_and.102: pred[], reduce_and.103: pred[]) -> pred[] {
  %reduce_and.102 = pred[] parameter(0), metadata={op_name="reduce_and"}
  %reduce_and.103 = pred[] parameter(1), metadata={op_name="reduce_and"}
  ROOT %reduce_and.104 = pred[] and(%reduce_and.102, %reduce_and.103), metadata={op_name="jit(compiled_generate_function)/decoder_block_13/attention/reduce_and" stack_frame_id=401}
}

%region_124.131 (reduce_sum.668: f32[], reduce_sum.669: f32[]) -> f32[] {
  %reduce_sum.668 = f32[] parameter(0), metadata={op_name="reduce_sum"}
  %reduce_sum.669 = f32[] parameter(1), metadata={op_name="reduce_sum"}
  ROOT %reduce_sum.670 = f32[] add(%reduce_sum.668, %reduce_sum.669), metadata={op_name="jit(compiled_generate_function)/decoder_block_13/post_attention_norm/reduce_sum" stack_frame_id=432}
}

%region_125.132 (reduce_sum.675: f32[], reduce_sum.676: f32[]) -> f32[] {
  %reduce_sum.675 = f32[] parameter(0), metadata={op_name="reduce_sum"}
  %reduce_sum.676 = f32[] parameter(1), metadata={op_name="reduce_sum"}
  ROOT %reduce_sum.677 = f32[] add(%reduce_sum.675, %reduce_sum.676), metadata={op_name="jit(compiled_generate_function)/decoder_block_13/pre_ffw_norm/reduce_sum" stack_frame_id=479}
}

%region_126.133 (reduce_sum.682: f32[], reduce_sum.683: f32[]) -> f32[] {
  %reduce_sum.682 = f32[] parameter(0), metadata={op_name="reduce_sum"}
  %reduce_sum.683 = f32[] parameter(1), metadata={op_name="reduce_sum"}
  ROOT %reduce_sum.684 = f32[] add(%reduce_sum.682, %reduce_sum.683), metadata={op_name="jit(compiled_generate_function)/decoder_block_13/post_ffw_norm/reduce_sum" stack_frame_id=554}
}

%region_127.134 (reduce_sum.689: f32[], reduce_sum.690: f32[]) -> f32[] {
  %reduce_sum.689 = f32[] parameter(0), metadata={op_name="reduce_sum"}
  %reduce_sum.690 = f32[] parameter(1), metadata={op_name="reduce_sum"}
  ROOT %reduce_sum.691 = f32[] add(%reduce_sum.689, %reduce_sum.690), metadata={op_name="jit(compiled_generate_function)/decoder_block_14/pre_attention_norm/reduce_sum" stack_frame_id=53}
}

%region_128.135 (reduce_sum.696: f32[], reduce_sum.697: f32[]) -> f32[] {
  %reduce_sum.696 = f32[] parameter(0), metadata={op_name="reduce_sum"}
  %reduce_sum.697 = f32[] parameter(1), metadata={op_name="reduce_sum"}
  ROOT %reduce_sum.698 = f32[] add(%reduce_sum.696, %reduce_sum.697), metadata={op_name="jit(compiled_generate_function)/decoder_block_14/attention/query_norm/reduce_sum" stack_frame_id=148}
}

%region_129.136 (reduce_sum.703: f32[], reduce_sum.704: f32[]) -> f32[] {
  %reduce_sum.703 = f32[] parameter(0), metadata={op_name="reduce_sum"}
  %reduce_sum.704 = f32[] parameter(1), metadata={op_name="reduce_sum"}
  ROOT %reduce_sum.705 = f32[] add(%reduce_sum.703, %reduce_sum.704), metadata={op_name="jit(compiled_generate_function)/decoder_block_14/attention/key_norm/reduce_sum" stack_frame_id=259}
}

%region_130.137 (reduce_max.101: f32[], reduce_max.102: f32[]) -> f32[] {
  %reduce_max.101 = f32[] parameter(0), metadata={op_name="reduce_max"}
  %reduce_max.102 = f32[] parameter(1), metadata={op_name="reduce_max"}
  ROOT %reduce_max.103 = f32[] maximum(%reduce_max.101, %reduce_max.102), metadata={op_name="jit(compiled_generate_function)/decoder_block_14/attention/softmax_14/reduce_max" stack_frame_id=377}
}

%region_131.138 (reduce_sum.710: f32[], reduce_sum.711: f32[]) -> f32[] {
  %reduce_sum.710 = f32[] parameter(0), metadata={op_name="reduce_sum"}
  %reduce_sum.711 = f32[] parameter(1), metadata={op_name="reduce_sum"}
  ROOT %reduce_sum.712 = f32[] add(%reduce_sum.710, %reduce_sum.711), metadata={op_name="jit(compiled_generate_function)/decoder_block_14/attention/softmax_14/reduce_sum" stack_frame_id=377}
}

%region_132.139 (reduce_and.109: pred[], reduce_and.110: pred[]) -> pred[] {
  %reduce_and.109 = pred[] parameter(0), metadata={op_name="reduce_and"}
  %reduce_and.110 = pred[] parameter(1), metadata={op_name="reduce_and"}
  ROOT %reduce_and.111 = pred[] and(%reduce_and.109, %reduce_and.110), metadata={op_name="jit(compiled_generate_function)/decoder_block_14/attention/reduce_and" stack_frame_id=401}
}

%region_133.140 (reduce_sum.717: f32[], reduce_sum.718: f32[]) -> f32[] {
  %reduce_sum.717 = f32[] parameter(0), metadata={op_name="reduce_sum"}
  %reduce_sum.718 = f32[] parameter(1), metadata={op_name="reduce_sum"}
  ROOT %reduce_sum.719 = f32[] add(%reduce_sum.717, %reduce_sum.718), metadata={op_name="jit(compiled_generate_function)/decoder_block_14/post_attention_norm/reduce_sum" stack_frame_id=432}
}

%region_134.141 (reduce_sum.724: f32[], reduce_sum.725: f32[]) -> f32[] {
  %reduce_sum.724 = f32[] parameter(0), metadata={op_name="reduce_sum"}
  %reduce_sum.725 = f32[] parameter(1), metadata={op_name="reduce_sum"}
  ROOT %reduce_sum.726 = f32[] add(%reduce_sum.724, %reduce_sum.725), metadata={op_name="jit(compiled_generate_function)/decoder_block_14/pre_ffw_norm/reduce_sum" stack_frame_id=479}
}

%region_135.142 (reduce_sum.731: f32[], reduce_sum.732: f32[]) -> f32[] {
  %reduce_sum.731 = f32[] parameter(0), metadata={op_name="reduce_sum"}
  %reduce_sum.732 = f32[] parameter(1), metadata={op_name="reduce_sum"}
  ROOT %reduce_sum.733 = f32[] add(%reduce_sum.731, %reduce_sum.732), metadata={op_name="jit(compiled_generate_function)/decoder_block_14/post_ffw_norm/reduce_sum" stack_frame_id=554}
}

%region_136.143 (reduce_sum.738: f32[], reduce_sum.739: f32[]) -> f32[] {
  %reduce_sum.738 = f32[] parameter(0), metadata={op_name="reduce_sum"}
  %reduce_sum.739 = f32[] parameter(1), metadata={op_name="reduce_sum"}
  ROOT %reduce_sum.740 = f32[] add(%reduce_sum.738, %reduce_sum.739), metadata={op_name="jit(compiled_generate_function)/decoder_block_15/pre_attention_norm/reduce_sum" stack_frame_id=53}
}

%region_137.144 (reduce_sum.745: f32[], reduce_sum.746: f32[]) -> f32[] {
  %reduce_sum.745 = f32[] parameter(0), metadata={op_name="reduce_sum"}
  %reduce_sum.746 = f32[] parameter(1), metadata={op_name="reduce_sum"}
  ROOT %reduce_sum.747 = f32[] add(%reduce_sum.745, %reduce_sum.746), metadata={op_name="jit(compiled_generate_function)/decoder_block_15/attention/query_norm/reduce_sum" stack_frame_id=148}
}

%region_138.145 (reduce_sum.752: f32[], reduce_sum.753: f32[]) -> f32[] {
  %reduce_sum.752 = f32[] parameter(0), metadata={op_name="reduce_sum"}
  %reduce_sum.753 = f32[] parameter(1), metadata={op_name="reduce_sum"}
  ROOT %reduce_sum.754 = f32[] add(%reduce_sum.752, %reduce_sum.753), metadata={op_name="jit(compiled_generate_function)/decoder_block_15/attention/key_norm/reduce_sum" stack_frame_id=259}
}

%region_139.146 (reduce_max.108: f32[], reduce_max.109: f32[]) -> f32[] {
  %reduce_max.108 = f32[] parameter(0), metadata={op_name="reduce_max"}
  %reduce_max.109 = f32[] parameter(1), metadata={op_name="reduce_max"}
  ROOT %reduce_max.110 = f32[] maximum(%reduce_max.108, %reduce_max.109), metadata={op_name="jit(compiled_generate_function)/decoder_block_15/attention/softmax_15/reduce_max" stack_frame_id=377}
}

%region_140.147 (reduce_sum.759: f32[], reduce_sum.760: f32[]) -> f32[] {
  %reduce_sum.759 = f32[] parameter(0), metadata={op_name="reduce_sum"}
  %reduce_sum.760 = f32[] parameter(1), metadata={op_name="reduce_sum"}
  ROOT %reduce_sum.761 = f32[] add(%reduce_sum.759, %reduce_sum.760), metadata={op_name="jit(compiled_generate_function)/decoder_block_15/attention/softmax_15/reduce_sum" stack_frame_id=377}
}

%region_141.148 (reduce_and.116: pred[], reduce_and.117: pred[]) -> pred[] {
  %reduce_and.116 = pred[] parameter(0), metadata={op_name="reduce_and"}
  %reduce_and.117 = pred[] parameter(1), metadata={op_name="reduce_and"}
  ROOT %reduce_and.118 = pred[] and(%reduce_and.116, %reduce_and.117), metadata={op_name="jit(compiled_generate_function)/decoder_block_15/attention/reduce_and" stack_frame_id=401}
}

%region_142.149 (reduce_sum.766: f32[], reduce_sum.767: f32[]) -> f32[] {
  %reduce_sum.766 = f32[] parameter(0), metadata={op_name="reduce_sum"}
  %reduce_sum.767 = f32[] parameter(1), metadata={op_name="reduce_sum"}
  ROOT %reduce_sum.768 = f32[] add(%reduce_sum.766, %reduce_sum.767), metadata={op_name="jit(compiled_generate_function)/decoder_block_15/post_attention_norm/reduce_sum" stack_frame_id=432}
}

%region_143.150 (reduce_sum.773: f32[], reduce_sum.774: f32[]) -> f32[] {
  %reduce_sum.773 = f32[] parameter(0), metadata={op_name="reduce_sum"}
  %reduce_sum.774 = f32[] parameter(1), metadata={op_name="reduce_sum"}
  ROOT %reduce_sum.775 = f32[] add(%reduce_sum.773, %reduce_sum.774), metadata={op_name="jit(compiled_generate_function)/decoder_block_15/pre_ffw_norm/reduce_sum" stack_frame_id=479}
}

%region_144.151 (reduce_sum.780: f32[], reduce_sum.781: f32[]) -> f32[] {
  %reduce_sum.780 = f32[] parameter(0), metadata={op_name="reduce_sum"}
  %reduce_sum.781 = f32[] parameter(1), metadata={op_name="reduce_sum"}
  ROOT %reduce_sum.782 = f32[] add(%reduce_sum.780, %reduce_sum.781), metadata={op_name="jit(compiled_generate_function)/decoder_block_15/post_ffw_norm/reduce_sum" stack_frame_id=554}
}

%region_145.152 (reduce_sum.787: f32[], reduce_sum.788: f32[]) -> f32[] {
  %reduce_sum.787 = f32[] parameter(0), metadata={op_name="reduce_sum"}
  %reduce_sum.788 = f32[] parameter(1), metadata={op_name="reduce_sum"}
  ROOT %reduce_sum.789 = f32[] add(%reduce_sum.787, %reduce_sum.788), metadata={op_name="jit(compiled_generate_function)/decoder_block_16/pre_attention_norm/reduce_sum" stack_frame_id=53}
}

%region_146.153 (reduce_sum.794: f32[], reduce_sum.795: f32[]) -> f32[] {
  %reduce_sum.794 = f32[] parameter(0), metadata={op_name="reduce_sum"}
  %reduce_sum.795 = f32[] parameter(1), metadata={op_name="reduce_sum"}
  ROOT %reduce_sum.796 = f32[] add(%reduce_sum.794, %reduce_sum.795), metadata={op_name="jit(compiled_generate_function)/decoder_block_16/attention/query_norm/reduce_sum" stack_frame_id=148}
}

%region_147.154 (reduce_sum.801: f32[], reduce_sum.802: f32[]) -> f32[] {
  %reduce_sum.801 = f32[] parameter(0), metadata={op_name="reduce_sum"}
  %reduce_sum.802 = f32[] parameter(1), metadata={op_name="reduce_sum"}
  ROOT %reduce_sum.803 = f32[] add(%reduce_sum.801, %reduce_sum.802), metadata={op_name="jit(compiled_generate_function)/decoder_block_16/attention/key_norm/reduce_sum" stack_frame_id=259}
}

%region_148.155 (reduce_max.115: f32[], reduce_max.116: f32[]) -> f32[] {
  %reduce_max.115 = f32[] parameter(0), metadata={op_name="reduce_max"}
  %reduce_max.116 = f32[] parameter(1), metadata={op_name="reduce_max"}
  ROOT %reduce_max.117 = f32[] maximum(%reduce_max.115, %reduce_max.116), metadata={op_name="jit(compiled_generate_function)/decoder_block_16/attention/softmax_16/reduce_max" stack_frame_id=377}
}

%region_149.156 (reduce_sum.808: f32[], reduce_sum.809: f32[]) -> f32[] {
  %reduce_sum.808 = f32[] parameter(0), metadata={op_name="reduce_sum"}
  %reduce_sum.809 = f32[] parameter(1), metadata={op_name="reduce_sum"}
  ROOT %reduce_sum.810 = f32[] add(%reduce_sum.808, %reduce_sum.809), metadata={op_name="jit(compiled_generate_function)/decoder_block_16/attention/softmax_16/reduce_sum" stack_frame_id=377}
}

%region_150.157 (reduce_and.123: pred[], reduce_and.124: pred[]) -> pred[] {
  %reduce_and.123 = pred[] parameter(0), metadata={op_name="reduce_and"}
  %reduce_and.124 = pred[] parameter(1), metadata={op_name="reduce_and"}
  ROOT %reduce_and.125 = pred[] and(%reduce_and.123, %reduce_and.124), metadata={op_name="jit(compiled_generate_function)/decoder_block_16/attention/reduce_and" stack_frame_id=401}
}

%region_151.158 (reduce_sum.815: f32[], reduce_sum.816: f32[]) -> f32[] {
  %reduce_sum.815 = f32[] parameter(0), metadata={op_name="reduce_sum"}
  %reduce_sum.816 = f32[] parameter(1), metadata={op_name="reduce_sum"}
  ROOT %reduce_sum.817 = f32[] add(%reduce_sum.815, %reduce_sum.816), metadata={op_name="jit(compiled_generate_function)/decoder_block_16/post_attention_norm/reduce_sum" stack_frame_id=432}
}

%region_152.159 (reduce_sum.822: f32[], reduce_sum.823: f32[]) -> f32[] {
  %reduce_sum.822 = f32[] parameter(0), metadata={op_name="reduce_sum"}
  %reduce_sum.823 = f32[] parameter(1), metadata={op_name="reduce_sum"}
  ROOT %reduce_sum.824 = f32[] add(%reduce_sum.822, %reduce_sum.823), metadata={op_name="jit(compiled_generate_function)/decoder_block_16/pre_ffw_norm/reduce_sum" stack_frame_id=479}
}

%region_153.160 (reduce_sum.829: f32[], reduce_sum.830: f32[]) -> f32[] {
  %reduce_sum.829 = f32[] parameter(0), metadata={op_name="reduce_sum"}
  %reduce_sum.830 = f32[] parameter(1), metadata={op_name="reduce_sum"}
  ROOT %reduce_sum.831 = f32[] add(%reduce_sum.829, %reduce_sum.830), metadata={op_name="jit(compiled_generate_function)/decoder_block_16/post_ffw_norm/reduce_sum" stack_frame_id=554}
}

%region_154.161 (reduce_sum.836: f32[], reduce_sum.837: f32[]) -> f32[] {
  %reduce_sum.836 = f32[] parameter(0), metadata={op_name="reduce_sum"}
  %reduce_sum.837 = f32[] parameter(1), metadata={op_name="reduce_sum"}
  ROOT %reduce_sum.838 = f32[] add(%reduce_sum.836, %reduce_sum.837), metadata={op_name="jit(compiled_generate_function)/decoder_block_17/pre_attention_norm/reduce_sum" stack_frame_id=53}
}

%region_155.162 (reduce_sum.843: f32[], reduce_sum.844: f32[]) -> f32[] {
  %reduce_sum.843 = f32[] parameter(0), metadata={op_name="reduce_sum"}
  %reduce_sum.844 = f32[] parameter(1), metadata={op_name="reduce_sum"}
  ROOT %reduce_sum.845 = f32[] add(%reduce_sum.843, %reduce_sum.844), metadata={op_name="jit(compiled_generate_function)/decoder_block_17/attention/query_norm/reduce_sum" stack_frame_id=148}
}

%region_156.163 (reduce_sum.850: f32[], reduce_sum.851: f32[]) -> f32[] {
  %reduce_sum.850 = f32[] parameter(0), metadata={op_name="reduce_sum"}
  %reduce_sum.851 = f32[] parameter(1), metadata={op_name="reduce_sum"}
  ROOT %reduce_sum.852 = f32[] add(%reduce_sum.850, %reduce_sum.851), metadata={op_name="jit(compiled_generate_function)/decoder_block_17/attention/key_norm/reduce_sum" stack_frame_id=259}
}

%region_157.164 (reduce_max.122: f32[], reduce_max.123: f32[]) -> f32[] {
  %reduce_max.122 = f32[] parameter(0), metadata={op_name="reduce_max"}
  %reduce_max.123 = f32[] parameter(1), metadata={op_name="reduce_max"}
  ROOT %reduce_max.124 = f32[] maximum(%reduce_max.122, %reduce_max.123), metadata={op_name="jit(compiled_generate_function)/decoder_block_17/attention/softmax_17/reduce_max" stack_frame_id=377}
}

%region_158.165 (reduce_sum.857: f32[], reduce_sum.858: f32[]) -> f32[] {
  %reduce_sum.857 = f32[] parameter(0), metadata={op_name="reduce_sum"}
  %reduce_sum.858 = f32[] parameter(1), metadata={op_name="reduce_sum"}
  ROOT %reduce_sum.859 = f32[] add(%reduce_sum.857, %reduce_sum.858), metadata={op_name="jit(compiled_generate_function)/decoder_block_17/attention/softmax_17/reduce_sum" stack_frame_id=377}
}

%region_159.166 (reduce_and.130: pred[], reduce_and.131: pred[]) -> pred[] {
  %reduce_and.130 = pred[] parameter(0), metadata={op_name="reduce_and"}
  %reduce_and.131 = pred[] parameter(1), metadata={op_name="reduce_and"}
  ROOT %reduce_and.132 = pred[] and(%reduce_and.130, %reduce_and.131), metadata={op_name="jit(compiled_generate_function)/decoder_block_17/attention/reduce_and" stack_frame_id=401}
}

%region_160.167 (reduce_sum.864: f32[], reduce_sum.865: f32[]) -> f32[] {
  %reduce_sum.864 = f32[] parameter(0), metadata={op_name="reduce_sum"}
  %reduce_sum.865 = f32[] parameter(1), metadata={op_name="reduce_sum"}
  ROOT %reduce_sum.866 = f32[] add(%reduce_sum.864, %reduce_sum.865), metadata={op_name="jit(compiled_generate_function)/decoder_block_17/post_attention_norm/reduce_sum" stack_frame_id=432}
}

%region_161.168 (reduce_sum.871: f32[], reduce_sum.872: f32[]) -> f32[] {
  %reduce_sum.871 = f32[] parameter(0), metadata={op_name="reduce_sum"}
  %reduce_sum.872 = f32[] parameter(1), metadata={op_name="reduce_sum"}
  ROOT %reduce_sum.873 = f32[] add(%reduce_sum.871, %reduce_sum.872), metadata={op_name="jit(compiled_generate_function)/decoder_block_17/pre_ffw_norm/reduce_sum" stack_frame_id=479}
}

%region_162.169 (reduce_sum.878: f32[], reduce_sum.879: f32[]) -> f32[] {
  %reduce_sum.878 = f32[] parameter(0), metadata={op_name="reduce_sum"}
  %reduce_sum.879 = f32[] parameter(1), metadata={op_name="reduce_sum"}
  ROOT %reduce_sum.880 = f32[] add(%reduce_sum.878, %reduce_sum.879), metadata={op_name="jit(compiled_generate_function)/decoder_block_17/post_ffw_norm/reduce_sum" stack_frame_id=554}
}

%region_163.170 (reduce_sum.885: f32[], reduce_sum.886: f32[]) -> f32[] {
  %reduce_sum.885 = f32[] parameter(0), metadata={op_name="reduce_sum"}
  %reduce_sum.886 = f32[] parameter(1), metadata={op_name="reduce_sum"}
  ROOT %reduce_sum.887 = f32[] add(%reduce_sum.885, %reduce_sum.886), metadata={op_name="jit(compiled_generate_function)/decoder_block_18/pre_attention_norm/reduce_sum" stack_frame_id=53}
}

%region_164.171 (reduce_sum.892: f32[], reduce_sum.893: f32[]) -> f32[] {
  %reduce_sum.892 = f32[] parameter(0), metadata={op_name="reduce_sum"}
  %reduce_sum.893 = f32[] parameter(1), metadata={op_name="reduce_sum"}
  ROOT %reduce_sum.894 = f32[] add(%reduce_sum.892, %reduce_sum.893), metadata={op_name="jit(compiled_generate_function)/decoder_block_18/attention/query_norm/reduce_sum" stack_frame_id=148}
}

%region_165.172 (reduce_sum.899: f32[], reduce_sum.900: f32[]) -> f32[] {
  %reduce_sum.899 = f32[] parameter(0), metadata={op_name="reduce_sum"}
  %reduce_sum.900 = f32[] parameter(1), metadata={op_name="reduce_sum"}
  ROOT %reduce_sum.901 = f32[] add(%reduce_sum.899, %reduce_sum.900), metadata={op_name="jit(compiled_generate_function)/decoder_block_18/attention/key_norm/reduce_sum" stack_frame_id=259}
}

%region_166.173 (reduce_max.129: f32[], reduce_max.130: f32[]) -> f32[] {
  %reduce_max.129 = f32[] parameter(0), metadata={op_name="reduce_max"}
  %reduce_max.130 = f32[] parameter(1), metadata={op_name="reduce_max"}
  ROOT %reduce_max.131 = f32[] maximum(%reduce_max.129, %reduce_max.130), metadata={op_name="jit(compiled_generate_function)/decoder_block_18/attention/softmax_18/reduce_max" stack_frame_id=377}
}

%region_167.174 (reduce_sum.906: f32[], reduce_sum.907: f32[]) -> f32[] {
  %reduce_sum.906 = f32[] parameter(0), metadata={op_name="reduce_sum"}
  %reduce_sum.907 = f32[] parameter(1), metadata={op_name="reduce_sum"}
  ROOT %reduce_sum.908 = f32[] add(%reduce_sum.906, %reduce_sum.907), metadata={op_name="jit(compiled_generate_function)/decoder_block_18/attention/softmax_18/reduce_sum" stack_frame_id=377}
}

%region_168.175 (reduce_and.137: pred[], reduce_and.138: pred[]) -> pred[] {
  %reduce_and.137 = pred[] parameter(0), metadata={op_name="reduce_and"}
  %reduce_and.138 = pred[] parameter(1), metadata={op_name="reduce_and"}
  ROOT %reduce_and.139 = pred[] and(%reduce_and.137, %reduce_and.138), metadata={op_name="jit(compiled_generate_function)/decoder_block_18/attention/reduce_and" stack_frame_id=401}
}

%region_169.176 (reduce_sum.913: f32[], reduce_sum.914: f32[]) -> f32[] {
  %reduce_sum.913 = f32[] parameter(0), metadata={op_name="reduce_sum"}
  %reduce_sum.914 = f32[] parameter(1), metadata={op_name="reduce_sum"}
  ROOT %reduce_sum.915 = f32[] add(%reduce_sum.913, %reduce_sum.914), metadata={op_name="jit(compiled_generate_function)/decoder_block_18/post_attention_norm/reduce_sum" stack_frame_id=432}
}

%region_170.177 (reduce_sum.920: f32[], reduce_sum.921: f32[]) -> f32[] {
  %reduce_sum.920 = f32[] parameter(0), metadata={op_name="reduce_sum"}
  %reduce_sum.921 = f32[] parameter(1), metadata={op_name="reduce_sum"}
  ROOT %reduce_sum.922 = f32[] add(%reduce_sum.920, %reduce_sum.921), metadata={op_name="jit(compiled_generate_function)/decoder_block_18/pre_ffw_norm/reduce_sum" stack_frame_id=479}
}

%region_171.178 (reduce_sum.927: f32[], reduce_sum.928: f32[]) -> f32[] {
  %reduce_sum.927 = f32[] parameter(0), metadata={op_name="reduce_sum"}
  %reduce_sum.928 = f32[] parameter(1), metadata={op_name="reduce_sum"}
  ROOT %reduce_sum.929 = f32[] add(%reduce_sum.927, %reduce_sum.928), metadata={op_name="jit(compiled_generate_function)/decoder_block_18/post_ffw_norm/reduce_sum" stack_frame_id=554}
}

%region_172.179 (reduce_sum.934: f32[], reduce_sum.935: f32[]) -> f32[] {
  %reduce_sum.934 = f32[] parameter(0), metadata={op_name="reduce_sum"}
  %reduce_sum.935 = f32[] parameter(1), metadata={op_name="reduce_sum"}
  ROOT %reduce_sum.936 = f32[] add(%reduce_sum.934, %reduce_sum.935), metadata={op_name="jit(compiled_generate_function)/decoder_block_19/pre_attention_norm/reduce_sum" stack_frame_id=53}
}

%region_173.180 (reduce_sum.941: f32[], reduce_sum.942: f32[]) -> f32[] {
  %reduce_sum.941 = f32[] parameter(0), metadata={op_name="reduce_sum"}
  %reduce_sum.942 = f32[] parameter(1), metadata={op_name="reduce_sum"}
  ROOT %reduce_sum.943 = f32[] add(%reduce_sum.941, %reduce_sum.942), metadata={op_name="jit(compiled_generate_function)/decoder_block_19/attention/query_norm/reduce_sum" stack_frame_id=148}
}

%region_174.181 (reduce_sum.948: f32[], reduce_sum.949: f32[]) -> f32[] {
  %reduce_sum.948 = f32[] parameter(0), metadata={op_name="reduce_sum"}
  %reduce_sum.949 = f32[] parameter(1), metadata={op_name="reduce_sum"}
  ROOT %reduce_sum.950 = f32[] add(%reduce_sum.948, %reduce_sum.949), metadata={op_name="jit(compiled_generate_function)/decoder_block_19/attention/key_norm/reduce_sum" stack_frame_id=259}
}

%region_175.182 (reduce_max.136: f32[], reduce_max.137: f32[]) -> f32[] {
  %reduce_max.136 = f32[] parameter(0), metadata={op_name="reduce_max"}
  %reduce_max.137 = f32[] parameter(1), metadata={op_name="reduce_max"}
  ROOT %reduce_max.138 = f32[] maximum(%reduce_max.136, %reduce_max.137), metadata={op_name="jit(compiled_generate_function)/decoder_block_19/attention/softmax_19/reduce_max" stack_frame_id=377}
}

%region_176.183 (reduce_sum.955: f32[], reduce_sum.956: f32[]) -> f32[] {
  %reduce_sum.955 = f32[] parameter(0), metadata={op_name="reduce_sum"}
  %reduce_sum.956 = f32[] parameter(1), metadata={op_name="reduce_sum"}
  ROOT %reduce_sum.957 = f32[] add(%reduce_sum.955, %reduce_sum.956), metadata={op_name="jit(compiled_generate_function)/decoder_block_19/attention/softmax_19/reduce_sum" stack_frame_id=377}
}

%region_177.184 (reduce_and.144: pred[], reduce_and.145: pred[]) -> pred[] {
  %reduce_and.144 = pred[] parameter(0), metadata={op_name="reduce_and"}
  %reduce_and.145 = pred[] parameter(1), metadata={op_name="reduce_and"}
  ROOT %reduce_and.146 = pred[] and(%reduce_and.144, %reduce_and.145), metadata={op_name="jit(compiled_generate_function)/decoder_block_19/attention/reduce_and" stack_frame_id=401}
}

%region_178.185 (reduce_sum.962: f32[], reduce_sum.963: f32[]) -> f32[] {
  %reduce_sum.962 = f32[] parameter(0), metadata={op_name="reduce_sum"}
  %reduce_sum.963 = f32[] parameter(1), metadata={op_name="reduce_sum"}
  ROOT %reduce_sum.964 = f32[] add(%reduce_sum.962, %reduce_sum.963), metadata={op_name="jit(compiled_generate_function)/decoder_block_19/post_attention_norm/reduce_sum" stack_frame_id=432}
}

%region_179.186 (reduce_sum.969: f32[], reduce_sum.970: f32[]) -> f32[] {
  %reduce_sum.969 = f32[] parameter(0), metadata={op_name="reduce_sum"}
  %reduce_sum.970 = f32[] parameter(1), metadata={op_name="reduce_sum"}
  ROOT %reduce_sum.971 = f32[] add(%reduce_sum.969, %reduce_sum.970), metadata={op_name="jit(compiled_generate_function)/decoder_block_19/pre_ffw_norm/reduce_sum" stack_frame_id=479}
}

%region_180.187 (reduce_sum.976: f32[], reduce_sum.977: f32[]) -> f32[] {
  %reduce_sum.976 = f32[] parameter(0), metadata={op_name="reduce_sum"}
  %reduce_sum.977 = f32[] parameter(1), metadata={op_name="reduce_sum"}
  ROOT %reduce_sum.978 = f32[] add(%reduce_sum.976, %reduce_sum.977), metadata={op_name="jit(compiled_generate_function)/decoder_block_19/post_ffw_norm/reduce_sum" stack_frame_id=554}
}

%region_181.188 (reduce_sum.983: f32[], reduce_sum.984: f32[]) -> f32[] {
  %reduce_sum.983 = f32[] parameter(0), metadata={op_name="reduce_sum"}
  %reduce_sum.984 = f32[] parameter(1), metadata={op_name="reduce_sum"}
  ROOT %reduce_sum.985 = f32[] add(%reduce_sum.983, %reduce_sum.984), metadata={op_name="jit(compiled_generate_function)/decoder_block_20/pre_attention_norm/reduce_sum" stack_frame_id=53}
}

%region_182.189 (reduce_sum.990: f32[], reduce_sum.991: f32[]) -> f32[] {
  %reduce_sum.990 = f32[] parameter(0), metadata={op_name="reduce_sum"}
  %reduce_sum.991 = f32[] parameter(1), metadata={op_name="reduce_sum"}
  ROOT %reduce_sum.992 = f32[] add(%reduce_sum.990, %reduce_sum.991), metadata={op_name="jit(compiled_generate_function)/decoder_block_20/attention/query_norm/reduce_sum" stack_frame_id=148}
}

%region_183.190 (reduce_sum.997: f32[], reduce_sum.998: f32[]) -> f32[] {
  %reduce_sum.997 = f32[] parameter(0), metadata={op_name="reduce_sum"}
  %reduce_sum.998 = f32[] parameter(1), metadata={op_name="reduce_sum"}
  ROOT %reduce_sum.999 = f32[] add(%reduce_sum.997, %reduce_sum.998), metadata={op_name="jit(compiled_generate_function)/decoder_block_20/attention/key_norm/reduce_sum" stack_frame_id=259}
}

%region_184.191 (reduce_max.143: f32[], reduce_max.144: f32[]) -> f32[] {
  %reduce_max.143 = f32[] parameter(0), metadata={op_name="reduce_max"}
  %reduce_max.144 = f32[] parameter(1), metadata={op_name="reduce_max"}
  ROOT %reduce_max.145 = f32[] maximum(%reduce_max.143, %reduce_max.144), metadata={op_name="jit(compiled_generate_function)/decoder_block_20/attention/softmax_20/reduce_max" stack_frame_id=377}
}

%region_185.192 (reduce_sum.1004: f32[], reduce_sum.1005: f32[]) -> f32[] {
  %reduce_sum.1004 = f32[] parameter(0), metadata={op_name="reduce_sum"}
  %reduce_sum.1005 = f32[] parameter(1), metadata={op_name="reduce_sum"}
  ROOT %reduce_sum.1006 = f32[] add(%reduce_sum.1004, %reduce_sum.1005), metadata={op_name="jit(compiled_generate_function)/decoder_block_20/attention/softmax_20/reduce_sum" stack_frame_id=377}
}

%region_186.193 (reduce_and.151: pred[], reduce_and.152: pred[]) -> pred[] {
  %reduce_and.151 = pred[] parameter(0), metadata={op_name="reduce_and"}
  %reduce_and.152 = pred[] parameter(1), metadata={op_name="reduce_and"}
  ROOT %reduce_and.153 = pred[] and(%reduce_and.151, %reduce_and.152), metadata={op_name="jit(compiled_generate_function)/decoder_block_20/attention/reduce_and" stack_frame_id=401}
}

%region_187.194 (reduce_sum.1011: f32[], reduce_sum.1012: f32[]) -> f32[] {
  %reduce_sum.1011 = f32[] parameter(0), metadata={op_name="reduce_sum"}
  %reduce_sum.1012 = f32[] parameter(1), metadata={op_name="reduce_sum"}
  ROOT %reduce_sum.1013 = f32[] add(%reduce_sum.1011, %reduce_sum.1012), metadata={op_name="jit(compiled_generate_function)/decoder_block_20/post_attention_norm/reduce_sum" stack_frame_id=432}
}

%region_188.195 (reduce_sum.1018: f32[], reduce_sum.1019: f32[]) -> f32[] {
  %reduce_sum.1018 = f32[] parameter(0), metadata={op_name="reduce_sum"}
  %reduce_sum.1019 = f32[] parameter(1), metadata={op_name="reduce_sum"}
  ROOT %reduce_sum.1020 = f32[] add(%reduce_sum.1018, %reduce_sum.1019), metadata={op_name="jit(compiled_generate_function)/decoder_block_20/pre_ffw_norm/reduce_sum" stack_frame_id=479}
}

%region_189.196 (reduce_sum.1025: f32[], reduce_sum.1026: f32[]) -> f32[] {
  %reduce_sum.1025 = f32[] parameter(0), metadata={op_name="reduce_sum"}
  %reduce_sum.1026 = f32[] parameter(1), metadata={op_name="reduce_sum"}
  ROOT %reduce_sum.1027 = f32[] add(%reduce_sum.1025, %reduce_sum.1026), metadata={op_name="jit(compiled_generate_function)/decoder_block_20/post_ffw_norm/reduce_sum" stack_frame_id=554}
}

%region_190.197 (reduce_sum.1032: f32[], reduce_sum.1033: f32[]) -> f32[] {
  %reduce_sum.1032 = f32[] parameter(0), metadata={op_name="reduce_sum"}
  %reduce_sum.1033 = f32[] parameter(1), metadata={op_name="reduce_sum"}
  ROOT %reduce_sum.1034 = f32[] add(%reduce_sum.1032, %reduce_sum.1033), metadata={op_name="jit(compiled_generate_function)/decoder_block_21/pre_attention_norm/reduce_sum" stack_frame_id=53}
}

%region_191.198 (reduce_sum.1039: f32[], reduce_sum.1040: f32[]) -> f32[] {
  %reduce_sum.1039 = f32[] parameter(0), metadata={op_name="reduce_sum"}
  %reduce_sum.1040 = f32[] parameter(1), metadata={op_name="reduce_sum"}
  ROOT %reduce_sum.1041 = f32[] add(%reduce_sum.1039, %reduce_sum.1040), metadata={op_name="jit(compiled_generate_function)/decoder_block_21/attention/query_norm/reduce_sum" stack_frame_id=148}
}

%region_192.199 (reduce_sum.1046: f32[], reduce_sum.1047: f32[]) -> f32[] {
  %reduce_sum.1046 = f32[] parameter(0), metadata={op_name="reduce_sum"}
  %reduce_sum.1047 = f32[] parameter(1), metadata={op_name="reduce_sum"}
  ROOT %reduce_sum.1048 = f32[] add(%reduce_sum.1046, %reduce_sum.1047), metadata={op_name="jit(compiled_generate_function)/decoder_block_21/attention/key_norm/reduce_sum" stack_frame_id=259}
}

%region_193.200 (reduce_max.150: f32[], reduce_max.151: f32[]) -> f32[] {
  %reduce_max.150 = f32[] parameter(0), metadata={op_name="reduce_max"}
  %reduce_max.151 = f32[] parameter(1), metadata={op_name="reduce_max"}
  ROOT %reduce_max.152 = f32[] maximum(%reduce_max.150, %reduce_max.151), metadata={op_name="jit(compiled_generate_function)/decoder_block_21/attention/softmax_21/reduce_max" stack_frame_id=377}
}

%region_194.201 (reduce_sum.1053: f32[], reduce_sum.1054: f32[]) -> f32[] {
  %reduce_sum.1053 = f32[] parameter(0), metadata={op_name="reduce_sum"}
  %reduce_sum.1054 = f32[] parameter(1), metadata={op_name="reduce_sum"}
  ROOT %reduce_sum.1055 = f32[] add(%reduce_sum.1053, %reduce_sum.1054), metadata={op_name="jit(compiled_generate_function)/decoder_block_21/attention/softmax_21/reduce_sum" stack_frame_id=377}
}

%region_195.202 (reduce_and.158: pred[], reduce_and.159: pred[]) -> pred[] {
  %reduce_and.158 = pred[] parameter(0), metadata={op_name="reduce_and"}
  %reduce_and.159 = pred[] parameter(1), metadata={op_name="reduce_and"}
  ROOT %reduce_and.160 = pred[] and(%reduce_and.158, %reduce_and.159), metadata={op_name="jit(compiled_generate_function)/decoder_block_21/attention/reduce_and" stack_frame_id=401}
}

%region_196.203 (reduce_sum.1060: f32[], reduce_sum.1061: f32[]) -> f32[] {
  %reduce_sum.1060 = f32[] parameter(0), metadata={op_name="reduce_sum"}
  %reduce_sum.1061 = f32[] parameter(1), metadata={op_name="reduce_sum"}
  ROOT %reduce_sum.1062 = f32[] add(%reduce_sum.1060, %reduce_sum.1061), metadata={op_name="jit(compiled_generate_function)/decoder_block_21/post_attention_norm/reduce_sum" stack_frame_id=432}
}

%region_197.204 (reduce_sum.1067: f32[], reduce_sum.1068: f32[]) -> f32[] {
  %reduce_sum.1067 = f32[] parameter(0), metadata={op_name="reduce_sum"}
  %reduce_sum.1068 = f32[] parameter(1), metadata={op_name="reduce_sum"}
  ROOT %reduce_sum.1069 = f32[] add(%reduce_sum.1067, %reduce_sum.1068), metadata={op_name="jit(compiled_generate_function)/decoder_block_21/pre_ffw_norm/reduce_sum" stack_frame_id=479}
}

%region_198.205 (reduce_sum.1074: f32[], reduce_sum.1075: f32[]) -> f32[] {
  %reduce_sum.1074 = f32[] parameter(0), metadata={op_name="reduce_sum"}
  %reduce_sum.1075 = f32[] parameter(1), metadata={op_name="reduce_sum"}
  ROOT %reduce_sum.1076 = f32[] add(%reduce_sum.1074, %reduce_sum.1075), metadata={op_name="jit(compiled_generate_function)/decoder_block_21/post_ffw_norm/reduce_sum" stack_frame_id=554}
}

%region_199.206 (reduce_sum.1081: f32[], reduce_sum.1082: f32[]) -> f32[] {
  %reduce_sum.1081 = f32[] parameter(0), metadata={op_name="reduce_sum"}
  %reduce_sum.1082 = f32[] parameter(1), metadata={op_name="reduce_sum"}
  ROOT %reduce_sum.1083 = f32[] add(%reduce_sum.1081, %reduce_sum.1082), metadata={op_name="jit(compiled_generate_function)/decoder_block_22/pre_attention_norm/reduce_sum" stack_frame_id=53}
}

%region_200.207 (reduce_sum.1088: f32[], reduce_sum.1089: f32[]) -> f32[] {
  %reduce_sum.1088 = f32[] parameter(0), metadata={op_name="reduce_sum"}
  %reduce_sum.1089 = f32[] parameter(1), metadata={op_name="reduce_sum"}
  ROOT %reduce_sum.1090 = f32[] add(%reduce_sum.1088, %reduce_sum.1089), metadata={op_name="jit(compiled_generate_function)/decoder_block_22/attention/query_norm/reduce_sum" stack_frame_id=148}
}

%region_201.208 (reduce_sum.1095: f32[], reduce_sum.1096: f32[]) -> f32[] {
  %reduce_sum.1095 = f32[] parameter(0), metadata={op_name="reduce_sum"}
  %reduce_sum.1096 = f32[] parameter(1), metadata={op_name="reduce_sum"}
  ROOT %reduce_sum.1097 = f32[] add(%reduce_sum.1095, %reduce_sum.1096), metadata={op_name="jit(compiled_generate_function)/decoder_block_22/attention/key_norm/reduce_sum" stack_frame_id=259}
}

%region_202.209 (reduce_max.157: f32[], reduce_max.158: f32[]) -> f32[] {
  %reduce_max.157 = f32[] parameter(0), metadata={op_name="reduce_max"}
  %reduce_max.158 = f32[] parameter(1), metadata={op_name="reduce_max"}
  ROOT %reduce_max.159 = f32[] maximum(%reduce_max.157, %reduce_max.158), metadata={op_name="jit(compiled_generate_function)/decoder_block_22/attention/softmax_22/reduce_max" stack_frame_id=377}
}

%region_203.210 (reduce_sum.1102: f32[], reduce_sum.1103: f32[]) -> f32[] {
  %reduce_sum.1102 = f32[] parameter(0), metadata={op_name="reduce_sum"}
  %reduce_sum.1103 = f32[] parameter(1), metadata={op_name="reduce_sum"}
  ROOT %reduce_sum.1104 = f32[] add(%reduce_sum.1102, %reduce_sum.1103), metadata={op_name="jit(compiled_generate_function)/decoder_block_22/attention/softmax_22/reduce_sum" stack_frame_id=377}
}

%region_204.211 (reduce_and.165: pred[], reduce_and.166: pred[]) -> pred[] {
  %reduce_and.165 = pred[] parameter(0), metadata={op_name="reduce_and"}
  %reduce_and.166 = pred[] parameter(1), metadata={op_name="reduce_and"}
  ROOT %reduce_and.167 = pred[] and(%reduce_and.165, %reduce_and.166), metadata={op_name="jit(compiled_generate_function)/decoder_block_22/attention/reduce_and" stack_frame_id=401}
}

%region_205.212 (reduce_sum.1109: f32[], reduce_sum.1110: f32[]) -> f32[] {
  %reduce_sum.1109 = f32[] parameter(0), metadata={op_name="reduce_sum"}
  %reduce_sum.1110 = f32[] parameter(1), metadata={op_name="reduce_sum"}
  ROOT %reduce_sum.1111 = f32[] add(%reduce_sum.1109, %reduce_sum.1110), metadata={op_name="jit(compiled_generate_function)/decoder_block_22/post_attention_norm/reduce_sum" stack_frame_id=432}
}

%region_206.213 (reduce_sum.1116: f32[], reduce_sum.1117: f32[]) -> f32[] {
  %reduce_sum.1116 = f32[] parameter(0), metadata={op_name="reduce_sum"}
  %reduce_sum.1117 = f32[] parameter(1), metadata={op_name="reduce_sum"}
  ROOT %reduce_sum.1118 = f32[] add(%reduce_sum.1116, %reduce_sum.1117), metadata={op_name="jit(compiled_generate_function)/decoder_block_22/pre_ffw_norm/reduce_sum" stack_frame_id=479}
}

%region_207.214 (reduce_sum.1123: f32[], reduce_sum.1124: f32[]) -> f32[] {
  %reduce_sum.1123 = f32[] parameter(0), metadata={op_name="reduce_sum"}
  %reduce_sum.1124 = f32[] parameter(1), metadata={op_name="reduce_sum"}
  ROOT %reduce_sum.1125 = f32[] add(%reduce_sum.1123, %reduce_sum.1124), metadata={op_name="jit(compiled_generate_function)/decoder_block_22/post_ffw_norm/reduce_sum" stack_frame_id=554}
}

%region_208.215 (reduce_sum.1130: f32[], reduce_sum.1131: f32[]) -> f32[] {
  %reduce_sum.1130 = f32[] parameter(0), metadata={op_name="reduce_sum"}
  %reduce_sum.1131 = f32[] parameter(1), metadata={op_name="reduce_sum"}
  ROOT %reduce_sum.1132 = f32[] add(%reduce_sum.1130, %reduce_sum.1131), metadata={op_name="jit(compiled_generate_function)/decoder_block_23/pre_attention_norm/reduce_sum" stack_frame_id=53}
}

%region_209.216 (reduce_sum.1137: f32[], reduce_sum.1138: f32[]) -> f32[] {
  %reduce_sum.1137 = f32[] parameter(0), metadata={op_name="reduce_sum"}
  %reduce_sum.1138 = f32[] parameter(1), metadata={op_name="reduce_sum"}
  ROOT %reduce_sum.1139 = f32[] add(%reduce_sum.1137, %reduce_sum.1138), metadata={op_name="jit(compiled_generate_function)/decoder_block_23/attention/query_norm/reduce_sum" stack_frame_id=148}
}

%region_210.217 (reduce_sum.1144: f32[], reduce_sum.1145: f32[]) -> f32[] {
  %reduce_sum.1144 = f32[] parameter(0), metadata={op_name="reduce_sum"}
  %reduce_sum.1145 = f32[] parameter(1), metadata={op_name="reduce_sum"}
  ROOT %reduce_sum.1146 = f32[] add(%reduce_sum.1144, %reduce_sum.1145), metadata={op_name="jit(compiled_generate_function)/decoder_block_23/attention/key_norm/reduce_sum" stack_frame_id=259}
}

%region_211.218 (reduce_max.164: f32[], reduce_max.165: f32[]) -> f32[] {
  %reduce_max.164 = f32[] parameter(0), metadata={op_name="reduce_max"}
  %reduce_max.165 = f32[] parameter(1), metadata={op_name="reduce_max"}
  ROOT %reduce_max.166 = f32[] maximum(%reduce_max.164, %reduce_max.165), metadata={op_name="jit(compiled_generate_function)/decoder_block_23/attention/softmax_23/reduce_max" stack_frame_id=377}
}

%region_212.219 (reduce_sum.1151: f32[], reduce_sum.1152: f32[]) -> f32[] {
  %reduce_sum.1151 = f32[] parameter(0), metadata={op_name="reduce_sum"}
  %reduce_sum.1152 = f32[] parameter(1), metadata={op_name="reduce_sum"}
  ROOT %reduce_sum.1153 = f32[] add(%reduce_sum.1151, %reduce_sum.1152), metadata={op_name="jit(compiled_generate_function)/decoder_block_23/attention/softmax_23/reduce_sum" stack_frame_id=377}
}

%region_213.220 (reduce_and.172: pred[], reduce_and.173: pred[]) -> pred[] {
  %reduce_and.172 = pred[] parameter(0), metadata={op_name="reduce_and"}
  %reduce_and.173 = pred[] parameter(1), metadata={op_name="reduce_and"}
  ROOT %reduce_and.174 = pred[] and(%reduce_and.172, %reduce_and.173), metadata={op_name="jit(compiled_generate_function)/decoder_block_23/attention/reduce_and" stack_frame_id=401}
}

%region_214.221 (reduce_sum.1158: f32[], reduce_sum.1159: f32[]) -> f32[] {
  %reduce_sum.1158 = f32[] parameter(0), metadata={op_name="reduce_sum"}
  %reduce_sum.1159 = f32[] parameter(1), metadata={op_name="reduce_sum"}
  ROOT %reduce_sum.1160 = f32[] add(%reduce_sum.1158, %reduce_sum.1159), metadata={op_name="jit(compiled_generate_function)/decoder_block_23/post_attention_norm/reduce_sum" stack_frame_id=432}
}

%region_215.222 (reduce_sum.1165: f32[], reduce_sum.1166: f32[]) -> f32[] {
  %reduce_sum.1165 = f32[] parameter(0), metadata={op_name="reduce_sum"}
  %reduce_sum.1166 = f32[] parameter(1), metadata={op_name="reduce_sum"}
  ROOT %reduce_sum.1167 = f32[] add(%reduce_sum.1165, %reduce_sum.1166), metadata={op_name="jit(compiled_generate_function)/decoder_block_23/pre_ffw_norm/reduce_sum" stack_frame_id=479}
}

%region_216.223 (reduce_sum.1172: f32[], reduce_sum.1173: f32[]) -> f32[] {
  %reduce_sum.1172 = f32[] parameter(0), metadata={op_name="reduce_sum"}
  %reduce_sum.1173 = f32[] parameter(1), metadata={op_name="reduce_sum"}
  ROOT %reduce_sum.1174 = f32[] add(%reduce_sum.1172, %reduce_sum.1173), metadata={op_name="jit(compiled_generate_function)/decoder_block_23/post_ffw_norm/reduce_sum" stack_frame_id=554}
}

%region_217.224 (reduce_sum.1179: f32[], reduce_sum.1180: f32[]) -> f32[] {
  %reduce_sum.1179 = f32[] parameter(0), metadata={op_name="reduce_sum"}
  %reduce_sum.1180 = f32[] parameter(1), metadata={op_name="reduce_sum"}
  ROOT %reduce_sum.1181 = f32[] add(%reduce_sum.1179, %reduce_sum.1180), metadata={op_name="jit(compiled_generate_function)/decoder_block_24/pre_attention_norm/reduce_sum" stack_frame_id=53}
}

%region_218.225 (reduce_sum.1186: f32[], reduce_sum.1187: f32[]) -> f32[] {
  %reduce_sum.1186 = f32[] parameter(0), metadata={op_name="reduce_sum"}
  %reduce_sum.1187 = f32[] parameter(1), metadata={op_name="reduce_sum"}
  ROOT %reduce_sum.1188 = f32[] add(%reduce_sum.1186, %reduce_sum.1187), metadata={op_name="jit(compiled_generate_function)/decoder_block_24/attention/query_norm/reduce_sum" stack_frame_id=148}
}

%region_219.226 (reduce_sum.1193: f32[], reduce_sum.1194: f32[]) -> f32[] {
  %reduce_sum.1193 = f32[] parameter(0), metadata={op_name="reduce_sum"}
  %reduce_sum.1194 = f32[] parameter(1), metadata={op_name="reduce_sum"}
  ROOT %reduce_sum.1195 = f32[] add(%reduce_sum.1193, %reduce_sum.1194), metadata={op_name="jit(compiled_generate_function)/decoder_block_24/attention/key_norm/reduce_sum" stack_frame_id=259}
}

%region_220.227 (reduce_max.171: f32[], reduce_max.172: f32[]) -> f32[] {
  %reduce_max.171 = f32[] parameter(0), metadata={op_name="reduce_max"}
  %reduce_max.172 = f32[] parameter(1), metadata={op_name="reduce_max"}
  ROOT %reduce_max.173 = f32[] maximum(%reduce_max.171, %reduce_max.172), metadata={op_name="jit(compiled_generate_function)/decoder_block_24/attention/softmax_24/reduce_max" stack_frame_id=377}
}

%region_221.228 (reduce_sum.1200: f32[], reduce_sum.1201: f32[]) -> f32[] {
  %reduce_sum.1200 = f32[] parameter(0), metadata={op_name="reduce_sum"}
  %reduce_sum.1201 = f32[] parameter(1), metadata={op_name="reduce_sum"}
  ROOT %reduce_sum.1202 = f32[] add(%reduce_sum.1200, %reduce_sum.1201), metadata={op_name="jit(compiled_generate_function)/decoder_block_24/attention/softmax_24/reduce_sum" stack_frame_id=377}
}

%region_222.229 (reduce_and.179: pred[], reduce_and.180: pred[]) -> pred[] {
  %reduce_and.179 = pred[] parameter(0), metadata={op_name="reduce_and"}
  %reduce_and.180 = pred[] parameter(1), metadata={op_name="reduce_and"}
  ROOT %reduce_and.181 = pred[] and(%reduce_and.179, %reduce_and.180), metadata={op_name="jit(compiled_generate_function)/decoder_block_24/attention/reduce_and" stack_frame_id=401}
}

%region_223.230 (reduce_sum.1207: f32[], reduce_sum.1208: f32[]) -> f32[] {
  %reduce_sum.1207 = f32[] parameter(0), metadata={op_name="reduce_sum"}
  %reduce_sum.1208 = f32[] parameter(1), metadata={op_name="reduce_sum"}
  ROOT %reduce_sum.1209 = f32[] add(%reduce_sum.1207, %reduce_sum.1208), metadata={op_name="jit(compiled_generate_function)/decoder_block_24/post_attention_norm/reduce_sum" stack_frame_id=432}
}

%region_224.231 (reduce_sum.1214: f32[], reduce_sum.1215: f32[]) -> f32[] {
  %reduce_sum.1214 = f32[] parameter(0), metadata={op_name="reduce_sum"}
  %reduce_sum.1215 = f32[] parameter(1), metadata={op_name="reduce_sum"}
  ROOT %reduce_sum.1216 = f32[] add(%reduce_sum.1214, %reduce_sum.1215), metadata={op_name="jit(compiled_generate_function)/decoder_block_24/pre_ffw_norm/reduce_sum" stack_frame_id=479}
}

%region_225.232 (reduce_sum.1221: f32[], reduce_sum.1222: f32[]) -> f32[] {
  %reduce_sum.1221 = f32[] parameter(0), metadata={op_name="reduce_sum"}
  %reduce_sum.1222 = f32[] parameter(1), metadata={op_name="reduce_sum"}
  ROOT %reduce_sum.1223 = f32[] add(%reduce_sum.1221, %reduce_sum.1222), metadata={op_name="jit(compiled_generate_function)/decoder_block_24/post_ffw_norm/reduce_sum" stack_frame_id=554}
}

%region_226.233 (reduce_sum.1228: f32[], reduce_sum.1229: f32[]) -> f32[] {
  %reduce_sum.1228 = f32[] parameter(0), metadata={op_name="reduce_sum"}
  %reduce_sum.1229 = f32[] parameter(1), metadata={op_name="reduce_sum"}
  ROOT %reduce_sum.1230 = f32[] add(%reduce_sum.1228, %reduce_sum.1229), metadata={op_name="jit(compiled_generate_function)/decoder_block_25/pre_attention_norm/reduce_sum" stack_frame_id=53}
}

%region_227.234 (reduce_sum.1235: f32[], reduce_sum.1236: f32[]) -> f32[] {
  %reduce_sum.1235 = f32[] parameter(0), metadata={op_name="reduce_sum"}
  %reduce_sum.1236 = f32[] parameter(1), metadata={op_name="reduce_sum"}
  ROOT %reduce_sum.1237 = f32[] add(%reduce_sum.1235, %reduce_sum.1236), metadata={op_name="jit(compiled_generate_function)/decoder_block_25/attention/query_norm/reduce_sum" stack_frame_id=148}
}

%region_228.235 (reduce_sum.1242: f32[], reduce_sum.1243: f32[]) -> f32[] {
  %reduce_sum.1242 = f32[] parameter(0), metadata={op_name="reduce_sum"}
  %reduce_sum.1243 = f32[] parameter(1), metadata={op_name="reduce_sum"}
  ROOT %reduce_sum.1244 = f32[] add(%reduce_sum.1242, %reduce_sum.1243), metadata={op_name="jit(compiled_generate_function)/decoder_block_25/attention/key_norm/reduce_sum" stack_frame_id=259}
}

%region_229.236 (reduce_max.178: f32[], reduce_max.179: f32[]) -> f32[] {
  %reduce_max.178 = f32[] parameter(0), metadata={op_name="reduce_max"}
  %reduce_max.179 = f32[] parameter(1), metadata={op_name="reduce_max"}
  ROOT %reduce_max.180 = f32[] maximum(%reduce_max.178, %reduce_max.179), metadata={op_name="jit(compiled_generate_function)/decoder_block_25/attention/softmax_25/reduce_max" stack_frame_id=377}
}

%region_230.237 (reduce_sum.1249: f32[], reduce_sum.1250: f32[]) -> f32[] {
  %reduce_sum.1249 = f32[] parameter(0), metadata={op_name="reduce_sum"}
  %reduce_sum.1250 = f32[] parameter(1), metadata={op_name="reduce_sum"}
  ROOT %reduce_sum.1251 = f32[] add(%reduce_sum.1249, %reduce_sum.1250), metadata={op_name="jit(compiled_generate_function)/decoder_block_25/attention/softmax_25/reduce_sum" stack_frame_id=377}
}

%region_231.238 (reduce_and.186: pred[], reduce_and.187: pred[]) -> pred[] {
  %reduce_and.186 = pred[] parameter(0), metadata={op_name="reduce_and"}
  %reduce_and.187 = pred[] parameter(1), metadata={op_name="reduce_and"}
  ROOT %reduce_and.188 = pred[] and(%reduce_and.186, %reduce_and.187), metadata={op_name="jit(compiled_generate_function)/decoder_block_25/attention/reduce_and" stack_frame_id=401}
}

%region_232.239 (reduce_sum.1256: f32[], reduce_sum.1257: f32[]) -> f32[] {
  %reduce_sum.1256 = f32[] parameter(0), metadata={op_name="reduce_sum"}
  %reduce_sum.1257 = f32[] parameter(1), metadata={op_name="reduce_sum"}
  ROOT %reduce_sum.1258 = f32[] add(%reduce_sum.1256, %reduce_sum.1257), metadata={op_name="jit(compiled_generate_function)/decoder_block_25/post_attention_norm/reduce_sum" stack_frame_id=432}
}

%region_233.240 (reduce_sum.1263: f32[], reduce_sum.1264: f32[]) -> f32[] {
  %reduce_sum.1263 = f32[] parameter(0), metadata={op_name="reduce_sum"}
  %reduce_sum.1264 = f32[] parameter(1), metadata={op_name="reduce_sum"}
  ROOT %reduce_sum.1265 = f32[] add(%reduce_sum.1263, %reduce_sum.1264), metadata={op_name="jit(compiled_generate_function)/decoder_block_25/pre_ffw_norm/reduce_sum" stack_frame_id=479}
}

%region_234.241 (reduce_sum.1270: f32[], reduce_sum.1271: f32[]) -> f32[] {
  %reduce_sum.1270 = f32[] parameter(0), metadata={op_name="reduce_sum"}
  %reduce_sum.1271 = f32[] parameter(1), metadata={op_name="reduce_sum"}
  ROOT %reduce_sum.1272 = f32[] add(%reduce_sum.1270, %reduce_sum.1271), metadata={op_name="jit(compiled_generate_function)/decoder_block_25/post_ffw_norm/reduce_sum" stack_frame_id=554}
}

%region_235.242 (reduce_sum.1277: f32[], reduce_sum.1278: f32[]) -> f32[] {
  %reduce_sum.1277 = f32[] parameter(0), metadata={op_name="reduce_sum"}
  %reduce_sum.1278 = f32[] parameter(1), metadata={op_name="reduce_sum"}
  ROOT %reduce_sum.1279 = f32[] add(%reduce_sum.1277, %reduce_sum.1278), metadata={op_name="jit(compiled_generate_function)/decoder_block_26/pre_attention_norm/reduce_sum" stack_frame_id=53}
}

%region_236.243 (reduce_sum.1284: f32[], reduce_sum.1285: f32[]) -> f32[] {
  %reduce_sum.1284 = f32[] parameter(0), metadata={op_name="reduce_sum"}
  %reduce_sum.1285 = f32[] parameter(1), metadata={op_name="reduce_sum"}
  ROOT %reduce_sum.1286 = f32[] add(%reduce_sum.1284, %reduce_sum.1285), metadata={op_name="jit(compiled_generate_function)/decoder_block_26/attention/query_norm/reduce_sum" stack_frame_id=148}
}

%region_237.244 (reduce_sum.1291: f32[], reduce_sum.1292: f32[]) -> f32[] {
  %reduce_sum.1291 = f32[] parameter(0), metadata={op_name="reduce_sum"}
  %reduce_sum.1292 = f32[] parameter(1), metadata={op_name="reduce_sum"}
  ROOT %reduce_sum.1293 = f32[] add(%reduce_sum.1291, %reduce_sum.1292), metadata={op_name="jit(compiled_generate_function)/decoder_block_26/attention/key_norm/reduce_sum" stack_frame_id=259}
}

%region_238.245 (reduce_max.185: f32[], reduce_max.186: f32[]) -> f32[] {
  %reduce_max.185 = f32[] parameter(0), metadata={op_name="reduce_max"}
  %reduce_max.186 = f32[] parameter(1), metadata={op_name="reduce_max"}
  ROOT %reduce_max.187 = f32[] maximum(%reduce_max.185, %reduce_max.186), metadata={op_name="jit(compiled_generate_function)/decoder_block_26/attention/softmax_26/reduce_max" stack_frame_id=377}
}

%region_239.246 (reduce_sum.1298: f32[], reduce_sum.1299: f32[]) -> f32[] {
  %reduce_sum.1298 = f32[] parameter(0), metadata={op_name="reduce_sum"}
  %reduce_sum.1299 = f32[] parameter(1), metadata={op_name="reduce_sum"}
  ROOT %reduce_sum.1300 = f32[] add(%reduce_sum.1298, %reduce_sum.1299), metadata={op_name="jit(compiled_generate_function)/decoder_block_26/attention/softmax_26/reduce_sum" stack_frame_id=377}
}

%region_240.247 (reduce_and.193: pred[], reduce_and.194: pred[]) -> pred[] {
  %reduce_and.193 = pred[] parameter(0), metadata={op_name="reduce_and"}
  %reduce_and.194 = pred[] parameter(1), metadata={op_name="reduce_and"}
  ROOT %reduce_and.195 = pred[] and(%reduce_and.193, %reduce_and.194), metadata={op_name="jit(compiled_generate_function)/decoder_block_26/attention/reduce_and" stack_frame_id=401}
}

%region_241.248 (reduce_sum.1305: f32[], reduce_sum.1306: f32[]) -> f32[] {
  %reduce_sum.1305 = f32[] parameter(0), metadata={op_name="reduce_sum"}
  %reduce_sum.1306 = f32[] parameter(1), metadata={op_name="reduce_sum"}
  ROOT %reduce_sum.1307 = f32[] add(%reduce_sum.1305, %reduce_sum.1306), metadata={op_name="jit(compiled_generate_function)/decoder_block_26/post_attention_norm/reduce_sum" stack_frame_id=432}
}

%region_242.249 (reduce_sum.1312: f32[], reduce_sum.1313: f32[]) -> f32[] {
  %reduce_sum.1312 = f32[] parameter(0), metadata={op_name="reduce_sum"}
  %reduce_sum.1313 = f32[] parameter(1), metadata={op_name="reduce_sum"}
  ROOT %reduce_sum.1314 = f32[] add(%reduce_sum.1312, %reduce_sum.1313), metadata={op_name="jit(compiled_generate_function)/decoder_block_26/pre_ffw_norm/reduce_sum" stack_frame_id=479}
}

%region_243.250 (reduce_sum.1319: f32[], reduce_sum.1320: f32[]) -> f32[] {
  %reduce_sum.1319 = f32[] parameter(0), metadata={op_name="reduce_sum"}
  %reduce_sum.1320 = f32[] parameter(1), metadata={op_name="reduce_sum"}
  ROOT %reduce_sum.1321 = f32[] add(%reduce_sum.1319, %reduce_sum.1320), metadata={op_name="jit(compiled_generate_function)/decoder_block_26/post_ffw_norm/reduce_sum" stack_frame_id=554}
}

%region_244.251 (reduce_sum.1326: f32[], reduce_sum.1327: f32[]) -> f32[] {
  %reduce_sum.1326 = f32[] parameter(0), metadata={op_name="reduce_sum"}
  %reduce_sum.1327 = f32[] parameter(1), metadata={op_name="reduce_sum"}
  ROOT %reduce_sum.1328 = f32[] add(%reduce_sum.1326, %reduce_sum.1327), metadata={op_name="jit(compiled_generate_function)/decoder_block_27/pre_attention_norm/reduce_sum" stack_frame_id=53}
}

%region_245.252 (reduce_sum.1333: f32[], reduce_sum.1334: f32[]) -> f32[] {
  %reduce_sum.1333 = f32[] parameter(0), metadata={op_name="reduce_sum"}
  %reduce_sum.1334 = f32[] parameter(1), metadata={op_name="reduce_sum"}
  ROOT %reduce_sum.1335 = f32[] add(%reduce_sum.1333, %reduce_sum.1334), metadata={op_name="jit(compiled_generate_function)/decoder_block_27/attention/query_norm/reduce_sum" stack_frame_id=148}
}

%region_246.253 (reduce_sum.1340: f32[], reduce_sum.1341: f32[]) -> f32[] {
  %reduce_sum.1340 = f32[] parameter(0), metadata={op_name="reduce_sum"}
  %reduce_sum.1341 = f32[] parameter(1), metadata={op_name="reduce_sum"}
  ROOT %reduce_sum.1342 = f32[] add(%reduce_sum.1340, %reduce_sum.1341), metadata={op_name="jit(compiled_generate_function)/decoder_block_27/attention/key_norm/reduce_sum" stack_frame_id=259}
}

%region_247.254 (reduce_max.192: f32[], reduce_max.193: f32[]) -> f32[] {
  %reduce_max.192 = f32[] parameter(0), metadata={op_name="reduce_max"}
  %reduce_max.193 = f32[] parameter(1), metadata={op_name="reduce_max"}
  ROOT %reduce_max.194 = f32[] maximum(%reduce_max.192, %reduce_max.193), metadata={op_name="jit(compiled_generate_function)/decoder_block_27/attention/softmax_27/reduce_max" stack_frame_id=377}
}

%region_248.255 (reduce_sum.1347: f32[], reduce_sum.1348: f32[]) -> f32[] {
  %reduce_sum.1347 = f32[] parameter(0), metadata={op_name="reduce_sum"}
  %reduce_sum.1348 = f32[] parameter(1), metadata={op_name="reduce_sum"}
  ROOT %reduce_sum.1349 = f32[] add(%reduce_sum.1347, %reduce_sum.1348), metadata={op_name="jit(compiled_generate_function)/decoder_block_27/attention/softmax_27/reduce_sum" stack_frame_id=377}
}

%region_249.256 (reduce_and.200: pred[], reduce_and.201: pred[]) -> pred[] {
  %reduce_and.200 = pred[] parameter(0), metadata={op_name="reduce_and"}
  %reduce_and.201 = pred[] parameter(1), metadata={op_name="reduce_and"}
  ROOT %reduce_and.202 = pred[] and(%reduce_and.200, %reduce_and.201), metadata={op_name="jit(compiled_generate_function)/decoder_block_27/attention/reduce_and" stack_frame_id=401}
}

%region_250.257 (reduce_sum.1354: f32[], reduce_sum.1355: f32[]) -> f32[] {
  %reduce_sum.1354 = f32[] parameter(0), metadata={op_name="reduce_sum"}
  %reduce_sum.1355 = f32[] parameter(1), metadata={op_name="reduce_sum"}
  ROOT %reduce_sum.1356 = f32[] add(%reduce_sum.1354, %reduce_sum.1355), metadata={op_name="jit(compiled_generate_function)/decoder_block_27/post_attention_norm/reduce_sum" stack_frame_id=432}
}

%region_251.258 (reduce_sum.1361: f32[], reduce_sum.1362: f32[]) -> f32[] {
  %reduce_sum.1361 = f32[] parameter(0), metadata={op_name="reduce_sum"}
  %reduce_sum.1362 = f32[] parameter(1), metadata={op_name="reduce_sum"}
  ROOT %reduce_sum.1363 = f32[] add(%reduce_sum.1361, %reduce_sum.1362), metadata={op_name="jit(compiled_generate_function)/decoder_block_27/pre_ffw_norm/reduce_sum" stack_frame_id=479}
}

%region_252.259 (reduce_sum.1368: f32[], reduce_sum.1369: f32[]) -> f32[] {
  %reduce_sum.1368 = f32[] parameter(0), metadata={op_name="reduce_sum"}
  %reduce_sum.1369 = f32[] parameter(1), metadata={op_name="reduce_sum"}
  ROOT %reduce_sum.1370 = f32[] add(%reduce_sum.1368, %reduce_sum.1369), metadata={op_name="jit(compiled_generate_function)/decoder_block_27/post_ffw_norm/reduce_sum" stack_frame_id=554}
}

%region_253.260 (reduce_sum.1375: f32[], reduce_sum.1376: f32[]) -> f32[] {
  %reduce_sum.1375 = f32[] parameter(0), metadata={op_name="reduce_sum"}
  %reduce_sum.1376 = f32[] parameter(1), metadata={op_name="reduce_sum"}
  ROOT %reduce_sum.1377 = f32[] add(%reduce_sum.1375, %reduce_sum.1376), metadata={op_name="jit(compiled_generate_function)/decoder_block_28/pre_attention_norm/reduce_sum" stack_frame_id=53}
}

%region_254.261 (reduce_sum.1382: f32[], reduce_sum.1383: f32[]) -> f32[] {
  %reduce_sum.1382 = f32[] parameter(0), metadata={op_name="reduce_sum"}
  %reduce_sum.1383 = f32[] parameter(1), metadata={op_name="reduce_sum"}
  ROOT %reduce_sum.1384 = f32[] add(%reduce_sum.1382, %reduce_sum.1383), metadata={op_name="jit(compiled_generate_function)/decoder_block_28/attention/query_norm/reduce_sum" stack_frame_id=148}
}

%region_255.262 (reduce_sum.1389: f32[], reduce_sum.1390: f32[]) -> f32[] {
  %reduce_sum.1389 = f32[] parameter(0), metadata={op_name="reduce_sum"}
  %reduce_sum.1390 = f32[] parameter(1), metadata={op_name="reduce_sum"}
  ROOT %reduce_sum.1391 = f32[] add(%reduce_sum.1389, %reduce_sum.1390), metadata={op_name="jit(compiled_generate_function)/decoder_block_28/attention/key_norm/reduce_sum" stack_frame_id=259}
}

%region_256.263 (reduce_max.199: f32[], reduce_max.200: f32[]) -> f32[] {
  %reduce_max.199 = f32[] parameter(0), metadata={op_name="reduce_max"}
  %reduce_max.200 = f32[] parameter(1), metadata={op_name="reduce_max"}
  ROOT %reduce_max.201 = f32[] maximum(%reduce_max.199, %reduce_max.200), metadata={op_name="jit(compiled_generate_function)/decoder_block_28/attention/softmax_28/reduce_max" stack_frame_id=377}
}

%region_257.264 (reduce_sum.1396: f32[], reduce_sum.1397: f32[]) -> f32[] {
  %reduce_sum.1396 = f32[] parameter(0), metadata={op_name="reduce_sum"}
  %reduce_sum.1397 = f32[] parameter(1), metadata={op_name="reduce_sum"}
  ROOT %reduce_sum.1398 = f32[] add(%reduce_sum.1396, %reduce_sum.1397), metadata={op_name="jit(compiled_generate_function)/decoder_block_28/attention/softmax_28/reduce_sum" stack_frame_id=377}
}

%region_258.265 (reduce_and.207: pred[], reduce_and.208: pred[]) -> pred[] {
  %reduce_and.207 = pred[] parameter(0), metadata={op_name="reduce_and"}
  %reduce_and.208 = pred[] parameter(1), metadata={op_name="reduce_and"}
  ROOT %reduce_and.209 = pred[] and(%reduce_and.207, %reduce_and.208), metadata={op_name="jit(compiled_generate_function)/decoder_block_28/attention/reduce_and" stack_frame_id=401}
}

%region_259.266 (reduce_sum.1403: f32[], reduce_sum.1404: f32[]) -> f32[] {
  %reduce_sum.1403 = f32[] parameter(0), metadata={op_name="reduce_sum"}
  %reduce_sum.1404 = f32[] parameter(1), metadata={op_name="reduce_sum"}
  ROOT %reduce_sum.1405 = f32[] add(%reduce_sum.1403, %reduce_sum.1404), metadata={op_name="jit(compiled_generate_function)/decoder_block_28/post_attention_norm/reduce_sum" stack_frame_id=432}
}

%region_260.267 (reduce_sum.1410: f32[], reduce_sum.1411: f32[]) -> f32[] {
  %reduce_sum.1410 = f32[] parameter(0), metadata={op_name="reduce_sum"}
  %reduce_sum.1411 = f32[] parameter(1), metadata={op_name="reduce_sum"}
  ROOT %reduce_sum.1412 = f32[] add(%reduce_sum.1410, %reduce_sum.1411), metadata={op_name="jit(compiled_generate_function)/decoder_block_28/pre_ffw_norm/reduce_sum" stack_frame_id=479}
}

%region_261.268 (reduce_sum.1417: f32[], reduce_sum.1418: f32[]) -> f32[] {
  %reduce_sum.1417 = f32[] parameter(0), metadata={op_name="reduce_sum"}
  %reduce_sum.1418 = f32[] parameter(1), metadata={op_name="reduce_sum"}
  ROOT %reduce_sum.1419 = f32[] add(%reduce_sum.1417, %reduce_sum.1418), metadata={op_name="jit(compiled_generate_function)/decoder_block_28/post_ffw_norm/reduce_sum" stack_frame_id=554}
}

%region_262.269 (reduce_sum.1424: f32[], reduce_sum.1425: f32[]) -> f32[] {
  %reduce_sum.1424 = f32[] parameter(0), metadata={op_name="reduce_sum"}
  %reduce_sum.1425 = f32[] parameter(1), metadata={op_name="reduce_sum"}
  ROOT %reduce_sum.1426 = f32[] add(%reduce_sum.1424, %reduce_sum.1425), metadata={op_name="jit(compiled_generate_function)/decoder_block_29/pre_attention_norm/reduce_sum" stack_frame_id=53}
}

%region_263.270 (reduce_sum.1431: f32[], reduce_sum.1432: f32[]) -> f32[] {
  %reduce_sum.1431 = f32[] parameter(0), metadata={op_name="reduce_sum"}
  %reduce_sum.1432 = f32[] parameter(1), metadata={op_name="reduce_sum"}
  ROOT %reduce_sum.1433 = f32[] add(%reduce_sum.1431, %reduce_sum.1432), metadata={op_name="jit(compiled_generate_function)/decoder_block_29/attention/query_norm/reduce_sum" stack_frame_id=148}
}

%region_264.271 (reduce_sum.1438: f32[], reduce_sum.1439: f32[]) -> f32[] {
  %reduce_sum.1438 = f32[] parameter(0), metadata={op_name="reduce_sum"}
  %reduce_sum.1439 = f32[] parameter(1), metadata={op_name="reduce_sum"}
  ROOT %reduce_sum.1440 = f32[] add(%reduce_sum.1438, %reduce_sum.1439), metadata={op_name="jit(compiled_generate_function)/decoder_block_29/attention/key_norm/reduce_sum" stack_frame_id=259}
}

%region_265.272 (reduce_max.206: f32[], reduce_max.207: f32[]) -> f32[] {
  %reduce_max.206 = f32[] parameter(0), metadata={op_name="reduce_max"}
  %reduce_max.207 = f32[] parameter(1), metadata={op_name="reduce_max"}
  ROOT %reduce_max.208 = f32[] maximum(%reduce_max.206, %reduce_max.207), metadata={op_name="jit(compiled_generate_function)/decoder_block_29/attention/softmax_29/reduce_max" stack_frame_id=377}
}

%region_266.273 (reduce_sum.1445: f32[], reduce_sum.1446: f32[]) -> f32[] {
  %reduce_sum.1445 = f32[] parameter(0), metadata={op_name="reduce_sum"}
  %reduce_sum.1446 = f32[] parameter(1), metadata={op_name="reduce_sum"}
  ROOT %reduce_sum.1447 = f32[] add(%reduce_sum.1445, %reduce_sum.1446), metadata={op_name="jit(compiled_generate_function)/decoder_block_29/attention/softmax_29/reduce_sum" stack_frame_id=377}
}

%region_267.274 (reduce_and.214: pred[], reduce_and.215: pred[]) -> pred[] {
  %reduce_and.214 = pred[] parameter(0), metadata={op_name="reduce_and"}
  %reduce_and.215 = pred[] parameter(1), metadata={op_name="reduce_and"}
  ROOT %reduce_and.216 = pred[] and(%reduce_and.214, %reduce_and.215), metadata={op_name="jit(compiled_generate_function)/decoder_block_29/attention/reduce_and" stack_frame_id=401}
}

%region_268.275 (reduce_sum.1452: f32[], reduce_sum.1453: f32[]) -> f32[] {
  %reduce_sum.1452 = f32[] parameter(0), metadata={op_name="reduce_sum"}
  %reduce_sum.1453 = f32[] parameter(1), metadata={op_name="reduce_sum"}
  ROOT %reduce_sum.1454 = f32[] add(%reduce_sum.1452, %reduce_sum.1453), metadata={op_name="jit(compiled_generate_function)/decoder_block_29/post_attention_norm/reduce_sum" stack_frame_id=432}
}

%region_269.276 (reduce_sum.1459: f32[], reduce_sum.1460: f32[]) -> f32[] {
  %reduce_sum.1459 = f32[] parameter(0), metadata={op_name="reduce_sum"}
  %reduce_sum.1460 = f32[] parameter(1), metadata={op_name="reduce_sum"}
  ROOT %reduce_sum.1461 = f32[] add(%reduce_sum.1459, %reduce_sum.1460), metadata={op_name="jit(compiled_generate_function)/decoder_block_29/pre_ffw_norm/reduce_sum" stack_frame_id=479}
}

%region_270.277 (reduce_sum.1466: f32[], reduce_sum.1467: f32[]) -> f32[] {
  %reduce_sum.1466 = f32[] parameter(0), metadata={op_name="reduce_sum"}
  %reduce_sum.1467 = f32[] parameter(1), metadata={op_name="reduce_sum"}
  ROOT %reduce_sum.1468 = f32[] add(%reduce_sum.1466, %reduce_sum.1467), metadata={op_name="jit(compiled_generate_function)/decoder_block_29/post_ffw_norm/reduce_sum" stack_frame_id=554}
}

%region_271.278 (reduce_sum.1473: f32[], reduce_sum.1474: f32[]) -> f32[] {
  %reduce_sum.1473 = f32[] parameter(0), metadata={op_name="reduce_sum"}
  %reduce_sum.1474 = f32[] parameter(1), metadata={op_name="reduce_sum"}
  ROOT %reduce_sum.1475 = f32[] add(%reduce_sum.1473, %reduce_sum.1474), metadata={op_name="jit(compiled_generate_function)/decoder_block_30/pre_attention_norm/reduce_sum" stack_frame_id=53}
}

%region_272.279 (reduce_sum.1480: f32[], reduce_sum.1481: f32[]) -> f32[] {
  %reduce_sum.1480 = f32[] parameter(0), metadata={op_name="reduce_sum"}
  %reduce_sum.1481 = f32[] parameter(1), metadata={op_name="reduce_sum"}
  ROOT %reduce_sum.1482 = f32[] add(%reduce_sum.1480, %reduce_sum.1481), metadata={op_name="jit(compiled_generate_function)/decoder_block_30/attention/query_norm/reduce_sum" stack_frame_id=148}
}

%region_273.280 (reduce_sum.1487: f32[], reduce_sum.1488: f32[]) -> f32[] {
  %reduce_sum.1487 = f32[] parameter(0), metadata={op_name="reduce_sum"}
  %reduce_sum.1488 = f32[] parameter(1), metadata={op_name="reduce_sum"}
  ROOT %reduce_sum.1489 = f32[] add(%reduce_sum.1487, %reduce_sum.1488), metadata={op_name="jit(compiled_generate_function)/decoder_block_30/attention/key_norm/reduce_sum" stack_frame_id=259}
}

%region_274.281 (reduce_max.213: f32[], reduce_max.214: f32[]) -> f32[] {
  %reduce_max.213 = f32[] parameter(0), metadata={op_name="reduce_max"}
  %reduce_max.214 = f32[] parameter(1), metadata={op_name="reduce_max"}
  ROOT %reduce_max.215 = f32[] maximum(%reduce_max.213, %reduce_max.214), metadata={op_name="jit(compiled_generate_function)/decoder_block_30/attention/softmax_30/reduce_max" stack_frame_id=377}
}

%region_275.282 (reduce_sum.1494: f32[], reduce_sum.1495: f32[]) -> f32[] {
  %reduce_sum.1494 = f32[] parameter(0), metadata={op_name="reduce_sum"}
  %reduce_sum.1495 = f32[] parameter(1), metadata={op_name="reduce_sum"}
  ROOT %reduce_sum.1496 = f32[] add(%reduce_sum.1494, %reduce_sum.1495), metadata={op_name="jit(compiled_generate_function)/decoder_block_30/attention/softmax_30/reduce_sum" stack_frame_id=377}
}

%region_276.283 (reduce_and.221: pred[], reduce_and.222: pred[]) -> pred[] {
  %reduce_and.221 = pred[] parameter(0), metadata={op_name="reduce_and"}
  %reduce_and.222 = pred[] parameter(1), metadata={op_name="reduce_and"}
  ROOT %reduce_and.223 = pred[] and(%reduce_and.221, %reduce_and.222), metadata={op_name="jit(compiled_generate_function)/decoder_block_30/attention/reduce_and" stack_frame_id=401}
}

%region_277.284 (reduce_sum.1501: f32[], reduce_sum.1502: f32[]) -> f32[] {
  %reduce_sum.1501 = f32[] parameter(0), metadata={op_name="reduce_sum"}
  %reduce_sum.1502 = f32[] parameter(1), metadata={op_name="reduce_sum"}
  ROOT %reduce_sum.1503 = f32[] add(%reduce_sum.1501, %reduce_sum.1502), metadata={op_name="jit(compiled_generate_function)/decoder_block_30/post_attention_norm/reduce_sum" stack_frame_id=432}
}

%region_278.285 (reduce_sum.1508: f32[], reduce_sum.1509: f32[]) -> f32[] {
  %reduce_sum.1508 = f32[] parameter(0), metadata={op_name="reduce_sum"}
  %reduce_sum.1509 = f32[] parameter(1), metadata={op_name="reduce_sum"}
  ROOT %reduce_sum.1510 = f32[] add(%reduce_sum.1508, %reduce_sum.1509), metadata={op_name="jit(compiled_generate_function)/decoder_block_30/pre_ffw_norm/reduce_sum" stack_frame_id=479}
}

%region_279.286 (reduce_sum.1515: f32[], reduce_sum.1516: f32[]) -> f32[] {
  %reduce_sum.1515 = f32[] parameter(0), metadata={op_name="reduce_sum"}
  %reduce_sum.1516 = f32[] parameter(1), metadata={op_name="reduce_sum"}
  ROOT %reduce_sum.1517 = f32[] add(%reduce_sum.1515, %reduce_sum.1516), metadata={op_name="jit(compiled_generate_function)/decoder_block_30/post_ffw_norm/reduce_sum" stack_frame_id=554}
}

%region_280.287 (reduce_sum.1522: f32[], reduce_sum.1523: f32[]) -> f32[] {
  %reduce_sum.1522 = f32[] parameter(0), metadata={op_name="reduce_sum"}
  %reduce_sum.1523 = f32[] parameter(1), metadata={op_name="reduce_sum"}
  ROOT %reduce_sum.1524 = f32[] add(%reduce_sum.1522, %reduce_sum.1523), metadata={op_name="jit(compiled_generate_function)/decoder_block_31/pre_attention_norm/reduce_sum" stack_frame_id=53}
}

%region_281.288 (reduce_sum.1529: f32[], reduce_sum.1530: f32[]) -> f32[] {
  %reduce_sum.1529 = f32[] parameter(0), metadata={op_name="reduce_sum"}
  %reduce_sum.1530 = f32[] parameter(1), metadata={op_name="reduce_sum"}
  ROOT %reduce_sum.1531 = f32[] add(%reduce_sum.1529, %reduce_sum.1530), metadata={op_name="jit(compiled_generate_function)/decoder_block_31/attention/query_norm/reduce_sum" stack_frame_id=148}
}

%region_282.289 (reduce_sum.1536: f32[], reduce_sum.1537: f32[]) -> f32[] {
  %reduce_sum.1536 = f32[] parameter(0), metadata={op_name="reduce_sum"}
  %reduce_sum.1537 = f32[] parameter(1), metadata={op_name="reduce_sum"}
  ROOT %reduce_sum.1538 = f32[] add(%reduce_sum.1536, %reduce_sum.1537), metadata={op_name="jit(compiled_generate_function)/decoder_block_31/attention/key_norm/reduce_sum" stack_frame_id=259}
}

%region_283.290 (reduce_max.220: f32[], reduce_max.221: f32[]) -> f32[] {
  %reduce_max.220 = f32[] parameter(0), metadata={op_name="reduce_max"}
  %reduce_max.221 = f32[] parameter(1), metadata={op_name="reduce_max"}
  ROOT %reduce_max.222 = f32[] maximum(%reduce_max.220, %reduce_max.221), metadata={op_name="jit(compiled_generate_function)/decoder_block_31/attention/softmax_31/reduce_max" stack_frame_id=377}
}

%region_284.291 (reduce_sum.1543: f32[], reduce_sum.1544: f32[]) -> f32[] {
  %reduce_sum.1543 = f32[] parameter(0), metadata={op_name="reduce_sum"}
  %reduce_sum.1544 = f32[] parameter(1), metadata={op_name="reduce_sum"}
  ROOT %reduce_sum.1545 = f32[] add(%reduce_sum.1543, %reduce_sum.1544), metadata={op_name="jit(compiled_generate_function)/decoder_block_31/attention/softmax_31/reduce_sum" stack_frame_id=377}
}

%region_285.292 (reduce_and.228: pred[], reduce_and.229: pred[]) -> pred[] {
  %reduce_and.228 = pred[] parameter(0), metadata={op_name="reduce_and"}
  %reduce_and.229 = pred[] parameter(1), metadata={op_name="reduce_and"}
  ROOT %reduce_and.230 = pred[] and(%reduce_and.228, %reduce_and.229), metadata={op_name="jit(compiled_generate_function)/decoder_block_31/attention/reduce_and" stack_frame_id=401}
}

%region_286.293 (reduce_sum.1550: f32[], reduce_sum.1551: f32[]) -> f32[] {
  %reduce_sum.1550 = f32[] parameter(0), metadata={op_name="reduce_sum"}
  %reduce_sum.1551 = f32[] parameter(1), metadata={op_name="reduce_sum"}
  ROOT %reduce_sum.1552 = f32[] add(%reduce_sum.1550, %reduce_sum.1551), metadata={op_name="jit(compiled_generate_function)/decoder_block_31/post_attention_norm/reduce_sum" stack_frame_id=432}
}

%region_287.294 (reduce_sum.1557: f32[], reduce_sum.1558: f32[]) -> f32[] {
  %reduce_sum.1557 = f32[] parameter(0), metadata={op_name="reduce_sum"}
  %reduce_sum.1558 = f32[] parameter(1), metadata={op_name="reduce_sum"}
  ROOT %reduce_sum.1559 = f32[] add(%reduce_sum.1557, %reduce_sum.1558), metadata={op_name="jit(compiled_generate_function)/decoder_block_31/pre_ffw_norm/reduce_sum" stack_frame_id=479}
}

%region_288.295 (reduce_sum.1564: f32[], reduce_sum.1565: f32[]) -> f32[] {
  %reduce_sum.1564 = f32[] parameter(0), metadata={op_name="reduce_sum"}
  %reduce_sum.1565 = f32[] parameter(1), metadata={op_name="reduce_sum"}
  ROOT %reduce_sum.1566 = f32[] add(%reduce_sum.1564, %reduce_sum.1565), metadata={op_name="jit(compiled_generate_function)/decoder_block_31/post_ffw_norm/reduce_sum" stack_frame_id=554}
}

%region_289.296 (reduce_sum.1571: f32[], reduce_sum.1572: f32[]) -> f32[] {
  %reduce_sum.1571 = f32[] parameter(0), metadata={op_name="reduce_sum"}
  %reduce_sum.1572 = f32[] parameter(1), metadata={op_name="reduce_sum"}
  ROOT %reduce_sum.1573 = f32[] add(%reduce_sum.1571, %reduce_sum.1572), metadata={op_name="jit(compiled_generate_function)/decoder_block_32/pre_attention_norm/reduce_sum" stack_frame_id=53}
}

%region_290.297 (reduce_sum.1578: f32[], reduce_sum.1579: f32[]) -> f32[] {
  %reduce_sum.1578 = f32[] parameter(0), metadata={op_name="reduce_sum"}
  %reduce_sum.1579 = f32[] parameter(1), metadata={op_name="reduce_sum"}
  ROOT %reduce_sum.1580 = f32[] add(%reduce_sum.1578, %reduce_sum.1579), metadata={op_name="jit(compiled_generate_function)/decoder_block_32/attention/query_norm/reduce_sum" stack_frame_id=148}
}

%region_291.298 (reduce_sum.1585: f32[], reduce_sum.1586: f32[]) -> f32[] {
  %reduce_sum.1585 = f32[] parameter(0), metadata={op_name="reduce_sum"}
  %reduce_sum.1586 = f32[] parameter(1), metadata={op_name="reduce_sum"}
  ROOT %reduce_sum.1587 = f32[] add(%reduce_sum.1585, %reduce_sum.1586), metadata={op_name="jit(compiled_generate_function)/decoder_block_32/attention/key_norm/reduce_sum" stack_frame_id=259}
}

%region_292.299 (reduce_max.227: f32[], reduce_max.228: f32[]) -> f32[] {
  %reduce_max.227 = f32[] parameter(0), metadata={op_name="reduce_max"}
  %reduce_max.228 = f32[] parameter(1), metadata={op_name="reduce_max"}
  ROOT %reduce_max.229 = f32[] maximum(%reduce_max.227, %reduce_max.228), metadata={op_name="jit(compiled_generate_function)/decoder_block_32/attention/softmax_32/reduce_max" stack_frame_id=377}
}

%region_293.300 (reduce_sum.1592: f32[], reduce_sum.1593: f32[]) -> f32[] {
  %reduce_sum.1592 = f32[] parameter(0), metadata={op_name="reduce_sum"}
  %reduce_sum.1593 = f32[] parameter(1), metadata={op_name="reduce_sum"}
  ROOT %reduce_sum.1594 = f32[] add(%reduce_sum.1592, %reduce_sum.1593), metadata={op_name="jit(compiled_generate_function)/decoder_block_32/attention/softmax_32/reduce_sum" stack_frame_id=377}
}

%region_294.301 (reduce_and.235: pred[], reduce_and.236: pred[]) -> pred[] {
  %reduce_and.235 = pred[] parameter(0), metadata={op_name="reduce_and"}
  %reduce_and.236 = pred[] parameter(1), metadata={op_name="reduce_and"}
  ROOT %reduce_and.237 = pred[] and(%reduce_and.235, %reduce_and.236), metadata={op_name="jit(compiled_generate_function)/decoder_block_32/attention/reduce_and" stack_frame_id=401}
}

%region_295.302 (reduce_sum.1599: f32[], reduce_sum.1600: f32[]) -> f32[] {
  %reduce_sum.1599 = f32[] parameter(0), metadata={op_name="reduce_sum"}
  %reduce_sum.1600 = f32[] parameter(1), metadata={op_name="reduce_sum"}
  ROOT %reduce_sum.1601 = f32[] add(%reduce_sum.1599, %reduce_sum.1600), metadata={op_name="jit(compiled_generate_function)/decoder_block_32/post_attention_norm/reduce_sum" stack_frame_id=432}
}

%region_296.303 (reduce_sum.1606: f32[], reduce_sum.1607: f32[]) -> f32[] {
  %reduce_sum.1606 = f32[] parameter(0), metadata={op_name="reduce_sum"}
  %reduce_sum.1607 = f32[] parameter(1), metadata={op_name="reduce_sum"}
  ROOT %reduce_sum.1608 = f32[] add(%reduce_sum.1606, %reduce_sum.1607), metadata={op_name="jit(compiled_generate_function)/decoder_block_32/pre_ffw_norm/reduce_sum" stack_frame_id=479}
}

%region_297.304 (reduce_sum.1613: f32[], reduce_sum.1614: f32[]) -> f32[] {
  %reduce_sum.1613 = f32[] parameter(0), metadata={op_name="reduce_sum"}
  %reduce_sum.1614 = f32[] parameter(1), metadata={op_name="reduce_sum"}
  ROOT %reduce_sum.1615 = f32[] add(%reduce_sum.1613, %reduce_sum.1614), metadata={op_name="jit(compiled_generate_function)/decoder_block_32/post_ffw_norm/reduce_sum" stack_frame_id=554}
}

%region_298.305 (reduce_sum.1620: f32[], reduce_sum.1621: f32[]) -> f32[] {
  %reduce_sum.1620 = f32[] parameter(0), metadata={op_name="reduce_sum"}
  %reduce_sum.1621 = f32[] parameter(1), metadata={op_name="reduce_sum"}
  ROOT %reduce_sum.1622 = f32[] add(%reduce_sum.1620, %reduce_sum.1621), metadata={op_name="jit(compiled_generate_function)/decoder_block_33/pre_attention_norm/reduce_sum" stack_frame_id=53}
}

%region_299.306 (reduce_sum.1627: f32[], reduce_sum.1628: f32[]) -> f32[] {
  %reduce_sum.1627 = f32[] parameter(0), metadata={op_name="reduce_sum"}
  %reduce_sum.1628 = f32[] parameter(1), metadata={op_name="reduce_sum"}
  ROOT %reduce_sum.1629 = f32[] add(%reduce_sum.1627, %reduce_sum.1628), metadata={op_name="jit(compiled_generate_function)/decoder_block_33/attention/key_norm/reduce_sum" stack_frame_id=259}
}

%region_300.307 (reduce_sum.1634: s32[], reduce_sum.1635: s32[]) -> s32[] {
  %reduce_sum.1634 = s32[] parameter(0), metadata={op_name="reduce_sum"}
  %reduce_sum.1635 = s32[] parameter(1), metadata={op_name="reduce_sum"}
  ROOT %reduce_sum.1636 = s32[] add(%reduce_sum.1634, %reduce_sum.1635), metadata={op_name="jit(compiled_generate_function)/reduce_sum" stack_frame_id=592}
}

%region_301.308 (reduce_min.3: s32[], reduce_min.4: s32[]) -> s32[] {
  %reduce_min.3 = s32[] parameter(0), metadata={op_name="reduce_min"}
  %reduce_min.4 = s32[] parameter(1), metadata={op_name="reduce_min"}
  ROOT %reduce_min.5 = s32[] minimum(%reduce_min.3, %reduce_min.4), metadata={op_name="jit(compiled_generate_function)/reduce_min" stack_frame_id=23}
}

%_where_159.309 (Arg_0.14: pred[1,1], Arg_1.10: s32[1,1], Arg_2.7: s32[1,1]) -> s32[1,1] {
  %Arg_0.14 = pred[1,1]{1,0} parameter(0)
  %Arg_1.10 = s32[1,1]{1,0} parameter(1)
  %Arg_2.7 = s32[1,1]{1,0} parameter(2)
  ROOT %select_n.15 = s32[1,1]{1,0} select(%Arg_0.14, %Arg_1.10, %Arg_2.7), metadata={op_name="select_n" stack_frame_id=33}
}

%region_303.310 (reduce_and.242: pred[], reduce_and.243: pred[]) -> pred[] {
  %reduce_and.242 = pred[] parameter(0), metadata={op_name="reduce_and"}
  %reduce_and.243 = pred[] parameter(1), metadata={op_name="reduce_and"}
  ROOT %reduce_and.244 = pred[] and(%reduce_and.242, %reduce_and.243), metadata={op_name="reduce_and" stack_frame_id=33}
}

%_take_156.311 (Arg_0.15: f32[262144,2560], Arg_1.11: s32[1,1]) -> f32[1,1,2560] {
  %Arg_1.11 = s32[1,1]{1,0} parameter(1)
  %constant.105 = s32[1,1]{1,0} constant({ {0} })
  %lt.7 = pred[1,1]{1,0} compare(%Arg_1.11, %constant.105), direction=LT, metadata={op_name="lt" stack_frame_id=33}
  %constant.103 = s32[1,1]{1,0} constant({ {262144} })
  %add.614 = s32[1,1]{1,0} add(%Arg_1.11, %constant.103), metadata={op_name="add" stack_frame_id=33}
  %jit__where_.69 = s32[1,1]{1,0} call(%lt.7, %add.614, %Arg_1.11), to_apply=%_where_159.309, metadata={op_name="jit(_where)" stack_frame_id=33}
  %broadcast_in_dim.1157 = s32[1,1,1]{2,1,0} reshape(%jit__where_.69), metadata={op_name="broadcast_in_dim" stack_frame_id=33}
  %constant.102 = s32[1,1,1]{2,1,0} constant({ { {0} } })
  %ge.240 = pred[1,1,1]{2,1,0} compare(%broadcast_in_dim.1157, %constant.102), direction=GE, metadata={op_name="ge" stack_frame_id=33}
  %constant.101 = s32[1,1,1]{2,1,0} constant({ { {262143} } })
  %le.5 = pred[1,1,1]{2,1,0} compare(%broadcast_in_dim.1157, %constant.101), direction=LE, metadata={op_name="le" stack_frame_id=33}
  %and.59 = pred[1,1,1]{2,1,0} and(%ge.240, %le.5), metadata={op_name="and" stack_frame_id=33}
  %constant.104 = pred[] constant(true)
  %reduce_and.246 = pred[1,1]{1,0} reduce(%and.59, %constant.104), dimensions={2}, to_apply=%region_303.310, metadata={op_name="reduce_and" stack_frame_id=33}
  %broadcast_in_dim.1158 = pred[1,1,2560]{2,1,0} broadcast(%reduce_and.246), dimensions={0,1}, metadata={op_name="broadcast_in_dim" stack_frame_id=33}
  %Arg_0.15 = f32[262144,2560]{1,0} parameter(0)
  %gather.3 = f32[1,1,2560]{2,1,0} gather(%Arg_0.15, %broadcast_in_dim.1157), offset_dims={2}, collapsed_slice_dims={0}, start_index_map={0}, index_vector_dim=2, slice_sizes={1,2560}, metadata={op_name="gather" stack_frame_id=33}
  %constant.100 = f32[] constant(nan)
  %broadcast_in_dim.1156 = f32[1,1,2560]{2,1,0} broadcast(%constant.100), dimensions={}, metadata={op_name="broadcast_in_dim" stack_frame_id=33}
  ROOT %select_n.17 = f32[1,1,2560]{2,1,0} select(%broadcast_in_dim.1158, %gather.3, %broadcast_in_dim.1156), metadata={op_name="select_n" stack_frame_id=33}
}

%region_304.312 (reduce_sum.1641: f32[], reduce_sum.1642: f32[]) -> f32[] {
  %reduce_sum.1641 = f32[] parameter(0), metadata={op_name="reduce_sum"}
  %reduce_sum.1642 = f32[] parameter(1), metadata={op_name="reduce_sum"}
  ROOT %reduce_sum.1643 = f32[] add(%reduce_sum.1641, %reduce_sum.1642), metadata={op_name="jit(compiled_generate_function)/while/body/decoder_block_0/pre_attention_norm/reduce_sum" stack_frame_id=607}
}

%region_305.313 (reduce_sum.1648: f32[], reduce_sum.1649: f32[]) -> f32[] {
  %reduce_sum.1648 = f32[] parameter(0), metadata={op_name="reduce_sum"}
  %reduce_sum.1649 = f32[] parameter(1), metadata={op_name="reduce_sum"}
  ROOT %reduce_sum.1650 = f32[] add(%reduce_sum.1648, %reduce_sum.1649), metadata={op_name="jit(compiled_generate_function)/while/body/decoder_block_0/attention/query_norm/reduce_sum" stack_frame_id=607}
}

%region_306.314 (reduce_sum.1655: f32[], reduce_sum.1656: f32[]) -> f32[] {
  %reduce_sum.1655 = f32[] parameter(0), metadata={op_name="reduce_sum"}
  %reduce_sum.1656 = f32[] parameter(1), metadata={op_name="reduce_sum"}
  ROOT %reduce_sum.1657 = f32[] add(%reduce_sum.1655, %reduce_sum.1656), metadata={op_name="jit(compiled_generate_function)/while/body/decoder_block_0/attention/key_norm/reduce_sum" stack_frame_id=607}
}

%_where_230.315 (Arg_0.17: pred[1,1,1,1], Arg_1.13: f32[1,1,4,256], Arg_2.9: f32[1,1,4,256]) -> f32[1,1,4,256] {
  %Arg_0.17 = pred[1,1,1,1]{3,2,1,0} parameter(0)
  %broadcast_in_dim.1179 = pred[1,1,1,1]{3,2,1,0} broadcast(%Arg_0.17), dimensions={0,1,2,3}, metadata={op_name="broadcast_in_dim" stack_frame_id=610}
  %broadcast_in_dim.1180 = pred[1,1]{1,0} reshape(%broadcast_in_dim.1179), metadata={op_name="broadcast_in_dim" stack_frame_id=610}
  %broadcast_in_dim.1181 = pred[1,1,4,256]{3,2,1,0} broadcast(%broadcast_in_dim.1180), dimensions={0,1}, metadata={op_name="broadcast_in_dim" stack_frame_id=610}
  %Arg_1.13 = f32[1,1,4,256]{3,2,1,0} parameter(1)
  %Arg_2.9 = f32[1,1,4,256]{3,2,1,0} parameter(2)
  ROOT %select_n.21 = f32[1,1,4,256]{3,2,1,0} select(%broadcast_in_dim.1181, %Arg_1.13, %Arg_2.9), metadata={op_name="select_n" stack_frame_id=610}
}

%triu_234.316 (Arg_0.19: pred[110,110]) -> pred[110,110] {
  %iota.154 = s32[110]{0} iota(), iota_dimension=0, metadata={op_name="iota" stack_frame_id=322}
  %iota.155 = s32[110,110]{1,0} broadcast(%iota.154), dimensions={0}, metadata={op_name="iota" stack_frame_id=322}
  %constant.109 = s32[] constant(-1024)
  %add.632 = s32[110,110]{1,0} broadcast(%constant.109), dimensions={}, metadata={op_name="add" stack_frame_id=322}
  %add.633 = s32[110,110]{1,0} add(%iota.155, %add.632), metadata={op_name="add" stack_frame_id=322}
  %iota.156 = s32[110]{0} iota(), iota_dimension=0, metadata={op_name="iota" stack_frame_id=322}
  %iota.157 = s32[110,110]{1,0} broadcast(%iota.156), dimensions={1}, metadata={op_name="iota" stack_frame_id=322}
  %ge.246 = pred[110,110]{1,0} compare(%add.633, %iota.157), direction=GE, metadata={op_name="ge" stack_frame_id=322}
  %constant.108 = pred[] constant(false)
  %broadcast_in_dim.1185 = pred[110,110]{1,0} broadcast(%constant.108), dimensions={}, metadata={op_name="broadcast_in_dim" stack_frame_id=322}
  %Arg_0.19 = pred[110,110]{1,0} parameter(0)
  ROOT %select_n.25 = pred[110,110]{1,0} select(%ge.246, %broadcast_in_dim.1185, %Arg_0.19), metadata={op_name="select_n" stack_frame_id=322}
}

%tril_235.317 (Arg_0.21: pred[110,110]) -> pred[110,110] {
  %iota.162 = s32[110]{0} iota(), iota_dimension=0, metadata={op_name="iota" stack_frame_id=325}
  %iota.163 = s32[110,110]{1,0} broadcast(%iota.162), dimensions={0}, metadata={op_name="iota" stack_frame_id=325}
  %constant.113 = s32[] constant(1023)
  %add.636 = s32[110,110]{1,0} broadcast(%constant.113), dimensions={}, metadata={op_name="add" stack_frame_id=325}
  %add.637 = s32[110,110]{1,0} add(%iota.163, %add.636), metadata={op_name="add" stack_frame_id=325}
  %iota.164 = s32[110]{0} iota(), iota_dimension=0, metadata={op_name="iota" stack_frame_id=325}
  %iota.165 = s32[110,110]{1,0} broadcast(%iota.164), dimensions={1}, metadata={op_name="iota" stack_frame_id=325}
  %ge.248 = pred[110,110]{1,0} compare(%add.637, %iota.165), direction=GE, metadata={op_name="ge" stack_frame_id=325}
  %Arg_0.21 = pred[110,110]{1,0} parameter(0)
  %constant.112 = pred[] constant(false)
  %broadcast_in_dim.1187 = pred[110,110]{1,0} broadcast(%constant.112), dimensions={}, metadata={op_name="broadcast_in_dim" stack_frame_id=325}
…
  %sqrt.807 = f32[1,110,1]{2,1,0} sqrt(%add.2988), metadata={op_name="jit(compiled_generate_function)/decoder_block_32/post_ffw_norm/sqrt" stack_frame_id=565}
  %integer_pow.1075 = f32[1,110,1]{2,1,0} divide(%broadcast.103, %sqrt.807), metadata={op_name="jit(compiled_generate_function)/decoder_block_32/post_ffw_norm/integer_pow" stack_frame_id=569}
  %mul.9132 = f32[1,110,1]{2,1,0} broadcast(%integer_pow.1075), dimensions={0,1,2}, metadata={op_name="jit(compiled_generate_function)/decoder_block_32/post_ffw_norm/mul" stack_frame_id=570}
  %mul.9133 = f32[1,110]{1,0} reshape(%mul.9132), metadata={op_name="jit(compiled_generate_function)/decoder_block_32/post_ffw_norm/mul" stack_frame_id=570}
  %mul.9134 = f32[1,110,2560]{2,1,0} broadcast(%mul.9133), dimensions={0,1}, metadata={op_name="jit(compiled_generate_function)/decoder_block_32/post_ffw_norm/mul" stack_frame_id=570}
  %mul.9135 = f32[1,110,2560]{2,1,0} multiply(%dot_general.1478, %mul.9134), metadata={op_name="jit(compiled_generate_function)/decoder_block_32/post_ffw_norm/mul" stack_frame_id=570}
  %state_1__426_.1 = f32[2560]{0} parameter(428), metadata={op_name="state[1][426]"}
  %add.2989 = f32[2560]{0} add(%state_1__426_.1, %broadcast.102), metadata={op_name="jit(compiled_generate_function)/decoder_block_32/post_ffw_norm/add" stack_frame_id=571}
  %broadcast_in_dim.4376 = f32[1,1,2560]{2,1,0} reshape(%add.2989), metadata={op_name="jit(compiled_generate_function)/decoder_block_32/post_ffw_norm/broadcast_in_dim" stack_frame_id=572}
  %mul.9136 = f32[1,1,2560]{2,1,0} broadcast(%broadcast_in_dim.4376), dimensions={0,1,2}, metadata={op_name="jit(compiled_generate_function)/decoder_block_32/post_ffw_norm/mul" stack_frame_id=572}
  %mul.9137 = f32[1,2560]{1,0} reshape(%mul.9136), metadata={op_name="jit(compiled_generate_function)/decoder_block_32/post_ffw_norm/mul" stack_frame_id=572}
  %mul.9138 = f32[1,110,2560]{2,1,0} broadcast(%mul.9137), dimensions={0,2}, metadata={op_name="jit(compiled_generate_function)/decoder_block_32/post_ffw_norm/mul" stack_frame_id=572}
  %mul.9139 = f32[1,110,2560]{2,1,0} multiply(%mul.9135, %mul.9138), metadata={op_name="jit(compiled_generate_function)/decoder_block_32/post_ffw_norm/mul" stack_frame_id=572}
  %add.2990 = f32[1,110,2560]{2,1,0} add(%mul.9139, %add.2983), metadata={op_name="jit(compiled_generate_function)/decoder_block_32/add" stack_frame_id=573}
  %square.808 = f32[1,110,2560]{2,1,0} multiply(%add.2990, %add.2990), metadata={op_name="jit(compiled_generate_function)/decoder_block_33/pre_attention_norm/square" stack_frame_id=43}
  %reduce_sum.3789 = f32[1,110]{1,0} reduce(%square.808, %constant.205), dimensions={2}, to_apply=%region_298.305, metadata={op_name="jit(compiled_generate_function)/decoder_block_33/pre_attention_norm/reduce_sum" stack_frame_id=53}
  %broadcast_in_dim.4377 = f32[1,110,1]{2,1,0} reshape(%reduce_sum.3789), metadata={op_name="jit(compiled_generate_function)/decoder_block_33/pre_attention_norm/broadcast_in_dim" stack_frame_id=53}
  %div.1623 = f32[1,110,1]{2,1,0} divide(%broadcast_in_dim.4377, %broadcast.105), metadata={op_name="jit(compiled_generate_function)/decoder_block_33/pre_attention_norm/div" stack_frame_id=53}
  %add.2991 = f32[1,110,1]{2,1,0} add(%div.1623, %broadcast.104), metadata={op_name="jit(compiled_generate_function)/decoder_block_33/pre_attention_norm/add" stack_frame_id=63}
  %sqrt.808 = f32[1,110,1]{2,1,0} sqrt(%add.2991), metadata={op_name="jit(compiled_generate_function)/decoder_block_33/pre_attention_norm/sqrt" stack_frame_id=67}
  %integer_pow.1076 = f32[1,110,1]{2,1,0} divide(%broadcast.103, %sqrt.808), metadata={op_name="jit(compiled_generate_function)/decoder_block_33/pre_attention_norm/integer_pow" stack_frame_id=71}
  %mul.9140 = f32[1,110,1]{2,1,0} broadcast(%integer_pow.1076), dimensions={0,1,2}, metadata={op_name="jit(compiled_generate_function)/decoder_block_33/pre_attention_norm/mul" stack_frame_id=72}
  %mul.9141 = f32[1,110]{1,0} reshape(%mul.9140), metadata={op_name="jit(compiled_generate_function)/decoder_block_33/pre_attention_norm/mul" stack_frame_id=72}
  %mul.9142 = f32[1,110,2560]{2,1,0} broadcast(%mul.9141), dimensions={0,1}, metadata={op_name="jit(compiled_generate_function)/decoder_block_33/pre_attention_norm/mul" stack_frame_id=72}
  %mul.9143 = f32[1,110,2560]{2,1,0} multiply(%add.2990, %mul.9142), metadata={op_name="jit(compiled_generate_function)/decoder_block_33/pre_attention_norm/mul" stack_frame_id=72}
  %state_1__430_.1 = f32[2560]{0} parameter(432), metadata={op_name="state[1][430]"}
  %add.2992 = f32[2560]{0} add(%state_1__430_.1, %broadcast.102), metadata={op_name="jit(compiled_generate_function)/decoder_block_33/pre_attention_norm/add" stack_frame_id=73}
  %broadcast_in_dim.4378 = f32[1,1,2560]{2,1,0} reshape(%add.2992), metadata={op_name="jit(compiled_generate_function)/decoder_block_33/pre_attention_norm/broadcast_in_dim" stack_frame_id=74}
  %mul.9144 = f32[1,1,2560]{2,1,0} broadcast(%broadcast_in_dim.4378), dimensions={0,1,2}, metadata={op_name="jit(compiled_generate_function)/decoder_block_33/pre_attention_norm/mul" stack_frame_id=74}
  %mul.9145 = f32[1,2560]{1,0} reshape(%mul.9144), metadata={op_name="jit(compiled_generate_function)/decoder_block_33/pre_attention_norm/mul" stack_frame_id=74}
  %mul.9146 = f32[1,110,2560]{2,1,0} broadcast(%mul.9145), dimensions={0,2}, metadata={op_name="jit(compiled_generate_function)/decoder_block_33/pre_attention_norm/mul" stack_frame_id=74}
  %mul.9147 = f32[1,110,2560]{2,1,0} multiply(%mul.9143, %mul.9146), metadata={op_name="jit(compiled_generate_function)/decoder_block_33/pre_attention_norm/mul" stack_frame_id=74}
  %state_1__433_.1 = f32[4,2560,256]{2,1,0} parameter(435), metadata={op_name="state[1][433]"}
  %dot_general.1479 = f32[1,110,4,256]{3,2,1,0} dot(%mul.9147, %state_1__433_.1), lhs_contracting_dims={2}, rhs_contracting_dims={1}, metadata={op_name="jit(compiled_generate_function)/decoder_block_33/attention/key/bsd,kdh->bskh/dot_general" stack_frame_id=240}
  %square.809 = f32[1,110,4,256]{3,2,1,0} multiply(%dot_general.1479, %dot_general.1479), metadata={op_name="jit(compiled_generate_function)/decoder_block_33/attention/key_norm/square" stack_frame_id=250}
  %reduce_sum.3790 = f32[1,110,4]{2,1,0} reduce(%square.809, %constant.205), dimensions={3}, to_apply=%region_299.306, metadata={op_name="jit(compiled_generate_function)/decoder_block_33/attention/key_norm/reduce_sum" stack_frame_id=259}
  %broadcast_in_dim.4379 = f32[1,110,4,1]{3,2,1,0} reshape(%reduce_sum.3790), metadata={op_name="jit(compiled_generate_function)/decoder_block_33/attention/key_norm/broadcast_in_dim" stack_frame_id=259}
  %div.1624 = f32[1,110,4,1]{3,2,1,0} divide(%broadcast_in_dim.4379, %broadcast.95), metadata={op_name="jit(compiled_generate_function)/decoder_block_33/attention/key_norm/div" stack_frame_id=259}
  %add.2993 = f32[1,110,4,1]{3,2,1,0} add(%div.1624, %broadcast.94), metadata={op_name="jit(compiled_generate_function)/decoder_block_33/attention/key_norm/add" stack_frame_id=266}
  %sqrt.809 = f32[1,110,4,1]{3,2,1,0} sqrt(%add.2993), metadata={op_name="jit(compiled_generate_function)/decoder_block_33/attention/key_norm/sqrt" stack_frame_id=270}
  %integer_pow.1077 = f32[1,110,4,1]{3,2,1,0} divide(%broadcast.93, %sqrt.809), metadata={op_name="jit(compiled_generate_function)/decoder_block_33/attention/key_norm/integer_pow" stack_frame_id=274}
  %mul.9148 = f32[1,110,4,1]{3,2,1,0} broadcast(%integer_pow.1077), dimensions={0,1,2,3}, metadata={op_name="jit(compiled_generate_function)/decoder_block_33/attention/key_norm/mul" stack_frame_id=275}
  %mul.9149 = f32[1,110,4]{2,1,0} reshape(%mul.9148), metadata={op_name="jit(compiled_generate_function)/decoder_block_33/attention/key_norm/mul" stack_frame_id=275}
  %mul.9150 = f32[1,110,4,256]{3,2,1,0} broadcast(%mul.9149), dimensions={0,1,2}, metadata={op_name="jit(compiled_generate_function)/decoder_block_33/attention/key_norm/mul" stack_frame_id=275}
  %mul.9151 = f32[1,110,4,256]{3,2,1,0} multiply(%dot_general.1479, %mul.9150), metadata={op_name="jit(compiled_generate_function)/decoder_block_33/attention/key_norm/mul" stack_frame_id=275}
  %state_1__436_.1 = f32[256]{0} parameter(438), metadata={op_name="state[1][436]"}
  %add.2994 = f32[256]{0} add(%state_1__436_.1, %broadcast.98), metadata={op_name="jit(compiled_generate_function)/decoder_block_33/attention/key_norm/add" stack_frame_id=276}
  %broadcast_in_dim.4380 = f32[1,1,1,256]{3,2,1,0} reshape(%add.2994), metadata={op_name="jit(compiled_generate_function)/decoder_block_33/attention/key_norm/broadcast_in_dim" stack_frame_id=277}
  %mul.9152 = f32[1,1,1,256]{3,2,1,0} broadcast(%broadcast_in_dim.4380), dimensions={0,1,2,3}, metadata={op_name="jit(compiled_generate_function)/decoder_block_33/attention/key_norm/mul" stack_frame_id=277}
  %mul.9153 = f32[1,256]{1,0} reshape(%mul.9152), metadata={op_name="jit(compiled_generate_function)/decoder_block_33/attention/key_norm/mul" stack_frame_id=277}
  %mul.9154 = f32[1,110,4,256]{3,2,1,0} broadcast(%mul.9153), dimensions={0,3}, metadata={op_name="jit(compiled_generate_function)/decoder_block_33/attention/key_norm/mul" stack_frame_id=277}
  %mul.9155 = f32[1,110,4,256]{3,2,1,0} multiply(%mul.9151, %mul.9154), metadata={op_name="jit(compiled_generate_function)/decoder_block_33/attention/key_norm/mul" stack_frame_id=277}
  %iota.369 = f32[110]{0} iota(), iota_dimension=0, metadata={op_name="jit(compiled_generate_function)/decoder_block_33/attention/rotary_embedding_33/iota" stack_frame_id=185}
  %broadcast_in_dim.4381 = f32[1,110]{1,0} reshape(%iota.369), metadata={op_name="jit(compiled_generate_function)/decoder_block_33/attention/rotary_embedding_33/broadcast_in_dim" stack_frame_id=195}
  %pow.269 = f32[128]{0} power(%broadcast.97, %constant.189), metadata={op_name="jit(compiled_generate_function)/decoder_block_33/attention/rotary_embedding_33/pow" stack_frame_id=171}
  %div.1625 = f32[128]{0} divide(%pow.269, %broadcast.96), metadata={op_name="jit(compiled_generate_function)/decoder_block_33/attention/rotary_embedding_33/div" stack_frame_id=287}
  %dot_general.1480 = f32[1,110,128]{2,1,0} dot(%broadcast_in_dim.4381, %div.1625), lhs_contracting_dims={}, rhs_contracting_dims={}, metadata={op_name="jit(compiled_generate_function)/decoder_block_33/attention/rotary_embedding_33/bi,j->bij/dot_general" stack_frame_id=198}
  %broadcast_in_dim.4382 = f32[1,110,1,128]{3,2,1,0} reshape(%dot_general.1480), metadata={op_name="jit(compiled_generate_function)/decoder_block_33/attention/rotary_embedding_33/broadcast_in_dim" stack_frame_id=201}
  %broadcast_in_dim.4383 = f32[1,110,1,128]{3,2,1,0} reshape(%dot_general.1480), metadata={op_name="jit(compiled_generate_function)/decoder_block_33/attention/rotary_embedding_33/broadcast_in_dim" stack_frame_id=201}
  %concatenate.676 = f32[1,110,2,128]{3,2,1,0} concatenate(%broadcast_in_dim.4382, %broadcast_in_dim.4383), dimensions={2}, metadata={op_name="jit(compiled_generate_function)/decoder_block_33/attention/rotary_embedding_33/concatenate" stack_frame_id=201}
  %reshape.806 = f32[1,110,1,256]{3,2,1,0} reshape(%concatenate.676), metadata={op_name="jit(compiled_generate_function)/decoder_block_33/attention/rotary_embedding_33/broadcast_in_dim;jit(compiled_generate_function)/decoder_block_33/attention/rotary_embedding_33/reshape"}
  %cos.269 = f32[1,110,1,256]{3,2,1,0} cosine(%reshape.806), metadata={op_name="jit(compiled_generate_function)/decoder_block_33/attention/rotary_embedding_33/cos" stack_frame_id=205}
  %mul.9156 = f32[1,110,1,256]{3,2,1,0} broadcast(%cos.269), dimensions={0,1,2,3}, metadata={op_name="jit(compiled_generate_function)/decoder_block_33/attention/rotary_embedding_33/mul" stack_frame_id=297}
  %mul.9157 = f32[1,110,256]{2,1,0} reshape(%mul.9156), metadata={op_name="jit(compiled_generate_function)/decoder_block_33/attention/rotary_embedding_33/mul" stack_frame_id=297}
  %mul.9158 = f32[1,110,4,256]{3,2,1,0} broadcast(%mul.9157), dimensions={0,1,3}, metadata={op_name="jit(compiled_generate_function)/decoder_block_33/attention/rotary_embedding_33/mul" stack_frame_id=297}
  %mul.9159 = f32[1,110,4,256]{3,2,1,0} multiply(%mul.9155, %mul.9158), metadata={op_name="jit(compiled_generate_function)/decoder_block_33/attention/rotary_embedding_33/mul" stack_frame_id=297}
  %split.539 = f32[1,110,4,128]{3,2,1,0} slice(%mul.9155), slice={[0:1], [0:110], [0:4], [128:256]}, metadata={op_name="jit(compiled_generate_function)/decoder_block_33/attention/rotary_embedding_33/split" stack_frame_id=213}
  %neg.269 = f32[1,110,4,128]{3,2,1,0} negate(%split.539), metadata={op_name="jit(compiled_generate_function)/decoder_block_33/attention/rotary_embedding_33/neg" stack_frame_id=296}
  %broadcast_in_dim.4384 = f32[1,110,4,1,128]{4,3,2,1,0} reshape(%neg.269), metadata={op_name="jit(compiled_generate_function)/decoder_block_33/attention/rotary_embedding_33/broadcast_in_dim" stack_frame_id=225}
  %split.538 = f32[1,110,4,128]{3,2,1,0} slice(%mul.9155), slice={[0:1], [0:110], [0:4], [0:128]}, metadata={op_name="jit(compiled_generate_function)/decoder_block_33/attention/rotary_embedding_33/split" stack_frame_id=213}
  %broadcast_in_dim.4385 = f32[1,110,4,1,128]{4,3,2,1,0} reshape(%split.538), metadata={op_name="jit(compiled_generate_function)/decoder_block_33/attention/rotary_embedding_33/broadcast_in_dim" stack_frame_id=225}
  %concatenate.677 = f32[1,110,4,2,128]{4,3,2,1,0} concatenate(%broadcast_in_dim.4384, %broadcast_in_dim.4385), dimensions={3}, metadata={op_name="jit(compiled_generate_function)/decoder_block_33/attention/rotary_embedding_33/concatenate" stack_frame_id=225}
  %reshape.807 = f32[1,110,4,256]{3,2,1,0} reshape(%concatenate.677), metadata={op_name="jit(compiled_generate_function)/decoder_block_33/attention/rotary_embedding_33/reshape" stack_frame_id=228}
  %sin.269 = f32[1,110,1,256]{3,2,1,0} sine(%reshape.806), metadata={op_name="jit(compiled_generate_function)/decoder_block_33/attention/rotary_embedding_33/sin" stack_frame_id=209}
  %mul.9160 = f32[1,110,1,256]{3,2,1,0} broadcast(%sin.269), dimensions={0,1,2,3}, metadata={op_name="jit(compiled_generate_function)/decoder_block_33/attention/rotary_embedding_33/mul" stack_frame_id=298}
  %mul.9161 = f32[1,110,256]{2,1,0} reshape(%mul.9160), metadata={op_name="jit(compiled_generate_function)/decoder_block_33/attention/rotary_embedding_33/mul" stack_frame_id=298}
  %mul.9162 = f32[1,110,4,256]{3,2,1,0} broadcast(%mul.9161), dimensions={0,1,3}, metadata={op_name="jit(compiled_generate_function)/decoder_block_33/attention/rotary_embedding_33/mul" stack_frame_id=298}
  %mul.9163 = f32[1,110,4,256]{3,2,1,0} multiply(%reshape.807, %mul.9162), metadata={op_name="jit(compiled_generate_function)/decoder_block_33/attention/rotary_embedding_33/mul" stack_frame_id=298}
  %add.2995 = f32[1,110,4,256]{3,2,1,0} add(%mul.9159, %mul.9163), metadata={op_name="jit(compiled_generate_function)/decoder_block_33/attention/rotary_embedding_33/add" stack_frame_id=299}
  %broadcast_in_dim.4386 = f32[1,1,110,4,256]{4,3,2,1,0} reshape(%add.2995), metadata={op_name="jit(compiled_generate_function)/decoder_block_33/attention/broadcast_in_dim" stack_frame_id=317}
  %state_1__434_.1 = f32[4,2560,256]{2,1,0} parameter(436), metadata={op_name="state[1][434]"}
  %dot_general.1481 = f32[1,110,4,256]{3,2,1,0} dot(%mul.9147, %state_1__434_.1), lhs_contracting_dims={2}, rhs_contracting_dims={1}, metadata={op_name="jit(compiled_generate_function)/decoder_block_33/attention/value/bsd,kdh->bskh/dot_general" stack_frame_id=308}
  %broadcast_in_dim.4387 = f32[1,1,110,4,256]{4,3,2,1,0} reshape(%dot_general.1481), metadata={op_name="jit(compiled_generate_function)/decoder_block_33/attention/broadcast_in_dim" stack_frame_id=317}
  %concatenate.678 = f32[1,2,110,4,256]{4,3,2,1,0} concatenate(%broadcast_in_dim.4386, %broadcast_in_dim.4387), dimensions={1}, metadata={op_name="jit(compiled_generate_function)/decoder_block_33/attention/concatenate" stack_frame_id=317}
  %broadcast_in_dim.4421 = f32[1,1,2,110,4,256]{5,4,3,2,1,0} reshape(%concatenate.678), metadata={op_name="jit(compiled_generate_function)/broadcast_in_dim" stack_frame_id=585}
  %concatenate.679 = f32[1,34,2,110,4,256]{5,4,3,2,1,0} concatenate(%broadcast_in_dim.4388, %broadcast_in_dim.4389, %broadcast_in_dim.4390, %broadcast_in_dim.4391, %broadcast_in_dim.4392, /*index=5*/%broadcast_in_dim.4393, %broadcast_in_dim.4394, %broadcast_in_dim.4395, %broadcast_in_dim.4396, %broadcast_in_dim.4397, /*index=10*/%broadcast_in_dim.4398, %broadcast_in_dim.4399, %broadcast_in_dim.4400, %broadcast_in_dim.4401, %broadcast_in_dim.4402, /*index=15*/%broadcast_in_dim.4403, %broadcast_in_dim.4404, %broadcast_in_dim.4405, %broadcast_in_dim.4406, %broadcast_in_dim.4407, /*index=20*/%broadcast_in_dim.4408, %broadcast_in_dim.4409, %broadcast_in_dim.4410, %broadcast_in_dim.4411, %broadcast_in_dim.4412, /*index=25*/%broadcast_in_dim.4413, %broadcast_in_dim.4414, %broadcast_in_dim.4415, %broadcast_in_dim.4416, %broadcast_in_dim.4417, /*index=30*/%broadcast_in_dim.4418, %broadcast_in_dim.4419, %broadcast_in_dim.4420, %broadcast_in_dim.4421), dimensions={1}, metadata={op_name="jit(compiled_generate_function)/concatenate" stack_frame_id=585}
  %convert_element_type.603 = s32[1,110]{1,0} convert(%inputs__padding_mask__.1), metadata={op_name="jit(compiled_generate_function)/convert_element_type" stack_frame_id=589}
  %constant.204 = s32[] constant(0)
  %reduce_sum.3791 = s32[1]{0} reduce(%convert_element_type.603, %constant.204), dimensions={1}, to_apply=%region_300.307, metadata={op_name="jit(compiled_generate_function)/reduce_sum" stack_frame_id=592}
  %constant.200 = s32[] constant(2147483647)
  %reduce_min.7 = s32[] reduce(%reduce_sum.3791, %constant.200), dimensions={0}, to_apply=%region_301.308, metadata={op_name="jit(compiled_generate_function)/reduce_min" stack_frame_id=23}
  %constant.199 = s32[] constant(110)
  %sub.552 = s32[] subtract(%constant.199, %reduce_min.7), metadata={op_name="jit(compiled_generate_function)/sub" stack_frame_id=602}
  %state_1__432_.1 = f32[8,2560,256]{2,1,0} parameter(434), metadata={op_name="state[1][432]"}
  %state_1__435_.1 = f32[256]{0} parameter(437), metadata={op_name="state[1][435]"}
  %state_1__437_.1 = f32[8,256,2560]{2,1,0} parameter(439), metadata={op_name="state[1][437]"}
  %state_1__431_.1 = f32[2560]{0} parameter(433), metadata={op_name="state[1][431]"}
  %state_1__438_.1 = f32[2560]{0} parameter(440), metadata={op_name="state[1][438]"}
  %state_1__440_.1 = f32[2560,10240]{1,0} parameter(442), metadata={op_name="state[1][440]"}
  %state_1__441_.1 = f32[2560,10240]{1,0} parameter(443), metadata={op_name="state[1][441]"}
  %state_1__442_.1 = f32[10240,2560]{1,0} parameter(444), metadata={op_name="state[1][442]"}
  %state_1__439_.1 = f32[2560]{0} parameter(441), metadata={op_name="state[1][439]"}
  %state_1__443_.1 = f32[2560]{0} parameter(445), metadata={op_name="state[1][443]"}
  %while.6 = (s32[1,110]{1,0}, f32[1,34,2,110,4,256]{5,4,3,2,1,0}, s32[], s32[], pred[1,110]{1,0}, /*index=5*/s32[], f32[262144,2560]{1,0}, f32[2560]{0}, f32[8,2560,256]{2,1,0}, f32[256]{0}, /*index=10*/f32[4,2560,256]{2,1,0}, f32[256]{0}, f32[4,2560,256]{2,1,0}, f32[8,256,2560]{2,1,0}, f32[2560]{0}, /*index=15*/f32[2560]{0}, f32[2560,10240]{1,0}, f32[2560,10240]{1,0}, f32[10240,2560]{1,0}, f32[2560]{0}, /*index=20*/f32[2560]{0}, f32[8,2560,256]{2,1,0}, f32[256]{0}, f32[4,2560,256]{2,1,0}, f32[256]{0}, /*index=25*/f32[4,2560,256]{2,1,0}, f32[8,256,2560]{2,1,0}, f32[2560]{0}, f32[2560]{0}, f32[2560,10240]{1,0}, /*index=30*/f32[2560,10240]{1,0}, f32[10240,2560]{1,0}, f32[2560]{0}, f32[2560]{0}, f32[8,2560,256]{2,1,0}, /*index=35*/f32[256]{0}, f32[4,2560,256]{2,1,0}, f32[256]{0}, f32[4,2560,256]{2,1,0}, f32[8,256,2560]{2,1,0}, /*index=40*/f32[2560]{0}, f32[2560]{0}, f32[2560,10240]{1,0}, f32[2560,10240]{1,0}, f32[10240,2560]{1,0}, /*index=45*/f32[2560]{0}, f32[2560]{0}, f32[8,2560,256]{2,1,0}, f32[256]{0}, f32[4,2560,256]{2,1,0}, /*index=50*/f32[256]{0}, f32[4,2560,256]{2,1,0}, f32[8,256,2560]{2,1,0}, f32[2560]{0}, f32[2560]{0}, /*index=55*/f32[2560,10240]{1,0}, f32[2560,10240]{1,0}, f32[10240,2560]{1,0}, f32[2560]{0}, f32[2560]{0}, /*index=60*/f32[8,2560,256]{2,1,0}, f32[256]{0}, f32[4,2560,256]{2,1,0}, f32[256]{0}, f32[4,2560,256]{2,1,0}, /*index=65*/f32[8,256,2560]{2,1,0}, f32[2560]{0}, f32[2560]{0}, f32[2560,10240]{1,0}, f32[2560,10240]{1,0}, /*index=70*/f32[10240,2560]{1,0}, f32[2560]{0}, f32[2560]{0}, f32[8,2560,256]{2,1,0}, f32[256]{0}, /*index=75*/f32[4,2560,256]{2,1,0}, f32[256]{0}, f32[4,2560,256]{2,1,0}, f32[8,256,2560]{2,1,0}, f32[2560]{0}, /*index=80*/f32[2560]{0}, f32[2560,10240]{1,0}, f32[2560,10240]{1,0}, f32[10240,2560]{1,0}, f32[2560]{0}, /*index=85*/f32[2560]{0}, f32[8,2560,256]{2,1,0}, f32[256]{0}, f32[4,2560,256]{2,1,0}, f32[256]{0}, /*index=90*/f32[4,2560,256]{2,1,0}, f32[8,256,2560]{2,1,0}, f32[2560]{0}, f32[2560]{0}, f32[2560,10240]{1,0}, /*index=95*/f32[2560,10240]{1,0}, f32[10240,2560]{1,0}, f32[2560]{0}, f32[2560]{0}, f32[8,2560,256]{2,1,0}, /*index=100*/f32[256]{0}, f32[4,2560,256]{2,1,0}, f32[256]{0}, f32[4,2560,256]{2,1,0}, f32[8,256,2560]{2,1,0}, /*index=105*/f32[2560]{0}, f32[2560]{0}, f32[2560,10240]{1,0}, f32[2560,10240]{1,0}, f32[10240,2560]{1,0}, /*index=110*/f32[2560]{0}, f32[2560]{0}, f32[8,2560,256]{2,1,0}, f32[256]{0}, f32[4,2560,256]{2,1,0}, /*index=115*/f32[256]{0}, f32[4,2560,256]{2,1,0}, f32[8,256,2560]{2,1,0}, f32[2560]{0}, f32[2560]{0}, /*index=120*/f32[2560,10240]{1,0}, f32[2560,10240]{1,0}, f32[10240,2560]{1,0}, f32[2560]{0}, f32[2560]{0}, /*index=125*/f32[8,2560,256]{2,1,0}, f32[256]{0}, f32[4,2560,256]{2,1,0}, f32[256]{0}, f32[4,2560,256]{2,1,0}, /*index=130*/f32[8,256,2560]{2,1,0}, f32[2560]{0}, f32[2560]{0}, f32[2560,10240]{1,0}, f32[2560,10240]{1,0}, /*index=135*/f32[10240,2560]{1,0}, f32[2560]{0}, f32[2560]{0}, f32[8,2560,256]{2,1,0}, f32[256]{0}, /*index=140*/f32[4,2560,256]{2,1,0}, f32[256]{0}, f32[4,2560,256]{2,1,0}, f32[8,256,2560]{2,1,0}, f32[2560]{0}, /*index=145*/f32[2560]{0}, f32[2560,10240]{1,0}, f32[2560,10240]{1,0}, f32[10240,2560]{1,0}, f32[2560]{0}, /*index=150*/f32[2560]{0}, f32[8,2560,256]{2,1,0}, f32[256]{0}, f32[4,2560,256]{2,1,0}, f32[256]{0}, /*index=155*/f32[4,2560,256]{2,1,0}, f32[8,256,2560]{2,1,0}, f32[2560]{0}, f32[2560]{0}, f32[2560,10240]{1,0}, /*index=160*/f32[2560,10240]{1,0}, f32[10240,2560]{1,0}, f32[2560]{0}, f32[2560]{0}, f32[8,2560,256]{2,1,0}, /*index=165*/f32[256]{0}, f32[4,2560,256]{2,1,0}, f32[256]{0}, f32[4,2560,256]{2,1,0}, f32[8,256,2560]{2,1,0}, /*index=170*/f32[2560]{0}, f32[2560]{0}, f32[2560,10240]{1,0}, f32[2560,10240]{1,0}, f32[10240,2560]{1,0}, /*index=175*/f32[2560]{0}, f32[2560]{0}, f32[8,2560,256]{2,1,0}, f32[256]{0}, f32[4,2560,256]{2,1,0}, /*index=180*/f32[256]{0}, f32[4,2560,256]{2,1,0}, f32[8,256,2560]{2,1,0}, f32[2560]{0}, f32[2560]{0}, /*index=185*/f32[2560,10240]{1,0}, f32[2560,10240]{1,0}, f32[10240,2560]{1,0}, f32[2560]{0}, f32[2560]{0}, /*index=190*/f32[8,2560,256]{2,1,0}, f32[256]{0}, f32[4,2560,256]{2,1,0}, f32[256]{0}, f32[4,2560,256]{2,1,0}, /*index=195*/f32[8,256,2560]{2,1,0}, f32[2560]{0}, f32[2560]{0}, f32[2560,10240]{1,0}, f32[2560,10240]{1,0}, /*index=200*/f32[10240,2560]{1,0}, f32[2560]{0}, f32[2560]{0}, f32[8,2560,256]{2,1,0}, f32[256]{0}, /*index=205*/f32[4,2560,256]{2,1,0}, f32[256]{0}, f32[4,2560,256]{2,1,0}, f32[8,256,2560]{2,1,0}, f32[2560]{0}, /*index=210*/f32[2560]{0}, f32[2560,10240]{1,0}, f32[2560,10240]{1,0}, f32[10240,2560]{1,0}, f32[2560]{0}, /*index=215*/f32[2560]{0}, f32[8,2560,256]{2,1,0}, f32[256]{0}, f32[4,2560,256]{2,1,0}, f32[256]{0}, /*index=220*/f32[4,2560,256]{2,1,0}, f32[8,256,2560]{2,1,0}, f32[2560]{0}, f32[2560]{0}, f32[2560,10240]{1,0}, /*index=225*/f32[2560,10240]{1,0}, f32[10240,2560]{1,0}, f32[2560]{0}, f32[2560]{0}, f32[8,2560,256]{2,1,0}, /*index=230*/f32[256]{0}, f32[4,2560,256]{2,1,0}, f32[256]{0}, f32[4,2560,256]{2,1,0}, f32[8,256,2560]{2,1,0}, /*index=235*/f32[2560]{0}, f32[2560]{0}, f32[2560,10240]{1,0}, f32[2560,10240]{1,0}, f32[10240,2560]{1,0}, /*index=240*/f32[2560]{0}, f32[2560]{0}, f32[8,2560,256]{2,1,0}, f32[256]{0}, f32[4,2560,256]{2,1,0}, /*index=245*/f32[256]{0}, f32[4,2560,256]{2,1,0}, f32[8,256,2560]{2,1,0}, f32[2560]{0}, f32[2560]{0}, /*index=250*/f32[2560,10240]{1,0}, f32[2560,10240]{1,0}, f32[10240,2560]{1,0}, f32[2560]{0}, f32[2560]{0}, /*index=255*/f32[8,2560,256]{2,1,0}, f32[256]{0}, f32[4,2560,256]{2,1,0}, f32[256]{0}, f32[4,2560,256]{2,1,0}, /*index=260*/f32[8,256,2560]{2,1,0}, f32[2560]{0}, f32[2560]{0}, f32[2560,10240]{1,0}, f32[2560,10240]{1,0}, /*index=265*/f32[10240,2560]{1,0}, f32[2560]{0}, f32[2560]{0}, f32[8,2560,256]{2,1,0}, f32[256]{0}, /*index=270*/f32[4,2560,256]{2,1,0}, f32[256]{0}, f32[4,2560,256]{2,1,0}, f32[8,256,2560]{2,1,0}, f32[2560]{0}, /*index=275*/f32[2560]{0}, f32[2560,10240]{1,0}, f32[2560,10240]{1,0}, f32[10240,2560]{1,0}, f32[2560]{0}, /*index=280*/f32[2560]{0}, f32[8,2560,256]{2,1,0}, f32[256]{0}, f32[4,2560,256]{2,1,0}, f32[256]{0}, /*index=285*/f32[4,2560,256]{2,1,0}, f32[8,256,2560]{2,1,0}, f32[2560]{0}, f32[2560]{0}, f32[2560,10240]{1,0}, /*index=290*/f32[2560,10240]{1,0}, f32[10240,2560]{1,0}, f32[2560]{0}, f32[2560]{0}, f32[8,2560,256]{2,1,0}, /*index=295*/f32[256]{0}, f32[4,2560,256]{2,1,0}, f32[256]{0}, f32[4,2560,256]{2,1,0}, f32[8,256,2560]{2,1,0}, /*index=300*/f32[2560]{0}, f32[2560]{0}, f32[2560,10240]{1,0}, f32[2560,10240]{1,0}, f32[10240,2560]{1,0}, /*index=305*/f32[2560]{0}, f32[2560]{0}, f32[8,2560,256]{2,1,0}, f32[256]{0}, f32[4,2560,256]{2,1,0}, /*index=310*/f32[256]{0}, f32[4,2560,256]{2,1,0}, f32[8,256,2560]{2,1,0}, f32[2560]{0}, f32[2560]{0}, /*index=315*/f32[2560,10240]{1,0}, f32[2560,10240]{1,0}, f32[10240,2560]{1,0}, f32[2560]{0}, f32[2560]{0}, /*index=320*/f32[8,2560,256]{2,1,0}, f32[256]{0}, f32[4,2560,256]{2,1,0}, f32[256]{0}, f32[4,2560,256]{2,1,0}, /*index=325*/f32[8,256,2560]{2,1,0}, f32[2560]{0}, f32[2560]{0}, f32[2560,10240]{1,0}, f32[2560,10240]{1,0}, /*index=330*/f32[10240,2560]{1,0}, f32[2560]{0}, f32[2560]{0}, f32[8,2560,256]{2,1,0}, f32[256]{0}, /*index=335*/f32[4,2560,256]{2,1,0}, f32[256]{0}, f32[4,2560,256]{2,1,0}, f32[8,256,2560]{2,1,0}, f32[2560]{0}, /*index=340*/f32[2560]{0}, f32[2560,10240]{1,0}, f32[2560,10240]{1,0}, f32[10240,2560]{1,0}, f32[2560]{0}, /*index=345*/f32[2560]{0}, f32[8,2560,256]{2,1,0}, f32[256]{0}, f32[4,2560,256]{2,1,0}, f32[256]{0}, /*index=350*/f32[4,2560,256]{2,1,0}, f32[8,256,2560]{2,1,0}, f32[2560]{0}, f32[2560]{0}, f32[2560,10240]{1,0}, /*index=355*/f32[2560,10240]{1,0}, f32[10240,2560]{1,0}, f32[2560]{0}, f32[2560]{0}, f32[8,2560,256]{2,1,0}, /*index=360*/f32[256]{0}, f32[4,2560,256]{2,1,0}, f32[256]{0}, f32[4,2560,256]{2,1,0}, f32[8,256,2560]{2,1,0}, /*index=365*/f32[2560]{0}, f32[2560]{0}, f32[2560,10240]{1,0}, f32[2560,10240]{1,0}, f32[10240,2560]{1,0}, /*index=370*/f32[2560]{0}, f32[2560]{0}, f32[8,2560,256]{2,1,0}, f32[256]{0}, f32[4,2560,256]{2,1,0}, /*index=375*/f32[256]{0}, f32[4,2560,256]{2,1,0}, f32[8,256,2560]{2,1,0}, f32[2560]{0}, f32[2560]{0}, /*index=380*/f32[2560,10240]{1,0}, f32[2560,10240]{1,0}, f32[10240,2560]{1,0}, f32[2560]{0}, f32[2560]{0}, /*index=385*/f32[8,2560,256]{2,1,0}, f32[256]{0}, f32[4,2560,256]{2,1,0}, f32[256]{0}, f32[4,2560,256]{2,1,0}, /*index=390*/f32[8,256,2560]{2,1,0}, f32[2560]{0}, f32[2560]{0}, f32[2560,10240]{1,0}, f32[2560,10240]{1,0}, /*index=395*/f32[10240,2560]{1,0}, f32[2560]{0}, f32[2560]{0}, f32[8,2560,256]{2,1,0}, f32[256]{0}, /*index=400*/f32[4,2560,256]{2,1,0}, f32[256]{0}, f32[4,2560,256]{2,1,0}, f32[8,256,2560]{2,1,0}, f32[2560]{0}, /*index=405*/f32[2560]{0}, f32[2560,10240]{1,0}, f32[2560,10240]{1,0}, f32[10240,2560]{1,0}, f32[2560]{0}, /*index=410*/f32[2560]{0}, f32[8,2560,256]{2,1,0}, f32[256]{0}, f32[4,2560,256]{2,1,0}, f32[256]{0}, /*index=415*/f32[4,2560,256]{2,1,0}, f32[8,256,2560]{2,1,0}, f32[2560]{0}, f32[2560]{0}, f32[2560,10240]{1,0}, /*index=420*/f32[2560,10240]{1,0}, f32[10240,2560]{1,0}, f32[2560]{0}, f32[2560]{0}, f32[8,2560,256]{2,1,0}, /*index=425*/f32[256]{0}, f32[4,2560,256]{2,1,0}, f32[256]{0}, f32[4,2560,256]{2,1,0}, f32[8,256,2560]{2,1,0}, /*index=430*/f32[2560]{0}, f32[2560]{0}, f32[2560,10240]{1,0}, f32[2560,10240]{1,0}, f32[10240,2560]{1,0}, /*index=435*/f32[2560]{0}, f32[2560]{0}, f32[8,2560,256]{2,1,0}, f32[256]{0}, f32[4,2560,256]{2,1,0}, /*index=440*/f32[256]{0}, f32[4,2560,256]{2,1,0}, f32[8,256,2560]{2,1,0}, f32[2560]{0}, f32[2560]{0}, /*index=445*/f32[2560,10240]{1,0}, f32[2560,10240]{1,0}, f32[10240,2560]{1,0}, f32[2560]{0}, f32[2560]{0}) tuple(%inputs__token_ids__.1, %concatenate.679, %reduce_min.7, %constant.204, %inputs__padding_mask__.1, /*index=5*/%sub.552, %state_1__0_.1, %state_1__1_.1, %state_1__3_.1, %state_1__6_.1, /*index=10*/%state_1__4_.1, %state_1__7_.1, %state_1__5_.1, %state_1__8_.1, %state_1__2_.1, /*index=15*/%state_1__9_.1, %state_1__11_.1, %state_1__12_.1, %state_1__13_.1, %state_1__10_.1, /*index=20*/%state_1__14_.1, %state_1__16_.1, %state_1__19_.1, %state_1__17_.1, %state_1__20_.1, /*index=25*/%state_1__18_.1, %state_1__21_.1, %state_1__15_.1, %state_1__22_.1, %state_1__24_.1, /*index=30*/%state_1__25_.1, %state_1__26_.1, %state_1__23_.1, %state_1__27_.1, %state_1__29_.1, /*index=35*/%state_1__32_.1, %state_1__30_.1, %state_1__33_.1, %state_1__31_.1, %state_1__34_.1, /*index=40*/%state_1__28_.1, %state_1__35_.1, %state_1__37_.1, %state_1__38_.1, %state_1__39_.1, /*index=45*/%state_1__36_.1, %state_1__40_.1, %state_1__42_.1, %state_1__45_.1, %state_1__43_.1, /*index=50*/%state_1__46_.1, %state_1__44_.1, %state_1__47_.1, %state_1__41_.1, %state_1__48_.1, /*index=55*/%state_1__50_.1, %state_1__51_.1, %state_1__52_.1, %state_1__49_.1, %state_1__53_.1, /*index=60*/%state_1__55_.1, %state_1__58_.1, %state_1__56_.1, %state_1__59_.1, %state_1__57_.1, /*index=65*/%state_1__60_.1, %state_1__54_.1, %state_1__61_.1, %state_1__63_.1, %state_1__64_.1, /*index=70*/%state_1__65_.1, %state_1__62_.1, %state_1__66_.1, %state_1__68_.1, %state_1__71_.1, /*index=75*/%state_1__69_.1, %state_1__72_.1, %state_1__70_.1, %state_1__73_.1, %state_1__67_.1, /*index=80*/%state_1__74_.1, %state_1__76_.1, %state_1__77_.1, %state_1__78_.1, %state_1__75_.1, /*index=85*/%state_1__79_.1, %state_1__81_.1, %state_1__84_.1, %state_1__82_.1, %state_1__85_.1, /*index=90*/%state_1__83_.1, %state_1__86_.1, %state_1__80_.1, %state_1__87_.1, %state_1__89_.1, /*index=95*/%state_1__90_.1, %state_1__91_.1, %state_1__88_.1, %state_1__92_.1, %state_1__94_.1, /*index=100*/%state_1__97_.1, %state_1__95_.1, %state_1__98_.1, %state_1__96_.1, %state_1__99_.1, /*index=105*/%state_1__93_.1, %state_1__100_.1, %state_1__102_.1, %state_1__103_.1, %state_1__104_.1, /*index=110*/%state_1__101_.1, %state_1__105_.1, %state_1__107_.1, %state_1__110_.1, %state_1__108_.1, /*index=115*/%state_1__111_.1, %state_1__109_.1, %state_1__112_.1, %state_1__106_.1, %state_1__113_.1, /*index=120*/%state_1__115_.1, %state_1__116_.1, %state_1__117_.1, %state_1__114_.1, %state_1__118_.1, /*index=125*/%state_1__120_.1, %state_1__123_.1, %state_1__121_.1, %state_1__124_.1, %state_1__122_.1, /*index=130*/%state_1__125_.1, %state_1__119_.1, %state_1__126_.1, %state_1__128_.1, %state_1__129_.1, /*index=135*/%state_1__130_.1, %state_1__127_.1, %state_1__131_.1, %state_1__133_.1, %state_1__136_.1, /*index=140*/%state_1__134_.1, %state_1__137_.1, %state_1__135_.1, %state_1__138_.1, %state_1__132_.1, /*index=145*/%state_1__139_.1, %state_1__141_.1, %state_1__142_.1, %state_1__143_.1, %state_1__140_.1, /*index=150*/%state_1__144_.1, %state_1__146_.1, %state_1__149_.1, %state_1__147_.1, %state_1__150_.1, /*index=155*/%state_1__148_.1, %state_1__151_.1, %state_1__145_.1, %state_1__152_.1, %state_1__154_.1, /*index=160*/%state_1__155_.1, %state_1__156_.1, %state_1__153_.1, %state_1__157_.1, %state_1__159_.1, /*index=165*/%state_1__162_.1, %state_1__160_.1, %state_1__163_.1, %state_1__161_.1, %state_1__164_.1, /*index=170*/%state_1__158_.1, %state_1__165_.1, %state_1__167_.1, %state_1__168_.1, %state_1__169_.1, /*index=175*/%state_1__166_.1, %state_1__170_.1, %state_1__172_.1, %state_1__175_.1, %state_1__173_.1, /*index=180*/%state_1__176_.1, %state_1__174_.1, %state_1__177_.1, %state_1__171_.1, %state_1__178_.1, /*index=185*/%state_1__180_.1, %state_1__181_.1, %state_1__182_.1, %state_1__179_.1, %state_1__183_.1, /*index=190*/%state_1__185_.1, %state_1__188_.1, %state_1__186_.1, %state_1__189_.1, %state_1__187_.1, /*index=195*/%state_1__190_.1, %state_1__184_.1, %state_1__191_.1, %state_1__193_.1, %state_1__194_.1, /*index=200*/%state_1__195_.1, %state_1__192_.1, %state_1__196_.1, %state_1__198_.1, %state_1__201_.1, /*index=205*/%state_1__199_.1, %state_1__202_.1, %state_1__200_.1, %state_1__203_.1, %state_1__197_.1, /*index=210*/%state_1__204_.1, %state_1__206_.1, %state_1__207_.1, %state_1__208_.1, %state_1__205_.1, /*index=215*/%state_1__209_.1, %state_1__211_.1, %state_1__214_.1, %state_1__212_.1, %state_1__215_.1, /*index=220*/%state_1__213_.1, %state_1__216_.1, %state_1__210_.1, %state_1__217_.1, %state_1__219_.1, /*index=225*/%state_1__220_.1, %state_1__221_.1, %state_1__218_.1, %state_1__222_.1, %state_1__224_.1, /*index=230*/%state_1__227_.1, %state_1__225_.1, %state_1__228_.1, %state_1__226_.1, %state_1__229_.1, /*index=235*/%state_1__223_.1, %state_1__230_.1, %state_1__232_.1, %state_1__233_.1, %state_1__234_.1, /*index=240*/%state_1__231_.1, %state_1__235_.1, %state_1__237_.1, %state_1__240_.1, %state_1__238_.1, /*index=245*/%state_1__241_.1, %state_1__239_.1, %state_1__242_.1, %state_1__236_.1, %state_1__243_.1, /*index=250*/%state_1__245_.1, %state_1__246_.1, %state_1__247_.1, %state_1__244_.1, %state_1__248_.1, /*index=255*/%state_1__250_.1, %state_1__253_.1, %state_1__251_.1, %state_1__254_.1, %state_1__252_.1, /*index=260*/%state_1__255_.1, %state_1__249_.1, %state_1__256_.1, %state_1__258_.1, %state_1__259_.1, /*index=265*/%state_1__260_.1, %state_1__257_.1, %state_1__261_.1, %state_1__263_.1, %state_1__266_.1, /*index=270*/%state_1__264_.1, %state_1__267_.1, %state_1__265_.1, %state_1__268_.1, %state_1__262_.1, /*index=275*/%state_1__269_.1, %state_1__271_.1, %state_1__272_.1, %state_1__273_.1, %state_1__270_.1, /*index=280*/%state_1__274_.1, %state_1__276_.1, %state_1__279_.1, %state_1__277_.1, %state_1__280_.1, /*index=285*/%state_1__278_.1, %state_1__281_.1, %state_1__275_.1, %state_1__282_.1, %state_1__284_.1, /*index=290*/%state_1__285_.1, %state_1__286_.1, %state_1__283_.1, %state_1__287_.1, %state_1__289_.1, /*index=295*/%state_1__292_.1, %state_1__290_.1, %state_1__293_.1, %state_1__291_.1, %state_1__294_.1, /*index=300*/%state_1__288_.1, %state_1__295_.1, %state_1__297_.1, %state_1__298_.1, %state_1__299_.1, /*index=305*/%state_1__296_.1, %state_1__300_.1, %state_1__302_.1, %state_1__305_.1, %state_1__303_.1, /*index=310*/%state_1__306_.1, %state_1__304_.1, %state_1__307_.1, %state_1__301_.1, %state_1__308_.1, /*index=315*/%state_1__310_.1, %state_1__311_.1, %state_1__312_.1, %state_1__309_.1, %state_1__313_.1, /*index=320*/%state_1__315_.1, %state_1__318_.1, %state_1__316_.1, %state_1__319_.1, %state_1__317_.1, /*index=325*/%state_1__320_.1, %state_1__314_.1, %state_1__321_.1, %state_1__323_.1, %state_1__324_.1, /*index=330*/%state_1__325_.1, %state_1__322_.1, %state_1__326_.1, %state_1__328_.1, %state_1__331_.1, /*index=335*/%state_1__329_.1, %state_1__332_.1, %state_1__330_.1, %state_1__333_.1, %state_1__327_.1, /*index=340*/%state_1__334_.1, %state_1__336_.1, %state_1__337_.1, %state_1__338_.1, %state_1__335_.1, /*index=345*/%state_1__339_.1, %state_1__341_.1, %state_1__344_.1, %state_1__342_.1, %state_1__345_.1, /*index=350*/%state_1__343_.1, %state_1__346_.1, %state_1__340_.1, %state_1__347_.1, %state_1__349_.1, /*index=355*/%state_1__350_.1, %state_1__351_.1, %state_1__348_.1, %state_1__352_.1, %state_1__354_.1, /*index=360*/%state_1__357_.1, %state_1__355_.1, %state_1__358_.1, %state_1__356_.1, %state_1__359_.1, /*index=365*/%state_1__353_.1, %state_1__360_.1, %state_1__362_.1, %state_1__363_.1, %state_1__364_.1, /*index=370*/%state_1__361_.1, %state_1__365_.1, %state_1__367_.1, %state_1__370_.1, %state_1__368_.1, /*index=375*/%state_1__371_.1, %state_1__369_.1, %state_1__372_.1, %state_1__366_.1, %state_1__373_.1, /*index=380*/%state_1__375_.1, %state_1__376_.1, %state_1__377_.1, %state_1__374_.1, %state_1__378_.1, /*index=385*/%state_1__380_.1, %state_1__383_.1, %state_1__381_.1, %state_1__384_.1, %state_1__382_.1, /*index=390*/%state_1__385_.1, %state_1__379_.1, %state_1__386_.1, %state_1__388_.1, %state_1__389_.1, /*index=395*/%state_1__390_.1, %state_1__387_.1, %state_1__391_.1, %state_1__393_.1, %state_1__396_.1, /*index=400*/%state_1__394_.1, %state_1__397_.1, %state_1__395_.1, %state_1__398_.1, %state_1__392_.1, /*index=405*/%state_1__399_.1, %state_1__401_.1, %state_1__402_.1, %state_1__403_.1, %state_1__400_.1, /*index=410*/%state_1__404_.1, %state_1__406_.1, %state_1__409_.1, %state_1__407_.1, %state_1__410_.1, /*index=415*/%state_1__408_.1, %state_1__411_.1, %state_1__405_.1, %state_1__412_.1, %state_1__414_.1, /*index=420*/%state_1__415_.1, %state_1__416_.1, %state_1__413_.1, %state_1__417_.1, %state_1__419_.1, /*index=425*/%state_1__422_.1, %state_1__420_.1, %state_1__423_.1, %state_1__421_.1, %state_1__424_.1, /*index=430*/%state_1__418_.1, %state_1__425_.1, %state_1__427_.1, %state_1__428_.1, %state_1__429_.1, /*index=435*/%state_1__426_.1, %state_1__430_.1, %state_1__432_.1, %state_1__435_.1, %state_1__433_.1, /*index=440*/%state_1__436_.1, %state_1__434_.1, %state_1__437_.1, %state_1__431_.1, %state_1__438_.1, /*index=445*/%state_1__440_.1, %state_1__441_.1, %state_1__442_.1, %state_1__439_.1, %state_1__443_.1), metadata={op_name="jit(compiled_generate_function)/while" stack_frame_id=607}
  %while.7 = (s32[1,110]{1,0}, f32[1,34,2,110,4,256]{5,4,3,2,1,0}, s32[], s32[], pred[1,110]{1,0}, /*index=5*/s32[], f32[262144,2560]{1,0}, f32[2560]{0}, f32[8,2560,256]{2,1,0}, f32[256]{0}, /*index=10*/f32[4,2560,256]{2,1,0}, f32[256]{0}, f32[4,2560,256]{2,1,0}, f32[8,256,2560]{2,1,0}, f32[2560]{0}, /*index=15*/f32[2560]{0}, f32[2560,10240]{1,0}, f32[2560,10240]{1,0}, f32[10240,2560]{1,0}, f32[2560]{0}, /*index=20*/f32[2560]{0}, f32[8,2560,256]{2,1,0}, f32[256]{0}, f32[4,2560,256]{2,1,0}, f32[256]{0}, /*index=25*/f32[4,2560,256]{2,1,0}, f32[8,256,2560]{2,1,0}, f32[2560]{0}, f32[2560]{0}, f32[2560,10240]{1,0}, /*index=30*/f32[2560,10240]{1,0}, f32[10240,2560]{1,0}, f32[2560]{0}, f32[2560]{0}, f32[8,2560,256]{2,1,0}, /*index=35*/f32[256]{0}, f32[4,2560,256]{2,1,0}, f32[256]{0}, f32[4,2560,256]{2,1,0}, f32[8,256,2560]{2,1,0}, /*index=40*/f32[2560]{0}, f32[2560]{0}, f32[2560,10240]{1,0}, f32[2560,10240]{1,0}, f32[10240,2560]{1,0}, /*index=45*/f32[2560]{0}, f32[2560]{0}, f32[8,2560,256]{2,1,0}, f32[256]{0}, f32[4,2560,256]{2,1,0}, /*index=50*/f32[256]{0}, f32[4,2560,256]{2,1,0}, f32[8,256,2560]{2,1,0}, f32[2560]{0}, f32[2560]{0}, /*index=55*/f32[2560,10240]{1,0}, f32[2560,10240]{1,0}, f32[10240,2560]{1,0}, f32[2560]{0}, f32[2560]{0}, /*index=60*/f32[8,2560,256]{2,1,0}, f32[256]{0}, f32[4,2560,256]{2,1,0}, f32[256]{0}, f32[4,2560,256]{2,1,0}, /*index=65*/f32[8,256,2560]{2,1,0}, f32[2560]{0}, f32[2560]{0}, f32[2560,10240]{1,0}, f32[2560,10240]{1,0}, /*index=70*/f32[10240,2560]{1,0}, f32[2560]{0}, f32[2560]{0}, f32[8,2560,256]{2,1,0}, f32[256]{0}, /*index=75*/f32[4,2560,256]{2,1,0}, f32[256]{0}, f32[4,2560,256]{2,1,0}, f32[8,256,2560]{2,1,0}, f32[2560]{0}, /*index=80*/f32[2560]{0}, f32[2560,10240]{1,0}, f32[2560,10240]{1,0}, f32[10240,2560]{1,0}, f32[2560]{0}, /*index=85*/f32[2560]{0}, f32[8,2560,256]{2,1,0}, f32[256]{0}, f32[4,2560,256]{2,1,0}, f32[256]{0}, /*index=90*/f32[4,2560,256]{2,1,0}, f32[8,256,2560]{2,1,0}, f32[2560]{0}, f32[2560]{0}, f32[2560,10240]{1,0}, /*index=95*/f32[2560,10240]{1,0}, f32[10240,2560]{1,0}, f32[2560]{0}, f32[2560]{0}, f32[8,2560,256]{2,1,0}, /*index=100*/f32[256]{0}, f32[4,2560,256]{2,1,0}, f32[256]{0}, f32[4,2560,256]{2,1,0}, f32[8,256,2560]{2,1,0}, /*index=105*/f32[2560]{0}, f32[2560]{0}, f32[2560,10240]{1,0}, f32[2560,10240]{1,0}, f32[10240,2560]{1,0}, /*index=110*/f32[2560]{0}, f32[2560]{0}, f32[8,2560,256]{2,1,0}, f32[256]{0}, f32[4,2560,256]{2,1,0}, /*index=115*/f32[256]{0}, f32[4,2560,256]{2,1,0}, f32[8,256,2560]{2,1,0}, f32[2560]{0}, f32[2560]{0}, /*index=120*/f32[2560,10240]{1,0}, f32[2560,10240]{1,0}, f32[10240,2560]{1,0}, f32[2560]{0}, f32[2560]{0}, /*index=125*/f32[8,2560,256]{2,1,0}, f32[256]{0}, f32[4,2560,256]{2,1,0}, f32[256]{0}, f32[4,2560,256]{2,1,0}, /*index=130*/f32[8,256,2560]{2,1,0}, f32[2560]{0}, f32[2560]{0}, f32[2560,10240]{1,0}, f32[2560,10240]{1,0}, /*index=135*/f32[10240,2560]{1,0}, f32[2560]{0}, f32[2560]{0}, f32[8,2560,256]{2,1,0}, f32[256]{0}, /*index=140*/f32[4,2560,256]{2,1,0}, f32[256]{0}, f32[4,2560,256]{2,1,0}, f32[8,256,2560]{2,1,0}, f32[2560]{0}, /*index=145*/f32[2560]{0}, f32[2560,10240]{1,0}, f32[2560,10240]{1,0}, f32[10240,2560]{1,0}, f32[2560]{0}, /*index=150*/f32[2560]{0}, f32[8,2560,256]{2,1,0}, f32[256]{0}, f32[4,2560,256]{2,1,0}, f32[256]{0}, /*index=155*/f32[4,2560,256]{2,1,0}, f32[8,256,2560]{2,1,0}, f32[2560]{0}, f32[2560]{0}, f32[2560,10240]{1,0}, /*index=160*/f32[2560,10240]{1,0}, f32[10240,2560]{1,0}, f32[2560]{0}, f32[2560]{0}, f32[8,2560,256]{2,1,0}, /*index=165*/f32[256]{0}, f32[4,2560,256]{2,1,0}, f32[256]{0}, f32[4,2560,256]{2,1,0}, f32[8,256,2560]{2,1,0}, /*index=170*/f32[2560]{0}, f32[2560]{0}, f32[2560,10240]{1,0}, f32[2560,10240]{1,0}, f32[10240,2560]{1,0}, /*index=175*/f32[2560]{0}, f32[2560]{0}, f32[8,2560,256]{2,1,0}, f32[256]{0}, f32[4,2560,256]{2,1,0}, /*index=180*/f32[256]{0}, f32[4,2560,256]{2,1,0}, f32[8,256,2560]{2,1,0}, f32[2560]{0}, f32[2560]{0}, /*index=185*/f32[2560,10240]{1,0}, f32[2560,10240]{1,0}, f32[10240,2560]{1,0}, f32[2560]{0}, f32[2560]{0}, /*index=190*/f32[8,2560,256]{2,1,0}, f32[256]{0}, f32[4,2560,256]{2,1,0}, f32[256]{0}, f32[4,2560,256]{2,1,0}, /*index=195*/f32[8,256,2560]{2,1,0}, f32[2560]{0}, f32[2560]{0}, f32[2560,10240]{1,0}, f32[2560,10240]{1,0}, /*index=200*/f32[10240,2560]{1,0}, f32[2560]{0}, f32[2560]{0}, f32[8,2560,256]{2,1,0}, f32[256]{0}, /*index=205*/f32[4,2560,256]{2,1,0}, f32[256]{0}, f32[4,2560,256]{2,1,0}, f32[8,256,2560]{2,1,0}, f32[2560]{0}, /*index=210*/f32[2560]{0}, f32[2560,10240]{1,0}, f32[2560,10240]{1,0}, f32[10240,2560]{1,0}, f32[2560]{0}, /*index=215*/f32[2560]{0}, f32[8,2560,256]{2,1,0}, f32[256]{0}, f32[4,2560,256]{2,1,0}, f32[256]{0}, /*index=220*/f32[4,2560,256]{2,1,0}, f32[8,256,2560]{2,1,0}, f32[2560]{0}, f32[2560]{0}, f32[2560,10240]{1,0}, /*index=225*/f32[2560,10240]{1,0}, f32[10240,2560]{1,0}, f32[2560]{0}, f32[2560]{0}, f32[8,2560,256]{2,1,0}, /*index=230*/f32[256]{0}, f32[4,2560,256]{2,1,0}, f32[256]{0}, f32[4,2560,256]{2,1,0}, f32[8,256,2560]{2,1,0}, /*index=235*/f32[2560]{0}, f32[2560]{0}, f32[2560,10240]{1,0}, f32[2560,10240]{1,0}, f32[10240,2560]{1,0}, /*index=240*/f32[2560]{0}, f32[2560]{0}, f32[8,2560,256]{2,1,0}, f32[256]{0}, f32[4,2560,256]{2,1,0}, /*index=245*/f32[256]{0}, f32[4,2560,256]{2,1,0}, f32[8,256,2560]{2,1,0}, f32[2560]{0}, f32[2560]{0}, /*index=250*/f32[2560,10240]{1,0}, f32[2560,10240]{1,0}, f32[10240,2560]{1,0}, f32[2560]{0}, f32[2560]{0}, /*index=255*/f32[8,2560,256]{2,1,0}, f32[256]{0}, f32[4,2560,256]{2,1,0}, f32[256]{0}, f32[4,2560,256]{2,1,0}, /*index=260*/f32[8,256,2560]{2,1,0}, f32[2560]{0}, f32[2560]{0}, f32[2560,10240]{1,0}, f32[2560,10240]{1,0}, /*index=265*/f32[10240,2560]{1,0}, f32[2560]{0}, f32[2560]{0}, f32[8,2560,256]{2,1,0}, f32[256]{0}, /*index=270*/f32[4,2560,256]{2,1,0}, f32[256]{0}, f32[4,2560,256]{2,1,0}, f32[8,256,2560]{2,1,0}, f32[2560]{0}, /*index=275*/f32[2560]{0}, f32[2560,10240]{1,0}, f32[2560,10240]{1,0}, f32[10240,2560]{1,0}, f32[2560]{0}, /*index=280*/f32[2560]{0}, f32[8,2560,256]{2,1,0}, f32[256]{0}, f32[4,2560,256]{2,1,0}, f32[256]{0}, /*index=285*/f32[4,2560,256]{2,1,0}, f32[8,256,2560]{2,1,0}, f32[2560]{0}, f32[2560]{0}, f32[2560,10240]{1,0}, /*index=290*/f32[2560,10240]{1,0}, f32[10240,2560]{1,0}, f32[2560]{0}, f32[2560]{0}, f32[8,2560,256]{2,1,0}, /*index=295*/f32[256]{0}, f32[4,2560,256]{2,1,0}, f32[256]{0}, f32[4,2560,256]{2,1,0}, f32[8,256,2560]{2,1,0}, /*index=300*/f32[2560]{0}, f32[2560]{0}, f32[2560,10240]{1,0}, f32[2560,10240]{1,0}, f32[10240,2560]{1,0}, /*index=305*/f32[2560]{0}, f32[2560]{0}, f32[8,2560,256]{2,1,0}, f32[256]{0}, f32[4,2560,256]{2,1,0}, /*index=310*/f32[256]{0}, f32[4,2560,256]{2,1,0}, f32[8,256,2560]{2,1,0}, f32[2560]{0}, f32[2560]{0}, /*index=315*/f32[2560,10240]{1,0}, f32[2560,10240]{1,0}, f32[10240,2560]{1,0}, f32[2560]{0}, f32[2560]{0}, /*index=320*/f32[8,2560,256]{2,1,0}, f32[256]{0}, f32[4,2560,256]{2,1,0}, f32[256]{0}, f32[4,2560,256]{2,1,0}, /*index=325*/f32[8,256,2560]{2,1,0}, f32[2560]{0}, f32[2560]{0}, f32[2560,10240]{1,0}, f32[2560,10240]{1,0}, /*index=330*/f32[10240,2560]{1,0}, f32[2560]{0}, f32[2560]{0}, f32[8,2560,256]{2,1,0}, f32[256]{0}, /*index=335*/f32[4,2560,256]{2,1,0}, f32[256]{0}, f32[4,2560,256]{2,1,0}, f32[8,256,2560]{2,1,0}, f32[2560]{0}, /*index=340*/f32[2560]{0}, f32[2560,10240]{1,0}, f32[2560,10240]{1,0}, f32[10240,2560]{1,0}, f32[2560]{0}, /*index=345*/f32[2560]{0}, f32[8,2560,256]{2,1,0}, f32[256]{0}, f32[4,2560,256]{2,1,0}, f32[256]{0}, /*index=350*/f32[4,2560,256]{2,1,0}, f32[8,256,2560]{2,1,0}, f32[2560]{0}, f32[2560]{0}, f32[2560,10240]{1,0}, /*index=355*/f32[2560,10240]{1,0}, f32[10240,2560]{1,0}, f32[2560]{0}, f32[2560]{0}, f32[8,2560,256]{2,1,0}, /*index=360*/f32[256]{0}, f32[4,2560,256]{2,1,0}, f32[256]{0}, f32[4,2560,256]{2,1,0}, f32[8,256,2560]{2,1,0}, /*index=365*/f32[2560]{0}, f32[2560]{0}, f32[2560,10240]{1,0}, f32[2560,10240]{1,0}, f32[10240,2560]{1,0}, /*index=370*/f32[2560]{0}, f32[2560]{0}, f32[8,2560,256]{2,1,0}, f32[256]{0}, f32[4,2560,256]{2,1,0}, /*index=375*/f32[256]{0}, f32[4,2560,256]{2,1,0}, f32[8,256,2560]{2,1,0}, f32[2560]{0}, f32[2560]{0}, /*index=380*/f32[2560,10240]{1,0}, f32[2560,10240]{1,0}, f32[10240,2560]{1,0}, f32[2560]{0}, f32[2560]{0}, /*index=385*/f32[8,2560,256]{2,1,0}, f32[256]{0}, f32[4,2560,256]{2,1,0}, f32[256]{0}, f32[4,2560,256]{2,1,0}, /*index=390*/f32[8,256,2560]{2,1,0}, f32[2560]{0}, f32[2560]{0}, f32[2560,10240]{1,0}, f32[2560,10240]{1,0}, /*index=395*/f32[10240,2560]{1,0}, f32[2560]{0}, f32[2560]{0}, f32[8,2560,256]{2,1,0}, f32[256]{0}, /*index=400*/f32[4,2560,256]{2,1,0}, f32[256]{0}, f32[4,2560,256]{2,1,0}, f32[8,256,2560]{2,1,0}, f32[2560]{0}, /*index=405*/f32[2560]{0}, f32[2560,10240]{1,0}, f32[2560,10240]{1,0}, f32[10240,2560]{1,0}, f32[2560]{0}, /*index=410*/f32[2560]{0}, f32[8,2560,256]{2,1,0}, f32[256]{0}, f32[4,2560,256]{2,1,0}, f32[256]{0}, /*index=415*/f32[4,2560,256]{2,1,0}, f32[8,256,2560]{2,1,0}, f32[2560]{0}, f32[2560]{0}, f32[2560,10240]{1,0}, /*index=420*/f32[2560,10240]{1,0}, f32[10240,2560]{1,0}, f32[2560]{0}, f32[2560]{0}, f32[8,2560,256]{2,1,0}, /*index=425*/f32[256]{0}, f32[4,2560,256]{2,1,0}, f32[256]{0}, f32[4,2560,256]{2,1,0}, f32[8,256,2560]{2,1,0}, /*index=430*/f32[2560]{0}, f32[2560]{0}, f32[2560,10240]{1,0}, f32[2560,10240]{1,0}, f32[10240,2560]{1,0}, /*index=435*/f32[2560]{0}, f32[2560]{0}, f32[8,2560,256]{2,1,0}, f32[256]{0}, f32[4,2560,256]{2,1,0}, /*index=440*/f32[256]{0}, f32[4,2560,256]{2,1,0}, f32[8,256,2560]{2,1,0}, f32[2560]{0}, f32[2560]{0}, /*index=445*/f32[2560,10240]{1,0}, f32[2560,10240]{1,0}, f32[10240,2560]{1,0}, f32[2560]{0}, f32[2560]{0}) while(%while.6), condition=%region_614.634, body=%region_302.631, metadata={op_name="jit(compiled_generate_function)/while" stack_frame_id=607}
  %while.9 = f32[1,34,2,110,4,256]{5,4,3,2,1,0} get-tuple-element(%while.7), index=1, metadata={op_name="jit(compiled_generate_function)/while" stack_frame_id=607}
  %while.10 = s32[] get-tuple-element(%while.7), index=2, metadata={op_name="jit(compiled_generate_function)/while" stack_frame_id=607}
  %while.11 = s32[] get-tuple-element(%while.7), index=3, metadata={op_name="jit(compiled_generate_function)/while" stack_frame_id=607}
  %while.8 = s32[1,110]{1,0} get-tuple-element(%while.7), index=0, metadata={op_name="jit(compiled_generate_function)/while" stack_frame_id=607}
  %constant.171 = s32[] constant(1)
  %broadcast.80 = s32[1,110]{1,0} broadcast(%constant.171), dimensions={}
  %eq.144 = pred[1,110]{1,0} compare(%while.8, %broadcast.80), direction=EQ, metadata={op_name="jit(compiled_generate_function)/eq" stack_frame_id=639}
  %constant.170 = s32[] constant(106)
  %broadcast.79 = s32[1,110]{1,0} broadcast(%constant.170), dimensions={}
  %eq.145 = pred[1,110]{1,0} compare(%while.8, %broadcast.79), direction=EQ, metadata={op_name="jit(compiled_generate_function)/eq" stack_frame_id=642}
  %or.7 = pred[1,110]{1,0} or(%eq.144, %eq.145), metadata={op_name="jit(compiled_generate_function)/or" stack_frame_id=645}
  %not.8 = pred[1,110]{1,0} not(%inputs__padding_mask__.1), metadata={op_name="jit(compiled_generate_function)/not" stack_frame_id=635}
  %and.241 = pred[1,110]{1,0} and(%or.7, %not.8), metadata={op_name="jit(compiled_generate_function)/and" stack_frame_id=648}
  %convert_element_type.604 = s32[1,110]{1,0} convert(%and.241), metadata={op_name="jit(compiled_generate_function)/convert_element_type" stack_frame_id=652}
  %jit_cumsum_.1 = s32[1,110]{1,0} call(%convert_element_type.604), to_apply=%cumsum.637, metadata={op_name="jit(compiled_generate_function)/jit(cumsum)" stack_frame_id=662}
  %sub.553 = s32[1,110]{1,0} subtract(%jit_cumsum_.1, %convert_element_type.604), metadata={op_name="jit(compiled_generate_function)/sub" stack_frame_id=663}
  %constant.169 = s32[] constant(0)
  %convert_element_type.475 = s32[1,110]{1,0} broadcast(%constant.169), dimensions={}, metadata={op_name="jit(compiled_generate_function)/convert_element_type" stack_frame_id=10}
  %convert_element_type.605 = pred[1,110]{1,0} compare(%sub.553, %convert_element_type.475), direction=NE, metadata={op_name="jit(compiled_generate_function)/convert_element_type" stack_frame_id=10}
  %not.9 = pred[1,110]{1,0} not(%convert_element_type.605), metadata={op_name="jit(compiled_generate_function)/not" stack_frame_id=666}
  ROOT %tuple.5 = (pred[1,110]{1,0}, s32[1,110]{1,0}) tuple(%not.9, %while.8)
}

