<<<<<<< HEAD
HloModule jit_train_step, input_output_alias={ {0}: (0, {}, may-alias), {1}: (1, {}, may-alias), {2}: (2, {}, may-alias), {3}: (3, {}, may-alias), {4}: (4, {}, may-alias), {5}: (5, {}, may-alias), {6}: (6, {}, may-alias), {7}: (7, {}, may-alias), {8}: (8, {}, may-alias), {9}: (9, {}, may-alias), {10}: (10, {}, may-alias), {11}: (11, {}, may-alias), {12}: (12, {}, may-alias), {13}: (13, {}, may-alias), {14}: (14, {}, may-alias), {15}: (15, {}, may-alias), {16}: (16, {}, may-alias), {17}: (17, {}, may-alias), {18}: (18, {}, may-alias), {19}: (19, {}, may-alias), {20}: (20, {}, may-alias), {21}: (21, {}, may-alias), {22}: (22, {}, may-alias), {23}: (23, {}, may-alias), {24}: (24, {}, may-alias), {25}: (25, {}, may-alias), {26}: (26, {}, may-alias), {27}: (27, {}, may-alias), {28}: (28, {}, may-alias), {29}: (29, {}, may-alias), {30}: (30, {}, may-alias), {31}: (31, {}, may-alias), {32}: (32, {}, may-alias), {33}: (33, {}, may-alias), {34}: (34, {}, may-alias), {35}: (35, {}, may-alias), {36}: (36, {}, may-alias), {37}: (37, {}, may-alias), {38}: (38, {}, may-alias) }, entry_computation_layout={(s32[], f32[16384]{0}, f32[32,126,53248]{2,1,0}, f32[32,126,53248]{2,1,0}, f32[53248,126,32]{2,1,0}, /*index=5*/f32[16384,126]{1,0}, f32[16384,126]{1,0}, f32[32,126,8,128]{3,2,1,0}, f32[128,126,128,32]{3,2,1,0}, f32[32,126,128,128]{3,2,1,0}, /*index=10*/f32[32,126,8,128]{3,2,1,0}, f32[32,128256]{1,0}, f32[128256,32]{1,0}, s32[], f32[16384]{0}, /*index=15*/f32[32,126,53248]{2,1,0}, f32[32,126,53248]{2,1,0}, f32[53248,126,32]{2,1,0}, f32[16384,126]{1,0}, f32[16384,126]{1,0}, /*index=20*/f32[32,126,8,128]{3,2,1,0}, f32[128,126,128,32]{3,2,1,0}, f32[32,126,128,128]{3,2,1,0}, f32[32,126,8,128]{3,2,1,0}, f32[32,128256]{1,0}, /*index=25*/f32[128256,32]{1,0}, f32[16384]{0}, f32[32,126,53248]{2,1,0}, f32[32,126,53248]{2,1,0}, f32[53248,126,32]{2,1,0}, /*index=30*/f32[16384,126]{1,0}, f32[16384,126]{1,0}, f32[32,126,8,128]{3,2,1,0}, f32[128,126,128,32]{3,2,1,0}, f32[32,126,128,128]{3,2,1,0}, /*index=35*/f32[32,126,8,128]{3,2,1,0}, f32[32,128256]{1,0}, f32[128256,32]{1,0}, s32[], s32[1,8192]{1,0}, /*index=40*/s32[1,8192]{1,0}, s32[1,8192]{1,0}, s32[1,8192]{1,0}, s32[1,8192]{1,0})->(s32[], f32[16384]{0}, f32[32,126,53248]{2,1,0}, f32[32,126,53248]{2,1,0}, f32[53248,126,32]{2,1,0}, /*index=5*/f32[16384,126]{1,0}, f32[16384,126]{1,0}, f32[32,126,8,128]{3,2,1,0}, f32[128,126,128,32]{3,2,1,0}, f32[32,126,128,128]{3,2,1,0}, /*index=10*/f32[32,126,8,128]{3,2,1,0}, f32[32,128256]{1,0}, f32[128256,32]{1,0}, s32[], f32[16384]{0}, /*index=15*/f32[32,126,53248]{2,1,0}, f32[32,126,53248]{2,1,0}, f32[53248,126,32]{2,1,0}, f32[16384,126]{1,0}, f32[16384,126]{1,0}, /*index=20*/f32[32,126,8,128]{3,2,1,0}, f32[128,126,128,32]{3,2,1,0}, f32[32,126,128,128]{3,2,1,0}, f32[32,126,8,128]{3,2,1,0}, f32[32,128256]{1,0}, /*index=25*/f32[128256,32]{1,0}, f32[16384]{0}, f32[32,126,53248]{2,1,0}, f32[32,126,53248]{2,1,0}, f32[53248,126,32]{2,1,0}, /*index=30*/f32[16384,126]{1,0}, f32[16384,126]{1,0}, f32[32,126,8,128]{3,2,1,0}, f32[128,126,128,32]{3,2,1,0}, f32[32,126,128,128]{3,2,1,0}, /*index=35*/f32[32,126,8,128]{3,2,1,0}, f32[32,128256]{1,0}, f32[128256,32]{1,0}, s32[], f32[], /*index=40*/f32[], f32[], f32[], f32[], s32[])}

%region_56.2059 (Arg_0.2056: f32[], Arg_1.2057: f32[]) -> f32[] {
  %Arg_0.2056 = f32[] parameter(0)
  %Arg_1.2057 = f32[] parameter(1)
  ROOT %add.2058 = f32[] add(%Arg_0.2056, %Arg_1.2057)
}

%region_57.2065 (Arg_0.2062: f32[], Arg_1.2063: f32[]) -> f32[] {
  %Arg_0.2062 = f32[] parameter(0)
  %Arg_1.2063 = f32[] parameter(1)
  ROOT %add.2064 = f32[] add(%Arg_0.2062, %Arg_1.2063)
}

%region_58.2072 (Arg_0.2069: f32[], Arg_1.2070: f32[]) -> f32[] {
  %Arg_0.2069 = f32[] parameter(0)
  %Arg_1.2070 = f32[] parameter(1)
  ROOT %add.2071 = f32[] add(%Arg_0.2069, %Arg_1.2070)
}

%region_59.2079 (Arg_0.2076: f32[], Arg_1.2077: f32[]) -> f32[] {
  %Arg_0.2076 = f32[] parameter(0)
  %Arg_1.2077 = f32[] parameter(1)
  ROOT %add.2078 = f32[] add(%Arg_0.2076, %Arg_1.2077)
}

%region_60.2086 (Arg_0.2083: f32[], Arg_1.2084: f32[]) -> f32[] {
  %Arg_0.2083 = f32[] parameter(0)
  %Arg_1.2084 = f32[] parameter(1)
  ROOT %add.2085 = f32[] add(%Arg_0.2083, %Arg_1.2084)
}

%region_61.2093 (Arg_0.2090: f32[], Arg_1.2091: f32[]) -> f32[] {
  %Arg_0.2090 = f32[] parameter(0)
  %Arg_1.2091 = f32[] parameter(1)
  ROOT %add.2092 = f32[] add(%Arg_0.2090, %Arg_1.2091)
}

%region_62.2100 (Arg_0.2097: f32[], Arg_1.2098: f32[]) -> f32[] {
  %Arg_0.2097 = f32[] parameter(0)
  %Arg_1.2098 = f32[] parameter(1)
  ROOT %add.2099 = f32[] add(%Arg_0.2097, %Arg_1.2098)
}

%region_63.2107 (Arg_0.2104: f32[], Arg_1.2105: f32[]) -> f32[] {
  %Arg_0.2104 = f32[] parameter(0)
  %Arg_1.2105 = f32[] parameter(1)
  ROOT %add.2106 = f32[] add(%Arg_0.2104, %Arg_1.2105)
}

%region_64.2114 (Arg_0.2111: f32[], Arg_1.2112: f32[]) -> f32[] {
  %Arg_0.2111 = f32[] parameter(0)
  %Arg_1.2112 = f32[] parameter(1)
  ROOT %add.2113 = f32[] add(%Arg_0.2111, %Arg_1.2112)
}

%region_65.2121 (Arg_0.2118: f32[], Arg_1.2119: f32[]) -> f32[] {
  %Arg_0.2118 = f32[] parameter(0)
  %Arg_1.2119 = f32[] parameter(1)
  ROOT %add.2120 = f32[] add(%Arg_0.2118, %Arg_1.2119)
}

%region_66.2128 (Arg_0.2125: f32[], Arg_1.2126: f32[]) -> f32[] {
  %Arg_0.2125 = f32[] parameter(0)
  %Arg_1.2126 = f32[] parameter(1)
  ROOT %add.2127 = f32[] add(%Arg_0.2125, %Arg_1.2126)
}

%region_67.2135 (Arg_0.2132: f32[], Arg_1.2133: f32[]) -> f32[] {
  %Arg_0.2132 = f32[] parameter(0)
  %Arg_1.2133 = f32[] parameter(1)
  ROOT %add.2134 = f32[] add(%Arg_0.2132, %Arg_1.2133)
}

%region_7.194._custom_call_lowering_rule (Arg_0.191: s32[], Arg_1.192: s32[]) -> s32[] {
  %Arg_0.191 = s32[] parameter(0)
  %Arg_1.192 = s32[] parameter(1)
  ROOT %add.193 = s32[] add(%Arg_0.191, %Arg_1.192)
}

%region_10.224._custom_call_lowering_rule (Arg_0.222: s32[], Arg_1.223: s32[]) -> s32[] {
  %Arg_0.222 = s32[] parameter(0)
  ROOT %Arg_1.223 = s32[] parameter(1)
}

%region_8.202._custom_call_lowering_rule (Arg_0.200: pred[], Arg_1.201: pred[]) -> pred[] {
  %Arg_0.200 = pred[] parameter(0)
  ROOT %Arg_1.201 = pred[] parameter(1)
}

%region_9.213._custom_call_lowering_rule (Arg_0.210: s32[], Arg_1.211: s32[]) -> s32[] {
  %Arg_0.210 = s32[] parameter(0)
  %Arg_1.211 = s32[] parameter(1)
  ROOT %add.212 = s32[] add(%Arg_0.210, %Arg_1.211)
}

%region_7.194._custom_call_lowering_rule.1 (Arg_0.15: s32[], Arg_1.15: s32[]) -> s32[] {
  %Arg_0.15 = s32[] parameter(0)
  %Arg_1.15 = s32[] parameter(1)
  ROOT %add.74 = s32[] add(%Arg_0.15, %Arg_1.15)
}

%region_10.224._custom_call_lowering_rule.1 (Arg_0.16: s32[], Arg_1.16: s32[]) -> s32[] {
  %Arg_0.16 = s32[] parameter(0)
  ROOT %Arg_1.16 = s32[] parameter(1)
}

%region_8.202._custom_call_lowering_rule.1 (Arg_0.17: pred[], Arg_1.17: pred[]) -> pred[] {
  %Arg_0.17 = pred[] parameter(0)
  ROOT %Arg_1.17 = pred[] parameter(1)
}

%region_9.213._custom_call_lowering_rule.1 (Arg_0.18: s32[], Arg_1.18: s32[]) -> s32[] {
  %Arg_0.18 = s32[] parameter(0)
  %Arg_1.18 = s32[] parameter(1)
  ROOT %add.75 = s32[] add(%Arg_0.18, %Arg_1.18)
}

%region_0.64._custom_call_lowering_rule (Arg_0.59: s32[], Arg_1.60: s32[], Arg_2.61: s32[], Arg_3.62: s32[]) -> pred[] {
  %Arg_2.61 = s32[] parameter(2)
  %Arg_3.62 = s32[] parameter(3)
  %Arg_0.59 = s32[] parameter(0)
  %Arg_1.60 = s32[] parameter(1)
  ROOT %compare.95 = pred[] compare(%Arg_0.59, %Arg_1.60), direction=LT
}

%region_1.77._custom_call_lowering_rule (Arg_0.74: s32[], Arg_1.75: s32[]) -> s32[] {
  %Arg_0.74 = s32[] parameter(0)
  %Arg_1.75 = s32[] parameter(1)
  ROOT %add.76 = s32[] add(%Arg_0.74, %Arg_1.75)
}

%region_5.173._custom_call_lowering_rule (Arg_0.171: s32[], Arg_1.172: s32[]) -> s32[] {
  %Arg_0.171 = s32[] parameter(0)
  ROOT %Arg_1.172 = s32[] parameter(1)
}

%region_2.85._custom_call_lowering_rule (Arg_0.83: pred[], Arg_1.84: pred[]) -> pred[] {
  %Arg_0.83 = pred[] parameter(0)
  ROOT %Arg_1.84 = pred[] parameter(1)
}

%region_3.94._custom_call_lowering_rule (Arg_0.91: s32[], Arg_1.92: s32[]) -> s32[] {
  %Arg_0.91 = s32[] parameter(0)
  %Arg_1.92 = s32[] parameter(1)
  ROOT %add.93 = s32[] add(%Arg_0.91, %Arg_1.92)
}

%region_4.113._custom_call_lowering_rule (Arg_0.110: s32[], Arg_1.111: s32[]) -> s32[] {
  %Arg_0.110 = s32[] parameter(0)
  %Arg_1.111 = s32[] parameter(1)
  ROOT %add.112 = s32[] add(%Arg_0.110, %Arg_1.111)
}

%region_6.181._custom_call_lowering_rule (Arg_0.179: s32[], Arg_1.180: s32[]) -> s32[] {
  %Arg_0.179 = s32[] parameter(0)
  ROOT %Arg_1.180 = s32[] parameter(1)
}

%region_7.197._custom_call_lowering_rule (Arg_0.194: s32[], Arg_1.195: s32[]) -> s32[] {
  %Arg_0.194 = s32[] parameter(0)
  %Arg_1.195 = s32[] parameter(1)
  ROOT %add.196 = s32[] add(%Arg_0.194, %Arg_1.195)
}

%region_10.227._custom_call_lowering_rule (Arg_0.225: s32[], Arg_1.226: s32[]) -> s32[] {
  %Arg_0.225 = s32[] parameter(0)
  ROOT %Arg_1.226 = s32[] parameter(1)
}

%region_8.205._custom_call_lowering_rule (Arg_0.203: pred[], Arg_1.204: pred[]) -> pred[] {
  %Arg_0.203 = pred[] parameter(0)
  ROOT %Arg_1.204 = pred[] parameter(1)
}

%region_9.216._custom_call_lowering_rule (Arg_0.213: s32[], Arg_1.214: s32[]) -> s32[] {
  %Arg_0.213 = s32[] parameter(0)
  %Arg_1.214 = s32[] parameter(1)
  ROOT %add.215 = s32[] add(%Arg_0.213, %Arg_1.214)
}

%region_11.235._custom_call_lowering_rule (Arg_0.233: s32[], Arg_1.234: s32[]) -> s32[] {
  %Arg_0.233 = s32[] parameter(0)
  ROOT %Arg_1.234 = s32[] parameter(1)
}

%region_0.394 (Arg_0.391: s32[], Arg_1.392: s32[]) -> s32[] {
  %Arg_0.391 = s32[] parameter(0)
  %Arg_1.392 = s32[] parameter(1)
  ROOT %add.393 = s32[] add(%Arg_0.391, %Arg_1.392)
}

%region_1.402 (Arg_0.399: s32[], Arg_1.400: s32[]) -> s32[] {
  %Arg_0.399 = s32[] parameter(0)
  %Arg_1.400 = s32[] parameter(1)
  ROOT %add.401 = s32[] add(%Arg_0.399, %Arg_1.400)
}

%region_2.407 (Arg_0.404: s32[], Arg_1.405: s32[]) -> s32[] {
  %Arg_0.404 = s32[] parameter(0)
  %Arg_1.405 = s32[] parameter(1)
  ROOT %maximum.406 = s32[] maximum(%Arg_0.404, %Arg_1.405)
}

%region_4.493 (Arg_0.490: f32[], Arg_1.491: f32[]) -> f32[] {
  %Arg_0.490 = f32[] parameter(0)
  %Arg_1.491 = f32[] parameter(1)
  ROOT %add.492 = f32[] add(%Arg_0.490, %Arg_1.491)
}

%region_0.61._custom_call_lowering_rule (Arg_0.56: s32[], Arg_1.57: s32[], Arg_2.58: s32[], Arg_3.59: s32[]) -> pred[] {
  %Arg_2.58 = s32[] parameter(2)
  %Arg_3.59 = s32[] parameter(3)
  %Arg_0.56 = s32[] parameter(0)
  %Arg_1.57 = s32[] parameter(1)
  ROOT %compare.73 = pred[] compare(%Arg_0.56, %Arg_1.57), direction=LT
}

%region_1.74._custom_call_lowering_rule (Arg_0.71: s32[], Arg_1.72: s32[]) -> s32[] {
  %Arg_0.71 = s32[] parameter(0)
  %Arg_1.72 = s32[] parameter(1)
  ROOT %add.73 = s32[] add(%Arg_0.71, %Arg_1.72)
}

%region_5.170._custom_call_lowering_rule (Arg_0.168: s32[], Arg_1.169: s32[]) -> s32[] {
  %Arg_0.168 = s32[] parameter(0)
  ROOT %Arg_1.169 = s32[] parameter(1)
}

%region_2.82._custom_call_lowering_rule (Arg_0.80: pred[], Arg_1.81: pred[]) -> pred[] {
  %Arg_0.80 = pred[] parameter(0)
  ROOT %Arg_1.81 = pred[] parameter(1)
}

%region_3.91._custom_call_lowering_rule (Arg_0.88: s32[], Arg_1.89: s32[]) -> s32[] {
  %Arg_0.88 = s32[] parameter(0)
  %Arg_1.89 = s32[] parameter(1)
  ROOT %add.90 = s32[] add(%Arg_0.88, %Arg_1.89)
}

%region_4.110._custom_call_lowering_rule (Arg_0.107: s32[], Arg_1.108: s32[]) -> s32[] {
  %Arg_0.107 = s32[] parameter(0)
  %Arg_1.108 = s32[] parameter(1)
  ROOT %add.109 = s32[] add(%Arg_0.107, %Arg_1.108)
}

%region_6.178._custom_call_lowering_rule (Arg_0.176: s32[], Arg_1.177: s32[]) -> s32[] {
  %Arg_0.176 = s32[] parameter(0)
  ROOT %Arg_1.177 = s32[] parameter(1)
}

%region_11.232._custom_call_lowering_rule (Arg_0.230: s32[], Arg_1.231: s32[]) -> s32[] {
  %Arg_0.230 = s32[] parameter(0)
  ROOT %Arg_1.231 = s32[] parameter(1)
}

%region_5.584 (Arg_0.581: f32[], Arg_1.582: f32[]) -> f32[] {
  %Arg_0.581 = f32[] parameter(0)
  %Arg_1.582 = f32[] parameter(1)
  ROOT %add.583 = f32[] add(%Arg_0.581, %Arg_1.582)
}

%region_3.632_spmd (param.1: (s32[], bf16[1,8192,16384], bf16[126,1,8192,16384], f32[126,32,53248], f32[126,32,53248], /*index=5*/f32[126,53248,32], f32[126,16384], f32[126,16384], f32[126,32,8,128], f32[126,128,128,32], /*index=10*/f32[126,32,128,128], f32[126,32,8,128], f32[1,8192,1,128], s32[1,8192,128,128], f32[1,8192,1,128], /*index=15*/f32[1,1,1,128], f32[1,8192,1,128], s32[1,8192,8,128], f32[1,8192,1,128], f32[1,1,1,128], /*index=20*/s32[1,1], s32[1,1])) -> (s32[], bf16[1,8192,16384], bf16[126,1,8192,16384], f32[126,32,53248], f32[126,32,53248], /*index=5*/f32[126,53248,32], f32[126,16384], f32[126,16384], f32[126,32,8,128], f32[126,128,128,32], /*index=10*/f32[126,32,128,128], f32[126,32,8,128], f32[1,8192,1,128], s32[1,8192,128,128], f32[1,8192,1,128], /*index=15*/f32[1,1,1,128], f32[1,8192,1,128], s32[1,8192,8,128], f32[1,8192,1,128], f32[1,1,1,128], /*index=20*/s32[1,1], s32[1,1]) {
  %param.1 = (s32[], bf16[1,8192,16384]{2,1,0}, bf16[126,1,8192,16384]{3,2,1,0}, f32[126,32,53248]{2,1,0}, f32[126,32,53248]{2,1,0}, /*index=5*/f32[126,53248,32]{2,1,0}, f32[126,16384]{1,0}, f32[126,16384]{1,0}, f32[126,32,8,128]{3,2,1,0}, f32[126,128,128,32]{3,2,1,0}, /*index=10*/f32[126,32,128,128]{3,2,1,0}, f32[126,32,8,128]{3,2,1,0}, f32[1,8192,1,128]{3,2,1,0}, s32[1,8192,128,128]{3,2,1,0}, f32[1,8192,1,128]{3,2,1,0}, /*index=15*/f32[1,1,1,128]{3,2,1,0}, f32[1,8192,1,128]{3,2,1,0}, s32[1,8192,8,128]{3,2,1,0}, f32[1,8192,1,128]{3,2,1,0}, f32[1,1,1,128]{3,2,1,0}, /*index=20*/s32[1,1]{1,0}, s32[1,1]{1,0}) parameter(0)
  %get-tuple-element.14 = s32[] get-tuple-element(%param.1), index=0
  %constant.372 = s32[] constant(1)
  %add.57 = s32[] add(%get-tuple-element.14, %constant.372)
  %get-tuple-element.15 = bf16[1,8192,16384]{2,1,0} get-tuple-element(%param.1), index=1
  %copy.43 = bf16[1,8192,16384]{2,1,0} copy(%get-tuple-element.15)
  %convert.106 = f32[1,8192,16384]{2,1,0} convert(%copy.43)
  %multiply.152 = f32[1,8192,16384]{2,1,0} multiply(%convert.106, %convert.106)
  %constant.373 = f32[] constant(0)
  %reduce.19 = f32[1,8192]{1,0} reduce(%multiply.152, %constant.373), dimensions={2}, to_apply=%region_4.493
  %constant.374 = f32[] constant(6.10351562e-05)
  %broadcast.439 = f32[1,8192]{1,0} broadcast(%constant.374), dimensions={}
  %multiply.153 = f32[1,8192]{1,0} multiply(%reduce.19, %broadcast.439)
  %constant.375 = f32[] constant(1e-05)
  %broadcast.440 = f32[1,8192]{1,0} broadcast(%constant.375), dimensions={}
  %add.58 = f32[1,8192]{1,0} add(%multiply.153, %broadcast.440)
  %rsqrt.6 = f32[1,8192]{1,0} rsqrt(%add.58)
  %broadcast.441 = f32[1,8192,16384]{2,1,0} broadcast(%rsqrt.6), dimensions={0,1}
  %multiply.154 = f32[1,8192,16384]{2,1,0} multiply(%convert.106, %broadcast.441)
  %convert.107 = bf16[1,8192,16384]{2,1,0} convert(%multiply.154)
  %get-tuple-element.16 = f32[126,16384]{1,0} get-tuple-element(%param.1), index=7
  %constant.376 = s32[] constant(0)
  %dynamic-slice.0 = f32[1,16384]{1,0} dynamic-slice(%get-tuple-element.16, %get-tuple-element.14, %constant.376), dynamic_slice_sizes={1,16384}
  %convert.108 = bf16[1,16384]{1,0} convert(%dynamic-slice.0)
  %reshape.425 = bf16[16384]{0} reshape(%convert.108)
  %broadcast.442 = bf16[1,8192,16384]{2,1,0} broadcast(%reshape.425), dimensions={2}
  %multiply.155 = bf16[1,8192,16384]{2,1,0} multiply(%convert.107, %broadcast.442)
  %copy.44 = bf16[1,8192,16384]{2,1,0} copy(%multiply.155)
  %copy.45 = bf16[1,8192,16384]{2,1,0} copy(%copy.44)
  %get-tuple-element.17 = f32[126,32,128,128]{3,2,1,0} get-tuple-element(%param.1), index=10
  %dynamic-slice.1 = f32[1,32,128,128]{3,2,1,0} dynamic-slice(%get-tuple-element.17, %get-tuple-element.14, %constant.376, %constant.376, %constant.376), dynamic_slice_sizes={1,32,128,128}
  %convert.109 = bf16[1,32,128,128]{3,2,1,0} convert(%dynamic-slice.1)
  %reshape.426 = bf16[32,128,128]{2,1,0} reshape(%convert.109)
  %all-gather = bf16[16384,128,128]{2,1,0} all-gather(%reshape.426), channel_id=2, replica_groups=[1,512]<=[512], dimensions={0}, use_global_device_ids=true
  %dot.32 = bf16[1,8192,128,128]{3,2,1,0} dot(%copy.45, %all-gather), lhs_contracting_dims={2}, rhs_contracting_dims={0}
  %convert.110 = f32[1,8192,128,128]{3,2,1,0} convert(%dot.32)
  %get-tuple-element.18 = f32[1,8192,1,128]{3,2,1,0} get-tuple-element(%param.1), index=12
  %reshape.427 = f32[1,8192,128]{2,1,0} reshape(%get-tuple-element.18)
  %broadcast.443 = f32[1,8192,128,128]{3,2,1,0} broadcast(%reshape.427), dimensions={0,1,3}
  %multiply.156 = f32[1,8192,128,128]{3,2,1,0} multiply(%convert.110, %broadcast.443)
  %get-tuple-element.19 = s32[1,8192,128,128]{3,2,1,0} get-tuple-element(%param.1), index=13
  %broadcast.444 = s32[1,8192,128,128]{3,2,1,0} broadcast(%constant.372), dimensions={}
  %compare.74 = pred[1,8192,128,128]{3,2,1,0} compare(%get-tuple-element.19, %broadcast.444), direction=LT
  %slice.25 = bf16[1,8192,128,127]{3,2,1,0} slice(%dot.32), slice={[0:1], [0:8192], [0:128], [1:128]}
  %slice.26 = bf16[1,8192,128,1]{3,2,1,0} slice(%dot.32), slice={[0:1], [0:8192], [0:128], [0:1]}
  %concatenate.8 = bf16[1,8192,128,128]{3,2,1,0} concatenate(%slice.25, %slice.26), dimensions={3}
  %slice.27 = bf16[1,8192,128,1]{3,2,1,0} slice(%dot.32), slice={[0:1], [0:8192], [0:128], [127:128]}
  %slice.28 = bf16[1,8192,128,127]{3,2,1,0} slice(%dot.32), slice={[0:1], [0:8192], [0:128], [0:127]}
  %concatenate.9 = bf16[1,8192,128,128]{3,2,1,0} concatenate(%slice.27, %slice.28), dimensions={3}
  %select.52 = bf16[1,8192,128,128]{3,2,1,0} select(%compare.74, %concatenate.8, %concatenate.9)
  %convert.111 = f32[1,8192,128,128]{3,2,1,0} convert(%select.52)
  %get-tuple-element.20 = f32[1,8192,1,128]{3,2,1,0} get-tuple-element(%param.1), index=14
  %reshape.432 = f32[1,8192,128]{2,1,0} reshape(%get-tuple-element.20)
  %broadcast.445 = f32[1,8192,128,128]{3,2,1,0} broadcast(%reshape.432), dimensions={0,1,3}
  %multiply.161 = f32[1,8192,128,128]{3,2,1,0} multiply(%convert.111, %broadcast.445)
  %get-tuple-element.21 = f32[1,1,1,128]{3,2,1,0} get-tuple-element(%param.1), index=15
  %reshape.433 = f32[128]{0} reshape(%get-tuple-element.21)
  %broadcast.446 = f32[1,8192,128,128]{3,2,1,0} broadcast(%reshape.433), dimensions={3}
  %multiply.162 = f32[1,8192,128,128]{3,2,1,0} multiply(%multiply.161, %broadcast.446)
  %add.59 = f32[1,8192,128,128]{3,2,1,0} add(%multiply.156, %multiply.162)
  %convert.112 = bf16[1,8192,128,128]{3,2,1,0} convert(%add.59)
  %copy.46 = bf16[1,8192,128,128]{3,2,1,0} copy(%convert.112)
  %get-tuple-element.22 = f32[126,32,8,128]{3,2,1,0} get-tuple-element(%param.1), index=8
  %dynamic-slice.6 = f32[1,32,8,128]{3,2,1,0} dynamic-slice(%get-tuple-element.22, %get-tuple-element.14, %constant.376, %constant.376, %constant.376), dynamic_slice_sizes={1,32,8,128}
  %convert.113 = bf16[1,32,8,128]{3,2,1,0} convert(%dynamic-slice.6)
  %reshape.434 = bf16[32,8,128]{2,1,0} reshape(%convert.113)
  %all-gather.1 = bf16[16384,8,128]{2,1,0} all-gather(%reshape.434), channel_id=3, replica_groups=[1,512]<=[512], dimensions={0}, use_global_device_ids=true
  %dot.33 = bf16[1,8192,8,128]{3,2,1,0} dot(%copy.45, %all-gather.1), lhs_contracting_dims={2}, rhs_contracting_dims={0}
  %convert.114 = f32[1,8192,8,128]{3,2,1,0} convert(%dot.33)
  %get-tuple-element.23 = f32[1,8192,1,128]{3,2,1,0} get-tuple-element(%param.1), index=16
  %reshape.435 = f32[1,8192,128]{2,1,0} reshape(%get-tuple-element.23)
  %broadcast.447 = f32[1,8192,8,128]{3,2,1,0} broadcast(%reshape.435), dimensions={0,1,3}
  %multiply.163 = f32[1,8192,8,128]{3,2,1,0} multiply(%convert.114, %broadcast.447)
  %get-tuple-element.24 = s32[1,8192,8,128]{3,2,1,0} get-tuple-element(%param.1), index=17
  %broadcast.448 = s32[1,8192,8,128]{3,2,1,0} broadcast(%constant.372), dimensions={}
  %compare.75 = pred[1,8192,8,128]{3,2,1,0} compare(%get-tuple-element.24, %broadcast.448), direction=LT
  %slice.29 = bf16[1,8192,8,127]{3,2,1,0} slice(%dot.33), slice={[0:1], [0:8192], [0:8], [1:128]}
  %slice.30 = bf16[1,8192,8,1]{3,2,1,0} slice(%dot.33), slice={[0:1], [0:8192], [0:8], [0:1]}
  %concatenate.10 = bf16[1,8192,8,128]{3,2,1,0} concatenate(%slice.29, %slice.30), dimensions={3}
  %slice.31 = bf16[1,8192,8,1]{3,2,1,0} slice(%dot.33), slice={[0:1], [0:8192], [0:8], [127:128]}
  %slice.32 = bf16[1,8192,8,127]{3,2,1,0} slice(%dot.33), slice={[0:1], [0:8192], [0:8], [0:127]}
  %concatenate.11 = bf16[1,8192,8,128]{3,2,1,0} concatenate(%slice.31, %slice.32), dimensions={3}
  %select.53 = bf16[1,8192,8,128]{3,2,1,0} select(%compare.75, %concatenate.10, %concatenate.11)
  %convert.115 = f32[1,8192,8,128]{3,2,1,0} convert(%select.53)
  %get-tuple-element.25 = f32[1,8192,1,128]{3,2,1,0} get-tuple-element(%param.1), index=18
  %reshape.443 = f32[1,8192,128]{2,1,0} reshape(%get-tuple-element.25)
  %broadcast.449 = f32[1,8192,8,128]{3,2,1,0} broadcast(%reshape.443), dimensions={0,1,3}
  %multiply.168 = f32[1,8192,8,128]{3,2,1,0} multiply(%convert.115, %broadcast.449)
  %get-tuple-element.26 = f32[1,1,1,128]{3,2,1,0} get-tuple-element(%param.1), index=19
  %reshape.445 = f32[128]{0} reshape(%get-tuple-element.26)
  %broadcast.450 = f32[1,8192,8,128]{3,2,1,0} broadcast(%reshape.445), dimensions={3}
  %multiply.169 = f32[1,8192,8,128]{3,2,1,0} multiply(%multiply.168, %broadcast.450)
  %add.60 = f32[1,8192,8,128]{3,2,1,0} add(%multiply.163, %multiply.169)
  %convert.116 = bf16[1,8192,8,128]{3,2,1,0} convert(%add.60)
  %copy.48 = bf16[1,8192,8,128]{3,2,1,0} copy(%convert.116)
  %get-tuple-element.27 = f32[126,32,8,128]{3,2,1,0} get-tuple-element(%param.1), index=11
  %dynamic-slice.11 = f32[1,32,8,128]{3,2,1,0} dynamic-slice(%get-tuple-element.27, %get-tuple-element.14, %constant.376, %constant.376, %constant.376), dynamic_slice_sizes={1,32,8,128}
  %convert.117 = bf16[1,32,8,128]{3,2,1,0} convert(%dynamic-slice.11)
  %reshape.447 = bf16[32,8,128]{2,1,0} reshape(%convert.117)
  %all-gather.2 = bf16[16384,8,128]{2,1,0} all-gather(%reshape.447), channel_id=4, replica_groups=[1,512]<=[512], dimensions={0}, use_global_device_ids=true
  %dot.34 = bf16[1,8192,8,128]{3,2,1,0} dot(%copy.45, %all-gather.2), lhs_contracting_dims={2}, rhs_contracting_dims={0}
  %copy.49 = bf16[1,8192,8,128]{3,2,1,0} copy(%dot.34)
  %constant.467 = bf16[0]{0} constant({})
  %broadcast.452 = s32[2]{0} broadcast(%constant.376), dimensions={}
  %reshape.451 = s32[1]{0} reshape(%constant.372)
  %reshape.453 = s32[1]{0} reshape(%constant.376)
  %constant.473 = pred[1]{0} constant({0})
  %constant.474 = s32[1]{0} constant({1})
  %constant.475 = s32[1]{0} constant({0})
  %select.54 = s32[1]{0} select(%constant.473, %constant.474, %constant.475)
  %maximum.1 = s32[1]{0} maximum(%reshape.453, %select.54)
  %minimum.1 = s32[1]{0} minimum(%reshape.451, %maximum.1)
  %sort.0 = (s32[1]{0}, s32[1]{0}) sort(%minimum.1, %constant.475), dimensions={0}, is_stable=true, to_apply=%region_0.61._custom_call_lowering_rule
  %get-tuple-element.30 = s32[1]{0} get-tuple-element(%sort.0), index=1
  %compare.76 = pred[1]{0} compare(%get-tuple-element.30, %constant.475), direction=LT
  %add.68 = s32[1]{0} add(%get-tuple-element.30, %constant.474)
  %select.69 = s32[1]{0} select(%compare.76, %add.68, %get-tuple-element.30)
  %reshape.455 = s32[1,1]{1,0} reshape(%select.69)
  %scatter.75 = s32[1]{0} scatter(%minimum.1, %reshape.455, %constant.475), update_window_dims={}, inserted_window_dims={0}, scatter_dims_to_operand_dims={0}, index_vector_dim=1, to_apply=%region_1.74._custom_call_lowering_rule
  %compare.164 = pred[1]{0} compare(%scatter.75, %constant.475), direction=LT
  %constant.477 = s32[1]{0} constant({2})
  %add.165 = s32[1]{0} add(%scatter.75, %constant.477)
  %select.166 = s32[1]{0} select(%compare.164, %add.165, %scatter.75)
  %reshape.456 = s32[1,1]{1,0} reshape(%select.166)
  %scatter.171 = s32[2]{0} scatter(%broadcast.452, %reshape.456, %constant.475), update_window_dims={}, inserted_window_dims={0}, scatter_dims_to_operand_dims={0}, index_vector_dim=1, to_apply=%region_5.170._custom_call_lowering_rule
  %constant.479 = pred[] constant(true)
  %broadcast.454 = pred[2]{0} broadcast(%constant.479), dimensions={}
  %scatter.83 = pred[2]{0} scatter(%broadcast.454, %reshape.456, %constant.473), update_window_dims={}, inserted_window_dims={0}, scatter_dims_to_operand_dims={0}, index_vector_dim=1, to_apply=%region_2.82._custom_call_lowering_rule
  %convert.118 = s32[2]{0} convert(%scatter.83)
  %reduce-window.1 = s32[2]{0} reduce-window(%convert.118, %constant.376), window={size=2 pad=1_0}, to_apply=%region_3.91._custom_call_lowering_rule
  %maximum.2 = s32[2]{0} maximum(%broadcast.452, %reduce-window.1)
  %compare.103 = pred[2]{0} compare(%maximum.2, %broadcast.452), direction=LT
  %broadcast.455 = s32[2]{0} broadcast(%constant.372), dimensions={}
  %add.104 = s32[2]{0} add(%maximum.2, %broadcast.455)
  %select.105 = s32[2]{0} select(%compare.103, %add.104, %maximum.2)
  %reshape.458 = s32[2,1]{1,0} reshape(%select.105)
  %scatter.111 = s32[1]{0} scatter(%constant.475, %reshape.458, %broadcast.455), update_window_dims={}, inserted_window_dims={0}, scatter_dims_to_operand_dims={0}, index_vector_dim=1, to_apply=%region_4.110._custom_call_lowering_rule
  %sign.0 = s32[1]{0} sign(%scatter.111)
  %sign.1 = s32[] sign(%constant.372)
  %reshape.459 = s32[1]{0} reshape(%sign.1)
  %compare.78 = pred[1]{0} compare(%sign.0, %reshape.459), direction=NE
  %remainder.8 = s32[1]{0} remainder(%scatter.111, %reshape.451)
  %compare.79 = pred[1]{0} compare(%remainder.8, %constant.475), direction=NE
  %and.15 = pred[1]{0} and(%compare.78, %compare.79)
  %divide.46 = s32[1]{0} divide(%scatter.111, %reshape.451)
  %subtract.7 = s32[1]{0} subtract(%divide.46, %constant.474)
  %select.55 = s32[1]{0} select(%and.15, %subtract.7, %divide.46)
  %constant.488 = s32[] constant(2)
  %compare.80 = pred[] compare(%constant.488, %constant.376), direction=EQ
  %select.56 = s32[] select(%compare.80, %constant.372, %constant.488)
  %reshape.462 = s32[1]{0} reshape(%select.56)
  %remainder.9 = s32[1]{0} remainder(%select.55, %reshape.462)
  %compare.81 = pred[1]{0} compare(%remainder.9, %constant.475), direction=LT
  %compare.82 = pred[] compare(%select.56, %constant.376), direction=LT
  %reshape.463 = pred[1]{0} reshape(%compare.82)
  %compare.83 = pred[1]{0} compare(%compare.81, %reshape.463), direction=NE
  %compare.84 = pred[1]{0} compare(%remainder.9, %constant.475), direction=NE
  %and.16 = pred[1]{0} and(%compare.83, %compare.84)
  %add.61 = s32[1]{0} add(%remainder.9, %reshape.462)
  %select.57 = s32[1]{0} select(%and.16, %add.61, %remainder.9)
  %compare.172 = pred[1]{0} compare(%select.57, %constant.475), direction=LT
  %add.173 = s32[1]{0} add(%select.57, %constant.477)
  %select.174 = s32[1]{0} select(%compare.172, %add.173, %select.57)
  %reshape.465 = s32[1,1]{1,0} reshape(%select.174)
  %get-tuple-element.28 = s32[1,1]{1,0} get-tuple-element(%param.1), index=20
  %reshape.466 = s32[1]{0} reshape(%get-tuple-element.28)
  %compare.85 = pred[1]{0} compare(%reshape.466, %constant.475), direction=LT
  %constant.492 = s32[] constant(-1)
  %reshape.467 = s32[1]{0} reshape(%constant.492)
  %select.58 = s32[1]{0} select(%compare.85, %reshape.467, %reshape.466)
  %scatter.179 = s32[2]{0} scatter(%scatter.171, %reshape.465, %select.58), update_window_dims={}, inserted_window_dims={0}, scatter_dims_to_operand_dims={0}, index_vector_dim=1, to_apply=%region_6.178._custom_call_lowering_rule
  %get-tuple-element.29 = s32[1,1]{1,0} get-tuple-element(%param.1), index=21
  %reshape.481 = s32[1]{0} reshape(%get-tuple-element.29)
  %compare.182 = pred[1]{0} compare(%reshape.481, %constant.475), direction=LT
  %select.63 = s32[1]{0} select(%compare.182, %reshape.467, %reshape.481)
  %scatter.233 = s32[2]{0} scatter(%scatter.171, %reshape.465, %select.63), update_window_dims={}, inserted_window_dims={0}, scatter_dims_to_operand_dims={0}, index_vector_dim=1, to_apply=%region_11.232._custom_call_lowering_rule
  %constant.468 = u32[] constant(0)
  %broadcast.451 = u32[1024]{0} broadcast(%constant.468), dimensions={}
  %constant.469 = s32[512]{0} constant({0, 2, 4, 6, 8, 10, 12, 14, 16, 18, 20, 22, 24, 26, 28, 30, 32, 34, 36, 38, 40, 42, 44, 46, 48, 50, 52, 54, 56, 58, 60, 62, 64, 66, 68, 70, 72, 74, 76, 78, 80, 82, 84, 86, 88, 90, 92, 94, 96, 98, 100, 102, 104, 106, 108, 110, 112, 114, 116, 118, 120, 122, 124, 126, 128, 130, 132, 134, 136, 138, 140, 142, 144, 146, 148, 150, 152, 154, 156, 158, 160, 162, 164, 166, 168, 170, 172, 174, 176, 178, 180, 182, 184, 186, 188, 190, 192, 194, 196, 198, 200, 202, 204, 206, 208, 210, 212, 214, 216, 218, 220, 222, 224, 226, 228, 230, 232, 234, 236, 238, 240, 242, 244, 246, 248, 250, 252, 254, 256, 258, 260, 262, 264, 266, 268, 270, 272, 274, 276, 278, 280, 282, 284, 286, 288, 290, 292, 294, 296, 298, 300, 302, 304, 306, 308, 310, 312, 314, 316, 318, 320, 322, 324, 326, 328, 330, 332, 334, 336, 338, 340, 342, 344, 346, 348, 350, 352, 354, 356, 358, 360, 362, 364, 366, 368, 370, 372, 374, 376, 378, 380, 382, 384, 386, 388, 390, 392, 394, 396, 398, 400, 402, 404, 406, 408, 410, 412, 414, 416, 418, 420, 422, 424, 426, 428, 430, 432, 434, 436, 438, 440, 442, 444, 446, 448, 450, 452, 454, 456, 458, 460, 462, 464, 466, 468, 470, 472, 474, 476, 478, 480, 482, 484, 486, 488, 490, 492, 494, 496, 498, 500, 502, 504, 506, 508, 510, 512, 514, 516, 518, 520, 522, 524, 526, 528, 530, 532, 534, 536, 538, 540, 542, 544, 546, 548, 550, 552, 554, 556, 558, 560, 562, 564, 566, 568, 570, 572, 574, 576, 578, 580, 582, 584, 586, 588, 590, 592, 594, 596, 598, 600, 602, 604, 606, 608, 610, 612, 614, 616, 618, 620, 622, 624, 626, 628, 630, 632, 634, 636, 638, 640, 642, 644, 646, 648, 650, 652, 654, 656, 658, 660, 662, 664, 666, 668, 670, 672, 674, 676, 678, 680, 682, 684, 686, 688, 690, 692, 694, 696, 698, 700, 702, 704, 706, 708, 710, 712, 714, 716, 718, 720, 722, 724, 726, 728, 730, 732, 734, 736, 738, 740, 742, 744, 746, 748, 750, 752, 754, 756, 758, 760, 762, 764, 766, 768, 770, 772, 774, 776, 778, 780, 782, 784, 786, 788, 790, 792, 794, 796, 798, 800, 802, 804, 806, 808, 810, 812, 814, 816, 818, 820, 822, 824, 826, 828, 830, 832, 834, 836, 838, 840, 842, 844, 846, 848, 850, 852, 854, 856, 858, 860, 862, 864, 866, 868, 870, 872, 874, 876, 878, 880, 882, 884, 886, 888, 890, 892, 894, 896, 898, 900, 902, 904, 906, 908, 910, 912, 914, 916, 918, 920, 922, 924, 926, 928, 930, 932, 934, 936, 938, 940, 942, 944, 946, 948, 950, 952, 954, 956, 958, 960, 962, 964, 966, 968, 970, 972, 974, 976, 978, 980, 982, 984, 986, 988, 990, 992, 994, 996, 998, 1000, 1002, 1004, 1006, 1008, 1010, 1012, 1014, 1016, 1018, 1020, 1022})
  %partition-id.1 = u32[] partition-id()
  %dynamic-slice.12 = s32[1]{0} dynamic-slice(%constant.469, %partition-id.1), dynamic_slice_sizes={1}
  %reshape.449 = s32[] reshape(%dynamic-slice.12)
  %dynamic-slice.13 = u32[2]{0} dynamic-slice(%broadcast.451, %reshape.449), dynamic_slice_sizes={2}
  %custom-call.234 = (bf16[1,8192,128,128]{3,2,1,0}, f32[1,128,8192,1]{3,2,1,0}, u32[2,4]{1,0}, u8[48]{0}) custom-call(%copy.46, %copy.48, %copy.49, %constant.467, %scatter.179, /*index=5*/%scatter.233, %constant.467, %constant.467, %dynamic-slice.13), custom_call_target="te_fused_attn_forward_ffi", operand_layout_constraints={bf16[1,8192,128,128]{3,2,1,0}, bf16[1,8192,8,128]{3,2,1,0}, bf16[1,8192,8,128]{3,2,1,0}, bf16[0]{0}, s32[2]{0}, s32[2]{0}, bf16[0]{0}, bf16[0]{0}, u32[2]{0}}, api_version=API_VERSION_TYPED_FFI, backend_config={attn_heads = 128 : i64, bias_batch = 0 : i64, bias_heads = 0 : i64, bias_type = 0 : i64, deterministic = false, dropout_probability = 0.000000e+00 : f64, head_dim = 128 : i64, input_batch = 1 : i64, is_training = true, kv_max_seqlen = 8192 : i64, mask_type = 3 : i64, max_segments_per_seq = 1 : i64, num_gqa_groups = 8 : i64, q_max_seqlen = 8192 : i64, qkv_layout = 9 : i64, scaling_factor = 1.000000e+00 : f64, window_size_left = -1 : i64, window_size_right = -1 : i64}
  %get-tuple-element.32 = bf16[1,8192,128,128]{3,2,1,0} get-tuple-element(%custom-call.234), index=0
  %copy.50 = bf16[1,8192,128,128]{3,2,1,0} copy(%get-tuple-element.32)
  %get-tuple-element.33 = f32[126,128,128,32]{3,2,1,0} get-tuple-element(%param.1), index=9
  %dynamic-slice.14 = f32[1,128,128,32]{3,2,1,0} dynamic-slice(%get-tuple-element.33, %get-tuple-element.14, %constant.376, %constant.376, %constant.376), dynamic_slice_sizes={1,128,128,32}
  %convert.120 = bf16[1,128,128,32]{3,2,1,0} convert(%dynamic-slice.14)
  %reshape.483 = bf16[128,128,32]{2,1,0} reshape(%convert.120)
  %all-gather.3 = bf16[128,128,16384]{2,1,0} all-gather(%reshape.483), channel_id=5, replica_groups=[1,512]<=[512], dimensions={2}, use_global_device_ids=true
  %dot.35 = bf16[1,8192,16384]{2,1,0} dot(%copy.50, %all-gather.3), lhs_contracting_dims={2,3}, rhs_contracting_dims={0,1}
  %copy.51 = bf16[1,8192,16384]{2,1,0} copy(%dot.35)
  %add.63 = bf16[1,8192,16384]{2,1,0} add(%copy.43, %copy.51)
  %convert.121 = f32[1,8192,16384]{2,1,0} convert(%add.63)
  %multiply.170 = f32[1,8192,16384]{2,1,0} multiply(%convert.121, %convert.121)
  %reduce.20 = f32[1,8192]{1,0} reduce(%multiply.170, %constant.373), dimensions={2}, to_apply=%region_5.584
  %multiply.171 = f32[1,8192]{1,0} multiply(%reduce.20, %broadcast.439)
  %add.64 = f32[1,8192]{1,0} add(%multiply.171, %broadcast.440)
  %rsqrt.7 = f32[1,8192]{1,0} rsqrt(%add.64)
  %broadcast.459 = f32[1,8192,16384]{2,1,0} broadcast(%rsqrt.7), dimensions={0,1}
  %multiply.172 = f32[1,8192,16384]{2,1,0} multiply(%convert.121, %broadcast.459)
  %convert.122 = bf16[1,8192,16384]{2,1,0} convert(%multiply.172)
  %get-tuple-element.34 = f32[126,16384]{1,0} get-tuple-element(%param.1), index=6
  %dynamic-slice.15 = f32[1,16384]{1,0} dynamic-slice(%get-tuple-element.34, %get-tuple-element.14, %constant.376), dynamic_slice_sizes={1,16384}
  %convert.123 = bf16[1,16384]{1,0} convert(%dynamic-slice.15)
  %reshape.484 = bf16[16384]{0} reshape(%convert.123)
  %broadcast.460 = bf16[1,8192,16384]{2,1,0} broadcast(%reshape.484), dimensions={2}
  %multiply.173 = bf16[1,8192,16384]{2,1,0} multiply(%convert.122, %broadcast.460)
  %copy.52 = bf16[1,8192,16384]{2,1,0} copy(%multiply.173)
  %get-tuple-element.35 = f32[126,32,53248]{2,1,0} get-tuple-element(%param.1), index=3
  %dynamic-slice.16 = f32[1,32,53248]{2,1,0} dynamic-slice(%get-tuple-element.35, %get-tuple-element.14, %constant.376, %constant.376), dynamic_slice_sizes={1,32,53248}
  %convert.124 = bf16[1,32,53248]{2,1,0} convert(%dynamic-slice.16)
  %reshape.485 = bf16[32,53248]{1,0} reshape(%convert.124)
  %all-gather.4 = bf16[16384,53248]{1,0} all-gather(%reshape.485), channel_id=6, replica_groups=[1,512]<=[512], dimensions={0}, use_global_device_ids=true
  %dot.36 = bf16[1,8192,53248]{2,1,0} dot(%copy.52, %all-gather.4), lhs_contracting_dims={2}, rhs_contracting_dims={0}
  %constant.511 = bf16[] constant(1)
  %broadcast.461 = bf16[1,8192,53248]{2,1,0} broadcast(%constant.511), dimensions={}
  %negate.26 = bf16[1,8192,53248]{2,1,0} negate(%dot.36)
  %exponential.4 = bf16[1,8192,53248]{2,1,0} exponential(%negate.26)
  %add.65 = bf16[1,8192,53248]{2,1,0} add(%exponential.4, %broadcast.461)
  %divide.48 = bf16[1,8192,53248]{2,1,0} divide(%broadcast.461, %add.65)
  %multiply.174 = bf16[1,8192,53248]{2,1,0} multiply(%dot.36, %divide.48)
  %get-tuple-element.36 = f32[126,32,53248]{2,1,0} get-tuple-element(%param.1), index=4
  %dynamic-slice.17 = f32[1,32,53248]{2,1,0} dynamic-slice(%get-tuple-element.36, %get-tuple-element.14, %constant.376, %constant.376), dynamic_slice_sizes={1,32,53248}
  %convert.125 = bf16[1,32,53248]{2,1,0} convert(%dynamic-slice.17)
  %reshape.486 = bf16[32,53248]{1,0} reshape(%convert.125)
  %all-gather.5 = bf16[16384,53248]{1,0} all-gather(%reshape.486), channel_id=7, replica_groups=[1,512]<=[512], dimensions={0}, use_global_device_ids=true
  %dot.37 = bf16[1,8192,53248]{2,1,0} dot(%copy.52, %all-gather.5), lhs_contracting_dims={2}, rhs_contracting_dims={0}
  %multiply.175 = bf16[1,8192,53248]{2,1,0} multiply(%multiply.174, %dot.37)
  %copy.53 = bf16[1,8192,53248]{2,1,0} copy(%multiply.175)
  %get-tuple-element.37 = f32[126,53248,32]{2,1,0} get-tuple-element(%param.1), index=5
  %dynamic-slice.18 = f32[1,53248,32]{2,1,0} dynamic-slice(%get-tuple-element.37, %get-tuple-element.14, %constant.376, %constant.376), dynamic_slice_sizes={1,53248,32}
  %convert.126 = bf16[1,53248,32]{2,1,0} convert(%dynamic-slice.18)
  %reshape.487 = bf16[53248,32]{1,0} reshape(%convert.126)
  %all-gather.6 = bf16[53248,16384]{1,0} all-gather(%reshape.487), channel_id=8, replica_groups=[1,512]<=[512], dimensions={1}, use_global_device_ids=true
  %dot.38 = bf16[1,8192,16384]{2,1,0} dot(%copy.53, %all-gather.6), lhs_contracting_dims={2}, rhs_contracting_dims={0}
  %copy.54 = bf16[1,8192,16384]{2,1,0} copy(%dot.38)
  %add.66 = bf16[1,8192,16384]{2,1,0} add(%copy.54, %add.63)
  %copy.55 = bf16[1,8192,16384]{2,1,0} copy(%add.66)
  %get-tuple-element.38 = bf16[126,1,8192,16384]{3,2,1,0} get-tuple-element(%param.1), index=2
  %reshape.488 = bf16[1,1,8192,16384]{3,2,1,0} reshape(%get-tuple-element.15)
  %dynamic-update-slice = bf16[126,1,8192,16384]{3,2,1,0} dynamic-update-slice(%get-tuple-element.38, %reshape.488, %get-tuple-element.14, %constant.376, %constant.376, /*index=5*/%constant.376)
  ROOT %tuple.4 = (s32[], bf16[1,8192,16384]{2,1,0}, bf16[126,1,8192,16384]{3,2,1,0}, f32[126,32,53248]{2,1,0}, f32[126,32,53248]{2,1,0}, /*index=5*/f32[126,53248,32]{2,1,0}, f32[126,16384]{1,0}, f32[126,16384]{1,0}, f32[126,32,8,128]{3,2,1,0}, f32[126,128,128,32]{3,2,1,0}, /*index=10*/f32[126,32,128,128]{3,2,1,0}, f32[126,32,8,128]{3,2,1,0}, f32[1,8192,1,128]{3,2,1,0}, s32[1,8192,128,128]{3,2,1,0}, f32[1,8192,1,128]{3,2,1,0}, /*index=15*/f32[1,1,1,128]{3,2,1,0}, f32[1,8192,1,128]{3,2,1,0}, s32[1,8192,8,128]{3,2,1,0}, f32[1,8192,1,128]{3,2,1,0}, f32[1,1,1,128]{3,2,1,0}, /*index=20*/s32[1,1]{1,0}, s32[1,1]{1,0}) tuple(%add.57, %copy.55, %dynamic-update-slice, %get-tuple-element.35, %get-tuple-element.36, /*index=5*/%get-tuple-element.37, %get-tuple-element.34, %get-tuple-element.16, %get-tuple-element.22, %get-tuple-element.33, /*index=10*/%get-tuple-element.17, %get-tuple-element.27, %get-tuple-element.18, %get-tuple-element.19, %get-tuple-element.20, /*index=15*/%get-tuple-element.21, %get-tuple-element.23, %get-tuple-element.24, %get-tuple-element.25, %get-tuple-element.26, /*index=20*/%get-tuple-element.28, %get-tuple-element.29)
}

%region_6.658_spmd (param: (s32[], bf16[1,8192,16384], bf16[126,1,8192,16384], f32[126,32,53248], f32[126,32,53248], /*index=5*/f32[126,53248,32], f32[126,16384], f32[126,16384], f32[126,32,8,128], f32[126,128,128,32], /*index=10*/f32[126,32,128,128], f32[126,32,8,128], f32[1,8192,1,128], s32[1,8192,128,128], f32[1,8192,1,128], /*index=15*/f32[1,1,1,128], f32[1,8192,1,128], s32[1,8192,8,128], f32[1,8192,1,128], f32[1,1,1,128], /*index=20*/s32[1,1], s32[1,1])) -> pred[] {
  %param = (s32[], bf16[1,8192,16384]{2,1,0}, bf16[126,1,8192,16384]{3,2,1,0}, f32[126,32,53248]{2,1,0}, f32[126,32,53248]{2,1,0}, /*index=5*/f32[126,53248,32]{2,1,0}, f32[126,16384]{1,0}, f32[126,16384]{1,0}, f32[126,32,8,128]{3,2,1,0}, f32[126,128,128,32]{3,2,1,0}, /*index=10*/f32[126,32,128,128]{3,2,1,0}, f32[126,32,8,128]{3,2,1,0}, f32[1,8192,1,128]{3,2,1,0}, s32[1,8192,128,128]{3,2,1,0}, f32[1,8192,1,128]{3,2,1,0}, /*index=15*/f32[1,1,1,128]{3,2,1,0}, f32[1,8192,1,128]{3,2,1,0}, s32[1,8192,8,128]{3,2,1,0}, f32[1,8192,1,128]{3,2,1,0}, f32[1,1,1,128]{3,2,1,0}, /*index=20*/s32[1,1]{1,0}, s32[1,1]{1,0}) parameter(0)
  %get-tuple-element.13 = s32[] get-tuple-element(%param), index=0
  %constant.368 = s32[] constant(126)
  ROOT %compare.72 = pred[] compare(%get-tuple-element.13, %constant.368), direction=LT
}

%region_7.670 (Arg_0.667: f32[], Arg_1.668: f32[]) -> f32[] {
  %Arg_0.667 = f32[] parameter(0)
  %Arg_1.668 = f32[] parameter(1)
  ROOT %add.669 = f32[] add(%Arg_0.667, %Arg_1.668)
}

%region_12.756 (Arg_0.753: s32[], Arg_1.754: s32[]) -> s32[] {
  %Arg_0.753 = s32[] parameter(0)
  %Arg_1.754 = s32[] parameter(1)
  ROOT %add.755 = s32[] add(%Arg_0.753, %Arg_1.754)
}

%region_12.756.clone (Arg_0.6: s32[], Arg_1.6: s32[]) -> s32[] {
  %Arg_0.6 = s32[] parameter(0)
  %Arg_1.6 = s32[] parameter(1)
  ROOT %add.67 = s32[] add(%Arg_0.6, %Arg_1.6)
}

%region_8.710 (Arg_0.707: f32[], Arg_1.708: f32[]) -> f32[] {
  %Arg_0.707 = f32[] parameter(0)
  %Arg_1.708 = f32[] parameter(1)
  ROOT %maximum.709 = f32[] maximum(%Arg_0.707, %Arg_1.708)
}

%region_9.721 (Arg_0.718: f32[], Arg_1.719: f32[]) -> f32[] {
  %Arg_0.718 = f32[] parameter(0)
  %Arg_1.719 = f32[] parameter(1)
  ROOT %add.720 = f32[] add(%Arg_0.718, %Arg_1.719)
}

%region_13.792 (Arg_0.789: bf16[], Arg_1.790: bf16[]) -> bf16[] {
  %Arg_0.789 = bf16[] parameter(0)
  %Arg_1.790 = bf16[] parameter(1)
  ROOT %add.791 = bf16[] add(%Arg_0.789, %Arg_1.790)
}

%region_13.792.clone (Arg_0.7: bf16[], Arg_1.7: bf16[]) -> bf16[] {
  %Arg_0.7 = bf16[] parameter(0)
  %Arg_1.7 = bf16[] parameter(1)
  ROOT %add.69 = bf16[] add(%Arg_0.7, %Arg_1.7)
}

%region_32.1564 (Arg_0.1561: f32[], Arg_1.1562: f32[]) -> f32[] {
  %Arg_0.1561 = f32[] parameter(0)
  %Arg_1.1562 = f32[] parameter(1)
  ROOT %add.1563 = f32[] add(%Arg_0.1561, %Arg_1.1562)
}

%region_15.810 (Arg_0.807: f32[], Arg_1.808: f32[]) -> f32[] {
  %Arg_0.807 = f32[] parameter(0)
  %Arg_1.808 = f32[] parameter(1)
  ROOT %add.809 = f32[] add(%Arg_0.807, %Arg_1.808)
}

%region_18.951 (Arg_0.948: f32[], Arg_1.949: f32[]) -> f32[] {
  %Arg_0.948 = f32[] parameter(0)
  %Arg_1.949 = f32[] parameter(1)
  ROOT %add.950 = f32[] add(%Arg_0.948, %Arg_1.949)
}

%region_19.1195 (Arg_0.1192: s32[], Arg_1.1193: s32[]) -> s32[] {
  %Arg_0.1192 = s32[] parameter(0)
  %Arg_1.1193 = s32[] parameter(1)
  ROOT %add.1194 = s32[] add(%Arg_0.1192, %Arg_1.1193)
}

%region_20.1203 (Arg_0.1200: s32[], Arg_1.1201: s32[]) -> s32[] {
  %Arg_0.1200 = s32[] parameter(0)
  %Arg_1.1201 = s32[] parameter(1)
  ROOT %add.1202 = s32[] add(%Arg_0.1200, %Arg_1.1201)
}

%region_21.1208 (Arg_0.1205: s32[], Arg_1.1206: s32[]) -> s32[] {
  %Arg_0.1205 = s32[] parameter(0)
  %Arg_1.1206 = s32[] parameter(1)
  ROOT %maximum.1207 = s32[] maximum(%Arg_0.1205, %Arg_1.1206)
}

%region_0.61._custom_call_lowering_rule.1 (Arg_0.8: s32[], Arg_1.8: s32[], Arg_2.4: s32[], Arg_3.0: s32[]) -> pred[] {
  %Arg_2.4 = s32[] parameter(2)
  %Arg_3.0 = s32[] parameter(3)
  %Arg_0.8 = s32[] parameter(0)
  %Arg_1.8 = s32[] parameter(1)
  ROOT %compare.94 = pred[] compare(%Arg_0.8, %Arg_1.8), direction=LT
}

%region_1.74._custom_call_lowering_rule.1 (Arg_0.9: s32[], Arg_1.9: s32[]) -> s32[] {
  %Arg_0.9 = s32[] parameter(0)
  %Arg_1.9 = s32[] parameter(1)
  ROOT %add.70 = s32[] add(%Arg_0.9, %Arg_1.9)
}

%region_5.170._custom_call_lowering_rule.1 (Arg_0.10: s32[], Arg_1.10: s32[]) -> s32[] {
  %Arg_0.10 = s32[] parameter(0)
  ROOT %Arg_1.10 = s32[] parameter(1)
}

%region_2.82._custom_call_lowering_rule.1 (Arg_0.11: pred[], Arg_1.11: pred[]) -> pred[] {
  %Arg_0.11 = pred[] parameter(0)
  ROOT %Arg_1.11 = pred[] parameter(1)
}

%region_3.91._custom_call_lowering_rule.1 (Arg_0.12: s32[], Arg_1.12: s32[]) -> s32[] {
  %Arg_0.12 = s32[] parameter(0)
  %Arg_1.12 = s32[] parameter(1)
  ROOT %add.71 = s32[] add(%Arg_0.12, %Arg_1.12)
}

%region_4.110._custom_call_lowering_rule.1 (Arg_0.13: s32[], Arg_1.13: s32[]) -> s32[] {
  %Arg_0.13 = s32[] parameter(0)
  %Arg_1.13 = s32[] parameter(1)
  ROOT %add.72 = s32[] add(%Arg_0.13, %Arg_1.13)
}

%region_6.178._custom_call_lowering_rule.1 (Arg_0.14: s32[], Arg_1.14: s32[]) -> s32[] {
  %Arg_0.14 = s32[] parameter(0)
  ROOT %Arg_1.14 = s32[] parameter(1)
}

%region_11.232._custom_call_lowering_rule.1 (Arg_0.19: s32[], Arg_1.19: s32[]) -> s32[] {
  %Arg_0.19 = s32[] parameter(0)
  ROOT %Arg_1.19 = s32[] parameter(1)
}

%region_22.1225 (Arg_0.1222: f32[], Arg_1.1223: f32[]) -> f32[] {
  %Arg_0.1222 = f32[] parameter(0)
  %Arg_1.1223 = f32[] parameter(1)
  ROOT %add.1224 = f32[] add(%Arg_0.1222, %Arg_1.1223)
}

%region_25.1319 (Arg_0.1316: f32[], Arg_1.1317: f32[]) -> f32[] {
  %Arg_0.1316 = f32[] parameter(0)
  %Arg_1.1317 = f32[] parameter(1)
  ROOT %add.1318 = f32[] add(%Arg_0.1316, %Arg_1.1317)
}

%region_29.1453 (Arg_0.1450: f32[], Arg_1.1451: f32[]) -> f32[] {
  %Arg_0.1450 = f32[] parameter(0)
  %Arg_1.1451 = f32[] parameter(1)
  ROOT %add.1452 = f32[] add(%Arg_0.1450, %Arg_1.1451)
=======
HloModule jit_train_step, input_output_alias={ {0}: (0, {}, may-alias), {1}: (1, {}, may-alias), {2}: (2, {}, may-alias), {3}: (3, {}, may-alias), {4}: (4, {}, may-alias), {5}: (5, {}, may-alias), {6}: (6, {}, may-alias), {7}: (7, {}, may-alias), {8}: (8, {}, may-alias), {9}: (9, {}, may-alias), {10}: (10, {}, may-alias), {11}: (11, {}, may-alias), {12}: (12, {}, may-alias), {13}: (13, {}, may-alias), {14}: (14, {}, may-alias), {15}: (15, {}, may-alias), {16}: (16, {}, may-alias), {17}: (17, {}, may-alias), {18}: (18, {}, may-alias), {19}: (19, {}, may-alias), {20}: (20, {}, may-alias), {21}: (21, {}, may-alias), {22}: (22, {}, may-alias), {23}: (23, {}, may-alias), {24}: (24, {}, may-alias), {25}: (25, {}, may-alias), {26}: (26, {}, may-alias), {27}: (27, {}, may-alias), {28}: (28, {}, may-alias), {29}: (29, {}, may-alias), {30}: (30, {}, may-alias), {31}: (31, {}, may-alias), {32}: (32, {}, may-alias), {33}: (33, {}, may-alias), {34}: (34, {}, may-alias), {35}: (35, {}, may-alias), {36}: (36, {}, may-alias), {37}: (37, {}, may-alias), {38}: (38, {}, may-alias) }, entry_computation_layout={(s32[], f32[16384]{0}, f32[32,126,53248]{2,1,0}, f32[32,126,53248]{2,1,0}, f32[53248,126,32]{2,1,0}, /*index=5*/f32[16384,126]{1,0}, f32[16384,126]{1,0}, f32[32,126,8,128]{3,2,1,0}, f32[128,126,128,32]{3,2,1,0}, f32[32,126,128,128]{3,2,1,0}, /*index=10*/f32[32,126,8,128]{3,2,1,0}, f32[32,128256]{1,0}, f32[128256,32]{1,0}, s32[], f32[16384]{0}, /*index=15*/f32[32,126,53248]{2,1,0}, f32[32,126,53248]{2,1,0}, f32[53248,126,32]{2,1,0}, f32[16384,126]{1,0}, f32[16384,126]{1,0}, /*index=20*/f32[32,126,8,128]{3,2,1,0}, f32[128,126,128,32]{3,2,1,0}, f32[32,126,128,128]{3,2,1,0}, f32[32,126,8,128]{3,2,1,0}, f32[32,128256]{1,0}, /*index=25*/f32[128256,32]{1,0}, f32[16384]{0}, f32[32,126,53248]{2,1,0}, f32[32,126,53248]{2,1,0}, f32[53248,126,32]{2,1,0}, /*index=30*/f32[16384,126]{1,0}, f32[16384,126]{1,0}, f32[32,126,8,128]{3,2,1,0}, f32[128,126,128,32]{3,2,1,0}, f32[32,126,128,128]{3,2,1,0}, /*index=35*/f32[32,126,8,128]{3,2,1,0}, f32[32,128256]{1,0}, f32[128256,32]{1,0}, s32[], s32[1,8192]{1,0}, /*index=40*/s32[1,8192]{1,0}, s32[1,8192]{1,0}, s32[1,8192]{1,0}, s32[1,8192]{1,0})->(s32[], f32[16384]{0}, f32[32,126,53248]{2,1,0}, f32[32,126,53248]{2,1,0}, f32[53248,126,32]{2,1,0}, /*index=5*/f32[16384,126]{1,0}, f32[16384,126]{1,0}, f32[32,126,8,128]{3,2,1,0}, f32[128,126,128,32]{3,2,1,0}, f32[32,126,128,128]{3,2,1,0}, /*index=10*/f32[32,126,8,128]{3,2,1,0}, f32[32,128256]{1,0}, f32[128256,32]{1,0}, s32[], f32[16384]{0}, /*index=15*/f32[32,126,53248]{2,1,0}, f32[32,126,53248]{2,1,0}, f32[53248,126,32]{2,1,0}, f32[16384,126]{1,0}, f32[16384,126]{1,0}, /*index=20*/f32[32,126,8,128]{3,2,1,0}, f32[128,126,128,32]{3,2,1,0}, f32[32,126,128,128]{3,2,1,0}, f32[32,126,8,128]{3,2,1,0}, f32[32,128256]{1,0}, /*index=25*/f32[128256,32]{1,0}, f32[16384]{0}, f32[32,126,53248]{2,1,0}, f32[32,126,53248]{2,1,0}, f32[53248,126,32]{2,1,0}, /*index=30*/f32[16384,126]{1,0}, f32[16384,126]{1,0}, f32[32,126,8,128]{3,2,1,0}, f32[128,126,128,32]{3,2,1,0}, f32[32,126,128,128]{3,2,1,0}, /*index=35*/f32[32,126,8,128]{3,2,1,0}, f32[32,128256]{1,0}, f32[128256,32]{1,0}, s32[], f32[], /*index=40*/f32[], f32[], f32[], f32[], f32[], /*index=45*/s32[])}

%region_62.1788 (reduce_sum.1785: f32[], reduce_sum.1786: f32[]) -> f32[] {
  %reduce_sum.1785 = f32[] parameter(0)
  %reduce_sum.1786 = f32[] parameter(1)
  ROOT %reduce_sum.1787 = f32[] add(%reduce_sum.1785, %reduce_sum.1786)
}

%region_63.1794 (reduce_sum.1791: f32[], reduce_sum.1792: f32[]) -> f32[] {
  %reduce_sum.1791 = f32[] parameter(0)
  %reduce_sum.1792 = f32[] parameter(1)
  ROOT %reduce_sum.1793 = f32[] add(%reduce_sum.1791, %reduce_sum.1792)
}

%region_64.1801 (reduce_sum.1798: f32[], reduce_sum.1799: f32[]) -> f32[] {
  %reduce_sum.1798 = f32[] parameter(0)
  %reduce_sum.1799 = f32[] parameter(1)
  ROOT %reduce_sum.1800 = f32[] add(%reduce_sum.1798, %reduce_sum.1799)
}

%region_65.1808 (reduce_sum.1805: f32[], reduce_sum.1806: f32[]) -> f32[] {
  %reduce_sum.1805 = f32[] parameter(0)
  %reduce_sum.1806 = f32[] parameter(1)
  ROOT %reduce_sum.1807 = f32[] add(%reduce_sum.1805, %reduce_sum.1806)
}

%region_66.1815 (reduce_sum.1812: f32[], reduce_sum.1813: f32[]) -> f32[] {
  %reduce_sum.1812 = f32[] parameter(0)
  %reduce_sum.1813 = f32[] parameter(1)
  ROOT %reduce_sum.1814 = f32[] add(%reduce_sum.1812, %reduce_sum.1813)
}

%region_67.1822 (reduce_sum.1819: f32[], reduce_sum.1820: f32[]) -> f32[] {
  %reduce_sum.1819 = f32[] parameter(0)
  %reduce_sum.1820 = f32[] parameter(1)
  ROOT %reduce_sum.1821 = f32[] add(%reduce_sum.1819, %reduce_sum.1820)
}

%region_68.1829 (reduce_sum.1826: f32[], reduce_sum.1827: f32[]) -> f32[] {
  %reduce_sum.1826 = f32[] parameter(0)
  %reduce_sum.1827 = f32[] parameter(1)
  ROOT %reduce_sum.1828 = f32[] add(%reduce_sum.1826, %reduce_sum.1827)
}

%region_69.1836 (reduce_sum.1833: f32[], reduce_sum.1834: f32[]) -> f32[] {
  %reduce_sum.1833 = f32[] parameter(0)
  %reduce_sum.1834 = f32[] parameter(1)
  ROOT %reduce_sum.1835 = f32[] add(%reduce_sum.1833, %reduce_sum.1834)
}

%region_70.1843 (reduce_sum.1840: f32[], reduce_sum.1841: f32[]) -> f32[] {
  %reduce_sum.1840 = f32[] parameter(0)
  %reduce_sum.1841 = f32[] parameter(1)
  ROOT %reduce_sum.1842 = f32[] add(%reduce_sum.1840, %reduce_sum.1841)
}

%region_71.1850 (reduce_sum.1847: f32[], reduce_sum.1848: f32[]) -> f32[] {
  %reduce_sum.1847 = f32[] parameter(0)
  %reduce_sum.1848 = f32[] parameter(1)
  ROOT %reduce_sum.1849 = f32[] add(%reduce_sum.1847, %reduce_sum.1848)
}

%region_72.1857 (reduce_sum.1854: f32[], reduce_sum.1855: f32[]) -> f32[] {
  %reduce_sum.1854 = f32[] parameter(0)
  %reduce_sum.1855 = f32[] parameter(1)
  ROOT %reduce_sum.1856 = f32[] add(%reduce_sum.1854, %reduce_sum.1855)
}

%region_73.1864 (reduce_sum.1861: f32[], reduce_sum.1862: f32[]) -> f32[] {
  %reduce_sum.1861 = f32[] parameter(0)
  %reduce_sum.1862 = f32[] parameter(1)
  ROOT %reduce_sum.1863 = f32[] add(%reduce_sum.1861, %reduce_sum.1862)
}

%region_0.232 (reduce_sum.229: s32[], reduce_sum.230: s32[]) -> s32[] {
  %reduce_sum.229 = s32[] parameter(0)
  %reduce_sum.230 = s32[] parameter(1)
  ROOT %reduce_sum.231 = s32[] add(%reduce_sum.229, %reduce_sum.230)
}

%region_1.241 (reduce_sum.238: s32[], reduce_sum.239: s32[]) -> s32[] {
  %reduce_sum.238 = s32[] parameter(0)
  %reduce_sum.239 = s32[] parameter(1)
  ROOT %reduce_sum.240 = s32[] add(%reduce_sum.238, %reduce_sum.239)
}

%region_2.248 (reduce_max.245: s32[], reduce_max.246: s32[]) -> s32[] {
  %reduce_max.245 = s32[] parameter(0)
  %reduce_max.246 = s32[] parameter(1)
  ROOT %reduce_max.247 = s32[] maximum(%reduce_max.245, %reduce_max.246)
}

%region_4.282 (reduce_sum.279: f32[], reduce_sum.280: f32[]) -> f32[] {
  %reduce_sum.279 = f32[] parameter(0)
  %reduce_sum.280 = f32[] parameter(1)
  ROOT %reduce_sum.281 = f32[] add(%reduce_sum.279, %reduce_sum.280)
}

%region_5.382 (reduce_sum.379: f32[], reduce_sum.380: f32[]) -> f32[] {
  %reduce_sum.379 = f32[] parameter(0)
  %reduce_sum.380 = f32[] parameter(1)
  ROOT %reduce_sum.381 = f32[] add(%reduce_sum.379, %reduce_sum.380)
}

%region_3.423_spmd (param: (s32[], bf16[1,8192,16384], bf16[126,1,8192,16384], f32[126,16384], f32[126,32,128,128], /*index=5*/f32[1,8192,1,128], s32[1,8192,128,128], f32[1,8192,1,128], f32[1,1,1,128], f32[126,32,8,128], /*index=10*/f32[1,8192,1,128], s32[1,8192,8,128], f32[1,8192,1,128], f32[1,1,1,128], f32[126,32,8,128], /*index=15*/s32[1,1], s32[1,1], f32[126,128,128,32], f32[126,16384], f32[126,32,53248], /*index=20*/f32[126,32,53248], f32[126,53248,32])) -> (s32[], bf16[1,8192,16384], bf16[126,1,8192,16384], f32[126,16384], f32[126,32,128,128], /*index=5*/f32[1,8192,1,128], s32[1,8192,128,128], f32[1,8192,1,128], f32[1,1,1,128], f32[126,32,8,128], /*index=10*/f32[1,8192,1,128], s32[1,8192,8,128], f32[1,8192,1,128], f32[1,1,1,128], f32[126,32,8,128], /*index=15*/s32[1,1], s32[1,1], f32[126,128,128,32], f32[126,16384], f32[126,32,53248], /*index=20*/f32[126,32,53248], f32[126,53248,32]) {
  %param = (s32[], bf16[1,8192,16384]{2,1,0}, bf16[126,1,8192,16384]{3,2,1,0}, f32[126,16384]{1,0}, f32[126,32,128,128]{3,2,1,0}, /*index=5*/f32[1,8192,1,128]{3,2,1,0}, s32[1,8192,128,128]{3,2,1,0}, f32[1,8192,1,128]{3,2,1,0}, f32[1,1,1,128]{3,2,1,0}, f32[126,32,8,128]{3,2,1,0}, /*index=10*/f32[1,8192,1,128]{3,2,1,0}, s32[1,8192,8,128]{3,2,1,0}, f32[1,8192,1,128]{3,2,1,0}, f32[1,1,1,128]{3,2,1,0}, f32[126,32,8,128]{3,2,1,0}, /*index=15*/s32[1,1]{1,0}, s32[1,1]{1,0}, f32[126,128,128,32]{3,2,1,0}, f32[126,16384]{1,0}, f32[126,32,53248]{2,1,0}, /*index=20*/f32[126,32,53248]{2,1,0}, f32[126,53248,32]{2,1,0}) parameter(0)
  %get-tuple-element.5 = s32[] get-tuple-element(%param), index=0
  %constant.254 = s32[] constant(1)
  %add.74 = s32[] add(%get-tuple-element.5, %constant.254)
  %get-tuple-element.6 = bf16[1,8192,16384]{2,1,0} get-tuple-element(%param), index=1
  %sharding_constraint.38 = bf16[1,8192,16384]{2,1,0} copy(%get-tuple-element.6)
  %convert_element_type.118 = f32[1,8192,16384]{2,1,0} convert(%sharding_constraint.38)
  %square.6 = f32[1,8192,16384]{2,1,0} multiply(%convert_element_type.118, %convert_element_type.118)
  %constant.255 = f32[] constant(0)
  %reduce.4 = f32[1,8192]{1,0} reduce(%square.6, %constant.255), dimensions={2}, to_apply=%region_4.282
  %constant.256 = f32[] constant(6.10351562e-05)
  %closed_call.0 = f32[1,8192]{1,0} broadcast(%constant.256), dimensions={}
  %div.44 = f32[1,8192]{1,0} multiply(%reduce.4, %closed_call.0)
  %constant.257 = f32[] constant(1e-05)
  %closed_call.1 = f32[1,8192]{1,0} broadcast(%constant.257), dimensions={}
  %add.75 = f32[1,8192]{1,0} add(%div.44, %closed_call.1)
  %rsqrt.6 = f32[1,8192]{1,0} rsqrt(%add.75)
  %mul.229 = f32[1,8192,16384]{2,1,0} broadcast(%rsqrt.6), dimensions={0,1}
  %mul.230 = f32[1,8192,16384]{2,1,0} multiply(%convert_element_type.118, %mul.229)
  %convert_element_type.119 = bf16[1,8192,16384]{2,1,0} convert(%mul.230)
  %get-tuple-element.7 = f32[126,16384]{1,0} get-tuple-element(%param), index=3
  %constant.258 = s32[] constant(0)
  %dynamic_slice.0 = f32[1,16384]{1,0} dynamic-slice(%get-tuple-element.7, %get-tuple-element.5, %constant.258), dynamic_slice_sizes={1,16384}
  %convert_element_type.120 = bf16[1,16384]{1,0} convert(%dynamic_slice.0)
  %mul.231 = bf16[16384]{0} reshape(%convert_element_type.120)
  %mul.232 = bf16[1,8192,16384]{2,1,0} broadcast(%mul.231), dimensions={2}
  %mul.233 = bf16[1,8192,16384]{2,1,0} multiply(%convert_element_type.119, %mul.232)
  %sharding_constraint.39 = bf16[1,8192,16384]{2,1,0} copy(%mul.233)
  %sharding_constraint.40 = bf16[1,8192,16384]{2,1,0} copy(%sharding_constraint.39)
  %get-tuple-element.8 = f32[126,32,128,128]{3,2,1,0} get-tuple-element(%param), index=4
  %dynamic-slice = f32[1,32,128,128]{3,2,1,0} dynamic-slice(%get-tuple-element.8, %get-tuple-element.5, %constant.258, %constant.258, %constant.258), dynamic_slice_sizes={1,32,128,128}
  %convert_element_type.121 = bf16[1,32,128,128]{3,2,1,0} convert(%dynamic-slice)
  %convert_element_type.122 = bf16[32,128,128]{2,1,0} reshape(%convert_element_type.121)
  %all-gather = bf16[16384,128,128]{2,1,0} all-gather(%convert_element_type.122), channel_id=1, replica_groups=[1,512]<=[512], dimensions={0}, use_global_device_ids=true
  %dot.5 = bf16[1,8192,128,128]{3,2,1,0} dot(%sharding_constraint.40, %all-gather), lhs_contracting_dims={2}, rhs_contracting_dims={0}
  %convert_element_type.124 = f32[1,8192,128,128]{3,2,1,0} convert(%dot.5)
  %get-tuple-element.9 = f32[1,8192,1,128]{3,2,1,0} get-tuple-element(%param), index=5
  %mul.234 = f32[1,8192,128]{2,1,0} reshape(%get-tuple-element.9)
  %mul.235 = f32[1,8192,128,128]{3,2,1,0} broadcast(%mul.234), dimensions={0,1,3}
  %mul.236 = f32[1,8192,128,128]{3,2,1,0} multiply(%convert_element_type.124, %mul.235)
  %get-tuple-element.10 = s32[1,8192,128,128]{3,2,1,0} get-tuple-element(%param), index=6
  %select_n.56 = s32[1,8192,128,128]{3,2,1,0} broadcast(%constant.254), dimensions={}
  %select_n.57 = pred[1,8192,128,128]{3,2,1,0} compare(%get-tuple-element.10, %select_n.56), direction=LT
  %slice.17 = bf16[1,8192,128,127]{3,2,1,0} slice(%dot.5), slice={[0:1], [0:8192], [0:128], [1:128]}
  %slice.18 = bf16[1,8192,128,1]{3,2,1,0} slice(%dot.5), slice={[0:1], [0:8192], [0:128], [0:1]}
  %concatenate.8 = bf16[1,8192,128,128]{3,2,1,0} concatenate(%slice.17, %slice.18), dimensions={3}
  %slice.19 = bf16[1,8192,128,1]{3,2,1,0} slice(%dot.5), slice={[0:1], [0:8192], [0:128], [127:128]}
  %slice.20 = bf16[1,8192,128,127]{3,2,1,0} slice(%dot.5), slice={[0:1], [0:8192], [0:128], [0:127]}
  %concatenate.9 = bf16[1,8192,128,128]{3,2,1,0} concatenate(%slice.19, %slice.20), dimensions={3}
  %select_n.58 = bf16[1,8192,128,128]{3,2,1,0} select(%select_n.57, %concatenate.8, %concatenate.9)
  %convert_element_type.125 = f32[1,8192,128,128]{3,2,1,0} convert(%select_n.58)
  %get-tuple-element.11 = f32[1,8192,1,128]{3,2,1,0} get-tuple-element(%param), index=7
  %mul.237 = f32[1,8192,128]{2,1,0} reshape(%get-tuple-element.11)
  %mul.238 = f32[1,8192,128,128]{3,2,1,0} broadcast(%mul.237), dimensions={0,1,3}
  %mul.239 = f32[1,8192,128,128]{3,2,1,0} multiply(%convert_element_type.125, %mul.238)
  %get-tuple-element.12 = f32[1,1,1,128]{3,2,1,0} get-tuple-element(%param), index=8
  %mul.240 = f32[128]{0} reshape(%get-tuple-element.12)
  %mul.241 = f32[1,8192,128,128]{3,2,1,0} broadcast(%mul.240), dimensions={3}
  %mul.242 = f32[1,8192,128,128]{3,2,1,0} multiply(%mul.239, %mul.241)
  %add.76 = f32[1,8192,128,128]{3,2,1,0} add(%mul.236, %mul.242)
  %convert_element_type.126 = bf16[1,8192,128,128]{3,2,1,0} convert(%add.76)
  %sharding_constraint.41 = bf16[1,8192,128,128]{3,2,1,0} copy(%convert_element_type.126)
  %get-tuple-element.13 = f32[126,32,8,128]{3,2,1,0} get-tuple-element(%param), index=9
  %dynamic-slice.5 = f32[1,32,8,128]{3,2,1,0} dynamic-slice(%get-tuple-element.13, %get-tuple-element.5, %constant.258, %constant.258, %constant.258), dynamic_slice_sizes={1,32,8,128}
  %convert_element_type.127 = bf16[1,32,8,128]{3,2,1,0} convert(%dynamic-slice.5)
  %convert_element_type.128 = bf16[32,8,128]{2,1,0} reshape(%convert_element_type.127)
  %all-gather.1 = bf16[16384,8,128]{2,1,0} all-gather(%convert_element_type.128), channel_id=2, replica_groups=[1,512]<=[512], dimensions={0}, use_global_device_ids=true
  %dot.6 = bf16[1,8192,8,128]{3,2,1,0} dot(%sharding_constraint.40, %all-gather.1), lhs_contracting_dims={2}, rhs_contracting_dims={0}
  %convert_element_type.129 = f32[1,8192,8,128]{3,2,1,0} convert(%dot.6)
  %get-tuple-element.14 = f32[1,8192,1,128]{3,2,1,0} get-tuple-element(%param), index=10
  %mul.243 = f32[1,8192,128]{2,1,0} reshape(%get-tuple-element.14)
  %mul.244 = f32[1,8192,8,128]{3,2,1,0} broadcast(%mul.243), dimensions={0,1,3}
  %mul.245 = f32[1,8192,8,128]{3,2,1,0} multiply(%convert_element_type.129, %mul.244)
  %get-tuple-element.15 = s32[1,8192,8,128]{3,2,1,0} get-tuple-element(%param), index=11
  %select_n.59 = s32[1,8192,8,128]{3,2,1,0} broadcast(%constant.254), dimensions={}
  %select_n.60 = pred[1,8192,8,128]{3,2,1,0} compare(%get-tuple-element.15, %select_n.59), direction=LT
  %slice.21 = bf16[1,8192,8,127]{3,2,1,0} slice(%dot.6), slice={[0:1], [0:8192], [0:8], [1:128]}
  %slice.22 = bf16[1,8192,8,1]{3,2,1,0} slice(%dot.6), slice={[0:1], [0:8192], [0:8], [0:1]}
  %concatenate.10 = bf16[1,8192,8,128]{3,2,1,0} concatenate(%slice.21, %slice.22), dimensions={3}
  %slice.23 = bf16[1,8192,8,1]{3,2,1,0} slice(%dot.6), slice={[0:1], [0:8192], [0:8], [127:128]}
  %slice.24 = bf16[1,8192,8,127]{3,2,1,0} slice(%dot.6), slice={[0:1], [0:8192], [0:8], [0:127]}
  %concatenate.11 = bf16[1,8192,8,128]{3,2,1,0} concatenate(%slice.23, %slice.24), dimensions={3}
  %select_n.61 = bf16[1,8192,8,128]{3,2,1,0} select(%select_n.60, %concatenate.10, %concatenate.11)
  %convert_element_type.130 = f32[1,8192,8,128]{3,2,1,0} convert(%select_n.61)
  %get-tuple-element.16 = f32[1,8192,1,128]{3,2,1,0} get-tuple-element(%param), index=12
  %mul.246 = f32[1,8192,128]{2,1,0} reshape(%get-tuple-element.16)
  %mul.247 = f32[1,8192,8,128]{3,2,1,0} broadcast(%mul.246), dimensions={0,1,3}
  %mul.248 = f32[1,8192,8,128]{3,2,1,0} multiply(%convert_element_type.130, %mul.247)
  %get-tuple-element.17 = f32[1,1,1,128]{3,2,1,0} get-tuple-element(%param), index=13
  %mul.249 = f32[128]{0} reshape(%get-tuple-element.17)
  %mul.250 = f32[1,8192,8,128]{3,2,1,0} broadcast(%mul.249), dimensions={3}
  %mul.251 = f32[1,8192,8,128]{3,2,1,0} multiply(%mul.248, %mul.250)
  %add.77 = f32[1,8192,8,128]{3,2,1,0} add(%mul.245, %mul.251)
  %convert_element_type.131 = bf16[1,8192,8,128]{3,2,1,0} convert(%add.77)
  %sharding_constraint.43 = bf16[1,8192,8,128]{3,2,1,0} copy(%convert_element_type.131)
  %get-tuple-element.18 = f32[126,32,8,128]{3,2,1,0} get-tuple-element(%param), index=14
  %dynamic-slice.10 = f32[1,32,8,128]{3,2,1,0} dynamic-slice(%get-tuple-element.18, %get-tuple-element.5, %constant.258, %constant.258, %constant.258), dynamic_slice_sizes={1,32,8,128}
  %convert_element_type.132 = bf16[1,32,8,128]{3,2,1,0} convert(%dynamic-slice.10)
  %convert_element_type.133 = bf16[32,8,128]{2,1,0} reshape(%convert_element_type.132)
  %all-gather.2 = bf16[16384,8,128]{2,1,0} all-gather(%convert_element_type.133), channel_id=3, replica_groups=[1,512]<=[512], dimensions={0}, use_global_device_ids=true
  %dot.7 = bf16[1,8192,8,128]{3,2,1,0} dot(%sharding_constraint.40, %all-gather.2), lhs_contracting_dims={2}, rhs_contracting_dims={0}
  %sharding_constraint.44 = bf16[1,8192,8,128]{3,2,1,0} copy(%dot.7)
  %constant.345 = bf16[0]{0} constant({})
  %constant.346 = u32[] constant(0)
  %reshape.349 = u32[1024]{0} broadcast(%constant.346), dimensions={}
  %constant.348 = s32[512]{0} constant({0, 2, 4, 6, 8, 10, 12, 14, 16, 18, 20, 22, 24, 26, 28, 30, 32, 34, 36, 38, 40, 42, 44, 46, 48, 50, 52, 54, 56, 58, 60, 62, 64, 66, 68, 70, 72, 74, 76, 78, 80, 82, 84, 86, 88, 90, 92, 94, 96, 98, 100, 102, 104, 106, 108, 110, 112, 114, 116, 118, 120, 122, 124, 126, 128, 130, 132, 134, 136, 138, 140, 142, 144, 146, 148, 150, 152, 154, 156, 158, 160, 162, 164, 166, 168, 170, 172, 174, 176, 178, 180, 182, 184, 186, 188, 190, 192, 194, 196, 198, 200, 202, 204, 206, 208, 210, 212, 214, 216, 218, 220, 222, 224, 226, 228, 230, 232, 234, 236, 238, 240, 242, 244, 246, 248, 250, 252, 254, 256, 258, 260, 262, 264, 266, 268, 270, 272, 274, 276, 278, 280, 282, 284, 286, 288, 290, 292, 294, 296, 298, 300, 302, 304, 306, 308, 310, 312, 314, 316, 318, 320, 322, 324, 326, 328, 330, 332, 334, 336, 338, 340, 342, 344, 346, 348, 350, 352, 354, 356, 358, 360, 362, 364, 366, 368, 370, 372, 374, 376, 378, 380, 382, 384, 386, 388, 390, 392, 394, 396, 398, 400, 402, 404, 406, 408, 410, 412, 414, 416, 418, 420, 422, 424, 426, 428, 430, 432, 434, 436, 438, 440, 442, 444, 446, 448, 450, 452, 454, 456, 458, 460, 462, 464, 466, 468, 470, 472, 474, 476, 478, 480, 482, 484, 486, 488, 490, 492, 494, 496, 498, 500, 502, 504, 506, 508, 510, 512, 514, 516, 518, 520, 522, 524, 526, 528, 530, 532, 534, 536, 538, 540, 542, 544, 546, 548, 550, 552, 554, 556, 558, 560, 562, 564, 566, 568, 570, 572, 574, 576, 578, 580, 582, 584, 586, 588, 590, 592, 594, 596, 598, 600, 602, 604, 606, 608, 610, 612, 614, 616, 618, 620, 622, 624, 626, 628, 630, 632, 634, 636, 638, 640, 642, 644, 646, 648, 650, 652, 654, 656, 658, 660, 662, 664, 666, 668, 670, 672, 674, 676, 678, 680, 682, 684, 686, 688, 690, 692, 694, 696, 698, 700, 702, 704, 706, 708, 710, 712, 714, 716, 718, 720, 722, 724, 726, 728, 730, 732, 734, 736, 738, 740, 742, 744, 746, 748, 750, 752, 754, 756, 758, 760, 762, 764, 766, 768, 770, 772, 774, 776, 778, 780, 782, 784, 786, 788, 790, 792, 794, 796, 798, 800, 802, 804, 806, 808, 810, 812, 814, 816, 818, 820, 822, 824, 826, 828, 830, 832, 834, 836, 838, 840, 842, 844, 846, 848, 850, 852, 854, 856, 858, 860, 862, 864, 866, 868, 870, 872, 874, 876, 878, 880, 882, 884, 886, 888, 890, 892, 894, 896, 898, 900, 902, 904, 906, 908, 910, 912, 914, 916, 918, 920, 922, 924, 926, 928, 930, 932, 934, 936, 938, 940, 942, 944, 946, 948, 950, 952, 954, 956, 958, 960, 962, 964, 966, 968, 970, 972, 974, 976, 978, 980, 982, 984, 986, 988, 990, 992, 994, 996, 998, 1000, 1002, 1004, 1006, 1008, 1010, 1012, 1014, 1016, 1018, 1020, 1022})
  %partition-id = u32[] partition-id()
  %dynamic-slice.11 = s32[1]{0} dynamic-slice(%constant.348, %partition-id), dynamic_slice_sizes={1}
  %reshape.350 = s32[] reshape(%dynamic-slice.11)
  %dynamic-slice.12 = u32[2]{0} dynamic-slice(%reshape.349, %reshape.350), dynamic_slice_sizes={2}
  %constant.349 = s32[1]{0} constant({0})
  %get-tuple-element.19 = s32[1,1]{1,0} get-tuple-element(%param), index=15
  %reshape.351 = s32[1]{0} reshape(%get-tuple-element.19)
  %lt.18 = pred[1]{0} compare(%reshape.351, %constant.349), direction=LT
  %broadcast_in_dim.46 = s32[1]{0} reshape(%constant.258)
  %select_n.62 = s32[1]{0} select(%lt.18, %broadcast_in_dim.46, %reshape.351)
  %concatenate.31 = s32[2]{0} concatenate(%constant.349, %select_n.62), dimensions={0}
  %get-tuple-element.20 = s32[1,1]{1,0} get-tuple-element(%param), index=16
  %reshape.352 = s32[1]{0} reshape(%get-tuple-element.20)
  %lt.33 = pred[1]{0} compare(%reshape.352, %constant.349), direction=LT
  %select_n.63 = s32[1]{0} select(%lt.33, %broadcast_in_dim.46, %reshape.352)
  %concatenate.36 = s32[2]{0} concatenate(%constant.349, %select_n.63), dimensions={0}
  %constant.347 = f32[0]{0} constant({})
  %te_fused_attn_forward_ffi.37 = (bf16[1,8192,128,128]{3,2,1,0}, f32[1,128,8192,1]{3,2,1,0}, u32[2,4]{1,0}, u8[48]{0}) custom-call(%sharding_constraint.41, %sharding_constraint.43, %sharding_constraint.44, %constant.345, %dynamic-slice.12, /*index=5*/%concatenate.31, %concatenate.36, %constant.347, %constant.347, %constant.347, /*index=10*/%constant.347, %constant.347, %constant.347), custom_call_target="te_fused_attn_forward_ffi", operand_layout_constraints={bf16[1,8192,128,128]{3,2,1,0}, bf16[1,8192,8,128]{3,2,1,0}, bf16[1,8192,8,128]{3,2,1,0}, bf16[0]{0}, u32[2]{0}, s32[2]{0}, s32[2]{0}, f32[0]{0}, f32[0]{0}, f32[0]{0}, f32[0]{0}, f32[0]{0}, f32[0]{0}}, api_version=API_VERSION_TYPED_FFI, backend_config={attn_heads = 128 : i64, bias_batch = 0 : i64, bias_heads = 0 : i64, bias_type = 0 : i64, deterministic = false, dropout_probability = 0.000000e+00 : f64, input_batch = 1 : i64, is_training = true, kv_max_seqlen = 8192 : i64, mask_type = 3 : i64, max_segments_per_seq = 1 : i64, num_gqa_groups = 8 : i64, q_max_seqlen = 8192 : i64, qk_head_dim = 128 : i64, qkv_layout = 9 : i64, scaling_factor = 1.000000e+00 : f64, v_head_dim = 128 : i64, window_size_left = -1 : i64, window_size_right = -1 : i64}
  %get-tuple-element.24 = bf16[1,8192,128,128]{3,2,1,0} get-tuple-element(%te_fused_attn_forward_ffi.37), index=0
  %sharding_constraint.45 = bf16[1,8192,128,128]{3,2,1,0} copy(%get-tuple-element.24)
  %get-tuple-element.25 = f32[126,128,128,32]{3,2,1,0} get-tuple-element(%param), index=17
  %dynamic-slice.13 = f32[1,128,128,32]{3,2,1,0} dynamic-slice(%get-tuple-element.25, %get-tuple-element.5, %constant.258, %constant.258, %constant.258), dynamic_slice_sizes={1,128,128,32}
  %convert_element_type.134 = bf16[1,128,128,32]{3,2,1,0} convert(%dynamic-slice.13)
  %convert_element_type.135 = bf16[128,128,32]{2,1,0} reshape(%convert_element_type.134)
  %all-gather.4 = bf16[128,128,16384]{2,1,0} all-gather(%convert_element_type.135), channel_id=5, replica_groups=[1,512]<=[512], dimensions={2}, use_global_device_ids=true
  %dot.8 = bf16[1,8192,16384]{2,1,0} dot(%sharding_constraint.45, %all-gather.4), lhs_contracting_dims={2,3}, rhs_contracting_dims={0,1}
  %sharding_constraint.46 = bf16[1,8192,16384]{2,1,0} copy(%dot.8)
  %add.78 = bf16[1,8192,16384]{2,1,0} add(%sharding_constraint.38, %sharding_constraint.46)
  %convert_element_type.136 = f32[1,8192,16384]{2,1,0} convert(%add.78)
  %square.7 = f32[1,8192,16384]{2,1,0} multiply(%convert_element_type.136, %convert_element_type.136)
  %reduce.5 = f32[1,8192]{1,0} reduce(%square.7, %constant.255), dimensions={2}, to_apply=%region_5.382
  %div.45 = f32[1,8192]{1,0} multiply(%reduce.5, %closed_call.0)
  %add.79 = f32[1,8192]{1,0} add(%div.45, %closed_call.1)
  %rsqrt.7 = f32[1,8192]{1,0} rsqrt(%add.79)
  %mul.252 = f32[1,8192,16384]{2,1,0} broadcast(%rsqrt.7), dimensions={0,1}
  %mul.253 = f32[1,8192,16384]{2,1,0} multiply(%convert_element_type.136, %mul.252)
  %convert_element_type.137 = bf16[1,8192,16384]{2,1,0} convert(%mul.253)
  %get-tuple-element.26 = f32[126,16384]{1,0} get-tuple-element(%param), index=18
  %dynamic_slice.1 = f32[1,16384]{1,0} dynamic-slice(%get-tuple-element.26, %get-tuple-element.5, %constant.258), dynamic_slice_sizes={1,16384}
  %convert_element_type.138 = bf16[1,16384]{1,0} convert(%dynamic_slice.1)
  %mul.254 = bf16[16384]{0} reshape(%convert_element_type.138)
  %mul.255 = bf16[1,8192,16384]{2,1,0} broadcast(%mul.254), dimensions={2}
  %mul.256 = bf16[1,8192,16384]{2,1,0} multiply(%convert_element_type.137, %mul.255)
  %sharding_constraint.47 = bf16[1,8192,16384]{2,1,0} copy(%mul.256)
  %get-tuple-element.27 = f32[126,32,53248]{2,1,0} get-tuple-element(%param), index=19
  %dynamic-slice.14 = f32[1,32,53248]{2,1,0} dynamic-slice(%get-tuple-element.27, %get-tuple-element.5, %constant.258, %constant.258), dynamic_slice_sizes={1,32,53248}
  %convert_element_type.139 = bf16[1,32,53248]{2,1,0} convert(%dynamic-slice.14)
  %convert_element_type.140 = bf16[32,53248]{1,0} reshape(%convert_element_type.139)
  %all-gather.5 = bf16[16384,53248]{1,0} all-gather(%convert_element_type.140), channel_id=6, replica_groups=[1,512]<=[512], dimensions={0}, use_global_device_ids=true
  %dot.9 = bf16[1,8192,53248]{2,1,0} dot(%sharding_constraint.47, %all-gather.5), lhs_contracting_dims={2}, rhs_contracting_dims={0}
  %constant.356 = bf16[] constant(1)
  %jit_silu_.3 = bf16[1,8192,53248]{2,1,0} broadcast(%constant.356), dimensions={}
  %neg.4 = bf16[1,8192,53248]{2,1,0} negate(%dot.9)
  %exp.4 = bf16[1,8192,53248]{2,1,0} exponential(%neg.4)
  %add.80 = bf16[1,8192,53248]{2,1,0} add(%exp.4, %jit_silu_.3)
  %div.46 = bf16[1,8192,53248]{2,1,0} divide(%jit_silu_.3, %add.80)
  %mul.257 = bf16[1,8192,53248]{2,1,0} multiply(%dot.9, %div.46)
  %get-tuple-element.28 = f32[126,32,53248]{2,1,0} get-tuple-element(%param), index=20
  %dynamic-slice.15 = f32[1,32,53248]{2,1,0} dynamic-slice(%get-tuple-element.28, %get-tuple-element.5, %constant.258, %constant.258), dynamic_slice_sizes={1,32,53248}
  %convert_element_type.141 = bf16[1,32,53248]{2,1,0} convert(%dynamic-slice.15)
  %convert_element_type.142 = bf16[32,53248]{1,0} reshape(%convert_element_type.141)
  %all-gather.6 = bf16[16384,53248]{1,0} all-gather(%convert_element_type.142), channel_id=7, replica_groups=[1,512]<=[512], dimensions={0}, use_global_device_ids=true
  %dot.10 = bf16[1,8192,53248]{2,1,0} dot(%sharding_constraint.47, %all-gather.6), lhs_contracting_dims={2}, rhs_contracting_dims={0}
  %mul.258 = bf16[1,8192,53248]{2,1,0} multiply(%mul.257, %dot.10)
  %sharding_constraint.48 = bf16[1,8192,53248]{2,1,0} copy(%mul.258)
  %get-tuple-element.29 = f32[126,53248,32]{2,1,0} get-tuple-element(%param), index=21
  %dynamic-slice.16 = f32[1,53248,32]{2,1,0} dynamic-slice(%get-tuple-element.29, %get-tuple-element.5, %constant.258, %constant.258), dynamic_slice_sizes={1,53248,32}
  %convert_element_type.143 = bf16[1,53248,32]{2,1,0} convert(%dynamic-slice.16)
  %convert_element_type.144 = bf16[53248,32]{1,0} reshape(%convert_element_type.143)
  %all-gather.7 = bf16[53248,16384]{1,0} all-gather(%convert_element_type.144), channel_id=8, replica_groups=[1,512]<=[512], dimensions={1}, use_global_device_ids=true
  %dot.11 = bf16[1,8192,16384]{2,1,0} dot(%sharding_constraint.48, %all-gather.7), lhs_contracting_dims={2}, rhs_contracting_dims={0}
  %sharding_constraint.49 = bf16[1,8192,16384]{2,1,0} copy(%dot.11)
  %add.81 = bf16[1,8192,16384]{2,1,0} add(%sharding_constraint.49, %add.78)
  %sharding_constraint.50 = bf16[1,8192,16384]{2,1,0} copy(%add.81)
  %get-tuple-element.30 = bf16[126,1,8192,16384]{3,2,1,0} get-tuple-element(%param), index=2
  %broadcast_in_dim.48 = bf16[1,1,8192,16384]{3,2,1,0} reshape(%sharding_constraint.38)
  %dynamic-update-slice = bf16[126,1,8192,16384]{3,2,1,0} dynamic-update-slice(%get-tuple-element.30, %broadcast_in_dim.48, %get-tuple-element.5, %constant.258, %constant.258, /*index=5*/%constant.258)
  ROOT %tuple.5 = (s32[], bf16[1,8192,16384]{2,1,0}, bf16[126,1,8192,16384]{3,2,1,0}, f32[126,16384]{1,0}, f32[126,32,128,128]{3,2,1,0}, /*index=5*/f32[1,8192,1,128]{3,2,1,0}, s32[1,8192,128,128]{3,2,1,0}, f32[1,8192,1,128]{3,2,1,0}, f32[1,1,1,128]{3,2,1,0}, f32[126,32,8,128]{3,2,1,0}, /*index=10*/f32[1,8192,1,128]{3,2,1,0}, s32[1,8192,8,128]{3,2,1,0}, f32[1,8192,1,128]{3,2,1,0}, f32[1,1,1,128]{3,2,1,0}, f32[126,32,8,128]{3,2,1,0}, /*index=15*/s32[1,1]{1,0}, s32[1,1]{1,0}, f32[126,128,128,32]{3,2,1,0}, f32[126,16384]{1,0}, f32[126,32,53248]{2,1,0}, /*index=20*/f32[126,32,53248]{2,1,0}, f32[126,53248,32]{2,1,0}) tuple(%add.74, %sharding_constraint.50, %dynamic-update-slice, %get-tuple-element.7, %get-tuple-element.8, /*index=5*/%get-tuple-element.9, %get-tuple-element.10, %get-tuple-element.11, %get-tuple-element.12, %get-tuple-element.13, /*index=10*/%get-tuple-element.14, %get-tuple-element.15, %get-tuple-element.16, %get-tuple-element.17, %get-tuple-element.18, /*index=15*/%get-tuple-element.19, %get-tuple-element.20, %get-tuple-element.25, %get-tuple-element.26, %get-tuple-element.27, /*index=20*/%get-tuple-element.28, %get-tuple-element.29)
}

%region_6.449_spmd (param.1: (s32[], bf16[1,8192,16384], bf16[126,1,8192,16384], f32[126,16384], f32[126,32,128,128], /*index=5*/f32[1,8192,1,128], s32[1,8192,128,128], f32[1,8192,1,128], f32[1,1,1,128], f32[126,32,8,128], /*index=10*/f32[1,8192,1,128], s32[1,8192,8,128], f32[1,8192,1,128], f32[1,1,1,128], f32[126,32,8,128], /*index=15*/s32[1,1], s32[1,1], f32[126,128,128,32], f32[126,16384], f32[126,32,53248], /*index=20*/f32[126,32,53248], f32[126,53248,32])) -> pred[] {
  %param.1 = (s32[], bf16[1,8192,16384]{2,1,0}, bf16[126,1,8192,16384]{3,2,1,0}, f32[126,16384]{1,0}, f32[126,32,128,128]{3,2,1,0}, /*index=5*/f32[1,8192,1,128]{3,2,1,0}, s32[1,8192,128,128]{3,2,1,0}, f32[1,8192,1,128]{3,2,1,0}, f32[1,1,1,128]{3,2,1,0}, f32[126,32,8,128]{3,2,1,0}, /*index=10*/f32[1,8192,1,128]{3,2,1,0}, s32[1,8192,8,128]{3,2,1,0}, f32[1,8192,1,128]{3,2,1,0}, f32[1,1,1,128]{3,2,1,0}, f32[126,32,8,128]{3,2,1,0}, /*index=15*/s32[1,1]{1,0}, s32[1,1]{1,0}, f32[126,128,128,32]{3,2,1,0}, f32[126,16384]{1,0}, f32[126,32,53248]{2,1,0}, /*index=20*/f32[126,32,53248]{2,1,0}, f32[126,53248,32]{2,1,0}) parameter(0)
  %get-tuple-element.31 = s32[] get-tuple-element(%param.1), index=0
  %constant.367 = s32[] constant(126)
  ROOT %lt.19 = pred[] compare(%get-tuple-element.31, %constant.367), direction=LT
}

%region_7.460 (reduce_sum.457: f32[], reduce_sum.458: f32[]) -> f32[] {
  %reduce_sum.457 = f32[] parameter(0)
  %reduce_sum.458 = f32[] parameter(1)
  ROOT %reduce_sum.459 = f32[] add(%reduce_sum.457, %reduce_sum.458)
}

%region_8.481 (reduce_sum.478: s32[], reduce_sum.479: s32[]) -> s32[] {
  %reduce_sum.478 = s32[] parameter(0)
  %reduce_sum.479 = s32[] parameter(1)
  ROOT %reduce_sum.480 = s32[] add(%reduce_sum.478, %reduce_sum.479)
}

%region_8.481.clone (reduce_sum.58: s32[], reduce_sum.59: s32[]) -> s32[] {
  %reduce_sum.58 = s32[] parameter(0)
  %reduce_sum.59 = s32[] parameter(1)
  ROOT %reduce_sum.60 = s32[] add(%reduce_sum.58, %reduce_sum.59)
}

%region_9.503 (reduce_max.500: f32[], reduce_max.501: f32[]) -> f32[] {
  %reduce_max.500 = f32[] parameter(0)
  %reduce_max.501 = f32[] parameter(1)
  ROOT %reduce_max.502 = f32[] maximum(%reduce_max.500, %reduce_max.501)
}

%region_10.511 (reduce_sum.508: f32[], reduce_sum.509: f32[]) -> f32[] {
  %reduce_sum.508 = f32[] parameter(0)
  %reduce_sum.509 = f32[] parameter(1)
  ROOT %reduce_sum.510 = f32[] add(%reduce_sum.508, %reduce_sum.509)
}

%region_11.535 (reduce_sum.532: bf16[], reduce_sum.533: bf16[]) -> bf16[] {
  %reduce_sum.532 = bf16[] parameter(0)
  %reduce_sum.533 = bf16[] parameter(1)
  ROOT %reduce_sum.534 = bf16[] add(%reduce_sum.532, %reduce_sum.533)
}

%region_11.535.clone (reduce_sum.61: bf16[], reduce_sum.62: bf16[]) -> bf16[] {
  %reduce_sum.61 = bf16[] parameter(0)
  %reduce_sum.62 = bf16[] parameter(1)
  ROOT %reduce_sum.63 = bf16[] add(%reduce_sum.61, %reduce_sum.62)
}

%region_12.542 (reduce_sum.539: f32[], reduce_sum.540: f32[]) -> f32[] {
  %reduce_sum.539 = f32[] parameter(0)
  %reduce_sum.540 = f32[] parameter(1)
  ROOT %reduce_sum.541 = f32[] add(%reduce_sum.539, %reduce_sum.540)
}

%region_13.554 (reduce_sum.551: f32[], reduce_sum.552: f32[]) -> f32[] {
  %reduce_sum.551 = f32[] parameter(0)
  %reduce_sum.552 = f32[] parameter(1)
  ROOT %reduce_sum.553 = f32[] add(%reduce_sum.551, %reduce_sum.552)
}

%region_15.617 (reduce_sum.614: f32[], reduce_sum.615: f32[]) -> f32[] {
  %reduce_sum.614 = f32[] parameter(0)
  %reduce_sum.615 = f32[] parameter(1)
  ROOT %reduce_sum.616 = f32[] add(%reduce_sum.614, %reduce_sum.615)
}

%region_16.867 (reduce_sum.864: s32[], reduce_sum.865: s32[]) -> s32[] {
  %reduce_sum.864 = s32[] parameter(0)
  %reduce_sum.865 = s32[] parameter(1)
  ROOT %reduce_sum.866 = s32[] add(%reduce_sum.864, %reduce_sum.865)
}

%region_17.876 (reduce_sum.873: s32[], reduce_sum.874: s32[]) -> s32[] {
  %reduce_sum.873 = s32[] parameter(0)
  %reduce_sum.874 = s32[] parameter(1)
  ROOT %reduce_sum.875 = s32[] add(%reduce_sum.873, %reduce_sum.874)
}

%region_18.883 (reduce_max.880: s32[], reduce_max.881: s32[]) -> s32[] {
  %reduce_max.880 = s32[] parameter(0)
  %reduce_max.881 = s32[] parameter(1)
  ROOT %reduce_max.882 = s32[] maximum(%reduce_max.880, %reduce_max.881)
}

%region_19.902 (reduce_sum.899: f32[], reduce_sum.900: f32[]) -> f32[] {
  %reduce_sum.899 = f32[] parameter(0)
  %reduce_sum.900 = f32[] parameter(1)
  ROOT %reduce_sum.901 = f32[] add(%reduce_sum.899, %reduce_sum.900)
}

%region_20.962 (reduce_sum.959: f32[], reduce_sum.960: f32[]) -> f32[] {
  %reduce_sum.959 = f32[] parameter(0)
  %reduce_sum.960 = f32[] parameter(1)
  ROOT %reduce_sum.961 = f32[] add(%reduce_sum.959, %reduce_sum.960)
}

%region_21.1071 (reduce_sum.1068: f32[], reduce_sum.1069: f32[]) -> f32[] {
  %reduce_sum.1068 = f32[] parameter(0)
  %reduce_sum.1069 = f32[] parameter(1)
  ROOT %reduce_sum.1070 = f32[] add(%reduce_sum.1068, %reduce_sum.1069)
>>>>>>> upstream/master
}

%add.clone (x.1: bf16[], y.1: bf16[]) -> bf16[] {
  %x.1 = bf16[] parameter(0)
  %y.1 = bf16[] parameter(1)
<<<<<<< HEAD
  ROOT %add.79 = bf16[] add(%x.1, %y.1)
=======
  ROOT %add.83 = bf16[] add(%x.1, %y.1)
>>>>>>> upstream/master
}

%add.1.clone (x.3: bf16[], y.3: bf16[]) -> bf16[] {
  %x.3 = bf16[] parameter(0)
  %y.3 = bf16[] parameter(1)
<<<<<<< HEAD
  ROOT %add.81 = bf16[] add(%x.3, %y.3)
=======
  ROOT %add.85 = bf16[] add(%x.3, %y.3)
>>>>>>> upstream/master
}

%add.2.clone (x.5: bf16[], y.5: bf16[]) -> bf16[] {
  %x.5 = bf16[] parameter(0)
  %y.5 = bf16[] parameter(1)
<<<<<<< HEAD
  ROOT %add.83 = bf16[] add(%x.5, %y.5)
}

%region_23.1301 (Arg_0.1298: bf16[], Arg_1.1299: bf16[]) -> bf16[] {
  %Arg_0.1298 = bf16[] parameter(0)
  %Arg_1.1299 = bf16[] parameter(1)
  ROOT %add.1300 = bf16[] add(%Arg_0.1298, %Arg_1.1299)
}

%region_23.1301.clone (Arg_0.20: bf16[], Arg_1.20: bf16[]) -> bf16[] {
  %Arg_0.20 = bf16[] parameter(0)
  %Arg_1.20 = bf16[] parameter(1)
  ROOT %add.84 = bf16[] add(%Arg_0.20, %Arg_1.20)
}

%region_27.1435 (Arg_0.1432: bf16[], Arg_1.1433: bf16[]) -> bf16[] {
  %Arg_0.1432 = bf16[] parameter(0)
  %Arg_1.1433 = bf16[] parameter(1)
  ROOT %add.1434 = bf16[] add(%Arg_0.1432, %Arg_1.1433)
}

%region_27.1435.clone (Arg_0.21: bf16[], Arg_1.21: bf16[]) -> bf16[] {
  %Arg_0.21 = bf16[] parameter(0)
  %Arg_1.21 = bf16[] parameter(1)
  ROOT %add.85 = bf16[] add(%Arg_0.21, %Arg_1.21)
=======
  ROOT %add.87 = bf16[] add(%x.5, %y.5)
}

%region_22.1103 (reduce_sum.1100: bf16[], reduce_sum.1101: bf16[]) -> bf16[] {
  %reduce_sum.1100 = bf16[] parameter(0)
  %reduce_sum.1101 = bf16[] parameter(1)
  ROOT %reduce_sum.1102 = bf16[] add(%reduce_sum.1100, %reduce_sum.1101)
}

%region_22.1103.clone (reduce_sum.50: bf16[], reduce_sum.51: bf16[]) -> bf16[] {
  %reduce_sum.50 = bf16[] parameter(0)
  %reduce_sum.51 = bf16[] parameter(1)
  ROOT %reduce_sum.52 = bf16[] add(%reduce_sum.50, %reduce_sum.51)
}

%region_23.1112 (reduce_sum.1109: bf16[], reduce_sum.1110: bf16[]) -> bf16[] {
  %reduce_sum.1109 = bf16[] parameter(0)
  %reduce_sum.1110 = bf16[] parameter(1)
  ROOT %reduce_sum.1111 = bf16[] add(%reduce_sum.1109, %reduce_sum.1110)
}

%region_23.1112.clone (reduce_sum.53: bf16[], reduce_sum.54: bf16[]) -> bf16[] {
  %reduce_sum.53 = bf16[] parameter(0)
  %reduce_sum.54 = bf16[] parameter(1)
  ROOT %reduce_sum.55 = bf16[] add(%reduce_sum.53, %reduce_sum.54)
>>>>>>> upstream/master
}

%add.3.clone (x.7: bf16[], y.7: bf16[]) -> bf16[] {
  %x.7 = bf16[] parameter(0)
  %y.7 = bf16[] parameter(1)
<<<<<<< HEAD
  ROOT %add.87 = bf16[] add(%x.7, %y.7)
=======
  ROOT %add.89 = bf16[] add(%x.7, %y.7)
>>>>>>> upstream/master
}

%add.4.clone (x.9: bf16[], y.9: bf16[]) -> bf16[] {
  %x.9 = bf16[] parameter(0)
  %y.9 = bf16[] parameter(1)
<<<<<<< HEAD
  ROOT %add.89 = bf16[] add(%x.9, %y.9)
=======
  ROOT %add.91 = bf16[] add(%x.9, %y.9)
>>>>>>> upstream/master
}

%add.5.clone (x.11: bf16[], y.11: bf16[]) -> bf16[] {
  %x.11 = bf16[] parameter(0)
  %y.11 = bf16[] parameter(1)
<<<<<<< HEAD
  ROOT %add.92 = bf16[] add(%x.11, %y.11)
=======
  ROOT %add.93 = bf16[] add(%x.11, %y.11)
>>>>>>> upstream/master
}

%add.6.clone (x.13: bf16[], y.13: bf16[]) -> bf16[] {
  %x.13 = bf16[] parameter(0)
  %y.13 = bf16[] parameter(1)
  ROOT %add.95 = bf16[] add(%x.13, %y.13)
}

<<<<<<< HEAD
%region_17.1506_spmd (param.3: (s32[], bf16[1,8192,16384], f32[126,32,53248], f32[126,32,53248], f32[126,53248,32], /*index=5*/f32[126,16384], f32[126,16384], f32[126,32,8,128], f32[126,128,128,32], f32[126,32,128,128], /*index=10*/f32[126,32,8,128], f32[126,32,53248], f32[126,32,53248], f32[126,53248,32], f32[126,16384], /*index=15*/f32[126,16384], f32[126,32,8,128], f32[126,128,128,32], f32[126,32,128,128], f32[126,32,8,128], /*index=20*/bf16[126,1,8192,16384], s32[1,8192], s32[1,8192])) -> (s32[], bf16[1,8192,16384], f32[126,32,53248], f32[126,32,53248], f32[126,53248,32], /*index=5*/f32[126,16384], f32[126,16384], f32[126,32,8,128], f32[126,128,128,32], f32[126,32,128,128], /*index=10*/f32[126,32,8,128], f32[126,32,53248], f32[126,32,53248], f32[126,53248,32], f32[126,16384], /*index=15*/f32[126,16384], f32[126,32,8,128], f32[126,128,128,32], f32[126,32,128,128], f32[126,32,8,128], /*index=20*/bf16[126,1,8192,16384], s32[1,8192], s32[1,8192]) {
  %param.3 = (s32[], bf16[1,8192,16384]{2,1,0}, f32[126,32,53248]{2,1,0}, f32[126,32,53248]{2,1,0}, f32[126,53248,32]{2,1,0}, /*index=5*/f32[126,16384]{1,0}, f32[126,16384]{1,0}, f32[126,32,8,128]{3,2,1,0}, f32[126,128,128,32]{3,2,1,0}, f32[126,32,128,128]{3,2,1,0}, /*index=10*/f32[126,32,8,128]{3,2,1,0}, f32[126,32,53248]{2,1,0}, f32[126,32,53248]{2,1,0}, f32[126,53248,32]{2,1,0}, f32[126,16384]{1,0}, /*index=15*/f32[126,16384]{1,0}, f32[126,32,8,128]{3,2,1,0}, f32[126,128,128,32]{3,2,1,0}, f32[126,32,128,128]{3,2,1,0}, f32[126,32,8,128]{3,2,1,0}, /*index=20*/bf16[126,1,8192,16384]{3,2,1,0}, s32[1,8192]{1,0}, s32[1,8192]{1,0}) parameter(0)
  %get-tuple-element.40 = s32[] get-tuple-element(%param.3), index=0
  %constant.532 = s32[] constant(1)
  %add.96 = s32[] add(%get-tuple-element.40, %constant.532)
  %get-tuple-element.41 = bf16[1,8192,16384]{2,1,0} get-tuple-element(%param.3), index=1
  %copy.56 = bf16[1,8192,16384]{2,1,0} copy(%get-tuple-element.41)
  %get-tuple-element.42 = bf16[126,1,8192,16384]{3,2,1,0} get-tuple-element(%param.3), index=20
  %constant.533 = s32[] constant(125)
  %subtract.9 = s32[] subtract(%constant.533, %get-tuple-element.40)
  %constant.535 = s32[] constant(0)
  %dynamic-slice.19 = bf16[1,1,8192,16384]{3,2,1,0} dynamic-slice(%get-tuple-element.42, %subtract.9, %constant.535, %constant.535, %constant.535), dynamic_slice_sizes={1,1,8192,16384}
  %reshape.489 = bf16[1,8192,16384]{2,1,0} reshape(%dynamic-slice.19)
  %copy.57 = bf16[1,8192,16384]{2,1,0} copy(%reshape.489)
  %convert.127 = f32[1,8192,16384]{2,1,0} convert(%copy.57)
  %multiply.176 = f32[1,8192,16384]{2,1,0} multiply(%convert.127, %convert.127)
  %constant.538 = f32[] constant(0)
  %reduce.21 = f32[1,8192]{1,0} reduce(%multiply.176, %constant.538), dimensions={2}, to_apply=%region_18.951
  %constant.539 = f32[] constant(6.10351562e-05)
  %broadcast.462 = f32[1,8192]{1,0} broadcast(%constant.539), dimensions={}
  %multiply.177 = f32[1,8192]{1,0} multiply(%reduce.21, %broadcast.462)
  %constant.540 = f32[] constant(1e-05)
  %broadcast.463 = f32[1,8192]{1,0} broadcast(%constant.540), dimensions={}
  %add.97 = f32[1,8192]{1,0} add(%multiply.177, %broadcast.463)
  %reshape.490 = f32[1,8192,1]{2,1,0} reshape(%add.97)
  %rsqrt.8 = f32[1,8192,1]{2,1,0} rsqrt(%reshape.490)
  %reshape.491 = f32[1,8192]{1,0} reshape(%rsqrt.8)
  %broadcast.464 = f32[1,8192,16384]{2,1,0} broadcast(%reshape.491), dimensions={0,1}
  %multiply.178 = f32[1,8192,16384]{2,1,0} multiply(%convert.127, %broadcast.464)
  %convert.128 = bf16[1,8192,16384]{2,1,0} convert(%multiply.178)
  %get-tuple-element.43 = f32[126,16384]{1,0} get-tuple-element(%param.3), index=15
  %dynamic-slice.20 = f32[1,16384]{1,0} dynamic-slice(%get-tuple-element.43, %subtract.9, %constant.535), dynamic_slice_sizes={1,16384}
  %convert.129 = bf16[1,16384]{1,0} convert(%dynamic-slice.20)
  %reshape.492 = bf16[16384]{0} reshape(%convert.129)
  %broadcast.465 = bf16[1,8192,16384]{2,1,0} broadcast(%reshape.492), dimensions={2}
  %multiply.179 = bf16[1,8192,16384]{2,1,0} multiply(%convert.128, %broadcast.465)
  %copy.58 = bf16[1,8192,16384]{2,1,0} copy(%multiply.179)
  %copy.59 = bf16[1,8192,16384]{2,1,0} copy(%copy.58)
  %get-tuple-element.44 = f32[126,32,128,128]{3,2,1,0} get-tuple-element(%param.3), index=18
  %dynamic-slice.21 = f32[1,32,128,128]{3,2,1,0} dynamic-slice(%get-tuple-element.44, %subtract.9, %constant.535, %constant.535, %constant.535), dynamic_slice_sizes={1,32,128,128}
  %convert.130 = bf16[1,32,128,128]{3,2,1,0} convert(%dynamic-slice.21)
  %reshape.493 = bf16[32,128,128]{2,1,0} reshape(%convert.130)
  %all-gather.7 = bf16[16384,128,128]{2,1,0} all-gather(%reshape.493), channel_id=12, replica_groups=[1,512]<=[512], dimensions={0}, use_global_device_ids=true
  %dot.39 = bf16[1,8192,128,128]{3,2,1,0} dot(%copy.59, %all-gather.7), lhs_contracting_dims={2}, rhs_contracting_dims={0}
  %convert.131 = f32[1,8192,128,128]{3,2,1,0} convert(%dot.39)
  %get-tuple-element.45 = s32[1,8192]{1,0} get-tuple-element(%param.3), index=22
  %convert.132 = f32[1,8192]{1,0} convert(%get-tuple-element.45)
  %broadcast.466 = f32[1,8192,1,128]{3,2,1,0} broadcast(%convert.132), dimensions={0,1}
  %constant.546 = f32[] constant(1)
  %broadcast.467 = f32[128]{0} broadcast(%constant.546), dimensions={}
  %constant.547 = f32[] constant(6.28318548)
  %broadcast.468 = f32[128]{0} broadcast(%constant.547), dimensions={}
  %constant.548 = f32[] constant(500000)
  %broadcast.469 = f32[128]{0} broadcast(%constant.548), dimensions={}
  %iota.17 = s32[64]{0} iota(), iota_dimension=0
  %constant.549 = s32[] constant(2)
  %broadcast.470 = s32[64]{0} broadcast(%constant.549), dimensions={}
  %multiply.180 = s32[64]{0} multiply(%iota.17, %broadcast.470)
  %convert.133 = f32[64]{0} convert(%multiply.180)
  %constant.550 = f32[] constant(0.0078125)
  %broadcast.471 = f32[64]{0} broadcast(%constant.550), dimensions={}
  %multiply.181 = f32[64]{0} multiply(%convert.133, %broadcast.471)
  %broadcast.472 = f32[64,2]{1,0} broadcast(%multiply.181), dimensions={0}
  %reshape.494 = f32[128]{0} reshape(%broadcast.472)
  %power.10 = f32[128]{0} power(%broadcast.469, %reshape.494)
  %multiply.182 = f32[128]{0} multiply(%broadcast.468, %power.10)
  %constant.551 = f32[] constant(2048)
  %broadcast.473 = f32[128]{0} broadcast(%constant.551), dimensions={}
  %compare.96 = pred[128]{0} compare(%multiply.182, %broadcast.473), direction=LT
  %convert.134 = s32[128]{0} convert(%compare.96)
  %broadcast.474 = s32[128]{0} broadcast(%constant.532), dimensions={}
  %compare.97 = pred[128]{0} compare(%convert.134, %broadcast.474), direction=LT
  %constant.553 = f32[] constant(8192)
  %broadcast.475 = f32[128]{0} broadcast(%constant.553), dimensions={}
  %compare.98 = pred[128]{0} compare(%multiply.182, %broadcast.475), direction=GT
  %convert.135 = s32[128]{0} convert(%compare.98)
  %compare.99 = pred[128]{0} compare(%convert.135, %broadcast.474), direction=LT
  %negate.27 = f32[128]{0} negate(%reshape.494)
  %power.11 = f32[128]{0} power(%broadcast.469, %negate.27)
  %multiply.183 = f32[128]{0} multiply(%broadcast.475, %power.11)
  %constant.554 = f32[] constant(0.159154937)
  %broadcast.476 = f32[128]{0} broadcast(%constant.554), dimensions={}
  %multiply.184 = f32[128]{0} multiply(%multiply.183, %broadcast.476)
  %constant.555 = f32[] constant(-1)
  %broadcast.477 = f32[128]{0} broadcast(%constant.555), dimensions={}
  %add.98 = f32[128]{0} add(%multiply.184, %broadcast.477)
  %constant.556 = f32[] constant(0.333333343)
  %broadcast.478 = f32[128]{0} broadcast(%constant.556), dimensions={}
  %multiply.185 = f32[128]{0} multiply(%add.98, %broadcast.478)
  %subtract.10 = f32[128]{0} subtract(%broadcast.467, %multiply.185)
  %multiply.186 = f32[128]{0} multiply(%subtract.10, %power.11)
  %constant.557 = f32[] constant(0.125)
  %broadcast.480 = f32[128]{0} broadcast(%constant.557), dimensions={}
  %multiply.187 = f32[128]{0} multiply(%multiply.186, %broadcast.480)
  %multiply.188 = f32[128]{0} multiply(%multiply.185, %power.11)
  %add.99 = f32[128]{0} add(%multiply.187, %multiply.188)
  %multiply.189 = f32[128]{0} multiply(%power.11, %broadcast.480)
  %select.64 = f32[128]{0} select(%compare.99, %add.99, %multiply.189)
  %select.65 = f32[128]{0} select(%compare.97, %select.64, %power.11)
  %divide.49 = f32[128]{0} divide(%broadcast.467, %select.65)
  %broadcast.484 = f32[1,8192,1,128]{3,2,1,0} broadcast(%divide.49), dimensions={3}
  %divide.50 = f32[1,8192,1,128]{3,2,1,0} divide(%broadcast.466, %broadcast.484)
  %cosine.2 = f32[1,8192,1,128]{3,2,1,0} cosine(%divide.50)
  %reshape.496 = f32[1,8192,128]{2,1,0} reshape(%cosine.2)
  %broadcast.486 = f32[1,8192,128,128]{3,2,1,0} broadcast(%reshape.496), dimensions={0,1,3}
  %multiply.190 = f32[1,8192,128,128]{3,2,1,0} multiply(%convert.131, %broadcast.486)
  %iota.18 = s32[128]{0} iota(), iota_dimension=0
  %and.19 = s32[128]{0} and(%iota.18, %broadcast.474)
  %broadcast.488 = s32[128]{0} broadcast(%constant.535), dimensions={}
  %compare.100 = pred[128]{0} compare(%and.19, %broadcast.488), direction=LT
  %compare.101 = pred[128]{0} compare(%and.19, %broadcast.488), direction=NE
  %and.20 = pred[128]{0} and(%compare.100, %compare.101)
  %broadcast.489 = s32[128]{0} broadcast(%constant.549), dimensions={}
  %add.100 = s32[128]{0} add(%and.19, %broadcast.489)
  %select.66 = s32[128]{0} select(%and.20, %add.100, %and.19)
  %compare.102 = pred[128]{0} compare(%select.66, %broadcast.474), direction=LT
  %broadcast.491 = pred[1,8192,128,128]{3,2,1,0} broadcast(%compare.102), dimensions={3}
  %slice.33 = bf16[1,8192,128,127]{3,2,1,0} slice(%dot.39), slice={[0:1], [0:8192], [0:128], [1:128]}
  %slice.34 = bf16[1,8192,128,1]{3,2,1,0} slice(%dot.39), slice={[0:1], [0:8192], [0:128], [0:1]}
  %concatenate.12 = bf16[1,8192,128,128]{3,2,1,0} concatenate(%slice.33, %slice.34), dimensions={3}
  %slice.35 = bf16[1,8192,128,1]{3,2,1,0} slice(%dot.39), slice={[0:1], [0:8192], [0:128], [127:128]}
  %slice.36 = bf16[1,8192,128,127]{3,2,1,0} slice(%dot.39), slice={[0:1], [0:8192], [0:128], [0:127]}
  %concatenate.13 = bf16[1,8192,128,128]{3,2,1,0} concatenate(%slice.35, %slice.36), dimensions={3}
  %select.67 = bf16[1,8192,128,128]{3,2,1,0} select(%broadcast.491, %concatenate.12, %concatenate.13)
  %convert.136 = f32[1,8192,128,128]{3,2,1,0} convert(%select.67)
  %sine.2 = f32[1,8192,1,128]{3,2,1,0} sine(%divide.50)
  %reshape.502 = f32[1,8192,128]{2,1,0} reshape(%sine.2)
  %broadcast.492 = f32[1,8192,128,128]{3,2,1,0} broadcast(%reshape.502), dimensions={0,1,3}
  %multiply.195 = f32[1,8192,128,128]{3,2,1,0} multiply(%convert.136, %broadcast.492)
  %constant.599 = s32[2]{0} constant({-1, 1})
  %broadcast.493 = s32[64,2]{1,0} broadcast(%constant.599), dimensions={1}
  %reshape.503 = s32[128]{0} reshape(%broadcast.493)
  %convert.137 = f32[128]{0} convert(%reshape.503)
  %broadcast.494 = f32[1,8192,128,128]{3,2,1,0} broadcast(%convert.137), dimensions={3}
  %multiply.196 = f32[1,8192,128,128]{3,2,1,0} multiply(%multiply.195, %broadcast.494)
  %add.101 = f32[1,8192,128,128]{3,2,1,0} add(%multiply.190, %multiply.196)
  %convert.138 = bf16[1,8192,128,128]{3,2,1,0} convert(%add.101)
  %copy.60 = bf16[1,8192,128,128]{3,2,1,0} copy(%convert.138)
  %get-tuple-element.46 = f32[126,32,8,128]{3,2,1,0} get-tuple-element(%param.3), index=16
  %dynamic-slice.26 = f32[1,32,8,128]{3,2,1,0} dynamic-slice(%get-tuple-element.46, %subtract.9, %constant.535, %constant.535, %constant.535), dynamic_slice_sizes={1,32,8,128}
  %convert.139 = bf16[1,32,8,128]{3,2,1,0} convert(%dynamic-slice.26)
  %reshape.504 = bf16[32,8,128]{2,1,0} reshape(%convert.139)
  %all-gather.8 = bf16[16384,8,128]{2,1,0} all-gather(%reshape.504), channel_id=13, replica_groups=[1,512]<=[512], dimensions={0}, use_global_device_ids=true
  %dot.40 = bf16[1,8192,8,128]{3,2,1,0} dot(%copy.59, %all-gather.8), lhs_contracting_dims={2}, rhs_contracting_dims={0}
  %convert.140 = f32[1,8192,8,128]{3,2,1,0} convert(%dot.40)
  %broadcast.507 = f32[1,8192,8,128]{3,2,1,0} broadcast(%reshape.496), dimensions={0,1,3}
  %multiply.207 = f32[1,8192,8,128]{3,2,1,0} multiply(%convert.140, %broadcast.507)
  %broadcast.513 = pred[1,8192,8,128]{3,2,1,0} broadcast(%compare.102), dimensions={3}
  %slice.37 = bf16[1,8192,8,127]{3,2,1,0} slice(%dot.40), slice={[0:1], [0:8192], [0:8], [1:128]}
  %slice.38 = bf16[1,8192,8,1]{3,2,1,0} slice(%dot.40), slice={[0:1], [0:8192], [0:8], [0:1]}
  %concatenate.14 = bf16[1,8192,8,128]{3,2,1,0} concatenate(%slice.37, %slice.38), dimensions={3}
  %slice.39 = bf16[1,8192,8,1]{3,2,1,0} slice(%dot.40), slice={[0:1], [0:8192], [0:8], [127:128]}
  %slice.40 = bf16[1,8192,8,127]{3,2,1,0} slice(%dot.40), slice={[0:1], [0:8192], [0:8], [0:127]}
  %concatenate.15 = bf16[1,8192,8,128]{3,2,1,0} concatenate(%slice.39, %slice.40), dimensions={3}
  %select.72 = bf16[1,8192,8,128]{3,2,1,0} select(%broadcast.513, %concatenate.14, %concatenate.15)
  %convert.145 = f32[1,8192,8,128]{3,2,1,0} convert(%select.72)
  %broadcast.514 = f32[1,8192,8,128]{3,2,1,0} broadcast(%reshape.502), dimensions={0,1,3}
  %multiply.212 = f32[1,8192,8,128]{3,2,1,0} multiply(%convert.145, %broadcast.514)
  %broadcast.516 = f32[1,8192,8,128]{3,2,1,0} broadcast(%convert.137), dimensions={3}
  %multiply.213 = f32[1,8192,8,128]{3,2,1,0} multiply(%multiply.212, %broadcast.516)
  %add.106 = f32[1,8192,8,128]{3,2,1,0} add(%multiply.207, %multiply.213)
  %convert.147 = bf16[1,8192,8,128]{3,2,1,0} convert(%add.106)
  %copy.62 = bf16[1,8192,8,128]{3,2,1,0} copy(%convert.147)
  %get-tuple-element.47 = f32[126,32,8,128]{3,2,1,0} get-tuple-element(%param.3), index=19
  %dynamic-slice.31 = f32[1,32,8,128]{3,2,1,0} dynamic-slice(%get-tuple-element.47, %subtract.9, %constant.535, %constant.535, %constant.535), dynamic_slice_sizes={1,32,8,128}
  %convert.148 = bf16[1,32,8,128]{3,2,1,0} convert(%dynamic-slice.31)
  %reshape.515 = bf16[32,8,128]{2,1,0} reshape(%convert.148)
  %all-gather.9 = bf16[16384,8,128]{2,1,0} all-gather(%reshape.515), channel_id=14, replica_groups=[1,512]<=[512], dimensions={0}, use_global_device_ids=true
  %dot.41 = bf16[1,8192,8,128]{3,2,1,0} dot(%copy.59, %all-gather.9), lhs_contracting_dims={2}, rhs_contracting_dims={0}
  %copy.63 = bf16[1,8192,8,128]{3,2,1,0} copy(%dot.41)
  %constant.657 = bf16[0]{0} constant({})
  %broadcast.524 = s32[2]{0} broadcast(%constant.535), dimensions={}
  %reshape.521 = s32[1]{0} reshape(%constant.532)
  %reshape.522 = s32[1]{0} reshape(%constant.535)
  %constant.678 = pred[1]{0} constant({0})
  %constant.679 = s32[1]{0} constant({1})
  %constant.680 = s32[1]{0} constant({0})
  %select.74 = s32[1]{0} select(%constant.678, %constant.679, %constant.680)
  %maximum.5 = s32[1]{0} maximum(%reshape.522, %select.74)
  %minimum.3 = s32[1]{0} minimum(%reshape.521, %maximum.5)
  %sort.2 = (s32[1]{0}, s32[1]{0}) sort(%minimum.3, %constant.680), dimensions={0}, is_stable=true, to_apply=%region_0.61._custom_call_lowering_rule.1
  %get-tuple-element.49 = s32[1]{0} get-tuple-element(%sort.2), index=1
  %compare.114 = pred[1]{0} compare(%get-tuple-element.49, %constant.680), direction=LT
  %add.107 = s32[1]{0} add(%get-tuple-element.49, %constant.679)
  %select.75 = s32[1]{0} select(%compare.114, %add.107, %get-tuple-element.49)
  %reshape.523 = s32[1,1]{1,0} reshape(%select.75)
  %scatter.0 = s32[1]{0} scatter(%minimum.3, %reshape.523, %constant.680), update_window_dims={}, inserted_window_dims={0}, scatter_dims_to_operand_dims={0}, index_vector_dim=1, to_apply=%region_1.74._custom_call_lowering_rule.1
  %compare.115 = pred[1]{0} compare(%scatter.0, %constant.680), direction=LT
  %constant.682 = s32[1]{0} constant({2})
  %add.108 = s32[1]{0} add(%scatter.0, %constant.682)
  %select.76 = s32[1]{0} select(%compare.115, %add.108, %scatter.0)
  %reshape.524 = s32[1,1]{1,0} reshape(%select.76)
  %scatter.1 = s32[2]{0} scatter(%broadcast.524, %reshape.524, %constant.680), update_window_dims={}, inserted_window_dims={0}, scatter_dims_to_operand_dims={0}, index_vector_dim=1, to_apply=%region_5.170._custom_call_lowering_rule.1
  %constant.683 = pred[] constant(true)
  %broadcast.526 = pred[2]{0} broadcast(%constant.683), dimensions={}
  %scatter.2 = pred[2]{0} scatter(%broadcast.526, %reshape.524, %constant.678), update_window_dims={}, inserted_window_dims={0}, scatter_dims_to_operand_dims={0}, index_vector_dim=1, to_apply=%region_2.82._custom_call_lowering_rule.1
  %convert.151 = s32[2]{0} convert(%scatter.2)
  %reduce-window.0 = s32[2]{0} reduce-window(%convert.151, %constant.535), window={size=2 pad=1_0}, to_apply=%region_3.91._custom_call_lowering_rule.1
  %maximum.6 = s32[2]{0} maximum(%broadcast.524, %reduce-window.0)
  %compare.117 = pred[2]{0} compare(%maximum.6, %broadcast.524), direction=LT
  %broadcast.527 = s32[2]{0} broadcast(%constant.532), dimensions={}
  %add.111 = s32[2]{0} add(%maximum.6, %broadcast.527)
  %select.79 = s32[2]{0} select(%compare.117, %add.111, %maximum.6)
  %reshape.526 = s32[2,1]{1,0} reshape(%select.79)
  %scatter.3 = s32[1]{0} scatter(%constant.680, %reshape.526, %broadcast.527), update_window_dims={}, inserted_window_dims={0}, scatter_dims_to_operand_dims={0}, index_vector_dim=1, to_apply=%region_4.110._custom_call_lowering_rule.1
  %sign.4 = s32[1]{0} sign(%scatter.3)
  %sign.5 = s32[] sign(%constant.532)
  %reshape.527 = s32[1]{0} reshape(%sign.5)
  %compare.118 = pred[1]{0} compare(%sign.4, %reshape.527), direction=NE
  %remainder.12 = s32[1]{0} remainder(%scatter.3, %reshape.521)
  %compare.119 = pred[1]{0} compare(%remainder.12, %constant.680), direction=NE
  %and.24 = pred[1]{0} and(%compare.118, %compare.119)
  %divide.53 = s32[1]{0} divide(%scatter.3, %reshape.521)
  %subtract.12 = s32[1]{0} subtract(%divide.53, %constant.679)
  %select.80 = s32[1]{0} select(%and.24, %subtract.12, %divide.53)
  %compare.120 = pred[] compare(%constant.549, %constant.535), direction=EQ
  %select.81 = s32[] select(%compare.120, %constant.532, %constant.549)
  %reshape.531 = s32[1]{0} reshape(%select.81)
  %remainder.13 = s32[1]{0} remainder(%select.80, %reshape.531)
  %compare.121 = pred[1]{0} compare(%remainder.13, %constant.680), direction=LT
  %compare.122 = pred[] compare(%select.81, %constant.535), direction=LT
  %reshape.532 = pred[1]{0} reshape(%compare.122)
  %compare.123 = pred[1]{0} compare(%compare.121, %reshape.532), direction=NE
  %compare.124 = pred[1]{0} compare(%remainder.13, %constant.680), direction=NE
  %and.25 = pred[1]{0} and(%compare.123, %compare.124)
  %add.113 = s32[1]{0} add(%remainder.13, %reshape.531)
  %select.82 = s32[1]{0} select(%and.25, %add.113, %remainder.13)
  %compare.125 = pred[1]{0} compare(%select.82, %constant.680), direction=LT
  %add.114 = s32[1]{0} add(%select.82, %constant.682)
  %select.83 = s32[1]{0} select(%compare.125, %add.114, %select.82)
  %reshape.535 = s32[1,1]{1,0} reshape(%select.83)
  %get-tuple-element.48 = s32[1,8192]{1,0} get-tuple-element(%param.3), index=21
  %broadcast.517 = s32[1,8192,8192]{2,1,0} broadcast(%get-tuple-element.48), dimensions={0,1}
  %broadcast.518 = s32[1,8192,8192]{2,1,0} broadcast(%get-tuple-element.48), dimensions={0,2}
  %compare.111 = pred[1,8192,8192]{2,1,0} compare(%broadcast.517, %broadcast.518), direction=EQ
  %iota.21 = s32[8192,8192]{1,0} iota(), iota_dimension=1
  %iota.22 = s32[8192,8192]{1,0} iota(), iota_dimension=0
  %compare.112 = pred[8192,8192]{1,0} compare(%iota.21, %iota.22), direction=LE
  %broadcast.519 = pred[1,8192,8192]{2,1,0} broadcast(%compare.112), dimensions={1,2}
  %and.23 = pred[1,8192,8192]{2,1,0} and(%compare.111, %broadcast.519)
  %broadcast.520 = f32[1,8192,8192]{2,1,0} broadcast(%constant.538), dimensions={}
  %constant.659 = f32[] constant(-2.38197633e+38)
  %broadcast.521 = f32[1,8192,8192]{2,1,0} broadcast(%constant.659), dimensions={}
  %select.73 = f32[1,8192,8192]{2,1,0} select(%and.23, %broadcast.520, %broadcast.521)
  %compare.113 = pred[1,8192,8192]{2,1,0} compare(%select.73, %broadcast.520), direction=NE
  %not.3 = pred[1,8192,8192]{2,1,0} not(%compare.113)
  %convert.149 = s32[1,8192,8192]{2,1,0} convert(%not.3)
  %reduce.22 = s32[1,8192]{1,0} reduce(%convert.149, %constant.535), dimensions={1}, to_apply=%region_19.1195
  %reshape.516 = s32[1,1,1,8192]{3,2,1,0} reshape(%reduce.22)
  %slice.41 = s32[1,1,1,1]{3,2,1,0} slice(%reshape.516), slice={[0:1], [0:1], [0:1], [0:1]}
  %reshape.518 = s32[1,1]{1,0} reshape(%slice.41)
  %reshape.536 = s32[1]{0} reshape(%reshape.518)
  %compare.126 = pred[1]{0} compare(%reshape.536, %constant.680), direction=LT
  %constant.692 = s32[] constant(-1)
  %reshape.537 = s32[1]{0} reshape(%constant.692)
  %select.84 = s32[1]{0} select(%compare.126, %reshape.537, %reshape.536)
  %scatter.4 = s32[2]{0} scatter(%scatter.1, %reshape.535, %select.84), update_window_dims={}, inserted_window_dims={0}, scatter_dims_to_operand_dims={0}, index_vector_dim=1, to_apply=%region_6.178._custom_call_lowering_rule.1
  %reduce.23 = s32[1,8192]{1,0} reduce(%convert.149, %constant.535), dimensions={2}, to_apply=%region_20.1203
  %reshape.519 = s32[1,1,1,8192]{3,2,1,0} reshape(%reduce.23)
  %constant.672 = s32[] constant(-2147483648)
  %reduce.24 = s32[1,1]{1,0} reduce(%reshape.519, %constant.672), dimensions={3,2}, to_apply=%region_21.1208
  %reshape.552 = s32[1]{0} reshape(%reduce.24)
  %compare.139 = pred[1]{0} compare(%reshape.552, %constant.680), direction=LT
  %select.94 = s32[1]{0} select(%compare.139, %reshape.537, %reshape.552)
  %scatter.9 = s32[2]{0} scatter(%scatter.1, %reshape.535, %select.94), update_window_dims={}, inserted_window_dims={0}, scatter_dims_to_operand_dims={0}, index_vector_dim=1, to_apply=%region_11.232._custom_call_lowering_rule.1
  %constant.673 = u32[] constant(0)
  %broadcast.523 = u32[1024]{0} broadcast(%constant.673), dimensions={}
  %constant.674 = s32[512]{0} constant({0, 2, 4, 6, 8, 10, 12, 14, 16, 18, 20, 22, 24, 26, 28, 30, 32, 34, 36, 38, 40, 42, 44, 46, 48, 50, 52, 54, 56, 58, 60, 62, 64, 66, 68, 70, 72, 74, 76, 78, 80, 82, 84, 86, 88, 90, 92, 94, 96, 98, 100, 102, 104, 106, 108, 110, 112, 114, 116, 118, 120, 122, 124, 126, 128, 130, 132, 134, 136, 138, 140, 142, 144, 146, 148, 150, 152, 154, 156, 158, 160, 162, 164, 166, 168, 170, 172, 174, 176, 178, 180, 182, 184, 186, 188, 190, 192, 194, 196, 198, 200, 202, 204, 206, 208, 210, 212, 214, 216, 218, 220, 222, 224, 226, 228, 230, 232, 234, 236, 238, 240, 242, 244, 246, 248, 250, 252, 254, 256, 258, 260, 262, 264, 266, 268, 270, 272, 274, 276, 278, 280, 282, 284, 286, 288, 290, 292, 294, 296, 298, 300, 302, 304, 306, 308, 310, 312, 314, 316, 318, 320, 322, 324, 326, 328, 330, 332, 334, 336, 338, 340, 342, 344, 346, 348, 350, 352, 354, 356, 358, 360, 362, 364, 366, 368, 370, 372, 374, 376, 378, 380, 382, 384, 386, 388, 390, 392, 394, 396, 398, 400, 402, 404, 406, 408, 410, 412, 414, 416, 418, 420, 422, 424, 426, 428, 430, 432, 434, 436, 438, 440, 442, 444, 446, 448, 450, 452, 454, 456, 458, 460, 462, 464, 466, 468, 470, 472, 474, 476, 478, 480, 482, 484, 486, 488, 490, 492, 494, 496, 498, 500, 502, 504, 506, 508, 510, 512, 514, 516, 518, 520, 522, 524, 526, 528, 530, 532, 534, 536, 538, 540, 542, 544, 546, 548, 550, 552, 554, 556, 558, 560, 562, 564, 566, 568, 570, 572, 574, 576, 578, 580, 582, 584, 586, 588, 590, 592, 594, 596, 598, 600, 602, 604, 606, 608, 610, 612, 614, 616, 618, 620, 622, 624, 626, 628, 630, 632, 634, 636, 638, 640, 642, 644, 646, 648, 650, 652, 654, 656, 658, 660, 662, 664, 666, 668, 670, 672, 674, 676, 678, 680, 682, 684, 686, 688, 690, 692, 694, 696, 698, 700, 702, 704, 706, 708, 710, 712, 714, 716, 718, 720, 722, 724, 726, 728, 730, 732, 734, 736, 738, 740, 742, 744, 746, 748, 750, 752, 754, 756, 758, 760, 762, 764, 766, 768, 770, 772, 774, 776, 778, 780, 782, 784, 786, 788, 790, 792, 794, 796, 798, 800, 802, 804, 806, 808, 810, 812, 814, 816, 818, 820, 822, 824, 826, 828, 830, 832, 834, 836, 838, 840, 842, 844, 846, 848, 850, 852, 854, 856, 858, 860, 862, 864, 866, 868, 870, 872, 874, 876, 878, 880, 882, 884, 886, 888, 890, 892, 894, 896, 898, 900, 902, 904, 906, 908, 910, 912, 914, 916, 918, 920, 922, 924, 926, 928, 930, 932, 934, 936, 938, 940, 942, 944, 946, 948, 950, 952, 954, 956, 958, 960, 962, 964, 966, 968, 970, 972, 974, 976, 978, 980, 982, 984, 986, 988, 990, 992, 994, 996, 998, 1000, 1002, 1004, 1006, 1008, 1010, 1012, 1014, 1016, 1018, 1020, 1022})
  %partition-id.3 = u32[] partition-id()
  %dynamic-slice.33 = s32[1]{0} dynamic-slice(%constant.674, %partition-id.3), dynamic_slice_sizes={1}
  %reshape.520 = s32[] reshape(%dynamic-slice.33)
  %dynamic-slice.34 = u32[2]{0} dynamic-slice(%broadcast.523, %reshape.520), dynamic_slice_sizes={2}
  %custom-call.40 = (bf16[1,8192,128,128]{3,2,1,0}, f32[1,128,8192,1]{3,2,1,0}, u32[2,4]{1,0}, u8[48]{0}) custom-call(%copy.60, %copy.62, %copy.63, %constant.657, %scatter.4, /*index=5*/%scatter.9, %constant.657, %constant.657, %dynamic-slice.34), custom_call_target="te_fused_attn_forward_ffi", operand_layout_constraints={bf16[1,8192,128,128]{3,2,1,0}, bf16[1,8192,8,128]{3,2,1,0}, bf16[1,8192,8,128]{3,2,1,0}, bf16[0]{0}, s32[2]{0}, s32[2]{0}, bf16[0]{0}, bf16[0]{0}, u32[2]{0}}, api_version=API_VERSION_TYPED_FFI, backend_config={attn_heads = 128 : i64, bias_batch = 0 : i64, bias_heads = 0 : i64, bias_type = 0 : i64, deterministic = false, dropout_probability = 0.000000e+00 : f64, head_dim = 128 : i64, input_batch = 1 : i64, is_training = true, kv_max_seqlen = 8192 : i64, mask_type = 3 : i64, max_segments_per_seq = 1 : i64, num_gqa_groups = 8 : i64, q_max_seqlen = 8192 : i64, qkv_layout = 9 : i64, scaling_factor = 1.000000e+00 : f64, window_size_left = -1 : i64, window_size_right = -1 : i64}
  %get-tuple-element.54 = bf16[1,8192,128,128]{3,2,1,0} get-tuple-element(%custom-call.40), index=0
  %copy.64 = bf16[1,8192,128,128]{3,2,1,0} copy(%get-tuple-element.54)
  %get-tuple-element.55 = f32[126,128,128,32]{3,2,1,0} get-tuple-element(%param.3), index=17
  %dynamic-slice.35 = f32[1,128,128,32]{3,2,1,0} dynamic-slice(%get-tuple-element.55, %subtract.9, %constant.535, %constant.535, %constant.535), dynamic_slice_sizes={1,128,128,32}
  %convert.153 = bf16[1,128,128,32]{3,2,1,0} convert(%dynamic-slice.35)
  %reshape.555 = bf16[128,128,32]{2,1,0} reshape(%convert.153)
  %all-gather.10 = bf16[128,128,16384]{2,1,0} all-gather(%reshape.555), channel_id=15, replica_groups=[1,512]<=[512], dimensions={2}, use_global_device_ids=true
  %dot.42 = bf16[1,8192,16384]{2,1,0} dot(%copy.64, %all-gather.10), lhs_contracting_dims={2,3}, rhs_contracting_dims={0,1}
  %copy.65 = bf16[1,8192,16384]{2,1,0} copy(%dot.42)
  %add.121 = bf16[1,8192,16384]{2,1,0} add(%copy.57, %copy.65)
  %convert.154 = f32[1,8192,16384]{2,1,0} convert(%add.121)
  %multiply.215 = f32[1,8192,16384]{2,1,0} multiply(%convert.154, %convert.154)
  %reduce.25 = f32[1,8192]{1,0} reduce(%multiply.215, %constant.538), dimensions={2}, to_apply=%region_22.1225
  %multiply.216 = f32[1,8192]{1,0} multiply(%reduce.25, %broadcast.462)
  %add.122 = f32[1,8192]{1,0} add(%multiply.216, %broadcast.463)
  %reshape.556 = f32[1,8192,1]{2,1,0} reshape(%add.122)
  %rsqrt.9 = f32[1,8192,1]{2,1,0} rsqrt(%reshape.556)
  %reshape.557 = f32[1,8192]{1,0} reshape(%rsqrt.9)
  %broadcast.534 = f32[1,8192,16384]{2,1,0} broadcast(%reshape.557), dimensions={0,1}
  %multiply.217 = f32[1,8192,16384]{2,1,0} multiply(%convert.154, %broadcast.534)
  %convert.155 = bf16[1,8192,16384]{2,1,0} convert(%multiply.217)
  %get-tuple-element.56 = f32[126,16384]{1,0} get-tuple-element(%param.3), index=14
  %dynamic-slice.36 = f32[1,16384]{1,0} dynamic-slice(%get-tuple-element.56, %subtract.9, %constant.535), dynamic_slice_sizes={1,16384}
  %convert.156 = bf16[1,16384]{1,0} convert(%dynamic-slice.36)
  %reshape.559 = bf16[16384]{0} reshape(%convert.156)
  %broadcast.536 = bf16[1,8192,16384]{2,1,0} broadcast(%reshape.559), dimensions={2}
  %multiply.218 = bf16[1,8192,16384]{2,1,0} multiply(%convert.155, %broadcast.536)
  %copy.66 = bf16[1,8192,16384]{2,1,0} copy(%multiply.218)
  %get-tuple-element.57 = f32[126,32,53248]{2,1,0} get-tuple-element(%param.3), index=11
  %dynamic-slice.37 = f32[1,32,53248]{2,1,0} dynamic-slice(%get-tuple-element.57, %subtract.9, %constant.535, %constant.535), dynamic_slice_sizes={1,32,53248}
  %convert.157 = bf16[1,32,53248]{2,1,0} convert(%dynamic-slice.37)
  %reshape.560 = bf16[32,53248]{1,0} reshape(%convert.157)
  %all-gather.11 = bf16[16384,53248]{1,0} all-gather(%reshape.560), channel_id=16, replica_groups=[1,512]<=[512], dimensions={0}, use_global_device_ids=true
  %dot.43 = bf16[1,8192,53248]{2,1,0} dot(%copy.66, %all-gather.11), lhs_contracting_dims={2}, rhs_contracting_dims={0}
  %constant.711 = bf16[] constant(1)
  %broadcast.538 = bf16[1,8192,53248]{2,1,0} broadcast(%constant.711), dimensions={}
  %negate.29 = bf16[1,8192,53248]{2,1,0} negate(%dot.43)
  %exponential.5 = bf16[1,8192,53248]{2,1,0} exponential(%negate.29)
  %add.123 = bf16[1,8192,53248]{2,1,0} add(%exponential.5, %broadcast.538)
  %divide.55 = bf16[1,8192,53248]{2,1,0} divide(%broadcast.538, %add.123)
  %multiply.219 = bf16[1,8192,53248]{2,1,0} multiply(%dot.43, %divide.55)
  %copy.67 = bf16[1,8192,16384]{2,1,0} copy(%copy.56)
  %get-tuple-element.58 = f32[126,53248,32]{2,1,0} get-tuple-element(%param.3), index=13
  %dynamic-slice.38 = f32[1,53248,32]{2,1,0} dynamic-slice(%get-tuple-element.58, %subtract.9, %constant.535, %constant.535), dynamic_slice_sizes={1,53248,32}
  %convert.158 = bf16[1,53248,32]{2,1,0} convert(%dynamic-slice.38)
  %reshape.561 = bf16[53248,32]{1,0} reshape(%convert.158)
  %all-gather.12 = bf16[53248,16384]{1,0} all-gather(%reshape.561), channel_id=17, replica_groups=[1,512]<=[512], dimensions={1}, use_global_device_ids=true
  %dot.44 = bf16[1,8192,53248]{2,1,0} dot(%copy.67, %all-gather.12), lhs_contracting_dims={2}, rhs_contracting_dims={1}
  %copy.68 = bf16[1,8192,53248]{2,1,0} copy(%dot.44)
  %multiply.220 = bf16[1,8192,53248]{2,1,0} multiply(%multiply.219, %copy.68)
  %get-tuple-element.59 = f32[126,32,53248]{2,1,0} get-tuple-element(%param.3), index=12
  %dynamic-slice.39 = f32[1,32,53248]{2,1,0} dynamic-slice(%get-tuple-element.59, %subtract.9, %constant.535, %constant.535), dynamic_slice_sizes={1,32,53248}
  %convert.159 = bf16[1,32,53248]{2,1,0} convert(%dynamic-slice.39)
  %reshape.563 = bf16[32,53248]{1,0} reshape(%convert.159)
  %all-gather.13 = bf16[16384,53248]{1,0} all-gather(%reshape.563), channel_id=18, replica_groups=[1,512]<=[512], dimensions={0}, use_global_device_ids=true
  %dot.45 = bf16[1,8192,16384]{2,1,0} dot(%multiply.220, %all-gather.13), lhs_contracting_dims={2}, rhs_contracting_dims={1}
  %dot.46 = bf16[1,8192,53248]{2,1,0} dot(%copy.66, %all-gather.13), lhs_contracting_dims={2}, rhs_contracting_dims={0}
  %multiply.221 = bf16[1,8192,53248]{2,1,0} multiply(%copy.68, %dot.46)
  %multiply.222 = bf16[1,8192,53248]{2,1,0} multiply(%multiply.221, %divide.55)
  %multiply.223 = bf16[1,8192,53248]{2,1,0} multiply(%dot.43, %multiply.221)
  %subtract.14 = bf16[1,8192,53248]{2,1,0} subtract(%broadcast.538, %divide.55)
  %multiply.224 = bf16[1,8192,53248]{2,1,0} multiply(%divide.55, %subtract.14)
  %multiply.225 = bf16[1,8192,53248]{2,1,0} multiply(%multiply.223, %multiply.224)
  %add.124 = bf16[1,8192,53248]{2,1,0} add(%multiply.222, %multiply.225)
  %dot.47 = bf16[1,8192,16384]{2,1,0} dot(%add.124, %all-gather.11), lhs_contracting_dims={2}, rhs_contracting_dims={1}
  %add.125 = bf16[1,8192,16384]{2,1,0} add(%dot.45, %dot.47)
  %copy.69 = bf16[1,8192,16384]{2,1,0} copy(%add.125)
  %multiply.226 = bf16[1,8192,16384]{2,1,0} multiply(%copy.69, %broadcast.536)
  %convert.160 = f32[1,8192,16384]{2,1,0} convert(%multiply.226)
  %multiply.227 = f32[1,8192,16384]{2,1,0} multiply(%convert.160, %broadcast.534)
  %multiply.228 = f32[1,8192,16384]{2,1,0} multiply(%convert.154, %convert.160)
  %reduce.26 = f32[1,8192]{1,0} reduce(%multiply.228, %constant.538), dimensions={2}, to_apply=%region_25.1319
  %reshape.566 = f32[1,8192,1]{2,1,0} reshape(%reduce.26)
  %divide.56 = f32[1,8192,1]{2,1,0} divide(%rsqrt.9, %reshape.556)
  %constant.719 = f32[] constant(-0.5)
  %broadcast.542 = f32[1,8192,1]{2,1,0} broadcast(%constant.719), dimensions={}
  %multiply.229 = f32[1,8192,1]{2,1,0} multiply(%divide.56, %broadcast.542)
  %multiply.230 = f32[1,8192,1]{2,1,0} multiply(%reshape.566, %multiply.229)
  %constant.720 = f32[] constant(0.000122070312)
  %broadcast.543 = f32[1,8192,1]{2,1,0} broadcast(%constant.720), dimensions={}
  %multiply.231 = f32[1,8192,1]{2,1,0} multiply(%multiply.230, %broadcast.543)
  %reshape.567 = f32[1,8192]{1,0} reshape(%multiply.231)
  %broadcast.544 = f32[1,8192,16384]{2,1,0} broadcast(%reshape.567), dimensions={0,1}
  %multiply.232 = f32[1,8192,16384]{2,1,0} multiply(%convert.154, %broadcast.544)
  %add.126 = f32[1,8192,16384]{2,1,0} add(%multiply.227, %multiply.232)
  %convert.161 = bf16[1,8192,16384]{2,1,0} convert(%add.126)
  %add.127 = bf16[1,8192,16384]{2,1,0} add(%copy.56, %convert.161)
  %get-tuple-element.60 = f32[1,128,8192,1]{3,2,1,0} get-tuple-element(%custom-call.40), index=1
  %get-tuple-element.61 = u32[2,4]{1,0} get-tuple-element(%custom-call.40), index=2
  %copy.70 = bf16[1,8192,16384]{2,1,0} copy(%add.127)
  %dot.48 = bf16[1,8192,128,128]{3,2,1,0} dot(%copy.70, %all-gather.10), lhs_contracting_dims={2}, rhs_contracting_dims={2}
  %copy.71 = bf16[1,8192,128,128]{3,2,1,0} copy(%dot.48)
  %custom-call.237 = (bf16[1,8192,128,128]{3,2,1,0}, bf16[1,8192,8,128]{3,2,1,0}, bf16[1,8192,8,128]{3,2,1,0}, bf16[0]{0}, u8[1077936176]{0}) custom-call(%copy.60, %copy.62, %copy.63, %constant.657, %get-tuple-element.60, /*index=5*/%get-tuple-element.61, %get-tuple-element.54, %copy.71, %scatter.4, %scatter.9, /*index=10*/%constant.657, %constant.657), custom_call_target="te_fused_attn_backward_ffi", operand_layout_constraints={bf16[1,8192,128,128]{3,2,1,0}, bf16[1,8192,8,128]{3,2,1,0}, bf16[1,8192,8,128]{3,2,1,0}, bf16[0]{0}, f32[1,128,8192,1]{3,2,1,0}, u32[2,4]{1,0}, bf16[1,8192,128,128]{3,2,1,0}, bf16[1,8192,128,128]{3,2,1,0}, s32[2]{0}, s32[2]{0}, bf16[0]{0}, bf16[0]{0}}, api_version=API_VERSION_TYPED_FFI, backend_config={attn_heads = 128 : i64, bias_batch = 0 : i64, bias_heads = 0 : i64, bias_type = 0 : i64, deterministic = false, dropout_probability = 0.000000e+00 : f64, head_dim = 128 : i64, input_batch = 1 : i64, is_training = true, kv_max_seqlen = 8192 : i64, mask_type = 3 : i64, max_segments_per_seq = 1 : i64, num_gqa_groups = 8 : i64, q_max_seqlen = 8192 : i64, qkv_layout = 9 : i64, scaling_factor = 1.000000e+00 : f64, window_size_left = -1 : i64, window_size_right = -1 : i64}
  %get-tuple-element.64 = bf16[1,8192,8,128]{3,2,1,0} get-tuple-element(%custom-call.237), index=2
  %copy.72 = bf16[1,8192,8,128]{3,2,1,0} copy(%get-tuple-element.64)
  %dot.49 = bf16[1,8192,16384]{2,1,0} dot(%copy.72, %all-gather.9), lhs_contracting_dims={2,3}, rhs_contracting_dims={1,2}
  %get-tuple-element.65 = bf16[1,8192,8,128]{3,2,1,0} get-tuple-element(%custom-call.237), index=1
  %copy.73 = bf16[1,8192,8,128]{3,2,1,0} copy(%get-tuple-element.65)
  %convert.164 = f32[1,8192,8,128]{3,2,1,0} convert(%copy.73)
  %multiply.233 = f32[1,8192,8,128]{3,2,1,0} multiply(%convert.164, %broadcast.507)
  %convert.165 = bf16[1,8192,8,128]{3,2,1,0} convert(%multiply.233)
  %compare.158 = pred[128]{0} compare(%select.66, %broadcast.474), direction=EQ
  %broadcast.553 = pred[1,8192,8,128]{3,2,1,0} broadcast(%compare.158), dimensions={3}
  %multiply.234 = f32[1,8192,8,128]{3,2,1,0} multiply(%convert.164, %broadcast.516)
  %multiply.235 = f32[1,8192,8,128]{3,2,1,0} multiply(%multiply.234, %broadcast.514)
  %convert.166 = bf16[1,8192,8,128]{3,2,1,0} convert(%multiply.235)
  %constant.748 = bf16[] constant(0)
  %broadcast.558 = bf16[1,8192,8,128]{3,2,1,0} broadcast(%constant.748), dimensions={}
  %select.109 = bf16[1,8192,8,128]{3,2,1,0} select(%broadcast.553, %convert.166, %broadcast.558)
  %slice.42 = bf16[1,8192,8,127]{3,2,1,0} slice(%select.109), slice={[0:1], [0:8192], [0:8], [1:128]}
  %pad.8 = bf16[1,8192,8,128]{3,2,1,0} pad(%slice.42, %constant.748), padding=0_0x0_0x0_0x0_1
  %add.133 = bf16[1,8192,8,128]{3,2,1,0} add(%convert.165, %pad.8)
  %slice.43 = bf16[1,8192,8,1]{3,2,1,0} slice(%select.109), slice={[0:1], [0:8192], [0:8], [0:1]}
  %pad.9 = bf16[1,8192,8,128]{3,2,1,0} pad(%slice.43, %constant.748), padding=0_0x0_0x0_0x127_0
  %add.134 = bf16[1,8192,8,128]{3,2,1,0} add(%add.133, %pad.9)
  %compare.159 = pred[128]{0} compare(%select.66, %broadcast.488), direction=EQ
  %broadcast.562 = pred[1,8192,8,128]{3,2,1,0} broadcast(%compare.159), dimensions={3}
  %select.110 = bf16[1,8192,8,128]{3,2,1,0} select(%broadcast.562, %convert.166, %broadcast.558)
  %slice.44 = bf16[1,8192,8,1]{3,2,1,0} slice(%select.110), slice={[0:1], [0:8192], [0:8], [127:128]}
  %pad.10 = bf16[1,8192,8,128]{3,2,1,0} pad(%slice.44, %constant.748), padding=0_0x0_0x0_0x0_127
  %add.135 = bf16[1,8192,8,128]{3,2,1,0} add(%add.134, %pad.10)
  %slice.45 = bf16[1,8192,8,127]{3,2,1,0} slice(%select.110), slice={[0:1], [0:8192], [0:8], [0:127]}
  %pad.11 = bf16[1,8192,8,128]{3,2,1,0} pad(%slice.45, %constant.748), padding=0_0x0_0x0_0x1_0
  %add.136 = bf16[1,8192,8,128]{3,2,1,0} add(%add.135, %pad.11)
  %dot.50 = bf16[1,8192,16384]{2,1,0} dot(%add.136, %all-gather.8), lhs_contracting_dims={2,3}, rhs_contracting_dims={1,2}
  %add.137 = bf16[1,8192,16384]{2,1,0} add(%dot.49, %dot.50)
  %copy.74 = bf16[1,8192,16384]{2,1,0} copy(%add.137)
  %get-tuple-element.66 = bf16[1,8192,128,128]{3,2,1,0} get-tuple-element(%custom-call.237), index=0
  %copy.75 = bf16[1,8192,128,128]{3,2,1,0} copy(%get-tuple-element.66)
  %convert.167 = f32[1,8192,128,128]{3,2,1,0} convert(%copy.75)
  %multiply.244 = f32[1,8192,128,128]{3,2,1,0} multiply(%convert.167, %broadcast.486)
  %convert.168 = bf16[1,8192,128,128]{3,2,1,0} convert(%multiply.244)
  %broadcast.566 = pred[1,8192,128,128]{3,2,1,0} broadcast(%compare.158), dimensions={3}
  %multiply.245 = f32[1,8192,128,128]{3,2,1,0} multiply(%convert.167, %broadcast.494)
  %multiply.246 = f32[1,8192,128,128]{3,2,1,0} multiply(%multiply.245, %broadcast.492)
  %convert.169 = bf16[1,8192,128,128]{3,2,1,0} convert(%multiply.246)
  %broadcast.569 = bf16[1,8192,128,128]{3,2,1,0} broadcast(%constant.748), dimensions={}
  %select.111 = bf16[1,8192,128,128]{3,2,1,0} select(%broadcast.566, %convert.169, %broadcast.569)
  %slice.46 = bf16[1,8192,128,127]{3,2,1,0} slice(%select.111), slice={[0:1], [0:8192], [0:128], [1:128]}
  %pad.12 = bf16[1,8192,128,128]{3,2,1,0} pad(%slice.46, %constant.748), padding=0_0x0_0x0_0x0_1
  %add.138 = bf16[1,8192,128,128]{3,2,1,0} add(%convert.168, %pad.12)
  %slice.47 = bf16[1,8192,128,1]{3,2,1,0} slice(%select.111), slice={[0:1], [0:8192], [0:128], [0:1]}
  %pad.13 = bf16[1,8192,128,128]{3,2,1,0} pad(%slice.47, %constant.748), padding=0_0x0_0x0_0x127_0
  %add.139 = bf16[1,8192,128,128]{3,2,1,0} add(%add.138, %pad.13)
  %broadcast.571 = pred[1,8192,128,128]{3,2,1,0} broadcast(%compare.159), dimensions={3}
  %select.112 = bf16[1,8192,128,128]{3,2,1,0} select(%broadcast.571, %convert.169, %broadcast.569)
  %slice.48 = bf16[1,8192,128,1]{3,2,1,0} slice(%select.112), slice={[0:1], [0:8192], [0:128], [127:128]}
  %pad.14 = bf16[1,8192,128,128]{3,2,1,0} pad(%slice.48, %constant.748), padding=0_0x0_0x0_0x0_127
  %add.140 = bf16[1,8192,128,128]{3,2,1,0} add(%add.139, %pad.14)
  %slice.49 = bf16[1,8192,128,127]{3,2,1,0} slice(%select.112), slice={[0:1], [0:8192], [0:128], [0:127]}
  %pad.15 = bf16[1,8192,128,128]{3,2,1,0} pad(%slice.49, %constant.748), padding=0_0x0_0x0_0x1_0
  %add.141 = bf16[1,8192,128,128]{3,2,1,0} add(%add.140, %pad.15)
  %dot.51 = bf16[1,8192,16384]{2,1,0} dot(%add.141, %all-gather.7), lhs_contracting_dims={2,3}, rhs_contracting_dims={1,2}
  %copy.76 = bf16[1,8192,16384]{2,1,0} copy(%dot.51)
  %add.142 = bf16[1,8192,16384]{2,1,0} add(%copy.74, %copy.76)
  %copy.77 = bf16[1,8192,16384]{2,1,0} copy(%add.142)
  %multiply.255 = bf16[1,8192,16384]{2,1,0} multiply(%copy.77, %broadcast.465)
  %convert.170 = f32[1,8192,16384]{2,1,0} convert(%multiply.255)
  %multiply.256 = f32[1,8192,16384]{2,1,0} multiply(%convert.170, %broadcast.464)
  %multiply.257 = f32[1,8192,16384]{2,1,0} multiply(%convert.127, %convert.170)
  %reduce.27 = f32[1,8192]{1,0} reduce(%multiply.257, %constant.538), dimensions={2}, to_apply=%region_29.1453
  %reshape.624 = f32[1,8192,1]{2,1,0} reshape(%reduce.27)
  %divide.59 = f32[1,8192,1]{2,1,0} divide(%rsqrt.8, %reshape.490)
  %multiply.258 = f32[1,8192,1]{2,1,0} multiply(%divide.59, %broadcast.542)
  %multiply.259 = f32[1,8192,1]{2,1,0} multiply(%reshape.624, %multiply.258)
  %multiply.260 = f32[1,8192,1]{2,1,0} multiply(%multiply.259, %broadcast.543)
  %reshape.625 = f32[1,8192]{1,0} reshape(%multiply.260)
  %broadcast.575 = f32[1,8192,16384]{2,1,0} broadcast(%reshape.625), dimensions={0,1}
  %multiply.261 = f32[1,8192,16384]{2,1,0} multiply(%convert.127, %broadcast.575)
  %add.143 = f32[1,8192,16384]{2,1,0} add(%multiply.256, %multiply.261)
  %convert.171 = bf16[1,8192,16384]{2,1,0} convert(%add.143)
  %add.144 = bf16[1,8192,16384]{2,1,0} add(%add.127, %convert.171)
  %copy.78 = bf16[1,8192,16384]{2,1,0} copy(%add.144)
  %get-tuple-element.67 = f32[126,32,53248]{2,1,0} get-tuple-element(%param.3), index=2
  %dot.52 = bf16[16384,53248]{1,0} dot(%copy.66, %add.124), lhs_contracting_dims={0,1}, rhs_contracting_dims={0,1}
  %all-reduce = bf16[16384,53248]{1,0} all-reduce(%dot.52), channel_id=19, replica_groups=[1,512]<=[512], use_global_device_ids=true, to_apply=%add.clone
  %constant.919 = s32[512]{0} constant({0, 32, 64, 96, 128, 160, 192, 224, 256, 288, 320, 352, 384, 416, 448, 480, 512, 544, 576, 608, 640, 672, 704, 736, 768, 800, 832, 864, 896, 928, 960, 992, 1024, 1056, 1088, 1120, 1152, 1184, 1216, 1248, 1280, 1312, 1344, 1376, 1408, 1440, 1472, 1504, 1536, 1568, 1600, 1632, 1664, 1696, 1728, 1760, 1792, 1824, 1856, 1888, 1920, 1952, 1984, 2016, 2048, 2080, 2112, 2144, 2176, 2208, 2240, 2272, 2304, 2336, 2368, 2400, 2432, 2464, 2496, 2528, 2560, 2592, 2624, 2656, 2688, 2720, 2752, 2784, 2816, 2848, 2880, 2912, 2944, 2976, 3008, 3040, 3072, 3104, 3136, 3168, 3200, 3232, 3264, 3296, 3328, 3360, 3392, 3424, 3456, 3488, 3520, 3552, 3584, 3616, 3648, 3680, 3712, 3744, 3776, 3808, 3840, 3872, 3904, 3936, 3968, 4000, 4032, 4064, 4096, 4128, 4160, 4192, 4224, 4256, 4288, 4320, 4352, 4384, 4416, 4448, 4480, 4512, 4544, 4576, 4608, 4640, 4672, 4704, 4736, 4768, 4800, 4832, 4864, 4896, 4928, 4960, 4992, 5024, 5056, 5088, 5120, 5152, 5184, 5216, 5248, 5280, 5312, 5344, 5376, 5408, 5440, 5472, 5504, 5536, 5568, 5600, 5632, 5664, 5696, 5728, 5760, 5792, 5824, 5856, 5888, 5920, 5952, 5984, 6016, 6048, 6080, 6112, 6144, 6176, 6208, 6240, 6272, 6304, 6336, 6368, 6400, 6432, 6464, 6496, 6528, 6560, 6592, 6624, 6656, 6688, 6720, 6752, 6784, 6816, 6848, 6880, 6912, 6944, 6976, 7008, 7040, 7072, 7104, 7136, 7168, 7200, 7232, 7264, 7296, 7328, 7360, 7392, 7424, 7456, 7488, 7520, 7552, 7584, 7616, 7648, 7680, 7712, 7744, 7776, 7808, 7840, 7872, 7904, 7936, 7968, 8000, 8032, 8064, 8096, 8128, 8160, 8192, 8224, 8256, 8288, 8320, 8352, 8384, 8416, 8448, 8480, 8512, 8544, 8576, 8608, 8640, 8672, 8704, 8736, 8768, 8800, 8832, 8864, 8896, 8928, 8960, 8992, 9024, 9056, 9088, 9120, 9152, 9184, 9216, 9248, 9280, 9312, 9344, 9376, 9408, 9440, 9472, 9504, 9536, 9568, 9600, 9632, 9664, 9696, 9728, 9760, 9792, 9824, 9856, 9888, 9920, 9952, 9984, 10016, 10048, 10080, 10112, 10144, 10176, 10208, 10240, 10272, 10304, 10336, 10368, 10400, 10432, 10464, 10496, 10528, 10560, 10592, 10624, 10656, 10688, 10720, 10752, 10784, 10816, 10848, 10880, 10912, 10944, 10976, 11008, 11040, 11072, 11104, 11136, 11168, 11200, 11232, 11264, 11296, 11328, 11360, 11392, 11424, 11456, 11488, 11520, 11552, 11584, 11616, 11648, 11680, 11712, 11744, 11776, 11808, 11840, 11872, 11904, 11936, 11968, 12000, 12032, 12064, 12096, 12128, 12160, 12192, 12224, 12256, 12288, 12320, 12352, 12384, 12416, 12448, 12480, 12512, 12544, 12576, 12608, 12640, 12672, 12704, 12736, 12768, 12800, 12832, 12864, 12896, 12928, 12960, 12992, 13024, 13056, 13088, 13120, 13152, 13184, 13216, 13248, 13280, 13312, 13344, 13376, 13408, 13440, 13472, 13504, 13536, 13568, 13600, 13632, 13664, 13696, 13728, 13760, 13792, 13824, 13856, 13888, 13920, 13952, 13984, 14016, 14048, 14080, 14112, 14144, 14176, 14208, 14240, 14272, 14304, 14336, 14368, 14400, 14432, 14464, 14496, 14528, 14560, 14592, 14624, 14656, 14688, 14720, 14752, 14784, 14816, 14848, 14880, 14912, 14944, 14976, 15008, 15040, 15072, 15104, 15136, 15168, 15200, 15232, 15264, 15296, 15328, 15360, 15392, 15424, 15456, 15488, 15520, 15552, 15584, 15616, 15648, 15680, 15712, 15744, 15776, 15808, 15840, 15872, 15904, 15936, 15968, 16000, 16032, 16064, 16096, 16128, 16160, 16192, 16224, 16256, 16288, 16320, 16352})
  %dynamic-slice.56 = s32[1]{0} dynamic-slice(%constant.919, %partition-id.3), dynamic_slice_sizes={1}
  %reshape.626 = s32[] reshape(%dynamic-slice.56)
  %dynamic-slice.57 = bf16[32,53248]{1,0} dynamic-slice(%all-reduce, %reshape.626, %constant.535), dynamic_slice_sizes={32,53248}
  %convert.172 = f32[32,53248]{0,1} convert(%dynamic-slice.57)
  %reshape.627 = f32[1,32,53248]{2,1,0} reshape(%convert.172)
  %dynamic-update-slice.1 = f32[126,32,53248]{2,1,0} dynamic-update-slice(%get-tuple-element.67, %reshape.627, %subtract.9, %constant.535, %constant.535)
  %get-tuple-element.68 = f32[126,32,53248]{2,1,0} get-tuple-element(%param.3), index=3
  %dot.53 = bf16[16384,53248]{1,0} dot(%copy.66, %multiply.220), lhs_contracting_dims={0,1}, rhs_contracting_dims={0,1}
  %all-reduce.1 = bf16[16384,53248]{1,0} all-reduce(%dot.53), channel_id=20, replica_groups=[1,512]<=[512], use_global_device_ids=true, to_apply=%add.1.clone
  %dynamic-slice.59 = bf16[32,53248]{1,0} dynamic-slice(%all-reduce.1, %reshape.626, %constant.535), dynamic_slice_sizes={32,53248}
  %convert.173 = f32[32,53248]{0,1} convert(%dynamic-slice.59)
  %reshape.630 = f32[1,32,53248]{2,1,0} reshape(%convert.173)
  %dynamic-update-slice.2 = f32[126,32,53248]{2,1,0} dynamic-update-slice(%get-tuple-element.68, %reshape.630, %subtract.9, %constant.535, %constant.535)
  %get-tuple-element.69 = f32[126,53248,32]{2,1,0} get-tuple-element(%param.3), index=4
  %multiply.262 = bf16[1,8192,53248]{2,1,0} multiply(%multiply.219, %dot.46)
  %copy.79 = bf16[1,8192,53248]{2,1,0} copy(%multiply.262)
  %dot.54 = bf16[53248,16384]{1,0} dot(%copy.79, %copy.67), lhs_contracting_dims={0,1}, rhs_contracting_dims={0,1}
  %all-reduce.2 = bf16[53248,16384]{1,0} all-reduce(%dot.54), channel_id=21, replica_groups=[1,512]<=[512], use_global_device_ids=true, to_apply=%add.2.clone
  %dynamic-slice.61 = bf16[53248,32]{1,0} dynamic-slice(%all-reduce.2, %constant.535, %reshape.626), dynamic_slice_sizes={53248,32}
  %convert.174 = f32[53248,32]{0,1} convert(%dynamic-slice.61)
  %reshape.632 = f32[1,53248,32]{2,1,0} reshape(%convert.174)
  %dynamic-update-slice.3 = f32[126,53248,32]{2,1,0} dynamic-update-slice(%get-tuple-element.69, %reshape.632, %subtract.9, %constant.535, %constant.535)
  %get-tuple-element.70 = f32[126,16384]{1,0} get-tuple-element(%param.3), index=5
  %multiply.263 = bf16[1,8192,16384]{2,1,0} multiply(%convert.155, %copy.69)
  %reduce.28 = bf16[16384]{0} reduce(%multiply.263, %constant.748), dimensions={0,1}, to_apply=%region_23.1301
  %all-reduce.3 = bf16[16384]{0} all-reduce(%reduce.28), channel_id=22, replica_groups=[1,512]<=[512], use_global_device_ids=true, to_apply=%region_23.1301.clone
  %convert.175 = f32[16384]{0} convert(%all-reduce.3)
  %reshape.633 = f32[1,16384]{1,0} reshape(%convert.175)
  %dynamic-update-slice.4 = f32[126,16384]{1,0} dynamic-update-slice(%get-tuple-element.70, %reshape.633, %subtract.9, %constant.535)
  %get-tuple-element.71 = f32[126,16384]{1,0} get-tuple-element(%param.3), index=6
  %multiply.264 = bf16[1,8192,16384]{2,1,0} multiply(%convert.128, %copy.77)
  %reduce.29 = bf16[16384]{0} reduce(%multiply.264, %constant.748), dimensions={0,1}, to_apply=%region_27.1435
  %all-reduce.4 = bf16[16384]{0} all-reduce(%reduce.29), channel_id=23, replica_groups=[1,512]<=[512], use_global_device_ids=true, to_apply=%region_27.1435.clone
  %convert.176 = f32[16384]{0} convert(%all-reduce.4)
  %reshape.634 = f32[1,16384]{1,0} reshape(%convert.176)
  %dynamic-update-slice.5 = f32[126,16384]{1,0} dynamic-update-slice(%get-tuple-element.71, %reshape.634, %subtract.9, %constant.535)
  %get-tuple-element.72 = f32[126,32,8,128]{3,2,1,0} get-tuple-element(%param.3), index=7
  %dot.55 = bf16[8,128,16384]{2,1,0} dot(%add.136, %copy.59), lhs_contracting_dims={0,1}, rhs_contracting_dims={0,1}
  %all-reduce.5 = bf16[8,128,16384]{2,1,0} all-reduce(%dot.55), channel_id=24, replica_groups=[1,512]<=[512], use_global_device_ids=true, to_apply=%add.3.clone
  %dynamic-slice.63 = bf16[8,128,32]{2,1,0} dynamic-slice(%all-reduce.5, %constant.535, %constant.535, %reshape.626), dynamic_slice_sizes={8,128,32}
  %convert.177 = f32[8,128,32]{2,1,0} convert(%dynamic-slice.63)
  %transpose.19 = f32[32,8,128]{0,2,1} transpose(%convert.177), dimensions={2,0,1}
  %reshape.636 = f32[1,32,8,128]{3,2,1,0} reshape(%transpose.19)
  %dynamic-update-slice.6 = f32[126,32,8,128]{3,2,1,0} dynamic-update-slice(%get-tuple-element.72, %reshape.636, %subtract.9, %constant.535, %constant.535, /*index=5*/%constant.535)
  %get-tuple-element.73 = f32[126,128,128,32]{3,2,1,0} get-tuple-element(%param.3), index=8
  %dot.56 = bf16[16384,128,128]{2,1,0} dot(%copy.70, %copy.64), lhs_contracting_dims={0,1}, rhs_contracting_dims={0,1}
  %all-reduce.6 = bf16[16384,128,128]{2,1,0} all-reduce(%dot.56), channel_id=25, replica_groups=[1,512]<=[512], use_global_device_ids=true, to_apply=%add.4.clone
  %dynamic-slice.65 = bf16[32,128,128]{2,1,0} dynamic-slice(%all-reduce.6, %reshape.626, %constant.535, %constant.535), dynamic_slice_sizes={32,128,128}
  %convert.178 = f32[32,128,128]{2,1,0} convert(%dynamic-slice.65)
  %transpose.20 = f32[128,128,32]{1,0,2} transpose(%convert.178), dimensions={1,2,0}
  %reshape.638 = f32[1,128,128,32]{3,2,1,0} reshape(%transpose.20)
  %dynamic-update-slice.7 = f32[126,128,128,32]{3,2,1,0} dynamic-update-slice(%get-tuple-element.73, %reshape.638, %subtract.9, %constant.535, %constant.535, /*index=5*/%constant.535)
  %get-tuple-element.74 = f32[126,32,128,128]{3,2,1,0} get-tuple-element(%param.3), index=9
  %dot.57 = bf16[128,128,16384]{2,1,0} dot(%add.141, %copy.59), lhs_contracting_dims={0,1}, rhs_contracting_dims={0,1}
  %all-reduce.7 = bf16[128,128,16384]{2,1,0} all-reduce(%dot.57), channel_id=26, replica_groups=[1,512]<=[512], use_global_device_ids=true, to_apply=%add.5.clone
  %dynamic-slice.67 = bf16[128,128,32]{2,1,0} dynamic-slice(%all-reduce.7, %constant.535, %constant.535, %reshape.626), dynamic_slice_sizes={128,128,32}
  %convert.179 = f32[128,128,32]{2,1,0} convert(%dynamic-slice.67)
  %transpose.21 = f32[32,128,128]{0,2,1} transpose(%convert.179), dimensions={2,0,1}
  %reshape.640 = f32[1,32,128,128]{3,2,1,0} reshape(%transpose.21)
  %dynamic-update-slice.8 = f32[126,32,128,128]{3,2,1,0} dynamic-update-slice(%get-tuple-element.74, %reshape.640, %subtract.9, %constant.535, %constant.535, /*index=5*/%constant.535)
  %get-tuple-element.75 = f32[126,32,8,128]{3,2,1,0} get-tuple-element(%param.3), index=10
  %dot.58 = bf16[8,128,16384]{2,1,0} dot(%copy.72, %copy.59), lhs_contracting_dims={0,1}, rhs_contracting_dims={0,1}
  %all-reduce.8 = bf16[8,128,16384]{2,1,0} all-reduce(%dot.58), channel_id=27, replica_groups=[1,512]<=[512], use_global_device_ids=true, to_apply=%add.6.clone
  %dynamic-slice.69 = bf16[8,128,32]{2,1,0} dynamic-slice(%all-reduce.8, %constant.535, %constant.535, %reshape.626), dynamic_slice_sizes={8,128,32}
  %convert.180 = f32[8,128,32]{2,1,0} convert(%dynamic-slice.69)
  %transpose.22 = f32[32,8,128]{0,2,1} transpose(%convert.180), dimensions={2,0,1}
  %reshape.642 = f32[1,32,8,128]{3,2,1,0} reshape(%transpose.22)
  %dynamic-update-slice.9 = f32[126,32,8,128]{3,2,1,0} dynamic-update-slice(%get-tuple-element.75, %reshape.642, %subtract.9, %constant.535, %constant.535, /*index=5*/%constant.535)
  ROOT %tuple.6 = (s32[], bf16[1,8192,16384]{2,1,0}, f32[126,32,53248]{2,1,0}, f32[126,32,53248]{2,1,0}, f32[126,53248,32]{2,1,0}, /*index=5*/f32[126,16384]{1,0}, f32[126,16384]{1,0}, f32[126,32,8,128]{3,2,1,0}, f32[126,128,128,32]{3,2,1,0}, f32[126,32,128,128]{3,2,1,0}, /*index=10*/f32[126,32,8,128]{3,2,1,0}, f32[126,32,53248]{2,1,0}, f32[126,32,53248]{2,1,0}, f32[126,53248,32]{2,1,0}, f32[126,16384]{1,0}, /*index=15*/f32[126,16384]{1,0}, f32[126,32,8,128]{3,2,1,0}, f32[126,128,128,32]{3,2,1,0}, f32[126,32,128,128]{3,2,1,0}, f32[126,32,8,128]{3,2,1,0}, /*index=20*/bf16[126,1,8192,16384]{3,2,1,0}, s32[1,8192]{1,0}, s32[1,8192]{1,0}) tuple(%add.96, %copy.78, %dynamic-update-slice.1, %dynamic-update-slice.2, %dynamic-update-slice.3, /*index=5*/%dynamic-update-slice.4, %dynamic-update-slice.5, %dynamic-update-slice.6, %dynamic-update-slice.7, %dynamic-update-slice.8, /*index=10*/%dynamic-update-slice.9, %get-tuple-element.57, %get-tuple-element.59, %get-tuple-element.58, %get-tuple-element.56, /*index=15*/%get-tuple-element.43, %get-tuple-element.46, %get-tuple-element.55, %get-tuple-element.44, %get-tuple-element.47, /*index=20*/%get-tuple-element.42, %get-tuple-element.48, %get-tuple-element.45)
}

%region_31.1533_spmd (param.2: (s32[], bf16[1,8192,16384], f32[126,32,53248], f32[126,32,53248], f32[126,53248,32], /*index=5*/f32[126,16384], f32[126,16384], f32[126,32,8,128], f32[126,128,128,32], f32[126,32,128,128], /*index=10*/f32[126,32,8,128], f32[126,32,53248], f32[126,32,53248], f32[126,53248,32], f32[126,16384], /*index=15*/f32[126,16384], f32[126,32,8,128], f32[126,128,128,32], f32[126,32,128,128], f32[126,32,8,128], /*index=20*/bf16[126,1,8192,16384], s32[1,8192], s32[1,8192])) -> pred[] {
  %param.2 = (s32[], bf16[1,8192,16384]{2,1,0}, f32[126,32,53248]{2,1,0}, f32[126,32,53248]{2,1,0}, f32[126,53248,32]{2,1,0}, /*index=5*/f32[126,16384]{1,0}, f32[126,16384]{1,0}, f32[126,32,8,128]{3,2,1,0}, f32[126,128,128,32]{3,2,1,0}, f32[126,32,128,128]{3,2,1,0}, /*index=10*/f32[126,32,8,128]{3,2,1,0}, f32[126,32,53248]{2,1,0}, f32[126,32,53248]{2,1,0}, f32[126,53248,32]{2,1,0}, f32[126,16384]{1,0}, /*index=15*/f32[126,16384]{1,0}, f32[126,32,8,128]{3,2,1,0}, f32[126,128,128,32]{3,2,1,0}, f32[126,32,128,128]{3,2,1,0}, f32[126,32,8,128]{3,2,1,0}, /*index=20*/bf16[126,1,8192,16384]{3,2,1,0}, s32[1,8192]{1,0}, s32[1,8192]{1,0}) parameter(0)
  %get-tuple-element.39 = s32[] get-tuple-element(%param.2), index=0
  %constant.522 = s32[] constant(126)
  ROOT %compare.93 = pred[] compare(%get-tuple-element.39, %constant.522), direction=LT
}

%region_33.1570 (Arg_0.1567: f32[], Arg_1.1568: f32[]) -> f32[] {
  %Arg_0.1567 = f32[] parameter(0)
  %Arg_1.1568 = f32[] parameter(1)
  ROOT %add.1569 = f32[] add(%Arg_0.1567, %Arg_1.1568)
}

%region_33.1570.clone (Arg_0.22: f32[], Arg_1.22: f32[]) -> f32[] {
  %Arg_0.22 = f32[] parameter(0)
  %Arg_1.22 = f32[] parameter(1)
  ROOT %add.145 = f32[] add(%Arg_0.22, %Arg_1.22)
}

%region_34.1577 (Arg_0.1574: f32[], Arg_1.1575: f32[]) -> f32[] {
  %Arg_0.1574 = f32[] parameter(0)
  %Arg_1.1575 = f32[] parameter(1)
  ROOT %add.1576 = f32[] add(%Arg_0.1574, %Arg_1.1575)
}

%region_34.1577.clone (Arg_0.23: f32[], Arg_1.23: f32[]) -> f32[] {
  %Arg_0.23 = f32[] parameter(0)
  %Arg_1.23 = f32[] parameter(1)
  ROOT %add.146 = f32[] add(%Arg_0.23, %Arg_1.23)
}

%region_35.1584 (Arg_0.1581: f32[], Arg_1.1582: f32[]) -> f32[] {
  %Arg_0.1581 = f32[] parameter(0)
  %Arg_1.1582 = f32[] parameter(1)
  ROOT %add.1583 = f32[] add(%Arg_0.1581, %Arg_1.1582)
}

%region_35.1584.clone (Arg_0.24: f32[], Arg_1.24: f32[]) -> f32[] {
  %Arg_0.24 = f32[] parameter(0)
  %Arg_1.24 = f32[] parameter(1)
  ROOT %add.147 = f32[] add(%Arg_0.24, %Arg_1.24)
}

%region_36.1591 (Arg_0.1588: f32[], Arg_1.1589: f32[]) -> f32[] {
  %Arg_0.1588 = f32[] parameter(0)
  %Arg_1.1589 = f32[] parameter(1)
  ROOT %add.1590 = f32[] add(%Arg_0.1588, %Arg_1.1589)
}

%region_37.1598 (Arg_0.1595: f32[], Arg_1.1596: f32[]) -> f32[] {
  %Arg_0.1595 = f32[] parameter(0)
  %Arg_1.1596 = f32[] parameter(1)
  ROOT %add.1597 = f32[] add(%Arg_0.1595, %Arg_1.1596)
}

%region_38.1605 (Arg_0.1602: f32[], Arg_1.1603: f32[]) -> f32[] {
  %Arg_0.1602 = f32[] parameter(0)
  %Arg_1.1603 = f32[] parameter(1)
  ROOT %add.1604 = f32[] add(%Arg_0.1602, %Arg_1.1603)
}

%region_38.1605.clone (Arg_0.25: f32[], Arg_1.25: f32[]) -> f32[] {
  %Arg_0.25 = f32[] parameter(0)
  %Arg_1.25 = f32[] parameter(1)
  ROOT %add.148 = f32[] add(%Arg_0.25, %Arg_1.25)
}

%region_39.1612 (Arg_0.1609: f32[], Arg_1.1610: f32[]) -> f32[] {
  %Arg_0.1609 = f32[] parameter(0)
  %Arg_1.1610 = f32[] parameter(1)
  ROOT %add.1611 = f32[] add(%Arg_0.1609, %Arg_1.1610)
}

%region_39.1612.clone (Arg_0.26: f32[], Arg_1.26: f32[]) -> f32[] {
  %Arg_0.26 = f32[] parameter(0)
  %Arg_1.26 = f32[] parameter(1)
  ROOT %add.149 = f32[] add(%Arg_0.26, %Arg_1.26)
}

%region_40.1619 (Arg_0.1616: f32[], Arg_1.1617: f32[]) -> f32[] {
  %Arg_0.1616 = f32[] parameter(0)
  %Arg_1.1617 = f32[] parameter(1)
  ROOT %add.1618 = f32[] add(%Arg_0.1616, %Arg_1.1617)
}

%region_40.1619.clone (Arg_0.27: f32[], Arg_1.27: f32[]) -> f32[] {
  %Arg_0.27 = f32[] parameter(0)
  %Arg_1.27 = f32[] parameter(1)
  ROOT %add.150 = f32[] add(%Arg_0.27, %Arg_1.27)
}

%region_41.1626 (Arg_0.1623: f32[], Arg_1.1624: f32[]) -> f32[] {
  %Arg_0.1623 = f32[] parameter(0)
  %Arg_1.1624 = f32[] parameter(1)
  ROOT %add.1625 = f32[] add(%Arg_0.1623, %Arg_1.1624)
}

%region_41.1626.clone (Arg_0.28: f32[], Arg_1.28: f32[]) -> f32[] {
  %Arg_0.28 = f32[] parameter(0)
  %Arg_1.28 = f32[] parameter(1)
  ROOT %add.151 = f32[] add(%Arg_0.28, %Arg_1.28)
=======
%region_14.1138_spmd (param.2: (s32[], bf16[1,8192,16384], f32[126,32,53248], f32[126,32,53248], f32[126,53248,32], /*index=5*/f32[126,16384], f32[126,16384], f32[126,32,8,128], f32[126,128,128,32], f32[126,32,128,128], /*index=10*/f32[126,32,8,128], bf16[126,1,8192,16384], f32[126,16384], f32[126,32,128,128], s32[1,8192], /*index=15*/f32[126,32,8,128], f32[126,32,8,128], s32[1,8192], f32[126,128,128,32], f32[126,16384], /*index=20*/f32[126,32,53248], f32[126,53248,32], f32[126,32,53248])) -> (s32[], bf16[1,8192,16384], f32[126,32,53248], f32[126,32,53248], f32[126,53248,32], /*index=5*/f32[126,16384], f32[126,16384], f32[126,32,8,128], f32[126,128,128,32], f32[126,32,128,128], /*index=10*/f32[126,32,8,128], bf16[126,1,8192,16384], f32[126,16384], f32[126,32,128,128], s32[1,8192], /*index=15*/f32[126,32,8,128], f32[126,32,8,128], s32[1,8192], f32[126,128,128,32], f32[126,16384], /*index=20*/f32[126,32,53248], f32[126,53248,32], f32[126,32,53248]) {
  %param.2 = (s32[], bf16[1,8192,16384]{2,1,0}, f32[126,32,53248]{2,1,0}, f32[126,32,53248]{2,1,0}, f32[126,53248,32]{2,1,0}, /*index=5*/f32[126,16384]{1,0}, f32[126,16384]{1,0}, f32[126,32,8,128]{3,2,1,0}, f32[126,128,128,32]{3,2,1,0}, f32[126,32,128,128]{3,2,1,0}, /*index=10*/f32[126,32,8,128]{3,2,1,0}, bf16[126,1,8192,16384]{3,2,1,0}, f32[126,16384]{1,0}, f32[126,32,128,128]{3,2,1,0}, s32[1,8192]{1,0}, /*index=15*/f32[126,32,8,128]{3,2,1,0}, f32[126,32,8,128]{3,2,1,0}, s32[1,8192]{1,0}, f32[126,128,128,32]{3,2,1,0}, f32[126,16384]{1,0}, /*index=20*/f32[126,32,53248]{2,1,0}, f32[126,53248,32]{2,1,0}, f32[126,32,53248]{2,1,0}) parameter(0)
  %get-tuple-element.32 = s32[] get-tuple-element(%param.2), index=0
  %constant.368 = s32[] constant(1)
  %add.96 = s32[] add(%get-tuple-element.32, %constant.368)
  %get-tuple-element.33 = bf16[1,8192,16384]{2,1,0} get-tuple-element(%param.2), index=1
  %sharding_constraint.51 = bf16[1,8192,16384]{2,1,0} copy(%get-tuple-element.33)
  %get-tuple-element.34 = bf16[126,1,8192,16384]{3,2,1,0} get-tuple-element(%param.2), index=11
  %constant.369 = s32[] constant(125)
  %sub.7 = s32[] subtract(%constant.369, %get-tuple-element.32)
  %constant.370 = s32[] constant(0)
  %dynamic-slice.17 = bf16[1,1,8192,16384]{3,2,1,0} dynamic-slice(%get-tuple-element.34, %sub.7, %constant.370, %constant.370, %constant.370), dynamic_slice_sizes={1,1,8192,16384}
  %squeeze.2 = bf16[1,8192,16384]{2,1,0} reshape(%dynamic-slice.17)
  %sharding_constraint.52 = bf16[1,8192,16384]{2,1,0} copy(%squeeze.2)
  %convert_element_type.145 = f32[1,8192,16384]{2,1,0} convert(%sharding_constraint.52)
  %square.8 = f32[1,8192,16384]{2,1,0} multiply(%convert_element_type.145, %convert_element_type.145)
  %constant.374 = f32[] constant(0)
  %reduce.6 = f32[1,8192]{1,0} reduce(%square.8, %constant.374), dimensions={2}, to_apply=%region_15.617
  %constant.375 = f32[] constant(6.10351562e-05)
  %closed_call.2 = f32[1,8192]{1,0} broadcast(%constant.375), dimensions={}
  %div.47 = f32[1,8192]{1,0} multiply(%reduce.6, %closed_call.2)
  %constant.376 = f32[] constant(1e-05)
  %closed_call.3 = f32[1,8192]{1,0} broadcast(%constant.376), dimensions={}
  %add.97 = f32[1,8192]{1,0} add(%div.47, %closed_call.3)
  %add.98 = f32[1,8192,1]{2,1,0} reshape(%add.97)
  %rsqrt.8 = f32[1,8192,1]{2,1,0} rsqrt(%add.98)
  %mul.259 = f32[1,8192]{1,0} reshape(%rsqrt.8)
  %mul.260 = f32[1,8192,16384]{2,1,0} broadcast(%mul.259), dimensions={0,1}
  %mul.261 = f32[1,8192,16384]{2,1,0} multiply(%convert_element_type.145, %mul.260)
  %convert_element_type.146 = bf16[1,8192,16384]{2,1,0} convert(%mul.261)
  %get-tuple-element.35 = f32[126,16384]{1,0} get-tuple-element(%param.2), index=12
  %dynamic_slice.2 = f32[1,16384]{1,0} dynamic-slice(%get-tuple-element.35, %sub.7, %constant.370), dynamic_slice_sizes={1,16384}
  %convert_element_type.147 = bf16[1,16384]{1,0} convert(%dynamic_slice.2)
  %mul.262 = bf16[16384]{0} reshape(%convert_element_type.147)
  %mul.264 = bf16[1,8192,16384]{2,1,0} broadcast(%mul.262), dimensions={2}
  %mul.265 = bf16[1,8192,16384]{2,1,0} multiply(%convert_element_type.146, %mul.264)
  %sharding_constraint.53 = bf16[1,8192,16384]{2,1,0} copy(%mul.265)
  %sharding_constraint.54 = bf16[1,8192,16384]{2,1,0} copy(%sharding_constraint.53)
  %get-tuple-element.36 = f32[126,32,128,128]{3,2,1,0} get-tuple-element(%param.2), index=13
  %dynamic-slice.18 = f32[1,32,128,128]{3,2,1,0} dynamic-slice(%get-tuple-element.36, %sub.7, %constant.370, %constant.370, %constant.370), dynamic_slice_sizes={1,32,128,128}
  %convert_element_type.148 = bf16[1,32,128,128]{3,2,1,0} convert(%dynamic-slice.18)
  %convert_element_type.149 = bf16[32,128,128]{2,1,0} reshape(%convert_element_type.148)
  %all-gather.8 = bf16[16384,128,128]{2,1,0} all-gather(%convert_element_type.149), channel_id=9, replica_groups=[1,512]<=[512], dimensions={0}, use_global_device_ids=true
  %dot.12 = bf16[1,8192,128,128]{3,2,1,0} dot(%sharding_constraint.54, %all-gather.8), lhs_contracting_dims={2}, rhs_contracting_dims={0}
  %convert_element_type.150 = f32[1,8192,128,128]{3,2,1,0} convert(%dot.12)
  %get-tuple-element.37 = s32[1,8192]{1,0} get-tuple-element(%param.2), index=14
  %convert_element_type.151 = f32[1,8192]{1,0} convert(%get-tuple-element.37)
  %div.48 = f32[1,8192,1,128]{3,2,1,0} broadcast(%convert_element_type.151), dimensions={0,1}
  %constant.380 = f32[] constant(1)
  %closed_call.4 = f32[128]{0} broadcast(%constant.380), dimensions={}
  %constant.381 = f32[] constant(6.28318548)
  %closed_call.5 = f32[128]{0} broadcast(%constant.381), dimensions={}
  %constant.382 = f32[] constant(500000)
  %closed_call.6 = f32[128]{0} broadcast(%constant.382), dimensions={}
  %iota.20 = s32[64]{0} iota(), iota_dimension=0
  %constant.383 = s32[] constant(2)
  %closed_call.7 = s32[64]{0} broadcast(%constant.383), dimensions={}
  %mul.266 = s32[64]{0} multiply(%iota.20, %closed_call.7)
  %convert_element_type.152 = f32[64]{0} convert(%mul.266)
  %constant.384 = f32[] constant(0.0078125)
  %closed_call.8 = f32[64]{0} broadcast(%constant.384), dimensions={}
  %div.49 = f32[64]{0} multiply(%convert_element_type.152, %closed_call.8)
  %broadcast_in_dim.49 = f32[64,2]{1,0} broadcast(%div.49), dimensions={0}
  %reshape.353 = f32[128]{0} reshape(%broadcast_in_dim.49)
  %pow.2 = f32[128]{0} power(%closed_call.6, %reshape.353)
  %div.50 = f32[128]{0} multiply(%closed_call.5, %pow.2)
  %constant.385 = f32[] constant(2048)
  %closed_call.9 = f32[128]{0} broadcast(%constant.385), dimensions={}
  %lt.20 = pred[128]{0} compare(%div.50, %closed_call.9), direction=LT
  %convert_element_type.153 = s32[128]{0} convert(%lt.20)
  %closed_call.10 = s32[128]{0} broadcast(%constant.368), dimensions={}
  %select_n.64 = pred[128]{0} compare(%convert_element_type.153, %closed_call.10), direction=LT
  %constant.386 = f32[] constant(8192)
  %closed_call.11 = f32[128]{0} broadcast(%constant.386), dimensions={}
  %gt.2 = pred[128]{0} compare(%div.50, %closed_call.11), direction=GT
  %convert_element_type.154 = s32[128]{0} convert(%gt.2)
  %select_n.65 = pred[128]{0} compare(%convert_element_type.154, %closed_call.10), direction=LT
  %pow.3 = f32[128]{0} negate(%reshape.353)
  %pow.4 = f32[128]{0} power(%closed_call.6, %pow.3)
  %multiply.85 = f32[128]{0} multiply(%closed_call.11, %pow.4)
  %constant.387 = f32[] constant(0.159154937)
  %closed_call.12 = f32[128]{0} broadcast(%constant.387), dimensions={}
  %div.51 = f32[128]{0} multiply(%multiply.85, %closed_call.12)
  %constant.388 = f32[] constant(-1)
  %closed_call.13 = f32[128]{0} broadcast(%constant.388), dimensions={}
  %sub.8 = f32[128]{0} add(%div.51, %closed_call.13)
  %constant.389 = f32[] constant(0.333333343)
  %closed_call.14 = f32[128]{0} broadcast(%constant.389), dimensions={}
  %div.52 = f32[128]{0} multiply(%sub.8, %closed_call.14)
  %sub.9 = f32[128]{0} subtract(%closed_call.4, %div.52)
  %mul.267 = f32[128]{0} multiply(%sub.9, %pow.4)
  %constant.390 = f32[] constant(0.125)
  %closed_call.15 = f32[128]{0} broadcast(%constant.390), dimensions={}
  %div.53 = f32[128]{0} multiply(%mul.267, %closed_call.15)
  %mul.268 = f32[128]{0} multiply(%div.52, %pow.4)
  %add.99 = f32[128]{0} add(%div.53, %mul.268)
  %div.54 = f32[128]{0} multiply(%pow.4, %closed_call.15)
  %select_n.66 = f32[128]{0} select(%select_n.65, %add.99, %div.54)
  %select_n.67 = f32[128]{0} select(%select_n.64, %select_n.66, %pow.4)
  %div.55 = f32[128]{0} divide(%closed_call.4, %select_n.67)
  %div.56 = f32[1,8192,1,128]{3,2,1,0} broadcast(%div.55), dimensions={3}
  %div.57 = f32[1,8192,1,128]{3,2,1,0} divide(%div.48, %div.56)
  %cos.2 = f32[1,8192,1,128]{3,2,1,0} cosine(%div.57)
  %mul.269 = f32[1,8192,128]{2,1,0} reshape(%cos.2)
  %mul.270 = f32[1,8192,128,128]{3,2,1,0} broadcast(%mul.269), dimensions={0,1,3}
  %mul.271 = f32[1,8192,128,128]{3,2,1,0} multiply(%convert_element_type.150, %mul.270)
  %iota.21 = s32[128]{0} iota(), iota_dimension=0
  %rem.16 = s32[128]{0} and(%iota.21, %closed_call.10)
  %jit_remainder_.0 = s32[128]{0} broadcast(%constant.370), dimensions={}
  %lt.21 = pred[128]{0} compare(%rem.16, %jit_remainder_.0), direction=LT
  %ne.28 = pred[128]{0} compare(%rem.16, %jit_remainder_.0), direction=NE
  %and.18 = pred[128]{0} and(%lt.21, %ne.28)
  %add.100 = s32[128]{0} broadcast(%constant.383), dimensions={}
  %add.101 = s32[128]{0} add(%rem.16, %add.100)
  %select_n.68 = s32[128]{0} select(%and.18, %add.101, %rem.16)
  %select_n.69 = pred[128]{0} compare(%select_n.68, %closed_call.10), direction=LT
  %reshape.354 = pred[1,8192,128,128]{3,2,1,0} broadcast(%select_n.69), dimensions={3}
  %slice.25 = bf16[1,8192,128,127]{3,2,1,0} slice(%dot.12), slice={[0:1], [0:8192], [0:128], [1:128]}
  %slice.26 = bf16[1,8192,128,1]{3,2,1,0} slice(%dot.12), slice={[0:1], [0:8192], [0:128], [0:1]}
  %concatenate.12 = bf16[1,8192,128,128]{3,2,1,0} concatenate(%slice.25, %slice.26), dimensions={3}
  %slice.27 = bf16[1,8192,128,1]{3,2,1,0} slice(%dot.12), slice={[0:1], [0:8192], [0:128], [127:128]}
  %slice.28 = bf16[1,8192,128,127]{3,2,1,0} slice(%dot.12), slice={[0:1], [0:8192], [0:128], [0:127]}
  %concatenate.13 = bf16[1,8192,128,128]{3,2,1,0} concatenate(%slice.27, %slice.28), dimensions={3}
  %select_n.70 = bf16[1,8192,128,128]{3,2,1,0} select(%reshape.354, %concatenate.12, %concatenate.13)
…
  %reshape.414 = f32[1,8192,1]{2,1,0} reshape(%reduce.24)
  %div.97 = f32[1,8192,1]{2,1,0} divide(%rsqrt.10, %add.129)
  %constant.764 = f32[] constant(-0.5)
  %mul.414 = f32[1,8192,1]{2,1,0} broadcast(%constant.764), dimensions={}
  %mul.415 = f32[1,8192,1]{2,1,0} multiply(%div.97, %mul.414)
  %mul.416 = f32[1,8192,1]{2,1,0} multiply(%reshape.414, %mul.415)
  %constant.765 = f32[] constant(0.000122070312)
  %mul.417 = f32[1,8192,1]{2,1,0} broadcast(%constant.765), dimensions={}
  %mul.418 = f32[1,8192,1]{2,1,0} multiply(%mul.416, %mul.417)
  %mul.419 = f32[1,8192]{1,0} reshape(%mul.418)
  %mul.420 = f32[1,8192,16384]{2,1,0} broadcast(%mul.419), dimensions={0,1}
  %mul.421 = f32[1,8192,16384]{2,1,0} multiply(%convert_element_type.233, %mul.420)
  %add_any.33 = f32[1,8192,16384]{2,1,0} add(%mul.412, %mul.421)
  %convert_element_type.245 = bf16[1,8192,16384]{2,1,0} convert(%add_any.33)
  %broadcast.267 = f32[126,32,53248]{2,1,0} broadcast(%constant.748), dimensions={}
  %broadcast_in_dim.82 = f32[126,53248,32]{2,1,0} broadcast(%constant.748), dimensions={}
  %broadcast.268 = f32[126,16384]{1,0} broadcast(%constant.748), dimensions={}
  %broadcast.269 = f32[126,32,8,128]{3,2,1,0} broadcast(%constant.748), dimensions={}
  %broadcast_in_dim.83 = f32[126,128,128,32]{3,2,1,0} broadcast(%constant.748), dimensions={}
  %broadcast_in_dim.84 = f32[126,32,128,128]{3,2,1,0} broadcast(%constant.748), dimensions={}
  %get-tuple-element.63 = bf16[126,1,8192,16384]{3,2,1,0} get-tuple-element(%while), index=2
  %data__inputs_position__.1 = s32[1,8192]{1,0} copy(%param.11)
  %data__inputs_segmentation__.1 = s32[1,8192]{1,0} copy(%param.14)
  %tuple.9 = (s32[], bf16[1,8192,16384]{2,1,0}, f32[126,32,53248]{2,1,0}, f32[126,32,53248]{2,1,0}, f32[126,53248,32]{2,1,0}, /*index=5*/f32[126,16384]{1,0}, f32[126,16384]{1,0}, f32[126,32,8,128]{3,2,1,0}, f32[126,128,128,32]{3,2,1,0}, f32[126,32,128,128]{3,2,1,0}, /*index=10*/f32[126,32,8,128]{3,2,1,0}, bf16[126,1,8192,16384]{3,2,1,0}, f32[126,16384]{0,1}, f32[126,32,128,128]{3,2,0,1}, s32[1,8192]{1,0}, /*index=15*/f32[126,32,8,128]{3,2,0,1}, f32[126,32,8,128]{3,2,0,1}, s32[1,8192]{1,0}, f32[126,128,128,32]{3,2,0,1}, f32[126,16384]{0,1}, /*index=20*/f32[126,32,53248]{2,0,1}, f32[126,53248,32]{2,0,1}, f32[126,32,53248]{2,0,1}) tuple(%constant.727, %convert_element_type.245, %broadcast.267, %broadcast.267, %broadcast_in_dim.82, /*index=5*/%broadcast.268, %broadcast.268, %broadcast.269, %broadcast_in_dim.83, %broadcast_in_dim.84, /*index=10*/%broadcast.269, %get-tuple-element.63, %transpose.19, %transpose.20, %data__inputs_position__.1, /*index=15*/%transpose.21, %transpose.22, %data__inputs_segmentation__.1, %transpose.23, %transpose.24, /*index=20*/%transpose.25, %transpose.27, %transpose.26)
  %while.1 = (s32[], bf16[1,8192,16384]{2,1,0}, f32[126,32,53248]{2,1,0}, f32[126,32,53248]{2,1,0}, f32[126,53248,32]{2,1,0}, /*index=5*/f32[126,16384]{1,0}, f32[126,16384]{1,0}, f32[126,32,8,128]{3,2,1,0}, f32[126,128,128,32]{3,2,1,0}, f32[126,32,128,128]{3,2,1,0}, /*index=10*/f32[126,32,8,128]{3,2,1,0}, bf16[126,1,8192,16384]{3,2,1,0}, f32[126,16384]{0,1}, f32[126,32,128,128]{3,2,0,1}, s32[1,8192]{1,0}, /*index=15*/f32[126,32,8,128]{3,2,0,1}, f32[126,32,8,128]{3,2,0,1}, s32[1,8192]{1,0}, f32[126,128,128,32]{3,2,0,1}, f32[126,16384]{0,1}, /*index=20*/f32[126,32,53248]{2,0,1}, f32[126,53248,32]{2,0,1}, f32[126,32,53248]{2,0,1}) while(%tuple.9), condition=%region_24.1165_spmd, body=%region_14.1138_spmd
  %get-tuple-element.64 = f32[126,32,53248]{2,1,0} get-tuple-element(%while.1), index=2
  %transpose.28 = f32[32,126,53248]{2,0,1} transpose(%get-tuple-element.64), dimensions={1,0,2}
  %mul.422 = f32[32,126,53248]{2,0,1} multiply(%transpose.28, %transpose.28)
  %reduce.25 = f32[] reduce(%mul.422, %constant.748), dimensions={0,1,2}, to_apply=%region_25.1185
  %all-reduce.11 = f32[] all-reduce(%reduce.25), channel_id=29, replica_groups=[1,512]<=[512], use_global_device_ids=true, to_apply=%region_25.1185.clone
  %add.134 = f32[] add(%reduce.23, %all-reduce.11)
  %get-tuple-element.65 = f32[126,32,53248]{2,1,0} get-tuple-element(%while.1), index=3
  %transpose.29 = f32[32,126,53248]{2,0,1} transpose(%get-tuple-element.65), dimensions={1,0,2}
  %mul.423 = f32[32,126,53248]{2,0,1} multiply(%transpose.29, %transpose.29)
  %reduce.26 = f32[] reduce(%mul.423, %constant.748), dimensions={0,1,2}, to_apply=%region_26.1193
  %all-reduce.12 = f32[] all-reduce(%reduce.26), channel_id=30, replica_groups=[1,512]<=[512], use_global_device_ids=true, to_apply=%region_26.1193.clone
  %add.135 = f32[] add(%add.134, %all-reduce.12)
  %get-tuple-element.66 = f32[126,53248,32]{2,1,0} get-tuple-element(%while.1), index=4
  %transpose.30 = f32[53248,126,32]{2,0,1} transpose(%get-tuple-element.66), dimensions={1,0,2}
  %mul.424 = f32[53248,126,32]{2,0,1} multiply(%transpose.30, %transpose.30)
  %reduce.27 = f32[] reduce(%mul.424, %constant.748), dimensions={0,1,2}, to_apply=%region_27.1201
  %all-reduce.13 = f32[] all-reduce(%reduce.27), channel_id=31, replica_groups=[1,512]<=[512], use_global_device_ids=true, to_apply=%region_27.1201.clone
  %add.136 = f32[] add(%add.135, %all-reduce.13)
  %get-tuple-element.67 = f32[126,16384]{1,0} get-tuple-element(%while.1), index=5
  %transpose.31 = f32[16384,126]{0,1} transpose(%get-tuple-element.67), dimensions={1,0}
  %mul.425 = f32[16384,126]{0,1} multiply(%transpose.31, %transpose.31)
  %reduce.28 = f32[] reduce(%mul.425, %constant.748), dimensions={0,1}, to_apply=%region_28.1209
  %add.137 = f32[] add(%add.136, %reduce.28)
  %get-tuple-element.68 = f32[126,16384]{1,0} get-tuple-element(%while.1), index=6
  %transpose.32 = f32[16384,126]{0,1} transpose(%get-tuple-element.68), dimensions={1,0}
  %mul.426 = f32[16384,126]{0,1} multiply(%transpose.32, %transpose.32)
  %reduce.29 = f32[] reduce(%mul.426, %constant.748), dimensions={0,1}, to_apply=%region_29.1217
  %add.138 = f32[] add(%add.137, %reduce.29)
  %get-tuple-element.69 = f32[126,32,8,128]{3,2,1,0} get-tuple-element(%while.1), index=7
  %transpose.33 = f32[32,126,8,128]{3,2,0,1} transpose(%get-tuple-element.69), dimensions={1,0,2,3}
  %mul.427 = f32[32,126,8,128]{3,2,0,1} multiply(%transpose.33, %transpose.33)
  %reduce.30 = f32[] reduce(%mul.427, %constant.748), dimensions={0,1,2,3}, to_apply=%region_30.1225
  %all-reduce.14 = f32[] all-reduce(%reduce.30), channel_id=32, replica_groups=[1,512]<=[512], use_global_device_ids=true, to_apply=%region_30.1225.clone
  %add.139 = f32[] add(%add.138, %all-reduce.14)
  %get-tuple-element.70 = f32[126,128,128,32]{3,2,1,0} get-tuple-element(%while.1), index=8
  %transpose.34 = f32[128,126,128,32]{3,2,0,1} transpose(%get-tuple-element.70), dimensions={1,0,2,3}
  %mul.428 = f32[128,126,128,32]{3,2,0,1} multiply(%transpose.34, %transpose.34)
  %reduce.31 = f32[] reduce(%mul.428, %constant.748), dimensions={0,1,2,3}, to_apply=%region_31.1233
  %all-reduce.15 = f32[] all-reduce(%reduce.31), channel_id=33, replica_groups=[1,512]<=[512], use_global_device_ids=true, to_apply=%region_31.1233.clone
  %add.140 = f32[] add(%add.139, %all-reduce.15)
  %get-tuple-element.71 = f32[126,32,128,128]{3,2,1,0} get-tuple-element(%while.1), index=9
  %transpose.35 = f32[32,126,128,128]{3,2,0,1} transpose(%get-tuple-element.71), dimensions={1,0,2,3}
  %mul.429 = f32[32,126,128,128]{3,2,0,1} multiply(%transpose.35, %transpose.35)
  %reduce.32 = f32[] reduce(%mul.429, %constant.748), dimensions={0,1,2,3}, to_apply=%region_32.1241
  %all-reduce.16 = f32[] all-reduce(%reduce.32), channel_id=34, replica_groups=[1,512]<=[512], use_global_device_ids=true, to_apply=%region_32.1241.clone
  %add.141 = f32[] add(%add.140, %all-reduce.16)
  %get-tuple-element.72 = f32[126,32,8,128]{3,2,1,0} get-tuple-element(%while.1), index=10
  %transpose.36 = f32[32,126,8,128]{3,2,0,1} transpose(%get-tuple-element.72), dimensions={1,0,2,3}
  %mul.430 = f32[32,126,8,128]{3,2,0,1} multiply(%transpose.36, %transpose.36)
  %reduce.33 = f32[] reduce(%mul.430, %constant.748), dimensions={0,1,2,3}, to_apply=%region_33.1249
  %all-reduce.17 = f32[] all-reduce(%reduce.33), channel_id=35, replica_groups=[1,512]<=[512], use_global_device_ids=true, to_apply=%region_33.1249.clone
  %add.143 = f32[] add(%add.141, %all-reduce.17)
  %dot.35 = bf16[16384,128256]{1,0} dot(%mul.399, %sharding_constraint.79), lhs_contracting_dims={0,1}, rhs_contracting_dims={0,1}
  %all-reduce.18 = bf16[16384,128256]{1,0} all-reduce(%dot.35), channel_id=36, replica_groups=[1,512]<=[512], use_global_device_ids=true, to_apply=%add.7.clone
  %constant.768 = s32[512]{0} constant({0, 32, 64, 96, 128, 160, 192, 224, 256, 288, 320, 352, 384, 416, 448, 480, 512, 544, 576, 608, 640, 672, 704, 736, 768, 800, 832, 864, 896, 928, 960, 992, 1024, 1056, 1088, 1120, 1152, 1184, 1216, 1248, 1280, 1312, 1344, 1376, 1408, 1440, 1472, 1504, 1536, 1568, 1600, 1632, 1664, 1696, 1728, 1760, 1792, 1824, 1856, 1888, 1920, 1952, 1984, 2016, 2048, 2080, 2112, 2144, 2176, 2208, 2240, 2272, 2304, 2336, 2368, 2400, 2432, 2464, 2496, 2528, 2560, 2592, 2624, 2656, 2688, 2720, 2752, 2784, 2816, 2848, 2880, 2912, 2944, 2976, 3008, 3040, 3072, 3104, 3136, 3168, 3200, 3232, 3264, 3296, 3328, 3360, 3392, 3424, 3456, 3488, 3520, 3552, 3584, 3616, 3648, 3680, 3712, 3744, 3776, 3808, 3840, 3872, 3904, 3936, 3968, 4000, 4032, 4064, 4096, 4128, 4160, 4192, 4224, 4256, 4288, 4320, 4352, 4384, 4416, 4448, 4480, 4512, 4544, 4576, 4608, 4640, 4672, 4704, 4736, 4768, 4800, 4832, 4864, 4896, 4928, 4960, 4992, 5024, 5056, 5088, 5120, 5152, 5184, 5216, 5248, 5280, 5312, 5344, 5376, 5408, 5440, 5472, 5504, 5536, 5568, 5600, 5632, 5664, 5696, 5728, 5760, 5792, 5824, 5856, 5888, 5920, 5952, 5984, 6016, 6048, 6080, 6112, 6144, 6176, 6208, 6240, 6272, 6304, 6336, 6368, 6400, 6432, 6464, 6496, 6528, 6560, 6592, 6624, 6656, 6688, 6720, 6752, 6784, 6816, 6848, 6880, 6912, 6944, 6976, 7008, 7040, 7072, 7104, 7136, 7168, 7200, 7232, 7264, 7296, 7328, 7360, 7392, 7424, 7456, 7488, 7520, 7552, 7584, 7616, 7648, 7680, 7712, 7744, 7776, 7808, 7840, 7872, 7904, 7936, 7968, 8000, 8032, 8064, 8096, 8128, 8160, 8192, 8224, 8256, 8288, 8320, 8352, 8384, 8416, 8448, 8480, 8512, 8544, 8576, 8608, 8640, 8672, 8704, 8736, 8768, 8800, 8832, 8864, 8896, 8928, 8960, 8992, 9024, 9056, 9088, 9120, 9152, 9184, 9216, 9248, 9280, 9312, 9344, 9376, 9408, 9440, 9472, 9504, 9536, 9568, 9600, 9632, 9664, 9696, 9728, 9760, 9792, 9824, 9856, 9888, 9920, 9952, 9984, 10016, 10048, 10080, 10112, 10144, 10176, 10208, 10240, 10272, 10304, 10336, 10368, 10400, 10432, 10464, 10496, 10528, 10560, 10592, 10624, 10656, 10688, 10720, 10752, 10784, 10816, 10848, 10880, 10912, 10944, 10976, 11008, 11040, 11072, 11104, 11136, 11168, 11200, 11232, 11264, 11296, 11328, 11360, 11392, 11424, 11456, 11488, 11520, 11552, 11584, 11616, 11648, 11680, 11712, 11744, 11776, 11808, 11840, 11872, 11904, 11936, 11968, 12000, 12032, 12064, 12096, 12128, 12160, 12192, 12224, 12256, 12288, 12320, 12352, 12384, 12416, 12448, 12480, 12512, 12544, 12576, 12608, 12640, 12672, 12704, 12736, 12768, 12800, 12832, 12864, 12896, 12928, 12960, 12992, 13024, 13056, 13088, 13120, 13152, 13184, 13216, 13248, 13280, 13312, 13344, 13376, 13408, 13440, 13472, 13504, 13536, 13568, 13600, 13632, 13664, 13696, 13728, 13760, 13792, 13824, 13856, 13888, 13920, 13952, 13984, 14016, 14048, 14080, 14112, 14144, 14176, 14208, 14240, 14272, 14304, 14336, 14368, 14400, 14432, 14464, 14496, 14528, 14560, 14592, 14624, 14656, 14688, 14720, 14752, 14784, 14816, 14848, 14880, 14912, 14944, 14976, 15008, 15040, 15072, 15104, 15136, 15168, 15200, 15232, 15264, 15296, 15328, 15360, 15392, 15424, 15456, 15488, 15520, 15552, 15584, 15616, 15648, 15680, 15712, 15744, 15776, 15808, 15840, 15872, 15904, 15936, 15968, 16000, 16032, 16064, 16096, 16128, 16160, 16192, 16224, 16256, 16288, 16320, 16352})
  %partition-id.4 = u32[] partition-id()
  %dynamic-slice.67 = s32[1]{0} dynamic-slice(%constant.768, %partition-id.4), dynamic_slice_sizes={1}
  %reshape.415 = s32[] reshape(%dynamic-slice.67)
  %dynamic-slice.68 = bf16[32,128256]{1,0} dynamic-slice(%all-reduce.18, %reshape.415, %constant.727), dynamic_slice_sizes={32,128256}
  %convert_element_type.246 = f32[32,128256]{1,0} convert(%dynamic-slice.68)
  %mul.431 = f32[32,128256]{1,0} multiply(%convert_element_type.246, %convert_element_type.246)
  %reduce.34 = f32[] reduce(%mul.431, %constant.748), dimensions={0,1}, to_apply=%region_34.1258
  %all-reduce.19 = f32[] all-reduce(%reduce.34), channel_id=37, replica_groups=[1,512]<=[512], use_global_device_ids=true, to_apply=%region_34.1258.clone
  %add.144 = f32[] add(%add.143, %all-reduce.19)
  %get-tuple-element.73 = bf16[1,8192,16384]{2,1,0} get-tuple-element(%while.1), index=1
  %sharding_constraint.80 = bf16[1,8192,16384]{2,1,0} copy(%get-tuple-element.73)
  %dot.36 = bf16[128256,16384]{1,0} dot(%convert_element_type.218, %sharding_constraint.80), lhs_contracting_dims={0,1}, rhs_contracting_dims={0,1}
  %all-reduce.20 = bf16[128256,16384]{1,0} all-reduce(%dot.36), channel_id=38, replica_groups=[1,512]<=[512], use_global_device_ids=true, to_apply=%add.8.clone
  %dynamic-slice.70 = bf16[128256,32]{1,0} dynamic-slice(%all-reduce.20, %constant.727, %reshape.415), dynamic_slice_sizes={128256,32}
  %convert_element_type.247 = f32[128256,32]{1,0} convert(%dynamic-slice.70)
  %mul.432 = f32[128256,32]{1,0} multiply(%convert_element_type.247, %convert_element_type.247)
  %reduce.35 = f32[] reduce(%mul.432, %constant.748), dimensions={0,1}, to_apply=%region_35.1267
  %all-reduce.21 = f32[] all-reduce(%reduce.35), channel_id=39, replica_groups=[1,512]<=[512], use_global_device_ids=true, to_apply=%region_35.1267.clone
  %add.145 = f32[] add(%add.144, %all-reduce.21)
  %sqrt.0 = f32[] sqrt(%add.145)
  %lt.39 = pred[] compare(%sqrt.0, %constant.726), direction=LT
  %select_n.104 = pred[16384]{0} broadcast(%lt.39), dimensions={}
  %div.98 = f32[16384]{0} broadcast(%sqrt.0), dimensions={}
  %div.99 = f32[16384]{0} divide(%convert_element_type.243, %div.98)
  %select_n.105 = f32[16384]{0} select(%select_n.104, %convert_element_type.243, %div.99)
  %constant.774 = f32[] constant(0.1)
  %broadcast.270 = f32[16384]{0} broadcast(%constant.774), dimensions={}
  %mul.433 = f32[16384]{0} multiply(%select_n.105, %broadcast.270)
  %param.23 = f32[16384]{0} parameter(14), sharding={replicated}
  %constant.775 = f32[] constant(0.9)
  %mul.434 = f32[16384]{0} broadcast(%constant.775), dimensions={}
  %mul.435 = f32[16384]{0} multiply(%param.23, %mul.434)
  %add.146 = f32[16384]{0} add(%mul.433, %mul.435)
  %param.24 = s32[] parameter(13), sharding={replicated}
  %constant.776 = s32[] constant(2147483647)
  %lt.40 = pred[] compare(%param.24, %constant.776), direction=LT
  %add.147 = s32[] add(%param.24, %constant.725)
  %select_n.106 = s32[] select(%lt.40, %add.147, %constant.776)
  %pow.14 = f32[] convert(%select_n.106)
  %pow.15 = f32[] power(%constant.775, %pow.14)
  %sub.23 = f32[] subtract(%constant.726, %pow.15)
  %div.100 = f32[16384]{0} broadcast(%sub.23), dimensions={}
  %integer_pow.0 = f32[16384]{0} multiply(%select_n.105, %select_n.105)
  %constant.777 = f32[] constant(0.05)
  %mul.436 = f32[16384]{0} broadcast(%constant.777), dimensions={}
  %mul.437 = f32[16384]{0} multiply(%integer_pow.0, %mul.436)
  %param.25 = f32[16384]{0} parameter(26), sharding={replicated}
  %constant.778 = f32[] constant(0.95)
  %mul.438 = f32[16384]{0} broadcast(%constant.778), dimensions={}
  %mul.439 = f32[16384]{0} multiply(%param.25, %mul.438)
  %add.149 = f32[16384]{0} add(%mul.437, %mul.439)
  %pow.17 = f32[] power(%constant.778, %pow.14)
  %sub.24 = f32[] subtract(%constant.726, %pow.17)
  %div.101 = f32[16384]{0} broadcast(%sub.24), dimensions={}
  %div.102 = f32[16384]{0} divide(%add.149, %div.101)
  %sqrt.1 = f32[16384]{0} sqrt(%div.102)
  %add.150 = f32[16384]{0} broadcast(%constant.762), dimensions={}
  %add.151 = f32[16384]{0} add(%sqrt.1, %add.150)
  %multiply.115 = f32[16384]{0} multiply(%div.100, %add.151)
  %div.103 = f32[16384]{0} divide(%add.146, %multiply.115)
  %mul.440 = f32[16384]{0} multiply(%param.5, %broadcast.270)
  %add.152 = f32[16384]{0} add(%div.103, %mul.440)
  %mul.441 = f32[16384]{0} multiply(%mul.381, %add.152)
  %add.153 = f32[16384]{0} add(%param.5, %mul.441)
  %mul.442 = f32[32,126,53248]{2,1,0} broadcast(%mul.380), dimensions={}
  %select_n.107 = pred[32,126,53248]{2,1,0} broadcast(%lt.39), dimensions={}
  %div.104 = f32[32,126,53248]{2,1,0} broadcast(%sqrt.0), dimensions={}
  %div.105 = f32[32,126,53248]{2,0,1} divide(%transpose.28, %div.104)
  %select_n.108 = f32[32,126,53248]{2,1,0} select(%select_n.107, %transpose.28, %div.105)
  %broadcast.271 = f32[32,126,53248]{2,1,0} broadcast(%constant.774), dimensions={}
  %mul.443 = f32[32,126,53248]{2,1,0} multiply(%select_n.108, %broadcast.271)
  %param.26 = f32[32,126,53248]{2,1,0} parameter(15), sharding={devices=[512,1,1]<=[512]}
  %broadcast.272 = f32[32,126,53248]{2,1,0} broadcast(%constant.775), dimensions={}
  %mul.444 = f32[32,126,53248]{2,1,0} multiply(%param.26, %broadcast.272)
  %add.154 = f32[32,126,53248]{2,1,0} add(%mul.443, %mul.444)
  %div.106 = f32[32,126,53248]{2,1,0} broadcast(%sub.23), dimensions={}
  %integer_pow.1 = f32[32,126,53248]{2,1,0} multiply(%select_n.108, %select_n.108)
  %broadcast.273 = f32[32,126,53248]{2,1,0} broadcast(%constant.777), dimensions={}
  %mul.445 = f32[32,126,53248]{2,1,0} multiply(%integer_pow.1, %broadcast.273)
  %param.27 = f32[32,126,53248]{2,1,0} parameter(27), sharding={devices=[512,1,1]<=[512]}
  %broadcast.274 = f32[32,126,53248]{2,1,0} broadcast(%constant.778), dimensions={}
  %mul.446 = f32[32,126,53248]{2,1,0} multiply(%param.27, %broadcast.274)
  %add.155 = f32[32,126,53248]{2,1,0} add(%mul.445, %mul.446)
  %div.107 = f32[32,126,53248]{2,1,0} broadcast(%sub.24), dimensions={}
  %div.108 = f32[32,126,53248]{2,1,0} divide(%add.155, %div.107)
  %sqrt.2 = f32[32,126,53248]{2,1,0} sqrt(%div.108)
  %broadcast.275 = f32[32,126,53248]{2,1,0} broadcast(%constant.762), dimensions={}
  %add.158 = f32[32,126,53248]{2,1,0} add(%sqrt.2, %broadcast.275)
  %multiply.116 = f32[32,126,53248]{2,1,0} multiply(%div.106, %add.158)
  %div.110 = f32[32,126,53248]{2,1,0} divide(%add.154, %multiply.116)
  %mul.447 = f32[32,126,53248]{2,1,0} multiply(%param.17, %broadcast.271)
  %add.159 = f32[32,126,53248]{2,1,0} add(%div.110, %mul.447)
  %mul.448 = f32[32,126,53248]{2,1,0} multiply(%mul.442, %add.159)
  %add.160 = f32[32,126,53248]{2,1,0} add(%param.17, %mul.448)
  %div.111 = f32[32,126,53248]{2,0,1} divide(%transpose.29, %div.104)
  %select_n.109 = f32[32,126,53248]{2,1,0} select(%select_n.107, %transpose.29, %div.111)
  %mul.449 = f32[32,126,53248]{2,1,0} multiply(%select_n.109, %broadcast.271)
  %param.28 = f32[32,126,53248]{2,1,0} parameter(16), sharding={devices=[512,1,1]<=[512]}
  %mul.450 = f32[32,126,53248]{2,1,0} multiply(%param.28, %broadcast.272)
  %add.161 = f32[32,126,53248]{2,1,0} add(%mul.449, %mul.450)
  %integer_pow.2 = f32[32,126,53248]{2,1,0} multiply(%select_n.109, %select_n.109)
  %mul.451 = f32[32,126,53248]{2,1,0} multiply(%integer_pow.2, %broadcast.273)
  %param.29 = f32[32,126,53248]{2,1,0} parameter(28), sharding={devices=[512,1,1]<=[512]}
  %mul.452 = f32[32,126,53248]{2,1,0} multiply(%param.29, %broadcast.274)
  %add.162 = f32[32,126,53248]{2,1,0} add(%mul.451, %mul.452)
  %div.112 = f32[32,126,53248]{2,1,0} divide(%add.162, %div.107)
  %sqrt.3 = f32[32,126,53248]{2,1,0} sqrt(%div.112)
  %add.163 = f32[32,126,53248]{2,1,0} add(%sqrt.3, %broadcast.275)
  %multiply.117 = f32[32,126,53248]{2,1,0} multiply(%div.106, %add.163)
  %div.114 = f32[32,126,53248]{2,1,0} divide(%add.161, %multiply.117)
  %mul.453 = f32[32,126,53248]{2,1,0} multiply(%param.18, %broadcast.271)
  %add.164 = f32[32,126,53248]{2,1,0} add(%div.114, %mul.453)
  %mul.454 = f32[32,126,53248]{2,1,0} multiply(%mul.442, %add.164)
  %add.165 = f32[32,126,53248]{2,1,0} add(%param.18, %mul.454)
  %mul.455 = f32[53248,126,32]{2,1,0} broadcast(%mul.380), dimensions={}
  %select_n.110 = pred[53248,126,32]{2,1,0} broadcast(%lt.39), dimensions={}
  %div.115 = f32[53248,126,32]{2,1,0} broadcast(%sqrt.0), dimensions={}
  %div.116 = f32[53248,126,32]{2,0,1} divide(%transpose.30, %div.115)
  %select_n.111 = f32[53248,126,32]{2,1,0} select(%select_n.110, %transpose.30, %div.116)
  %broadcast.276 = f32[53248,126,32]{2,1,0} broadcast(%constant.774), dimensions={}
  %mul.456 = f32[53248,126,32]{2,1,0} multiply(%select_n.111, %broadcast.276)
  %param.30 = f32[53248,126,32]{2,1,0} parameter(17), sharding={devices=[1,1,512]<=[512]}
  %mul.457 = f32[53248,126,32]{2,1,0} broadcast(%constant.775), dimensions={}
  %mul.458 = f32[53248,126,32]{2,1,0} multiply(%param.30, %mul.457)
  %add.166 = f32[53248,126,32]{2,1,0} add(%mul.456, %mul.458)
  %div.117 = f32[53248,126,32]{2,1,0} broadcast(%sub.23), dimensions={}
  %integer_pow.3 = f32[53248,126,32]{2,1,0} multiply(%select_n.111, %select_n.111)
  %mul.459 = f32[53248,126,32]{2,1,0} broadcast(%constant.777), dimensions={}
  %mul.460 = f32[53248,126,32]{2,1,0} multiply(%integer_pow.3, %mul.459)
  %param.31 = f32[53248,126,32]{2,1,0} parameter(29), sharding={devices=[1,1,512]<=[512]}
  %mul.461 = f32[53248,126,32]{2,1,0} broadcast(%constant.778), dimensions={}
  %mul.462 = f32[53248,126,32]{2,1,0} multiply(%param.31, %mul.461)
  %add.167 = f32[53248,126,32]{2,1,0} add(%mul.460, %mul.462)
  %div.118 = f32[53248,126,32]{2,1,0} broadcast(%sub.24), dimensions={}
  %div.119 = f32[53248,126,32]{2,1,0} divide(%add.167, %div.118)
  %sqrt.4 = f32[53248,126,32]{2,1,0} sqrt(%div.119)
  %add.168 = f32[53248,126,32]{2,1,0} broadcast(%constant.762), dimensions={}
  %add.169 = f32[53248,126,32]{2,1,0} add(%sqrt.4, %add.168)
  %multiply.118 = f32[53248,126,32]{2,1,0} multiply(%div.117, %add.169)
  %div.120 = f32[53248,126,32]{2,1,0} divide(%add.166, %multiply.118)
  %mul.463 = f32[53248,126,32]{2,1,0} multiply(%param.19, %broadcast.276)
  %add.170 = f32[53248,126,32]{2,1,0} add(%div.120, %mul.463)
  %mul.464 = f32[53248,126,32]{2,1,0} multiply(%mul.455, %add.170)
  %add.171 = f32[53248,126,32]{2,1,0} add(%param.19, %mul.464)
  %mul.465 = f32[16384,126]{1,0} broadcast(%mul.380), dimensions={}
  %select_n.112 = pred[16384,126]{1,0} broadcast(%lt.39), dimensions={}
  %div.121 = f32[16384,126]{1,0} broadcast(%sqrt.0), dimensions={}
  %div.122 = f32[16384,126]{0,1} divide(%transpose.31, %div.121)
  %select_n.113 = f32[16384,126]{1,0} select(%select_n.112, %transpose.31, %div.122)
  %broadcast.277 = f32[16384,126]{1,0} broadcast(%constant.774), dimensions={}
  %mul.466 = f32[16384,126]{1,0} multiply(%select_n.113, %broadcast.277)
  %param.32 = f32[16384,126]{1,0} parameter(18), sharding={replicated}
  %broadcast.278 = f32[16384,126]{1,0} broadcast(%constant.775), dimensions={}
  %mul.467 = f32[16384,126]{1,0} multiply(%param.32, %broadcast.278)
  %add.172 = f32[16384,126]{1,0} add(%mul.466, %mul.467)
  %div.123 = f32[16384,126]{1,0} broadcast(%sub.23), dimensions={}
  %integer_pow.4 = f32[16384,126]{1,0} multiply(%select_n.113, %select_n.113)
  %broadcast.279 = f32[16384,126]{1,0} broadcast(%constant.777), dimensions={}
  %mul.468 = f32[16384,126]{1,0} multiply(%integer_pow.4, %broadcast.279)
  %param.33 = f32[16384,126]{1,0} parameter(30), sharding={replicated}
  %broadcast.280 = f32[16384,126]{1,0} broadcast(%constant.778), dimensions={}
  %mul.469 = f32[16384,126]{1,0} multiply(%param.33, %broadcast.280)
  %add.173 = f32[16384,126]{1,0} add(%mul.468, %mul.469)
  %div.124 = f32[16384,126]{1,0} broadcast(%sub.24), dimensions={}
  %div.125 = f32[16384,126]{1,0} divide(%add.173, %div.124)
  %sqrt.5 = f32[16384,126]{1,0} sqrt(%div.125)
  %broadcast.281 = f32[16384,126]{1,0} broadcast(%constant.762), dimensions={}
  %add.174 = f32[16384,126]{1,0} add(%sqrt.5, %broadcast.281)
  %multiply.119 = f32[16384,126]{1,0} multiply(%div.123, %add.174)
  %div.126 = f32[16384,126]{1,0} divide(%add.172, %multiply.119)
  %mul.473 = f32[16384,126]{1,0} multiply(%param.16, %broadcast.277)
  %add.175 = f32[16384,126]{1,0} add(%div.126, %mul.473)
  %mul.474 = f32[16384,126]{1,0} multiply(%mul.465, %add.175)
  %add.176 = f32[16384,126]{1,0} add(%param.16, %mul.474)
  %div.127 = f32[16384,126]{0,1} divide(%transpose.32, %div.121)
  %select_n.114 = f32[16384,126]{1,0} select(%select_n.112, %transpose.32, %div.127)
  %mul.475 = f32[16384,126]{1,0} multiply(%select_n.114, %broadcast.277)
  %param.34 = f32[16384,126]{1,0} parameter(19), sharding={replicated}
  %mul.476 = f32[16384,126]{1,0} multiply(%param.34, %broadcast.278)
  %add.177 = f32[16384,126]{1,0} add(%mul.475, %mul.476)
  %integer_pow.5 = f32[16384,126]{1,0} multiply(%select_n.114, %select_n.114)
  %mul.477 = f32[16384,126]{1,0} multiply(%integer_pow.5, %broadcast.279)
  %param.35 = f32[16384,126]{1,0} parameter(31), sharding={replicated}
  %mul.478 = f32[16384,126]{1,0} multiply(%param.35, %broadcast.280)
  %add.178 = f32[16384,126]{1,0} add(%mul.477, %mul.478)
  %div.128 = f32[16384,126]{1,0} divide(%add.178, %div.124)
  %sqrt.6 = f32[16384,126]{1,0} sqrt(%div.128)
  %add.179 = f32[16384,126]{1,0} add(%sqrt.6, %broadcast.281)
  %multiply.120 = f32[16384,126]{1,0} multiply(%div.123, %add.179)
  %div.129 = f32[16384,126]{1,0} divide(%add.177, %multiply.120)
  %mul.479 = f32[16384,126]{1,0} multiply(%param.9, %broadcast.277)
  %add.180 = f32[16384,126]{1,0} add(%div.129, %mul.479)
  %mul.480 = f32[16384,126]{1,0} multiply(%mul.465, %add.180)
  %add.181 = f32[16384,126]{1,0} add(%param.9, %mul.480)
  %mul.481 = f32[32,126,8,128]{3,2,1,0} broadcast(%mul.380), dimensions={}
  %select_n.115 = pred[32,126,8,128]{3,2,1,0} broadcast(%lt.39), dimensions={}
  %div.131 = f32[32,126,8,128]{3,2,1,0} broadcast(%sqrt.0), dimensions={}
  %div.132 = f32[32,126,8,128]{3,2,0,1} divide(%transpose.33, %div.131)
  %select_n.116 = f32[32,126,8,128]{3,2,1,0} select(%select_n.115, %transpose.33, %div.132)
  %broadcast.282 = f32[32,126,8,128]{3,2,1,0} broadcast(%constant.774), dimensions={}
  %mul.482 = f32[32,126,8,128]{3,2,1,0} multiply(%select_n.116, %broadcast.282)
  %param.36 = f32[32,126,8,128]{3,2,1,0} parameter(20), sharding={devices=[512,1,1,1]<=[512]}
  %broadcast.283 = f32[32,126,8,128]{3,2,1,0} broadcast(%constant.775), dimensions={}
  %mul.483 = f32[32,126,8,128]{3,2,1,0} multiply(%param.36, %broadcast.283)
  %add.182 = f32[32,126,8,128]{3,2,1,0} add(%mul.482, %mul.483)
  %div.133 = f32[32,126,8,128]{3,2,1,0} broadcast(%sub.23), dimensions={}
  %integer_pow.6 = f32[32,126,8,128]{3,2,1,0} multiply(%select_n.116, %select_n.116)
  %broadcast.284 = f32[32,126,8,128]{3,2,1,0} broadcast(%constant.777), dimensions={}
  %mul.484 = f32[32,126,8,128]{3,2,1,0} multiply(%integer_pow.6, %broadcast.284)
  %param.37 = f32[32,126,8,128]{3,2,1,0} parameter(32), sharding={devices=[512,1,1,1]<=[512]}
  %broadcast.285 = f32[32,126,8,128]{3,2,1,0} broadcast(%constant.778), dimensions={}
  %mul.485 = f32[32,126,8,128]{3,2,1,0} multiply(%param.37, %broadcast.285)
  %add.183 = f32[32,126,8,128]{3,2,1,0} add(%mul.484, %mul.485)
  %div.134 = f32[32,126,8,128]{3,2,1,0} broadcast(%sub.24), dimensions={}
  %div.136 = f32[32,126,8,128]{3,2,1,0} divide(%add.183, %div.134)
  %sqrt.7 = f32[32,126,8,128]{3,2,1,0} sqrt(%div.136)
  %broadcast.286 = f32[32,126,8,128]{3,2,1,0} broadcast(%constant.762), dimensions={}
  %add.184 = f32[32,126,8,128]{3,2,1,0} add(%sqrt.7, %broadcast.286)
  %multiply.121 = f32[32,126,8,128]{3,2,1,0} multiply(%div.133, %add.184)
  %div.137 = f32[32,126,8,128]{3,2,1,0} divide(%add.182, %multiply.121)
  %mul.486 = f32[32,126,8,128]{3,2,1,0} multiply(%param.12, %broadcast.282)
  %add.185 = f32[32,126,8,128]{3,2,1,0} add(%div.137, %mul.486)
  %mul.487 = f32[32,126,8,128]{3,2,1,0} multiply(%mul.481, %add.185)
  %add.186 = f32[32,126,8,128]{3,2,1,0} add(%param.12, %mul.487)
  %mul.488 = f32[128,126,128,32]{3,2,1,0} broadcast(%mul.380), dimensions={}
  %select_n.117 = pred[128,126,128,32]{3,2,1,0} broadcast(%lt.39), dimensions={}
  %div.138 = f32[128,126,128,32]{3,2,1,0} broadcast(%sqrt.0), dimensions={}
  %div.139 = f32[128,126,128,32]{3,2,0,1} divide(%transpose.34, %div.138)
  %select_n.118 = f32[128,126,128,32]{3,2,1,0} select(%select_n.117, %transpose.34, %div.139)
  %broadcast.287 = f32[128,126,128,32]{3,2,1,0} broadcast(%constant.774), dimensions={}
  %mul.490 = f32[128,126,128,32]{3,2,1,0} multiply(%select_n.118, %broadcast.287)
  %param.38 = f32[128,126,128,32]{3,2,1,0} parameter(21), sharding={devices=[1,1,1,512]<=[512]}
  %mul.492 = f32[128,126,128,32]{3,2,1,0} broadcast(%constant.775), dimensions={}
  %mul.495 = f32[128,126,128,32]{3,2,1,0} multiply(%param.38, %mul.492)
  %add.187 = f32[128,126,128,32]{3,2,1,0} add(%mul.490, %mul.495)
  %div.141 = f32[128,126,128,32]{3,2,1,0} broadcast(%sub.23), dimensions={}
  %integer_pow.7 = f32[128,126,128,32]{3,2,1,0} multiply(%select_n.118, %select_n.118)
  %mul.496 = f32[128,126,128,32]{3,2,1,0} broadcast(%constant.777), dimensions={}
  %mul.497 = f32[128,126,128,32]{3,2,1,0} multiply(%integer_pow.7, %mul.496)
  %param.39 = f32[128,126,128,32]{3,2,1,0} parameter(33), sharding={devices=[1,1,1,512]<=[512]}
  %mul.498 = f32[128,126,128,32]{3,2,1,0} broadcast(%constant.778), dimensions={}
  %mul.499 = f32[128,126,128,32]{3,2,1,0} multiply(%param.39, %mul.498)
  %add.188 = f32[128,126,128,32]{3,2,1,0} add(%mul.497, %mul.499)
  %div.142 = f32[128,126,128,32]{3,2,1,0} broadcast(%sub.24), dimensions={}
  %div.144 = f32[128,126,128,32]{3,2,1,0} divide(%add.188, %div.142)
  %sqrt.8 = f32[128,126,128,32]{3,2,1,0} sqrt(%div.144)
  %add.189 = f32[128,126,128,32]{3,2,1,0} broadcast(%constant.762), dimensions={}
  %add.190 = f32[128,126,128,32]{3,2,1,0} add(%sqrt.8, %add.189)
  %multiply.122 = f32[128,126,128,32]{3,2,1,0} multiply(%div.141, %add.190)
  %div.145 = f32[128,126,128,32]{3,2,1,0} divide(%add.187, %multiply.122)
  %mul.500 = f32[128,126,128,32]{3,2,1,0} multiply(%param.15, %broadcast.287)
  %add.191 = f32[128,126,128,32]{3,2,1,0} add(%div.145, %mul.500)
  %mul.501 = f32[128,126,128,32]{3,2,1,0} multiply(%mul.488, %add.191)
  %add.193 = f32[128,126,128,32]{3,2,1,0} add(%param.15, %mul.501)
  %mul.502 = f32[32,126,128,128]{3,2,1,0} broadcast(%mul.380), dimensions={}
  %select_n.120 = pred[32,126,128,128]{3,2,1,0} broadcast(%lt.39), dimensions={}
  %div.149 = f32[32,126,128,128]{3,2,1,0} broadcast(%sqrt.0), dimensions={}
  %div.150 = f32[32,126,128,128]{3,2,0,1} divide(%transpose.35, %div.149)
  %select_n.121 = f32[32,126,128,128]{3,2,1,0} select(%select_n.120, %transpose.35, %div.150)
  %broadcast.288 = f32[32,126,128,128]{3,2,1,0} broadcast(%constant.774), dimensions={}
  %mul.507 = f32[32,126,128,128]{3,2,1,0} multiply(%select_n.121, %broadcast.288)
  %param.40 = f32[32,126,128,128]{3,2,1,0} parameter(22), sharding={devices=[512,1,1,1]<=[512]}
  %mul.508 = f32[32,126,128,128]{3,2,1,0} broadcast(%constant.775), dimensions={}
  %mul.509 = f32[32,126,128,128]{3,2,1,0} multiply(%param.40, %mul.508)
  %add.194 = f32[32,126,128,128]{3,2,1,0} add(%mul.507, %mul.509)
  %div.151 = f32[32,126,128,128]{3,2,1,0} broadcast(%sub.23), dimensions={}
  %integer_pow.8 = f32[32,126,128,128]{3,2,1,0} multiply(%select_n.121, %select_n.121)
  %mul.514 = f32[32,126,128,128]{3,2,1,0} broadcast(%constant.777), dimensions={}
  %mul.516 = f32[32,126,128,128]{3,2,1,0} multiply(%integer_pow.8, %mul.514)
  %param.41 = f32[32,126,128,128]{3,2,1,0} parameter(34), sharding={devices=[512,1,1,1]<=[512]}
  %mul.517 = f32[32,126,128,128]{3,2,1,0} broadcast(%constant.778), dimensions={}
  %mul.520 = f32[32,126,128,128]{3,2,1,0} multiply(%param.41, %mul.517)
  %add.195 = f32[32,126,128,128]{3,2,1,0} add(%mul.516, %mul.520)
  %div.152 = f32[32,126,128,128]{3,2,1,0} broadcast(%sub.24), dimensions={}
  %div.153 = f32[32,126,128,128]{3,2,1,0} divide(%add.195, %div.152)
  %sqrt.9 = f32[32,126,128,128]{3,2,1,0} sqrt(%div.153)
  %add.196 = f32[32,126,128,128]{3,2,1,0} broadcast(%constant.762), dimensions={}
  %add.197 = f32[32,126,128,128]{3,2,1,0} add(%sqrt.9, %add.196)
  %multiply.123 = f32[32,126,128,128]{3,2,1,0} multiply(%div.151, %add.197)
  %div.154 = f32[32,126,128,128]{3,2,1,0} divide(%add.194, %multiply.123)
  %mul.521 = f32[32,126,128,128]{3,2,1,0} multiply(%param.10, %broadcast.288)
  %add.198 = f32[32,126,128,128]{3,2,1,0} add(%div.154, %mul.521)
  %mul.522 = f32[32,126,128,128]{3,2,1,0} multiply(%mul.502, %add.198)
  %add.199 = f32[32,126,128,128]{3,2,1,0} add(%param.10, %mul.522)
  %div.155 = f32[32,126,8,128]{3,2,0,1} divide(%transpose.36, %div.131)
  %select_n.122 = f32[32,126,8,128]{3,2,1,0} select(%select_n.115, %transpose.36, %div.155)
  %mul.523 = f32[32,126,8,128]{3,2,1,0} multiply(%select_n.122, %broadcast.282)
  %param.42 = f32[32,126,8,128]{3,2,1,0} parameter(23), sharding={devices=[512,1,1,1]<=[512]}
  %mul.524 = f32[32,126,8,128]{3,2,1,0} multiply(%param.42, %broadcast.283)
  %add.200 = f32[32,126,8,128]{3,2,1,0} add(%mul.523, %mul.524)
  %integer_pow.9 = f32[32,126,8,128]{3,2,1,0} multiply(%select_n.122, %select_n.122)
  %mul.525 = f32[32,126,8,128]{3,2,1,0} multiply(%integer_pow.9, %broadcast.284)
  %param.43 = f32[32,126,8,128]{3,2,1,0} parameter(35), sharding={devices=[512,1,1,1]<=[512]}
  %mul.526 = f32[32,126,8,128]{3,2,1,0} multiply(%param.43, %broadcast.285)
  %add.201 = f32[32,126,8,128]{3,2,1,0} add(%mul.525, %mul.526)
  %div.156 = f32[32,126,8,128]{3,2,1,0} divide(%add.201, %div.134)
  %sqrt.10 = f32[32,126,8,128]{3,2,1,0} sqrt(%div.156)
  %add.202 = f32[32,126,8,128]{3,2,1,0} add(%sqrt.10, %broadcast.286)
  %multiply.124 = f32[32,126,8,128]{3,2,1,0} multiply(%div.133, %add.202)
  %div.157 = f32[32,126,8,128]{3,2,1,0} divide(%add.200, %multiply.124)
  %mul.528 = f32[32,126,8,128]{3,2,1,0} multiply(%param.13, %broadcast.282)
  %add.203 = f32[32,126,8,128]{3,2,1,0} add(%div.157, %mul.528)
  %mul.529 = f32[32,126,8,128]{3,2,1,0} multiply(%mul.481, %add.203)
  %add.204 = f32[32,126,8,128]{3,2,1,0} add(%param.13, %mul.529)
  %mul.530 = f32[32,128256]{1,0} broadcast(%mul.380), dimensions={}
  %select_n.123 = pred[32,128256]{1,0} broadcast(%lt.39), dimensions={}
  %div.158 = f32[32,128256]{1,0} broadcast(%sqrt.0), dimensions={}
  %div.159 = f32[32,128256]{1,0} divide(%convert_element_type.246, %div.158)
  %select_n.125 = f32[32,128256]{1,0} select(%select_n.123, %convert_element_type.246, %div.159)
  %broadcast.289 = f32[32,128256]{1,0} broadcast(%constant.774), dimensions={}
  %mul.536 = f32[32,128256]{1,0} multiply(%select_n.125, %broadcast.289)
  %param.44 = f32[32,128256]{1,0} parameter(24), sharding={devices=[512,1]<=[512]}
  %mul.546 = f32[32,128256]{1,0} broadcast(%constant.775), dimensions={}
  %mul.551 = f32[32,128256]{1,0} multiply(%param.44, %mul.546)
  %add.206 = f32[32,128256]{1,0} add(%mul.536, %mul.551)
  %div.160 = f32[32,128256]{1,0} broadcast(%sub.23), dimensions={}
  %integer_pow.10 = f32[32,128256]{1,0} multiply(%select_n.125, %select_n.125)
  %mul.552 = f32[32,128256]{1,0} broadcast(%constant.777), dimensions={}
  %mul.553 = f32[32,128256]{1,0} multiply(%integer_pow.10, %mul.552)
  %param.45 = f32[32,128256]{1,0} parameter(36), sharding={devices=[512,1]<=[512]}
  %mul.554 = f32[32,128256]{1,0} broadcast(%constant.778), dimensions={}
  %mul.555 = f32[32,128256]{1,0} multiply(%param.45, %mul.554)
  %add.207 = f32[32,128256]{1,0} add(%mul.553, %mul.555)
  %div.161 = f32[32,128256]{1,0} broadcast(%sub.24), dimensions={}
  %div.162 = f32[32,128256]{1,0} divide(%add.207, %div.161)
  %sqrt.11 = f32[32,128256]{1,0} sqrt(%div.162)
  %add.208 = f32[32,128256]{1,0} broadcast(%constant.762), dimensions={}
  %add.209 = f32[32,128256]{1,0} add(%sqrt.11, %add.208)
  %multiply.125 = f32[32,128256]{1,0} multiply(%div.160, %add.209)
  %div.163 = f32[32,128256]{1,0} divide(%add.206, %multiply.125)
  %mul.569 = f32[32,128256]{1,0} multiply(%param.21, %broadcast.289)
  %add.210 = f32[32,128256]{1,0} add(%div.163, %mul.569)
  %mul.570 = f32[32,128256]{1,0} multiply(%mul.530, %add.210)
  %add.211 = f32[32,128256]{1,0} add(%param.21, %mul.570)
  %mul.571 = f32[128256,32]{1,0} broadcast(%mul.380), dimensions={}
  %select_n.126 = pred[128256,32]{1,0} broadcast(%lt.39), dimensions={}
  %div.164 = f32[128256,32]{1,0} broadcast(%sqrt.0), dimensions={}
  %div.165 = f32[128256,32]{1,0} divide(%convert_element_type.247, %div.164)
  %select_n.127 = f32[128256,32]{1,0} select(%select_n.126, %convert_element_type.247, %div.165)
  %broadcast.290 = f32[128256,32]{1,0} broadcast(%constant.774), dimensions={}
  %mul.572 = f32[128256,32]{1,0} multiply(%select_n.127, %broadcast.290)
  %param.46 = f32[128256,32]{1,0} parameter(25), sharding={devices=[1,512]<=[512]}
  %mul.573 = f32[128256,32]{1,0} broadcast(%constant.775), dimensions={}
  %mul.574 = f32[128256,32]{1,0} multiply(%param.46, %mul.573)
  %add.212 = f32[128256,32]{1,0} add(%mul.572, %mul.574)
  %div.166 = f32[128256,32]{1,0} broadcast(%sub.23), dimensions={}
  %integer_pow.11 = f32[128256,32]{1,0} multiply(%select_n.127, %select_n.127)
  %mul.575 = f32[128256,32]{1,0} broadcast(%constant.777), dimensions={}
  %mul.576 = f32[128256,32]{1,0} multiply(%integer_pow.11, %mul.575)
  %param.47 = f32[128256,32]{1,0} parameter(37), sharding={devices=[1,512]<=[512]}
  %mul.577 = f32[128256,32]{1,0} broadcast(%constant.778), dimensions={}
  %mul.578 = f32[128256,32]{1,0} multiply(%param.47, %mul.577)
  %add.213 = f32[128256,32]{1,0} add(%mul.576, %mul.578)
  %div.168 = f32[128256,32]{1,0} broadcast(%sub.24), dimensions={}
  %div.169 = f32[128256,32]{1,0} divide(%add.213, %div.168)
  %sqrt.12 = f32[128256,32]{1,0} sqrt(%div.169)
  %add.214 = f32[128256,32]{1,0} broadcast(%constant.762), dimensions={}
  %add.215 = f32[128256,32]{1,0} add(%sqrt.12, %add.214)
  %multiply.126 = f32[128256,32]{1,0} multiply(%div.166, %add.215)
  %div.170 = f32[128256,32]{1,0} divide(%add.212, %multiply.126)
  %mul.579 = f32[128256,32]{1,0} multiply(%param.8, %broadcast.290)
  %add.216 = f32[128256,32]{1,0} add(%div.170, %mul.579)
  %mul.580 = f32[128256,32]{1,0} multiply(%mul.571, %add.216)
  %add.217 = f32[128256,32]{1,0} add(%param.8, %mul.580)
  %lt.41 = pred[] compare(%param.6, %constant.776), direction=LT
  %add.218 = s32[] add(%param.6, %constant.725)
  %select_n.128 = s32[] select(%lt.41, %add.218, %constant.776)
  %reduce.36 = f32[] reduce(%integer_pow.0, %constant.748), dimensions={0}, to_apply=%region_36.1598
  %reduce.37 = f32[] reduce(%integer_pow.1, %constant.748), dimensions={0,1,2}, to_apply=%region_37.0
  %all-reduce.22 = f32[] all-reduce(%reduce.37), channel_id=40, replica_groups=[1,512]<=[512], use_global_device_ids=true, to_apply=%region_37.0.clone
  %add.219 = f32[] add(%reduce.36, %all-reduce.22)
  %reduce.38 = f32[] reduce(%integer_pow.2, %constant.748), dimensions={0,1,2}, to_apply=%region_38.0
  %all-reduce.23 = f32[] all-reduce(%reduce.38), channel_id=41, replica_groups=[1,512]<=[512], use_global_device_ids=true, to_apply=%region_38.0.clone
  %add.220 = f32[] add(%add.219, %all-reduce.23)
  %reduce.39 = f32[] reduce(%integer_pow.3, %constant.748), dimensions={0,1,2}, to_apply=%region_39.0
  %all-reduce.24 = f32[] all-reduce(%reduce.39), channel_id=42, replica_groups=[1,512]<=[512], use_global_device_ids=true, to_apply=%region_39.0.clone
  %add.221 = f32[] add(%add.220, %all-reduce.24)
  %reduce.40 = f32[] reduce(%integer_pow.4, %constant.748), dimensions={0,1}, to_apply=%region_40.0
  %add.222 = f32[] add(%add.221, %reduce.40)
  %reduce.41 = f32[] reduce(%integer_pow.5, %constant.748), dimensions={0,1}, to_apply=%region_41.0
  %add.223 = f32[] add(%add.222, %reduce.41)
  %reduce.42 = f32[] reduce(%integer_pow.6, %constant.748), dimensions={0,1,2,3}, to_apply=%region_42.0
  %all-reduce.25 = f32[] all-reduce(%reduce.42), channel_id=43, replica_groups=[1,512]<=[512], use_global_device_ids=true, to_apply=%region_42.0.clone
  %add.224 = f32[] add(%add.223, %all-reduce.25)
  %reduce.43 = f32[] reduce(%integer_pow.7, %constant.748), dimensions={0,1,2,3}, to_apply=%region_43.0
  %all-reduce.26 = f32[] all-reduce(%reduce.43), channel_id=44, replica_groups=[1,512]<=[512], use_global_device_ids=true, to_apply=%region_43.0.clone
  %add.225 = f32[] add(%add.224, %all-reduce.26)
  %reduce.44 = f32[] reduce(%integer_pow.8, %constant.748), dimensions={0,1,2,3}, to_apply=%region_44.1653
  %all-reduce.27 = f32[] all-reduce(%reduce.44), channel_id=45, replica_groups=[1,512]<=[512], use_global_device_ids=true, to_apply=%region_44.1653.clone
  %add.226 = f32[] add(%add.225, %all-reduce.27)
  %reduce.45 = f32[] reduce(%integer_pow.9, %constant.748), dimensions={0,1,2,3}, to_apply=%region_45.1660
  %all-reduce.28 = f32[] all-reduce(%reduce.45), channel_id=46, replica_groups=[1,512]<=[512], use_global_device_ids=true, to_apply=%region_45.1660.clone
  %add.227 = f32[] add(%add.226, %all-reduce.28)
  %reduce.46 = f32[] reduce(%integer_pow.10, %constant.748), dimensions={0,1}, to_apply=%region_46.1667
  %all-reduce.29 = f32[] all-reduce(%reduce.46), channel_id=47, replica_groups=[1,512]<=[512], use_global_device_ids=true, to_apply=%region_46.1667.clone
  %add.228 = f32[] add(%add.227, %all-reduce.29)
  %reduce.47 = f32[] reduce(%integer_pow.11, %constant.748), dimensions={0,1}, to_apply=%region_47.1674
  %all-reduce.30 = f32[] all-reduce(%reduce.47), channel_id=48, replica_groups=[1,512]<=[512], use_global_device_ids=true, to_apply=%region_47.1674.clone
  %add.229 = f32[] add(%add.228, %all-reduce.30)
  %sqrt.13 = f32[] sqrt(%add.229)
  %sub.25 = f32[1,8192,128256]{2,1,0} broadcast(%log.2), dimensions={0,1}
  %sub.26 = f32[1,8192,128256]{2,1,0} subtract(%sub.21, %sub.25)
  %broadcast.291 = f32[1,8192,128256]{2,1,0} broadcast(%constant.748), dimensions={}
  %mul.581 = f32[1,8192,128256]{2,1,0} select(%eq.48, %sub.26, %broadcast.291)
  %reduce.48 = f32[1,8192]{1,0} reduce(%mul.581, %constant.748), dimensions={2}, to_apply=%region_48.1686
  %neg.6 = f32[1,8192]{1,0} negate(%reduce.48)
  %square.23 = f32[1,8192]{1,0} multiply(%add.131, %add.131)
  %mul.582 = f32[1,8192]{1,0} multiply(%square.23, %broadcast.266)
  %add.230 = f32[1,8192]{1,0} add(%neg.6, %mul.582)
  %sharding_constraint.81 = f32[1,8192]{1,0} copy(%add.230)
  %mul.583 = f32[1,8192]{1,0} select(%ne.38, %sharding_constraint.81, %broadcast.266)
  %reduce.49 = f32[] reduce(%mul.583, %constant.748), dimensions={0,1}, to_apply=%region_49.1697
  %all-reduce.31 = f32[] all-reduce(%reduce.49), channel_id=49, replica_groups=[1,512]<=[512], use_global_device_ids=true, to_apply=%region_49.1697.clone
  %div.172 = f32[] divide(%all-reduce.31, %add.130)
  %square.24 = f32[16384]{0} multiply(%add.153, %add.153)
  %reduce.50 = f32[] reduce(%square.24, %constant.748), dimensions={0}, to_apply=%region_50.1704
  %square.25 = f32[32,126,53248]{2,1,0} multiply(%add.160, %add.160)
  %reduce.51 = f32[] reduce(%square.25, %constant.748), dimensions={0,1,2}, to_apply=%region_51.1710
  %all-reduce.32 = f32[] all-reduce(%reduce.51), channel_id=50, replica_groups=[1,512]<=[512], use_global_device_ids=true, to_apply=%region_51.1710.clone
  %add.231 = f32[] add(%reduce.50, %all-reduce.32)
  %square.26 = f32[32,126,53248]{2,1,0} multiply(%add.165, %add.165)
  %reduce.52 = f32[] reduce(%square.26, %constant.748), dimensions={0,1,2}, to_apply=%region_52.1717
  %all-reduce.33 = f32[] all-reduce(%reduce.52), channel_id=51, replica_groups=[1,512]<=[512], use_global_device_ids=true, to_apply=%region_52.1717.clone
  %add.232 = f32[] add(%add.231, %all-reduce.33)
  %square.27 = f32[53248,126,32]{2,1,0} multiply(%add.171, %add.171)
  %reduce.53 = f32[] reduce(%square.27, %constant.748), dimensions={0,1,2}, to_apply=%region_53.1724
  %all-reduce.34 = f32[] all-reduce(%reduce.53), channel_id=52, replica_groups=[1,512]<=[512], use_global_device_ids=true, to_apply=%region_53.1724.clone
  %add.233 = f32[] add(%add.232, %all-reduce.34)
  %square.28 = f32[16384,126]{1,0} multiply(%add.176, %add.176)
  %reduce.54 = f32[] reduce(%square.28, %constant.748), dimensions={0,1}, to_apply=%region_54.1731
  %add.234 = f32[] add(%add.233, %reduce.54)
  %square.29 = f32[16384,126]{1,0} multiply(%add.181, %add.181)
  %reduce.55 = f32[] reduce(%square.29, %constant.748), dimensions={0,1}, to_apply=%region_55.1738
  %add.235 = f32[] add(%add.234, %reduce.55)
  %square.30 = f32[32,126,8,128]{3,2,1,0} multiply(%add.186, %add.186)
  %reduce.56 = f32[] reduce(%square.30, %constant.748), dimensions={0,1,2,3}, to_apply=%region_56.1745
  %all-reduce.35 = f32[] all-reduce(%reduce.56), channel_id=53, replica_groups=[1,512]<=[512], use_global_device_ids=true, to_apply=%region_56.1745.clone
  %add.236 = f32[] add(%add.235, %all-reduce.35)
  %square.31 = f32[128,126,128,32]{3,2,1,0} multiply(%add.193, %add.193)
  %reduce.57 = f32[] reduce(%square.31, %constant.748), dimensions={0,1,2,3}, to_apply=%region_57.1752
  %all-reduce.36 = f32[] all-reduce(%reduce.57), channel_id=54, replica_groups=[1,512]<=[512], use_global_device_ids=true, to_apply=%region_57.1752.clone
  %add.237 = f32[] add(%add.236, %all-reduce.36)
  %square.32 = f32[32,126,128,128]{3,2,1,0} multiply(%add.199, %add.199)
  %reduce.58 = f32[] reduce(%square.32, %constant.748), dimensions={0,1,2,3}, to_apply=%region_58.1759
  %all-reduce.37 = f32[] all-reduce(%reduce.58), channel_id=55, replica_groups=[1,512]<=[512], use_global_device_ids=true, to_apply=%region_58.1759.clone
  %add.238 = f32[] add(%add.237, %all-reduce.37)
  %square.33 = f32[32,126,8,128]{3,2,1,0} multiply(%add.204, %add.204)
  %reduce.59 = f32[] reduce(%square.33, %constant.748), dimensions={0,1,2,3}, to_apply=%region_59.1766
  %all-reduce.38 = f32[] all-reduce(%reduce.59), channel_id=56, replica_groups=[1,512]<=[512], use_global_device_ids=true, to_apply=%region_59.1766.clone
  %add.239 = f32[] add(%add.238, %all-reduce.38)
  %square.34 = f32[32,128256]{1,0} multiply(%add.211, %add.211)
  %reduce.60 = f32[] reduce(%square.34, %constant.748), dimensions={0,1}, to_apply=%region_60.1773
  %all-reduce.39 = f32[] all-reduce(%reduce.60), channel_id=57, replica_groups=[1,512]<=[512], use_global_device_ids=true, to_apply=%region_60.1773.clone
  %add.240 = f32[] add(%add.239, %all-reduce.39)
  %square.35 = f32[128256,32]{1,0} multiply(%add.217, %add.217)
  %reduce.61 = f32[] reduce(%square.35, %constant.748), dimensions={0,1}, to_apply=%region_61.1780
  %all-reduce.40 = f32[] all-reduce(%reduce.61), channel_id=58, replica_groups=[1,512]<=[512], use_global_device_ids=true, to_apply=%region_61.1780.clone
  %add.241 = f32[] add(%add.240, %all-reduce.40)
  %sqrt.14 = f32[] sqrt(%add.241)
  %all-reduce.41 = f32[] all-reduce(%reduce.25), channel_id=59, replica_groups=[1,512]<=[512], use_global_device_ids=true, to_apply=%region_63.1794.clone
  %add.242 = f32[] add(%reduce.23, %all-reduce.41)
  %all-reduce.42 = f32[] all-reduce(%reduce.26), channel_id=60, replica_groups=[1,512]<=[512], use_global_device_ids=true, to_apply=%region_64.1801.clone
  %add.243 = f32[] add(%add.242, %all-reduce.42)
  %all-reduce.43 = f32[] all-reduce(%reduce.27), channel_id=61, replica_groups=[1,512]<=[512], use_global_device_ids=true, to_apply=%region_65.1808.clone
  %add.244 = f32[] add(%add.243, %all-reduce.43)
  %add.245 = f32[] add(%add.244, %reduce.28)
  %add.246 = f32[] add(%add.245, %reduce.29)
  %all-reduce.44 = f32[] all-reduce(%reduce.30), channel_id=62, replica_groups=[1,512]<=[512], use_global_device_ids=true, to_apply=%region_68.1829.clone
  %add.247 = f32[] add(%add.246, %all-reduce.44)
  %all-reduce.45 = f32[] all-reduce(%reduce.31), channel_id=63, replica_groups=[1,512]<=[512], use_global_device_ids=true, to_apply=%region_69.1836.clone
  %add.248 = f32[] add(%add.247, %all-reduce.45)
  %all-reduce.46 = f32[] all-reduce(%reduce.32), channel_id=64, replica_groups=[1,512]<=[512], use_global_device_ids=true, to_apply=%region_70.1843.clone
  %add.249 = f32[] add(%add.248, %all-reduce.46)
  %all-reduce.47 = f32[] all-reduce(%reduce.33), channel_id=65, replica_groups=[1,512]<=[512], use_global_device_ids=true, to_apply=%region_71.1850.clone
  %add.250 = f32[] add(%add.249, %all-reduce.47)
  %all-reduce.48 = f32[] all-reduce(%reduce.34), channel_id=66, replica_groups=[1,512]<=[512], use_global_device_ids=true, to_apply=%region_72.1857.clone
  %add.253 = f32[] add(%add.250, %all-reduce.48)
  %all-reduce.49 = f32[] all-reduce(%reduce.35), channel_id=67, replica_groups=[1,512]<=[512], use_global_device_ids=true, to_apply=%region_73.1864.clone
  %add.254 = f32[] add(%add.253, %all-reduce.49)
  %sqrt.15 = f32[] sqrt(%add.254)
  ROOT %tuple.10 = (s32[], f32[16384]{0}, f32[32,126,53248]{2,1,0}, f32[32,126,53248]{2,1,0}, f32[53248,126,32]{2,1,0}, /*index=5*/f32[16384,126]{1,0}, f32[16384,126]{1,0}, f32[32,126,8,128]{3,2,1,0}, f32[128,126,128,32]{3,2,1,0}, f32[32,126,128,128]{3,2,1,0}, /*index=10*/f32[32,126,8,128]{3,2,1,0}, f32[32,128256]{1,0}, f32[128256,32]{1,0}, s32[], f32[16384]{0}, /*index=15*/f32[32,126,53248]{2,1,0}, f32[32,126,53248]{2,1,0}, f32[53248,126,32]{2,1,0}, f32[16384,126]{1,0}, f32[16384,126]{1,0}, /*index=20*/f32[32,126,8,128]{3,2,1,0}, f32[128,126,128,32]{3,2,1,0}, f32[32,126,128,128]{3,2,1,0}, f32[32,126,8,128]{3,2,1,0}, f32[32,128256]{1,0}, /*index=25*/f32[128256,32]{1,0}, f32[16384]{0}, f32[32,126,53248]{2,1,0}, f32[32,126,53248]{2,1,0}, f32[53248,126,32]{2,1,0}, /*index=30*/f32[16384,126]{1,0}, f32[16384,126]{1,0}, f32[32,126,8,128]{3,2,1,0}, f32[128,126,128,32]{3,2,1,0}, f32[32,126,128,128]{3,2,1,0}, /*index=35*/f32[32,126,8,128]{3,2,1,0}, f32[32,128256]{1,0}, f32[128256,32]{1,0}, s32[], f32[], /*index=40*/f32[], f32[], f32[], f32[], f32[], /*index=45*/s32[]) tuple(%add.118, %add.153, %add.160, %add.165, %add.171, /*index=5*/%add.176, %add.181, %add.186, %add.193, %add.199, /*index=10*/%add.204, %add.211, %add.217, %select_n.106, %add.146, /*index=15*/%add.154, %add.161, %add.166, %add.172, %add.177, /*index=20*/%add.182, %add.187, %add.194, %add.200, %add.206, /*index=25*/%add.212, %add.149, %add.155, %add.162, %add.167, /*index=30*/%add.173, %add.178, %add.183, %add.188, %add.195, /*index=35*/%add.201, %add.207, %add.213, %select_n.128, %sqrt.13, /*index=40*/%div.172, %constant.748, %constant.748, %sqrt.14, %sqrt.15, /*index=45*/%all-reduce.9)
>>>>>>> upstream/master
}

