HloModule jit_train_step, input_output_alias={ {0}: (0, {}, may-alias), {1}: (1, {}, may-alias), {2}: (2, {}, may-alias), {3}: (3, {}, may-alias), {4}: (4, {}, may-alias), {5}: (5, {}, may-alias), {6}: (6, {}, may-alias), {7}: (7, {}, may-alias), {8}: (8, {}, may-alias), {9}: (9, {}, may-alias), {10}: (10, {}, may-alias), {11}: (11, {}, may-alias), {12}: (12, {}, may-alias), {13}: (13, {}, may-alias), {14}: (14, {}, may-alias), {15}: (15, {}, may-alias), {16}: (16, {}, may-alias), {17}: (17, {}, may-alias), {18}: (18, {}, may-alias), {19}: (19, {}, may-alias), {20}: (20, {}, may-alias), {21}: (21, {}, may-alias), {22}: (22, {}, may-alias), {23}: (23, {}, may-alias), {24}: (24, {}, may-alias), {25}: (25, {}, may-alias), {26}: (26, {}, may-alias), {27}: (27, {}, may-alias), {28}: (28, {}, may-alias), {29}: (29, {}, may-alias), {30}: (30, {}, may-alias), {31}: (31, {}, may-alias), {32}: (32, {}, may-alias), {33}: (33, {}, may-alias), {34}: (34, {}, may-alias), {35}: (35, {}, may-alias), {36}: (36, {}, may-alias), {37}: (37, {}, may-alias), {38}: (38, {}, may-alias), {39}: (39, {}, may-alias), {40}: (40, {}, may-alias), {41}: (41, {}, may-alias), {42}: (42, {}, may-alias), {43}: (43, {}, may-alias), {44}: (44, {}, may-alias), {45}: (45, {}, may-alias), {46}: (46, {}, may-alias), {47}: (47, {}, may-alias), {48}: (48, {}, may-alias), {49}: (49, {}, may-alias), {50}: (50, {}, may-alias), {51}: (51, {}, may-alias), {52}: (52, {}, may-alias), {53}: (53, {}, may-alias), {54}: (54, {}, may-alias), {55}: (55, {}, may-alias), {56}: (56, {}, may-alias), {57}: (57, {}, may-alias), {58}: (58, {}, may-alias), {59}: (59, {}, may-alias), {60}: (60, {}, may-alias), {61}: (61, {}, may-alias), {62}: (62, {}, may-alias), {63}: (63, {}, may-alias), {64}: (64, {}, may-alias), {65}: (65, {}, may-alias), {66}: (66, {}, may-alias), {67}: (67, {}, may-alias), {68}: (68, {}, may-alias), {69}: (69, {}, may-alias), {70}: (70, {}, may-alias), {71}: (71, {}, may-alias), {72}: (72, {}, may-alias), {73}: (73, {}, may-alias), {74}: (74, {}, may-alias), {75}: (75, {}, may-alias), {76}: (76, {}, may-alias), {77}: (77, {}, may-alias), {78}: (78, {}, may-alias), {79}: (79, {}, may-alias), {80}: (80, {}, may-alias), {81}: (81, {}, may-alias), {82}: (82, {}, may-alias), {83}: (83, {}, may-alias), {84}: (84, {}, may-alias), {85}: (85, {}, may-alias), {86}: (86, {}, may-alias), {87}: (87, {}, may-alias), {88}: (88, {}, may-alias), {89}: (89, {}, may-alias), {90}: (90, {}, may-alias), {91}: (91, {}, may-alias), {92}: (92, {}, may-alias), {93}: (93, {}, may-alias), {94}: (94, {}, may-alias), {95}: (95, {}, may-alias), {96}: (96, {}, may-alias), {97}: (97, {}, may-alias), {98}: (98, {}, may-alias), {99}: (99, {}, may-alias), {100}: (100, {}, may-alias), {101}: (101, {}, may-alias), {102}: (102, {}, may-alias), {103}: (103, {}, may-alias), {104}: (104, {}, may-alias), {105}: (105, {}, may-alias), {106}: (106, {}, may-alias), {107}: (107, {}, may-alias), {108}: (108, {}, may-alias), {109}: (109, {}, may-alias), {110}: (110, {}, may-alias), {111}: (111, {}, may-alias), {112}: (112, {}, may-alias), {113}: (113, {}, may-alias), {114}: (114, {}, may-alias), {115}: (115, {}, may-alias), {116}: (116, {}, may-alias), {117}: (117, {}, may-alias), {118}: (118, {}, may-alias), {119}: (119, {}, may-alias), {120}: (120, {}, may-alias), {121}: (121, {}, may-alias), {122}: (122, {}, may-alias), {123}: (123, {}, may-alias), {124}: (124, {}, may-alias), {125}: (125, {}, may-alias), {126}: (126, {}, may-alias), {127}: (127, {}, may-alias), {128}: (128, {}, may-alias), {129}: (129, {}, may-alias), {130}: (130, {}, may-alias), {131}: (131, {}, may-alias), {132}: (132, {}, may-alias), {133}: (133, {}, may-alias), {134}: (134, {}, may-alias), {135}: (135, {}, may-alias), {136}: (136, {}, may-alias), {137}: (137, {}, may-alias), {138}: (138, {}, may-alias), {139}: (139, {}, may-alias), {140}: (140, {}, may-alias), {141}: (141, {}, may-alias), {142}: (142, {}, may-alias), {143}: (143, {}, may-alias), {144}: (144, {}, may-alias), {145}: (145, {}, may-alias), {146}: (146, {}, may-alias), {147}: (147, {}, may-alias), {148}: (148, {}, may-alias), {149}: (149, {}, may-alias), {150}: (150, {}, may-alias), {151}: (151, {}, may-alias), {152}: (152, {}, may-alias), {153}: (153, {}, may-alias), {154}: (154, {}, may-alias), {155}: (155, {}, may-alias), {156}: (156, {}, may-alias), {157}: (157, {}, may-alias), {158}: (158, {}, may-alias), {159}: (159, {}, may-alias), {160}: (160, {}, may-alias), {161}: (161, {}, may-alias), {162}: (162, {}, may-alias), {163}: (163, {}, may-alias), {164}: (164, {}, may-alias), {165}: (165, {}, may-alias), {166}: (166, {}, may-alias), {167}: (167, {}, may-alias), {168}: (168, {}, may-alias), {169}: (169, {}, may-alias), {170}: (170, {}, may-alias), {171}: (171, {}, may-alias), {172}: (172, {}, may-alias), {173}: (173, {}, may-alias), {174}: (174, {}, may-alias), {175}: (175, {}, may-alias), {176}: (176, {}, may-alias), {177}: (177, {}, may-alias), {178}: (178, {}, may-alias), {179}: (179, {}, may-alias), {180}: (180, {}, may-alias), {181}: (181, {}, may-alias), {182}: (182, {}, may-alias), {183}: (183, {}, may-alias), {184}: (184, {}, may-alias), {185}: (185, {}, may-alias), {186}: (186, {}, may-alias), {187}: (187, {}, may-alias), {188}: (188, {}, may-alias), {189}: (189, {}, may-alias), {190}: (190, {}, may-alias), {191}: (191, {}, may-alias), {192}: (192, {}, may-alias), {193}: (193, {}, may-alias), {194}: (194, {}, may-alias), {195}: (195, {}, may-alias), {196}: (196, {}, may-alias), {197}: (197, {}, may-alias), {198}: (198, {}, may-alias), {199}: (199, {}, may-alias), {200}: (200, {}, may-alias), {201}: (201, {}, may-alias), {202}: (202, {}, may-alias), {203}: (203, {}, may-alias), {204}: (204, {}, may-alias), {205}: (205, {}, may-alias), {206}: (206, {}, may-alias), {207}: (207, {}, may-alias), {208}: (208, {}, may-alias), {209}: (209, {}, may-alias), {210}: (210, {}, may-alias), {211}: (211, {}, may-alias), {212}: (212, {}, may-alias), {213}: (213, {}, may-alias), {214}: (214, {}, may-alias), {215}: (215, {}, may-alias), {216}: (216, {}, may-alias), {217}: (217, {}, may-alias), {218}: (218, {}, may-alias), {219}: (219, {}, may-alias), {220}: (220, {}, may-alias), {221}: (221, {}, may-alias), {222}: (222, {}, may-alias), {223}: (223, {}, may-alias), {224}: (224, {}, may-alias), {225}: (225, {}, may-alias), {226}: (226, {}, may-alias), {227}: (227, {}, may-alias), {228}: (228, {}, may-alias), {229}: (229, {}, may-alias), {230}: (230, {}, may-alias), {231}: (231, {}, may-alias), {232}: (232, {}, may-alias), {233}: (233, {}, may-alias), {234}: (234, {}, may-alias), {235}: (235, {}, may-alias), {236}: (236, {}, may-alias), {237}: (237, {}, may-alias), {238}: (238, {}, may-alias), {239}: (239, {}, may-alias), {240}: (240, {}, may-alias), {241}: (241, {}, may-alias), {242}: (242, {}, may-alias), {243}: (243, {}, may-alias), {244}: (244, {}, may-alias), {245}: (245, {}, may-alias), {246}: (246, {}, may-alias), {247}: (247, {}, may-alias), {248}: (248, {}, may-alias), {249}: (249, {}, may-alias), {250}: (250, {}, may-alias), {251}: (251, {}, may-alias), {252}: (252, {}, may-alias), {253}: (253, {}, may-alias), {254}: (254, {}, may-alias), {255}: (255, {}, may-alias), {256}: (256, {}, may-alias), {257}: (257, {}, may-alias), {258}: (258, {}, may-alias), {259}: (259, {}, may-alias), {260}: (260, {}, may-alias), {261}: (261, {}, may-alias), {262}: (262, {}, may-alias), {263}: (263, {}, may-alias), {264}: (264, {}, may-alias), {265}: (265, {}, may-alias), {266}: (266, {}, may-alias), {267}: (267, {}, may-alias), {268}: (268, {}, may-alias), {269}: (269, {}, may-alias), {270}: (270, {}, may-alias), {271}: (271, {}, may-alias), {272}: (272, {}, may-alias), {273}: (273, {}, may-alias), {274}: (274, {}, may-alias), {275}: (275, {}, may-alias), {276}: (276, {}, may-alias), {277}: (277, {}, may-alias), {278}: (278, {}, may-alias), {279}: (279, {}, may-alias), {280}: (280, {}, may-alias), {281}: (281, {}, may-alias), {282}: (282, {}, may-alias), {283}: (283, {}, may-alias), {284}: (284, {}, may-alias), {285}: (285, {}, may-alias), {286}: (286, {}, may-alias), {287}: (287, {}, may-alias), {288}: (288, {}, may-alias), {289}: (289, {}, may-alias), {290}: (290, {}, may-alias), {291}: (291, {}, may-alias), {292}: (292, {}, may-alias), {293}: (293, {}, may-alias), {294}: (294, {}, may-alias), {295}: (295, {}, may-alias), {296}: (296, {}, may-alias), {297}: (297, {}, may-alias), {298}: (298, {}, may-alias), {299}: (299, {}, may-alias), {300}: (300, {}, may-alias), {301}: (301, {}, may-alias), {302}: (302, {}, may-alias), {303}: (303, {}, may-alias), {304}: (304, {}, may-alias), {305}: (305, {}, may-alias), {306}: (306, {}, may-alias), {307}: (307, {}, may-alias), {308}: (308, {}, may-alias), {309}: (309, {}, may-alias), {310}: (310, {}, may-alias), {311}: (311, {}, may-alias), {312}: (312, {}, may-alias), {313}: (313, {}, may-alias), {314}: (314, {}, may-alias), {315}: (315, {}, may-alias), {316}: (316, {}, may-alias), {317}: (317, {}, may-alias), {318}: (318, {}, may-alias), {319}: (319, {}, may-alias), {320}: (320, {}, may-alias), {321}: (321, {}, may-alias), {322}: (322, {}, may-alias), {323}: (323, {}, may-alias), {324}: (324, {}, may-alias), {325}: (325, {}, may-alias), {326}: (326, {}, may-alias), {327}: (327, {}, may-alias), {328}: (328, {}, may-alias), {329}: (329, {}, may-alias), {330}: (330, {}, may-alias), {331}: (331, {}, may-alias), {332}: (332, {}, may-alias), {333}: (333, {}, may-alias), {334}: (334, {}, may-alias), {335}: (335, {}, may-alias), {336}: (336, {}, may-alias), {337}: (337, {}, may-alias), {338}: (338, {}, may-alias), {339}: (339, {}, may-alias), {340}: (340, {}, may-alias), {341}: (341, {}, may-alias), {342}: (342, {}, may-alias), {343}: (343, {}, may-alias), {344}: (344, {}, may-alias), {345}: (345, {}, may-alias), {346}: (346, {}, may-alias), {347}: (347, {}, may-alias), {348}: (348, {}, may-alias), {349}: (349, {}, may-alias), {350}: (350, {}, may-alias), {351}: (351, {}, may-alias), {352}: (352, {}, may-alias), {353}: (353, {}, may-alias), {354}: (354, {}, may-alias), {355}: (355, {}, may-alias), {356}: (356, {}, may-alias), {357}: (357, {}, may-alias), {358}: (358, {}, may-alias), {359}: (359, {}, may-alias), {360}: (360, {}, may-alias), {361}: (361, {}, may-alias), {362}: (362, {}, may-alias), {363}: (363, {}, may-alias), {364}: (364, {}, may-alias), {365}: (365, {}, may-alias), {366}: (366, {}, may-alias), {367}: (367, {}, may-alias), {368}: (368, {}, may-alias), {369}: (369, {}, may-alias), {370}: (370, {}, may-alias), {371}: (371, {}, may-alias), {372}: (372, {}, may-alias), {373}: (373, {}, may-alias), {374}: (374, {}, may-alias), {375}: (375, {}, may-alias), {376}: (376, {}, may-alias), {377}: (377, {}, may-alias), {378}: (378, {}, may-alias), {379}: (379, {}, may-alias), {380}: (380, {}, may-alias), {381}: (381, {}, may-alias), {382}: (382, {}, may-alias), {383}: (383, {}, may-alias), {384}: (384, {}, may-alias), {385}: (385, {}, may-alias), {386}: (386, {}, may-alias), {387}: (387, {}, may-alias), {388}: (388, {}, may-alias), {389}: (389, {}, may-alias), {390}: (390, {}, may-alias), {391}: (391, {}, may-alias), {392}: (392, {}, may-alias), {393}: (393, {}, may-alias), {394}: (394, {}, may-alias), {395}: (395, {}, may-alias), {396}: (396, {}, may-alias), {397}: (397, {}, may-alias), {398}: (398, {}, may-alias), {399}: (399, {}, may-alias), {400}: (400, {}, may-alias), {401}: (401, {}, may-alias), {402}: (402, {}, may-alias), {403}: (403, {}, may-alias), {404}: (404, {}, may-alias), {405}: (405, {}, may-alias), {406}: (406, {}, may-alias), {407}: (407, {}, may-alias), {408}: (408, {}, may-alias), {409}: (409, {}, may-alias), {410}: (410, {}, may-alias), {411}: (411, {}, may-alias), {412}: (412, {}, may-alias), {413}: (413, {}, may-alias), {414}: (414, {}, may-alias), {415}: (415, {}, may-alias), {416}: (416, {}, may-alias), {417}: (417, {}, may-alias), {418}: (418, {}, may-alias), {419}: (419, {}, may-alias), {420}: (420, {}, may-alias), {421}: (421, {}, may-alias), {422}: (422, {}, may-alias), {423}: (423, {}, may-alias), {424}: (424, {}, may-alias), {425}: (425, {}, may-alias), {426}: (426, {}, may-alias), {427}: (427, {}, may-alias), {428}: (428, {}, may-alias), {429}: (429, {}, may-alias), {430}: (430, {}, may-alias), {431}: (431, {}, may-alias), {432}: (432, {}, may-alias), {433}: (433, {}, may-alias), {434}: (434, {}, may-alias), {435}: (435, {}, may-alias), {436}: (436, {}, may-alias), {437}: (437, {}, may-alias), {438}: (438, {}, may-alias), {439}: (439, {}, may-alias), {440}: (440, {}, may-alias), {441}: (441, {}, may-alias), {442}: (442, {}, may-alias), {443}: (443, {}, may-alias), {444}: (444, {}, may-alias), {445}: (445, {}, may-alias), {446}: (446, {}, may-alias), {447}: (447, {}, may-alias), {448}: (448, {}, may-alias), {449}: (449, {}, may-alias), {450}: (450, {}, may-alias), {451}: (451, {}, may-alias), {452}: (452, {}, may-alias), {453}: (453, {}, may-alias), {454}: (454, {}, may-alias), {455}: (455, {}, may-alias), {456}: (456, {}, may-alias), {457}: (457, {}, may-alias), {458}: (458, {}, may-alias), {459}: (459, {}, may-alias), {460}: (460, {}, may-alias), {461}: (461, {}, may-alias), {462}: (462, {}, may-alias), {463}: (463, {}, may-alias), {464}: (464, {}, may-alias), {465}: (465, {}, may-alias), {466}: (466, {}, may-alias), {467}: (467, {}, may-alias), {468}: (468, {}, may-alias), {469}: (469, {}, may-alias), {470}: (470, {}, may-alias), {471}: (471, {}, may-alias), {472}: (472, {}, may-alias), {473}: (473, {}, may-alias), {474}: (474, {}, may-alias), {475}: (475, {}, may-alias), {476}: (476, {}, may-alias), {477}: (477, {}, may-alias), {478}: (478, {}, may-alias), {479}: (479, {}, may-alias), {480}: (480, {}, may-alias), {481}: (481, {}, may-alias), {482}: (482, {}, may-alias), {483}: (483, {}, may-alias), {484}: (484, {}, may-alias), {485}: (485, {}, may-alias), {486}: (486, {}, may-alias), {487}: (487, {}, may-alias), {488}: (488, {}, may-alias), {489}: (489, {}, may-alias), {490}: (490, {}, may-alias), {491}: (491, {}, may-alias), {492}: (492, {}, may-alias), {493}: (493, {}, may-alias), {494}: (494, {}, may-alias), {495}: (495, {}, may-alias), {496}: (496, {}, may-alias), {497}: (497, {}, may-alias), {498}: (498, {}, may-alias), {499}: (499, {}, may-alias), {500}: (500, {}, may-alias), {501}: (501, {}, may-alias), {502}: (502, {}, may-alias), {503}: (503, {}, may-alias), {504}: (504, {}, may-alias), {505}: (505, {}, may-alias), {506}: (506, {}, may-alias), {507}: (507, {}, may-alias), {508}: (508, {}, may-alias), {509}: (509, {}, may-alias), {510}: (510, {}, may-alias), {511}: (511, {}, may-alias), {512}: (512, {}, may-alias), {513}: (513, {}, may-alias), {514}: (514, {}, may-alias), {515}: (515, {}, may-alias), {516}: (516, {}, may-alias), {517}: (517, {}, may-alias), {518}: (518, {}, may-alias), {519}: (519, {}, may-alias), {520}: (520, {}, may-alias), {521}: (521, {}, may-alias), {522}: (522, {}, may-alias), {523}: (523, {}, may-alias), {524}: (524, {}, may-alias), {525}: (525, {}, may-alias), {526}: (526, {}, may-alias), {527}: (527, {}, may-alias), {528}: (528, {}, may-alias), {529}: (529, {}, may-alias), {530}: (530, {}, may-alias), {531}: (531, {}, may-alias), {532}: (532, {}, may-alias), {533}: (533, {}, may-alias), {534}: (534, {}, may-alias), {535}: (535, {}, may-alias), {536}: (536, {}, may-alias), {537}: (537, {}, may-alias), {538}: (538, {}, may-alias), {539}: (539, {}, may-alias), {540}: (540, {}, may-alias), {541}: (541, {}, may-alias), {542}: (542, {}, may-alias), {543}: (543, {}, may-alias), {544}: (544, {}, may-alias), {545}: (545, {}, may-alias), {546}: (546, {}, may-alias), {547}: (547, {}, may-alias), {548}: (548, {}, may-alias), {549}: (549, {}, may-alias), {550}: (550, {}, may-alias), {551}: (551, {}, may-alias), {552}: (552, {}, may-alias), {553}: (553, {}, may-alias), {554}: (554, {}, may-alias), {555}: (555, {}, may-alias), {556}: (556, {}, may-alias), {557}: (557, {}, may-alias), {558}: (558, {}, may-alias), {559}: (559, {}, may-alias), {560}: (560, {}, may-alias), {561}: (561, {}, may-alias), {562}: (562, {}, may-alias), {563}: (563, {}, may-alias), {564}: (564, {}, may-alias), {565}: (565, {}, may-alias), {566}: (566, {}, may-alias), {567}: (567, {}, may-alias), {568}: (568, {}, may-alias), {569}: (569, {}, may-alias), {570}: (570, {}, may-alias), {571}: (571, {}, may-alias), {572}: (572, {}, may-alias), {573}: (573, {}, may-alias), {574}: (574, {}, may-alias), {575}: (575, {}, may-alias), {576}: (576, {}, may-alias), {577}: (577, {}, may-alias), {578}: (578, {}, may-alias), {579}: (579, {}, may-alias), {580}: (580, {}, may-alias), {581}: (581, {}, may-alias), {582}: (582, {}, may-alias), {583}: (583, {}, may-alias), {584}: (584, {}, may-alias), {585}: (585, {}, may-alias), {586}: (586, {}, may-alias), {587}: (587, {}, may-alias), {588}: (588, {}, may-alias), {589}: (589, {}, may-alias), {590}: (590, {}, may-alias), {591}: (591, {}, may-alias), {592}: (592, {}, may-alias), {593}: (593, {}, may-alias), {594}: (594, {}, may-alias), {595}: (595, {}, may-alias), {596}: (596, {}, may-alias), {597}: (597, {}, may-alias), {598}: (598, {}, may-alias), {599}: (599, {}, may-alias), {600}: (600, {}, may-alias), {601}: (601, {}, may-alias), {602}: (602, {}, may-alias), {603}: (603, {}, may-alias), {604}: (604, {}, may-alias), {605}: (605, {}, may-alias), {606}: (606, {}, may-alias), {607}: (607, {}, may-alias), {608}: (608, {}, may-alias), {609}: (609, {}, may-alias), {610}: (610, {}, may-alias), {611}: (611, {}, may-alias), {612}: (612, {}, may-alias), {613}: (613, {}, may-alias), {614}: (614, {}, may-alias), {615}: (615, {}, may-alias), {616}: (616, {}, may-alias), {617}: (617, {}, may-alias), {618}: (618, {}, may-alias), {619}: (619, {}, may-alias), {620}: (620, {}, may-alias), {621}: (621, {}, may-alias), {622}: (622, {}, may-alias), {623}: (623, {}, may-alias), {624}: (624, {}, may-alias), {625}: (625, {}, may-alias), {626}: (626, {}, may-alias), {627}: (627, {}, may-alias), {628}: (628, {}, may-alias), {629}: (629, {}, may-alias), {630}: (630, {}, may-alias), {631}: (631, {}, may-alias), {632}: (632, {}, may-alias), {633}: (633, {}, may-alias), {634}: (634, {}, may-alias), {635}: (635, {}, may-alias), {636}: (636, {}, may-alias), {637}: (637, {}, may-alias), {638}: (638, {}, may-alias), {639}: (639, {}, may-alias), {640}: (640, {}, may-alias), {641}: (641, {}, may-alias), {642}: (642, {}, may-alias), {643}: (643, {}, may-alias), {644}: (644, {}, may-alias), {645}: (645, {}, may-alias), {646}: (646, {}, may-alias), {647}: (647, {}, may-alias), {648}: (648, {}, may-alias), {649}: (649, {}, may-alias), {650}: (650, {}, may-alias), {651}: (651, {}, may-alias), {652}: (652, {}, may-alias), {653}: (653, {}, may-alias), {654}: (654, {}, may-alias), {655}: (655, {}, may-alias), {656}: (656, {}, may-alias), {657}: (657, {}, may-alias), {658}: (658, {}, may-alias), {659}: (659, {}, may-alias), {660}: (660, {}, may-alias), {661}: (661, {}, may-alias), {662}: (662, {}, may-alias), {663}: (663, {}, may-alias), {664}: (664, {}, may-alias), {665}: (665, {}, may-alias), {666}: (666, {}, may-alias), {667}: (667, {}, may-alias), {668}: (668, {}, may-alias), {669}: (669, {}, may-alias), {670}: (670, {}, may-alias), {671}: (671, {}, may-alias), {672}: (672, {}, may-alias), {673}: (673, {}, may-alias), {674}: (674, {}, may-alias), {675}: (675, {}, may-alias), {676}: (676, {}, may-alias), {677}: (677, {}, may-alias), {678}: (678, {}, may-alias), {679}: (679, {}, may-alias), {680}: (680, {}, may-alias), {681}: (681, {}, may-alias), {682}: (682, {}, may-alias), {683}: (683, {}, may-alias), {684}: (684, {}, may-alias), {685}: (685, {}, may-alias), {686}: (686, {}, may-alias), {687}: (687, {}, may-alias), {688}: (688, {}, may-alias), {689}: (689, {}, may-alias), {690}: (690, {}, may-alias), {691}: (691, {}, may-alias), {692}: (692, {}, may-alias), {693}: (693, {}, may-alias), {694}: (694, {}, may-alias), {695}: (695, {}, may-alias), {696}: (696, {}, may-alias), {697}: (697, {}, may-alias), {698}: (698, {}, may-alias), {699}: (699, {}, may-alias), {700}: (700, {}, may-alias), {701}: (701, {}, may-alias), {702}: (702, {}, may-alias), {703}: (703, {}, may-alias), {704}: (704, {}, may-alias), {705}: (705, {}, may-alias), {706}: (706, {}, may-alias), {707}: (707, {}, may-alias), {708}: (708, {}, may-alias), {709}: (709, {}, may-alias), {710}: (710, {}, may-alias), {711}: (711, {}, may-alias), {712}: (712, {}, may-alias), {713}: (713, {}, may-alias), {714}: (714, {}, may-alias), {715}: (715, {}, may-alias), {716}: (716, {}, may-alias), {717}: (717, {}, may-alias), {718}: (718, {}, may-alias), {719}: (719, {}, may-alias), {720}: (720, {}, may-alias), {721}: (721, {}, may-alias), {722}: (722, {}, may-alias), {723}: (723, {}, may-alias), {724}: (724, {}, may-alias), {725}: (725, {}, may-alias), {726}: (726, {}, may-alias), {727}: (727, {}, may-alias), {728}: (728, {}, may-alias), {729}: (729, {}, may-alias), {730}: (730, {}, may-alias), {731}: (731, {}, may-alias), {732}: (732, {}, may-alias), {733}: (733, {}, may-alias), {734}: (734, {}, may-alias), {735}: (735, {}, may-alias), {736}: (736, {}, may-alias), {737}: (737, {}, may-alias), {738}: (738, {}, may-alias), {739}: (739, {}, may-alias), {740}: (740, {}, may-alias), {741}: (741, {}, may-alias), {742}: (742, {}, may-alias), {743}: (743, {}, may-alias), {744}: (744, {}, may-alias), {745}: (745, {}, may-alias), {746}: (746, {}, may-alias), {747}: (747, {}, may-alias), {748}: (748, {}, may-alias), {749}: (749, {}, may-alias), {750}: (750, {}, may-alias), {751}: (751, {}, may-alias), {752}: (752, {}, may-alias), {753}: (753, {}, may-alias), {754}: (754, {}, may-alias), {755}: (755, {}, may-alias), {756}: (756, {}, may-alias), {757}: (757, {}, may-alias), {758}: (758, {}, may-alias), {759}: (759, {}, may-alias), {760}: (760, {}, may-alias), {761}: (761, {}, may-alias), {762}: (762, {}, may-alias), {763}: (763, {}, may-alias), {764}: (764, {}, may-alias), {765}: (765, {}, may-alias), {766}: (766, {}, may-alias), {767}: (767, {}, may-alias), {768}: (768, {}, may-alias), {769}: (769, {}, may-alias), {770}: (770, {}, may-alias), {771}: (771, {}, may-alias), {772}: (772, {}, may-alias), {773}: (773, {}, may-alias), {774}: (774, {}, may-alias), {775}: (775, {}, may-alias), {776}: (776, {}, may-alias), {777}: (777, {}, may-alias), {778}: (778, {}, may-alias), {779}: (779, {}, may-alias), {780}: (780, {}, may-alias), {781}: (781, {}, may-alias), {782}: (782, {}, may-alias), {783}: (783, {}, may-alias), {784}: (784, {}, may-alias), {785}: (785, {}, may-alias), {786}: (786, {}, may-alias), {787}: (787, {}, may-alias), {788}: (788, {}, may-alias), {789}: (789, {}, may-alias), {790}: (790, {}, may-alias), {791}: (791, {}, may-alias), {792}: (792, {}, may-alias), {793}: (793, {}, may-alias), {794}: (794, {}, may-alias), {795}: (795, {}, may-alias), {796}: (796, {}, may-alias), {797}: (797, {}, may-alias), {798}: (798, {}, may-alias), {799}: (799, {}, may-alias), {800}: (800, {}, may-alias), {801}: (801, {}, may-alias), {802}: (802, {}, may-alias), {803}: (803, {}, may-alias), {804}: (804, {}, may-alias), {805}: (805, {}, may-alias), {806}: (806, {}, may-alias), {807}: (807, {}, may-alias), {808}: (808, {}, may-alias), {809}: (809, {}, may-alias), {810}: (810, {}, may-alias), {811}: (811, {}, may-alias), {812}: (812, {}, may-alias), {813}: (813, {}, may-alias), {814}: (814, {}, may-alias), {815}: (815, {}, may-alias), {816}: (816, {}, may-alias), {817}: (817, {}, may-alias), {818}: (818, {}, may-alias), {819}: (819, {}, may-alias), {820}: (820, {}, may-alias), {821}: (821, {}, may-alias), {822}: (822, {}, may-alias), {823}: (823, {}, may-alias), {824}: (824, {}, may-alias), {825}: (825, {}, may-alias), {826}: (826, {}, may-alias), {827}: (827, {}, may-alias), {828}: (828, {}, may-alias), {829}: (829, {}, may-alias), {830}: (830, {}, may-alias), {831}: (831, {}, may-alias), {832}: (832, {}, may-alias), {833}: (833, {}, may-alias), {834}: (834, {}, may-alias), {835}: (835, {}, may-alias), {836}: (836, {}, may-alias), {837}: (837, {}, may-alias), {838}: (838, {}, may-alias), {839}: (839, {}, may-alias), {840}: (840, {}, may-alias), {841}: (841, {}, may-alias), {842}: (842, {}, may-alias), {843}: (843, {}, may-alias), {844}: (844, {}, may-alias), {845}: (845, {}, may-alias), {846}: (846, {}, may-alias), {847}: (847, {}, may-alias), {848}: (848, {}, may-alias), {849}: (849, {}, may-alias), {850}: (850, {}, may-alias), {851}: (851, {}, may-alias), {852}: (852, {}, may-alias), {853}: (853, {}, may-alias), {854}: (854, {}, may-alias), {855}: (855, {}, may-alias), {856}: (856, {}, may-alias), {857}: (857, {}, may-alias), {858}: (858, {}, may-alias), {859}: (859, {}, may-alias), {860}: (860, {}, may-alias), {861}: (861, {}, may-alias), {862}: (862, {}, may-alias), {863}: (863, {}, may-alias), {864}: (864, {}, may-alias), {865}: (865, {}, may-alias), {866}: (866, {}, may-alias), {867}: (867, {}, may-alias), {868}: (868, {}, may-alias), {869}: (869, {}, may-alias), {870}: (870, {}, may-alias), {871}: (871, {}, may-alias), {872}: (872, {}, may-alias), {873}: (873, {}, may-alias), {874}: (874, {}, may-alias), {875}: (875, {}, may-alias), {876}: (876, {}, may-alias), {877}: (877, {}, may-alias), {878}: (878, {}, may-alias), {879}: (879, {}, may-alias), {880}: (880, {}, may-alias), {881}: (881, {}, may-alias), {882}: (882, {}, may-alias), {883}: (883, {}, may-alias), {884}: (884, {}, may-alias), {885}: (885, {}, may-alias), {886}: (886, {}, may-alias), {887}: (887, {}, may-alias), {888}: (888, {}, may-alias), {889}: (889, {}, may-alias), {890}: (890, {}, may-alias), {891}: (891, {}, may-alias), {892}: (892, {}, may-alias), {893}: (893, {}, may-alias), {894}: (894, {}, may-alias), {895}: (895, {}, may-alias), {896}: (896, {}, may-alias), {897}: (897, {}, may-alias), {898}: (898, {}, may-alias), {899}: (899, {}, may-alias), {900}: (900, {}, may-alias), {901}: (901, {}, may-alias), {902}: (902, {}, may-alias), {903}: (903, {}, may-alias), {904}: (904, {}, may-alias), {905}: (905, {}, may-alias), {906}: (906, {}, may-alias), {907}: (907, {}, may-alias), {908}: (908, {}, may-alias), {909}: (909, {}, may-alias), {910}: (910, {}, may-alias), {911}: (911, {}, may-alias), {912}: (912, {}, may-alias), {913}: (913, {}, may-alias), {914}: (914, {}, may-alias), {915}: (915, {}, may-alias), {916}: (916, {}, may-alias), {917}: (917, {}, may-alias), {918}: (918, {}, may-alias), {919}: (919, {}, may-alias), {920}: (920, {}, may-alias), {921}: (921, {}, may-alias), {922}: (922, {}, may-alias), {923}: (923, {}, may-alias), {924}: (924, {}, may-alias), {925}: (925, {}, may-alias), {926}: (926, {}, may-alias), {927}: (927, {}, may-alias), {928}: (928, {}, may-alias), {929}: (929, {}, may-alias), {930}: (930, {}, may-alias), {931}: (931, {}, may-alias), {932}: (932, {}, may-alias), {933}: (933, {}, may-alias), {934}: (934, {}, may-alias), {935}: (935, {}, may-alias), {936}: (936, {}, may-alias), {937}: (937, {}, may-alias), {938}: (938, {}, may-alias), {939}: (939, {}, may-alias), {940}: (940, {}, may-alias), {941}: (941, {}, may-alias), {942}: (942, {}, may-alias), {943}: (943, {}, may-alias), {944}: (944, {}, may-alias), {945}: (945, {}, may-alias), {946}: (946, {}, may-alias), {947}: (947, {}, may-alias), {948}: (948, {}, may-alias), {949}: (949, {}, may-alias), {950}: (950, {}, may-alias), {951}: (951, {}, may-alias), {952}: (952, {}, may-alias), {953}: (953, {}, may-alias), {954}: (954, {}, may-alias), {955}: (955, {}, may-alias), {956}: (956, {}, may-alias), {957}: (957, {}, may-alias), {958}: (958, {}, may-alias), {959}: (959, {}, may-alias), {960}: (960, {}, may-alias), {961}: (961, {}, may-alias), {962}: (962, {}, may-alias), {963}: (963, {}, may-alias), {964}: (964, {}, may-alias), {965}: (965, {}, may-alias), {966}: (966, {}, may-alias), {967}: (967, {}, may-alias), {968}: (968, {}, may-alias), {969}: (969, {}, may-alias), {970}: (970, {}, may-alias), {971}: (971, {}, may-alias) }, entry_computation_layout={(s32[], bf16[4096]{0}, bf16[256,8]{1,0}, bf16[1,2048,14336]{2,1,0}, bf16[1,2048,14336]{2,1,0}, /*index=5*/bf16[1,14336,2048]{2,1,0}, bf16[4096]{0}, bf16[4096]{0}, bf16[256,8,128]{2,1,0}, bf16[32,128,256]{2,1,0}, /*index=10*/bf16[256,32,128]{2,1,0}, bf16[256,8,128]{2,1,0}, bf16[256,8]{1,0}, bf16[1,2048,14336]{2,1,0}, bf16[1,2048,14336]{2,1,0}, /*index=15*/bf16[1,14336,2048]{2,1,0}, bf16[4096]{0}, bf16[4096]{0}, bf16[256,8,128]{2,1,0}, bf16[32,128,256]{2,1,0}, /*index=20*/bf16[256,32,128]{2,1,0}, bf16[256,8,128]{2,1,0}, bf16[256,8]{1,0}, bf16[1,2048,14336]{2,1,0}, bf16[1,2048,14336]{2,1,0}, /*index=25*/bf16[1,14336,2048]{2,1,0}, bf16[4096]{0}, bf16[4096]{0}, bf16[256,8,128]{2,1,0}, bf16[32,128,256]{2,1,0}, /*index=30*/bf16[256,32,128]{2,1,0}, bf16[256,8,128]{2,1,0}, bf16[256,8]{1,0}, bf16[1,2048,14336]{2,1,0}, bf16[1,2048,14336]{2,1,0}, /*index=35*/bf16[1,14336,2048]{2,1,0}, bf16[4096]{0}, bf16[4096]{0}, bf16[256,8,128]{2,1,0}, bf16[32,128,256]{2,1,0}, /*index=40*/bf16[256,32,128]{2,1,0}, bf16[256,8,128]{2,1,0}, bf16[256,8]{1,0}, bf16[1,2048,14336]{2,1,0}, bf16[1,2048,14336]{2,1,0}, /*index=45*/bf16[1,14336,2048]{2,1,0}, bf16[4096]{0}, bf16[4096]{0}, bf16[256,8,128]{2,1,0}, bf16[32,128,256]{2,1,0}, /*index=50*/bf16[256,32,128]{2,1,0}, bf16[256,8,128]{2,1,0}, bf16[256,8]{1,0}, bf16[1,2048,14336]{2,1,0}, bf16[1,2048,14336]{2,1,0}, /*index=55*/bf16[1,14336,2048]{2,1,0}, bf16[4096]{0}, bf16[4096]{0}, bf16[256,8,128]{2,1,0}, bf16[32,128,256]{2,1,0}, /*index=60*/bf16[256,32,128]{2,1,0}, bf16[256,8,128]{2,1,0}, bf16[256,8]{1,0}, bf16[1,2048,14336]{2,1,0}, bf16[1,2048,14336]{2,1,0}, /*index=65*/bf16[1,14336,2048]{2,1,0}, bf16[4096]{0}, bf16[4096]{0}, bf16[256,8,128]{2,1,0}, bf16[32,128,256]{2,1,0}, /*index=70*/bf16[256,32,128]{2,1,0}, bf16[256,8,128]{2,1,0}, bf16[256,8]{1,0}, bf16[1,2048,14336]{2,1,0}, bf16[1,2048,14336]{2,1,0}, /*index=75*/bf16[1,14336,2048]{2,1,0}, bf16[4096]{0}, bf16[4096]{0}, bf16[256,8,128]{2,1,0}, bf16[32,128,256]{2,1,0}, /*index=80*/bf16[256,32,128]{2,1,0}, bf16[256,8,128]{2,1,0}, bf16[256,8]{1,0}, bf16[1,2048,14336]{2,1,0}, bf16[1,2048,14336]{2,1,0}, /*index=85*/bf16[1,14336,2048]{2,1,0}, bf16[4096]{0}, bf16[4096]{0}, bf16[256,8,128]{2,1,0}, bf16[32,128,256]{2,1,0}, /*index=90*/bf16[256,32,128]{2,1,0}, bf16[256,8,128]{2,1,0}, bf16[256,8]{1,0}, bf16[1,2048,14336]{2,1,0}, bf16[1,2048,14336]{2,1,0}, /*index=95*/bf16[1,14336,2048]{2,1,0}, bf16[4096]{0}, bf16[4096]{0}, bf16[256,8,128]{2,1,0}, bf16[32,128,256]{2,1,0}, /*index=100*/bf16[256,32,128]{2,1,0}, bf16[256,8,128]{2,1,0}, bf16[256,8]{1,0}, bf16[1,2048,14336]{2,1,0}, bf16[1,2048,14336]{2,1,0}, /*index=105*/bf16[1,14336,2048]{2,1,0}, bf16[4096]{0}, bf16[4096]{0}, bf16[256,8,128]{2,1,0}, bf16[32,128,256]{2,1,0}, /*index=110*/bf16[256,32,128]{2,1,0}, bf16[256,8,128]{2,1,0}, bf16[256,8]{1,0}, bf16[1,2048,14336]{2,1,0}, bf16[1,2048,14336]{2,1,0}, /*index=115*/bf16[1,14336,2048]{2,1,0}, bf16[4096]{0}, bf16[4096]{0}, bf16[256,8,128]{2,1,0}, bf16[32,128,256]{2,1,0}, /*index=120*/bf16[256,32,128]{2,1,0}, bf16[256,8,128]{2,1,0}, bf16[256,8]{1,0}, bf16[1,2048,14336]{2,1,0}, bf16[1,2048,14336]{2,1,0}, /*index=125*/bf16[1,14336,2048]{2,1,0}, bf16[4096]{0}, bf16[4096]{0}, bf16[256,8,128]{2,1,0}, bf16[32,128,256]{2,1,0}, /*index=130*/bf16[256,32,128]{2,1,0}, bf16[256,8,128]{2,1,0}, bf16[256,8]{1,0}, bf16[1,2048,14336]{2,1,0}, bf16[1,2048,14336]{2,1,0}, /*index=135*/bf16[1,14336,2048]{2,1,0}, bf16[4096]{0}, bf16[4096]{0}, bf16[256,8,128]{2,1,0}, bf16[32,128,256]{2,1,0}, /*index=140*/bf16[256,32,128]{2,1,0}, bf16[256,8,128]{2,1,0}, bf16[256,8]{1,0}, bf16[1,2048,14336]{2,1,0}, bf16[1,2048,14336]{2,1,0}, /*index=145*/bf16[1,14336,2048]{2,1,0}, bf16[4096]{0}, bf16[4096]{0}, bf16[256,8,128]{2,1,0}, bf16[32,128,256]{2,1,0}, /*index=150*/bf16[256,32,128]{2,1,0}, bf16[256,8,128]{2,1,0}, bf16[256,8]{1,0}, bf16[1,2048,14336]{2,1,0}, bf16[1,2048,14336]{2,1,0}, /*index=155*/bf16[1,14336,2048]{2,1,0}, bf16[4096]{0}, bf16[4096]{0}, bf16[256,8,128]{2,1,0}, bf16[32,128,256]{2,1,0}, /*index=160*/bf16[256,32,128]{2,1,0}, bf16[256,8,128]{2,1,0}, bf16[256,8]{1,0}, bf16[1,2048,14336]{2,1,0}, bf16[1,2048,14336]{2,1,0}, /*index=165*/bf16[1,14336,2048]{2,1,0}, bf16[4096]{0}, bf16[4096]{0}, bf16[256,8,128]{2,1,0}, bf16[32,128,256]{2,1,0}, /*index=170*/bf16[256,32,128]{2,1,0}, bf16[256,8,128]{2,1,0}, bf16[256,8]{1,0}, bf16[1,2048,14336]{2,1,0}, bf16[1,2048,14336]{2,1,0}, /*index=175*/bf16[1,14336,2048]{2,1,0}, bf16[4096]{0}, bf16[4096]{0}, bf16[256,8,128]{2,1,0}, bf16[32,128,256]{2,1,0}, /*index=180*/bf16[256,32,128]{2,1,0}, bf16[256,8,128]{2,1,0}, bf16[256,8]{1,0}, bf16[1,2048,14336]{2,1,0}, bf16[1,2048,14336]{2,1,0}, /*index=185*/bf16[1,14336,2048]{2,1,0}, bf16[4096]{0}, bf16[4096]{0}, bf16[256,8,128]{2,1,0}, bf16[32,128,256]{2,1,0}, /*index=190*/bf16[256,32,128]{2,1,0}, bf16[256,8,128]{2,1,0}, bf16[256,8]{1,0}, bf16[1,2048,14336]{2,1,0}, bf16[1,2048,14336]{2,1,0}, /*index=195*/bf16[1,14336,2048]{2,1,0}, bf16[4096]{0}, bf16[4096]{0}, bf16[256,8,128]{2,1,0}, bf16[32,128,256]{2,1,0}, /*index=200*/bf16[256,32,128]{2,1,0}, bf16[256,8,128]{2,1,0}, bf16[256,8]{1,0}, bf16[1,2048,14336]{2,1,0}, bf16[1,2048,14336]{2,1,0}, /*index=205*/bf16[1,14336,2048]{2,1,0}, bf16[4096]{0}, bf16[4096]{0}, bf16[256,8,128]{2,1,0}, bf16[32,128,256]{2,1,0}, /*index=210*/bf16[256,32,128]{2,1,0}, bf16[256,8,128]{2,1,0}, bf16[256,8]{1,0}, bf16[1,2048,14336]{2,1,0}, bf16[1,2048,14336]{2,1,0}, /*index=215*/bf16[1,14336,2048]{2,1,0}, bf16[4096]{0}, bf16[4096]{0}, bf16[256,8,128]{2,1,0}, bf16[32,128,256]{2,1,0}, /*index=220*/bf16[256,32,128]{2,1,0}, bf16[256,8,128]{2,1,0}, bf16[256,8]{1,0}, bf16[1,2048,14336]{2,1,0}, bf16[1,2048,14336]{2,1,0}, /*index=225*/bf16[1,14336,2048]{2,1,0}, bf16[4096]{0}, bf16[4096]{0}, bf16[256,8,128]{2,1,0}, bf16[32,128,256]{2,1,0}, /*index=230*/bf16[256,32,128]{2,1,0}, bf16[256,8,128]{2,1,0}, bf16[256,8]{1,0}, bf16[1,2048,14336]{2,1,0}, bf16[1,2048,14336]{2,1,0}, /*index=235*/bf16[1,14336,2048]{2,1,0}, bf16[4096]{0}, bf16[4096]{0}, bf16[256,8,128]{2,1,0}, bf16[32,128,256]{2,1,0}, /*index=240*/bf16[256,32,128]{2,1,0}, bf16[256,8,128]{2,1,0}, bf16[256,8]{1,0}, bf16[1,2048,14336]{2,1,0}, bf16[1,2048,14336]{2,1,0}, /*index=245*/bf16[1,14336,2048]{2,1,0}, bf16[4096]{0}, bf16[4096]{0}, bf16[256,8,128]{2,1,0}, bf16[32,128,256]{2,1,0}, /*index=250*/bf16[256,32,128]{2,1,0}, bf16[256,8,128]{2,1,0}, bf16[256,8]{1,0}, bf16[1,2048,14336]{2,1,0}, bf16[1,2048,14336]{2,1,0}, /*index=255*/bf16[1,14336,2048]{2,1,0}, bf16[4096]{0}, bf16[4096]{0}, bf16[256,8,128]{2,1,0}, bf16[32,128,256]{2,1,0}, /*index=260*/bf16[256,32,128]{2,1,0}, bf16[256,8,128]{2,1,0}, bf16[256,8]{1,0}, bf16[1,2048,14336]{2,1,0}, bf16[1,2048,14336]{2,1,0}, /*index=265*/bf16[1,14336,2048]{2,1,0}, bf16[4096]{0}, bf16[4096]{0}, bf16[256,8,128]{2,1,0}, bf16[32,128,256]{2,1,0}, /*index=270*/bf16[256,32,128]{2,1,0}, bf16[256,8,128]{2,1,0}, bf16[256,8]{1,0}, bf16[1,2048,14336]{2,1,0}, bf16[1,2048,14336]{2,1,0}, /*index=275*/bf16[1,14336,2048]{2,1,0}, bf16[4096]{0}, bf16[4096]{0}, bf16[256,8,128]{2,1,0}, bf16[32,128,256]{2,1,0}, /*index=280*/bf16[256,32,128]{2,1,0}, bf16[256,8,128]{2,1,0}, bf16[256,8]{1,0}, bf16[1,2048,14336]{2,1,0}, bf16[1,2048,14336]{2,1,0}, /*index=285*/bf16[1,14336,2048]{2,1,0}, bf16[4096]{0}, bf16[4096]{0}, bf16[256,8,128]{2,1,0}, bf16[32,128,256]{2,1,0}, /*index=290*/bf16[256,32,128]{2,1,0}, bf16[256,8,128]{2,1,0}, bf16[256,8]{1,0}, bf16[1,2048,14336]{2,1,0}, bf16[1,2048,14336]{2,1,0}, /*index=295*/bf16[1,14336,2048]{2,1,0}, bf16[4096]{0}, bf16[4096]{0}, bf16[256,8,128]{2,1,0}, bf16[32,128,256]{2,1,0}, /*index=300*/bf16[256,32,128]{2,1,0}, bf16[256,8,128]{2,1,0}, bf16[256,8]{1,0}, bf16[1,2048,14336]{2,1,0}, bf16[1,2048,14336]{2,1,0}, /*index=305*/bf16[1,14336,2048]{2,1,0}, bf16[4096]{0}, bf16[4096]{0}, bf16[256,8,128]{2,1,0}, bf16[32,128,256]{2,1,0}, /*index=310*/bf16[256,32,128]{2,1,0}, bf16[256,8,128]{2,1,0}, bf16[256,8]{1,0}, bf16[1,2048,14336]{2,1,0}, bf16[1,2048,14336]{2,1,0}, /*index=315*/bf16[1,14336,2048]{2,1,0}, bf16[4096]{0}, bf16[4096]{0}, bf16[256,8,128]{2,1,0}, bf16[32,128,256]{2,1,0}, /*index=320*/bf16[256,32,128]{2,1,0}, bf16[256,8,128]{2,1,0}, bf16[256,32000]{1,0}, bf16[32000,256]{1,0}, s32[], /*index=325*/bf16[4096]{0}, bf16[256,8]{1,0}, bf16[1,2048,14336]{2,1,0}, bf16[1,2048,14336]{2,1,0}, bf16[1,14336,2048]{2,1,0}, /*index=330*/bf16[4096]{0}, bf16[4096]{0}, bf16[256,8,128]{2,1,0}, bf16[32,128,256]{2,1,0}, bf16[256,32,128]{2,1,0}, /*index=335*/bf16[256,8,128]{2,1,0}, bf16[256,8]{1,0}, bf16[1,2048,14336]{2,1,0}, bf16[1,2048,14336]{2,1,0}, bf16[1,14336,2048]{2,1,0}, /*index=340*/bf16[4096]{0}, bf16[4096]{0}, bf16[256,8,128]{2,1,0}, bf16[32,128,256]{2,1,0}, bf16[256,32,128]{2,1,0}, /*index=345*/bf16[256,8,128]{2,1,0}, bf16[256,8]{1,0}, bf16[1,2048,14336]{2,1,0}, bf16[1,2048,14336]{2,1,0}, bf16[1,14336,2048]{2,1,0}, /*index=350*/bf16[4096]{0}, bf16[4096]{0}, bf16[256,8,128]{2,1,0}, bf16[32,128,256]{2,1,0}, bf16[256,32,128]{2,1,0}, /*index=355*/bf16[256,8,128]{2,1,0}, bf16[256,8]{1,0}, bf16[1,2048,14336]{2,1,0}, bf16[1,2048,14336]{2,1,0}, bf16[1,14336,2048]{2,1,0}, /*index=360*/bf16[4096]{0}, bf16[4096]{0}, bf16[256,8,128]{2,1,0}, bf16[32,128,256]{2,1,0}, bf16[256,32,128]{2,1,0}, /*index=365*/bf16[256,8,128]{2,1,0}, bf16[256,8]{1,0}, bf16[1,2048,14336]{2,1,0}, bf16[1,2048,14336]{2,1,0}, bf16[1,14336,2048]{2,1,0}, /*index=370*/bf16[4096]{0}, bf16[4096]{0}, bf16[256,8,128]{2,1,0}, bf16[32,128,256]{2,1,0}, bf16[256,32,128]{2,1,0}, /*index=375*/bf16[256,8,128]{2,1,0}, bf16[256,8]{1,0}, bf16[1,2048,14336]{2,1,0}, bf16[1,2048,14336]{2,1,0}, bf16[1,14336,2048]{2,1,0}, /*index=380*/bf16[4096]{0}, bf16[4096]{0}, bf16[256,8,128]{2,1,0}, bf16[32,128,256]{2,1,0}, bf16[256,32,128]{2,1,0}, /*index=385*/bf16[256,8,128]{2,1,0}, bf16[256,8]{1,0}, bf16[1,2048,14336]{2,1,0}, bf16[1,2048,14336]{2,1,0}, bf16[1,14336,2048]{2,1,0}, /*index=390*/bf16[4096]{0}, bf16[4096]{0}, bf16[256,8,128]{2,1,0}, bf16[32,128,256]{2,1,0}, bf16[256,32,128]{2,1,0}, /*index=395*/bf16[256,8,128]{2,1,0}, bf16[256,8]{1,0}, bf16[1,2048,14336]{2,1,0}, bf16[1,2048,14336]{2,1,0}, bf16[1,14336,2048]{2,1,0}, /*index=400*/bf16[4096]{0}, bf16[4096]{0}, bf16[256,8,128]{2,1,0}, bf16[32,128,256]{2,1,0}, bf16[256,32,128]{2,1,0}, /*index=405*/bf16[256,8,128]{2,1,0}, bf16[256,8]{1,0}, bf16[1,2048,14336]{2,1,0}, bf16[1,2048,14336]{2,1,0}, bf16[1,14336,2048]{2,1,0}, /*index=410*/bf16[4096]{0}, bf16[4096]{0}, bf16[256,8,128]{2,1,0}, bf16[32,128,256]{2,1,0}, bf16[256,32,128]{2,1,0}, /*index=415*/bf16[256,8,128]{2,1,0}, bf16[256,8]{1,0}, bf16[1,2048,14336]{2,1,0}, bf16[1,2048,14336]{2,1,0}, bf16[1,14336,2048]{2,1,0}, /*index=420*/bf16[4096]{0}, bf16[4096]{0}, bf16[256,8,128]{2,1,0}, bf16[32,128,256]{2,1,0}, bf16[256,32,128]{2,1,0}, /*index=425*/bf16[256,8,128]{2,1,0}, bf16[256,8]{1,0}, bf16[1,2048,14336]{2,1,0}, bf16[1,2048,14336]{2,1,0}, bf16[1,14336,2048]{2,1,0}, /*index=430*/bf16[4096]{0}, bf16[4096]{0}, bf16[256,8,128]{2,1,0}, bf16[32,128,256]{2,1,0}, bf16[256,32,128]{2,1,0}, /*index=435*/bf16[256,8,128]{2,1,0}, bf16[256,8]{1,0}, bf16[1,2048,14336]{2,1,0}, bf16[1,2048,14336]{2,1,0}, bf16[1,14336,2048]{2,1,0}, /*index=440*/bf16[4096]{0}, bf16[4096]{0}, bf16[256,8,128]{2,1,0}, bf16[32,128,256]{2,1,0}, bf16[256,32,128]{2,1,0}, /*index=445*/bf16[256,8,128]{2,1,0}, bf16[256,8]{1,0}, bf16[1,2048,14336]{2,1,0}, bf16[1,2048,14336]{2,1,0}, bf16[1,14336,2048]{2,1,0}, /*index=450*/bf16[4096]{0}, bf16[4096]{0}, bf16[256,8,128]{2,1,0}, bf16[32,128,256]{2,1,0}, bf16[256,32,128]{2,1,0}, /*index=455*/bf16[256,8,128]{2,1,0}, bf16[256,8]{1,0}, bf16[1,2048,14336]{2,1,0}, bf16[1,2048,14336]{2,1,0}, bf16[1,14336,2048]{2,1,0}, /*index=460*/bf16[4096]{0}, bf16[4096]{0}, bf16[256,8,128]{2,1,0}, bf16[32,128,256]{2,1,0}, bf16[256,32,128]{2,1,0}, /*index=465*/bf16[256,8,128]{2,1,0}, bf16[256,8]{1,0}, bf16[1,2048,14336]{2,1,0}, bf16[1,2048,14336]{2,1,0}, bf16[1,14336,2048]{2,1,0}, /*index=470*/bf16[4096]{0}, bf16[4096]{0}, bf16[256,8,128]{2,1,0}, bf16[32,128,256]{2,1,0}, bf16[256,32,128]{2,1,0}, /*index=475*/bf16[256,8,128]{2,1,0}, bf16[256,8]{1,0}, bf16[1,2048,14336]{2,1,0}, bf16[1,2048,14336]{2,1,0}, bf16[1,14336,2048]{2,1,0}, /*index=480*/bf16[4096]{0}, bf16[4096]{0}, bf16[256,8,128]{2,1,0}, bf16[32,128,256]{2,1,0}, bf16[256,32,128]{2,1,0}, /*index=485*/bf16[256,8,128]{2,1,0}, bf16[256,8]{1,0}, bf16[1,2048,14336]{2,1,0}, bf16[1,2048,14336]{2,1,0}, bf16[1,14336,2048]{2,1,0}, /*index=490*/bf16[4096]{0}, bf16[4096]{0}, bf16[256,8,128]{2,1,0}, bf16[32,128,256]{2,1,0}, bf16[256,32,128]{2,1,0}, /*index=495*/bf16[256,8,128]{2,1,0}, bf16[256,8]{1,0}, bf16[1,2048,14336]{2,1,0}, bf16[1,2048,14336]{2,1,0}, bf16[1,14336,2048]{2,1,0}, /*index=500*/bf16[4096]{0}, bf16[4096]{0}, bf16[256,8,128]{2,1,0}, bf16[32,128,256]{2,1,0}, bf16[256,32,128]{2,1,0}, /*index=505*/bf16[256,8,128]{2,1,0}, bf16[256,8]{1,0}, bf16[1,2048,14336]{2,1,0}, bf16[1,2048,14336]{2,1,0}, bf16[1,14336,2048]{2,1,0}, /*index=510*/bf16[4096]{0}, bf16[4096]{0}, bf16[256,8,128]{2,1,0}, bf16[32,128,256]{2,1,0}, bf16[256,32,128]{2,1,0}, /*index=515*/bf16[256,8,128]{2,1,0}, bf16[256,8]{1,0}, bf16[1,2048,14336]{2,1,0}, bf16[1,2048,14336]{2,1,0}, bf16[1,14336,2048]{2,1,0}, /*index=520*/bf16[4096]{0}, bf16[4096]{0}, bf16[256,8,128]{2,1,0}, bf16[32,128,256]{2,1,0}, bf16[256,32,128]{2,1,0}, /*index=525*/bf16[256,8,128]{2,1,0}, bf16[256,8]{1,0}, bf16[1,2048,14336]{2,1,0}, bf16[1,2048,14336]{2,1,0}, bf16[1,14336,2048]{2,1,0}, /*index=530*/bf16[4096]{0}, bf16[4096]{0}, bf16[256,8,128]{2,1,0}, bf16[32,128,256]{2,1,0}, bf16[256,32,128]{2,1,0}, /*index=535*/bf16[256,8,128]{2,1,0}, bf16[256,8]{1,0}, bf16[1,2048,14336]{2,1,0}, bf16[1,2048,14336]{2,1,0}, bf16[1,14336,2048]{2,1,0}, /*index=540*/bf16[4096]{0}, bf16[4096]{0}, bf16[256,8,128]{2,1,0}, bf16[32,128,256]{2,1,0}, bf16[256,32,128]{2,1,0}, /*index=545*/bf16[256,8,128]{2,1,0}, bf16[256,8]{1,0}, bf16[1,2048,14336]{2,1,0}, bf16[1,2048,14336]{2,1,0}, bf16[1,14336,2048]{2,1,0}, /*index=550*/bf16[4096]{0}, bf16[4096]{0}, bf16[256,8,128]{2,1,0}, bf16[32,128,256]{2,1,0}, bf16[256,32,128]{2,1,0}, /*index=555*/bf16[256,8,128]{2,1,0}, bf16[256,8]{1,0}, bf16[1,2048,14336]{2,1,0}, bf16[1,2048,14336]{2,1,0}, bf16[1,14336,2048]{2,1,0}, /*index=560*/bf16[4096]{0}, bf16[4096]{0}, bf16[256,8,128]{2,1,0}, bf16[32,128,256]{2,1,0}, bf16[256,32,128]{2,1,0}, /*index=565*/bf16[256,8,128]{2,1,0}, bf16[256,8]{1,0}, bf16[1,2048,14336]{2,1,0}, bf16[1,2048,14336]{2,1,0}, bf16[1,14336,2048]{2,1,0}, /*index=570*/bf16[4096]{0}, bf16[4096]{0}, bf16[256,8,128]{2,1,0}, bf16[32,128,256]{2,1,0}, bf16[256,32,128]{2,1,0}, /*index=575*/bf16[256,8,128]{2,1,0}, bf16[256,8]{1,0}, bf16[1,2048,14336]{2,1,0}, bf16[1,2048,14336]{2,1,0}, bf16[1,14336,2048]{2,1,0}, /*index=580*/bf16[4096]{0}, bf16[4096]{0}, bf16[256,8,128]{2,1,0}, bf16[32,128,256]{2,1,0}, bf16[256,32,128]{2,1,0}, /*index=585*/bf16[256,8,128]{2,1,0}, bf16[256,8]{1,0}, bf16[1,2048,14336]{2,1,0}, bf16[1,2048,14336]{2,1,0}, bf16[1,14336,2048]{2,1,0}, /*index=590*/bf16[4096]{0}, bf16[4096]{0}, bf16[256,8,128]{2,1,0}, bf16[32,128,256]{2,1,0}, bf16[256,32,128]{2,1,0}, /*index=595*/bf16[256,8,128]{2,1,0}, bf16[256,8]{1,0}, bf16[1,2048,14336]{2,1,0}, bf16[1,2048,14336]{2,1,0}, bf16[1,14336,2048]{2,1,0}, /*index=600*/bf16[4096]{0}, bf16[4096]{0}, bf16[256,8,128]{2,1,0}, bf16[32,128,256]{2,1,0}, bf16[256,32,128]{2,1,0}, /*index=605*/bf16[256,8,128]{2,1,0}, bf16[256,8]{1,0}, bf16[1,2048,14336]{2,1,0}, bf16[1,2048,14336]{2,1,0}, bf16[1,14336,2048]{2,1,0}, /*index=610*/bf16[4096]{0}, bf16[4096]{0}, bf16[256,8,128]{2,1,0}, bf16[32,128,256]{2,1,0}, bf16[256,32,128]{2,1,0}, /*index=615*/bf16[256,8,128]{2,1,0}, bf16[256,8]{1,0}, bf16[1,2048,14336]{2,1,0}, bf16[1,2048,14336]{2,1,0}, bf16[1,14336,2048]{2,1,0}, /*index=620*/bf16[4096]{0}, bf16[4096]{0}, bf16[256,8,128]{2,1,0}, bf16[32,128,256]{2,1,0}, bf16[256,32,128]{2,1,0}, /*index=625*/bf16[256,8,128]{2,1,0}, bf16[256,8]{1,0}, bf16[1,2048,14336]{2,1,0}, bf16[1,2048,14336]{2,1,0}, bf16[1,14336,2048]{2,1,0}, /*index=630*/bf16[4096]{0}, bf16[4096]{0}, bf16[256,8,128]{2,1,0}, bf16[32,128,256]{2,1,0}, bf16[256,32,128]{2,1,0}, /*index=635*/bf16[256,8,128]{2,1,0}, bf16[256,8]{1,0}, bf16[1,2048,14336]{2,1,0}, bf16[1,2048,14336]{2,1,0}, bf16[1,14336,2048]{2,1,0}, /*index=640*/bf16[4096]{0}, bf16[4096]{0}, bf16[256,8,128]{2,1,0}, bf16[32,128,256]{2,1,0}, bf16[256,32,128]{2,1,0}, /*index=645*/bf16[256,8,128]{2,1,0}, bf16[256,32000]{1,0}, bf16[32000,256]{1,0}, bf16[4096]{0}, bf16[256,8]{1,0}, /*index=650*/bf16[1,2048,14336]{2,1,0}, bf16[1,2048,14336]{2,1,0}, bf16[1,14336,2048]{2,1,0}, bf16[4096]{0}, bf16[4096]{0}, /*index=655*/bf16[256,8,128]{2,1,0}, bf16[32,128,256]{2,1,0}, bf16[256,32,128]{2,1,0}, bf16[256,8,128]{2,1,0}, bf16[256,8]{1,0}, /*index=660*/bf16[1,2048,14336]{2,1,0}, bf16[1,2048,14336]{2,1,0}, bf16[1,14336,2048]{2,1,0}, bf16[4096]{0}, bf16[4096]{0}, /*index=665*/bf16[256,8,128]{2,1,0}, bf16[32,128,256]{2,1,0}, bf16[256,32,128]{2,1,0}, bf16[256,8,128]{2,1,0}, bf16[256,8]{1,0}, /*index=670*/bf16[1,2048,14336]{2,1,0}, bf16[1,2048,14336]{2,1,0}, bf16[1,14336,2048]{2,1,0}, bf16[4096]{0}, bf16[4096]{0}, /*index=675*/bf16[256,8,128]{2,1,0}, bf16[32,128,256]{2,1,0}, bf16[256,32,128]{2,1,0}, bf16[256,8,128]{2,1,0}, bf16[256,8]{1,0}, /*index=680*/bf16[1,2048,14336]{2,1,0}, bf16[1,2048,14336]{2,1,0}, bf16[1,14336,2048]{2,1,0}, bf16[4096]{0}, bf16[4096]{0}, /*index=685*/bf16[256,8,128]{2,1,0}, bf16[32,128,256]{2,1,0}, bf16[256,32,128]{2,1,0}, bf16[256,8,128]{2,1,0}, bf16[256,8]{1,0}, /*index=690*/bf16[1,2048,14336]{2,1,0}, bf16[1,2048,14336]{2,1,0}, bf16[1,14336,2048]{2,1,0}, bf16[4096]{0}, bf16[4096]{0}, /*index=695*/bf16[256,8,128]{2,1,0}, bf16[32,128,256]{2,1,0}, bf16[256,32,128]{2,1,0}, bf16[256,8,128]{2,1,0}, bf16[256,8]{1,0}, /*index=700*/bf16[1,2048,14336]{2,1,0}, bf16[1,2048,14336]{2,1,0}, bf16[1,14336,2048]{2,1,0}, bf16[4096]{0}, bf16[4096]{0}, /*index=705*/bf16[256,8,128]{2,1,0}, bf16[32,128,256]{2,1,0}, bf16[256,32,128]{2,1,0}, bf16[256,8,128]{2,1,0}, bf16[256,8]{1,0}, /*index=710*/bf16[1,2048,14336]{2,1,0}, bf16[1,2048,14336]{2,1,0}, bf16[1,14336,2048]{2,1,0}, bf16[4096]{0}, bf16[4096]{0}, /*index=715*/bf16[256,8,128]{2,1,0}, bf16[32,128,256]{2,1,0}, bf16[256,32,128]{2,1,0}, bf16[256,8,128]{2,1,0}, bf16[256,8]{1,0}, /*index=720*/bf16[1,2048,14336]{2,1,0}, bf16[1,2048,14336]{2,1,0}, bf16[1,14336,2048]{2,1,0}, bf16[4096]{0}, bf16[4096]{0}, /*index=725*/bf16[256,8,128]{2,1,0}, bf16[32,128,256]{2,1,0}, bf16[256,32,128]{2,1,0}, bf16[256,8,128]{2,1,0}, bf16[256,8]{1,0}, /*index=730*/bf16[1,2048,14336]{2,1,0}, bf16[1,2048,14336]{2,1,0}, bf16[1,14336,2048]{2,1,0}, bf16[4096]{0}, bf16[4096]{0}, /*index=735*/bf16[256,8,128]{2,1,0}, bf16[32,128,256]{2,1,0}, bf16[256,32,128]{2,1,0}, bf16[256,8,128]{2,1,0}, bf16[256,8]{1,0}, /*index=740*/bf16[1,2048,14336]{2,1,0}, bf16[1,2048,14336]{2,1,0}, bf16[1,14336,2048]{2,1,0}, bf16[4096]{0}, bf16[4096]{0}, /*index=745*/bf16[256,8,128]{2,1,0}, bf16[32,128,256]{2,1,0}, bf16[256,32,128]{2,1,0}, bf16[256,8,128]{2,1,0}, bf16[256,8]{1,0}, /*index=750*/bf16[1,2048,14336]{2,1,0}, bf16[1,2048,14336]{2,1,0}, bf16[1,14336,2048]{2,1,0}, bf16[4096]{0}, bf16[4096]{0}, /*index=755*/bf16[256,8,128]{2,1,0}, bf16[32,128,256]{2,1,0}, bf16[256,32,128]{2,1,0}, bf16[256,8,128]{2,1,0}, bf16[256,8]{1,0}, /*index=760*/bf16[1,2048,14336]{2,1,0}, bf16[1,2048,14336]{2,1,0}, bf16[1,14336,2048]{2,1,0}, bf16[4096]{0}, bf16[4096]{0}, /*index=765*/bf16[256,8,128]{2,1,0}, bf16[32,128,256]{2,1,0}, bf16[256,32,128]{2,1,0}, bf16[256,8,128]{2,1,0}, bf16[256,8]{1,0}, /*index=770*/bf16[1,2048,14336]{2,1,0}, bf16[1,2048,14336]{2,1,0}, bf16[1,14336,2048]{2,1,0}, bf16[4096]{0}, bf16[4096]{0}, /*index=775*/bf16[256,8,128]{2,1,0}, bf16[32,128,256]{2,1,0}, bf16[256,32,128]{2,1,0}, bf16[256,8,128]{2,1,0}, bf16[256,8]{1,0}, /*index=780*/bf16[1,2048,14336]{2,1,0}, bf16[1,2048,14336]{2,1,0}, bf16[1,14336,2048]{2,1,0}, bf16[4096]{0}, bf16[4096]{0}, /*index=785*/bf16[256,8,128]{2,1,0}, bf16[32,128,256]{2,1,0}, bf16[256,32,128]{2,1,0}, bf16[256,8,128]{2,1,0}, bf16[256,8]{1,0}, /*index=790*/bf16[1,2048,14336]{2,1,0}, bf16[1,2048,14336]{2,1,0}, bf16[1,14336,2048]{2,1,0}, bf16[4096]{0}, bf16[4096]{0}, /*index=795*/bf16[256,8,128]{2,1,0}, bf16[32,128,256]{2,1,0}, bf16[256,32,128]{2,1,0}, bf16[256,8,128]{2,1,0}, bf16[256,8]{1,0}, /*index=800*/bf16[1,2048,14336]{2,1,0}, bf16[1,2048,14336]{2,1,0}, bf16[1,14336,2048]{2,1,0}, bf16[4096]{0}, bf16[4096]{0}, /*index=805*/bf16[256,8,128]{2,1,0}, bf16[32,128,256]{2,1,0}, bf16[256,32,128]{2,1,0}, bf16[256,8,128]{2,1,0}, bf16[256,8]{1,0}, /*index=810*/bf16[1,2048,14336]{2,1,0}, bf16[1,2048,14336]{2,1,0}, bf16[1,14336,2048]{2,1,0}, bf16[4096]{0}, bf16[4096]{0}, /*index=815*/bf16[256,8,128]{2,1,0}, bf16[32,128,256]{2,1,0}, bf16[256,32,128]{2,1,0}, bf16[256,8,128]{2,1,0}, bf16[256,8]{1,0}, /*index=820*/bf16[1,2048,14336]{2,1,0}, bf16[1,2048,14336]{2,1,0}, bf16[1,14336,2048]{2,1,0}, bf16[4096]{0}, bf16[4096]{0}, /*index=825*/bf16[256,8,128]{2,1,0}, bf16[32,128,256]{2,1,0}, bf16[256,32,128]{2,1,0}, bf16[256,8,128]{2,1,0}, bf16[256,8]{1,0}, /*index=830*/bf16[1,2048,14336]{2,1,0}, bf16[1,2048,14336]{2,1,0}, bf16[1,14336,2048]{2,1,0}, bf16[4096]{0}, bf16[4096]{0}, /*index=835*/bf16[256,8,128]{2,1,0}, bf16[32,128,256]{2,1,0}, bf16[256,32,128]{2,1,0}, bf16[256,8,128]{2,1,0}, bf16[256,8]{1,0}, /*index=840*/bf16[1,2048,14336]{2,1,0}, bf16[1,2048,14336]{2,1,0}, bf16[1,14336,2048]{2,1,0}, bf16[4096]{0}, bf16[4096]{0}, /*index=845*/bf16[256,8,128]{2,1,0}, bf16[32,128,256]{2,1,0}, bf16[256,32,128]{2,1,0}, bf16[256,8,128]{2,1,0}, bf16[256,8]{1,0}, /*index=850*/bf16[1,2048,14336]{2,1,0}, bf16[1,2048,14336]{2,1,0}, bf16[1,14336,2048]{2,1,0}, bf16[4096]{0}, bf16[4096]{0}, /*index=855*/bf16[256,8,128]{2,1,0}, bf16[32,128,256]{2,1,0}, bf16[256,32,128]{2,1,0}, bf16[256,8,128]{2,1,0}, bf16[256,8]{1,0}, /*index=860*/bf16[1,2048,14336]{2,1,0}, bf16[1,2048,14336]{2,1,0}, bf16[1,14336,2048]{2,1,0}, bf16[4096]{0}, bf16[4096]{0}, /*index=865*/bf16[256,8,128]{2,1,0}, bf16[32,128,256]{2,1,0}, bf16[256,32,128]{2,1,0}, bf16[256,8,128]{2,1,0}, bf16[256,8]{1,0}, /*index=870*/bf16[1,2048,14336]{2,1,0}, bf16[1,2048,14336]{2,1,0}, bf16[1,14336,2048]{2,1,0}, bf16[4096]{0}, bf16[4096]{0}, /*index=875*/bf16[256,8,128]{2,1,0}, bf16[32,128,256]{2,1,0}, bf16[256,32,128]{2,1,0}, bf16[256,8,128]{2,1,0}, bf16[256,8]{1,0}, /*index=880*/bf16[1,2048,14336]{2,1,0}, bf16[1,2048,14336]{2,1,0}, bf16[1,14336,2048]{2,1,0}, bf16[4096]{0}, bf16[4096]{0}, /*index=885*/bf16[256,8,128]{2,1,0}, bf16[32,128,256]{2,1,0}, bf16[256,32,128]{2,1,0}, bf16[256,8,128]{2,1,0}, bf16[256,8]{1,0}, /*index=890*/bf16[1,2048,14336]{2,1,0}, bf16[1,2048,14336]{2,1,0}, bf16[1,14336,2048]{2,1,0}, bf16[4096]{0}, bf16[4096]{0}, /*index=895*/bf16[256,8,128]{2,1,0}, bf16[32,128,256]{2,1,0}, bf16[256,32,128]{2,1,0}, bf16[256,8,128]{2,1,0}, bf16[256,8]{1,0}, /*index=900*/bf16[1,2048,14336]{2,1,0}, bf16[1,2048,14336]{2,1,0}, bf16[1,14336,2048]{2,1,0}, bf16[4096]{0}, bf16[4096]{0}, /*index=905*/bf16[256,8,128]{2,1,0}, bf16[32,128,256]{2,1,0}, bf16[256,32,128]{2,1,0}, bf16[256,8,128]{2,1,0}, bf16[256,8]{1,0}, /*index=910*/bf16[1,2048,14336]{2,1,0}, bf16[1,2048,14336]{2,1,0}, bf16[1,14336,2048]{2,1,0}, bf16[4096]{0}, bf16[4096]{0}, /*index=915*/bf16[256,8,128]{2,1,0}, bf16[32,128,256]{2,1,0}, bf16[256,32,128]{2,1,0}, bf16[256,8,128]{2,1,0}, bf16[256,8]{1,0}, /*index=920*/bf16[1,2048,14336]{2,1,0}, bf16[1,2048,14336]{2,1,0}, bf16[1,14336,2048]{2,1,0}, bf16[4096]{0}, bf16[4096]{0}, /*index=925*/bf16[256,8,128]{2,1,0}, bf16[32,128,256]{2,1,0}, bf16[256,32,128]{2,1,0}, bf16[256,8,128]{2,1,0}, bf16[256,8]{1,0}, /*index=930*/bf16[1,2048,14336]{2,1,0}, bf16[1,2048,14336]{2,1,0}, bf16[1,14336,2048]{2,1,0}, bf16[4096]{0}, bf16[4096]{0}, /*index=935*/bf16[256,8,128]{2,1,0}, bf16[32,128,256]{2,1,0}, bf16[256,32,128]{2,1,0}, bf16[256,8,128]{2,1,0}, bf16[256,8]{1,0}, /*index=940*/bf16[1,2048,14336]{2,1,0}, bf16[1,2048,14336]{2,1,0}, bf16[1,14336,2048]{2,1,0}, bf16[4096]{0}, bf16[4096]{0}, /*index=945*/bf16[256,8,128]{2,1,0}, bf16[32,128,256]{2,1,0}, bf16[256,32,128]{2,1,0}, bf16[256,8,128]{2,1,0}, bf16[256,8]{1,0}, /*index=950*/bf16[1,2048,14336]{2,1,0}, bf16[1,2048,14336]{2,1,0}, bf16[1,14336,2048]{2,1,0}, bf16[4096]{0}, bf16[4096]{0}, /*index=955*/bf16[256,8,128]{2,1,0}, bf16[32,128,256]{2,1,0}, bf16[256,32,128]{2,1,0}, bf16[256,8,128]{2,1,0}, bf16[256,8]{1,0}, /*index=960*/bf16[1,2048,14336]{2,1,0}, bf16[1,2048,14336]{2,1,0}, bf16[1,14336,2048]{2,1,0}, bf16[4096]{0}, bf16[4096]{0}, /*index=965*/bf16[256,8,128]{2,1,0}, bf16[32,128,256]{2,1,0}, bf16[256,32,128]{2,1,0}, bf16[256,8,128]{2,1,0}, bf16[256,32000]{1,0}, /*index=970*/bf16[32000,256]{1,0}, s32[], s32[1,4096]{1,0}, s32[1,4096]{1,0}, s32[1,4096]{1,0}, /*index=975*/s32[1,4096]{1,0}, s32[1,4096]{1,0})->(s32[], bf16[4096]{0}, bf16[256,8]{1,0}, bf16[1,2048,14336]{2,1,0}, bf16[1,2048,14336]{2,1,0}, /*index=5*/bf16[1,14336,2048]{2,1,0}, bf16[4096]{0}, bf16[4096]{0}, bf16[256,8,128]{2,1,0}, bf16[32,128,256]{2,1,0}, /*index=10*/bf16[256,32,128]{2,1,0}, bf16[256,8,128]{2,1,0}, bf16[256,8]{1,0}, bf16[1,2048,14336]{2,1,0}, bf16[1,2048,14336]{2,1,0}, /*index=15*/bf16[1,14336,2048]{2,1,0}, bf16[4096]{0}, bf16[4096]{0}, bf16[256,8,128]{2,1,0}, bf16[32,128,256]{2,1,0}, /*index=20*/bf16[256,32,128]{2,1,0}, bf16[256,8,128]{2,1,0}, bf16[256,8]{1,0}, bf16[1,2048,14336]{2,1,0}, bf16[1,2048,14336]{2,1,0}, /*index=25*/bf16[1,14336,2048]{2,1,0}, bf16[4096]{0}, bf16[4096]{0}, bf16[256,8,128]{2,1,0}, bf16[32,128,256]{2,1,0}, /*index=30*/bf16[256,32,128]{2,1,0}, bf16[256,8,128]{2,1,0}, bf16[256,8]{1,0}, bf16[1,2048,14336]{2,1,0}, bf16[1,2048,14336]{2,1,0}, /*index=35*/bf16[1,14336,2048]{2,1,0}, bf16[4096]{0}, bf16[4096]{0}, bf16[256,8,128]{2,1,0}, bf16[32,128,256]{2,1,0}, /*index=40*/bf16[256,32,128]{2,1,0}, bf16[256,8,128]{2,1,0}, bf16[256,8]{1,0}, bf16[1,2048,14336]{2,1,0}, bf16[1,2048,14336]{2,1,0}, /*index=45*/bf16[1,14336,2048]{2,1,0}, bf16[4096]{0}, bf16[4096]{0}, bf16[256,8,128]{2,1,0}, bf16[32,128,256]{2,1,0}, /*index=50*/bf16[256,32,128]{2,1,0}, bf16[256,8,128]{2,1,0}, bf16[256,8]{1,0}, bf16[1,2048,14336]{2,1,0}, bf16[1,2048,14336]{2,1,0}, /*index=55*/bf16[1,14336,2048]{2,1,0}, bf16[4096]{0}, bf16[4096]{0}, bf16[256,8,128]{2,1,0}, bf16[32,128,256]{2,1,0}, /*index=60*/bf16[256,32,128]{2,1,0}, bf16[256,8,128]{2,1,0}, bf16[256,8]{1,0}, bf16[1,2048,14336]{2,1,0}, bf16[1,2048,14336]{2,1,0}, /*index=65*/bf16[1,14336,2048]{2,1,0}, bf16[4096]{0}, bf16[4096]{0}, bf16[256,8,128]{2,1,0}, bf16[32,128,256]{2,1,0}, /*index=70*/bf16[256,32,128]{2,1,0}, bf16[256,8,128]{2,1,0}, bf16[256,8]{1,0}, bf16[1,2048,14336]{2,1,0}, bf16[1,2048,14336]{2,1,0}, /*index=75*/bf16[1,14336,2048]{2,1,0}, bf16[4096]{0}, bf16[4096]{0}, bf16[256,8,128]{2,1,0}, bf16[32,128,256]{2,1,0}, /*index=80*/bf16[256,32,128]{2,1,0}, bf16[256,8,128]{2,1,0}, bf16[256,8]{1,0}, bf16[1,2048,14336]{2,1,0}, bf16[1,2048,14336]{2,1,0}, /*index=85*/bf16[1,14336,2048]{2,1,0}, bf16[4096]{0}, bf16[4096]{0}, bf16[256,8,128]{2,1,0}, bf16[32,128,256]{2,1,0}, /*index=90*/bf16[256,32,128]{2,1,0}, bf16[256,8,128]{2,1,0}, bf16[256,8]{1,0}, bf16[1,2048,14336]{2,1,0}, bf16[1,2048,14336]{2,1,0}, /*index=95*/bf16[1,14336,2048]{2,1,0}, bf16[4096]{0}, bf16[4096]{0}, bf16[256,8,128]{2,1,0}, bf16[32,128,256]{2,1,0}, /*index=100*/bf16[256,32,128]{2,1,0}, bf16[256,8,128]{2,1,0}, bf16[256,8]{1,0}, bf16[1,2048,14336]{2,1,0}, bf16[1,2048,14336]{2,1,0}, /*index=105*/bf16[1,14336,2048]{2,1,0}, bf16[4096]{0}, bf16[4096]{0}, bf16[256,8,128]{2,1,0}, bf16[32,128,256]{2,1,0}, /*index=110*/bf16[256,32,128]{2,1,0}, bf16[256,8,128]{2,1,0}, bf16[256,8]{1,0}, bf16[1,2048,14336]{2,1,0}, bf16[1,2048,14336]{2,1,0}, /*index=115*/bf16[1,14336,2048]{2,1,0}, bf16[4096]{0}, bf16[4096]{0}, bf16[256,8,128]{2,1,0}, bf16[32,128,256]{2,1,0}, /*index=120*/bf16[256,32,128]{2,1,0}, bf16[256,8,128]{2,1,0}, bf16[256,8]{1,0}, bf16[1,2048,14336]{2,1,0}, bf16[1,2048,14336]{2,1,0}, /*index=125*/bf16[1,14336,2048]{2,1,0}, bf16[4096]{0}, bf16[4096]{0}, bf16[256,8,128]{2,1,0}, bf16[32,128,256]{2,1,0}, /*index=130*/bf16[256,32,128]{2,1,0}, bf16[256,8,128]{2,1,0}, bf16[256,8]{1,0}, bf16[1,2048,14336]{2,1,0}, bf16[1,2048,14336]{2,1,0}, /*index=135*/bf16[1,14336,2048]{2,1,0}, bf16[4096]{0}, bf16[4096]{0}, bf16[256,8,128]{2,1,0}, bf16[32,128,256]{2,1,0}, /*index=140*/bf16[256,32,128]{2,1,0}, bf16[256,8,128]{2,1,0}, bf16[256,8]{1,0}, bf16[1,2048,14336]{2,1,0}, bf16[1,2048,14336]{2,1,0}, /*index=145*/bf16[1,14336,2048]{2,1,0}, bf16[4096]{0}, bf16[4096]{0}, bf16[256,8,128]{2,1,0}, bf16[32,128,256]{2,1,0}, /*index=150*/bf16[256,32,128]{2,1,0}, bf16[256,8,128]{2,1,0}, bf16[256,8]{1,0}, bf16[1,2048,14336]{2,1,0}, bf16[1,2048,14336]{2,1,0}, /*index=155*/bf16[1,14336,2048]{2,1,0}, bf16[4096]{0}, bf16[4096]{0}, bf16[256,8,128]{2,1,0}, bf16[32,128,256]{2,1,0}, /*index=160*/bf16[256,32,128]{2,1,0}, bf16[256,8,128]{2,1,0}, bf16[256,8]{1,0}, bf16[1,2048,14336]{2,1,0}, bf16[1,2048,14336]{2,1,0}, /*index=165*/bf16[1,14336,2048]{2,1,0}, bf16[4096]{0}, bf16[4096]{0}, bf16[256,8,128]{2,1,0}, bf16[32,128,256]{2,1,0}, /*index=170*/bf16[256,32,128]{2,1,0}, bf16[256,8,128]{2,1,0}, bf16[256,8]{1,0}, bf16[1,2048,14336]{2,1,0}, bf16[1,2048,14336]{2,1,0}, /*index=175*/bf16[1,14336,2048]{2,1,0}, bf16[4096]{0}, bf16[4096]{0}, bf16[256,8,128]{2,1,0}, bf16[32,128,256]{2,1,0}, /*index=180*/bf16[256,32,128]{2,1,0}, bf16[256,8,128]{2,1,0}, bf16[256,8]{1,0}, bf16[1,2048,14336]{2,1,0}, bf16[1,2048,14336]{2,1,0}, /*index=185*/bf16[1,14336,2048]{2,1,0}, bf16[4096]{0}, bf16[4096]{0}, bf16[256,8,128]{2,1,0}, bf16[32,128,256]{2,1,0}, /*index=190*/bf16[256,32,128]{2,1,0}, bf16[256,8,128]{2,1,0}, bf16[256,8]{1,0}, bf16[1,2048,14336]{2,1,0}, bf16[1,2048,14336]{2,1,0}, /*index=195*/bf16[1,14336,2048]{2,1,0}, bf16[4096]{0}, bf16[4096]{0}, bf16[256,8,128]{2,1,0}, bf16[32,128,256]{2,1,0}, /*index=200*/bf16[256,32,128]{2,1,0}, bf16[256,8,128]{2,1,0}, bf16[256,8]{1,0}, bf16[1,2048,14336]{2,1,0}, bf16[1,2048,14336]{2,1,0}, /*index=205*/bf16[1,14336,2048]{2,1,0}, bf16[4096]{0}, bf16[4096]{0}, bf16[256,8,128]{2,1,0}, bf16[32,128,256]{2,1,0}, /*index=210*/bf16[256,32,128]{2,1,0}, bf16[256,8,128]{2,1,0}, bf16[256,8]{1,0}, bf16[1,2048,14336]{2,1,0}, bf16[1,2048,14336]{2,1,0}, /*index=215*/bf16[1,14336,2048]{2,1,0}, bf16[4096]{0}, bf16[4096]{0}, bf16[256,8,128]{2,1,0}, bf16[32,128,256]{2,1,0}, /*index=220*/bf16[256,32,128]{2,1,0}, bf16[256,8,128]{2,1,0}, bf16[256,8]{1,0}, bf16[1,2048,14336]{2,1,0}, bf16[1,2048,14336]{2,1,0}, /*index=225*/bf16[1,14336,2048]{2,1,0}, bf16[4096]{0}, bf16[4096]{0}, bf16[256,8,128]{2,1,0}, bf16[32,128,256]{2,1,0}, /*index=230*/bf16[256,32,128]{2,1,0}, bf16[256,8,128]{2,1,0}, bf16[256,8]{1,0}, bf16[1,2048,14336]{2,1,0}, bf16[1,2048,14336]{2,1,0}, /*index=235*/bf16[1,14336,2048]{2,1,0}, bf16[4096]{0}, bf16[4096]{0}, bf16[256,8,128]{2,1,0}, bf16[32,128,256]{2,1,0}, /*index=240*/bf16[256,32,128]{2,1,0}, bf16[256,8,128]{2,1,0}, bf16[256,8]{1,0}, bf16[1,2048,14336]{2,1,0}, bf16[1,2048,14336]{2,1,0}, /*index=245*/bf16[1,14336,2048]{2,1,0}, bf16[4096]{0}, bf16[4096]{0}, bf16[256,8,128]{2,1,0}, bf16[32,128,256]{2,1,0}, /*index=250*/bf16[256,32,128]{2,1,0}, bf16[256,8,128]{2,1,0}, bf16[256,8]{1,0}, bf16[1,2048,14336]{2,1,0}, bf16[1,2048,14336]{2,1,0}, /*index=255*/bf16[1,14336,2048]{2,1,0}, bf16[4096]{0}, bf16[4096]{0}, bf16[256,8,128]{2,1,0}, bf16[32,128,256]{2,1,0}, /*index=260*/bf16[256,32,128]{2,1,0}, bf16[256,8,128]{2,1,0}, bf16[256,8]{1,0}, bf16[1,2048,14336]{2,1,0}, bf16[1,2048,14336]{2,1,0}, /*index=265*/bf16[1,14336,2048]{2,1,0}, bf16[4096]{0}, bf16[4096]{0}, bf16[256,8,128]{2,1,0}, bf16[32,128,256]{2,1,0}, /*index=270*/bf16[256,32,128]{2,1,0}, bf16[256,8,128]{2,1,0}, bf16[256,8]{1,0}, bf16[1,2048,14336]{2,1,0}, bf16[1,2048,14336]{2,1,0}, /*index=275*/bf16[1,14336,2048]{2,1,0}, bf16[4096]{0}, bf16[4096]{0}, bf16[256,8,128]{2,1,0}, bf16[32,128,256]{2,1,0}, /*index=280*/bf16[256,32,128]{2,1,0}, bf16[256,8,128]{2,1,0}, bf16[256,8]{1,0}, bf16[1,2048,14336]{2,1,0}, bf16[1,2048,14336]{2,1,0}, /*index=285*/bf16[1,14336,2048]{2,1,0}, bf16[4096]{0}, bf16[4096]{0}, bf16[256,8,128]{2,1,0}, bf16[32,128,256]{2,1,0}, /*index=290*/bf16[256,32,128]{2,1,0}, bf16[256,8,128]{2,1,0}, bf16[256,8]{1,0}, bf16[1,2048,14336]{2,1,0}, bf16[1,2048,14336]{2,1,0}, /*index=295*/bf16[1,14336,2048]{2,1,0}, bf16[4096]{0}, bf16[4096]{0}, bf16[256,8,128]{2,1,0}, bf16[32,128,256]{2,1,0}, /*index=300*/bf16[256,32,128]{2,1,0}, bf16[256,8,128]{2,1,0}, bf16[256,8]{1,0}, bf16[1,2048,14336]{2,1,0}, bf16[1,2048,14336]{2,1,0}, /*index=305*/bf16[1,14336,2048]{2,1,0}, bf16[4096]{0}, bf16[4096]{0}, bf16[256,8,128]{2,1,0}, bf16[32,128,256]{2,1,0}, /*index=310*/bf16[256,32,128]{2,1,0}, bf16[256,8,128]{2,1,0}, bf16[256,8]{1,0}, bf16[1,2048,14336]{2,1,0}, bf16[1,2048,14336]{2,1,0}, /*index=315*/bf16[1,14336,2048]{2,1,0}, bf16[4096]{0}, bf16[4096]{0}, bf16[256,8,128]{2,1,0}, bf16[32,128,256]{2,1,0}, /*index=320*/bf16[256,32,128]{2,1,0}, bf16[256,8,128]{2,1,0}, bf16[256,32000]{1,0}, bf16[32000,256]{1,0}, s32[], /*index=325*/bf16[4096]{0}, bf16[256,8]{1,0}, bf16[1,2048,14336]{2,1,0}, bf16[1,2048,14336]{2,1,0}, bf16[1,14336,2048]{2,1,0}, /*index=330*/bf16[4096]{0}, bf16[4096]{0}, bf16[256,8,128]{2,1,0}, bf16[32,128,256]{2,1,0}, bf16[256,32,128]{2,1,0}, /*index=335*/bf16[256,8,128]{2,1,0}, bf16[256,8]{1,0}, bf16[1,2048,14336]{2,1,0}, bf16[1,2048,14336]{2,1,0}, bf16[1,14336,2048]{2,1,0}, /*index=340*/bf16[4096]{0}, bf16[4096]{0}, bf16[256,8,128]{2,1,0}, bf16[32,128,256]{2,1,0}, bf16[256,32,128]{2,1,0}, /*index=345*/bf16[256,8,128]{2,1,0}, bf16[256,8]{1,0}, bf16[1,2048,14336]{2,1,0}, bf16[1,2048,14336]{2,1,0}, bf16[1,14336,2048]{2,1,0}, /*index=350*/bf16[4096]{0}, bf16[4096]{0}, bf16[256,8,128]{2,1,0}, bf16[32,128,256]{2,1,0}, bf16[256,32,128]{2,1,0}, /*index=355*/bf16[256,8,128]{2,1,0}, bf16[256,8]{1,0}, bf16[1,2048,14336]{2,1,0}, bf16[1,2048,14336]{2,1,0}, bf16[1,14336,2048]{2,1,0}, /*index=360*/bf16[4096]{0}, bf16[4096]{0}, bf16[256,8,128]{2,1,0}, bf16[32,128,256]{2,1,0}, bf16[256,32,128]{2,1,0}, /*index=365*/bf16[256,8,128]{2,1,0}, bf16[256,8]{1,0}, bf16[1,2048,14336]{2,1,0}, bf16[1,2048,14336]{2,1,0}, bf16[1,14336,2048]{2,1,0}, /*index=370*/bf16[4096]{0}, bf16[4096]{0}, bf16[256,8,128]{2,1,0}, bf16[32,128,256]{2,1,0}, bf16[256,32,128]{2,1,0}, /*index=375*/bf16[256,8,128]{2,1,0}, bf16[256,8]{1,0}, bf16[1,2048,14336]{2,1,0}, bf16[1,2048,14336]{2,1,0}, bf16[1,14336,2048]{2,1,0}, /*index=380*/bf16[4096]{0}, bf16[4096]{0}, bf16[256,8,128]{2,1,0}, bf16[32,128,256]{2,1,0}, bf16[256,32,128]{2,1,0}, /*index=385*/bf16[256,8,128]{2,1,0}, bf16[256,8]{1,0}, bf16[1,2048,14336]{2,1,0}, bf16[1,2048,14336]{2,1,0}, bf16[1,14336,2048]{2,1,0}, /*index=390*/bf16[4096]{0}, bf16[4096]{0}, bf16[256,8,128]{2,1,0}, bf16[32,128,256]{2,1,0}, bf16[256,32,128]{2,1,0}, /*index=395*/bf16[256,8,128]{2,1,0}, bf16[256,8]{1,0}, bf16[1,2048,14336]{2,1,0}, bf16[1,2048,14336]{2,1,0}, bf16[1,14336,2048]{2,1,0}, /*index=400*/bf16[4096]{0}, bf16[4096]{0}, bf16[256,8,128]{2,1,0}, bf16[32,128,256]{2,1,0}, bf16[256,32,128]{2,1,0}, /*index=405*/bf16[256,8,128]{2,1,0}, bf16[256,8]{1,0}, bf16[1,2048,14336]{2,1,0}, bf16[1,2048,14336]{2,1,0}, bf16[1,14336,2048]{2,1,0}, /*index=410*/bf16[4096]{0}, bf16[4096]{0}, bf16[256,8,128]{2,1,0}, bf16[32,128,256]{2,1,0}, bf16[256,32,128]{2,1,0}, /*index=415*/bf16[256,8,128]{2,1,0}, bf16[256,8]{1,0}, bf16[1,2048,14336]{2,1,0}, bf16[1,2048,14336]{2,1,0}, bf16[1,14336,2048]{2,1,0}, /*index=420*/bf16[4096]{0}, bf16[4096]{0}, bf16[256,8,128]{2,1,0}, bf16[32,128,256]{2,1,0}, bf16[256,32,128]{2,1,0}, /*index=425*/bf16[256,8,128]{2,1,0}, bf16[256,8]{1,0}, bf16[1,2048,14336]{2,1,0}, bf16[1,2048,14336]{2,1,0}, bf16[1,14336,2048]{2,1,0}, /*index=430*/bf16[4096]{0}, bf16[4096]{0}, bf16[256,8,128]{2,1,0}, bf16[32,128,256]{2,1,0}, bf16[256,32,128]{2,1,0}, /*index=435*/bf16[256,8,128]{2,1,0}, bf16[256,8]{1,0}, bf16[1,2048,14336]{2,1,0}, bf16[1,2048,14336]{2,1,0}, bf16[1,14336,2048]{2,1,0}, /*index=440*/bf16[4096]{0}, bf16[4096]{0}, bf16[256,8,128]{2,1,0}, bf16[32,128,256]{2,1,0}, bf16[256,32,128]{2,1,0}, /*index=445*/bf16[256,8,128]{2,1,0}, bf16[256,8]{1,0}, bf16[1,2048,14336]{2,1,0}, bf16[1,2048,14336]{2,1,0}, bf16[1,14336,2048]{2,1,0}, /*index=450*/bf16[4096]{0}, bf16[4096]{0}, bf16[256,8,128]{2,1,0}, bf16[32,128,256]{2,1,0}, bf16[256,32,128]{2,1,0}, /*index=455*/bf16[256,8,128]{2,1,0}, bf16[256,8]{1,0}, bf16[1,2048,14336]{2,1,0}, bf16[1,2048,14336]{2,1,0}, bf16[1,14336,2048]{2,1,0}, /*index=460*/bf16[4096]{0}, bf16[4096]{0}, bf16[256,8,128]{2,1,0}, bf16[32,128,256]{2,1,0}, bf16[256,32,128]{2,1,0}, /*index=465*/bf16[256,8,128]{2,1,0}, bf16[256,8]{1,0}, bf16[1,2048,14336]{2,1,0}, bf16[1,2048,14336]{2,1,0}, bf16[1,14336,2048]{2,1,0}, /*index=470*/bf16[4096]{0}, bf16[4096]{0}, bf16[256,8,128]{2,1,0}, bf16[32,128,256]{2,1,0}, bf16[256,32,128]{2,1,0}, /*index=475*/bf16[256,8,128]{2,1,0}, bf16[256,8]{1,0}, bf16[1,2048,14336]{2,1,0}, bf16[1,2048,14336]{2,1,0}, bf16[1,14336,2048]{2,1,0}, /*index=480*/bf16[4096]{0}, bf16[4096]{0}, bf16[256,8,128]{2,1,0}, bf16[32,128,256]{2,1,0}, bf16[256,32,128]{2,1,0}, /*index=485*/bf16[256,8,128]{2,1,0}, bf16[256,8]{1,0}, bf16[1,2048,14336]{2,1,0}, bf16[1,2048,14336]{2,1,0}, bf16[1,14336,2048]{2,1,0}, /*index=490*/bf16[4096]{0}, bf16[4096]{0}, bf16[256,8,128]{2,1,0}, bf16[32,128,256]{2,1,0}, bf16[256,32,128]{2,1,0}, /*index=495*/bf16[256,8,128]{2,1,0}, bf16[256,8]{1,0}, bf16[1,2048,14336]{2,1,0}, bf16[1,2048,14336]{2,1,0}, bf16[1,14336,2048]{2,1,0}, /*index=500*/bf16[4096]{0}, bf16[4096]{0}, bf16[256,8,128]{2,1,0}, bf16[32,128,256]{2,1,0}, bf16[256,32,128]{2,1,0}, /*index=505*/bf16[256,8,128]{2,1,0}, bf16[256,8]{1,0}, bf16[1,2048,14336]{2,1,0}, bf16[1,2048,14336]{2,1,0}, bf16[1,14336,2048]{2,1,0}, /*index=510*/bf16[4096]{0}, bf16[4096]{0}, bf16[256,8,128]{2,1,0}, bf16[32,128,256]{2,1,0}, bf16[256,32,128]{2,1,0}, /*index=515*/bf16[256,8,128]{2,1,0}, bf16[256,8]{1,0}, bf16[1,2048,14336]{2,1,0}, bf16[1,2048,14336]{2,1,0}, bf16[1,14336,2048]{2,1,0}, /*index=520*/bf16[4096]{0}, bf16[4096]{0}, bf16[256,8,128]{2,1,0}, bf16[32,128,256]{2,1,0}, bf16[256,32,128]{2,1,0}, /*index=525*/bf16[256,8,128]{2,1,0}, bf16[256,8]{1,0}, bf16[1,2048,14336]{2,1,0}, bf16[1,2048,14336]{2,1,0}, bf16[1,14336,2048]{2,1,0}, /*index=530*/bf16[4096]{0}, bf16[4096]{0}, bf16[256,8,128]{2,1,0}, bf16[32,128,256]{2,1,0}, bf16[256,32,128]{2,1,0}, /*index=535*/bf16[256,8,128]{2,1,0}, bf16[256,8]{1,0}, bf16[1,2048,14336]{2,1,0}, bf16[1,2048,14336]{2,1,0}, bf16[1,14336,2048]{2,1,0}, /*index=540*/bf16[4096]{0}, bf16[4096]{0}, bf16[256,8,128]{2,1,0}, bf16[32,128,256]{2,1,0}, bf16[256,32,128]{2,1,0}, /*index=545*/bf16[256,8,128]{2,1,0}, bf16[256,8]{1,0}, bf16[1,2048,14336]{2,1,0}, bf16[1,2048,14336]{2,1,0}, bf16[1,14336,2048]{2,1,0}, /*index=550*/bf16[4096]{0}, bf16[4096]{0}, bf16[256,8,128]{2,1,0}, bf16[32,128,256]{2,1,0}, bf16[256,32,128]{2,1,0}, /*index=555*/bf16[256,8,128]{2,1,0}, bf16[256,8]{1,0}, bf16[1,2048,14336]{2,1,0}, bf16[1,2048,14336]{2,1,0}, bf16[1,14336,2048]{2,1,0}, /*index=560*/bf16[4096]{0}, bf16[4096]{0}, bf16[256,8,128]{2,1,0}, bf16[32,128,256]{2,1,0}, bf16[256,32,128]{2,1,0}, /*index=565*/bf16[256,8,128]{2,1,0}, bf16[256,8]{1,0}, bf16[1,2048,14336]{2,1,0}, bf16[1,2048,14336]{2,1,0}, bf16[1,14336,2048]{2,1,0}, /*index=570*/bf16[4096]{0}, bf16[4096]{0}, bf16[256,8,128]{2,1,0}, bf16[32,128,256]{2,1,0}, bf16[256,32,128]{2,1,0}, /*index=575*/bf16[256,8,128]{2,1,0}, bf16[256,8]{1,0}, bf16[1,2048,14336]{2,1,0}, bf16[1,2048,14336]{2,1,0}, bf16[1,14336,2048]{2,1,0}, /*index=580*/bf16[4096]{0}, bf16[4096]{0}, bf16[256,8,128]{2,1,0}, bf16[32,128,256]{2,1,0}, bf16[256,32,128]{2,1,0}, /*index=585*/bf16[256,8,128]{2,1,0}, bf16[256,8]{1,0}, bf16[1,2048,14336]{2,1,0}, bf16[1,2048,14336]{2,1,0}, bf16[1,14336,2048]{2,1,0}, /*index=590*/bf16[4096]{0}, bf16[4096]{0}, bf16[256,8,128]{2,1,0}, bf16[32,128,256]{2,1,0}, bf16[256,32,128]{2,1,0}, /*index=595*/bf16[256,8,128]{2,1,0}, bf16[256,8]{1,0}, bf16[1,2048,14336]{2,1,0}, bf16[1,2048,14336]{2,1,0}, bf16[1,14336,2048]{2,1,0}, /*index=600*/bf16[4096]{0}, bf16[4096]{0}, bf16[256,8,128]{2,1,0}, bf16[32,128,256]{2,1,0}, bf16[256,32,128]{2,1,0}, /*index=605*/bf16[256,8,128]{2,1,0}, bf16[256,8]{1,0}, bf16[1,2048,14336]{2,1,0}, bf16[1,2048,14336]{2,1,0}, bf16[1,14336,2048]{2,1,0}, /*index=610*/bf16[4096]{0}, bf16[4096]{0}, bf16[256,8,128]{2,1,0}, bf16[32,128,256]{2,1,0}, bf16[256,32,128]{2,1,0}, /*index=615*/bf16[256,8,128]{2,1,0}, bf16[256,8]{1,0}, bf16[1,2048,14336]{2,1,0}, bf16[1,2048,14336]{2,1,0}, bf16[1,14336,2048]{2,1,0}, /*index=620*/bf16[4096]{0}, bf16[4096]{0}, bf16[256,8,128]{2,1,0}, bf16[32,128,256]{2,1,0}, bf16[256,32,128]{2,1,0}, /*index=625*/bf16[256,8,128]{2,1,0}, bf16[256,8]{1,0}, bf16[1,2048,14336]{2,1,0}, bf16[1,2048,14336]{2,1,0}, bf16[1,14336,2048]{2,1,0}, /*index=630*/bf16[4096]{0}, bf16[4096]{0}, bf16[256,8,128]{2,1,0}, bf16[32,128,256]{2,1,0}, bf16[256,32,128]{2,1,0}, /*index=635*/bf16[256,8,128]{2,1,0}, bf16[256,8]{1,0}, bf16[1,2048,14336]{2,1,0}, bf16[1,2048,14336]{2,1,0}, bf16[1,14336,2048]{2,1,0}, /*index=640*/bf16[4096]{0}, bf16[4096]{0}, bf16[256,8,128]{2,1,0}, bf16[32,128,256]{2,1,0}, bf16[256,32,128]{2,1,0}, /*index=645*/bf16[256,8,128]{2,1,0}, bf16[256,32000]{1,0}, bf16[32000,256]{1,0}, bf16[4096]{0}, bf16[256,8]{1,0}, /*index=650*/bf16[1,2048,14336]{2,1,0}, bf16[1,2048,14336]{2,1,0}, bf16[1,14336,2048]{2,1,0}, bf16[4096]{0}, bf16[4096]{0}, /*index=655*/bf16[256,8,128]{2,1,0}, bf16[32,128,256]{2,1,0}, bf16[256,32,128]{2,1,0}, bf16[256,8,128]{2,1,0}, bf16[256,8]{1,0}, /*index=660*/bf16[1,2048,14336]{2,1,0}, bf16[1,2048,14336]{2,1,0}, bf16[1,14336,2048]{2,1,0}, bf16[4096]{0}, bf16[4096]{0}, /*index=665*/bf16[256,8,128]{2,1,0}, bf16[32,128,256]{2,1,0}, bf16[256,32,128]{2,1,0}, bf16[256,8,128]{2,1,0}, bf16[256,8]{1,0}, /*index=670*/bf16[1,2048,14336]{2,1,0}, bf16[1,2048,14336]{2,1,0}, bf16[1,14336,2048]{2,1,0}, bf16[4096]{0}, bf16[4096]{0}, /*index=675*/bf16[256,8,128]{2,1,0}, bf16[32,128,256]{2,1,0}, bf16[256,32,128]{2,1,0}, bf16[256,8,128]{2,1,0}, bf16[256,8]{1,0}, /*index=680*/bf16[1,2048,14336]{2,1,0}, bf16[1,2048,14336]{2,1,0}, bf16[1,14336,2048]{2,1,0}, bf16[4096]{0}, bf16[4096]{0}, /*index=685*/bf16[256,8,128]{2,1,0}, bf16[32,128,256]{2,1,0}, bf16[256,32,128]{2,1,0}, bf16[256,8,128]{2,1,0}, bf16[256,8]{1,0}, /*index=690*/bf16[1,2048,14336]{2,1,0}, bf16[1,2048,14336]{2,1,0}, bf16[1,14336,2048]{2,1,0}, bf16[4096]{0}, bf16[4096]{0}, /*index=695*/bf16[256,8,128]{2,1,0}, bf16[32,128,256]{2,1,0}, bf16[256,32,128]{2,1,0}, bf16[256,8,128]{2,1,0}, bf16[256,8]{1,0}, /*index=700*/bf16[1,2048,14336]{2,1,0}, bf16[1,2048,14336]{2,1,0}, bf16[1,14336,2048]{2,1,0}, bf16[4096]{0}, bf16[4096]{0}, /*index=705*/bf16[256,8,128]{2,1,0}, bf16[32,128,256]{2,1,0}, bf16[256,32,128]{2,1,0}, bf16[256,8,128]{2,1,0}, bf16[256,8]{1,0}, /*index=710*/bf16[1,2048,14336]{2,1,0}, bf16[1,2048,14336]{2,1,0}, bf16[1,14336,2048]{2,1,0}, bf16[4096]{0}, bf16[4096]{0}, /*index=715*/bf16[256,8,128]{2,1,0}, bf16[32,128,256]{2,1,0}, bf16[256,32,128]{2,1,0}, bf16[256,8,128]{2,1,0}, bf16[256,8]{1,0}, /*index=720*/bf16[1,2048,14336]{2,1,0}, bf16[1,2048,14336]{2,1,0}, bf16[1,14336,2048]{2,1,0}, bf16[4096]{0}, bf16[4096]{0}, /*index=725*/bf16[256,8,128]{2,1,0}, bf16[32,128,256]{2,1,0}, bf16[256,32,128]{2,1,0}, bf16[256,8,128]{2,1,0}, bf16[256,8]{1,0}, /*index=730*/bf16[1,2048,14336]{2,1,0}, bf16[1,2048,14336]{2,1,0}, bf16[1,14336,2048]{2,1,0}, bf16[4096]{0}, bf16[4096]{0}, /*index=735*/bf16[256,8,128]{2,1,0}, bf16[32,128,256]{2,1,0}, bf16[256,32,128]{2,1,0}, bf16[256,8,128]{2,1,0}, bf16[256,8]{1,0}, /*index=740*/bf16[1,2048,14336]{2,1,0}, bf16[1,2048,14336]{2,1,0}, bf16[1,14336,2048]{2,1,0}, bf16[4096]{0}, bf16[4096]{0}, /*index=745*/bf16[256,8,128]{2,1,0}, bf16[32,128,256]{2,1,0}, bf16[256,32,128]{2,1,0}, bf16[256,8,128]{2,1,0}, bf16[256,8]{1,0}, /*index=750*/bf16[1,2048,14336]{2,1,0}, bf16[1,2048,14336]{2,1,0}, bf16[1,14336,2048]{2,1,0}, bf16[4096]{0}, bf16[4096]{0}, /*index=755*/bf16[256,8,128]{2,1,0}, bf16[32,128,256]{2,1,0}, bf16[256,32,128]{2,1,0}, bf16[256,8,128]{2,1,0}, bf16[256,8]{1,0}, /*index=760*/bf16[1,2048,14336]{2,1,0}, bf16[1,2048,14336]{2,1,0}, bf16[1,14336,2048]{2,1,0}, bf16[4096]{0}, bf16[4096]{0}, /*index=765*/bf16[256,8,128]{2,1,0}, bf16[32,128,256]{2,1,0}, bf16[256,32,128]{2,1,0}, bf16[256,8,128]{2,1,0}, bf16[256,8]{1,0}, /*index=770*/bf16[1,2048,14336]{2,1,0}, bf16[1,2048,14336]{2,1,0}, bf16[1,14336,2048]{2,1,0}, bf16[4096]{0}, bf16[4096]{0}, /*index=775*/bf16[256,8,128]{2,1,0}, bf16[32,128,256]{2,1,0}, bf16[256,32,128]{2,1,0}, bf16[256,8,128]{2,1,0}, bf16[256,8]{1,0}, /*index=780*/bf16[1,2048,14336]{2,1,0}, bf16[1,2048,14336]{2,1,0}, bf16[1,14336,2048]{2,1,0}, bf16[4096]{0}, bf16[4096]{0}, /*index=785*/bf16[256,8,128]{2,1,0}, bf16[32,128,256]{2,1,0}, bf16[256,32,128]{2,1,0}, bf16[256,8,128]{2,1,0}, bf16[256,8]{1,0}, /*index=790*/bf16[1,2048,14336]{2,1,0}, bf16[1,2048,14336]{2,1,0}, bf16[1,14336,2048]{2,1,0}, bf16[4096]{0}, bf16[4096]{0}, /*index=795*/bf16[256,8,128]{2,1,0}, bf16[32,128,256]{2,1,0}, bf16[256,32,128]{2,1,0}, bf16[256,8,128]{2,1,0}, bf16[256,8]{1,0}, /*index=800*/bf16[1,2048,14336]{2,1,0}, bf16[1,2048,14336]{2,1,0}, bf16[1,14336,2048]{2,1,0}, bf16[4096]{0}, bf16[4096]{0}, /*index=805*/bf16[256,8,128]{2,1,0}, bf16[32,128,256]{2,1,0}, bf16[256,32,128]{2,1,0}, bf16[256,8,128]{2,1,0}, bf16[256,8]{1,0}, /*index=810*/bf16[1,2048,14336]{2,1,0}, bf16[1,2048,14336]{2,1,0}, bf16[1,14336,2048]{2,1,0}, bf16[4096]{0}, bf16[4096]{0}, /*index=815*/bf16[256,8,128]{2,1,0}, bf16[32,128,256]{2,1,0}, bf16[256,32,128]{2,1,0}, bf16[256,8,128]{2,1,0}, bf16[256,8]{1,0}, /*index=820*/bf16[1,2048,14336]{2,1,0}, bf16[1,2048,14336]{2,1,0}, bf16[1,14336,2048]{2,1,0}, bf16[4096]{0}, bf16[4096]{0}, /*index=825*/bf16[256,8,128]{2,1,0}, bf16[32,128,256]{2,1,0}, bf16[256,32,128]{2,1,0}, bf16[256,8,128]{2,1,0}, bf16[256,8]{1,0}, /*index=830*/bf16[1,2048,14336]{2,1,0}, bf16[1,2048,14336]{2,1,0}, bf16[1,14336,2048]{2,1,0}, bf16[4096]{0}, bf16[4096]{0}, /*index=835*/bf16[256,8,128]{2,1,0}, bf16[32,128,256]{2,1,0}, bf16[256,32,128]{2,1,0}, bf16[256,8,128]{2,1,0}, bf16[256,8]{1,0}, /*index=840*/bf16[1,2048,14336]{2,1,0}, bf16[1,2048,14336]{2,1,0}, bf16[1,14336,2048]{2,1,0}, bf16[4096]{0}, bf16[4096]{0}, /*index=845*/bf16[256,8,128]{2,1,0}, bf16[32,128,256]{2,1,0}, bf16[256,32,128]{2,1,0}, bf16[256,8,128]{2,1,0}, bf16[256,8]{1,0}, /*index=850*/bf16[1,2048,14336]{2,1,0}, bf16[1,2048,14336]{2,1,0}, bf16[1,14336,2048]{2,1,0}, bf16[4096]{0}, bf16[4096]{0}, /*index=855*/bf16[256,8,128]{2,1,0}, bf16[32,128,256]{2,1,0}, bf16[256,32,128]{2,1,0}, bf16[256,8,128]{2,1,0}, bf16[256,8]{1,0}, /*index=860*/bf16[1,2048,14336]{2,1,0}, bf16[1,2048,14336]{2,1,0}, bf16[1,14336,2048]{2,1,0}, bf16[4096]{0}, bf16[4096]{0}, /*index=865*/bf16[256,8,128]{2,1,0}, bf16[32,128,256]{2,1,0}, bf16[256,32,128]{2,1,0}, bf16[256,8,128]{2,1,0}, bf16[256,8]{1,0}, /*index=870*/bf16[1,2048,14336]{2,1,0}, bf16[1,2048,14336]{2,1,0}, bf16[1,14336,2048]{2,1,0}, bf16[4096]{0}, bf16[4096]{0}, /*index=875*/bf16[256,8,128]{2,1,0}, bf16[32,128,256]{2,1,0}, bf16[256,32,128]{2,1,0}, bf16[256,8,128]{2,1,0}, bf16[256,8]{1,0}, /*index=880*/bf16[1,2048,14336]{2,1,0}, bf16[1,2048,14336]{2,1,0}, bf16[1,14336,2048]{2,1,0}, bf16[4096]{0}, bf16[4096]{0}, /*index=885*/bf16[256,8,128]{2,1,0}, bf16[32,128,256]{2,1,0}, bf16[256,32,128]{2,1,0}, bf16[256,8,128]{2,1,0}, bf16[256,8]{1,0}, /*index=890*/bf16[1,2048,14336]{2,1,0}, bf16[1,2048,14336]{2,1,0}, bf16[1,14336,2048]{2,1,0}, bf16[4096]{0}, bf16[4096]{0}, /*index=895*/bf16[256,8,128]{2,1,0}, bf16[32,128,256]{2,1,0}, bf16[256,32,128]{2,1,0}, bf16[256,8,128]{2,1,0}, bf16[256,8]{1,0}, /*index=900*/bf16[1,2048,14336]{2,1,0}, bf16[1,2048,14336]{2,1,0}, bf16[1,14336,2048]{2,1,0}, bf16[4096]{0}, bf16[4096]{0}, /*index=905*/bf16[256,8,128]{2,1,0}, bf16[32,128,256]{2,1,0}, bf16[256,32,128]{2,1,0}, bf16[256,8,128]{2,1,0}, bf16[256,8]{1,0}, /*index=910*/bf16[1,2048,14336]{2,1,0}, bf16[1,2048,14336]{2,1,0}, bf16[1,14336,2048]{2,1,0}, bf16[4096]{0}, bf16[4096]{0}, /*index=915*/bf16[256,8,128]{2,1,0}, bf16[32,128,256]{2,1,0}, bf16[256,32,128]{2,1,0}, bf16[256,8,128]{2,1,0}, bf16[256,8]{1,0}, /*index=920*/bf16[1,2048,14336]{2,1,0}, bf16[1,2048,14336]{2,1,0}, bf16[1,14336,2048]{2,1,0}, bf16[4096]{0}, bf16[4096]{0}, /*index=925*/bf16[256,8,128]{2,1,0}, bf16[32,128,256]{2,1,0}, bf16[256,32,128]{2,1,0}, bf16[256,8,128]{2,1,0}, bf16[256,8]{1,0}, /*index=930*/bf16[1,2048,14336]{2,1,0}, bf16[1,2048,14336]{2,1,0}, bf16[1,14336,2048]{2,1,0}, bf16[4096]{0}, bf16[4096]{0}, /*index=935*/bf16[256,8,128]{2,1,0}, bf16[32,128,256]{2,1,0}, bf16[256,32,128]{2,1,0}, bf16[256,8,128]{2,1,0}, bf16[256,8]{1,0}, /*index=940*/bf16[1,2048,14336]{2,1,0}, bf16[1,2048,14336]{2,1,0}, bf16[1,14336,2048]{2,1,0}, bf16[4096]{0}, bf16[4096]{0}, /*index=945*/bf16[256,8,128]{2,1,0}, bf16[32,128,256]{2,1,0}, bf16[256,32,128]{2,1,0}, bf16[256,8,128]{2,1,0}, bf16[256,8]{1,0}, /*index=950*/bf16[1,2048,14336]{2,1,0}, bf16[1,2048,14336]{2,1,0}, bf16[1,14336,2048]{2,1,0}, bf16[4096]{0}, bf16[4096]{0}, /*index=955*/bf16[256,8,128]{2,1,0}, bf16[32,128,256]{2,1,0}, bf16[256,32,128]{2,1,0}, bf16[256,8,128]{2,1,0}, bf16[256,8]{1,0}, /*index=960*/bf16[1,2048,14336]{2,1,0}, bf16[1,2048,14336]{2,1,0}, bf16[1,14336,2048]{2,1,0}, bf16[4096]{0}, bf16[4096]{0}, /*index=965*/bf16[256,8,128]{2,1,0}, bf16[32,128,256]{2,1,0}, bf16[256,32,128]{2,1,0}, bf16[256,8,128]{2,1,0}, bf16[256,32000]{1,0}, /*index=970*/bf16[32000,256]{1,0}, s32[], bf16[], f32[], f32[], /*index=975*/bf16[], bf16[], s32[])}

region_13.1655 {
  Arg_0.1652 = s32[] parameter(0)
  Arg_1.1653 = s32[] parameter(1)
  ROOT add.1654 = s32[] add(Arg_0.1652, Arg_1.1653)
}

region_14.1663 {
  Arg_0.1660 = s32[] parameter(0)
  Arg_1.1661 = s32[] parameter(1)
  ROOT add.1662 = s32[] add(Arg_0.1660, Arg_1.1661)
}

region_15.1668 {
  Arg_0.1665 = s32[] parameter(0)
  Arg_1.1666 = s32[] parameter(1)
  ROOT maximum.1667 = s32[] maximum(Arg_0.1665, Arg_1.1666)
}

region_24.1959 {
  Arg_0.1956 = s32[] parameter(0)
  Arg_1.1957 = s32[] parameter(1)
  ROOT add.1958 = s32[] add(Arg_0.1956, Arg_1.1957)
}

region_25.1967 {
  Arg_0.1964 = s32[] parameter(0)
  Arg_1.1965 = s32[] parameter(1)
  ROOT add.1966 = s32[] add(Arg_0.1964, Arg_1.1965)
}

region_26.1972 {
  Arg_0.1969 = s32[] parameter(0)
  Arg_1.1970 = s32[] parameter(1)
  ROOT maximum.1971 = s32[] maximum(Arg_0.1969, Arg_1.1970)
}

region_35.2263 {
  Arg_0.2260 = s32[] parameter(0)
  Arg_1.2261 = s32[] parameter(1)
  ROOT add.2262 = s32[] add(Arg_0.2260, Arg_1.2261)
}

region_36.2271 {
  Arg_0.2268 = s32[] parameter(0)
  Arg_1.2269 = s32[] parameter(1)
  ROOT add.2270 = s32[] add(Arg_0.2268, Arg_1.2269)
}

region_37.2276 {
  Arg_0.2273 = s32[] parameter(0)
  Arg_1.2274 = s32[] parameter(1)
  ROOT maximum.2275 = s32[] maximum(Arg_0.2273, Arg_1.2274)
}

region_46.2567 {
  Arg_0.2564 = s32[] parameter(0)
  Arg_1.2565 = s32[] parameter(1)
  ROOT add.2566 = s32[] add(Arg_0.2564, Arg_1.2565)
}

region_47.2575 {
  Arg_0.2572 = s32[] parameter(0)
  Arg_1.2573 = s32[] parameter(1)
  ROOT add.2574 = s32[] add(Arg_0.2572, Arg_1.2573)
}

region_48.2580 {
  Arg_0.2577 = s32[] parameter(0)
  Arg_1.2578 = s32[] parameter(1)
  ROOT maximum.2579 = s32[] maximum(Arg_0.2577, Arg_1.2578)
}

region_57.2871 {
  Arg_0.2868 = s32[] parameter(0)
  Arg_1.2869 = s32[] parameter(1)
  ROOT add.2870 = s32[] add(Arg_0.2868, Arg_1.2869)
}

region_58.2879 {
  Arg_0.2876 = s32[] parameter(0)
  Arg_1.2877 = s32[] parameter(1)
  ROOT add.2878 = s32[] add(Arg_0.2876, Arg_1.2877)
}

region_59.2884 {
  Arg_0.2881 = s32[] parameter(0)
  Arg_1.2882 = s32[] parameter(1)
  ROOT maximum.2883 = s32[] maximum(Arg_0.2881, Arg_1.2882)
}

region_68.3175 {
  Arg_0.3172 = s32[] parameter(0)
  Arg_1.3173 = s32[] parameter(1)
  ROOT add.3174 = s32[] add(Arg_0.3172, Arg_1.3173)
}

region_69.3183 {
  Arg_0.3180 = s32[] parameter(0)
  Arg_1.3181 = s32[] parameter(1)
  ROOT add.3182 = s32[] add(Arg_0.3180, Arg_1.3181)
}

region_70.3188 {
  Arg_0.3185 = s32[] parameter(0)
  Arg_1.3186 = s32[] parameter(1)
  ROOT maximum.3187 = s32[] maximum(Arg_0.3185, Arg_1.3186)
}

region_79.3479 {
  Arg_0.3476 = s32[] parameter(0)
  Arg_1.3477 = s32[] parameter(1)
  ROOT add.3478 = s32[] add(Arg_0.3476, Arg_1.3477)
}

region_80.3487 {
  Arg_0.3484 = s32[] parameter(0)
  Arg_1.3485 = s32[] parameter(1)
  ROOT add.3486 = s32[] add(Arg_0.3484, Arg_1.3485)
}

region_81.3492 {
  Arg_0.3489 = s32[] parameter(0)
  Arg_1.3490 = s32[] parameter(1)
  ROOT maximum.3491 = s32[] maximum(Arg_0.3489, Arg_1.3490)
}

region_90.3783 {
  Arg_0.3780 = s32[] parameter(0)
  Arg_1.3781 = s32[] parameter(1)
  ROOT add.3782 = s32[] add(Arg_0.3780, Arg_1.3781)
}

region_91.3791 {
  Arg_0.3788 = s32[] parameter(0)
  Arg_1.3789 = s32[] parameter(1)
  ROOT add.3790 = s32[] add(Arg_0.3788, Arg_1.3789)
}

region_92.3796 {
  Arg_0.3793 = s32[] parameter(0)
  Arg_1.3794 = s32[] parameter(1)
  ROOT maximum.3795 = s32[] maximum(Arg_0.3793, Arg_1.3794)
}

region_101.4087 {
  Arg_0.4084 = s32[] parameter(0)
  Arg_1.4085 = s32[] parameter(1)
  ROOT add.4086 = s32[] add(Arg_0.4084, Arg_1.4085)
}

region_102.4095 {
  Arg_0.4092 = s32[] parameter(0)
  Arg_1.4093 = s32[] parameter(1)
  ROOT add.4094 = s32[] add(Arg_0.4092, Arg_1.4093)
}

region_103.4100 {
  Arg_0.4097 = s32[] parameter(0)
  Arg_1.4098 = s32[] parameter(1)
  ROOT maximum.4099 = s32[] maximum(Arg_0.4097, Arg_1.4098)
}

region_112.4391 {
  Arg_0.4388 = s32[] parameter(0)
  Arg_1.4389 = s32[] parameter(1)
  ROOT add.4390 = s32[] add(Arg_0.4388, Arg_1.4389)
}

region_113.4399 {
  Arg_0.4396 = s32[] parameter(0)
  Arg_1.4397 = s32[] parameter(1)
  ROOT add.4398 = s32[] add(Arg_0.4396, Arg_1.4397)
}

region_114.4404 {
  Arg_0.4401 = s32[] parameter(0)
  Arg_1.4402 = s32[] parameter(1)
  ROOT maximum.4403 = s32[] maximum(Arg_0.4401, Arg_1.4402)
}

region_123.4695 {
  Arg_0.4692 = s32[] parameter(0)
  Arg_1.4693 = s32[] parameter(1)
  ROOT add.4694 = s32[] add(Arg_0.4692, Arg_1.4693)
}

region_124.4703 {
  Arg_0.4700 = s32[] parameter(0)
  Arg_1.4701 = s32[] parameter(1)
  ROOT add.4702 = s32[] add(Arg_0.4700, Arg_1.4701)
}

region_125.4708 {
  Arg_0.4705 = s32[] parameter(0)
  Arg_1.4706 = s32[] parameter(1)
  ROOT maximum.4707 = s32[] maximum(Arg_0.4705, Arg_1.4706)
}

region_134.4999 {
  Arg_0.4996 = s32[] parameter(0)
  Arg_1.4997 = s32[] parameter(1)
  ROOT add.4998 = s32[] add(Arg_0.4996, Arg_1.4997)
}

region_135.5007 {
  Arg_0.5004 = s32[] parameter(0)
  Arg_1.5005 = s32[] parameter(1)
  ROOT add.5006 = s32[] add(Arg_0.5004, Arg_1.5005)
}

region_136.5012 {
  Arg_0.5009 = s32[] parameter(0)
  Arg_1.5010 = s32[] parameter(1)
  ROOT maximum.5011 = s32[] maximum(Arg_0.5009, Arg_1.5010)
}

region_145.5303 {
  Arg_0.5300 = s32[] parameter(0)
  Arg_1.5301 = s32[] parameter(1)
  ROOT add.5302 = s32[] add(Arg_0.5300, Arg_1.5301)
}

region_146.5311 {
  Arg_0.5308 = s32[] parameter(0)
  Arg_1.5309 = s32[] parameter(1)
  ROOT add.5310 = s32[] add(Arg_0.5308, Arg_1.5309)
}

region_147.5316 {
  Arg_0.5313 = s32[] parameter(0)
  Arg_1.5314 = s32[] parameter(1)
  ROOT maximum.5315 = s32[] maximum(Arg_0.5313, Arg_1.5314)
}

region_156.5607 {
  Arg_0.5604 = s32[] parameter(0)
  Arg_1.5605 = s32[] parameter(1)
  ROOT add.5606 = s32[] add(Arg_0.5604, Arg_1.5605)
}

region_157.5615 {
  Arg_0.5612 = s32[] parameter(0)
  Arg_1.5613 = s32[] parameter(1)
  ROOT add.5614 = s32[] add(Arg_0.5612, Arg_1.5613)
}

region_158.5620 {
  Arg_0.5617 = s32[] parameter(0)
  Arg_1.5618 = s32[] parameter(1)
  ROOT maximum.5619 = s32[] maximum(Arg_0.5617, Arg_1.5618)
}

region_167.5911 {
  Arg_0.5908 = s32[] parameter(0)
  Arg_1.5909 = s32[] parameter(1)
  ROOT add.5910 = s32[] add(Arg_0.5908, Arg_1.5909)
}

region_168.5919 {
  Arg_0.5916 = s32[] parameter(0)
  Arg_1.5917 = s32[] parameter(1)
  ROOT add.5918 = s32[] add(Arg_0.5916, Arg_1.5917)
}

region_169.5924 {
  Arg_0.5921 = s32[] parameter(0)
  Arg_1.5922 = s32[] parameter(1)
  ROOT maximum.5923 = s32[] maximum(Arg_0.5921, Arg_1.5922)
}

region_178.6215 {
  Arg_0.6212 = s32[] parameter(0)
  Arg_1.6213 = s32[] parameter(1)
  ROOT add.6214 = s32[] add(Arg_0.6212, Arg_1.6213)
}

region_179.6223 {
  Arg_0.6220 = s32[] parameter(0)
  Arg_1.6221 = s32[] parameter(1)
  ROOT add.6222 = s32[] add(Arg_0.6220, Arg_1.6221)
}

region_180.6228 {
  Arg_0.6225 = s32[] parameter(0)
  Arg_1.6226 = s32[] parameter(1)
  ROOT maximum.6227 = s32[] maximum(Arg_0.6225, Arg_1.6226)
}

region_189.6519 {
  Arg_0.6516 = s32[] parameter(0)
  Arg_1.6517 = s32[] parameter(1)
  ROOT add.6518 = s32[] add(Arg_0.6516, Arg_1.6517)
}

region_190.6527 {
  Arg_0.6524 = s32[] parameter(0)
  Arg_1.6525 = s32[] parameter(1)
  ROOT add.6526 = s32[] add(Arg_0.6524, Arg_1.6525)
}

region_191.6532 {
  Arg_0.6529 = s32[] parameter(0)
  Arg_1.6530 = s32[] parameter(1)
  ROOT maximum.6531 = s32[] maximum(Arg_0.6529, Arg_1.6530)
}

region_200.6823 {
  Arg_0.6820 = s32[] parameter(0)
  Arg_1.6821 = s32[] parameter(1)
  ROOT add.6822 = s32[] add(Arg_0.6820, Arg_1.6821)
}

region_201.6831 {
  Arg_0.6828 = s32[] parameter(0)
  Arg_1.6829 = s32[] parameter(1)
  ROOT add.6830 = s32[] add(Arg_0.6828, Arg_1.6829)
}

region_202.6836 {
  Arg_0.6833 = s32[] parameter(0)
  Arg_1.6834 = s32[] parameter(1)
  ROOT maximum.6835 = s32[] maximum(Arg_0.6833, Arg_1.6834)
}

region_211.7127 {
  Arg_0.7124 = s32[] parameter(0)
  Arg_1.7125 = s32[] parameter(1)
  ROOT add.7126 = s32[] add(Arg_0.7124, Arg_1.7125)
}

region_212.7135 {
  Arg_0.7132 = s32[] parameter(0)
  Arg_1.7133 = s32[] parameter(1)
  ROOT add.7134 = s32[] add(Arg_0.7132, Arg_1.7133)
}

region_213.7140 {
  Arg_0.7137 = s32[] parameter(0)
  Arg_1.7138 = s32[] parameter(1)
  ROOT maximum.7139 = s32[] maximum(Arg_0.7137, Arg_1.7138)
}

region_222.7431 {
  Arg_0.7428 = s32[] parameter(0)
  Arg_1.7429 = s32[] parameter(1)
  ROOT add.7430 = s32[] add(Arg_0.7428, Arg_1.7429)
}

region_223.7439 {
  Arg_0.7436 = s32[] parameter(0)
  Arg_1.7437 = s32[] parameter(1)
  ROOT add.7438 = s32[] add(Arg_0.7436, Arg_1.7437)
}

region_224.7444 {
  Arg_0.7441 = s32[] parameter(0)
  Arg_1.7442 = s32[] parameter(1)
  ROOT maximum.7443 = s32[] maximum(Arg_0.7441, Arg_1.7442)
}

region_233.7735 {
  Arg_0.7732 = s32[] parameter(0)
  Arg_1.7733 = s32[] parameter(1)
  ROOT add.7734 = s32[] add(Arg_0.7732, Arg_1.7733)
}

region_234.7743 {
  Arg_0.7740 = s32[] parameter(0)
  Arg_1.7741 = s32[] parameter(1)
  ROOT add.7742 = s32[] add(Arg_0.7740, Arg_1.7741)
}

region_235.7748 {
  Arg_0.7745 = s32[] parameter(0)
  Arg_1.7746 = s32[] parameter(1)
  ROOT maximum.7747 = s32[] maximum(Arg_0.7745, Arg_1.7746)
}

region_244.8039 {
  Arg_0.8036 = s32[] parameter(0)
  Arg_1.8037 = s32[] parameter(1)
  ROOT add.8038 = s32[] add(Arg_0.8036, Arg_1.8037)
}

region_245.8047 {
  Arg_0.8044 = s32[] parameter(0)
  Arg_1.8045 = s32[] parameter(1)
  ROOT add.8046 = s32[] add(Arg_0.8044, Arg_1.8045)
}

region_246.8052 {
  Arg_0.8049 = s32[] parameter(0)
  Arg_1.8050 = s32[] parameter(1)
  ROOT maximum.8051 = s32[] maximum(Arg_0.8049, Arg_1.8050)
}

region_255.8343 {
  Arg_0.8340 = s32[] parameter(0)
  Arg_1.8341 = s32[] parameter(1)
  ROOT add.8342 = s32[] add(Arg_0.8340, Arg_1.8341)
}

region_256.8351 {
  Arg_0.8348 = s32[] parameter(0)
  Arg_1.8349 = s32[] parameter(1)
  ROOT add.8350 = s32[] add(Arg_0.8348, Arg_1.8349)
}

region_257.8356 {
  Arg_0.8353 = s32[] parameter(0)
  Arg_1.8354 = s32[] parameter(1)
  ROOT maximum.8355 = s32[] maximum(Arg_0.8353, Arg_1.8354)
}

region_266.8647 {
  Arg_0.8644 = s32[] parameter(0)
  Arg_1.8645 = s32[] parameter(1)
  ROOT add.8646 = s32[] add(Arg_0.8644, Arg_1.8645)
}

region_267.8655 {
  Arg_0.8652 = s32[] parameter(0)
  Arg_1.8653 = s32[] parameter(1)
  ROOT add.8654 = s32[] add(Arg_0.8652, Arg_1.8653)
}

region_268.8660 {
  Arg_0.8657 = s32[] parameter(0)
  Arg_1.8658 = s32[] parameter(1)
  ROOT maximum.8659 = s32[] maximum(Arg_0.8657, Arg_1.8658)
}

region_277.8951 {
  Arg_0.8948 = s32[] parameter(0)
  Arg_1.8949 = s32[] parameter(1)
  ROOT add.8950 = s32[] add(Arg_0.8948, Arg_1.8949)
}

region_278.8959 {
  Arg_0.8956 = s32[] parameter(0)
  Arg_1.8957 = s32[] parameter(1)
  ROOT add.8958 = s32[] add(Arg_0.8956, Arg_1.8957)
}

region_279.8964 {
  Arg_0.8961 = s32[] parameter(0)
  Arg_1.8962 = s32[] parameter(1)
  ROOT maximum.8963 = s32[] maximum(Arg_0.8961, Arg_1.8962)
}

region_288.9255 {
  Arg_0.9252 = s32[] parameter(0)
  Arg_1.9253 = s32[] parameter(1)
  ROOT add.9254 = s32[] add(Arg_0.9252, Arg_1.9253)
}

region_289.9263 {
  Arg_0.9260 = s32[] parameter(0)
  Arg_1.9261 = s32[] parameter(1)
  ROOT add.9262 = s32[] add(Arg_0.9260, Arg_1.9261)
}

region_290.9268 {
  Arg_0.9265 = s32[] parameter(0)
  Arg_1.9266 = s32[] parameter(1)
  ROOT maximum.9267 = s32[] maximum(Arg_0.9265, Arg_1.9266)
}

region_299.9559 {
  Arg_0.9556 = s32[] parameter(0)
  Arg_1.9557 = s32[] parameter(1)
  ROOT add.9558 = s32[] add(Arg_0.9556, Arg_1.9557)
}

region_300.9567 {
  Arg_0.9564 = s32[] parameter(0)
  Arg_1.9565 = s32[] parameter(1)
  ROOT add.9566 = s32[] add(Arg_0.9564, Arg_1.9565)
}

region_301.9572 {
  Arg_0.9569 = s32[] parameter(0)
  Arg_1.9570 = s32[] parameter(1)
  ROOT maximum.9571 = s32[] maximum(Arg_0.9569, Arg_1.9570)
}

region_310.9863 {
  Arg_0.9860 = s32[] parameter(0)
  Arg_1.9861 = s32[] parameter(1)
  ROOT add.9862 = s32[] add(Arg_0.9860, Arg_1.9861)
}

region_311.9871 {
  Arg_0.9868 = s32[] parameter(0)
  Arg_1.9869 = s32[] parameter(1)
  ROOT add.9870 = s32[] add(Arg_0.9868, Arg_1.9869)
}

region_312.9876 {
  Arg_0.9873 = s32[] parameter(0)
  Arg_1.9874 = s32[] parameter(1)
  ROOT maximum.9875 = s32[] maximum(Arg_0.9873, Arg_1.9874)
}

region_321.10167 {
  Arg_0.10164 = s32[] parameter(0)
  Arg_1.10165 = s32[] parameter(1)
  ROOT add.10166 = s32[] add(Arg_0.10164, Arg_1.10165)
}

region_322.10175 {
  Arg_0.10172 = s32[] parameter(0)
  Arg_1.10173 = s32[] parameter(1)
  ROOT add.10174 = s32[] add(Arg_0.10172, Arg_1.10173)
}

region_323.10180 {
  Arg_0.10177 = s32[] parameter(0)
  Arg_1.10178 = s32[] parameter(1)
  ROOT maximum.10179 = s32[] maximum(Arg_0.10177, Arg_1.10178)
}

region_332.10471 {
  Arg_0.10468 = s32[] parameter(0)
  Arg_1.10469 = s32[] parameter(1)
  ROOT add.10470 = s32[] add(Arg_0.10468, Arg_1.10469)
}

region_333.10479 {
  Arg_0.10476 = s32[] parameter(0)
  Arg_1.10477 = s32[] parameter(1)
  ROOT add.10478 = s32[] add(Arg_0.10476, Arg_1.10477)
}

region_334.10484 {
  Arg_0.10481 = s32[] parameter(0)
  Arg_1.10482 = s32[] parameter(1)
  ROOT maximum.10483 = s32[] maximum(Arg_0.10481, Arg_1.10482)
}

region_343.10775 {
  Arg_0.10772 = s32[] parameter(0)
  Arg_1.10773 = s32[] parameter(1)
  ROOT add.10774 = s32[] add(Arg_0.10772, Arg_1.10773)
}

region_344.10783 {
  Arg_0.10780 = s32[] parameter(0)
  Arg_1.10781 = s32[] parameter(1)
  ROOT add.10782 = s32[] add(Arg_0.10780, Arg_1.10781)
}

region_345.10788 {
  Arg_0.10785 = s32[] parameter(0)
  Arg_1.10786 = s32[] parameter(1)
  ROOT maximum.10787 = s32[] maximum(Arg_0.10785, Arg_1.10786)
}

region_1809.43861 {
  Arg_0.43858 = f32[] parameter(0)
  Arg_1.43859 = f32[] parameter(1)
  ROOT add.43860 = f32[] add(Arg_0.43858, Arg_1.43859)
}

region_1810.43869 {
  Arg_0.43866 = f32[] parameter(0)
  Arg_1.43867 = f32[] parameter(1)
  ROOT add.43868 = f32[] add(Arg_0.43866, Arg_1.43867)
}

region_1811.43878 {
  Arg_0.43875 = f32[] parameter(0)
  Arg_1.43876 = f32[] parameter(1)
  ROOT add.43877 = f32[] add(Arg_0.43875, Arg_1.43876)
}

region_1812.43887 {
  Arg_0.43884 = f32[] parameter(0)
  Arg_1.43885 = f32[] parameter(1)
  ROOT add.43886 = f32[] add(Arg_0.43884, Arg_1.43885)
}

region_1813.43896 {
  Arg_0.43893 = f32[] parameter(0)
  Arg_1.43894 = f32[] parameter(1)
  ROOT add.43895 = f32[] add(Arg_0.43893, Arg_1.43894)
}

region_1814.43905 {
  Arg_0.43902 = f32[] parameter(0)
  Arg_1.43903 = f32[] parameter(1)
  ROOT add.43904 = f32[] add(Arg_0.43902, Arg_1.43903)
}

region_1815.43914 {
  Arg_0.43911 = f32[] parameter(0)
  Arg_1.43912 = f32[] parameter(1)
  ROOT add.43913 = f32[] add(Arg_0.43911, Arg_1.43912)
}

region_1816.43923 {
  Arg_0.43920 = f32[] parameter(0)
  Arg_1.43921 = f32[] parameter(1)
  ROOT add.43922 = f32[] add(Arg_0.43920, Arg_1.43921)
}

region_1817.43932 {
  Arg_0.43929 = f32[] parameter(0)
  Arg_1.43930 = f32[] parameter(1)
  ROOT add.43931 = f32[] add(Arg_0.43929, Arg_1.43930)
}

region_1818.43941 {
  Arg_0.43938 = f32[] parameter(0)
  Arg_1.43939 = f32[] parameter(1)
  ROOT add.43940 = f32[] add(Arg_0.43938, Arg_1.43939)
}

region_1819.43950 {
  Arg_0.43947 = f32[] parameter(0)
  Arg_1.43948 = f32[] parameter(1)
  ROOT add.43949 = f32[] add(Arg_0.43947, Arg_1.43948)
}

region_1820.43959 {
  Arg_0.43956 = f32[] parameter(0)
  Arg_1.43957 = f32[] parameter(1)
  ROOT add.43958 = f32[] add(Arg_0.43956, Arg_1.43957)
}

region_1821.43968 {
  Arg_0.43965 = f32[] parameter(0)
  Arg_1.43966 = f32[] parameter(1)
  ROOT add.43967 = f32[] add(Arg_0.43965, Arg_1.43966)
}

region_1822.43977 {
  Arg_0.43974 = f32[] parameter(0)
  Arg_1.43975 = f32[] parameter(1)
  ROOT add.43976 = f32[] add(Arg_0.43974, Arg_1.43975)
}

region_1823.43986 {
  Arg_0.43983 = f32[] parameter(0)
  Arg_1.43984 = f32[] parameter(1)
  ROOT add.43985 = f32[] add(Arg_0.43983, Arg_1.43984)
}

region_1824.43995 {
  Arg_0.43992 = f32[] parameter(0)
  Arg_1.43993 = f32[] parameter(1)
  ROOT add.43994 = f32[] add(Arg_0.43992, Arg_1.43993)
}

region_1825.44004 {
  Arg_0.44001 = f32[] parameter(0)
  Arg_1.44002 = f32[] parameter(1)
  ROOT add.44003 = f32[] add(Arg_0.44001, Arg_1.44002)
}

region_1826.44013 {
  Arg_0.44010 = f32[] parameter(0)
  Arg_1.44011 = f32[] parameter(1)
  ROOT add.44012 = f32[] add(Arg_0.44010, Arg_1.44011)
}

region_1827.44022 {
  Arg_0.44019 = f32[] parameter(0)
  Arg_1.44020 = f32[] parameter(1)
  ROOT add.44021 = f32[] add(Arg_0.44019, Arg_1.44020)
}

region_1828.44031 {
  Arg_0.44028 = f32[] parameter(0)
  Arg_1.44029 = f32[] parameter(1)
  ROOT add.44030 = f32[] add(Arg_0.44028, Arg_1.44029)
}

region_1829.44040 {
  Arg_0.44037 = f32[] parameter(0)
  Arg_1.44038 = f32[] parameter(1)
  ROOT add.44039 = f32[] add(Arg_0.44037, Arg_1.44038)
}

region_1830.44049 {
  Arg_0.44046 = f32[] parameter(0)
  Arg_1.44047 = f32[] parameter(1)
  ROOT add.44048 = f32[] add(Arg_0.44046, Arg_1.44047)
}

region_1831.44058 {
  Arg_0.44055 = f32[] parameter(0)
  Arg_1.44056 = f32[] parameter(1)
  ROOT add.44057 = f32[] add(Arg_0.44055, Arg_1.44056)
}

region_1832.44067 {
  Arg_0.44064 = f32[] parameter(0)
  Arg_1.44065 = f32[] parameter(1)
  ROOT add.44066 = f32[] add(Arg_0.44064, Arg_1.44065)
}

region_1833.44076 {
  Arg_0.44073 = f32[] parameter(0)
  Arg_1.44074 = f32[] parameter(1)
  ROOT add.44075 = f32[] add(Arg_0.44073, Arg_1.44074)
}

region_1834.44085 {
  Arg_0.44082 = f32[] parameter(0)
  Arg_1.44083 = f32[] parameter(1)
  ROOT add.44084 = f32[] add(Arg_0.44082, Arg_1.44083)
}

region_1835.44094 {
  Arg_0.44091 = f32[] parameter(0)
  Arg_1.44092 = f32[] parameter(1)
  ROOT add.44093 = f32[] add(Arg_0.44091, Arg_1.44092)
}

region_1836.44103 {
  Arg_0.44100 = f32[] parameter(0)
  Arg_1.44101 = f32[] parameter(1)
  ROOT add.44102 = f32[] add(Arg_0.44100, Arg_1.44101)
}

region_1837.44112 {
  Arg_0.44109 = f32[] parameter(0)
  Arg_1.44110 = f32[] parameter(1)
  ROOT add.44111 = f32[] add(Arg_0.44109, Arg_1.44110)
}

region_1838.44121 {
  Arg_0.44118 = f32[] parameter(0)
  Arg_1.44119 = f32[] parameter(1)
  ROOT add.44120 = f32[] add(Arg_0.44118, Arg_1.44119)
}

region_1839.44130 {
  Arg_0.44127 = f32[] parameter(0)
  Arg_1.44128 = f32[] parameter(1)
  ROOT add.44129 = f32[] add(Arg_0.44127, Arg_1.44128)
}

region_1840.44139 {
  Arg_0.44136 = f32[] parameter(0)
  Arg_1.44137 = f32[] parameter(1)
  ROOT add.44138 = f32[] add(Arg_0.44136, Arg_1.44137)
}

region_1841.44148 {
  Arg_0.44145 = f32[] parameter(0)
  Arg_1.44146 = f32[] parameter(1)
  ROOT add.44147 = f32[] add(Arg_0.44145, Arg_1.44146)
}

region_1842.44157 {
  Arg_0.44154 = f32[] parameter(0)
  Arg_1.44155 = f32[] parameter(1)
  ROOT add.44156 = f32[] add(Arg_0.44154, Arg_1.44155)
}

region_1843.44166 {
  Arg_0.44163 = f32[] parameter(0)
  Arg_1.44164 = f32[] parameter(1)
  ROOT add.44165 = f32[] add(Arg_0.44163, Arg_1.44164)
}

region_1844.44175 {
  Arg_0.44172 = f32[] parameter(0)
  Arg_1.44173 = f32[] parameter(1)
  ROOT add.44174 = f32[] add(Arg_0.44172, Arg_1.44173)
}

region_1845.44184 {
  Arg_0.44181 = f32[] parameter(0)
  Arg_1.44182 = f32[] parameter(1)
  ROOT add.44183 = f32[] add(Arg_0.44181, Arg_1.44182)
}

region_1846.44193 {
  Arg_0.44190 = f32[] parameter(0)
  Arg_1.44191 = f32[] parameter(1)
  ROOT add.44192 = f32[] add(Arg_0.44190, Arg_1.44191)
}

region_1847.44202 {
  Arg_0.44199 = f32[] parameter(0)
  Arg_1.44200 = f32[] parameter(1)
  ROOT add.44201 = f32[] add(Arg_0.44199, Arg_1.44200)
}

region_1848.44211 {
  Arg_0.44208 = f32[] parameter(0)
  Arg_1.44209 = f32[] parameter(1)
  ROOT add.44210 = f32[] add(Arg_0.44208, Arg_1.44209)
}

region_1849.44220 {
  Arg_0.44217 = f32[] parameter(0)
  Arg_1.44218 = f32[] parameter(1)
  ROOT add.44219 = f32[] add(Arg_0.44217, Arg_1.44218)
}

region_1850.44229 {
  Arg_0.44226 = f32[] parameter(0)
  Arg_1.44227 = f32[] parameter(1)
  ROOT add.44228 = f32[] add(Arg_0.44226, Arg_1.44227)
}

region_1851.44238 {
  Arg_0.44235 = f32[] parameter(0)
  Arg_1.44236 = f32[] parameter(1)
  ROOT add.44237 = f32[] add(Arg_0.44235, Arg_1.44236)
}

region_1852.44247 {
  Arg_0.44244 = f32[] parameter(0)
  Arg_1.44245 = f32[] parameter(1)
  ROOT add.44246 = f32[] add(Arg_0.44244, Arg_1.44245)
}

region_1853.44256 {
  Arg_0.44253 = f32[] parameter(0)
  Arg_1.44254 = f32[] parameter(1)
  ROOT add.44255 = f32[] add(Arg_0.44253, Arg_1.44254)
}

region_1854.44265 {
  Arg_0.44262 = f32[] parameter(0)
  Arg_1.44263 = f32[] parameter(1)
  ROOT add.44264 = f32[] add(Arg_0.44262, Arg_1.44263)
}

region_1855.44274 {
  Arg_0.44271 = f32[] parameter(0)
  Arg_1.44272 = f32[] parameter(1)
  ROOT add.44273 = f32[] add(Arg_0.44271, Arg_1.44272)
}

region_1856.44283 {
  Arg_0.44280 = f32[] parameter(0)
  Arg_1.44281 = f32[] parameter(1)
  ROOT add.44282 = f32[] add(Arg_0.44280, Arg_1.44281)
}

region_1857.44292 {
  Arg_0.44289 = f32[] parameter(0)
  Arg_1.44290 = f32[] parameter(1)
  ROOT add.44291 = f32[] add(Arg_0.44289, Arg_1.44290)
}

region_1858.44301 {
  Arg_0.44298 = f32[] parameter(0)
  Arg_1.44299 = f32[] parameter(1)
  ROOT add.44300 = f32[] add(Arg_0.44298, Arg_1.44299)
}

region_1859.44310 {
  Arg_0.44307 = f32[] parameter(0)
  Arg_1.44308 = f32[] parameter(1)
  ROOT add.44309 = f32[] add(Arg_0.44307, Arg_1.44308)
}

region_1860.44319 {
  Arg_0.44316 = f32[] parameter(0)
  Arg_1.44317 = f32[] parameter(1)
  ROOT add.44318 = f32[] add(Arg_0.44316, Arg_1.44317)
}

region_1861.44328 {
  Arg_0.44325 = f32[] parameter(0)
  Arg_1.44326 = f32[] parameter(1)
  ROOT add.44327 = f32[] add(Arg_0.44325, Arg_1.44326)
}

region_1862.44337 {
  Arg_0.44334 = f32[] parameter(0)
  Arg_1.44335 = f32[] parameter(1)
  ROOT add.44336 = f32[] add(Arg_0.44334, Arg_1.44335)
}

region_1863.44346 {
  Arg_0.44343 = f32[] parameter(0)
  Arg_1.44344 = f32[] parameter(1)
  ROOT add.44345 = f32[] add(Arg_0.44343, Arg_1.44344)
}

region_1864.44355 {
  Arg_0.44352 = f32[] parameter(0)
  Arg_1.44353 = f32[] parameter(1)
  ROOT add.44354 = f32[] add(Arg_0.44352, Arg_1.44353)
}

region_1865.44364 {
  Arg_0.44361 = f32[] parameter(0)
  Arg_1.44362 = f32[] parameter(1)
  ROOT add.44363 = f32[] add(Arg_0.44361, Arg_1.44362)
}

region_1866.44373 {
  Arg_0.44370 = f32[] parameter(0)
  Arg_1.44371 = f32[] parameter(1)
  ROOT add.44372 = f32[] add(Arg_0.44370, Arg_1.44371)
}

region_1867.44382 {
  Arg_0.44379 = f32[] parameter(0)
  Arg_1.44380 = f32[] parameter(1)
  ROOT add.44381 = f32[] add(Arg_0.44379, Arg_1.44380)
}

region_1868.44391 {
  Arg_0.44388 = f32[] parameter(0)
  Arg_1.44389 = f32[] parameter(1)
  ROOT add.44390 = f32[] add(Arg_0.44388, Arg_1.44389)
}

region_1869.44400 {
  Arg_0.44397 = f32[] parameter(0)
  Arg_1.44398 = f32[] parameter(1)
  ROOT add.44399 = f32[] add(Arg_0.44397, Arg_1.44398)
}

region_1870.44409 {
  Arg_0.44406 = f32[] parameter(0)
  Arg_1.44407 = f32[] parameter(1)
  ROOT add.44408 = f32[] add(Arg_0.44406, Arg_1.44407)
}

region_1871.44418 {
  Arg_0.44415 = f32[] parameter(0)
  Arg_1.44416 = f32[] parameter(1)
  ROOT add.44417 = f32[] add(Arg_0.44415, Arg_1.44416)
}

region_1872.44427 {
  Arg_0.44424 = f32[] parameter(0)
  Arg_1.44425 = f32[] parameter(1)
  ROOT add.44426 = f32[] add(Arg_0.44424, Arg_1.44425)
}

region_1873.44436 {
  Arg_0.44433 = f32[] parameter(0)
  Arg_1.44434 = f32[] parameter(1)
  ROOT add.44435 = f32[] add(Arg_0.44433, Arg_1.44434)
}

region_1874.44445 {
  Arg_0.44442 = f32[] parameter(0)
  Arg_1.44443 = f32[] parameter(1)
  ROOT add.44444 = f32[] add(Arg_0.44442, Arg_1.44443)
}

region_1875.44454 {
  Arg_0.44451 = f32[] parameter(0)
  Arg_1.44452 = f32[] parameter(1)
  ROOT add.44453 = f32[] add(Arg_0.44451, Arg_1.44452)
}

region_1876.44463 {
  Arg_0.44460 = f32[] parameter(0)
  Arg_1.44461 = f32[] parameter(1)
  ROOT add.44462 = f32[] add(Arg_0.44460, Arg_1.44461)
}

region_1877.44472 {
  Arg_0.44469 = f32[] parameter(0)
  Arg_1.44470 = f32[] parameter(1)
  ROOT add.44471 = f32[] add(Arg_0.44469, Arg_1.44470)
}

region_1878.44481 {
  Arg_0.44478 = f32[] parameter(0)
  Arg_1.44479 = f32[] parameter(1)
  ROOT add.44480 = f32[] add(Arg_0.44478, Arg_1.44479)
}

region_1879.44490 {
  Arg_0.44487 = f32[] parameter(0)
  Arg_1.44488 = f32[] parameter(1)
  ROOT add.44489 = f32[] add(Arg_0.44487, Arg_1.44488)
}

region_1880.44499 {
  Arg_0.44496 = f32[] parameter(0)
  Arg_1.44497 = f32[] parameter(1)
  ROOT add.44498 = f32[] add(Arg_0.44496, Arg_1.44497)
}

region_1881.44508 {
  Arg_0.44505 = f32[] parameter(0)
  Arg_1.44506 = f32[] parameter(1)
  ROOT add.44507 = f32[] add(Arg_0.44505, Arg_1.44506)
}

region_1882.44517 {
  Arg_0.44514 = f32[] parameter(0)
  Arg_1.44515 = f32[] parameter(1)
  ROOT add.44516 = f32[] add(Arg_0.44514, Arg_1.44515)
}

region_1883.44526 {
  Arg_0.44523 = f32[] parameter(0)
  Arg_1.44524 = f32[] parameter(1)
  ROOT add.44525 = f32[] add(Arg_0.44523, Arg_1.44524)
}

region_1884.44535 {
  Arg_0.44532 = f32[] parameter(0)
  Arg_1.44533 = f32[] parameter(1)
  ROOT add.44534 = f32[] add(Arg_0.44532, Arg_1.44533)
}

region_1885.44544 {
  Arg_0.44541 = f32[] parameter(0)
  Arg_1.44542 = f32[] parameter(1)
  ROOT add.44543 = f32[] add(Arg_0.44541, Arg_1.44542)
}

region_1886.44553 {
  Arg_0.44550 = f32[] parameter(0)
  Arg_1.44551 = f32[] parameter(1)
  ROOT add.44552 = f32[] add(Arg_0.44550, Arg_1.44551)
}

region_1887.44562 {
  Arg_0.44559 = f32[] parameter(0)
  Arg_1.44560 = f32[] parameter(1)
  ROOT add.44561 = f32[] add(Arg_0.44559, Arg_1.44560)
}

region_1888.44571 {
  Arg_0.44568 = f32[] parameter(0)
  Arg_1.44569 = f32[] parameter(1)
  ROOT add.44570 = f32[] add(Arg_0.44568, Arg_1.44569)
}

region_1889.44580 {
  Arg_0.44577 = f32[] parameter(0)
  Arg_1.44578 = f32[] parameter(1)
  ROOT add.44579 = f32[] add(Arg_0.44577, Arg_1.44578)
}

region_1890.44589 {
  Arg_0.44586 = f32[] parameter(0)
  Arg_1.44587 = f32[] parameter(1)
  ROOT add.44588 = f32[] add(Arg_0.44586, Arg_1.44587)
}

region_1891.44598 {
  Arg_0.44595 = f32[] parameter(0)
  Arg_1.44596 = f32[] parameter(1)
  ROOT add.44597 = f32[] add(Arg_0.44595, Arg_1.44596)
}

region_1892.44607 {
  Arg_0.44604 = f32[] parameter(0)
  Arg_1.44605 = f32[] parameter(1)
  ROOT add.44606 = f32[] add(Arg_0.44604, Arg_1.44605)
}

region_1893.44616 {
  Arg_0.44613 = f32[] parameter(0)
  Arg_1.44614 = f32[] parameter(1)
  ROOT add.44615 = f32[] add(Arg_0.44613, Arg_1.44614)
}

region_1894.44625 {
  Arg_0.44622 = f32[] parameter(0)
  Arg_1.44623 = f32[] parameter(1)
  ROOT add.44624 = f32[] add(Arg_0.44622, Arg_1.44623)
}

region_1895.44634 {
  Arg_0.44631 = f32[] parameter(0)
  Arg_1.44632 = f32[] parameter(1)
  ROOT add.44633 = f32[] add(Arg_0.44631, Arg_1.44632)
}

region_1896.44643 {
  Arg_0.44640 = f32[] parameter(0)
  Arg_1.44641 = f32[] parameter(1)
  ROOT add.44642 = f32[] add(Arg_0.44640, Arg_1.44641)
}

region_1897.44652 {
  Arg_0.44649 = f32[] parameter(0)
  Arg_1.44650 = f32[] parameter(1)
  ROOT add.44651 = f32[] add(Arg_0.44649, Arg_1.44650)
}

region_1898.44661 {
  Arg_0.44658 = f32[] parameter(0)
  Arg_1.44659 = f32[] parameter(1)
  ROOT add.44660 = f32[] add(Arg_0.44658, Arg_1.44659)
}

region_1899.44670 {
  Arg_0.44667 = f32[] parameter(0)
  Arg_1.44668 = f32[] parameter(1)
  ROOT add.44669 = f32[] add(Arg_0.44667, Arg_1.44668)
}

region_1900.44679 {
  Arg_0.44676 = f32[] parameter(0)
  Arg_1.44677 = f32[] parameter(1)
  ROOT add.44678 = f32[] add(Arg_0.44676, Arg_1.44677)
}

region_1901.44688 {
  Arg_0.44685 = f32[] parameter(0)
  Arg_1.44686 = f32[] parameter(1)
  ROOT add.44687 = f32[] add(Arg_0.44685, Arg_1.44686)
}

region_1902.44697 {
  Arg_0.44694 = f32[] parameter(0)
  Arg_1.44695 = f32[] parameter(1)
  ROOT add.44696 = f32[] add(Arg_0.44694, Arg_1.44695)
}

region_1903.44706 {
  Arg_0.44703 = f32[] parameter(0)
  Arg_1.44704 = f32[] parameter(1)
  ROOT add.44705 = f32[] add(Arg_0.44703, Arg_1.44704)
}

region_1904.44715 {
  Arg_0.44712 = f32[] parameter(0)
  Arg_1.44713 = f32[] parameter(1)
  ROOT add.44714 = f32[] add(Arg_0.44712, Arg_1.44713)
}

region_1905.44724 {
  Arg_0.44721 = f32[] parameter(0)
  Arg_1.44722 = f32[] parameter(1)
  ROOT add.44723 = f32[] add(Arg_0.44721, Arg_1.44722)
}

region_1906.44733 {
  Arg_0.44730 = f32[] parameter(0)
  Arg_1.44731 = f32[] parameter(1)
  ROOT add.44732 = f32[] add(Arg_0.44730, Arg_1.44731)
}

region_1907.44742 {
  Arg_0.44739 = f32[] parameter(0)
  Arg_1.44740 = f32[] parameter(1)
  ROOT add.44741 = f32[] add(Arg_0.44739, Arg_1.44740)
}

region_1908.44751 {
  Arg_0.44748 = f32[] parameter(0)
  Arg_1.44749 = f32[] parameter(1)
  ROOT add.44750 = f32[] add(Arg_0.44748, Arg_1.44749)
}

region_1909.44760 {
  Arg_0.44757 = f32[] parameter(0)
  Arg_1.44758 = f32[] parameter(1)
  ROOT add.44759 = f32[] add(Arg_0.44757, Arg_1.44758)
}

region_1910.44769 {
  Arg_0.44766 = f32[] parameter(0)
  Arg_1.44767 = f32[] parameter(1)
  ROOT add.44768 = f32[] add(Arg_0.44766, Arg_1.44767)
}

region_1911.44778 {
  Arg_0.44775 = f32[] parameter(0)
  Arg_1.44776 = f32[] parameter(1)
  ROOT add.44777 = f32[] add(Arg_0.44775, Arg_1.44776)
}

region_1912.44787 {
  Arg_0.44784 = f32[] parameter(0)
  Arg_1.44785 = f32[] parameter(1)
  ROOT add.44786 = f32[] add(Arg_0.44784, Arg_1.44785)
}

region_1913.44796 {
  Arg_0.44793 = f32[] parameter(0)
  Arg_1.44794 = f32[] parameter(1)
  ROOT add.44795 = f32[] add(Arg_0.44793, Arg_1.44794)
}

region_1914.44805 {
  Arg_0.44802 = f32[] parameter(0)
  Arg_1.44803 = f32[] parameter(1)
  ROOT add.44804 = f32[] add(Arg_0.44802, Arg_1.44803)
}

region_1915.44814 {
  Arg_0.44811 = f32[] parameter(0)
  Arg_1.44812 = f32[] parameter(1)
  ROOT add.44813 = f32[] add(Arg_0.44811, Arg_1.44812)
}

region_1916.44823 {
  Arg_0.44820 = f32[] parameter(0)
  Arg_1.44821 = f32[] parameter(1)
  ROOT add.44822 = f32[] add(Arg_0.44820, Arg_1.44821)
}

region_1917.44832 {
  Arg_0.44829 = f32[] parameter(0)
  Arg_1.44830 = f32[] parameter(1)
  ROOT add.44831 = f32[] add(Arg_0.44829, Arg_1.44830)
}

region_1918.44841 {
  Arg_0.44838 = f32[] parameter(0)
  Arg_1.44839 = f32[] parameter(1)
  ROOT add.44840 = f32[] add(Arg_0.44838, Arg_1.44839)
}

region_1919.44850 {
  Arg_0.44847 = f32[] parameter(0)
  Arg_1.44848 = f32[] parameter(1)
  ROOT add.44849 = f32[] add(Arg_0.44847, Arg_1.44848)
}

region_1920.44859 {
  Arg_0.44856 = f32[] parameter(0)
  Arg_1.44857 = f32[] parameter(1)
  ROOT add.44858 = f32[] add(Arg_0.44856, Arg_1.44857)
}

region_1921.44868 {
  Arg_0.44865 = f32[] parameter(0)
  Arg_1.44866 = f32[] parameter(1)
  ROOT add.44867 = f32[] add(Arg_0.44865, Arg_1.44866)
}

region_1922.44877 {
  Arg_0.44874 = f32[] parameter(0)
  Arg_1.44875 = f32[] parameter(1)
  ROOT add.44876 = f32[] add(Arg_0.44874, Arg_1.44875)
}

region_1923.44886 {
  Arg_0.44883 = f32[] parameter(0)
  Arg_1.44884 = f32[] parameter(1)
  ROOT add.44885 = f32[] add(Arg_0.44883, Arg_1.44884)
}

region_1924.44895 {
  Arg_0.44892 = f32[] parameter(0)
  Arg_1.44893 = f32[] parameter(1)
  ROOT add.44894 = f32[] add(Arg_0.44892, Arg_1.44893)
}

region_1925.44904 {
  Arg_0.44901 = f32[] parameter(0)
  Arg_1.44902 = f32[] parameter(1)
  ROOT add.44903 = f32[] add(Arg_0.44901, Arg_1.44902)
}

region_1926.44913 {
  Arg_0.44910 = f32[] parameter(0)
  Arg_1.44911 = f32[] parameter(1)
  ROOT add.44912 = f32[] add(Arg_0.44910, Arg_1.44911)
}

region_1927.44922 {
  Arg_0.44919 = f32[] parameter(0)
  Arg_1.44920 = f32[] parameter(1)
  ROOT add.44921 = f32[] add(Arg_0.44919, Arg_1.44920)
}

region_1928.44931 {
  Arg_0.44928 = f32[] parameter(0)
  Arg_1.44929 = f32[] parameter(1)
  ROOT add.44930 = f32[] add(Arg_0.44928, Arg_1.44929)
}

region_1929.44940 {
  Arg_0.44937 = f32[] parameter(0)
  Arg_1.44938 = f32[] parameter(1)
  ROOT add.44939 = f32[] add(Arg_0.44937, Arg_1.44938)
}

region_1930.44949 {
  Arg_0.44946 = f32[] parameter(0)
  Arg_1.44947 = f32[] parameter(1)
  ROOT add.44948 = f32[] add(Arg_0.44946, Arg_1.44947)
}

region_1931.44958 {
  Arg_0.44955 = f32[] parameter(0)
  Arg_1.44956 = f32[] parameter(1)
  ROOT add.44957 = f32[] add(Arg_0.44955, Arg_1.44956)
}

region_1932.44967 {
  Arg_0.44964 = f32[] parameter(0)
  Arg_1.44965 = f32[] parameter(1)
  ROOT add.44966 = f32[] add(Arg_0.44964, Arg_1.44965)
}

region_1933.44976 {
  Arg_0.44973 = f32[] parameter(0)
  Arg_1.44974 = f32[] parameter(1)
  ROOT add.44975 = f32[] add(Arg_0.44973, Arg_1.44974)
}

region_1934.44985 {
  Arg_0.44982 = f32[] parameter(0)
  Arg_1.44983 = f32[] parameter(1)
  ROOT add.44984 = f32[] add(Arg_0.44982, Arg_1.44983)
}

region_1935.44994 {
  Arg_0.44991 = f32[] parameter(0)
  Arg_1.44992 = f32[] parameter(1)
  ROOT add.44993 = f32[] add(Arg_0.44991, Arg_1.44992)
}

region_1936.45003 {
  Arg_0.45000 = f32[] parameter(0)
  Arg_1.45001 = f32[] parameter(1)
  ROOT add.45002 = f32[] add(Arg_0.45000, Arg_1.45001)
}

region_1937.45012 {
  Arg_0.45009 = f32[] parameter(0)
  Arg_1.45010 = f32[] parameter(1)
  ROOT add.45011 = f32[] add(Arg_0.45009, Arg_1.45010)
}

region_1938.45021 {
  Arg_0.45018 = f32[] parameter(0)
  Arg_1.45019 = f32[] parameter(1)
  ROOT add.45020 = f32[] add(Arg_0.45018, Arg_1.45019)
}

region_1939.45030 {
  Arg_0.45027 = f32[] parameter(0)
  Arg_1.45028 = f32[] parameter(1)
  ROOT add.45029 = f32[] add(Arg_0.45027, Arg_1.45028)
}

region_1940.45039 {
  Arg_0.45036 = f32[] parameter(0)
  Arg_1.45037 = f32[] parameter(1)
  ROOT add.45038 = f32[] add(Arg_0.45036, Arg_1.45037)
}

region_1941.45048 {
  Arg_0.45045 = f32[] parameter(0)
  Arg_1.45046 = f32[] parameter(1)
  ROOT add.45047 = f32[] add(Arg_0.45045, Arg_1.45046)
}

region_1942.45057 {
  Arg_0.45054 = f32[] parameter(0)
  Arg_1.45055 = f32[] parameter(1)
  ROOT add.45056 = f32[] add(Arg_0.45054, Arg_1.45055)
}

region_1943.45066 {
  Arg_0.45063 = f32[] parameter(0)
  Arg_1.45064 = f32[] parameter(1)
  ROOT add.45065 = f32[] add(Arg_0.45063, Arg_1.45064)
}

region_1944.45075 {
  Arg_0.45072 = f32[] parameter(0)
  Arg_1.45073 = f32[] parameter(1)
  ROOT add.45074 = f32[] add(Arg_0.45072, Arg_1.45073)
}

region_1945.45084 {
  Arg_0.45081 = f32[] parameter(0)
  Arg_1.45082 = f32[] parameter(1)
  ROOT add.45083 = f32[] add(Arg_0.45081, Arg_1.45082)
}

region_1946.45093 {
  Arg_0.45090 = f32[] parameter(0)
  Arg_1.45091 = f32[] parameter(1)
  ROOT add.45092 = f32[] add(Arg_0.45090, Arg_1.45091)
}

region_1947.45102 {
  Arg_0.45099 = f32[] parameter(0)
  Arg_1.45100 = f32[] parameter(1)
  ROOT add.45101 = f32[] add(Arg_0.45099, Arg_1.45100)
}

region_1948.45111 {
  Arg_0.45108 = f32[] parameter(0)
  Arg_1.45109 = f32[] parameter(1)
  ROOT add.45110 = f32[] add(Arg_0.45108, Arg_1.45109)
}

region_1949.45120 {
  Arg_0.45117 = f32[] parameter(0)
  Arg_1.45118 = f32[] parameter(1)
  ROOT add.45119 = f32[] add(Arg_0.45117, Arg_1.45118)
}

region_1950.45129 {
  Arg_0.45126 = f32[] parameter(0)
  Arg_1.45127 = f32[] parameter(1)
  ROOT add.45128 = f32[] add(Arg_0.45126, Arg_1.45127)
}

region_1951.45138 {
  Arg_0.45135 = f32[] parameter(0)
  Arg_1.45136 = f32[] parameter(1)
  ROOT add.45137 = f32[] add(Arg_0.45135, Arg_1.45136)
}

region_1952.45147 {
  Arg_0.45144 = f32[] parameter(0)
  Arg_1.45145 = f32[] parameter(1)
  ROOT add.45146 = f32[] add(Arg_0.45144, Arg_1.45145)
}

region_1953.45156 {
  Arg_0.45153 = f32[] parameter(0)
  Arg_1.45154 = f32[] parameter(1)
  ROOT add.45155 = f32[] add(Arg_0.45153, Arg_1.45154)
}

region_1954.45165 {
  Arg_0.45162 = f32[] parameter(0)
  Arg_1.45163 = f32[] parameter(1)
  ROOT add.45164 = f32[] add(Arg_0.45162, Arg_1.45163)
}

region_1955.45174 {
  Arg_0.45171 = f32[] parameter(0)
  Arg_1.45172 = f32[] parameter(1)
  ROOT add.45173 = f32[] add(Arg_0.45171, Arg_1.45172)
}

region_1956.45183 {
  Arg_0.45180 = f32[] parameter(0)
  Arg_1.45181 = f32[] parameter(1)
  ROOT add.45182 = f32[] add(Arg_0.45180, Arg_1.45181)
}

region_1957.45192 {
  Arg_0.45189 = f32[] parameter(0)
  Arg_1.45190 = f32[] parameter(1)
  ROOT add.45191 = f32[] add(Arg_0.45189, Arg_1.45190)
}

region_1958.45201 {
  Arg_0.45198 = f32[] parameter(0)
  Arg_1.45199 = f32[] parameter(1)
  ROOT add.45200 = f32[] add(Arg_0.45198, Arg_1.45199)
}

region_1959.45210 {
  Arg_0.45207 = f32[] parameter(0)
  Arg_1.45208 = f32[] parameter(1)
  ROOT add.45209 = f32[] add(Arg_0.45207, Arg_1.45208)
}

region_1960.45219 {
  Arg_0.45216 = f32[] parameter(0)
  Arg_1.45217 = f32[] parameter(1)
  ROOT add.45218 = f32[] add(Arg_0.45216, Arg_1.45217)
}

region_1961.45228 {
  Arg_0.45225 = f32[] parameter(0)
  Arg_1.45226 = f32[] parameter(1)
  ROOT add.45227 = f32[] add(Arg_0.45225, Arg_1.45226)
}

region_1962.45237 {
  Arg_0.45234 = f32[] parameter(0)
  Arg_1.45235 = f32[] parameter(1)
  ROOT add.45236 = f32[] add(Arg_0.45234, Arg_1.45235)
}

region_1963.45246 {
  Arg_0.45243 = f32[] parameter(0)
  Arg_1.45244 = f32[] parameter(1)
  ROOT add.45245 = f32[] add(Arg_0.45243, Arg_1.45244)
}

region_1964.45255 {
  Arg_0.45252 = f32[] parameter(0)
  Arg_1.45253 = f32[] parameter(1)
  ROOT add.45254 = f32[] add(Arg_0.45252, Arg_1.45253)
}

region_1965.45264 {
  Arg_0.45261 = f32[] parameter(0)
  Arg_1.45262 = f32[] parameter(1)
  ROOT add.45263 = f32[] add(Arg_0.45261, Arg_1.45262)
}

region_1966.45273 {
  Arg_0.45270 = f32[] parameter(0)
  Arg_1.45271 = f32[] parameter(1)
  ROOT add.45272 = f32[] add(Arg_0.45270, Arg_1.45271)
}

region_1967.45282 {
  Arg_0.45279 = f32[] parameter(0)
  Arg_1.45280 = f32[] parameter(1)
  ROOT add.45281 = f32[] add(Arg_0.45279, Arg_1.45280)
}

region_1968.45291 {
  Arg_0.45288 = f32[] parameter(0)
  Arg_1.45289 = f32[] parameter(1)
  ROOT add.45290 = f32[] add(Arg_0.45288, Arg_1.45289)
}

region_1969.45300 {
  Arg_0.45297 = f32[] parameter(0)
  Arg_1.45298 = f32[] parameter(1)
  ROOT add.45299 = f32[] add(Arg_0.45297, Arg_1.45298)
}

region_1970.45309 {
  Arg_0.45306 = f32[] parameter(0)
  Arg_1.45307 = f32[] parameter(1)
  ROOT add.45308 = f32[] add(Arg_0.45306, Arg_1.45307)
}

region_1971.45318 {
  Arg_0.45315 = f32[] parameter(0)
  Arg_1.45316 = f32[] parameter(1)
  ROOT add.45317 = f32[] add(Arg_0.45315, Arg_1.45316)
}

region_1972.45327 {
  Arg_0.45324 = f32[] parameter(0)
  Arg_1.45325 = f32[] parameter(1)
  ROOT add.45326 = f32[] add(Arg_0.45324, Arg_1.45325)
}

region_1973.45336 {
  Arg_0.45333 = f32[] parameter(0)
  Arg_1.45334 = f32[] parameter(1)
  ROOT add.45335 = f32[] add(Arg_0.45333, Arg_1.45334)
}

region_1974.45345 {
  Arg_0.45342 = f32[] parameter(0)
  Arg_1.45343 = f32[] parameter(1)
  ROOT add.45344 = f32[] add(Arg_0.45342, Arg_1.45343)
}

region_1975.45354 {
  Arg_0.45351 = f32[] parameter(0)
  Arg_1.45352 = f32[] parameter(1)
  ROOT add.45353 = f32[] add(Arg_0.45351, Arg_1.45352)
}

region_1976.45363 {
  Arg_0.45360 = f32[] parameter(0)
  Arg_1.45361 = f32[] parameter(1)
  ROOT add.45362 = f32[] add(Arg_0.45360, Arg_1.45361)
}

region_1977.45372 {
  Arg_0.45369 = f32[] parameter(0)
  Arg_1.45370 = f32[] parameter(1)
  ROOT add.45371 = f32[] add(Arg_0.45369, Arg_1.45370)
}

region_1978.45381 {
  Arg_0.45378 = f32[] parameter(0)
  Arg_1.45379 = f32[] parameter(1)
  ROOT add.45380 = f32[] add(Arg_0.45378, Arg_1.45379)
}

region_1979.45390 {
  Arg_0.45387 = f32[] parameter(0)
  Arg_1.45388 = f32[] parameter(1)
  ROOT add.45389 = f32[] add(Arg_0.45387, Arg_1.45388)
}

region_1980.45399 {
  Arg_0.45396 = f32[] parameter(0)
  Arg_1.45397 = f32[] parameter(1)
  ROOT add.45398 = f32[] add(Arg_0.45396, Arg_1.45397)
}

region_1981.45408 {
  Arg_0.45405 = f32[] parameter(0)
  Arg_1.45406 = f32[] parameter(1)
  ROOT add.45407 = f32[] add(Arg_0.45405, Arg_1.45406)
}

region_1982.45417 {
  Arg_0.45414 = f32[] parameter(0)
  Arg_1.45415 = f32[] parameter(1)
  ROOT add.45416 = f32[] add(Arg_0.45414, Arg_1.45415)
}

region_1983.45426 {
  Arg_0.45423 = f32[] parameter(0)
  Arg_1.45424 = f32[] parameter(1)
  ROOT add.45425 = f32[] add(Arg_0.45423, Arg_1.45424)
}

region_1984.45435 {
  Arg_0.45432 = f32[] parameter(0)
  Arg_1.45433 = f32[] parameter(1)
  ROOT add.45434 = f32[] add(Arg_0.45432, Arg_1.45433)
}

region_1985.45444 {
  Arg_0.45441 = f32[] parameter(0)
  Arg_1.45442 = f32[] parameter(1)
  ROOT add.45443 = f32[] add(Arg_0.45441, Arg_1.45442)
}

region_1986.45453 {
  Arg_0.45450 = f32[] parameter(0)
  Arg_1.45451 = f32[] parameter(1)
  ROOT add.45452 = f32[] add(Arg_0.45450, Arg_1.45451)
}

region_1987.45462 {
  Arg_0.45459 = f32[] parameter(0)
  Arg_1.45460 = f32[] parameter(1)
  ROOT add.45461 = f32[] add(Arg_0.45459, Arg_1.45460)
}

region_1988.45471 {
  Arg_0.45468 = f32[] parameter(0)
  Arg_1.45469 = f32[] parameter(1)
  ROOT add.45470 = f32[] add(Arg_0.45468, Arg_1.45469)
}

region_1989.45480 {
  Arg_0.45477 = f32[] parameter(0)
  Arg_1.45478 = f32[] parameter(1)
  ROOT add.45479 = f32[] add(Arg_0.45477, Arg_1.45478)
}

region_1990.45489 {
  Arg_0.45486 = f32[] parameter(0)
  Arg_1.45487 = f32[] parameter(1)
  ROOT add.45488 = f32[] add(Arg_0.45486, Arg_1.45487)
}

region_1991.45498 {
  Arg_0.45495 = f32[] parameter(0)
  Arg_1.45496 = f32[] parameter(1)
  ROOT add.45497 = f32[] add(Arg_0.45495, Arg_1.45496)
}

region_1992.45507 {
  Arg_0.45504 = f32[] parameter(0)
  Arg_1.45505 = f32[] parameter(1)
  ROOT add.45506 = f32[] add(Arg_0.45504, Arg_1.45505)
}

region_1993.45516 {
  Arg_0.45513 = f32[] parameter(0)
  Arg_1.45514 = f32[] parameter(1)
  ROOT add.45515 = f32[] add(Arg_0.45513, Arg_1.45514)
}

region_1994.45525 {
  Arg_0.45522 = f32[] parameter(0)
  Arg_1.45523 = f32[] parameter(1)
  ROOT add.45524 = f32[] add(Arg_0.45522, Arg_1.45523)
}

region_1995.45534 {
  Arg_0.45531 = f32[] parameter(0)
  Arg_1.45532 = f32[] parameter(1)
  ROOT add.45533 = f32[] add(Arg_0.45531, Arg_1.45532)
}

region_1996.45543 {
  Arg_0.45540 = f32[] parameter(0)
  Arg_1.45541 = f32[] parameter(1)
  ROOT add.45542 = f32[] add(Arg_0.45540, Arg_1.45541)
}

region_1997.45552 {
  Arg_0.45549 = f32[] parameter(0)
  Arg_1.45550 = f32[] parameter(1)
  ROOT add.45551 = f32[] add(Arg_0.45549, Arg_1.45550)
}

region_1998.45561 {
  Arg_0.45558 = f32[] parameter(0)
  Arg_1.45559 = f32[] parameter(1)
  ROOT add.45560 = f32[] add(Arg_0.45558, Arg_1.45559)
}

region_1999.45570 {
  Arg_0.45567 = f32[] parameter(0)
  Arg_1.45568 = f32[] parameter(1)
  ROOT add.45569 = f32[] add(Arg_0.45567, Arg_1.45568)
}

region_2000.45579 {
  Arg_0.45576 = f32[] parameter(0)
  Arg_1.45577 = f32[] parameter(1)
  ROOT add.45578 = f32[] add(Arg_0.45576, Arg_1.45577)
}

region_2001.45588 {
  Arg_0.45585 = f32[] parameter(0)
  Arg_1.45586 = f32[] parameter(1)
  ROOT add.45587 = f32[] add(Arg_0.45585, Arg_1.45586)
}

region_2002.45597 {
  Arg_0.45594 = f32[] parameter(0)
  Arg_1.45595 = f32[] parameter(1)
  ROOT add.45596 = f32[] add(Arg_0.45594, Arg_1.45595)
}

region_2003.45606 {
  Arg_0.45603 = f32[] parameter(0)
  Arg_1.45604 = f32[] parameter(1)
  ROOT add.45605 = f32[] add(Arg_0.45603, Arg_1.45604)
}

region_2004.45615 {
  Arg_0.45612 = f32[] parameter(0)
  Arg_1.45613 = f32[] parameter(1)
  ROOT add.45614 = f32[] add(Arg_0.45612, Arg_1.45613)
}

region_2005.45624 {
  Arg_0.45621 = f32[] parameter(0)
  Arg_1.45622 = f32[] parameter(1)
  ROOT add.45623 = f32[] add(Arg_0.45621, Arg_1.45622)
}

region_2006.45633 {
  Arg_0.45630 = f32[] parameter(0)
  Arg_1.45631 = f32[] parameter(1)
  ROOT add.45632 = f32[] add(Arg_0.45630, Arg_1.45631)
}

region_2007.45642 {
  Arg_0.45639 = f32[] parameter(0)
  Arg_1.45640 = f32[] parameter(1)
  ROOT add.45641 = f32[] add(Arg_0.45639, Arg_1.45640)
}

region_2008.45651 {
  Arg_0.45648 = f32[] parameter(0)
  Arg_1.45649 = f32[] parameter(1)
  ROOT add.45650 = f32[] add(Arg_0.45648, Arg_1.45649)
}

region_2009.45660 {
  Arg_0.45657 = f32[] parameter(0)
  Arg_1.45658 = f32[] parameter(1)
  ROOT add.45659 = f32[] add(Arg_0.45657, Arg_1.45658)
}

region_2010.45669 {
  Arg_0.45666 = f32[] parameter(0)
  Arg_1.45667 = f32[] parameter(1)
  ROOT add.45668 = f32[] add(Arg_0.45666, Arg_1.45667)
}

region_2011.45678 {
  Arg_0.45675 = f32[] parameter(0)
  Arg_1.45676 = f32[] parameter(1)
  ROOT add.45677 = f32[] add(Arg_0.45675, Arg_1.45676)
}

region_2012.45687 {
  Arg_0.45684 = f32[] parameter(0)
  Arg_1.45685 = f32[] parameter(1)
  ROOT add.45686 = f32[] add(Arg_0.45684, Arg_1.45685)
}

region_2013.45696 {
  Arg_0.45693 = f32[] parameter(0)
  Arg_1.45694 = f32[] parameter(1)
  ROOT add.45695 = f32[] add(Arg_0.45693, Arg_1.45694)
}

region_2014.45705 {
  Arg_0.45702 = f32[] parameter(0)
  Arg_1.45703 = f32[] parameter(1)
  ROOT add.45704 = f32[] add(Arg_0.45702, Arg_1.45703)
}

region_2015.45714 {
  Arg_0.45711 = f32[] parameter(0)
  Arg_1.45712 = f32[] parameter(1)
  ROOT add.45713 = f32[] add(Arg_0.45711, Arg_1.45712)
}

region_2016.45723 {
  Arg_0.45720 = f32[] parameter(0)
  Arg_1.45721 = f32[] parameter(1)
  ROOT add.45722 = f32[] add(Arg_0.45720, Arg_1.45721)
}

region_2017.45732 {
  Arg_0.45729 = f32[] parameter(0)
  Arg_1.45730 = f32[] parameter(1)
  ROOT add.45731 = f32[] add(Arg_0.45729, Arg_1.45730)
}

region_2018.45741 {
  Arg_0.45738 = f32[] parameter(0)
  Arg_1.45739 = f32[] parameter(1)
  ROOT add.45740 = f32[] add(Arg_0.45738, Arg_1.45739)
}

region_2019.45750 {
  Arg_0.45747 = f32[] parameter(0)
  Arg_1.45748 = f32[] parameter(1)
  ROOT add.45749 = f32[] add(Arg_0.45747, Arg_1.45748)
}

region_2020.45759 {
  Arg_0.45756 = f32[] parameter(0)
  Arg_1.45757 = f32[] parameter(1)
  ROOT add.45758 = f32[] add(Arg_0.45756, Arg_1.45757)
}

region_2021.45768 {
  Arg_0.45765 = f32[] parameter(0)
  Arg_1.45766 = f32[] parameter(1)
  ROOT add.45767 = f32[] add(Arg_0.45765, Arg_1.45766)
}

region_2022.45777 {
  Arg_0.45774 = f32[] parameter(0)
  Arg_1.45775 = f32[] parameter(1)
  ROOT add.45776 = f32[] add(Arg_0.45774, Arg_1.45775)
}

region_2023.45786 {
  Arg_0.45783 = f32[] parameter(0)
  Arg_1.45784 = f32[] parameter(1)
  ROOT add.45785 = f32[] add(Arg_0.45783, Arg_1.45784)
}

region_2024.45795 {
  Arg_0.45792 = f32[] parameter(0)
  Arg_1.45793 = f32[] parameter(1)
  ROOT add.45794 = f32[] add(Arg_0.45792, Arg_1.45793)
}

region_2025.45804 {
  Arg_0.45801 = f32[] parameter(0)
  Arg_1.45802 = f32[] parameter(1)
  ROOT add.45803 = f32[] add(Arg_0.45801, Arg_1.45802)
}

region_2026.45813 {
  Arg_0.45810 = f32[] parameter(0)
  Arg_1.45811 = f32[] parameter(1)
  ROOT add.45812 = f32[] add(Arg_0.45810, Arg_1.45811)
}

region_2027.45822 {
  Arg_0.45819 = f32[] parameter(0)
  Arg_1.45820 = f32[] parameter(1)
  ROOT add.45821 = f32[] add(Arg_0.45819, Arg_1.45820)
}

region_2028.45831 {
  Arg_0.45828 = f32[] parameter(0)
  Arg_1.45829 = f32[] parameter(1)
  ROOT add.45830 = f32[] add(Arg_0.45828, Arg_1.45829)
}

region_2029.45840 {
  Arg_0.45837 = f32[] parameter(0)
  Arg_1.45838 = f32[] parameter(1)
  ROOT add.45839 = f32[] add(Arg_0.45837, Arg_1.45838)
}

region_2030.45849 {
  Arg_0.45846 = f32[] parameter(0)
  Arg_1.45847 = f32[] parameter(1)
  ROOT add.45848 = f32[] add(Arg_0.45846, Arg_1.45847)
}

region_2031.45858 {
  Arg_0.45855 = f32[] parameter(0)
  Arg_1.45856 = f32[] parameter(1)
  ROOT add.45857 = f32[] add(Arg_0.45855, Arg_1.45856)
}

region_2032.45867 {
  Arg_0.45864 = f32[] parameter(0)
  Arg_1.45865 = f32[] parameter(1)
  ROOT add.45866 = f32[] add(Arg_0.45864, Arg_1.45865)
}

region_2033.45876 {
  Arg_0.45873 = f32[] parameter(0)
  Arg_1.45874 = f32[] parameter(1)
  ROOT add.45875 = f32[] add(Arg_0.45873, Arg_1.45874)
}

region_2034.45885 {
  Arg_0.45882 = f32[] parameter(0)
  Arg_1.45883 = f32[] parameter(1)
  ROOT add.45884 = f32[] add(Arg_0.45882, Arg_1.45883)
}

region_2035.45894 {
  Arg_0.45891 = f32[] parameter(0)
  Arg_1.45892 = f32[] parameter(1)
  ROOT add.45893 = f32[] add(Arg_0.45891, Arg_1.45892)
}

region_2036.45903 {
  Arg_0.45900 = f32[] parameter(0)
  Arg_1.45901 = f32[] parameter(1)
  ROOT add.45902 = f32[] add(Arg_0.45900, Arg_1.45901)
}

region_2037.45912 {
  Arg_0.45909 = f32[] parameter(0)
  Arg_1.45910 = f32[] parameter(1)
  ROOT add.45911 = f32[] add(Arg_0.45909, Arg_1.45910)
}

region_2038.45921 {
  Arg_0.45918 = f32[] parameter(0)
  Arg_1.45919 = f32[] parameter(1)
  ROOT add.45920 = f32[] add(Arg_0.45918, Arg_1.45919)
}

region_2039.45930 {
  Arg_0.45927 = f32[] parameter(0)
  Arg_1.45928 = f32[] parameter(1)
  ROOT add.45929 = f32[] add(Arg_0.45927, Arg_1.45928)
}

region_2040.45939 {
  Arg_0.45936 = f32[] parameter(0)
  Arg_1.45937 = f32[] parameter(1)
  ROOT add.45938 = f32[] add(Arg_0.45936, Arg_1.45937)
}

region_2041.45948 {
  Arg_0.45945 = f32[] parameter(0)
  Arg_1.45946 = f32[] parameter(1)
  ROOT add.45947 = f32[] add(Arg_0.45945, Arg_1.45946)
}

region_2042.45957 {
  Arg_0.45954 = f32[] parameter(0)
  Arg_1.45955 = f32[] parameter(1)
  ROOT add.45956 = f32[] add(Arg_0.45954, Arg_1.45955)
}

region_2043.45966 {
  Arg_0.45963 = f32[] parameter(0)
  Arg_1.45964 = f32[] parameter(1)
  ROOT add.45965 = f32[] add(Arg_0.45963, Arg_1.45964)
}

region_2044.45975 {
  Arg_0.45972 = f32[] parameter(0)
  Arg_1.45973 = f32[] parameter(1)
  ROOT add.45974 = f32[] add(Arg_0.45972, Arg_1.45973)
}

region_2045.45984 {
  Arg_0.45981 = f32[] parameter(0)
  Arg_1.45982 = f32[] parameter(1)
  ROOT add.45983 = f32[] add(Arg_0.45981, Arg_1.45982)
}

region_2046.45993 {
  Arg_0.45990 = f32[] parameter(0)
  Arg_1.45991 = f32[] parameter(1)
  ROOT add.45992 = f32[] add(Arg_0.45990, Arg_1.45991)
}

region_2047.46002 {
  Arg_0.45999 = f32[] parameter(0)
  Arg_1.46000 = f32[] parameter(1)
  ROOT add.46001 = f32[] add(Arg_0.45999, Arg_1.46000)
}

region_2048.46011 {
  Arg_0.46008 = f32[] parameter(0)
  Arg_1.46009 = f32[] parameter(1)
  ROOT add.46010 = f32[] add(Arg_0.46008, Arg_1.46009)
}

region_2049.46020 {
  Arg_0.46017 = f32[] parameter(0)
  Arg_1.46018 = f32[] parameter(1)
  ROOT add.46019 = f32[] add(Arg_0.46017, Arg_1.46018)
}

region_2050.46029 {
  Arg_0.46026 = f32[] parameter(0)
  Arg_1.46027 = f32[] parameter(1)
  ROOT add.46028 = f32[] add(Arg_0.46026, Arg_1.46027)
}

region_2051.46038 {
  Arg_0.46035 = f32[] parameter(0)
  Arg_1.46036 = f32[] parameter(1)
  ROOT add.46037 = f32[] add(Arg_0.46035, Arg_1.46036)
}

region_2052.46047 {
  Arg_0.46044 = f32[] parameter(0)
  Arg_1.46045 = f32[] parameter(1)
  ROOT add.46046 = f32[] add(Arg_0.46044, Arg_1.46045)
}

region_2053.46056 {
  Arg_0.46053 = f32[] parameter(0)
  Arg_1.46054 = f32[] parameter(1)
  ROOT add.46055 = f32[] add(Arg_0.46053, Arg_1.46054)
}

region_2054.46065 {
  Arg_0.46062 = f32[] parameter(0)
  Arg_1.46063 = f32[] parameter(1)
  ROOT add.46064 = f32[] add(Arg_0.46062, Arg_1.46063)
}

region_2055.46074 {
  Arg_0.46071 = f32[] parameter(0)
  Arg_1.46072 = f32[] parameter(1)
  ROOT add.46073 = f32[] add(Arg_0.46071, Arg_1.46072)
}

region_2056.46083 {
  Arg_0.46080 = f32[] parameter(0)
  Arg_1.46081 = f32[] parameter(1)
  ROOT add.46082 = f32[] add(Arg_0.46080, Arg_1.46081)
}

region_2057.46092 {
  Arg_0.46089 = f32[] parameter(0)
  Arg_1.46090 = f32[] parameter(1)
  ROOT add.46091 = f32[] add(Arg_0.46089, Arg_1.46090)
}

region_2058.46101 {
  Arg_0.46098 = f32[] parameter(0)
  Arg_1.46099 = f32[] parameter(1)
  ROOT add.46100 = f32[] add(Arg_0.46098, Arg_1.46099)
}

region_2059.46110 {
  Arg_0.46107 = f32[] parameter(0)
  Arg_1.46108 = f32[] parameter(1)
  ROOT add.46109 = f32[] add(Arg_0.46107, Arg_1.46108)
}

region_2060.46119 {
  Arg_0.46116 = f32[] parameter(0)
  Arg_1.46117 = f32[] parameter(1)
  ROOT add.46118 = f32[] add(Arg_0.46116, Arg_1.46117)
}

region_2061.46128 {
  Arg_0.46125 = f32[] parameter(0)
  Arg_1.46126 = f32[] parameter(1)
  ROOT add.46127 = f32[] add(Arg_0.46125, Arg_1.46126)
}

region_2062.46137 {
  Arg_0.46134 = f32[] parameter(0)
  Arg_1.46135 = f32[] parameter(1)
  ROOT add.46136 = f32[] add(Arg_0.46134, Arg_1.46135)
}

region_2063.46146 {
  Arg_0.46143 = f32[] parameter(0)
  Arg_1.46144 = f32[] parameter(1)
  ROOT add.46145 = f32[] add(Arg_0.46143, Arg_1.46144)
}

region_2064.46155 {
  Arg_0.46152 = f32[] parameter(0)
  Arg_1.46153 = f32[] parameter(1)
  ROOT add.46154 = f32[] add(Arg_0.46152, Arg_1.46153)
}

region_2065.46164 {
  Arg_0.46161 = f32[] parameter(0)
  Arg_1.46162 = f32[] parameter(1)
  ROOT add.46163 = f32[] add(Arg_0.46161, Arg_1.46162)
}

region_2066.46173 {
  Arg_0.46170 = f32[] parameter(0)
  Arg_1.46171 = f32[] parameter(1)
  ROOT add.46172 = f32[] add(Arg_0.46170, Arg_1.46171)
}

region_2067.46182 {
  Arg_0.46179 = f32[] parameter(0)
  Arg_1.46180 = f32[] parameter(1)
  ROOT add.46181 = f32[] add(Arg_0.46179, Arg_1.46180)
}

region_2068.46191 {
  Arg_0.46188 = f32[] parameter(0)
  Arg_1.46189 = f32[] parameter(1)
  ROOT add.46190 = f32[] add(Arg_0.46188, Arg_1.46189)
}

region_2069.46200 {
  Arg_0.46197 = f32[] parameter(0)
  Arg_1.46198 = f32[] parameter(1)
  ROOT add.46199 = f32[] add(Arg_0.46197, Arg_1.46198)
}

region_2070.46209 {
  Arg_0.46206 = f32[] parameter(0)
  Arg_1.46207 = f32[] parameter(1)
  ROOT add.46208 = f32[] add(Arg_0.46206, Arg_1.46207)
}

region_2071.46218 {
  Arg_0.46215 = f32[] parameter(0)
  Arg_1.46216 = f32[] parameter(1)
  ROOT add.46217 = f32[] add(Arg_0.46215, Arg_1.46216)
}

region_2072.46227 {
  Arg_0.46224 = f32[] parameter(0)
  Arg_1.46225 = f32[] parameter(1)
  ROOT add.46226 = f32[] add(Arg_0.46224, Arg_1.46225)
}

region_2073.46236 {
  Arg_0.46233 = f32[] parameter(0)
  Arg_1.46234 = f32[] parameter(1)
  ROOT add.46235 = f32[] add(Arg_0.46233, Arg_1.46234)
}

region_2074.46245 {
  Arg_0.46242 = f32[] parameter(0)
  Arg_1.46243 = f32[] parameter(1)
  ROOT add.46244 = f32[] add(Arg_0.46242, Arg_1.46243)
}

region_2075.46254 {
  Arg_0.46251 = f32[] parameter(0)
  Arg_1.46252 = f32[] parameter(1)
  ROOT add.46253 = f32[] add(Arg_0.46251, Arg_1.46252)
}

region_2076.46263 {
  Arg_0.46260 = f32[] parameter(0)
  Arg_1.46261 = f32[] parameter(1)
  ROOT add.46262 = f32[] add(Arg_0.46260, Arg_1.46261)
}

region_2077.46272 {
  Arg_0.46269 = f32[] parameter(0)
  Arg_1.46270 = f32[] parameter(1)
  ROOT add.46271 = f32[] add(Arg_0.46269, Arg_1.46270)
}

region_2078.46281 {
  Arg_0.46278 = f32[] parameter(0)
  Arg_1.46279 = f32[] parameter(1)
  ROOT add.46280 = f32[] add(Arg_0.46278, Arg_1.46279)
}

region_2079.46290 {
  Arg_0.46287 = f32[] parameter(0)
  Arg_1.46288 = f32[] parameter(1)
  ROOT add.46289 = f32[] add(Arg_0.46287, Arg_1.46288)
}

region_2080.46299 {
  Arg_0.46296 = f32[] parameter(0)
  Arg_1.46297 = f32[] parameter(1)
  ROOT add.46298 = f32[] add(Arg_0.46296, Arg_1.46297)
}

region_2081.46308 {
  Arg_0.46305 = f32[] parameter(0)
  Arg_1.46306 = f32[] parameter(1)
  ROOT add.46307 = f32[] add(Arg_0.46305, Arg_1.46306)
}

region_2082.46317 {
  Arg_0.46314 = f32[] parameter(0)
  Arg_1.46315 = f32[] parameter(1)
  ROOT add.46316 = f32[] add(Arg_0.46314, Arg_1.46315)
}

region_2083.46326 {
  Arg_0.46323 = f32[] parameter(0)
  Arg_1.46324 = f32[] parameter(1)
  ROOT add.46325 = f32[] add(Arg_0.46323, Arg_1.46324)
}

region_2084.46335 {
  Arg_0.46332 = f32[] parameter(0)
  Arg_1.46333 = f32[] parameter(1)
  ROOT add.46334 = f32[] add(Arg_0.46332, Arg_1.46333)
}

region_2085.46344 {
  Arg_0.46341 = f32[] parameter(0)
  Arg_1.46342 = f32[] parameter(1)
  ROOT add.46343 = f32[] add(Arg_0.46341, Arg_1.46342)
}

region_2086.46353 {
  Arg_0.46350 = f32[] parameter(0)
  Arg_1.46351 = f32[] parameter(1)
  ROOT add.46352 = f32[] add(Arg_0.46350, Arg_1.46351)
}

region_2087.46362 {
  Arg_0.46359 = f32[] parameter(0)
  Arg_1.46360 = f32[] parameter(1)
  ROOT add.46361 = f32[] add(Arg_0.46359, Arg_1.46360)
}

region_2088.46371 {
  Arg_0.46368 = f32[] parameter(0)
  Arg_1.46369 = f32[] parameter(1)
  ROOT add.46370 = f32[] add(Arg_0.46368, Arg_1.46369)
}

region_2089.46380 {
  Arg_0.46377 = f32[] parameter(0)
  Arg_1.46378 = f32[] parameter(1)
  ROOT add.46379 = f32[] add(Arg_0.46377, Arg_1.46378)
}

region_2090.46389 {
  Arg_0.46386 = f32[] parameter(0)
  Arg_1.46387 = f32[] parameter(1)
  ROOT add.46388 = f32[] add(Arg_0.46386, Arg_1.46387)
}

region_2091.46398 {
  Arg_0.46395 = f32[] parameter(0)
  Arg_1.46396 = f32[] parameter(1)
  ROOT add.46397 = f32[] add(Arg_0.46395, Arg_1.46396)
}

region_2092.46407 {
  Arg_0.46404 = f32[] parameter(0)
  Arg_1.46405 = f32[] parameter(1)
  ROOT add.46406 = f32[] add(Arg_0.46404, Arg_1.46405)
}

region_2093.46416 {
  Arg_0.46413 = f32[] parameter(0)
  Arg_1.46414 = f32[] parameter(1)
  ROOT add.46415 = f32[] add(Arg_0.46413, Arg_1.46414)
}

region_2094.46425 {
  Arg_0.46422 = f32[] parameter(0)
  Arg_1.46423 = f32[] parameter(1)
  ROOT add.46424 = f32[] add(Arg_0.46422, Arg_1.46423)
}

region_2095.46434 {
  Arg_0.46431 = f32[] parameter(0)
  Arg_1.46432 = f32[] parameter(1)
  ROOT add.46433 = f32[] add(Arg_0.46431, Arg_1.46432)
}

region_2096.46443 {
  Arg_0.46440 = f32[] parameter(0)
  Arg_1.46441 = f32[] parameter(1)
  ROOT add.46442 = f32[] add(Arg_0.46440, Arg_1.46441)
}

region_2097.46452 {
  Arg_0.46449 = f32[] parameter(0)
  Arg_1.46450 = f32[] parameter(1)
  ROOT add.46451 = f32[] add(Arg_0.46449, Arg_1.46450)
}

region_2098.46461 {
  Arg_0.46458 = f32[] parameter(0)
  Arg_1.46459 = f32[] parameter(1)
  ROOT add.46460 = f32[] add(Arg_0.46458, Arg_1.46459)
}

region_2099.46470 {
  Arg_0.46467 = f32[] parameter(0)
  Arg_1.46468 = f32[] parameter(1)
  ROOT add.46469 = f32[] add(Arg_0.46467, Arg_1.46468)
}

region_2100.46479 {
  Arg_0.46476 = f32[] parameter(0)
  Arg_1.46477 = f32[] parameter(1)
  ROOT add.46478 = f32[] add(Arg_0.46476, Arg_1.46477)
}

region_2101.46488 {
  Arg_0.46485 = f32[] parameter(0)
  Arg_1.46486 = f32[] parameter(1)
  ROOT add.46487 = f32[] add(Arg_0.46485, Arg_1.46486)
}

region_2102.46497 {
  Arg_0.46494 = f32[] parameter(0)
  Arg_1.46495 = f32[] parameter(1)
  ROOT add.46496 = f32[] add(Arg_0.46494, Arg_1.46495)
}

region_2103.46506 {
  Arg_0.46503 = f32[] parameter(0)
  Arg_1.46504 = f32[] parameter(1)
  ROOT add.46505 = f32[] add(Arg_0.46503, Arg_1.46504)
}

region_2104.46515 {
  Arg_0.46512 = f32[] parameter(0)
  Arg_1.46513 = f32[] parameter(1)
  ROOT add.46514 = f32[] add(Arg_0.46512, Arg_1.46513)
}

region_2105.46524 {
  Arg_0.46521 = f32[] parameter(0)
  Arg_1.46522 = f32[] parameter(1)
  ROOT add.46523 = f32[] add(Arg_0.46521, Arg_1.46522)
}

region_2106.46533 {
  Arg_0.46530 = f32[] parameter(0)
  Arg_1.46531 = f32[] parameter(1)
  ROOT add.46532 = f32[] add(Arg_0.46530, Arg_1.46531)
}

region_2107.46542 {
  Arg_0.46539 = f32[] parameter(0)
  Arg_1.46540 = f32[] parameter(1)
  ROOT add.46541 = f32[] add(Arg_0.46539, Arg_1.46540)
}

region_2108.46551 {
  Arg_0.46548 = f32[] parameter(0)
  Arg_1.46549 = f32[] parameter(1)
  ROOT add.46550 = f32[] add(Arg_0.46548, Arg_1.46549)
}

region_2109.46560 {
  Arg_0.46557 = f32[] parameter(0)
  Arg_1.46558 = f32[] parameter(1)
  ROOT add.46559 = f32[] add(Arg_0.46557, Arg_1.46558)
}

region_2110.46569 {
  Arg_0.46566 = f32[] parameter(0)
  Arg_1.46567 = f32[] parameter(1)
  ROOT add.46568 = f32[] add(Arg_0.46566, Arg_1.46567)
}

region_2111.46578 {
  Arg_0.46575 = f32[] parameter(0)
  Arg_1.46576 = f32[] parameter(1)
  ROOT add.46577 = f32[] add(Arg_0.46575, Arg_1.46576)
}

region_2112.46587 {
  Arg_0.46584 = f32[] parameter(0)
  Arg_1.46585 = f32[] parameter(1)
  ROOT add.46586 = f32[] add(Arg_0.46584, Arg_1.46585)
}

region_2113.46596 {
  Arg_0.46593 = f32[] parameter(0)
  Arg_1.46594 = f32[] parameter(1)
  ROOT add.46595 = f32[] add(Arg_0.46593, Arg_1.46594)
}

region_2114.46605 {
  Arg_0.46602 = f32[] parameter(0)
  Arg_1.46603 = f32[] parameter(1)
  ROOT add.46604 = f32[] add(Arg_0.46602, Arg_1.46603)
}

region_2115.46614 {
  Arg_0.46611 = f32[] parameter(0)
  Arg_1.46612 = f32[] parameter(1)
  ROOT add.46613 = f32[] add(Arg_0.46611, Arg_1.46612)
}

region_2116.46623 {
  Arg_0.46620 = f32[] parameter(0)
  Arg_1.46621 = f32[] parameter(1)
  ROOT add.46622 = f32[] add(Arg_0.46620, Arg_1.46621)
}

region_2117.46632 {
  Arg_0.46629 = f32[] parameter(0)
  Arg_1.46630 = f32[] parameter(1)
  ROOT add.46631 = f32[] add(Arg_0.46629, Arg_1.46630)
}

region_2118.46641 {
  Arg_0.46638 = f32[] parameter(0)
  Arg_1.46639 = f32[] parameter(1)
  ROOT add.46640 = f32[] add(Arg_0.46638, Arg_1.46639)
}

region_2119.46650 {
  Arg_0.46647 = f32[] parameter(0)
  Arg_1.46648 = f32[] parameter(1)
  ROOT add.46649 = f32[] add(Arg_0.46647, Arg_1.46648)
}

region_2120.46659 {
  Arg_0.46656 = f32[] parameter(0)
  Arg_1.46657 = f32[] parameter(1)
  ROOT add.46658 = f32[] add(Arg_0.46656, Arg_1.46657)
}

region_2121.46668 {
  Arg_0.46665 = f32[] parameter(0)
  Arg_1.46666 = f32[] parameter(1)
  ROOT add.46667 = f32[] add(Arg_0.46665, Arg_1.46666)
}

region_2122.46677 {
  Arg_0.46674 = f32[] parameter(0)
  Arg_1.46675 = f32[] parameter(1)
  ROOT add.46676 = f32[] add(Arg_0.46674, Arg_1.46675)
}

region_2123.46686 {
  Arg_0.46683 = f32[] parameter(0)
  Arg_1.46684 = f32[] parameter(1)
  ROOT add.46685 = f32[] add(Arg_0.46683, Arg_1.46684)
}

region_2124.46695 {
  Arg_0.46692 = f32[] parameter(0)
  Arg_1.46693 = f32[] parameter(1)
  ROOT add.46694 = f32[] add(Arg_0.46692, Arg_1.46693)
}

region_2125.46704 {
  Arg_0.46701 = f32[] parameter(0)
  Arg_1.46702 = f32[] parameter(1)
  ROOT add.46703 = f32[] add(Arg_0.46701, Arg_1.46702)
}

region_2126.46713 {
  Arg_0.46710 = f32[] parameter(0)
  Arg_1.46711 = f32[] parameter(1)
  ROOT add.46712 = f32[] add(Arg_0.46710, Arg_1.46711)
}

region_2127.46722 {
  Arg_0.46719 = f32[] parameter(0)
  Arg_1.46720 = f32[] parameter(1)
  ROOT add.46721 = f32[] add(Arg_0.46719, Arg_1.46720)
}

region_2128.46731 {
  Arg_0.46728 = f32[] parameter(0)
  Arg_1.46729 = f32[] parameter(1)
  ROOT add.46730 = f32[] add(Arg_0.46728, Arg_1.46729)
}

region_2129.46740 {
  Arg_0.46737 = f32[] parameter(0)
  Arg_1.46738 = f32[] parameter(1)
  ROOT add.46739 = f32[] add(Arg_0.46737, Arg_1.46738)
}

region_2130.46749 {
  Arg_0.46746 = f32[] parameter(0)
  Arg_1.46747 = f32[] parameter(1)
  ROOT add.46748 = f32[] add(Arg_0.46746, Arg_1.46747)
}

region_2131.46758 {
  Arg_0.46755 = f32[] parameter(0)
  Arg_1.46756 = f32[] parameter(1)
  ROOT add.46757 = f32[] add(Arg_0.46755, Arg_1.46756)
}

region_7.194._custom_call_lowering_rule {
  Arg_0.476 = s32[] parameter(0)
  Arg_1.192 = s32[] parameter(1)
  ROOT add.516 = s32[] add(Arg_0.476, Arg_1.192)
}

region_10.224._custom_call_lowering_rule {
  Arg_0.477 = s32[] parameter(0)
  ROOT Arg_1.223 = s32[] parameter(1)
}

region_8.202._custom_call_lowering_rule {
  Arg_0.478 = pred[] parameter(0)
  ROOT Arg_1.201 = pred[] parameter(1)
}

region_9.213._custom_call_lowering_rule {
  Arg_0.479 = s32[] parameter(0)
  Arg_1.211 = s32[] parameter(1)
  ROOT add.517 = s32[] add(Arg_0.479, Arg_1.211)
}

region_0.61._custom_call_lowering_rule.1 {
  Arg_2.96 = s32[] parameter(2)
  Arg_3.32 = s32[] parameter(3)
  Arg_0.481 = s32[] parameter(0)
  Arg_1.163 = s32[] parameter(1)
  ROOT compare.386 = pred[] compare(Arg_0.481, Arg_1.163), direction=LT
}

region_1.74._custom_call_lowering_rule.1 {
  Arg_0.482 = s32[] parameter(0)
  Arg_1.164 = s32[] parameter(1)
  ROOT add.518 = s32[] add(Arg_0.482, Arg_1.164)
}

region_5.170._custom_call_lowering_rule.1 {
  Arg_0.483 = s32[] parameter(0)
  ROOT Arg_1.165 = s32[] parameter(1)
}

region_2.82._custom_call_lowering_rule.1 {
  Arg_0.484 = pred[] parameter(0)
  ROOT Arg_1.166 = pred[] parameter(1)
}

region_3.91._custom_call_lowering_rule.1 {
  Arg_0.485 = s32[] parameter(0)
  Arg_1.167 = s32[] parameter(1)
  ROOT add.519 = s32[] add(Arg_0.485, Arg_1.167)
}

region_4.110._custom_call_lowering_rule.1 {
  Arg_0.486 = s32[] parameter(0)
  Arg_1.168 = s32[] parameter(1)
  ROOT add.520 = s32[] add(Arg_0.486, Arg_1.168)
}

region_6.178._custom_call_lowering_rule.1 {
  Arg_0.487 = s32[] parameter(0)
  ROOT Arg_1.170 = s32[] parameter(1)
}

region_7.194._custom_call_lowering_rule.1 {
  Arg_0.488 = s32[] parameter(0)
  Arg_1.171 = s32[] parameter(1)
  ROOT add.521 = s32[] add(Arg_0.488, Arg_1.171)
}

region_10.224._custom_call_lowering_rule.1 {
  Arg_0.489 = s32[] parameter(0)
  ROOT Arg_1.172 = s32[] parameter(1)
}

region_8.202._custom_call_lowering_rule.1 {
  Arg_0.490 = pred[] parameter(0)
  ROOT Arg_1.173 = pred[] parameter(1)
}

region_9.213._custom_call_lowering_rule.1 {
  Arg_0.491 = s32[] parameter(0)
  Arg_1.174 = s32[] parameter(1)
  ROOT add.522 = s32[] add(Arg_0.491, Arg_1.174)
}

region_11.232._custom_call_lowering_rule.1 {
  Arg_0.492 = s32[] parameter(0)
  ROOT Arg_1.175 = s32[] parameter(1)
}

region_0.61._custom_call_lowering_rule.2 {
  Arg_2.97 = s32[] parameter(2)
  Arg_3.33 = s32[] parameter(3)
  Arg_0.493 = s32[] parameter(0)
  Arg_1.176 = s32[] parameter(1)
  ROOT compare.391 = pred[] compare(Arg_0.493, Arg_1.176), direction=LT
}

region_1.74._custom_call_lowering_rule.2 {
  Arg_0.494 = s32[] parameter(0)
  Arg_1.178 = s32[] parameter(1)
  ROOT add.523 = s32[] add(Arg_0.494, Arg_1.178)
}

region_5.170._custom_call_lowering_rule.2 {
  Arg_0.495 = s32[] parameter(0)
  ROOT Arg_1.179 = s32[] parameter(1)
}

region_2.82._custom_call_lowering_rule.2 {
  Arg_0.496 = pred[] parameter(0)
  ROOT Arg_1.180 = pred[] parameter(1)
}

region_3.91._custom_call_lowering_rule.2 {
  Arg_0.497 = s32[] parameter(0)
  Arg_1.181 = s32[] parameter(1)
  ROOT add.524 = s32[] add(Arg_0.497, Arg_1.181)
}

region_4.110._custom_call_lowering_rule.2 {
  Arg_0.498 = s32[] parameter(0)
  Arg_1.182 = s32[] parameter(1)
  ROOT add.525 = s32[] add(Arg_0.498, Arg_1.182)
}

region_6.178._custom_call_lowering_rule.2 {
  Arg_0.499 = s32[] parameter(0)
  ROOT Arg_1.183 = s32[] parameter(1)
}

region_7.194._custom_call_lowering_rule.2 {
  Arg_0.500 = s32[] parameter(0)
  Arg_1.184 = s32[] parameter(1)
  ROOT add.526 = s32[] add(Arg_0.500, Arg_1.184)
}

region_10.224._custom_call_lowering_rule.2 {
  Arg_0.501 = s32[] parameter(0)
  ROOT Arg_1.185 = s32[] parameter(1)
}

region_8.202._custom_call_lowering_rule.2 {
  Arg_0.502 = pred[] parameter(0)
  ROOT Arg_1.186 = pred[] parameter(1)
}

region_9.213._custom_call_lowering_rule.2 {
  Arg_0.503 = s32[] parameter(0)
  Arg_1.187 = s32[] parameter(1)
  ROOT add.527 = s32[] add(Arg_0.503, Arg_1.187)
}

region_11.232._custom_call_lowering_rule.2 {
  Arg_0.504 = s32[] parameter(0)
  ROOT Arg_1.188 = s32[] parameter(1)
}

region_0.61._custom_call_lowering_rule.3 {
  Arg_2.98 = s32[] parameter(2)
  Arg_3.34 = s32[] parameter(3)
  Arg_0.505 = s32[] parameter(0)
  Arg_1.189 = s32[] parameter(1)
  ROOT compare.396 = pred[] compare(Arg_0.505, Arg_1.189), direction=LT
}

region_1.74._custom_call_lowering_rule.3 {
  Arg_0.506 = s32[] parameter(0)
  Arg_1.190 = s32[] parameter(1)
  ROOT add.528 = s32[] add(Arg_0.506, Arg_1.190)
}

region_5.170._custom_call_lowering_rule.3 {
  Arg_0.507 = s32[] parameter(0)
  ROOT Arg_1.191 = s32[] parameter(1)
}

region_2.82._custom_call_lowering_rule.3 {
  Arg_0.508 = pred[] parameter(0)
  ROOT Arg_1.193 = pred[] parameter(1)
}

region_3.91._custom_call_lowering_rule.3 {
  Arg_0.509 = s32[] parameter(0)
  Arg_1.194 = s32[] parameter(1)
  ROOT add.529 = s32[] add(Arg_0.509, Arg_1.194)
}

region_4.110._custom_call_lowering_rule.3 {
  Arg_0.510 = s32[] parameter(0)
  Arg_1.195 = s32[] parameter(1)
  ROOT add.530 = s32[] add(Arg_0.510, Arg_1.195)
}

region_6.178._custom_call_lowering_rule.3 {
  Arg_0.511 = s32[] parameter(0)
  ROOT Arg_1.196 = s32[] parameter(1)
}

region_7.194._custom_call_lowering_rule.3 {
  Arg_0.512 = s32[] parameter(0)
  Arg_1.197 = s32[] parameter(1)
  ROOT add.531 = s32[] add(Arg_0.512, Arg_1.197)
}

region_10.224._custom_call_lowering_rule.3 {
  Arg_0.513 = s32[] parameter(0)
  ROOT Arg_1.198 = s32[] parameter(1)
}

region_8.202._custom_call_lowering_rule.3 {
  Arg_0.514 = pred[] parameter(0)
  ROOT Arg_1.199 = pred[] parameter(1)
}

region_9.213._custom_call_lowering_rule.3 {
  Arg_0.515 = s32[] parameter(0)
  Arg_1.200 = s32[] parameter(1)
  ROOT add.532 = s32[] add(Arg_0.515, Arg_1.200)
}

region_11.232._custom_call_lowering_rule.3 {
  Arg_0.516 = s32[] parameter(0)
  ROOT Arg_1.202 = s32[] parameter(1)
}

region_0.61._custom_call_lowering_rule.4 {
  Arg_2.99 = s32[] parameter(2)
  Arg_3.35 = s32[] parameter(3)
  Arg_0.517 = s32[] parameter(0)
  Arg_1.203 = s32[] parameter(1)
  ROOT compare.401 = pred[] compare(Arg_0.517, Arg_1.203), direction=LT
}

region_1.74._custom_call_lowering_rule.4 {
  Arg_0.518 = s32[] parameter(0)
  Arg_1.204 = s32[] parameter(1)
  ROOT add.533 = s32[] add(Arg_0.518, Arg_1.204)
}

region_5.170._custom_call_lowering_rule.4 {
  Arg_0.519 = s32[] parameter(0)
  ROOT Arg_1.205 = s32[] parameter(1)
}

region_2.82._custom_call_lowering_rule.4 {
  Arg_0.520 = pred[] parameter(0)
  ROOT Arg_1.206 = pred[] parameter(1)
}

region_3.91._custom_call_lowering_rule.4 {
  Arg_0.521 = s32[] parameter(0)
  Arg_1.207 = s32[] parameter(1)
  ROOT add.534 = s32[] add(Arg_0.521, Arg_1.207)
}

region_4.110._custom_call_lowering_rule.4 {
  Arg_0.522 = s32[] parameter(0)
  Arg_1.208 = s32[] parameter(1)
  ROOT add.535 = s32[] add(Arg_0.522, Arg_1.208)
}

region_6.178._custom_call_lowering_rule.4 {
  Arg_0.523 = s32[] parameter(0)
  ROOT Arg_1.209 = s32[] parameter(1)
}

region_7.194._custom_call_lowering_rule.4 {
  Arg_0.524 = s32[] parameter(0)
  Arg_1.210 = s32[] parameter(1)
  ROOT add.536 = s32[] add(Arg_0.524, Arg_1.210)
}

region_10.224._custom_call_lowering_rule.4 {
  Arg_0.525 = s32[] parameter(0)
  ROOT Arg_1.212 = s32[] parameter(1)
}

region_8.202._custom_call_lowering_rule.4 {
  Arg_0.526 = pred[] parameter(0)
  ROOT Arg_1.213 = pred[] parameter(1)
}

region_9.213._custom_call_lowering_rule.4 {
  Arg_0.527 = s32[] parameter(0)
  Arg_1.214 = s32[] parameter(1)
  ROOT add.537 = s32[] add(Arg_0.527, Arg_1.214)
}

region_11.232._custom_call_lowering_rule.4 {
  Arg_0.528 = s32[] parameter(0)
  ROOT Arg_1.215 = s32[] parameter(1)
}

region_0.61._custom_call_lowering_rule.5 {
  Arg_2.100 = s32[] parameter(2)
  Arg_3.36 = s32[] parameter(3)
  Arg_0.529 = s32[] parameter(0)
  Arg_1.216 = s32[] parameter(1)
  ROOT compare.406 = pred[] compare(Arg_0.529, Arg_1.216), direction=LT
}

region_1.74._custom_call_lowering_rule.5 {
  Arg_0.530 = s32[] parameter(0)
  Arg_1.217 = s32[] parameter(1)
  ROOT add.538 = s32[] add(Arg_0.530, Arg_1.217)
}

region_5.170._custom_call_lowering_rule.5 {
  Arg_0.531 = s32[] parameter(0)
  ROOT Arg_1.218 = s32[] parameter(1)
}

region_2.82._custom_call_lowering_rule.5 {
  Arg_0.532 = pred[] parameter(0)
  ROOT Arg_1.219 = pred[] parameter(1)
}

region_3.91._custom_call_lowering_rule.5 {
  Arg_0.533 = s32[] parameter(0)
  Arg_1.220 = s32[] parameter(1)
  ROOT add.539 = s32[] add(Arg_0.533, Arg_1.220)
}

region_4.110._custom_call_lowering_rule.5 {
  Arg_0.534 = s32[] parameter(0)
  Arg_1.221 = s32[] parameter(1)
  ROOT add.540 = s32[] add(Arg_0.534, Arg_1.221)
}

region_6.178._custom_call_lowering_rule.5 {
  Arg_0.535 = s32[] parameter(0)
  ROOT Arg_1.222 = s32[] parameter(1)
}

region_7.194._custom_call_lowering_rule.5 {
  Arg_0.536 = s32[] parameter(0)
  Arg_1.224 = s32[] parameter(1)
  ROOT add.541 = s32[] add(Arg_0.536, Arg_1.224)
}

region_10.224._custom_call_lowering_rule.5 {
  Arg_0.537 = s32[] parameter(0)
  ROOT Arg_1.225 = s32[] parameter(1)
}

region_8.202._custom_call_lowering_rule.5 {
  Arg_0.538 = pred[] parameter(0)
  ROOT Arg_1.226 = pred[] parameter(1)
}

region_9.213._custom_call_lowering_rule.5 {
  Arg_0.539 = s32[] parameter(0)
  Arg_1.227 = s32[] parameter(1)
  ROOT add.542 = s32[] add(Arg_0.539, Arg_1.227)
}

region_11.232._custom_call_lowering_rule.5 {
  Arg_0.540 = s32[] parameter(0)
  ROOT Arg_1.228 = s32[] parameter(1)
}

region_0.61._custom_call_lowering_rule.6 {
  Arg_2.101 = s32[] parameter(2)
  Arg_3.37 = s32[] parameter(3)
  Arg_0.541 = s32[] parameter(0)
  Arg_1.229 = s32[] parameter(1)
  ROOT compare.411 = pred[] compare(Arg_0.541, Arg_1.229), direction=LT
}

region_1.74._custom_call_lowering_rule.6 {
  Arg_0.542 = s32[] parameter(0)
  Arg_1.230 = s32[] parameter(1)
  ROOT add.543 = s32[] add(Arg_0.542, Arg_1.230)
}

region_5.170._custom_call_lowering_rule.6 {
  Arg_0.543 = s32[] parameter(0)
  ROOT Arg_1.232 = s32[] parameter(1)
}

region_2.82._custom_call_lowering_rule.6 {
  Arg_0.544 = pred[] parameter(0)
  ROOT Arg_1.233 = pred[] parameter(1)
}

region_3.91._custom_call_lowering_rule.6 {
  Arg_0.545 = s32[] parameter(0)
  Arg_1.234 = s32[] parameter(1)
  ROOT add.544 = s32[] add(Arg_0.545, Arg_1.234)
}

region_4.110._custom_call_lowering_rule.6 {
  Arg_0.546 = s32[] parameter(0)
  Arg_1.235 = s32[] parameter(1)
  ROOT add.545 = s32[] add(Arg_0.546, Arg_1.235)
}

region_6.178._custom_call_lowering_rule.6 {
  Arg_0.547 = s32[] parameter(0)
  ROOT Arg_1.236 = s32[] parameter(1)
}

region_7.194._custom_call_lowering_rule.6 {
  Arg_0.548 = s32[] parameter(0)
  Arg_1.237 = s32[] parameter(1)
  ROOT add.546 = s32[] add(Arg_0.548, Arg_1.237)
}

region_10.224._custom_call_lowering_rule.6 {
  Arg_0.549 = s32[] parameter(0)
  ROOT Arg_1.238 = s32[] parameter(1)
}

region_8.202._custom_call_lowering_rule.6 {
  Arg_0.550 = pred[] parameter(0)
  ROOT Arg_1.239 = pred[] parameter(1)
}

region_9.213._custom_call_lowering_rule.6 {
  Arg_0.551 = s32[] parameter(0)
  Arg_1.240 = s32[] parameter(1)
  ROOT add.547 = s32[] add(Arg_0.551, Arg_1.240)
}

region_11.232._custom_call_lowering_rule.6 {
  Arg_0.552 = s32[] parameter(0)
  ROOT Arg_1.241 = s32[] parameter(1)
}

region_0.61._custom_call_lowering_rule.7 {
  Arg_2.102 = s32[] parameter(2)
  Arg_3.38 = s32[] parameter(3)
  Arg_0.553 = s32[] parameter(0)
  Arg_1.242 = s32[] parameter(1)
  ROOT compare.416 = pred[] compare(Arg_0.553, Arg_1.242), direction=LT
}

region_1.74._custom_call_lowering_rule.7 {
  Arg_0.554 = s32[] parameter(0)
  Arg_1.243 = s32[] parameter(1)
  ROOT add.548 = s32[] add(Arg_0.554, Arg_1.243)
}

…
  all-reduce.1490 = f32[] all-reduce(reduce.1234), channel_id=2773, replica_groups=[1,16]<=[16], use_global_device_ids=true, to_apply=region_2059.46110.clone
  convert.6217 = bf16[] convert(all-reduce.1490)
  add.8543 = bf16[] add(add.8542, convert.6217)
  all-reduce.1491 = f32[] all-reduce(reduce.1235), channel_id=2774, replica_groups=[1,16]<=[16], use_global_device_ids=true, to_apply=region_2060.46119.clone
  convert.6220 = bf16[] convert(all-reduce.1491)
  add.8544 = bf16[] add(add.8543, convert.6220)
  all-reduce.1492 = f32[] all-reduce(reduce.1236), channel_id=2775, replica_groups=[2,8]<=[16], use_global_device_ids=true, to_apply=region_2061.46128.clone
  convert.6222 = bf16[] convert(all-reduce.1492)
  add.8545 = bf16[] add(add.8544, convert.6222)
  all-reduce.1493 = f32[] all-reduce(reduce.1237), channel_id=2776, replica_groups=[2,8]<=[16], use_global_device_ids=true, to_apply=region_2062.46137.clone
  convert.6224 = bf16[] convert(all-reduce.1493)
  add.8546 = bf16[] add(add.8545, convert.6224)
  all-reduce.1494 = f32[] all-reduce(reduce.1238), channel_id=2777, replica_groups=[2,8]<=[16], use_global_device_ids=true, to_apply=region_2063.46146.clone
  convert.6226 = bf16[] convert(all-reduce.1494)
  add.8547 = bf16[] add(add.8546, convert.6226)
  add.8548 = bf16[] add(add.8547, convert.3114)
  add.8549 = bf16[] add(add.8548, convert.3116)
  all-reduce.1495 = f32[] all-reduce(reduce.1243), channel_id=2778, replica_groups=[1,16]<=[16], use_global_device_ids=true, to_apply=region_2066.46173.clone
  convert.6232 = bf16[] convert(all-reduce.1495)
  add.8550 = bf16[] add(add.8549, convert.6232)
  all-reduce.1496 = f32[] all-reduce(reduce.1244), channel_id=2779, replica_groups=[1,16]<=[16], use_global_device_ids=true, to_apply=region_2067.46182.clone
  convert.6234 = bf16[] convert(all-reduce.1496)
  add.8551 = bf16[] add(add.8550, convert.6234)
  all-reduce.1497 = f32[] all-reduce(reduce.1245), channel_id=2780, replica_groups=[1,16]<=[16], use_global_device_ids=true, to_apply=region_2068.46191.clone
  convert.6236 = bf16[] convert(all-reduce.1497)
  add.8552 = bf16[] add(add.8551, convert.6236)
  all-reduce.1498 = f32[] all-reduce(reduce.1246), channel_id=2781, replica_groups=[1,16]<=[16], use_global_device_ids=true, to_apply=region_2069.46200.clone
  convert.6239 = bf16[] convert(all-reduce.1498)
  add.8553 = bf16[] add(add.8552, convert.6239)
  all-reduce.1499 = f32[] all-reduce(reduce.1247), channel_id=2782, replica_groups=[1,16]<=[16], use_global_device_ids=true, to_apply=region_2070.46209.clone
  convert.6241 = bf16[] convert(all-reduce.1499)
  add.8554 = bf16[] add(add.8553, convert.6241)
  all-reduce.1500 = f32[] all-reduce(reduce.1248), channel_id=2783, replica_groups=[2,8]<=[16], use_global_device_ids=true, to_apply=region_2071.46218.clone
  convert.6243 = bf16[] convert(all-reduce.1500)
  add.8555 = bf16[] add(add.8554, convert.6243)
  all-reduce.1501 = f32[] all-reduce(reduce.1249), channel_id=2784, replica_groups=[2,8]<=[16], use_global_device_ids=true, to_apply=region_2072.46227.clone
  convert.6245 = bf16[] convert(all-reduce.1501)
  add.8556 = bf16[] add(add.8555, convert.6245)
  all-reduce.1502 = f32[] all-reduce(reduce.1250), channel_id=2785, replica_groups=[2,8]<=[16], use_global_device_ids=true, to_apply=region_2073.46236.clone
  convert.6247 = bf16[] convert(all-reduce.1502)
  add.8557 = bf16[] add(add.8556, convert.6247)
  add.8558 = bf16[] add(add.8557, convert.3136)
  add.8559 = bf16[] add(add.8558, convert.3138)
  all-reduce.1503 = f32[] all-reduce(reduce.1255), channel_id=2786, replica_groups=[1,16]<=[16], use_global_device_ids=true, to_apply=region_2076.46263.clone
  convert.6254 = bf16[] convert(all-reduce.1503)
  add.8560 = bf16[] add(add.8559, convert.6254)
  all-reduce.1504 = f32[] all-reduce(reduce.1256), channel_id=2787, replica_groups=[1,16]<=[16], use_global_device_ids=true, to_apply=region_2077.46272.clone
  convert.6256 = bf16[] convert(all-reduce.1504)
  add.8561 = bf16[] add(add.8560, convert.6256)
  all-reduce.1505 = f32[] all-reduce(reduce.1257), channel_id=2788, replica_groups=[1,16]<=[16], use_global_device_ids=true, to_apply=region_2078.46281.clone
  convert.6258 = bf16[] convert(all-reduce.1505)
  add.8562 = bf16[] add(add.8561, convert.6258)
  all-reduce.1506 = f32[] all-reduce(reduce.1258), channel_id=2789, replica_groups=[1,16]<=[16], use_global_device_ids=true, to_apply=region_2079.46290.clone
  convert.6260 = bf16[] convert(all-reduce.1506)
  add.8563 = bf16[] add(add.8562, convert.6260)
  all-reduce.1507 = f32[] all-reduce(reduce.1259), channel_id=2790, replica_groups=[1,16]<=[16], use_global_device_ids=true, to_apply=region_2080.46299.clone
  convert.6262 = bf16[] convert(all-reduce.1507)
  add.8564 = bf16[] add(add.8563, convert.6262)
  all-reduce.1508 = f32[] all-reduce(reduce.1260), channel_id=2791, replica_groups=[2,8]<=[16], use_global_device_ids=true, to_apply=region_2081.46308.clone
  convert.6264 = bf16[] convert(all-reduce.1508)
  add.8565 = bf16[] add(add.8564, convert.6264)
  all-reduce.1509 = f32[] all-reduce(reduce.1261), channel_id=2792, replica_groups=[2,8]<=[16], use_global_device_ids=true, to_apply=region_2082.46317.clone
  convert.6267 = bf16[] convert(all-reduce.1509)
  add.8566 = bf16[] add(add.8565, convert.6267)
  all-reduce.1510 = f32[] all-reduce(reduce.1262), channel_id=2793, replica_groups=[2,8]<=[16], use_global_device_ids=true, to_apply=region_2083.46326.clone
  convert.6269 = bf16[] convert(all-reduce.1510)
  add.8567 = bf16[] add(add.8566, convert.6269)
  add.8568 = bf16[] add(add.8567, convert.3156)
  add.8569 = bf16[] add(add.8568, convert.3158)
  all-reduce.1511 = f32[] all-reduce(reduce.1267), channel_id=2794, replica_groups=[1,16]<=[16], use_global_device_ids=true, to_apply=region_2086.46353.clone
  convert.6275 = bf16[] convert(all-reduce.1511)
  add.8570 = bf16[] add(add.8569, convert.6275)
  all-reduce.1512 = f32[] all-reduce(reduce.1268), channel_id=2795, replica_groups=[1,16]<=[16], use_global_device_ids=true, to_apply=region_2087.46362.clone
  convert.6277 = bf16[] convert(all-reduce.1512)
  add.8571 = bf16[] add(add.8570, convert.6277)
  all-reduce.1513 = f32[] all-reduce(reduce.1269), channel_id=2796, replica_groups=[1,16]<=[16], use_global_device_ids=true, to_apply=region_2088.46371.clone
  convert.6279 = bf16[] convert(all-reduce.1513)
  add.8572 = bf16[] add(add.8571, convert.6279)
  all-reduce.1514 = f32[] all-reduce(reduce.1270), channel_id=2797, replica_groups=[1,16]<=[16], use_global_device_ids=true, to_apply=region_2089.46380.clone
  convert.6281 = bf16[] convert(all-reduce.1514)
  add.8573 = bf16[] add(add.8572, convert.6281)
  all-reduce.1515 = f32[] all-reduce(reduce.1271), channel_id=2798, replica_groups=[1,16]<=[16], use_global_device_ids=true, to_apply=region_2090.46389.clone
  convert.6283 = bf16[] convert(all-reduce.1515)
  add.8574 = bf16[] add(add.8573, convert.6283)
  all-reduce.1516 = f32[] all-reduce(reduce.1272), channel_id=2799, replica_groups=[2,8]<=[16], use_global_device_ids=true, to_apply=region_2091.46398.clone
  convert.6285 = bf16[] convert(all-reduce.1516)
  add.8576 = bf16[] add(add.8574, convert.6285)
  all-reduce.1517 = f32[] all-reduce(reduce.1273), channel_id=2800, replica_groups=[2,8]<=[16], use_global_device_ids=true, to_apply=region_2092.46407.clone
  convert.6287 = bf16[] convert(all-reduce.1517)
  add.8577 = bf16[] add(add.8576, convert.6287)
  all-reduce.1518 = f32[] all-reduce(reduce.1274), channel_id=2801, replica_groups=[2,8]<=[16], use_global_device_ids=true, to_apply=region_2093.46416.clone
  convert.6290 = bf16[] convert(all-reduce.1518)
  add.8578 = bf16[] add(add.8577, convert.6290)
  add.8579 = bf16[] add(add.8578, convert.3177)
  add.8580 = bf16[] add(add.8579, convert.3180)
  all-reduce.1519 = f32[] all-reduce(reduce.1279), channel_id=2802, replica_groups=[1,16]<=[16], use_global_device_ids=true, to_apply=region_2096.46443.clone
  convert.6296 = bf16[] convert(all-reduce.1519)
  add.8581 = bf16[] add(add.8580, convert.6296)
  all-reduce.1520 = f32[] all-reduce(reduce.1280), channel_id=2803, replica_groups=[1,16]<=[16], use_global_device_ids=true, to_apply=region_2097.46452.clone
  convert.6298 = bf16[] convert(all-reduce.1520)
  add.8582 = bf16[] add(add.8581, convert.6298)
  all-reduce.1521 = f32[] all-reduce(reduce.1281), channel_id=2804, replica_groups=[1,16]<=[16], use_global_device_ids=true, to_apply=region_2098.46461.clone
  convert.6300 = bf16[] convert(all-reduce.1521)
  add.8583 = bf16[] add(add.8582, convert.6300)
  all-reduce.1522 = f32[] all-reduce(reduce.1282), channel_id=2805, replica_groups=[1,16]<=[16], use_global_device_ids=true, to_apply=region_2099.46470.clone
  convert.6302 = bf16[] convert(all-reduce.1522)
  add.8584 = bf16[] add(add.8583, convert.6302)
  all-reduce.1523 = f32[] all-reduce(reduce.1283), channel_id=2806, replica_groups=[1,16]<=[16], use_global_device_ids=true, to_apply=region_2100.46479.clone
  convert.6304 = bf16[] convert(all-reduce.1523)
  add.8585 = bf16[] add(add.8584, convert.6304)
  all-reduce.1524 = f32[] all-reduce(reduce.1284), channel_id=2807, replica_groups=[2,8]<=[16], use_global_device_ids=true, to_apply=region_2101.46488.clone
  convert.6306 = bf16[] convert(all-reduce.1524)
  add.8586 = bf16[] add(add.8585, convert.6306)
  all-reduce.1525 = f32[] all-reduce(reduce.1285), channel_id=2808, replica_groups=[2,8]<=[16], use_global_device_ids=true, to_apply=region_2102.46497.clone
  convert.6308 = bf16[] convert(all-reduce.1525)
  add.8587 = bf16[] add(add.8586, convert.6308)
  all-reduce.1526 = f32[] all-reduce(reduce.1286), channel_id=2809, replica_groups=[2,8]<=[16], use_global_device_ids=true, to_apply=region_2103.46506.clone
  convert.6310 = bf16[] convert(all-reduce.1526)
  add.8588 = bf16[] add(add.8587, convert.6310)
  add.8589 = bf16[] add(add.8588, convert.3199)
  add.8590 = bf16[] add(add.8589, convert.3201)
  all-reduce.1527 = f32[] all-reduce(reduce.1291), channel_id=2810, replica_groups=[1,16]<=[16], use_global_device_ids=true, to_apply=region_2106.46533.clone
  convert.6316 = bf16[] convert(all-reduce.1527)
  add.8591 = bf16[] add(add.8590, convert.6316)
  all-reduce.1528 = f32[] all-reduce(reduce.1292), channel_id=2811, replica_groups=[1,16]<=[16], use_global_device_ids=true, to_apply=region_2107.46542.clone
  convert.6318 = bf16[] convert(all-reduce.1528)
  add.8592 = bf16[] add(add.8591, convert.6318)
  all-reduce.1529 = f32[] all-reduce(reduce.1293), channel_id=2812, replica_groups=[1,16]<=[16], use_global_device_ids=true, to_apply=region_2108.46551.clone
  convert.6320 = bf16[] convert(all-reduce.1529)
  add.8593 = bf16[] add(add.8592, convert.6320)
  all-reduce.1530 = f32[] all-reduce(reduce.1294), channel_id=2813, replica_groups=[1,16]<=[16], use_global_device_ids=true, to_apply=region_2109.46560.clone
  convert.6322 = bf16[] convert(all-reduce.1530)
  add.8594 = bf16[] add(add.8593, convert.6322)
  all-reduce.1531 = f32[] all-reduce(reduce.1295), channel_id=2814, replica_groups=[1,16]<=[16], use_global_device_ids=true, to_apply=region_2110.46569.clone
  convert.6324 = bf16[] convert(all-reduce.1531)
  add.8595 = bf16[] add(add.8594, convert.6324)
  all-reduce.1532 = f32[] all-reduce(reduce.1296), channel_id=2815, replica_groups=[2,8]<=[16], use_global_device_ids=true, to_apply=region_2111.46578.clone
  convert.6326 = bf16[] convert(all-reduce.1532)
  add.8596 = bf16[] add(add.8595, convert.6326)
  all-reduce.1533 = f32[] all-reduce(reduce.1297), channel_id=2816, replica_groups=[2,8]<=[16], use_global_device_ids=true, to_apply=region_2112.46587.clone
  convert.6328 = bf16[] convert(all-reduce.1533)
  add.8597 = bf16[] add(add.8596, convert.6328)
  all-reduce.1534 = f32[] all-reduce(reduce.1298), channel_id=2817, replica_groups=[2,8]<=[16], use_global_device_ids=true, to_apply=region_2113.46596.clone
  convert.6330 = bf16[] convert(all-reduce.1534)
  add.8598 = bf16[] add(add.8597, convert.6330)
  add.8599 = bf16[] add(add.8598, convert.3220)
  add.8600 = bf16[] add(add.8599, convert.3222)
  all-reduce.1535 = f32[] all-reduce(reduce.1303), channel_id=2818, replica_groups=[1,16]<=[16], use_global_device_ids=true, to_apply=region_2116.46623.clone
  convert.6337 = bf16[] convert(all-reduce.1535)
  add.8601 = bf16[] add(add.8600, convert.6337)
  all-reduce.1536 = f32[] all-reduce(reduce.1304), channel_id=2819, replica_groups=[1,16]<=[16], use_global_device_ids=true, to_apply=region_2117.46632.clone
  convert.6339 = bf16[] convert(all-reduce.1536)
  add.8602 = bf16[] add(add.8601, convert.6339)
  all-reduce.1537 = f32[] all-reduce(reduce.1305), channel_id=2820, replica_groups=[1,16]<=[16], use_global_device_ids=true, to_apply=region_2118.46641.clone
  convert.6342 = bf16[] convert(all-reduce.1537)
  add.8603 = bf16[] add(add.8602, convert.6342)
  all-reduce.1538 = f32[] all-reduce(reduce.1307), channel_id=2821, replica_groups=[1,16]<=[16], use_global_device_ids=true, to_apply=region_2119.46650.clone
  convert.6344 = bf16[] convert(all-reduce.1538)
  add.8604 = bf16[] add(add.8603, convert.6344)
  all-reduce.1539 = f32[] all-reduce(reduce.1308), channel_id=2822, replica_groups=[1,16]<=[16], use_global_device_ids=true, to_apply=region_2120.46659.clone
  convert.6346 = bf16[] convert(all-reduce.1539)
  add.8605 = bf16[] add(add.8604, convert.6346)
  all-reduce.1540 = f32[] all-reduce(reduce.1309), channel_id=2823, replica_groups=[2,8]<=[16], use_global_device_ids=true, to_apply=region_2121.46668.clone
  convert.6348 = bf16[] convert(all-reduce.1540)
  add.8606 = bf16[] add(add.8605, convert.6348)
  all-reduce.1541 = f32[] all-reduce(reduce.1310), channel_id=2824, replica_groups=[2,8]<=[16], use_global_device_ids=true, to_apply=region_2122.46677.clone
  convert.6350 = bf16[] convert(all-reduce.1541)
  add.8607 = bf16[] add(add.8606, convert.6350)
  all-reduce.1542 = f32[] all-reduce(reduce.1311), channel_id=2825, replica_groups=[2,8]<=[16], use_global_device_ids=true, to_apply=region_2123.46686.clone
  convert.6352 = bf16[] convert(all-reduce.1542)
  add.8608 = bf16[] add(add.8607, convert.6352)
  add.8609 = bf16[] add(add.8608, convert.3241)
  add.8610 = bf16[] add(add.8609, convert.3243)
  all-reduce.1543 = f32[] all-reduce(reduce.1317), channel_id=2826, replica_groups=[1,16]<=[16], use_global_device_ids=true, to_apply=region_2126.46713.clone
  convert.6359 = bf16[] convert(all-reduce.1543)
  add.8611 = bf16[] add(add.8610, convert.6359)
  all-reduce.1544 = f32[] all-reduce(reduce.1318), channel_id=2827, replica_groups=[1,16]<=[16], use_global_device_ids=true, to_apply=region_2127.46722.clone
  convert.6361 = bf16[] convert(all-reduce.1544)
  add.8612 = bf16[] add(add.8611, convert.6361)
  all-reduce.1545 = f32[] all-reduce(reduce.1320), channel_id=2828, replica_groups=[1,16]<=[16], use_global_device_ids=true, to_apply=region_2128.46731.clone
  convert.6364 = bf16[] convert(all-reduce.1545)
  add.8613 = bf16[] add(add.8612, convert.6364)
  all-reduce.1546 = f32[] all-reduce(reduce.1321), channel_id=2829, replica_groups=[1,16]<=[16], use_global_device_ids=true, to_apply=region_2129.46740.clone
  convert.6366 = bf16[] convert(all-reduce.1546)
  add.8614 = bf16[] add(add.8613, convert.6366)
  all-reduce.1547 = f32[] all-reduce(reduce.1322), channel_id=2830, replica_groups=[1,16]<=[16], use_global_device_ids=true, to_apply=region_2130.46749.clone
  convert.6368 = bf16[] convert(all-reduce.1547)
  add.8616 = bf16[] add(add.8614, convert.6368)
  all-reduce.1548 = f32[] all-reduce(reduce.1324), channel_id=2831, replica_groups=[1,16]<=[16], use_global_device_ids=true, to_apply=region_2131.46758.clone
  convert.6370 = bf16[] convert(all-reduce.1548)
  add.8617 = bf16[] add(add.8616, convert.6370)
  sqrt.326 = bf16[] sqrt(add.8617)
  ROOT tuple.383 = (s32[], bf16[4096]{0}, bf16[256,8]{1,0}, bf16[1,2048,14336]{2,1,0}, bf16[1,2048,14336]{2,1,0}, /*index=5*/bf16[1,14336,2048]{2,1,0}, bf16[4096]{0}, bf16[4096]{0}, bf16[256,8,128]{2,1,0}, bf16[32,128,256]{2,1,0}, /*index=10*/bf16[256,32,128]{2,1,0}, bf16[256,8,128]{2,1,0}, bf16[256,8]{1,0}, bf16[1,2048,14336]{2,1,0}, bf16[1,2048,14336]{2,1,0}, /*index=15*/bf16[1,14336,2048]{2,1,0}, bf16[4096]{0}, bf16[4096]{0}, bf16[256,8,128]{2,1,0}, bf16[32,128,256]{2,1,0}, /*index=20*/bf16[256,32,128]{2,1,0}, bf16[256,8,128]{2,1,0}, bf16[256,8]{1,0}, bf16[1,2048,14336]{2,1,0}, bf16[1,2048,14336]{2,1,0}, /*index=25*/bf16[1,14336,2048]{2,1,0}, bf16[4096]{0}, bf16[4096]{0}, bf16[256,8,128]{2,1,0}, bf16[32,128,256]{2,1,0}, /*index=30*/bf16[256,32,128]{2,1,0}, bf16[256,8,128]{2,1,0}, bf16[256,8]{1,0}, bf16[1,2048,14336]{2,1,0}, bf16[1,2048,14336]{2,1,0}, /*index=35*/bf16[1,14336,2048]{2,1,0}, bf16[4096]{0}, bf16[4096]{0}, bf16[256,8,128]{2,1,0}, bf16[32,128,256]{2,1,0}, /*index=40*/bf16[256,32,128]{2,1,0}, bf16[256,8,128]{2,1,0}, bf16[256,8]{1,0}, bf16[1,2048,14336]{2,1,0}, bf16[1,2048,14336]{2,1,0}, /*index=45*/bf16[1,14336,2048]{2,1,0}, bf16[4096]{0}, bf16[4096]{0}, bf16[256,8,128]{2,1,0}, bf16[32,128,256]{2,1,0}, /*index=50*/bf16[256,32,128]{2,1,0}, bf16[256,8,128]{2,1,0}, bf16[256,8]{1,0}, bf16[1,2048,14336]{2,1,0}, bf16[1,2048,14336]{2,1,0}, /*index=55*/bf16[1,14336,2048]{2,1,0}, bf16[4096]{0}, bf16[4096]{0}, bf16[256,8,128]{2,1,0}, bf16[32,128,256]{2,1,0}, /*index=60*/bf16[256,32,128]{2,1,0}, bf16[256,8,128]{2,1,0}, bf16[256,8]{1,0}, bf16[1,2048,14336]{2,1,0}, bf16[1,2048,14336]{2,1,0}, /*index=65*/bf16[1,14336,2048]{2,1,0}, bf16[4096]{0}, bf16[4096]{0}, bf16[256,8,128]{2,1,0}, bf16[32,128,256]{2,1,0}, /*index=70*/bf16[256,32,128]{2,1,0}, bf16[256,8,128]{2,1,0}, bf16[256,8]{1,0}, bf16[1,2048,14336]{2,1,0}, bf16[1,2048,14336]{2,1,0}, /*index=75*/bf16[1,14336,2048]{2,1,0}, bf16[4096]{0}, bf16[4096]{0}, bf16[256,8,128]{2,1,0}, bf16[32,128,256]{2,1,0}, /*index=80*/bf16[256,32,128]{2,1,0}, bf16[256,8,128]{2,1,0}, bf16[256,8]{1,0}, bf16[1,2048,14336]{2,1,0}, bf16[1,2048,14336]{2,1,0}, /*index=85*/bf16[1,14336,2048]{2,1,0}, bf16[4096]{0}, bf16[4096]{0}, bf16[256,8,128]{2,1,0}, bf16[32,128,256]{2,1,0}, /*index=90*/bf16[256,32,128]{2,1,0}, bf16[256,8,128]{2,1,0}, bf16[256,8]{1,0}, bf16[1,2048,14336]{2,1,0}, bf16[1,2048,14336]{2,1,0}, /*index=95*/bf16[1,14336,2048]{2,1,0}, bf16[4096]{0}, bf16[4096]{0}, bf16[256,8,128]{2,1,0}, bf16[32,128,256]{2,1,0}, /*index=100*/bf16[256,32,128]{2,1,0}, bf16[256,8,128]{2,1,0}, bf16[256,8]{1,0}, bf16[1,2048,14336]{2,1,0}, bf16[1,2048,14336]{2,1,0}, /*index=105*/bf16[1,14336,2048]{2,1,0}, bf16[4096]{0}, bf16[4096]{0}, bf16[256,8,128]{2,1,0}, bf16[32,128,256]{2,1,0}, /*index=110*/bf16[256,32,128]{2,1,0}, bf16[256,8,128]{2,1,0}, bf16[256,8]{1,0}, bf16[1,2048,14336]{2,1,0}, bf16[1,2048,14336]{2,1,0}, /*index=115*/bf16[1,14336,2048]{2,1,0}, bf16[4096]{0}, bf16[4096]{0}, bf16[256,8,128]{2,1,0}, bf16[32,128,256]{2,1,0}, /*index=120*/bf16[256,32,128]{2,1,0}, bf16[256,8,128]{2,1,0}, bf16[256,8]{1,0}, bf16[1,2048,14336]{2,1,0}, bf16[1,2048,14336]{2,1,0}, /*index=125*/bf16[1,14336,2048]{2,1,0}, bf16[4096]{0}, bf16[4096]{0}, bf16[256,8,128]{2,1,0}, bf16[32,128,256]{2,1,0}, /*index=130*/bf16[256,32,128]{2,1,0}, bf16[256,8,128]{2,1,0}, bf16[256,8]{1,0}, bf16[1,2048,14336]{2,1,0}, bf16[1,2048,14336]{2,1,0}, /*index=135*/bf16[1,14336,2048]{2,1,0}, bf16[4096]{0}, bf16[4096]{0}, bf16[256,8,128]{2,1,0}, bf16[32,128,256]{2,1,0}, /*index=140*/bf16[256,32,128]{2,1,0}, bf16[256,8,128]{2,1,0}, bf16[256,8]{1,0}, bf16[1,2048,14336]{2,1,0}, bf16[1,2048,14336]{2,1,0}, /*index=145*/bf16[1,14336,2048]{2,1,0}, bf16[4096]{0}, bf16[4096]{0}, bf16[256,8,128]{2,1,0}, bf16[32,128,256]{2,1,0}, /*index=150*/bf16[256,32,128]{2,1,0}, bf16[256,8,128]{2,1,0}, bf16[256,8]{1,0}, bf16[1,2048,14336]{2,1,0}, bf16[1,2048,14336]{2,1,0}, /*index=155*/bf16[1,14336,2048]{2,1,0}, bf16[4096]{0}, bf16[4096]{0}, bf16[256,8,128]{2,1,0}, bf16[32,128,256]{2,1,0}, /*index=160*/bf16[256,32,128]{2,1,0}, bf16[256,8,128]{2,1,0}, bf16[256,8]{1,0}, bf16[1,2048,14336]{2,1,0}, bf16[1,2048,14336]{2,1,0}, /*index=165*/bf16[1,14336,2048]{2,1,0}, bf16[4096]{0}, bf16[4096]{0}, bf16[256,8,128]{2,1,0}, bf16[32,128,256]{2,1,0}, /*index=170*/bf16[256,32,128]{2,1,0}, bf16[256,8,128]{2,1,0}, bf16[256,8]{1,0}, bf16[1,2048,14336]{2,1,0}, bf16[1,2048,14336]{2,1,0}, /*index=175*/bf16[1,14336,2048]{2,1,0}, bf16[4096]{0}, bf16[4096]{0}, bf16[256,8,128]{2,1,0}, bf16[32,128,256]{2,1,0}, /*index=180*/bf16[256,32,128]{2,1,0}, bf16[256,8,128]{2,1,0}, bf16[256,8]{1,0}, bf16[1,2048,14336]{2,1,0}, bf16[1,2048,14336]{2,1,0}, /*index=185*/bf16[1,14336,2048]{2,1,0}, bf16[4096]{0}, bf16[4096]{0}, bf16[256,8,128]{2,1,0}, bf16[32,128,256]{2,1,0}, /*index=190*/bf16[256,32,128]{2,1,0}, bf16[256,8,128]{2,1,0}, bf16[256,8]{1,0}, bf16[1,2048,14336]{2,1,0}, bf16[1,2048,14336]{2,1,0}, /*index=195*/bf16[1,14336,2048]{2,1,0}, bf16[4096]{0}, bf16[4096]{0}, bf16[256,8,128]{2,1,0}, bf16[32,128,256]{2,1,0}, /*index=200*/bf16[256,32,128]{2,1,0}, bf16[256,8,128]{2,1,0}, bf16[256,8]{1,0}, bf16[1,2048,14336]{2,1,0}, bf16[1,2048,14336]{2,1,0}, /*index=205*/bf16[1,14336,2048]{2,1,0}, bf16[4096]{0}, bf16[4096]{0}, bf16[256,8,128]{2,1,0}, bf16[32,128,256]{2,1,0}, /*index=210*/bf16[256,32,128]{2,1,0}, bf16[256,8,128]{2,1,0}, bf16[256,8]{1,0}, bf16[1,2048,14336]{2,1,0}, bf16[1,2048,14336]{2,1,0}, /*index=215*/bf16[1,14336,2048]{2,1,0}, bf16[4096]{0}, bf16[4096]{0}, bf16[256,8,128]{2,1,0}, bf16[32,128,256]{2,1,0}, /*index=220*/bf16[256,32,128]{2,1,0}, bf16[256,8,128]{2,1,0}, bf16[256,8]{1,0}, bf16[1,2048,14336]{2,1,0}, bf16[1,2048,14336]{2,1,0}, /*index=225*/bf16[1,14336,2048]{2,1,0}, bf16[4096]{0}, bf16[4096]{0}, bf16[256,8,128]{2,1,0}, bf16[32,128,256]{2,1,0}, /*index=230*/bf16[256,32,128]{2,1,0}, bf16[256,8,128]{2,1,0}, bf16[256,8]{1,0}, bf16[1,2048,14336]{2,1,0}, bf16[1,2048,14336]{2,1,0}, /*index=235*/bf16[1,14336,2048]{2,1,0}, bf16[4096]{0}, bf16[4096]{0}, bf16[256,8,128]{2,1,0}, bf16[32,128,256]{2,1,0}, /*index=240*/bf16[256,32,128]{2,1,0}, bf16[256,8,128]{2,1,0}, bf16[256,8]{1,0}, bf16[1,2048,14336]{2,1,0}, bf16[1,2048,14336]{2,1,0}, /*index=245*/bf16[1,14336,2048]{2,1,0}, bf16[4096]{0}, bf16[4096]{0}, bf16[256,8,128]{2,1,0}, bf16[32,128,256]{2,1,0}, /*index=250*/bf16[256,32,128]{2,1,0}, bf16[256,8,128]{2,1,0}, bf16[256,8]{1,0}, bf16[1,2048,14336]{2,1,0}, bf16[1,2048,14336]{2,1,0}, /*index=255*/bf16[1,14336,2048]{2,1,0}, bf16[4096]{0}, bf16[4096]{0}, bf16[256,8,128]{2,1,0}, bf16[32,128,256]{2,1,0}, /*index=260*/bf16[256,32,128]{2,1,0}, bf16[256,8,128]{2,1,0}, bf16[256,8]{1,0}, bf16[1,2048,14336]{2,1,0}, bf16[1,2048,14336]{2,1,0}, /*index=265*/bf16[1,14336,2048]{2,1,0}, bf16[4096]{0}, bf16[4096]{0}, bf16[256,8,128]{2,1,0}, bf16[32,128,256]{2,1,0}, /*index=270*/bf16[256,32,128]{2,1,0}, bf16[256,8,128]{2,1,0}, bf16[256,8]{1,0}, bf16[1,2048,14336]{2,1,0}, bf16[1,2048,14336]{2,1,0}, /*index=275*/bf16[1,14336,2048]{2,1,0}, bf16[4096]{0}, bf16[4096]{0}, bf16[256,8,128]{2,1,0}, bf16[32,128,256]{2,1,0}, /*index=280*/bf16[256,32,128]{2,1,0}, bf16[256,8,128]{2,1,0}, bf16[256,8]{1,0}, bf16[1,2048,14336]{2,1,0}, bf16[1,2048,14336]{2,1,0}, /*index=285*/bf16[1,14336,2048]{2,1,0}, bf16[4096]{0}, bf16[4096]{0}, bf16[256,8,128]{2,1,0}, bf16[32,128,256]{2,1,0}, /*index=290*/bf16[256,32,128]{2,1,0}, bf16[256,8,128]{2,1,0}, bf16[256,8]{1,0}, bf16[1,2048,14336]{2,1,0}, bf16[1,2048,14336]{2,1,0}, /*index=295*/bf16[1,14336,2048]{2,1,0}, bf16[4096]{0}, bf16[4096]{0}, bf16[256,8,128]{2,1,0}, bf16[32,128,256]{2,1,0}, /*index=300*/bf16[256,32,128]{2,1,0}, bf16[256,8,128]{2,1,0}, bf16[256,8]{1,0}, bf16[1,2048,14336]{2,1,0}, bf16[1,2048,14336]{2,1,0}, /*index=305*/bf16[1,14336,2048]{2,1,0}, bf16[4096]{0}, bf16[4096]{0}, bf16[256,8,128]{2,1,0}, bf16[32,128,256]{2,1,0}, /*index=310*/bf16[256,32,128]{2,1,0}, bf16[256,8,128]{2,1,0}, bf16[256,8]{1,0}, bf16[1,2048,14336]{2,1,0}, bf16[1,2048,14336]{2,1,0}, /*index=315*/bf16[1,14336,2048]{2,1,0}, bf16[4096]{0}, bf16[4096]{0}, bf16[256,8,128]{2,1,0}, bf16[32,128,256]{2,1,0}, /*index=320*/bf16[256,32,128]{2,1,0}, bf16[256,8,128]{2,1,0}, bf16[256,32000]{1,0}, bf16[32000,256]{1,0}, s32[], /*index=325*/bf16[4096]{0}, bf16[256,8]{0,1}, bf16[1,2048,14336]{2,1,0}, bf16[1,2048,14336]{2,1,0}, bf16[1,14336,2048]{2,1,0}, /*index=330*/bf16[4096]{0}, bf16[4096]{0}, bf16[256,8,128]{0,2,1}, bf16[32,128,256]{1,0,2}, bf16[256,32,128]{0,2,1}, /*index=335*/bf16[256,8,128]{0,2,1}, bf16[256,8]{0,1}, bf16[1,2048,14336]{2,1,0}, bf16[1,2048,14336]{2,1,0}, bf16[1,14336,2048]{2,1,0}, /*index=340*/bf16[4096]{0}, bf16[4096]{0}, bf16[256,8,128]{0,2,1}, bf16[32,128,256]{1,0,2}, bf16[256,32,128]{0,2,1}, /*index=345*/bf16[256,8,128]{0,2,1}, bf16[256,8]{0,1}, bf16[1,2048,14336]{2,1,0}, bf16[1,2048,14336]{2,1,0}, bf16[1,14336,2048]{2,1,0}, /*index=350*/bf16[4096]{0}, bf16[4096]{0}, bf16[256,8,128]{0,2,1}, bf16[32,128,256]{1,0,2}, bf16[256,32,128]{0,2,1}, /*index=355*/bf16[256,8,128]{0,2,1}, bf16[256,8]{0,1}, bf16[1,2048,14336]{2,1,0}, bf16[1,2048,14336]{2,1,0}, bf16[1,14336,2048]{2,1,0}, /*index=360*/bf16[4096]{0}, bf16[4096]{0}, bf16[256,8,128]{0,2,1}, bf16[32,128,256]{1,0,2}, bf16[256,32,128]{0,2,1}, /*index=365*/bf16[256,8,128]{0,2,1}, bf16[256,8]{0,1}, bf16[1,2048,14336]{2,1,0}, bf16[1,2048,14336]{2,1,0}, bf16[1,14336,2048]{2,1,0}, /*index=370*/bf16[4096]{0}, bf16[4096]{0}, bf16[256,8,128]{0,2,1}, bf16[32,128,256]{1,0,2}, bf16[256,32,128]{0,2,1}, /*index=375*/bf16[256,8,128]{0,2,1}, bf16[256,8]{0,1}, bf16[1,2048,14336]{2,1,0}, bf16[1,2048,14336]{2,1,0}, bf16[1,14336,2048]{2,1,0}, /*index=380*/bf16[4096]{0}, bf16[4096]{0}, bf16[256,8,128]{0,2,1}, bf16[32,128,256]{1,0,2}, bf16[256,32,128]{0,2,1}, /*index=385*/bf16[256,8,128]{0,2,1}, bf16[256,8]{0,1}, bf16[1,2048,14336]{2,1,0}, bf16[1,2048,14336]{2,1,0}, bf16[1,14336,2048]{2,1,0}, /*index=390*/bf16[4096]{0}, bf16[4096]{0}, bf16[256,8,128]{0,2,1}, bf16[32,128,256]{1,0,2}, bf16[256,32,128]{0,2,1}, /*index=395*/bf16[256,8,128]{0,2,1}, bf16[256,8]{0,1}, bf16[1,2048,14336]{2,1,0}, bf16[1,2048,14336]{2,1,0}, bf16[1,14336,2048]{2,1,0}, /*index=400*/bf16[4096]{0}, bf16[4096]{0}, bf16[256,8,128]{0,2,1}, bf16[32,128,256]{1,0,2}, bf16[256,32,128]{0,2,1}, /*index=405*/bf16[256,8,128]{0,2,1}, bf16[256,8]{0,1}, bf16[1,2048,14336]{2,1,0}, bf16[1,2048,14336]{2,1,0}, bf16[1,14336,2048]{2,1,0}, /*index=410*/bf16[4096]{0}, bf16[4096]{0}, bf16[256,8,128]{0,2,1}, bf16[32,128,256]{1,0,2}, bf16[256,32,128]{0,2,1}, /*index=415*/bf16[256,8,128]{0,2,1}, bf16[256,8]{0,1}, bf16[1,2048,14336]{2,1,0}, bf16[1,2048,14336]{2,1,0}, bf16[1,14336,2048]{2,1,0}, /*index=420*/bf16[4096]{0}, bf16[4096]{0}, bf16[256,8,128]{0,2,1}, bf16[32,128,256]{1,0,2}, bf16[256,32,128]{0,2,1}, /*index=425*/bf16[256,8,128]{0,2,1}, bf16[256,8]{0,1}, bf16[1,2048,14336]{2,1,0}, bf16[1,2048,14336]{2,1,0}, bf16[1,14336,2048]{2,1,0}, /*index=430*/bf16[4096]{0}, bf16[4096]{0}, bf16[256,8,128]{0,2,1}, bf16[32,128,256]{1,0,2}, bf16[256,32,128]{0,2,1}, /*index=435*/bf16[256,8,128]{0,2,1}, bf16[256,8]{0,1}, bf16[1,2048,14336]{2,1,0}, bf16[1,2048,14336]{2,1,0}, bf16[1,14336,2048]{2,1,0}, /*index=440*/bf16[4096]{0}, bf16[4096]{0}, bf16[256,8,128]{0,2,1}, bf16[32,128,256]{1,0,2}, bf16[256,32,128]{0,2,1}, /*index=445*/bf16[256,8,128]{0,2,1}, bf16[256,8]{0,1}, bf16[1,2048,14336]{2,1,0}, bf16[1,2048,14336]{2,1,0}, bf16[1,14336,2048]{2,1,0}, /*index=450*/bf16[4096]{0}, bf16[4096]{0}, bf16[256,8,128]{0,2,1}, bf16[32,128,256]{1,0,2}, bf16[256,32,128]{0,2,1}, /*index=455*/bf16[256,8,128]{0,2,1}, bf16[256,8]{0,1}, bf16[1,2048,14336]{2,1,0}, bf16[1,2048,14336]{2,1,0}, bf16[1,14336,2048]{2,1,0}, /*index=460*/bf16[4096]{0}, bf16[4096]{0}, bf16[256,8,128]{0,2,1}, bf16[32,128,256]{1,0,2}, bf16[256,32,128]{0,2,1}, /*index=465*/bf16[256,8,128]{0,2,1}, bf16[256,8]{0,1}, bf16[1,2048,14336]{2,1,0}, bf16[1,2048,14336]{2,1,0}, bf16[1,14336,2048]{2,1,0}, /*index=470*/bf16[4096]{0}, bf16[4096]{0}, bf16[256,8,128]{0,2,1}, bf16[32,128,256]{1,0,2}, bf16[256,32,128]{0,2,1}, /*index=475*/bf16[256,8,128]{0,2,1}, bf16[256,8]{0,1}, bf16[1,2048,14336]{2,1,0}, bf16[1,2048,14336]{2,1,0}, bf16[1,14336,2048]{2,1,0}, /*index=480*/bf16[4096]{0}, bf16[4096]{0}, bf16[256,8,128]{0,2,1}, bf16[32,128,256]{1,0,2}, bf16[256,32,128]{0,2,1}, /*index=485*/bf16[256,8,128]{0,2,1}, bf16[256,8]{0,1}, bf16[1,2048,14336]{2,1,0}, bf16[1,2048,14336]{2,1,0}, bf16[1,14336,2048]{2,1,0}, /*index=490*/bf16[4096]{0}, bf16[4096]{0}, bf16[256,8,128]{0,2,1}, bf16[32,128,256]{1,0,2}, bf16[256,32,128]{0,2,1}, /*index=495*/bf16[256,8,128]{0,2,1}, bf16[256,8]{0,1}, bf16[1,2048,14336]{2,1,0}, bf16[1,2048,14336]{2,1,0}, bf16[1,14336,2048]{2,1,0}, /*index=500*/bf16[4096]{0}, bf16[4096]{0}, bf16[256,8,128]{0,2,1}, bf16[32,128,256]{1,0,2}, bf16[256,32,128]{0,2,1}, /*index=505*/bf16[256,8,128]{0,2,1}, bf16[256,8]{0,1}, bf16[1,2048,14336]{2,1,0}, bf16[1,2048,14336]{2,1,0}, bf16[1,14336,2048]{2,1,0}, /*index=510*/bf16[4096]{0}, bf16[4096]{0}, bf16[256,8,128]{0,2,1}, bf16[32,128,256]{1,0,2}, bf16[256,32,128]{0,2,1}, /*index=515*/bf16[256,8,128]{0,2,1}, bf16[256,8]{0,1}, bf16[1,2048,14336]{2,1,0}, bf16[1,2048,14336]{2,1,0}, bf16[1,14336,2048]{2,1,0}, /*index=520*/bf16[4096]{0}, bf16[4096]{0}, bf16[256,8,128]{0,2,1}, bf16[32,128,256]{1,0,2}, bf16[256,32,128]{0,2,1}, /*index=525*/bf16[256,8,128]{0,2,1}, bf16[256,8]{0,1}, bf16[1,2048,14336]{2,1,0}, bf16[1,2048,14336]{2,1,0}, bf16[1,14336,2048]{2,1,0}, /*index=530*/bf16[4096]{0}, bf16[4096]{0}, bf16[256,8,128]{0,2,1}, bf16[32,128,256]{1,0,2}, bf16[256,32,128]{0,2,1}, /*index=535*/bf16[256,8,128]{0,2,1}, bf16[256,8]{0,1}, bf16[1,2048,14336]{2,1,0}, bf16[1,2048,14336]{2,1,0}, bf16[1,14336,2048]{2,1,0}, /*index=540*/bf16[4096]{0}, bf16[4096]{0}, bf16[256,8,128]{0,2,1}, bf16[32,128,256]{1,0,2}, bf16[256,32,128]{0,2,1}, /*index=545*/bf16[256,8,128]{0,2,1}, bf16[256,8]{0,1}, bf16[1,2048,14336]{2,1,0}, bf16[1,2048,14336]{2,1,0}, bf16[1,14336,2048]{2,1,0}, /*index=550*/bf16[4096]{0}, bf16[4096]{0}, bf16[256,8,128]{0,2,1}, bf16[32,128,256]{1,0,2}, bf16[256,32,128]{0,2,1}, /*index=555*/bf16[256,8,128]{0,2,1}, bf16[256,8]{0,1}, bf16[1,2048,14336]{2,1,0}, bf16[1,2048,14336]{2,1,0}, bf16[1,14336,2048]{2,1,0}, /*index=560*/bf16[4096]{0}, bf16[4096]{0}, bf16[256,8,128]{0,2,1}, bf16[32,128,256]{1,0,2}, bf16[256,32,128]{0,2,1}, /*index=565*/bf16[256,8,128]{0,2,1}, bf16[256,8]{0,1}, bf16[1,2048,14336]{2,1,0}, bf16[1,2048,14336]{2,1,0}, bf16[1,14336,2048]{2,1,0}, /*index=570*/bf16[4096]{0}, bf16[4096]{0}, bf16[256,8,128]{0,2,1}, bf16[32,128,256]{1,0,2}, bf16[256,32,128]{0,2,1}, /*index=575*/bf16[256,8,128]{0,2,1}, bf16[256,8]{0,1}, bf16[1,2048,14336]{2,1,0}, bf16[1,2048,14336]{2,1,0}, bf16[1,14336,2048]{2,1,0}, /*index=580*/bf16[4096]{0}, bf16[4096]{0}, bf16[256,8,128]{0,2,1}, bf16[32,128,256]{1,0,2}, bf16[256,32,128]{0,2,1}, /*index=585*/bf16[256,8,128]{0,2,1}, bf16[256,8]{0,1}, bf16[1,2048,14336]{2,1,0}, bf16[1,2048,14336]{2,1,0}, bf16[1,14336,2048]{2,1,0}, /*index=590*/bf16[4096]{0}, bf16[4096]{0}, bf16[256,8,128]{0,2,1}, bf16[32,128,256]{1,0,2}, bf16[256,32,128]{0,2,1}, /*index=595*/bf16[256,8,128]{0,2,1}, bf16[256,8]{0,1}, bf16[1,2048,14336]{2,1,0}, bf16[1,2048,14336]{2,1,0}, bf16[1,14336,2048]{2,1,0}, /*index=600*/bf16[4096]{0}, bf16[4096]{0}, bf16[256,8,128]{0,2,1}, bf16[32,128,256]{1,0,2}, bf16[256,32,128]{0,2,1}, /*index=605*/bf16[256,8,128]{0,2,1}, bf16[256,8]{0,1}, bf16[1,2048,14336]{2,1,0}, bf16[1,2048,14336]{2,1,0}, bf16[1,14336,2048]{2,1,0}, /*index=610*/bf16[4096]{0}, bf16[4096]{0}, bf16[256,8,128]{0,2,1}, bf16[32,128,256]{1,0,2}, bf16[256,32,128]{0,2,1}, /*index=615*/bf16[256,8,128]{0,2,1}, bf16[256,8]{0,1}, bf16[1,2048,14336]{2,1,0}, bf16[1,2048,14336]{2,1,0}, bf16[1,14336,2048]{2,1,0}, /*index=620*/bf16[4096]{0}, bf16[4096]{0}, bf16[256,8,128]{0,2,1}, bf16[32,128,256]{1,0,2}, bf16[256,32,128]{0,2,1}, /*index=625*/bf16[256,8,128]{0,2,1}, bf16[256,8]{0,1}, bf16[1,2048,14336]{2,1,0}, bf16[1,2048,14336]{2,1,0}, bf16[1,14336,2048]{2,1,0}, /*index=630*/bf16[4096]{0}, bf16[4096]{0}, bf16[256,8,128]{0,2,1}, bf16[32,128,256]{1,0,2}, bf16[256,32,128]{0,2,1}, /*index=635*/bf16[256,8,128]{0,2,1}, bf16[256,8]{0,1}, bf16[1,2048,14336]{2,1,0}, bf16[1,2048,14336]{2,1,0}, bf16[1,14336,2048]{2,1,0}, /*index=640*/bf16[4096]{0}, bf16[4096]{0}, bf16[256,8,128]{0,2,1}, bf16[32,128,256]{1,0,2}, bf16[256,32,128]{0,2,1}, /*index=645*/bf16[256,8,128]{0,2,1}, bf16[256,32000]{0,1}, bf16[32000,256]{0,1}, bf16[4096]{0}, bf16[256,8]{0,1}, /*index=650*/bf16[1,2048,14336]{2,1,0}, bf16[1,2048,14336]{2,1,0}, bf16[1,14336,2048]{2,1,0}, bf16[4096]{0}, bf16[4096]{0}, /*index=655*/bf16[256,8,128]{0,2,1}, bf16[32,128,256]{1,0,2}, bf16[256,32,128]{0,2,1}, bf16[256,8,128]{0,2,1}, bf16[256,8]{0,1}, /*index=660*/bf16[1,2048,14336]{2,1,0}, bf16[1,2048,14336]{2,1,0}, bf16[1,14336,2048]{2,1,0}, bf16[4096]{0}, bf16[4096]{0}, /*index=665*/bf16[256,8,128]{0,2,1}, bf16[32,128,256]{1,0,2}, bf16[256,32,128]{0,2,1}, bf16[256,8,128]{0,2,1}, bf16[256,8]{0,1}, /*index=670*/bf16[1,2048,14336]{2,1,0}, bf16[1,2048,14336]{2,1,0}, bf16[1,14336,2048]{2,1,0}, bf16[4096]{0}, bf16[4096]{0}, /*index=675*/bf16[256,8,128]{0,2,1}, bf16[32,128,256]{1,0,2}, bf16[256,32,128]{0,2,1}, bf16[256,8,128]{0,2,1}, bf16[256,8]{0,1}, /*index=680*/bf16[1,2048,14336]{2,1,0}, bf16[1,2048,14336]{2,1,0}, bf16[1,14336,2048]{2,1,0}, bf16[4096]{0}, bf16[4096]{0}, /*index=685*/bf16[256,8,128]{0,2,1}, bf16[32,128,256]{1,0,2}, bf16[256,32,128]{0,2,1}, bf16[256,8,128]{0,2,1}, bf16[256,8]{0,1}, /*index=690*/bf16[1,2048,14336]{2,1,0}, bf16[1,2048,14336]{2,1,0}, bf16[1,14336,2048]{2,1,0}, bf16[4096]{0}, bf16[4096]{0}, /*index=695*/bf16[256,8,128]{0,2,1}, bf16[32,128,256]{1,0,2}, bf16[256,32,128]{0,2,1}, bf16[256,8,128]{0,2,1}, bf16[256,8]{0,1}, /*index=700*/bf16[1,2048,14336]{2,1,0}, bf16[1,2048,14336]{2,1,0}, bf16[1,14336,2048]{2,1,0}, bf16[4096]{0}, bf16[4096]{0}, /*index=705*/bf16[256,8,128]{0,2,1}, bf16[32,128,256]{1,0,2}, bf16[256,32,128]{0,2,1}, bf16[256,8,128]{0,2,1}, bf16[256,8]{0,1}, /*index=710*/bf16[1,2048,14336]{2,1,0}, bf16[1,2048,14336]{2,1,0}, bf16[1,14336,2048]{2,1,0}, bf16[4096]{0}, bf16[4096]{0}, /*index=715*/bf16[256,8,128]{0,2,1}, bf16[32,128,256]{1,0,2}, bf16[256,32,128]{0,2,1}, bf16[256,8,128]{0,2,1}, bf16[256,8]{0,1}, /*index=720*/bf16[1,2048,14336]{2,1,0}, bf16[1,2048,14336]{2,1,0}, bf16[1,14336,2048]{2,1,0}, bf16[4096]{0}, bf16[4096]{0}, /*index=725*/bf16[256,8,128]{0,2,1}, bf16[32,128,256]{1,0,2}, bf16[256,32,128]{0,2,1}, bf16[256,8,128]{0,2,1}, bf16[256,8]{0,1}, /*index=730*/bf16[1,2048,14336]{2,1,0}, bf16[1,2048,14336]{2,1,0}, bf16[1,14336,2048]{2,1,0}, bf16[4096]{0}, bf16[4096]{0}, /*index=735*/bf16[256,8,128]{0,2,1}, bf16[32,128,256]{1,0,2}, bf16[256,32,128]{0,2,1}, bf16[256,8,128]{0,2,1}, bf16[256,8]{0,1}, /*index=740*/bf16[1,2048,14336]{2,1,0}, bf16[1,2048,14336]{2,1,0}, bf16[1,14336,2048]{2,1,0}, bf16[4096]{0}, bf16[4096]{0}, /*index=745*/bf16[256,8,128]{0,2,1}, bf16[32,128,256]{1,0,2}, bf16[256,32,128]{0,2,1}, bf16[256,8,128]{0,2,1}, bf16[256,8]{0,1}, /*index=750*/bf16[1,2048,14336]{2,1,0}, bf16[1,2048,14336]{2,1,0}, bf16[1,14336,2048]{2,1,0}, bf16[4096]{0}, bf16[4096]{0}, /*index=755*/bf16[256,8,128]{0,2,1}, bf16[32,128,256]{1,0,2}, bf16[256,32,128]{0,2,1}, bf16[256,8,128]{0,2,1}, bf16[256,8]{0,1}, /*index=760*/bf16[1,2048,14336]{2,1,0}, bf16[1,2048,14336]{2,1,0}, bf16[1,14336,2048]{2,1,0}, bf16[4096]{0}, bf16[4096]{0}, /*index=765*/bf16[256,8,128]{0,2,1}, bf16[32,128,256]{1,0,2}, bf16[256,32,128]{0,2,1}, bf16[256,8,128]{0,2,1}, bf16[256,8]{0,1}, /*index=770*/bf16[1,2048,14336]{2,1,0}, bf16[1,2048,14336]{2,1,0}, bf16[1,14336,2048]{2,1,0}, bf16[4096]{0}, bf16[4096]{0}, /*index=775*/bf16[256,8,128]{0,2,1}, bf16[32,128,256]{1,0,2}, bf16[256,32,128]{0,2,1}, bf16[256,8,128]{0,2,1}, bf16[256,8]{0,1}, /*index=780*/bf16[1,2048,14336]{2,1,0}, bf16[1,2048,14336]{2,1,0}, bf16[1,14336,2048]{2,1,0}, bf16[4096]{0}, bf16[4096]{0}, /*index=785*/bf16[256,8,128]{0,2,1}, bf16[32,128,256]{1,0,2}, bf16[256,32,128]{0,2,1}, bf16[256,8,128]{0,2,1}, bf16[256,8]{0,1}, /*index=790*/bf16[1,2048,14336]{2,1,0}, bf16[1,2048,14336]{2,1,0}, bf16[1,14336,2048]{2,1,0}, bf16[4096]{0}, bf16[4096]{0}, /*index=795*/bf16[256,8,128]{0,2,1}, bf16[32,128,256]{1,0,2}, bf16[256,32,128]{0,2,1}, bf16[256,8,128]{0,2,1}, bf16[256,8]{0,1}, /*index=800*/bf16[1,2048,14336]{2,1,0}, bf16[1,2048,14336]{2,1,0}, bf16[1,14336,2048]{2,1,0}, bf16[4096]{0}, bf16[4096]{0}, /*index=805*/bf16[256,8,128]{0,2,1}, bf16[32,128,256]{1,0,2}, bf16[256,32,128]{0,2,1}, bf16[256,8,128]{0,2,1}, bf16[256,8]{0,1}, /*index=810*/bf16[1,2048,14336]{2,1,0}, bf16[1,2048,14336]{2,1,0}, bf16[1,14336,2048]{2,1,0}, bf16[4096]{0}, bf16[4096]{0}, /*index=815*/bf16[256,8,128]{0,2,1}, bf16[32,128,256]{1,0,2}, bf16[256,32,128]{0,2,1}, bf16[256,8,128]{0,2,1}, bf16[256,8]{0,1}, /*index=820*/bf16[1,2048,14336]{2,1,0}, bf16[1,2048,14336]{2,1,0}, bf16[1,14336,2048]{2,1,0}, bf16[4096]{0}, bf16[4096]{0}, /*index=825*/bf16[256,8,128]{0,2,1}, bf16[32,128,256]{1,0,2}, bf16[256,32,128]{0,2,1}, bf16[256,8,128]{0,2,1}, bf16[256,8]{0,1}, /*index=830*/bf16[1,2048,14336]{2,1,0}, bf16[1,2048,14336]{2,1,0}, bf16[1,14336,2048]{2,1,0}, bf16[4096]{0}, bf16[4096]{0}, /*index=835*/bf16[256,8,128]{0,2,1}, bf16[32,128,256]{1,0,2}, bf16[256,32,128]{0,2,1}, bf16[256,8,128]{0,2,1}, bf16[256,8]{0,1}, /*index=840*/bf16[1,2048,14336]{2,1,0}, bf16[1,2048,14336]{2,1,0}, bf16[1,14336,2048]{2,1,0}, bf16[4096]{0}, bf16[4096]{0}, /*index=845*/bf16[256,8,128]{0,2,1}, bf16[32,128,256]{1,0,2}, bf16[256,32,128]{0,2,1}, bf16[256,8,128]{0,2,1}, bf16[256,8]{0,1}, /*index=850*/bf16[1,2048,14336]{2,1,0}, bf16[1,2048,14336]{2,1,0}, bf16[1,14336,2048]{2,1,0}, bf16[4096]{0}, bf16[4096]{0}, /*index=855*/bf16[256,8,128]{0,2,1}, bf16[32,128,256]{1,0,2}, bf16[256,32,128]{0,2,1}, bf16[256,8,128]{0,2,1}, bf16[256,8]{0,1}, /*index=860*/bf16[1,2048,14336]{2,1,0}, bf16[1,2048,14336]{2,1,0}, bf16[1,14336,2048]{2,1,0}, bf16[4096]{0}, bf16[4096]{0}, /*index=865*/bf16[256,8,128]{0,2,1}, bf16[32,128,256]{1,0,2}, bf16[256,32,128]{0,2,1}, bf16[256,8,128]{0,2,1}, bf16[256,8]{0,1}, /*index=870*/bf16[1,2048,14336]{2,1,0}, bf16[1,2048,14336]{2,1,0}, bf16[1,14336,2048]{2,1,0}, bf16[4096]{0}, bf16[4096]{0}, /*index=875*/bf16[256,8,128]{0,2,1}, bf16[32,128,256]{1,0,2}, bf16[256,32,128]{0,2,1}, bf16[256,8,128]{0,2,1}, bf16[256,8]{0,1}, /*index=880*/bf16[1,2048,14336]{2,1,0}, bf16[1,2048,14336]{2,1,0}, bf16[1,14336,2048]{2,1,0}, bf16[4096]{0}, bf16[4096]{0}, /*index=885*/bf16[256,8,128]{0,2,1}, bf16[32,128,256]{1,0,2}, bf16[256,32,128]{0,2,1}, bf16[256,8,128]{0,2,1}, bf16[256,8]{0,1}, /*index=890*/bf16[1,2048,14336]{2,1,0}, bf16[1,2048,14336]{2,1,0}, bf16[1,14336,2048]{2,1,0}, bf16[4096]{0}, bf16[4096]{0}, /*index=895*/bf16[256,8,128]{0,2,1}, bf16[32,128,256]{1,0,2}, bf16[256,32,128]{0,2,1}, bf16[256,8,128]{0,2,1}, bf16[256,8]{0,1}, /*index=900*/bf16[1,2048,14336]{2,1,0}, bf16[1,2048,14336]{2,1,0}, bf16[1,14336,2048]{2,1,0}, bf16[4096]{0}, bf16[4096]{0}, /*index=905*/bf16[256,8,128]{0,2,1}, bf16[32,128,256]{1,0,2}, bf16[256,32,128]{0,2,1}, bf16[256,8,128]{0,2,1}, bf16[256,8]{0,1}, /*index=910*/bf16[1,2048,14336]{2,1,0}, bf16[1,2048,14336]{2,1,0}, bf16[1,14336,2048]{2,1,0}, bf16[4096]{0}, bf16[4096]{0}, /*index=915*/bf16[256,8,128]{0,2,1}, bf16[32,128,256]{1,0,2}, bf16[256,32,128]{0,2,1}, bf16[256,8,128]{0,2,1}, bf16[256,8]{0,1}, /*index=920*/bf16[1,2048,14336]{2,1,0}, bf16[1,2048,14336]{2,1,0}, bf16[1,14336,2048]{2,1,0}, bf16[4096]{0}, bf16[4096]{0}, /*index=925*/bf16[256,8,128]{0,2,1}, bf16[32,128,256]{1,0,2}, bf16[256,32,128]{0,2,1}, bf16[256,8,128]{0,2,1}, bf16[256,8]{0,1}, /*index=930*/bf16[1,2048,14336]{2,1,0}, bf16[1,2048,14336]{2,1,0}, bf16[1,14336,2048]{2,1,0}, bf16[4096]{0}, bf16[4096]{0}, /*index=935*/bf16[256,8,128]{0,2,1}, bf16[32,128,256]{1,0,2}, bf16[256,32,128]{0,2,1}, bf16[256,8,128]{0,2,1}, bf16[256,8]{0,1}, /*index=940*/bf16[1,2048,14336]{2,1,0}, bf16[1,2048,14336]{2,1,0}, bf16[1,14336,2048]{2,1,0}, bf16[4096]{0}, bf16[4096]{0}, /*index=945*/bf16[256,8,128]{0,2,1}, bf16[32,128,256]{1,0,2}, bf16[256,32,128]{0,2,1}, bf16[256,8,128]{0,2,1}, bf16[256,8]{0,1}, /*index=950*/bf16[1,2048,14336]{2,1,0}, bf16[1,2048,14336]{2,1,0}, bf16[1,14336,2048]{2,1,0}, bf16[4096]{0}, bf16[4096]{0}, /*index=955*/bf16[256,8,128]{0,2,1}, bf16[32,128,256]{1,0,2}, bf16[256,32,128]{0,2,1}, bf16[256,8,128]{0,2,1}, bf16[256,8]{0,1}, /*index=960*/bf16[1,2048,14336]{2,1,0}, bf16[1,2048,14336]{2,1,0}, bf16[1,14336,2048]{2,1,0}, bf16[4096]{0}, bf16[4096]{0}, /*index=965*/bf16[256,8,128]{0,2,1}, bf16[32,128,256]{1,0,2}, bf16[256,32,128]{0,2,1}, bf16[256,8,128]{0,2,1}, bf16[256,32000]{0,1}, /*index=970*/bf16[32000,256]{0,1}, s32[], bf16[], f32[], f32[], /*index=975*/bf16[], bf16[], s32[]) tuple(add.2900, add.5876, add.5882, add.5887, add.5892, add.5897, add.5902, add.5907, add.5913, add.5919, add.5924, add.5929, add.5935, add.5941, add.5947, add.5952, add.5957, add.5962, add.5967, add.5972, add.5978, add.5983, add.5988, add.5995, add.6001, add.6006, add.6012, add.6017, add.6023, add.6028, add.6033, add.6039, add.6045, add.6050, add.6055, add.6060, add.6065, add.6070, add.6076, add.6081, add.6088, add.6093, add.6098, add.6103, add.6108, add.6113, add.6118, add.6123, add.6128, add.6133, add.6138, add.6144, add.6149, add.6154, add.6159, add.6164, add.6169, add.6174, add.6179, add.6185, add.6190, add.6195, add.6200, add.6205, add.6210, add.6216, add.6221, add.6227, add.6232, add.6238, add.6244, add.6250, add.6255, add.6260, add.6265, add.6270, add.6275, add.6281, add.6286, add.6291, add.6298, add.6304, add.6309, add.6315, add.6320, add.6326, add.6331, add.6336, add.6342, add.6348, add.6353, add.6358, add.6363, add.6368, add.6373, add.6378, add.6384, add.6390, add.6396, add.6401, add.6406, add.6411, add.6416, add.6421, add.6426, add.6431, add.6436, add.6441, add.6446, add.6452, add.6457, add.6462, add.6467, add.6472, add.6477, add.6482, add.6488, add.6493, add.6498, add.6503, add.6508, add.6513, add.6519, add.6524, add.6530, add.6535, add.6540, add.6547, add.6553, add.6558, add.6563, add.6568, add.6573, add.6578, add.6583, add.6589, add.6594, add.6600, add.6607, add.6612, add.6617, add.6623, add.6629, add.6634, add.6639, add.6645, add.6650, add.6656, add.6661, add.6666, add.6671, add.6676, add.6681, add.6687, add.6693, add.6699, add.6704, add.6709, add.6714, add.6719, add.6724, add.6729, add.6734, add.6739, add.6744, add.6749, add.6755, add.6760, add.6765, add.6770, add.6775, add.6780, add.6785, add.6790, add.6796, add.6801, add.6806, add.6811, add.6816, add.6821, add.6827, add.6833, add.6838, add.6843, add.6849, add.6856, add.6861, add.6866, add.6871, add.6876, add.6881, add.6886, add.6892, add.6897, add.6903, add.6910, add.6915, add.6920, add.6926, add.6931, add.6937, add.6942, add.6948, add.6953, add.6959, add.6964, add.6969, add.6974, add.6979, add.6984, add.6990, add.6996, add.7002, add.7007, add.7012, add.7017, add.7022, add.7027, add.7032, add.7037, add.7042, add.7047, add.7052, add.7058, add.7063, add.7068, add.7073, add.7078, add.7083, add.7088, add.7093, add.7099, add.7104, add.7109, add.7114, add.7119, add.7124, add.7130, add.7136, add.7141, add.7146, add.7152, add.7158, add.7164, add.7169, add.7174, add.7179, add.7184, add.7189, add.7195, add.7200, add.7205, add.7213, add.7218, add.7223, add.7229, add.7234, add.7240, add.7245, add.7251, add.7256, add.7262, add.7267, add.7272, add.7277, add.7282, add.7287, add.7293, add.7299, add.7305, add.7310, add.7315, add.7320, add.7325, add.7330, add.7335, add.7340, add.7345, add.7350, add.7355, add.7361, add.7366, add.7371, add.7376, add.7381, add.7386, add.7391, add.7396, add.7402, add.7407, add.7412, add.7417, add.7422, add.7427, add.7433, add.7439, add.7444, add.7449, add.7455, add.7461, add.7467, add.7472, add.7477, add.7482, add.7487, add.7492, add.7498, add.7503, add.7508, add.7515, add.7521, add.7526, add.7532, add.7537, add.7543, add.7548, add.7553, add.7559, add.7565, add.7570, add.7575, add.7580, add.7585, add.7590, select.2585, add.5871, add.5877, add.5883, add.5888, add.5893, add.5898, add.5903, add.5908, add.5914, add.5920, add.5925, add.5930, add.5936, add.5942, add.5948, add.5953, add.5958, add.5963, add.5968, add.5973, add.5979, add.5984, add.5989, add.5997, add.6002, add.6007, add.6013, add.6018, add.6024, add.6029, add.6035, add.6040, add.6046, add.6051, add.6056, add.6061, add.6066, add.6071, add.6077, add.6083, add.6089, add.6094, add.6099, add.6104, add.6109, add.6114, add.6119, add.6124, add.6129, add.6134, add.6139, add.6145, add.6150, add.6155, add.6160, add.6165, add.6170, add.6175, add.6180, add.6186, add.6191, add.6196, add.6201, add.6206, add.6211, add.6217, add.6223, add.6228, add.6233, add.6239, add.6245, add.6251, add.6256, add.6261, add.6266, add.6271, add.6276, add.6282, add.6287, add.6292, add.6299, add.6305, add.6310, add.6316, add.6321, add.6327, add.6332, add.6337, add.6343, add.6349, add.6354, add.6359, add.6364, add.6369, add.6374, add.6380, add.6385, add.6392, add.6397, add.6402, add.6407, add.6412, add.6417, add.6422, add.6427, add.6432, add.6437, add.6442, add.6448, add.6453, add.6458, add.6463, add.6468, add.6473, add.6478, add.6483, add.6489, add.6494, add.6499, add.6504, add.6509, add.6514, add.6520, add.6525, add.6531, add.6536, add.6542, add.6548, add.6554, add.6559, add.6564, add.6569, add.6574, add.6579, add.6585, add.6590, add.6595, add.6602, add.6608, add.6613, add.6619, add.6624, add.6630, add.6635, add.6640, add.6646, add.6652, add.6657, add.6662, add.6667, add.6672, add.6677, add.6682, add.6688, add.6694, add.6700, add.6705, add.6710, add.6715, add.6720, add.6725, add.6730, add.6735, add.6740, add.6745, add.6750, add.6756, add.6761, add.6766, add.6771, add.6776, add.6781, add.6786, add.6792, add.6797, add.6802, add.6807, add.6812, add.6817, add.6823, add.6828, add.6834, add.6839, add.6844, add.6851, add.6857, add.6862, add.6867, add.6872, add.6877, add.6882, add.6887, add.6893, add.6898, add.6904, add.6911, add.6916, add.6921, add.6927, add.6933, add.6938, add.6943, add.6949, add.6954, add.6960, add.6965, add.6970, add.6975, add.6980, add.6985, add.6991, add.6997, add.7003, add.7008, add.7013, add.7018, add.7023, add.7028, add.7033, add.7038, add.7043, add.7048, add.7053, add.7059, add.7064, add.7069, add.7074, add.7079, add.7084, add.7089, add.7094, add.7100, add.7105, add.7110, add.7115, add.7120, add.7125, add.7131, add.7137, add.7142, add.7147, add.7153, add.7160, add.7165, add.7170, add.7175, add.7180, add.7185, add.7190, add.7196, add.7201, add.7207, add.7214, add.7219, add.7224, add.7230, add.7235, add.7241, add.7246, add.7252, add.7257, add.7263, add.7268, add.7273, add.7278, add.7283, add.7288, add.7294, add.7300, add.7306, add.7311, add.7316, add.7321, add.7326, add.7331, add.7336, add.7341, add.7346, add.7351, add.7356, add.7362, add.7367, add.7372, add.7377, add.7382, add.7387, add.7392, add.7397, add.7403, add.7408, add.7413, add.7418, add.7423, add.7428, add.7434, add.7440, add.7445, add.7450, add.7456, add.7462, add.7468, add.7473, add.7478, add.7483, add.7488, add.7493, add.7499, add.7504, add.7509, add.7517, add.7522, add.7527, add.7533, add.7538, add.7544, add.7549, add.7555, add.7560, add.7566, add.7571, add.7576, add.7581, add.7586, add.5873, add.5878, add.5884, add.5889, add.5894, add.5899, add.5904, add.5909, add.5915, add.5921, add.5926, add.5931, add.5937, add.5944, add.5949, add.5954, add.5959, add.5964, add.5969, add.5974, add.5980, add.5985, add.5991, add.5998, add.6003, add.6008, add.6014, add.6019, add.6025, add.6030, add.6036, add.6041, add.6047, add.6052, add.6057, add.6062, add.6067, add.6072, add.6078, add.6084, add.6090, add.6095, add.6100, add.6105, add.6110, add.6115, add.6120, add.6125, add.6130, add.6135, add.6140, add.6146, add.6151, add.6156, add.6161, add.6166, add.6171, add.6176, add.6181, add.6187, add.6192, add.6197, add.6202, add.6207, add.6212, add.6218, add.6224, add.6229, add.6234, add.6240, add.6246, add.6252, add.6257, add.6262, add.6267, add.6272, add.6277, add.6283, add.6288, add.6293, add.6301, add.6306, add.6311, add.6317, add.6322, add.6328, add.6333, add.6339, add.6344, add.6350, add.6355, add.6360, add.6365, add.6370, add.6375, add.6381, add.6387, add.6393, add.6398, add.6403, add.6408, add.6413, add.6418, add.6423, add.6428, add.6433, add.6438, add.6443, add.6449, add.6454, add.6459, add.6464, add.6469, add.6474, add.6479, add.6484, add.6490, add.6495, add.6500, add.6505, add.6510, add.6515, add.6521, add.6527, add.6532, add.6537, add.6543, add.6549, add.6555, add.6560, add.6565, add.6570, add.6575, add.6580, add.6586, add.6591, add.6596, add.6603, add.6609, add.6614, add.6620, add.6625, add.6631, add.6636, add.6641, add.6647, add.6653, add.6658, add.6663, add.6668, add.6673, add.6678, add.6684, add.6689, add.6696, add.6701, add.6706, add.6711, add.6716, add.6721, add.6726, add.6731, add.6736, add.6741, add.6746, add.6752, add.6757, add.6762, add.6767, add.6772, add.6777, add.6782, add.6787, add.6793, add.6798, add.6803, add.6808, add.6813, add.6818, add.6824, add.6829, add.6835, add.6840, add.6846, add.6852, add.6858, add.6863, add.6868, add.6873, add.6878, add.6883, add.6889, add.6894, add.6899, add.6906, add.6912, add.6917, add.6923, add.6928, add.6934, add.6939, add.6944, add.6950, add.6956, add.6961, add.6966, add.6971, add.6976, add.6981, add.6986, add.6992, add.6998, add.7004, add.7009, add.7014, add.7019, add.7024, add.7029, add.7034, add.7039, add.7044, add.7049, add.7054, add.7060, add.7065, add.7070, add.7075, add.7080, add.7085, add.7090, add.7096, add.7101, add.7106, add.7111, add.7116, add.7121, add.7127, add.7132, add.7138, add.7143, add.7148, add.7155, add.7161, add.7166, add.7171, add.7176, add.7181, add.7186, add.7191, add.7197, add.7202, add.7208, add.7215, add.7220, add.7225, add.7231, add.7237, add.7242, add.7247, add.7253, add.7258, add.7264, add.7269, add.7274, add.7279, add.7284, add.7289, add.7295, add.7301, add.7307, add.7312, add.7317, add.7322, add.7327, add.7332, add.7337, add.7342, add.7347, add.7352, add.7357, add.7363, add.7368, add.7373, add.7378, add.7383, add.7388, add.7393, add.7398, add.7404, add.7409, add.7414, add.7419, add.7424, add.7429, add.7435, add.7441, add.7446, add.7451, add.7457, add.7464, add.7469, add.7474, add.7479, add.7484, add.7489, add.7494, add.7500, add.7505, add.7511, add.7518, add.7523, add.7528, add.7534, add.7539, add.7545, add.7550, add.7556, add.7561, add.7567, add.7572, add.7577, add.7582, add.7587, select.2912, sqrt.324, divide.2051, constant.3956, sqrt.325, sqrt.326, all-reduce)
}

