HloModule jit_compiled_generate_function, entry_computation_layout={(pred[1,41]{1,0}, pred[1,41]{1,0}, s32[1,41]{1,0}, f32[2,10240,768]{2,1,0}, f32[768,768]{1,0}, /*index=5*/f32[768]{0}, f32[768]{0}, f32[12,768,64]{2,1,0}, f32[12,768,64]{2,1,0}, f32[12,768,64]{2,1,0}, /*index=10*/f32[64]{0}, f32[64]{0}, f32[12,64,768]{2,1,0}, f32[768]{0}, f32[768]{0}, /*index=15*/f32[768,3072]{1,0}, f32[768,3072]{1,0}, f32[3072,768]{1,0}, f32[768]{0}, f32[768]{0}, /*index=20*/f32[12,768,64]{2,1,0}, f32[12,768,64]{2,1,0}, f32[12,768,64]{2,1,0}, f32[64]{0}, f32[64]{0}, /*index=25*/f32[12,64,768]{2,1,0}, f32[768]{0}, f32[768]{0}, f32[768,3072]{1,0}, f32[768,3072]{1,0}, /*index=30*/f32[3072,768]{1,0}, f32[768]{0}, f32[768]{0}, f32[12,768,64]{2,1,0}, f32[12,768,64]{2,1,0}, /*index=35*/f32[12,768,64]{2,1,0}, f32[64]{0}, f32[64]{0}, f32[12,64,768]{2,1,0}, f32[768]{0}, /*index=40*/f32[768]{0}, f32[768,3072]{1,0}, f32[768,3072]{1,0}, f32[3072,768]{1,0}, f32[768]{0}, /*index=45*/f32[768]{0}, f32[12,768,64]{2,1,0}, f32[12,768,64]{2,1,0}, f32[12,768,64]{2,1,0}, f32[64]{0}, /*index=50*/f32[64]{0}, f32[12,64,768]{2,1,0}, f32[768]{0}, f32[768]{0}, f32[768,3072]{1,0}, /*index=55*/f32[768,3072]{1,0}, f32[3072,768]{1,0}, f32[768]{0}, f32[768]{0}, f32[12,768,64]{2,1,0}, /*index=60*/f32[12,768,64]{2,1,0}, f32[12,768,64]{2,1,0}, f32[64]{0}, f32[64]{0}, f32[12,64,768]{2,1,0}, /*index=65*/f32[768]{0}, f32[768]{0}, f32[768,3072]{1,0}, f32[768,3072]{1,0}, f32[3072,768]{1,0}, /*index=70*/f32[768]{0}, f32[768]{0}, f32[12,768,64]{2,1,0}, f32[12,768,64]{2,1,0}, f32[12,768,64]{2,1,0}, /*index=75*/f32[64]{0}, f32[64]{0}, f32[12,64,768]{2,1,0}, f32[768]{0}, f32[768]{0}, /*index=80*/f32[768,3072]{1,0}, f32[768,3072]{1,0}, f32[3072,768]{1,0}, f32[768]{0}, f32[768]{0}, /*index=85*/f32[12,768,64]{2,1,0}, f32[12,768,64]{2,1,0}, f32[12,768,64]{2,1,0}, f32[64]{0}, f32[64]{0}, /*index=90*/f32[12,64,768]{2,1,0}, f32[768]{0}, f32[768]{0}, f32[768,3072]{1,0}, f32[768,3072]{1,0}, /*index=95*/f32[3072,768]{1,0}, f32[768]{0}, f32[768]{0}, f32[12,768,64]{2,1,0}, f32[12,768,64]{2,1,0}, /*index=100*/f32[12,768,64]{2,1,0}, f32[64]{0}, f32[64]{0}, f32[12,64,768]{2,1,0}, f32[768]{0}, /*index=105*/f32[768]{0}, f32[768,3072]{1,0}, f32[768,3072]{1,0}, f32[3072,768]{1,0}, f32[768]{0}, /*index=110*/f32[768]{0}, f32[12,768,64]{2,1,0}, f32[12,768,64]{2,1,0}, f32[12,768,64]{2,1,0}, f32[64]{0}, /*index=115*/f32[64]{0}, f32[12,64,768]{2,1,0}, f32[768]{0}, f32[768]{0}, f32[768,3072]{1,0}, /*index=120*/f32[768,3072]{1,0}, f32[3072,768]{1,0}, f32[768]{0}, f32[768]{0}, f32[12,768,64]{2,1,0}, /*index=125*/f32[12,768,64]{2,1,0}, f32[12,768,64]{2,1,0}, f32[64]{0}, f32[64]{0}, f32[12,64,768]{2,1,0}, /*index=130*/f32[768]{0}, f32[768]{0}, f32[768,3072]{1,0}, f32[768,3072]{1,0}, f32[3072,768]{1,0}, /*index=135*/f32[768]{0}, f32[768]{0}, f32[12,768,64]{2,1,0}, f32[12,768,64]{2,1,0}, f32[12,768,64]{2,1,0}, /*index=140*/f32[64]{0}, f32[64]{0}, f32[12,64,768]{2,1,0}, f32[768]{0}, f32[768]{0}, /*index=145*/f32[768,3072]{1,0}, f32[768,3072]{1,0}, f32[3072,768]{1,0}, f32[768]{0}, f32[768]{0}, /*index=150*/f32[12,768,64]{2,1,0}, f32[12,768,64]{2,1,0}, f32[12,768,64]{2,1,0}, f32[64]{0}, f32[64]{0}, /*index=155*/f32[12,64,768]{2,1,0}, f32[768]{0}, f32[768]{0}, f32[768,3072]{1,0}, f32[768,3072]{1,0}, /*index=160*/f32[3072,768]{1,0}, f32[768]{0}, f32[768]{0}, f32[12,768,64]{2,1,0}, f32[12,768,64]{2,1,0}, /*index=165*/f32[12,768,64]{2,1,0}, f32[64]{0}, f32[64]{0}, f32[12,64,768]{2,1,0}, f32[768]{0}, /*index=170*/f32[768]{0}, f32[768,3072]{1,0}, f32[768,3072]{1,0}, f32[3072,768]{1,0}, f32[768]{0}, /*index=175*/f32[768]{0}, f32[12,768,64]{2,1,0}, f32[12,768,64]{2,1,0}, f32[12,768,64]{2,1,0}, f32[64]{0}, /*index=180*/f32[64]{0}, f32[12,64,768]{2,1,0}, f32[768]{0}, f32[768]{0}, f32[768,3072]{1,0}, /*index=185*/f32[768,3072]{1,0}, f32[3072,768]{1,0}, f32[768]{0}, f32[768]{0}, f32[12,768,64]{2,1,0}, /*index=190*/f32[12,768,64]{2,1,0}, f32[12,768,64]{2,1,0}, f32[64]{0}, f32[64]{0}, f32[12,64,768]{2,1,0}, /*index=195*/f32[768]{0}, f32[768]{0}, f32[768,3072]{1,0}, f32[768,3072]{1,0}, f32[3072,768]{1,0}, /*index=200*/f32[768]{0}, f32[768]{0}, f32[12,768,64]{2,1,0}, f32[12,768,64]{2,1,0}, f32[12,768,64]{2,1,0}, /*index=205*/f32[64]{0}, f32[64]{0}, f32[12,64,768]{2,1,0}, f32[768]{0}, f32[768]{0}, /*index=210*/f32[768,3072]{1,0}, f32[768,3072]{1,0}, f32[3072,768]{1,0}, f32[768,1536]{1,0}, f32[3,3,1,128]{3,2,1,0}, /*index=215*/f32[128]{0}, f32[3,3,128,32]{3,2,1,0}, f32[32]{0}, f32[1024,1024]{1,0}, f32[1024,4096]{1,0}, /*index=220*/f32[4096,1024]{1,0}, f32[128]{0}, f32[1024,1024]{1,0}, f32[1024,1024]{1,0}, f32[1024,1024]{1,0}, /*index=225*/f32[1024,1024]{1,0}, f32[1024,1024]{1,0}, f32[1024,2048]{1,0}, f32[5,1024,1]{2,1,0}, f32[1024,1024]{1,0}, /*index=230*/f32[1024,4096]{1,0}, f32[4096,1024]{1,0}, f32[1024,4096]{1,0}, f32[4096,1024]{1,0}, f32[128]{0}, /*index=235*/f32[1024,1024]{1,0}, f32[1024,1024]{1,0}, f32[1024,1024]{1,0}, f32[1024,1024]{1,0}, f32[1024,1024]{1,0}, /*index=240*/f32[1024,2048]{1,0}, f32[5,1024,1]{2,1,0}, f32[1024,1024]{1,0}, f32[1024,4096]{1,0}, f32[4096,1024]{1,0}, /*index=245*/f32[1024,4096]{1,0}, f32[4096,1024]{1,0}, f32[128]{0}, f32[1024,1024]{1,0}, f32[1024,1024]{1,0}, /*index=250*/f32[1024,1024]{1,0}, f32[1024,1024]{1,0}, f32[1024,1024]{1,0}, f32[1024,2048]{1,0}, f32[5,1024,1]{2,1,0}, /*index=255*/f32[1024,1024]{1,0}, f32[1024,4096]{1,0}, f32[4096,1024]{1,0}, f32[1024,4096]{1,0}, f32[4096,1024]{1,0}, /*index=260*/f32[128]{0}, f32[1024,1024]{1,0}, f32[1024,1024]{1,0}, f32[1024,1024]{1,0}, f32[1024,1024]{1,0}, /*index=265*/f32[1024,1024]{1,0}, f32[1024,2048]{1,0}, f32[5,1024,1]{2,1,0}, f32[1024,1024]{1,0}, f32[1024,4096]{1,0}, /*index=270*/f32[4096,1024]{1,0}, f32[1024,4096]{1,0}, f32[4096,1024]{1,0}, f32[128]{0}, f32[1024,1024]{1,0}, /*index=275*/f32[1024,1024]{1,0}, f32[1024,1024]{1,0}, f32[1024,1024]{1,0}, f32[1024,1024]{1,0}, f32[1024,2048]{1,0}, /*index=280*/f32[5,1024,1]{2,1,0}, f32[1024,1024]{1,0}, f32[1024,4096]{1,0}, f32[4096,1024]{1,0}, f32[1024,4096]{1,0}, /*index=285*/f32[4096,1024]{1,0}, f32[128]{0}, f32[1024,1024]{1,0}, f32[1024,1024]{1,0}, f32[1024,1024]{1,0}, /*index=290*/f32[1024,1024]{1,0}, f32[1024,1024]{1,0}, f32[1024,2048]{1,0}, f32[5,1024,1]{2,1,0}, f32[1024,1024]{1,0}, /*index=295*/f32[1024,4096]{1,0}, f32[4096,1024]{1,0}, f32[1024,4096]{1,0}, f32[4096,1024]{1,0}, f32[128]{0}, /*index=300*/f32[1024,1024]{1,0}, f32[1024,1024]{1,0}, f32[1024,1024]{1,0}, f32[1024,1024]{1,0}, f32[1024,1024]{1,0}, /*index=305*/f32[1024,2048]{1,0}, f32[5,1024,1]{2,1,0}, f32[1024,1024]{1,0}, f32[1024,4096]{1,0}, f32[4096,1024]{1,0}, /*index=310*/f32[1024,4096]{1,0}, f32[4096,1024]{1,0}, f32[128]{0}, f32[1024,1024]{1,0}, f32[1024,1024]{1,0}, /*index=315*/f32[1024,1024]{1,0}, f32[1024,1024]{1,0}, f32[1024,1024]{1,0}, f32[1024,2048]{1,0}, f32[5,1024,1]{2,1,0}, /*index=320*/f32[1024,1024]{1,0}, f32[1024,4096]{1,0}, f32[4096,1024]{1,0}, f32[1024,4096]{1,0}, f32[4096,1024]{1,0}, /*index=325*/f32[128]{0}, f32[1024,1024]{1,0}, f32[1024,1024]{1,0}, f32[1024,1024]{1,0}, f32[1024,1024]{1,0}, /*index=330*/f32[1024,1024]{1,0}, f32[1024,2048]{1,0}, f32[5,1024,1]{2,1,0}, f32[1024,1024]{1,0}, f32[1024,4096]{1,0}, /*index=335*/f32[4096,1024]{1,0}, f32[1024,4096]{1,0}, f32[4096,1024]{1,0}, f32[128]{0}, f32[1024,1024]{1,0}, /*index=340*/f32[1024,1024]{1,0}, f32[1024,1024]{1,0}, f32[1024,1024]{1,0}, f32[1024,1024]{1,0}, f32[1024,2048]{1,0}, /*index=345*/f32[5,1024,1]{2,1,0}, f32[1024,1024]{1,0}, f32[1024,4096]{1,0}, f32[4096,1024]{1,0}, f32[1024,4096]{1,0}, /*index=350*/f32[4096,1024]{1,0}, f32[128]{0}, f32[1024,1024]{1,0}, f32[1024,1024]{1,0}, f32[1024,1024]{1,0}, /*index=355*/f32[1024,1024]{1,0}, f32[1024,1024]{1,0}, f32[1024,2048]{1,0}, f32[5,1024,1]{2,1,0}, f32[1024,1024]{1,0}, /*index=360*/f32[1024,4096]{1,0}, f32[4096,1024]{1,0}, f32[1024,4096]{1,0}, f32[4096,1024]{1,0}, f32[128]{0}, /*index=365*/f32[1024,1024]{1,0}, f32[1024,1024]{1,0}, f32[1024,1024]{1,0}, f32[1024,1024]{1,0}, f32[1024,1024]{1,0}, /*index=370*/f32[1024,2048]{1,0}, f32[5,1024,1]{2,1,0}, f32[1024,1024]{1,0}, f32[1024,4096]{1,0}, f32[4096,1024]{1,0}, /*index=375*/f32[1024,1536]{1,0}, f32[1536]{0}, f32[1536,1536]{1,0}, bf16[262144,1536]{1,0}, bf16[1536,8960]{1,0}, /*index=380*/bf16[262144,8960]{1,0}, bf16[256]{0}, bf16[1536]{0}, bf16[1536]{0}, bf16[8,1536,256]{2,1,0}, /*index=385*/bf16[1,1536,256]{2,1,0}, bf16[1,1536,256]{2,1,0}, bf16[256]{0}, bf16[256]{0}, bf16[8,256,1536]{2,1,0}, /*index=390*/bf16[1536]{0}, bf16[1536]{0}, bf16[1536,6144]{1,0}, bf16[1536,6144]{1,0}, bf16[6144,1536]{1,0}, /*index=395*/bf16[1536,256]{1,0}, bf16[256,1536]{1,0}, bf16[1536]{0}, bf16[1536]{0}, bf16[1536]{0}, /*index=400*/bf16[8,1536,256]{2,1,0}, bf16[1,1536,256]{2,1,0}, bf16[1,1536,256]{2,1,0}, bf16[256]{0}, bf16[256]{0}, /*index=405*/bf16[8,256,1536]{2,1,0}, bf16[1536]{0}, bf16[1536]{0}, bf16[1536,6144]{1,0}, bf16[1536,6144]{1,0}, /*index=410*/bf16[6144,1536]{1,0}, bf16[1536,256]{1,0}, bf16[256,1536]{1,0}, bf16[1536]{0}, bf16[1536]{0}, /*index=415*/bf16[1536]{0}, bf16[8,1536,256]{2,1,0}, bf16[1,1536,256]{2,1,0}, bf16[1,1536,256]{2,1,0}, bf16[256]{0}, /*index=420*/bf16[256]{0}, bf16[8,256,1536]{2,1,0}, bf16[1536]{0}, bf16[1536]{0}, bf16[1536,6144]{1,0}, /*index=425*/bf16[1536,6144]{1,0}, bf16[6144,1536]{1,0}, bf16[1536,256]{1,0}, bf16[256,1536]{1,0}, bf16[1536]{0}, /*index=430*/bf16[1536]{0}, bf16[1536]{0}, bf16[8,1536,256]{2,1,0}, bf16[1,1536,256]{2,1,0}, bf16[1,1536,256]{2,1,0}, /*index=435*/bf16[256]{0}, bf16[256]{0}, bf16[8,256,1536]{2,1,0}, bf16[1536]{0}, bf16[1536]{0}, /*index=440*/bf16[1536,6144]{1,0}, bf16[1536,6144]{1,0}, bf16[6144,1536]{1,0}, bf16[1536,256]{1,0}, bf16[256,1536]{1,0}, /*index=445*/bf16[1536]{0}, bf16[1536]{0}, bf16[1536]{0}, bf16[8,1536,512]{2,1,0}, bf16[1,1536,512]{2,1,0}, /*index=450*/bf16[1,1536,512]{2,1,0}, bf16[512]{0}, bf16[512]{0}, bf16[8,512,1536]{2,1,0}, bf16[1536]{0}, /*index=455*/bf16[1536]{0}, bf16[1536,6144]{1,0}, bf16[1536,6144]{1,0}, bf16[6144,1536]{1,0}, bf16[1536,256]{1,0}, /*index=460*/bf16[256,1536]{1,0}, bf16[1536]{0}, bf16[1536]{0}, bf16[1536]{0}, bf16[8,1536,256]{2,1,0}, /*index=465*/bf16[1,1536,256]{2,1,0}, bf16[1,1536,256]{2,1,0}, bf16[256]{0}, bf16[256]{0}, bf16[8,256,1536]{2,1,0}, /*index=470*/bf16[1536]{0}, bf16[1536]{0}, bf16[1536,6144]{1,0}, bf16[1536,6144]{1,0}, bf16[6144,1536]{1,0}, /*index=475*/bf16[1536,256]{1,0}, bf16[256,1536]{1,0}, bf16[1536]{0}, bf16[1536]{0}, bf16[1536]{0}, /*index=480*/bf16[8,1536,256]{2,1,0}, bf16[1,1536,256]{2,1,0}, bf16[1,1536,256]{2,1,0}, bf16[256]{0}, bf16[256]{0}, /*index=485*/bf16[8,256,1536]{2,1,0}, bf16[1536]{0}, bf16[1536]{0}, bf16[1536,6144]{1,0}, bf16[1536,6144]{1,0}, /*index=490*/bf16[6144,1536]{1,0}, bf16[1536,256]{1,0}, bf16[256,1536]{1,0}, bf16[1536]{0}, bf16[1536]{0}, /*index=495*/bf16[1536]{0}, bf16[8,1536,256]{2,1,0}, bf16[1,1536,256]{2,1,0}, bf16[1,1536,256]{2,1,0}, bf16[256]{0}, /*index=500*/bf16[256]{0}, bf16[8,256,1536]{2,1,0}, bf16[1536]{0}, bf16[1536]{0}, bf16[1536,6144]{1,0}, /*index=505*/bf16[1536,6144]{1,0}, bf16[6144,1536]{1,0}, bf16[1536,256]{1,0}, bf16[256,1536]{1,0}, bf16[1536]{0}, /*index=510*/bf16[1536]{0}, bf16[1536]{0}, bf16[8,1536,256]{2,1,0}, bf16[1,1536,256]{2,1,0}, bf16[1,1536,256]{2,1,0}, /*index=515*/bf16[256]{0}, bf16[256]{0}, bf16[8,256,1536]{2,1,0}, bf16[1536]{0}, bf16[1536]{0}, /*index=520*/bf16[1536,6144]{1,0}, bf16[1536,6144]{1,0}, bf16[6144,1536]{1,0}, bf16[1536,256]{1,0}, bf16[256,1536]{1,0}, /*index=525*/bf16[1536]{0}, bf16[1536]{0}, bf16[1536]{0}, bf16[8,1536,512]{2,1,0}, bf16[1,1536,512]{2,1,0}, /*index=530*/bf16[1,1536,512]{2,1,0}, bf16[512]{0}, bf16[512]{0}, bf16[8,512,1536]{2,1,0}, bf16[1536]{0}, /*index=535*/bf16[1536]{0}, bf16[1536,6144]{1,0}, bf16[1536,6144]{1,0}, bf16[6144,1536]{1,0}, bf16[1536,256]{1,0}, /*index=540*/bf16[256,1536]{1,0}, bf16[1536]{0}, bf16[1536]{0}, bf16[1536]{0}, bf16[8,1536,256]{2,1,0}, /*index=545*/bf16[1,1536,256]{2,1,0}, bf16[1,1536,256]{2,1,0}, bf16[256]{0}, bf16[256]{0}, bf16[8,256,1536]{2,1,0}, /*index=550*/bf16[1536]{0}, bf16[1536]{0}, bf16[1536,6144]{1,0}, bf16[1536,6144]{1,0}, bf16[6144,1536]{1,0}, /*index=555*/bf16[1536,256]{1,0}, bf16[256,1536]{1,0}, bf16[1536]{0}, bf16[1536]{0}, bf16[1536]{0}, /*index=560*/bf16[8,1536,256]{2,1,0}, bf16[1,1536,256]{2,1,0}, bf16[1,1536,256]{2,1,0}, bf16[256]{0}, bf16[256]{0}, /*index=565*/bf16[8,256,1536]{2,1,0}, bf16[1536]{0}, bf16[1536]{0}, bf16[1536,6144]{1,0}, bf16[1536,6144]{1,0}, /*index=570*/bf16[6144,1536]{1,0}, bf16[1536,256]{1,0}, bf16[256,1536]{1,0}, bf16[1536]{0}, bf16[1536]{0}, /*index=575*/bf16[1536]{0}, bf16[8,1536,256]{2,1,0}, bf16[1,1536,256]{2,1,0}, bf16[1,1536,256]{2,1,0}, bf16[256]{0}, /*index=580*/bf16[256]{0}, bf16[8,256,1536]{2,1,0}, bf16[1536]{0}, bf16[1536]{0}, bf16[1536,6144]{1,0}, /*index=585*/bf16[1536,6144]{1,0}, bf16[6144,1536]{1,0}, bf16[1536,256]{1,0}, bf16[256,1536]{1,0}, bf16[1536]{0}, /*index=590*/bf16[1536]{0}, bf16[1536]{0}, bf16[8,1536,256]{2,1,0}, bf16[1,1536,256]{2,1,0}, bf16[1,1536,256]{2,1,0}, /*index=595*/bf16[256]{0}, bf16[256]{0}, bf16[8,256,1536]{2,1,0}, bf16[1536]{0}, bf16[1536]{0}, /*index=600*/bf16[1536,6144]{1,0}, bf16[1536,6144]{1,0}, bf16[6144,1536]{1,0}, bf16[1536,256]{1,0}, bf16[256,1536]{1,0}, /*index=605*/bf16[1536]{0}, bf16[1536]{0}, bf16[1536]{0}, bf16[8,1536,512]{2,1,0}, bf16[1,1536,512]{2,1,0}, /*index=610*/bf16[1,1536,512]{2,1,0}, bf16[512]{0}, bf16[512]{0}, bf16[8,512,1536]{2,1,0}, bf16[1536]{0}, /*index=615*/bf16[1536]{0}, bf16[1536,6144]{1,0}, bf16[1536,6144]{1,0}, bf16[6144,1536]{1,0}, bf16[1536,256]{1,0}, /*index=620*/bf16[256,1536]{1,0}, bf16[1536]{0}, bf16[1536]{0}, bf16[1536]{0}, bf16[8,1536,256]{2,1,0}, /*index=625*/bf16[256]{0}, bf16[8,256,1536]{2,1,0}, bf16[1536]{0}, bf16[1536]{0}, bf16[1536,12288]{1,0}, /*index=630*/bf16[1536,12288]{1,0}, bf16[12288,1536]{1,0}, bf16[1536,256]{1,0}, bf16[256,1536]{1,0}, bf16[1536]{0}, /*index=635*/bf16[1536]{0}, bf16[1536]{0}, bf16[8,1536,256]{2,1,0}, bf16[256]{0}, bf16[8,256,1536]{2,1,0}, /*index=640*/bf16[1536]{0}, bf16[1536]{0}, bf16[1536,12288]{1,0}, bf16[1536,12288]{1,0}, bf16[12288,1536]{1,0}, /*index=645*/bf16[1536,256]{1,0}, bf16[256,1536]{1,0}, bf16[1536]{0}, bf16[1536]{0}, bf16[1536]{0}, /*index=650*/bf16[8,1536,256]{2,1,0}, bf16[256]{0}, bf16[8,256,1536]{2,1,0}, bf16[1536]{0}, bf16[1536]{0}, /*index=655*/bf16[1536,12288]{1,0}, bf16[1536,12288]{1,0}, bf16[12288,1536]{1,0}, bf16[1536,256]{1,0}, bf16[256,1536]{1,0}, /*index=660*/bf16[1536]{0}, bf16[1536]{0}, bf16[1536]{0}, bf16[8,1536,256]{2,1,0}, bf16[256]{0}, /*index=665*/bf16[8,256,1536]{2,1,0}, bf16[1536]{0}, bf16[1536]{0}, bf16[1536,12288]{1,0}, bf16[1536,12288]{1,0}, /*index=670*/bf16[12288,1536]{1,0}, bf16[1536,256]{1,0}, bf16[256,1536]{1,0}, bf16[1536]{0}, bf16[1536]{0}, /*index=675*/bf16[1536]{0}, bf16[8,1536,512]{2,1,0}, bf16[512]{0}, bf16[8,512,1536]{2,1,0}, bf16[1536]{0}, /*index=680*/bf16[1536]{0}, bf16[1536,12288]{1,0}, bf16[1536,12288]{1,0}, bf16[12288,1536]{1,0}, bf16[1536,256]{1,0}, /*index=685*/bf16[256,1536]{1,0}, bf16[1536]{0}, bf16[1536]{0}, bf16[1536]{0}, bf16[8,1536,256]{2,1,0}, /*index=690*/bf16[256]{0}, bf16[8,256,1536]{2,1,0}, bf16[1536]{0}, bf16[1536]{0}, bf16[1536,12288]{1,0}, /*index=695*/bf16[1536,12288]{1,0}, bf16[12288,1536]{1,0}, bf16[1536,256]{1,0}, bf16[256,1536]{1,0}, bf16[1536]{0}, /*index=700*/bf16[1536]{0}, bf16[1536]{0}, bf16[8,1536,256]{2,1,0}, bf16[256]{0}, bf16[8,256,1536]{2,1,0}, /*index=705*/bf16[1536]{0}, bf16[1536]{0}, bf16[1536,12288]{1,0}, bf16[1536,12288]{1,0}, bf16[12288,1536]{1,0}, /*index=710*/bf16[1536,256]{1,0}, bf16[256,1536]{1,0}, bf16[1536]{0}, bf16[1536]{0}, bf16[1536]{0}, /*index=715*/bf16[8,1536,256]{2,1,0}, bf16[256]{0}, bf16[8,256,1536]{2,1,0}, bf16[1536]{0}, bf16[1536]{0}, /*index=720*/bf16[1536,12288]{1,0}, bf16[1536,12288]{1,0}, bf16[12288,1536]{1,0}, bf16[1536,256]{1,0}, bf16[256,1536]{1,0}, /*index=725*/bf16[1536]{0}, bf16[1536]{0}, bf16[1536]{0}, bf16[8,1536,256]{2,1,0}, bf16[256]{0}, /*index=730*/bf16[8,256,1536]{2,1,0}, bf16[1536]{0}, bf16[1536]{0}, bf16[1536,12288]{1,0}, bf16[1536,12288]{1,0}, /*index=735*/bf16[12288,1536]{1,0}, bf16[1536,256]{1,0}, bf16[256,1536]{1,0}, bf16[1536]{0}, bf16[1536]{0}, /*index=740*/bf16[1536]{0}, bf16[8,1536,512]{2,1,0}, bf16[512]{0}, bf16[8,512,1536]{2,1,0}, bf16[1536]{0}, /*index=745*/bf16[1536]{0}, bf16[1536,12288]{1,0}, bf16[1536,12288]{1,0}, bf16[12288,1536]{1,0}, bf16[1536,256]{1,0}, /*index=750*/bf16[256,1536]{1,0}, bf16[1536]{0}, bf16[1536]{0}, bf16[1536]{0}, bf16[8,1536,256]{2,1,0}, /*index=755*/bf16[256]{0}, bf16[8,256,1536]{2,1,0}, bf16[1536]{0}, bf16[1536]{0}, bf16[1536,12288]{1,0}, /*index=760*/bf16[1536,12288]{1,0}, bf16[12288,1536]{1,0}, bf16[1536,256]{1,0}, bf16[256,1536]{1,0}, bf16[1536]{0}, /*index=765*/bf16[1536]{0}, bf16[1536]{0}, bf16[8,1536,256]{2,1,0}, bf16[256]{0}, bf16[8,256,1536]{2,1,0}, /*index=770*/bf16[1536]{0}, bf16[1536]{0}, bf16[1536,12288]{1,0}, bf16[1536,12288]{1,0}, bf16[12288,1536]{1,0}, /*index=775*/bf16[1536,256]{1,0}, bf16[256,1536]{1,0}, bf16[1536]{0}, bf16[1536]{0}, bf16[1536]{0}, /*index=780*/bf16[8,1536,256]{2,1,0}, bf16[256]{0}, bf16[8,256,1536]{2,1,0}, bf16[1536]{0}, bf16[1536]{0}, /*index=785*/bf16[1536,12288]{1,0}, bf16[1536,12288]{1,0}, bf16[12288,1536]{1,0}, bf16[1536,256]{1,0}, bf16[256,1536]{1,0}, /*index=790*/bf16[1536]{0}, bf16[1536]{0}, bf16[1536]{0}, bf16[8,1536,256]{2,1,0}, bf16[256]{0}, /*index=795*/bf16[8,256,1536]{2,1,0}, bf16[1536]{0}, bf16[1536]{0}, bf16[1536,12288]{1,0}, bf16[1536,12288]{1,0}, /*index=800*/bf16[12288,1536]{1,0}, bf16[1536,256]{1,0}, bf16[256,1536]{1,0}, bf16[1536]{0}, bf16[1536]{0}, /*index=805*/bf16[1536]{0}, bf16[8,1536,512]{2,1,0}, bf16[512]{0}, bf16[8,512,1536]{2,1,0}, bf16[1536]{0}, /*index=810*/bf16[1536]{0}, bf16[1536,12288]{1,0}, bf16[1536,12288]{1,0}, bf16[12288,1536]{1,0}, bf16[1536,256]{1,0}, /*index=815*/bf16[256,1536]{1,0}, bf16[1536]{0}, bf16[1536]{0}, bf16[1536]{0}, bf16[8,1536,256]{2,1,0}, /*index=820*/bf16[256]{0}, bf16[8,256,1536]{2,1,0}, bf16[1536]{0}, bf16[1536]{0}, bf16[1536,12288]{1,0}, /*index=825*/bf16[1536,12288]{1,0}, bf16[12288,1536]{1,0}, bf16[1536,256]{1,0}, bf16[256,1536]{1,0}, bf16[1536]{0}, /*index=830*/bf16[1536]{0}, bf16[1536]{0}, bf16[8,1536,256]{2,1,0}, bf16[256]{0}, bf16[8,256,1536]{2,1,0}, /*index=835*/bf16[1536]{0}, bf16[1536]{0}, bf16[1536,12288]{1,0}, bf16[1536,12288]{1,0}, bf16[12288,1536]{1,0}, /*index=840*/bf16[1536,256]{1,0}, bf16[256,1536]{1,0}, bf16[1536]{0}, bf16[1536]{0}, bf16[1536]{0}, /*index=845*/bf16[8,1536,256]{2,1,0}, bf16[256]{0}, bf16[8,256,1536]{2,1,0}, bf16[1536]{0}, bf16[1536]{0}, /*index=850*/bf16[1536,12288]{1,0}, bf16[1536,12288]{1,0}, bf16[12288,1536]{1,0}, bf16[1536,256]{1,0}, bf16[256,1536]{1,0}, /*index=855*/bf16[1536]{0}, bf16[1536]{0}, bf16[1536]{0}, bf16[8,1536,256]{2,1,0}, bf16[256]{0}, /*index=860*/bf16[8,256,1536]{2,1,0}, bf16[1536]{0}, bf16[1536]{0}, bf16[1536,12288]{1,0}, bf16[1536,12288]{1,0}, /*index=865*/bf16[12288,1536]{1,0}, bf16[1536,256]{1,0}, bf16[256,1536]{1,0}, bf16[1536]{0}, bf16[1536]{0}, /*index=870*/bf16[1536]{0}, bf16[8,1536,512]{2,1,0}, bf16[512]{0}, bf16[8,512,1536]{2,1,0}, bf16[1536]{0}, /*index=875*/bf16[1536]{0}, bf16[1536,12288]{1,0}, bf16[1536,12288]{1,0}, bf16[12288,1536]{1,0}, bf16[1536,256]{1,0}, /*index=880*/bf16[256,1536]{1,0}, bf16[1536]{0}, bf16[1536]{0}, f32[], f32[], /*index=885*/f32[], f32[], f32[], f32[], f32[], /*index=890*/f32[], f32[], f32[], f32[], f32[], /*index=895*/f32[], f32[], f32[], f32[], f32[], /*index=900*/f32[], f32[], f32[], f32[], f32[], /*index=905*/f32[], f32[], f32[], f32[], f32[], /*index=910*/f32[], f32[], f32[], f32[], f32[], /*index=915*/f32[], f32[], f32[], f32[], f32[], /*index=920*/f32[], f32[], f32[], f32[], f32[], /*index=925*/f32[], f32[], f32[], f32[], f32[], /*index=930*/f32[], f32[], f32[], f32[], f32[], /*index=935*/f32[], f32[], f32[], f32[], f32[], /*index=940*/f32[], f32[], f32[], f32[], f32[], /*index=945*/f32[], f32[], f32[], f32[], f32[], /*index=950*/f32[], f32[], f32[], f32[], f32[], /*index=955*/f32[], f32[], f32[], f32[], f32[], /*index=960*/f32[], f32[], f32[], f32[], f32[], /*index=965*/f32[], f32[], f32[], f32[], f32[], /*index=970*/f32[], f32[], f32[], f32[], f32[], /*index=975*/f32[], f32[], f32[], f32[], f32[], /*index=980*/f32[], f32[], f32[], f32[], f32[], /*index=985*/f32[], f32[], f32[], f32[], f32[], /*index=990*/f32[], f32[], f32[], f32[], f32[], /*index=995*/f32[], f32[], f32[], f32[], f32[], /*index=1000*/f32[], f32[], f32[], f32[], f32[], /*index=1005*/f32[], f32[], f32[], f32[], f32[], /*index=1010*/f32[], f32[], f32[], f32[], f32[], /*index=1015*/f32[], f32[], f32[], f32[], f32[], /*index=1020*/f32[], f32[], f32[], f32[], f32[], /*index=1025*/f32[], f32[], f32[], f32[], f32[], /*index=1030*/f32[], f32[], f32[], f32[], f32[], /*index=1035*/f32[], f32[], f32[], f32[], f32[], /*index=1040*/f32[], f32[], f32[], f32[], f32[], /*index=1045*/f32[], f32[], f32[], f32[], f32[], /*index=1050*/f32[], f32[], f32[], f32[], f32[], /*index=1055*/f32[], f32[], f32[], f32[], f32[], /*index=1060*/f32[], f32[], f32[], f32[], f32[], /*index=1065*/f32[], f32[], f32[], f32[], f32[], /*index=1070*/f32[], f32[], f32[], f32[], f32[], /*index=1075*/f32[], f32[], f32[], f32[], f32[], /*index=1080*/f32[], f32[], f32[], f32[], f32[], /*index=1085*/f32[], f32[], f32[], f32[], f32[], /*index=1090*/f32[], f32[], f32[], f32[], f32[], /*index=1095*/f32[], f32[], f32[], f32[], f32[], /*index=1100*/f32[], f32[], f32[], f32[], f32[], /*index=1105*/f32[], f32[], f32[], f32[], f32[], /*index=1110*/f32[], f32[], f32[], f32[], f32[], /*index=1115*/f32[], f32[], f32[], f32[], f32[], /*index=1120*/f32[], f32[], f32[], f32[], f32[], /*index=1125*/f32[], f32[], f32[], f32[], f32[], /*index=1130*/f32[], f32[], f32[], f32[], f32[], /*index=1135*/f32[], f32[], f32[], f32[], f32[], /*index=1140*/f32[], f32[], f32[], f32[], f32[], /*index=1145*/f32[], f32[], f32[], f32[], f32[], /*index=1150*/f32[], f32[], f32[], f32[], f32[], /*index=1155*/f32[], f32[], f32[], f32[], f32[], /*index=1160*/f32[], f32[], f32[], f32[], f32[], /*index=1165*/f32[], f32[], f32[], f32[], f32[], /*index=1170*/f32[], f32[], f32[], f32[], f32[], /*index=1175*/f32[], f32[], f32[], f32[], f32[], /*index=1180*/f32[], f32[], f32[], f32[], f32[], /*index=1185*/f32[], f32[], f32[], f32[], f32[], /*index=1190*/f32[], f32[], f32[], f32[], f32[], /*index=1195*/f32[], f32[], f32[], f32[], f32[], /*index=1200*/f32[], f32[], f32[], f32[], f32[], /*index=1205*/f32[], f32[], f32[], f32[], f32[], /*index=1210*/f32[], f32[], f32[], f32[], f32[], /*index=1215*/f32[], f32[], f32[], f32[], f32[], /*index=1220*/f32[], f32[], f32[], f32[], f32[], /*index=1225*/f32[], f32[], f32[], f32[], f32[], /*index=1230*/f32[], f32[], f32[], f32[], f32[], /*index=1235*/f32[], f32[], f32[], f32[], f32[], /*index=1240*/f32[], f32[], f32[], f32[], f32[], /*index=1245*/f32[], f32[], f32[], f32[], f32[], /*index=1250*/f32[], f32[], f32[], f32[], f32[], /*index=1255*/f32[], f32[], f32[], f32[], f32[], /*index=1260*/f32[], f32[], f32[], f32[], f32[], /*index=1265*/f32[], f32[], f32[], f32[], f32[], /*index=1270*/f32[], f32[], f32[], f32[], f32[], /*index=1275*/f32[], f32[], f32[], f32[], f32[], /*index=1280*/f32[], f32[], f32[], f32[], f32[], /*index=1285*/f32[], f32[], f32[], f32[], f32[], /*index=1290*/f32[], f32[], f32[], f32[], f32[], /*index=1295*/f32[], f32[], f32[], f32[], f32[], /*index=1300*/f32[], f32[], f32[], f32[], f32[], /*index=1305*/f32[], f32[], f32[], f32[], f32[], /*index=1310*/f32[], f32[], f32[], f32[], f32[], /*index=1315*/f32[], f32[], f32[], f32[], f32[], /*index=1320*/f32[], f32[], f32[], f32[], f32[], /*index=1325*/f32[], f32[], f32[], f32[], f32[], /*index=1330*/f32[], f32[1024]{0}, f32[], f32[], f32[], /*index=1335*/f32[], f32[], f32[], f32[], f32[], /*index=1340*/f32[1024]{0}, f32[1024]{0}, f32[], f32[], f32[], /*index=1345*/f32[], f32[], f32[], f32[], f32[], /*index=1350*/f32[], f32[], f32[], f32[], f32[], /*index=1355*/f32[], f32[], f32[], f32[1024]{0}, f32[1024]{0}, /*index=1360*/f32[], f32[], f32[], f32[], f32[1024]{0}, /*index=1365*/f32[], f32[], f32[], f32[], f32[1024]{0}, /*index=1370*/f32[], f32[], f32[], f32[], f32[], /*index=1375*/f32[], f32[], f32[], f32[1024]{0}, f32[1024]{0}, /*index=1380*/f32[1024]{0}, f32[], f32[], f32[], f32[], /*index=1385*/f32[], f32[], f32[], f32[], f32[1024]{0}, /*index=1390*/f32[1024]{0}, f32[], f32[], f32[], f32[], /*index=1395*/f32[], f32[], f32[], f32[], f32[], /*index=1400*/f32[], f32[], f32[], f32[], f32[], /*index=1405*/f32[], f32[], f32[1024]{0}, f32[1024]{0}, f32[], /*index=1410*/f32[], f32[], f32[], f32[1024]{0}, f32[], /*index=1415*/f32[], f32[], f32[], f32[1024]{0}, f32[], /*index=1420*/f32[], f32[], f32[], f32[], f32[], /*index=1425*/f32[], f32[], f32[1024]{0}, f32[1024]{0}, f32[1024]{0}, /*index=1430*/f32[], f32[], f32[], f32[], f32[], /*index=1435*/f32[], f32[], f32[], f32[1024]{0}, f32[1024]{0}, /*index=1440*/f32[], f32[], f32[], f32[], f32[], /*index=1445*/f32[], f32[], f32[], f32[], f32[], /*index=1450*/f32[], f32[], f32[], f32[], f32[], /*index=1455*/f32[], f32[1024]{0}, f32[1024]{0}, f32[], f32[], /*index=1460*/f32[], f32[], f32[1024]{0}, f32[], f32[], /*index=1465*/f32[], f32[], f32[1024]{0}, f32[], f32[], /*index=1470*/f32[], f32[], f32[], f32[], f32[], /*index=1475*/f32[], f32[1024]{0}, f32[1024]{0}, f32[1024]{0}, f32[], /*index=1480*/f32[], f32[], f32[], f32[], f32[], /*index=1485*/f32[], f32[], f32[1024]{0}, f32[1024]{0}, f32[], /*index=1490*/f32[], f32[], f32[], f32[], f32[], /*index=1495*/f32[], f32[], f32[], f32[], f32[], /*index=1500*/f32[], f32[], f32[], f32[], f32[], /*index=1505*/f32[1024]{0}, f32[1024]{0}, f32[], f32[], f32[], /*index=1510*/f32[], f32[1024]{0}, f32[], f32[], f32[], /*index=1515*/f32[], f32[1024]{0}, f32[], f32[], f32[], /*index=1520*/f32[], f32[], f32[], f32[], f32[], /*index=1525*/f32[1024]{0}, f32[1024]{0}, f32[1024]{0}, f32[], f32[], /*index=1530*/f32[], f32[], f32[], f32[], f32[], /*index=1535*/f32[], f32[1024]{0}, f32[1024]{0}, f32[], f32[], /*index=1540*/f32[], f32[], f32[], f32[], f32[], /*index=1545*/f32[], f32[], f32[], f32[], f32[], /*index=1550*/f32[], f32[], f32[], f32[], f32[1024]{0}, /*index=1555*/f32[1024]{0}, f32[], f32[], f32[], f32[], /*index=1560*/f32[1024]{0}, f32[], f32[], f32[], f32[], /*index=1565*/f32[1024]{0}, f32[], f32[], f32[], f32[], /*index=1570*/f32[], f32[], f32[], f32[], f32[1024]{0}, /*index=1575*/f32[1024]{0}, f32[1024]{0}, f32[], f32[], f32[], /*index=1580*/f32[], f32[], f32[], f32[], f32[], /*index=1585*/f32[1024]{0}, f32[1024]{0}, f32[], f32[], f32[], /*index=1590*/f32[], f32[], f32[], f32[], f32[], /*index=1595*/f32[], f32[], f32[], f32[], f32[], /*index=1600*/f32[], f32[], f32[], f32[1024]{0}, f32[1024]{0}, /*index=1605*/f32[], f32[], f32[], f32[], f32[1024]{0}, /*index=1610*/f32[], f32[], f32[], f32[], f32[1024]{0}, /*index=1615*/f32[], f32[], f32[], f32[], f32[], /*index=1620*/f32[], f32[], f32[], f32[1024]{0}, f32[1024]{0}, /*index=1625*/f32[1024]{0}, f32[], f32[], f32[], f32[], /*index=1630*/f32[], f32[], f32[], f32[], f32[1024]{0}, /*index=1635*/f32[1024]{0}, f32[], f32[], f32[], f32[], /*index=1640*/f32[], f32[], f32[], f32[], f32[], /*index=1645*/f32[], f32[], f32[], f32[], f32[], /*index=1650*/f32[], f32[], f32[1024]{0}, f32[1024]{0}, f32[], /*index=1655*/f32[], f32[], f32[], f32[1024]{0}, f32[], /*index=1660*/f32[], f32[], f32[], f32[1024]{0}, f32[], /*index=1665*/f32[], f32[], f32[], f32[], f32[], /*index=1670*/f32[], f32[], f32[1024]{0}, f32[1024]{0}, f32[1024]{0}, /*index=1675*/f32[], f32[], f32[], f32[], f32[], /*index=1680*/f32[], f32[], f32[], f32[1024]{0}, f32[1024]{0}, /*index=1685*/f32[], f32[], f32[], f32[], f32[], /*index=1690*/f32[], f32[], f32[], f32[], f32[], /*index=1695*/f32[], f32[], f32[], f32[], f32[], /*index=1700*/f32[], f32[1024]{0}, f32[1024]{0}, f32[], f32[], /*index=1705*/f32[], f32[], f32[1024]{0}, f32[], f32[], /*index=1710*/f32[], f32[], f32[1024]{0}, f32[], f32[], /*index=1715*/f32[], f32[], f32[], f32[], f32[], /*index=1720*/f32[], f32[1024]{0}, f32[1024]{0}, f32[1024]{0}, f32[], /*index=1725*/f32[], f32[], f32[], f32[], f32[], /*index=1730*/f32[], f32[], f32[1024]{0}, f32[1024]{0}, f32[], /*index=1735*/f32[], f32[], f32[], f32[], f32[], /*index=1740*/f32[], f32[], f32[], f32[], f32[], /*index=1745*/f32[], f32[], f32[], f32[], f32[], /*index=1750*/f32[1024]{0}, f32[1024]{0}, f32[], f32[], f32[], /*index=1755*/f32[], f32[1024]{0}, f32[], f32[], f32[], /*index=1760*/f32[], f32[1024]{0}, f32[], f32[], f32[], /*index=1765*/f32[], f32[], f32[], f32[], f32[], /*index=1770*/f32[1024]{0}, f32[1024]{0}, f32[1024]{0}, f32[], f32[], /*index=1775*/f32[], f32[], f32[], f32[], f32[], /*index=1780*/f32[], f32[1024]{0}, f32[1024]{0}, f32[], f32[], /*index=1785*/f32[], f32[], f32[], f32[], f32[], /*index=1790*/f32[], f32[], f32[], f32[], f32[], /*index=1795*/f32[], f32[], f32[], f32[], f32[1024]{0}, /*index=1800*/f32[1024]{0}, f32[], f32[], f32[], f32[], /*index=1805*/f32[1024]{0}, f32[], f32[], f32[], f32[], /*index=1810*/f32[1024]{0}, f32[], f32[], f32[], f32[], /*index=1815*/f32[], f32[], f32[], f32[], f32[1024]{0}, /*index=1820*/f32[1024]{0}, f32[1024]{0}, f32[], f32[], f32[], /*index=1825*/f32[], f32[], f32[], f32[], f32[], /*index=1830*/f32[1024]{0}, f32[1024]{0}, f32[], f32[], f32[], /*index=1835*/f32[], f32[], f32[], f32[], f32[], /*index=1840*/f32[], f32[], f32[], f32[], f32[], /*index=1845*/f32[], f32[], f32[], f32[1024]{0}, f32[1024]{0}, /*index=1850*/f32[], f32[], f32[], f32[], f32[1024]{0}, /*index=1855*/f32[], f32[], f32[], f32[], f32[1024]{0}, /*index=1860*/f32[], f32[], f32[], f32[], f32[], /*index=1865*/f32[], f32[], f32[], f32[1024]{0}, f32[1024]{0}, /*index=1870*/f32[1024]{0}, f32[], f32[], f32[], f32[], /*index=1875*/f32[], f32[], f32[], f32[], f32[1024]{0}, /*index=1880*/f32[1024]{0}, f32[], f32[], f32[], f32[], /*index=1885*/f32[], f32[], f32[], f32[], f32[], /*index=1890*/f32[], f32[], f32[], f32[], f32[], /*index=1895*/f32[], f32[], f32[1024]{0}, f32[1024]{0}, f32[], /*index=1900*/f32[], f32[], f32[], f32[1024]{0}, f32[], /*index=1905*/f32[], f32[], f32[], f32[1024]{0}, f32[], /*index=1910*/f32[], f32[], f32[], f32[], f32[], /*index=1915*/f32[], f32[], f32[1024]{0}, f32[1024]{0}, bf16[], /*index=1920*/bf16[], bf16[], bf16[], bf16[], bf16[], /*index=1925*/bf16[], bf16[], bf16[], bf16[], bf16[], /*index=1930*/bf16[], bf16[], bf16[], bf16[], bf16[], /*index=1935*/bf16[], bf16[], bf16[], bf16[], bf16[], /*index=1940*/bf16[], bf16[], bf16[], bf16[], bf16[], /*index=1945*/bf16[], bf16[], bf16[], bf16[], bf16[], /*index=1950*/bf16[], bf16[], bf16[], bf16[])->(pred[1,41]{1,0}, s32[1,41]{1,0})}, allow_spmd_sharding_propagation_to_parameters={true,true,true,true,true,true,true,true,true,true,true,true,true,true,true,true,true,true,true,true,true,true,true,true,true,true,true,true,true,true,true,true,true,true,true,true,true,true,true,true,true,true,true,true,true,true,true,true,true,true,true,true,true,true,true,true,true,true,true,true,true,true,true,true,true,true,true,true,true,true,true,true,true,true,true,true,true,true,true,true,true,true,true,true,true,true,true,true,true,true,true,true,true,true,true,true,true,true,true,true,true,true,true,true,true,true,true,true,true,true,true,true,true,true,true,true,true,true,true,true,true,true,true,true,true,true,true,true,true,true,true,true,true,true,true,true,true,true,true,true,true,true,true,true,true,true,true,true,true,true,true,true,true,true,true,true,true,true,true,true,true,true,true,true,true,true,true,true,true,true,true,true,true,true,true,true,true,true,true,true,true,true,true,true,true,true,true,true,true,true,true,true,true,true,true,true,true,true,true,true,true,true,true,true,true,true,true,true,true,true,true,true,true,true,true,true,true,true,true,true,true,true,true,true,true,true,true,true,true,true,true,true,true,true,true,true,true,true,true,true,true,true,true,true,true,true,true,true,true,true,true,true,true,true,true,true,true,true,true,true,true,true,true,true,true,true,true,true,true,true,true,true,true,true,true,true,true,true,true,true,true,true,true,true,true,true,true,true,true,true,true,true,true,true,true,true,true,true,true,true,true,true,true,true,true,true,true,true,true,true,true,true,true,true,true,true,true,true,true,true,true,true,true,true,true,true,true,true,true,true,true,true,true,true,true,true,true,true,true,true,true,true,true,true,true,true,true,true,true,true,true,true,true,true,true,true,true,true,true,true,true,true,true,true,true,true,true,true,true,true,true,true,true,true,true,true,true,true,true,true,true,true,true,true,true,true,true,true,true,true,true,true,true,true,true,true,true,true,true,true,true,true,true,true,true,true,true,true,true,true,true,true,true,true,true,true,true,true,true,true,true,true,true,true,true,true,true,true,true,true,true,true,true,true,true,true,true,true,true,true,true,true,true,true,true,true,true,true,true,true,true,true,true,true,true,true,true,true,true,true,true,true,true,true,true,true,true,true,true,true,true,true,true,true,true,true,true,true,true,true,true,true,true,true,true,true,true,true,true,true,true,true,true,true,true,true,true,true,true,true,true,true,true,true,true,true,true,true,true,true,true,true,true,true,true,true,true,true,true,true,true,true,true,true,true,true,true,true,true,true,true,true,true,true,true,true,true,true,true,true,true,true,true,true,true,true,true,true,true,true,true,true,true,true,true,true,true,true,true,true,true,true,true,true,true,true,true,true,true,true,true,true,true,true,true,true,true,true,true,true,true,true,true,true,true,true,true,true,true,true,true,true,true,true,true,true,true,true,true,true,true,true,true,true,true,true,true,true,true,true,true,true,true,true,true,true,true,true,true,true,true,true,true,true,true,true,true,true,true,true,true,true,true,true,true,true,true,true,true,true,true,true,true,true,true,true,true,true,true,true,true,true,true,true,true,true,true,true,true,true,true,true,true,true,true,true,true,true,true,true,true,true,true,true,true,true,true,true,true,true,true,true,true,true,true,true,true,true,true,true,true,true,true,true,true,true,true,true,true,true,true,true,true,true,true,true,true,true,true,true,true,true,true,true,true,true,true,true,true,true,true,true,true,true,true,true,true,true,true,true,true,true,true,true,true,true,true,true,true,true,true,true,true,true,true,true,true,true,true,true,true,true,true,true,true,true,true,true,true,true,true,true,true,true,true,true,true,true,true,true,true,true,true,true,true,true,true,true,true,true,true,true,true,true,true,true,true,true,true,true,true,true,true,true,true,true,true,true,true,true,true,true,true,true,true,true,true,true,true,true,true,true,true,true,true,true,true,true,true,true,true,true,true,true,true,true,true,true,true,true,true,true,true,true,true,true,true,true,true,true,true,true,true,true,true,true,true,true,true,true,true,true,true,true,true,true,true,true,true,true,true,true,true,true,true,true,true,true,true,true,true,true,true,true,true,true,true,true,true,true,true,true,true,true,true,true,true,true,true,true,true,true,true,true,true,true,true,true,true,true,true,true,true,true,true,true,true,true,true,true,true,true,true,true,true,true,true,true,true,true,true,true,true,true,true,true,true,true,true,true,true,true,true,true,true,true,true,true,true,true,true,true,true,true,true,true,true,true,true,true,true,true,true,true,true,true,true,true,true,true,true,true,true,true,true,true,true,true,true,true,true,true,true,true,true,true,true,true,true,true,true,true,true,true,true,true,true,true,true,true,true,true,true,true,true,true,true,true,true,true,true,true,true,true,true,true,true,true,true,true,true,true,true,true,true,true,true,true,true,true,true,true,true,true,true,true,true,true,true,true,true,true,true,true,true,true,true,true,true,true,true,true,true,true,true,true,true,true,true,true,true,true,true,true,true,true,true,true,true,true,true,true,true,true,true,true,true,true,true,true,true,true,true,true,true,true,true,true,true,true,true,true,true,true,true,true,true,true,true,true,true,true,true,true,true,true,true,true,true,true,true,true,true,true,true,true,true,true,true,true,true,true,true,true,true,true,true,true,true,true,true,true,true,true,true,true,true,true,true,true,true,true,true,true,true,true,true,true,true,true,true,true,true,true,true,true,true,true,true,true,true,true,true,true,true,true,true,true,true,true,true,true,true,true,true,true,true,true,true,true,true,true,true,true,true,true,true,true,true,true,true,true,true,true,true,true,true,true,true,true,true,true,true,true,true,true,true,true,true,true,true,true,true,true,true,true,true,true,true,true,true,true,true,true,true,true,true,true,true,true,true,true,true,true,true,true,true,true,true,true,true,true,true,true,true,true,true,true,true,true,true,true,true,true,true,true,true,true,true,true,true,true,true,true,true,true,true,true,true,true,true,true,true,true,true,true,true,true,true,true,true,true,true,true,true,true,true,true,true,true,true,true,true,true,true,true,true,true,true,true,true,true,true,true,true,true,true,true,true,true,true,true,true,true,true,true,true,true,true,true,true,true,true,true,true,true,true,true,true,true,true,true,true,true,true,true,true,true,true,true,true,true,true,true,true,true,true,true,true,true,true,true,true,true,true,true,true,true,true,true,true,true,true,true,true,true,true,true,true,true,true,true,true,true,true,true,true,true,true,true,true,true,true,true,true,true,true,true,true,true,true,true,true,true,true,true,true,true,true,true,true,true,true,true,true,true,true,true,true,true,true,true,true,true,true,true,true,true,true,true,true,true,true,true,true,true,true,true,true,true,true,true,true,true,true,true,true,true,true,true,true,true,true,true,true,true,true,true,true,true,true,true,true,true,true,true,true,true,true,true,true,true,true,true,true,true,true,true,true,true,true,true,true,true,true,true,true,true,true,true,true,true,true,true,true,true,true,true,true,true,true,true,true,true,true,true,true,true,true,true,true,true,true,true,true,true,true,true,true,true,true,true,true,true,true,true,true,true,true,true,true,true,true,true,true,true,true,true,true,true,true,true,true,true,true,true,true,true,true,true,true,true,true,true,true,true,true,true,true,true,true,true,true,true,true,true,true,true,true,true,true,true,true,true,true,true,true,true,true,true,true,true,true,true,true,true,true,true,true,true,true,true,true,true,true,true,true,true,true,true,true,true,true,true,true,true,true,true,true,true,true,true,true,true,true,true,true,true,true,true,true,true,true,true,true,true,true,true,true,true,true,true,true,true,true,true,true,true,true,true,true,true,true,true,true,true,true,true,true,true,true,true,true,true,true,true,true,true,true,true,true,true,true,true,true,true,true,true,true,true,true,true,true,true,true,true,true,true,true,true,true,true,true,true,true,true,true,true,true,true,true,true,true,true,true,true,true,true,true,true,true,true,true,true,true,true,true,true,true,true,true,true,true,true,true,true,true,true,true,true,true,true,true,true,true,true,true,true,true,true,true,true,true,true,true,true,true,true,true,true,true,true,true,true,true,true,true,true,true,true,true,true,true,true,true,true,true,true,true,true,true,true,true,true,true,true,true,true,true,true,true,true,true,true,true,true,true,true,true,true,true,true,true,true,true,true,true,true,true,true,true,true,true,true,true,true,true,true,true,true,true,true,true,true,true,true,true,true,true,true,true,true,true,true,true,true,true,true,true,true,true,true,true,true,true,true,true,true,true,true,true,true,true,true,true,true,true,true,true,true,true,true,true,true,true,true,true,true,true,true,true,true,true,true,true,true,true,true,true,true,true,true,true,true,true,true,true,true,true,true,true,true,true,true,true,true,true,true,true,true,true,true,true,true,true,true,true,true,true,true,true,true,true,true,true,true,true,true,true,true,true,true,true,true,true,true,true,true,true,true,true,true,true,true,true,true,true,true,true,true,true,true,true,true,true,true,true,true,true,true,true,true,true,true,true,true,true,true,true,true,true,true,true,true,true,true,true,true,true,true,true,true,true,true,true,true,true,true,true,true,true,true,true,true,true,true,true,true,true,true,true,true,true,true}, allow_spmd_sharding_propagation_to_output={true,true}

%_where.1 (Arg_0.2: pred[1,41], Arg_1.2: s32[1,41], Arg_2.1: s32[1,41]) -> s32[1,41] {
  %Arg_0.2 = pred[1,41]{1,0} parameter(0)
  %Arg_1.2 = s32[1,41]{1,0} parameter(1)
  %Arg_2.1 = s32[1,41]{1,0} parameter(2)
  ROOT %select_n.1 = s32[1,41]{1,0} select(%Arg_0.2, %Arg_1.2, %Arg_2.1)
}

%region_0.2 (reduce_and.3: pred[], reduce_and.4: pred[]) -> pred[] {
  %reduce_and.3 = pred[] parameter(0)
  %reduce_and.4 = pred[] parameter(1)
  ROOT %reduce_and.5 = pred[] and(%reduce_and.3, %reduce_and.4)
}

%_take.3 (Arg_0.3: bf16[262144,1536], Arg_1.3: s32[1,41]) -> bf16[1,41,1536] {
  %Arg_1.3 = s32[1,41]{1,0} parameter(1)
  %constant.62 = s32[] constant(0)
  %lt.2 = s32[1,41]{1,0} broadcast(%constant.62), dimensions={}
  %lt.3 = pred[1,41]{1,0} compare(%Arg_1.3, %lt.2), direction=LT
  %constant.60 = s32[] constant(262144)
  %add.2 = s32[1,41]{1,0} broadcast(%constant.60), dimensions={}
  %add.3 = s32[1,41]{1,0} add(%Arg_1.3, %add.2)
  %jit__where_.1 = s32[1,41]{1,0} call(%lt.3, %add.3, %Arg_1.3), to_apply=%_where.1
  %broadcast_in_dim.4 = s32[1,41,1]{2,1,0} reshape(%jit__where_.1)
  %constant.59 = s32[] constant(0)
  %ge.2 = s32[1,41,1]{2,1,0} broadcast(%constant.59), dimensions={}
  %ge.3 = pred[1,41,1]{2,1,0} compare(%broadcast_in_dim.4, %ge.2), direction=GE
  %constant.58 = s32[] constant(262143)
  %le.2 = s32[1,41,1]{2,1,0} broadcast(%constant.58), dimensions={}
  %le.3 = pred[1,41,1]{2,1,0} compare(%broadcast_in_dim.4, %le.2), direction=LE
  %and.1 = pred[1,41,1]{2,1,0} and(%ge.3, %le.3)
  %constant.61 = pred[] constant(true)
  %reduce_and.7 = pred[1,41]{1,0} reduce(%and.1, %constant.61), dimensions={2}, to_apply=%region_0.2
  %broadcast_in_dim.5 = pred[1,41,1536]{2,1,0} broadcast(%reduce_and.7), dimensions={0,1}
  %Arg_0.3 = bf16[262144,1536]{1,0} parameter(0)
  %gather.1 = bf16[1,41,1536]{2,1,0} gather(%Arg_0.3, %broadcast_in_dim.4), offset_dims={2}, collapsed_slice_dims={0}, start_index_map={0}, index_vector_dim=2, slice_sizes={1,1536}
  %constant.57 = bf16[] constant(nan)
  %broadcast_in_dim.3 = bf16[1,41,1536]{2,1,0} broadcast(%constant.57), dimensions={}
  ROOT %select_n.3 = bf16[1,41,1536]{2,1,0} select(%broadcast_in_dim.5, %gather.1, %broadcast_in_dim.3)
}

%region_3.7 (reduce_sum.10: f32[], reduce_sum.11: f32[]) -> f32[] {
  %reduce_sum.10 = f32[] parameter(0)
  %reduce_sum.11 = f32[] parameter(1)
  ROOT %reduce_sum.12 = f32[] add(%reduce_sum.10, %reduce_sum.11)
}

%region_5.11 (reduce_sum.24: f32[], reduce_sum.25: f32[]) -> f32[] {
  %reduce_sum.24 = f32[] parameter(0)
  %reduce_sum.25 = f32[] parameter(1)
  ROOT %reduce_sum.26 = f32[] add(%reduce_sum.24, %reduce_sum.25)
}

%region_6.12 (reduce_sum.31: f32[], reduce_sum.32: f32[]) -> f32[] {
  %reduce_sum.31 = f32[] parameter(0)
  %reduce_sum.32 = f32[] parameter(1)
  ROOT %reduce_sum.33 = f32[] add(%reduce_sum.31, %reduce_sum.32)
}

%triu.8 (Arg_0.7: pred[41,41]) -> pred[41,41] {
  %iota.6 = s32[41]{0} iota(), iota_dimension=0
  %iota.7 = s32[41,41]{1,0} broadcast(%iota.6), dimensions={0}
  %constant.78 = s32[] constant(-512)
  %add.13 = s32[41,41]{1,0} broadcast(%constant.78), dimensions={}
  %add.14 = s32[41,41]{1,0} add(%iota.7, %add.13)
  %iota.8 = s32[41]{0} iota(), iota_dimension=0
  %iota.9 = s32[41,41]{1,0} broadcast(%iota.8), dimensions={1}
  %ge.16 = pred[41,41]{1,0} compare(%add.14, %iota.9), direction=GE
  %constant.77 = pred[] constant(false)
  %broadcast_in_dim.21 = pred[41,41]{1,0} broadcast(%constant.77), dimensions={}
  %Arg_0.7 = pred[41,41]{1,0} parameter(0)
  ROOT %select_n.7 = pred[41,41]{1,0} select(%ge.16, %broadcast_in_dim.21, %Arg_0.7)
}

%tril.9 (Arg_0.9: pred[41,41]) -> pred[41,41] {
  %iota.14 = s32[41]{0} iota(), iota_dimension=0
  %iota.15 = s32[41,41]{1,0} broadcast(%iota.14), dimensions={0}
  %constant.82 = s32[] constant(511)
  %add.17 = s32[41,41]{1,0} broadcast(%constant.82), dimensions={}
  %add.18 = s32[41,41]{1,0} add(%iota.15, %add.17)
  %iota.16 = s32[41]{0} iota(), iota_dimension=0
  %iota.17 = s32[41,41]{1,0} broadcast(%iota.16), dimensions={1}
  %ge.18 = pred[41,41]{1,0} compare(%add.18, %iota.17), direction=GE
  %Arg_0.9 = pred[41,41]{1,0} parameter(0)
  %constant.81 = pred[] constant(false)
  %broadcast_in_dim.23 = pred[41,41]{1,0} broadcast(%constant.81), dimensions={}
  ROOT %select_n.9 = pred[41,41]{1,0} select(%ge.18, %Arg_0.9, %broadcast_in_dim.23)
}

%region_9.16 (reduce_and.19: pred[], reduce_and.20: pred[]) -> pred[] {
  %reduce_and.19 = pred[] parameter(0)
  %reduce_and.20 = pred[] parameter(1)
  ROOT %reduce_and.21 = pred[] and(%reduce_and.19, %reduce_and.20)
}

%region_4.10 (reduce_sum.17: f32[], reduce_sum.18: f32[]) -> f32[] {
  %reduce_sum.17 = f32[] parameter(0)
  %reduce_sum.18 = f32[] parameter(1)
  ROOT %reduce_sum.19 = f32[] add(%reduce_sum.17, %reduce_sum.18)
}

%_where_109.13 (Arg_0.11: pred[1,1,1,41,41], Arg_1.7: f32[1,1,8,41,41], Arg_2.3: f32[]) -> f32[1,1,8,41,41] {
  %Arg_0.11 = pred[1,1,1,41,41]{4,3,2,1,0} parameter(0)
  %broadcast_in_dim.47 = pred[1,1,1,41,41]{4,3,2,1,0} broadcast(%Arg_0.11), dimensions={0,1,2,3,4}
  %broadcast_in_dim.48 = pred[1,1,41,41]{3,2,1,0} reshape(%broadcast_in_dim.47)
  %broadcast_in_dim.49 = pred[1,1,8,41,41]{4,3,2,1,0} broadcast(%broadcast_in_dim.48), dimensions={0,1,3,4}
  %Arg_1.7 = f32[1,1,8,41,41]{4,3,2,1,0} parameter(1)
  %Arg_2.3 = f32[] parameter(2)
  %broadcast_in_dim.50 = f32[1,1,8,41,41]{4,3,2,1,0} broadcast(%Arg_2.3), dimensions={}
  ROOT %select_n.11 = f32[1,1,8,41,41]{4,3,2,1,0} select(%broadcast_in_dim.49, %Arg_1.7, %broadcast_in_dim.50)
}

%region_7.14 (reduce_max.3: f32[], reduce_max.4: f32[]) -> f32[] {
  %reduce_max.3 = f32[] parameter(0)
  %reduce_max.4 = f32[] parameter(1)
  ROOT %reduce_max.5 = f32[] maximum(%reduce_max.3, %reduce_max.4)
}

%region_8.15 (reduce_sum.38: f32[], reduce_sum.39: f32[]) -> f32[] {
  %reduce_sum.38 = f32[] parameter(0)
  %reduce_sum.39 = f32[] parameter(1)
  ROOT %reduce_sum.40 = f32[] add(%reduce_sum.38, %reduce_sum.39)
}

%_where_130.17 (Arg_0.13: pred[1,41,1,1], Arg_1.9: bf16[1,41,8,256], Arg_2.5: bf16[1,41,8,256]) -> bf16[1,41,8,256] {
  %Arg_0.13 = pred[1,41,1,1]{3,2,1,0} parameter(0)
  %broadcast_in_dim.57 = pred[1,41,1,1]{3,2,1,0} broadcast(%Arg_0.13), dimensions={0,1,2,3}
  %broadcast_in_dim.58 = pred[1,41]{1,0} reshape(%broadcast_in_dim.57)
  %broadcast_in_dim.59 = pred[1,41,8,256]{3,2,1,0} broadcast(%broadcast_in_dim.58), dimensions={0,1}
  %Arg_1.9 = bf16[1,41,8,256]{3,2,1,0} parameter(1)
  %Arg_2.5 = bf16[1,41,8,256]{3,2,1,0} parameter(2)
  ROOT %select_n.13 = bf16[1,41,8,256]{3,2,1,0} select(%broadcast_in_dim.59, %Arg_1.9, %Arg_2.5)
}

%region_10.18 (reduce_sum.45: f32[], reduce_sum.46: f32[]) -> f32[] {
  %reduce_sum.45 = f32[] parameter(0)
  %reduce_sum.46 = f32[] parameter(1)
  ROOT %reduce_sum.47 = f32[] add(%reduce_sum.45, %reduce_sum.46)
}

%region_11.19 (reduce_sum.52: f32[], reduce_sum.53: f32[]) -> f32[] {
  %reduce_sum.52 = f32[] parameter(0)
  %reduce_sum.53 = f32[] parameter(1)
  ROOT %reduce_sum.54 = f32[] add(%reduce_sum.52, %reduce_sum.53)
}

%region_12.20 (reduce_sum.59: f32[], reduce_sum.60: f32[]) -> f32[] {
  %reduce_sum.59 = f32[] parameter(0)
  %reduce_sum.60 = f32[] parameter(1)
  ROOT %reduce_sum.61 = f32[] add(%reduce_sum.59, %reduce_sum.60)
}

%region_2.6 (reduce_sum.3: f32[], reduce_sum.4: f32[]) -> f32[] {
  %reduce_sum.3 = f32[] parameter(0)
  %reduce_sum.4 = f32[] parameter(1)
  ROOT %reduce_sum.5 = f32[] add(%reduce_sum.3, %reduce_sum.4)
}

%region_1.4 (reduce_and.11: pred[], reduce_and.12: pred[]) -> pred[] {
  %reduce_and.11 = pred[] parameter(0)
  %reduce_and.12 = pred[] parameter(1)
  ROOT %reduce_and.13 = pred[] and(%reduce_and.11, %reduce_and.12)
}

%_take_8.5 (Arg_0.5: bf16[262144,8960], Arg_1.5: s32[1,41]) -> bf16[1,41,8960] {
  %Arg_1.5 = s32[1,41]{1,0} parameter(1)
  %constant.74 = s32[] constant(0)
  %lt.6 = s32[1,41]{1,0} broadcast(%constant.74), dimensions={}
  %lt.7 = pred[1,41]{1,0} compare(%Arg_1.5, %lt.6), direction=LT
  %constant.72 = s32[] constant(262144)
  %add.6 = s32[1,41]{1,0} broadcast(%constant.72), dimensions={}
  %add.7 = s32[1,41]{1,0} add(%Arg_1.5, %add.6)
  %jit__where_.4 = s32[1,41]{1,0} call(%lt.7, %add.7, %Arg_1.5), to_apply=%_where.1
  %broadcast_in_dim.10 = s32[1,41,1]{2,1,0} reshape(%jit__where_.4)
  %constant.71 = s32[] constant(0)
  %ge.6 = s32[1,41,1]{2,1,0} broadcast(%constant.71), dimensions={}
  %ge.7 = pred[1,41,1]{2,1,0} compare(%broadcast_in_dim.10, %ge.6), direction=GE
  %constant.70 = s32[] constant(262143)
  %le.6 = s32[1,41,1]{2,1,0} broadcast(%constant.70), dimensions={}
  %le.7 = pred[1,41,1]{2,1,0} compare(%broadcast_in_dim.10, %le.6), direction=LE
  %and.3 = pred[1,41,1]{2,1,0} and(%ge.7, %le.7)
  %constant.73 = pred[] constant(true)
  %reduce_and.15 = pred[1,41]{1,0} reduce(%and.3, %constant.73), dimensions={2}, to_apply=%region_1.4
  %broadcast_in_dim.11 = pred[1,41,8960]{2,1,0} broadcast(%reduce_and.15), dimensions={0,1}
  %Arg_0.5 = bf16[262144,8960]{1,0} parameter(0)
  %gather.3 = bf16[1,41,8960]{2,1,0} gather(%Arg_0.5, %broadcast_in_dim.10), offset_dims={2}, collapsed_slice_dims={0}, start_index_map={0}, index_vector_dim=2, slice_sizes={1,8960}
  %constant.69 = bf16[] constant(nan)
  %broadcast_in_dim.9 = bf16[1,41,8960]{2,1,0} broadcast(%constant.69), dimensions={}
  ROOT %select_n.5 = bf16[1,41,8960]{2,1,0} select(%broadcast_in_dim.11, %gather.3, %broadcast_in_dim.9)
}

%region_13.21 (reduce_sum.66: f32[], reduce_sum.67: f32[]) -> f32[] {
  %reduce_sum.66 = f32[] parameter(0)
  %reduce_sum.67 = f32[] parameter(1)
  ROOT %reduce_sum.68 = f32[] add(%reduce_sum.66, %reduce_sum.67)
}

%region_15.23 (reduce_sum.80: f32[], reduce_sum.81: f32[]) -> f32[] {
  %reduce_sum.80 = f32[] parameter(0)
  %reduce_sum.81 = f32[] parameter(1)
  ROOT %reduce_sum.82 = f32[] add(%reduce_sum.80, %reduce_sum.81)
}

%region_17.25 (reduce_sum.94: f32[], reduce_sum.95: f32[]) -> f32[] {
  %reduce_sum.94 = f32[] parameter(0)
  %reduce_sum.95 = f32[] parameter(1)
  ROOT %reduce_sum.96 = f32[] add(%reduce_sum.94, %reduce_sum.95)
}

%region_18.26 (reduce_sum.101: f32[], reduce_sum.102: f32[]) -> f32[] {
  %reduce_sum.101 = f32[] parameter(0)
  %reduce_sum.102 = f32[] parameter(1)
  ROOT %reduce_sum.103 = f32[] add(%reduce_sum.101, %reduce_sum.102)
}

%region_21.29 (reduce_and.26: pred[], reduce_and.27: pred[]) -> pred[] {
  %reduce_and.26 = pred[] parameter(0)
  %reduce_and.27 = pred[] parameter(1)
  ROOT %reduce_and.28 = pred[] and(%reduce_and.26, %reduce_and.27)
}

%region_16.24 (reduce_sum.87: f32[], reduce_sum.88: f32[]) -> f32[] {
  %reduce_sum.87 = f32[] parameter(0)
  %reduce_sum.88 = f32[] parameter(1)
  ROOT %reduce_sum.89 = f32[] add(%reduce_sum.87, %reduce_sum.88)
}

%region_19.27 (reduce_max.10: f32[], reduce_max.11: f32[]) -> f32[] {
  %reduce_max.10 = f32[] parameter(0)
  %reduce_max.11 = f32[] parameter(1)
  ROOT %reduce_max.12 = f32[] maximum(%reduce_max.10, %reduce_max.11)
}

%region_20.28 (reduce_sum.108: f32[], reduce_sum.109: f32[]) -> f32[] {
  %reduce_sum.108 = f32[] parameter(0)
  %reduce_sum.109 = f32[] parameter(1)
  ROOT %reduce_sum.110 = f32[] add(%reduce_sum.108, %reduce_sum.109)
}

%region_22.30 (reduce_sum.115: f32[], reduce_sum.116: f32[]) -> f32[] {
  %reduce_sum.115 = f32[] parameter(0)
  %reduce_sum.116 = f32[] parameter(1)
  ROOT %reduce_sum.117 = f32[] add(%reduce_sum.115, %reduce_sum.116)
}

%region_23.31 (reduce_sum.122: f32[], reduce_sum.123: f32[]) -> f32[] {
  %reduce_sum.122 = f32[] parameter(0)
  %reduce_sum.123 = f32[] parameter(1)
  ROOT %reduce_sum.124 = f32[] add(%reduce_sum.122, %reduce_sum.123)
}

%region_24.32 (reduce_sum.129: f32[], reduce_sum.130: f32[]) -> f32[] {
  %reduce_sum.129 = f32[] parameter(0)
  %reduce_sum.130 = f32[] parameter(1)
  ROOT %reduce_sum.131 = f32[] add(%reduce_sum.129, %reduce_sum.130)
}

%region_14.22 (reduce_sum.73: f32[], reduce_sum.74: f32[]) -> f32[] {
  %reduce_sum.73 = f32[] parameter(0)
  %reduce_sum.74 = f32[] parameter(1)
  ROOT %reduce_sum.75 = f32[] add(%reduce_sum.73, %reduce_sum.74)
}

%region_25.33 (reduce_sum.136: f32[], reduce_sum.137: f32[]) -> f32[] {
  %reduce_sum.136 = f32[] parameter(0)
  %reduce_sum.137 = f32[] parameter(1)
  ROOT %reduce_sum.138 = f32[] add(%reduce_sum.136, %reduce_sum.137)
}

%region_27.35 (reduce_sum.150: f32[], reduce_sum.151: f32[]) -> f32[] {
  %reduce_sum.150 = f32[] parameter(0)
  %reduce_sum.151 = f32[] parameter(1)
  ROOT %reduce_sum.152 = f32[] add(%reduce_sum.150, %reduce_sum.151)
}

%region_29.37 (reduce_sum.164: f32[], reduce_sum.165: f32[]) -> f32[] {
  %reduce_sum.164 = f32[] parameter(0)
  %reduce_sum.165 = f32[] parameter(1)
  ROOT %reduce_sum.166 = f32[] add(%reduce_sum.164, %reduce_sum.165)
}

%region_30.38 (reduce_sum.171: f32[], reduce_sum.172: f32[]) -> f32[] {
  %reduce_sum.171 = f32[] parameter(0)
  %reduce_sum.172 = f32[] parameter(1)
  ROOT %reduce_sum.173 = f32[] add(%reduce_sum.171, %reduce_sum.172)
}

%region_33.41 (reduce_and.33: pred[], reduce_and.34: pred[]) -> pred[] {
  %reduce_and.33 = pred[] parameter(0)
  %reduce_and.34 = pred[] parameter(1)
  ROOT %reduce_and.35 = pred[] and(%reduce_and.33, %reduce_and.34)
}

%region_28.36 (reduce_sum.157: f32[], reduce_sum.158: f32[]) -> f32[] {
  %reduce_sum.157 = f32[] parameter(0)
  %reduce_sum.158 = f32[] parameter(1)
  ROOT %reduce_sum.159 = f32[] add(%reduce_sum.157, %reduce_sum.158)
}

%region_31.39 (reduce_max.17: f32[], reduce_max.18: f32[]) -> f32[] {
  %reduce_max.17 = f32[] parameter(0)
  %reduce_max.18 = f32[] parameter(1)
  ROOT %reduce_max.19 = f32[] maximum(%reduce_max.17, %reduce_max.18)
}

%region_32.40 (reduce_sum.178: f32[], reduce_sum.179: f32[]) -> f32[] {
  %reduce_sum.178 = f32[] parameter(0)
  %reduce_sum.179 = f32[] parameter(1)
  ROOT %reduce_sum.180 = f32[] add(%reduce_sum.178, %reduce_sum.179)
}

%region_34.42 (reduce_sum.185: f32[], reduce_sum.186: f32[]) -> f32[] {
  %reduce_sum.185 = f32[] parameter(0)
  %reduce_sum.186 = f32[] parameter(1)
  ROOT %reduce_sum.187 = f32[] add(%reduce_sum.185, %reduce_sum.186)
}

%region_35.43 (reduce_sum.192: f32[], reduce_sum.193: f32[]) -> f32[] {
  %reduce_sum.192 = f32[] parameter(0)
  %reduce_sum.193 = f32[] parameter(1)
  ROOT %reduce_sum.194 = f32[] add(%reduce_sum.192, %reduce_sum.193)
}

%region_36.44 (reduce_sum.199: f32[], reduce_sum.200: f32[]) -> f32[] {
  %reduce_sum.199 = f32[] parameter(0)
  %reduce_sum.200 = f32[] parameter(1)
  ROOT %reduce_sum.201 = f32[] add(%reduce_sum.199, %reduce_sum.200)
}

%region_26.34 (reduce_sum.143: f32[], reduce_sum.144: f32[]) -> f32[] {
  %reduce_sum.143 = f32[] parameter(0)
  %reduce_sum.144 = f32[] parameter(1)
  ROOT %reduce_sum.145 = f32[] add(%reduce_sum.143, %reduce_sum.144)
}

%region_37.45 (reduce_sum.206: f32[], reduce_sum.207: f32[]) -> f32[] {
  %reduce_sum.206 = f32[] parameter(0)
  %reduce_sum.207 = f32[] parameter(1)
  ROOT %reduce_sum.208 = f32[] add(%reduce_sum.206, %reduce_sum.207)
}

%region_39.47 (reduce_sum.220: f32[], reduce_sum.221: f32[]) -> f32[] {
  %reduce_sum.220 = f32[] parameter(0)
  %reduce_sum.221 = f32[] parameter(1)
  ROOT %reduce_sum.222 = f32[] add(%reduce_sum.220, %reduce_sum.221)
}

%region_41.49 (reduce_sum.234: f32[], reduce_sum.235: f32[]) -> f32[] {
  %reduce_sum.234 = f32[] parameter(0)
  %reduce_sum.235 = f32[] parameter(1)
  ROOT %reduce_sum.236 = f32[] add(%reduce_sum.234, %reduce_sum.235)
}

%region_42.50 (reduce_sum.241: f32[], reduce_sum.242: f32[]) -> f32[] {
  %reduce_sum.241 = f32[] parameter(0)
  %reduce_sum.242 = f32[] parameter(1)
  ROOT %reduce_sum.243 = f32[] add(%reduce_sum.241, %reduce_sum.242)
}

%region_45.53 (reduce_and.40: pred[], reduce_and.41: pred[]) -> pred[] {
  %reduce_and.40 = pred[] parameter(0)
  %reduce_and.41 = pred[] parameter(1)
  ROOT %reduce_and.42 = pred[] and(%reduce_and.40, %reduce_and.41)
}

%region_40.48 (reduce_sum.227: f32[], reduce_sum.228: f32[]) -> f32[] {
  %reduce_sum.227 = f32[] parameter(0)
  %reduce_sum.228 = f32[] parameter(1)
  ROOT %reduce_sum.229 = f32[] add(%reduce_sum.227, %reduce_sum.228)
}

%region_43.51 (reduce_max.24: f32[], reduce_max.25: f32[]) -> f32[] {
  %reduce_max.24 = f32[] parameter(0)
  %reduce_max.25 = f32[] parameter(1)
  ROOT %reduce_max.26 = f32[] maximum(%reduce_max.24, %reduce_max.25)
}

%region_44.52 (reduce_sum.248: f32[], reduce_sum.249: f32[]) -> f32[] {
  %reduce_sum.248 = f32[] parameter(0)
  %reduce_sum.249 = f32[] parameter(1)
  ROOT %reduce_sum.250 = f32[] add(%reduce_sum.248, %reduce_sum.249)
}

%region_46.54 (reduce_sum.255: f32[], reduce_sum.256: f32[]) -> f32[] {
  %reduce_sum.255 = f32[] parameter(0)
  %reduce_sum.256 = f32[] parameter(1)
  ROOT %reduce_sum.257 = f32[] add(%reduce_sum.255, %reduce_sum.256)
}

%region_47.55 (reduce_sum.262: f32[], reduce_sum.263: f32[]) -> f32[] {
  %reduce_sum.262 = f32[] parameter(0)
  %reduce_sum.263 = f32[] parameter(1)
  ROOT %reduce_sum.264 = f32[] add(%reduce_sum.262, %reduce_sum.263)
}

%region_48.56 (reduce_sum.269: f32[], reduce_sum.270: f32[]) -> f32[] {
  %reduce_sum.269 = f32[] parameter(0)
  %reduce_sum.270 = f32[] parameter(1)
  ROOT %reduce_sum.271 = f32[] add(%reduce_sum.269, %reduce_sum.270)
}

%region_38.46 (reduce_sum.213: f32[], reduce_sum.214: f32[]) -> f32[] {
  %reduce_sum.213 = f32[] parameter(0)
  %reduce_sum.214 = f32[] parameter(1)
  ROOT %reduce_sum.215 = f32[] add(%reduce_sum.213, %reduce_sum.214)
}

%region_49.57 (reduce_sum.276: f32[], reduce_sum.277: f32[]) -> f32[] {
  %reduce_sum.276 = f32[] parameter(0)
  %reduce_sum.277 = f32[] parameter(1)
  ROOT %reduce_sum.278 = f32[] add(%reduce_sum.276, %reduce_sum.277)
}

%region_51.59 (reduce_sum.290: f32[], reduce_sum.291: f32[]) -> f32[] {
  %reduce_sum.290 = f32[] parameter(0)
  %reduce_sum.291 = f32[] parameter(1)
  ROOT %reduce_sum.292 = f32[] add(%reduce_sum.290, %reduce_sum.291)
}

%region_53.61 (reduce_sum.304: f32[], reduce_sum.305: f32[]) -> f32[] {
  %reduce_sum.304 = f32[] parameter(0)
  %reduce_sum.305 = f32[] parameter(1)
  ROOT %reduce_sum.306 = f32[] add(%reduce_sum.304, %reduce_sum.305)
}

%region_54.62 (reduce_sum.311: f32[], reduce_sum.312: f32[]) -> f32[] {
  %reduce_sum.311 = f32[] parameter(0)
  %reduce_sum.312 = f32[] parameter(1)
  ROOT %reduce_sum.313 = f32[] add(%reduce_sum.311, %reduce_sum.312)
}

%region_57.65 (reduce_and.47: pred[], reduce_and.48: pred[]) -> pred[] {
  %reduce_and.47 = pred[] parameter(0)
  %reduce_and.48 = pred[] parameter(1)
  ROOT %reduce_and.49 = pred[] and(%reduce_and.47, %reduce_and.48)
}

%region_52.60 (reduce_sum.297: f32[], reduce_sum.298: f32[]) -> f32[] {
  %reduce_sum.297 = f32[] parameter(0)
  %reduce_sum.298 = f32[] parameter(1)
  ROOT %reduce_sum.299 = f32[] add(%reduce_sum.297, %reduce_sum.298)
}

%region_55.63 (reduce_max.31: f32[], reduce_max.32: f32[]) -> f32[] {
  %reduce_max.31 = f32[] parameter(0)
  %reduce_max.32 = f32[] parameter(1)
  ROOT %reduce_max.33 = f32[] maximum(%reduce_max.31, %reduce_max.32)
}

%region_56.64 (reduce_sum.318: f32[], reduce_sum.319: f32[]) -> f32[] {
  %reduce_sum.318 = f32[] parameter(0)
  %reduce_sum.319 = f32[] parameter(1)
  ROOT %reduce_sum.320 = f32[] add(%reduce_sum.318, %reduce_sum.319)
}

%_where_228.66 (Arg_0.15: pred[1,41,1,1], Arg_1.11: bf16[1,41,8,512], Arg_2.7: bf16[1,41,8,512]) -> bf16[1,41,8,512] {
  %Arg_0.15 = pred[1,41,1,1]{3,2,1,0} parameter(0)
  %broadcast_in_dim.214 = pred[1,41,1,1]{3,2,1,0} broadcast(%Arg_0.15), dimensions={0,1,2,3}
  %broadcast_in_dim.215 = pred[1,41]{1,0} reshape(%broadcast_in_dim.214)
  %broadcast_in_dim.216 = pred[1,41,8,512]{3,2,1,0} broadcast(%broadcast_in_dim.215), dimensions={0,1}
  %Arg_1.11 = bf16[1,41,8,512]{3,2,1,0} parameter(1)
  %Arg_2.7 = bf16[1,41,8,512]{3,2,1,0} parameter(2)
  ROOT %select_n.15 = bf16[1,41,8,512]{3,2,1,0} select(%broadcast_in_dim.216, %Arg_1.11, %Arg_2.7)
}

%region_58.67 (reduce_sum.325: f32[], reduce_sum.326: f32[]) -> f32[] {
  %reduce_sum.325 = f32[] parameter(0)
  %reduce_sum.326 = f32[] parameter(1)
  ROOT %reduce_sum.327 = f32[] add(%reduce_sum.325, %reduce_sum.326)
}

%region_59.68 (reduce_sum.332: f32[], reduce_sum.333: f32[]) -> f32[] {
  %reduce_sum.332 = f32[] parameter(0)
  %reduce_sum.333 = f32[] parameter(1)
  ROOT %reduce_sum.334 = f32[] add(%reduce_sum.332, %reduce_sum.333)
}

%region_60.69 (reduce_sum.339: f32[], reduce_sum.340: f32[]) -> f32[] {
  %reduce_sum.339 = f32[] parameter(0)
  %reduce_sum.340 = f32[] parameter(1)
  ROOT %reduce_sum.341 = f32[] add(%reduce_sum.339, %reduce_sum.340)
}

%region_50.58 (reduce_sum.283: f32[], reduce_sum.284: f32[]) -> f32[] {
  %reduce_sum.283 = f32[] parameter(0)
  %reduce_sum.284 = f32[] parameter(1)
  ROOT %reduce_sum.285 = f32[] add(%reduce_sum.283, %reduce_sum.284)
}

%region_61.70 (reduce_sum.346: f32[], reduce_sum.347: f32[]) -> f32[] {
  %reduce_sum.346 = f32[] parameter(0)
  %reduce_sum.347 = f32[] parameter(1)
  ROOT %reduce_sum.348 = f32[] add(%reduce_sum.346, %reduce_sum.347)
}

%region_63.72 (reduce_sum.360: f32[], reduce_sum.361: f32[]) -> f32[] {
  %reduce_sum.360 = f32[] parameter(0)
  %reduce_sum.361 = f32[] parameter(1)
  ROOT %reduce_sum.362 = f32[] add(%reduce_sum.360, %reduce_sum.361)
}

%region_65.74 (reduce_sum.374: f32[], reduce_sum.375: f32[]) -> f32[] {
  %reduce_sum.374 = f32[] parameter(0)
  %reduce_sum.375 = f32[] parameter(1)
  ROOT %reduce_sum.376 = f32[] add(%reduce_sum.374, %reduce_sum.375)
}

%region_66.75 (reduce_sum.381: f32[], reduce_sum.382: f32[]) -> f32[] {
  %reduce_sum.381 = f32[] parameter(0)
  %reduce_sum.382 = f32[] parameter(1)
  ROOT %reduce_sum.383 = f32[] add(%reduce_sum.381, %reduce_sum.382)
}

%region_69.78 (reduce_and.54: pred[], reduce_and.55: pred[]) -> pred[] {
  %reduce_and.54 = pred[] parameter(0)
  %reduce_and.55 = pred[] parameter(1)
  ROOT %reduce_and.56 = pred[] and(%reduce_and.54, %reduce_and.55)
}

%region_64.73 (reduce_sum.367: f32[], reduce_sum.368: f32[]) -> f32[] {
  %reduce_sum.367 = f32[] parameter(0)
  %reduce_sum.368 = f32[] parameter(1)
  ROOT %reduce_sum.369 = f32[] add(%reduce_sum.367, %reduce_sum.368)
}

%region_67.76 (reduce_max.38: f32[], reduce_max.39: f32[]) -> f32[] {
  %reduce_max.38 = f32[] parameter(0)
  %reduce_max.39 = f32[] parameter(1)
  ROOT %reduce_max.40 = f32[] maximum(%reduce_max.38, %reduce_max.39)
}

%region_68.77 (reduce_sum.388: f32[], reduce_sum.389: f32[]) -> f32[] {
  %reduce_sum.388 = f32[] parameter(0)
  %reduce_sum.389 = f32[] parameter(1)
  ROOT %reduce_sum.390 = f32[] add(%reduce_sum.388, %reduce_sum.389)
}

%region_70.79 (reduce_sum.395: f32[], reduce_sum.396: f32[]) -> f32[] {
  %reduce_sum.395 = f32[] parameter(0)
  %reduce_sum.396 = f32[] parameter(1)
  ROOT %reduce_sum.397 = f32[] add(%reduce_sum.395, %reduce_sum.396)
}

%region_71.80 (reduce_sum.402: f32[], reduce_sum.403: f32[]) -> f32[] {
  %reduce_sum.402 = f32[] parameter(0)
  %reduce_sum.403 = f32[] parameter(1)
  ROOT %reduce_sum.404 = f32[] add(%reduce_sum.402, %reduce_sum.403)
}

%region_72.81 (reduce_sum.409: f32[], reduce_sum.410: f32[]) -> f32[] {
  %reduce_sum.409 = f32[] parameter(0)
  %reduce_sum.410 = f32[] parameter(1)
  ROOT %reduce_sum.411 = f32[] add(%reduce_sum.409, %reduce_sum.410)
}

%region_62.71 (reduce_sum.353: f32[], reduce_sum.354: f32[]) -> f32[] {
  %reduce_sum.353 = f32[] parameter(0)
  %reduce_sum.354 = f32[] parameter(1)
  ROOT %reduce_sum.355 = f32[] add(%reduce_sum.353, %reduce_sum.354)
}

%region_73.82 (reduce_sum.416: f32[], reduce_sum.417: f32[]) -> f32[] {
  %reduce_sum.416 = f32[] parameter(0)
  %reduce_sum.417 = f32[] parameter(1)
  ROOT %reduce_sum.418 = f32[] add(%reduce_sum.416, %reduce_sum.417)
}

%region_75.84 (reduce_sum.430: f32[], reduce_sum.431: f32[]) -> f32[] {
  %reduce_sum.430 = f32[] parameter(0)
  %reduce_sum.431 = f32[] parameter(1)
  ROOT %reduce_sum.432 = f32[] add(%reduce_sum.430, %reduce_sum.431)
}

%region_77.86 (reduce_sum.444: f32[], reduce_sum.445: f32[]) -> f32[] {
  %reduce_sum.444 = f32[] parameter(0)
  %reduce_sum.445 = f32[] parameter(1)
  ROOT %reduce_sum.446 = f32[] add(%reduce_sum.444, %reduce_sum.445)
}

%region_78.87 (reduce_sum.451: f32[], reduce_sum.452: f32[]) -> f32[] {
  %reduce_sum.451 = f32[] parameter(0)
  %reduce_sum.452 = f32[] parameter(1)
  ROOT %reduce_sum.453 = f32[] add(%reduce_sum.451, %reduce_sum.452)
}

%region_81.90 (reduce_and.61: pred[], reduce_and.62: pred[]) -> pred[] {
  %reduce_and.61 = pred[] parameter(0)
  %reduce_and.62 = pred[] parameter(1)
  ROOT %reduce_and.63 = pred[] and(%reduce_and.61, %reduce_and.62)
}

%region_76.85 (reduce_sum.437: f32[], reduce_sum.438: f32[]) -> f32[] {
  %reduce_sum.437 = f32[] parameter(0)
  %reduce_sum.438 = f32[] parameter(1)
  ROOT %reduce_sum.439 = f32[] add(%reduce_sum.437, %reduce_sum.438)
}

%region_79.88 (reduce_max.45: f32[], reduce_max.46: f32[]) -> f32[] {
  %reduce_max.45 = f32[] parameter(0)
  %reduce_max.46 = f32[] parameter(1)
  ROOT %reduce_max.47 = f32[] maximum(%reduce_max.45, %reduce_max.46)
}

%region_80.89 (reduce_sum.458: f32[], reduce_sum.459: f32[]) -> f32[] {
  %reduce_sum.458 = f32[] parameter(0)
  %reduce_sum.459 = f32[] parameter(1)
  ROOT %reduce_sum.460 = f32[] add(%reduce_sum.458, %reduce_sum.459)
}

%region_82.91 (reduce_sum.465: f32[], reduce_sum.466: f32[]) -> f32[] {
  %reduce_sum.465 = f32[] parameter(0)
  %reduce_sum.466 = f32[] parameter(1)
  ROOT %reduce_sum.467 = f32[] add(%reduce_sum.465, %reduce_sum.466)
}

%region_83.92 (reduce_sum.472: f32[], reduce_sum.473: f32[]) -> f32[] {
  %reduce_sum.472 = f32[] parameter(0)
  %reduce_sum.473 = f32[] parameter(1)
  ROOT %reduce_sum.474 = f32[] add(%reduce_sum.472, %reduce_sum.473)
}

%region_84.93 (reduce_sum.479: f32[], reduce_sum.480: f32[]) -> f32[] {
  %reduce_sum.479 = f32[] parameter(0)
  %reduce_sum.480 = f32[] parameter(1)
  ROOT %reduce_sum.481 = f32[] add(%reduce_sum.479, %reduce_sum.480)
}

%region_74.83 (reduce_sum.423: f32[], reduce_sum.424: f32[]) -> f32[] {
  %reduce_sum.423 = f32[] parameter(0)
  %reduce_sum.424 = f32[] parameter(1)
  ROOT %reduce_sum.425 = f32[] add(%reduce_sum.423, %reduce_sum.424)
}

%region_85.94 (reduce_sum.486: f32[], reduce_sum.487: f32[]) -> f32[] {
  %reduce_sum.486 = f32[] parameter(0)
  %reduce_sum.487 = f32[] parameter(1)
  ROOT %reduce_sum.488 = f32[] add(%reduce_sum.486, %reduce_sum.487)
}

%region_87.96 (reduce_sum.500: f32[], reduce_sum.501: f32[]) -> f32[] {
  %reduce_sum.500 = f32[] parameter(0)
  %reduce_sum.501 = f32[] parameter(1)
  ROOT %reduce_sum.502 = f32[] add(%reduce_sum.500, %reduce_sum.501)
}

%region_89.98 (reduce_sum.514: f32[], reduce_sum.515: f32[]) -> f32[] {
  %reduce_sum.514 = f32[] parameter(0)
  %reduce_sum.515 = f32[] parameter(1)
  ROOT %reduce_sum.516 = f32[] add(%reduce_sum.514, %reduce_sum.515)
}

%region_90.99 (reduce_sum.521: f32[], reduce_sum.522: f32[]) -> f32[] {
  %reduce_sum.521 = f32[] parameter(0)
  %reduce_sum.522 = f32[] parameter(1)
  ROOT %reduce_sum.523 = f32[] add(%reduce_sum.521, %reduce_sum.522)
}

%region_93.102 (reduce_and.68: pred[], reduce_and.69: pred[]) -> pred[] {
  %reduce_and.68 = pred[] parameter(0)
  %reduce_and.69 = pred[] parameter(1)
  ROOT %reduce_and.70 = pred[] and(%reduce_and.68, %reduce_and.69)
}

%region_88.97 (reduce_sum.507: f32[], reduce_sum.508: f32[]) -> f32[] {
  %reduce_sum.507 = f32[] parameter(0)
  %reduce_sum.508 = f32[] parameter(1)
  ROOT %reduce_sum.509 = f32[] add(%reduce_sum.507, %reduce_sum.508)
}

%region_91.100 (reduce_max.52: f32[], reduce_max.53: f32[]) -> f32[] {
  %reduce_max.52 = f32[] parameter(0)
  %reduce_max.53 = f32[] parameter(1)
  ROOT %reduce_max.54 = f32[] maximum(%reduce_max.52, %reduce_max.53)
}

%region_92.101 (reduce_sum.528: f32[], reduce_sum.529: f32[]) -> f32[] {
  %reduce_sum.528 = f32[] parameter(0)
  %reduce_sum.529 = f32[] parameter(1)
  ROOT %reduce_sum.530 = f32[] add(%reduce_sum.528, %reduce_sum.529)
}

%region_94.103 (reduce_sum.535: f32[], reduce_sum.536: f32[]) -> f32[] {
  %reduce_sum.535 = f32[] parameter(0)
  %reduce_sum.536 = f32[] parameter(1)
  ROOT %reduce_sum.537 = f32[] add(%reduce_sum.535, %reduce_sum.536)
}

%region_95.104 (reduce_sum.542: f32[], reduce_sum.543: f32[]) -> f32[] {
  %reduce_sum.542 = f32[] parameter(0)
  %reduce_sum.543 = f32[] parameter(1)
  ROOT %reduce_sum.544 = f32[] add(%reduce_sum.542, %reduce_sum.543)
}

%region_96.105 (reduce_sum.549: f32[], reduce_sum.550: f32[]) -> f32[] {
  %reduce_sum.549 = f32[] parameter(0)
  %reduce_sum.550 = f32[] parameter(1)
  ROOT %reduce_sum.551 = f32[] add(%reduce_sum.549, %reduce_sum.550)
}

%region_86.95 (reduce_sum.493: f32[], reduce_sum.494: f32[]) -> f32[] {
  %reduce_sum.493 = f32[] parameter(0)
  %reduce_sum.494 = f32[] parameter(1)
  ROOT %reduce_sum.495 = f32[] add(%reduce_sum.493, %reduce_sum.494)
}

%region_97.106 (reduce_sum.556: f32[], reduce_sum.557: f32[]) -> f32[] {
  %reduce_sum.556 = f32[] parameter(0)
  %reduce_sum.557 = f32[] parameter(1)
  ROOT %reduce_sum.558 = f32[] add(%reduce_sum.556, %reduce_sum.557)
}

%region_99.108 (reduce_sum.570: f32[], reduce_sum.571: f32[]) -> f32[] {
  %reduce_sum.570 = f32[] parameter(0)
  %reduce_sum.571 = f32[] parameter(1)
  ROOT %reduce_sum.572 = f32[] add(%reduce_sum.570, %reduce_sum.571)
}

%region_101.110 (reduce_sum.584: f32[], reduce_sum.585: f32[]) -> f32[] {
  %reduce_sum.584 = f32[] parameter(0)
  %reduce_sum.585 = f32[] parameter(1)
  ROOT %reduce_sum.586 = f32[] add(%reduce_sum.584, %reduce_sum.585)
}

%region_102.111 (reduce_sum.591: f32[], reduce_sum.592: f32[]) -> f32[] {
  %reduce_sum.591 = f32[] parameter(0)
  %reduce_sum.592 = f32[] parameter(1)
  ROOT %reduce_sum.593 = f32[] add(%reduce_sum.591, %reduce_sum.592)
}

%region_105.114 (reduce_and.75: pred[], reduce_and.76: pred[]) -> pred[] {
  %reduce_and.75 = pred[] parameter(0)
  %reduce_and.76 = pred[] parameter(1)
  ROOT %reduce_and.77 = pred[] and(%reduce_and.75, %reduce_and.76)
}

%region_100.109 (reduce_sum.577: f32[], reduce_sum.578: f32[]) -> f32[] {
  %reduce_sum.577 = f32[] parameter(0)
  %reduce_sum.578 = f32[] parameter(1)
  ROOT %reduce_sum.579 = f32[] add(%reduce_sum.577, %reduce_sum.578)
}

%region_103.112 (reduce_max.59: f32[], reduce_max.60: f32[]) -> f32[] {
  %reduce_max.59 = f32[] parameter(0)
  %reduce_max.60 = f32[] parameter(1)
  ROOT %reduce_max.61 = f32[] maximum(%reduce_max.59, %reduce_max.60)
}

%region_104.113 (reduce_sum.598: f32[], reduce_sum.599: f32[]) -> f32[] {
  %reduce_sum.598 = f32[] parameter(0)
  %reduce_sum.599 = f32[] parameter(1)
  ROOT %reduce_sum.600 = f32[] add(%reduce_sum.598, %reduce_sum.599)
}

%region_106.115 (reduce_sum.605: f32[], reduce_sum.606: f32[]) -> f32[] {
  %reduce_sum.605 = f32[] parameter(0)
  %reduce_sum.606 = f32[] parameter(1)
  ROOT %reduce_sum.607 = f32[] add(%reduce_sum.605, %reduce_sum.606)
}

%region_107.116 (reduce_sum.612: f32[], reduce_sum.613: f32[]) -> f32[] {
  %reduce_sum.612 = f32[] parameter(0)
  %reduce_sum.613 = f32[] parameter(1)
  ROOT %reduce_sum.614 = f32[] add(%reduce_sum.612, %reduce_sum.613)
}

%region_108.117 (reduce_sum.619: f32[], reduce_sum.620: f32[]) -> f32[] {
  %reduce_sum.619 = f32[] parameter(0)
  %reduce_sum.620 = f32[] parameter(1)
  ROOT %reduce_sum.621 = f32[] add(%reduce_sum.619, %reduce_sum.620)
}

%region_98.107 (reduce_sum.563: f32[], reduce_sum.564: f32[]) -> f32[] {
  %reduce_sum.563 = f32[] parameter(0)
  %reduce_sum.564 = f32[] parameter(1)
  ROOT %reduce_sum.565 = f32[] add(%reduce_sum.563, %reduce_sum.564)
}

%region_109.118 (reduce_sum.626: f32[], reduce_sum.627: f32[]) -> f32[] {
  %reduce_sum.626 = f32[] parameter(0)
  %reduce_sum.627 = f32[] parameter(1)
  ROOT %reduce_sum.628 = f32[] add(%reduce_sum.626, %reduce_sum.627)
}

%region_111.120 (reduce_sum.640: f32[], reduce_sum.641: f32[]) -> f32[] {
  %reduce_sum.640 = f32[] parameter(0)
  %reduce_sum.641 = f32[] parameter(1)
  ROOT %reduce_sum.642 = f32[] add(%reduce_sum.640, %reduce_sum.641)
}

%region_113.122 (reduce_sum.654: f32[], reduce_sum.655: f32[]) -> f32[] {
  %reduce_sum.654 = f32[] parameter(0)
  %reduce_sum.655 = f32[] parameter(1)
  ROOT %reduce_sum.656 = f32[] add(%reduce_sum.654, %reduce_sum.655)
}

%region_114.123 (reduce_sum.661: f32[], reduce_sum.662: f32[]) -> f32[] {
  %reduce_sum.661 = f32[] parameter(0)
  %reduce_sum.662 = f32[] parameter(1)
  ROOT %reduce_sum.663 = f32[] add(%reduce_sum.661, %reduce_sum.662)
}

%region_117.126 (reduce_and.82: pred[], reduce_and.83: pred[]) -> pred[] {
  %reduce_and.82 = pred[] parameter(0)
  %reduce_and.83 = pred[] parameter(1)
  ROOT %reduce_and.84 = pred[] and(%reduce_and.82, %reduce_and.83)
}

%region_112.121 (reduce_sum.647: f32[], reduce_sum.648: f32[]) -> f32[] {
  %reduce_sum.647 = f32[] parameter(0)
  %reduce_sum.648 = f32[] parameter(1)
  ROOT %reduce_sum.649 = f32[] add(%reduce_sum.647, %reduce_sum.648)
}

%region_115.124 (reduce_max.66: f32[], reduce_max.67: f32[]) -> f32[] {
  %reduce_max.66 = f32[] parameter(0)
  %reduce_max.67 = f32[] parameter(1)
  ROOT %reduce_max.68 = f32[] maximum(%reduce_max.66, %reduce_max.67)
}

%region_116.125 (reduce_sum.668: f32[], reduce_sum.669: f32[]) -> f32[] {
  %reduce_sum.668 = f32[] parameter(0)
  %reduce_sum.669 = f32[] parameter(1)
  ROOT %reduce_sum.670 = f32[] add(%reduce_sum.668, %reduce_sum.669)
}

%region_118.127 (reduce_sum.675: f32[], reduce_sum.676: f32[]) -> f32[] {
  %reduce_sum.675 = f32[] parameter(0)
  %reduce_sum.676 = f32[] parameter(1)
  ROOT %reduce_sum.677 = f32[] add(%reduce_sum.675, %reduce_sum.676)
}

%region_119.128 (reduce_sum.682: f32[], reduce_sum.683: f32[]) -> f32[] {
  %reduce_sum.682 = f32[] parameter(0)
  %reduce_sum.683 = f32[] parameter(1)
  ROOT %reduce_sum.684 = f32[] add(%reduce_sum.682, %reduce_sum.683)
}

%region_120.129 (reduce_sum.689: f32[], reduce_sum.690: f32[]) -> f32[] {
  %reduce_sum.689 = f32[] parameter(0)
  %reduce_sum.690 = f32[] parameter(1)
  ROOT %reduce_sum.691 = f32[] add(%reduce_sum.689, %reduce_sum.690)
}

%region_110.119 (reduce_sum.633: f32[], reduce_sum.634: f32[]) -> f32[] {
  %reduce_sum.633 = f32[] parameter(0)
  %reduce_sum.634 = f32[] parameter(1)
  ROOT %reduce_sum.635 = f32[] add(%reduce_sum.633, %reduce_sum.634)
}

%region_121.130 (reduce_sum.696: f32[], reduce_sum.697: f32[]) -> f32[] {
  %reduce_sum.696 = f32[] parameter(0)
  %reduce_sum.697 = f32[] parameter(1)
  ROOT %reduce_sum.698 = f32[] add(%reduce_sum.696, %reduce_sum.697)
}

%region_123.132 (reduce_sum.710: f32[], reduce_sum.711: f32[]) -> f32[] {
  %reduce_sum.710 = f32[] parameter(0)
  %reduce_sum.711 = f32[] parameter(1)
  ROOT %reduce_sum.712 = f32[] add(%reduce_sum.710, %reduce_sum.711)
}

%region_125.134 (reduce_sum.724: f32[], reduce_sum.725: f32[]) -> f32[] {
  %reduce_sum.724 = f32[] parameter(0)
  %reduce_sum.725 = f32[] parameter(1)
  ROOT %reduce_sum.726 = f32[] add(%reduce_sum.724, %reduce_sum.725)
}

%region_126.135 (reduce_sum.731: f32[], reduce_sum.732: f32[]) -> f32[] {
  %reduce_sum.731 = f32[] parameter(0)
  %reduce_sum.732 = f32[] parameter(1)
  ROOT %reduce_sum.733 = f32[] add(%reduce_sum.731, %reduce_sum.732)
}

%region_129.138 (reduce_and.89: pred[], reduce_and.90: pred[]) -> pred[] {
  %reduce_and.89 = pred[] parameter(0)
  %reduce_and.90 = pred[] parameter(1)
  ROOT %reduce_and.91 = pred[] and(%reduce_and.89, %reduce_and.90)
}

%region_124.133 (reduce_sum.717: f32[], reduce_sum.718: f32[]) -> f32[] {
  %reduce_sum.717 = f32[] parameter(0)
  %reduce_sum.718 = f32[] parameter(1)
  ROOT %reduce_sum.719 = f32[] add(%reduce_sum.717, %reduce_sum.718)
}

%region_127.136 (reduce_max.73: f32[], reduce_max.74: f32[]) -> f32[] {
  %reduce_max.73 = f32[] parameter(0)
  %reduce_max.74 = f32[] parameter(1)
  ROOT %reduce_max.75 = f32[] maximum(%reduce_max.73, %reduce_max.74)
}

%region_128.137 (reduce_sum.738: f32[], reduce_sum.739: f32[]) -> f32[] {
  %reduce_sum.738 = f32[] parameter(0)
  %reduce_sum.739 = f32[] parameter(1)
  ROOT %reduce_sum.740 = f32[] add(%reduce_sum.738, %reduce_sum.739)
}

%region_130.139 (reduce_sum.745: f32[], reduce_sum.746: f32[]) -> f32[] {
  %reduce_sum.745 = f32[] parameter(0)
  %reduce_sum.746 = f32[] parameter(1)
  ROOT %reduce_sum.747 = f32[] add(%reduce_sum.745, %reduce_sum.746)
}

%region_131.140 (reduce_sum.752: f32[], reduce_sum.753: f32[]) -> f32[] {
  %reduce_sum.752 = f32[] parameter(0)
  %reduce_sum.753 = f32[] parameter(1)
  ROOT %reduce_sum.754 = f32[] add(%reduce_sum.752, %reduce_sum.753)
}

%region_132.141 (reduce_sum.759: f32[], reduce_sum.760: f32[]) -> f32[] {
  %reduce_sum.759 = f32[] parameter(0)
  %reduce_sum.760 = f32[] parameter(1)
  ROOT %reduce_sum.761 = f32[] add(%reduce_sum.759, %reduce_sum.760)
}

%region_122.131 (reduce_sum.703: f32[], reduce_sum.704: f32[]) -> f32[] {
  %reduce_sum.703 = f32[] parameter(0)
  %reduce_sum.704 = f32[] parameter(1)
  ROOT %reduce_sum.705 = f32[] add(%reduce_sum.703, %reduce_sum.704)
}

%region_133.142 (reduce_sum.766: f32[], reduce_sum.767: f32[]) -> f32[] {
  %reduce_sum.766 = f32[] parameter(0)
  %reduce_sum.767 = f32[] parameter(1)
  ROOT %reduce_sum.768 = f32[] add(%reduce_sum.766, %reduce_sum.767)
}

%region_135.144 (reduce_sum.780: f32[], reduce_sum.781: f32[]) -> f32[] {
  %reduce_sum.780 = f32[] parameter(0)
  %reduce_sum.781 = f32[] parameter(1)
  ROOT %reduce_sum.782 = f32[] add(%reduce_sum.780, %reduce_sum.781)
}

%region_137.146 (reduce_sum.794: f32[], reduce_sum.795: f32[]) -> f32[] {
  %reduce_sum.794 = f32[] parameter(0)
  %reduce_sum.795 = f32[] parameter(1)
  ROOT %reduce_sum.796 = f32[] add(%reduce_sum.794, %reduce_sum.795)
}

%region_138.147 (reduce_sum.801: f32[], reduce_sum.802: f32[]) -> f32[] {
  %reduce_sum.801 = f32[] parameter(0)
  %reduce_sum.802 = f32[] parameter(1)
  ROOT %reduce_sum.803 = f32[] add(%reduce_sum.801, %reduce_sum.802)
}

%region_141.150 (reduce_and.96: pred[], reduce_and.97: pred[]) -> pred[] {
  %reduce_and.96 = pred[] parameter(0)
  %reduce_and.97 = pred[] parameter(1)
  ROOT %reduce_and.98 = pred[] and(%reduce_and.96, %reduce_and.97)
}

%region_136.145 (reduce_sum.787: f32[], reduce_sum.788: f32[]) -> f32[] {
  %reduce_sum.787 = f32[] parameter(0)
  %reduce_sum.788 = f32[] parameter(1)
  ROOT %reduce_sum.789 = f32[] add(%reduce_sum.787, %reduce_sum.788)
}

%region_139.148 (reduce_max.80: f32[], reduce_max.81: f32[]) -> f32[] {
  %reduce_max.80 = f32[] parameter(0)
  %reduce_max.81 = f32[] parameter(1)
  ROOT %reduce_max.82 = f32[] maximum(%reduce_max.80, %reduce_max.81)
}

%region_140.149 (reduce_sum.808: f32[], reduce_sum.809: f32[]) -> f32[] {
  %reduce_sum.808 = f32[] parameter(0)
  %reduce_sum.809 = f32[] parameter(1)
  ROOT %reduce_sum.810 = f32[] add(%reduce_sum.808, %reduce_sum.809)
}

%region_142.151 (reduce_sum.815: f32[], reduce_sum.816: f32[]) -> f32[] {
  %reduce_sum.815 = f32[] parameter(0)
  %reduce_sum.816 = f32[] parameter(1)
  ROOT %reduce_sum.817 = f32[] add(%reduce_sum.815, %reduce_sum.816)
}

%region_143.152 (reduce_sum.822: f32[], reduce_sum.823: f32[]) -> f32[] {
  %reduce_sum.822 = f32[] parameter(0)
  %reduce_sum.823 = f32[] parameter(1)
  ROOT %reduce_sum.824 = f32[] add(%reduce_sum.822, %reduce_sum.823)
}

%region_144.153 (reduce_sum.829: f32[], reduce_sum.830: f32[]) -> f32[] {
  %reduce_sum.829 = f32[] parameter(0)
  %reduce_sum.830 = f32[] parameter(1)
  ROOT %reduce_sum.831 = f32[] add(%reduce_sum.829, %reduce_sum.830)
}

%region_134.143 (reduce_sum.773: f32[], reduce_sum.774: f32[]) -> f32[] {
  %reduce_sum.773 = f32[] parameter(0)
  %reduce_sum.774 = f32[] parameter(1)
  ROOT %reduce_sum.775 = f32[] add(%reduce_sum.773, %reduce_sum.774)
}

%region_145.154 (reduce_sum.836: f32[], reduce_sum.837: f32[]) -> f32[] {
  %reduce_sum.836 = f32[] parameter(0)
  %reduce_sum.837 = f32[] parameter(1)
  ROOT %reduce_sum.838 = f32[] add(%reduce_sum.836, %reduce_sum.837)
}

%region_147.156 (reduce_sum.850: f32[], reduce_sum.851: f32[]) -> f32[] {
  %reduce_sum.850 = f32[] parameter(0)
  %reduce_sum.851 = f32[] parameter(1)
  ROOT %reduce_sum.852 = f32[] add(%reduce_sum.850, %reduce_sum.851)
}

%region_149.158 (reduce_sum.864: f32[], reduce_sum.865: f32[]) -> f32[] {
  %reduce_sum.864 = f32[] parameter(0)
  %reduce_sum.865 = f32[] parameter(1)
  ROOT %reduce_sum.866 = f32[] add(%reduce_sum.864, %reduce_sum.865)
}

%region_150.159 (reduce_sum.871: f32[], reduce_sum.872: f32[]) -> f32[] {
  %reduce_sum.871 = f32[] parameter(0)
  %reduce_sum.872 = f32[] parameter(1)
  ROOT %reduce_sum.873 = f32[] add(%reduce_sum.871, %reduce_sum.872)
}

%region_153.162 (reduce_and.103: pred[], reduce_and.104: pred[]) -> pred[] {
  %reduce_and.103 = pred[] parameter(0)
  %reduce_and.104 = pred[] parameter(1)
  ROOT %reduce_and.105 = pred[] and(%reduce_and.103, %reduce_and.104)
}

%region_148.157 (reduce_sum.857: f32[], reduce_sum.858: f32[]) -> f32[] {
  %reduce_sum.857 = f32[] parameter(0)
  %reduce_sum.858 = f32[] parameter(1)
  ROOT %reduce_sum.859 = f32[] add(%reduce_sum.857, %reduce_sum.858)
}

%region_151.160 (reduce_max.87: f32[], reduce_max.88: f32[]) -> f32[] {
  %reduce_max.87 = f32[] parameter(0)
  %reduce_max.88 = f32[] parameter(1)
  ROOT %reduce_max.89 = f32[] maximum(%reduce_max.87, %reduce_max.88)
}

%region_152.161 (reduce_sum.878: f32[], reduce_sum.879: f32[]) -> f32[] {
  %reduce_sum.878 = f32[] parameter(0)
  %reduce_sum.879 = f32[] parameter(1)
  ROOT %reduce_sum.880 = f32[] add(%reduce_sum.878, %reduce_sum.879)
}

%region_154.163 (reduce_sum.885: f32[], reduce_sum.886: f32[]) -> f32[] {
  %reduce_sum.885 = f32[] parameter(0)
  %reduce_sum.886 = f32[] parameter(1)
  ROOT %reduce_sum.887 = f32[] add(%reduce_sum.885, %reduce_sum.886)
}

%region_155.164 (reduce_sum.892: f32[], reduce_sum.893: f32[]) -> f32[] {
  %reduce_sum.892 = f32[] parameter(0)
  %reduce_sum.893 = f32[] parameter(1)
  ROOT %reduce_sum.894 = f32[] add(%reduce_sum.892, %reduce_sum.893)
}

%region_156.165 (reduce_sum.899: f32[], reduce_sum.900: f32[]) -> f32[] {
  %reduce_sum.899 = f32[] parameter(0)
  %reduce_sum.900 = f32[] parameter(1)
  ROOT %reduce_sum.901 = f32[] add(%reduce_sum.899, %reduce_sum.900)
}

%region_146.155 (reduce_sum.843: f32[], reduce_sum.844: f32[]) -> f32[] {
  %reduce_sum.843 = f32[] parameter(0)
  %reduce_sum.844 = f32[] parameter(1)
  ROOT %reduce_sum.845 = f32[] add(%reduce_sum.843, %reduce_sum.844)
}

%region_157.166 (reduce_sum.906: f32[], reduce_sum.907: f32[]) -> f32[] {
  %reduce_sum.906 = f32[] parameter(0)
  %reduce_sum.907 = f32[] parameter(1)
  ROOT %reduce_sum.908 = f32[] add(%reduce_sum.906, %reduce_sum.907)
}

%region_159.168 (reduce_sum.920: f32[], reduce_sum.921: f32[]) -> f32[] {
  %reduce_sum.920 = f32[] parameter(0)
  %reduce_sum.921 = f32[] parameter(1)
  ROOT %reduce_sum.922 = f32[] add(%reduce_sum.920, %reduce_sum.921)
}

%region_161.170 (reduce_sum.934: f32[], reduce_sum.935: f32[]) -> f32[] {
  %reduce_sum.934 = f32[] parameter(0)
  %reduce_sum.935 = f32[] parameter(1)
  ROOT %reduce_sum.936 = f32[] add(%reduce_sum.934, %reduce_sum.935)
}

%region_162.171 (reduce_sum.941: f32[], reduce_sum.942: f32[]) -> f32[] {
  %reduce_sum.941 = f32[] parameter(0)
  %reduce_sum.942 = f32[] parameter(1)
  ROOT %reduce_sum.943 = f32[] add(%reduce_sum.941, %reduce_sum.942)
}

%region_165.174 (reduce_and.110: pred[], reduce_and.111: pred[]) -> pred[] {
  %reduce_and.110 = pred[] parameter(0)
  %reduce_and.111 = pred[] parameter(1)
  ROOT %reduce_and.112 = pred[] and(%reduce_and.110, %reduce_and.111)
}

%region_160.169 (reduce_sum.927: f32[], reduce_sum.928: f32[]) -> f32[] {
  %reduce_sum.927 = f32[] parameter(0)
  %reduce_sum.928 = f32[] parameter(1)
  ROOT %reduce_sum.929 = f32[] add(%reduce_sum.927, %reduce_sum.928)
}

%region_163.172 (reduce_max.94: f32[], reduce_max.95: f32[]) -> f32[] {
  %reduce_max.94 = f32[] parameter(0)
  %reduce_max.95 = f32[] parameter(1)
  ROOT %reduce_max.96 = f32[] maximum(%reduce_max.94, %reduce_max.95)
}

%region_164.173 (reduce_sum.948: f32[], reduce_sum.949: f32[]) -> f32[] {
  %reduce_sum.948 = f32[] parameter(0)
  %reduce_sum.949 = f32[] parameter(1)
  ROOT %reduce_sum.950 = f32[] add(%reduce_sum.948, %reduce_sum.949)
}

%region_166.175 (reduce_sum.955: f32[], reduce_sum.956: f32[]) -> f32[] {
  %reduce_sum.955 = f32[] parameter(0)
  %reduce_sum.956 = f32[] parameter(1)
  ROOT %reduce_sum.957 = f32[] add(%reduce_sum.955, %reduce_sum.956)
}

%region_167.176 (reduce_sum.962: f32[], reduce_sum.963: f32[]) -> f32[] {
  %reduce_sum.962 = f32[] parameter(0)
  %reduce_sum.963 = f32[] parameter(1)
  ROOT %reduce_sum.964 = f32[] add(%reduce_sum.962, %reduce_sum.963)
}

%region_168.177 (reduce_sum.969: f32[], reduce_sum.970: f32[]) -> f32[] {
  %reduce_sum.969 = f32[] parameter(0)
  %reduce_sum.970 = f32[] parameter(1)
  ROOT %reduce_sum.971 = f32[] add(%reduce_sum.969, %reduce_sum.970)
}

%region_158.167 (reduce_sum.913: f32[], reduce_sum.914: f32[]) -> f32[] {
  %reduce_sum.913 = f32[] parameter(0)
  %reduce_sum.914 = f32[] parameter(1)
  ROOT %reduce_sum.915 = f32[] add(%reduce_sum.913, %reduce_sum.914)
}

%region_169.178 (reduce_sum.976: f32[], reduce_sum.977: f32[]) -> f32[] {
  %reduce_sum.976 = f32[] parameter(0)
  %reduce_sum.977 = f32[] parameter(1)
  ROOT %reduce_sum.978 = f32[] add(%reduce_sum.976, %reduce_sum.977)
}

%region_170.179 (reduce_sum.983: f32[], reduce_sum.984: f32[]) -> f32[] {
  %reduce_sum.983 = f32[] parameter(0)
  %reduce_sum.984 = f32[] parameter(1)
  ROOT %reduce_sum.985 = f32[] add(%reduce_sum.983, %reduce_sum.984)
}

%region_171.180 (reduce_sum.990: f32[], reduce_sum.991: f32[]) -> f32[] {
  %reduce_sum.990 = f32[] parameter(0)
  %reduce_sum.991 = f32[] parameter(1)
  ROOT %reduce_sum.992 = f32[] add(%reduce_sum.990, %reduce_sum.991)
}

%region_172.181 (reduce_sum.997: f32[], reduce_sum.998: f32[]) -> f32[] {
  %reduce_sum.997 = f32[] parameter(0)
  %reduce_sum.998 = f32[] parameter(1)
  ROOT %reduce_sum.999 = f32[] add(%reduce_sum.997, %reduce_sum.998)
}

%region_173.182 (reduce_sum.1004: s32[], reduce_sum.1005: s32[]) -> s32[] {
  %reduce_sum.1004 = s32[] parameter(0)
  %reduce_sum.1005 = s32[] parameter(1)
  ROOT %reduce_sum.1006 = s32[] add(%reduce_sum.1004, %reduce_sum.1005)
}

%region_174.183 (reduce_min.3: s32[], reduce_min.4: s32[]) -> s32[] {
  %reduce_min.3 = s32[] parameter(0)
  %reduce_min.4 = s32[] parameter(1)
  ROOT %reduce_min.5 = s32[] minimum(%reduce_min.3, %reduce_min.4)
}

%_where_292.184 (Arg_0.18: pred[1,1], Arg_1.14: s32[1,1], Arg_2.9: s32[1,1]) -> s32[1,1] {
  %Arg_0.18 = pred[1,1]{1,0} parameter(0)
  %Arg_1.14 = s32[1,1]{1,0} parameter(1)
  %Arg_2.9 = s32[1,1]{1,0} parameter(2)
  ROOT %select_n.19 = s32[1,1]{1,0} select(%Arg_0.18, %Arg_1.14, %Arg_2.9)
}

%region_176.185 (reduce_and.117: pred[], reduce_and.118: pred[]) -> pred[] {
  %reduce_and.117 = pred[] parameter(0)
  %reduce_and.118 = pred[] parameter(1)
  ROOT %reduce_and.119 = pred[] and(%reduce_and.117, %reduce_and.118)
}

%_take_289.186 (Arg_0.19: bf16[262144,1536], Arg_1.15: s32[1,1]) -> bf16[1,1,1536] {
  %Arg_1.15 = s32[1,1]{1,0} parameter(1)
  %constant.147 = s32[1,1]{1,0} constant({ {0} })
  %lt.11 = pred[1,1]{1,0} compare(%Arg_1.15, %constant.147), direction=LT
  %constant.145 = s32[1,1]{1,0} constant({ {262144} })
  %add.289 = s32[1,1]{1,0} add(%Arg_1.15, %constant.145)
  %jit__where_.48 = s32[1,1]{1,0} call(%lt.11, %add.289, %Arg_1.15), to_apply=%_where_292.184
  %broadcast_in_dim.597 = s32[1,1,1]{2,1,0} reshape(%jit__where_.48)
  %constant.144 = s32[1,1,1]{2,1,0} constant({ { {0} } })
  %ge.111 = pred[1,1,1]{2,1,0} compare(%broadcast_in_dim.597, %constant.144), direction=GE
  %constant.143 = s32[1,1,1]{2,1,0} constant({ { {262143} } })
  %le.9 = pred[1,1,1]{2,1,0} compare(%broadcast_in_dim.597, %constant.143), direction=LE
  %and.29 = pred[1,1,1]{2,1,0} and(%ge.111, %le.9)
  %constant.146 = pred[] constant(true)
  %reduce_and.121 = pred[1,1]{1,0} reduce(%and.29, %constant.146), dimensions={2}, to_apply=%region_176.185
  %broadcast_in_dim.598 = pred[1,1,1536]{2,1,0} broadcast(%reduce_and.121), dimensions={0,1}
  %Arg_0.19 = bf16[262144,1536]{1,0} parameter(0)
  %gather.5 = bf16[1,1,1536]{2,1,0} gather(%Arg_0.19, %broadcast_in_dim.597), offset_dims={2}, collapsed_slice_dims={0}, start_index_map={0}, index_vector_dim=2, slice_sizes={1,1536}
  %constant.142 = bf16[] constant(nan)
  %broadcast_in_dim.596 = bf16[1,1,1536]{2,1,0} broadcast(%constant.142), dimensions={}
  ROOT %select_n.21 = bf16[1,1,1536]{2,1,0} select(%broadcast_in_dim.598, %gather.5, %broadcast_in_dim.596)
}

%triu_338.191 (Arg_0.23: pred[41,41]) -> pred[41,41] {
  %iota.107 = s32[41]{0} iota(), iota_dimension=0
  %iota.108 = s32[41,41]{1,0} broadcast(%iota.107), dimensions={0}
  %constant.163 = s32[] constant(-512)
  %add.298 = s32[41,41]{1,0} broadcast(%constant.163), dimensions={}
  %add.299 = s32[41,41]{1,0} add(%iota.108, %add.298)
  %iota.109 = s32[41]{0} iota(), iota_dimension=0
  %iota.110 = s32[41,41]{1,0} broadcast(%iota.109), dimensions={1}
  %ge.119 = pred[41,41]{1,0} compare(%add.299, %iota.110), direction=GE
  %constant.162 = pred[] constant(false)
  %broadcast_in_dim.612 = pred[41,41]{1,0} broadcast(%constant.162), dimensions={}
  %Arg_0.23 = pred[41,41]{1,0} parameter(0)
  ROOT %select_n.25 = pred[41,41]{1,0} select(%ge.119, %broadcast_in_dim.612, %Arg_0.23)
}

%tril_339.192 (Arg_0.25: pred[41,41]) -> pred[41,41] {
  %iota.115 = s32[41]{0} iota(), iota_dimension=0
  %iota.116 = s32[41,41]{1,0} broadcast(%iota.115), dimensions={0}
  %constant.167 = s32[] constant(511)
  %add.302 = s32[41,41]{1,0} broadcast(%constant.167), dimensions={}
  %add.303 = s32[41,41]{1,0} add(%iota.116, %add.302)
  %iota.117 = s32[41]{0} iota(), iota_dimension=0
  %iota.118 = s32[41,41]{1,0} broadcast(%iota.117), dimensions={1}
  %ge.121 = pred[41,41]{1,0} compare(%add.303, %iota.118), direction=GE
  %Arg_0.25 = pred[41,41]{1,0} parameter(0)
  %constant.166 = pred[] constant(false)
  %broadcast_in_dim.614 = pred[41,41]{1,0} broadcast(%constant.166), dimensions={}
  ROOT %select_n.27 = pred[41,41]{1,0} select(%ge.121, %Arg_0.25, %broadcast_in_dim.614)
}

%region_185.200 (reduce_and.133: pred[], reduce_and.134: pred[]) -> pred[] {
  %reduce_and.133 = pred[] parameter(0)
  %reduce_and.134 = pred[] parameter(1)
  ROOT %reduce_and.135 = pred[] and(%reduce_and.133, %reduce_and.134)
}

%region_179.190 (reduce_sum.1018: f32[], reduce_sum.1019: f32[]) -> f32[] {
  %reduce_sum.1018 = f32[] parameter(0)
  %reduce_sum.1019 = f32[] parameter(1)
  ROOT %reduce_sum.1020 = f32[] add(%reduce_sum.1018, %reduce_sum.1019)
}

%region_180.193 (reduce_sum.1025: f32[], reduce_sum.1026: f32[]) -> f32[] {
  %reduce_sum.1025 = f32[] parameter(0)
  %reduce_sum.1026 = f32[] parameter(1)
  ROOT %reduce_sum.1027 = f32[] add(%reduce_sum.1025, %reduce_sum.1026)
}

%region_181.194 (reduce_sum.1032: f32[], reduce_sum.1033: f32[]) -> f32[] {
  %reduce_sum.1032 = f32[] parameter(0)
  %reduce_sum.1033 = f32[] parameter(1)
  ROOT %reduce_sum.1034 = f32[] add(%reduce_sum.1032, %reduce_sum.1033)
}

%_where_389.196 (Arg_0.27: pred[1,1,1,1], Arg_1.19: bf16[1,1,1,256], Arg_2.11: bf16[1,1,1,256]) -> bf16[1,1,1,256] {
  %Arg_0.27 = pred[1,1,1,1]{3,2,1,0} parameter(0)
  %broadcast_in_dim.633 = pred[1,1,1,1]{3,2,1,0} broadcast(%Arg_0.27), dimensions={0,1,2,3}
  %broadcast_in_dim.634 = pred[1,1,1]{2,1,0} reshape(%broadcast_in_dim.633)
  %broadcast_in_dim.635 = pred[1,1,1,256]{3,2,1,0} broadcast(%broadcast_in_dim.634), dimensions={0,1,2}
  %Arg_1.19 = bf16[1,1,1,256]{3,2,1,0} parameter(1)
  %Arg_2.11 = bf16[1,1,1,256]{3,2,1,0} parameter(2)
  ROOT %select_n.32 = bf16[1,1,1,256]{3,2,1,0} select(%broadcast_in_dim.635, %Arg_1.19, %Arg_2.11)
}

%_where_400.197 (Arg_0.29: pred[1,1,1,1,41], Arg_1.21: f32[1,1,8,1,41], Arg_2.13: f32[]) -> f32[1,1,8,1,41] {
  %Arg_0.29 = pred[1,1,1,1,41]{4,3,2,1,0} parameter(0)
  %broadcast_in_dim.643 = pred[1,1,1,1,41]{4,3,2,1,0} broadcast(%Arg_0.29), dimensions={0,1,2,3,4}
  %broadcast_in_dim.644 = pred[1,1,1,41]{3,2,1,0} reshape(%broadcast_in_dim.643)
  %broadcast_in_dim.645 = pred[1,1,8,1,41]{4,3,2,1,0} broadcast(%broadcast_in_dim.644), dimensions={0,1,3,4}
  %Arg_1.21 = f32[1,1,8,1,41]{4,3,2,1,0} parameter(1)
  %Arg_2.13 = f32[] parameter(2)
  %broadcast_in_dim.646 = f32[1,1,8,1,41]{4,3,2,1,0} broadcast(%Arg_2.13), dimensions={}
  ROOT %select_n.36 = f32[1,1,8,1,41]{4,3,2,1,0} select(%broadcast_in_dim.645, %Arg_1.21, %broadcast_in_dim.646)
}

%region_183.198 (reduce_max.101: f32[], reduce_max.102: f32[]) -> f32[] {
  %reduce_max.101 = f32[] parameter(0)
  %reduce_max.102 = f32[] parameter(1)
  ROOT %reduce_max.103 = f32[] maximum(%reduce_max.101, %reduce_max.102)
}

%region_184.199 (reduce_sum.1046: f32[], reduce_sum.1047: f32[]) -> f32[] {
  %reduce_sum.1046 = f32[] parameter(0)
  %reduce_sum.1047 = f32[] parameter(1)
  ROOT %reduce_sum.1048 = f32[] add(%reduce_sum.1046, %reduce_sum.1047)
}

%region_182.195 (reduce_sum.1039: f32[], reduce_sum.1040: f32[]) -> f32[] {
  %reduce_sum.1039 = f32[] parameter(0)
  %reduce_sum.1040 = f32[] parameter(1)
  ROOT %reduce_sum.1041 = f32[] add(%reduce_sum.1039, %reduce_sum.1040)
}

%_where_423.201 (Arg_0.31: pred[1,1,1,1], Arg_1.23: bf16[1,1,8,256], Arg_2.15: bf16[1,1,8,256]) -> bf16[1,1,8,256] {
  %Arg_0.31 = pred[1,1,1,1]{3,2,1,0} parameter(0)
  %broadcast_in_dim.653 = pred[1,1,1,1]{3,2,1,0} broadcast(%Arg_0.31), dimensions={0,1,2,3}
  %broadcast_in_dim.654 = pred[1,1]{1,0} reshape(%broadcast_in_dim.653)
  %broadcast_in_dim.655 = pred[1,1,8,256]{3,2,1,0} broadcast(%broadcast_in_dim.654), dimensions={0,1}
  %Arg_1.23 = bf16[1,1,8,256]{3,2,1,0} parameter(1)
  %Arg_2.15 = bf16[1,1,8,256]{3,2,1,0} parameter(2)
  ROOT %select_n.38 = bf16[1,1,8,256]{3,2,1,0} select(%broadcast_in_dim.655, %Arg_1.23, %Arg_2.15)
}

%region_186.202 (reduce_sum.1053: f32[], reduce_sum.1054: f32[]) -> f32[] {
  %reduce_sum.1053 = f32[] parameter(0)
  %reduce_sum.1054 = f32[] parameter(1)
  ROOT %reduce_sum.1055 = f32[] add(%reduce_sum.1053, %reduce_sum.1054)
}

%region_187.203 (reduce_sum.1060: f32[], reduce_sum.1061: f32[]) -> f32[] {
  %reduce_sum.1060 = f32[] parameter(0)
  %reduce_sum.1061 = f32[] parameter(1)
  ROOT %reduce_sum.1062 = f32[] add(%reduce_sum.1060, %reduce_sum.1061)
}

%region_188.204 (reduce_sum.1067: f32[], reduce_sum.1068: f32[]) -> f32[] {
  %reduce_sum.1067 = f32[] parameter(0)
  %reduce_sum.1068 = f32[] parameter(1)
  ROOT %reduce_sum.1069 = f32[] add(%reduce_sum.1067, %reduce_sum.1068)
}

%region_178.189 (reduce_sum.1011: f32[], reduce_sum.1012: f32[]) -> f32[] {
  %reduce_sum.1011 = f32[] parameter(0)
  %reduce_sum.1012 = f32[] parameter(1)
  ROOT %reduce_sum.1013 = f32[] add(%reduce_sum.1011, %reduce_sum.1012)
}

%region_177.187 (reduce_and.125: pred[], reduce_and.126: pred[]) -> pred[] {
  %reduce_and.125 = pred[] parameter(0)
  %reduce_and.126 = pred[] parameter(1)
  ROOT %reduce_and.127 = pred[] and(%reduce_and.125, %reduce_and.126)
}

%_take_304.188 (Arg_0.21: bf16[262144,8960], Arg_1.17: s32[1,1]) -> bf16[1,1,8960] {
  %Arg_1.17 = s32[1,1]{1,0} parameter(1)
  %constant.159 = s32[1,1]{1,0} constant({ {0} })
  %lt.13 = pred[1,1]{1,0} compare(%Arg_1.17, %constant.159), direction=LT
  %constant.157 = s32[1,1]{1,0} constant({ {262144} })
  %add.291 = s32[1,1]{1,0} add(%Arg_1.17, %constant.157)
  %jit__where_.50 = s32[1,1]{1,0} call(%lt.13, %add.291, %Arg_1.17), to_apply=%_where_292.184
  %broadcast_in_dim.603 = s32[1,1,1]{2,1,0} reshape(%jit__where_.50)
  %constant.156 = s32[1,1,1]{2,1,0} constant({ { {0} } })
  %ge.113 = pred[1,1,1]{2,1,0} compare(%broadcast_in_dim.603, %constant.156), direction=GE
  %constant.155 = s32[1,1,1]{2,1,0} constant({ { {262143} } })
  %le.11 = pred[1,1,1]{2,1,0} compare(%broadcast_in_dim.603, %constant.155), direction=LE
  %and.31 = pred[1,1,1]{2,1,0} and(%ge.113, %le.11)
  %constant.158 = pred[] constant(true)
  %reduce_and.129 = pred[1,1]{1,0} reduce(%and.31, %constant.158), dimensions={2}, to_apply=%region_177.187
  %broadcast_in_dim.604 = pred[1,1,8960]{2,1,0} broadcast(%reduce_and.129), dimensions={0,1}
  %Arg_0.21 = bf16[262144,8960]{1,0} parameter(0)
  %gather.7 = bf16[1,1,8960]{2,1,0} gather(%Arg_0.21, %broadcast_in_dim.603), offset_dims={2}, collapsed_slice_dims={0}, start_index_map={0}, index_vector_dim=2, slice_sizes={1,8960}
  %constant.154 = bf16[] constant(nan)
  %broadcast_in_dim.602 = bf16[1,1,8960]{2,1,0} broadcast(%constant.154), dimensions={}
  ROOT %select_n.23 = bf16[1,1,8960]{2,1,0} select(%broadcast_in_dim.604, %gather.7, %broadcast_in_dim.602)
}

%region_189.205 (reduce_sum.1074: f32[], reduce_sum.1075: f32[]) -> f32[] {
  %reduce_sum.1074 = f32[] parameter(0)
  %reduce_sum.1075 = f32[] parameter(1)
  ROOT %reduce_sum.1076 = f32[] add(%reduce_sum.1074, %reduce_sum.1075)
}

%region_197.213 (reduce_and.140: pred[], reduce_and.141: pred[]) -> pred[] {
  %reduce_and.140 = pred[] parameter(0)
  %reduce_and.141 = pred[] parameter(1)
  ROOT %reduce_and.142 = pred[] and(%reduce_and.140, %reduce_and.141)
}

%region_191.207 (reduce_sum.1088: f32[], reduce_sum.1089: f32[]) -> f32[] {
  %reduce_sum.1088 = f32[] parameter(0)
  %reduce_sum.1089 = f32[] parameter(1)
  ROOT %reduce_sum.1090 = f32[] add(%reduce_sum.1088, %reduce_sum.1089)
}

%region_192.208 (reduce_sum.1095: f32[], reduce_sum.1096: f32[]) -> f32[] {
  %reduce_sum.1095 = f32[] parameter(0)
  %reduce_sum.1096 = f32[] parameter(1)
  ROOT %reduce_sum.1097 = f32[] add(%reduce_sum.1095, %reduce_sum.1096)
}

%region_193.209 (reduce_sum.1102: f32[], reduce_sum.1103: f32[]) -> f32[] {
  %reduce_sum.1102 = f32[] parameter(0)
  %reduce_sum.1103 = f32[] parameter(1)
  ROOT %reduce_sum.1104 = f32[] add(%reduce_sum.1102, %reduce_sum.1103)
}

%region_195.211 (reduce_max.108: f32[], reduce_max.109: f32[]) -> f32[] {
  %reduce_max.108 = f32[] parameter(0)
  %reduce_max.109 = f32[] parameter(1)
  ROOT %reduce_max.110 = f32[] maximum(%reduce_max.108, %reduce_max.109)
}

%region_196.212 (reduce_sum.1116: f32[], reduce_sum.1117: f32[]) -> f32[] {
  %reduce_sum.1116 = f32[] parameter(0)
  %reduce_sum.1117 = f32[] parameter(1)
  ROOT %reduce_sum.1118 = f32[] add(%reduce_sum.1116, %reduce_sum.1117)
}

%region_194.210 (reduce_sum.1109: f32[], reduce_sum.1110: f32[]) -> f32[] {
  %reduce_sum.1109 = f32[] parameter(0)
  %reduce_sum.1110 = f32[] parameter(1)
  ROOT %reduce_sum.1111 = f32[] add(%reduce_sum.1109, %reduce_sum.1110)
}

%region_198.214 (reduce_sum.1123: f32[], reduce_sum.1124: f32[]) -> f32[] {
  %reduce_sum.1123 = f32[] parameter(0)
  %reduce_sum.1124 = f32[] parameter(1)
  ROOT %reduce_sum.1125 = f32[] add(%reduce_sum.1123, %reduce_sum.1124)
}

%region_199.215 (reduce_sum.1130: f32[], reduce_sum.1131: f32[]) -> f32[] {
  %reduce_sum.1130 = f32[] parameter(0)
  %reduce_sum.1131 = f32[] parameter(1)
  ROOT %reduce_sum.1132 = f32[] add(%reduce_sum.1130, %reduce_sum.1131)
}

%region_200.216 (reduce_sum.1137: f32[], reduce_sum.1138: f32[]) -> f32[] {
  %reduce_sum.1137 = f32[] parameter(0)
  %reduce_sum.1138 = f32[] parameter(1)
  ROOT %reduce_sum.1139 = f32[] add(%reduce_sum.1137, %reduce_sum.1138)
}

%region_190.206 (reduce_sum.1081: f32[], reduce_sum.1082: f32[]) -> f32[] {
  %reduce_sum.1081 = f32[] parameter(0)
  %reduce_sum.1082 = f32[] parameter(1)
  ROOT %reduce_sum.1083 = f32[] add(%reduce_sum.1081, %reduce_sum.1082)
}

%region_201.217 (reduce_sum.1144: f32[], reduce_sum.1145: f32[]) -> f32[] {
  %reduce_sum.1144 = f32[] parameter(0)
  %reduce_sum.1145 = f32[] parameter(1)
  ROOT %reduce_sum.1146 = f32[] add(%reduce_sum.1144, %reduce_sum.1145)
}

%region_209.225 (reduce_and.147: pred[], reduce_and.148: pred[]) -> pred[] {
  %reduce_and.147 = pred[] parameter(0)
  %reduce_and.148 = pred[] parameter(1)
  ROOT %reduce_and.149 = pred[] and(%reduce_and.147, %reduce_and.148)
}

%region_203.219 (reduce_sum.1158: f32[], reduce_sum.1159: f32[]) -> f32[] {
  %reduce_sum.1158 = f32[] parameter(0)
  %reduce_sum.1159 = f32[] parameter(1)
  ROOT %reduce_sum.1160 = f32[] add(%reduce_sum.1158, %reduce_sum.1159)
}

%region_204.220 (reduce_sum.1165: f32[], reduce_sum.1166: f32[]) -> f32[] {
  %reduce_sum.1165 = f32[] parameter(0)
  %reduce_sum.1166 = f32[] parameter(1)
  ROOT %reduce_sum.1167 = f32[] add(%reduce_sum.1165, %reduce_sum.1166)
}

%region_205.221 (reduce_sum.1172: f32[], reduce_sum.1173: f32[]) -> f32[] {
  %reduce_sum.1172 = f32[] parameter(0)
  %reduce_sum.1173 = f32[] parameter(1)
  ROOT %reduce_sum.1174 = f32[] add(%reduce_sum.1172, %reduce_sum.1173)
}

%region_207.223 (reduce_max.115: f32[], reduce_max.116: f32[]) -> f32[] {
  %reduce_max.115 = f32[] parameter(0)
  %reduce_max.116 = f32[] parameter(1)
  ROOT %reduce_max.117 = f32[] maximum(%reduce_max.115, %reduce_max.116)
}

%region_208.224 (reduce_sum.1186: f32[], reduce_sum.1187: f32[]) -> f32[] {
  %reduce_sum.1186 = f32[] parameter(0)
  %reduce_sum.1187 = f32[] parameter(1)
  ROOT %reduce_sum.1188 = f32[] add(%reduce_sum.1186, %reduce_sum.1187)
}

%region_206.222 (reduce_sum.1179: f32[], reduce_sum.1180: f32[]) -> f32[] {
  %reduce_sum.1179 = f32[] parameter(0)
  %reduce_sum.1180 = f32[] parameter(1)
  ROOT %reduce_sum.1181 = f32[] add(%reduce_sum.1179, %reduce_sum.1180)
}

%region_210.226 (reduce_sum.1193: f32[], reduce_sum.1194: f32[]) -> f32[] {
  %reduce_sum.1193 = f32[] parameter(0)
  %reduce_sum.1194 = f32[] parameter(1)
  ROOT %reduce_sum.1195 = f32[] add(%reduce_sum.1193, %reduce_sum.1194)
}

%region_211.227 (reduce_sum.1200: f32[], reduce_sum.1201: f32[]) -> f32[] {
  %reduce_sum.1200 = f32[] parameter(0)
  %reduce_sum.1201 = f32[] parameter(1)
  ROOT %reduce_sum.1202 = f32[] add(%reduce_sum.1200, %reduce_sum.1201)
}

%region_212.228 (reduce_sum.1207: f32[], reduce_sum.1208: f32[]) -> f32[] {
  %reduce_sum.1207 = f32[] parameter(0)
  %reduce_sum.1208 = f32[] parameter(1)
  ROOT %reduce_sum.1209 = f32[] add(%reduce_sum.1207, %reduce_sum.1208)
}

%region_202.218 (reduce_sum.1151: f32[], reduce_sum.1152: f32[]) -> f32[] {
  %reduce_sum.1151 = f32[] parameter(0)
  %reduce_sum.1152 = f32[] parameter(1)
  ROOT %reduce_sum.1153 = f32[] add(%reduce_sum.1151, %reduce_sum.1152)
}

%region_213.229 (reduce_sum.1214: f32[], reduce_sum.1215: f32[]) -> f32[] {
  %reduce_sum.1214 = f32[] parameter(0)
  %reduce_sum.1215 = f32[] parameter(1)
  ROOT %reduce_sum.1216 = f32[] add(%reduce_sum.1214, %reduce_sum.1215)
}

%region_221.237 (reduce_and.154: pred[], reduce_and.155: pred[]) -> pred[] {
  %reduce_and.154 = pred[] parameter(0)
  %reduce_and.155 = pred[] parameter(1)
  ROOT %reduce_and.156 = pred[] and(%reduce_and.154, %reduce_and.155)
}

%region_215.231 (reduce_sum.1228: f32[], reduce_sum.1229: f32[]) -> f32[] {
  %reduce_sum.1228 = f32[] parameter(0)
  %reduce_sum.1229 = f32[] parameter(1)
  ROOT %reduce_sum.1230 = f32[] add(%reduce_sum.1228, %reduce_sum.1229)
}

%region_216.232 (reduce_sum.1235: f32[], reduce_sum.1236: f32[]) -> f32[] {
  %reduce_sum.1235 = f32[] parameter(0)
  %reduce_sum.1236 = f32[] parameter(1)
  ROOT %reduce_sum.1237 = f32[] add(%reduce_sum.1235, %reduce_sum.1236)
}

%region_217.233 (reduce_sum.1242: f32[], reduce_sum.1243: f32[]) -> f32[] {
  %reduce_sum.1242 = f32[] parameter(0)
  %reduce_sum.1243 = f32[] parameter(1)
  ROOT %reduce_sum.1244 = f32[] add(%reduce_sum.1242, %reduce_sum.1243)
}

%region_219.235 (reduce_max.122: f32[], reduce_max.123: f32[]) -> f32[] {
  %reduce_max.122 = f32[] parameter(0)
  %reduce_max.123 = f32[] parameter(1)
  ROOT %reduce_max.124 = f32[] maximum(%reduce_max.122, %reduce_max.123)
}

%region_220.236 (reduce_sum.1256: f32[], reduce_sum.1257: f32[]) -> f32[] {
  %reduce_sum.1256 = f32[] parameter(0)
  %reduce_sum.1257 = f32[] parameter(1)
  ROOT %reduce_sum.1258 = f32[] add(%reduce_sum.1256, %reduce_sum.1257)
}

%region_218.234 (reduce_sum.1249: f32[], reduce_sum.1250: f32[]) -> f32[] {
  %reduce_sum.1249 = f32[] parameter(0)
  %reduce_sum.1250 = f32[] parameter(1)
  ROOT %reduce_sum.1251 = f32[] add(%reduce_sum.1249, %reduce_sum.1250)
}

%region_222.238 (reduce_sum.1263: f32[], reduce_sum.1264: f32[]) -> f32[] {
  %reduce_sum.1263 = f32[] parameter(0)
  %reduce_sum.1264 = f32[] parameter(1)
  ROOT %reduce_sum.1265 = f32[] add(%reduce_sum.1263, %reduce_sum.1264)
}

%region_223.239 (reduce_sum.1270: f32[], reduce_sum.1271: f32[]) -> f32[] {
  %reduce_sum.1270 = f32[] parameter(0)
  %reduce_sum.1271 = f32[] parameter(1)
  ROOT %reduce_sum.1272 = f32[] add(%reduce_sum.1270, %reduce_sum.1271)
}

%region_224.240 (reduce_sum.1277: f32[], reduce_sum.1278: f32[]) -> f32[] {
  %reduce_sum.1277 = f32[] parameter(0)
  %reduce_sum.1278 = f32[] parameter(1)
  ROOT %reduce_sum.1279 = f32[] add(%reduce_sum.1277, %reduce_sum.1278)
}

%region_214.230 (reduce_sum.1221: f32[], reduce_sum.1222: f32[]) -> f32[] {
  %reduce_sum.1221 = f32[] parameter(0)
  %reduce_sum.1222 = f32[] parameter(1)
  ROOT %reduce_sum.1223 = f32[] add(%reduce_sum.1221, %reduce_sum.1222)
}

%region_225.241 (reduce_sum.1284: f32[], reduce_sum.1285: f32[]) -> f32[] {
  %reduce_sum.1284 = f32[] parameter(0)
  %reduce_sum.1285 = f32[] parameter(1)
  ROOT %reduce_sum.1286 = f32[] add(%reduce_sum.1284, %reduce_sum.1285)
}

%region_233.250 (reduce_and.161: pred[], reduce_and.162: pred[]) -> pred[] {
  %reduce_and.161 = pred[] parameter(0)
  %reduce_and.162 = pred[] parameter(1)
  ROOT %reduce_and.163 = pred[] and(%reduce_and.161, %reduce_and.162)
}

%region_227.243 (reduce_sum.1298: f32[], reduce_sum.1299: f32[]) -> f32[] {
  %reduce_sum.1298 = f32[] parameter(0)
  %reduce_sum.1299 = f32[] parameter(1)
  ROOT %reduce_sum.1300 = f32[] add(%reduce_sum.1298, %reduce_sum.1299)
}

%region_228.244 (reduce_sum.1305: f32[], reduce_sum.1306: f32[]) -> f32[] {
  %reduce_sum.1305 = f32[] parameter(0)
  %reduce_sum.1306 = f32[] parameter(1)
  ROOT %reduce_sum.1307 = f32[] add(%reduce_sum.1305, %reduce_sum.1306)
}

%region_229.245 (reduce_sum.1312: f32[], reduce_sum.1313: f32[]) -> f32[] {
  %reduce_sum.1312 = f32[] parameter(0)
  %reduce_sum.1313 = f32[] parameter(1)
  ROOT %reduce_sum.1314 = f32[] add(%reduce_sum.1312, %reduce_sum.1313)
}

%_where_497.247 (Arg_0.33: pred[1,1,1,1], Arg_1.25: bf16[1,1,1,512], Arg_2.17: bf16[1,1,1,512]) -> bf16[1,1,1,512] {
  %Arg_0.33 = pred[1,1,1,1]{3,2,1,0} parameter(0)
  %broadcast_in_dim.792 = pred[1,1,1,1]{3,2,1,0} broadcast(%Arg_0.33), dimensions={0,1,2,3}
  %broadcast_in_dim.793 = pred[1,1,1]{2,1,0} reshape(%broadcast_in_dim.792)
  %broadcast_in_dim.794 = pred[1,1,1,512]{3,2,1,0} broadcast(%broadcast_in_dim.793), dimensions={0,1,2}
  %Arg_1.25 = bf16[1,1,1,512]{3,2,1,0} parameter(1)
  %Arg_2.17 = bf16[1,1,1,512]{3,2,1,0} parameter(2)
  ROOT %select_n.57 = bf16[1,1,1,512]{3,2,1,0} select(%broadcast_in_dim.794, %Arg_1.25, %Arg_2.17)
}

%region_231.248 (reduce_max.129: f32[], reduce_max.130: f32[]) -> f32[] {
  %reduce_max.129 = f32[] parameter(0)
  %reduce_max.130 = f32[] parameter(1)
  ROOT %reduce_max.131 = f32[] maximum(%reduce_max.129, %reduce_max.130)
}

%region_232.249 (reduce_sum.1326: f32[], reduce_sum.1327: f32[]) -> f32[] {
  %reduce_sum.1326 = f32[] parameter(0)
  %reduce_sum.1327 = f32[] parameter(1)
  ROOT %reduce_sum.1328 = f32[] add(%reduce_sum.1326, %reduce_sum.1327)
}

%region_230.246 (reduce_sum.1319: f32[], reduce_sum.1320: f32[]) -> f32[] {
  %reduce_sum.1319 = f32[] parameter(0)
  %reduce_sum.1320 = f32[] parameter(1)
  ROOT %reduce_sum.1321 = f32[] add(%reduce_sum.1319, %reduce_sum.1320)
}

%_where_510.251 (Arg_0.35: pred[1,1,1,1], Arg_1.27: bf16[1,1,8,512], Arg_2.19: bf16[1,1,8,512]) -> bf16[1,1,8,512] {
  %Arg_0.35 = pred[1,1,1,1]{3,2,1,0} parameter(0)
  %broadcast_in_dim.804 = pred[1,1,1,1]{3,2,1,0} broadcast(%Arg_0.35), dimensions={0,1,2,3}
  %broadcast_in_dim.805 = pred[1,1]{1,0} reshape(%broadcast_in_dim.804)
  %broadcast_in_dim.806 = pred[1,1,8,512]{3,2,1,0} broadcast(%broadcast_in_dim.805), dimensions={0,1}
  %Arg_1.27 = bf16[1,1,8,512]{3,2,1,0} parameter(1)
  %Arg_2.19 = bf16[1,1,8,512]{3,2,1,0} parameter(2)
  ROOT %select_n.61 = bf16[1,1,8,512]{3,2,1,0} select(%broadcast_in_dim.806, %Arg_1.27, %Arg_2.19)
}

%region_234.252 (reduce_sum.1333: f32[], reduce_sum.1334: f32[]) -> f32[] {
  %reduce_sum.1333 = f32[] parameter(0)
  %reduce_sum.1334 = f32[] parameter(1)
  ROOT %reduce_sum.1335 = f32[] add(%reduce_sum.1333, %reduce_sum.1334)
}

%region_235.253 (reduce_sum.1340: f32[], reduce_sum.1341: f32[]) -> f32[] {
  %reduce_sum.1340 = f32[] parameter(0)
  %reduce_sum.1341 = f32[] parameter(1)
  ROOT %reduce_sum.1342 = f32[] add(%reduce_sum.1340, %reduce_sum.1341)
}

%region_236.254 (reduce_sum.1347: f32[], reduce_sum.1348: f32[]) -> f32[] {
  %reduce_sum.1347 = f32[] parameter(0)
  %reduce_sum.1348 = f32[] parameter(1)
  ROOT %reduce_sum.1349 = f32[] add(%reduce_sum.1347, %reduce_sum.1348)
}

%region_226.242 (reduce_sum.1291: f32[], reduce_sum.1292: f32[]) -> f32[] {
  %reduce_sum.1291 = f32[] parameter(0)
  %reduce_sum.1292 = f32[] parameter(1)
  ROOT %reduce_sum.1293 = f32[] add(%reduce_sum.1291, %reduce_sum.1292)
}

%region_237.255 (reduce_sum.1354: f32[], reduce_sum.1355: f32[]) -> f32[] {
  %reduce_sum.1354 = f32[] parameter(0)
  %reduce_sum.1355 = f32[] parameter(1)
  ROOT %reduce_sum.1356 = f32[] add(%reduce_sum.1354, %reduce_sum.1355)
}

%region_245.263 (reduce_and.168: pred[], reduce_and.169: pred[]) -> pred[] {
  %reduce_and.168 = pred[] parameter(0)
  %reduce_and.169 = pred[] parameter(1)
  ROOT %reduce_and.170 = pred[] and(%reduce_and.168, %reduce_and.169)
}

%region_239.257 (reduce_sum.1368: f32[], reduce_sum.1369: f32[]) -> f32[] {
  %reduce_sum.1368 = f32[] parameter(0)
  %reduce_sum.1369 = f32[] parameter(1)
  ROOT %reduce_sum.1370 = f32[] add(%reduce_sum.1368, %reduce_sum.1369)
}

%region_240.258 (reduce_sum.1375: f32[], reduce_sum.1376: f32[]) -> f32[] {
  %reduce_sum.1375 = f32[] parameter(0)
  %reduce_sum.1376 = f32[] parameter(1)
  ROOT %reduce_sum.1377 = f32[] add(%reduce_sum.1375, %reduce_sum.1376)
}

%region_241.259 (reduce_sum.1382: f32[], reduce_sum.1383: f32[]) -> f32[] {
  %reduce_sum.1382 = f32[] parameter(0)
  %reduce_sum.1383 = f32[] parameter(1)
  ROOT %reduce_sum.1384 = f32[] add(%reduce_sum.1382, %reduce_sum.1383)
}

%region_243.261 (reduce_max.136: f32[], reduce_max.137: f32[]) -> f32[] {
  %reduce_max.136 = f32[] parameter(0)
  %reduce_max.137 = f32[] parameter(1)
  ROOT %reduce_max.138 = f32[] maximum(%reduce_max.136, %reduce_max.137)
}

%region_244.262 (reduce_sum.1396: f32[], reduce_sum.1397: f32[]) -> f32[] {
  %reduce_sum.1396 = f32[] parameter(0)
  %reduce_sum.1397 = f32[] parameter(1)
  ROOT %reduce_sum.1398 = f32[] add(%reduce_sum.1396, %reduce_sum.1397)
}

%region_242.260 (reduce_sum.1389: f32[], reduce_sum.1390: f32[]) -> f32[] {
  %reduce_sum.1389 = f32[] parameter(0)
  %reduce_sum.1390 = f32[] parameter(1)
  ROOT %reduce_sum.1391 = f32[] add(%reduce_sum.1389, %reduce_sum.1390)
}

%region_246.264 (reduce_sum.1403: f32[], reduce_sum.1404: f32[]) -> f32[] {
  %reduce_sum.1403 = f32[] parameter(0)
  %reduce_sum.1404 = f32[] parameter(1)
  ROOT %reduce_sum.1405 = f32[] add(%reduce_sum.1403, %reduce_sum.1404)
}

%region_247.265 (reduce_sum.1410: f32[], reduce_sum.1411: f32[]) -> f32[] {
  %reduce_sum.1410 = f32[] parameter(0)
  %reduce_sum.1411 = f32[] parameter(1)
  ROOT %reduce_sum.1412 = f32[] add(%reduce_sum.1410, %reduce_sum.1411)
}

%region_248.266 (reduce_sum.1417: f32[], reduce_sum.1418: f32[]) -> f32[] {
  %reduce_sum.1417 = f32[] parameter(0)
  %reduce_sum.1418 = f32[] parameter(1)
  ROOT %reduce_sum.1419 = f32[] add(%reduce_sum.1417, %reduce_sum.1418)
}

%region_238.256 (reduce_sum.1361: f32[], reduce_sum.1362: f32[]) -> f32[] {
  %reduce_sum.1361 = f32[] parameter(0)
  %reduce_sum.1362 = f32[] parameter(1)
  ROOT %reduce_sum.1363 = f32[] add(%reduce_sum.1361, %reduce_sum.1362)
}

%region_249.267 (reduce_sum.1424: f32[], reduce_sum.1425: f32[]) -> f32[] {
  %reduce_sum.1424 = f32[] parameter(0)
  %reduce_sum.1425 = f32[] parameter(1)
  ROOT %reduce_sum.1426 = f32[] add(%reduce_sum.1424, %reduce_sum.1425)
}

%region_257.275 (reduce_and.175: pred[], reduce_and.176: pred[]) -> pred[] {
  %reduce_and.175 = pred[] parameter(0)
  %reduce_and.176 = pred[] parameter(1)
  ROOT %reduce_and.177 = pred[] and(%reduce_and.175, %reduce_and.176)
}

%region_251.269 (reduce_sum.1438: f32[], reduce_sum.1439: f32[]) -> f32[] {
  %reduce_sum.1438 = f32[] parameter(0)
  %reduce_sum.1439 = f32[] parameter(1)
  ROOT %reduce_sum.1440 = f32[] add(%reduce_sum.1438, %reduce_sum.1439)
}

%region_252.270 (reduce_sum.1445: f32[], reduce_sum.1446: f32[]) -> f32[] {
  %reduce_sum.1445 = f32[] parameter(0)
  %reduce_sum.1446 = f32[] parameter(1)
  ROOT %reduce_sum.1447 = f32[] add(%reduce_sum.1445, %reduce_sum.1446)
}

%region_253.271 (reduce_sum.1452: f32[], reduce_sum.1453: f32[]) -> f32[] {
  %reduce_sum.1452 = f32[] parameter(0)
  %reduce_sum.1453 = f32[] parameter(1)
  ROOT %reduce_sum.1454 = f32[] add(%reduce_sum.1452, %reduce_sum.1453)
}

%region_255.273 (reduce_max.143: f32[], reduce_max.144: f32[]) -> f32[] {
  %reduce_max.143 = f32[] parameter(0)
  %reduce_max.144 = f32[] parameter(1)
  ROOT %reduce_max.145 = f32[] maximum(%reduce_max.143, %reduce_max.144)
}

%region_256.274 (reduce_sum.1466: f32[], reduce_sum.1467: f32[]) -> f32[] {
  %reduce_sum.1466 = f32[] parameter(0)
  %reduce_sum.1467 = f32[] parameter(1)
  ROOT %reduce_sum.1468 = f32[] add(%reduce_sum.1466, %reduce_sum.1467)
}

%region_254.272 (reduce_sum.1459: f32[], reduce_sum.1460: f32[]) -> f32[] {
  %reduce_sum.1459 = f32[] parameter(0)
  %reduce_sum.1460 = f32[] parameter(1)
  ROOT %reduce_sum.1461 = f32[] add(%reduce_sum.1459, %reduce_sum.1460)
}

%region_258.276 (reduce_sum.1473: f32[], reduce_sum.1474: f32[]) -> f32[] {
  %reduce_sum.1473 = f32[] parameter(0)
  %reduce_sum.1474 = f32[] parameter(1)
  ROOT %reduce_sum.1475 = f32[] add(%reduce_sum.1473, %reduce_sum.1474)
}

%region_259.277 (reduce_sum.1480: f32[], reduce_sum.1481: f32[]) -> f32[] {
  %reduce_sum.1480 = f32[] parameter(0)
  %reduce_sum.1481 = f32[] parameter(1)
  ROOT %reduce_sum.1482 = f32[] add(%reduce_sum.1480, %reduce_sum.1481)
}

%region_260.278 (reduce_sum.1487: f32[], reduce_sum.1488: f32[]) -> f32[] {
  %reduce_sum.1487 = f32[] parameter(0)
  %reduce_sum.1488 = f32[] parameter(1)
  ROOT %reduce_sum.1489 = f32[] add(%reduce_sum.1487, %reduce_sum.1488)
}

%region_250.268 (reduce_sum.1431: f32[], reduce_sum.1432: f32[]) -> f32[] {
  %reduce_sum.1431 = f32[] parameter(0)
  %reduce_sum.1432 = f32[] parameter(1)
  ROOT %reduce_sum.1433 = f32[] add(%reduce_sum.1431, %reduce_sum.1432)
}

%region_261.279 (reduce_sum.1494: f32[], reduce_sum.1495: f32[]) -> f32[] {
  %reduce_sum.1494 = f32[] parameter(0)
  %reduce_sum.1495 = f32[] parameter(1)
  ROOT %reduce_sum.1496 = f32[] add(%reduce_sum.1494, %reduce_sum.1495)
}

%region_269.287 (reduce_and.182: pred[], reduce_and.183: pred[]) -> pred[] {
  %reduce_and.182 = pred[] parameter(0)
  %reduce_and.183 = pred[] parameter(1)
  ROOT %reduce_and.184 = pred[] and(%reduce_and.182, %reduce_and.183)
}

%region_263.281 (reduce_sum.1508: f32[], reduce_sum.1509: f32[]) -> f32[] {
  %reduce_sum.1508 = f32[] parameter(0)
  %reduce_sum.1509 = f32[] parameter(1)
  ROOT %reduce_sum.1510 = f32[] add(%reduce_sum.1508, %reduce_sum.1509)
}

%region_264.282 (reduce_sum.1515: f32[], reduce_sum.1516: f32[]) -> f32[] {
  %reduce_sum.1515 = f32[] parameter(0)
  %reduce_sum.1516 = f32[] parameter(1)
  ROOT %reduce_sum.1517 = f32[] add(%reduce_sum.1515, %reduce_sum.1516)
}

%region_265.283 (reduce_sum.1522: f32[], reduce_sum.1523: f32[]) -> f32[] {
  %reduce_sum.1522 = f32[] parameter(0)
  %reduce_sum.1523 = f32[] parameter(1)
  ROOT %reduce_sum.1524 = f32[] add(%reduce_sum.1522, %reduce_sum.1523)
}

%region_267.285 (reduce_max.150: f32[], reduce_max.151: f32[]) -> f32[] {
  %reduce_max.150 = f32[] parameter(0)
  %reduce_max.151 = f32[] parameter(1)
  ROOT %reduce_max.152 = f32[] maximum(%reduce_max.150, %reduce_max.151)
}

%region_268.286 (reduce_sum.1536: f32[], reduce_sum.1537: f32[]) -> f32[] {
  %reduce_sum.1536 = f32[] parameter(0)
  %reduce_sum.1537 = f32[] parameter(1)
  ROOT %reduce_sum.1538 = f32[] add(%reduce_sum.1536, %reduce_sum.1537)
}

%region_266.284 (reduce_sum.1529: f32[], reduce_sum.1530: f32[]) -> f32[] {
  %reduce_sum.1529 = f32[] parameter(0)
  %reduce_sum.1530 = f32[] parameter(1)
  ROOT %reduce_sum.1531 = f32[] add(%reduce_sum.1529, %reduce_sum.1530)
}

%region_270.288 (reduce_sum.1543: f32[], reduce_sum.1544: f32[]) -> f32[] {
  %reduce_sum.1543 = f32[] parameter(0)
  %reduce_sum.1544 = f32[] parameter(1)
  ROOT %reduce_sum.1545 = f32[] add(%reduce_sum.1543, %reduce_sum.1544)
}

%region_271.289 (reduce_sum.1550: f32[], reduce_sum.1551: f32[]) -> f32[] {
  %reduce_sum.1550 = f32[] parameter(0)
  %reduce_sum.1551 = f32[] parameter(1)
  ROOT %reduce_sum.1552 = f32[] add(%reduce_sum.1550, %reduce_sum.1551)
}

%region_272.290 (reduce_sum.1557: f32[], reduce_sum.1558: f32[]) -> f32[] {
  %reduce_sum.1557 = f32[] parameter(0)
  %reduce_sum.1558 = f32[] parameter(1)
  ROOT %reduce_sum.1559 = f32[] add(%reduce_sum.1557, %reduce_sum.1558)
}

%region_262.280 (reduce_sum.1501: f32[], reduce_sum.1502: f32[]) -> f32[] {
  %reduce_sum.1501 = f32[] parameter(0)
  %reduce_sum.1502 = f32[] parameter(1)
  ROOT %reduce_sum.1503 = f32[] add(%reduce_sum.1501, %reduce_sum.1502)
}

%region_273.291 (reduce_sum.1564: f32[], reduce_sum.1565: f32[]) -> f32[] {
  %reduce_sum.1564 = f32[] parameter(0)
  %reduce_sum.1565 = f32[] parameter(1)
  ROOT %reduce_sum.1566 = f32[] add(%reduce_sum.1564, %reduce_sum.1565)
}

%region_281.299 (reduce_and.189: pred[], reduce_and.190: pred[]) -> pred[] {
  %reduce_and.189 = pred[] parameter(0)
  %reduce_and.190 = pred[] parameter(1)
  ROOT %reduce_and.191 = pred[] and(%reduce_and.189, %reduce_and.190)
}

%region_275.293 (reduce_sum.1578: f32[], reduce_sum.1579: f32[]) -> f32[] {
  %reduce_sum.1578 = f32[] parameter(0)
  %reduce_sum.1579 = f32[] parameter(1)
  ROOT %reduce_sum.1580 = f32[] add(%reduce_sum.1578, %reduce_sum.1579)
}

%region_276.294 (reduce_sum.1585: f32[], reduce_sum.1586: f32[]) -> f32[] {
  %reduce_sum.1585 = f32[] parameter(0)
  %reduce_sum.1586 = f32[] parameter(1)
  ROOT %reduce_sum.1587 = f32[] add(%reduce_sum.1585, %reduce_sum.1586)
}

%region_277.295 (reduce_sum.1592: f32[], reduce_sum.1593: f32[]) -> f32[] {
  %reduce_sum.1592 = f32[] parameter(0)
  %reduce_sum.1593 = f32[] parameter(1)
  ROOT %reduce_sum.1594 = f32[] add(%reduce_sum.1592, %reduce_sum.1593)
}

%region_279.297 (reduce_max.157: f32[], reduce_max.158: f32[]) -> f32[] {
  %reduce_max.157 = f32[] parameter(0)
  %reduce_max.158 = f32[] parameter(1)
  ROOT %reduce_max.159 = f32[] maximum(%reduce_max.157, %reduce_max.158)
}

%region_280.298 (reduce_sum.1606: f32[], reduce_sum.1607: f32[]) -> f32[] {
  %reduce_sum.1606 = f32[] parameter(0)
  %reduce_sum.1607 = f32[] parameter(1)
  ROOT %reduce_sum.1608 = f32[] add(%reduce_sum.1606, %reduce_sum.1607)
}

%region_278.296 (reduce_sum.1599: f32[], reduce_sum.1600: f32[]) -> f32[] {
  %reduce_sum.1599 = f32[] parameter(0)
  %reduce_sum.1600 = f32[] parameter(1)
  ROOT %reduce_sum.1601 = f32[] add(%reduce_sum.1599, %reduce_sum.1600)
}

%region_282.300 (reduce_sum.1613: f32[], reduce_sum.1614: f32[]) -> f32[] {
  %reduce_sum.1613 = f32[] parameter(0)
  %reduce_sum.1614 = f32[] parameter(1)
  ROOT %reduce_sum.1615 = f32[] add(%reduce_sum.1613, %reduce_sum.1614)
}

%region_283.301 (reduce_sum.1620: f32[], reduce_sum.1621: f32[]) -> f32[] {
  %reduce_sum.1620 = f32[] parameter(0)
  %reduce_sum.1621 = f32[] parameter(1)
  ROOT %reduce_sum.1622 = f32[] add(%reduce_sum.1620, %reduce_sum.1621)
}

%region_284.302 (reduce_sum.1627: f32[], reduce_sum.1628: f32[]) -> f32[] {
  %reduce_sum.1627 = f32[] parameter(0)
  %reduce_sum.1628 = f32[] parameter(1)
  ROOT %reduce_sum.1629 = f32[] add(%reduce_sum.1627, %reduce_sum.1628)
}

%region_274.292 (reduce_sum.1571: f32[], reduce_sum.1572: f32[]) -> f32[] {
  %reduce_sum.1571 = f32[] parameter(0)
  %reduce_sum.1572 = f32[] parameter(1)
  ROOT %reduce_sum.1573 = f32[] add(%reduce_sum.1571, %reduce_sum.1572)
}

%region_285.303 (reduce_sum.1634: f32[], reduce_sum.1635: f32[]) -> f32[] {
  %reduce_sum.1634 = f32[] parameter(0)
  %reduce_sum.1635 = f32[] parameter(1)
  ROOT %reduce_sum.1636 = f32[] add(%reduce_sum.1634, %reduce_sum.1635)
}

%region_293.311 (reduce_and.196: pred[], reduce_and.197: pred[]) -> pred[] {
  %reduce_and.196 = pred[] parameter(0)
  %reduce_and.197 = pred[] parameter(1)
  ROOT %reduce_and.198 = pred[] and(%reduce_and.196, %reduce_and.197)
}

%region_287.305 (reduce_sum.1648: f32[], reduce_sum.1649: f32[]) -> f32[] {
  %reduce_sum.1648 = f32[] parameter(0)
  %reduce_sum.1649 = f32[] parameter(1)
  ROOT %reduce_sum.1650 = f32[] add(%reduce_sum.1648, %reduce_sum.1649)
}

%region_288.306 (reduce_sum.1655: f32[], reduce_sum.1656: f32[]) -> f32[] {
  %reduce_sum.1655 = f32[] parameter(0)
  %reduce_sum.1656 = f32[] parameter(1)
  ROOT %reduce_sum.1657 = f32[] add(%reduce_sum.1655, %reduce_sum.1656)
}

%region_289.307 (reduce_sum.1662: f32[], reduce_sum.1663: f32[]) -> f32[] {
  %reduce_sum.1662 = f32[] parameter(0)
  %reduce_sum.1663 = f32[] parameter(1)
  ROOT %reduce_sum.1664 = f32[] add(%reduce_sum.1662, %reduce_sum.1663)
}

%region_291.309 (reduce_max.164: f32[], reduce_max.165: f32[]) -> f32[] {
  %reduce_max.164 = f32[] parameter(0)
  %reduce_max.165 = f32[] parameter(1)
  ROOT %reduce_max.166 = f32[] maximum(%reduce_max.164, %reduce_max.165)
}

%region_292.310 (reduce_sum.1676: f32[], reduce_sum.1677: f32[]) -> f32[] {
  %reduce_sum.1676 = f32[] parameter(0)
  %reduce_sum.1677 = f32[] parameter(1)
  ROOT %reduce_sum.1678 = f32[] add(%reduce_sum.1676, %reduce_sum.1677)
}

%region_290.308 (reduce_sum.1669: f32[], reduce_sum.1670: f32[]) -> f32[] {
  %reduce_sum.1669 = f32[] parameter(0)
  %reduce_sum.1670 = f32[] parameter(1)
  ROOT %reduce_sum.1671 = f32[] add(%reduce_sum.1669, %reduce_sum.1670)
}

%region_294.312 (reduce_sum.1683: f32[], reduce_sum.1684: f32[]) -> f32[] {
  %reduce_sum.1683 = f32[] parameter(0)
  %reduce_sum.1684 = f32[] parameter(1)
  ROOT %reduce_sum.1685 = f32[] add(%reduce_sum.1683, %reduce_sum.1684)
}

%region_295.313 (reduce_sum.1690: f32[], reduce_sum.1691: f32[]) -> f32[] {
  %reduce_sum.1690 = f32[] parameter(0)
  %reduce_sum.1691 = f32[] parameter(1)
  ROOT %reduce_sum.1692 = f32[] add(%reduce_sum.1690, %reduce_sum.1691)
}

%region_296.314 (reduce_sum.1697: f32[], reduce_sum.1698: f32[]) -> f32[] {
  %reduce_sum.1697 = f32[] parameter(0)
  %reduce_sum.1698 = f32[] parameter(1)
  ROOT %reduce_sum.1699 = f32[] add(%reduce_sum.1697, %reduce_sum.1698)
}

%region_286.304 (reduce_sum.1641: f32[], reduce_sum.1642: f32[]) -> f32[] {
  %reduce_sum.1641 = f32[] parameter(0)
  %reduce_sum.1642 = f32[] parameter(1)
  ROOT %reduce_sum.1643 = f32[] add(%reduce_sum.1641, %reduce_sum.1642)
}

%region_297.315 (reduce_sum.1704: f32[], reduce_sum.1705: f32[]) -> f32[] {
  %reduce_sum.1704 = f32[] parameter(0)
  %reduce_sum.1705 = f32[] parameter(1)
  ROOT %reduce_sum.1706 = f32[] add(%reduce_sum.1704, %reduce_sum.1705)
}

%region_305.323 (reduce_and.203: pred[], reduce_and.204: pred[]) -> pred[] {
  %reduce_and.203 = pred[] parameter(0)
  %reduce_and.204 = pred[] parameter(1)
  ROOT %reduce_and.205 = pred[] and(%reduce_and.203, %reduce_and.204)
}

%region_299.317 (reduce_sum.1718: f32[], reduce_sum.1719: f32[]) -> f32[] {
  %reduce_sum.1718 = f32[] parameter(0)
  %reduce_sum.1719 = f32[] parameter(1)
  ROOT %reduce_sum.1720 = f32[] add(%reduce_sum.1718, %reduce_sum.1719)
}

%region_300.318 (reduce_sum.1725: f32[], reduce_sum.1726: f32[]) -> f32[] {
  %reduce_sum.1725 = f32[] parameter(0)
  %reduce_sum.1726 = f32[] parameter(1)
  ROOT %reduce_sum.1727 = f32[] add(%reduce_sum.1725, %reduce_sum.1726)
}

%region_301.319 (reduce_sum.1732: f32[], reduce_sum.1733: f32[]) -> f32[] {
  %reduce_sum.1732 = f32[] parameter(0)
  %reduce_sum.1733 = f32[] parameter(1)
  ROOT %reduce_sum.1734 = f32[] add(%reduce_sum.1732, %reduce_sum.1733)
}

%region_303.321 (reduce_max.171: f32[], reduce_max.172: f32[]) -> f32[] {
  %reduce_max.171 = f32[] parameter(0)
  %reduce_max.172 = f32[] parameter(1)
  ROOT %reduce_max.173 = f32[] maximum(%reduce_max.171, %reduce_max.172)
}

%region_304.322 (reduce_sum.1746: f32[], reduce_sum.1747: f32[]) -> f32[] {
  %reduce_sum.1746 = f32[] parameter(0)
  %reduce_sum.1747 = f32[] parameter(1)
  ROOT %reduce_sum.1748 = f32[] add(%reduce_sum.1746, %reduce_sum.1747)
}

%region_302.320 (reduce_sum.1739: f32[], reduce_sum.1740: f32[]) -> f32[] {
  %reduce_sum.1739 = f32[] parameter(0)
  %reduce_sum.1740 = f32[] parameter(1)
  ROOT %reduce_sum.1741 = f32[] add(%reduce_sum.1739, %reduce_sum.1740)
}

%region_306.324 (reduce_sum.1753: f32[], reduce_sum.1754: f32[]) -> f32[] {
  %reduce_sum.1753 = f32[] parameter(0)
  %reduce_sum.1754 = f32[] parameter(1)
  ROOT %reduce_sum.1755 = f32[] add(%reduce_sum.1753, %reduce_sum.1754)
}

%region_307.325 (reduce_sum.1760: f32[], reduce_sum.1761: f32[]) -> f32[] {
  %reduce_sum.1760 = f32[] parameter(0)
  %reduce_sum.1761 = f32[] parameter(1)
  ROOT %reduce_sum.1762 = f32[] add(%reduce_sum.1760, %reduce_sum.1761)
}

%region_308.326 (reduce_sum.1767: f32[], reduce_sum.1768: f32[]) -> f32[] {
  %reduce_sum.1767 = f32[] parameter(0)
  %reduce_sum.1768 = f32[] parameter(1)
  ROOT %reduce_sum.1769 = f32[] add(%reduce_sum.1767, %reduce_sum.1768)
}

%region_298.316 (reduce_sum.1711: f32[], reduce_sum.1712: f32[]) -> f32[] {
  %reduce_sum.1711 = f32[] parameter(0)
  %reduce_sum.1712 = f32[] parameter(1)
  ROOT %reduce_sum.1713 = f32[] add(%reduce_sum.1711, %reduce_sum.1712)
}

%region_309.327 (reduce_sum.1774: f32[], reduce_sum.1775: f32[]) -> f32[] {
  %reduce_sum.1774 = f32[] parameter(0)
  %reduce_sum.1775 = f32[] parameter(1)
  ROOT %reduce_sum.1776 = f32[] add(%reduce_sum.1774, %reduce_sum.1775)
}

%region_317.335 (reduce_and.210: pred[], reduce_and.211: pred[]) -> pred[] {
  %reduce_and.210 = pred[] parameter(0)
  %reduce_and.211 = pred[] parameter(1)
  ROOT %reduce_and.212 = pred[] and(%reduce_and.210, %reduce_and.211)
}

%region_311.329 (reduce_sum.1788: f32[], reduce_sum.1789: f32[]) -> f32[] {
  %reduce_sum.1788 = f32[] parameter(0)
  %reduce_sum.1789 = f32[] parameter(1)
  ROOT %reduce_sum.1790 = f32[] add(%reduce_sum.1788, %reduce_sum.1789)
}

%region_312.330 (reduce_sum.1795: f32[], reduce_sum.1796: f32[]) -> f32[] {
  %reduce_sum.1795 = f32[] parameter(0)
  %reduce_sum.1796 = f32[] parameter(1)
  ROOT %reduce_sum.1797 = f32[] add(%reduce_sum.1795, %reduce_sum.1796)
}

%region_313.331 (reduce_sum.1802: f32[], reduce_sum.1803: f32[]) -> f32[] {
  %reduce_sum.1802 = f32[] parameter(0)
  %reduce_sum.1803 = f32[] parameter(1)
  ROOT %reduce_sum.1804 = f32[] add(%reduce_sum.1802, %reduce_sum.1803)
}

%region_315.333 (reduce_max.178: f32[], reduce_max.179: f32[]) -> f32[] {
  %reduce_max.178 = f32[] parameter(0)
  %reduce_max.179 = f32[] parameter(1)
  ROOT %reduce_max.180 = f32[] maximum(%reduce_max.178, %reduce_max.179)
}

%region_316.334 (reduce_sum.1816: f32[], reduce_sum.1817: f32[]) -> f32[] {
  %reduce_sum.1816 = f32[] parameter(0)
  %reduce_sum.1817 = f32[] parameter(1)
  ROOT %reduce_sum.1818 = f32[] add(%reduce_sum.1816, %reduce_sum.1817)
}

%region_314.332 (reduce_sum.1809: f32[], reduce_sum.1810: f32[]) -> f32[] {
  %reduce_sum.1809 = f32[] parameter(0)
  %reduce_sum.1810 = f32[] parameter(1)
  ROOT %reduce_sum.1811 = f32[] add(%reduce_sum.1809, %reduce_sum.1810)
}

%region_318.336 (reduce_sum.1823: f32[], reduce_sum.1824: f32[]) -> f32[] {
  %reduce_sum.1823 = f32[] parameter(0)
  %reduce_sum.1824 = f32[] parameter(1)
  ROOT %reduce_sum.1825 = f32[] add(%reduce_sum.1823, %reduce_sum.1824)
}

%region_319.337 (reduce_sum.1830: f32[], reduce_sum.1831: f32[]) -> f32[] {
  %reduce_sum.1830 = f32[] parameter(0)
  %reduce_sum.1831 = f32[] parameter(1)
  ROOT %reduce_sum.1832 = f32[] add(%reduce_sum.1830, %reduce_sum.1831)
}

%region_320.338 (reduce_sum.1837: f32[], reduce_sum.1838: f32[]) -> f32[] {
  %reduce_sum.1837 = f32[] parameter(0)
  %reduce_sum.1838 = f32[] parameter(1)
  ROOT %reduce_sum.1839 = f32[] add(%reduce_sum.1837, %reduce_sum.1838)
}

%region_310.328 (reduce_sum.1781: f32[], reduce_sum.1782: f32[]) -> f32[] {
  %reduce_sum.1781 = f32[] parameter(0)
  %reduce_sum.1782 = f32[] parameter(1)
  ROOT %reduce_sum.1783 = f32[] add(%reduce_sum.1781, %reduce_sum.1782)
}

%region_321.339 (reduce_sum.1844: f32[], reduce_sum.1845: f32[]) -> f32[] {
  %reduce_sum.1844 = f32[] parameter(0)
  %reduce_sum.1845 = f32[] parameter(1)
  ROOT %reduce_sum.1846 = f32[] add(%reduce_sum.1844, %reduce_sum.1845)
}

%region_329.347 (reduce_and.217: pred[], reduce_and.218: pred[]) -> pred[] {
  %reduce_and.217 = pred[] parameter(0)
  %reduce_and.218 = pred[] parameter(1)
  ROOT %reduce_and.219 = pred[] and(%reduce_and.217, %reduce_and.218)
}

%region_323.341 (reduce_sum.1858: f32[], reduce_sum.1859: f32[]) -> f32[] {
  %reduce_sum.1858 = f32[] parameter(0)
  %reduce_sum.1859 = f32[] parameter(1)
  ROOT %reduce_sum.1860 = f32[] add(%reduce_sum.1858, %reduce_sum.1859)
}

%region_324.342 (reduce_sum.1865: f32[], reduce_sum.1866: f32[]) -> f32[] {
  %reduce_sum.1865 = f32[] parameter(0)
  %reduce_sum.1866 = f32[] parameter(1)
  ROOT %reduce_sum.1867 = f32[] add(%reduce_sum.1865, %reduce_sum.1866)
}

%region_325.343 (reduce_sum.1872: f32[], reduce_sum.1873: f32[]) -> f32[] {
  %reduce_sum.1872 = f32[] parameter(0)
  %reduce_sum.1873 = f32[] parameter(1)
  ROOT %reduce_sum.1874 = f32[] add(%reduce_sum.1872, %reduce_sum.1873)
}

%region_327.345 (reduce_max.185: f32[], reduce_max.186: f32[]) -> f32[] {
  %reduce_max.185 = f32[] parameter(0)
  %reduce_max.186 = f32[] parameter(1)
  ROOT %reduce_max.187 = f32[] maximum(%reduce_max.185, %reduce_max.186)
}

%region_328.346 (reduce_sum.1886: f32[], reduce_sum.1887: f32[]) -> f32[] {
  %reduce_sum.1886 = f32[] parameter(0)
  %reduce_sum.1887 = f32[] parameter(1)
  ROOT %reduce_sum.1888 = f32[] add(%reduce_sum.1886, %reduce_sum.1887)
}

%region_326.344 (reduce_sum.1879: f32[], reduce_sum.1880: f32[]) -> f32[] {
  %reduce_sum.1879 = f32[] parameter(0)
  %reduce_sum.1880 = f32[] parameter(1)
  ROOT %reduce_sum.1881 = f32[] add(%reduce_sum.1879, %reduce_sum.1880)
}

%region_330.348 (reduce_sum.1893: f32[], reduce_sum.1894: f32[]) -> f32[] {
  %reduce_sum.1893 = f32[] parameter(0)
  %reduce_sum.1894 = f32[] parameter(1)
  ROOT %reduce_sum.1895 = f32[] add(%reduce_sum.1893, %reduce_sum.1894)
}

%region_331.349 (reduce_sum.1900: f32[], reduce_sum.1901: f32[]) -> f32[] {
  %reduce_sum.1900 = f32[] parameter(0)
  %reduce_sum.1901 = f32[] parameter(1)
  ROOT %reduce_sum.1902 = f32[] add(%reduce_sum.1900, %reduce_sum.1901)
}

%region_332.350 (reduce_sum.1907: f32[], reduce_sum.1908: f32[]) -> f32[] {
  %reduce_sum.1907 = f32[] parameter(0)
  %reduce_sum.1908 = f32[] parameter(1)
  ROOT %reduce_sum.1909 = f32[] add(%reduce_sum.1907, %reduce_sum.1908)
}

%region_322.340 (reduce_sum.1851: f32[], reduce_sum.1852: f32[]) -> f32[] {
  %reduce_sum.1851 = f32[] parameter(0)
  %reduce_sum.1852 = f32[] parameter(1)
  ROOT %reduce_sum.1853 = f32[] add(%reduce_sum.1851, %reduce_sum.1852)
}

%region_333.351 (reduce_sum.1914: f32[], reduce_sum.1915: f32[]) -> f32[] {
  %reduce_sum.1914 = f32[] parameter(0)
  %reduce_sum.1915 = f32[] parameter(1)
  ROOT %reduce_sum.1916 = f32[] add(%reduce_sum.1914, %reduce_sum.1915)
}

%region_341.359 (reduce_and.224: pred[], reduce_and.225: pred[]) -> pred[] {
  %reduce_and.224 = pred[] parameter(0)
  %reduce_and.225 = pred[] parameter(1)
  ROOT %reduce_and.226 = pred[] and(%reduce_and.224, %reduce_and.225)
}

%region_335.353 (reduce_sum.1928: f32[], reduce_sum.1929: f32[]) -> f32[] {
  %reduce_sum.1928 = f32[] parameter(0)
  %reduce_sum.1929 = f32[] parameter(1)
  ROOT %reduce_sum.1930 = f32[] add(%reduce_sum.1928, %reduce_sum.1929)
}

%region_336.354 (reduce_sum.1935: f32[], reduce_sum.1936: f32[]) -> f32[] {
  %reduce_sum.1935 = f32[] parameter(0)
  %reduce_sum.1936 = f32[] parameter(1)
  ROOT %reduce_sum.1937 = f32[] add(%reduce_sum.1935, %reduce_sum.1936)
}

%region_337.355 (reduce_sum.1942: f32[], reduce_sum.1943: f32[]) -> f32[] {
  %reduce_sum.1942 = f32[] parameter(0)
  %reduce_sum.1943 = f32[] parameter(1)
  ROOT %reduce_sum.1944 = f32[] add(%reduce_sum.1942, %reduce_sum.1943)
}

%region_339.357 (reduce_max.192: f32[], reduce_max.193: f32[]) -> f32[] {
  %reduce_max.192 = f32[] parameter(0)
  %reduce_max.193 = f32[] parameter(1)
  ROOT %reduce_max.194 = f32[] maximum(%reduce_max.192, %reduce_max.193)
}

%region_340.358 (reduce_sum.1956: f32[], reduce_sum.1957: f32[]) -> f32[] {
  %reduce_sum.1956 = f32[] parameter(0)
  %reduce_sum.1957 = f32[] parameter(1)
  ROOT %reduce_sum.1958 = f32[] add(%reduce_sum.1956, %reduce_sum.1957)
}

%region_338.356 (reduce_sum.1949: f32[], reduce_sum.1950: f32[]) -> f32[] {
  %reduce_sum.1949 = f32[] parameter(0)
  %reduce_sum.1950 = f32[] parameter(1)
  ROOT %reduce_sum.1951 = f32[] add(%reduce_sum.1949, %reduce_sum.1950)
}

%region_342.360 (reduce_sum.1963: f32[], reduce_sum.1964: f32[]) -> f32[] {
  %reduce_sum.1963 = f32[] parameter(0)
  %reduce_sum.1964 = f32[] parameter(1)
  ROOT %reduce_sum.1965 = f32[] add(%reduce_sum.1963, %reduce_sum.1964)
}

%region_343.361 (reduce_sum.1970: f32[], reduce_sum.1971: f32[]) -> f32[] {
  %reduce_sum.1970 = f32[] parameter(0)
  %reduce_sum.1971 = f32[] parameter(1)
  ROOT %reduce_sum.1972 = f32[] add(%reduce_sum.1970, %reduce_sum.1971)
}

%region_344.362 (reduce_sum.1977: f32[], reduce_sum.1978: f32[]) -> f32[] {
  %reduce_sum.1977 = f32[] parameter(0)
  %reduce_sum.1978 = f32[] parameter(1)
  ROOT %reduce_sum.1979 = f32[] add(%reduce_sum.1977, %reduce_sum.1978)
}

%region_334.352 (reduce_sum.1921: f32[], reduce_sum.1922: f32[]) -> f32[] {
  %reduce_sum.1921 = f32[] parameter(0)
  %reduce_sum.1922 = f32[] parameter(1)
  ROOT %reduce_sum.1923 = f32[] add(%reduce_sum.1921, %reduce_sum.1922)
}

%region_345.363 (reduce_sum.1984: f32[], reduce_sum.1985: f32[]) -> f32[] {
  %reduce_sum.1984 = f32[] parameter(0)
  %reduce_sum.1985 = f32[] parameter(1)
  ROOT %reduce_sum.1986 = f32[] add(%reduce_sum.1984, %reduce_sum.1985)
}

%region_353.371 (reduce_and.231: pred[], reduce_and.232: pred[]) -> pred[] {
  %reduce_and.231 = pred[] parameter(0)
  %reduce_and.232 = pred[] parameter(1)
  ROOT %reduce_and.233 = pred[] and(%reduce_and.231, %reduce_and.232)
}

%region_347.365 (reduce_sum.1998: f32[], reduce_sum.1999: f32[]) -> f32[] {
  %reduce_sum.1998 = f32[] parameter(0)
  %reduce_sum.1999 = f32[] parameter(1)
  ROOT %reduce_sum.2000 = f32[] add(%reduce_sum.1998, %reduce_sum.1999)
}

%region_348.366 (reduce_sum.2005: f32[], reduce_sum.2006: f32[]) -> f32[] {
  %reduce_sum.2005 = f32[] parameter(0)
  %reduce_sum.2006 = f32[] parameter(1)
  ROOT %reduce_sum.2007 = f32[] add(%reduce_sum.2005, %reduce_sum.2006)
}

%region_349.367 (reduce_sum.2012: f32[], reduce_sum.2013: f32[]) -> f32[] {
  %reduce_sum.2012 = f32[] parameter(0)
  %reduce_sum.2013 = f32[] parameter(1)
  ROOT %reduce_sum.2014 = f32[] add(%reduce_sum.2012, %reduce_sum.2013)
}

%region_351.369 (reduce_max.199: f32[], reduce_max.200: f32[]) -> f32[] {
  %reduce_max.199 = f32[] parameter(0)
  %reduce_max.200 = f32[] parameter(1)
  ROOT %reduce_max.201 = f32[] maximum(%reduce_max.199, %reduce_max.200)
}

%region_352.370 (reduce_sum.2026: f32[], reduce_sum.2027: f32[]) -> f32[] {
  %reduce_sum.2026 = f32[] parameter(0)
  %reduce_sum.2027 = f32[] parameter(1)
  ROOT %reduce_sum.2028 = f32[] add(%reduce_sum.2026, %reduce_sum.2027)
}

%region_350.368 (reduce_sum.2019: f32[], reduce_sum.2020: f32[]) -> f32[] {
  %reduce_sum.2019 = f32[] parameter(0)
  %reduce_sum.2020 = f32[] parameter(1)
  ROOT %reduce_sum.2021 = f32[] add(%reduce_sum.2019, %reduce_sum.2020)
}

%region_354.372 (reduce_sum.2033: f32[], reduce_sum.2034: f32[]) -> f32[] {
  %reduce_sum.2033 = f32[] parameter(0)
  %reduce_sum.2034 = f32[] parameter(1)
  ROOT %reduce_sum.2035 = f32[] add(%reduce_sum.2033, %reduce_sum.2034)
}

%region_355.373 (reduce_sum.2040: f32[], reduce_sum.2041: f32[]) -> f32[] {
  %reduce_sum.2040 = f32[] parameter(0)
  %reduce_sum.2041 = f32[] parameter(1)
  ROOT %reduce_sum.2042 = f32[] add(%reduce_sum.2040, %reduce_sum.2041)
}

%region_356.374 (reduce_sum.2047: f32[], reduce_sum.2048: f32[]) -> f32[] {
  %reduce_sum.2047 = f32[] parameter(0)
  %reduce_sum.2048 = f32[] parameter(1)
  ROOT %reduce_sum.2049 = f32[] add(%reduce_sum.2047, %reduce_sum.2048)
}

%region_346.364 (reduce_sum.1991: f32[], reduce_sum.1992: f32[]) -> f32[] {
  %reduce_sum.1991 = f32[] parameter(0)
  %reduce_sum.1992 = f32[] parameter(1)
  ROOT %reduce_sum.1993 = f32[] add(%reduce_sum.1991, %reduce_sum.1992)
}

%region_357.375 (reduce_sum.2054: f32[], reduce_sum.2055: f32[]) -> f32[] {
  %reduce_sum.2054 = f32[] parameter(0)
  %reduce_sum.2055 = f32[] parameter(1)
  ROOT %reduce_sum.2056 = f32[] add(%reduce_sum.2054, %reduce_sum.2055)
}

%region_363.381 (reduce_and.238: pred[], reduce_and.239: pred[]) -> pred[] {
  %reduce_and.238 = pred[] parameter(0)
  %reduce_and.239 = pred[] parameter(1)
  ROOT %reduce_and.240 = pred[] and(%reduce_and.238, %reduce_and.239)
}

%region_359.377 (reduce_sum.2068: f32[], reduce_sum.2069: f32[]) -> f32[] {
  %reduce_sum.2068 = f32[] parameter(0)
  %reduce_sum.2069 = f32[] parameter(1)
  ROOT %reduce_sum.2070 = f32[] add(%reduce_sum.2068, %reduce_sum.2069)
}

%region_360.378 (reduce_sum.2075: f32[], reduce_sum.2076: f32[]) -> f32[] {
  %reduce_sum.2075 = f32[] parameter(0)
  %reduce_sum.2076 = f32[] parameter(1)
  ROOT %reduce_sum.2077 = f32[] add(%reduce_sum.2075, %reduce_sum.2076)
}

%region_361.379 (reduce_max.206: f32[], reduce_max.207: f32[]) -> f32[] {
  %reduce_max.206 = f32[] parameter(0)
  %reduce_max.207 = f32[] parameter(1)
  ROOT %reduce_max.208 = f32[] maximum(%reduce_max.206, %reduce_max.207)
}

%region_362.380 (reduce_sum.2082: f32[], reduce_sum.2083: f32[]) -> f32[] {
  %reduce_sum.2082 = f32[] parameter(0)
  %reduce_sum.2083 = f32[] parameter(1)
  ROOT %reduce_sum.2084 = f32[] add(%reduce_sum.2082, %reduce_sum.2083)
}

%region_364.382 (reduce_sum.2089: f32[], reduce_sum.2090: f32[]) -> f32[] {
  %reduce_sum.2089 = f32[] parameter(0)
  %reduce_sum.2090 = f32[] parameter(1)
  ROOT %reduce_sum.2091 = f32[] add(%reduce_sum.2089, %reduce_sum.2090)
}

%region_365.383 (reduce_sum.2096: f32[], reduce_sum.2097: f32[]) -> f32[] {
  %reduce_sum.2096 = f32[] parameter(0)
  %reduce_sum.2097 = f32[] parameter(1)
  ROOT %reduce_sum.2098 = f32[] add(%reduce_sum.2096, %reduce_sum.2097)
}

%region_366.384 (reduce_sum.2103: f32[], reduce_sum.2104: f32[]) -> f32[] {
  %reduce_sum.2103 = f32[] parameter(0)
  %reduce_sum.2104 = f32[] parameter(1)
  ROOT %reduce_sum.2105 = f32[] add(%reduce_sum.2103, %reduce_sum.2104)
}

%region_358.376 (reduce_sum.2061: f32[], reduce_sum.2062: f32[]) -> f32[] {
  %reduce_sum.2061 = f32[] parameter(0)
  %reduce_sum.2062 = f32[] parameter(1)
  ROOT %reduce_sum.2063 = f32[] add(%reduce_sum.2061, %reduce_sum.2062)
}

%region_367.385 (reduce_sum.2110: f32[], reduce_sum.2111: f32[]) -> f32[] {
  %reduce_sum.2110 = f32[] parameter(0)
  %reduce_sum.2111 = f32[] parameter(1)
  ROOT %reduce_sum.2112 = f32[] add(%reduce_sum.2110, %reduce_sum.2111)
}

%region_373.391 (reduce_and.245: pred[], reduce_and.246: pred[]) -> pred[] {
  %reduce_and.245 = pred[] parameter(0)
  %reduce_and.246 = pred[] parameter(1)
  ROOT %reduce_and.247 = pred[] and(%reduce_and.245, %reduce_and.246)
}

%region_369.387 (reduce_sum.2124: f32[], reduce_sum.2125: f32[]) -> f32[] {
  %reduce_sum.2124 = f32[] parameter(0)
  %reduce_sum.2125 = f32[] parameter(1)
  ROOT %reduce_sum.2126 = f32[] add(%reduce_sum.2124, %reduce_sum.2125)
}

%region_370.388 (reduce_sum.2131: f32[], reduce_sum.2132: f32[]) -> f32[] {
  %reduce_sum.2131 = f32[] parameter(0)
  %reduce_sum.2132 = f32[] parameter(1)
  ROOT %reduce_sum.2133 = f32[] add(%reduce_sum.2131, %reduce_sum.2132)
}

%region_371.389 (reduce_max.213: f32[], reduce_max.214: f32[]) -> f32[] {
  %reduce_max.213 = f32[] parameter(0)
  %reduce_max.214 = f32[] parameter(1)
  ROOT %reduce_max.215 = f32[] maximum(%reduce_max.213, %reduce_max.214)
}

%region_372.390 (reduce_sum.2138: f32[], reduce_sum.2139: f32[]) -> f32[] {
  %reduce_sum.2138 = f32[] parameter(0)
  %reduce_sum.2139 = f32[] parameter(1)
  ROOT %reduce_sum.2140 = f32[] add(%reduce_sum.2138, %reduce_sum.2139)
}

%region_374.392 (reduce_sum.2145: f32[], reduce_sum.2146: f32[]) -> f32[] {
  %reduce_sum.2145 = f32[] parameter(0)
  %reduce_sum.2146 = f32[] parameter(1)
  ROOT %reduce_sum.2147 = f32[] add(%reduce_sum.2145, %reduce_sum.2146)
}

%region_375.393 (reduce_sum.2152: f32[], reduce_sum.2153: f32[]) -> f32[] {
  %reduce_sum.2152 = f32[] parameter(0)
  %reduce_sum.2153 = f32[] parameter(1)
  ROOT %reduce_sum.2154 = f32[] add(%reduce_sum.2152, %reduce_sum.2153)
}

%region_376.394 (reduce_sum.2159: f32[], reduce_sum.2160: f32[]) -> f32[] {
  %reduce_sum.2159 = f32[] parameter(0)
  %reduce_sum.2160 = f32[] parameter(1)
  ROOT %reduce_sum.2161 = f32[] add(%reduce_sum.2159, %reduce_sum.2160)
}

%region_368.386 (reduce_sum.2117: f32[], reduce_sum.2118: f32[]) -> f32[] {
  %reduce_sum.2117 = f32[] parameter(0)
  %reduce_sum.2118 = f32[] parameter(1)
  ROOT %reduce_sum.2119 = f32[] add(%reduce_sum.2117, %reduce_sum.2118)
}

%region_377.395 (reduce_sum.2166: f32[], reduce_sum.2167: f32[]) -> f32[] {
  %reduce_sum.2166 = f32[] parameter(0)
  %reduce_sum.2167 = f32[] parameter(1)
  ROOT %reduce_sum.2168 = f32[] add(%reduce_sum.2166, %reduce_sum.2167)
}

%region_383.401 (reduce_and.252: pred[], reduce_and.253: pred[]) -> pred[] {
  %reduce_and.252 = pred[] parameter(0)
  %reduce_and.253 = pred[] parameter(1)
  ROOT %reduce_and.254 = pred[] and(%reduce_and.252, %reduce_and.253)
}

%region_379.397 (reduce_sum.2180: f32[], reduce_sum.2181: f32[]) -> f32[] {
  %reduce_sum.2180 = f32[] parameter(0)
  %reduce_sum.2181 = f32[] parameter(1)
  ROOT %reduce_sum.2182 = f32[] add(%reduce_sum.2180, %reduce_sum.2181)
}

%region_380.398 (reduce_sum.2187: f32[], reduce_sum.2188: f32[]) -> f32[] {
  %reduce_sum.2187 = f32[] parameter(0)
  %reduce_sum.2188 = f32[] parameter(1)
  ROOT %reduce_sum.2189 = f32[] add(%reduce_sum.2187, %reduce_sum.2188)
}

%region_381.399 (reduce_max.220: f32[], reduce_max.221: f32[]) -> f32[] {
  %reduce_max.220 = f32[] parameter(0)
  %reduce_max.221 = f32[] parameter(1)
  ROOT %reduce_max.222 = f32[] maximum(%reduce_max.220, %reduce_max.221)
}

%region_382.400 (reduce_sum.2194: f32[], reduce_sum.2195: f32[]) -> f32[] {
  %reduce_sum.2194 = f32[] parameter(0)
  %reduce_sum.2195 = f32[] parameter(1)
  ROOT %reduce_sum.2196 = f32[] add(%reduce_sum.2194, %reduce_sum.2195)
}

%region_384.402 (reduce_sum.2201: f32[], reduce_sum.2202: f32[]) -> f32[] {
  %reduce_sum.2201 = f32[] parameter(0)
  %reduce_sum.2202 = f32[] parameter(1)
  ROOT %reduce_sum.2203 = f32[] add(%reduce_sum.2201, %reduce_sum.2202)
}

%region_385.403 (reduce_sum.2208: f32[], reduce_sum.2209: f32[]) -> f32[] {
  %reduce_sum.2208 = f32[] parameter(0)
  %reduce_sum.2209 = f32[] parameter(1)
  ROOT %reduce_sum.2210 = f32[] add(%reduce_sum.2208, %reduce_sum.2209)
}

%region_386.404 (reduce_sum.2215: f32[], reduce_sum.2216: f32[]) -> f32[] {
  %reduce_sum.2215 = f32[] parameter(0)
  %reduce_sum.2216 = f32[] parameter(1)
  ROOT %reduce_sum.2217 = f32[] add(%reduce_sum.2215, %reduce_sum.2216)
}

%region_378.396 (reduce_sum.2173: f32[], reduce_sum.2174: f32[]) -> f32[] {
  %reduce_sum.2173 = f32[] parameter(0)
  %reduce_sum.2174 = f32[] parameter(1)
  ROOT %reduce_sum.2175 = f32[] add(%reduce_sum.2173, %reduce_sum.2174)
}

%region_387.405 (reduce_sum.2222: f32[], reduce_sum.2223: f32[]) -> f32[] {
  %reduce_sum.2222 = f32[] parameter(0)
  %reduce_sum.2223 = f32[] parameter(1)
  ROOT %reduce_sum.2224 = f32[] add(%reduce_sum.2222, %reduce_sum.2223)
}

%region_393.411 (reduce_and.259: pred[], reduce_and.260: pred[]) -> pred[] {
  %reduce_and.259 = pred[] parameter(0)
  %reduce_and.260 = pred[] parameter(1)
  ROOT %reduce_and.261 = pred[] and(%reduce_and.259, %reduce_and.260)
}

%region_389.407 (reduce_sum.2236: f32[], reduce_sum.2237: f32[]) -> f32[] {
  %reduce_sum.2236 = f32[] parameter(0)
  %reduce_sum.2237 = f32[] parameter(1)
  ROOT %reduce_sum.2238 = f32[] add(%reduce_sum.2236, %reduce_sum.2237)
}

%region_390.408 (reduce_sum.2243: f32[], reduce_sum.2244: f32[]) -> f32[] {
  %reduce_sum.2243 = f32[] parameter(0)
  %reduce_sum.2244 = f32[] parameter(1)
  ROOT %reduce_sum.2245 = f32[] add(%reduce_sum.2243, %reduce_sum.2244)
}

%region_391.409 (reduce_max.227: f32[], reduce_max.228: f32[]) -> f32[] {
  %reduce_max.227 = f32[] parameter(0)
  %reduce_max.228 = f32[] parameter(1)
  ROOT %reduce_max.229 = f32[] maximum(%reduce_max.227, %reduce_max.228)
}

%region_392.410 (reduce_sum.2250: f32[], reduce_sum.2251: f32[]) -> f32[] {
  %reduce_sum.2250 = f32[] parameter(0)
  %reduce_sum.2251 = f32[] parameter(1)
  ROOT %reduce_sum.2252 = f32[] add(%reduce_sum.2250, %reduce_sum.2251)
}

%region_394.412 (reduce_sum.2257: f32[], reduce_sum.2258: f32[]) -> f32[] {
  %reduce_sum.2257 = f32[] parameter(0)
  %reduce_sum.2258 = f32[] parameter(1)
  ROOT %reduce_sum.2259 = f32[] add(%reduce_sum.2257, %reduce_sum.2258)
}

%region_395.413 (reduce_sum.2264: f32[], reduce_sum.2265: f32[]) -> f32[] {
  %reduce_sum.2264 = f32[] parameter(0)
  %reduce_sum.2265 = f32[] parameter(1)
  ROOT %reduce_sum.2266 = f32[] add(%reduce_sum.2264, %reduce_sum.2265)
}

%region_396.414 (reduce_sum.2271: f32[], reduce_sum.2272: f32[]) -> f32[] {
  %reduce_sum.2271 = f32[] parameter(0)
  %reduce_sum.2272 = f32[] parameter(1)
  ROOT %reduce_sum.2273 = f32[] add(%reduce_sum.2271, %reduce_sum.2272)
}

%region_388.406 (reduce_sum.2229: f32[], reduce_sum.2230: f32[]) -> f32[] {
  %reduce_sum.2229 = f32[] parameter(0)
  %reduce_sum.2230 = f32[] parameter(1)
  ROOT %reduce_sum.2231 = f32[] add(%reduce_sum.2229, %reduce_sum.2230)
}

%region_397.415 (reduce_sum.2278: f32[], reduce_sum.2279: f32[]) -> f32[] {
  %reduce_sum.2278 = f32[] parameter(0)
  %reduce_sum.2279 = f32[] parameter(1)
  ROOT %reduce_sum.2280 = f32[] add(%reduce_sum.2278, %reduce_sum.2279)
}

%region_403.421 (reduce_and.266: pred[], reduce_and.267: pred[]) -> pred[] {
  %reduce_and.266 = pred[] parameter(0)
  %reduce_and.267 = pred[] parameter(1)
  ROOT %reduce_and.268 = pred[] and(%reduce_and.266, %reduce_and.267)
}

%region_399.417 (reduce_sum.2292: f32[], reduce_sum.2293: f32[]) -> f32[] {
  %reduce_sum.2292 = f32[] parameter(0)
  %reduce_sum.2293 = f32[] parameter(1)
  ROOT %reduce_sum.2294 = f32[] add(%reduce_sum.2292, %reduce_sum.2293)
}

%region_400.418 (reduce_sum.2299: f32[], reduce_sum.2300: f32[]) -> f32[] {
  %reduce_sum.2299 = f32[] parameter(0)
  %reduce_sum.2300 = f32[] parameter(1)
  ROOT %reduce_sum.2301 = f32[] add(%reduce_sum.2299, %reduce_sum.2300)
}

%region_401.419 (reduce_max.234: f32[], reduce_max.235: f32[]) -> f32[] {
  %reduce_max.234 = f32[] parameter(0)
  %reduce_max.235 = f32[] parameter(1)
  ROOT %reduce_max.236 = f32[] maximum(%reduce_max.234, %reduce_max.235)
}

%region_402.420 (reduce_sum.2306: f32[], reduce_sum.2307: f32[]) -> f32[] {
  %reduce_sum.2306 = f32[] parameter(0)
  %reduce_sum.2307 = f32[] parameter(1)
  ROOT %reduce_sum.2308 = f32[] add(%reduce_sum.2306, %reduce_sum.2307)
}

%region_404.422 (reduce_sum.2313: f32[], reduce_sum.2314: f32[]) -> f32[] {
  %reduce_sum.2313 = f32[] parameter(0)
  %reduce_sum.2314 = f32[] parameter(1)
  ROOT %reduce_sum.2315 = f32[] add(%reduce_sum.2313, %reduce_sum.2314)
}

%region_405.423 (reduce_sum.2320: f32[], reduce_sum.2321: f32[]) -> f32[] {
  %reduce_sum.2320 = f32[] parameter(0)
  %reduce_sum.2321 = f32[] parameter(1)
  ROOT %reduce_sum.2322 = f32[] add(%reduce_sum.2320, %reduce_sum.2321)
}

%region_406.424 (reduce_sum.2327: f32[], reduce_sum.2328: f32[]) -> f32[] {
  %reduce_sum.2327 = f32[] parameter(0)
  %reduce_sum.2328 = f32[] parameter(1)
  ROOT %reduce_sum.2329 = f32[] add(%reduce_sum.2327, %reduce_sum.2328)
}

%region_398.416 (reduce_sum.2285: f32[], reduce_sum.2286: f32[]) -> f32[] {
  %reduce_sum.2285 = f32[] parameter(0)
  %reduce_sum.2286 = f32[] parameter(1)
  ROOT %reduce_sum.2287 = f32[] add(%reduce_sum.2285, %reduce_sum.2286)
}

%region_407.425 (reduce_sum.2334: f32[], reduce_sum.2335: f32[]) -> f32[] {
  %reduce_sum.2334 = f32[] parameter(0)
  %reduce_sum.2335 = f32[] parameter(1)
  ROOT %reduce_sum.2336 = f32[] add(%reduce_sum.2334, %reduce_sum.2335)
}

%region_413.431 (reduce_and.273: pred[], reduce_and.274: pred[]) -> pred[] {
  %reduce_and.273 = pred[] parameter(0)
  %reduce_and.274 = pred[] parameter(1)
  ROOT %reduce_and.275 = pred[] and(%reduce_and.273, %reduce_and.274)
}

%region_409.427 (reduce_sum.2348: f32[], reduce_sum.2349: f32[]) -> f32[] {
  %reduce_sum.2348 = f32[] parameter(0)
  %reduce_sum.2349 = f32[] parameter(1)
  ROOT %reduce_sum.2350 = f32[] add(%reduce_sum.2348, %reduce_sum.2349)
}

%region_410.428 (reduce_sum.2355: f32[], reduce_sum.2356: f32[]) -> f32[] {
  %reduce_sum.2355 = f32[] parameter(0)
  %reduce_sum.2356 = f32[] parameter(1)
  ROOT %reduce_sum.2357 = f32[] add(%reduce_sum.2355, %reduce_sum.2356)
}

%region_411.429 (reduce_max.241: f32[], reduce_max.242: f32[]) -> f32[] {
  %reduce_max.241 = f32[] parameter(0)
  %reduce_max.242 = f32[] parameter(1)
  ROOT %reduce_max.243 = f32[] maximum(%reduce_max.241, %reduce_max.242)
}

%region_412.430 (reduce_sum.2362: f32[], reduce_sum.2363: f32[]) -> f32[] {
  %reduce_sum.2362 = f32[] parameter(0)
  %reduce_sum.2363 = f32[] parameter(1)
  ROOT %reduce_sum.2364 = f32[] add(%reduce_sum.2362, %reduce_sum.2363)
}

%region_414.432 (reduce_sum.2369: f32[], reduce_sum.2370: f32[]) -> f32[] {
  %reduce_sum.2369 = f32[] parameter(0)
  %reduce_sum.2370 = f32[] parameter(1)
  ROOT %reduce_sum.2371 = f32[] add(%reduce_sum.2369, %reduce_sum.2370)
}

%region_415.433 (reduce_sum.2376: f32[], reduce_sum.2377: f32[]) -> f32[] {
  %reduce_sum.2376 = f32[] parameter(0)
  %reduce_sum.2377 = f32[] parameter(1)
  ROOT %reduce_sum.2378 = f32[] add(%reduce_sum.2376, %reduce_sum.2377)
}

%region_416.434 (reduce_sum.2383: f32[], reduce_sum.2384: f32[]) -> f32[] {
…
  %state_2__1051_.1 = bf16[] parameter(1934)
  %state_1__632_.1 = bf16[1536]{0} parameter(635)
  %state_1__634_.1 = bf16[8,1536,256]{2,1,0} parameter(637)
  %state_1__635_.1 = bf16[256]{0} parameter(638)
  %state_1__636_.1 = bf16[8,256,1536]{2,1,0} parameter(639)
  %state_1__633_.1 = bf16[1536]{0} parameter(636)
  %state_1__637_.1 = bf16[1536]{0} parameter(640)
  %state_1__639_.1 = bf16[1536,12288]{1,0} parameter(642)
  %state_1__640_.1 = bf16[1536,12288]{1,0} parameter(643)
  %state_1__641_.1 = bf16[12288,1536]{1,0} parameter(644)
  %state_1__638_.1 = bf16[1536]{0} parameter(641)
  %state_1__642_.1 = bf16[1536,256]{1,0} parameter(645)
  %state_1__643_.1 = bf16[256,1536]{1,0} parameter(646)
  %state_1__644_.1 = bf16[1536]{0} parameter(647)
  %state_2__1052_.1 = bf16[] parameter(1935)
  %state_1__645_.1 = bf16[1536]{0} parameter(648)
  %state_1__647_.1 = bf16[8,1536,256]{2,1,0} parameter(650)
  %state_1__648_.1 = bf16[256]{0} parameter(651)
  %state_1__649_.1 = bf16[8,256,1536]{2,1,0} parameter(652)
  %state_1__646_.1 = bf16[1536]{0} parameter(649)
  %state_1__650_.1 = bf16[1536]{0} parameter(653)
  %state_1__652_.1 = bf16[1536,12288]{1,0} parameter(655)
  %state_1__653_.1 = bf16[1536,12288]{1,0} parameter(656)
  %state_1__654_.1 = bf16[12288,1536]{1,0} parameter(657)
  %state_1__651_.1 = bf16[1536]{0} parameter(654)
  %state_1__655_.1 = bf16[1536,256]{1,0} parameter(658)
  %state_1__656_.1 = bf16[256,1536]{1,0} parameter(659)
  %state_1__657_.1 = bf16[1536]{0} parameter(660)
  %state_2__1053_.1 = bf16[] parameter(1936)
  %state_1__658_.1 = bf16[1536]{0} parameter(661)
  %state_1__660_.1 = bf16[8,1536,256]{2,1,0} parameter(663)
  %state_1__661_.1 = bf16[256]{0} parameter(664)
  %state_1__662_.1 = bf16[8,256,1536]{2,1,0} parameter(665)
  %state_1__659_.1 = bf16[1536]{0} parameter(662)
  %state_1__663_.1 = bf16[1536]{0} parameter(666)
  %state_1__665_.1 = bf16[1536,12288]{1,0} parameter(668)
  %state_1__666_.1 = bf16[1536,12288]{1,0} parameter(669)
  %state_1__667_.1 = bf16[12288,1536]{1,0} parameter(670)
  %state_1__664_.1 = bf16[1536]{0} parameter(667)
  %state_1__668_.1 = bf16[1536,256]{1,0} parameter(671)
  %state_1__669_.1 = bf16[256,1536]{1,0} parameter(672)
  %state_1__670_.1 = bf16[1536]{0} parameter(673)
  %state_2__1054_.1 = bf16[] parameter(1937)
  %state_1__671_.1 = bf16[1536]{0} parameter(674)
  %state_1__673_.1 = bf16[8,1536,512]{2,1,0} parameter(676)
  %state_1__674_.1 = bf16[512]{0} parameter(677)
  %state_1__675_.1 = bf16[8,512,1536]{2,1,0} parameter(678)
  %state_1__672_.1 = bf16[1536]{0} parameter(675)
  %state_1__676_.1 = bf16[1536]{0} parameter(679)
  %state_1__678_.1 = bf16[1536,12288]{1,0} parameter(681)
  %state_1__679_.1 = bf16[1536,12288]{1,0} parameter(682)
  %state_1__680_.1 = bf16[12288,1536]{1,0} parameter(683)
  %state_1__677_.1 = bf16[1536]{0} parameter(680)
  %state_1__681_.1 = bf16[1536,256]{1,0} parameter(684)
  %state_1__682_.1 = bf16[256,1536]{1,0} parameter(685)
  %state_1__683_.1 = bf16[1536]{0} parameter(686)
  %state_2__1055_.1 = bf16[] parameter(1938)
  %state_1__684_.1 = bf16[1536]{0} parameter(687)
  %state_1__686_.1 = bf16[8,1536,256]{2,1,0} parameter(689)
  %state_1__687_.1 = bf16[256]{0} parameter(690)
  %state_1__688_.1 = bf16[8,256,1536]{2,1,0} parameter(691)
  %state_1__685_.1 = bf16[1536]{0} parameter(688)
  %state_1__689_.1 = bf16[1536]{0} parameter(692)
  %state_1__691_.1 = bf16[1536,12288]{1,0} parameter(694)
  %state_1__692_.1 = bf16[1536,12288]{1,0} parameter(695)
  %state_1__693_.1 = bf16[12288,1536]{1,0} parameter(696)
  %state_1__690_.1 = bf16[1536]{0} parameter(693)
  %state_1__694_.1 = bf16[1536,256]{1,0} parameter(697)
  %state_1__695_.1 = bf16[256,1536]{1,0} parameter(698)
  %state_1__696_.1 = bf16[1536]{0} parameter(699)
  %state_2__1056_.1 = bf16[] parameter(1939)
  %state_1__697_.1 = bf16[1536]{0} parameter(700)
  %state_1__699_.1 = bf16[8,1536,256]{2,1,0} parameter(702)
  %state_1__700_.1 = bf16[256]{0} parameter(703)
  %state_1__701_.1 = bf16[8,256,1536]{2,1,0} parameter(704)
  %state_1__698_.1 = bf16[1536]{0} parameter(701)
  %state_1__702_.1 = bf16[1536]{0} parameter(705)
  %state_1__704_.1 = bf16[1536,12288]{1,0} parameter(707)
  %state_1__705_.1 = bf16[1536,12288]{1,0} parameter(708)
  %state_1__706_.1 = bf16[12288,1536]{1,0} parameter(709)
  %state_1__703_.1 = bf16[1536]{0} parameter(706)
  %state_1__707_.1 = bf16[1536,256]{1,0} parameter(710)
  %state_1__708_.1 = bf16[256,1536]{1,0} parameter(711)
  %state_1__709_.1 = bf16[1536]{0} parameter(712)
  %state_2__1057_.1 = bf16[] parameter(1940)
  %state_1__710_.1 = bf16[1536]{0} parameter(713)
  %state_1__712_.1 = bf16[8,1536,256]{2,1,0} parameter(715)
  %state_1__713_.1 = bf16[256]{0} parameter(716)
  %state_1__714_.1 = bf16[8,256,1536]{2,1,0} parameter(717)
  %state_1__711_.1 = bf16[1536]{0} parameter(714)
  %state_1__715_.1 = bf16[1536]{0} parameter(718)
  %state_1__717_.1 = bf16[1536,12288]{1,0} parameter(720)
  %state_1__718_.1 = bf16[1536,12288]{1,0} parameter(721)
  %state_1__719_.1 = bf16[12288,1536]{1,0} parameter(722)
  %state_1__716_.1 = bf16[1536]{0} parameter(719)
  %state_1__720_.1 = bf16[1536,256]{1,0} parameter(723)
  %state_1__721_.1 = bf16[256,1536]{1,0} parameter(724)
  %state_1__722_.1 = bf16[1536]{0} parameter(725)
  %state_2__1058_.1 = bf16[] parameter(1941)
  %state_1__723_.1 = bf16[1536]{0} parameter(726)
  %state_1__725_.1 = bf16[8,1536,256]{2,1,0} parameter(728)
  %state_1__726_.1 = bf16[256]{0} parameter(729)
  %state_1__727_.1 = bf16[8,256,1536]{2,1,0} parameter(730)
  %state_1__724_.1 = bf16[1536]{0} parameter(727)
  %state_1__728_.1 = bf16[1536]{0} parameter(731)
  %state_1__730_.1 = bf16[1536,12288]{1,0} parameter(733)
  %state_1__731_.1 = bf16[1536,12288]{1,0} parameter(734)
  %state_1__732_.1 = bf16[12288,1536]{1,0} parameter(735)
  %state_1__729_.1 = bf16[1536]{0} parameter(732)
  %state_1__733_.1 = bf16[1536,256]{1,0} parameter(736)
  %state_1__734_.1 = bf16[256,1536]{1,0} parameter(737)
  %state_1__735_.1 = bf16[1536]{0} parameter(738)
  %state_2__1059_.1 = bf16[] parameter(1942)
  %state_1__736_.1 = bf16[1536]{0} parameter(739)
  %state_1__738_.1 = bf16[8,1536,512]{2,1,0} parameter(741)
  %state_1__739_.1 = bf16[512]{0} parameter(742)
  %state_1__740_.1 = bf16[8,512,1536]{2,1,0} parameter(743)
  %state_1__737_.1 = bf16[1536]{0} parameter(740)
  %state_1__741_.1 = bf16[1536]{0} parameter(744)
  %state_1__743_.1 = bf16[1536,12288]{1,0} parameter(746)
  %state_1__744_.1 = bf16[1536,12288]{1,0} parameter(747)
  %state_1__745_.1 = bf16[12288,1536]{1,0} parameter(748)
  %state_1__742_.1 = bf16[1536]{0} parameter(745)
  %state_1__746_.1 = bf16[1536,256]{1,0} parameter(749)
  %state_1__747_.1 = bf16[256,1536]{1,0} parameter(750)
  %state_1__748_.1 = bf16[1536]{0} parameter(751)
  %state_2__1060_.1 = bf16[] parameter(1943)
  %state_1__749_.1 = bf16[1536]{0} parameter(752)
  %state_1__751_.1 = bf16[8,1536,256]{2,1,0} parameter(754)
  %state_1__752_.1 = bf16[256]{0} parameter(755)
  %state_1__753_.1 = bf16[8,256,1536]{2,1,0} parameter(756)
  %state_1__750_.1 = bf16[1536]{0} parameter(753)
  %state_1__754_.1 = bf16[1536]{0} parameter(757)
  %state_1__756_.1 = bf16[1536,12288]{1,0} parameter(759)
  %state_1__757_.1 = bf16[1536,12288]{1,0} parameter(760)
  %state_1__758_.1 = bf16[12288,1536]{1,0} parameter(761)
  %state_1__755_.1 = bf16[1536]{0} parameter(758)
  %state_1__759_.1 = bf16[1536,256]{1,0} parameter(762)
  %state_1__760_.1 = bf16[256,1536]{1,0} parameter(763)
  %state_1__761_.1 = bf16[1536]{0} parameter(764)
  %state_2__1061_.1 = bf16[] parameter(1944)
  %state_1__762_.1 = bf16[1536]{0} parameter(765)
  %state_1__764_.1 = bf16[8,1536,256]{2,1,0} parameter(767)
  %state_1__765_.1 = bf16[256]{0} parameter(768)
  %state_1__766_.1 = bf16[8,256,1536]{2,1,0} parameter(769)
  %state_1__763_.1 = bf16[1536]{0} parameter(766)
  %state_1__767_.1 = bf16[1536]{0} parameter(770)
  %state_1__769_.1 = bf16[1536,12288]{1,0} parameter(772)
  %state_1__770_.1 = bf16[1536,12288]{1,0} parameter(773)
  %state_1__771_.1 = bf16[12288,1536]{1,0} parameter(774)
  %state_1__768_.1 = bf16[1536]{0} parameter(771)
  %state_1__772_.1 = bf16[1536,256]{1,0} parameter(775)
  %state_1__773_.1 = bf16[256,1536]{1,0} parameter(776)
  %state_1__774_.1 = bf16[1536]{0} parameter(777)
  %state_2__1062_.1 = bf16[] parameter(1945)
  %state_1__775_.1 = bf16[1536]{0} parameter(778)
  %state_1__777_.1 = bf16[8,1536,256]{2,1,0} parameter(780)
  %state_1__778_.1 = bf16[256]{0} parameter(781)
  %state_1__779_.1 = bf16[8,256,1536]{2,1,0} parameter(782)
  %state_1__776_.1 = bf16[1536]{0} parameter(779)
  %state_1__780_.1 = bf16[1536]{0} parameter(783)
  %state_1__782_.1 = bf16[1536,12288]{1,0} parameter(785)
  %state_1__783_.1 = bf16[1536,12288]{1,0} parameter(786)
  %state_1__784_.1 = bf16[12288,1536]{1,0} parameter(787)
  %state_1__781_.1 = bf16[1536]{0} parameter(784)
  %state_1__785_.1 = bf16[1536,256]{1,0} parameter(788)
  %state_1__786_.1 = bf16[256,1536]{1,0} parameter(789)
  %state_1__787_.1 = bf16[1536]{0} parameter(790)
  %state_2__1063_.1 = bf16[] parameter(1946)
  %state_1__788_.1 = bf16[1536]{0} parameter(791)
  %state_1__790_.1 = bf16[8,1536,256]{2,1,0} parameter(793)
  %state_1__791_.1 = bf16[256]{0} parameter(794)
  %state_1__792_.1 = bf16[8,256,1536]{2,1,0} parameter(795)
  %state_1__789_.1 = bf16[1536]{0} parameter(792)
  %state_1__793_.1 = bf16[1536]{0} parameter(796)
  %state_1__795_.1 = bf16[1536,12288]{1,0} parameter(798)
  %state_1__796_.1 = bf16[1536,12288]{1,0} parameter(799)
  %state_1__797_.1 = bf16[12288,1536]{1,0} parameter(800)
  %state_1__794_.1 = bf16[1536]{0} parameter(797)
  %state_1__798_.1 = bf16[1536,256]{1,0} parameter(801)
  %state_1__799_.1 = bf16[256,1536]{1,0} parameter(802)
  %state_1__800_.1 = bf16[1536]{0} parameter(803)
  %state_2__1064_.1 = bf16[] parameter(1947)
  %state_1__801_.1 = bf16[1536]{0} parameter(804)
  %state_1__803_.1 = bf16[8,1536,512]{2,1,0} parameter(806)
  %state_1__804_.1 = bf16[512]{0} parameter(807)
  %state_1__805_.1 = bf16[8,512,1536]{2,1,0} parameter(808)
  %state_1__802_.1 = bf16[1536]{0} parameter(805)
  %state_1__806_.1 = bf16[1536]{0} parameter(809)
  %state_1__808_.1 = bf16[1536,12288]{1,0} parameter(811)
  %state_1__809_.1 = bf16[1536,12288]{1,0} parameter(812)
  %state_1__810_.1 = bf16[12288,1536]{1,0} parameter(813)
  %state_1__807_.1 = bf16[1536]{0} parameter(810)
  %state_1__811_.1 = bf16[1536,256]{1,0} parameter(814)
  %state_1__812_.1 = bf16[256,1536]{1,0} parameter(815)
  %state_1__813_.1 = bf16[1536]{0} parameter(816)
  %state_2__1065_.1 = bf16[] parameter(1948)
  %state_1__814_.1 = bf16[1536]{0} parameter(817)
  %state_1__816_.1 = bf16[8,1536,256]{2,1,0} parameter(819)
  %state_1__817_.1 = bf16[256]{0} parameter(820)
  %state_1__818_.1 = bf16[8,256,1536]{2,1,0} parameter(821)
  %state_1__815_.1 = bf16[1536]{0} parameter(818)
  %state_1__819_.1 = bf16[1536]{0} parameter(822)
  %state_1__821_.1 = bf16[1536,12288]{1,0} parameter(824)
  %state_1__822_.1 = bf16[1536,12288]{1,0} parameter(825)
  %state_1__823_.1 = bf16[12288,1536]{1,0} parameter(826)
  %state_1__820_.1 = bf16[1536]{0} parameter(823)
  %state_1__824_.1 = bf16[1536,256]{1,0} parameter(827)
  %state_1__825_.1 = bf16[256,1536]{1,0} parameter(828)
  %state_1__826_.1 = bf16[1536]{0} parameter(829)
  %state_2__1066_.1 = bf16[] parameter(1949)
  %state_1__827_.1 = bf16[1536]{0} parameter(830)
  %state_1__829_.1 = bf16[8,1536,256]{2,1,0} parameter(832)
  %state_1__830_.1 = bf16[256]{0} parameter(833)
  %state_1__831_.1 = bf16[8,256,1536]{2,1,0} parameter(834)
  %state_1__828_.1 = bf16[1536]{0} parameter(831)
  %state_1__832_.1 = bf16[1536]{0} parameter(835)
  %state_1__834_.1 = bf16[1536,12288]{1,0} parameter(837)
  %state_1__835_.1 = bf16[1536,12288]{1,0} parameter(838)
  %state_1__836_.1 = bf16[12288,1536]{1,0} parameter(839)
  %state_1__833_.1 = bf16[1536]{0} parameter(836)
  %state_1__837_.1 = bf16[1536,256]{1,0} parameter(840)
  %state_1__838_.1 = bf16[256,1536]{1,0} parameter(841)
  %state_1__839_.1 = bf16[1536]{0} parameter(842)
  %state_2__1067_.1 = bf16[] parameter(1950)
  %state_1__840_.1 = bf16[1536]{0} parameter(843)
  %state_1__842_.1 = bf16[8,1536,256]{2,1,0} parameter(845)
  %state_1__843_.1 = bf16[256]{0} parameter(846)
  %state_1__844_.1 = bf16[8,256,1536]{2,1,0} parameter(847)
  %state_1__841_.1 = bf16[1536]{0} parameter(844)
  %state_1__845_.1 = bf16[1536]{0} parameter(848)
  %state_1__847_.1 = bf16[1536,12288]{1,0} parameter(850)
  %state_1__848_.1 = bf16[1536,12288]{1,0} parameter(851)
  %state_1__849_.1 = bf16[12288,1536]{1,0} parameter(852)
  %state_1__846_.1 = bf16[1536]{0} parameter(849)
  %state_1__850_.1 = bf16[1536,256]{1,0} parameter(853)
  %state_1__851_.1 = bf16[256,1536]{1,0} parameter(854)
  %state_1__852_.1 = bf16[1536]{0} parameter(855)
  %state_2__1068_.1 = bf16[] parameter(1951)
  %state_1__853_.1 = bf16[1536]{0} parameter(856)
  %state_1__855_.1 = bf16[8,1536,256]{2,1,0} parameter(858)
  %state_1__856_.1 = bf16[256]{0} parameter(859)
  %state_1__857_.1 = bf16[8,256,1536]{2,1,0} parameter(860)
  %state_1__854_.1 = bf16[1536]{0} parameter(857)
  %state_1__858_.1 = bf16[1536]{0} parameter(861)
  %state_1__860_.1 = bf16[1536,12288]{1,0} parameter(863)
  %state_1__861_.1 = bf16[1536,12288]{1,0} parameter(864)
  %state_1__862_.1 = bf16[12288,1536]{1,0} parameter(865)
  %state_1__859_.1 = bf16[1536]{0} parameter(862)
  %state_1__863_.1 = bf16[1536,256]{1,0} parameter(866)
  %state_1__864_.1 = bf16[256,1536]{1,0} parameter(867)
  %state_1__865_.1 = bf16[1536]{0} parameter(868)
  %state_2__1069_.1 = bf16[] parameter(1952)
  %state_1__866_.1 = bf16[1536]{0} parameter(869)
  %state_1__868_.1 = bf16[8,1536,512]{2,1,0} parameter(871)
  %state_1__869_.1 = bf16[512]{0} parameter(872)
  %state_1__870_.1 = bf16[8,512,1536]{2,1,0} parameter(873)
  %state_1__867_.1 = bf16[1536]{0} parameter(870)
  %state_1__871_.1 = bf16[1536]{0} parameter(874)
  %state_1__873_.1 = bf16[1536,12288]{1,0} parameter(876)
  %state_1__874_.1 = bf16[1536,12288]{1,0} parameter(877)
  %state_1__875_.1 = bf16[12288,1536]{1,0} parameter(878)
  %state_1__872_.1 = bf16[1536]{0} parameter(875)
  %state_1__876_.1 = bf16[1536,256]{1,0} parameter(879)
  %state_1__877_.1 = bf16[256,1536]{1,0} parameter(880)
  %state_1__878_.1 = bf16[1536]{0} parameter(881)
  %state_2__1070_.1 = bf16[] parameter(1953)
  %state_1__879_.1 = bf16[1536]{0} parameter(882)
  %while.6 = (s32[1,41]{1,0}, bf16[1,35,2,41,1,512]{5,4,3,2,1,0}, s32[], s32[], pred[1,41]{1,0}, /*index=5*/s32[], bf16[262144,1536]{1,0}, bf16[262144,8960]{1,0}, bf16[1536,8960]{1,0}, bf16[256]{0}, /*index=10*/bf16[1536]{0}, bf16[8,1536,256]{2,1,0}, bf16[256]{0}, bf16[1,1536,256]{2,1,0}, bf16[256]{0}, /*index=15*/bf16[1,1536,256]{2,1,0}, bf16[8,256,1536]{2,1,0}, bf16[1536]{0}, bf16[1536]{0}, bf16[1536,6144]{1,0}, /*index=20*/bf16[1536,6144]{1,0}, bf16[6144,1536]{1,0}, bf16[1536]{0}, bf16[1536,256]{1,0}, bf16[256,1536]{1,0}, /*index=25*/bf16[1536]{0}, bf16[], bf16[1536]{0}, bf16[8,1536,256]{2,1,0}, bf16[256]{0}, /*index=30*/bf16[1,1536,256]{2,1,0}, bf16[256]{0}, bf16[1,1536,256]{2,1,0}, bf16[8,256,1536]{2,1,0}, bf16[1536]{0}, /*index=35*/bf16[1536]{0}, bf16[1536,6144]{1,0}, bf16[1536,6144]{1,0}, bf16[6144,1536]{1,0}, bf16[1536]{0}, /*index=40*/bf16[1536,256]{1,0}, bf16[256,1536]{1,0}, bf16[1536]{0}, bf16[], bf16[1536]{0}, /*index=45*/bf16[8,1536,256]{2,1,0}, bf16[256]{0}, bf16[1,1536,256]{2,1,0}, bf16[256]{0}, bf16[1,1536,256]{2,1,0}, /*index=50*/bf16[8,256,1536]{2,1,0}, bf16[1536]{0}, bf16[1536]{0}, bf16[1536,6144]{1,0}, bf16[1536,6144]{1,0}, /*index=55*/bf16[6144,1536]{1,0}, bf16[1536]{0}, bf16[1536,256]{1,0}, bf16[256,1536]{1,0}, bf16[1536]{0}, /*index=60*/bf16[], bf16[1536]{0}, bf16[8,1536,256]{2,1,0}, bf16[256]{0}, bf16[1,1536,256]{2,1,0}, /*index=65*/bf16[256]{0}, bf16[1,1536,256]{2,1,0}, bf16[8,256,1536]{2,1,0}, bf16[1536]{0}, bf16[1536]{0}, /*index=70*/bf16[1536,6144]{1,0}, bf16[1536,6144]{1,0}, bf16[6144,1536]{1,0}, bf16[1536]{0}, bf16[1536,256]{1,0}, /*index=75*/bf16[256,1536]{1,0}, bf16[1536]{0}, bf16[], bf16[1536]{0}, bf16[8,1536,512]{2,1,0}, /*index=80*/bf16[512]{0}, bf16[1,1536,512]{2,1,0}, bf16[512]{0}, bf16[1,1536,512]{2,1,0}, bf16[8,512,1536]{2,1,0}, /*index=85*/bf16[1536]{0}, bf16[1536]{0}, bf16[1536,6144]{1,0}, bf16[1536,6144]{1,0}, bf16[6144,1536]{1,0}, /*index=90*/bf16[1536]{0}, bf16[1536,256]{1,0}, bf16[256,1536]{1,0}, bf16[1536]{0}, bf16[], /*index=95*/bf16[1536]{0}, bf16[8,1536,256]{2,1,0}, bf16[256]{0}, bf16[1,1536,256]{2,1,0}, bf16[256]{0}, /*index=100*/bf16[1,1536,256]{2,1,0}, bf16[8,256,1536]{2,1,0}, bf16[1536]{0}, bf16[1536]{0}, bf16[1536,6144]{1,0}, /*index=105*/bf16[1536,6144]{1,0}, bf16[6144,1536]{1,0}, bf16[1536]{0}, bf16[1536,256]{1,0}, bf16[256,1536]{1,0}, /*index=110*/bf16[1536]{0}, bf16[], bf16[1536]{0}, bf16[8,1536,256]{2,1,0}, bf16[256]{0}, /*index=115*/bf16[1,1536,256]{2,1,0}, bf16[256]{0}, bf16[1,1536,256]{2,1,0}, bf16[8,256,1536]{2,1,0}, bf16[1536]{0}, /*index=120*/bf16[1536]{0}, bf16[1536,6144]{1,0}, bf16[1536,6144]{1,0}, bf16[6144,1536]{1,0}, bf16[1536]{0}, /*index=125*/bf16[1536,256]{1,0}, bf16[256,1536]{1,0}, bf16[1536]{0}, bf16[], bf16[1536]{0}, /*index=130*/bf16[8,1536,256]{2,1,0}, bf16[256]{0}, bf16[1,1536,256]{2,1,0}, bf16[256]{0}, bf16[1,1536,256]{2,1,0}, /*index=135*/bf16[8,256,1536]{2,1,0}, bf16[1536]{0}, bf16[1536]{0}, bf16[1536,6144]{1,0}, bf16[1536,6144]{1,0}, /*index=140*/bf16[6144,1536]{1,0}, bf16[1536]{0}, bf16[1536,256]{1,0}, bf16[256,1536]{1,0}, bf16[1536]{0}, /*index=145*/bf16[], bf16[1536]{0}, bf16[8,1536,256]{2,1,0}, bf16[256]{0}, bf16[1,1536,256]{2,1,0}, /*index=150*/bf16[256]{0}, bf16[1,1536,256]{2,1,0}, bf16[8,256,1536]{2,1,0}, bf16[1536]{0}, bf16[1536]{0}, /*index=155*/bf16[1536,6144]{1,0}, bf16[1536,6144]{1,0}, bf16[6144,1536]{1,0}, bf16[1536]{0}, bf16[1536,256]{1,0}, /*index=160*/bf16[256,1536]{1,0}, bf16[1536]{0}, bf16[], bf16[1536]{0}, bf16[8,1536,512]{2,1,0}, /*index=165*/bf16[512]{0}, bf16[1,1536,512]{2,1,0}, bf16[512]{0}, bf16[1,1536,512]{2,1,0}, bf16[8,512,1536]{2,1,0}, /*index=170*/bf16[1536]{0}, bf16[1536]{0}, bf16[1536,6144]{1,0}, bf16[1536,6144]{1,0}, bf16[6144,1536]{1,0}, /*index=175*/bf16[1536]{0}, bf16[1536,256]{1,0}, bf16[256,1536]{1,0}, bf16[1536]{0}, bf16[], /*index=180*/bf16[1536]{0}, bf16[8,1536,256]{2,1,0}, bf16[256]{0}, bf16[1,1536,256]{2,1,0}, bf16[256]{0}, /*index=185*/bf16[1,1536,256]{2,1,0}, bf16[8,256,1536]{2,1,0}, bf16[1536]{0}, bf16[1536]{0}, bf16[1536,6144]{1,0}, /*index=190*/bf16[1536,6144]{1,0}, bf16[6144,1536]{1,0}, bf16[1536]{0}, bf16[1536,256]{1,0}, bf16[256,1536]{1,0}, /*index=195*/bf16[1536]{0}, bf16[], bf16[1536]{0}, bf16[8,1536,256]{2,1,0}, bf16[256]{0}, /*index=200*/bf16[1,1536,256]{2,1,0}, bf16[256]{0}, bf16[1,1536,256]{2,1,0}, bf16[8,256,1536]{2,1,0}, bf16[1536]{0}, /*index=205*/bf16[1536]{0}, bf16[1536,6144]{1,0}, bf16[1536,6144]{1,0}, bf16[6144,1536]{1,0}, bf16[1536]{0}, /*index=210*/bf16[1536,256]{1,0}, bf16[256,1536]{1,0}, bf16[1536]{0}, bf16[], bf16[1536]{0}, /*index=215*/bf16[8,1536,256]{2,1,0}, bf16[256]{0}, bf16[1,1536,256]{2,1,0}, bf16[256]{0}, bf16[1,1536,256]{2,1,0}, /*index=220*/bf16[8,256,1536]{2,1,0}, bf16[1536]{0}, bf16[1536]{0}, bf16[1536,6144]{1,0}, bf16[1536,6144]{1,0}, /*index=225*/bf16[6144,1536]{1,0}, bf16[1536]{0}, bf16[1536,256]{1,0}, bf16[256,1536]{1,0}, bf16[1536]{0}, /*index=230*/bf16[], bf16[1536]{0}, bf16[8,1536,256]{2,1,0}, bf16[256]{0}, bf16[1,1536,256]{2,1,0}, /*index=235*/bf16[256]{0}, bf16[1,1536,256]{2,1,0}, bf16[8,256,1536]{2,1,0}, bf16[1536]{0}, bf16[1536]{0}, /*index=240*/bf16[1536,6144]{1,0}, bf16[1536,6144]{1,0}, bf16[6144,1536]{1,0}, bf16[1536]{0}, bf16[1536,256]{1,0}, /*index=245*/bf16[256,1536]{1,0}, bf16[1536]{0}, bf16[], bf16[1536]{0}, bf16[8,1536,512]{2,1,0}, /*index=250*/bf16[512]{0}, bf16[1,1536,512]{2,1,0}, bf16[512]{0}, bf16[1,1536,512]{2,1,0}, bf16[8,512,1536]{2,1,0}, /*index=255*/bf16[1536]{0}, bf16[1536]{0}, bf16[1536,6144]{1,0}, bf16[1536,6144]{1,0}, bf16[6144,1536]{1,0}, /*index=260*/bf16[1536]{0}, bf16[1536,256]{1,0}, bf16[256,1536]{1,0}, bf16[1536]{0}, bf16[], /*index=265*/bf16[1536]{0}, bf16[8,1536,256]{2,1,0}, bf16[256]{0}, bf16[8,256,1536]{2,1,0}, bf16[1536]{0}, /*index=270*/bf16[1536]{0}, bf16[1536,12288]{1,0}, bf16[1536,12288]{1,0}, bf16[12288,1536]{1,0}, bf16[1536]{0}, /*index=275*/bf16[1536,256]{1,0}, bf16[256,1536]{1,0}, bf16[1536]{0}, bf16[], bf16[1536]{0}, /*index=280*/bf16[8,1536,256]{2,1,0}, bf16[256]{0}, bf16[8,256,1536]{2,1,0}, bf16[1536]{0}, bf16[1536]{0}, /*index=285*/bf16[1536,12288]{1,0}, bf16[1536,12288]{1,0}, bf16[12288,1536]{1,0}, bf16[1536]{0}, bf16[1536,256]{1,0}, /*index=290*/bf16[256,1536]{1,0}, bf16[1536]{0}, bf16[], bf16[1536]{0}, bf16[8,1536,256]{2,1,0}, /*index=295*/bf16[256]{0}, bf16[8,256,1536]{2,1,0}, bf16[1536]{0}, bf16[1536]{0}, bf16[1536,12288]{1,0}, /*index=300*/bf16[1536,12288]{1,0}, bf16[12288,1536]{1,0}, bf16[1536]{0}, bf16[1536,256]{1,0}, bf16[256,1536]{1,0}, /*index=305*/bf16[1536]{0}, bf16[], bf16[1536]{0}, bf16[8,1536,256]{2,1,0}, bf16[256]{0}, /*index=310*/bf16[8,256,1536]{2,1,0}, bf16[1536]{0}, bf16[1536]{0}, bf16[1536,12288]{1,0}, bf16[1536,12288]{1,0}, /*index=315*/bf16[12288,1536]{1,0}, bf16[1536]{0}, bf16[1536,256]{1,0}, bf16[256,1536]{1,0}, bf16[1536]{0}, /*index=320*/bf16[], bf16[1536]{0}, bf16[8,1536,512]{2,1,0}, bf16[512]{0}, bf16[8,512,1536]{2,1,0}, /*index=325*/bf16[1536]{0}, bf16[1536]{0}, bf16[1536,12288]{1,0}, bf16[1536,12288]{1,0}, bf16[12288,1536]{1,0}, /*index=330*/bf16[1536]{0}, bf16[1536,256]{1,0}, bf16[256,1536]{1,0}, bf16[1536]{0}, bf16[], /*index=335*/bf16[1536]{0}, bf16[8,1536,256]{2,1,0}, bf16[256]{0}, bf16[8,256,1536]{2,1,0}, bf16[1536]{0}, /*index=340*/bf16[1536]{0}, bf16[1536,12288]{1,0}, bf16[1536,12288]{1,0}, bf16[12288,1536]{1,0}, bf16[1536]{0}, /*index=345*/bf16[1536,256]{1,0}, bf16[256,1536]{1,0}, bf16[1536]{0}, bf16[], bf16[1536]{0}, /*index=350*/bf16[8,1536,256]{2,1,0}, bf16[256]{0}, bf16[8,256,1536]{2,1,0}, bf16[1536]{0}, bf16[1536]{0}, /*index=355*/bf16[1536,12288]{1,0}, bf16[1536,12288]{1,0}, bf16[12288,1536]{1,0}, bf16[1536]{0}, bf16[1536,256]{1,0}, /*index=360*/bf16[256,1536]{1,0}, bf16[1536]{0}, bf16[], bf16[1536]{0}, bf16[8,1536,256]{2,1,0}, /*index=365*/bf16[256]{0}, bf16[8,256,1536]{2,1,0}, bf16[1536]{0}, bf16[1536]{0}, bf16[1536,12288]{1,0}, /*index=370*/bf16[1536,12288]{1,0}, bf16[12288,1536]{1,0}, bf16[1536]{0}, bf16[1536,256]{1,0}, bf16[256,1536]{1,0}, /*index=375*/bf16[1536]{0}, bf16[], bf16[1536]{0}, bf16[8,1536,256]{2,1,0}, bf16[256]{0}, /*index=380*/bf16[8,256,1536]{2,1,0}, bf16[1536]{0}, bf16[1536]{0}, bf16[1536,12288]{1,0}, bf16[1536,12288]{1,0}, /*index=385*/bf16[12288,1536]{1,0}, bf16[1536]{0}, bf16[1536,256]{1,0}, bf16[256,1536]{1,0}, bf16[1536]{0}, /*index=390*/bf16[], bf16[1536]{0}, bf16[8,1536,512]{2,1,0}, bf16[512]{0}, bf16[8,512,1536]{2,1,0}, /*index=395*/bf16[1536]{0}, bf16[1536]{0}, bf16[1536,12288]{1,0}, bf16[1536,12288]{1,0}, bf16[12288,1536]{1,0}, /*index=400*/bf16[1536]{0}, bf16[1536,256]{1,0}, bf16[256,1536]{1,0}, bf16[1536]{0}, bf16[], /*index=405*/bf16[1536]{0}, bf16[8,1536,256]{2,1,0}, bf16[256]{0}, bf16[8,256,1536]{2,1,0}, bf16[1536]{0}, /*index=410*/bf16[1536]{0}, bf16[1536,12288]{1,0}, bf16[1536,12288]{1,0}, bf16[12288,1536]{1,0}, bf16[1536]{0}, /*index=415*/bf16[1536,256]{1,0}, bf16[256,1536]{1,0}, bf16[1536]{0}, bf16[], bf16[1536]{0}, /*index=420*/bf16[8,1536,256]{2,1,0}, bf16[256]{0}, bf16[8,256,1536]{2,1,0}, bf16[1536]{0}, bf16[1536]{0}, /*index=425*/bf16[1536,12288]{1,0}, bf16[1536,12288]{1,0}, bf16[12288,1536]{1,0}, bf16[1536]{0}, bf16[1536,256]{1,0}, /*index=430*/bf16[256,1536]{1,0}, bf16[1536]{0}, bf16[], bf16[1536]{0}, bf16[8,1536,256]{2,1,0}, /*index=435*/bf16[256]{0}, bf16[8,256,1536]{2,1,0}, bf16[1536]{0}, bf16[1536]{0}, bf16[1536,12288]{1,0}, /*index=440*/bf16[1536,12288]{1,0}, bf16[12288,1536]{1,0}, bf16[1536]{0}, bf16[1536,256]{1,0}, bf16[256,1536]{1,0}, /*index=445*/bf16[1536]{0}, bf16[], bf16[1536]{0}, bf16[8,1536,256]{2,1,0}, bf16[256]{0}, /*index=450*/bf16[8,256,1536]{2,1,0}, bf16[1536]{0}, bf16[1536]{0}, bf16[1536,12288]{1,0}, bf16[1536,12288]{1,0}, /*index=455*/bf16[12288,1536]{1,0}, bf16[1536]{0}, bf16[1536,256]{1,0}, bf16[256,1536]{1,0}, bf16[1536]{0}, /*index=460*/bf16[], bf16[1536]{0}, bf16[8,1536,512]{2,1,0}, bf16[512]{0}, bf16[8,512,1536]{2,1,0}, /*index=465*/bf16[1536]{0}, bf16[1536]{0}, bf16[1536,12288]{1,0}, bf16[1536,12288]{1,0}, bf16[12288,1536]{1,0}, /*index=470*/bf16[1536]{0}, bf16[1536,256]{1,0}, bf16[256,1536]{1,0}, bf16[1536]{0}, bf16[], /*index=475*/bf16[1536]{0}, bf16[8,1536,256]{2,1,0}, bf16[256]{0}, bf16[8,256,1536]{2,1,0}, bf16[1536]{0}, /*index=480*/bf16[1536]{0}, bf16[1536,12288]{1,0}, bf16[1536,12288]{1,0}, bf16[12288,1536]{1,0}, bf16[1536]{0}, /*index=485*/bf16[1536,256]{1,0}, bf16[256,1536]{1,0}, bf16[1536]{0}, bf16[], bf16[1536]{0}, /*index=490*/bf16[8,1536,256]{2,1,0}, bf16[256]{0}, bf16[8,256,1536]{2,1,0}, bf16[1536]{0}, bf16[1536]{0}, /*index=495*/bf16[1536,12288]{1,0}, bf16[1536,12288]{1,0}, bf16[12288,1536]{1,0}, bf16[1536]{0}, bf16[1536,256]{1,0}, /*index=500*/bf16[256,1536]{1,0}, bf16[1536]{0}, bf16[], bf16[1536]{0}, bf16[8,1536,256]{2,1,0}, /*index=505*/bf16[256]{0}, bf16[8,256,1536]{2,1,0}, bf16[1536]{0}, bf16[1536]{0}, bf16[1536,12288]{1,0}, /*index=510*/bf16[1536,12288]{1,0}, bf16[12288,1536]{1,0}, bf16[1536]{0}, bf16[1536,256]{1,0}, bf16[256,1536]{1,0}, /*index=515*/bf16[1536]{0}, bf16[], bf16[1536]{0}, bf16[8,1536,256]{2,1,0}, bf16[256]{0}, /*index=520*/bf16[8,256,1536]{2,1,0}, bf16[1536]{0}, bf16[1536]{0}, bf16[1536,12288]{1,0}, bf16[1536,12288]{1,0}, /*index=525*/bf16[12288,1536]{1,0}, bf16[1536]{0}, bf16[1536,256]{1,0}, bf16[256,1536]{1,0}, bf16[1536]{0}, /*index=530*/bf16[], bf16[1536]{0}, bf16[8,1536,512]{2,1,0}, bf16[512]{0}, bf16[8,512,1536]{2,1,0}, /*index=535*/bf16[1536]{0}, bf16[1536]{0}, bf16[1536,12288]{1,0}, bf16[1536,12288]{1,0}, bf16[12288,1536]{1,0}, /*index=540*/bf16[1536]{0}, bf16[1536,256]{1,0}, bf16[256,1536]{1,0}, bf16[1536]{0}, bf16[], /*index=545*/bf16[1536]{0}) tuple(%inputs__token_ids__.1, %concatenate.443, %reduce_min.7, %constant.289, %inputs__padding_mask__.1, /*index=5*/%sub.408, %state_1__375_.1, %state_1__377_.1, %state_1__376_.1, %state_1__378_.1, /*index=10*/%state_1__379_.1, %state_1__381_.1, %state_1__385_.1, %state_1__382_.1, %state_1__384_.1, /*index=15*/%state_1__383_.1, %state_1__386_.1, %state_1__380_.1, %state_1__387_.1, %state_1__389_.1, /*index=20*/%state_1__390_.1, %state_1__391_.1, %state_1__388_.1, %state_1__392_.1, %state_1__393_.1, /*index=25*/%state_1__394_.1, %state_2__1036_.1, %state_1__395_.1, %state_1__397_.1, %state_1__401_.1, /*index=30*/%state_1__398_.1, %state_1__400_.1, %state_1__399_.1, %state_1__402_.1, %state_1__396_.1, /*index=35*/%state_1__403_.1, %state_1__405_.1, %state_1__406_.1, %state_1__407_.1, %state_1__404_.1, /*index=40*/%state_1__408_.1, %state_1__409_.1, %state_1__410_.1, %state_2__1037_.1, %state_1__411_.1, /*index=45*/%state_1__413_.1, %state_1__417_.1, %state_1__414_.1, %state_1__416_.1, %state_1__415_.1, /*index=50*/%state_1__418_.1, %state_1__412_.1, %state_1__419_.1, %state_1__421_.1, %state_1__422_.1, /*index=55*/%state_1__423_.1, %state_1__420_.1, %state_1__424_.1, %state_1__425_.1, %state_1__426_.1, /*index=60*/%state_2__1038_.1, %state_1__427_.1, %state_1__429_.1, %state_1__433_.1, %state_1__430_.1, /*index=65*/%state_1__432_.1, %state_1__431_.1, %state_1__434_.1, %state_1__428_.1, %state_1__435_.1, /*index=70*/%state_1__437_.1, %state_1__438_.1, %state_1__439_.1, %state_1__436_.1, %state_1__440_.1, /*index=75*/%state_1__441_.1, %state_1__442_.1, %state_2__1039_.1, %state_1__443_.1, %state_1__445_.1, /*index=80*/%state_1__449_.1, %state_1__446_.1, %state_1__448_.1, %state_1__447_.1, %state_1__450_.1, /*index=85*/%state_1__444_.1, %state_1__451_.1, %state_1__453_.1, %state_1__454_.1, %state_1__455_.1, /*index=90*/%state_1__452_.1, %state_1__456_.1, %state_1__457_.1, %state_1__458_.1, %state_2__1040_.1, /*index=95*/%state_1__459_.1, %state_1__461_.1, %state_1__465_.1, %state_1__462_.1, %state_1__464_.1, /*index=100*/%state_1__463_.1, %state_1__466_.1, %state_1__460_.1, %state_1__467_.1, %state_1__469_.1, /*index=105*/%state_1__470_.1, %state_1__471_.1, %state_1__468_.1, %state_1__472_.1, %state_1__473_.1, /*index=110*/%state_1__474_.1, %state_2__1041_.1, %state_1__475_.1, %state_1__477_.1, %state_1__481_.1, /*index=115*/%state_1__478_.1, %state_1__480_.1, %state_1__479_.1, %state_1__482_.1, %state_1__476_.1, /*index=120*/%state_1__483_.1, %state_1__485_.1, %state_1__486_.1, %state_1__487_.1, %state_1__484_.1, /*index=125*/%state_1__488_.1, %state_1__489_.1, %state_1__490_.1, %state_2__1042_.1, %state_1__491_.1, /*index=130*/%state_1__493_.1, %state_1__497_.1, %state_1__494_.1, %state_1__496_.1, %state_1__495_.1, /*index=135*/%state_1__498_.1, %state_1__492_.1, %state_1__499_.1, %state_1__501_.1, %state_1__502_.1, /*index=140*/%state_1__503_.1, %state_1__500_.1, %state_1__504_.1, %state_1__505_.1, %state_1__506_.1, /*index=145*/%state_2__1043_.1, %state_1__507_.1, %state_1__509_.1, %state_1__513_.1, %state_1__510_.1, /*index=150*/%state_1__512_.1, %state_1__511_.1, %state_1__514_.1, %state_1__508_.1, %state_1__515_.1, /*index=155*/%state_1__517_.1, %state_1__518_.1, %state_1__519_.1, %state_1__516_.1, %state_1__520_.1, /*index=160*/%state_1__521_.1, %state_1__522_.1, %state_2__1044_.1, %state_1__523_.1, %state_1__525_.1, /*index=165*/%state_1__529_.1, %state_1__526_.1, %state_1__528_.1, %state_1__527_.1, %state_1__530_.1, /*index=170*/%state_1__524_.1, %state_1__531_.1, %state_1__533_.1, %state_1__534_.1, %state_1__535_.1, /*index=175*/%state_1__532_.1, %state_1__536_.1, %state_1__537_.1, %state_1__538_.1, %state_2__1045_.1, /*index=180*/%state_1__539_.1, %state_1__541_.1, %state_1__545_.1, %state_1__542_.1, %state_1__544_.1, /*index=185*/%state_1__543_.1, %state_1__546_.1, %state_1__540_.1, %state_1__547_.1, %state_1__549_.1, /*index=190*/%state_1__550_.1, %state_1__551_.1, %state_1__548_.1, %state_1__552_.1, %state_1__553_.1, /*index=195*/%state_1__554_.1, %state_2__1046_.1, %state_1__555_.1, %state_1__557_.1, %state_1__561_.1, /*index=200*/%state_1__558_.1, %state_1__560_.1, %state_1__559_.1, %state_1__562_.1, %state_1__556_.1, /*index=205*/%state_1__563_.1, %state_1__565_.1, %state_1__566_.1, %state_1__567_.1, %state_1__564_.1, /*index=210*/%state_1__568_.1, %state_1__569_.1, %state_1__570_.1, %state_2__1047_.1, %state_1__571_.1, /*index=215*/%state_1__573_.1, %state_1__577_.1, %state_1__574_.1, %state_1__576_.1, %state_1__575_.1, /*index=220*/%state_1__578_.1, %state_1__572_.1, %state_1__579_.1, %state_1__581_.1, %state_1__582_.1, /*index=225*/%state_1__583_.1, %state_1__580_.1, %state_1__584_.1, %state_1__585_.1, %state_1__586_.1, /*index=230*/%state_2__1048_.1, %state_1__587_.1, %state_1__589_.1, %state_1__593_.1, %state_1__590_.1, /*index=235*/%state_1__592_.1, %state_1__591_.1, %state_1__594_.1, %state_1__588_.1, %state_1__595_.1, /*index=240*/%state_1__597_.1, %state_1__598_.1, %state_1__599_.1, %state_1__596_.1, %state_1__600_.1, /*index=245*/%state_1__601_.1, %state_1__602_.1, %state_2__1049_.1, %state_1__603_.1, %state_1__605_.1, /*index=250*/%state_1__609_.1, %state_1__606_.1, %state_1__608_.1, %state_1__607_.1, %state_1__610_.1, /*index=255*/%state_1__604_.1, %state_1__611_.1, %state_1__613_.1, %state_1__614_.1, %state_1__615_.1, /*index=260*/%state_1__612_.1, %state_1__616_.1, %state_1__617_.1, %state_1__618_.1, %state_2__1050_.1, /*index=265*/%state_1__619_.1, %state_1__621_.1, %state_1__622_.1, %state_1__623_.1, %state_1__620_.1, /*index=270*/%state_1__624_.1, %state_1__626_.1, %state_1__627_.1, %state_1__628_.1, %state_1__625_.1, /*index=275*/%state_1__629_.1, %state_1__630_.1, %state_1__631_.1, %state_2__1051_.1, %state_1__632_.1, /*index=280*/%state_1__634_.1, %state_1__635_.1, %state_1__636_.1, %state_1__633_.1, %state_1__637_.1, /*index=285*/%state_1__639_.1, %state_1__640_.1, %state_1__641_.1, %state_1__638_.1, %state_1__642_.1, /*index=290*/%state_1__643_.1, %state_1__644_.1, %state_2__1052_.1, %state_1__645_.1, %state_1__647_.1, /*index=295*/%state_1__648_.1, %state_1__649_.1, %state_1__646_.1, %state_1__650_.1, %state_1__652_.1, /*index=300*/%state_1__653_.1, %state_1__654_.1, %state_1__651_.1, %state_1__655_.1, %state_1__656_.1, /*index=305*/%state_1__657_.1, %state_2__1053_.1, %state_1__658_.1, %state_1__660_.1, %state_1__661_.1, /*index=310*/%state_1__662_.1, %state_1__659_.1, %state_1__663_.1, %state_1__665_.1, %state_1__666_.1, /*index=315*/%state_1__667_.1, %state_1__664_.1, %state_1__668_.1, %state_1__669_.1, %state_1__670_.1, /*index=320*/%state_2__1054_.1, %state_1__671_.1, %state_1__673_.1, %state_1__674_.1, %state_1__675_.1, /*index=325*/%state_1__672_.1, %state_1__676_.1, %state_1__678_.1, %state_1__679_.1, %state_1__680_.1, /*index=330*/%state_1__677_.1, %state_1__681_.1, %state_1__682_.1, %state_1__683_.1, %state_2__1055_.1, /*index=335*/%state_1__684_.1, %state_1__686_.1, %state_1__687_.1, %state_1__688_.1, %state_1__685_.1, /*index=340*/%state_1__689_.1, %state_1__691_.1, %state_1__692_.1, %state_1__693_.1, %state_1__690_.1, /*index=345*/%state_1__694_.1, %state_1__695_.1, %state_1__696_.1, %state_2__1056_.1, %state_1__697_.1, /*index=350*/%state_1__699_.1, %state_1__700_.1, %state_1__701_.1, %state_1__698_.1, %state_1__702_.1, /*index=355*/%state_1__704_.1, %state_1__705_.1, %state_1__706_.1, %state_1__703_.1, %state_1__707_.1, /*index=360*/%state_1__708_.1, %state_1__709_.1, %state_2__1057_.1, %state_1__710_.1, %state_1__712_.1, /*index=365*/%state_1__713_.1, %state_1__714_.1, %state_1__711_.1, %state_1__715_.1, %state_1__717_.1, /*index=370*/%state_1__718_.1, %state_1__719_.1, %state_1__716_.1, %state_1__720_.1, %state_1__721_.1, /*index=375*/%state_1__722_.1, %state_2__1058_.1, %state_1__723_.1, %state_1__725_.1, %state_1__726_.1, /*index=380*/%state_1__727_.1, %state_1__724_.1, %state_1__728_.1, %state_1__730_.1, %state_1__731_.1, /*index=385*/%state_1__732_.1, %state_1__729_.1, %state_1__733_.1, %state_1__734_.1, %state_1__735_.1, /*index=390*/%state_2__1059_.1, %state_1__736_.1, %state_1__738_.1, %state_1__739_.1, %state_1__740_.1, /*index=395*/%state_1__737_.1, %state_1__741_.1, %state_1__743_.1, %state_1__744_.1, %state_1__745_.1, /*index=400*/%state_1__742_.1, %state_1__746_.1, %state_1__747_.1, %state_1__748_.1, %state_2__1060_.1, /*index=405*/%state_1__749_.1, %state_1__751_.1, %state_1__752_.1, %state_1__753_.1, %state_1__750_.1, /*index=410*/%state_1__754_.1, %state_1__756_.1, %state_1__757_.1, %state_1__758_.1, %state_1__755_.1, /*index=415*/%state_1__759_.1, %state_1__760_.1, %state_1__761_.1, %state_2__1061_.1, %state_1__762_.1, /*index=420*/%state_1__764_.1, %state_1__765_.1, %state_1__766_.1, %state_1__763_.1, %state_1__767_.1, /*index=425*/%state_1__769_.1, %state_1__770_.1, %state_1__771_.1, %state_1__768_.1, %state_1__772_.1, /*index=430*/%state_1__773_.1, %state_1__774_.1, %state_2__1062_.1, %state_1__775_.1, %state_1__777_.1, /*index=435*/%state_1__778_.1, %state_1__779_.1, %state_1__776_.1, %state_1__780_.1, %state_1__782_.1, /*index=440*/%state_1__783_.1, %state_1__784_.1, %state_1__781_.1, %state_1__785_.1, %state_1__786_.1, /*index=445*/%state_1__787_.1, %state_2__1063_.1, %state_1__788_.1, %state_1__790_.1, %state_1__791_.1, /*index=450*/%state_1__792_.1, %state_1__789_.1, %state_1__793_.1, %state_1__795_.1, %state_1__796_.1, /*index=455*/%state_1__797_.1, %state_1__794_.1, %state_1__798_.1, %state_1__799_.1, %state_1__800_.1, /*index=460*/%state_2__1064_.1, %state_1__801_.1, %state_1__803_.1, %state_1__804_.1, %state_1__805_.1, /*index=465*/%state_1__802_.1, %state_1__806_.1, %state_1__808_.1, %state_1__809_.1, %state_1__810_.1, /*index=470*/%state_1__807_.1, %state_1__811_.1, %state_1__812_.1, %state_1__813_.1, %state_2__1065_.1, /*index=475*/%state_1__814_.1, %state_1__816_.1, %state_1__817_.1, %state_1__818_.1, %state_1__815_.1, /*index=480*/%state_1__819_.1, %state_1__821_.1, %state_1__822_.1, %state_1__823_.1, %state_1__820_.1, /*index=485*/%state_1__824_.1, %state_1__825_.1, %state_1__826_.1, %state_2__1066_.1, %state_1__827_.1, /*index=490*/%state_1__829_.1, %state_1__830_.1, %state_1__831_.1, %state_1__828_.1, %state_1__832_.1, /*index=495*/%state_1__834_.1, %state_1__835_.1, %state_1__836_.1, %state_1__833_.1, %state_1__837_.1, /*index=500*/%state_1__838_.1, %state_1__839_.1, %state_2__1067_.1, %state_1__840_.1, %state_1__842_.1, /*index=505*/%state_1__843_.1, %state_1__844_.1, %state_1__841_.1, %state_1__845_.1, %state_1__847_.1, /*index=510*/%state_1__848_.1, %state_1__849_.1, %state_1__846_.1, %state_1__850_.1, %state_1__851_.1, /*index=515*/%state_1__852_.1, %state_2__1068_.1, %state_1__853_.1, %state_1__855_.1, %state_1__856_.1, /*index=520*/%state_1__857_.1, %state_1__854_.1, %state_1__858_.1, %state_1__860_.1, %state_1__861_.1, /*index=525*/%state_1__862_.1, %state_1__859_.1, %state_1__863_.1, %state_1__864_.1, %state_1__865_.1, /*index=530*/%state_2__1069_.1, %state_1__866_.1, %state_1__868_.1, %state_1__869_.1, %state_1__870_.1, /*index=535*/%state_1__867_.1, %state_1__871_.1, %state_1__873_.1, %state_1__874_.1, %state_1__875_.1, /*index=540*/%state_1__872_.1, %state_1__876_.1, %state_1__877_.1, %state_1__878_.1, %state_2__1070_.1, /*index=545*/%state_1__879_.1)
  %while.7 = (s32[1,41]{1,0}, bf16[1,35,2,41,1,512]{5,4,3,2,1,0}, s32[], s32[], pred[1,41]{1,0}, /*index=5*/s32[], bf16[262144,1536]{1,0}, bf16[262144,8960]{1,0}, bf16[1536,8960]{1,0}, bf16[256]{0}, /*index=10*/bf16[1536]{0}, bf16[8,1536,256]{2,1,0}, bf16[256]{0}, bf16[1,1536,256]{2,1,0}, bf16[256]{0}, /*index=15*/bf16[1,1536,256]{2,1,0}, bf16[8,256,1536]{2,1,0}, bf16[1536]{0}, bf16[1536]{0}, bf16[1536,6144]{1,0}, /*index=20*/bf16[1536,6144]{1,0}, bf16[6144,1536]{1,0}, bf16[1536]{0}, bf16[1536,256]{1,0}, bf16[256,1536]{1,0}, /*index=25*/bf16[1536]{0}, bf16[], bf16[1536]{0}, bf16[8,1536,256]{2,1,0}, bf16[256]{0}, /*index=30*/bf16[1,1536,256]{2,1,0}, bf16[256]{0}, bf16[1,1536,256]{2,1,0}, bf16[8,256,1536]{2,1,0}, bf16[1536]{0}, /*index=35*/bf16[1536]{0}, bf16[1536,6144]{1,0}, bf16[1536,6144]{1,0}, bf16[6144,1536]{1,0}, bf16[1536]{0}, /*index=40*/bf16[1536,256]{1,0}, bf16[256,1536]{1,0}, bf16[1536]{0}, bf16[], bf16[1536]{0}, /*index=45*/bf16[8,1536,256]{2,1,0}, bf16[256]{0}, bf16[1,1536,256]{2,1,0}, bf16[256]{0}, bf16[1,1536,256]{2,1,0}, /*index=50*/bf16[8,256,1536]{2,1,0}, bf16[1536]{0}, bf16[1536]{0}, bf16[1536,6144]{1,0}, bf16[1536,6144]{1,0}, /*index=55*/bf16[6144,1536]{1,0}, bf16[1536]{0}, bf16[1536,256]{1,0}, bf16[256,1536]{1,0}, bf16[1536]{0}, /*index=60*/bf16[], bf16[1536]{0}, bf16[8,1536,256]{2,1,0}, bf16[256]{0}, bf16[1,1536,256]{2,1,0}, /*index=65*/bf16[256]{0}, bf16[1,1536,256]{2,1,0}, bf16[8,256,1536]{2,1,0}, bf16[1536]{0}, bf16[1536]{0}, /*index=70*/bf16[1536,6144]{1,0}, bf16[1536,6144]{1,0}, bf16[6144,1536]{1,0}, bf16[1536]{0}, bf16[1536,256]{1,0}, /*index=75*/bf16[256,1536]{1,0}, bf16[1536]{0}, bf16[], bf16[1536]{0}, bf16[8,1536,512]{2,1,0}, /*index=80*/bf16[512]{0}, bf16[1,1536,512]{2,1,0}, bf16[512]{0}, bf16[1,1536,512]{2,1,0}, bf16[8,512,1536]{2,1,0}, /*index=85*/bf16[1536]{0}, bf16[1536]{0}, bf16[1536,6144]{1,0}, bf16[1536,6144]{1,0}, bf16[6144,1536]{1,0}, /*index=90*/bf16[1536]{0}, bf16[1536,256]{1,0}, bf16[256,1536]{1,0}, bf16[1536]{0}, bf16[], /*index=95*/bf16[1536]{0}, bf16[8,1536,256]{2,1,0}, bf16[256]{0}, bf16[1,1536,256]{2,1,0}, bf16[256]{0}, /*index=100*/bf16[1,1536,256]{2,1,0}, bf16[8,256,1536]{2,1,0}, bf16[1536]{0}, bf16[1536]{0}, bf16[1536,6144]{1,0}, /*index=105*/bf16[1536,6144]{1,0}, bf16[6144,1536]{1,0}, bf16[1536]{0}, bf16[1536,256]{1,0}, bf16[256,1536]{1,0}, /*index=110*/bf16[1536]{0}, bf16[], bf16[1536]{0}, bf16[8,1536,256]{2,1,0}, bf16[256]{0}, /*index=115*/bf16[1,1536,256]{2,1,0}, bf16[256]{0}, bf16[1,1536,256]{2,1,0}, bf16[8,256,1536]{2,1,0}, bf16[1536]{0}, /*index=120*/bf16[1536]{0}, bf16[1536,6144]{1,0}, bf16[1536,6144]{1,0}, bf16[6144,1536]{1,0}, bf16[1536]{0}, /*index=125*/bf16[1536,256]{1,0}, bf16[256,1536]{1,0}, bf16[1536]{0}, bf16[], bf16[1536]{0}, /*index=130*/bf16[8,1536,256]{2,1,0}, bf16[256]{0}, bf16[1,1536,256]{2,1,0}, bf16[256]{0}, bf16[1,1536,256]{2,1,0}, /*index=135*/bf16[8,256,1536]{2,1,0}, bf16[1536]{0}, bf16[1536]{0}, bf16[1536,6144]{1,0}, bf16[1536,6144]{1,0}, /*index=140*/bf16[6144,1536]{1,0}, bf16[1536]{0}, bf16[1536,256]{1,0}, bf16[256,1536]{1,0}, bf16[1536]{0}, /*index=145*/bf16[], bf16[1536]{0}, bf16[8,1536,256]{2,1,0}, bf16[256]{0}, bf16[1,1536,256]{2,1,0}, /*index=150*/bf16[256]{0}, bf16[1,1536,256]{2,1,0}, bf16[8,256,1536]{2,1,0}, bf16[1536]{0}, bf16[1536]{0}, /*index=155*/bf16[1536,6144]{1,0}, bf16[1536,6144]{1,0}, bf16[6144,1536]{1,0}, bf16[1536]{0}, bf16[1536,256]{1,0}, /*index=160*/bf16[256,1536]{1,0}, bf16[1536]{0}, bf16[], bf16[1536]{0}, bf16[8,1536,512]{2,1,0}, /*index=165*/bf16[512]{0}, bf16[1,1536,512]{2,1,0}, bf16[512]{0}, bf16[1,1536,512]{2,1,0}, bf16[8,512,1536]{2,1,0}, /*index=170*/bf16[1536]{0}, bf16[1536]{0}, bf16[1536,6144]{1,0}, bf16[1536,6144]{1,0}, bf16[6144,1536]{1,0}, /*index=175*/bf16[1536]{0}, bf16[1536,256]{1,0}, bf16[256,1536]{1,0}, bf16[1536]{0}, bf16[], /*index=180*/bf16[1536]{0}, bf16[8,1536,256]{2,1,0}, bf16[256]{0}, bf16[1,1536,256]{2,1,0}, bf16[256]{0}, /*index=185*/bf16[1,1536,256]{2,1,0}, bf16[8,256,1536]{2,1,0}, bf16[1536]{0}, bf16[1536]{0}, bf16[1536,6144]{1,0}, /*index=190*/bf16[1536,6144]{1,0}, bf16[6144,1536]{1,0}, bf16[1536]{0}, bf16[1536,256]{1,0}, bf16[256,1536]{1,0}, /*index=195*/bf16[1536]{0}, bf16[], bf16[1536]{0}, bf16[8,1536,256]{2,1,0}, bf16[256]{0}, /*index=200*/bf16[1,1536,256]{2,1,0}, bf16[256]{0}, bf16[1,1536,256]{2,1,0}, bf16[8,256,1536]{2,1,0}, bf16[1536]{0}, /*index=205*/bf16[1536]{0}, bf16[1536,6144]{1,0}, bf16[1536,6144]{1,0}, bf16[6144,1536]{1,0}, bf16[1536]{0}, /*index=210*/bf16[1536,256]{1,0}, bf16[256,1536]{1,0}, bf16[1536]{0}, bf16[], bf16[1536]{0}, /*index=215*/bf16[8,1536,256]{2,1,0}, bf16[256]{0}, bf16[1,1536,256]{2,1,0}, bf16[256]{0}, bf16[1,1536,256]{2,1,0}, /*index=220*/bf16[8,256,1536]{2,1,0}, bf16[1536]{0}, bf16[1536]{0}, bf16[1536,6144]{1,0}, bf16[1536,6144]{1,0}, /*index=225*/bf16[6144,1536]{1,0}, bf16[1536]{0}, bf16[1536,256]{1,0}, bf16[256,1536]{1,0}, bf16[1536]{0}, /*index=230*/bf16[], bf16[1536]{0}, bf16[8,1536,256]{2,1,0}, bf16[256]{0}, bf16[1,1536,256]{2,1,0}, /*index=235*/bf16[256]{0}, bf16[1,1536,256]{2,1,0}, bf16[8,256,1536]{2,1,0}, bf16[1536]{0}, bf16[1536]{0}, /*index=240*/bf16[1536,6144]{1,0}, bf16[1536,6144]{1,0}, bf16[6144,1536]{1,0}, bf16[1536]{0}, bf16[1536,256]{1,0}, /*index=245*/bf16[256,1536]{1,0}, bf16[1536]{0}, bf16[], bf16[1536]{0}, bf16[8,1536,512]{2,1,0}, /*index=250*/bf16[512]{0}, bf16[1,1536,512]{2,1,0}, bf16[512]{0}, bf16[1,1536,512]{2,1,0}, bf16[8,512,1536]{2,1,0}, /*index=255*/bf16[1536]{0}, bf16[1536]{0}, bf16[1536,6144]{1,0}, bf16[1536,6144]{1,0}, bf16[6144,1536]{1,0}, /*index=260*/bf16[1536]{0}, bf16[1536,256]{1,0}, bf16[256,1536]{1,0}, bf16[1536]{0}, bf16[], /*index=265*/bf16[1536]{0}, bf16[8,1536,256]{2,1,0}, bf16[256]{0}, bf16[8,256,1536]{2,1,0}, bf16[1536]{0}, /*index=270*/bf16[1536]{0}, bf16[1536,12288]{1,0}, bf16[1536,12288]{1,0}, bf16[12288,1536]{1,0}, bf16[1536]{0}, /*index=275*/bf16[1536,256]{1,0}, bf16[256,1536]{1,0}, bf16[1536]{0}, bf16[], bf16[1536]{0}, /*index=280*/bf16[8,1536,256]{2,1,0}, bf16[256]{0}, bf16[8,256,1536]{2,1,0}, bf16[1536]{0}, bf16[1536]{0}, /*index=285*/bf16[1536,12288]{1,0}, bf16[1536,12288]{1,0}, bf16[12288,1536]{1,0}, bf16[1536]{0}, bf16[1536,256]{1,0}, /*index=290*/bf16[256,1536]{1,0}, bf16[1536]{0}, bf16[], bf16[1536]{0}, bf16[8,1536,256]{2,1,0}, /*index=295*/bf16[256]{0}, bf16[8,256,1536]{2,1,0}, bf16[1536]{0}, bf16[1536]{0}, bf16[1536,12288]{1,0}, /*index=300*/bf16[1536,12288]{1,0}, bf16[12288,1536]{1,0}, bf16[1536]{0}, bf16[1536,256]{1,0}, bf16[256,1536]{1,0}, /*index=305*/bf16[1536]{0}, bf16[], bf16[1536]{0}, bf16[8,1536,256]{2,1,0}, bf16[256]{0}, /*index=310*/bf16[8,256,1536]{2,1,0}, bf16[1536]{0}, bf16[1536]{0}, bf16[1536,12288]{1,0}, bf16[1536,12288]{1,0}, /*index=315*/bf16[12288,1536]{1,0}, bf16[1536]{0}, bf16[1536,256]{1,0}, bf16[256,1536]{1,0}, bf16[1536]{0}, /*index=320*/bf16[], bf16[1536]{0}, bf16[8,1536,512]{2,1,0}, bf16[512]{0}, bf16[8,512,1536]{2,1,0}, /*index=325*/bf16[1536]{0}, bf16[1536]{0}, bf16[1536,12288]{1,0}, bf16[1536,12288]{1,0}, bf16[12288,1536]{1,0}, /*index=330*/bf16[1536]{0}, bf16[1536,256]{1,0}, bf16[256,1536]{1,0}, bf16[1536]{0}, bf16[], /*index=335*/bf16[1536]{0}, bf16[8,1536,256]{2,1,0}, bf16[256]{0}, bf16[8,256,1536]{2,1,0}, bf16[1536]{0}, /*index=340*/bf16[1536]{0}, bf16[1536,12288]{1,0}, bf16[1536,12288]{1,0}, bf16[12288,1536]{1,0}, bf16[1536]{0}, /*index=345*/bf16[1536,256]{1,0}, bf16[256,1536]{1,0}, bf16[1536]{0}, bf16[], bf16[1536]{0}, /*index=350*/bf16[8,1536,256]{2,1,0}, bf16[256]{0}, bf16[8,256,1536]{2,1,0}, bf16[1536]{0}, bf16[1536]{0}, /*index=355*/bf16[1536,12288]{1,0}, bf16[1536,12288]{1,0}, bf16[12288,1536]{1,0}, bf16[1536]{0}, bf16[1536,256]{1,0}, /*index=360*/bf16[256,1536]{1,0}, bf16[1536]{0}, bf16[], bf16[1536]{0}, bf16[8,1536,256]{2,1,0}, /*index=365*/bf16[256]{0}, bf16[8,256,1536]{2,1,0}, bf16[1536]{0}, bf16[1536]{0}, bf16[1536,12288]{1,0}, /*index=370*/bf16[1536,12288]{1,0}, bf16[12288,1536]{1,0}, bf16[1536]{0}, bf16[1536,256]{1,0}, bf16[256,1536]{1,0}, /*index=375*/bf16[1536]{0}, bf16[], bf16[1536]{0}, bf16[8,1536,256]{2,1,0}, bf16[256]{0}, /*index=380*/bf16[8,256,1536]{2,1,0}, bf16[1536]{0}, bf16[1536]{0}, bf16[1536,12288]{1,0}, bf16[1536,12288]{1,0}, /*index=385*/bf16[12288,1536]{1,0}, bf16[1536]{0}, bf16[1536,256]{1,0}, bf16[256,1536]{1,0}, bf16[1536]{0}, /*index=390*/bf16[], bf16[1536]{0}, bf16[8,1536,512]{2,1,0}, bf16[512]{0}, bf16[8,512,1536]{2,1,0}, /*index=395*/bf16[1536]{0}, bf16[1536]{0}, bf16[1536,12288]{1,0}, bf16[1536,12288]{1,0}, bf16[12288,1536]{1,0}, /*index=400*/bf16[1536]{0}, bf16[1536,256]{1,0}, bf16[256,1536]{1,0}, bf16[1536]{0}, bf16[], /*index=405*/bf16[1536]{0}, bf16[8,1536,256]{2,1,0}, bf16[256]{0}, bf16[8,256,1536]{2,1,0}, bf16[1536]{0}, /*index=410*/bf16[1536]{0}, bf16[1536,12288]{1,0}, bf16[1536,12288]{1,0}, bf16[12288,1536]{1,0}, bf16[1536]{0}, /*index=415*/bf16[1536,256]{1,0}, bf16[256,1536]{1,0}, bf16[1536]{0}, bf16[], bf16[1536]{0}, /*index=420*/bf16[8,1536,256]{2,1,0}, bf16[256]{0}, bf16[8,256,1536]{2,1,0}, bf16[1536]{0}, bf16[1536]{0}, /*index=425*/bf16[1536,12288]{1,0}, bf16[1536,12288]{1,0}, bf16[12288,1536]{1,0}, bf16[1536]{0}, bf16[1536,256]{1,0}, /*index=430*/bf16[256,1536]{1,0}, bf16[1536]{0}, bf16[], bf16[1536]{0}, bf16[8,1536,256]{2,1,0}, /*index=435*/bf16[256]{0}, bf16[8,256,1536]{2,1,0}, bf16[1536]{0}, bf16[1536]{0}, bf16[1536,12288]{1,0}, /*index=440*/bf16[1536,12288]{1,0}, bf16[12288,1536]{1,0}, bf16[1536]{0}, bf16[1536,256]{1,0}, bf16[256,1536]{1,0}, /*index=445*/bf16[1536]{0}, bf16[], bf16[1536]{0}, bf16[8,1536,256]{2,1,0}, bf16[256]{0}, /*index=450*/bf16[8,256,1536]{2,1,0}, bf16[1536]{0}, bf16[1536]{0}, bf16[1536,12288]{1,0}, bf16[1536,12288]{1,0}, /*index=455*/bf16[12288,1536]{1,0}, bf16[1536]{0}, bf16[1536,256]{1,0}, bf16[256,1536]{1,0}, bf16[1536]{0}, /*index=460*/bf16[], bf16[1536]{0}, bf16[8,1536,512]{2,1,0}, bf16[512]{0}, bf16[8,512,1536]{2,1,0}, /*index=465*/bf16[1536]{0}, bf16[1536]{0}, bf16[1536,12288]{1,0}, bf16[1536,12288]{1,0}, bf16[12288,1536]{1,0}, /*index=470*/bf16[1536]{0}, bf16[1536,256]{1,0}, bf16[256,1536]{1,0}, bf16[1536]{0}, bf16[], /*index=475*/bf16[1536]{0}, bf16[8,1536,256]{2,1,0}, bf16[256]{0}, bf16[8,256,1536]{2,1,0}, bf16[1536]{0}, /*index=480*/bf16[1536]{0}, bf16[1536,12288]{1,0}, bf16[1536,12288]{1,0}, bf16[12288,1536]{1,0}, bf16[1536]{0}, /*index=485*/bf16[1536,256]{1,0}, bf16[256,1536]{1,0}, bf16[1536]{0}, bf16[], bf16[1536]{0}, /*index=490*/bf16[8,1536,256]{2,1,0}, bf16[256]{0}, bf16[8,256,1536]{2,1,0}, bf16[1536]{0}, bf16[1536]{0}, /*index=495*/bf16[1536,12288]{1,0}, bf16[1536,12288]{1,0}, bf16[12288,1536]{1,0}, bf16[1536]{0}, bf16[1536,256]{1,0}, /*index=500*/bf16[256,1536]{1,0}, bf16[1536]{0}, bf16[], bf16[1536]{0}, bf16[8,1536,256]{2,1,0}, /*index=505*/bf16[256]{0}, bf16[8,256,1536]{2,1,0}, bf16[1536]{0}, bf16[1536]{0}, bf16[1536,12288]{1,0}, /*index=510*/bf16[1536,12288]{1,0}, bf16[12288,1536]{1,0}, bf16[1536]{0}, bf16[1536,256]{1,0}, bf16[256,1536]{1,0}, /*index=515*/bf16[1536]{0}, bf16[], bf16[1536]{0}, bf16[8,1536,256]{2,1,0}, bf16[256]{0}, /*index=520*/bf16[8,256,1536]{2,1,0}, bf16[1536]{0}, bf16[1536]{0}, bf16[1536,12288]{1,0}, bf16[1536,12288]{1,0}, /*index=525*/bf16[12288,1536]{1,0}, bf16[1536]{0}, bf16[1536,256]{1,0}, bf16[256,1536]{1,0}, bf16[1536]{0}, /*index=530*/bf16[], bf16[1536]{0}, bf16[8,1536,512]{2,1,0}, bf16[512]{0}, bf16[8,512,1536]{2,1,0}, /*index=535*/bf16[1536]{0}, bf16[1536]{0}, bf16[1536,12288]{1,0}, bf16[1536,12288]{1,0}, bf16[12288,1536]{1,0}, /*index=540*/bf16[1536]{0}, bf16[1536,256]{1,0}, bf16[256,1536]{1,0}, bf16[1536]{0}, bf16[], /*index=545*/bf16[1536]{0}) while(%while.6), condition=%region_562.587, body=%region_175.584
  %while.9 = bf16[1,35,2,41,1,512]{5,4,3,2,1,0} get-tuple-element(%while.7), index=1
  %while.10 = s32[] get-tuple-element(%while.7), index=2
  %while.11 = s32[] get-tuple-element(%while.7), index=3
  %while.8 = s32[1,41]{1,0} get-tuple-element(%while.7), index=0
  %constant.240 = s32[] constant(1)
  %broadcast.116 = s32[1,41]{1,0} broadcast(%constant.240), dimensions={}
  %eq.108 = pred[1,41]{1,0} compare(%while.8, %broadcast.116), direction=EQ
  %constant.239 = s32[] constant(106)
  %broadcast.115 = s32[1,41]{1,0} broadcast(%constant.239), dimensions={}
  %eq.109 = pred[1,41]{1,0} compare(%while.8, %broadcast.115), direction=EQ
  %or.7 = pred[1,41]{1,0} or(%eq.108, %eq.109)
  %not.8 = pred[1,41]{1,0} not(%inputs__padding_mask__.1)
  %and.177 = pred[1,41]{1,0} and(%or.7, %not.8)
  %convert_element_type.3188 = s32[1,41]{1,0} convert(%and.177)
  %jit_cumsum_.1 = s32[1,41]{1,0} call(%convert_element_type.3188), to_apply=%cumsum.590
  %sub.409 = s32[1,41]{1,0} subtract(%jit_cumsum_.1, %convert_element_type.3188)
  %convert_element_type.3189 = pred[1,41]{1,0} compare(%sub.409, %broadcast.153), direction=NE
  %not.9 = pred[1,41]{1,0} not(%convert_element_type.3189)
  ROOT %tuple.5 = (pred[1,41]{1,0}, s32[1,41]{1,0}) tuple(%not.9, %while.8)
}

