diff --ruN a/stablehlo/stablehlo/conversions/linalg/tests/pointwise.mlir b/stablehlo/stablehlo/conversions/linalg/tests/pointwise.mlir
--- stablehlo/stablehlo/conversions/linalg/tests/pointwise.mlir
+++ stablehlo/stablehlo/conversions/linalg/tests/pointwise.mlir
@@ -1521,10 +1521,10 @@
 // CHECK: %[[V1:.*]] = arith.addi %[[V0]], %[[C3]] : i32
 // CHECK: %[[V2:.*]] = arith.addi %[[X_AS_INT]], %[[V1]] : i32
 // CHECK: %[[V3:.*]] = arith.andi %[[V2]], %[[C4]] : i32
-// CHECK: %[[V4:.*]] = arith.andi %[[V3]], %[[C5]] : i32
+// CHECK: %[[V4:.*]] = arith.andi %[[V2]], %[[C5]] : i32
 // CHECK: %[[V5:.*]] = arith.cmpi ugt, %[[V4]], %[[C6]] : i32
 // CHECK: %[[V6:.*]] = arith.cmpi ule, %[[V4]], %[[C7]] : i32
-// CHECK: %[[V7:.*]] = arith.andi %[[V3]], %[[C8]] : i32
+// CHECK: %[[V7:.*]] = arith.andi %[[V2]], %[[C8]] : i32
 // CHECK: %[[V8:.*]] = arith.ori %[[V7]], %[[C5]] : i32
 // CHECK: %[[V9:.*]] = arith.select %[[V5]], %[[V8]], %[[V3]] : i32
 // CHECK: %[[V10:.*]] = arith.select %[[V6]], %[[V7]], %[[V9]] : i32
diff --ruN a/stablehlo/stablehlo/conversions/linalg/tests/reduce.mlir b/stablehlo/stablehlo/conversions/linalg/tests/reduce.mlir
--- stablehlo/stablehlo/conversions/linalg/tests/reduce.mlir
+++ stablehlo/stablehlo/conversions/linalg/tests/reduce.mlir
@@ -256,7 +256,7 @@
 // CHECK-SAME:    outs(%[[FILL0]], %[[FILL1]] : tensor<2xi32>, tensor<2xi32>)
 // CHECK-NEXT:   ^bb0(%[[IN0:.*]]: i32, %[[IN1:.*]]: i32, %[[OUT0:.*]]: i32, %[[OUT1:.*]]: i32):
 // CHECK-NEXT:     %[[T1:.*]] = arith.cmpi sge, %[[OUT0]], %[[IN0]] : i32
-// CHECK-NEXT:     %[[T2:.*]] = arith.select %[[T1]], %[[OUT0]], %[[IN0]] : i32
+// CHECK-NEXT:     %[[T2:.*]] = arith.maxsi %[[OUT0]], %[[IN0]] : i32
 // CHECK-NEXT:     %[[T3:.*]] = arith.cmpi eq, %[[OUT0]], %[[IN0]] : i32
 // CHECK-NEXT:     %[[T4:.*]] = arith.minsi %[[OUT1:.*]], %[[IN1]] : i32
 // CHECK-NEXT:     %[[T5:.*]] = arith.select %[[T1]], %[[OUT1]], %[[IN1]] : i32
@@ -275,7 +275,7 @@
 // CHECK-PRIMITIVE-SAME:    dimensions = [0]
 // CHECK-PRIMITIVE-NEXT:   (%[[IN0:.*]]: i32, %[[IN1:.*]]: i32, %[[OUT0:.*]]: i32, %[[OUT1:.*]]: i32) {
 // CHECK-PRIMITIVE-NEXT:     %[[T1:.*]] = arith.cmpi sge, %[[OUT0]], %[[IN0]] : i32
-// CHECK-PRIMITIVE-NEXT:     %[[T2:.*]] = arith.select %[[T1]], %[[OUT0]], %[[IN0]] : i32
+// CHECK-PRIMITIVE-NEXT:     %[[T2:.*]] = arith.maxsi %[[OUT0]], %[[IN0]] : i32
 // CHECK-PRIMITIVE-NEXT:     %[[T3:.*]] = arith.cmpi eq, %[[OUT0]], %[[IN0]] : i32
 // CHECK-PRIMITIVE-NEXT:     %[[T4:.*]] = arith.minsi %[[OUT1:.*]], %[[IN1]] : i32
 // CHECK-PRIMITIVE-NEXT:     %[[T5:.*]] = arith.select %[[T1]], %[[OUT1]], %[[IN1]] : i32
diff --ruN a/stablehlo/stablehlo/dialect/Base.td b/stablehlo/stablehlo/dialect/Base.td
--- stablehlo/stablehlo/dialect/Base.td
+++ stablehlo/stablehlo/dialect/Base.td
@@ -152,7 +152,7 @@
     AnyTypeOf<[HLO_PerAxisQuantizedSignedInt, HLO_PerAxisQuantizedUnsignedInt], "per-axis integer quantized">;
 
 // Token type.
-def HLO_Token : Type<CPred<"::llvm::isa<TokenType>($_self)">, "token">;
+def HLO_Token : Type<CPred<"::llvm::isa<::mlir::stablehlo::TokenType>($_self)">, "token">;
 
 // Any integer tensor types
 def HLO_IntTensor : RankedTensorOf<[HLO_Int]>;
@@ -181,7 +181,7 @@
 
 def HLO_Tensor : RankedTensorOf<[HLO_Float, HLO_Pred, HLO_Int, HLO_Complex, HLO_QuantizedInt]>;
 
-def HLO_Future : Type<CPred<"::llvm::isa<FutureType>($_self)">, "future">;
+def HLO_Future : Type<CPred<"::llvm::isa<::mlir::stablehlo::FutureType>($_self)">, "future">;
 
 def HLO_ScalarTensor: 0DTensorOf<[HLO_Float, HLO_Pred, HLO_Int, HLO_Complex, HLO_QuantizedInt]>;
 
@@ -237,7 +237,7 @@
 
 def HLO_CustomCallTuple : NestedTupleOf<[HLO_AnyTensor, HLO_Buffer, HLO_Token]>;
 
-def HLO_CustomCallValue : AnyTypeOf<[HLO_AnyTensor, HLO_Buffer, HLO_Token, HLO_CustomCallTuple]>;
+def HLO_CustomCallValue : AnyTypeOf<[HLO_AnyTensor, HLO_Buffer, HLO_Token, HLO_CustomCallTuple, HLO_Future]>;
 
 //===----------------------------------------------------------------------===//
 // HLO combined type definitions.
diff --ruN a/stablehlo/stablehlo/dialect/ChloOps.cpp b/stablehlo/stablehlo/dialect/ChloOps.cpp
--- stablehlo/stablehlo/dialect/ChloOps.cpp
+++ stablehlo/stablehlo/dialect/ChloOps.cpp
@@ -93,6 +93,7 @@
 INFER_RETURN_TYPE_COMPONENTS_FROM_OPERANDS(ErfcOp)
 INFER_RETURN_TYPE_COMPONENTS_FROM_OPERANDS(ErfInvOp)
 INFER_RETURN_TYPE_COMPONENTS_FROM_OPERANDS(LgammaOp)
+INFER_RETURN_TYPE_COMPONENTS_FROM_OPERANDS(MulhiOp)
 INFER_RETURN_TYPE_COMPONENTS_FROM_OPERANDS(NextAfterOp)
 INFER_RETURN_TYPE_COMPONENTS_FROM_OPERANDS(PolygammaOp)
 INFER_RETURN_TYPE_COMPONENTS_FROM_OPERANDS(SinhOp)
@@ -751,6 +752,24 @@
   return success();
 }
 
+LogicalResult RaggedDotOp::inferReturnTypeComponents(
+    MLIRContext* context, std::optional<Location> location,
+    ValueShapeRange operands, DictionaryAttr attributes, PropertyRef properties,
+    RegionRange regions,
+    SmallVectorImpl<ShapedTypeComponents>& inferredReturnShapes) {
+  RaggedDotOp::Adaptor adaptor(operands, attributes, properties, regions);
+  auto raggedDotDimNums = adaptor.getRaggedDotDimensionNumbers();
+  return inferRaggedDotOp(location, adaptor.getLhs(), adaptor.getRhs(),
+                          adaptor.getGroupSizes(),
+                          raggedDotDimNums.getLhsBatchingDimensions(),
+                          raggedDotDimNums.getRhsBatchingDimensions(),
+                          raggedDotDimNums.getLhsContractingDimensions(),
+                          raggedDotDimNums.getRhsContractingDimensions(),
+                          raggedDotDimNums.getLhsRaggedDimensions(),
+                          raggedDotDimNums.getRhsGroupDimensions(),
+                          adaptor.getPrecisionConfig(), inferredReturnShapes);
+}
+
 //===----------------------------------------------------------------------===//
 // TopKOp
 //===----------------------------------------------------------------------===//
diff --ruN a/stablehlo/stablehlo/dialect/ChloOps.td b/stablehlo/stablehlo/dialect/ChloOps.td
--- stablehlo/stablehlo/dialect/ChloOps.td
+++ stablehlo/stablehlo/dialect/ChloOps.td
@@ -859,7 +859,8 @@
   let hasCustomAssemblyFormat = 1;
 }
 
-def CHLO_RaggedDotOp : CHLO_Op<"ragged_dot", [Pure]> {
+def CHLO_RaggedDotOp : CHLO_Op<"ragged_dot", [Pure,
+    DeclareOpInterfaceMethods<InferShapedTypeOpInterface, ["inferReturnTypeComponents"]>]> {
   string summary = "Computes a matmul over a single ragged dimension";
 
   string description = [{
@@ -988,4 +989,26 @@
   let hasVerifier = 1;
 }
 
+
+def CHLO_MulhiOp : CHLO_Op<"mulhi", [Commutative, Pure,
+    HLO_CompatibleOperandsAndResultType]> {
+  let summary = "Mulhi operation";
+  let description = [{
+    Performs element-wise multiplication of two N-bit integer tensors
+    `lhs` and `rhs`, returning a N-bit integer `result` tensor containing
+    the most significant N bits of the upcasted (N+N-bit) product.
+
+    $$
+    \text{mulhi}(x, y) = \text{downcast}((\text{upcast}(x) * \text{upcast}(y)) >> N)
+    $$
+  }];
+  let arguments = (ins HLO_IntTensor:$lhs, HLO_IntTensor:$rhs);
+  let results = (outs HLO_IntTensor:$result);
+
+  let assemblyFormat = [{
+    $lhs `,` $rhs attr-dict `:` type($lhs) `,` type($rhs) `->` type($result)
+  }];
+}
+
 #endif  // STABLEHLO_DIALECT_CHLO_OPS
+
diff --ruN a/stablehlo/stablehlo/dialect/StablehloAttrs.td b/stablehlo/stablehlo/dialect/StablehloAttrs.td
--- stablehlo/stablehlo/dialect/StablehloAttrs.td
+++ stablehlo/stablehlo/dialect/StablehloAttrs.td
@@ -18,6 +18,7 @@
 #define STABLEHLO_DIALECT_STABLEHLO_ATTRS
 
 include "mlir/IR/OpBase.td"
+include "mlir/IR/SymbolInterfaces.td"
 include "mlir/IR/TensorEncoding.td"
 include "stablehlo/dialect/StablehloTypes.td"
 
@@ -275,7 +276,8 @@
   }];
 }
 
-def StableHLO_ReplicaGroupMeshAxes : AttrDef<StableHLO_Dialect, "ReplicaGroupMeshAxes"> {
+def StableHLO_ReplicaGroupMeshAxes : AttrDef<StableHLO_Dialect, "ReplicaGroupMeshAxes",
+    [DeclareAttrInterfaceMethods<SymbolUserAttrInterface>]> {
   let mnemonic = "replica_group_mesh_axes";
   let summary = "mesh and axes based replica groups representation.";
   let parameters = (ins
diff --ruN a/stablehlo/stablehlo/dialect/StablehloOps.cpp b/stablehlo/stablehlo/dialect/StablehloOps.cpp
--- stablehlo/stablehlo/dialect/StablehloOps.cpp
+++ stablehlo/stablehlo/dialect/StablehloOps.cpp
@@ -123,6 +123,17 @@
   assert(type.isIndex() || value.getType().isIndex());
   return arith::IndexCastOp::create(b, loc, type, value);
 }
+
+LogicalResult verifyReplicaGroupsSymbolUses(
+    Operation* op, Attribute replicaGroups,
+    SymbolTableCollection& symbolTable) {
+  if (replicaGroups) {
+    if (auto user = dyn_cast<SymbolUserAttrInterface>(replicaGroups)) {
+      return user.verifySymbolUses(op, symbolTable);
+    }
+  }
+  return success();
+}
 }  // namespace
 
 LogicalResult TypeExtensionsAttr::verifyEncoding(
@@ -204,6 +215,11 @@
       return mlir::Speculation::NotSpeculatable;
   }
   return mlir::Speculation::Speculatable;
+}
+
+LogicalResult ReduceScatterOp::verifySymbolUses(
+    SymbolTableCollection& symbolTable) {
+  return verifyReplicaGroupsSymbolUses(*this, getReplicaGroups(), symbolTable);
 }
 
 //===----------------------------------------------------------------------===//
@@ -1050,6 +1066,17 @@
   return success();
 }
 
+LogicalResult ReplicaGroupMeshAxesAttr::verifySymbolUses(
+    Operation* op, SymbolTableCollection& symbolTable) const {
+  if (auto symbolRef = dyn_cast<FlatSymbolRefAttr>(getMesh())) {
+    if (!symbolTable.lookupNearestSymbolFrom(op, symbolRef)) {
+      return op->emitOpError() << "replica_groups: mesh symbol '"
+                               << symbolRef.getValue() << "' not found";
+    }
+  }
+  return success();
+}
+
 // ===---------------------------------------------------------------------===//
 // CbrtOp
 //===----------------------------------------------------------------------===//
@@ -1526,6 +1553,11 @@
 
 LogicalResult CollectiveBroadcastOp::verify() {
   return hlo::verifyCollectiveBroadcastOp(getLoc(), getReplicaGroups());
+}
+
+LogicalResult CollectiveBroadcastOp::verifySymbolUses(
+    SymbolTableCollection& symbolTable) {
+  return verifyReplicaGroupsSymbolUses(*this, getReplicaGroups(), symbolTable);
 }
 
 //===----------------------------------------------------------------------===//
@@ -1703,6 +1735,10 @@
   return mlir::Speculation::Speculatable;
 }
 
+LogicalResult AllToAllOp::verifySymbolUses(SymbolTableCollection& symbolTable) {
+  return verifyReplicaGroupsSymbolUses(*this, getReplicaGroups(), symbolTable);
+}
+
 //===----------------------------------------------------------------------===//
 // AllGatherOp
 //===----------------------------------------------------------------------===//
@@ -1738,6 +1774,11 @@
   return mlir::Speculation::Speculatable;
 }
 
+LogicalResult AllGatherOp::verifySymbolUses(
+    SymbolTableCollection& symbolTable) {
+  return verifyReplicaGroupsSymbolUses(*this, getReplicaGroups(), symbolTable);
+}
+
 //===----------------------------------------------------------------------===//
 // AllReduceOp
 //===----------------------------------------------------------------------===//
@@ -1758,6 +1799,11 @@
   return hlo::verifyAllReduceOp(getLoc(), getOperands(), getReplicaGroups(),
                                 channelId, getUseGlobalDeviceIds(),
                                 getComputation());
+}
+
+LogicalResult AllReduceOp::verifySymbolUses(
+    SymbolTableCollection& symbolTable) {
+  return verifyReplicaGroupsSymbolUses(*this, getReplicaGroups(), symbolTable);
 }
 
 LogicalResult AllReduceOp::inferReturnTypeComponents(
@@ -3724,10 +3770,6 @@
     return NonSpatialDim(DenseMapInfo<int64_t>::getEmptyKey());
   }
 
-  static inline NonSpatialDim getTombstoneKey() {
-    return NonSpatialDim(DenseMapInfo<int64_t>::getTombstoneKey());
-  }
-
   static unsigned getHashValue(const NonSpatialDim& key) {
     return DenseMapInfo<int64_t>::getHashValue(key);
   }
diff --ruN a/stablehlo/stablehlo/dialect/StablehloOps.td b/stablehlo/stablehlo/dialect/StablehloOps.td
--- stablehlo/stablehlo/dialect/StablehloOps.td
+++ stablehlo/stablehlo/dialect/StablehloOps.td
@@ -1485,7 +1485,8 @@
 
 def StableHLO_AllGatherOp : StableHLO_Op<"all_gather",
     [ConditionallySpeculatable,
-     HLO_PairwiseSameOperandAndResultElementType, /*all_gather_c6*/]> {
+     HLO_PairwiseSameOperandAndResultElementType /*all_gather_c6*/,
+     DeclareOpInterfaceMethods<SymbolUserOpInterface>]> {
   string summary = "AllGather operation";
   string description = [{
     Within each process group in the process grid, concatenates the values of the
@@ -1525,7 +1526,8 @@
 def StableHLO_AllReduceOp : StableHLO_Op<"all_reduce",
     [HLO_SpeculatableIfStaticDimInOutputIsStaticInInput,
      InferTensorType /*all_reduce_c6, all_reduce_c7*/,
-     SingleBlockImplicitTerminator<"ReturnOp">]> {
+     SingleBlockImplicitTerminator<"ReturnOp">,
+     DeclareOpInterfaceMethods<SymbolUserOpInterface>]> {
   let summary = "AllReduce operation";
   let description = [{
     Within each process group in the process grid, applies a reduction function
@@ -1568,7 +1570,8 @@
  ];
 }
 
-def StableHLO_ReduceScatterOp : StableHLO_Op<"reduce_scatter", [ConditionallySpeculatable]> {
+def StableHLO_ReduceScatterOp : StableHLO_Op<"reduce_scatter",
+    [ConditionallySpeculatable, DeclareOpInterfaceMethods<SymbolUserOpInterface>]> {
   let summary = "ReduceScatter operation";
   let description = [{
      Within each process group in the process grid, performs reduction, using
@@ -1615,7 +1618,8 @@
 def StableHLO_AllToAllOp : StableHLO_Op<"all_to_all",
     [ConditionallySpeculatable,
      HLO_PairwiseSameOperandAndResultElementType /*all_to_all_c9*/,
-     InferTensorType /*all_to_all_c9*/]> {
+     InferTensorType /*all_to_all_c9*/,
+     DeclareOpInterfaceMethods<SymbolUserOpInterface>]> {
   let summary = "AllToAll operation";
   let description = [{
     Within each process group in the process grid, splits the values of the
@@ -2350,7 +2354,8 @@
     [HLO_SpeculatableIfStaticDimInOutputIsStaticInInput,
      SameOperandsAndResultElementType /*collective_broadcast_c3*/,
      DeclareOpInterfaceMethods<InferTypeOpInterface>,
-     DeclareOpInterfaceMethods<InferShapedTypeOpInterface, ["inferReturnTypeComponents"]>
+     DeclareOpInterfaceMethods<InferShapedTypeOpInterface, ["inferReturnTypeComponents"]>,
+     DeclareOpInterfaceMethods<SymbolUserOpInterface>
     ]> {
   let summary = "CollectiveBroadcast operation";
   let description = [{
diff --ruN a/stablehlo/stablehlo/dialect/Version.h b/stablehlo/stablehlo/dialect/Version.h
--- stablehlo/stablehlo/dialect/Version.h
+++ stablehlo/stablehlo/dialect/Version.h
@@ -38,7 +38,7 @@
   static FailureOr<Version> fromString(llvm::StringRef versionRef);
 
   /// Return a Version representing the current VHLO dialect version.
-  static Version getCurrentVersion() { return Version(1, 16, 3); }
+  static Version getCurrentVersion() { return Version(1, 17, 0); }
 
   /// Return a Version representing the minimum supported VHLO dialect version.
   static Version getMinimumVersion() { return Version(0, 9, 0); }
diff --ruN a/stablehlo/stablehlo/dialect/VhloOps.cpp b/stablehlo/stablehlo/dialect/VhloOps.cpp
--- stablehlo/stablehlo/dialect/VhloOps.cpp
+++ stablehlo/stablehlo/dialect/VhloOps.cpp
@@ -346,6 +346,19 @@
   return success();
 }
 
+LogicalResult verifyConstraint_1_17_0(mlir::Operation* op,
+                                      Version targetVersion) {
+  auto customCallOp = cast<mlir::vhlo::CustomCallOpV1>(op);
+  if (targetVersion < Version(1, 17, 0)) {
+    for (Type type : customCallOp.getInputs().getTypes()) {
+      if (isa<vhlo::FutureV1Type>(type)) {
+        return failure();
+      }
+    }
+  }
+  return success();
+}
+
 }  // namespace
 
 LogicalResult AllReduceOpV1::validateConstraint(mlir::Operation* op,
@@ -380,7 +393,9 @@
 
 LogicalResult CustomCallOpV1::validateConstraint(mlir::Operation* op,
                                                  Version targetVersion) {
-  return verifyConstraint_1_3_0(op, targetVersion);
+  if (failed(verifyConstraint_1_17_0(op, targetVersion))) return failure();
+  if (failed(verifyConstraint_1_3_0(op, targetVersion))) return failure();
+  return success();
 }
 
 }  // namespace vhlo
diff --ruN a/stablehlo/stablehlo/reference/Ops.h b/stablehlo/stablehlo/reference/Ops.h
--- stablehlo/stablehlo/reference/Ops.h
+++ stablehlo/stablehlo/reference/Ops.h
@@ -109,7 +109,7 @@
                 bool indicesAreSorted, ShapedType resultType);
 Tensor getDimensionSizeOp(const Tensor &operand, Axis dimension,
                           ShapedType resultType);
-InterpreterValue getTupleElementOp(const Tuple &operand, int32_t index);
+InterpreterValue getTupleElementOp(const class Tuple &operand, int32_t index);
 SmallVector<InterpreterValue> ifOp(const Tensor &pred, Region &trueBranch,
                                    Region &falseBranch, Process *process,
                                    Scope &scope);
@@ -206,7 +206,7 @@
 Tensor triangularSolveOp(const Tensor &A, const Tensor &b, bool leftSide,
                          bool lower, bool unitDiagonal, Transpose transposeA,
                          ShapedType resultType);
-Tuple tupleOp(ArrayRef<InterpreterValue> val, TupleType resultType);
+class Tuple tupleOp(ArrayRef<InterpreterValue> val, TupleType resultType);
 SmallVector<InterpreterValue> whileOp(SmallVector<InterpreterValue> operand,
                                       Region &cond, Region &body,
                                       InterpreterFallback *fallback,
diff --ruN a/stablehlo/stablehlo/reference/Scope.h b/stablehlo/stablehlo/reference/Scope.h
--- stablehlo/stablehlo/reference/Scope.h
+++ stablehlo/stablehlo/reference/Scope.h
@@ -51,7 +51,7 @@
 
   /// Add the mapping from SSA value (`ssaValue`), defined in a region, to its
   /// evaluated runtime value (`runtimeValue`).
-  void add(Value ssaValue, Tuple runtimeValue);
+  void add(Value ssaValue, class Tuple runtimeValue);
 
   /// Add the mapping from SSA values (`ssaValues`), defined in a region, to its
   /// evaluated runtime values (`runtimeValues`).
@@ -92,7 +92,7 @@
   /// Find the runtime value mapped to SSA value `ssaValue`. The search starts
   /// with the current scope and then recursively continues over to the scope
   /// defined by `parent_`.
-  Tuple findTuple(Value ssaValue) const;
+  class Tuple findTuple(Value ssaValue) const;
 
  private:
   /// Internal store for mapping from SSA values to runtime `InterpreterValue`
diff --ruN a/stablehlo/stablehlo/reference/Value.h b/stablehlo/stablehlo/reference/Value.h
--- stablehlo/stablehlo/reference/Value.h
+++ stablehlo/stablehlo/reference/Value.h
@@ -58,7 +58,7 @@
   InterpreterValue() = default;
   InterpreterValue(const Tensor &tensor);
   InterpreterValue(const Token &token);
-  InterpreterValue(const Tuple &tuple);
+  InterpreterValue(const class Tuple &tuple);
   /// @}
 
   /// Getter method for Tensor object.
@@ -68,7 +68,7 @@
   Token getToken() const;
 
   /// Getter method for Tuple object.
-  Tuple getTuple() const;
+  class Tuple getTuple() const;
 
   /// Getter method for type_;
   Type getType() const;
@@ -89,7 +89,7 @@
   void dump() const;
 
  private:
-  std::variant<Tensor, Token, Tuple> value_;
+  std::variant<Tensor, Token, class Tuple> value_;
 };
 
 }  // namespace stablehlo
diff --ruN a/stablehlo/stablehlo/tests/chlo/chlo_legalize_to_stablehlo.mlir b/stablehlo/stablehlo/tests/chlo/chlo_legalize_to_stablehlo.mlir
--- stablehlo/stablehlo/tests/chlo/chlo_legalize_to_stablehlo.mlir
+++ stablehlo/stablehlo/tests/chlo/chlo_legalize_to_stablehlo.mlir
@@ -89,24 +89,24 @@
 // CHECK:           %[[SQRT_0:.*]] = stablehlo.sqrt %[[CONSTANT_0]] : tensor<f32>
 // CHECK:           %[[CONSTANT_1:.*]] = stablehlo.constant dense<8.000000e+00> : tensor<f32>
 // CHECK:           %[[DIVIDE_0:.*]] = stablehlo.divide %[[SQRT_0]], %[[CONSTANT_1]] : tensor<f32>
-// CHECK:           %[[COMPARE_0:.*]] = stablehlo.compare  GE, %[[MAXIMUM_0]], %[[DIVIDE_0]] : (tensor<f32>, tensor<f32>) -> tensor<i1>
+// CHECK:           %[[COMPARE_0:.*]] = stablehlo.compare GE, %[[MAXIMUM_0]], %[[DIVIDE_0]] : (tensor<f32>, tensor<f32>) -> tensor<i1>
 // CHECK:           %[[CONSTANT_2:.*]] = stablehlo.constant dense<1.000000e+00> : tensor<f32>
-// CHECK:           %[[COMPARE_1:.*]] = stablehlo.compare  LE, %[[ABS_0]], %[[CONSTANT_2]] : (tensor<f32>, tensor<f32>) -> tensor<i1>
+// CHECK:           %[[COMPARE_1:.*]] = stablehlo.compare LE, %[[ABS_0]], %[[CONSTANT_2]] : (tensor<f32>, tensor<f32>) -> tensor<i1>
 // CHECK:           %[[CONSTANT_3:.*]] = stablehlo.constant dense<5.000000e-01> : tensor<f32>
 // CHECK:           %[[ADD_0:.*]] = stablehlo.add %[[ABS_0]], %[[CONSTANT_2]] : tensor<f32>
 // CHECK:           %[[ABS_2:.*]] = stablehlo.abs %[[ADD_0]] : tensor<f32>
 // CHECK:           %[[MAXIMUM_1:.*]] = stablehlo.maximum %[[ABS_2]], %[[ABS_1]] : tensor<f32>
 // CHECK:           %[[MINIMUM_0:.*]] = stablehlo.minimum %[[ABS_2]], %[[ABS_1]] : tensor<f32>
-// CHECK:           %[[COMPARE_2:.*]] = stablehlo.compare  EQ, %[[MAXIMUM_1]], %[[MINIMUM_0]] : (tensor<f32>, tensor<f32>) -> tensor<i1>
+// CHECK:           %[[COMPARE_2:.*]] = stablehlo.compare EQ, %[[MAXIMUM_1]], %[[MINIMUM_0]] : (tensor<f32>, tensor<f32>) -> tensor<i1>
 // CHECK:           %[[CONSTANT_4:.*]] = stablehlo.constant dense<1.41421354> : tensor<f32>
 // CHECK:           %[[MULTIPLY_0:.*]] = stablehlo.multiply %[[CONSTANT_4]], %[[MAXIMUM_1]] : tensor<f32>
 // CHECK:           %[[DIVIDE_1:.*]] = stablehlo.divide %[[MINIMUM_0]], %[[MAXIMUM_1]] : tensor<f32>
 // CHECK:           %[[MULTIPLY_1:.*]] = stablehlo.multiply %[[DIVIDE_1]], %[[DIVIDE_1]] : tensor<f32>
 // CHECK:           %[[ADD_1:.*]] = stablehlo.add %[[CONSTANT_2]], %[[MULTIPLY_1]] : tensor<f32>
 // CHECK:           %[[SQRT_1:.*]] = stablehlo.sqrt %[[ADD_1]] : tensor<f32>
-// CHECK:           %[[COMPARE_3:.*]] = stablehlo.compare  EQ, %[[SQRT_1]], %[[CONSTANT_2]] : (tensor<f32>, tensor<f32>) -> tensor<i1>
+// CHECK:           %[[COMPARE_3:.*]] = stablehlo.compare EQ, %[[SQRT_1]], %[[CONSTANT_2]] : (tensor<f32>, tensor<f32>) -> tensor<i1>
 // CHECK:           %[[CONSTANT_5:.*]] = stablehlo.constant dense<0.000000e+00> : tensor<f32>
-// CHECK:           %[[COMPARE_4:.*]] = stablehlo.compare  GT, %[[MULTIPLY_1]], %[[CONSTANT_5]] : (tensor<f32>, tensor<f32>) -> tensor<i1>
+// CHECK:           %[[COMPARE_4:.*]] = stablehlo.compare GT, %[[MULTIPLY_1]], %[[CONSTANT_5]] : (tensor<f32>, tensor<f32>) -> tensor<i1>
 // CHECK:           %[[AND_0:.*]] = stablehlo.and %[[COMPARE_3]], %[[COMPARE_4]] : tensor<i1>
 // CHECK:           %[[MULTIPLY_2:.*]] = stablehlo.multiply %[[MAXIMUM_1]], %[[MULTIPLY_1]] : tensor<f32>
 // CHECK:           %[[CONSTANT_6:.*]] = stablehlo.constant dense<2.000000e+00> : tensor<f32>
@@ -119,14 +119,14 @@
 // CHECK:           %[[ABS_3:.*]] = stablehlo.abs %[[SUBTRACT_0]] : tensor<f32>
 // CHECK:           %[[MAXIMUM_2:.*]] = stablehlo.maximum %[[ABS_3]], %[[ABS_1]] : tensor<f32>
 // CHECK:           %[[MINIMUM_1:.*]] = stablehlo.minimum %[[ABS_3]], %[[ABS_1]] : tensor<f32>
-// CHECK:           %[[COMPARE_5:.*]] = stablehlo.compare  EQ, %[[MAXIMUM_2]], %[[MINIMUM_1]] : (tensor<f32>, tensor<f32>) -> tensor<i1>
+// CHECK:           %[[COMPARE_5:.*]] = stablehlo.compare EQ, %[[MAXIMUM_2]], %[[MINIMUM_1]] : (tensor<f32>, tensor<f32>) -> tensor<i1>
 // CHECK:           %[[MULTIPLY_4:.*]] = stablehlo.multiply %[[CONSTANT_4]], %[[MAXIMUM_2]] : tensor<f32>
 // CHECK:           %[[DIVIDE_3:.*]] = stablehlo.divide %[[MINIMUM_1]], %[[MAXIMUM_2]] : tensor<f32>
 // CHECK:           %[[MULTIPLY_5:.*]] = stablehlo.multiply %[[DIVIDE_3]], %[[DIVIDE_3]] : tensor<f32>
 // CHECK:           %[[ADD_3:.*]] = stablehlo.add %[[CONSTANT_2]], %[[MULTIPLY_5]] : tensor<f32>
 // CHECK:           %[[SQRT_2:.*]] = stablehlo.sqrt %[[ADD_3]] : tensor<f32>
-// CHECK:           %[[COMPARE_6:.*]] = stablehlo.compare  EQ, %[[SQRT_2]], %[[CONSTANT_2]] : (tensor<f32>, tensor<f32>) -> tensor<i1>
-// CHECK:           %[[COMPARE_7:.*]] = stablehlo.compare  GT, %[[MULTIPLY_5]], %[[CONSTANT_5]] : (tensor<f32>, tensor<f32>) -> tensor<i1>
+// CHECK:           %[[COMPARE_6:.*]] = stablehlo.compare EQ, %[[SQRT_2]], %[[CONSTANT_2]] : (tensor<f32>, tensor<f32>) -> tensor<i1>
+// CHECK:           %[[COMPARE_7:.*]] = stablehlo.compare GT, %[[MULTIPLY_5]], %[[CONSTANT_5]] : (tensor<f32>, tensor<f32>) -> tensor<i1>
 // CHECK:           %[[AND_1:.*]] = stablehlo.and %[[COMPARE_6]], %[[COMPARE_7]] : tensor<i1>
 // CHECK:           %[[MULTIPLY_6:.*]] = stablehlo.multiply %[[MAXIMUM_2]], %[[MULTIPLY_5]] : tensor<f32>
 // CHECK:           %[[DIVIDE_4:.*]] = stablehlo.divide %[[MULTIPLY_6]], %[[CONSTANT_6]] : tensor<f32>
@@ -155,21 +155,21 @@
 // CHECK:           %[[SELECT_5:.*]] = stablehlo.select %[[COMPARE_0]], %[[ABS_1]], %[[SELECT_4]] : tensor<i1>, tensor<f32>
 // CHECK:           %[[CONSTANT_7:.*]] = stablehlo.constant dense<9.99999995E+11> : tensor<f32>
 // CHECK:           %[[MULTIPLY_13:.*]] = stablehlo.multiply %[[DIVIDE_0]], %[[CONSTANT_7]] : tensor<f32>
-// CHECK:           %[[COMPARE_8:.*]] = stablehlo.compare  LT, %[[ABS_0]], %[[MULTIPLY_13]] : (tensor<f32>, tensor<f32>) -> tensor<i1>
+// CHECK:           %[[COMPARE_8:.*]] = stablehlo.compare LT, %[[ABS_0]], %[[MULTIPLY_13]] : (tensor<f32>, tensor<f32>) -> tensor<i1>
 // CHECK:           %[[CONSTANT_8:.*]] = stablehlo.constant dense<9.99999997E-7> : tensor<f32>
 // CHECK:           %[[MULTIPLY_14:.*]] = stablehlo.multiply %[[DIVIDE_0]], %[[CONSTANT_8]] : tensor<f32>
 // CHECK:           %[[CONSTANT_9:.*]] = stablehlo.constant dense<1.000000e+02> : tensor<f32>
 // CHECK:           %[[MULTIPLY_15:.*]] = stablehlo.multiply %[[DIVIDE_0]], %[[CONSTANT_9]] : tensor<f32>
 // CHECK:           %[[SELECT_6:.*]] = stablehlo.select %[[COMPARE_8]], %[[MULTIPLY_14]], %[[MULTIPLY_15]] : tensor<i1>, tensor<f32>
-// CHECK:           %[[COMPARE_9:.*]] = stablehlo.compare  GE, %[[ABS_1]], %[[SELECT_6]] : (tensor<f32>, tensor<f32>) -> tensor<i1>
+// CHECK:           %[[COMPARE_9:.*]] = stablehlo.compare GE, %[[ABS_1]], %[[SELECT_6]] : (tensor<f32>, tensor<f32>) -> tensor<i1>
 // CHECK:           %[[SELECT_7:.*]] = stablehlo.select %[[COMPARE_9]], %[[ABS_1]], %[[ABS_0]] : tensor<i1>, tensor<f32>
 // CHECK:           %[[SELECT_8:.*]] = stablehlo.select %[[COMPARE_9]], %[[SELECT_6]], %[[DIVIDE_0]] : tensor<i1>, tensor<f32>
-// CHECK:           %[[COMPARE_10:.*]] = stablehlo.compare  GE, %[[SELECT_7]], %[[SELECT_8]] : (tensor<f32>, tensor<f32>) -> tensor<i1>
+// CHECK:           %[[COMPARE_10:.*]] = stablehlo.compare GE, %[[SELECT_7]], %[[SELECT_8]] : (tensor<f32>, tensor<f32>) -> tensor<i1>
 // CHECK:           %[[LOG_0:.*]] = stablehlo.log %[[CONSTANT_6]] : tensor<f32>
 // CHECK:           %[[LOG_1:.*]] = stablehlo.log %[[SELECT_7]] : tensor<f32>
 // CHECK:           %[[ADD_11:.*]] = stablehlo.add %[[LOG_0]], %[[LOG_1]] : tensor<f32>
 // CHECK:           %[[CONSTANT_10:.*]] = stablehlo.constant dense<0x7F800000> : tensor<f32>
-// CHECK:           %[[COMPARE_11:.*]] = stablehlo.compare  EQ, %[[ABS_1]], %[[CONSTANT_10]] : (tensor<f32>, tensor<f32>) -> tensor<i1>
+// CHECK:           %[[COMPARE_11:.*]] = stablehlo.compare EQ, %[[ABS_1]], %[[CONSTANT_10]] : (tensor<f32>, tensor<f32>) -> tensor<i1>
 // CHECK:           %[[NOT_0:.*]] = stablehlo.not %[[COMPARE_11]] : tensor<i1>
 // CHECK:           %[[AND_2:.*]] = stablehlo.and %[[COMPARE_9]], %[[NOT_0]] : tensor<i1>
 // CHECK:           %[[DIVIDE_8:.*]] = stablehlo.divide %[[ABS_0]], %[[ABS_1]] : tensor<f32>
@@ -182,20 +182,20 @@
 // CHECK:           %[[SQRT_5:.*]] = stablehlo.sqrt %[[CONSTANT_11]] : tensor<f32>
 // CHECK:           %[[CONSTANT_12:.*]] = stablehlo.constant dense<4.000000e+00> : tensor<f32>
 // CHECK:           %[[MULTIPLY_18:.*]] = stablehlo.multiply %[[SQRT_5]], %[[CONSTANT_12]] : tensor<f32>
-// CHECK:           %[[COMPARE_12:.*]] = stablehlo.compare  LT, %[[ABS_1]], %[[MULTIPLY_18]] : (tensor<f32>, tensor<f32>) -> tensor<i1>
-// CHECK:           %[[COMPARE_13:.*]] = stablehlo.compare  LT, %[[ABS_0]], %[[CONSTANT_2]] : (tensor<f32>, tensor<f32>) -> tensor<i1>
+// CHECK:           %[[COMPARE_12:.*]] = stablehlo.compare LT, %[[ABS_1]], %[[MULTIPLY_18]] : (tensor<f32>, tensor<f32>) -> tensor<i1>
+// CHECK:           %[[COMPARE_13:.*]] = stablehlo.compare LT, %[[ABS_0]], %[[CONSTANT_2]] : (tensor<f32>, tensor<f32>) -> tensor<i1>
 // CHECK:           %[[AND_3:.*]] = stablehlo.and %[[COMPARE_12]], %[[COMPARE_13]] : tensor<i1>
 // CHECK:           %[[MULTIPLY_19:.*]] = stablehlo.multiply %[[ADD_0]], %[[SUBTRACT_0]] : tensor<f32>
 // CHECK:           %[[ADD_13:.*]] = stablehlo.add %[[MULTIPLY_8]], %[[CONSTANT_2]] : tensor<f32>
 // CHECK:           %[[DIVIDE_9:.*]] = stablehlo.divide %[[MULTIPLY_19]], %[[ADD_13]] : tensor<f32>
 // CHECK:           %[[NEGATE_0:.*]] = stablehlo.negate %[[DIVIDE_9]] : tensor<f32>
-// CHECK:           %[[COMPARE_14:.*]] = stablehlo.compare  GE, %[[ABS_0]], %[[CONSTANT_2]] : (tensor<f32>, tensor<f32>) -> tensor<i1>
+// CHECK:           %[[COMPARE_14:.*]] = stablehlo.compare GE, %[[ABS_0]], %[[CONSTANT_2]] : (tensor<f32>, tensor<f32>) -> tensor<i1>
 // CHECK:           %[[MULTIPLY_20:.*]] = stablehlo.multiply %[[CONSTANT_3]], %[[MULTIPLY_10]] : tensor<f32>
 // CHECK:           %[[DIVIDE_10:.*]] = stablehlo.divide %[[MULTIPLY_20]], %[[ADD_7]] : tensor<f32>
 // CHECK:           %[[MULTIPLY_21:.*]] = stablehlo.multiply %[[CONSTANT_3]], %[[ADD_9]] : tensor<f32>
 // CHECK:           %[[ADD_14:.*]] = stablehlo.add %[[DIVIDE_10]], %[[MULTIPLY_21]] : tensor<f32>
 // CHECK:           %[[CONSTANT_13:.*]] = stablehlo.constant dense<1.500000e+00> : tensor<f32>
-// CHECK:           %[[COMPARE_15:.*]] = stablehlo.compare  LE, %[[MULTIPLY_8]], %[[CONSTANT_13]] : (tensor<f32>, tensor<f32>) -> tensor<i1>
+// CHECK:           %[[COMPARE_15:.*]] = stablehlo.compare LE, %[[MULTIPLY_8]], %[[CONSTANT_13]] : (tensor<f32>, tensor<f32>) -> tensor<i1>
 // CHECK:           %[[DIVIDE_11:.*]] = stablehlo.divide %[[MULTIPLY_20]], %[[SUBTRACT_1]] : tensor<f32>
 // CHECK:           %[[ADD_15:.*]] = stablehlo.add %[[DIVIDE_10]], %[[DIVIDE_11]] : tensor<f32>
 // CHECK:           %[[SUBTRACT_2:.*]] = stablehlo.subtract %[[MULTIPLY_8]], %[[CONSTANT_2]] : tensor<f32>
@@ -214,7 +214,7 @@
 // CHECK:           %[[VAL_0:.*]] = stablehlo.atan2 %[[REAL_0]], %[[REAL_2]] : tensor<f32>
 // CHECK:           %[[IMAG_1:.*]] = stablehlo.imag %[[ARG0]] : (tensor<complex<f32>>) -> tensor<f32>
 // CHECK:           %[[CONSTANT_14:.*]] = stablehlo.constant dense<0.000000e+00> : tensor<f32>
-// CHECK:           %[[COMPARE_16:.*]] = stablehlo.compare  LT, %[[IMAG_1]], %[[CONSTANT_14]] : (tensor<f32>, tensor<f32>) -> tensor<i1>
+// CHECK:           %[[COMPARE_16:.*]] = stablehlo.compare LT, %[[IMAG_1]], %[[CONSTANT_14]] : (tensor<f32>, tensor<f32>) -> tensor<i1>
 // CHECK:           %[[IMAG_2:.*]] = stablehlo.imag %[[COMPLEX_0]] : (tensor<complex<f32>>) -> tensor<f32>
 // CHECK:           %[[NEGATE_1:.*]] = stablehlo.negate %[[IMAG_2]] : tensor<f32>
 // CHECK:           %[[SELECT_15:.*]] = stablehlo.select %[[COMPARE_16]], %[[NEGATE_1]], %[[IMAG_2]] : tensor<i1>, tensor<f32>
@@ -238,168 +238,168 @@
 // CHECK:           %[[MAXIMUM_0:.*]] = stablehlo.maximum %[[ABS_0]], %[[ABS_1]] : tensor<?xf64>
 // CHECK:           %[[CONSTANT_0:.*]] = stablehlo.constant dense<1.7976931348623157E+308> : tensor<f64>
 // CHECK:           %[[SHAPE_OF_0:.*]] = shape.shape_of %[[REAL_1]] : tensor<?xf64> -> tensor<1xindex>
-// CHECK:           %[[ASSUMING_0:.*]] = stablehlo.dynamic_broadcast_in_dim %[[CONSTANT_0]], %[[SHAPE_OF_0]], dims = [] : (tensor<f64>, tensor<1xindex>) -> tensor<?xf64>
-// CHECK:           %[[SQRT_0:.*]] = stablehlo.sqrt %[[ASSUMING_0]] : tensor<?xf64>
+// CHECK:           %[[DYNAMIC_BROADCAST_IN_DIM_0:.*]] = stablehlo.dynamic_broadcast_in_dim %[[CONSTANT_0]], %[[SHAPE_OF_0]], dims = [] : (tensor<f64>, tensor<1xindex>) -> tensor<?xf64>
+// CHECK:           %[[SQRT_0:.*]] = stablehlo.sqrt %[[DYNAMIC_BROADCAST_IN_DIM_0]] : tensor<?xf64>
 // CHECK:           %[[CONSTANT_1:.*]] = stablehlo.constant dense<8.000000e+00> : tensor<f64>
+// CHECK:           %[[SHAPE_OF_1:.*]] = shape.shape_of %[[REAL_1]] : tensor<?xf64> -> tensor<1xindex>
+// CHECK:           %[[DYNAMIC_BROADCAST_IN_DIM_1:.*]] = stablehlo.dynamic_broadcast_in_dim %[[CONSTANT_1]], %[[SHAPE_OF_1]], dims = [] : (tensor<f64>, tensor<1xindex>) -> tensor<?xf64>
+// CHECK:           %[[DIVIDE_0:.*]] = stablehlo.divide %[[SQRT_0]], %[[DYNAMIC_BROADCAST_IN_DIM_1]] : tensor<?xf64>
+// CHECK:           %[[COMPARE_0:.*]] = stablehlo.compare GE, %[[MAXIMUM_0]], %[[DIVIDE_0]] : (tensor<?xf64>, tensor<?xf64>) -> tensor<?xi1>
+// CHECK:           %[[CONSTANT_2:.*]] = stablehlo.constant dense<1.000000e+00> : tensor<f64>
+// CHECK:           %[[SHAPE_OF_2:.*]] = shape.shape_of %[[REAL_1]] : tensor<?xf64> -> tensor<1xindex>
+// CHECK:           %[[DYNAMIC_BROADCAST_IN_DIM_2:.*]] = stablehlo.dynamic_broadcast_in_dim %[[CONSTANT_2]], %[[SHAPE_OF_2]], dims = [] : (tensor<f64>, tensor<1xindex>) -> tensor<?xf64>
+// CHECK:           %[[COMPARE_1:.*]] = stablehlo.compare LE, %[[ABS_0]], %[[DYNAMIC_BROADCAST_IN_DIM_2]] : (tensor<?xf64>, tensor<?xf64>) -> tensor<?xi1>
+// CHECK:           %[[CONSTANT_3:.*]] = stablehlo.constant dense<5.000000e-01> : tensor<f64>
 // CHECK:           %[[SHAPE_OF_3:.*]] = shape.shape_of %[[REAL_1]] : tensor<?xf64> -> tensor<1xindex>
-// CHECK:           %[[ASSUMING_1:.*]] = stablehlo.dynamic_broadcast_in_dim %[[CONSTANT_1]], %[[SHAPE_OF_3]], dims = [] : (tensor<f64>, tensor<1xindex>) -> tensor<?xf64>
-// CHECK:           %[[DIVIDE_0:.*]] = stablehlo.divide %[[SQRT_0]], %[[ASSUMING_1]] : tensor<?xf64>
-// CHECK:           %[[COMPARE_0:.*]] = stablehlo.compare  GE, %[[MAXIMUM_0]], %[[DIVIDE_0]] : (tensor<?xf64>, tensor<?xf64>) -> tensor<?xi1>
-// CHECK:           %[[CONSTANT_2:.*]] = stablehlo.constant dense<1.000000e+00> : tensor<f64>
-// CHECK:           %[[SHAPE_OF_5:.*]] = shape.shape_of %[[REAL_1]] : tensor<?xf64> -> tensor<1xindex>
-// CHECK:           %[[ASSUMING_2:.*]] = stablehlo.dynamic_broadcast_in_dim %[[CONSTANT_2]], %[[SHAPE_OF_5]], dims = [] : (tensor<f64>, tensor<1xindex>) -> tensor<?xf64>
-// CHECK:           %[[COMPARE_1:.*]] = stablehlo.compare  LE, %[[ABS_0]], %[[ASSUMING_2]] : (tensor<?xf64>, tensor<?xf64>) -> tensor<?xi1>
-// CHECK:           %[[CONSTANT_3:.*]] = stablehlo.constant dense<5.000000e-01> : tensor<f64>
-// CHECK:           %[[SHAPE_OF_7:.*]] = shape.shape_of %[[REAL_1]] : tensor<?xf64> -> tensor<1xindex>
-// CHECK:           %[[ASSUMING_3:.*]] = stablehlo.dynamic_broadcast_in_dim %[[CONSTANT_3]], %[[SHAPE_OF_7]], dims = [] : (tensor<f64>, tensor<1xindex>) -> tensor<?xf64>
-// CHECK:           %[[ADD_0:.*]] = stablehlo.add %[[ABS_0]], %[[ASSUMING_2]] : tensor<?xf64>
+// CHECK:           %[[DYNAMIC_BROADCAST_IN_DIM_3:.*]] = stablehlo.dynamic_broadcast_in_dim %[[CONSTANT_3]], %[[SHAPE_OF_3]], dims = [] : (tensor<f64>, tensor<1xindex>) -> tensor<?xf64>
+// CHECK:           %[[ADD_0:.*]] = stablehlo.add %[[ABS_0]], %[[DYNAMIC_BROADCAST_IN_DIM_2]] : tensor<?xf64>
 // CHECK:           %[[ABS_2:.*]] = stablehlo.abs %[[ADD_0]] : tensor<?xf64>
 // CHECK:           %[[MAXIMUM_1:.*]] = stablehlo.maximum %[[ABS_2]], %[[ABS_1]] : tensor<?xf64>
 // CHECK:           %[[MINIMUM_0:.*]] = stablehlo.minimum %[[ABS_2]], %[[ABS_1]] : tensor<?xf64>
-// CHECK:           %[[COMPARE_2:.*]] = stablehlo.compare  EQ, %[[MAXIMUM_1]], %[[MINIMUM_0]] : (tensor<?xf64>, tensor<?xf64>) -> tensor<?xi1>
+// CHECK:           %[[COMPARE_2:.*]] = stablehlo.compare EQ, %[[MAXIMUM_1]], %[[MINIMUM_0]] : (tensor<?xf64>, tensor<?xf64>) -> tensor<?xi1>
 // CHECK:           %[[CONSTANT_4:.*]] = stablehlo.constant dense<1.4142135623730951> : tensor<f64>
-// CHECK:           %[[SHAPE_OF_9:.*]] = shape.shape_of %[[REAL_1]] : tensor<?xf64> -> tensor<1xindex>
-// CHECK:           %[[ASSUMING_4:.*]] = stablehlo.dynamic_broadcast_in_dim %[[CONSTANT_4]], %[[SHAPE_OF_9]], dims = [] : (tensor<f64>, tensor<1xindex>) -> tensor<?xf64>
-// CHECK:           %[[MULTIPLY_0:.*]] = stablehlo.multiply %[[ASSUMING_4]], %[[MAXIMUM_1]] : tensor<?xf64>
+// CHECK:           %[[SHAPE_OF_4:.*]] = shape.shape_of %[[REAL_1]] : tensor<?xf64> -> tensor<1xindex>
+// CHECK:           %[[DYNAMIC_BROADCAST_IN_DIM_4:.*]] = stablehlo.dynamic_broadcast_in_dim %[[CONSTANT_4]], %[[SHAPE_OF_4]], dims = [] : (tensor<f64>, tensor<1xindex>) -> tensor<?xf64>
+// CHECK:           %[[MULTIPLY_0:.*]] = stablehlo.multiply %[[DYNAMIC_BROADCAST_IN_DIM_4]], %[[MAXIMUM_1]] : tensor<?xf64>
 // CHECK:           %[[DIVIDE_1:.*]] = stablehlo.divide %[[MINIMUM_0]], %[[MAXIMUM_1]] : tensor<?xf64>
 // CHECK:           %[[MULTIPLY_1:.*]] = stablehlo.multiply %[[DIVIDE_1]], %[[DIVIDE_1]] : tensor<?xf64>
-// CHECK:           %[[ADD_1:.*]] = stablehlo.add %[[ASSUMING_2]], %[[MULTIPLY_1]] : tensor<?xf64>
+// CHECK:           %[[ADD_1:.*]] = stablehlo.add %[[DYNAMIC_BROADCAST_IN_DIM_2]], %[[MULTIPLY_1]] : tensor<?xf64>
 // CHECK:           %[[SQRT_1:.*]] = stablehlo.sqrt %[[ADD_1]] : tensor<?xf64>
-// CHECK:           %[[COMPARE_3:.*]] = stablehlo.compare  EQ, %[[SQRT_1]], %[[ASSUMING_2]] : (tensor<?xf64>, tensor<?xf64>) -> tensor<?xi1>
+// CHECK:           %[[COMPARE_3:.*]] = stablehlo.compare EQ, %[[SQRT_1]], %[[DYNAMIC_BROADCAST_IN_DIM_2]] : (tensor<?xf64>, tensor<?xf64>) -> tensor<?xi1>
 // CHECK:           %[[CONSTANT_5:.*]] = stablehlo.constant dense<0.000000e+00> : tensor<f64>
-// CHECK:           %[[SHAPE_OF_11:.*]] = shape.shape_of %[[REAL_1]] : tensor<?xf64> -> tensor<1xindex>
-// CHECK:           %[[ASSUMING_5:.*]] = stablehlo.dynamic_broadcast_in_dim %[[CONSTANT_5]], %[[SHAPE_OF_11]], dims = [] : (tensor<f64>, tensor<1xindex>) -> tensor<?xf64>
-// CHECK:           %[[COMPARE_4:.*]] = stablehlo.compare  GT, %[[MULTIPLY_1]], %[[ASSUMING_5]] : (tensor<?xf64>, tensor<?xf64>) -> tensor<?xi1>
+// CHECK:           %[[SHAPE_OF_5:.*]] = shape.shape_of %[[REAL_1]] : tensor<?xf64> -> tensor<1xindex>
+// CHECK:           %[[DYNAMIC_BROADCAST_IN_DIM_5:.*]] = stablehlo.dynamic_broadcast_in_dim %[[CONSTANT_5]], %[[SHAPE_OF_5]], dims = [] : (tensor<f64>, tensor<1xindex>) -> tensor<?xf64>
+// CHECK:           %[[COMPARE_4:.*]] = stablehlo.compare GT, %[[MULTIPLY_1]], %[[DYNAMIC_BROADCAST_IN_DIM_5]] : (tensor<?xf64>, tensor<?xf64>) -> tensor<?xi1>
 // CHECK:           %[[AND_0:.*]] = stablehlo.and %[[COMPARE_3]], %[[COMPARE_4]] : tensor<?xi1>
 // CHECK:           %[[MULTIPLY_2:.*]] = stablehlo.multiply %[[MAXIMUM_1]], %[[MULTIPLY_1]] : tensor<?xf64>
 // CHECK:           %[[CONSTANT_6:.*]] = stablehlo.constant dense<2.000000e+00> : tensor<f64>
-// CHECK:           %[[SHAPE_OF_13:.*]] = shape.shape_of %[[REAL_1]] : tensor<?xf64> -> tensor<1xindex>
-// CHECK:           %[[ASSUMING_6:.*]] = stablehlo.dynamic_broadcast_in_dim %[[CONSTANT_6]], %[[SHAPE_OF_13]], dims = [] : (tensor<f64>, tensor<1xindex>) -> tensor<?xf64>
-// CHECK:           %[[DIVIDE_2:.*]] = stablehlo.divide %[[MULTIPLY_2]], %[[ASSUMING_6]] : tensor<?xf64>
+// CHECK:           %[[SHAPE_OF_6:.*]] = shape.shape_of %[[REAL_1]] : tensor<?xf64> -> tensor<1xindex>
+// CHECK:           %[[DYNAMIC_BROADCAST_IN_DIM_6:.*]] = stablehlo.dynamic_broadcast_in_dim %[[CONSTANT_6]], %[[SHAPE_OF_6]], dims = [] : (tensor<f64>, tensor<1xindex>) -> tensor<?xf64>
+// CHECK:           %[[DIVIDE_2:.*]] = stablehlo.divide %[[MULTIPLY_2]], %[[DYNAMIC_BROADCAST_IN_DIM_6]] : tensor<?xf64>
 // CHECK:           %[[ADD_2:.*]] = stablehlo.add %[[MAXIMUM_1]], %[[DIVIDE_2]] : tensor<?xf64>
 // CHECK:           %[[MULTIPLY_3:.*]] = stablehlo.multiply %[[MAXIMUM_1]], %[[SQRT_1]] : tensor<?xf64>
-// CHECK:           %[[ASSUMING_7:.*]] = stablehlo.select %[[AND_0]], %[[ADD_2]], %[[MULTIPLY_3]] : tensor<?xi1>, tensor<?xf64>
-// CHECK:           %[[ASSUMING_8:.*]] = stablehlo.select %[[COMPARE_2]], %[[MULTIPLY_0]], %[[ASSUMING_7]] : tensor<?xi1>, tensor<?xf64>
-// CHECK:           %[[SUBTRACT_0:.*]] = stablehlo.subtract %[[ABS_0]], %[[ASSUMING_2]] : tensor<?xf64>
+// CHECK:           %[[SELECT_0:.*]] = stablehlo.select %[[AND_0]], %[[ADD_2]], %[[MULTIPLY_3]] : tensor<?xi1>, tensor<?xf64>
+// CHECK:           %[[SELECT_1:.*]] = stablehlo.select %[[COMPARE_2]], %[[MULTIPLY_0]], %[[SELECT_0]] : tensor<?xi1>, tensor<?xf64>
+// CHECK:           %[[SUBTRACT_0:.*]] = stablehlo.subtract %[[ABS_0]], %[[DYNAMIC_BROADCAST_IN_DIM_2]] : tensor<?xf64>
 // CHECK:           %[[ABS_3:.*]] = stablehlo.abs %[[SUBTRACT_0]] : tensor<?xf64>
 // CHECK:           %[[MAXIMUM_2:.*]] = stablehlo.maximum %[[ABS_3]], %[[ABS_1]] : tensor<?xf64>
 // CHECK:           %[[MINIMUM_1:.*]] = stablehlo.minimum %[[ABS_3]], %[[ABS_1]] : tensor<?xf64>
-// CHECK:           %[[COMPARE_5:.*]] = stablehlo.compare  EQ, %[[MAXIMUM_2]], %[[MINIMUM_1]] : (tensor<?xf64>, tensor<?xf64>) -> tensor<?xi1>
-// CHECK:           %[[MULTIPLY_4:.*]] = stablehlo.multiply %[[ASSUMING_4]], %[[MAXIMUM_2]] : tensor<?xf64>
+// CHECK:           %[[COMPARE_5:.*]] = stablehlo.compare EQ, %[[MAXIMUM_2]], %[[MINIMUM_1]] : (tensor<?xf64>, tensor<?xf64>) -> tensor<?xi1>
+// CHECK:           %[[MULTIPLY_4:.*]] = stablehlo.multiply %[[DYNAMIC_BROADCAST_IN_DIM_4]], %[[MAXIMUM_2]] : tensor<?xf64>
 // CHECK:           %[[DIVIDE_3:.*]] = stablehlo.divide %[[MINIMUM_1]], %[[MAXIMUM_2]] : tensor<?xf64>
 // CHECK:           %[[MULTIPLY_5:.*]] = stablehlo.multiply %[[DIVIDE_3]], %[[DIVIDE_3]] : tensor<?xf64>
-// CHECK:           %[[ADD_3:.*]] = stablehlo.add %[[ASSUMING_2]], %[[MULTIPLY_5]] : tensor<?xf64>
+// CHECK:           %[[ADD_3:.*]] = stablehlo.add %[[DYNAMIC_BROADCAST_IN_DIM_2]], %[[MULTIPLY_5]] : tensor<?xf64>
 // CHECK:           %[[SQRT_2:.*]] = stablehlo.sqrt %[[ADD_3]] : tensor<?xf64>
-// CHECK:           %[[COMPARE_6:.*]] = stablehlo.compare  EQ, %[[SQRT_2]], %[[ASSUMING_2]] : (tensor<?xf64>, tensor<?xf64>) -> tensor<?xi1>
-// CHECK:           %[[COMPARE_7:.*]] = stablehlo.compare  GT, %[[MULTIPLY_5]], %[[ASSUMING_5]] : (tensor<?xf64>, tensor<?xf64>) -> tensor<?xi1>
+// CHECK:           %[[COMPARE_6:.*]] = stablehlo.compare EQ, %[[SQRT_2]], %[[DYNAMIC_BROADCAST_IN_DIM_2]] : (tensor<?xf64>, tensor<?xf64>) -> tensor<?xi1>
+// CHECK:           %[[COMPARE_7:.*]] = stablehlo.compare GT, %[[MULTIPLY_5]], %[[DYNAMIC_BROADCAST_IN_DIM_5]] : (tensor<?xf64>, tensor<?xf64>) -> tensor<?xi1>
 // CHECK:           %[[AND_1:.*]] = stablehlo.and %[[COMPARE_6]], %[[COMPARE_7]] : tensor<?xi1>
 // CHECK:           %[[MULTIPLY_6:.*]] = stablehlo.multiply %[[MAXIMUM_2]], %[[MULTIPLY_5]] : tensor<?xf64>
-// CHECK:           %[[DIVIDE_4:.*]] = stablehlo.divide %[[MULTIPLY_6]], %[[ASSUMING_6]] : tensor<?xf64>
+// CHECK:           %[[DIVIDE_4:.*]] = stablehlo.divide %[[MULTIPLY_6]], %[[DYNAMIC_BROADCAST_IN_DIM_6]] : tensor<?xf64>
 // CHECK:           %[[ADD_4:.*]] = stablehlo.add %[[MAXIMUM_2]], %[[DIVIDE_4]] : tensor<?xf64>
 // CHECK:           %[[MULTIPLY_7:.*]] = stablehlo.multiply %[[MAXIMUM_2]], %[[SQRT_2]] : tensor<?xf64>
-// CHECK:           %[[ASSUMING_9:.*]] = stablehlo.select %[[AND_1]], %[[ADD_4]], %[[MULTIPLY_7]] : tensor<?xi1>, tensor<?xf64>
-// CHECK:           %[[ASSUMING_10:.*]] = stablehlo.select %[[COMPARE_5]], %[[MULTIPLY_4]], %[[ASSUMING_9]] : tensor<?xi1>, tensor<?xf64>
-// CHECK:           %[[ADD_5:.*]] = stablehlo.add %[[ASSUMING_8]], %[[ASSUMING_10]] : tensor<?xf64>
-// CHECK:           %[[MULTIPLY_8:.*]] = stablehlo.multiply %[[ASSUMING_3]], %[[ADD_5]] : tensor<?xf64>
+// CHECK:           %[[SELECT_2:.*]] = stablehlo.select %[[AND_1]], %[[ADD_4]], %[[MULTIPLY_7]] : tensor<?xi1>, tensor<?xf64>
+// CHECK:           %[[SELECT_3:.*]] = stablehlo.select %[[COMPARE_5]], %[[MULTIPLY_4]], %[[SELECT_2]] : tensor<?xi1>, tensor<?xf64>
+// CHECK:           %[[ADD_5:.*]] = stablehlo.add %[[SELECT_1]], %[[SELECT_3]] : tensor<?xf64>
+// CHECK:           %[[MULTIPLY_8:.*]] = stablehlo.multiply %[[DYNAMIC_BROADCAST_IN_DIM_3]], %[[ADD_5]] : tensor<?xf64>
 // CHECK:           %[[ADD_6:.*]] = stablehlo.add %[[MULTIPLY_8]], %[[ABS_0]] : tensor<?xf64>
-// CHECK:           %[[MULTIPLY_9:.*]] = stablehlo.multiply %[[ASSUMING_3]], %[[ADD_6]] : tensor<?xf64>
+// CHECK:           %[[MULTIPLY_9:.*]] = stablehlo.multiply %[[DYNAMIC_BROADCAST_IN_DIM_3]], %[[ADD_6]] : tensor<?xf64>
 // CHECK:           %[[MULTIPLY_10:.*]] = stablehlo.multiply %[[ABS_1]], %[[ABS_1]] : tensor<?xf64>
-// CHECK:           %[[ADD_7:.*]] = stablehlo.add %[[ASSUMING_8]], %[[ADD_0]] : tensor<?xf64>
+// CHECK:           %[[ADD_7:.*]] = stablehlo.add %[[SELECT_1]], %[[ADD_0]] : tensor<?xf64>
 // CHECK:           %[[DIVIDE_5:.*]] = stablehlo.divide %[[MULTIPLY_10]], %[[ADD_7]] : tensor<?xf64>
-// CHECK:           %[[SUBTRACT_1:.*]] = stablehlo.subtract %[[ASSUMING_10]], %[[SUBTRACT_0]] : tensor<?xf64>
+// CHECK:           %[[SUBTRACT_1:.*]] = stablehlo.subtract %[[SELECT_3]], %[[SUBTRACT_0]] : tensor<?xf64>
 // CHECK:           %[[ADD_8:.*]] = stablehlo.add %[[DIVIDE_5]], %[[SUBTRACT_1]] : tensor<?xf64>
 // CHECK:           %[[MULTIPLY_11:.*]] = stablehlo.multiply %[[MULTIPLY_9]], %[[ADD_8]] : tensor<?xf64>
 // CHECK:           %[[SQRT_3:.*]] = stablehlo.sqrt %[[MULTIPLY_11]] : tensor<?xf64>
 // CHECK:           %[[DIVIDE_6:.*]] = stablehlo.divide %[[MULTIPLY_9]], %[[ADD_7]] : tensor<?xf64>
-// CHECK:           %[[ADD_9:.*]] = stablehlo.add %[[ASSUMING_10]], %[[SUBTRACT_0]] : tensor<?xf64>
+// CHECK:           %[[ADD_9:.*]] = stablehlo.add %[[SELECT_3]], %[[SUBTRACT_0]] : tensor<?xf64>
 // CHECK:           %[[DIVIDE_7:.*]] = stablehlo.divide %[[MULTIPLY_9]], %[[ADD_9]] : tensor<?xf64>
 // CHECK:           %[[ADD_10:.*]] = stablehlo.add %[[DIVIDE_6]], %[[DIVIDE_7]] : tensor<?xf64>
 // CHECK:           %[[SQRT_4:.*]] = stablehlo.sqrt %[[ADD_10]] : tensor<?xf64>
 // CHECK:           %[[MULTIPLY_12:.*]] = stablehlo.multiply %[[ABS_1]], %[[SQRT_4]] : tensor<?xf64>
-// CHECK:           %[[ASSUMING_11:.*]] = stablehlo.select %[[COMPARE_1]], %[[SQRT_3]], %[[MULTIPLY_12]] : tensor<?xi1>, tensor<?xf64>
-// CHECK:           %[[ASSUMING_12:.*]] = stablehlo.select %[[COMPARE_0]], %[[ABS_1]], %[[ASSUMING_11]] : tensor<?xi1>, tensor<?xf64>
+// CHECK:           %[[SELECT_4:.*]] = stablehlo.select %[[COMPARE_1]], %[[SQRT_3]], %[[MULTIPLY_12]] : tensor<?xi1>, tensor<?xf64>
+// CHECK:           %[[SELECT_5:.*]] = stablehlo.select %[[COMPARE_0]], %[[ABS_1]], %[[SELECT_4]] : tensor<?xi1>, tensor<?xf64>
 // CHECK:           %[[CONSTANT_7:.*]] = stablehlo.constant dense<1.000000e+12> : tensor<f64>
-// CHECK:           %[[SHAPE_OF_50:.*]] = shape.shape_of %[[REAL_1]] : tensor<?xf64> -> tensor<1xindex>
-// CHECK:           %[[DYNAMIC_BROADCAST_IN_DIM_25:.*]] = stablehlo.dynamic_broadcast_in_dim %[[CONSTANT_7]], %[[SHAPE_OF_50]], dims = [] : (tensor<f64>, tensor<1xindex>) -> tensor<?xf64>
-// CHECK:           %[[MULTIPLY_13:.*]] = stablehlo.multiply %[[DIVIDE_0]], %[[DYNAMIC_BROADCAST_IN_DIM_25]] : tensor<?xf64>
-// CHECK:           %[[COMPARE_8:.*]] = stablehlo.compare  LT, %[[ABS_0]], %[[MULTIPLY_13]] : (tensor<?xf64>, tensor<?xf64>) -> tensor<?xi1>
+// CHECK:           %[[SHAPE_OF_7:.*]] = shape.shape_of %[[REAL_1]] : tensor<?xf64> -> tensor<1xindex>
+// CHECK:           %[[DYNAMIC_BROADCAST_IN_DIM_7:.*]] = stablehlo.dynamic_broadcast_in_dim %[[CONSTANT_7]], %[[SHAPE_OF_7]], dims = [] : (tensor<f64>, tensor<1xindex>) -> tensor<?xf64>
+// CHECK:           %[[MULTIPLY_13:.*]] = stablehlo.multiply %[[DIVIDE_0]], %[[DYNAMIC_BROADCAST_IN_DIM_7]] : tensor<?xf64>
+// CHECK:           %[[COMPARE_8:.*]] = stablehlo.compare LT, %[[ABS_0]], %[[MULTIPLY_13]] : (tensor<?xf64>, tensor<?xf64>) -> tensor<?xi1>
 // CHECK:           %[[CONSTANT_8:.*]] = stablehlo.constant dense<9.9999999999999995E-7> : tensor<f64>
-// CHECK:           %[[SHAPE_OF_51:.*]] = shape.shape_of %[[REAL_1]] : tensor<?xf64> -> tensor<1xindex>
-// CHECK:           %[[DYNAMIC_BROADCAST_IN_DIM_26:.*]] = stablehlo.dynamic_broadcast_in_dim %[[CONSTANT_8]], %[[SHAPE_OF_51]], dims = [] : (tensor<f64>, tensor<1xindex>) -> tensor<?xf64>
-// CHECK:           %[[MULTIPLY_14:.*]] = stablehlo.multiply %[[DIVIDE_0]], %[[DYNAMIC_BROADCAST_IN_DIM_26]] : tensor<?xf64>
+// CHECK:           %[[SHAPE_OF_8:.*]] = shape.shape_of %[[REAL_1]] : tensor<?xf64> -> tensor<1xindex>
+// CHECK:           %[[DYNAMIC_BROADCAST_IN_DIM_8:.*]] = stablehlo.dynamic_broadcast_in_dim %[[CONSTANT_8]], %[[SHAPE_OF_8]], dims = [] : (tensor<f64>, tensor<1xindex>) -> tensor<?xf64>
+// CHECK:           %[[MULTIPLY_14:.*]] = stablehlo.multiply %[[DIVIDE_0]], %[[DYNAMIC_BROADCAST_IN_DIM_8]] : tensor<?xf64>
 // CHECK:           %[[CONSTANT_9:.*]] = stablehlo.constant dense<1.000000e+02> : tensor<f64>
-// CHECK:           %[[SHAPE_OF_52:.*]] = shape.shape_of %[[REAL_1]] : tensor<?xf64> -> tensor<1xindex>
-// CHECK:           %[[DYNAMIC_BROADCAST_IN_DIM_27:.*]] = stablehlo.dynamic_broadcast_in_dim %[[CONSTANT_9]], %[[SHAPE_OF_52]], dims = [] : (tensor<f64>, tensor<1xindex>) -> tensor<?xf64>
-// CHECK:           %[[MULTIPLY_15:.*]] = stablehlo.multiply %[[DIVIDE_0]], %[[DYNAMIC_BROADCAST_IN_DIM_27]] : tensor<?xf64>
-// CHECK:           %[[ASSUMING_13:.*]] = stablehlo.select %[[COMPARE_8]], %[[MULTIPLY_14]], %[[MULTIPLY_15]] : tensor<?xi1>, tensor<?xf64>
-// CHECK:           %[[COMPARE_9:.*]] = stablehlo.compare  GE, %[[ABS_1]], %[[ASSUMING_13]] : (tensor<?xf64>, tensor<?xf64>) -> tensor<?xi1>
-// CHECK:           %[[ASSUMING_14:.*]] = stablehlo.select %[[COMPARE_9]], %[[ABS_1]], %[[ABS_0]] : tensor<?xi1>, tensor<?xf64>
-// CHECK:           %[[ASSUMING_15:.*]] = stablehlo.select %[[COMPARE_9]], %[[ASSUMING_13]], %[[DIVIDE_0]] : tensor<?xi1>, tensor<?xf64>
-// CHECK:           %[[COMPARE_10:.*]] = stablehlo.compare  GE, %[[ASSUMING_14]], %[[ASSUMING_15]] : (tensor<?xf64>, tensor<?xf64>) -> tensor<?xi1>
-// CHECK:           %[[LOG_0:.*]] = stablehlo.log %[[ASSUMING_6]] : tensor<?xf64>
-// CHECK:           %[[LOG_1:.*]] = stablehlo.log %[[ASSUMING_14]] : tensor<?xf64>
+// CHECK:           %[[SHAPE_OF_9:.*]] = shape.shape_of %[[REAL_1]] : tensor<?xf64> -> tensor<1xindex>
+// CHECK:           %[[DYNAMIC_BROADCAST_IN_DIM_9:.*]] = stablehlo.dynamic_broadcast_in_dim %[[CONSTANT_9]], %[[SHAPE_OF_9]], dims = [] : (tensor<f64>, tensor<1xindex>) -> tensor<?xf64>
+// CHECK:           %[[MULTIPLY_15:.*]] = stablehlo.multiply %[[DIVIDE_0]], %[[DYNAMIC_BROADCAST_IN_DIM_9]] : tensor<?xf64>
+// CHECK:           %[[SELECT_6:.*]] = stablehlo.select %[[COMPARE_8]], %[[MULTIPLY_14]], %[[MULTIPLY_15]] : tensor<?xi1>, tensor<?xf64>
+// CHECK:           %[[COMPARE_9:.*]] = stablehlo.compare GE, %[[ABS_1]], %[[SELECT_6]] : (tensor<?xf64>, tensor<?xf64>) -> tensor<?xi1>
+// CHECK:           %[[SELECT_7:.*]] = stablehlo.select %[[COMPARE_9]], %[[ABS_1]], %[[ABS_0]] : tensor<?xi1>, tensor<?xf64>
+// CHECK:           %[[SELECT_8:.*]] = stablehlo.select %[[COMPARE_9]], %[[SELECT_6]], %[[DIVIDE_0]] : tensor<?xi1>, tensor<?xf64>
+// CHECK:           %[[COMPARE_10:.*]] = stablehlo.compare GE, %[[SELECT_7]], %[[SELECT_8]] : (tensor<?xf64>, tensor<?xf64>) -> tensor<?xi1>
+// CHECK:           %[[LOG_0:.*]] = stablehlo.log %[[DYNAMIC_BROADCAST_IN_DIM_6]] : tensor<?xf64>
+// CHECK:           %[[LOG_1:.*]] = stablehlo.log %[[SELECT_7]] : tensor<?xf64>
 // CHECK:           %[[ADD_11:.*]] = stablehlo.add %[[LOG_0]], %[[LOG_1]] : tensor<?xf64>
 // CHECK:           %[[CONSTANT_10:.*]] = stablehlo.constant dense<0x7FF0000000000000> : tensor<f64>
-// CHECK:           %[[SHAPE_OF_71:.*]] = shape.shape_of %[[IMAG_0]] : tensor<?xf64> -> tensor<1xindex>
-// CHECK:           %[[DYNAMIC_BROADCAST_IN_DIM_37:.*]] = stablehlo.dynamic_broadcast_in_dim %[[CONSTANT_10]], %[[SHAPE_OF_71]], dims = [] : (tensor<f64>, tensor<1xindex>) -> tensor<?xf64>
-// CHECK:           %[[COMPARE_11:.*]] = stablehlo.compare  EQ, %[[ABS_1]], %[[DYNAMIC_BROADCAST_IN_DIM_37]] : (tensor<?xf64>, tensor<?xf64>) -> tensor<?xi1>
+// CHECK:           %[[SHAPE_OF_10:.*]] = shape.shape_of %[[IMAG_0]] : tensor<?xf64> -> tensor<1xindex>
+// CHECK:           %[[DYNAMIC_BROADCAST_IN_DIM_10:.*]] = stablehlo.dynamic_broadcast_in_dim %[[CONSTANT_10]], %[[SHAPE_OF_10]], dims = [] : (tensor<f64>, tensor<1xindex>) -> tensor<?xf64>
+// CHECK:           %[[COMPARE_11:.*]] = stablehlo.compare EQ, %[[ABS_1]], %[[DYNAMIC_BROADCAST_IN_DIM_10]] : (tensor<?xf64>, tensor<?xf64>) -> tensor<?xi1>
 // CHECK:           %[[NOT_0:.*]] = stablehlo.not %[[COMPARE_11]] : tensor<?xi1>
 // CHECK:           %[[AND_2:.*]] = stablehlo.and %[[COMPARE_9]], %[[NOT_0]] : tensor<?xi1>
 // CHECK:           %[[DIVIDE_8:.*]] = stablehlo.divide %[[ABS_0]], %[[ABS_1]] : tensor<?xf64>
-// CHECK:           %[[ASSUMING_16:.*]] = stablehlo.select %[[AND_2]], %[[DIVIDE_8]], %[[ASSUMING_5]] : tensor<?xi1>, tensor<?xf64>
-// CHECK:           %[[MULTIPLY_16:.*]] = stablehlo.multiply %[[ASSUMING_16]], %[[ASSUMING_16]] : tensor<?xf64>
+// CHECK:           %[[SELECT_9:.*]] = stablehlo.select %[[AND_2]], %[[DIVIDE_8]], %[[DYNAMIC_BROADCAST_IN_DIM_5]] : tensor<?xi1>, tensor<?xf64>
+// CHECK:           %[[MULTIPLY_16:.*]] = stablehlo.multiply %[[SELECT_9]], %[[SELECT_9]] : tensor<?xf64>
 // CHECK:           %[[LOG_PLUS_ONE_0:.*]] = stablehlo.log_plus_one %[[MULTIPLY_16]] : tensor<?xf64>
-// CHECK:           %[[MULTIPLY_17:.*]] = stablehlo.multiply %[[ASSUMING_3]], %[[LOG_PLUS_ONE_0]] : tensor<?xf64>
+// CHECK:           %[[MULTIPLY_17:.*]] = stablehlo.multiply %[[DYNAMIC_BROADCAST_IN_DIM_3]], %[[LOG_PLUS_ONE_0]] : tensor<?xf64>
 // CHECK:           %[[ADD_12:.*]] = stablehlo.add %[[ADD_11]], %[[MULTIPLY_17]] : tensor<?xf64>
 // CHECK:           %[[CONSTANT_11:.*]] = stablehlo.constant dense<2.2250738585072014E-308> : tensor<f64>
-// CHECK:           %[[SHAPE_OF_78:.*]] = shape.shape_of %[[REAL_1]] : tensor<?xf64> -> tensor<1xindex>
-// CHECK:           %[[DYNAMIC_BROADCAST_IN_DIM_41:.*]] = stablehlo.dynamic_broadcast_in_dim %[[CONSTANT_11]], %[[SHAPE_OF_78]], dims = [] : (tensor<f64>, tensor<1xindex>) -> tensor<?xf64>
-// CHECK:           %[[SQRT_5:.*]] = stablehlo.sqrt %[[DYNAMIC_BROADCAST_IN_DIM_41]] : tensor<?xf64>
+// CHECK:           %[[SHAPE_OF_11:.*]] = shape.shape_of %[[REAL_1]] : tensor<?xf64> -> tensor<1xindex>
+// CHECK:           %[[DYNAMIC_BROADCAST_IN_DIM_11:.*]] = stablehlo.dynamic_broadcast_in_dim %[[CONSTANT_11]], %[[SHAPE_OF_11]], dims = [] : (tensor<f64>, tensor<1xindex>) -> tensor<?xf64>
+// CHECK:           %[[SQRT_5:.*]] = stablehlo.sqrt %[[DYNAMIC_BROADCAST_IN_DIM_11]] : tensor<?xf64>
 // CHECK:           %[[CONSTANT_12:.*]] = stablehlo.constant dense<4.000000e+00> : tensor<f64>
-// CHECK:           %[[SHAPE_OF_79:.*]] = shape.shape_of %[[REAL_1]] : tensor<?xf64> -> tensor<1xindex>
-// CHECK:           %[[DYNAMIC_BROADCAST_IN_DIM_42:.*]] = stablehlo.dynamic_broadcast_in_dim %[[CONSTANT_12]], %[[SHAPE_OF_79]], dims = [] : (tensor<f64>, tensor<1xindex>) -> tensor<?xf64>
-// CHECK:           %[[MULTIPLY_18:.*]] = stablehlo.multiply %[[SQRT_5]], %[[DYNAMIC_BROADCAST_IN_DIM_42]] : tensor<?xf64>
-// CHECK:           %[[COMPARE_12:.*]] = stablehlo.compare  LT, %[[ABS_1]], %[[MULTIPLY_18]] : (tensor<?xf64>, tensor<?xf64>) -> tensor<?xi1>
-// CHECK:           %[[COMPARE_13:.*]] = stablehlo.compare  LT, %[[ABS_0]], %[[ASSUMING_2]] : (tensor<?xf64>, tensor<?xf64>) -> tensor<?xi1>
+// CHECK:           %[[SHAPE_OF_12:.*]] = shape.shape_of %[[REAL_1]] : tensor<?xf64> -> tensor<1xindex>
+// CHECK:           %[[DYNAMIC_BROADCAST_IN_DIM_12:.*]] = stablehlo.dynamic_broadcast_in_dim %[[CONSTANT_12]], %[[SHAPE_OF_12]], dims = [] : (tensor<f64>, tensor<1xindex>) -> tensor<?xf64>
+// CHECK:           %[[MULTIPLY_18:.*]] = stablehlo.multiply %[[SQRT_5]], %[[DYNAMIC_BROADCAST_IN_DIM_12]] : tensor<?xf64>
+// CHECK:           %[[COMPARE_12:.*]] = stablehlo.compare LT, %[[ABS_1]], %[[MULTIPLY_18]] : (tensor<?xf64>, tensor<?xf64>) -> tensor<?xi1>
+// CHECK:           %[[COMPARE_13:.*]] = stablehlo.compare LT, %[[ABS_0]], %[[DYNAMIC_BROADCAST_IN_DIM_2]] : (tensor<?xf64>, tensor<?xf64>) -> tensor<?xi1>
 // CHECK:           %[[AND_3:.*]] = stablehlo.and %[[COMPARE_12]], %[[COMPARE_13]] : tensor<?xi1>
 // CHECK:           %[[MULTIPLY_19:.*]] = stablehlo.multiply %[[ADD_0]], %[[SUBTRACT_0]] : tensor<?xf64>
-// CHECK:           %[[ADD_13:.*]] = stablehlo.add %[[MULTIPLY_8]], %[[ASSUMING_2]] : tensor<?xf64>
+// CHECK:           %[[ADD_13:.*]] = stablehlo.add %[[MULTIPLY_8]], %[[DYNAMIC_BROADCAST_IN_DIM_2]] : tensor<?xf64>
 // CHECK:           %[[DIVIDE_9:.*]] = stablehlo.divide %[[MULTIPLY_19]], %[[ADD_13]] : tensor<?xf64>
 // CHECK:           %[[NEGATE_0:.*]] = stablehlo.negate %[[DIVIDE_9]] : tensor<?xf64>
-// CHECK:           %[[COMPARE_14:.*]] = stablehlo.compare  GE, %[[ABS_0]], %[[ASSUMING_2]] : (tensor<?xf64>, tensor<?xf64>) -> tensor<?xi1>
-// CHECK:           %[[MULTIPLY_20:.*]] = stablehlo.multiply %[[ASSUMING_3]], %[[MULTIPLY_10]] : tensor<?xf64>
+// CHECK:           %[[COMPARE_14:.*]] = stablehlo.compare GE, %[[ABS_0]], %[[DYNAMIC_BROADCAST_IN_DIM_2]] : (tensor<?xf64>, tensor<?xf64>) -> tensor<?xi1>
+// CHECK:           %[[MULTIPLY_20:.*]] = stablehlo.multiply %[[DYNAMIC_BROADCAST_IN_DIM_3]], %[[MULTIPLY_10]] : tensor<?xf64>
 // CHECK:           %[[DIVIDE_10:.*]] = stablehlo.divide %[[MULTIPLY_20]], %[[ADD_7]] : tensor<?xf64>
-// CHECK:           %[[MULTIPLY_21:.*]] = stablehlo.multiply %[[ASSUMING_3]], %[[ADD_9]] : tensor<?xf64>
+// CHECK:           %[[MULTIPLY_21:.*]] = stablehlo.multiply %[[DYNAMIC_BROADCAST_IN_DIM_3]], %[[ADD_9]] : tensor<?xf64>
 // CHECK:           %[[ADD_14:.*]] = stablehlo.add %[[DIVIDE_10]], %[[MULTIPLY_21]] : tensor<?xf64>
 // CHECK:           %[[CONSTANT_13:.*]] = stablehlo.constant dense<1.500000e+00> : tensor<f64>
-// CHECK:           %[[SHAPE_OF_80:.*]] = shape.shape_of %[[REAL_1]] : tensor<?xf64> -> tensor<1xindex>
-// CHECK:           %[[DYNAMIC_BROADCAST_IN_DIM_43:.*]] = stablehlo.dynamic_broadcast_in_dim %[[CONSTANT_13]], %[[SHAPE_OF_80]], dims = [] : (tensor<f64>, tensor<1xindex>) -> tensor<?xf64>
-// CHECK:           %[[COMPARE_15:.*]] = stablehlo.compare  LE, %[[MULTIPLY_8]], %[[DYNAMIC_BROADCAST_IN_DIM_43]] : (tensor<?xf64>, tensor<?xf64>) -> tensor<?xi1>
+// CHECK:           %[[SHAPE_OF_13:.*]] = shape.shape_of %[[REAL_1]] : tensor<?xf64> -> tensor<1xindex>
+// CHECK:           %[[DYNAMIC_BROADCAST_IN_DIM_13:.*]] = stablehlo.dynamic_broadcast_in_dim %[[CONSTANT_13]], %[[SHAPE_OF_13]], dims = [] : (tensor<f64>, tensor<1xindex>) -> tensor<?xf64>
+// CHECK:           %[[COMPARE_15:.*]] = stablehlo.compare LE, %[[MULTIPLY_8]], %[[DYNAMIC_BROADCAST_IN_DIM_13]] : (tensor<?xf64>, tensor<?xf64>) -> tensor<?xi1>
 // CHECK:           %[[DIVIDE_11:.*]] = stablehlo.divide %[[MULTIPLY_20]], %[[SUBTRACT_1]] : tensor<?xf64>
 // CHECK:           %[[ADD_15:.*]] = stablehlo.add %[[DIVIDE_10]], %[[DIVIDE_11]] : tensor<?xf64>
-// CHECK:           %[[SUBTRACT_2:.*]] = stablehlo.subtract %[[MULTIPLY_8]], %[[ASSUMING_2]] : tensor<?xf64>
-// CHECK:           %[[ASSUMING_17:.*]] = stablehlo.select %[[COMPARE_15]], %[[ADD_15]], %[[SUBTRACT_2]] : tensor<?xi1>, tensor<?xf64>
-// CHECK:           %[[ASSUMING_18:.*]] = stablehlo.select %[[COMPARE_14]], %[[ADD_14]], %[[ASSUMING_17]] : tensor<?xi1>, tensor<?xf64>
-// CHECK:           %[[ASSUMING_19:.*]] = stablehlo.select %[[AND_3]], %[[NEGATE_0]], %[[ASSUMING_18]] : tensor<?xi1>, tensor<?xf64>
-// CHECK:           %[[MULTIPLY_22:.*]] = stablehlo.multiply %[[ASSUMING_19]], %[[ADD_13]] : tensor<?xf64>
+// CHECK:           %[[SUBTRACT_2:.*]] = stablehlo.subtract %[[MULTIPLY_8]], %[[DYNAMIC_BROADCAST_IN_DIM_2]] : tensor<?xf64>
+// CHECK:           %[[SELECT_10:.*]] = stablehlo.select %[[COMPARE_15]], %[[ADD_15]], %[[SUBTRACT_2]] : tensor<?xi1>, tensor<?xf64>
+// CHECK:           %[[SELECT_11:.*]] = stablehlo.select %[[COMPARE_14]], %[[ADD_14]], %[[SELECT_10]] : tensor<?xi1>, tensor<?xf64>
+// CHECK:           %[[SELECT_12:.*]] = stablehlo.select %[[AND_3]], %[[NEGATE_0]], %[[SELECT_11]] : tensor<?xi1>, tensor<?xf64>
+// CHECK:           %[[MULTIPLY_22:.*]] = stablehlo.multiply %[[SELECT_12]], %[[ADD_13]] : tensor<?xf64>
 // CHECK:           %[[SQRT_6:.*]] = stablehlo.sqrt %[[MULTIPLY_22]] : tensor<?xf64>
 // CHECK:           %[[DIVIDE_12:.*]] = stablehlo.divide %[[ABS_1]], %[[SQRT_6]] : tensor<?xf64>
-// CHECK:           %[[ADD_16:.*]] = stablehlo.add %[[ASSUMING_19]], %[[SQRT_6]] : tensor<?xf64>
+// CHECK:           %[[ADD_16:.*]] = stablehlo.add %[[SELECT_12]], %[[SQRT_6]] : tensor<?xf64>
 // CHECK:           %[[LOG_PLUS_ONE_1:.*]] = stablehlo.log_plus_one %[[ADD_16]] : tensor<?xf64>
-// CHECK:           %[[ASSUMING_20:.*]] = stablehlo.select %[[AND_3]], %[[DIVIDE_12]], %[[LOG_PLUS_ONE_1]] : tensor<?xi1>, tensor<?xf64>
-// CHECK:           %[[ASSUMING_21:.*]] = stablehlo.select %[[COMPARE_10]], %[[ADD_12]], %[[ASSUMING_20]] : tensor<?xi1>, tensor<?xf64>
-// CHECK:           %[[COMPLEX_0:.*]] = stablehlo.complex %[[ASSUMING_12]], %[[ASSUMING_21]] : tensor<?xcomplex<f64>>
+// CHECK:           %[[SELECT_13:.*]] = stablehlo.select %[[AND_3]], %[[DIVIDE_12]], %[[LOG_PLUS_ONE_1]] : tensor<?xi1>, tensor<?xf64>
+// CHECK:           %[[SELECT_14:.*]] = stablehlo.select %[[COMPARE_10]], %[[ADD_12]], %[[SELECT_13]] : tensor<?xi1>, tensor<?xf64>
+// CHECK:           %[[COMPLEX_0:.*]] = stablehlo.complex %[[SELECT_5]], %[[SELECT_14]] : tensor<?xcomplex<f64>>
 // CHECK:           %[[REAL_2:.*]] = stablehlo.real %[[COMPLEX_0]] : (tensor<?xcomplex<f64>>) -> tensor<?xf64>
 // CHECK:           %[[VAL_0:.*]] = stablehlo.atan2 %[[REAL_0]], %[[REAL_2]] : tensor<?xf64>
 // CHECK:           %[[IMAG_1:.*]] = stablehlo.imag %[[ARG0]] : (tensor<?xcomplex<f64>>) -> tensor<?xf64>
 // CHECK:           %[[CONSTANT_14:.*]] = stablehlo.constant dense<0.000000e+00> : tensor<f64>
-// CHECK:           %[[SHAPE_OF_111:.*]] = shape.shape_of %[[REAL_0]] : tensor<?xf64> -> tensor<1xindex>
-// CHECK:           %[[DYNAMIC_BROADCAST_IN_DIM_59:.*]] = stablehlo.dynamic_broadcast_in_dim %[[CONSTANT_14]], %[[SHAPE_OF_111]], dims = [] : (tensor<f64>, tensor<1xindex>) -> tensor<?xf64>
-// CHECK:           %[[COMPARE_16:.*]] = stablehlo.compare  LT, %[[IMAG_1]], %[[DYNAMIC_BROADCAST_IN_DIM_59]] : (tensor<?xf64>, tensor<?xf64>) -> tensor<?xi1>
+// CHECK:           %[[SHAPE_OF_14:.*]] = shape.shape_of %[[REAL_0]] : tensor<?xf64> -> tensor<1xindex>
+// CHECK:           %[[DYNAMIC_BROADCAST_IN_DIM_14:.*]] = stablehlo.dynamic_broadcast_in_dim %[[CONSTANT_14]], %[[SHAPE_OF_14]], dims = [] : (tensor<f64>, tensor<1xindex>) -> tensor<?xf64>
+// CHECK:           %[[COMPARE_16:.*]] = stablehlo.compare LT, %[[IMAG_1]], %[[DYNAMIC_BROADCAST_IN_DIM_14]] : (tensor<?xf64>, tensor<?xf64>) -> tensor<?xi1>
 // CHECK:           %[[IMAG_2:.*]] = stablehlo.imag %[[COMPLEX_0]] : (tensor<?xcomplex<f64>>) -> tensor<?xf64>
 // CHECK:           %[[NEGATE_1:.*]] = stablehlo.negate %[[IMAG_2]] : tensor<?xf64>
-// CHECK:           %[[ASSUMING_22:.*]] = stablehlo.select %[[COMPARE_16]], %[[NEGATE_1]], %[[IMAG_2]] : tensor<?xi1>, tensor<?xf64>
-// CHECK:           %[[COMPLEX_1:.*]] = stablehlo.complex %[[VAL_0]], %[[ASSUMING_22]] : tensor<?xcomplex<f64>>
+// CHECK:           %[[SELECT_15:.*]] = stablehlo.select %[[COMPARE_16]], %[[NEGATE_1]], %[[IMAG_2]] : tensor<?xi1>, tensor<?xf64>
+// CHECK:           %[[COMPLEX_1:.*]] = stablehlo.complex %[[VAL_0]], %[[SELECT_15]] : tensor<?xcomplex<f64>>
 // CHECK:           return %[[COMPLEX_1]] : tensor<?xcomplex<f64>>
 // CHECK:         }
 func.func @asin_complex_f64_dynamic(%arg : tensor<?xcomplex<f64>>) -> tensor<?xcomplex<f64>> {
@@ -415,7 +415,7 @@
 // CHECK:           %[[ABS_0:.*]] = stablehlo.abs %[[ARG0]] : tensor<bf16>
 // CHECK:           %[[CONSTANT_0:.*]] = stablehlo.constant dense<3.389530e+38> : tensor<bf16>
 // CHECK:           %[[SQRT_0:.*]] = stablehlo.sqrt %[[CONSTANT_0]] : tensor<bf16>
-// CHECK:           %[[COMPARE_0:.*]] = stablehlo.compare  GE, %[[ABS_0]], %[[SQRT_0]] : (tensor<bf16>, tensor<bf16>) -> tensor<i1>
+// CHECK:           %[[COMPARE_0:.*]] = stablehlo.compare GE, %[[ABS_0]], %[[SQRT_0]] : (tensor<bf16>, tensor<bf16>) -> tensor<i1>
 // CHECK:           %[[CONSTANT_1:.*]] = stablehlo.constant dense<2.000000e+00> : tensor<bf16>
 // CHECK:           %[[LOG_0:.*]] = stablehlo.log %[[CONSTANT_1]] : tensor<bf16>
 // CHECK:           %[[LOG_1:.*]] = stablehlo.log %[[ABS_0]] : tensor<bf16>
@@ -446,7 +446,7 @@
 // CHECK:           %[[ABS_0:.*]] = stablehlo.abs %[[ARG0]] : tensor<f16>
 // CHECK:           %[[CONSTANT_0:.*]] = stablehlo.constant dense<6.550400e+04> : tensor<f16>
 // CHECK:           %[[SQRT_0:.*]] = stablehlo.sqrt %[[CONSTANT_0]] : tensor<f16>
-// CHECK:           %[[COMPARE_0:.*]] = stablehlo.compare  GE, %[[ABS_0]], %[[SQRT_0]] : (tensor<f16>, tensor<f16>) -> tensor<i1>
+// CHECK:           %[[COMPARE_0:.*]] = stablehlo.compare GE, %[[ABS_0]], %[[SQRT_0]] : (tensor<f16>, tensor<f16>) -> tensor<i1>
 // CHECK:           %[[CONSTANT_1:.*]] = stablehlo.constant dense<2.000000e+00> : tensor<f16>
 // CHECK:           %[[LOG_0:.*]] = stablehlo.log %[[CONSTANT_1]] : tensor<f16>
 // CHECK:           %[[LOG_1:.*]] = stablehlo.log %[[ABS_0]] : tensor<f16>
@@ -477,7 +477,7 @@
 // CHECK:           %[[ABS_0:.*]] = stablehlo.abs %[[ARG0]] : tensor<f32>
 // CHECK:           %[[CONSTANT_0:.*]] = stablehlo.constant dense<3.40282347E+38> : tensor<f32>
 // CHECK:           %[[SQRT_0:.*]] = stablehlo.sqrt %[[CONSTANT_0]] : tensor<f32>
-// CHECK:           %[[COMPARE_0:.*]] = stablehlo.compare  GE, %[[ABS_0]], %[[SQRT_0]] : (tensor<f32>, tensor<f32>) -> tensor<i1>
+// CHECK:           %[[COMPARE_0:.*]] = stablehlo.compare GE, %[[ABS_0]], %[[SQRT_0]] : (tensor<f32>, tensor<f32>) -> tensor<i1>
 // CHECK:           %[[CONSTANT_1:.*]] = stablehlo.constant dense<2.000000e+00> : tensor<f32>
 // CHECK:           %[[LOG_0:.*]] = stablehlo.log %[[CONSTANT_1]] : tensor<f32>
 // CHECK:           %[[LOG_1:.*]] = stablehlo.log %[[ABS_0]] : tensor<f32>
@@ -508,7 +508,7 @@
 // CHECK:           %[[ABS_0:.*]] = stablehlo.abs %[[ARG0]] : tensor<f64>
 // CHECK:           %[[CONSTANT_0:.*]] = stablehlo.constant dense<1.7976931348623157E+308> : tensor<f64>
 // CHECK:           %[[SQRT_0:.*]] = stablehlo.sqrt %[[CONSTANT_0]] : tensor<f64>
-// CHECK:           %[[COMPARE_0:.*]] = stablehlo.compare  GE, %[[ABS_0]], %[[SQRT_0]] : (tensor<f64>, tensor<f64>) -> tensor<i1>
+// CHECK:           %[[COMPARE_0:.*]] = stablehlo.compare GE, %[[ABS_0]], %[[SQRT_0]] : (tensor<f64>, tensor<f64>) -> tensor<i1>
 // CHECK:           %[[CONSTANT_1:.*]] = stablehlo.constant dense<2.000000e+00> : tensor<f64>
 // CHECK:           %[[LOG_0:.*]] = stablehlo.log %[[CONSTANT_1]] : tensor<f64>
 // CHECK:           %[[LOG_1:.*]] = stablehlo.log %[[ABS_0]] : tensor<f64>
@@ -536,7 +536,7 @@
 // CHECK-SAME:      %[[ARG0:.*]]: tensor<complex<f32>>) -> tensor<complex<f32>> {
 // CHECK:           %[[REAL_0:.*]] = stablehlo.real %[[ARG0]] : (tensor<complex<f32>>) -> tensor<f32>
 // CHECK:           %[[CONSTANT_0:.*]] = stablehlo.constant dense<0.000000e+00> : tensor<f32>
-// CHECK:           %[[COMPARE_0:.*]] = stablehlo.compare  LT, %[[REAL_0]], %[[CONSTANT_0]] : (tensor<f32>, tensor<f32>) -> tensor<i1>
+// CHECK:           %[[COMPARE_0:.*]] = stablehlo.compare LT, %[[REAL_0]], %[[CONSTANT_0]] : (tensor<f32>, tensor<f32>) -> tensor<i1>
 // CHECK:           %[[IMAG_0:.*]] = stablehlo.imag %[[ARG0]] : (tensor<complex<f32>>) -> tensor<f32>
 // CHECK:           %[[NEGATE_0:.*]] = stablehlo.negate %[[IMAG_0]] : tensor<f32>
 // CHECK:           %[[COMPLEX_0:.*]] = stablehlo.complex %[[NEGATE_0]], %[[REAL_0]] : tensor<complex<f32>>
@@ -549,24 +549,24 @@
 // CHECK:           %[[SQRT_0:.*]] = stablehlo.sqrt %[[CONSTANT_1]] : tensor<f32>
 // CHECK:           %[[CONSTANT_2:.*]] = stablehlo.constant dense<8.000000e+00> : tensor<f32>
 // CHECK:           %[[DIVIDE_0:.*]] = stablehlo.divide %[[SQRT_0]], %[[CONSTANT_2]] : tensor<f32>
-// CHECK:           %[[COMPARE_1:.*]] = stablehlo.compare  GE, %[[MAXIMUM_0]], %[[DIVIDE_0]] : (tensor<f32>, tensor<f32>) -> tensor<i1>
+// CHECK:           %[[COMPARE_1:.*]] = stablehlo.compare GE, %[[MAXIMUM_0]], %[[DIVIDE_0]] : (tensor<f32>, tensor<f32>) -> tensor<i1>
 // CHECK:           %[[CONSTANT_3:.*]] = stablehlo.constant dense<1.000000e+00> : tensor<f32>
-// CHECK:           %[[COMPARE_2:.*]] = stablehlo.compare  LE, %[[ABS_0]], %[[CONSTANT_3]] : (tensor<f32>, tensor<f32>) -> tensor<i1>
+// CHECK:           %[[COMPARE_2:.*]] = stablehlo.compare LE, %[[ABS_0]], %[[CONSTANT_3]] : (tensor<f32>, tensor<f32>) -> tensor<i1>
 // CHECK:           %[[CONSTANT_4:.*]] = stablehlo.constant dense<5.000000e-01> : tensor<f32>
 // CHECK:           %[[ADD_0:.*]] = stablehlo.add %[[ABS_0]], %[[CONSTANT_3]] : tensor<f32>
 // CHECK:           %[[ABS_2:.*]] = stablehlo.abs %[[ADD_0]] : tensor<f32>
 // CHECK:           %[[MAXIMUM_1:.*]] = stablehlo.maximum %[[ABS_2]], %[[ABS_1]] : tensor<f32>
 // CHECK:           %[[MINIMUM_0:.*]] = stablehlo.minimum %[[ABS_2]], %[[ABS_1]] : tensor<f32>
-// CHECK:           %[[COMPARE_3:.*]] = stablehlo.compare  EQ, %[[MAXIMUM_1]], %[[MINIMUM_0]] : (tensor<f32>, tensor<f32>) -> tensor<i1>
+// CHECK:           %[[COMPARE_3:.*]] = stablehlo.compare EQ, %[[MAXIMUM_1]], %[[MINIMUM_0]] : (tensor<f32>, tensor<f32>) -> tensor<i1>
 // CHECK:           %[[CONSTANT_5:.*]] = stablehlo.constant dense<1.41421354> : tensor<f32>
 // CHECK:           %[[MULTIPLY_0:.*]] = stablehlo.multiply %[[CONSTANT_5]], %[[MAXIMUM_1]] : tensor<f32>
 // CHECK:           %[[DIVIDE_1:.*]] = stablehlo.divide %[[MINIMUM_0]], %[[MAXIMUM_1]] : tensor<f32>
 // CHECK:           %[[MULTIPLY_1:.*]] = stablehlo.multiply %[[DIVIDE_1]], %[[DIVIDE_1]] : tensor<f32>
 // CHECK:           %[[ADD_1:.*]] = stablehlo.add %[[CONSTANT_3]], %[[MULTIPLY_1]] : tensor<f32>
 // CHECK:           %[[SQRT_1:.*]] = stablehlo.sqrt %[[ADD_1]] : tensor<f32>
-// CHECK:           %[[COMPARE_4:.*]] = stablehlo.compare  EQ, %[[SQRT_1]], %[[CONSTANT_3]] : (tensor<f32>, tensor<f32>) -> tensor<i1>
+// CHECK:           %[[COMPARE_4:.*]] = stablehlo.compare EQ, %[[SQRT_1]], %[[CONSTANT_3]] : (tensor<f32>, tensor<f32>) -> tensor<i1>
 // CHECK:           %[[CONSTANT_6:.*]] = stablehlo.constant dense<0.000000e+00> : tensor<f32>
-// CHECK:           %[[COMPARE_5:.*]] = stablehlo.compare  GT, %[[MULTIPLY_1]], %[[CONSTANT_6]] : (tensor<f32>, tensor<f32>) -> tensor<i1>
+// CHECK:           %[[COMPARE_5:.*]] = stablehlo.compare GT, %[[MULTIPLY_1]], %[[CONSTANT_6]] : (tensor<f32>, tensor<f32>) -> tensor<i1>
 // CHECK:           %[[AND_0:.*]] = stablehlo.and %[[COMPARE_4]], %[[COMPARE_5]] : tensor<i1>
 // CHECK:           %[[MULTIPLY_2:.*]] = stablehlo.multiply %[[MAXIMUM_1]], %[[MULTIPLY_1]] : tensor<f32>
 // CHECK:           %[[CONSTANT_7:.*]] = stablehlo.constant dense<2.000000e+00> : tensor<f32>
@@ -579,14 +579,14 @@
 // CHECK:           %[[ABS_3:.*]] = stablehlo.abs %[[SUBTRACT_0]] : tensor<f32>
 // CHECK:           %[[MAXIMUM_2:.*]] = stablehlo.maximum %[[ABS_3]], %[[ABS_1]] : tensor<f32>
 // CHECK:           %[[MINIMUM_1:.*]] = stablehlo.minimum %[[ABS_3]], %[[ABS_1]] : tensor<f32>
-// CHECK:           %[[COMPARE_6:.*]] = stablehlo.compare  EQ, %[[MAXIMUM_2]], %[[MINIMUM_1]] : (tensor<f32>, tensor<f32>) -> tensor<i1>
+// CHECK:           %[[COMPARE_6:.*]] = stablehlo.compare EQ, %[[MAXIMUM_2]], %[[MINIMUM_1]] : (tensor<f32>, tensor<f32>) -> tensor<i1>
 // CHECK:           %[[MULTIPLY_4:.*]] = stablehlo.multiply %[[CONSTANT_5]], %[[MAXIMUM_2]] : tensor<f32>
 // CHECK:           %[[DIVIDE_3:.*]] = stablehlo.divide %[[MINIMUM_1]], %[[MAXIMUM_2]] : tensor<f32>
 // CHECK:           %[[MULTIPLY_5:.*]] = stablehlo.multiply %[[DIVIDE_3]], %[[DIVIDE_3]] : tensor<f32>
 // CHECK:           %[[ADD_3:.*]] = stablehlo.add %[[CONSTANT_3]], %[[MULTIPLY_5]] : tensor<f32>
 // CHECK:           %[[SQRT_2:.*]] = stablehlo.sqrt %[[ADD_3]] : tensor<f32>
-// CHECK:           %[[COMPARE_7:.*]] = stablehlo.compare  EQ, %[[SQRT_2]], %[[CONSTANT_3]] : (tensor<f32>, tensor<f32>) -> tensor<i1>
-// CHECK:           %[[COMPARE_8:.*]] = stablehlo.compare  GT, %[[MULTIPLY_5]], %[[CONSTANT_6]] : (tensor<f32>, tensor<f32>) -> tensor<i1>
+// CHECK:           %[[COMPARE_7:.*]] = stablehlo.compare EQ, %[[SQRT_2]], %[[CONSTANT_3]] : (tensor<f32>, tensor<f32>) -> tensor<i1>
+// CHECK:           %[[COMPARE_8:.*]] = stablehlo.compare GT, %[[MULTIPLY_5]], %[[CONSTANT_6]] : (tensor<f32>, tensor<f32>) -> tensor<i1>
 // CHECK:           %[[AND_1:.*]] = stablehlo.and %[[COMPARE_7]], %[[COMPARE_8]] : tensor<i1>
 // CHECK:           %[[MULTIPLY_6:.*]] = stablehlo.multiply %[[MAXIMUM_2]], %[[MULTIPLY_5]] : tensor<f32>
 // CHECK:           %[[DIVIDE_4:.*]] = stablehlo.divide %[[MULTIPLY_6]], %[[CONSTANT_7]] : tensor<f32>
@@ -615,21 +615,21 @@
 // CHECK:           %[[SELECT_5:.*]] = stablehlo.select %[[COMPARE_1]], %[[ABS_1]], %[[SELECT_4]] : tensor<i1>, tensor<f32>
 // CHECK:           %[[CONSTANT_8:.*]] = stablehlo.constant dense<9.99999995E+11> : tensor<f32>
 // CHECK:           %[[MULTIPLY_13:.*]] = stablehlo.multiply %[[DIVIDE_0]], %[[CONSTANT_8]] : tensor<f32>
-// CHECK:           %[[COMPARE_9:.*]] = stablehlo.compare  LT, %[[ABS_0]], %[[MULTIPLY_13]] : (tensor<f32>, tensor<f32>) -> tensor<i1>
+// CHECK:           %[[COMPARE_9:.*]] = stablehlo.compare LT, %[[ABS_0]], %[[MULTIPLY_13]] : (tensor<f32>, tensor<f32>) -> tensor<i1>
 // CHECK:           %[[CONSTANT_9:.*]] = stablehlo.constant dense<9.99999997E-7> : tensor<f32>
 // CHECK:           %[[MULTIPLY_14:.*]] = stablehlo.multiply %[[DIVIDE_0]], %[[CONSTANT_9]] : tensor<f32>
 // CHECK:           %[[CONSTANT_10:.*]] = stablehlo.constant dense<1.000000e+02> : tensor<f32>
 // CHECK:           %[[MULTIPLY_15:.*]] = stablehlo.multiply %[[DIVIDE_0]], %[[CONSTANT_10]] : tensor<f32>
 // CHECK:           %[[SELECT_6:.*]] = stablehlo.select %[[COMPARE_9]], %[[MULTIPLY_14]], %[[MULTIPLY_15]] : tensor<i1>, tensor<f32>
-// CHECK:           %[[COMPARE_10:.*]] = stablehlo.compare  GE, %[[ABS_1]], %[[SELECT_6]] : (tensor<f32>, tensor<f32>) -> tensor<i1>
+// CHECK:           %[[COMPARE_10:.*]] = stablehlo.compare GE, %[[ABS_1]], %[[SELECT_6]] : (tensor<f32>, tensor<f32>) -> tensor<i1>
 // CHECK:           %[[SELECT_7:.*]] = stablehlo.select %[[COMPARE_10]], %[[ABS_1]], %[[ABS_0]] : tensor<i1>, tensor<f32>
 // CHECK:           %[[SELECT_8:.*]] = stablehlo.select %[[COMPARE_10]], %[[SELECT_6]], %[[DIVIDE_0]] : tensor<i1>, tensor<f32>
-// CHECK:           %[[COMPARE_11:.*]] = stablehlo.compare  GE, %[[SELECT_7]], %[[SELECT_8]] : (tensor<f32>, tensor<f32>) -> tensor<i1>
+// CHECK:           %[[COMPARE_11:.*]] = stablehlo.compare GE, %[[SELECT_7]], %[[SELECT_8]] : (tensor<f32>, tensor<f32>) -> tensor<i1>
 // CHECK:           %[[LOG_0:.*]] = stablehlo.log %[[CONSTANT_7]] : tensor<f32>
 // CHECK:           %[[LOG_1:.*]] = stablehlo.log %[[SELECT_7]] : tensor<f32>
 // CHECK:           %[[ADD_11:.*]] = stablehlo.add %[[LOG_0]], %[[LOG_1]] : tensor<f32>
 // CHECK:           %[[CONSTANT_11:.*]] = stablehlo.constant dense<0x7F800000> : tensor<f32>
-// CHECK:           %[[COMPARE_12:.*]] = stablehlo.compare  EQ, %[[ABS_1]], %[[CONSTANT_11]] : (tensor<f32>, tensor<f32>) -> tensor<i1>
+// CHECK:           %[[COMPARE_12:.*]] = stablehlo.compare EQ, %[[ABS_1]], %[[CONSTANT_11]] : (tensor<f32>, tensor<f32>) -> tensor<i1>
 // CHECK:           %[[NOT_0:.*]] = stablehlo.not %[[COMPARE_12]] : tensor<i1>
 // CHECK:           %[[AND_2:.*]] = stablehlo.and %[[COMPARE_10]], %[[NOT_0]] : tensor<i1>
 // CHECK:           %[[DIVIDE_8:.*]] = stablehlo.divide %[[ABS_0]], %[[ABS_1]] : tensor<f32>
@@ -642,20 +642,20 @@
 // CHECK:           %[[SQRT_5:.*]] = stablehlo.sqrt %[[CONSTANT_12]] : tensor<f32>
 // CHECK:           %[[CONSTANT_13:.*]] = stablehlo.constant dense<4.000000e+00> : tensor<f32>
 // CHECK:           %[[MULTIPLY_18:.*]] = stablehlo.multiply %[[SQRT_5]], %[[CONSTANT_13]] : tensor<f32>
-// CHECK:           %[[COMPARE_13:.*]] = stablehlo.compare  LT, %[[ABS_1]], %[[MULTIPLY_18]] : (tensor<f32>, tensor<f32>) -> tensor<i1>
-// CHECK:           %[[COMPARE_14:.*]] = stablehlo.compare  LT, %[[ABS_0]], %[[CONSTANT_3]] : (tensor<f32>, tensor<f32>) -> tensor<i1>
+// CHECK:           %[[COMPARE_13:.*]] = stablehlo.compare LT, %[[ABS_1]], %[[MULTIPLY_18]] : (tensor<f32>, tensor<f32>) -> tensor<i1>
+// CHECK:           %[[COMPARE_14:.*]] = stablehlo.compare LT, %[[ABS_0]], %[[CONSTANT_3]] : (tensor<f32>, tensor<f32>) -> tensor<i1>
 // CHECK:           %[[AND_3:.*]] = stablehlo.and %[[COMPARE_13]], %[[COMPARE_14]] : tensor<i1>
 // CHECK:           %[[MULTIPLY_19:.*]] = stablehlo.multiply %[[ADD_0]], %[[SUBTRACT_0]] : tensor<f32>
 // CHECK:           %[[ADD_13:.*]] = stablehlo.add %[[MULTIPLY_8]], %[[CONSTANT_3]] : tensor<f32>
 // CHECK:           %[[DIVIDE_9:.*]] = stablehlo.divide %[[MULTIPLY_19]], %[[ADD_13]] : tensor<f32>
 // CHECK:           %[[NEGATE_1:.*]] = stablehlo.negate %[[DIVIDE_9]] : tensor<f32>
-// CHECK:           %[[COMPARE_15:.*]] = stablehlo.compare  GE, %[[ABS_0]], %[[CONSTANT_3]] : (tensor<f32>, tensor<f32>) -> tensor<i1>
+// CHECK:           %[[COMPARE_15:.*]] = stablehlo.compare GE, %[[ABS_0]], %[[CONSTANT_3]] : (tensor<f32>, tensor<f32>) -> tensor<i1>
 // CHECK:           %[[MULTIPLY_20:.*]] = stablehlo.multiply %[[CONSTANT_4]], %[[MULTIPLY_10]] : tensor<f32>
 // CHECK:           %[[DIVIDE_10:.*]] = stablehlo.divide %[[MULTIPLY_20]], %[[ADD_7]] : tensor<f32>
 // CHECK:           %[[MULTIPLY_21:.*]] = stablehlo.multiply %[[CONSTANT_4]], %[[ADD_9]] : tensor<f32>
 // CHECK:           %[[ADD_14:.*]] = stablehlo.add %[[DIVIDE_10]], %[[MULTIPLY_21]] : tensor<f32>
 // CHECK:           %[[CONSTANT_14:.*]] = stablehlo.constant dense<1.500000e+00> : tensor<f32>
-// CHECK:           %[[COMPARE_16:.*]] = stablehlo.compare  LE, %[[MULTIPLY_8]], %[[CONSTANT_14]] : (tensor<f32>, tensor<f32>) -> tensor<i1>
+// CHECK:           %[[COMPARE_16:.*]] = stablehlo.compare LE, %[[MULTIPLY_8]], %[[CONSTANT_14]] : (tensor<f32>, tensor<f32>) -> tensor<i1>
 // CHECK:           %[[DIVIDE_11:.*]] = stablehlo.divide %[[MULTIPLY_20]], %[[SUBTRACT_1]] : tensor<f32>
 // CHECK:           %[[ADD_15:.*]] = stablehlo.add %[[DIVIDE_10]], %[[DIVIDE_11]] : tensor<f32>
 // CHECK:           %[[SUBTRACT_2:.*]] = stablehlo.subtract %[[MULTIPLY_8]], %[[CONSTANT_3]] : tensor<f32>
@@ -754,7 +754,7 @@
 // -----
 
 // CHECK-LABEL:   func.func @conj_real(
-// CHECK-SAME:                    %[[ARG0:.*]]: tensor<3xf32>) -> tensor<3xf32> {
+// CHECK-SAME:      %[[ARG0:.*]]: tensor<3xf32>) -> tensor<3xf32> {
 // CHECK:           return %[[ARG0]] : tensor<3xf32>
 // CHECK:         }
 func.func @conj_real(%arg0: tensor<3xf32>) -> tensor<3xf32> {
@@ -893,19 +893,19 @@
 // CHECK:           %[[ADD_35:.*]] = stablehlo.add %[[MULTIPLY_40]], %[[CONSTANT_42]] : tensor<f64>
 // CHECK:           %[[DIVIDE_2:.*]] = stablehlo.divide %[[MULTIPLY_34]], %[[ADD_35]] : tensor<f64>
 // CHECK:           %[[CONSTANT_43:.*]] = stablehlo.constant dense<8.000000e+00> : tensor<f64>
-// CHECK:           %[[COMPARE_0:.*]] = stablehlo.compare  LT, %[[ABS_0]], %[[CONSTANT_43]] : (tensor<f64>, tensor<f64>) -> tensor<i1>
+// CHECK:           %[[COMPARE_0:.*]] = stablehlo.compare LT, %[[ABS_0]], %[[CONSTANT_43]] : (tensor<f64>, tensor<f64>) -> tensor<i1>
 // CHECK:           %[[SELECT_0:.*]] = stablehlo.select %[[COMPARE_0]], %[[DIVIDE_1]], %[[DIVIDE_2]] : tensor<i1>, tensor<f64>
 // CHECK:           %[[CONSTANT_44:.*]] = stablehlo.constant dense<-709.78271289338397> : tensor<f64>
-// CHECK:           %[[COMPARE_1:.*]] = stablehlo.compare  LT, %[[NEGATE_0]], %[[CONSTANT_44]] : (tensor<f64>, tensor<f64>) -> tensor<i1>
+// CHECK:           %[[COMPARE_1:.*]] = stablehlo.compare LT, %[[NEGATE_0]], %[[CONSTANT_44]] : (tensor<f64>, tensor<f64>) -> tensor<i1>
 // CHECK:           %[[CONSTANT_45:.*]] = stablehlo.constant dense<0.000000e+00> : tensor<f64>
 // CHECK:           %[[SELECT_1:.*]] = stablehlo.select %[[COMPARE_1]], %[[CONSTANT_45]], %[[SELECT_0]] : tensor<i1>, tensor<f64>
-// CHECK:           %[[COMPARE_2:.*]] = stablehlo.compare  LT, %[[ARG0]], %[[CONSTANT_45]] : (tensor<f64>, tensor<f64>) -> tensor<i1>
+// CHECK:           %[[COMPARE_2:.*]] = stablehlo.compare LT, %[[ARG0]], %[[CONSTANT_45]] : (tensor<f64>, tensor<f64>) -> tensor<i1>
 // CHECK:           %[[CONSTANT_46:.*]] = stablehlo.constant dense<2.000000e+00> : tensor<f64>
 // CHECK:           %[[SUBTRACT_0:.*]] = stablehlo.subtract %[[CONSTANT_46]], %[[SELECT_1]] : tensor<f64>
 // CHECK:           %[[SELECT_2:.*]] = stablehlo.select %[[COMPARE_2]], %[[SUBTRACT_0]], %[[SELECT_1]] : tensor<i1>, tensor<f64>
 // CHECK:           %[[SUBTRACT_1:.*]] = stablehlo.subtract %[[CONSTANT_11]], %[[SELECT_2]] : tensor<f64>
 // CHECK:           %[[ABS_1:.*]] = stablehlo.abs %[[ARG0]] : tensor<f64>
-// CHECK:           %[[COMPARE_3:.*]] = stablehlo.compare  LT, %[[ABS_1]], %[[CONSTANT_11]] : (tensor<f64>, tensor<f64>) -> tensor<i1>
+// CHECK:           %[[COMPARE_3:.*]] = stablehlo.compare LT, %[[ABS_1]], %[[CONSTANT_11]] : (tensor<f64>, tensor<f64>) -> tensor<i1>
 // CHECK:           %[[SELECT_3:.*]] = stablehlo.select %[[COMPARE_3]], %[[DIVIDE_0]], %[[SUBTRACT_1]] : tensor<i1>, tensor<f64>
 // CHECK:           return %[[SELECT_3]] : tensor<f64>
 // CHECK:         }
@@ -918,8 +918,8 @@
 
 // CHECK-LABEL:   func.func @erf_f32(
 // CHECK-SAME:      %[[ARG0:.*]]: tensor<f32>) -> tensor<f32> {
-// CHECK:           %[[CONSTANT_0:.*]] = stablehlo.constant dense<-4.000000e+00> : tensor<f32>
-// CHECK:           %[[CONSTANT_1:.*]] = stablehlo.constant dense<4.000000e+00> : tensor<f32>
+// CHECK-DAG:       %[[CONSTANT_0:.*]] = stablehlo.constant dense<-4.000000e+00> : tensor<f32>
+// CHECK-DAG:       %[[CONSTANT_1:.*]] = stablehlo.constant dense<4.000000e+00> : tensor<f32>
 // CHECK:           %[[CLAMP_0:.*]] = stablehlo.clamp %[[CONSTANT_0]], %[[ARG0]], %[[CONSTANT_1]] : tensor<f32>
 // CHECK:           %[[MULTIPLY_0:.*]] = stablehlo.multiply %[[CLAMP_0]], %[[CLAMP_0]] : tensor<f32>
 // CHECK:           %[[CONSTANT_2:.*]] = stablehlo.constant dense<-2.72614237E-10> : tensor<f32>
@@ -956,8 +956,8 @@
 // CHECK:           %[[ADD_9:.*]] = stablehlo.add %[[MULTIPLY_10]], %[[CONSTANT_13]] : tensor<f32>
 // CHECK:           %[[MULTIPLY_11:.*]] = stablehlo.multiply %[[CLAMP_0]], %[[ADD_5]] : tensor<f32>
 // CHECK:           %[[DIVIDE_0:.*]] = stablehlo.divide %[[MULTIPLY_11]], %[[ADD_9]] : tensor<f32>
-// CHECK:           %[[CONSTANT_14:.*]] = stablehlo.constant dense<-1.000000e+00> : tensor<f32>
-// CHECK:           %[[CONSTANT_15:.*]] = stablehlo.constant dense<1.000000e+00> : tensor<f32>
+// CHECK-DAG:       %[[CONSTANT_14:.*]] = stablehlo.constant dense<-1.000000e+00> : tensor<f32>
+// CHECK-DAG:       %[[CONSTANT_15:.*]] = stablehlo.constant dense<1.000000e+00> : tensor<f32>
 // CHECK:           %[[CLAMP_1:.*]] = stablehlo.clamp %[[CONSTANT_14]], %[[DIVIDE_0]], %[[CONSTANT_15]] : tensor<f32>
 // CHECK:           return %[[CLAMP_1]] : tensor<f32>
 // CHECK:         }
@@ -971,8 +971,8 @@
 // CHECK-LABEL:   func.func @erf_f16(
 // CHECK-SAME:      %[[ARG0:.*]]: tensor<f16>) -> tensor<f16> {
 // CHECK:           %[[CONVERT_0:.*]] = stablehlo.convert %[[ARG0]] : (tensor<f16>) -> tensor<f32>
-// CHECK:           %[[CONSTANT_0:.*]] = stablehlo.constant dense<-4.000000e+00> : tensor<f32>
-// CHECK:           %[[CONSTANT_1:.*]] = stablehlo.constant dense<4.000000e+00> : tensor<f32>
+// CHECK-DAG:       %[[CONSTANT_0:.*]] = stablehlo.constant dense<-4.000000e+00> : tensor<f32>
+// CHECK-DAG:       %[[CONSTANT_1:.*]] = stablehlo.constant dense<4.000000e+00> : tensor<f32>
 // CHECK:           %[[CLAMP_0:.*]] = stablehlo.clamp %[[CONSTANT_0]], %[[CONVERT_0]], %[[CONSTANT_1]] : tensor<f32>
 // CHECK:           %[[MULTIPLY_0:.*]] = stablehlo.multiply %[[CLAMP_0]], %[[CLAMP_0]] : tensor<f32>
 // CHECK:           %[[CONSTANT_2:.*]] = stablehlo.constant dense<-2.72614237E-10> : tensor<f32>
@@ -1009,8 +1009,8 @@
 // CHECK:           %[[ADD_9:.*]] = stablehlo.add %[[MULTIPLY_10]], %[[CONSTANT_13]] : tensor<f32>
 // CHECK:           %[[MULTIPLY_11:.*]] = stablehlo.multiply %[[CLAMP_0]], %[[ADD_5]] : tensor<f32>
 // CHECK:           %[[DIVIDE_0:.*]] = stablehlo.divide %[[MULTIPLY_11]], %[[ADD_9]] : tensor<f32>
-// CHECK:           %[[CONSTANT_14:.*]] = stablehlo.constant dense<-1.000000e+00> : tensor<f32>
-// CHECK:           %[[CONSTANT_15:.*]] = stablehlo.constant dense<1.000000e+00> : tensor<f32>
+// CHECK-DAG:       %[[CONSTANT_14:.*]] = stablehlo.constant dense<-1.000000e+00> : tensor<f32>
+// CHECK-DAG:       %[[CONSTANT_15:.*]] = stablehlo.constant dense<1.000000e+00> : tensor<f32>
 // CHECK:           %[[CLAMP_1:.*]] = stablehlo.clamp %[[CONSTANT_14]], %[[DIVIDE_0]], %[[CONSTANT_15]] : tensor<f32>
 // CHECK:           %[[CONVERT_1:.*]] = stablehlo.convert %[[CLAMP_1]] : (tensor<f32>) -> tensor<f16>
 // CHECK:           return %[[CONVERT_1]] : tensor<f16>
@@ -1025,8 +1025,8 @@
 // CHECK-LABEL:   func.func @erf_bf16(
 // CHECK-SAME:      %[[ARG0:.*]]: tensor<bf16>) -> tensor<bf16> {
 // CHECK:           %[[CONVERT_0:.*]] = stablehlo.convert %[[ARG0]] : (tensor<bf16>) -> tensor<f32>
-// CHECK:           %[[CONSTANT_0:.*]] = stablehlo.constant dense<-4.000000e+00> : tensor<f32>
-// CHECK:           %[[CONSTANT_1:.*]] = stablehlo.constant dense<4.000000e+00> : tensor<f32>
+// CHECK-DAG:       %[[CONSTANT_0:.*]] = stablehlo.constant dense<-4.000000e+00> : tensor<f32>
+// CHECK-DAG:       %[[CONSTANT_1:.*]] = stablehlo.constant dense<4.000000e+00> : tensor<f32>
 // CHECK:           %[[CLAMP_0:.*]] = stablehlo.clamp %[[CONSTANT_0]], %[[CONVERT_0]], %[[CONSTANT_1]] : tensor<f32>
 // CHECK:           %[[MULTIPLY_0:.*]] = stablehlo.multiply %[[CLAMP_0]], %[[CLAMP_0]] : tensor<f32>
 // CHECK:           %[[CONSTANT_2:.*]] = stablehlo.constant dense<-2.72614237E-10> : tensor<f32>
@@ -1063,8 +1063,8 @@
 // CHECK:           %[[ADD_9:.*]] = stablehlo.add %[[MULTIPLY_10]], %[[CONSTANT_13]] : tensor<f32>
 // CHECK:           %[[MULTIPLY_11:.*]] = stablehlo.multiply %[[CLAMP_0]], %[[ADD_5]] : tensor<f32>
 // CHECK:           %[[DIVIDE_0:.*]] = stablehlo.divide %[[MULTIPLY_11]], %[[ADD_9]] : tensor<f32>
-// CHECK:           %[[CONSTANT_14:.*]] = stablehlo.constant dense<-1.000000e+00> : tensor<f32>
-// CHECK:           %[[CONSTANT_15:.*]] = stablehlo.constant dense<1.000000e+00> : tensor<f32>
+// CHECK-DAG:       %[[CONSTANT_14:.*]] = stablehlo.constant dense<-1.000000e+00> : tensor<f32>
+// CHECK-DAG:       %[[CONSTANT_15:.*]] = stablehlo.constant dense<1.000000e+00> : tensor<f32>
 // CHECK:           %[[CLAMP_1:.*]] = stablehlo.clamp %[[CONSTANT_14]], %[[DIVIDE_0]], %[[CONSTANT_15]] : tensor<f32>
 // CHECK:           %[[CONVERT_1:.*]] = stablehlo.convert %[[CLAMP_1]] : (tensor<f32>) -> tensor<bf16>
 // CHECK:           return %[[CONVERT_1]] : tensor<bf16>
@@ -1078,10 +1078,10 @@
 
 // CHECK-LABEL:   func.func @acosh(
 // CHECK-SAME:                     %[[ARG0:.*]]: tensor<f16>) -> tensor<f16> {
-// CHECK:           %[[CONSTANT_0:.*]] = stablehlo.constant dense<6.550400e+04> : tensor<f16>
-// CHECK:           %[[CONSTANT_1:.*]] = stablehlo.constant dense<2.000000e+00> : tensor<f16>
+// CHECK-DAG:       %[[CONSTANT_0:.*]] = stablehlo.constant dense<6.550400e+04> : tensor<f16>
+// CHECK-DAG:       %[[CONSTANT_1:.*]] = stablehlo.constant dense<2.000000e+00> : tensor<f16>
 // CHECK:           %[[DIVIDE_0:.*]] = stablehlo.divide %[[CONSTANT_0]], %[[CONSTANT_1]] : tensor<f16>
-// CHECK:           %[[COMPARE_0:.*]] = stablehlo.compare  GE, %[[ARG0]], %[[DIVIDE_0]] : (tensor<f16>, tensor<f16>) -> tensor<i1>
+// CHECK:           %[[COMPARE_0:.*]] = stablehlo.compare GE, %[[ARG0]], %[[DIVIDE_0]] : (tensor<f16>, tensor<f16>) -> tensor<i1>
 // CHECK:           %[[LOG_0:.*]] = stablehlo.log %[[CONSTANT_1]] : tensor<f16>
 // CHECK:           %[[LOG_1:.*]] = stablehlo.log %[[ARG0]] : tensor<f16>
 // CHECK:           %[[ADD_0:.*]] = stablehlo.add %[[LOG_0]], %[[LOG_1]] : tensor<f16>
@@ -1114,24 +1114,24 @@
 // CHECK:           %[[SQRT_0:.*]] = stablehlo.sqrt %[[CONSTANT_0]] : tensor<f32>
 // CHECK:           %[[CONSTANT_1:.*]] = stablehlo.constant dense<8.000000e+00> : tensor<f32>
 // CHECK:           %[[DIVIDE_0:.*]] = stablehlo.divide %[[SQRT_0]], %[[CONSTANT_1]] : tensor<f32>
-// CHECK:           %[[COMPARE_0:.*]] = stablehlo.compare  GE, %[[MAXIMUM_0]], %[[DIVIDE_0]] : (tensor<f32>, tensor<f32>) -> tensor<i1>
+// CHECK:           %[[COMPARE_0:.*]] = stablehlo.compare GE, %[[MAXIMUM_0]], %[[DIVIDE_0]] : (tensor<f32>, tensor<f32>) -> tensor<i1>
 // CHECK:           %[[CONSTANT_2:.*]] = stablehlo.constant dense<1.000000e+00> : tensor<f32>
-// CHECK:           %[[COMPARE_1:.*]] = stablehlo.compare  LE, %[[ABS_0]], %[[CONSTANT_2]] : (tensor<f32>, tensor<f32>) -> tensor<i1>
+// CHECK:           %[[COMPARE_1:.*]] = stablehlo.compare LE, %[[ABS_0]], %[[CONSTANT_2]] : (tensor<f32>, tensor<f32>) -> tensor<i1>
 // CHECK:           %[[CONSTANT_3:.*]] = stablehlo.constant dense<5.000000e-01> : tensor<f32>
 // CHECK:           %[[ADD_0:.*]] = stablehlo.add %[[ABS_0]], %[[CONSTANT_2]] : tensor<f32>
 // CHECK:           %[[ABS_2:.*]] = stablehlo.abs %[[ADD_0]] : tensor<f32>
 // CHECK:           %[[MAXIMUM_1:.*]] = stablehlo.maximum %[[ABS_2]], %[[ABS_1]] : tensor<f32>
 // CHECK:           %[[MINIMUM_0:.*]] = stablehlo.minimum %[[ABS_2]], %[[ABS_1]] : tensor<f32>
-// CHECK:           %[[COMPARE_2:.*]] = stablehlo.compare  EQ, %[[MAXIMUM_1]], %[[MINIMUM_0]] : (tensor<f32>, tensor<f32>) -> tensor<i1>
+// CHECK:           %[[COMPARE_2:.*]] = stablehlo.compare EQ, %[[MAXIMUM_1]], %[[MINIMUM_0]] : (tensor<f32>, tensor<f32>) -> tensor<i1>
 // CHECK:           %[[CONSTANT_4:.*]] = stablehlo.constant dense<1.41421354> : tensor<f32>
 // CHECK:           %[[MULTIPLY_0:.*]] = stablehlo.multiply %[[CONSTANT_4]], %[[MAXIMUM_1]] : tensor<f32>
 // CHECK:           %[[DIVIDE_1:.*]] = stablehlo.divide %[[MINIMUM_0]], %[[MAXIMUM_1]] : tensor<f32>
 // CHECK:           %[[MULTIPLY_1:.*]] = stablehlo.multiply %[[DIVIDE_1]], %[[DIVIDE_1]] : tensor<f32>
 // CHECK:           %[[ADD_1:.*]] = stablehlo.add %[[CONSTANT_2]], %[[MULTIPLY_1]] : tensor<f32>
 // CHECK:           %[[SQRT_1:.*]] = stablehlo.sqrt %[[ADD_1]] : tensor<f32>
-// CHECK:           %[[COMPARE_3:.*]] = stablehlo.compare  EQ, %[[SQRT_1]], %[[CONSTANT_2]] : (tensor<f32>, tensor<f32>) -> tensor<i1>
+// CHECK:           %[[COMPARE_3:.*]] = stablehlo.compare EQ, %[[SQRT_1]], %[[CONSTANT_2]] : (tensor<f32>, tensor<f32>) -> tensor<i1>
 // CHECK:           %[[CONSTANT_5:.*]] = stablehlo.constant dense<0.000000e+00> : tensor<f32>
-// CHECK:           %[[COMPARE_4:.*]] = stablehlo.compare  GT, %[[MULTIPLY_1]], %[[CONSTANT_5]] : (tensor<f32>, tensor<f32>) -> tensor<i1>
+// CHECK:           %[[COMPARE_4:.*]] = stablehlo.compare GT, %[[MULTIPLY_1]], %[[CONSTANT_5]] : (tensor<f32>, tensor<f32>) -> tensor<i1>
 // CHECK:           %[[AND_0:.*]] = stablehlo.and %[[COMPARE_3]], %[[COMPARE_4]] : tensor<i1>
 // CHECK:           %[[MULTIPLY_2:.*]] = stablehlo.multiply %[[MAXIMUM_1]], %[[MULTIPLY_1]] : tensor<f32>
 // CHECK:           %[[CONSTANT_6:.*]] = stablehlo.constant dense<2.000000e+00> : tensor<f32>
@@ -1144,14 +1144,14 @@
 // CHECK:           %[[ABS_3:.*]] = stablehlo.abs %[[SUBTRACT_0]] : tensor<f32>
 // CHECK:           %[[MAXIMUM_2:.*]] = stablehlo.maximum %[[ABS_3]], %[[ABS_1]] : tensor<f32>
 // CHECK:           %[[MINIMUM_1:.*]] = stablehlo.minimum %[[ABS_3]], %[[ABS_1]] : tensor<f32>
-// CHECK:           %[[COMPARE_5:.*]] = stablehlo.compare  EQ, %[[MAXIMUM_2]], %[[MINIMUM_1]] : (tensor<f32>, tensor<f32>) -> tensor<i1>
+// CHECK:           %[[COMPARE_5:.*]] = stablehlo.compare EQ, %[[MAXIMUM_2]], %[[MINIMUM_1]] : (tensor<f32>, tensor<f32>) -> tensor<i1>
 // CHECK:           %[[MULTIPLY_4:.*]] = stablehlo.multiply %[[CONSTANT_4]], %[[MAXIMUM_2]] : tensor<f32>
 // CHECK:           %[[DIVIDE_3:.*]] = stablehlo.divide %[[MINIMUM_1]], %[[MAXIMUM_2]] : tensor<f32>
 // CHECK:           %[[MULTIPLY_5:.*]] = stablehlo.multiply %[[DIVIDE_3]], %[[DIVIDE_3]] : tensor<f32>
 // CHECK:           %[[ADD_3:.*]] = stablehlo.add %[[CONSTANT_2]], %[[MULTIPLY_5]] : tensor<f32>
 // CHECK:           %[[SQRT_2:.*]] = stablehlo.sqrt %[[ADD_3]] : tensor<f32>
-// CHECK:           %[[COMPARE_6:.*]] = stablehlo.compare  EQ, %[[SQRT_2]], %[[CONSTANT_2]] : (tensor<f32>, tensor<f32>) -> tensor<i1>
-// CHECK:           %[[COMPARE_7:.*]] = stablehlo.compare  GT, %[[MULTIPLY_5]], %[[CONSTANT_5]] : (tensor<f32>, tensor<f32>) -> tensor<i1>
+// CHECK:           %[[COMPARE_6:.*]] = stablehlo.compare EQ, %[[SQRT_2]], %[[CONSTANT_2]] : (tensor<f32>, tensor<f32>) -> tensor<i1>
+// CHECK:           %[[COMPARE_7:.*]] = stablehlo.compare GT, %[[MULTIPLY_5]], %[[CONSTANT_5]] : (tensor<f32>, tensor<f32>) -> tensor<i1>
 // CHECK:           %[[AND_1:.*]] = stablehlo.and %[[COMPARE_6]], %[[COMPARE_7]] : tensor<i1>
 // CHECK:           %[[MULTIPLY_6:.*]] = stablehlo.multiply %[[MAXIMUM_2]], %[[MULTIPLY_5]] : tensor<f32>
 // CHECK:           %[[DIVIDE_4:.*]] = stablehlo.divide %[[MULTIPLY_6]], %[[CONSTANT_6]] : tensor<f32>
@@ -1180,21 +1180,21 @@
 // CHECK:           %[[SELECT_5:.*]] = stablehlo.select %[[COMPARE_0]], %[[ABS_1]], %[[SELECT_4]] : tensor<i1>, tensor<f32>
 // CHECK:           %[[CONSTANT_7:.*]] = stablehlo.constant dense<9.99999995E+11> : tensor<f32>
 // CHECK:           %[[MULTIPLY_13:.*]] = stablehlo.multiply %[[DIVIDE_0]], %[[CONSTANT_7]] : tensor<f32>
-// CHECK:           %[[COMPARE_8:.*]] = stablehlo.compare  LT, %[[ABS_0]], %[[MULTIPLY_13]] : (tensor<f32>, tensor<f32>) -> tensor<i1>
+// CHECK:           %[[COMPARE_8:.*]] = stablehlo.compare LT, %[[ABS_0]], %[[MULTIPLY_13]] : (tensor<f32>, tensor<f32>) -> tensor<i1>
 // CHECK:           %[[CONSTANT_8:.*]] = stablehlo.constant dense<9.99999997E-7> : tensor<f32>
 // CHECK:           %[[MULTIPLY_14:.*]] = stablehlo.multiply %[[DIVIDE_0]], %[[CONSTANT_8]] : tensor<f32>
 // CHECK:           %[[CONSTANT_9:.*]] = stablehlo.constant dense<1.000000e+02> : tensor<f32>
 // CHECK:           %[[MULTIPLY_15:.*]] = stablehlo.multiply %[[DIVIDE_0]], %[[CONSTANT_9]] : tensor<f32>
 // CHECK:           %[[SELECT_6:.*]] = stablehlo.select %[[COMPARE_8]], %[[MULTIPLY_14]], %[[MULTIPLY_15]] : tensor<i1>, tensor<f32>
-// CHECK:           %[[COMPARE_9:.*]] = stablehlo.compare  GE, %[[ABS_1]], %[[SELECT_6]] : (tensor<f32>, tensor<f32>) -> tensor<i1>
+// CHECK:           %[[COMPARE_9:.*]] = stablehlo.compare GE, %[[ABS_1]], %[[SELECT_6]] : (tensor<f32>, tensor<f32>) -> tensor<i1>
 // CHECK:           %[[SELECT_7:.*]] = stablehlo.select %[[COMPARE_9]], %[[ABS_1]], %[[ABS_0]] : tensor<i1>, tensor<f32>
 // CHECK:           %[[SELECT_8:.*]] = stablehlo.select %[[COMPARE_9]], %[[SELECT_6]], %[[DIVIDE_0]] : tensor<i1>, tensor<f32>
-// CHECK:           %[[COMPARE_10:.*]] = stablehlo.compare  GE, %[[SELECT_7]], %[[SELECT_8]] : (tensor<f32>, tensor<f32>) -> tensor<i1>
+// CHECK:           %[[COMPARE_10:.*]] = stablehlo.compare GE, %[[SELECT_7]], %[[SELECT_8]] : (tensor<f32>, tensor<f32>) -> tensor<i1>
 // CHECK:           %[[LOG_0:.*]] = stablehlo.log %[[CONSTANT_6]] : tensor<f32>
 // CHECK:           %[[LOG_1:.*]] = stablehlo.log %[[SELECT_7]] : tensor<f32>
 // CHECK:           %[[ADD_11:.*]] = stablehlo.add %[[LOG_0]], %[[LOG_1]] : tensor<f32>
 // CHECK:           %[[CONSTANT_10:.*]] = stablehlo.constant dense<0x7F800000> : tensor<f32>
-// CHECK:           %[[COMPARE_11:.*]] = stablehlo.compare  EQ, %[[ABS_1]], %[[CONSTANT_10]] : (tensor<f32>, tensor<f32>) -> tensor<i1>
+// CHECK:           %[[COMPARE_11:.*]] = stablehlo.compare EQ, %[[ABS_1]], %[[CONSTANT_10]] : (tensor<f32>, tensor<f32>) -> tensor<i1>
 // CHECK:           %[[NOT_0:.*]] = stablehlo.not %[[COMPARE_11]] : tensor<i1>
 // CHECK:           %[[AND_2:.*]] = stablehlo.and %[[COMPARE_9]], %[[NOT_0]] : tensor<i1>
 // CHECK:           %[[DIVIDE_8:.*]] = stablehlo.divide %[[ABS_0]], %[[ABS_1]] : tensor<f32>
@@ -1207,20 +1207,20 @@
 // CHECK:           %[[SQRT_5:.*]] = stablehlo.sqrt %[[CONSTANT_11]] : tensor<f32>
 // CHECK:           %[[CONSTANT_12:.*]] = stablehlo.constant dense<4.000000e+00> : tensor<f32>
 // CHECK:           %[[MULTIPLY_18:.*]] = stablehlo.multiply %[[SQRT_5]], %[[CONSTANT_12]] : tensor<f32>
-// CHECK:           %[[COMPARE_12:.*]] = stablehlo.compare  LT, %[[ABS_1]], %[[MULTIPLY_18]] : (tensor<f32>, tensor<f32>) -> tensor<i1>
-// CHECK:           %[[COMPARE_13:.*]] = stablehlo.compare  LT, %[[ABS_0]], %[[CONSTANT_2]] : (tensor<f32>, tensor<f32>) -> tensor<i1>
+// CHECK:           %[[COMPARE_12:.*]] = stablehlo.compare LT, %[[ABS_1]], %[[MULTIPLY_18]] : (tensor<f32>, tensor<f32>) -> tensor<i1>
+// CHECK:           %[[COMPARE_13:.*]] = stablehlo.compare LT, %[[ABS_0]], %[[CONSTANT_2]] : (tensor<f32>, tensor<f32>) -> tensor<i1>
 // CHECK:           %[[AND_3:.*]] = stablehlo.and %[[COMPARE_12]], %[[COMPARE_13]] : tensor<i1>
 // CHECK:           %[[MULTIPLY_19:.*]] = stablehlo.multiply %[[ADD_0]], %[[SUBTRACT_0]] : tensor<f32>
 // CHECK:           %[[ADD_13:.*]] = stablehlo.add %[[MULTIPLY_8]], %[[CONSTANT_2]] : tensor<f32>
 // CHECK:           %[[DIVIDE_9:.*]] = stablehlo.divide %[[MULTIPLY_19]], %[[ADD_13]] : tensor<f32>
 // CHECK:           %[[NEGATE_0:.*]] = stablehlo.negate %[[DIVIDE_9]] : tensor<f32>
-// CHECK:           %[[COMPARE_14:.*]] = stablehlo.compare  GE, %[[ABS_0]], %[[CONSTANT_2]] : (tensor<f32>, tensor<f32>) -> tensor<i1>
+// CHECK:           %[[COMPARE_14:.*]] = stablehlo.compare GE, %[[ABS_0]], %[[CONSTANT_2]] : (tensor<f32>, tensor<f32>) -> tensor<i1>
 // CHECK:           %[[MULTIPLY_20:.*]] = stablehlo.multiply %[[CONSTANT_3]], %[[MULTIPLY_10]] : tensor<f32>
 // CHECK:           %[[DIVIDE_10:.*]] = stablehlo.divide %[[MULTIPLY_20]], %[[ADD_7]] : tensor<f32>
 // CHECK:           %[[MULTIPLY_21:.*]] = stablehlo.multiply %[[CONSTANT_3]], %[[ADD_9]] : tensor<f32>
 // CHECK:           %[[ADD_14:.*]] = stablehlo.add %[[DIVIDE_10]], %[[MULTIPLY_21]] : tensor<f32>
 // CHECK:           %[[CONSTANT_13:.*]] = stablehlo.constant dense<1.500000e+00> : tensor<f32>
-// CHECK:           %[[COMPARE_15:.*]] = stablehlo.compare  LE, %[[MULTIPLY_8]], %[[CONSTANT_13]] : (tensor<f32>, tensor<f32>) -> tensor<i1>
+// CHECK:           %[[COMPARE_15:.*]] = stablehlo.compare LE, %[[MULTIPLY_8]], %[[CONSTANT_13]] : (tensor<f32>, tensor<f32>) -> tensor<i1>
 // CHECK:           %[[DIVIDE_11:.*]] = stablehlo.divide %[[MULTIPLY_20]], %[[SUBTRACT_1]] : tensor<f32>
 // CHECK:           %[[ADD_15:.*]] = stablehlo.add %[[DIVIDE_10]], %[[DIVIDE_11]] : tensor<f32>
 // CHECK:           %[[SUBTRACT_2:.*]] = stablehlo.subtract %[[MULTIPLY_8]], %[[CONSTANT_2]] : tensor<f32>
@@ -1238,7 +1238,7 @@
 // CHECK:           %[[IMAG_1:.*]] = stablehlo.imag %[[COMPLEX_0]] : (tensor<complex<f32>>) -> tensor<f32>
 // CHECK:           %[[IMAG_2:.*]] = stablehlo.imag %[[ARG0]] : (tensor<complex<f32>>) -> tensor<f32>
 // CHECK:           %[[CONSTANT_14:.*]] = stablehlo.constant dense<0.000000e+00> : tensor<f32>
-// CHECK:           %[[COMPARE_16:.*]] = stablehlo.compare  LT, %[[IMAG_2]], %[[CONSTANT_14]] : (tensor<f32>, tensor<f32>) -> tensor<i1>
+// CHECK:           %[[COMPARE_16:.*]] = stablehlo.compare LT, %[[IMAG_2]], %[[CONSTANT_14]] : (tensor<f32>, tensor<f32>) -> tensor<i1>
 // CHECK:           %[[REAL_1:.*]] = stablehlo.real %[[COMPLEX_0]] : (tensor<complex<f32>>) -> tensor<f32>
 // CHECK:           %[[REAL_2:.*]] = stablehlo.real %[[ARG0]] : (tensor<complex<f32>>) -> tensor<f32>
 // CHECK:           %[[VAL_0:.*]] = stablehlo.atan2 %[[REAL_1]], %[[REAL_2]] : tensor<f32>
@@ -1350,13 +1350,13 @@
 // CHECK:           %[[ADD_26:.*]] = stablehlo.add %[[MULTIPLY_29]], %[[CONSTANT_30]] : tensor<f64>
 // CHECK:           %[[DIVIDE_1:.*]] = stablehlo.divide %[[MULTIPLY_23]], %[[ADD_26]] : tensor<f64>
 // CHECK:           %[[CONSTANT_31:.*]] = stablehlo.constant dense<8.000000e+00> : tensor<f64>
-// CHECK:           %[[COMPARE_0:.*]] = stablehlo.compare  LT, %[[ABS_0]], %[[CONSTANT_31]] : (tensor<f64>, tensor<f64>) -> tensor<i1>
+// CHECK:           %[[COMPARE_0:.*]] = stablehlo.compare LT, %[[ABS_0]], %[[CONSTANT_31]] : (tensor<f64>, tensor<f64>) -> tensor<i1>
 // CHECK:           %[[SELECT_0:.*]] = stablehlo.select %[[COMPARE_0]], %[[DIVIDE_0]], %[[DIVIDE_1]] : tensor<i1>, tensor<f64>
 // CHECK:           %[[CONSTANT_32:.*]] = stablehlo.constant dense<-709.78271289338397> : tensor<f64>
-// CHECK:           %[[COMPARE_1:.*]] = stablehlo.compare  LT, %[[NEGATE_0]], %[[CONSTANT_32]] : (tensor<f64>, tensor<f64>) -> tensor<i1>
+// CHECK:           %[[COMPARE_1:.*]] = stablehlo.compare LT, %[[NEGATE_0]], %[[CONSTANT_32]] : (tensor<f64>, tensor<f64>) -> tensor<i1>
 // CHECK:           %[[CONSTANT_33:.*]] = stablehlo.constant dense<0.000000e+00> : tensor<f64>
 // CHECK:           %[[SELECT_1:.*]] = stablehlo.select %[[COMPARE_1]], %[[CONSTANT_33]], %[[SELECT_0]] : tensor<i1>, tensor<f64>
-// CHECK:           %[[COMPARE_2:.*]] = stablehlo.compare  LT, %[[ARG0]], %[[CONSTANT_33]] : (tensor<f64>, tensor<f64>) -> tensor<i1>
+// CHECK:           %[[COMPARE_2:.*]] = stablehlo.compare LT, %[[ARG0]], %[[CONSTANT_33]] : (tensor<f64>, tensor<f64>) -> tensor<i1>
 // CHECK:           %[[CONSTANT_34:.*]] = stablehlo.constant dense<2.000000e+00> : tensor<f64>
 // CHECK:           %[[SUBTRACT_0:.*]] = stablehlo.subtract %[[CONSTANT_34]], %[[SELECT_1]] : tensor<f64>
 // CHECK:           %[[SELECT_2:.*]] = stablehlo.select %[[COMPARE_2]], %[[SUBTRACT_0]], %[[SELECT_1]] : tensor<i1>, tensor<f64>
@@ -1395,7 +1395,7 @@
 // CHECK:           %[[DIVIDE_2:.*]] = stablehlo.divide %[[MULTIPLY_35]], %[[ADD_35]] : tensor<f64>
 // CHECK:           %[[SUBTRACT_1:.*]] = stablehlo.subtract %[[CONSTANT_35]], %[[DIVIDE_2]] : tensor<f64>
 // CHECK:           %[[ABS_1:.*]] = stablehlo.abs %[[ARG0]] : tensor<f64>
-// CHECK:           %[[COMPARE_3:.*]] = stablehlo.compare  LT, %[[ABS_1]], %[[CONSTANT_35]] : (tensor<f64>, tensor<f64>) -> tensor<i1>
+// CHECK:           %[[COMPARE_3:.*]] = stablehlo.compare LT, %[[ABS_1]], %[[CONSTANT_35]] : (tensor<f64>, tensor<f64>) -> tensor<i1>
 // CHECK:           %[[SELECT_3:.*]] = stablehlo.select %[[COMPARE_3]], %[[SUBTRACT_1]], %[[SELECT_2]] : tensor<i1>, tensor<f64>
 // CHECK:           return %[[SELECT_3]] : tensor<f64>
 // CHECK:         }
@@ -1417,7 +1417,7 @@
 // CHECK:           %[[DIVIDE_1:.*]] = stablehlo.divide %[[CONSTANT_0]], %[[ABS_0]] : tensor<f32>
 // CHECK:           %[[MULTIPLY_1:.*]] = stablehlo.multiply %[[EXPONENTIAL_0]], %[[DIVIDE_1]] : tensor<f32>
 // CHECK:           %[[CONSTANT_1:.*]] = stablehlo.constant dense<2.000000e+00> : tensor<f32>
-// CHECK:           %[[COMPARE_0:.*]] = stablehlo.compare  LT, %[[ABS_0]], %[[CONSTANT_1]] : (tensor<f32>, tensor<f32>) -> tensor<i1>
+// CHECK:           %[[COMPARE_0:.*]] = stablehlo.compare LT, %[[ABS_0]], %[[CONSTANT_1]] : (tensor<f32>, tensor<f32>) -> tensor<i1>
 // CHECK:           %[[CONSTANT_2:.*]] = stablehlo.constant dense<2.326820e-02> : tensor<f32>
 // CHECK:           %[[MULTIPLY_2:.*]] = stablehlo.multiply %[[CONSTANT_2]], %[[DIVIDE_0]] : tensor<f32>
 // CHECK:           %[[CONSTANT_3:.*]] = stablehlo.constant dense<-0.138703942> : tensor<f32>
@@ -1468,10 +1468,10 @@
 // CHECK:           %[[SELECT_0:.*]] = stablehlo.select %[[COMPARE_0]], %[[ADD_7]], %[[ADD_14]] : tensor<i1>, tensor<f32>
 // CHECK:           %[[MULTIPLY_17:.*]] = stablehlo.multiply %[[MULTIPLY_1]], %[[SELECT_0]] : tensor<f32>
 // CHECK:           %[[CONSTANT_19:.*]] = stablehlo.constant dense<-88.7228394> : tensor<f32>
-// CHECK:           %[[COMPARE_1:.*]] = stablehlo.compare  LT, %[[NEGATE_0]], %[[CONSTANT_19]] : (tensor<f32>, tensor<f32>) -> tensor<i1>
+// CHECK:           %[[COMPARE_1:.*]] = stablehlo.compare LT, %[[NEGATE_0]], %[[CONSTANT_19]] : (tensor<f32>, tensor<f32>) -> tensor<i1>
 // CHECK:           %[[CONSTANT_20:.*]] = stablehlo.constant dense<0.000000e+00> : tensor<f32>
 // CHECK:           %[[SELECT_1:.*]] = stablehlo.select %[[COMPARE_1]], %[[CONSTANT_20]], %[[MULTIPLY_17]] : tensor<i1>, tensor<f32>
-// CHECK:           %[[COMPARE_2:.*]] = stablehlo.compare  LT, %[[ARG0]], %[[CONSTANT_20]] : (tensor<f32>, tensor<f32>) -> tensor<i1>
+// CHECK:           %[[COMPARE_2:.*]] = stablehlo.compare LT, %[[ARG0]], %[[CONSTANT_20]] : (tensor<f32>, tensor<f32>) -> tensor<i1>
 // CHECK:           %[[SUBTRACT_0:.*]] = stablehlo.subtract %[[CONSTANT_1]], %[[SELECT_1]] : tensor<f32>
 // CHECK:           %[[SELECT_2:.*]] = stablehlo.select %[[COMPARE_2]], %[[SUBTRACT_0]], %[[SELECT_1]] : tensor<i1>, tensor<f32>
 // CHECK:           %[[CONSTANT_21:.*]] = stablehlo.constant dense<1.000000e+00> : tensor<f32>
@@ -1498,7 +1498,7 @@
 // CHECK:           %[[MULTIPLY_25:.*]] = stablehlo.multiply %[[ARG0]], %[[ADD_20]] : tensor<f32>
 // CHECK:           %[[SUBTRACT_1:.*]] = stablehlo.subtract %[[CONSTANT_21]], %[[MULTIPLY_25]] : tensor<f32>
 // CHECK:           %[[ABS_1:.*]] = stablehlo.abs %[[ARG0]] : tensor<f32>
-// CHECK:           %[[COMPARE_3:.*]] = stablehlo.compare  LT, %[[ABS_1]], %[[CONSTANT_21]] : (tensor<f32>, tensor<f32>) -> tensor<i1>
+// CHECK:           %[[COMPARE_3:.*]] = stablehlo.compare LT, %[[ABS_1]], %[[CONSTANT_21]] : (tensor<f32>, tensor<f32>) -> tensor<i1>
 // CHECK:           %[[SELECT_3:.*]] = stablehlo.select %[[COMPARE_3]], %[[SUBTRACT_1]], %[[SELECT_2]] : tensor<i1>, tensor<f32>
 // CHECK:           return %[[SELECT_3]] : tensor<f32>
 // CHECK:         }
@@ -1521,7 +1521,7 @@
 // CHECK:           %[[DIVIDE_1:.*]] = stablehlo.divide %[[CONSTANT_0]], %[[ABS_0]] : tensor<f32>
 // CHECK:           %[[MULTIPLY_1:.*]] = stablehlo.multiply %[[EXPONENTIAL_0]], %[[DIVIDE_1]] : tensor<f32>
 // CHECK:           %[[CONSTANT_1:.*]] = stablehlo.constant dense<2.000000e+00> : tensor<f32>
-// CHECK:           %[[COMPARE_0:.*]] = stablehlo.compare  LT, %[[ABS_0]], %[[CONSTANT_1]] : (tensor<f32>, tensor<f32>) -> tensor<i1>
+// CHECK:           %[[COMPARE_0:.*]] = stablehlo.compare LT, %[[ABS_0]], %[[CONSTANT_1]] : (tensor<f32>, tensor<f32>) -> tensor<i1>
 // CHECK:           %[[CONSTANT_2:.*]] = stablehlo.constant dense<2.326820e-02> : tensor<f32>
 // CHECK:           %[[MULTIPLY_2:.*]] = stablehlo.multiply %[[CONSTANT_2]], %[[DIVIDE_0]] : tensor<f32>
 // CHECK:           %[[CONSTANT_3:.*]] = stablehlo.constant dense<-0.138703942> : tensor<f32>
@@ -1572,10 +1572,10 @@
 // CHECK:           %[[SELECT_0:.*]] = stablehlo.select %[[COMPARE_0]], %[[ADD_7]], %[[ADD_14]] : tensor<i1>, tensor<f32>
 // CHECK:           %[[MULTIPLY_17:.*]] = stablehlo.multiply %[[MULTIPLY_1]], %[[SELECT_0]] : tensor<f32>
 // CHECK:           %[[CONSTANT_19:.*]] = stablehlo.constant dense<-88.7228394> : tensor<f32>
-// CHECK:           %[[COMPARE_1:.*]] = stablehlo.compare  LT, %[[NEGATE_0]], %[[CONSTANT_19]] : (tensor<f32>, tensor<f32>) -> tensor<i1>
+// CHECK:           %[[COMPARE_1:.*]] = stablehlo.compare LT, %[[NEGATE_0]], %[[CONSTANT_19]] : (tensor<f32>, tensor<f32>) -> tensor<i1>
 // CHECK:           %[[CONSTANT_20:.*]] = stablehlo.constant dense<0.000000e+00> : tensor<f32>
 // CHECK:           %[[SELECT_1:.*]] = stablehlo.select %[[COMPARE_1]], %[[CONSTANT_20]], %[[MULTIPLY_17]] : tensor<i1>, tensor<f32>
-// CHECK:           %[[COMPARE_2:.*]] = stablehlo.compare  LT, %[[CONVERT_0]], %[[CONSTANT_20]] : (tensor<f32>, tensor<f32>) -> tensor<i1>
+// CHECK:           %[[COMPARE_2:.*]] = stablehlo.compare LT, %[[CONVERT_0]], %[[CONSTANT_20]] : (tensor<f32>, tensor<f32>) -> tensor<i1>
 // CHECK:           %[[SUBTRACT_0:.*]] = stablehlo.subtract %[[CONSTANT_1]], %[[SELECT_1]] : tensor<f32>
 // CHECK:           %[[SELECT_2:.*]] = stablehlo.select %[[COMPARE_2]], %[[SUBTRACT_0]], %[[SELECT_1]] : tensor<i1>, tensor<f32>
 // CHECK:           %[[CONSTANT_21:.*]] = stablehlo.constant dense<1.000000e+00> : tensor<f32>
@@ -1602,7 +1602,7 @@
 // CHECK:           %[[MULTIPLY_25:.*]] = stablehlo.multiply %[[CONVERT_0]], %[[ADD_20]] : tensor<f32>
 // CHECK:           %[[SUBTRACT_1:.*]] = stablehlo.subtract %[[CONSTANT_21]], %[[MULTIPLY_25]] : tensor<f32>
 // CHECK:           %[[ABS_1:.*]] = stablehlo.abs %[[CONVERT_0]] : tensor<f32>
-// CHECK:           %[[COMPARE_3:.*]] = stablehlo.compare  LT, %[[ABS_1]], %[[CONSTANT_21]] : (tensor<f32>, tensor<f32>) -> tensor<i1>
+// CHECK:           %[[COMPARE_3:.*]] = stablehlo.compare LT, %[[ABS_1]], %[[CONSTANT_21]] : (tensor<f32>, tensor<f32>) -> tensor<i1>
 // CHECK:           %[[SELECT_3:.*]] = stablehlo.select %[[COMPARE_3]], %[[SUBTRACT_1]], %[[SELECT_2]] : tensor<i1>, tensor<f32>
 // CHECK:           %[[CONVERT_1:.*]] = stablehlo.convert %[[SELECT_3]] : (tensor<f32>) -> tensor<f16>
 // CHECK:           return %[[CONVERT_1]] : tensor<f16>
@@ -1626,7 +1626,7 @@
 // CHECK:           %[[DIVIDE_1:.*]] = stablehlo.divide %[[CONSTANT_0]], %[[ABS_0]] : tensor<f32>
 // CHECK:           %[[MULTIPLY_1:.*]] = stablehlo.multiply %[[EXPONENTIAL_0]], %[[DIVIDE_1]] : tensor<f32>
 // CHECK:           %[[CONSTANT_1:.*]] = stablehlo.constant dense<2.000000e+00> : tensor<f32>
-// CHECK:           %[[COMPARE_0:.*]] = stablehlo.compare  LT, %[[ABS_0]], %[[CONSTANT_1]] : (tensor<f32>, tensor<f32>) -> tensor<i1>
+// CHECK:           %[[COMPARE_0:.*]] = stablehlo.compare LT, %[[ABS_0]], %[[CONSTANT_1]] : (tensor<f32>, tensor<f32>) -> tensor<i1>
 // CHECK:           %[[CONSTANT_2:.*]] = stablehlo.constant dense<2.326820e-02> : tensor<f32>
 // CHECK:           %[[MULTIPLY_2:.*]] = stablehlo.multiply %[[CONSTANT_2]], %[[DIVIDE_0]] : tensor<f32>
 // CHECK:           %[[CONSTANT_3:.*]] = stablehlo.constant dense<-0.138703942> : tensor<f32>
@@ -1677,10 +1677,10 @@
 // CHECK:           %[[SELECT_0:.*]] = stablehlo.select %[[COMPARE_0]], %[[ADD_7]], %[[ADD_14]] : tensor<i1>, tensor<f32>
 // CHECK:           %[[MULTIPLY_17:.*]] = stablehlo.multiply %[[MULTIPLY_1]], %[[SELECT_0]] : tensor<f32>
 // CHECK:           %[[CONSTANT_19:.*]] = stablehlo.constant dense<-88.7228394> : tensor<f32>
-// CHECK:           %[[COMPARE_1:.*]] = stablehlo.compare  LT, %[[NEGATE_0]], %[[CONSTANT_19]] : (tensor<f32>, tensor<f32>) -> tensor<i1>
+// CHECK:           %[[COMPARE_1:.*]] = stablehlo.compare LT, %[[NEGATE_0]], %[[CONSTANT_19]] : (tensor<f32>, tensor<f32>) -> tensor<i1>
 // CHECK:           %[[CONSTANT_20:.*]] = stablehlo.constant dense<0.000000e+00> : tensor<f32>
 // CHECK:           %[[SELECT_1:.*]] = stablehlo.select %[[COMPARE_1]], %[[CONSTANT_20]], %[[MULTIPLY_17]] : tensor<i1>, tensor<f32>
-// CHECK:           %[[COMPARE_2:.*]] = stablehlo.compare  LT, %[[CONVERT_0]], %[[CONSTANT_20]] : (tensor<f32>, tensor<f32>) -> tensor<i1>
+// CHECK:           %[[COMPARE_2:.*]] = stablehlo.compare LT, %[[CONVERT_0]], %[[CONSTANT_20]] : (tensor<f32>, tensor<f32>) -> tensor<i1>
 // CHECK:           %[[SUBTRACT_0:.*]] = stablehlo.subtract %[[CONSTANT_1]], %[[SELECT_1]] : tensor<f32>
 // CHECK:           %[[SELECT_2:.*]] = stablehlo.select %[[COMPARE_2]], %[[SUBTRACT_0]], %[[SELECT_1]] : tensor<i1>, tensor<f32>
 // CHECK:           %[[CONSTANT_21:.*]] = stablehlo.constant dense<1.000000e+00> : tensor<f32>
@@ -1707,7 +1707,7 @@
 // CHECK:           %[[MULTIPLY_25:.*]] = stablehlo.multiply %[[CONVERT_0]], %[[ADD_20]] : tensor<f32>
 // CHECK:           %[[SUBTRACT_1:.*]] = stablehlo.subtract %[[CONSTANT_21]], %[[MULTIPLY_25]] : tensor<f32>
 // CHECK:           %[[ABS_1:.*]] = stablehlo.abs %[[CONVERT_0]] : tensor<f32>
-// CHECK:           %[[COMPARE_3:.*]] = stablehlo.compare  LT, %[[ABS_1]], %[[CONSTANT_21]] : (tensor<f32>, tensor<f32>) -> tensor<i1>
+// CHECK:           %[[COMPARE_3:.*]] = stablehlo.compare LT, %[[ABS_1]], %[[CONSTANT_21]] : (tensor<f32>, tensor<f32>) -> tensor<i1>
 // CHECK:           %[[SELECT_3:.*]] = stablehlo.select %[[COMPARE_3]], %[[SUBTRACT_1]], %[[SELECT_2]] : tensor<i1>, tensor<f32>
 // CHECK:           %[[CONVERT_1:.*]] = stablehlo.convert %[[SELECT_3]] : (tensor<f32>) -> tensor<bf16>
 // CHECK:           return %[[CONVERT_1]] : tensor<bf16>
@@ -1723,7 +1723,7 @@
 // CHECK-SAME:      %[[ARG0:.*]]: tensor<f32>) -> tensor<i1> {
 // CHECK:           %[[ABS_0:.*]] = stablehlo.abs %[[ARG0]] : tensor<f32>
 // CHECK:           %[[CONSTANT_0:.*]] = stablehlo.constant dense<0x7F800000> : tensor<f32>
-// CHECK:           %[[COMPARE_0:.*]] = stablehlo.compare  EQ, %[[ABS_0]], %[[CONSTANT_0]] : (tensor<f32>, tensor<f32>) -> tensor<i1>
+// CHECK:           %[[COMPARE_0:.*]] = stablehlo.compare EQ, %[[ABS_0]], %[[CONSTANT_0]] : (tensor<f32>, tensor<f32>) -> tensor<i1>
 // CHECK:           return %[[COMPARE_0]] : tensor<i1>
 // CHECK:         }
 func.func @is_inf_f32(%arg : tensor<f32>) -> tensor<i1> {
@@ -1736,7 +1736,7 @@
 // CHECK-LABEL:   func.func @is_pos_inf_f32(
 // CHECK-SAME:      %[[ARG0:.*]]: tensor<f32>) -> tensor<i1> {
 // CHECK:           %[[CONSTANT_0:.*]] = stablehlo.constant dense<0x7F800000> : tensor<f32>
-// CHECK:           %[[COMPARE_0:.*]] = stablehlo.compare  EQ, %[[ARG0]], %[[CONSTANT_0]] : (tensor<f32>, tensor<f32>) -> tensor<i1>
+// CHECK:           %[[COMPARE_0:.*]] = stablehlo.compare EQ, %[[ARG0]], %[[CONSTANT_0]] : (tensor<f32>, tensor<f32>) -> tensor<i1>
 // CHECK:           return %[[COMPARE_0]] : tensor<i1>
 // CHECK:         }
 func.func @is_pos_inf_f32(%arg : tensor<f32>) -> tensor<i1> {
@@ -1749,7 +1749,7 @@
 // CHECK-LABEL:   func.func @is_neg_inf_f32(
 // CHECK-SAME:      %[[ARG0:.*]]: tensor<f32>) -> tensor<i1> {
 // CHECK:           %[[CONSTANT_0:.*]] = stablehlo.constant dense<0xFF800000> : tensor<f32>
-// CHECK:           %[[COMPARE_0:.*]] = stablehlo.compare  EQ, %[[ARG0]], %[[CONSTANT_0]] : (tensor<f32>, tensor<f32>) -> tensor<i1>
+// CHECK:           %[[COMPARE_0:.*]] = stablehlo.compare EQ, %[[ARG0]], %[[CONSTANT_0]] : (tensor<f32>, tensor<f32>) -> tensor<i1>
 // CHECK:           return %[[COMPARE_0]] : tensor<i1>
 // CHECK:         }
 func.func @is_neg_inf_f32(%arg : tensor<f32>) -> tensor<i1> {
@@ -1762,49 +1762,49 @@
 // CHECK-LABEL:   func.func @lgamma_f64(
 // CHECK-SAME:      %[[ARG0:.*]]: tensor<f64>) -> tensor<f64> {
 // CHECK:           %[[CONSTANT_0:.*]] = stablehlo.constant dense<5.000000e-01> : tensor<f64>
-// CHECK:           %[[COMPARE_0:.*]] = stablehlo.compare  LT, %[[ARG0]], %[[CONSTANT_0]] : (tensor<f64>, tensor<f64>) -> tensor<i1>
+// CHECK:           %[[COMPARE_0:.*]] = stablehlo.compare LT, %[[ARG0]], %[[CONSTANT_0]] : (tensor<f64>, tensor<f64>) -> tensor<i1>
 // CHECK:           %[[NEGATE_0:.*]] = stablehlo.negate %[[ARG0]] : tensor<f64>
 // CHECK:           %[[CONSTANT_1:.*]] = stablehlo.constant dense<1.000000e+00> : tensor<f64>
 // CHECK:           %[[SUBTRACT_0:.*]] = stablehlo.subtract %[[ARG0]], %[[CONSTANT_1]] : tensor<f64>
 // CHECK:           %[[SELECT_0:.*]] = stablehlo.select %[[COMPARE_0]], %[[NEGATE_0]], %[[SUBTRACT_0]] : tensor<i1>, tensor<f64>
-// CHECK:           %[[CONSTANT_2:.*]] = stablehlo.constant dense<0.99999999999980993> : tensor<f64>
-// CHECK:           %[[CONSTANT_3:.*]] = stablehlo.constant dense<676.5203681218851> : tensor<f64>
-// CHECK:           %[[CONSTANT_4:.*]] = stablehlo.constant dense<1.000000e+00> : tensor<f64>
+// CHECK-DAG:       %[[CONSTANT_2:.*]] = stablehlo.constant dense<0.99999999999980993> : tensor<f64>
+// CHECK-DAG:       %[[CONSTANT_3:.*]] = stablehlo.constant dense<676.5203681218851> : tensor<f64>
+// CHECK-DAG:       %[[CONSTANT_4:.*]] = stablehlo.constant dense<1.000000e+00> : tensor<f64>
 // CHECK:           %[[ADD_0:.*]] = stablehlo.add %[[SELECT_0]], %[[CONSTANT_4]] : tensor<f64>
 // CHECK:           %[[DIVIDE_0:.*]] = stablehlo.divide %[[CONSTANT_3]], %[[ADD_0]] : tensor<f64>
 // CHECK:           %[[ADD_1:.*]] = stablehlo.add %[[CONSTANT_2]], %[[DIVIDE_0]] : tensor<f64>
-// CHECK:           %[[CONSTANT_5:.*]] = stablehlo.constant dense<-1259.1392167224028> : tensor<f64>
-// CHECK:           %[[CONSTANT_6:.*]] = stablehlo.constant dense<2.000000e+00> : tensor<f64>
+// CHECK-DAG:       %[[CONSTANT_5:.*]] = stablehlo.constant dense<-1259.1392167224028> : tensor<f64>
+// CHECK-DAG:       %[[CONSTANT_6:.*]] = stablehlo.constant dense<2.000000e+00> : tensor<f64>
 // CHECK:           %[[ADD_2:.*]] = stablehlo.add %[[SELECT_0]], %[[CONSTANT_6]] : tensor<f64>
 // CHECK:           %[[DIVIDE_1:.*]] = stablehlo.divide %[[CONSTANT_5]], %[[ADD_2]] : tensor<f64>
 // CHECK:           %[[ADD_3:.*]] = stablehlo.add %[[ADD_1]], %[[DIVIDE_1]] : tensor<f64>
-// CHECK:           %[[CONSTANT_7:.*]] = stablehlo.constant dense<771.32342877765313> : tensor<f64>
-// CHECK:           %[[CONSTANT_8:.*]] = stablehlo.constant dense<3.000000e+00> : tensor<f64>
+// CHECK-DAG:       %[[CONSTANT_7:.*]] = stablehlo.constant dense<771.32342877765313> : tensor<f64>
+// CHECK-DAG:       %[[CONSTANT_8:.*]] = stablehlo.constant dense<3.000000e+00> : tensor<f64>
 // CHECK:           %[[ADD_4:.*]] = stablehlo.add %[[SELECT_0]], %[[CONSTANT_8]] : tensor<f64>
 // CHECK:           %[[DIVIDE_2:.*]] = stablehlo.divide %[[CONSTANT_7]], %[[ADD_4]] : tensor<f64>
 // CHECK:           %[[ADD_5:.*]] = stablehlo.add %[[ADD_3]], %[[DIVIDE_2]] : tensor<f64>
-// CHECK:           %[[CONSTANT_9:.*]] = stablehlo.constant dense<-176.61502916214059> : tensor<f64>
-// CHECK:           %[[CONSTANT_10:.*]] = stablehlo.constant dense<4.000000e+00> : tensor<f64>
+// CHECK-DAG:       %[[CONSTANT_9:.*]] = stablehlo.constant dense<-176.61502916214059> : tensor<f64>
+// CHECK-DAG:       %[[CONSTANT_10:.*]] = stablehlo.constant dense<4.000000e+00> : tensor<f64>
 // CHECK:           %[[ADD_6:.*]] = stablehlo.add %[[SELECT_0]], %[[CONSTANT_10]] : tensor<f64>
 // CHECK:           %[[DIVIDE_3:.*]] = stablehlo.divide %[[CONSTANT_9]], %[[ADD_6]] : tensor<f64>
 // CHECK:           %[[ADD_7:.*]] = stablehlo.add %[[ADD_5]], %[[DIVIDE_3]] : tensor<f64>
-// CHECK:           %[[CONSTANT_11:.*]] = stablehlo.constant dense<12.507343278686905> : tensor<f64>
-// CHECK:           %[[CONSTANT_12:.*]] = stablehlo.constant dense<5.000000e+00> : tensor<f64>
+// CHECK-DAG:       %[[CONSTANT_11:.*]] = stablehlo.constant dense<12.507343278686905> : tensor<f64>
+// CHECK-DAG:       %[[CONSTANT_12:.*]] = stablehlo.constant dense<5.000000e+00> : tensor<f64>
 // CHECK:           %[[ADD_8:.*]] = stablehlo.add %[[SELECT_0]], %[[CONSTANT_12]] : tensor<f64>
 // CHECK:           %[[DIVIDE_4:.*]] = stablehlo.divide %[[CONSTANT_11]], %[[ADD_8]] : tensor<f64>
 // CHECK:           %[[ADD_9:.*]] = stablehlo.add %[[ADD_7]], %[[DIVIDE_4]] : tensor<f64>
-// CHECK:           %[[CONSTANT_13:.*]] = stablehlo.constant dense<-0.13857109526572012> : tensor<f64>
-// CHECK:           %[[CONSTANT_14:.*]] = stablehlo.constant dense<6.000000e+00> : tensor<f64>
+// CHECK-DAG:       %[[CONSTANT_13:.*]] = stablehlo.constant dense<-0.13857109526572012> : tensor<f64>
+// CHECK-DAG:       %[[CONSTANT_14:.*]] = stablehlo.constant dense<6.000000e+00> : tensor<f64>
 // CHECK:           %[[ADD_10:.*]] = stablehlo.add %[[SELECT_0]], %[[CONSTANT_14]] : tensor<f64>
 // CHECK:           %[[DIVIDE_5:.*]] = stablehlo.divide %[[CONSTANT_13]], %[[ADD_10]] : tensor<f64>
 // CHECK:           %[[ADD_11:.*]] = stablehlo.add %[[ADD_9]], %[[DIVIDE_5]] : tensor<f64>
-// CHECK:           %[[CONSTANT_15:.*]] = stablehlo.constant dense<9.9843695780195716E-6> : tensor<f64>
-// CHECK:           %[[CONSTANT_16:.*]] = stablehlo.constant dense<7.000000e+00> : tensor<f64>
+// CHECK-DAG:       %[[CONSTANT_15:.*]] = stablehlo.constant dense<9.9843695780195716E-6> : tensor<f64>
+// CHECK-DAG:       %[[CONSTANT_16:.*]] = stablehlo.constant dense<7.000000e+00> : tensor<f64>
 // CHECK:           %[[ADD_12:.*]] = stablehlo.add %[[SELECT_0]], %[[CONSTANT_16]] : tensor<f64>
 // CHECK:           %[[DIVIDE_6:.*]] = stablehlo.divide %[[CONSTANT_15]], %[[ADD_12]] : tensor<f64>
 // CHECK:           %[[ADD_13:.*]] = stablehlo.add %[[ADD_11]], %[[DIVIDE_6]] : tensor<f64>
-// CHECK:           %[[CONSTANT_17:.*]] = stablehlo.constant dense<1.5056327351493116E-7> : tensor<f64>
-// CHECK:           %[[CONSTANT_18:.*]] = stablehlo.constant dense<8.000000e+00> : tensor<f64>
+// CHECK-DAG:       %[[CONSTANT_17:.*]] = stablehlo.constant dense<1.5056327351493116E-7> : tensor<f64>
+// CHECK-DAG:       %[[CONSTANT_18:.*]] = stablehlo.constant dense<8.000000e+00> : tensor<f64>
 // CHECK:           %[[ADD_14:.*]] = stablehlo.add %[[SELECT_0]], %[[CONSTANT_18]] : tensor<f64>
 // CHECK:           %[[DIVIDE_7:.*]] = stablehlo.divide %[[CONSTANT_17]], %[[ADD_14]] : tensor<f64>
 // CHECK:           %[[ADD_15:.*]] = stablehlo.add %[[ADD_13]], %[[DIVIDE_7]] : tensor<f64>
@@ -1825,7 +1825,7 @@
 // CHECK:           %[[ABS_0:.*]] = stablehlo.abs %[[ARG0]] : tensor<f64>
 // CHECK:           %[[FLOOR_0:.*]] = stablehlo.floor %[[ABS_0]] : tensor<f64>
 // CHECK:           %[[SUBTRACT_2:.*]] = stablehlo.subtract %[[ABS_0]], %[[FLOOR_0]] : tensor<f64>
-// CHECK:           %[[COMPARE_1:.*]] = stablehlo.compare  LT, %[[CONSTANT_0]], %[[SUBTRACT_2]] : (tensor<f64>, tensor<f64>) -> tensor<i1>
+// CHECK:           %[[COMPARE_1:.*]] = stablehlo.compare LT, %[[CONSTANT_0]], %[[SUBTRACT_2]] : (tensor<f64>, tensor<f64>) -> tensor<i1>
 // CHECK:           %[[SUBTRACT_3:.*]] = stablehlo.subtract %[[CONSTANT_1]], %[[SUBTRACT_2]] : tensor<f64>
 // CHECK:           %[[SELECT_1:.*]] = stablehlo.select %[[COMPARE_1]], %[[SUBTRACT_3]], %[[SUBTRACT_2]] : tensor<i1>, tensor<f64>
 // CHECK:           %[[CONSTANT_22:.*]] = stablehlo.constant dense<3.1415926535897931> : tensor<f64>
@@ -1841,7 +1841,7 @@
 // CHECK:           %[[SELECT_3:.*]] = stablehlo.select %[[COMPARE_0]], %[[SELECT_2]], %[[ADD_20]] : tensor<i1>, tensor<f64>
 // CHECK:           %[[ABS_1:.*]] = stablehlo.abs %[[ARG0]] : tensor<f64>
 // CHECK:           %[[CONSTANT_24:.*]] = stablehlo.constant dense<0x7FF0000000000000> : tensor<f64>
-// CHECK:           %[[COMPARE_2:.*]] = stablehlo.compare  EQ, %[[ABS_1]], %[[CONSTANT_24]] : (tensor<f64>, tensor<f64>) -> tensor<i1>
+// CHECK:           %[[COMPARE_2:.*]] = stablehlo.compare EQ, %[[ABS_1]], %[[CONSTANT_24]] : (tensor<f64>, tensor<f64>) -> tensor<i1>
 // CHECK:           %[[CONSTANT_25:.*]] = stablehlo.constant dense<0x7FF0000000000000> : tensor<f64>
 // CHECK:           %[[SELECT_4:.*]] = stablehlo.select %[[COMPARE_2]], %[[CONSTANT_25]], %[[SELECT_3]] : tensor<i1>, tensor<f64>
 // CHECK:           return %[[SELECT_4]] : tensor<f64>
@@ -1856,49 +1856,49 @@
 // CHECK-LABEL:   func.func @lgamma_f32(
 // CHECK-SAME:      %[[ARG0:.*]]: tensor<f32>) -> tensor<f32> {
 // CHECK:           %[[CONSTANT_0:.*]] = stablehlo.constant dense<5.000000e-01> : tensor<f32>
-// CHECK:           %[[COMPARE_0:.*]] = stablehlo.compare  LT, %[[ARG0]], %[[CONSTANT_0]] : (tensor<f32>, tensor<f32>) -> tensor<i1>
+// CHECK:           %[[COMPARE_0:.*]] = stablehlo.compare LT, %[[ARG0]], %[[CONSTANT_0]] : (tensor<f32>, tensor<f32>) -> tensor<i1>
 // CHECK:           %[[NEGATE_0:.*]] = stablehlo.negate %[[ARG0]] : tensor<f32>
 // CHECK:           %[[CONSTANT_1:.*]] = stablehlo.constant dense<1.000000e+00> : tensor<f32>
 // CHECK:           %[[SUBTRACT_0:.*]] = stablehlo.subtract %[[ARG0]], %[[CONSTANT_1]] : tensor<f32>
 // CHECK:           %[[SELECT_0:.*]] = stablehlo.select %[[COMPARE_0]], %[[NEGATE_0]], %[[SUBTRACT_0]] : tensor<i1>, tensor<f32>
-// CHECK:           %[[CONSTANT_2:.*]] = stablehlo.constant dense<1.000000e+00> : tensor<f32>
-// CHECK:           %[[CONSTANT_3:.*]] = stablehlo.constant dense<676.520386> : tensor<f32>
-// CHECK:           %[[CONSTANT_4:.*]] = stablehlo.constant dense<1.000000e+00> : tensor<f32>
+// CHECK-DAG:       %[[CONSTANT_2:.*]] = stablehlo.constant dense<1.000000e+00> : tensor<f32>
+// CHECK-DAG:       %[[CONSTANT_3:.*]] = stablehlo.constant dense<676.520386> : tensor<f32>
+// CHECK-DAG:       %[[CONSTANT_4:.*]] = stablehlo.constant dense<1.000000e+00> : tensor<f32>
 // CHECK:           %[[ADD_0:.*]] = stablehlo.add %[[SELECT_0]], %[[CONSTANT_4]] : tensor<f32>
 // CHECK:           %[[DIVIDE_0:.*]] = stablehlo.divide %[[CONSTANT_3]], %[[ADD_0]] : tensor<f32>
 // CHECK:           %[[ADD_1:.*]] = stablehlo.add %[[CONSTANT_2]], %[[DIVIDE_0]] : tensor<f32>
-// CHECK:           %[[CONSTANT_5:.*]] = stablehlo.constant dense<-1259.13916> : tensor<f32>
-// CHECK:           %[[CONSTANT_6:.*]] = stablehlo.constant dense<2.000000e+00> : tensor<f32>
+// CHECK-DAG:       %[[CONSTANT_5:.*]] = stablehlo.constant dense<-1259.13916> : tensor<f32>
+// CHECK-DAG:       %[[CONSTANT_6:.*]] = stablehlo.constant dense<2.000000e+00> : tensor<f32>
 // CHECK:           %[[ADD_2:.*]] = stablehlo.add %[[SELECT_0]], %[[CONSTANT_6]] : tensor<f32>
 // CHECK:           %[[DIVIDE_1:.*]] = stablehlo.divide %[[CONSTANT_5]], %[[ADD_2]] : tensor<f32>
 // CHECK:           %[[ADD_3:.*]] = stablehlo.add %[[ADD_1]], %[[DIVIDE_1]] : tensor<f32>
-// CHECK:           %[[CONSTANT_7:.*]] = stablehlo.constant dense<771.323425> : tensor<f32>
-// CHECK:           %[[CONSTANT_8:.*]] = stablehlo.constant dense<3.000000e+00> : tensor<f32>
+// CHECK-DAG:       %[[CONSTANT_7:.*]] = stablehlo.constant dense<771.323425> : tensor<f32>
+// CHECK-DAG:       %[[CONSTANT_8:.*]] = stablehlo.constant dense<3.000000e+00> : tensor<f32>
 // CHECK:           %[[ADD_4:.*]] = stablehlo.add %[[SELECT_0]], %[[CONSTANT_8]] : tensor<f32>
 // CHECK:           %[[DIVIDE_2:.*]] = stablehlo.divide %[[CONSTANT_7]], %[[ADD_4]] : tensor<f32>
 // CHECK:           %[[ADD_5:.*]] = stablehlo.add %[[ADD_3]], %[[DIVIDE_2]] : tensor<f32>
-// CHECK:           %[[CONSTANT_9:.*]] = stablehlo.constant dense<-176.615036> : tensor<f32>
-// CHECK:           %[[CONSTANT_10:.*]] = stablehlo.constant dense<4.000000e+00> : tensor<f32>
+// CHECK-DAG:       %[[CONSTANT_9:.*]] = stablehlo.constant dense<-176.615036> : tensor<f32>
+// CHECK-DAG:       %[[CONSTANT_10:.*]] = stablehlo.constant dense<4.000000e+00> : tensor<f32>
 // CHECK:           %[[ADD_6:.*]] = stablehlo.add %[[SELECT_0]], %[[CONSTANT_10]] : tensor<f32>
 // CHECK:           %[[DIVIDE_3:.*]] = stablehlo.divide %[[CONSTANT_9]], %[[ADD_6]] : tensor<f32>
 // CHECK:           %[[ADD_7:.*]] = stablehlo.add %[[ADD_5]], %[[DIVIDE_3]] : tensor<f32>
-// CHECK:           %[[CONSTANT_11:.*]] = stablehlo.constant dense<12.5073433> : tensor<f32>
-// CHECK:           %[[CONSTANT_12:.*]] = stablehlo.constant dense<5.000000e+00> : tensor<f32>
+// CHECK-DAG:       %[[CONSTANT_11:.*]] = stablehlo.constant dense<12.5073433> : tensor<f32>
+// CHECK-DAG:       %[[CONSTANT_12:.*]] = stablehlo.constant dense<5.000000e+00> : tensor<f32>
 // CHECK:           %[[ADD_8:.*]] = stablehlo.add %[[SELECT_0]], %[[CONSTANT_12]] : tensor<f32>
 // CHECK:           %[[DIVIDE_4:.*]] = stablehlo.divide %[[CONSTANT_11]], %[[ADD_8]] : tensor<f32>
 // CHECK:           %[[ADD_9:.*]] = stablehlo.add %[[ADD_7]], %[[DIVIDE_4]] : tensor<f32>
-// CHECK:           %[[CONSTANT_13:.*]] = stablehlo.constant dense<-0.138571098> : tensor<f32>
-// CHECK:           %[[CONSTANT_14:.*]] = stablehlo.constant dense<6.000000e+00> : tensor<f32>
+// CHECK-DAG:       %[[CONSTANT_13:.*]] = stablehlo.constant dense<-0.138571098> : tensor<f32>
+// CHECK-DAG:       %[[CONSTANT_14:.*]] = stablehlo.constant dense<6.000000e+00> : tensor<f32>
 // CHECK:           %[[ADD_10:.*]] = stablehlo.add %[[SELECT_0]], %[[CONSTANT_14]] : tensor<f32>
 // CHECK:           %[[DIVIDE_5:.*]] = stablehlo.divide %[[CONSTANT_13]], %[[ADD_10]] : tensor<f32>
 // CHECK:           %[[ADD_11:.*]] = stablehlo.add %[[ADD_9]], %[[DIVIDE_5]] : tensor<f32>
-// CHECK:           %[[CONSTANT_15:.*]] = stablehlo.constant dense<9.98436917E-6> : tensor<f32>
-// CHECK:           %[[CONSTANT_16:.*]] = stablehlo.constant dense<7.000000e+00> : tensor<f32>
+// CHECK-DAG:       %[[CONSTANT_15:.*]] = stablehlo.constant dense<9.98436917E-6> : tensor<f32>
+// CHECK-DAG:       %[[CONSTANT_16:.*]] = stablehlo.constant dense<7.000000e+00> : tensor<f32>
 // CHECK:           %[[ADD_12:.*]] = stablehlo.add %[[SELECT_0]], %[[CONSTANT_16]] : tensor<f32>
 // CHECK:           %[[DIVIDE_6:.*]] = stablehlo.divide %[[CONSTANT_15]], %[[ADD_12]] : tensor<f32>
 // CHECK:           %[[ADD_13:.*]] = stablehlo.add %[[ADD_11]], %[[DIVIDE_6]] : tensor<f32>
-// CHECK:           %[[CONSTANT_17:.*]] = stablehlo.constant dense<1.50563267E-7> : tensor<f32>
-// CHECK:           %[[CONSTANT_18:.*]] = stablehlo.constant dense<8.000000e+00> : tensor<f32>
+// CHECK-DAG:       %[[CONSTANT_17:.*]] = stablehlo.constant dense<1.50563267E-7> : tensor<f32>
+// CHECK-DAG:       %[[CONSTANT_18:.*]] = stablehlo.constant dense<8.000000e+00> : tensor<f32>
 // CHECK:           %[[ADD_14:.*]] = stablehlo.add %[[SELECT_0]], %[[CONSTANT_18]] : tensor<f32>
 // CHECK:           %[[DIVIDE_7:.*]] = stablehlo.divide %[[CONSTANT_17]], %[[ADD_14]] : tensor<f32>
 // CHECK:           %[[ADD_15:.*]] = stablehlo.add %[[ADD_13]], %[[DIVIDE_7]] : tensor<f32>
@@ -1919,7 +1919,7 @@
 // CHECK:           %[[ABS_0:.*]] = stablehlo.abs %[[ARG0]] : tensor<f32>
 // CHECK:           %[[FLOOR_0:.*]] = stablehlo.floor %[[ABS_0]] : tensor<f32>
 // CHECK:           %[[SUBTRACT_2:.*]] = stablehlo.subtract %[[ABS_0]], %[[FLOOR_0]] : tensor<f32>
-// CHECK:           %[[COMPARE_1:.*]] = stablehlo.compare  LT, %[[CONSTANT_0]], %[[SUBTRACT_2]] : (tensor<f32>, tensor<f32>) -> tensor<i1>
+// CHECK:           %[[COMPARE_1:.*]] = stablehlo.compare LT, %[[CONSTANT_0]], %[[SUBTRACT_2]] : (tensor<f32>, tensor<f32>) -> tensor<i1>
 // CHECK:           %[[SUBTRACT_3:.*]] = stablehlo.subtract %[[CONSTANT_1]], %[[SUBTRACT_2]] : tensor<f32>
 // CHECK:           %[[SELECT_1:.*]] = stablehlo.select %[[COMPARE_1]], %[[SUBTRACT_3]], %[[SUBTRACT_2]] : tensor<i1>, tensor<f32>
 // CHECK:           %[[CONSTANT_22:.*]] = stablehlo.constant dense<3.14159274> : tensor<f32>
@@ -1935,7 +1935,7 @@
 // CHECK:           %[[SELECT_3:.*]] = stablehlo.select %[[COMPARE_0]], %[[SELECT_2]], %[[ADD_20]] : tensor<i1>, tensor<f32>
 // CHECK:           %[[ABS_1:.*]] = stablehlo.abs %[[ARG0]] : tensor<f32>
 // CHECK:           %[[CONSTANT_24:.*]] = stablehlo.constant dense<0x7F800000> : tensor<f32>
-// CHECK:           %[[COMPARE_2:.*]] = stablehlo.compare  EQ, %[[ABS_1]], %[[CONSTANT_24]] : (tensor<f32>, tensor<f32>) -> tensor<i1>
+// CHECK:           %[[COMPARE_2:.*]] = stablehlo.compare EQ, %[[ABS_1]], %[[CONSTANT_24]] : (tensor<f32>, tensor<f32>) -> tensor<i1>
 // CHECK:           %[[CONSTANT_25:.*]] = stablehlo.constant dense<0x7F800000> : tensor<f32>
 // CHECK:           %[[SELECT_4:.*]] = stablehlo.select %[[COMPARE_2]], %[[CONSTANT_25]], %[[SELECT_3]] : tensor<i1>, tensor<f32>
 // CHECK:           return %[[SELECT_4]] : tensor<f32>
@@ -1951,49 +1951,49 @@
 // CHECK-SAME:      %[[ARG0:.*]]: tensor<f16>) -> tensor<f16> {
 // CHECK:           %[[CONVERT_0:.*]] = stablehlo.convert %[[ARG0]] : (tensor<f16>) -> tensor<f32>
 // CHECK:           %[[CONSTANT_0:.*]] = stablehlo.constant dense<5.000000e-01> : tensor<f32>
-// CHECK:           %[[COMPARE_0:.*]] = stablehlo.compare  LT, %[[CONVERT_0]], %[[CONSTANT_0]] : (tensor<f32>, tensor<f32>) -> tensor<i1>
+// CHECK:           %[[COMPARE_0:.*]] = stablehlo.compare LT, %[[CONVERT_0]], %[[CONSTANT_0]] : (tensor<f32>, tensor<f32>) -> tensor<i1>
 // CHECK:           %[[NEGATE_0:.*]] = stablehlo.negate %[[CONVERT_0]] : tensor<f32>
 // CHECK:           %[[CONSTANT_1:.*]] = stablehlo.constant dense<1.000000e+00> : tensor<f32>
 // CHECK:           %[[SUBTRACT_0:.*]] = stablehlo.subtract %[[CONVERT_0]], %[[CONSTANT_1]] : tensor<f32>
 // CHECK:           %[[SELECT_0:.*]] = stablehlo.select %[[COMPARE_0]], %[[NEGATE_0]], %[[SUBTRACT_0]] : tensor<i1>, tensor<f32>
-// CHECK:           %[[CONSTANT_2:.*]] = stablehlo.constant dense<1.000000e+00> : tensor<f32>
-// CHECK:           %[[CONSTANT_3:.*]] = stablehlo.constant dense<676.520386> : tensor<f32>
-// CHECK:           %[[CONSTANT_4:.*]] = stablehlo.constant dense<1.000000e+00> : tensor<f32>
+// CHECK-DAG:       %[[CONSTANT_2:.*]] = stablehlo.constant dense<1.000000e+00> : tensor<f32>
+// CHECK-DAG:       %[[CONSTANT_3:.*]] = stablehlo.constant dense<676.520386> : tensor<f32>
+// CHECK-DAG:       %[[CONSTANT_4:.*]] = stablehlo.constant dense<1.000000e+00> : tensor<f32>
 // CHECK:           %[[ADD_0:.*]] = stablehlo.add %[[SELECT_0]], %[[CONSTANT_4]] : tensor<f32>
 // CHECK:           %[[DIVIDE_0:.*]] = stablehlo.divide %[[CONSTANT_3]], %[[ADD_0]] : tensor<f32>
 // CHECK:           %[[ADD_1:.*]] = stablehlo.add %[[CONSTANT_2]], %[[DIVIDE_0]] : tensor<f32>
-// CHECK:           %[[CONSTANT_5:.*]] = stablehlo.constant dense<-1259.13916> : tensor<f32>
-// CHECK:           %[[CONSTANT_6:.*]] = stablehlo.constant dense<2.000000e+00> : tensor<f32>
+// CHECK-DAG:       %[[CONSTANT_5:.*]] = stablehlo.constant dense<-1259.13916> : tensor<f32>
+// CHECK-DAG:       %[[CONSTANT_6:.*]] = stablehlo.constant dense<2.000000e+00> : tensor<f32>
 // CHECK:           %[[ADD_2:.*]] = stablehlo.add %[[SELECT_0]], %[[CONSTANT_6]] : tensor<f32>
 // CHECK:           %[[DIVIDE_1:.*]] = stablehlo.divide %[[CONSTANT_5]], %[[ADD_2]] : tensor<f32>
 // CHECK:           %[[ADD_3:.*]] = stablehlo.add %[[ADD_1]], %[[DIVIDE_1]] : tensor<f32>
-// CHECK:           %[[CONSTANT_7:.*]] = stablehlo.constant dense<771.323425> : tensor<f32>
-// CHECK:           %[[CONSTANT_8:.*]] = stablehlo.constant dense<3.000000e+00> : tensor<f32>
+// CHECK-DAG:       %[[CONSTANT_7:.*]] = stablehlo.constant dense<771.323425> : tensor<f32>
+// CHECK-DAG:       %[[CONSTANT_8:.*]] = stablehlo.constant dense<3.000000e+00> : tensor<f32>
 // CHECK:           %[[ADD_4:.*]] = stablehlo.add %[[SELECT_0]], %[[CONSTANT_8]] : tensor<f32>
 // CHECK:           %[[DIVIDE_2:.*]] = stablehlo.divide %[[CONSTANT_7]], %[[ADD_4]] : tensor<f32>
 // CHECK:           %[[ADD_5:.*]] = stablehlo.add %[[ADD_3]], %[[DIVIDE_2]] : tensor<f32>
-// CHECK:           %[[CONSTANT_9:.*]] = stablehlo.constant dense<-176.615036> : tensor<f32>
-// CHECK:           %[[CONSTANT_10:.*]] = stablehlo.constant dense<4.000000e+00> : tensor<f32>
+// CHECK-DAG:       %[[CONSTANT_9:.*]] = stablehlo.constant dense<-176.615036> : tensor<f32>
+// CHECK-DAG:       %[[CONSTANT_10:.*]] = stablehlo.constant dense<4.000000e+00> : tensor<f32>
 // CHECK:           %[[ADD_6:.*]] = stablehlo.add %[[SELECT_0]], %[[CONSTANT_10]] : tensor<f32>
 // CHECK:           %[[DIVIDE_3:.*]] = stablehlo.divide %[[CONSTANT_9]], %[[ADD_6]] : tensor<f32>
 // CHECK:           %[[ADD_7:.*]] = stablehlo.add %[[ADD_5]], %[[DIVIDE_3]] : tensor<f32>
-// CHECK:           %[[CONSTANT_11:.*]] = stablehlo.constant dense<12.5073433> : tensor<f32>
-// CHECK:           %[[CONSTANT_12:.*]] = stablehlo.constant dense<5.000000e+00> : tensor<f32>
+// CHECK-DAG:       %[[CONSTANT_11:.*]] = stablehlo.constant dense<12.5073433> : tensor<f32>
+// CHECK-DAG:       %[[CONSTANT_12:.*]] = stablehlo.constant dense<5.000000e+00> : tensor<f32>
 // CHECK:           %[[ADD_8:.*]] = stablehlo.add %[[SELECT_0]], %[[CONSTANT_12]] : tensor<f32>
 // CHECK:           %[[DIVIDE_4:.*]] = stablehlo.divide %[[CONSTANT_11]], %[[ADD_8]] : tensor<f32>
 // CHECK:           %[[ADD_9:.*]] = stablehlo.add %[[ADD_7]], %[[DIVIDE_4]] : tensor<f32>
-// CHECK:           %[[CONSTANT_13:.*]] = stablehlo.constant dense<-0.138571098> : tensor<f32>
-// CHECK:           %[[CONSTANT_14:.*]] = stablehlo.constant dense<6.000000e+00> : tensor<f32>
+// CHECK-DAG:       %[[CONSTANT_13:.*]] = stablehlo.constant dense<-0.138571098> : tensor<f32>
+// CHECK-DAG:       %[[CONSTANT_14:.*]] = stablehlo.constant dense<6.000000e+00> : tensor<f32>
 // CHECK:           %[[ADD_10:.*]] = stablehlo.add %[[SELECT_0]], %[[CONSTANT_14]] : tensor<f32>
 // CHECK:           %[[DIVIDE_5:.*]] = stablehlo.divide %[[CONSTANT_13]], %[[ADD_10]] : tensor<f32>
 // CHECK:           %[[ADD_11:.*]] = stablehlo.add %[[ADD_9]], %[[DIVIDE_5]] : tensor<f32>
-// CHECK:           %[[CONSTANT_15:.*]] = stablehlo.constant dense<9.98436917E-6> : tensor<f32>
-// CHECK:           %[[CONSTANT_16:.*]] = stablehlo.constant dense<7.000000e+00> : tensor<f32>
+// CHECK-DAG:       %[[CONSTANT_15:.*]] = stablehlo.constant dense<9.98436917E-6> : tensor<f32>
+// CHECK-DAG:       %[[CONSTANT_16:.*]] = stablehlo.constant dense<7.000000e+00> : tensor<f32>
 // CHECK:           %[[ADD_12:.*]] = stablehlo.add %[[SELECT_0]], %[[CONSTANT_16]] : tensor<f32>
 // CHECK:           %[[DIVIDE_6:.*]] = stablehlo.divide %[[CONSTANT_15]], %[[ADD_12]] : tensor<f32>
 // CHECK:           %[[ADD_13:.*]] = stablehlo.add %[[ADD_11]], %[[DIVIDE_6]] : tensor<f32>
-// CHECK:           %[[CONSTANT_17:.*]] = stablehlo.constant dense<1.50563267E-7> : tensor<f32>
-// CHECK:           %[[CONSTANT_18:.*]] = stablehlo.constant dense<8.000000e+00> : tensor<f32>
+// CHECK-DAG:       %[[CONSTANT_17:.*]] = stablehlo.constant dense<1.50563267E-7> : tensor<f32>
+// CHECK-DAG:       %[[CONSTANT_18:.*]] = stablehlo.constant dense<8.000000e+00> : tensor<f32>
 // CHECK:           %[[ADD_14:.*]] = stablehlo.add %[[SELECT_0]], %[[CONSTANT_18]] : tensor<f32>
 // CHECK:           %[[DIVIDE_7:.*]] = stablehlo.divide %[[CONSTANT_17]], %[[ADD_14]] : tensor<f32>
 // CHECK:           %[[ADD_15:.*]] = stablehlo.add %[[ADD_13]], %[[DIVIDE_7]] : tensor<f32>
@@ -2014,7 +2014,7 @@
 // CHECK:           %[[ABS_0:.*]] = stablehlo.abs %[[CONVERT_0]] : tensor<f32>
 // CHECK:           %[[FLOOR_0:.*]] = stablehlo.floor %[[ABS_0]] : tensor<f32>
 // CHECK:           %[[SUBTRACT_2:.*]] = stablehlo.subtract %[[ABS_0]], %[[FLOOR_0]] : tensor<f32>
-// CHECK:           %[[COMPARE_1:.*]] = stablehlo.compare  LT, %[[CONSTANT_0]], %[[SUBTRACT_2]] : (tensor<f32>, tensor<f32>) -> tensor<i1>
+// CHECK:           %[[COMPARE_1:.*]] = stablehlo.compare LT, %[[CONSTANT_0]], %[[SUBTRACT_2]] : (tensor<f32>, tensor<f32>) -> tensor<i1>
 // CHECK:           %[[SUBTRACT_3:.*]] = stablehlo.subtract %[[CONSTANT_1]], %[[SUBTRACT_2]] : tensor<f32>
 // CHECK:           %[[SELECT_1:.*]] = stablehlo.select %[[COMPARE_1]], %[[SUBTRACT_3]], %[[SUBTRACT_2]] : tensor<i1>, tensor<f32>
 // CHECK:           %[[CONSTANT_22:.*]] = stablehlo.constant dense<3.14159274> : tensor<f32>
@@ -2030,7 +2030,7 @@
 // CHECK:           %[[SELECT_3:.*]] = stablehlo.select %[[COMPARE_0]], %[[SELECT_2]], %[[ADD_20]] : tensor<i1>, tensor<f32>
 // CHECK:           %[[ABS_1:.*]] = stablehlo.abs %[[CONVERT_0]] : tensor<f32>
 // CHECK:           %[[CONSTANT_24:.*]] = stablehlo.constant dense<0x7F800000> : tensor<f32>
-// CHECK:           %[[COMPARE_2:.*]] = stablehlo.compare  EQ, %[[ABS_1]], %[[CONSTANT_24]] : (tensor<f32>, tensor<f32>) -> tensor<i1>
+// CHECK:           %[[COMPARE_2:.*]] = stablehlo.compare EQ, %[[ABS_1]], %[[CONSTANT_24]] : (tensor<f32>, tensor<f32>) -> tensor<i1>
 // CHECK:           %[[CONSTANT_25:.*]] = stablehlo.constant dense<0x7F800000> : tensor<f32>
 // CHECK:           %[[SELECT_4:.*]] = stablehlo.select %[[COMPARE_2]], %[[CONSTANT_25]], %[[SELECT_3]] : tensor<i1>, tensor<f32>
 // CHECK:           %[[CONVERT_1:.*]] = stablehlo.convert %[[SELECT_4]] : (tensor<f32>) -> tensor<f16>
@@ -2046,71 +2046,71 @@
 // CHECK-LABEL:   func.func @digamma_f64(
 // CHECK-SAME:      %[[ARG0:.*]]: tensor<f64>) -> tensor<f64> {
 // CHECK:           %[[CONSTANT_0:.*]] = stablehlo.constant dense<5.000000e-01> : tensor<f64>
-// CHECK:           %[[COMPARE_0:.*]] = stablehlo.compare  LT, %[[ARG0]], %[[CONSTANT_0]] : (tensor<f64>, tensor<f64>) -> tensor<i1>
+// CHECK:           %[[COMPARE_0:.*]] = stablehlo.compare LT, %[[ARG0]], %[[CONSTANT_0]] : (tensor<f64>, tensor<f64>) -> tensor<i1>
 // CHECK:           %[[NEGATE_0:.*]] = stablehlo.negate %[[ARG0]] : tensor<f64>
 // CHECK:           %[[CONSTANT_1:.*]] = stablehlo.constant dense<1.000000e+00> : tensor<f64>
 // CHECK:           %[[SUBTRACT_0:.*]] = stablehlo.subtract %[[ARG0]], %[[CONSTANT_1]] : tensor<f64>
 // CHECK:           %[[SELECT_0:.*]] = stablehlo.select %[[COMPARE_0]], %[[NEGATE_0]], %[[SUBTRACT_0]] : tensor<i1>, tensor<f64>
-// CHECK:           %[[CONSTANT_2:.*]] = stablehlo.constant dense<0.000000e+00> : tensor<f64>
-// CHECK:           %[[CONSTANT_3:.*]] = stablehlo.constant dense<0.99999999999980993> : tensor<f64>
-// CHECK:           %[[CONSTANT_4:.*]] = stablehlo.constant dense<676.5203681218851> : tensor<f64>
-// CHECK:           %[[CONSTANT_5:.*]] = stablehlo.constant dense<1.000000e+00> : tensor<f64>
+// CHECK-DAG:       %[[CONSTANT_2:.*]] = stablehlo.constant dense<0.000000e+00> : tensor<f64>
+// CHECK-DAG:       %[[CONSTANT_3:.*]] = stablehlo.constant dense<0.99999999999980993> : tensor<f64>
+// CHECK-DAG:       %[[CONSTANT_4:.*]] = stablehlo.constant dense<676.5203681218851> : tensor<f64>
+// CHECK-DAG:       %[[CONSTANT_5:.*]] = stablehlo.constant dense<1.000000e+00> : tensor<f64>
 // CHECK:           %[[ADD_0:.*]] = stablehlo.add %[[SELECT_0]], %[[CONSTANT_5]] : tensor<f64>
 // CHECK:           %[[MULTIPLY_0:.*]] = stablehlo.multiply %[[ADD_0]], %[[ADD_0]] : tensor<f64>
 // CHECK:           %[[DIVIDE_0:.*]] = stablehlo.divide %[[CONSTANT_4]], %[[MULTIPLY_0]] : tensor<f64>
 // CHECK:           %[[SUBTRACT_1:.*]] = stablehlo.subtract %[[CONSTANT_2]], %[[DIVIDE_0]] : tensor<f64>
 // CHECK:           %[[DIVIDE_1:.*]] = stablehlo.divide %[[CONSTANT_4]], %[[ADD_0]] : tensor<f64>
 // CHECK:           %[[ADD_1:.*]] = stablehlo.add %[[CONSTANT_3]], %[[DIVIDE_1]] : tensor<f64>
-// CHECK:           %[[CONSTANT_6:.*]] = stablehlo.constant dense<-1259.1392167224028> : tensor<f64>
-// CHECK:           %[[CONSTANT_7:.*]] = stablehlo.constant dense<2.000000e+00> : tensor<f64>
+// CHECK-DAG:       %[[CONSTANT_6:.*]] = stablehlo.constant dense<-1259.1392167224028> : tensor<f64>
+// CHECK-DAG:       %[[CONSTANT_7:.*]] = stablehlo.constant dense<2.000000e+00> : tensor<f64>
 // CHECK:           %[[ADD_2:.*]] = stablehlo.add %[[SELECT_0]], %[[CONSTANT_7]] : tensor<f64>
 // CHECK:           %[[MULTIPLY_1:.*]] = stablehlo.multiply %[[ADD_2]], %[[ADD_2]] : tensor<f64>
 // CHECK:           %[[DIVIDE_2:.*]] = stablehlo.divide %[[CONSTANT_6]], %[[MULTIPLY_1]] : tensor<f64>
 // CHECK:           %[[SUBTRACT_2:.*]] = stablehlo.subtract %[[SUBTRACT_1]], %[[DIVIDE_2]] : tensor<f64>
 // CHECK:           %[[DIVIDE_3:.*]] = stablehlo.divide %[[CONSTANT_6]], %[[ADD_2]] : tensor<f64>
 // CHECK:           %[[ADD_3:.*]] = stablehlo.add %[[ADD_1]], %[[DIVIDE_3]] : tensor<f64>
-// CHECK:           %[[CONSTANT_8:.*]] = stablehlo.constant dense<771.32342877765313> : tensor<f64>
-// CHECK:           %[[CONSTANT_9:.*]] = stablehlo.constant dense<3.000000e+00> : tensor<f64>
+// CHECK-DAG:       %[[CONSTANT_8:.*]] = stablehlo.constant dense<771.32342877765313> : tensor<f64>
+// CHECK-DAG:       %[[CONSTANT_9:.*]] = stablehlo.constant dense<3.000000e+00> : tensor<f64>
 // CHECK:           %[[ADD_4:.*]] = stablehlo.add %[[SELECT_0]], %[[CONSTANT_9]] : tensor<f64>
 // CHECK:           %[[MULTIPLY_2:.*]] = stablehlo.multiply %[[ADD_4]], %[[ADD_4]] : tensor<f64>
 // CHECK:           %[[DIVIDE_4:.*]] = stablehlo.divide %[[CONSTANT_8]], %[[MULTIPLY_2]] : tensor<f64>
 // CHECK:           %[[SUBTRACT_3:.*]] = stablehlo.subtract %[[SUBTRACT_2]], %[[DIVIDE_4]] : tensor<f64>
 // CHECK:           %[[DIVIDE_5:.*]] = stablehlo.divide %[[CONSTANT_8]], %[[ADD_4]] : tensor<f64>
 // CHECK:           %[[ADD_5:.*]] = stablehlo.add %[[ADD_3]], %[[DIVIDE_5]] : tensor<f64>
-// CHECK:           %[[CONSTANT_10:.*]] = stablehlo.constant dense<-176.61502916214059> : tensor<f64>
-// CHECK:           %[[CONSTANT_11:.*]] = stablehlo.constant dense<4.000000e+00> : tensor<f64>
+// CHECK-DAG:       %[[CONSTANT_10:.*]] = stablehlo.constant dense<-176.61502916214059> : tensor<f64>
+// CHECK-DAG:       %[[CONSTANT_11:.*]] = stablehlo.constant dense<4.000000e+00> : tensor<f64>
 // CHECK:           %[[ADD_6:.*]] = stablehlo.add %[[SELECT_0]], %[[CONSTANT_11]] : tensor<f64>
 // CHECK:           %[[MULTIPLY_3:.*]] = stablehlo.multiply %[[ADD_6]], %[[ADD_6]] : tensor<f64>
 // CHECK:           %[[DIVIDE_6:.*]] = stablehlo.divide %[[CONSTANT_10]], %[[MULTIPLY_3]] : tensor<f64>
 // CHECK:           %[[SUBTRACT_4:.*]] = stablehlo.subtract %[[SUBTRACT_3]], %[[DIVIDE_6]] : tensor<f64>
 // CHECK:           %[[DIVIDE_7:.*]] = stablehlo.divide %[[CONSTANT_10]], %[[ADD_6]] : tensor<f64>
 // CHECK:           %[[ADD_7:.*]] = stablehlo.add %[[ADD_5]], %[[DIVIDE_7]] : tensor<f64>
-// CHECK:           %[[CONSTANT_12:.*]] = stablehlo.constant dense<12.507343278686905> : tensor<f64>
-// CHECK:           %[[CONSTANT_13:.*]] = stablehlo.constant dense<5.000000e+00> : tensor<f64>
+// CHECK-DAG:       %[[CONSTANT_12:.*]] = stablehlo.constant dense<12.507343278686905> : tensor<f64>
+// CHECK-DAG:       %[[CONSTANT_13:.*]] = stablehlo.constant dense<5.000000e+00> : tensor<f64>
 // CHECK:           %[[ADD_8:.*]] = stablehlo.add %[[SELECT_0]], %[[CONSTANT_13]] : tensor<f64>
 // CHECK:           %[[MULTIPLY_4:.*]] = stablehlo.multiply %[[ADD_8]], %[[ADD_8]] : tensor<f64>
 // CHECK:           %[[DIVIDE_8:.*]] = stablehlo.divide %[[CONSTANT_12]], %[[MULTIPLY_4]] : tensor<f64>
 // CHECK:           %[[SUBTRACT_5:.*]] = stablehlo.subtract %[[SUBTRACT_4]], %[[DIVIDE_8]] : tensor<f64>
 // CHECK:           %[[DIVIDE_9:.*]] = stablehlo.divide %[[CONSTANT_12]], %[[ADD_8]] : tensor<f64>
 // CHECK:           %[[ADD_9:.*]] = stablehlo.add %[[ADD_7]], %[[DIVIDE_9]] : tensor<f64>
-// CHECK:           %[[CONSTANT_14:.*]] = stablehlo.constant dense<-0.13857109526572012> : tensor<f64>
-// CHECK:           %[[CONSTANT_15:.*]] = stablehlo.constant dense<6.000000e+00> : tensor<f64>
+// CHECK-DAG:       %[[CONSTANT_14:.*]] = stablehlo.constant dense<-0.13857109526572012> : tensor<f64>
+// CHECK-DAG:       %[[CONSTANT_15:.*]] = stablehlo.constant dense<6.000000e+00> : tensor<f64>
 // CHECK:           %[[ADD_10:.*]] = stablehlo.add %[[SELECT_0]], %[[CONSTANT_15]] : tensor<f64>
 // CHECK:           %[[MULTIPLY_5:.*]] = stablehlo.multiply %[[ADD_10]], %[[ADD_10]] : tensor<f64>
 // CHECK:           %[[DIVIDE_10:.*]] = stablehlo.divide %[[CONSTANT_14]], %[[MULTIPLY_5]] : tensor<f64>
 // CHECK:           %[[SUBTRACT_6:.*]] = stablehlo.subtract %[[SUBTRACT_5]], %[[DIVIDE_10]] : tensor<f64>
 // CHECK:           %[[DIVIDE_11:.*]] = stablehlo.divide %[[CONSTANT_14]], %[[ADD_10]] : tensor<f64>
 // CHECK:           %[[ADD_11:.*]] = stablehlo.add %[[ADD_9]], %[[DIVIDE_11]] : tensor<f64>
-// CHECK:           %[[CONSTANT_16:.*]] = stablehlo.constant dense<9.9843695780195716E-6> : tensor<f64>
-// CHECK:           %[[CONSTANT_17:.*]] = stablehlo.constant dense<7.000000e+00> : tensor<f64>
+// CHECK-DAG:       %[[CONSTANT_16:.*]] = stablehlo.constant dense<9.9843695780195716E-6> : tensor<f64>
+// CHECK-DAG:       %[[CONSTANT_17:.*]] = stablehlo.constant dense<7.000000e+00> : tensor<f64>
 // CHECK:           %[[ADD_12:.*]] = stablehlo.add %[[SELECT_0]], %[[CONSTANT_17]] : tensor<f64>
 // CHECK:           %[[MULTIPLY_6:.*]] = stablehlo.multiply %[[ADD_12]], %[[ADD_12]] : tensor<f64>
 // CHECK:           %[[DIVIDE_12:.*]] = stablehlo.divide %[[CONSTANT_16]], %[[MULTIPLY_6]] : tensor<f64>
 // CHECK:           %[[SUBTRACT_7:.*]] = stablehlo.subtract %[[SUBTRACT_6]], %[[DIVIDE_12]] : tensor<f64>
 // CHECK:           %[[DIVIDE_13:.*]] = stablehlo.divide %[[CONSTANT_16]], %[[ADD_12]] : tensor<f64>
 // CHECK:           %[[ADD_13:.*]] = stablehlo.add %[[ADD_11]], %[[DIVIDE_13]] : tensor<f64>
-// CHECK:           %[[CONSTANT_18:.*]] = stablehlo.constant dense<1.5056327351493116E-7> : tensor<f64>
-// CHECK:           %[[CONSTANT_19:.*]] = stablehlo.constant dense<8.000000e+00> : tensor<f64>
+// CHECK-DAG:       %[[CONSTANT_18:.*]] = stablehlo.constant dense<1.5056327351493116E-7> : tensor<f64>
+// CHECK-DAG:       %[[CONSTANT_19:.*]] = stablehlo.constant dense<8.000000e+00> : tensor<f64>
 // CHECK:           %[[ADD_14:.*]] = stablehlo.add %[[SELECT_0]], %[[CONSTANT_19]] : tensor<f64>
 // CHECK:           %[[MULTIPLY_7:.*]] = stablehlo.multiply %[[ADD_14]], %[[ADD_14]] : tensor<f64>
 // CHECK:           %[[DIVIDE_14:.*]] = stablehlo.divide %[[CONSTANT_18]], %[[MULTIPLY_7]] : tensor<f64>
@@ -2141,9 +2141,9 @@
 // CHECK:           %[[DIVIDE_19:.*]] = stablehlo.divide %[[MULTIPLY_9]], %[[SINE_0]] : tensor<f64>
 // CHECK:           %[[SUBTRACT_10:.*]] = stablehlo.subtract %[[SUBTRACT_9]], %[[DIVIDE_19]] : tensor<f64>
 // CHECK:           %[[SELECT_1:.*]] = stablehlo.select %[[COMPARE_0]], %[[SUBTRACT_10]], %[[SUBTRACT_9]] : tensor<i1>, tensor<f64>
-// CHECK:           %[[COMPARE_1:.*]] = stablehlo.compare  LE, %[[ARG0]], %[[CONSTANT_2]] : (tensor<f64>, tensor<f64>) -> tensor<i1>
+// CHECK:           %[[COMPARE_1:.*]] = stablehlo.compare LE, %[[ARG0]], %[[CONSTANT_2]] : (tensor<f64>, tensor<f64>) -> tensor<i1>
 // CHECK:           %[[FLOOR_1:.*]] = stablehlo.floor %[[ARG0]] : tensor<f64>
-// CHECK:           %[[COMPARE_2:.*]] = stablehlo.compare  EQ, %[[ARG0]], %[[FLOOR_1]] : (tensor<f64>, tensor<f64>) -> tensor<i1>
+// CHECK:           %[[COMPARE_2:.*]] = stablehlo.compare EQ, %[[ARG0]], %[[FLOOR_1]] : (tensor<f64>, tensor<f64>) -> tensor<i1>
 // CHECK:           %[[AND_0:.*]] = stablehlo.and %[[COMPARE_1]], %[[COMPARE_2]] : tensor<i1>
 // CHECK:           %[[CONSTANT_25:.*]] = stablehlo.constant dense<0x7FF8000000000000> : tensor<f64>
 // CHECK:           %[[SELECT_2:.*]] = stablehlo.select %[[AND_0]], %[[CONSTANT_25]], %[[SELECT_1]] : tensor<i1>, tensor<f64>
@@ -2159,71 +2159,71 @@
 // CHECK-LABEL:   func.func @digamma_f32(
 // CHECK-SAME:      %[[ARG0:.*]]: tensor<f32>) -> tensor<f32> {
 // CHECK:           %[[CONSTANT_0:.*]] = stablehlo.constant dense<5.000000e-01> : tensor<f32>
-// CHECK:           %[[COMPARE_0:.*]] = stablehlo.compare  LT, %[[ARG0]], %[[CONSTANT_0]] : (tensor<f32>, tensor<f32>) -> tensor<i1>
+// CHECK:           %[[COMPARE_0:.*]] = stablehlo.compare LT, %[[ARG0]], %[[CONSTANT_0]] : (tensor<f32>, tensor<f32>) -> tensor<i1>
 // CHECK:           %[[NEGATE_0:.*]] = stablehlo.negate %[[ARG0]] : tensor<f32>
 // CHECK:           %[[CONSTANT_1:.*]] = stablehlo.constant dense<1.000000e+00> : tensor<f32>
 // CHECK:           %[[SUBTRACT_0:.*]] = stablehlo.subtract %[[ARG0]], %[[CONSTANT_1]] : tensor<f32>
 // CHECK:           %[[SELECT_0:.*]] = stablehlo.select %[[COMPARE_0]], %[[NEGATE_0]], %[[SUBTRACT_0]] : tensor<i1>, tensor<f32>
-// CHECK:           %[[CONSTANT_2:.*]] = stablehlo.constant dense<0.000000e+00> : tensor<f32>
-// CHECK:           %[[CONSTANT_3:.*]] = stablehlo.constant dense<1.000000e+00> : tensor<f32>
-// CHECK:           %[[CONSTANT_4:.*]] = stablehlo.constant dense<676.520386> : tensor<f32>
…
-// CHECK:               stablehlo.return %[[NEXT_ITER]], %[[ADD_RES]], %[[UPDATE]] : tensor<i64>, tensor<i32>, tensor<2xi32>
-// CHECK:             }
-// CHECK:           return %[[WHILE]]#2, %[[WHILE]]#1 : tensor<2xi32>, tensor<i32>
+// CHECK-SAME:                    %[[ARG0:.*]]: tensor<2xi32>,
+// CHECK-SAME:                    %[[ARG1:.*]]: tensor<i32>) -> (tensor<2xi32>, tensor<i32>) {
+// CHECK:           %[[GET_DIMENSION_SIZE_0:.*]] = stablehlo.get_dimension_size %[[ARG0]], dim = 0 : (tensor<2xi32>) -> tensor<i32>
+// CHECK:           %[[CONVERT_0:.*]] = stablehlo.convert %[[GET_DIMENSION_SIZE_0]] : (tensor<i32>) -> tensor<i64>
+// CHECK-DAG:       %[[CONSTANT_0:.*]] = stablehlo.constant dense<0> : tensor<i64>
+// CHECK-DAG:       %[[CONSTANT_1:.*]] = stablehlo.constant dense<0> : tensor<i32>
+// CHECK:           %[[BROADCAST_0:.*]] = stablehlo.broadcast %[[CONSTANT_1]], sizes = [2] : (tensor<i32>) -> tensor<2xi32>
+// CHECK:           %[[WHILE_0:.*]]:3 = stablehlo.while(%[[VAL_0:.*]] = %[[CONSTANT_0]], %[[VAL_1:.*]] = %[[ARG1]], %[[VAL_2:.*]] = %[[BROADCAST_0]]) : tensor<i64>, tensor<i32>, tensor<2xi32>
+// CHECK:           cond {
+// CHECK:             %[[COMPARE_0:.*]] = stablehlo.compare LT, %[[VAL_0]], %[[CONVERT_0]] : (tensor<i64>, tensor<i64>) -> tensor<i1>
+// CHECK:             stablehlo.return %[[COMPARE_0]] : tensor<i1>
+// CHECK:           } do {
+// CHECK:             %[[CONSTANT_2:.*]] = stablehlo.constant dense<0> : tensor<i64>
+// CHECK:             %[[RESHAPE_0:.*]] = stablehlo.reshape %[[VAL_0]] : (tensor<i64>) -> tensor<1xi64>
+// CHECK:             %[[CONCATENATE_0:.*]] = stablehlo.concatenate %[[RESHAPE_0]], dim = 0 : (tensor<1xi64>) -> tensor<1xi64>
+// CHECK:             %[[CONSTANT_3:.*]] = stablehlo.constant dense<1> : tensor<i64>
+// CHECK:             %[[ADD_0:.*]] = stablehlo.add %[[VAL_0]], %[[CONSTANT_3]] : tensor<i64>
+// CHECK:             %[[RESHAPE_1:.*]] = stablehlo.reshape %[[ADD_0]] : (tensor<i64>) -> tensor<1xi64>
+// CHECK:             %[[CONCATENATE_1:.*]] = stablehlo.concatenate %[[RESHAPE_1]], dim = 0 : (tensor<1xi64>) -> tensor<1xi64>
+// CHECK:             %[[CONSTANT_4:.*]] = stablehlo.constant dense<1> : tensor<1xi64>
+// CHECK:             %[[REAL_DYNAMIC_SLICE_0:.*]] = stablehlo.real_dynamic_slice %[[ARG0]], %[[CONCATENATE_0]], %[[CONCATENATE_1]], %[[CONSTANT_4]] : (tensor<2xi32>, tensor<1xi64>, tensor<1xi64>, tensor<1xi64>) -> tensor<1xi32>
+// CHECK:             %[[RESHAPE_2:.*]] = stablehlo.reshape %[[REAL_DYNAMIC_SLICE_0]] : (tensor<1xi32>) -> tensor<i32>
+// CHECK:             %[[ADD_1:.*]] = stablehlo.add %[[RESHAPE_2]], %[[VAL_1]] : tensor<i32>
+// CHECK:             %[[RESHAPE_3:.*]] = stablehlo.reshape %[[ADD_1]] : (tensor<i32>) -> tensor<1xi32>
+// CHECK:             %[[CONSTANT_5:.*]] = stablehlo.constant dense<0> : tensor<i64>
+// CHECK:             %[[DYNAMIC_UPDATE_SLICE_0:.*]] = stablehlo.dynamic_update_slice %[[VAL_2]], %[[RESHAPE_3]], %[[VAL_0]] : (tensor<2xi32>, tensor<1xi32>, tensor<i64>) -> tensor<2xi32>
+// CHECK:             %[[CONSTANT_6:.*]] = stablehlo.constant dense<1> : tensor<i64>
+// CHECK:             %[[ADD_2:.*]] = stablehlo.add %[[VAL_0]], %[[CONSTANT_6]] : tensor<i64>
+// CHECK:             stablehlo.return %[[ADD_2]], %[[ADD_1]], %[[DYNAMIC_UPDATE_SLICE_0]] : tensor<i64>, tensor<i32>, tensor<2xi32>
+// CHECK:           }
+// CHECK:           return %[[WHILE_0]]#2, %[[WHILE_0]]#1 : tensor<2xi32>, tensor<i32>
 // CHECK:         }
 func.func @scan(%arg0: tensor<2xi32>, %arg1: tensor<i32>) -> (tensor<2xi32>, tensor<i32>) {
   %0:2 = chlo.scan(%arg0) inits(%arg1) dimension=0 {
@@ -5274,3 +7207,164 @@
   } : (tensor<2xi32>, tensor<i32>) -> (tensor<2xi32>, tensor<i32>)
   func.return %0#0, %0#1 : tensor<2xi32>, tensor<i32>
 }
+
+// -----
+
+// CHECK-LABEL:   func.func @mulhi_i32(
+// CHECK-SAME:      %[[ARG0:.*]]: tensor<4xi32>,
+// CHECK-SAME:      %[[ARG1:.*]]: tensor<4xi32>) -> tensor<4xi32> {
+// CHECK:           %[[CONVERT_0:.*]] = stablehlo.convert %[[ARG0]] : (tensor<4xi32>) -> tensor<4xi64>
+// CHECK:           %[[CONVERT_1:.*]] = stablehlo.convert %[[ARG1]] : (tensor<4xi32>) -> tensor<4xi64>
+// CHECK:           %[[MULTIPLY_0:.*]] = stablehlo.multiply %[[CONVERT_0]], %[[CONVERT_1]] : tensor<4xi64>
+// CHECK:           %[[CONSTANT_0:.*]] = stablehlo.constant dense<32> : tensor<4xi64>
+// CHECK:           %[[SHIFT_RIGHT_ARITHMETIC_0:.*]] = stablehlo.shift_right_arithmetic %[[MULTIPLY_0]], %[[CONSTANT_0]] : tensor<4xi64>
+// CHECK:           %[[CONVERT_2:.*]] = stablehlo.convert %[[SHIFT_RIGHT_ARITHMETIC_0]] : (tensor<4xi64>) -> tensor<4xi32>
+// CHECK:           return %[[CONVERT_2]] : tensor<4xi32>
+// CHECK:         }
+func.func @mulhi_i32(%arg0: tensor<4xi32>, %arg1: tensor<4xi32>) -> tensor<4xi32> {
+  %result = "chlo.mulhi"(%arg0, %arg1) : (tensor<4xi32>, tensor<4xi32>) -> tensor<4xi32>
+  func.return %result : tensor<4xi32>
+}
+
+// -----
+
+// CHECK-LABEL:   func.func @mulhi_ui32(
+// CHECK-SAME:      %[[ARG0:.*]]: tensor<4xui32>,
+// CHECK-SAME:      %[[ARG1:.*]]: tensor<4xui32>) -> tensor<4xui32> {
+// CHECK:           %[[CONVERT_0:.*]] = stablehlo.convert %[[ARG0]] : (tensor<4xui32>) -> tensor<4xui64>
+// CHECK:           %[[CONVERT_1:.*]] = stablehlo.convert %[[ARG1]] : (tensor<4xui32>) -> tensor<4xui64>
+// CHECK:           %[[MULTIPLY_0:.*]] = stablehlo.multiply %[[CONVERT_0]], %[[CONVERT_1]] : tensor<4xui64>
+// CHECK:           %[[CONSTANT_0:.*]] = stablehlo.constant dense<32> : tensor<4xui64>
+// CHECK:           %[[SHIFT_RIGHT_LOGICAL_0:.*]] = stablehlo.shift_right_logical %[[MULTIPLY_0]], %[[CONSTANT_0]] : tensor<4xui64>
+// CHECK:           %[[CONVERT_2:.*]] = stablehlo.convert %[[SHIFT_RIGHT_LOGICAL_0]] : (tensor<4xui64>) -> tensor<4xui32>
+// CHECK:           return %[[CONVERT_2]] : tensor<4xui32>
+// CHECK:         }
+func.func @mulhi_ui32(%arg0: tensor<4xui32>, %arg1: tensor<4xui32>) -> tensor<4xui32> {
+  %result = "chlo.mulhi"(%arg0, %arg1) : (tensor<4xui32>, tensor<4xui32>) -> tensor<4xui32>
+  func.return %result : tensor<4xui32>
+}
+
+// -----
+
+// CHECK-LABEL:   func.func @mulhi_i16(
+// CHECK-SAME:      %[[ARG0:.*]]: tensor<4xi16>,
+// CHECK-SAME:      %[[ARG1:.*]]: tensor<4xi16>) -> tensor<4xi16> {
+// CHECK:           %[[CONVERT_0:.*]] = stablehlo.convert %[[ARG0]] : (tensor<4xi16>) -> tensor<4xi32>
+// CHECK:           %[[CONVERT_1:.*]] = stablehlo.convert %[[ARG1]] : (tensor<4xi16>) -> tensor<4xi32>
+// CHECK:           %[[MULTIPLY_0:.*]] = stablehlo.multiply %[[CONVERT_0]], %[[CONVERT_1]] : tensor<4xi32>
+// CHECK:           %[[CONSTANT_0:.*]] = stablehlo.constant dense<16> : tensor<4xi32>
+// CHECK:           %[[SHIFT_RIGHT_ARITHMETIC_0:.*]] = stablehlo.shift_right_arithmetic %[[MULTIPLY_0]], %[[CONSTANT_0]] : tensor<4xi32>
+// CHECK:           %[[CONVERT_2:.*]] = stablehlo.convert %[[SHIFT_RIGHT_ARITHMETIC_0]] : (tensor<4xi32>) -> tensor<4xi16>
+// CHECK:           return %[[CONVERT_2]] : tensor<4xi16>
+// CHECK:         }
+func.func @mulhi_i16(%arg0: tensor<4xi16>, %arg1: tensor<4xi16>) -> tensor<4xi16> {
+  %result = "chlo.mulhi"(%arg0, %arg1) : (tensor<4xi16>, tensor<4xi16>) -> tensor<4xi16>
+  func.return %result : tensor<4xi16>
+}
+
+// -----
+
+// CHECK-LABEL:   func.func @mulhi_ui16(
+// CHECK-SAME:      %[[ARG0:.*]]: tensor<4xui16>,
+// CHECK-SAME:      %[[ARG1:.*]]: tensor<4xui16>) -> tensor<4xui16> {
+// CHECK:           %[[CONVERT_0:.*]] = stablehlo.convert %[[ARG0]] : (tensor<4xui16>) -> tensor<4xui32>
+// CHECK:           %[[CONVERT_1:.*]] = stablehlo.convert %[[ARG1]] : (tensor<4xui16>) -> tensor<4xui32>
+// CHECK:           %[[MULTIPLY_0:.*]] = stablehlo.multiply %[[CONVERT_0]], %[[CONVERT_1]] : tensor<4xui32>
+// CHECK:           %[[CONSTANT_0:.*]] = stablehlo.constant dense<16> : tensor<4xui32>
+// CHECK:           %[[SHIFT_RIGHT_LOGICAL_0:.*]] = stablehlo.shift_right_logical %[[MULTIPLY_0]], %[[CONSTANT_0]] : tensor<4xui32>
+// CHECK:           %[[CONVERT_2:.*]] = stablehlo.convert %[[SHIFT_RIGHT_LOGICAL_0]] : (tensor<4xui32>) -> tensor<4xui16>
+// CHECK:           return %[[CONVERT_2]] : tensor<4xui16>
+// CHECK:         }
+func.func @mulhi_ui16(%arg0: tensor<4xui16>, %arg1: tensor<4xui16>) -> tensor<4xui16> {
+  %result = "chlo.mulhi"(%arg0, %arg1) : (tensor<4xui16>, tensor<4xui16>) -> tensor<4xui16>
+  func.return %result : tensor<4xui16>
+}
+
+// -----
+
+// CHECK-LABEL:   func.func @mulhi_ui64(
+// CHECK-SAME:      %[[ARG0:.*]]: tensor<4xui64>,
+// CHECK-SAME:      %[[ARG1:.*]]: tensor<4xui64>) -> tensor<4xui64> {
+// CHECK:           %[[CONSTANT_0:.*]] = stablehlo.constant dense<32> : tensor<4xui64>
+// CHECK:           %[[SHIFT_RIGHT_LOGICAL_0:.*]] = stablehlo.shift_right_logical %[[ARG0]], %[[CONSTANT_0]] : tensor<4xui64>
+// CHECK:           %[[CONSTANT_1:.*]] = stablehlo.constant dense<32> : tensor<4xui64>
+// CHECK:           %[[SHIFT_RIGHT_LOGICAL_1:.*]] = stablehlo.shift_right_logical %[[ARG1]], %[[CONSTANT_1]] : tensor<4xui64>
+// CHECK:           %[[MULTIPLY_0:.*]] = stablehlo.multiply %[[SHIFT_RIGHT_LOGICAL_0]], %[[SHIFT_RIGHT_LOGICAL_1]] : tensor<4xui64>
+// CHECK:           %[[CONSTANT_2:.*]] = stablehlo.constant dense<4294967295> : tensor<4xui64>
+// CHECK:           %[[AND_0:.*]] = stablehlo.and %[[ARG0]], %[[CONSTANT_2]] : tensor<4xui64>
+// CHECK:           %[[MULTIPLY_1:.*]] = stablehlo.multiply %[[AND_0]], %[[SHIFT_RIGHT_LOGICAL_1]] : tensor<4xui64>
+// CHECK:           %[[CONSTANT_3:.*]] = stablehlo.constant dense<4294967295> : tensor<4xui64>
+// CHECK:           %[[AND_1:.*]] = stablehlo.and %[[ARG1]], %[[CONSTANT_3]] : tensor<4xui64>
+// CHECK:           %[[MULTIPLY_2:.*]] = stablehlo.multiply %[[AND_0]], %[[AND_1]] : tensor<4xui64>
+// CHECK:           %[[CONSTANT_4:.*]] = stablehlo.constant dense<32> : tensor<4xui64>
+// CHECK:           %[[SHIFT_RIGHT_LOGICAL_2:.*]] = stablehlo.shift_right_logical %[[MULTIPLY_2]], %[[CONSTANT_4]] : tensor<4xui64>
+// CHECK:           %[[ADD_0:.*]] = stablehlo.add %[[MULTIPLY_1]], %[[SHIFT_RIGHT_LOGICAL_2]] : tensor<4xui64>
+// CHECK:           %[[CONSTANT_5:.*]] = stablehlo.constant dense<32> : tensor<4xui64>
+// CHECK:           %[[SHIFT_RIGHT_LOGICAL_3:.*]] = stablehlo.shift_right_logical %[[ADD_0]], %[[CONSTANT_5]] : tensor<4xui64>
+// CHECK:           %[[ADD_1:.*]] = stablehlo.add %[[MULTIPLY_0]], %[[SHIFT_RIGHT_LOGICAL_3]] : tensor<4xui64>
+// CHECK:           %[[MULTIPLY_3:.*]] = stablehlo.multiply %[[SHIFT_RIGHT_LOGICAL_0]], %[[AND_1]] : tensor<4xui64>
+// CHECK:           %[[CONSTANT_6:.*]] = stablehlo.constant dense<4294967295> : tensor<4xui64>
+// CHECK:           %[[AND_2:.*]] = stablehlo.and %[[ADD_0]], %[[CONSTANT_6]] : tensor<4xui64>
+// CHECK:           %[[ADD_2:.*]] = stablehlo.add %[[MULTIPLY_3]], %[[AND_2]] : tensor<4xui64>
+// CHECK:           %[[CONSTANT_7:.*]] = stablehlo.constant dense<32> : tensor<4xui64>
+// CHECK:           %[[SHIFT_RIGHT_LOGICAL_4:.*]] = stablehlo.shift_right_logical %[[ADD_2]], %[[CONSTANT_7]] : tensor<4xui64>
+// CHECK:           %[[ADD_3:.*]] = stablehlo.add %[[ADD_1]], %[[SHIFT_RIGHT_LOGICAL_4]] : tensor<4xui64>
+// CHECK:           return %[[ADD_3]] : tensor<4xui64>
+// CHECK:         }
+func.func @mulhi_ui64(%arg0: tensor<4xui64>, %arg1: tensor<4xui64>) -> tensor<4xui64> {
+  %result = "chlo.mulhi"(%arg0, %arg1) : (tensor<4xui64>, tensor<4xui64>) -> tensor<4xui64>
+  func.return %result : tensor<4xui64>
+}
+
+// -----
+
+// CHECK-LABEL:   func.func @mulhi_i64(
+// CHECK-SAME:      %[[ARG0:.*]]: tensor<4xi64>,
+// CHECK-SAME:      %[[ARG1:.*]]: tensor<4xi64>) -> tensor<4xi64> {
+// CHECK:           %[[CONVERT_0:.*]] = stablehlo.convert %[[ARG0]] : (tensor<4xi64>) -> tensor<4xui64>
+// CHECK:           %[[CONVERT_1:.*]] = stablehlo.convert %[[ARG1]] : (tensor<4xi64>) -> tensor<4xui64>
+// CHECK:           %[[CONSTANT_0:.*]] = stablehlo.constant dense<32> : tensor<4xui64>
+// CHECK:           %[[SHIFT_RIGHT_LOGICAL_0:.*]] = stablehlo.shift_right_logical %[[CONVERT_0]], %[[CONSTANT_0]] : tensor<4xui64>
+// CHECK:           %[[CONSTANT_1:.*]] = stablehlo.constant dense<32> : tensor<4xui64>
+// CHECK:           %[[SHIFT_RIGHT_LOGICAL_1:.*]] = stablehlo.shift_right_logical %[[CONVERT_1]], %[[CONSTANT_1]] : tensor<4xui64>
+// CHECK:           %[[MULTIPLY_0:.*]] = stablehlo.multiply %[[SHIFT_RIGHT_LOGICAL_0]], %[[SHIFT_RIGHT_LOGICAL_1]] : tensor<4xui64>
+// CHECK:           %[[CONSTANT_2:.*]] = stablehlo.constant dense<4294967295> : tensor<4xui64>
+// CHECK:           %[[AND_0:.*]] = stablehlo.and %[[CONVERT_0]], %[[CONSTANT_2]] : tensor<4xui64>
+// CHECK:           %[[MULTIPLY_1:.*]] = stablehlo.multiply %[[AND_0]], %[[SHIFT_RIGHT_LOGICAL_1]] : tensor<4xui64>
+// CHECK:           %[[CONSTANT_3:.*]] = stablehlo.constant dense<4294967295> : tensor<4xui64>
+// CHECK:           %[[AND_1:.*]] = stablehlo.and %[[CONVERT_1]], %[[CONSTANT_3]] : tensor<4xui64>
+// CHECK:           %[[MULTIPLY_2:.*]] = stablehlo.multiply %[[AND_0]], %[[AND_1]] : tensor<4xui64>
+// CHECK:           %[[CONSTANT_4:.*]] = stablehlo.constant dense<32> : tensor<4xui64>
+// CHECK:           %[[SHIFT_RIGHT_LOGICAL_2:.*]] = stablehlo.shift_right_logical %[[MULTIPLY_2]], %[[CONSTANT_4]] : tensor<4xui64>
+// CHECK:           %[[ADD_0:.*]] = stablehlo.add %[[MULTIPLY_1]], %[[SHIFT_RIGHT_LOGICAL_2]] : tensor<4xui64>
+// CHECK:           %[[CONSTANT_5:.*]] = stablehlo.constant dense<32> : tensor<4xui64>
+// CHECK:           %[[SHIFT_RIGHT_LOGICAL_3:.*]] = stablehlo.shift_right_logical %[[ADD_0]], %[[CONSTANT_5]] : tensor<4xui64>
+// CHECK:           %[[ADD_1:.*]] = stablehlo.add %[[MULTIPLY_0]], %[[SHIFT_RIGHT_LOGICAL_3]] : tensor<4xui64>
+// CHECK:           %[[MULTIPLY_3:.*]] = stablehlo.multiply %[[SHIFT_RIGHT_LOGICAL_0]], %[[AND_1]] : tensor<4xui64>
+// CHECK:           %[[CONSTANT_6:.*]] = stablehlo.constant dense<4294967295> : tensor<4xui64>
+// CHECK:           %[[AND_2:.*]] = stablehlo.and %[[ADD_0]], %[[CONSTANT_6]] : tensor<4xui64>
+// CHECK:           %[[ADD_2:.*]] = stablehlo.add %[[MULTIPLY_3]], %[[AND_2]] : tensor<4xui64>
+// CHECK:           %[[CONSTANT_7:.*]] = stablehlo.constant dense<32> : tensor<4xui64>
+// CHECK:           %[[SHIFT_RIGHT_LOGICAL_4:.*]] = stablehlo.shift_right_logical %[[ADD_2]], %[[CONSTANT_7]] : tensor<4xui64>
+// CHECK:           %[[ADD_3:.*]] = stablehlo.add %[[ADD_1]], %[[SHIFT_RIGHT_LOGICAL_4]] : tensor<4xui64>
+// CHECK:           %[[CONSTANT_8:.*]] = stablehlo.constant dense<0> : tensor<4xi64>
+// CHECK:           %[[COMPARE_0:.*]] = stablehlo.compare LT, %[[ARG0]], %[[CONSTANT_8]] : (tensor<4xi64>, tensor<4xi64>) -> tensor<4xi1>
+// CHECK:           %[[CONVERT_2:.*]] = stablehlo.convert %[[ARG1]] : (tensor<4xi64>) -> tensor<4xui64>
+// CHECK:           %[[CONVERT_3:.*]] = stablehlo.convert %[[ARG1]] : (tensor<4xi64>) -> tensor<4xui64>
+// CHECK:           %[[CONSTANT_9:.*]] = stablehlo.constant dense<0> : tensor<4xui64>
+// CHECK:           %[[SELECT_0:.*]] = stablehlo.select %[[COMPARE_0]], %[[CONVERT_2]], %[[CONSTANT_9]] : tensor<4xi1>, tensor<4xui64>
+// CHECK:           %[[SUBTRACT_0:.*]] = stablehlo.subtract %[[ADD_3]], %[[SELECT_0]] : tensor<4xui64>
+// CHECK:           %[[CONSTANT_10:.*]] = stablehlo.constant dense<0> : tensor<4xi64>
+// CHECK:           %[[COMPARE_1:.*]] = stablehlo.compare LT, %[[ARG1]], %[[CONSTANT_10]] : (tensor<4xi64>, tensor<4xi64>) -> tensor<4xi1>
+// CHECK:           %[[CONVERT_4:.*]] = stablehlo.convert %[[ARG0]] : (tensor<4xi64>) -> tensor<4xui64>
+// CHECK:           %[[CONVERT_5:.*]] = stablehlo.convert %[[ARG0]] : (tensor<4xi64>) -> tensor<4xui64>
+// CHECK:           %[[CONSTANT_11:.*]] = stablehlo.constant dense<0> : tensor<4xui64>
+// CHECK:           %[[SELECT_1:.*]] = stablehlo.select %[[COMPARE_1]], %[[CONVERT_4]], %[[CONSTANT_11]] : tensor<4xi1>, tensor<4xui64>
+// CHECK:           %[[SUBTRACT_1:.*]] = stablehlo.subtract %[[SUBTRACT_0]], %[[SELECT_1]] : tensor<4xui64>
+// CHECK:           %[[CONVERT_6:.*]] = stablehlo.convert %[[SUBTRACT_1]] : (tensor<4xui64>) -> tensor<4xi64>
+// CHECK:           return %[[CONVERT_6]] : tensor<4xi64>
+// CHECK:         }
+func.func @mulhi_i64(%arg0: tensor<4xi64>, %arg1: tensor<4xi64>) -> tensor<4xi64> {
+  %result = "chlo.mulhi"(%arg0, %arg1) : (tensor<4xi64>, tensor<4xi64>) -> tensor<4xi64>
+  func.return %result : tensor<4xi64>
+}
diff --ruN a/stablehlo/stablehlo/tests/interpret/chlo/mulhi.mlir b/stablehlo/stablehlo/tests/interpret/chlo/mulhi.mlir
--- stablehlo/stablehlo/tests/interpret/chlo/mulhi.mlir
+++ stablehlo/stablehlo/tests/interpret/chlo/mulhi.mlir
@@ -0,0 +1,91 @@
+// RUN: stablehlo-opt --chlo-legalize-to-stablehlo --split-input-file %s > %t.mlir
+// RUN: stablehlo-translate --interpret --split-input-file %t.mlir
+
+// Test chlo.mulhi operation for signed 8-bit integers.
+// 64*4 = 256 ==> b0000_00001_0000_0000, high bits are 1.
+func.func @mulhi_op_test_si8() {
+  %lhs = stablehlo.constant dense<[64, -64, -64]> : tensor<3xi8>
+  %rhs = stablehlo.constant dense<[4, 4, -4]> : tensor<3xi8>
+  %result = "chlo.mulhi"(%lhs, %rhs) : (tensor<3xi8>, tensor<3xi8>) -> tensor<3xi8>
+  check.expect_eq_const %result, dense<[1, -1, 1]> : tensor<3xi8>
+  func.return
+}
+
+// -----
+
+// Test chlo.mulhi operation for unsigned 8-bit integers.
+// 240 * 16 = 3840 ==> b0000_1111_0000_0000, high bits are 15.
+func.func @mulhi_op_test_ui8() {
+  %lhs = stablehlo.constant dense<[240, 128]> : tensor<2xui8>
+  %rhs = stablehlo.constant dense<[16, 2]> : tensor<2xui8>
+  %result = "chlo.mulhi"(%lhs, %rhs) : (tensor<2xui8>, tensor<2xui8>) -> tensor<2xui8>
+  check.expect_eq_const %result, dense<[15, 1]> : tensor<2xui8>
+  func.return
+}
+
+// -----
+
+// Test chlo.mulhi operation for signed 16-bit integers.
+func.func @mulhi_op_test_si16() {
+  %lhs = stablehlo.constant dense<[16384, -16384]> : tensor<2xi16>
+  %rhs = stablehlo.constant dense<[8, 8]> : tensor<2xi16>
+  %result = "chlo.mulhi"(%lhs, %rhs) : (tensor<2xi16>, tensor<2xi16>) -> tensor<2xi16>
+  check.expect_eq_const %result, dense<[2, -2]> : tensor<2xi16>
+  func.return
+}
+
+// -----
+
+// Test chlo.mulhi operation for unsigned 16-bit integers.
+func.func @mulhi_op_test_ui16() {
+  %lhs = stablehlo.constant dense<[61440, 32768]> : tensor<2xui16>
+  %rhs = stablehlo.constant dense<[16, 2]> : tensor<2xui16>
+  %result = "chlo.mulhi"(%lhs, %rhs) : (tensor<2xui16>, tensor<2xui16>) -> tensor<2xui16>
+  check.expect_eq_const %result, dense<[15, 1]> : tensor<2xui16>
+  func.return
+}
+
+// -----
+
+// Test chlo.mulhi operation for signed 32-bit integers.
+func.func @mulhi_op_test_si32() {
+  %lhs = stablehlo.constant dense<[268435456, -268435456]> : tensor<2xi32>
+  %rhs = stablehlo.constant dense<[16, 16]> : tensor<2xi32>
+  %result = "chlo.mulhi"(%lhs, %rhs) : (tensor<2xi32>, tensor<2xi32>) -> tensor<2xi32>
+  check.expect_eq_const %result, dense<[1, -1]> : tensor<2xi32>
+  func.return
+}
+
+// -----
+
+// Test chlo.mulhi operation for unsigned 32-bit integers.
+func.func @mulhi_op_test_ui32() {
+  %lhs = stablehlo.constant dense<[4026531840, 2147483648]> : tensor<2xui32>
+  %rhs = stablehlo.constant dense<[16, 2]> : tensor<2xui32>
+  %result = "chlo.mulhi"(%lhs, %rhs) : (tensor<2xui32>, tensor<2xui32>) -> tensor<2xui32>
+  check.expect_eq_const %result, dense<[15, 1]> : tensor<2xui32>
+  func.return
+}
+
+// -----
+
+// Test chlo.mulhi operation for signed 64-bit integers.
+// 1152921504606846976 * 16 = 18446744073709551616 ==> b1_0{64_zeros}
+func.func @mulhi_op_test_si64() {
+  %lhs = stablehlo.constant dense<[1152921504606846976, -1152921504606846976]> : tensor<2xi64>
+  %rhs = stablehlo.constant dense<[16, 16]> : tensor<2xi64>
+  %result = "chlo.mulhi"(%lhs, %rhs) : (tensor<2xi64>, tensor<2xi64>) -> tensor<2xi64>
+  check.expect_eq_const %result, dense<[1, -1]> : tensor<2xi64>
+  func.return
+}
+
+// -----
+
+// Test chlo.mulhi operation for unsigned 64-bit integers.
+func.func @mulhi_op_test_ui64() {
+  %lhs = stablehlo.constant dense<[17293822569102704640, 9223372036854775808]> : tensor<2xui64>
+  %rhs = stablehlo.constant dense<[16, 2]> : tensor<2xui64>
+  %result = "chlo.mulhi"(%lhs, %rhs) : (tensor<2xui64>, tensor<2xui64>) -> tensor<2xui64>
+  check.expect_eq_const %result, dense<[15, 1]> : tensor<2xui64>
+  func.return
+}
diff --ruN a/stablehlo/stablehlo/tests/ops_chlo.mlir b/stablehlo/stablehlo/tests/ops_chlo.mlir
--- stablehlo/stablehlo/tests/ops_chlo.mlir
+++ stablehlo/stablehlo/tests/ops_chlo.mlir
@@ -558,3 +558,27 @@
   } : (tensor<2x3xf32>, tensor<2xf32>) -> (tensor<2x3xf32>, tensor<2xf32>)
   func.return %0#0 : tensor<2x3xf32>
 }
+
+// -----
+
+// CHECK-LABEL: func @mulhi_i32
+func.func @mulhi_i32(%arg0: tensor<4xi32>, %arg1: tensor<4xi32>) -> tensor<4xi32> {
+  %0 = "chlo.mulhi"(%arg0, %arg1) : (tensor<4xi32>, tensor<4xi32>) -> tensor<4xi32>
+  func.return %0: tensor<4xi32>
+}
+
+// -----
+
+func.func @mulhi_boolean(%arg0: tensor<4xi1>, %arg1: tensor<4xi1>) -> tensor<4xi1> {
+  // expected-error @+1 {{'chlo.mulhi' op operand #0 must be ranked tensor of 2/4/8/16/32/64-bit integer values, but got 'tensor<4xi1>'}}
+  %0 = "chlo.mulhi"(%arg0, %arg1) : (tensor<4xi1>, tensor<4xi1>) -> tensor<4xi1>
+  func.return %0: tensor<4xi1>
+}
+
+// -----
+
+// CHECK-LABEL: func @mulhi_i64
+func.func @mulhi_i64(%arg0: tensor<4xi64>, %arg1: tensor<4xi64>) -> tensor<4xi64> {
+  %0 = "chlo.mulhi"(%arg0, %arg1) : (tensor<4xi64>, tensor<4xi64>) -> tensor<4xi64>
+  func.return %0: tensor<4xi64>
+}
diff --ruN a/stablehlo/stablehlo/tests/ops_stablehlo.mlir b/stablehlo/stablehlo/tests/ops_stablehlo.mlir
--- stablehlo/stablehlo/tests/ops_stablehlo.mlir
+++ stablehlo/stablehlo/tests/ops_stablehlo.mlir
@@ -5018,6 +5018,14 @@
   %0:3 = "stablehlo.custom_call"(%x, %token) {backend_config="", call_target_name = "foo", has_side_effect = false} : (tensor<2xf32>, !stablehlo.token) -> (tensor<2xf32>, tensor<2xf32>, !stablehlo.token)
   %1 = "stablehlo.add"(%0#0, %0#1) : (tensor<2xf32>, tensor<2xf32>) -> tensor<2xf32>
   func.return %1 : tensor<2xf32>
+}
+
+// -----
+
+// CHECK: func @custom_call_future
+func.func @custom_call_future(%arg0: !stablehlo.future<tensor<2xf32>>) -> !stablehlo.future<tensor<2xf32>> {
+  %0 = "stablehlo.custom_call"(%arg0) {call_target_name = "foo"} : (!stablehlo.future<tensor<2xf32>>) -> !stablehlo.future<tensor<2xf32>>
+  func.return %0 : !stablehlo.future<tensor<2xf32>>
 }
 
 // -----
diff --ruN a/stablehlo/stablehlo/tests/replica_groups_mesh_axes.mlir b/stablehlo/stablehlo/tests/replica_groups_mesh_axes.mlir
--- stablehlo/stablehlo/tests/replica_groups_mesh_axes.mlir
+++ stablehlo/stablehlo/tests/replica_groups_mesh_axes.mlir
@@ -1,5 +1,7 @@
 // RUN: stablehlo-opt %s | stablehlo-opt | FileCheck %s
 // RUN: stablehlo-opt -emit-bytecode %s | stablehlo-opt | FileCheck %s
+
+func.func private @mesh()
 
 // CHECK-LABEL: @test_replica_groups_mesh_axes
 func.func @test_replica_groups_mesh_axes(%arg0: tensor<f32>) -> tensor<f32> {
diff --ruN a/stablehlo/stablehlo/tests/transforms/stablehlo_refine_shapes.mlir b/stablehlo/stablehlo/tests/transforms/stablehlo_refine_shapes.mlir
--- stablehlo/stablehlo/tests/transforms/stablehlo_refine_shapes.mlir
+++ stablehlo/stablehlo/tests/transforms/stablehlo_refine_shapes.mlir
@@ -1296,3 +1296,20 @@
   %1 = stablehlo.abs %0 : tensor<?xf32>
   return %1 : tensor<?xf32>
 }
+
+// -----
+
+// CHECK-LABEL: @refine_ragged_dot
+func.func @refine_ragged_dot(%lhs: tensor<5x11x6xf32>, %rhs: tensor<5x6x7xf32>, %group_sizes: tensor<2xi32>) -> tensor<?x?x?xf32> {
+  // CHECK: "chlo.ragged_dot"{{.*}} -> tensor<5x11x7xf32>
+  %0 = "chlo.ragged_dot"(%lhs, %rhs, %group_sizes) <{
+    ragged_dot_dimension_numbers = #chlo.ragged_dot<
+      lhs_batching_dimensions = [0],
+      rhs_batching_dimensions = [0],
+      lhs_contracting_dimensions = [2],
+      rhs_contracting_dimensions = [1],
+      lhs_ragged_dimensions = [0]
+    >
+  }> : (tensor<5x11x6xf32>, tensor<5x6x7xf32>, tensor<2xi32>) -> tensor<?x?x?xf32>
+  func.return %0 : tensor<?x?x?xf32>
+}
diff --ruN a/stablehlo/stablehlo/tests/verify_replica_groups_mesh_axes.mlir b/stablehlo/stablehlo/tests/verify_replica_groups_mesh_axes.mlir
--- stablehlo/stablehlo/tests/verify_replica_groups_mesh_axes.mlir
+++ stablehlo/stablehlo/tests/verify_replica_groups_mesh_axes.mlir
@@ -1,7 +1,8 @@
 // RUN: stablehlo-opt %s -verify-diagnostics -split-input-file | FileCheck %s
 
+func.func private @mesh()
+
 // CHECK-LABEL: func @all_gather_replica_group_mesh_axes
-
 func.func @all_gather_replica_group_mesh_axes(%operand: tensor<16x8xf32>) -> tensor<16x16xf32> {
   %result = "stablehlo.all_gather"(%operand) {
     all_gather_dim = 1 : i64,
@@ -11,3 +12,14 @@
   func.return %result : tensor<16x16xf32>
 }
 
+// -----
+
+func.func @all_gather_replica_group_mesh_axes_invalid(%operand: tensor<16x8xf32>) -> tensor<16x16xf32> {
+  // expected-error@+1 {{replica_groups: mesh symbol 'missing_mesh' not found}}
+  %result = "stablehlo.all_gather"(%operand) {
+    all_gather_dim = 1 : i64,
+    replica_groups = #stablehlo.replica_group_mesh_axes<mesh = @missing_mesh, axes = [#stablehlo.axis_ref<name = "foo">, #stablehlo.axis_ref<name = "bar">]>,
+    channel_handle = #stablehlo.channel_handle<handle = 1, type = 0>
+  } : (tensor<16x8xf32>) -> tensor<16x16xf32>
+  func.return %result : tensor<16x16xf32>
+}
diff --ruN a/stablehlo/stablehlo/tests/vhlo/stablehlo_legalize_to_vhlo.1_16_0.mlir b/stablehlo/stablehlo/tests/vhlo/stablehlo_legalize_to_vhlo.1_16_0.mlir
--- stablehlo/stablehlo/tests/vhlo/stablehlo_legalize_to_vhlo.1_16_0.mlir
+++ stablehlo/stablehlo/tests/vhlo/stablehlo_legalize_to_vhlo.1_16_0.mlir
@@ -9,6 +9,8 @@
 // RUN: stablehlo-opt --stablehlo-legalize-to-vhlo -emit-bytecode %s | stablehlo-opt -debug-only=vhlo-bytecode 2>&1 | FileCheck --check-prefix=CHECK-WARN %s
 
 // CHECK-WARN-NOT: Not Implemented
+
+func.func private @mesh()
 
 // ============ ATTRIBUTES ============
 
diff --ruN a/stablehlo/stablehlo/tests/vhlo/stablehlo_legalize_to_vhlo.mlir b/stablehlo/stablehlo/tests/vhlo/stablehlo_legalize_to_vhlo.mlir
--- stablehlo/stablehlo/tests/vhlo/stablehlo_legalize_to_vhlo.mlir
+++ stablehlo/stablehlo/tests/vhlo/stablehlo_legalize_to_vhlo.mlir
@@ -10,6 +10,8 @@
 // RUN: stablehlo-opt --stablehlo-legalize-to-vhlo -emit-bytecode %s | stablehlo-opt -debug-only=vhlo-bytecode 2>&1 | FileCheck --check-prefix=CHECK-WARN %s
 
 // CHECK-WARN-NOT: Not Implemented
+
+func.func private @mesh()
 
 // ============ ATTRIBUTES ============
 
diff --ruN a/stablehlo/stablehlo/tests/vhlo/vhlo_to_version_downgrade_invalid.1_15_0.mlir b/stablehlo/stablehlo/tests/vhlo/vhlo_to_version_downgrade_invalid.1_15_0.mlir
--- stablehlo/stablehlo/tests/vhlo/vhlo_to_version_downgrade_invalid.1_15_0.mlir
+++ stablehlo/stablehlo/tests/vhlo/vhlo_to_version_downgrade_invalid.1_15_0.mlir
@@ -1,6 +1,8 @@
 // RUN: not stablehlo-opt --stablehlo-legalize-to-vhlo --vhlo-to-version='target=1.15.0' %s 2>&1 | FileCheck %s
 
 // Future types cannot be downgraded to v1.15.0 (v1).
+
+func.func private @mesh()
 
 // CHECK: failed to legalize operation
 func.func @attr_replica_group_mesh_axes(%arg0: tensor<f32>) -> tensor<f32> {
diff --ruN a/stablehlo/stablehlo/tests/vhlo/vhlo_to_version_downgrade_invalid.1_16_0.mlir b/stablehlo/stablehlo/tests/vhlo/vhlo_to_version_downgrade_invalid.1_16_0.mlir
--- stablehlo/stablehlo/tests/vhlo/vhlo_to_version_downgrade_invalid.1_16_0.mlir
+++ stablehlo/stablehlo/tests/vhlo/vhlo_to_version_downgrade_invalid.1_16_0.mlir
@@ -0,0 +1,12 @@
+// RUN: stablehlo-opt --stablehlo-legalize-to-vhlo --vhlo-to-version='target=1.16.0' --verify-diagnostics --split-input-file %s
+
+// expected-error @+1 {{failed to convert VHLO to v1.16.0}}
+module {
+  func.func @custom_call_with_future_type(%arg0: !stablehlo.future<tensor<f32>>) -> !stablehlo.future<tensor<f32>> {
+    // expected-error @+1 {{failed to legalize operation 'vhlo.custom_call_v1' that was explicitly marked illegal}}
+    %0 = "stablehlo.custom_call"(%arg0) {
+      call_target_name = "foo"
+    } : (!stablehlo.future<tensor<f32>>) -> !stablehlo.future<tensor<f32>>
+    func.return %0 : !stablehlo.future<tensor<f32>>
+  }
+}
diff --ruN a/stablehlo/stablehlo/transforms/ChloDecompositionPatterns.td b/stablehlo/stablehlo/transforms/ChloDecompositionPatterns.td
--- stablehlo/stablehlo/transforms/ChloDecompositionPatterns.td
+++ stablehlo/stablehlo/transforms/ChloDecompositionPatterns.td
@@ -20,6 +20,34 @@
 
 class StableHLO_ConstantLike<string value> : NativeCodeCall<
     "::mlir::stablehlo::getConstantLike($_builder, $_loc, " # value # ", $0)">;
+
+def IsSignedIntegerType : Constraint<CPred<
+  "!llvm::cast<IntegerType>(llvm::cast<ShapedType>($0.getType()).getElementType()).isUnsigned()">>;
+
+def IsSignedIntegerLessThan64Bit : Constraint<CPred<
+  "isIntegerLessThanNBits($0, /*isSigned=*/true, 64)">>;
+
+def IsSigned64BitIntegerType : Constraint<CPred<
+  "isIntegerWithNBits($0, /*isSigned=*/true, 64)">>;
+
+def IsUnsignedIntegerType : Constraint<CPred<
+  "llvm::cast<IntegerType>(llvm::cast<ShapedType>($0.getType()).getElementType()).isUnsigned()">>;
+
+def IsUnsignedIntegerLessThan64Bit : Constraint<CPred<
+  "isIntegerLessThanNBits($0, /*isSigned=*/false, 64)">>;
+
+def IsUnsigned64BitIntegerType : Constraint<CPred<
+  "isIntegerWithNBits($0, /*isSigned=*/false, 64)">>;
+
+def StableHLO_ConvertOpUpcast : NativeCodeCall<
+    "::mlir::stablehlo::getConvertOpUpcast($_builder, $_loc, $0)">;
+
+def StableHLO_ConvertToUnsigned : NativeCodeCall<
+    "::mlir::stablehlo::getConvertToUnsigned($_builder, $_loc, $0)">;
+
+def GetShiftAmountConstant : NativeCodeCall<
+    "::mlir::stablehlo::getConstantLike($_builder, $_loc,"
+    " cast<IntegerType>(cast<ShapedType>($0.getType()).getElementType()).getWidth(), $1)">;
 
 def ComplexElementType : Type<
   CPred<"isa<ComplexType>(cast<ShapedType>($_self).getElementType())">,
@@ -115,6 +143,118 @@
     (STABLEHLO_DEFAULT_COMPARISON_TYPE)
   )>;
 
+// Signed mulhi_s32 for N-bit integers where N < 64, meaning we can upcast.
+//   downcast((upcast(x, N*2) * upcast(y,N*2)) >> N, N)
+def : Pat<(CHLO_MulhiOp $lhs, $rhs),
+          (StableHLO_ConvertOp
+            (StableHLO_ShiftRightArithmeticOp
+              (StableHLO_MulOp:$wideMul (StableHLO_ConvertOpUpcast $lhs), (StableHLO_ConvertOpUpcast $rhs)),
+              (GetShiftAmountConstant $lhs, $wideMul)
+            )
+          ),
+          [(IsSignedIntegerLessThan64Bit $lhs)]>;
+
+// Signed mulhi_s32 for N-bit integers where N < 64, meaning we can upcast.
+//   downcast((upcast(x, N*2) * upcast(y,N*2)) >> N, N)
+//
+// Unsigned ints use logical shifts.
+def : Pat<(CHLO_MulhiOp $lhs, $rhs),
+          (StableHLO_ConvertOp
+            (StableHLO_ShiftRightLogicalOp
+              (StableHLO_MulOp:$wideMul (StableHLO_ConvertOpUpcast $lhs), (StableHLO_ConvertOpUpcast $rhs)),
+              (GetShiftAmountConstant $lhs, $wideMul)
+            )
+          ),
+          [(IsUnsignedIntegerLessThan64Bit $lhs)]>;
+
+// mulhi_u64 with decomposition into 32 bit parts.
+//
+// 1. Split operands into lower and upper 32-bit halves
+// uint64_t a_hi = a >> 32;
+// uint64_t b_hi = b >> 32;
+// uint64_t a_lo = a & 0xFFFFFFFF;
+// uint64_t b_lo = b & 0xFFFFFFFF;
+
+// // 2. Compute the four 64-bit partial products
+// uint64_t p0 = a_lo * b_lo;
+// uint64_t p1 = a_lo * b_hi;
+// uint64_t p2 = a_hi * b_lo;
+// uint64_t p3 = a_hi * b_hi;
+
+// // 3. Accumulate middle terms and propagate the carry
+// uint32_t carry_p0 = (uint32_t)(p0 >> 32);
+// uint64_t mid1 = p1 + carry_p0;
+// uint64_t mid2 = p2 + (uint32_t)mid1;
+
+// // 4. Sum the high terms
+// return p3 + (mid1 >> 32) + (mid2 >> 32);
+def : Pat<(CHLO_MulhiOp $lhs, $rhs),
+          (StableHLO_AddOp
+            (StableHLO_AddOp
+              (StableHLO_MulOp:$p3
+                (StableHLO_ShiftRightLogicalOp:$a_hi $lhs, (StableHLO_ConstantLike<"32"> $lhs)),
+                (StableHLO_ShiftRightLogicalOp:$b_hi $rhs, (StableHLO_ConstantLike<"32"> $rhs))
+              ),
+              (StableHLO_ShiftRightLogicalOp:$carry_mid1
+                (StableHLO_AddOp:$mid1
+                  (StableHLO_MulOp:$p1
+                    (StableHLO_AndOp:$a_lo $lhs, (StableHLO_ConstantLike<"0xFFFFFFFFULL"> $lhs)),
+                    $b_hi
+                  ),
+                  (StableHLO_ShiftRightLogicalOp:$carry_p0
+                    (StableHLO_MulOp:$p0 $a_lo, (StableHLO_AndOp:$b_lo $rhs, (StableHLO_ConstantLike<"0xFFFFFFFFULL"> $rhs))),
+                    (StableHLO_ConstantLike<"32"> $lhs)
+                  )
+                ),
+                (StableHLO_ConstantLike<"32"> $lhs)
+              )
+            ),
+            (StableHLO_ShiftRightLogicalOp:$carry_mid2
+              (StableHLO_AddOp:$mid2
+                (StableHLO_MulOp:$p2 $a_hi, $b_lo),
+                (StableHLO_AndOp $mid1, (StableHLO_ConstantLike<"0xFFFFFFFFULL"> $lhs))
+              ),
+              (StableHLO_ConstantLike<"32"> $lhs)
+            )
+          ),
+          [(IsUnsigned64BitIntegerType $lhs)]>;
+
+// mulhi_u64 with correction for two's complement sign extension:
+//   res = mulhi_u64((uint64_t)a, (uint64_t)b)
+//   if (a < 0) hi -= b;
+//   if (b < 0) hi -= a;
+def : Pat<(CHLO_MulhiOp $lhs, $rhs),
+          (StableHLO_ConvertOp
+            (StableHLO_SubtractOp
+              (StableHLO_SubtractOp
+                (CHLO_MulhiOp:$hi
+                  (StableHLO_ConvertToUnsigned $lhs),
+                  (StableHLO_ConvertToUnsigned $rhs)
+                ),
+                (StableHLO_SelectOp
+                  (StableHLO_CompareOp
+                    $lhs,
+                    (StableHLO_ConstantLike<"0"> $lhs),
+                    StableHLO_ComparisonDirectionValue<"LT">,
+                    (STABLEHLO_DEFAULT_COMPARISON_TYPE)
+                  ),
+                  (StableHLO_ConvertToUnsigned $rhs),
+                  (StableHLO_ConstantLike<"0"> (StableHLO_ConvertToUnsigned $rhs))
+                )
+              ),
+              (StableHLO_SelectOp
+                (StableHLO_CompareOp
+                  $rhs,
+                  (StableHLO_ConstantLike<"0"> $rhs),
+                  StableHLO_ComparisonDirectionValue<"LT">,
+                  (STABLEHLO_DEFAULT_COMPARISON_TYPE)
+                ),
+                (StableHLO_ConvertToUnsigned $lhs),
+                (StableHLO_ConstantLike<"0"> (StableHLO_ConvertToUnsigned $lhs))
+              )
+            )
+          ),
+          [(IsSigned64BitIntegerType $lhs)]>;
 
 def : Pat<(CHLO_TanOp $input),
           (StableHLO_TanOp $input, ConstDefaultResultAccuracyAttr)>;
diff --ruN a/stablehlo/stablehlo/transforms/ChloLegalizeToStablehlo.cpp b/stablehlo/stablehlo/transforms/ChloLegalizeToStablehlo.cpp
--- stablehlo/stablehlo/transforms/ChloLegalizeToStablehlo.cpp
+++ stablehlo/stablehlo/transforms/ChloLegalizeToStablehlo.cpp
@@ -14,7 +14,6 @@
 #include <cstdint>
 #include <limits>
 #include <memory>
-#include <numeric>
 #include <optional>
 #include <utility>
 #include <vector>
@@ -24,6 +23,7 @@
 #include "llvm/ADT/STLExtras.h"
 #include "llvm/ADT/Sequence.h"
 #include "llvm/ADT/SmallVector.h"
+#include "llvm/Support/Casting.h"
 #include "llvm/Support/Debug.h"
 #include "mlir/Dialect/Arith/IR/Arith.h"
 #include "mlir/Dialect/Complex/IR/Complex.h"
@@ -199,6 +199,42 @@
   return getConstantLike(
       b, loc, llvm::APFloat::getSmallestNormalized(ty.getFloatSemantics()),
       val);
+}
+
+static Value getConvertOpUpcast(OpBuilder& builder, Location loc, Value val) {
+  auto inputType = cast<ShapedType>(val.getType()).getElementType();
+  auto intType = cast<IntegerType>(inputType);
+  unsigned width = intType.getWidth();
+  Type wideElementType = IntegerType::get(builder.getContext(), width * 2,
+                                          intType.getSignedness());
+  auto wideType = cast<ShapedType>(val.getType()).clone(wideElementType);
+  return ConvertOp::create(builder, loc, wideType, val);
+}
+
+static Value getConvertToUnsigned(OpBuilder& builder, Location loc, Value val) {
+  auto inputType = cast<ShapedType>(val.getType()).getElementType();
+  auto intType = cast<IntegerType>(inputType);
+  Type unsignedElementType = IntegerType::get(
+      builder.getContext(), intType.getWidth(), IntegerType::Unsigned);
+  auto unsignedType =
+      cast<ShapedType>(val.getType()).clone(unsignedElementType);
+  return ConvertOp::create(builder, loc, unsignedType, val);
+}
+
+// Helper to check if the element type of the shaped value is an integer
+// of the specified signedness and with width strictly less than n_bits.
+static bool isIntegerLessThanNBits(Value val, bool isSigned, uint32_t n_bits) {
+  auto shapedType = llvm::cast<ShapedType>(val.getType());
+  auto intType = llvm::cast<IntegerType>(shapedType.getElementType());
+  return (intType.isUnsigned() == !isSigned) && intType.getWidth() < n_bits;
+}
+
+// Helper to check if the element type of the shaped value is an integer
+// of the specified signedness and with width exactly equal to n_bits.
+static bool isIntegerWithNBits(Value val, bool isSigned, uint32_t n_bits) {
+  auto shapedType = llvm::cast<ShapedType>(val.getType());
+  auto intType = llvm::cast<IntegerType>(shapedType.getElementType());
+  return (intType.isUnsigned() == !isSigned) && intType.getWidth() == n_bits;
 }
 
 //===----------------------------------------------------------------------===//
@@ -1810,6 +1846,22 @@
   return output;
 }
 
+// Helper to compute cot derivative coefficients
+static std::vector<double> getCotDerivativeCoefficients(int n) {
+  std::vector<double> coeffs = {0.0, 1.0};
+  for (int k = 1; k <= n; ++k) {
+    std::vector<double> next_coeffs(coeffs.size() + 2, 0.0);
+    for (size_t i = 1; i < coeffs.size(); ++i) {
+      double c = coeffs[i];
+      if (c == 0.0) continue;
+      next_coeffs[i - 1] += i * c;
+      next_coeffs[i + 1] += i * c;
+    }
+    coeffs = std::move(next_coeffs);
+  }
+  return coeffs;
+}
+
 }  // namespace
 
 Value materializePolygamma(OpBuilder& rewriter, Location loc, ValueRange args) {
@@ -1833,6 +1885,83 @@
   Value result = mlir::stablehlo::MulOp::create(
       rewriter, loc,
       mlir::stablehlo::MulOp::create(rewriter, loc, sign, expLgammaNp1), zeta);
+
+  // Shift x into [-0.5, 0.5] for better precision near integers.
+  Value reducedX = mlir::stablehlo::AddOp::create(
+      rewriter, loc, x,
+      mlir::stablehlo::AbsOp::create(
+          rewriter, loc,
+          mlir::stablehlo::FloorOp::create(
+              rewriter, loc,
+              mlir::stablehlo::AddOp::create(
+                  rewriter, loc, x, getConstantLike(rewriter, loc, 0.5, x)))));
+
+  // t = cot(pi * reducedX) = cos(pi * reducedX) / sin(pi * reducedX)
+  Value pi = getConstantLike(rewriter, loc, M_PI, x);
+  Value piMulReducedX =
+      mlir::stablehlo::MulOp::create(rewriter, loc, pi, reducedX);
+  Value cos = mlir::stablehlo::CosineOp::create(rewriter, loc, piMulReducedX);
+  Value sin = mlir::stablehlo::SineOp::create(rewriter, loc, piMulReducedX);
+  Value t = mlir::stablehlo::DivOp::create(rewriter, loc, cos, sin);
+
+  Value nRound = mlir::stablehlo::FloorOp::create(rewriter, loc, n);
+  Value reflectedResult = result;
+
+  for (int64_t nVal = 3; nVal >= 1; --nVal) {
+    // Evaluate P_n(t) using Horner's method
+    std::vector<double> coeffs = getCotDerivativeCoefficients(nVal);
+    Value hornerSum = getConstantLike(rewriter, loc, coeffs.back(), x);
+    for (int i = static_cast<int>(coeffs.size()) - 2; i >= 0; --i) {
+      hornerSum = mlir::stablehlo::AddOp::create(
+          rewriter, loc,
+          mlir::stablehlo::MulOp::create(rewriter, loc, hornerSum, t),
+          getConstantLike(rewriter, loc, coeffs[i], x));
+    }
+
+    // cotTerm = (-1)^(n+1) * pi^(n+1) * P_n(t)
+    double factor = ((nVal % 2 == 0) ? -1.0 : 1.0) * std::pow(M_PI, nVal + 1);
+    Value cotTerm = mlir::stablehlo::MulOp::create(
+        rewriter, loc, getConstantLike(rewriter, loc, factor, x), hornerSum);
+
+    // polygamma(n, 1 - x)
+    double signVal = (nVal % 2 == 1) ? 1.0 : -1.0;
+    double factorialVal = 1.0;
+    for (int64_t i = 2; i <= nVal; ++i) factorialVal *= i;
+    double polygammaFactor = signVal * factorialVal;
+
+    Value oneSubX = mlir::stablehlo::SubtractOp::create(rewriter, loc, one, x);
+    Value nPlusOneConst =
+        getConstantLike(rewriter, loc, static_cast<double>(nVal + 1), x);
+    Value zetaReflect =
+        chlo::ZetaOp::create(rewriter, loc, nPlusOneConst, oneSubX);
+    Value polygammaReflect = mlir::stablehlo::MulOp::create(
+        rewriter, loc, getConstantLike(rewriter, loc, polygammaFactor, x),
+        zetaReflect);
+
+    // reflectedResult_n = cotTerm + (-1)^n * polygamma(n, 1 - x)
+    double reflectSign = (nVal % 2 == 0) ? 1.0 : -1.0;
+    Value reflectedResult_n = mlir::stablehlo::AddOp::create(
+        rewriter, loc, cotTerm,
+        mlir::stablehlo::MulOp::create(
+            rewriter, loc, getConstantLike(rewriter, loc, reflectSign, x),
+            polygammaReflect));
+
+    // select this reflectedResult_n if n == nVal
+    Value nValConst =
+        getConstantLike(rewriter, loc, static_cast<double>(nVal), n);
+    Value nEqVal = mlir::stablehlo::CompareOp::create(
+        rewriter, loc, nRound, nValConst,
+        mlir::stablehlo::ComparisonDirection::EQ);
+    reflectedResult = mlir::stablehlo::SelectOp::create(
+        rewriter, loc, nEqVal, reflectedResult_n, reflectedResult);
+  }
+
+  // Select reflectedResult if x < 0.5
+  Value half = getConstantLike(rewriter, loc, 0.5, x);
+  Value needToReflect = mlir::stablehlo::CompareOp::create(
+      rewriter, loc, x, half, mlir::stablehlo::ComparisonDirection::LT);
+  result = mlir::stablehlo::SelectOp::create(rewriter, loc, needToReflect,
+                                             reflectedResult, result);
 
   // Handle n = 0.
   Value zero = getConstantLike(rewriter, loc, 0.0, x);
@@ -2375,28 +2504,87 @@
         applyRaggedMask(rewriter, op.getLoc(), lhs, zero, start, limit, iotaM,
                         lhsTy, groupSizesTy.getShape());
 
-    // Slice RHS.
-    SmallVector<int64_t> rhsStartIndices(rhsRank, 0);
-    rhsStartIndices[rhsGroupDimension] = i;
-    SmallVector<int64_t> rhsLimitIndices(rhsTy.getShape());
-    rhsLimitIndices[rhsGroupDimension] = i + 1;
-    SmallVector<int64_t> rhsStrides(rhsRank, 1);
-    Value rhsSliced = mlir::stablehlo::SliceOp::create(
-        rewriter, op.getLoc(), rhs,
-        rewriter.getDenseI64ArrayAttr(rhsStartIndices),
-        rewriter.getDenseI64ArrayAttr(rhsLimitIndices),
-        rewriter.getDenseI64ArrayAttr(rhsStrides));
-
-    // Reshape RHS to remove group dim.
-    SmallVector<int64_t> rhsReshapedShape;
-    for (int64_t d = 0; d < rhsRank; ++d) {
-      if (d != rhsGroupDimension)
-        rhsReshapedShape.push_back(rhsTy.getShape()[d]);
-    }
-    Value rhsReshaped = mlir::stablehlo::ReshapeOp::create(
-        rewriter, op.getLoc(),
-        RankedTensorType::get(rhsReshapedShape, rhsTy.getElementType()),
-        rhsSliced);
+    Value rhsSliced;
+    Value rhsReshaped;
+    if (rhsTy.hasStaticShape()) {
+      SmallVector<int64_t> rhsStartIndices(rhsRank, 0);
+      rhsStartIndices[rhsGroupDimension] = i;
+      SmallVector<int64_t> rhsLimitIndices(rhsTy.getShape());
+      rhsLimitIndices[rhsGroupDimension] = i + 1;
+      SmallVector<int64_t> rhsStrides(rhsRank, 1);
+      rhsSliced = mlir::stablehlo::SliceOp::create(
+          rewriter, op.getLoc(), rhs,
+          rewriter.getDenseI64ArrayAttr(rhsStartIndices),
+          rewriter.getDenseI64ArrayAttr(rhsLimitIndices),
+          rewriter.getDenseI64ArrayAttr(rhsStrides));
+
+      SmallVector<int64_t> rhsReshapedShape;
+      for (int64_t d = 0; d < rhsRank; ++d) {
+        if (d != rhsGroupDimension)
+          rhsReshapedShape.push_back(rhsTy.getShape()[d]);
+      }
+      rhsReshaped = mlir::stablehlo::ReshapeOp::create(
+          rewriter, op.getLoc(),
+          RankedTensorType::get(rhsReshapedShape, rhsTy.getElementType()),
+          rhsSliced);
+    } else {
+      auto i64Type = rewriter.getI64Type();
+      SmallVector<Value> startParts, limitParts;
+      for (int64_t d = 0; d < rhsRank; ++d) {
+        if (d == rhsGroupDimension) {
+          Value sStart = mlir::stablehlo::ConstantOp::create(
+              rewriter, op.getLoc(), rewriter.getI64TensorAttr({i}));
+          startParts.push_back(sStart);
+          Value sLimit = mlir::stablehlo::ConstantOp::create(
+              rewriter, op.getLoc(), rewriter.getI64TensorAttr({i + 1}));
+          limitParts.push_back(sLimit);
+        } else {
+          Value sStart = mlir::stablehlo::ConstantOp::create(
+              rewriter, op.getLoc(), rewriter.getI64TensorAttr({0}));
+          startParts.push_back(sStart);
+          Value sLimit = mlir::stablehlo::GetDimensionSizeOp::create(
+              rewriter, op.getLoc(), rhs, d);
+          sLimit = mlir::stablehlo::ConvertOp::create(
+              rewriter, op.getLoc(), RankedTensorType::get({}, i64Type),
+              sLimit);
+          sLimit = mlir::stablehlo::ReshapeOp::create(
+              rewriter, op.getLoc(), RankedTensorType::get({1}, i64Type),
+              sLimit);
+          limitParts.push_back(sLimit);
+        }
+      }
+      auto rhs1DTy = RankedTensorType::get({rhsRank}, i64Type);
+      Value startTensor = mlir::stablehlo::ConcatenateOp::create(
+          rewriter, op.getLoc(), rhs1DTy, startParts, 0);
+      Value limitTensor = mlir::stablehlo::ConcatenateOp::create(
+          rewriter, op.getLoc(), rhs1DTy, limitParts, 0);
+      SmallVector<int64_t> ones(rhsRank, 1);
+      Value stridesTensor = mlir::stablehlo::ConstantOp::create(
+          rewriter, op.getLoc(), rewriter.getI64TensorAttr(ones));
+
+      SmallVector<int64_t> sliceShape(rhsTy.getShape());
+      sliceShape[rhsGroupDimension] = 1;
+      auto sliceTy = RankedTensorType::get(sliceShape, rhsTy.getElementType());
+      rhsSliced = mlir::stablehlo::RealDynamicSliceOp::create(
+          rewriter, op.getLoc(), sliceTy, rhs, startTensor, limitTensor,
+          stridesTensor);
+
+      SmallVector<Value> reshapeParts;
+      SmallVector<int64_t> newRhsShape;
+      for (int64_t d = 0; d < rhsRank; ++d) {
+        if (d != rhsGroupDimension) {
+          reshapeParts.push_back(limitParts[d]);
+          newRhsShape.push_back(rhsTy.getShape()[d]);
+        }
+      }
+      Value newShapeTensor = mlir::stablehlo::ConcatenateOp::create(
+          rewriter, op.getLoc(), RankedTensorType::get({rhsRank - 1}, i64Type),
+          reshapeParts, 0);
+      auto newRhsTy =
+          RankedTensorType::get(newRhsShape, rhsTy.getElementType());
+      rhsReshaped = mlir::stablehlo::DynamicReshapeOp::create(
+          rewriter, op.getLoc(), newRhsTy, rhsSliced, newShapeTensor);
+    }
 
     // Dot General.
     auto resultType = op.getResult().getType();
@@ -2581,9 +2769,31 @@
     auto type = cast<RankedTensorType>(res.getType());
     SmallVector<int64_t> newShape = {1};
     newShape.append(type.getShape().begin(), type.getShape().end());
-    reshapedResults.push_back(mlir::stablehlo::ReshapeOp::create(
-        rewriter, op.getLoc(),
-        RankedTensorType::get(newShape, type.getElementType()), res));
+    auto newType = RankedTensorType::get(newShape, type.getElementType());
+    if (type.hasStaticShape()) {
+      reshapedResults.push_back(mlir::stablehlo::ReshapeOp::create(
+          rewriter, op.getLoc(), newType, res));
+    } else {
+      SmallVector<Value> dimSizes;
+      Value one = mlir::stablehlo::ConstantOp::create(
+          rewriter, op.getLoc(), rewriter.getI64TensorAttr({1}));
+      dimSizes.push_back(one);
+      auto i64Type = rewriter.getI64Type();
+      for (int64_t d = 0; d < type.getRank(); ++d) {
+        Value s = mlir::stablehlo::GetDimensionSizeOp::create(
+            rewriter, op.getLoc(), res, d);
+        s = mlir::stablehlo::ConvertOp::create(
+            rewriter, op.getLoc(), RankedTensorType::get({}, i64Type), s);
+        s = mlir::stablehlo::ReshapeOp::create(
+            rewriter, op.getLoc(), RankedTensorType::get({1}, i64Type), s);
+        dimSizes.push_back(s);
+      }
+      Value newShapeTensor = mlir::stablehlo::ConcatenateOp::create(
+          rewriter, op.getLoc(),
+          RankedTensorType::get({type.getRank() + 1}, i64Type), dimSizes, 0);
+      reshapedResults.push_back(mlir::stablehlo::DynamicReshapeOp::create(
+          rewriter, op.getLoc(), newType, res, newShapeTensor));
+    }
   }
 
   rewriter.replaceOpWithNewOp<mlir::stablehlo::ConcatenateOp>(
diff --ruN a/stablehlo/stablehlo/transforms/StablehloRefineShapes.cpp b/stablehlo/stablehlo/transforms/StablehloRefineShapes.cpp
--- stablehlo/stablehlo/transforms/StablehloRefineShapes.cpp
+++ stablehlo/stablehlo/transforms/StablehloRefineShapes.cpp
@@ -701,6 +701,21 @@
   }
 };
 
+struct RefineRaggedDotOpPattern : public OpRewritePattern<chlo::RaggedDotOp> {
+  using OpRewritePattern::OpRewritePattern;
+  LogicalResult matchAndRewrite(chlo::RaggedDotOp op,
+                                PatternRewriter& rewriter) const override {
+    SmallVector<ShapedTypeComponents> inferredReturnShapes;
+    if (failed(chlo::RaggedDotOp::inferReturnTypeComponents(
+            op.getContext(), /*location=*/{}, op->getOperands(),
+            op->getAttrDictionary(), op->getPropertiesStorage(),
+            op->getRegions(), inferredReturnShapes)))
+      return rewriter.notifyMatchFailure(op,
+                                         "inferReturnTypeComponents failed");
+    return refineReturnTypes(rewriter, op, inferredReturnShapes);
+  }
+};
+
 struct RefineDynamicBroadcastInDimOpPattern
     : public OpRewritePattern<DynamicBroadcastInDimOp> {
   using OpRewritePattern::OpRewritePattern;
@@ -1224,6 +1239,7 @@
   patterns->add<RefineCustomCallOpPattern>(context);
   patterns->add<RefineDotGeneralOpPattern>(context);
   patterns->add<RefineDotOpPattern>(context);
+  patterns->add<RefineRaggedDotOpPattern>(context);
   patterns->add<RefineDynamicBroadcastInDimOpPattern>(context);
   patterns->add<RefineDynamicConvOpPattern>(context);
   patterns->add<RefineDynamicIotaOpPattern>(context);

