diff --ruN a/stablehlo/docs/spec.md b/stablehlo/docs/spec.md
--- stablehlo/docs/spec.md
+++ stablehlo/docs/spec.md
@@ -4733,10 +4733,12 @@
 Receives data from a channel with `channel_id` and produces `results`.
 
 If `is_host_transfer` is `true`, then the operation transfers data from the
-host. Otherwise, it transfers data from another device. What this means is
-implementation-defined. This flag duplicates the information provided in
+host. Otherwise, it transfers data from another device based on the values of
+`source_target_pairs`. This flag duplicates the information provided in
 `channel_type`, so in the future we are planning to only keep one of them
-([#666](https://github.com/openxla/stablehlo/issues/666)).
+([#666](https://github.com/openxla/stablehlo/issues/666)). If `is_host_transfer`
+= `false` and `source_target_pairs` is `None` or empty, it is considered
+undefined behavior.
 
 `results` consist of payload values which come first and a token which comes
 last. In the future, we are planning to split the payload and the token into two
@@ -4745,12 +4747,13 @@
 
 #### Inputs
 
-| Label | Name               | Type                                            | Constraints |
-|-------|--------------------|-------------------------------------------------|-------------|
-| (I1)  | `token`            | `token`                                         | (C4)        |
-| (I2)  | `channel_id`       | constant of type `si64`                         |             |
-| (I3)  | `channel_type`     | enum of `DEVICE_TO_DEVICE` and `HOST_TO_DEVICE` | (C1)        |
-| (I4)  | `is_host_transfer` | constant of type `i1`                           | (C1)        |
+| Label | Name                  | Type                                            | Constraints   |
+|-------|-----------------------|-------------------------------------------------|---------------|
+| (I1)  | `token`               | `token`                                         |               |
+| (I2)  | `channel_id`          | constant of type `si64`                         |               |
+| (I3)  | `channel_type`        | enum of `DEVICE_TO_DEVICE` and `DEVICE_TO_HOST` | (C5)          |
+| (I4)  | `is_host_transfer`    | constant of type `i1`                           | (C5-C6)       |
+| (I5)  | `source_target_pairs` | 2-dimensional tensor constant of type `si64`    | (C1-C4), (C6)       |
 
 #### Outputs
 
@@ -4760,19 +4763,23 @@
 
 #### Constraints
 
-* (C1) `channel_type` is defined as:
-  * `HOST_TO_DEVICE` if `is_host_transfer = true`,
+* (C1) `dim(source_target_pairs, 1) = 2`.
+* (C2) `is_unique(source_target_pairs[:, 0])`.
+* (C3) `is_unique(source_target_pairs[:, 1])`.
+* (C4) `0 <= source_target_pairs < N`, where `N` is defined as:
+  * `num_replicas` if `cross_replica` is used.
+  * `num_partitions` if `cross_partition` is used.
+* (C5) `channel_type` is defined as:
+  * `DEVICE_TO_HOST` if `is_host_transfer = true`,
   * `DEVICE_TO_DEVICE` otherwise.
-* (C2) `0 < size(results)`.
-* (C3) `is_empty(result[:-1])` or `is_tensor(type(results[:-1]))`.
-* (C4) `is_token(type(results[-1]))`.
 
 #### Examples
 
 ```mlir
 %results0, %results1 = "stablehlo.recv"(%token) {
-  channel_handle = #stablehlo.channel_handle<handle = 1, type = 3>,
-  is_host_transfer = true
+  channel_handle = #stablehlo.channel_handle<handle = 0, type = 1>,
+  is_host_transfer = false,
+  source_target_pairs = dense<[[0, 1], [1, 2]]> : tensor<2x2xi64>
 } : (!stablehlo.token) -> (tensor<2x2xi64>, !stablehlo.token)
 ```
 
@@ -5855,23 +5862,28 @@
 
 #### Semantics
 
-Sends `inputs` to a channel `channel_id` and produces a `result` token.
+Sends `inputs` to a channel `channel_id`. Inputs are then sent to other devices
+in the order specified by `source_target_pairs`. The operation produces a
+`result` token.
 
 If `is_host_transfer` is `true`, then the operation transfers data to the
-host. Otherwise, it transfers data to another device. What this means is
-implementation-defined. This flag duplicates the information provided in
+host. Otherwise, it transfers data to another device based on the values of
+`source_target_pairs`. This flag duplicates the information provided in
 `channel_type`, so in the future we are planning to only keep one of them
-([#666](https://github.com/openxla/stablehlo/issues/666)).
-
-#### Inputs
-
-| Label | Name               | Type                                            | Constraints |
-|-------|--------------------|-------------------------------------------------|-------------|
-| (I1)  | `inputs`           | variadic number of tensors or quantized tensors |             |
-| (I2)  | `token`            | `token`                                         |             |
-| (I3)  | `channel_id`       | constant of type `si64`                         |             |
-| (I4)  | `channel_type`     | enum of `DEVICE_TO_DEVICE` and `DEVICE_TO_HOST` | (C1)        |
-| (I5)  | `is_host_transfer` | constant of type `i1`                           | (C1)        |
+([#666](https://github.com/openxla/stablehlo/issues/666)). If `is_host_transfer`
+= `false` and `source_target_pairs` is `None` or empty, it is considered
+undefined behavior.
+
+#### Inputs
+
+| Label | Name                  | Type                                            | Constraints   |
+|-------|-----------------------|-------------------------------------------------|---------------|
+| (I1)  | `inputs`              | variadic number of tensors or quantized tensors |               |
+| (I2)  | `token`               | `token`                                         |               |
+| (I3)  | `channel_id`          | constant of type `si64`                         |               |
+| (I4)  | `channel_type`        | enum of `DEVICE_TO_DEVICE` and `DEVICE_TO_HOST` | (C5)          |
+| (I5)  | `is_host_transfer`    | constant of type `i1`                           | (C5-C6)       |
+| (I6)  | `source_target_pairs` | 2-dimensional tensor constant of type `si64`    | (C1-C4), (C6) |
 
 #### Outputs
 
@@ -5881,7 +5893,13 @@
 
 #### Constraints
 
-* (C1) `channel_type` is defined as:
+* (C1) `dim(source_target_pairs, 1) = 2`.
+* (C2) `is_unique(source_target_pairs[:, 0])`.
+* (C3) `is_unique(source_target_pairs[:, 1])`.
+* (C4) `0 <= source_target_pairs < N`, where `N` is defined as:
+  * `num_replicas` if `cross_replica` is used.
+  * `num_partitions` if `cross_partition` is used.
+* (C5) `channel_type` is defined as:
   * `DEVICE_TO_HOST` if `is_host_transfer = true`,
   * `DEVICE_TO_DEVICE` otherwise.
 
@@ -5889,8 +5907,9 @@
 
 ```mlir
 %result = "stablehlo.send"(%operand, %token) {
-  channel_handle = #stablehlo.channel_handle<handle = 1, type = 2>,
-  is_host_transfer = true
+  channel_handle = #stablehlo.channel_handle<handle = 0, type = 1>,
+  is_host_transfer = false,
+  source_target_pairs = dense<[[0, 1], [1, 2]]> : tensor<2x2xi64>
 } : (tensor<2x2xi64>, !stablehlo.token) -> !stablehlo.token
 ```
 
diff --ruN a/stablehlo/stablehlo/dialect/StablehloOps.h b/stablehlo/stablehlo/dialect/StablehloOps.h
--- stablehlo/stablehlo/dialect/StablehloOps.h
+++ stablehlo/stablehlo/dialect/StablehloOps.h
@@ -179,7 +179,8 @@
 template <typename OpTy>
 void buildReduceBody(Type elementType, Region &body, OpBuilder &builder) {
   OpBuilder::InsertionGuard guard(builder);
-  Block *block = builder.createBlock(&body);
+  if (body.getBlocks().empty()) builder.createBlock(&body);
+  Block *block = &body.getBlocks().front();
 
   // Block arguments are scalars of the given element type.
   Type type = RankedTensorType::get(/*shape=*/{}, elementType);
diff --ruN a/stablehlo/stablehlo/dialect/StablehloOps.td b/stablehlo/stablehlo/dialect/StablehloOps.td
--- stablehlo/stablehlo/dialect/StablehloOps.td
+++ stablehlo/stablehlo/dialect/StablehloOps.td
@@ -1229,8 +1229,9 @@
     Example:
     ```mlir
     %result = "stablehlo.send"(%operand, %token) {
-      channel_handle = #stablehlo.channel_handle<handle = 1, type = 2>,
-      is_host_transfer = true
+      channel_handle = #stablehlo.channel_handle<handle = 0, type = 1>,
+      is_host_transfer = false,
+      source_target_pairs = dense<[[0, 1], [1, 2]]> : tensor<2x2xi64>
     } : (tensor<2x2xi64>, !stablehlo.token) -> !stablehlo.token
     ```
   }];
@@ -1239,10 +1240,16 @@
     Variadic<HLO_TensorOrPerAxisQuantizedTensor>:$inputs, /*send_i1*/
     HLO_Token:$token, /*send_i2*/
     StableHLO_ChannelHandle:$channel_handle, /*send_i3_i4*/
-    DefaultValuedOptionalAttr<BoolAttr, "false">:$is_host_transfer /*send_i5*/
+    DefaultValuedOptionalAttr<BoolAttr, "false">:$is_host_transfer, /*send_i5*/
+    OptionalAttr<I64ElementsAttr>:$source_target_pairs /*send_i6*/
   );
 
   let results = (outs HLO_Token);
+  let builders = [
+    OpBuilder<(ins
+      "::mlir::Type":$result_type, "::mlir::Value":$operand,
+      "::mlir::DenseIntElementsAttr":$source_target_pairs,
+      "::mlir::stablehlo::ChannelHandleAttr":$channel_handle)>];
 }
 
 def StableHLO_RecvOp : StableHLO_Op<"recv", [
@@ -1259,8 +1266,9 @@
     Example:
     ```mlir
     %results:2 = "stablehlo.recv"(%token) {
-      channel_handle = #stablehlo.channel_handle<handle = 1, type = 3>,
-      is_host_transfer = true
+      channel_handle = #stablehlo.channel_handle<handle = 0, type = 1>,
+      is_host_transfer = false,
+      source_target_pairs = dense<[[0, 1], [1, 2]]> : tensor<2x2xi64>
     } : (!stablehlo.token) -> (tensor<2x2xi64>, !stablehlo.token)
     ```
   }];
@@ -1268,8 +1276,14 @@
   let arguments = (ins
     HLO_Token:$token, /*recv_i1*/
     StableHLO_ChannelHandle:$channel_handle, /*recv_i2_i3*/
-    DefaultValuedOptionalAttr<BoolAttr, "false">:$is_host_transfer /*recv_i4*/
-  );
+    DefaultValuedOptionalAttr<BoolAttr, "false">:$is_host_transfer, /*recv_i4*/
+    OptionalAttr<I64ElementsAttr>:$source_target_pairs /*recv_i5*/
+  );
+  let builders = [
+    OpBuilder<(ins
+      "::mlir::Type":$result_type, "::mlir::Value":$operand,
+      "::mlir::DenseIntElementsAttr":$source_target_pairs,
+      "::mlir::stablehlo::ChannelHandleAttr":$channel_handle)>];
 
   let results = (outs Variadic<HLO_StaticShapeTensorOrPerAxisQuantizedTensorOrToken>);
   let hasVerifier = 1;
diff --ruN a/stablehlo/stablehlo/dialect/TypeInference.cpp b/stablehlo/stablehlo/dialect/TypeInference.cpp
--- stablehlo/stablehlo/dialect/TypeInference.cpp
+++ stablehlo/stablehlo/dialect/TypeInference.cpp
@@ -957,12 +957,12 @@
 
 // Returns the types of the terminator arguments of the input  mlir::Block
 // 'block'.
-FailureOr<SmallVector<ShapedType>> getAccumulatorTypes(
-    std::optional<Location> loc, Region& region) {
-  if (region.empty()) {
-    return emitOptionalError(
-        loc, "Expects non-empty reduction block for type inference");
-  }
+// Falls back to using the input types if the region is not set.
+// If different precision body is required, don't use TypeInference APIs.
+SmallVector<ShapedType> getAccumulatorTypesOrInputTypes(
+    std::optional<Location> loc, Region& region,
+    ArrayRef<ShapedType> inputTypes) {
+  if (region.empty()) return llvm::to_vector(inputTypes);
 
   Block& block = region.front();
   return llvm::map_to_vector(
@@ -1894,12 +1894,11 @@
   auto inputArgTensorTypes = llvm::map_to_vector(
       inputTypes, [](Type t) { return cast<ShapedType>(t); });
   // all_reduce_c6, all_reduce_c7
-  auto accumulatorTypesOrErr = getAccumulatorTypes(location, computation);
-  if (failed(accumulatorTypesOrErr)) return failure();
+  auto accumulatorTypes = getAccumulatorTypesOrInputTypes(location, computation,
+                                                          inputArgTensorTypes);
   for (size_t inputIdx = 0; inputIdx < inputTypes.size(); ++inputIdx) {
-    inferredReturnShapes.emplace_back(
-        getSameShapeTensorType(inputArgTensorTypes[inputIdx],
-                               (*accumulatorTypesOrErr)[0].getElementType()));
+    inferredReturnShapes.emplace_back(getSameShapeTensorType(
+        inputArgTensorTypes[inputIdx], accumulatorTypes[0].getElementType()));
   }
 
   return success();
@@ -3089,10 +3088,10 @@
           location, inputArgTensorTypes, dimensions, newDimensions, encoding)))
     return failure();
   // reduce_c3, reduce_c7, reduce_c8
-  auto accumulatorTypesOrErr = getAccumulatorTypes(location, body);
-  if (failed(accumulatorTypesOrErr)) return failure();
+  auto accumulatorTypes =
+      getAccumulatorTypesOrInputTypes(location, body, inputArgTensorTypes);
   for (uint64_t inputIdx = 0; inputIdx < inputTypes.size(); ++inputIdx) {
-    Type elementType = (*accumulatorTypesOrErr)[inputIdx].getElementType();
+    Type elementType = accumulatorTypes[inputIdx].getElementType();
     inferredReturnShapes.emplace_back(newDimensions, elementType, encoding);
   }
 
@@ -3122,20 +3121,20 @@
     return failure();
 
   // reduce_window_c1, reduce_window_c14...reduce_window_c16
-  auto accumulatorTypesOrErr = getAccumulatorTypes(location, body);
-  if (failed(accumulatorTypesOrErr)) return failure();
+  auto accumulatorTypes =
+      getAccumulatorTypesOrInputTypes(location, body, inputTypes);
   for (size_t i = 0; i < inputTypes.size(); ++i) {
     auto inputRankedType = cast<RankedTensorType>(inputs[i].getType());
     auto resultShape =
         inferWindowOutputShape(inputTypes[i].getShape(), inferredWindow);
     auto inputBounds = encodingToBounds(inputRankedType.getEncoding());
     if (inputBounds.empty()) {
-      inferredReturnShapes.emplace_back(
-          resultShape, (*accumulatorTypesOrErr)[i].getElementType());
+      inferredReturnShapes.emplace_back(resultShape,
+                                        accumulatorTypes[i].getElementType());
     } else {
       auto resultBounds = inferWindowOutputShape(inputBounds, inferredWindow);
       inferredReturnShapes.emplace_back(
-          resultShape, (*accumulatorTypesOrErr)[i].getElementType(),
+          resultShape, accumulatorTypes[i].getElementType(),
           boundsToEncoding(inputRankedType.getEncoding(), resultBounds));
     }
   }
@@ -3196,12 +3195,14 @@
                              ValueRange inputs, Region& updateComputation,
                              SmallVectorImpl<Type>& inferredReturnTypes) {
   // scatter_c24, scatter_c25
-  auto accumulatorTypesOrErr = getAccumulatorTypes(location, updateComputation);
-  if (failed(accumulatorTypesOrErr)) return failure();
+  auto inputTypes = llvm::map_to_vector(
+      inputs.getTypes(), [](Type t) { return cast<ShapedType>(t); });
+  auto accumulatorTypes =
+      getAccumulatorTypesOrInputTypes(location, updateComputation, inputTypes);
   for (uint64_t inputIdx = 0; inputIdx < inputs.size(); ++inputIdx) {
     auto inputShapedTy = cast<ShapedType>(inputs[inputIdx].getType());
     inferredReturnTypes.push_back(getSameShapeTensorType(
-        inputShapedTy, (*accumulatorTypesOrErr)[inputIdx].getElementType()));
+        inputShapedTy, accumulatorTypes[inputIdx].getElementType()));
   }
   return success();
 }
@@ -3235,11 +3236,12 @@
     std::optional<Location> location, Value operand, Region& scatter,
     SmallVectorImpl<Type>& inferredReturnTypes) {
   // select_and_scatter_c11, select_and_scatter_c12
-  auto accumulatorTypesOrErr = getAccumulatorTypes(location, scatter);
-  if (failed(accumulatorTypesOrErr)) return failure();
+  auto inputType = cast<ShapedType>(operand.getType());
+  auto accumulatorTypes =
+      getAccumulatorTypesOrInputTypes(location, scatter, {inputType});
   auto operandShapedTy = cast<ShapedType>(operand.getType());
   inferredReturnTypes.push_back(getSameShapeTensorType(
-      operandShapedTy, (*accumulatorTypesOrErr)[0].getElementType()));
+      operandShapedTy, accumulatorTypes[0].getElementType()));
   return success();
 }
 
@@ -4618,13 +4620,12 @@
   }
 
   // reduce_scatter_c9
-  auto accumulatorTypesOrErr = getAccumulatorTypes(location, computation);
-  if (failed(accumulatorTypesOrErr)) return failure();
-  if (resultType.getElementType() !=
-      (*accumulatorTypesOrErr)[0].getElementType()) {
+  auto accumulatorTypes =
+      getAccumulatorTypesOrInputTypes(location, computation, {operandType});
+  if (resultType.getElementType() != accumulatorTypes[0].getElementType()) {
     return emitOptionalError(location, "result element-type is expected to be ",
-                             (*accumulatorTypesOrErr)[0].getElementType(),
-                             ", but got ", resultType.getElementType());
+                             accumulatorTypes[0].getElementType(), ", but got ",
+                             resultType.getElementType());
   }
 
   return success();
diff --ruN a/stablehlo/stablehlo/dialect/Version.h b/stablehlo/stablehlo/dialect/Version.h
--- stablehlo/stablehlo/dialect/Version.h
+++ stablehlo/stablehlo/dialect/Version.h
@@ -38,7 +38,7 @@
   static FailureOr<Version> fromString(llvm::StringRef versionRef);
 
   /// Return a Version representing the current VHLO dialect version.
-  static Version getCurrentVersion() { return Version(1, 11, 1); }
+  static Version getCurrentVersion() { return Version(1, 12, 0); }
 
   /// Return a Version representing the minimum supported VHLO dialect version.
   static Version getMinimumVersion() { return Version(0, 9, 0); }
diff --ruN a/stablehlo/stablehlo/dialect/VhloDialect.td b/stablehlo/stablehlo/dialect/VhloDialect.td
--- stablehlo/stablehlo/dialect/VhloDialect.td
+++ stablehlo/stablehlo/dialect/VhloDialect.td
@@ -50,6 +50,7 @@
       1.9.0: Add `ResultAccuracy` attribute to `exp` op.
       1.10.0: Add `ResultAccuracy` attribute to `cbrt`, `cosine`, `exponential`, `exponential_minus_one`, `log`, `log_plus_one`, `logistic`, `rsqrt`, `sine`, `sqrt`, `tan` and `tanh` ops.
       1.11.0: Allow (de)serializing VHLO programs mixed with potentially unstable dialects.
+      1.12.0: Add `source_target_pairs` attribute to `send` and `recv` ops.
   }];
 
   let useDefaultAttributePrinterParser = 0;
diff --ruN a/stablehlo/stablehlo/dialect/VhloOps.td b/stablehlo/stablehlo/dialect/VhloOps.td
--- stablehlo/stablehlo/dialect/VhloOps.td
+++ stablehlo/stablehlo/dialect/VhloOps.td
@@ -896,12 +896,23 @@
   let results = (outs VHLO_AnyType:$result);
 }
 
-def VHLO_RecvOpV1 : VHLO_Op<"recv_v1", "0.9.0", "current"> {
+def VHLO_RecvOpV1 : VHLO_Op<"recv_v1", "0.9.0", "1.11.0"> {
   let arguments = (ins
     VHLO_AnyType:$token,
     VHLO_AnyAttr:$channel_id,
     VHLO_AnyAttr:$channel_type,
     VHLO_AnyAttr:$is_host_transfer
+  );
+  let results = (outs Variadic<VHLO_AnyType>:$results);
+}
+
+def VHLO_RecvOpV2 : VHLO_Op<"recv_v2", "1.12.0", "current"> {
+  let arguments = (ins
+    VHLO_AnyType:$token,
+    VHLO_AnyAttr:$channel_id,
+    VHLO_AnyAttr:$channel_type,
+    VHLO_AnyAttr:$is_host_transfer,
+    VHLO_AnyAttr:$source_target_pairs
   );
   let results = (outs Variadic<VHLO_AnyType>:$results);
 }
@@ -1085,13 +1096,25 @@
   let results = (outs VHLO_AnyType:$result);
 }
 
-def VHLO_SendOpV1 : VHLO_Op<"send_v1", "0.9.0", "current"> {
+def VHLO_SendOpV1 : VHLO_Op<"send_v1", "0.9.0", "1.11.0"> {
   let arguments = (ins
     Variadic<VHLO_AnyType>:$inputs,
     VHLO_AnyType:$token,
     VHLO_AnyAttr:$channel_id,
     VHLO_AnyAttr:$channel_type,
     VHLO_AnyAttr:$is_host_transfer
+  );
+  let results = (outs VHLO_AnyType:$result);
+}
+
+def VHLO_SendOpV2 : VHLO_Op<"send_v2", "1.12.0", "current"> {
+  let arguments = (ins
+    Variadic<VHLO_AnyType>:$inputs,
+    VHLO_AnyType:$token,
+    VHLO_AnyAttr:$channel_id,
+    VHLO_AnyAttr:$channel_type,
+    VHLO_AnyAttr:$is_host_transfer,
+    VHLO_AnyAttr:$source_target_pairs
   );
   let results = (outs VHLO_AnyType:$result);
 }
diff --ruN a/stablehlo/stablehlo/tests/vhlo/stablehlo_legalize_to_vhlo.1_12_0.mlir b/stablehlo/stablehlo/tests/vhlo/stablehlo_legalize_to_vhlo.1_12_0.mlir
--- stablehlo/stablehlo/tests/vhlo/stablehlo_legalize_to_vhlo.1_12_0.mlir
+++ stablehlo/stablehlo/tests/vhlo/stablehlo_legalize_to_vhlo.1_12_0.mlir
@@ -0,0 +1,2979 @@
+// RUN: stablehlo-opt --mlir-print-op-generic %s.bc | FileCheck %s
+// RUN: stablehlo-translate --deserialize %s.bc | stablehlo-translate --serialize --target=1.12.0 | stablehlo-opt --mlir-print-op-generic | FileCheck %s
+// RUN: stablehlo-translate --deserialize %s.bc | stablehlo-opt > %t.0
+// RUN: stablehlo-opt --strip-debuginfo %s > %t.1
+// RUN: diff %t.0 %t.1
+// RUN: stablehlo-translate --serialize --target=1.12.0 --strip-debuginfo %s > %t.2
+// RUN: diff %s.bc %t.2
+// RUN: stablehlo-opt --stablehlo-legalize-to-vhlo -emit-bytecode -debug-only=vhlo-bytecode %s 2>&1 | FileCheck --check-prefix=CHECK-WARN %s
+// RUN: stablehlo-opt --stablehlo-legalize-to-vhlo -emit-bytecode %s | stablehlo-opt -debug-only=vhlo-bytecode 2>&1 | FileCheck --check-prefix=CHECK-WARN %s
+
+// CHECK-WARN-NOT: Not Implemented
+
+// ============ ATTRIBUTES ============
+
+// CHECK-LABEL: "attr_comparison_direction_eq"
+// CHECK-NEXT: (%[[ARG0:.*]]: {{.*}}, %[[ARG1:.*]]: {{.*}})
+func.func @attr_comparison_direction_eq(%arg0: tensor<f32>, %arg1: tensor<f32>) -> tensor<i1> {
+  %0 = "stablehlo.compare"(%arg0, %arg1) {
+    // CHECK: comparison_direction = #vhlo<comparison_direction_v1 EQ>
+    comparison_direction = #stablehlo<comparison_direction EQ>
+  } : (tensor<f32>, tensor<f32>) -> tensor<i1>
+  func.return %0 : tensor<i1>
+}
+
+// CHECK-LABEL: "attr_comparison_direction_ne"
+// CHECK-NEXT: (%[[ARG0:.*]]: {{.*}}, %[[ARG1:.*]]: {{.*}})
+func.func @attr_comparison_direction_ne(%arg0: tensor<f32>, %arg1: tensor<f32>) -> tensor<i1> {
+  %0 = "stablehlo.compare"(%arg0, %arg1) {
+    // CHECK: comparison_direction = #vhlo<comparison_direction_v1 NE>
+    comparison_direction = #stablehlo<comparison_direction NE>
+  } : (tensor<f32>, tensor<f32>) -> tensor<i1>
+  func.return %0 : tensor<i1>
+}
+
+// CHECK-LABEL: "attr_comparison_direction_ge"
+// CHECK-NEXT: (%[[ARG0:.*]]: {{.*}}, %[[ARG1:.*]]: {{.*}})
+func.func @attr_comparison_direction_ge(%arg0: tensor<f32>, %arg1: tensor<f32>) -> tensor<i1> {
+  %0 = "stablehlo.compare"(%arg0, %arg1) {
+    // CHECK: comparison_direction = #vhlo<comparison_direction_v1 GE>
+    comparison_direction = #stablehlo<comparison_direction GE>
+  } : (tensor<f32>, tensor<f32>) -> tensor<i1>
+  func.return %0 : tensor<i1>
+}
+
+// CHECK-LABEL: "attr_comparison_direction_gt"
+// CHECK-NEXT: (%[[ARG0:.*]]: {{.*}}, %[[ARG1:.*]]: {{.*}})
+func.func @attr_comparison_direction_gt(%arg0: tensor<f32>, %arg1: tensor<f32>) -> tensor<i1> {
+  %0 = "stablehlo.compare"(%arg0, %arg1) {
+    // CHECK: comparison_direction = #vhlo<comparison_direction_v1 GT>
+    comparison_direction = #stablehlo<comparison_direction GT>
+  } : (tensor<f32>, tensor<f32>) -> tensor<i1>
+  func.return %0 : tensor<i1>
+}
+
+// CHECK-LABEL: "attr_comparison_direction_le"
+// CHECK-NEXT: (%[[ARG0:.*]]: {{.*}}, %[[ARG1:.*]]: {{.*}})
+func.func @attr_comparison_direction_le(%arg0: tensor<f32>, %arg1: tensor<f32>) -> tensor<i1> {
+  %0 = "stablehlo.compare"(%arg0, %arg1) {
+    // CHECK: comparison_direction = #vhlo<comparison_direction_v1 LE>
+    comparison_direction = #stablehlo<comparison_direction LE>
+  } : (tensor<f32>, tensor<f32>) -> tensor<i1>
+  func.return %0 : tensor<i1>
+}
+
+// CHECK-LABEL: "attr_comparison_direction_lt"
+// CHECK-NEXT: (%[[ARG0:.*]]: {{.*}}, %[[ARG1:.*]]: {{.*}})
+func.func @attr_comparison_direction_lt(%arg0: tensor<f32>, %arg1: tensor<f32>) -> tensor<i1> {
+  %0 = "stablehlo.compare"(%arg0, %arg1) {
+    // CHECK: comparison_direction = #vhlo<comparison_direction_v1 LT>
+    comparison_direction = #stablehlo<comparison_direction LT>
+  } : (tensor<f32>, tensor<f32>) -> tensor<i1>
+  func.return %0 : tensor<i1>
+}
+
+// CHECK-LABEL: "attr_comparison_type_notype"
+// CHECK-NEXT: (%[[ARG0:.*]]: {{.*}}, %[[ARG1:.*]]: {{.*}})
+func.func @attr_comparison_type_notype(%arg0: tensor<f32>, %arg1: tensor<f32>) -> tensor<i1> {
+  %0 = "stablehlo.compare"(%arg0, %arg1) {
+    comparison_direction = #stablehlo<comparison_direction EQ>
+    // CHECK: compare_type = #vhlo<comparison_type_v1 NOTYPE>
+  } : (tensor<f32>, tensor<f32>) -> tensor<i1>
+  func.return %0 : tensor<i1>
+}
+
+// CHECK-LABEL: "attr_comparison_type_float"
+// CHECK-NEXT: (%[[ARG0:.*]]: {{.*}}, %[[ARG1:.*]]: {{.*}})
+func.func @attr_comparison_type_float(%arg0: tensor<f32>, %arg1: tensor<f32>) -> tensor<i1> {
+  %0 = "stablehlo.compare"(%arg0, %arg1) {
+    comparison_direction = #stablehlo<comparison_direction EQ>,
+    // CHECK: compare_type = #vhlo<comparison_type_v1 FLOAT>,
+    compare_type = #stablehlo<comparison_type FLOAT>
+  } : (tensor<f32>, tensor<f32>) -> tensor<i1>
+  func.return %0 : tensor<i1>
+}
+
+// CHECK-LABEL: "attr_comparison_type_totalorder"
+// CHECK-NEXT: (%[[ARG0:.*]]: {{.*}}, %[[ARG1:.*]]: {{.*}})
+func.func @attr_comparison_type_totalorder(%arg0: tensor<f32>, %arg1: tensor<f32>) -> tensor<i1> {
+  %0 = "stablehlo.compare"(%arg0, %arg1) {
+    comparison_direction = #stablehlo<comparison_direction EQ>,
+    // CHECK: compare_type = #vhlo<comparison_type_v1 TOTALORDER>,
+    compare_type = #stablehlo<comparison_type TOTALORDER>
+  } : (tensor<f32>, tensor<f32>) -> tensor<i1>
+  func.return %0 : tensor<i1>
+}
+
+// CHECK-LABEL: "attr_comparison_type_signed"
+// CHECK-NEXT: (%[[ARG0:.*]]: {{.*}}, %[[ARG1:.*]]: {{.*}})
+func.func @attr_comparison_type_signed(%arg0: tensor<f32>, %arg1: tensor<f32>) -> tensor<i1> {
+  %0 = "stablehlo.compare"(%arg0, %arg1) {
+    comparison_direction = #stablehlo<comparison_direction EQ>,
+    // CHECK: compare_type = #vhlo<comparison_type_v1 SIGNED>,
+    compare_type = #stablehlo<comparison_type SIGNED>
+  } : (tensor<f32>, tensor<f32>) -> tensor<i1>
+  func.return %0 : tensor<i1>
+}
+
+// CHECK-LABEL: "attr_comparison_type_unsigned"
+// CHECK-NEXT: (%[[ARG0:.*]]: {{.*}}, %[[ARG1:.*]]: {{.*}})
+func.func @attr_comparison_type_unsigned(%arg0: tensor<f32>, %arg1: tensor<f32>) -> tensor<i1> {
+  %0 = "stablehlo.compare"(%arg0, %arg1) {
+    comparison_direction = #stablehlo<comparison_direction EQ>,
+    // CHECK: compare_type = #vhlo<comparison_type_v1 UNSIGNED>,
+    compare_type = #stablehlo<comparison_type UNSIGNED>
+  } : (tensor<f32>, tensor<f32>) -> tensor<i1>
+  func.return %0 : tensor<i1>
+}
+
+// ConvDimensionNumbers aka #stablehlo.conv is covered below.
+
+// CHECK-LABEL: "attr_custom_call_api_version_unspecified"
+// CHECK-NEXT: (%[[ARG0:.*]]: {{.*}})
+func.func @attr_custom_call_api_version_unspecified(%arg0: tensor<f32>) -> tensor<f32> {
+  %0 = "stablehlo.custom_call"(%arg0) {
+    call_target_name = "foo",
+    // CHECK: api_version = #vhlo<api_version_v1 API_VERSION_UNSPECIFIED>
+    api_version = 0 : i32
+  } : (tensor<f32>) -> tensor<f32>
+  func.return %0 : tensor<f32>
+}
+
+// CHECK-LABEL: "attr_custom_call_api_version_original"
+// CHECK-NEXT: (%[[ARG0:.*]]: {{.*}})
+func.func @attr_custom_call_api_version_original(%arg0: tensor<f32>) -> tensor<f32> {
+  %0 = "stablehlo.custom_call"(%arg0) {
+    call_target_name = "foo",
+    // CHECK: api_version = #vhlo<api_version_v1 API_VERSION_ORIGINAL>
+    api_version = 1 : i32
+  } : (tensor<f32>) -> tensor<f32>
+  func.return %0 : tensor<f32>
+}
+
+// CHECK-LABEL: "attr_custom_call_api_version_status_returning"
+// CHECK-NEXT: (%[[ARG0:.*]]: {{.*}})
+func.func @attr_custom_call_api_version_status_returning(%arg0: tensor<f32>) -> tensor<f32> {
+  %0 = "stablehlo.custom_call"(%arg0) {
+    call_target_name = "foo",
+    // CHECK: api_version = #vhlo<api_version_v1 API_VERSION_STATUS_RETURNING>
+    api_version = 2 : i32
+  } : (tensor<f32>) -> tensor<f32>
+  func.return %0 : tensor<f32>
+}
+
+// CHECK-LABEL: "attr_custom_call_api_version_status_returning_unified"
+// CHECK-NEXT: (%[[ARG0:.*]]: {{.*}})
+func.func @attr_custom_call_api_version_status_returning_unified(%arg0: tensor<f32>) -> tensor<f32> {
+  %0 = "stablehlo.custom_call"(%arg0) {
+    call_target_name = "foo",
+    // CHECK: api_version = #vhlo<api_version_v1 API_VERSION_STATUS_RETURNING_UNIFIED>
+    api_version = 3 : i32
+  } : (tensor<f32>) -> tensor<f32>
+  func.return %0 : tensor<f32>
+}
+
+// CHECK-LABEL: "attr_dict"
+// CHECK: #vhlo.dict_v1<{#vhlo.string_v1<"attr1"> = #vhlo.integer_v1<1 : i32>, #vhlo.string_v1<"attr2"> = #vhlo.integer_v1<2 : i32>}
+func.func @attr_dict() attributes {stablehlo.attr = {attr1 = 1 : i32, attr2 = 2 : i32}} {
+  return
+}
+
+// CHECK-LABEL: "attr_custom_call_api_version_typed_ffi"
+// CHECK-NEXT: (%[[ARG0:.*]]: {{.*}})
+// CHECK: api_version = #vhlo<api_version_v1 API_VERSION_TYPED_FFI>
+// CHECK-SAME: backend_config = #vhlo.dict_v1<{#vhlo.string_v1<"bar"> = #vhlo.integer_v1<42 : i32>}>
+func.func @attr_custom_call_api_version_typed_ffi(%arg0: tensor<f32>) -> tensor<f32> {
+  %0 = "stablehlo.custom_call"(%arg0) {
+    call_target_name = "foo",
+    backend_config= {bar = 42 : i32},
+    api_version = 4 : i32
+  } : (tensor<f32>) -> tensor<f32>
+  func.return %0 : tensor<f32>
+}
+
+
+// CHECK-LABEL: "attr_custom_call_api_version_typed_ffi_no_backend_config"
+// CHECK-NEXT: (%[[ARG0:.*]]: {{.*}})
+// CHECK: api_version = #vhlo<api_version_v1 API_VERSION_TYPED_FFI>
+// CHECK-SAME: backend_config = #vhlo.dict_v1<{}>
+func.func @attr_custom_call_api_version_typed_ffi_no_backend_config(%arg0: tensor<f32>) -> tensor<f32> {
+  %0 = "stablehlo.custom_call"(%arg0) {
+    call_target_name = "foo",
+    api_version = 4 : i32
+  } : (tensor<f32>) -> tensor<f32>
+  func.return %0 : tensor<f32>
+}
+
+// DotDimensionNumbers aka #stablehlo.dot is covered below.
+
+// CHECK-LABEL: "attr_fft_type_fft"
+// CHECK-NEXT: (%[[ARG0:.*]]: {{.*}})
+func.func @attr_fft_type_fft(%arg0: tensor<16xcomplex<f32>>) -> tensor<16xcomplex<f32>> {
+  %0 = "stablehlo.fft"(%arg0) {
+    // CHECK: fft_type = #vhlo<fft_type_v1 FFT>
+    fft_type = #stablehlo<fft_type FFT>,
+    fft_length = array<i64: 16>
+  } : (tensor<16xcomplex<f32>>) -> tensor<16xcomplex<f32>>
+  func.return %0 : tensor<16xcomplex<f32>>
+}
+
+// CHECK-LABEL: "attr_fft_type_ifft"
+// CHECK-NEXT: (%[[ARG0:.*]]: {{.*}})
+func.func @attr_fft_type_ifft(%arg0: tensor<16xcomplex<f32>>) -> tensor<16xcomplex<f32>> {
+  %0 = "stablehlo.fft"(%arg0) {
+    // CHECK: fft_type = #vhlo<fft_type_v1 IFFT>
+    fft_type = #stablehlo<fft_type IFFT>,
+    fft_length = array<i64: 16>
+  } : (tensor<16xcomplex<f32>>) -> tensor<16xcomplex<f32>>
+  func.return %0 : tensor<16xcomplex<f32>>
+}
+
+// CHECK-LABEL: "attr_fft_type_rfft"
+// CHECK-NEXT: (%[[ARG0:.*]]: {{.*}})
+func.func @attr_fft_type_rfft(%arg0: tensor<16xf32>) -> tensor<9xcomplex<f32>> {
+  %0 = "stablehlo.fft"(%arg0) {
+    // CHECK: fft_type = #vhlo<fft_type_v1 RFFT>
+    fft_type = #stablehlo<fft_type RFFT>,
+    fft_length = array<i64: 16>
+  } : (tensor<16xf32>) -> tensor<9xcomplex<f32>>
+  func.return %0 : tensor<9xcomplex<f32>>
+}
+
+// CHECK-LABEL: "attr_fft_type_irfft"
+// CHECK-NEXT: (%[[ARG0:.*]]: {{.*}})
+func.func @attr_fft_type_irfft(%arg0: tensor<9xcomplex<f32>>) -> tensor<16xf32> {
+  %0 = "stablehlo.fft"(%arg0) {
+    // CHECK: fft_type = #vhlo<fft_type_v1 IRFFT>
+    fft_type = #stablehlo<fft_type IRFFT>,
+    fft_length = array<i64: 16>
+  } : (tensor<9xcomplex<f32>>) -> tensor<16xf32>
+  func.return %0 : tensor<16xf32>
+}
+
+// CHECK-LABEL: "exponential_HIGHEST"
+// CHECK-NEXT: (%[[ARG0:.*]]: {{.*}}
+func.func @exponential_HIGHEST(%arg0: tensor<8x16xf32>) -> tensor<8x16xf32> {
+  %0 = "stablehlo.exponential"(%arg0) {
+    // CHECK: result_accuracy = #vhlo.result_accuracy_v1<atol = 0.000000e+00, rtol = 0.000000e+00, ulps = 0, mode = #vhlo<result_accuracy_mode_v1 HIGHEST>>
+    result_accuracy = #stablehlo.result_accuracy<atol = 0.000000e+00, rtol = 0.000000e+00, ulps = 0, mode = #stablehlo.result_accuracy_mode<HIGHEST>>
+  } : (tensor<8x16xf32>) -> tensor<8x16xf32>
+  func.return %0 : tensor<8x16xf32>
+}
+
+// CHECK-LABEL: "exponential_TOLERANCE"
+// CHECK-NEXT: (%[[ARG0:.*]]: {{.*}}
+func.func @exponential_TOLERANCE(%arg0: tensor<8x16xf32>) -> tensor<8x16xf32> {
+  %0 = "stablehlo.exponential"(%arg0) {
+    // CHECK: result_accuracy = #vhlo.result_accuracy_v1<atol = 1.000000e-05, rtol = 0.000000e+00, ulps = 1, mode = #vhlo<result_accuracy_mode_v1 TOLERANCE>>
+    result_accuracy = #stablehlo.result_accuracy<atol = 1.000000e-5, rtol = 0.000000e+00, ulps = 1, mode = #stablehlo.result_accuracy_mode<TOLERANCE>>
+  } : (tensor<8x16xf32>) -> tensor<8x16xf32>
+  func.return %0 : tensor<8x16xf32>
+}
+
+// CHECK-LABEL: "exponential_DEFAULT"
+// CHECK-NEXT: (%[[ARG0:.*]]: {{.*}}
+func.func @exponential_DEFAULT(%arg0: tensor<8x16xf32>) -> tensor<8x16xf32> {
+  %0 = "stablehlo.exponential"(%arg0) {
+    // CHECK: result_accuracy = #vhlo.result_accuracy_v1<atol = 0.000000e+00, rtol = 0.000000e+00, ulps = 0, mode = #vhlo<result_accuracy_mode_v1 DEFAULT>>
+    result_accuracy = #stablehlo.result_accuracy<atol = 0.000000e+00, rtol = 0.000000e+00, ulps = 0, mode = #stablehlo.result_accuracy_mode<DEFAULT>>
+  } : (tensor<8x16xf32>) -> tensor<8x16xf32>
+  func.return %0 : tensor<8x16xf32>
+}
+
+
+// GatherDimensionNumbers aka #stablehlo.gather is covered below.
+
+// CHECK-LABEL: "attr_precision_config_default"
+// CHECK-NEXT: (%[[ARG0:.*]]: {{.*}}, %[[ARG1:.*]]: {{.*}})
+func.func @attr_precision_config_default(%arg0: tensor<8x16xf32>, %arg1: tensor<16x8xf32>) -> tensor<8x8xf32> {
+  %0 = "stablehlo.dot"(%arg0, %arg1) {
+    // CHECK: precision_config = #vhlo.array_v1<[#vhlo<precision_v1 DEFAULT>, #vhlo<precision_v1 DEFAULT>]>
+  } : (tensor<8x16xf32>, tensor<16x8xf32>) -> tensor<8x8xf32>
+  func.return %0 : tensor<8x8xf32>
+}
+
+// CHECK-LABEL: "attr_precision_config_high"
+// CHECK-NEXT: (%[[ARG0:.*]]: {{.*}}, %[[ARG1:.*]]: {{.*}})
+func.func @attr_precision_config_high(%arg0: tensor<8x16xf32>, %arg1: tensor<16x8xf32>) -> tensor<8x8xf32> {
+  %0 = "stablehlo.dot"(%arg0, %arg1) {
+    // CHECK: precision_config = #vhlo.array_v1<[#vhlo<precision_v1 HIGH>, #vhlo<precision_v1 HIGH>]>
+    precision_config = [#stablehlo<precision HIGH>, #stablehlo<precision HIGH>]
+  } : (tensor<8x16xf32>, tensor<16x8xf32>) -> tensor<8x8xf32>
+  func.return %0 : tensor<8x8xf32>
+}
+
+// CHECK-LABEL: "attr_precision_config_highest"
+// CHECK-NEXT: (%[[ARG0:.*]]: {{.*}}, %[[ARG1:.*]]: {{.*}})
+func.func @attr_precision_config_highest(%arg0: tensor<8x16xf32>, %arg1: tensor<16x8xf32>) -> tensor<8x8xf32> {
+  %0 = "stablehlo.dot"(%arg0, %arg1) {
+    // CHECK: precision_config = #vhlo.array_v1<[#vhlo<precision_v1 HIGHEST>, #vhlo<precision_v1 HIGHEST>]>
+    precision_config = [#stablehlo<precision HIGHEST>, #stablehlo<precision HIGHEST>]
+  } : (tensor<8x16xf32>, tensor<16x8xf32>) -> tensor<8x8xf32>
+  func.return %0 : tensor<8x8xf32>
+}
+
+// CHECK-LABEL: "attr_rng_algorithm_default"
+// CHECK-NEXT: (%[[ARG0:.*]]: {{.*}})
+func.func @attr_rng_algorithm_default(%arg0: tensor<f32>) -> (tensor<f32>, tensor<f32>) {
+  %0:2 = "stablehlo.rng_bit_generator"(%arg0) {
+    // CHECK: rng_algorithm = #vhlo<rng_algorithm_v1 DEFAULT>
+    rng_algorithm = #stablehlo<rng_algorithm DEFAULT>
+  } : (tensor<f32>) -> (tensor<f32>, tensor<f32>)
+  func.return %0#0, %0#1 : tensor<f32>, tensor<f32>
+}
+
+// CHECK-LABEL: "attr_rng_algorithm_three_fry"
+// CHECK-NEXT: (%[[ARG0:.*]]: {{.*}})
+func.func @attr_rng_algorithm_three_fry(%arg0: tensor<f32>) -> (tensor<f32>, tensor<f32>) {
+  %0:2 = "stablehlo.rng_bit_generator"(%arg0) {
+    // CHECK: rng_algorithm = #vhlo<rng_algorithm_v1 THREE_FRY>
+    rng_algorithm = #stablehlo<rng_algorithm THREE_FRY>
+  } : (tensor<f32>) -> (tensor<f32>, tensor<f32>)
+  func.return %0#0, %0#1 : tensor<f32>, tensor<f32>
+}
+
+// CHECK-LABEL: "attr_rng_algorithm_philox"
+// CHECK-NEXT: (%[[ARG0:.*]]: {{.*}})
+func.func @attr_rng_algorithm_philox(%arg0: tensor<f32>) -> (tensor<f32>, tensor<f32>) {
+  %0:2 = "stablehlo.rng_bit_generator"(%arg0) {
+    // CHECK: rng_algorithm = #vhlo<rng_algorithm_v1 PHILOX>
+    rng_algorithm = #stablehlo<rng_algorithm PHILOX>
+  } : (tensor<f32>) -> (tensor<f32>, tensor<f32>)
+  func.return %0#0, %0#1 : tensor<f32>, tensor<f32>
+}
+
+// CHECK-LABEL: "attr_rng_distribution_uniform"
+// CHECK-NEXT: (%[[ARG0:.*]]: {{.*}}, %[[ARG1:.*]]: {{.*}}, %[[ARG2:.*]]: {{.*}})
+func.func @attr_rng_distribution_uniform(%arg0: tensor<f32>, %arg1: tensor<f32>, %arg2: tensor<0xindex>) -> tensor<f32> {
+  %0 = "stablehlo.rng"(%arg0, %arg1, %arg2) {
+    // CHECK: rng_distribution = #vhlo<rng_distribution_v1 UNIFORM>
+    rng_distribution = #stablehlo<rng_distribution UNIFORM>
+  } : (tensor<f32>, tensor<f32>, tensor<0xindex>) -> tensor<f32>
+  func.return %0 : tensor<f32>
+}
+
+// CHECK-LABEL: "attr_rng_distribution_normal"
+// CHECK-NEXT: (%[[ARG0:.*]]: {{.*}}, %[[ARG1:.*]]: {{.*}}, %[[ARG2:.*]]: {{.*}})
+func.func @attr_rng_distribution_normal(%arg0: tensor<f32>, %arg1: tensor<f32>, %arg2: tensor<0xindex>) -> tensor<f32> {
+  %0 = "stablehlo.rng"(%arg0, %arg1, %arg2) {
+    // CHECK: rng_distribution = #vhlo<rng_distribution_v1 NORMAL>
+    rng_distribution = #stablehlo<rng_distribution NORMAL>
+  } : (tensor<f32>, tensor<f32>, tensor<0xindex>) -> tensor<f32>
+  func.return %0 : tensor<f32>
+}
+
+// ScatterDimensionNumbers aka #stablehlo.scatter is covered below.
+
+// CHECK-LABEL: "attr_transpose_no_transpose"
+// CHECK-NEXT: (%[[ARG0:.*]]: {{.*}}, %[[ARG1:.*]]: {{.*}})
+func.func @attr_transpose_no_transpose(%arg0: tensor<16x16xf32>, %arg1: tensor<16x16xf32>) ->  tensor<16x16xf32> {
+  %0 = "stablehlo.triangular_solve"(%arg0, %arg1) {
+    left_side = true,
+    lower = true,
+    unit_diagonal = true,
+    // transpose_a = #vhlo<transpose_v1 NO_TRANSPOSE>,
+    transpose_a = #stablehlo<transpose NO_TRANSPOSE>
+  } : (tensor<16x16xf32>, tensor<16x16xf32>) -> tensor<16x16xf32>
+  func.return %0 : tensor<16x16xf32>
+}
+
+// CHECK-LABEL: "attr_transpose_transpose"
+// CHECK-NEXT: (%[[ARG0:.*]]: {{.*}}, %[[ARG1:.*]]: {{.*}})
+func.func @attr_transpose_transpose(%arg0: tensor<16x16xf32>, %arg1: tensor<16x16xf32>) ->  tensor<16x16xf32> {
+  %0 = "stablehlo.triangular_solve"(%arg0, %arg1) {
+    left_side = true,
+    lower = true,
+    unit_diagonal = true,
+    // transpose_a = #vhlo<transpose_v1 TRANSPOSE>,
+    transpose_a = #stablehlo<transpose TRANSPOSE>
+  } : (tensor<16x16xf32>, tensor<16x16xf32>) -> tensor<16x16xf32>
+  func.return %0 : tensor<16x16xf32>
+}
+
+// CHECK-LABEL: "attr_transpose_adjoint"
+// CHECK-NEXT: (%[[ARG0:.*]]: {{.*}}, %[[ARG1:.*]]: {{.*}})
+func.func @attr_transpose_adjoint(%arg0: tensor<16x16xf32>, %arg1: tensor<16x16xf32>) ->  tensor<16x16xf32> {
+  %0 = "stablehlo.triangular_solve"(%arg0, %arg1) {
+    left_side = true,
+    lower = true,
+    unit_diagonal = true,
+    // transpose_a = #vhlo<transpose_v1 ADJOINT>,
+    transpose_a = #stablehlo<transpose ADJOINT>
+  } : (tensor<16x16xf32>, tensor<16x16xf32>) -> tensor<16x16xf32>
+  func.return %0 : tensor<16x16xf32>
+}
+
+// TypeExtensionsAttr aka #stablehlo.type_extensions is covered below.
+
+// CHECK-LABEL: "attr_type_extensions_bounds"
+// CHECK-NEXT: (%[[ARG0:.*]]: {{.*}})
+func.func @attr_type_extensions_bounds(%arg0: tensor<?x?xf32, #stablehlo.type_extensions<bounds = [16, ?]>>) -> tensor<?x?xf32, #stablehlo.type_extensions<bounds = [16, ?]>> {
+  // CHECK: "vhlo.return_v1"(%[[ARG0]]) : (!vhlo.tensor_v1<?x?x!vhlo.f32_v1, #vhlo.type_extensions_v1<bounds = [16, ?]>>) -> ()
+  func.return %arg0 : tensor<?x?xf32, #stablehlo.type_extensions<bounds = [16, ?]>>
+}
+
+// CHECK-LABEL: "attr_frontend_attributes"
+func.func @attr_frontend_attributes(%arg0: tensor<f32>) -> tensor<f32> {
+  // CHECK: some.unregistered_attr
+  %1 = stablehlo.cosine %arg0 {some.unregistered_attr = 1 : i32} : tensor<f32>
+  return %1 : tensor<f32>
+}
+
+// ============ DEFAULTS ============
+
+// CHECK-LABEL: "default_all_gather"
+// CHECK-NEXT: (%[[ARG0:.*]]: {{.*}})
+func.func @default_all_gather(%arg0: tensor<16x8xf32>) -> tensor<16x16xf32> {
+  //               CHECK: "vhlo.all_gather_v2"(%[[ARG0]]) <{
+  //          CHECK-SAME:   all_gather_dim = #vhlo.integer_v1<1 : i64>
+  //          CHECK-SAME:   channel_id = #vhlo.integer_v1<0 : i64>,
+  // CHECK-SAME{LITERAL}:   replica_groups = #vhlo.tensor_v1<dense<[[0], [1]]> : tensor<2x1xi64>>,
+  //          CHECK-SAME:   use_global_device_ids = #vhlo.bool_v1<false>
+  //          CHECK-SAME: }> : (!vhlo.tensor_v1<16x8x!vhlo.f32_v1>) -> !vhlo.tensor_v1<16x16x!vhlo.f32_v1>
+  %0 = "stablehlo.all_gather"(%arg0) {
+    all_gather_dim = 1 : i64,
+    replica_groups = dense<[[0], [1]]> : tensor<2x1xi64>
+  } : (tensor<16x8xf32>) -> tensor<16x16xf32>
+  func.return %0 : tensor<16x16xf32>
+}
+
+// CHECK-LABEL: "default_all_gather_variadic"
+// CHECK-NEXT: (%[[ARG0:.*]]: {{.*}})
+func.func @default_all_gather_variadic(%arg0: tensor<16x8xf32>, %arg1: tensor<16x8xf32>) -> (tensor<16x16xf32>, tensor<16x16xf32>) {
+  %0:2 = "stablehlo.all_gather"(%arg0, %arg1) {
+    all_gather_dim = 1 : i64,
+    replica_groups = dense<[[0], [1]]> : tensor<2x1xi64>
+  } : (tensor<16x8xf32>, tensor<16x8xf32>) -> (tensor<16x16xf32>, tensor<16x16xf32>)
+  func.return %0#0, %0#1 : tensor<16x16xf32>, tensor<16x16xf32>
+}
+
+// CHECK-LABEL: "default_all_reduce"
+// CHECK-NEXT: (%[[ARG0:.*]]: {{.*}})
+func.func @default_all_reduce(%arg0: tensor<f32>) -> tensor<f32> {
+  //               CHECK: "vhlo.all_reduce_v2"(%[[ARG0]])
+  //          CHECK-SAME: <{
+  //          CHECK-SAME:   channel_id = #vhlo.integer_v1<0 : i64>,
+  // CHECK-SAME{LITERAL}:   replica_groups = #vhlo.tensor_v1<dense<[[0], [1]]> : tensor<2x1xi64>>,
+  //          CHECK-SAME:   use_global_device_ids = #vhlo.bool_v1<false>
+  //          CHECK-SAME: }> ({
+  //          CHECK-NEXT:   ^[[BB:bb.*]](%[[ARG1:arg.*]]: !vhlo.tensor_v1<!vhlo.f32_v1>, %[[ARG2:arg.*]]: !vhlo.tensor_v1<!vhlo.f32_v1>):
+  //          CHECK-NEXT:     %[[VAL1:.*]] = "vhlo.add_v1"(%[[ARG1]], %[[ARG2]]) : (!vhlo.tensor_v1<!vhlo.f32_v1>, !vhlo.tensor_v1<!vhlo.f32_v1>) -> !vhlo.tensor_v1<!vhlo.f32_v1>
+  //          CHECK-NEXT:     "vhlo.return_v1"(%[[VAL1]]) : (!vhlo.tensor_v1<!vhlo.f32_v1>) -> ()
+  //          CHECK-NEXT: }) : (!vhlo.tensor_v1<!vhlo.f32_v1>) -> !vhlo.tensor_v1<!vhlo.f32_v1>
+
+  %0 = "stablehlo.all_reduce"(%arg0) ({
+    ^bb0(%arg1: tensor<f32>, %arg2: tensor<f32>):
+      %1 = "stablehlo.add"(%arg1, %arg2) : (tensor<f32>, tensor<f32>) -> tensor<f32>
+      "stablehlo.return"(%1) : (tensor<f32>) -> ()
+  }) {
+    replica_groups = dense<[[0], [1]]> : tensor<2x1xi64>
+  } : (tensor<f32>) -> tensor<f32>
+  func.return %0 : tensor<f32>
+}
+
+// CHECK-LABEL: "default_all_to_all"
+// CHECK-NEXT: (%[[ARG0:.*]]: {{.*}})
+func.func @default_all_to_all(%arg0: tensor<4x16xf32>) -> tensor<16x4xf32> {
+  //               CHECK: "vhlo.all_to_all_v2"(%[[ARG0]]) <{
+  //          CHECK-SAME:   channel_id = #vhlo.integer_v1<0 : i64>,
+  //          CHECK-SAME:   concat_dimension = #vhlo.integer_v1<0 : i64>,
+  // CHECK-SAME{LITERAL}:   replica_groups = #vhlo.tensor_v1<dense<[[0, 1, 2, 3]]> : tensor<1x4xi64>>,
+  //          CHECK-SAME:   split_count = #vhlo.integer_v1<4 : i64>
+  //          CHECK-SAME:   split_dimension = #vhlo.integer_v1<1 : i64>
+  //          CHECK-SAME: }> : (!vhlo.tensor_v1<4x16x!vhlo.f32_v1>) -> !vhlo.tensor_v1<16x4x!vhlo.f32_v1>
+  %0 = "stablehlo.all_to_all"(%arg0) {
+    split_dimension = 1 : i64,
+    concat_dimension = 0 : i64,
+    split_count = 4 : i64,
+    replica_groups = dense<[[0, 1, 2, 3]]> : tensor<1x4xi64>
+  } : (tensor<4x16xf32>) -> tensor<16x4xf32>
+  func.return %0 : tensor<16x4xf32>
+}
+
+// CHECK-LABEL: "default_all_to_all_variadic"
+func.func @default_all_to_all_variadic(%arg0: tensor<4x16xf32>, %arg1: tensor<5x16xf32>) -> (tensor<16x4xf32>, tensor<20x4xf32>) {
+  %0:2 = "stablehlo.all_to_all"(%arg0, %arg1) {
+    split_dimension = 1 : i64,
+    concat_dimension = 0 : i64,
+    split_count = 4 : i64,
+    replica_groups = dense<[[0, 1, 2, 3]]> : tensor<1x4xi64>,
+    channel_handle = #stablehlo.channel_handle<handle = 1, type = 0>
+  } : (tensor<4x16xf32>, tensor<5x16xf32>) -> (tensor<16x4xf32>, tensor<20x4xf32>)
+  func.return %0#0, %0#1 : tensor<16x4xf32>, tensor<20x4xf32>
+}
+
+// CHECK-LABEL: "default_cholesky"
+// CHECK-NEXT: (%[[ARG0:.*]]: {{.*}})
+func.func @default_cholesky(%arg0: tensor<1x16x16xf32>) -> tensor<1x16x16xf32> {
+  //      CHECK: "vhlo.cholesky_v1"(%[[ARG0]]) <{
+  // CHECK-SAME:   lower = #vhlo.bool_v1<false>
+  // CHECK-SAME: }> : (!vhlo.tensor_v1<1x16x16x!vhlo.f32_v1>) -> !vhlo.tensor_v1<1x16x16x!vhlo.f32_v1>
+  %0 = "stablehlo.cholesky"(%arg0) : (tensor<1x16x16xf32>) -> tensor<1x16x16xf32>
+  func.return %0 : tensor<1x16x16xf32>
+}
+
+// CHECK-LABEL: "default_collective_permute"
+// CHECK-NEXT: (%[[ARG0:.*]]: {{.*}})
+func.func @default_collective_permute(%arg0: tensor<16x8xf32>) -> tensor<16x8xf32> {
+  //               CHECK: "vhlo.collective_permute_v1"(%[[ARG0]]) <{
+  //          CHECK-SAME:   channel_id = #vhlo.integer_v1<0 : i64>,
+  // CHECK-SAME{LITERAL}:   source_target_pairs = #vhlo.tensor_v1<dense<[[0, 1], [1, 2], [2, 3]]> : tensor<3x2xi64>>
+  //          CHECK-SAME: }> : (!vhlo.tensor_v1<16x8x!vhlo.f32_v1>) -> !vhlo.tensor_v1<16x8x!vhlo.f32_v1>
+  %0 = "stablehlo.collective_permute"(%arg0) {
+    source_target_pairs = dense<[[0, 1], [1, 2], [2, 3]]> : tensor<3x2xi64>
+  } : (tensor<16x8xf32>) -> tensor<16x8xf32>
+  func.return %0 : tensor<16x8xf32>
+}
+
+// CHECK-LABEL: "default_collective_broadcast"
+// CHECK-NEXT: (%[[ARG0:.*]]: {{.*}})
+func.func @default_collective_broadcast(%arg0: tensor<16x8xf32>) -> tensor<16x8xf32> {
+  //               CHECK: "vhlo.collective_broadcast_v1"(%[[ARG0]]) <{
+  //          CHECK-SAME:   channel_id = #vhlo.integer_v1<0 : i64>,
+  // CHECK-SAME{LITERAL}:   replica_groups = #vhlo.tensor_v1<dense<[[0, 1]]> : tensor<1x2xi64>>
+  //          CHECK-SAME: }> : (!vhlo.tensor_v1<16x8x!vhlo.f32_v1>) -> !vhlo.tensor_v1<16x8x!vhlo.f32_v1>
+  %0 = "stablehlo.collective_broadcast"(%arg0) {
+    replica_groups = dense<[[0, 1]]> : tensor<1x2xi64>
+  } : (tensor<16x8xf32>) -> tensor<16x8xf32>
+  func.return %0 : tensor<16x8xf32>
+}
+
+// CHECK-LABEL: "default_compare"
+// CHECK-NEXT: (%[[ARG0:.*]]: {{.*}}, %[[ARG1:.*]]: {{.*}})
+func.func @default_compare(%arg0: tensor<f32>, %arg1: tensor<f32>) -> tensor<i1> {
+  //      CHECK: "vhlo.compare_v1"(%[[ARG0]], %[[ARG1]]) <{
+  // CHECK-SAME:   compare_type = #vhlo<comparison_type_v1 NOTYPE>,
+  // CHECK-SAME:   comparison_direction = #vhlo<comparison_direction_v1 EQ>
+  // CHECK-SAME: }> : (!vhlo.tensor_v1<!vhlo.f32_v1>, !vhlo.tensor_v1<!vhlo.f32_v1>) -> !vhlo.tensor_v1<!vhlo.bool_v1>
+  %0 = "stablehlo.compare"(%arg0, %arg1) {
+    comparison_direction = #stablehlo<comparison_direction EQ>
+  } : (tensor<f32>, tensor<f32>) -> tensor<i1>
+  func.return %0 : tensor<i1>
+}
+
+// CHECK-LABEL: "default_composite"
+// CHECK-NEXT: (%[[ARG0:.*]]: {{.*}})
+func.func @default_composite(%arg0: tensor<f32>) -> tensor<f32> {
+  //               CHECK: "vhlo.composite_v1"(%[[ARG0]]) <{
+  //          CHECK-SAME:   composite_attributes = #vhlo.dict_v1<{}>
+  //          CHECK-SAME:   decomposition = #vhlo.string_v1<"composite_target">
+  //          CHECK-SAME:   name = #vhlo.string_v1<"stablehlo.composite_target">
+  //          CHECK-SAME:   version = #vhlo.integer_v1<0 : i64>
+  //          CHECK-SAME: }> : (!vhlo.tensor_v1<!vhlo.f32_v1>) -> !vhlo.tensor_v1<!vhlo.f32_v1>
+  %0 = "stablehlo.composite"(%arg0) {
+    name = "stablehlo.composite_target",
+    decomposition = @composite_target
+  } : (tensor<f32>) -> tensor<f32>
+  func.return %0 : tensor<f32>
+}
+
+// CHECK-LABEL: "default_convolution"
+// CHECK-NEXT: (%[[ARG0:.*]]: {{.*}}, %[[ARG1:.*]]: {{.*}})
+func.func @default_convolution(%arg0: tensor<1x8x8x207xf32>, %arg1: tensor<3x3x207x16xf32>) -> tensor<1x6x6x16xf32> {
+  //      CHECK: "vhlo.convolution_v1"(%[[ARG0]], %[[ARG1]]) <{
+  // CHECK-SAME:   batch_group_count = #vhlo.integer_v1<1 : i64>,
+  // CHECK-SAME:   feature_group_count = #vhlo.integer_v1<1 : i64>,
+  // CHECK-SAME:   input_batch_dimension = #vhlo.integer_v1<0 : i64>,
+  // CHECK-SAME:   input_feature_dimension = #vhlo.integer_v1<3 : i64>,
+  // CHECK-SAME:   input_spatial_dimensions = #vhlo.tensor_v1<dense<[1, 2]> : tensor<2xi64>>,
+  // CHECK-SAME:   kernel_input_feature_dimension = #vhlo.integer_v1<2 : i64>,
+  // CHECK-SAME:   kernel_output_feature_dimension = #vhlo.integer_v1<3 : i64>,
+  // CHECK-SAME:   kernel_spatial_dimensions = #vhlo.tensor_v1<dense<[0, 1]> : tensor<2xi64>>,
+  // CHECK-SAME:   lhs_dilation = #vhlo.tensor_v1<dense<1> : tensor<2xi64>>,
+  // CHECK-SAME:   output_batch_dimension = #vhlo.integer_v1<0 : i64>,
+  // CHECK-SAME:   output_feature_dimension = #vhlo.integer_v1<3 : i64>,
+  // CHECK-SAME:   output_spatial_dimensions = #vhlo.tensor_v1<dense<[1, 2]> : tensor<2xi64>>,
+  // CHECK-SAME:   padding = #vhlo.tensor_v1<dense<0> : tensor<2x2xi64>>,
+  // CHECK-SAME:   precision_config = #vhlo.array_v1<[#vhlo<precision_v1 DEFAULT>, #vhlo<precision_v1 DEFAULT>]>,
+  // CHECK-SAME:   rhs_dilation = #vhlo.tensor_v1<dense<1> : tensor<2xi64>>,
+  // CHECK-SAME:   window_reversal = #vhlo.tensor_v1<dense<false> : tensor<2xi1>>,
+  // CHECK-SAME:   window_strides = #vhlo.tensor_v1<dense<1> : tensor<2xi64>>
+  // CHECK-SAME: }> : (!vhlo.tensor_v1<1x8x8x207x!vhlo.f32_v1>, !vhlo.tensor_v1<3x3x207x16x!vhlo.f32_v1>) -> !vhlo.tensor_v1<1x6x6x16x!vhlo.f32_v1>
+  %0 = "stablehlo.convolution"(%arg0, %arg1) {
+    dimension_numbers = #stablehlo.conv<[b, 0, 1, f]x[0, 1, i, o]->[b, 0, 1, f]>,
+    feature_group_count = 1 : i64,
+    batch_group_count = 1 : i64
+  } : (tensor<1x8x8x207xf32>, tensor<3x3x207x16xf32>) -> tensor<1x6x6x16xf32>
+  func.return %0 : tensor<1x6x6x16xf32>
+}
+
+// CHECK-LABEL: "default_custom_call"
+// CHECK-NEXT: (%[[ARG0:.*]]: {{.*}})
+func.func @default_custom_call(%arg0: tensor<f32>) -> tensor<f32> {
+  //      CHECK: "vhlo.custom_call_v1"(%[[ARG0]]) <{
+  // CHECK-SAME:   api_version = #vhlo<api_version_v1 API_VERSION_ORIGINAL>,
+  // CHECK-SAME:   backend_config = #vhlo.string_v1<"">,
+  // CHECK-SAME:   call_target_name = #vhlo.string_v1<"foo">,
+  // CHECK-SAME:   called_computations = #vhlo.array_v1<[]>,
+  // CHECK-SAME:   has_side_effect = #vhlo.bool_v1<false>,
+  // CHECK-SAME:   operand_layouts = #vhlo.array_v1<[]>,
+  // CHECK-SAME:   output_operand_aliases = #vhlo.array_v1<[]>
+  // CHECK-SAME:   result_layouts = #vhlo.array_v1<[]>
+  // CHECK-SAME: }> : (!vhlo.tensor_v1<!vhlo.f32_v1>) -> !vhlo.tensor_v1<!vhlo.f32_v1>
+  %0 = "stablehlo.custom_call"(%arg0) {
+    call_target_name = "foo"
+  } : (tensor<f32>) -> tensor<f32>
+  func.return %0 : tensor<f32>
+}
+
+// CHECK-LABEL: "default_dot_general"
+// CHECK-NEXT: (%[[ARG0:.*]]: {{.*}}, %[[ARG1:.*]]: {{.*}})
+func.func @default_dot_general(%arg0: tensor<8x8x16xf32>, %arg1: tensor<8x16x8xf32>) -> tensor<8x8x8xf32> {
+  //      CHECK: "vhlo.dot_general_v2"(%[[ARG0]], %[[ARG1]]) <{
+  // CHECK-SAME:   accumulation_type = #vhlo.type_v1<!vhlo.none_v1>,
+  // CHECK-SAME:   allow_imprecise_accumulation = #vhlo.type_v1<!vhlo.none_v1>,
+  // CHECK-SAME:   lhs_batching_dimensions = #vhlo.tensor_v1<dense<0> : tensor<1xi64>>,
+  // CHECK-SAME:   lhs_component_count = #vhlo.type_v1<!vhlo.none_v1>,
+  // CHECK-SAME:   lhs_contracting_dimensions = #vhlo.tensor_v1<dense<2> : tensor<1xi64>>,
+  // CHECK-SAME:   lhs_precision_type = #vhlo.type_v1<!vhlo.none_v1>,
+  // CHECK-SAME:   num_primitive_operations = #vhlo.type_v1<!vhlo.none_v1>,
+  // CHECK-SAME:   precision_config = #vhlo.array_v1<[#vhlo<precision_v1 DEFAULT>, #vhlo<precision_v1 DEFAULT>]>,
+  // CHECK-SAME:   rhs_batching_dimensions = #vhlo.tensor_v1<dense<0> : tensor<1xi64>>,
+  // CHECK-SAME:   rhs_component_count = #vhlo.type_v1<!vhlo.none_v1>,
+  // CHECK-SAME:   rhs_contracting_dimensions = #vhlo.tensor_v1<dense<1> : tensor<1xi64>>,
+  // CHECK-SAME:   rhs_precision_type = #vhlo.type_v1<!vhlo.none_v1>
+  // CHECK-SAME: }> : (!vhlo.tensor_v1<8x8x16x!vhlo.f32_v1>, !vhlo.tensor_v1<8x16x8x!vhlo.f32_v1>) -> !vhlo.tensor_v1<8x8x8x!vhlo.f32_v1>
+  %0 = "stablehlo.dot_general"(%arg0, %arg1) {
+    dot_dimension_numbers = #stablehlo.dot<
+      lhs_batching_dimensions = [0],
+      lhs_contracting_dimensions = [2],
+      rhs_batching_dimensions = [0],
+      rhs_contracting_dimensions = [1]
+    >
+  } : (tensor<8x8x16xf32>, tensor<8x16x8xf32>) -> tensor<8x8x8xf32>
+  func.return %0 : tensor<8x8x8xf32>
+}
+
+// CHECK-LABEL: "dot_general_algorithm"
+// CHECK-NEXT: (%[[ARG0:.*]]: {{.*}}, %[[ARG1:.*]]: {{.*}})
+func.func @dot_general_algorithm(%arg0: tensor<8x8x16xf32>, %arg1: tensor<8x16x8xf32>) -> tensor<8x8x8xf32> {
+//      CHECK: "vhlo.dot_general_v2"(%[[ARG0]], %[[ARG1]]) <{
+// CHECK-SAME:   accumulation_type = #vhlo.type_v1<!vhlo.f32_v1>,
+// CHECK-SAME:   allow_imprecise_accumulation = #vhlo.bool_v1<false>,
+// CHECK-SAME:   lhs_batching_dimensions = #vhlo.tensor_v1<dense<0> : tensor<1xi64>>,
+// CHECK-SAME:   lhs_component_count = #vhlo.integer_v1<1 : i64>,
+// CHECK-SAME:   lhs_contracting_dimensions = #vhlo.tensor_v1<dense<2> : tensor<1xi64>>,
+// CHECK-SAME:   lhs_precision_type = #vhlo.type_v1<!vhlo.tf31_v1>,
+// CHECK-SAME:   num_primitive_operations = #vhlo.integer_v1<1 : i64>,
+// CHECK-SAME:   precision_config = #vhlo.array_v1<[#vhlo<precision_v1 DEFAULT>, #vhlo<precision_v1 DEFAULT>]>,
+// CHECK-SAME:   rhs_batching_dimensions = #vhlo.tensor_v1<dense<0> : tensor<1xi64>>,
+// CHECK-SAME:   rhs_component_count = #vhlo.integer_v1<1 : i64>,
+// CHECK-SAME:   rhs_contracting_dimensions = #vhlo.tensor_v1<dense<1> : tensor<1xi64>>,
+// CHECK-SAME:   rhs_precision_type = #vhlo.type_v1<!vhlo.tf31_v1>
+// CHECK-SAME: }> : (!vhlo.tensor_v1<8x8x16x!vhlo.f32_v1>, !vhlo.tensor_v1<8x16x8x!vhlo.f32_v1>) -> !vhlo.tensor_v1<8x8x8x!vhlo.f32_v1>
+  %0 = "stablehlo.dot_general"(%arg0, %arg1) {
+    dot_dimension_numbers = #stablehlo.dot<
+      lhs_batching_dimensions = [0],
+      lhs_contracting_dimensions = [2],
+      rhs_batching_dimensions = [0],
+      rhs_contracting_dimensions = [1]
+    >,
+    algorithm = #stablehlo.dot_algorithm<
+      lhs_precision_type = tf32,
+      rhs_precision_type = tf32,
+      accumulation_type = f32,
+      lhs_component_count = 1,
+      rhs_component_count = 1,
+      num_primitive_operations = 1,
+      allow_imprecise_accumulation = false
+    >
+  } : (tensor<8x8x16xf32>, tensor<8x16x8xf32>) -> tensor<8x8x8xf32>
+  func.return %0 : tensor<8x8x8xf32>
+}
+
+// CHECK-LABEL: "default_dynamic_broadcast_in_dim"
+// CHECK-NEXT: (%[[ARG0:.*]]: {{.*}}, %[[ARG1:.*]]: {{.*}})
+func.func @default_dynamic_broadcast_in_dim(%arg0: tensor<?x?xf32>, %arg1: tensor<2xindex>) -> tensor<?x?xf32> {
+  //      CHECK: "vhlo.dynamic_broadcast_in_dim_v1"(%[[ARG0]], %[[ARG1]]) <{
+  // CHECK-SAME:   broadcast_dimensions = #vhlo.tensor_v1<dense<[0, 1]> : tensor<2xi64>>,
+  // CHECK-SAME:   known_expanding_dimensions = #vhlo.tensor_v1<dense<> : tensor<0xi64>>,
+  // CHECK-SAME:   known_nonexpanding_dimensions = #vhlo.tensor_v1<dense<> : tensor<0xi64>>
+  // CHECK-SAME: }> : (!vhlo.tensor_v1<?x?x!vhlo.f32_v1>, !vhlo.tensor_v1<2x!vhlo.index_v1>) -> !vhlo.tensor_v1<?x?x!vhlo.f32_v1>
+  %0 = "stablehlo.dynamic_broadcast_in_dim"(%arg0, %arg1) {
+    broadcast_dimensions = array<i64: 0, 1>
+  } : (tensor<?x?xf32>, tensor<2xindex>) -> tensor<?x?xf32>
+  func.return %0 : tensor<?x?xf32>
+}
+
+// CHECK-LABEL: "default_dynamic_conv"
+// CHECK-NEXT: (%[[ARG0:.*]]: {{.*}}, %[[ARG1:.*]]: {{.*}}, %[[ARG2:.*]]: {{.*}})
+func.func @default_dynamic_conv(%arg0: tensor<1x8x8x207xf32>, %arg1: tensor<3x3x207x16xf32>, %arg2: tensor<2x2xi64>) -> tensor<1x?x?x16xf32> {
+  //      CHECK: "vhlo.dynamic_conv_v2"(%[[ARG0]], %[[ARG1]], %[[ARG2]]) <{
+  // CHECK-SAME:   batch_group_count = #vhlo.integer_v1<1 : i64>,
+  // CHECK-SAME:   feature_group_count = #vhlo.integer_v1<1 : i64>,
+  // CHECK-SAME:   input_batch_dimension = #vhlo.integer_v1<0 : i64>,
+  // CHECK-SAME:   input_feature_dimension = #vhlo.integer_v1<3 : i64>,
+  // CHECK-SAME:   input_spatial_dimensions = #vhlo.tensor_v1<dense<[1, 2]> : tensor<2xi64>>,
+  // CHECK-SAME:   kernel_input_feature_dimension = #vhlo.integer_v1<2 : i64>,
+  // CHECK-SAME:   kernel_output_feature_dimension = #vhlo.integer_v1<3 : i64>,
+  // CHECK-SAME:   kernel_spatial_dimensions = #vhlo.tensor_v1<dense<[0, 1]> : tensor<2xi64>>,
+  // CHECK-SAME:   lhs_dilation = #vhlo.tensor_v1<dense<1> : tensor<2xi64>>,
+  // CHECK-SAME:   output_batch_dimension = #vhlo.integer_v1<0 : i64>,
+  // CHECK-SAME:   output_feature_dimension = #vhlo.integer_v1<3 : i64>,
+  // CHECK-SAME:   output_spatial_dimensions = #vhlo.tensor_v1<dense<[1, 2]> : tensor<2xi64>>,
+  // CHECK-SAME:   precision_config = #vhlo.array_v1<[#vhlo<precision_v1 DEFAULT>, #vhlo<precision_v1 DEFAULT>]>,
+  // CHECK-SAME:   rhs_dilation = #vhlo.tensor_v1<dense<1> : tensor<2xi64>>,
+  // CHECK-SAME:   window_reversal = #vhlo.tensor_v1<dense<false> : tensor<2xi1>>,
+  // CHECK-SAME:   window_strides = #vhlo.tensor_v1<dense<1> : tensor<2xi64>>
+  // CHECK-SAME: }> : (!vhlo.tensor_v1<1x8x8x207x!vhlo.f32_v1>, !vhlo.tensor_v1<3x3x207x16x!vhlo.f32_v1>, !vhlo.tensor_v1<2x2x!vhlo.i64_v1>) -> !vhlo.tensor_v1<1x?x?x16x!vhlo.f32_v1>
+  %0 = "stablehlo.dynamic_conv"(%arg0, %arg1, %arg2) {
+    dimension_numbers = #stablehlo.conv<[b, 0, 1, f]x[0, 1, i, o]->[b, 0, 1, f]>,
+    feature_group_count = 1 : i64,
+    batch_group_count = 1 : i64
+  } : (tensor<1x8x8x207xf32>, tensor<3x3x207x16xf32>, tensor<2x2xi64>) -> tensor<1x?x?x16xf32>
+  func.return %0 : tensor<1x?x?x16xf32>
+}
+
+// CHECK-LABEL: "default_dynamic_gather"
+// CHECK-NEXT: (%[[ARG0:.*]]: {{.*}}, %[[ARG1:.*]]: {{.*}}, %[[ARG2:.*]]: {{.*}})
+func.func @default_dynamic_gather(%arg0 : tensor<2x4x9xf32>, %arg1 : tensor<1x5x2xi32>, %arg2 : tensor<3xi32>) -> tensor<1x5x8xf32> {
+  //      CHECK: "vhlo.dynamic_gather_v2"(%[[ARG0]], %[[ARG1]], %[[ARG2]]) <{
+  // CHECK-SAME:   collapsed_slice_dims = #vhlo.tensor_v1<dense<[0, 1]> : tensor<2xi64>>,
+  // CHECK-SAME:   index_vector_dim = #vhlo.integer_v1<2 : i64>,
+  // CHECK-SAME:   indices_are_sorted = #vhlo.bool_v1<false>,
+  // CHECK-SAME:   offset_dims = #vhlo.tensor_v1<dense<2> : tensor<1xi64>>,
+  // CHECK-SAME:   operand_batching_dims = #vhlo.tensor_v1<dense<> : tensor<0xi64>>,
+  // CHECK-SAME:   start_index_map = #vhlo.tensor_v1<dense<[0, 1]> : tensor<2xi64>>,
+  // CHECK-SAME:   start_indices_batching_dims = #vhlo.tensor_v1<dense<> : tensor<0xi64>>
+  // CHECK-SAME: }> : (!vhlo.tensor_v1<2x4x9x!vhlo.f32_v1>, !vhlo.tensor_v1<1x5x2x!vhlo.i32_v1>, !vhlo.tensor_v1<3x!vhlo.i32_v1>) -> !vhlo.tensor_v1<1x5x8x!vhlo.f32_v1>
+  %0 = "stablehlo.dynamic_gather"(%arg0, %arg1, %arg2) {
+    dimension_numbers = #stablehlo.gather<
+      offset_dims = [2],
+      collapsed_slice_dims = [0, 1],
+      start_index_map = [0, 1],
+      index_vector_dim = 2
+    >
+  } : (tensor<2x4x9xf32>, tensor<1x5x2xi32>, tensor<3xi32>) -> tensor<1x5x8xf32>
+  func.return %0 : tensor<1x5x8xf32>
+}
+
+func.func @default_func(%arg0: tensor<f32>) -> tensor<f32> {
+  // CHECK:      "vhlo.func_v1"() <{
+  // CHECK-SAME:   arg_attrs = #vhlo.array_v1<[]>,
+  // CHECK-SAME:   function_type = #vhlo.type_v1<!vhlo.func_v1<(!vhlo.tensor_v1<!vhlo.f32_v1>) -> !vhlo.tensor_v1<!vhlo.f32_v1>>>,
+  // CHECK-SAME:   res_attrs = #vhlo.array_v1<[]>,
+  // CHECK-SAME:   sym_name = #vhlo.string_v1<"default_func">,
+  // CHECK-SAME:   sym_visibility = #vhlo.string_v1<"">
+  // CHECK-SAME: }> ({
+  // CHECK-NEXT:   ^[[BB:bb.*]](%[[ARG0:.*]]: !vhlo.tensor_v1<!vhlo.f32_v1>):
+  // CHECK-NEXT:     "vhlo.return_v1"(%[[ARG0]]) : (!vhlo.tensor_v1<!vhlo.f32_v1>) -> ()
+  // CHECK-NEXT: }) : () -> ()
+  func.return %arg0 : tensor<f32>
+}
+
+// CHECK-LABEL: "default_gather"
+// CHECK-NEXT: (%[[ARG0:.*]]: {{.*}}, %[[ARG1:.*]]: {{.*}})
+func.func @default_gather(%arg0 : tensor<2x4x9xf32>, %arg1 : tensor<1x5x2xi32>) -> tensor<1x5x1xf32> {
+  //      CHECK: "vhlo.gather_v2"(%[[ARG0]], %[[ARG1]]) <{
+  // CHECK-SAME:   collapsed_slice_dims = #vhlo.tensor_v1<dense<[0, 1]> : tensor<2xi64>>,
+  // CHECK-SAME:   index_vector_dim = #vhlo.integer_v1<2 : i64>,
+  // CHECK-SAME:   indices_are_sorted = #vhlo.bool_v1<false>,
+  // CHECK-SAME:   offset_dims = #vhlo.tensor_v1<dense<2> : tensor<1xi64>>,
+  // CHECK-SAME:   operand_batching_dims = #vhlo.tensor_v1<dense<> : tensor<0xi64>>,
+  // CHECK-SAME:   slice_sizes = #vhlo.tensor_v1<dense<1> : tensor<3xi64>>,
+  // CHECK-SAME:   start_index_map = #vhlo.tensor_v1<dense<[0, 1]> : tensor<2xi64>>,
+  // CHECK-SAME:   start_indices_batching_dims = #vhlo.tensor_v1<dense<> : tensor<0xi64>>
+  // CHECK-SAME: }> : (!vhlo.tensor_v1<2x4x9x!vhlo.f32_v1>, !vhlo.tensor_v1<1x5x2x!vhlo.i32_v1>) -> !vhlo.tensor_v1<1x5x1x!vhlo.f32_v1>
+  %0 = "stablehlo.gather"(%arg0, %arg1) {
+    dimension_numbers = #stablehlo.gather<
+      offset_dims = [2],
+      collapsed_slice_dims = [0, 1],
+      start_index_map = [0, 1],
+      index_vector_dim = 2
+    >,
+    slice_sizes = array<i64: 1, 1, 1>
+  } : (tensor<2x4x9xf32>, tensor<1x5x2xi32>) -> tensor<1x5x1xf32>
+  func.return %0 : tensor<1x5x1xf32>
+}
+
+// CHECK-LABEL: "default_infeed"
+// CHECK-NEXT: (%[[ARG0:.*]]: {{.*}})
+func.func @default_infeed(%arg0: !stablehlo.token) -> (tensor<f32>, !stablehlo.token) {
+  //               CHECK: "vhlo.infeed_v1"(%[[ARG0]]) <{
+  //          CHECK-SAME:   infeed_config = #vhlo.string_v1<"">,
+  // CHECK-SAME{LITERAL}:   layout = #vhlo.array_v1<[]>
+  //          CHECK-SAME: }> : (!vhlo.token_v1) -> (!vhlo.tensor_v1<!vhlo.f32_v1>, !vhlo.token_v1)
+  %0:2 = "stablehlo.infeed"(%arg0) : (!stablehlo.token) -> (tensor<f32>, !stablehlo.token)
+  func.return %0#0, %0#1 : tensor<f32>, !stablehlo.token
+}
+
+// CHECK-LABEL: "default_outfeed"
+// CHECK-NEXT: (%[[ARG0:.*]]: {{.*}}, %[[ARG1:.*]]: {{.*}})
+func.func @default_outfeed(%arg0: tensor<f32>, %arg1: !stablehlo.token) -> !stablehlo.token {
+  //      CHECK: "vhlo.outfeed_v1"(%[[ARG0]], %[[ARG1]]) <{
+  // CHECK-SAME:   outfeed_config = #vhlo.string_v1<"">
+  // CHECK-SAME: }> : (!vhlo.tensor_v1<!vhlo.f32_v1>, !vhlo.token_v1) -> !vhlo.token_v1
+  %0 = "stablehlo.outfeed"(%arg0, %arg1) : (tensor<f32>, !stablehlo.token) -> !stablehlo.token
+  func.return %0 : !stablehlo.token
+}
+
+// CHECK-LABEL: "op_recv_with_source_target_pairs"
+// CHECK-NEXT: (%[[ARG0:.*]]: {{.*}})
+func.func @op_recv_with_source_target_pairs(%arg0: !stablehlo.token) -> (tensor<f32>, !stablehlo.token) {
+  //      CHECK: "vhlo.recv_v2"(%[[ARG0]]) <{
+  // CHECK-SAME:   channel_id = #vhlo.integer_v1<0 : i64>,
+  // CHECK-SAME:   channel_type = #vhlo.integer_v1<1 : i64>,
+  // CHECK-SAME:   is_host_transfer = #vhlo.bool_v1<false>,
+  // CHECK-SAME{LITERAL}:   source_target_pairs = #vhlo.tensor_v1<dense<[[0, 1], [1, 2]]> : tensor<2x2xi64>>
+  // CHECK-SAME{LITERAL}: }> : (!vhlo.token_v1) -> (!vhlo.tensor_v1<!vhlo.f32_v1>, !vhlo.token_v1)
+  %0:2 = "stablehlo.recv"(%arg0) {
+    channel_handle = #stablehlo.channel_handle<handle = 0, type = 1>,
+    source_target_pairs = dense<[[0, 1], [1, 2]]> : tensor<2x2xi64>
+  } : (!stablehlo.token) -> (tensor<f32>, !stablehlo.token)
+  func.return %0#0, %0#1 : tensor<f32>, !stablehlo.token
+}
+
+// CHECK-LABEL: "default_send"
+// CHECK-NEXT: (%[[ARG0:.*]]: {{.*}}, %[[ARG1:.*]]: {{.*}})
+func.func @default_send(%arg0: tensor<f32>, %arg1: !stablehlo.token) -> !stablehlo.token {
+  //      CHECK: "vhlo.send_v2"(%[[ARG0]], %[[ARG1]]) <{
+  // CHECK-SAME:   channel_id = #vhlo.integer_v1<0 : i64>,
+  // CHECK-SAME:   channel_type = #vhlo.integer_v1<1 : i64>,
+  // CHECK-SAME:   is_host_transfer = #vhlo.bool_v1<false>,
+  // CHECK-SAME{LITERAL}:   source_target_pairs = #vhlo.tensor_v1<dense<[[0, 1], [1, 2]]> : tensor<2x2xi64>>
+  // CHECK-SAME{LITERAL}: }> : (!vhlo.tensor_v1<!vhlo.f32_v1>, !vhlo.token_v1) -> !vhlo.token_v1
+  %0 = "stablehlo.send"(%arg0, %arg1) {
+    channel_handle = #stablehlo.channel_handle<handle = 0, type = 1>,
+    source_target_pairs = dense<[[0, 1], [1, 2]]> : tensor<2x2xi64>
+  } : (tensor<f32>, !stablehlo.token) -> !stablehlo.token
+  func.return %0 : !stablehlo.token
+}
+
+// CHECK-LABEL: "default_reduce_scatter"
+// CHECK-NEXT: (%[[ARG0:.*]]: {{.*}})
+func.func @default_reduce_scatter(%arg0: tensor<16xf32>) -> tensor<16xf32> {
+  //               CHECK: "vhlo.reduce_scatter_v1"(%[[ARG0]]) <{
+  //          CHECK-SAME:   channel_id = #vhlo.integer_v1<0 : i64>,
+  // CHECK-SAME{LITERAL}:   replica_groups = #vhlo.tensor_v1<dense<[[0], [1]]> : tensor<2x1xi64>>,
+  //          CHECK-SAME:   scatter_dimension = #vhlo.integer_v1<0 : i64>
+  //          CHECK-SAME:   use_global_device_ids = #vhlo.bool_v1<false>
+  //          CHECK-SAME: }> ({
+  //          CHECK-NEXT:   ^[[BB:bb.*]](%[[ARG1:arg.*]]: !vhlo.tensor_v1<!vhlo.f32_v1>, %[[ARG2:arg.*]]: !vhlo.tensor_v1<!vhlo.f32_v1>):
+  //          CHECK-NEXT:     %[[VAL1:.*]] = "vhlo.add_v1"(%[[ARG1]], %[[ARG2]]) : (!vhlo.tensor_v1<!vhlo.f32_v1>, !vhlo.tensor_v1<!vhlo.f32_v1>) -> !vhlo.tensor_v1<!vhlo.f32_v1>
+  //          CHECK-NEXT:     "vhlo.return_v1"(%[[VAL1]]) : (!vhlo.tensor_v1<!vhlo.f32_v1>) -> ()
+  //          CHECK-NEXT: }) : (!vhlo.tensor_v1<16x!vhlo.f32_v1>) -> !vhlo.tensor_v1<16x!vhlo.f32_v1>
+  %0 = "stablehlo.reduce_scatter"(%arg0) ({
+    ^bb0(%arg1: tensor<f32>, %arg2: tensor<f32>):
+      %1 = "stablehlo.add"(%arg1, %arg2) : (tensor<f32>, tensor<f32>) -> tensor<f32>
+      "stablehlo.return"(%1) : (tensor<f32>) -> ()
+  }) {
+    scatter_dimension = 0 : i64,
+    replica_groups = dense<[[0], [1]]> : tensor<2x1xi64>
+  } : (tensor<16xf32>) -> tensor<16xf32>
+  func.return %0 : tensor<16xf32>
+}
+
+// CHECK-LABEL: "default_reduce_window"
+// CHECK-NEXT: (%[[ARG0:.*]]: {{.*}}, %[[ARG1:.*]]: {{.*}})
+func.func @default_reduce_window(%arg0: tensor<2x17x31x7xf32>, %arg1: tensor<f32>) -> tensor<2x16x30x7xf32> {
+  //               CHECK: "vhlo.reduce_window_v1"(%[[ARG0]], %[[ARG1]])  <{
+  //          CHECK-SAME:   base_dilations = #vhlo.tensor_v1<dense<1> : tensor<4xi64>>,
+  // CHECK-SAME{LITERAL}:   padding = #vhlo.tensor_v1<dense<0> : tensor<4x2xi64>>,
+  //          CHECK-SAME:   window_dilations = #vhlo.tensor_v1<dense<1> : tensor<4xi64>>,
+  //          CHECK-SAME:   window_dimensions = #vhlo.tensor_v1<dense<[1, 2, 2, 1]> : tensor<4xi64>>,
+  //          CHECK-SAME:   window_strides = #vhlo.tensor_v1<dense<1> : tensor<4xi64>>
+  //          CHECK-SAME: }> ({
+  //          CHECK-NEXT:   ^[[BB:bb.*]](%[[ARG2:arg.*]]: !vhlo.tensor_v1<!vhlo.f32_v1>, %[[ARG3:arg.*]]: !vhlo.tensor_v1<!vhlo.f32_v1>):
+  //          CHECK-NEXT:     %[[VAL1:.*]] = "vhlo.maximum_v1"(%[[ARG2]], %[[ARG3]]) : (!vhlo.tensor_v1<!vhlo.f32_v1>, !vhlo.tensor_v1<!vhlo.f32_v1>) -> !vhlo.tensor_v1<!vhlo.f32_v1>
+  //          CHECK-NEXT:     "vhlo.return_v1"(%[[VAL1]]) : (!vhlo.tensor_v1<!vhlo.f32_v1>) -> ()
+  //          CHECK-NEXT: }) : (!vhlo.tensor_v1<2x17x31x7x!vhlo.f32_v1>, !vhlo.tensor_v1<!vhlo.f32_v1>) -> !vhlo.tensor_v1<2x16x30x7x!vhlo.f32_v1>
+  %0 = "stablehlo.reduce_window"(%arg0, %arg1) ({
+    ^bb0(%arg2: tensor<f32>, %arg3: tensor<f32>):
+      %1 = "stablehlo.maximum"(%arg2, %arg3) : (tensor<f32>, tensor<f32>) -> tensor<f32>
+      "stablehlo.return"(%1) : (tensor<f32>) -> ()
+  }) {
+    window_dimensions = array<i64: 1, 2, 2, 1>
+  } : (tensor<2x17x31x7xf32>, tensor<f32>) -> tensor<2x16x30x7xf32>
+  func.return %0 : tensor<2x16x30x7xf32>
+}
+
+// CHECK-LABEL: "default_scatter"
+// CHECK-NEXT: (%[[ARG0:.*]]: {{.*}}, %[[ARG1:.*]]: {{.*}}, %[[ARG2:.*]]: {{.*}})
+func.func @default_scatter(%arg0: tensor<200x100x300xf32>, %arg1: tensor<10x2xi32>, %arg2: tensor<10x300xf32>) -> tensor<200x100x300xf32> {
+  //      CHECK: "vhlo.scatter_v2"(%[[ARG0]], %[[ARG1]], %[[ARG2]]) <{
+  // CHECK-SAME:   index_vector_dim = #vhlo.integer_v1<1 : i64>,
+  // CHECK-SAME:   indices_are_sorted = #vhlo.bool_v1<false>,
+  // CHECK-SAME:   input_batching_dims = #vhlo.tensor_v1<dense<> : tensor<0xi64>>,
+  // CHECK-SAME:   inserted_window_dims = #vhlo.tensor_v1<dense<[0, 1]> : tensor<2xi64>>,
+  // CHECK-SAME:   scatter_dims_to_operand_dims = #vhlo.tensor_v1<dense<[0, 1]> : tensor<2xi64>>,
+  // CHECK-SAME:   scatter_indices_batching_dims = #vhlo.tensor_v1<dense<> : tensor<0xi64>>,
+  // CHECK-SAME:   unique_indices = #vhlo.bool_v1<false>,
+  // CHECK-SAME:   update_window_dims = #vhlo.tensor_v1<dense<1> : tensor<1xi64>>
+  // CHECK-SAME: }> ({
+  // CHECK-NEXT:   ^[[BB:bb.*]](%[[ARG3:arg.*]]: !vhlo.tensor_v1<!vhlo.f32_v1>, %[[ARG4:arg.*]]: !vhlo.tensor_v1<!vhlo.f32_v1>):
+  // CHECK-NEXT:     %[[VAL1:.*]] = "vhlo.add_v1"(%[[ARG3]], %[[ARG4]]) : (!vhlo.tensor_v1<!vhlo.f32_v1>, !vhlo.tensor_v1<!vhlo.f32_v1>) -> !vhlo.tensor_v1<!vhlo.f32_v1>
+  // CHECK-NEXT:     "vhlo.return_v1"(%[[VAL1]]) : (!vhlo.tensor_v1<!vhlo.f32_v1>) -> ()
+  // CHECK-NEXT: }) : (!vhlo.tensor_v1<200x100x300x!vhlo.f32_v1>, !vhlo.tensor_v1<10x2x!vhlo.i32_v1>, !vhlo.tensor_v1<10x300x!vhlo.f32_v1>) -> !vhlo.tensor_v1<200x100x300x!vhlo.f32_v1>
+  %0 = "stablehlo.scatter"(%arg0, %arg1, %arg2) ({
+    ^bb0(%arg3: tensor<f32>, %arg4: tensor<f32>):
+      %1 = "stablehlo.add"(%arg3, %arg4) : (tensor<f32>, tensor<f32>) -> tensor<f32>
+      "stablehlo.return"(%1) : (tensor<f32>) -> ()
+  }) {
+    scatter_dimension_numbers = #stablehlo.scatter<
+      update_window_dims = [1],
+      inserted_window_dims = [0, 1],
+      scatter_dims_to_operand_dims = [0, 1],
+      index_vector_dim = 1
+    >
+  } : (tensor<200x100x300xf32>, tensor<10x2xi32>, tensor<10x300xf32>) -> tensor<200x100x300xf32>
+  func.return %0 : tensor<200x100x300xf32>
+}
+
+// CHECK-LABEL: "default_select_and_scatter"
+// CHECK-NEXT: (%[[ARG0:.*]]: {{.*}}, %[[ARG1:.*]]: {{.*}}, %[[ARG2:.*]]: {{.*}})
+func.func @default_select_and_scatter(%arg0: tensor<10x24x24x64xf32>, %arg1: tensor<10x23x23x64xf32>, %arg2: tensor<f32>) -> tensor<10x24x24x64xf32> {
+  //      CHECK: "vhlo.select_and_scatter_v1"(%[[ARG0]], %[[ARG1]], %[[ARG2]]) <{
+  // CHECK-SAME:   padding = #vhlo.tensor_v1<dense<0> : tensor<4x2xi64>>,
+  // CHECK-SAME:   window_dimensions = #vhlo.tensor_v1<dense<[1, 2, 2, 1]> : tensor<4xi64>>,
+  // CHECK-SAME:   window_strides = #vhlo.tensor_v1<dense<1> : tensor<4xi64>>
+  // CHECK-SAME: }> ({
+  // CHECK-NEXT:   ^[[BB:bb.*]](%[[ARG31:arg.*]]: !vhlo.tensor_v1<!vhlo.f32_v1>, %[[ARG41:arg.*]]: !vhlo.tensor_v1<!vhlo.f32_v1>):
+  // CHECK-NEXT:     %[[VAL11:.*]] = "vhlo.compare_v1"(%[[ARG31]], %[[ARG41]]) <{compare_type = #vhlo<comparison_type_v1 TOTALORDER>, comparison_direction = #vhlo<comparison_direction_v1 GE>}>
+  // CHECK-NEXT:     "vhlo.return_v1"(%[[VAL11]]) : (!vhlo.tensor_v1<!vhlo.bool_v1>) -> ()
+  // CHECK-NEXT: }, {
+  // CHECK-NEXT:   ^[[BB:bb.*]](%[[ARG32:arg.*]]: !vhlo.tensor_v1<!vhlo.f32_v1>, %[[ARG42:arg.*]]: !vhlo.tensor_v1<!vhlo.f32_v1>):
+  // CHECK-NEXT:     %[[VAL12:.*]] = "vhlo.add_v1"(%[[ARG32]], %[[ARG42]]) : (!vhlo.tensor_v1<!vhlo.f32_v1>, !vhlo.tensor_v1<!vhlo.f32_v1>) -> !vhlo.tensor_v1<!vhlo.f32_v1>
+  // CHECK-NEXT:     "vhlo.return_v1"(%[[VAL12]]) : (!vhlo.tensor_v1<!vhlo.f32_v1>) -> ()
+  // CHECK-NEXT: }) : (!vhlo.tensor_v1<10x24x24x64x!vhlo.f32_v1>, !vhlo.tensor_v1<10x23x23x64x!vhlo.f32_v1>, !vhlo.tensor_v1<!vhlo.f32_v1>) -> !vhlo.tensor_v1<10x24x24x64x!vhlo.f32_v1>
+  %0 = "stablehlo.select_and_scatter"(%arg0, %arg1, %arg2) ({
+    ^bb0(%arg3: tensor<f32>, %arg4: tensor<f32>):
+      %1 = "stablehlo.compare"(%arg3, %arg4) {compare_type = #stablehlo<comparison_type TOTALORDER>, comparison_direction = #stablehlo<comparison_direction GE>} : (tensor<f32>, tensor<f32>) -> tensor<i1>
+      "stablehlo.return"(%1) : (tensor<i1>) -> ()
+  }, {
+    ^bb0(%arg3: tensor<f32>, %arg4: tensor<f32>):
+      %1 = "stablehlo.add"(%arg3, %arg4) : (tensor<f32>, tensor<f32>) -> tensor<f32>
+      "stablehlo.return"(%1) : (tensor<f32>) -> ()
+  }) {
+    window_dimensions = array<i64: 1, 2, 2, 1>
+  } : (tensor<10x24x24x64xf32>, tensor<10x23x23x64xf32>, tensor<f32>) -> tensor<10x24x24x64xf32>
+  func.return %0 : tensor<10x24x24x64xf32>
+}
+
+// CHECK-LABEL: "default_sort"
+// CHECK-NEXT: (%[[ARG0:.*]]: {{.*}})
+func.func @default_sort(%arg0: tensor<16xf32>) -> tensor<16xf32> {
+  //      CHECK: "vhlo.sort_v1"(%[[ARG0]]) <{
+  // CHECK-SAME:   dimension = #vhlo.integer_v1<-1 : i64>
+  // CHECK-SAME:   is_stable = #vhlo.bool_v1<false>
+  // CHECK-SAME: }> ({
+  // CHECK-NEXT:   ^[[BB:bb.*]](%[[ARG1:arg.*]]: !vhlo.tensor_v1<!vhlo.f32_v1>, %[[ARG2:arg.*]]: !vhlo.tensor_v1<!vhlo.f32_v1>):
+  // CHECK-NEXT:     %[[VAL1:.*]] = "vhlo.compare_v1"(%[[ARG1]], %[[ARG2]]) <{compare_type = #vhlo<comparison_type_v1 FLOAT>, comparison_direction = #vhlo<comparison_direction_v1 GT>}>
+  // CHECK-NEXT:     "vhlo.return_v1"(%[[VAL1]]) : (!vhlo.tensor_v1<!vhlo.bool_v1>) -> ()
+  // CHECK-NEXT: }) : (!vhlo.tensor_v1<16x!vhlo.f32_v1>) -> !vhlo.tensor_v1<16x!vhlo.f32_v1>
+  %0 = "stablehlo.sort"(%arg0) ({
+    ^bb0(%arg1: tensor<f32>, %arg2: tensor<f32>):
+      %1 = "stablehlo.compare"(%arg1, %arg2) {compare_type = #stablehlo<comparison_type FLOAT>, comparison_direction = #stablehlo<comparison_direction GT>} : (tensor<f32>, tensor<f32>) -> tensor<i1>
+      "stablehlo.return"(%1) : (tensor<i1>) -> ()
+  }) : (tensor<16xf32>) -> tensor<16xf32>
+  func.return %0 : tensor<16xf32>
+}
+
+// ============ OPS ============
+
+// CHECK-LABEL: "op_abs"
+// CHECK-NEXT: (%[[ARG0:.*]]: {{.*}})
+func.func @op_abs(%arg0: tensor<f32>) -> tensor<f32> {
+  // CHECK: "vhlo.abs_v1"(%[[ARG0]]) : (!vhlo.tensor_v1<!vhlo.f32_v1>) -> !vhlo.tensor_v1<!vhlo.f32_v1>
+  %0 = "stablehlo.abs"(%arg0) : (tensor<f32>) -> tensor<f32>
+  func.return %0 : tensor<f32>
+}
+
+// CHECK-LABEL: "op_add"
+// CHECK-NEXT: (%[[ARG0:.*]]: {{.*}}, %[[ARG1:.*]]: {{.*}})
+func.func @op_add(%arg0: tensor<f32>, %arg1: tensor<f32>) -> tensor<f32> {
+  // CHECK: "vhlo.add_v1"(%[[ARG0]], %[[ARG1]]) : (!vhlo.tensor_v1<!vhlo.f32_v1>, !vhlo.tensor_v1<!vhlo.f32_v1>) -> !vhlo.tensor_v1<!vhlo.f32_v1>
+  %0 = "stablehlo.add"(%arg0, %arg1) : (tensor<f32>, tensor<f32>) -> tensor<f32>
+  func.return %0 : tensor<f32>
+}
+
+// CHECK-LABEL: "op_after_all"
+// CHECK-NEXT: (%[[ARG0:.*]]: {{.*}})
+func.func @op_after_all(%arg0: !stablehlo.token) -> !stablehlo.token {
+  // CHECK: "vhlo.after_all_v1"(%[[ARG0]]) : (!vhlo.token_v1) -> !vhlo.token_v1
+  %0 = "stablehlo.after_all"(%arg0) : (!stablehlo.token) -> !stablehlo.token
+  func.return %0 : !stablehlo.token
+}
+
+// CHECK-LABEL: "op_all_gather"
+// CHECK-NEXT: (%[[ARG0:.*]]: {{.*}})
+func.func @op_all_gather(%arg0: tensor<16x8xf32>) -> tensor<16x16xf32> {
+  //               CHECK: "vhlo.all_gather_v2"(%[[ARG0]]) <{
+  //          CHECK-SAME:   all_gather_dim = #vhlo.integer_v1<1 : i64>
+  //          CHECK-SAME:   channel_id = #vhlo.integer_v1<1 : i64>,
+  // CHECK-SAME{LITERAL}:   replica_groups = #vhlo.tensor_v1<dense<[[0], [1]]> : tensor<2x1xi64>>,
+  //          CHECK-SAME:   use_global_device_ids = #vhlo.bool_v1<true>
+  //          CHECK-SAME: }> : (!vhlo.tensor_v1<16x8x!vhlo.f32_v1>) -> !vhlo.tensor_v1<16x16x!vhlo.f32_v1>
+  %0 = "stablehlo.all_gather"(%arg0) {
+    all_gather_dim = 1 : i64,
+    replica_groups = dense<[[0], [1]]> : tensor<2x1xi64>,
+    channel_handle = #stablehlo.channel_handle<handle = 1, type = 0>,
+    use_global_device_ids
+  } : (tensor<16x8xf32>) -> tensor<16x16xf32>
+  func.return %0 : tensor<16x16xf32>
+}
+
+// CHECK-LABEL: "op_all_reduce"
+// CHECK-NEXT: (%[[ARG0:.*]]: {{.*}})
+func.func @op_all_reduce(%arg0: tensor<f32>) -> tensor<f32> {
+  //               CHECK: "vhlo.all_reduce_v2"(%[[ARG0]]) <{
+  //          CHECK-SAME:   channel_id = #vhlo.integer_v1<1 : i64>,
+  // CHECK-SAME{LITERAL}:   replica_groups = #vhlo.tensor_v1<dense<[[0], [1]]> : tensor<2x1xi64>>,
+  //          CHECK-SAME:   use_global_device_ids = #vhlo.bool_v1<true>
+  //          CHECK-SAME: }> ({
+  //          CHECK-NEXT:   ^[[BB:bb.*]](%[[ARG1:arg.*]]: !vhlo.tensor_v1<!vhlo.f32_v1>, %[[ARG2:arg.*]]: !vhlo.tensor_v1<!vhlo.f32_v1>):
+  //          CHECK-NEXT:     %[[VAL1:.*]] = "vhlo.add_v1"(%[[ARG1]], %[[ARG2]]) : (!vhlo.tensor_v1<!vhlo.f32_v1>, !vhlo.tensor_v1<!vhlo.f32_v1>) -> !vhlo.tensor_v1<!vhlo.f32_v1>
+  //          CHECK-NEXT:     "vhlo.return_v1"(%[[VAL1]]) : (!vhlo.tensor_v1<!vhlo.f32_v1>) -> ()
+  //          CHECK-NEXT: }) : (!vhlo.tensor_v1<!vhlo.f32_v1>) -> !vhlo.tensor_v1<!vhlo.f32_v1>
+  %0 = "stablehlo.all_reduce"(%arg0) ({
+    ^bb0(%arg1: tensor<f32>, %arg2: tensor<f32>):
+      %1 = "stablehlo.add"(%arg1, %arg2) : (tensor<f32>, tensor<f32>) -> tensor<f32>
+      "stablehlo.return"(%1) : (tensor<f32>) -> ()
+  }) {
+    replica_groups = dense<[[0], [1]]> : tensor<2x1xi64>,
+    channel_handle = #stablehlo.channel_handle<handle = 1, type = 0>,
+    use_global_device_ids
+  } : (tensor<f32>) -> tensor<f32>
+  func.return %0 : tensor<f32>
+}
+
+// CHECK-LABEL: "op_all_reduce_with_promotable_types"
+func.func @op_all_reduce_with_promotable_types(%operand: tensor<f32>) -> tensor<f64> {
+  //  CHECK: "vhlo.all_reduce_v2"(%[[ARG0:.*]])
+  //  CHECK:   ^[[BB:bb.*]](%[[ARG1:arg.*]]: !vhlo.tensor_v1<!vhlo.f64_v1>, %[[ARG2:arg.*]]: !vhlo.tensor_v1<!vhlo.f64_v1>):
+  //  CHECK:     "vhlo.return_v1"(%[[VAL1:.*]]) : (!vhlo.tensor_v1<!vhlo.f64_v1>) -> ()
+  //  CHECK: }) : (!vhlo.tensor_v1<!vhlo.f32_v1>) -> !vhlo.tensor_v1<!vhlo.f64_v1>
+  %result = "stablehlo.all_reduce"(%operand) ({
+    ^bb0(%arg0: tensor<f64>, %arg1: tensor<f64>):
+      %0 = "stablehlo.add"(%arg0, %arg1) : (tensor<f64>, tensor<f64>) -> tensor<f64>
+      "stablehlo.return"(%0) : (tensor<f64>) -> ()
+  }) {
+    replica_groups = dense<[[0, 1]]> : tensor<1x2xi64>,
+    channel_handle = #stablehlo.channel_handle<handle = 1, type = 0>,
+    use_global_device_ids
+  } : (tensor<f32>) -> tensor<f64>
+
+  func.return %result : tensor<f64>
+}
+
+// CHECK-LABEL: "default_all_reduce_variadic"
+func.func @default_all_reduce_variadic(%arg0: tensor<f32>, %arg1: tensor<f32>) -> (tensor<f32>, tensor<f32>) {
+  %0:2 = "stablehlo.all_reduce"(%arg0, %arg1) ({
+    ^bb0(%arg2: tensor<f32>, %arg3: tensor<f32>):
+      %1 = "stablehlo.add"(%arg2, %arg3) : (tensor<f32>, tensor<f32>) -> (tensor<f32>)
+      "stablehlo.return"(%1) : (tensor<f32>) -> ()
+  }) {
+    replica_groups = dense<[[0], [1]]> : tensor<2x1xi64>
+  } : (tensor<f32>, tensor<f32>) -> (tensor<f32>, tensor<f32>)
+  func.return %0#0, %0#1 : tensor<f32>, tensor<f32>
+}
+
+// CHECK-LABEL: "op_all_to_all"
+// CHECK-NEXT: (%[[ARG0:.*]]: {{.*}})
+func.func @op_all_to_all(%arg0: tensor<4x16xf32>) -> tensor<16x4xf32> {
+  //               CHECK: "vhlo.all_to_all_v2"(%[[ARG0]]) <{
+  //          CHECK-SAME:   channel_id = #vhlo.integer_v1<1 : i64>,
+  //          CHECK-SAME:   concat_dimension = #vhlo.integer_v1<0 : i64>,
+  // CHECK-SAME{LITERAL}:   replica_groups = #vhlo.tensor_v1<dense<[[0, 1, 2, 3]]> : tensor<1x4xi64>>,
+  //          CHECK-SAME:   split_count = #vhlo.integer_v1<4 : i64>
+  //          CHECK-SAME:   split_dimension = #vhlo.integer_v1<1 : i64>
+  //          CHECK-SAME: }> : (!vhlo.tensor_v1<4x16x!vhlo.f32_v1>) -> !vhlo.tensor_v1<16x4x!vhlo.f32_v1>
+  %0 = "stablehlo.all_to_all"(%arg0) {
+    split_dimension = 1 : i64,
+    concat_dimension = 0 : i64,
+    split_count = 4 : i64,
+    replica_groups = dense<[[0, 1, 2, 3]]> : tensor<1x4xi64>,
+    channel_handle = #stablehlo.channel_handle<handle = 1, type = 0>
+  } : (tensor<4x16xf32>) -> tensor<16x4xf32>
+  func.return %0 : tensor<16x4xf32>
+}
+
+// CHECK-LABEL: "op_and"
+// CHECK-NEXT: (%[[ARG0:.*]]: {{.*}}, %[[ARG1:.*]]: {{.*}})
+func.func @op_and(%arg0: tensor<i1>, %arg1: tensor<i1>) -> tensor<i1> {
+  // CHECK: "vhlo.and_v1"(%[[ARG0]], %[[ARG1]]) : (!vhlo.tensor_v1<!vhlo.bool_v1>, !vhlo.tensor_v1<!vhlo.bool_v1>) -> !vhlo.tensor_v1<!vhlo.bool_v1>
+  %0 = "stablehlo.and"(%arg0, %arg1) : (tensor<i1>, tensor<i1>) -> tensor<i1>
+  func.return %0 : tensor<i1>
+}
+
+// CHECK-LABEL: "op_atan2"
+// CHECK-NEXT: (%[[ARG0:.*]]: {{.*}}, %[[ARG1:.*]]: {{.*}})
+func.func @op_atan2(%arg0: tensor<f32>, %arg1: tensor<f32>) -> tensor<f32> {
+  // CHECK: "vhlo.atan2_v1"(%[[ARG0]], %[[ARG1]]) : (!vhlo.tensor_v1<!vhlo.f32_v1>, !vhlo.tensor_v1<!vhlo.f32_v1>) -> !vhlo.tensor_v1<!vhlo.f32_v1>
+  %0 = "stablehlo.atan2"(%arg0, %arg1) : (tensor<f32>, tensor<f32>) -> tensor<f32>
+  func.return %0 : tensor<f32>
+}
+
+// CHECK-LABEL: "op_batch_norm_grad"
+// CHECK-NEXT: (%[[ARG0:.*]]: {{.*}}, %[[ARG1:.*]]: {{.*}}, %[[ARG2:.*]]: {{.*}}, %[[ARG3:.*]]: {{.*}}, %[[ARG4:.*]]: {{.*}})
+func.func @op_batch_norm_grad(%arg0: tensor<16x16x16x16xf32>, %arg1: tensor<16xf32>, %arg2: tensor<16xf32>, %arg3: tensor<16xf32>, %arg4: tensor<16x16x16x16xf32>) -> (tensor<16x16x16x16xf32>, tensor<16xf32>, tensor<16xf32>) {
+  //      CHECK: "vhlo.batch_norm_grad_v1"(%[[ARG0]], %[[ARG1]], %[[ARG2]], %[[ARG3]], %[[ARG4]]) <{
+  // CHECK-SAME:   epsilon = #vhlo.float_v1<1.000000e-03 : !vhlo.f32_v1>,
+  // CHECK-SAME:   feature_index = #vhlo.integer_v1<0 : i64>
+  // CHECK-SAME: }> : (!vhlo.tensor_v1<16x16x16x16x!vhlo.f32_v1>, !vhlo.tensor_v1<16x!vhlo.f32_v1>, !vhlo.tensor_v1<16x!vhlo.f32_v1>, !vhlo.tensor_v1<16x!vhlo.f32_v1>, !vhlo.tensor_v1<16x16x16x16x!vhlo.f32_v1>) -> (!vhlo.tensor_v1<16x16x16x16x!vhlo.f32_v1>, !vhlo.tensor_v1<16x!vhlo.f32_v1>, !vhlo.tensor_v1<16x!vhlo.f32_v1>)
+  %0:3 = "stablehlo.batch_norm_grad"(%arg0, %arg1, %arg2, %arg3, %arg4) {
+    epsilon = 0.001 : f32,
+    feature_index = 0 : i64
+  } : (tensor<16x16x16x16xf32>, tensor<16xf32>, tensor<16xf32>, tensor<16xf32>, tensor<16x16x16x16xf32>) -> (tensor<16x16x16x16xf32>, tensor<16xf32>, tensor<16xf32>)
+  func.return %0#0, %0#1, %0#2 : tensor<16x16x16x16xf32>, tensor<16xf32>, tensor<16xf32>
+}
+
+// CHECK-LABEL: "op_batch_norm_inference"
+// CHECK-NEXT: (%[[ARG0:.*]]: {{.*}}, %[[ARG1:.*]]: {{.*}}, %[[ARG2:.*]]: {{.*}}, %[[ARG3:.*]]: {{.*}}, %[[ARG4:.*]]: {{.*}})
+func.func @op_batch_norm_inference(%arg0: tensor<16x16x16x16xf32>, %arg1: tensor<16xf32>, %arg2: tensor<16xf32>, %arg3: tensor<16xf32>, %arg4: tensor<16xf32>) -> tensor<16x16x16x16xf32> {
+  //      CHECK: "vhlo.batch_norm_inference_v1"(%[[ARG0]], %[[ARG1]], %[[ARG2]], %[[ARG3]], %[[ARG4]]) <{
+  // CHECK-SAME:   epsilon = #vhlo.float_v1<1.000000e-03 : !vhlo.f32_v1>,
+  // CHECK-SAME:   feature_index = #vhlo.integer_v1<0 : i64>
+  // CHECK-SAME: }> : (!vhlo.tensor_v1<16x16x16x16x!vhlo.f32_v1>, !vhlo.tensor_v1<16x!vhlo.f32_v1>, !vhlo.tensor_v1<16x!vhlo.f32_v1>, !vhlo.tensor_v1<16x!vhlo.f32_v1>, !vhlo.tensor_v1<16x!vhlo.f32_v1>) -> !vhlo.tensor_v1<16x16x16x16x!vhlo.f32_v1>
+  %0 = "stablehlo.batch_norm_inference"(%arg0, %arg1, %arg2, %arg3, %arg4) {
+    epsilon = 0.001 : f32,
+    feature_index = 0 : i64
+  } : (tensor<16x16x16x16xf32>, tensor<16xf32>, tensor<16xf32>, tensor<16xf32>, tensor<16xf32>) -> tensor<16x16x16x16xf32>
+  func.return %0 : tensor<16x16x16x16xf32>
+}
+
+// CHECK-LABEL: "op_batch_norm_training"
+// CHECK-NEXT: (%[[ARG0:.*]]: {{.*}}, %[[ARG1:.*]]: {{.*}}, %[[ARG2:.*]]: {{.*}})
+func.func @op_batch_norm_training(%arg0: tensor<16x16x16x16xf32>, %arg1: tensor<16xf32>, %arg2: tensor<16xf32>) -> (tensor<16x16x16x16xf32>, tensor<16xf32>, tensor<16xf32>) {
+  //      CHECK: "vhlo.batch_norm_training_v1"(%[[ARG0]], %[[ARG1]], %[[ARG2]]) <{
+  // CHECK-SAME:   epsilon = #vhlo.float_v1<1.000000e-03 : !vhlo.f32_v1>,
+  // CHECK-SAME:   feature_index = #vhlo.integer_v1<0 : i64>
+  // CHECK-SAME: }> : (!vhlo.tensor_v1<16x16x16x16x!vhlo.f32_v1>, !vhlo.tensor_v1<16x!vhlo.f32_v1>, !vhlo.tensor_v1<16x!vhlo.f32_v1>) -> (!vhlo.tensor_v1<16x16x16x16x!vhlo.f32_v1>, !vhlo.tensor_v1<16x!vhlo.f32_v1>, !vhlo.tensor_v1<16x!vhlo.f32_v1>)
+  %0:3 = "stablehlo.batch_norm_training"(%arg0, %arg1, %arg2) {
+    epsilon = 0.001 : f32,
+    feature_index = 0 : i64
+  } : (tensor<16x16x16x16xf32>, tensor<16xf32>, tensor<16xf32>) -> (tensor<16x16x16x16xf32>, tensor<16xf32>, tensor<16xf32>)
+  func.return %0#0, %0#1, %0#2 : tensor<16x16x16x16xf32>, tensor<16xf32>, tensor<16xf32>
+}
+
+// CHECK-LABEL: "op_bitcast_convert"
+// CHECK-NEXT: (%[[ARG0:.*]]: {{.*}})
+func.func @op_bitcast_convert(%arg0: tensor<i32>) -> tensor<f32> {
+  // CHECK: "vhlo.bitcast_convert_v1"(%[[ARG0]]) : (!vhlo.tensor_v1<!vhlo.i32_v1>) -> !vhlo.tensor_v1<!vhlo.f32_v1>
+  %0 = "stablehlo.bitcast_convert"(%arg0) : (tensor<i32>) -> tensor<f32>
+  func.return %0 : tensor<f32>
+}
+
+// CHECK-LABEL: "op_broadcast_in_dim"
+// CHECK-NEXT: (%[[ARG0:.*]]: {{.*}})
+func.func @op_broadcast_in_dim(%arg0: tensor<16xf32>) -> tensor<16x16xf32> {
+  //      CHECK: "vhlo.broadcast_in_dim_v1"(%[[ARG0]]) <{
+  // CHECK-SAME:   broadcast_dimensions = #vhlo.tensor_v1<dense<1> : tensor<1xi64>>
+  // CHECK-SAME: }> : (!vhlo.tensor_v1<16x!vhlo.f32_v1>) -> !vhlo.tensor_v1<16x16x!vhlo.f32_v1>
+  %0 = "stablehlo.broadcast_in_dim"(%arg0) {
+    broadcast_dimensions = array<i64: 1>
+  } : (tensor<16xf32>) -> tensor<16x16xf32>
+  func.return %0 : tensor<16x16xf32>
+}
+
+// CHECK-LABEL: "op_broadcast"
+// CHECK-NEXT: (%[[ARG0:.*]]: {{.*}})
+func.func @op_broadcast(%arg0: tensor<16xf32>) -> tensor<16x16xf32> {
+  //      CHECK: "vhlo.broadcast_v1"(%[[ARG0]]) <{
+  // CHECK-SAME:   broadcast_sizes = #vhlo.tensor_v1<dense<16> : tensor<1xi64>>
+  // CHECK-SAME: }> : (!vhlo.tensor_v1<16x!vhlo.f32_v1>) -> !vhlo.tensor_v1<16x16x!vhlo.f32_v1>
+  %0 = "stablehlo.broadcast"(%arg0) {
+    broadcast_sizes = array<i64: 16>
+  } : (tensor<16xf32>) -> tensor<16x16xf32>
+  func.return %0 : tensor<16x16xf32>
+}
+
+// CHECK-LABEL: "op_case"
+// CHECK-NEXT: (%[[ARG0:.*]]: {{.*}}, %[[ARG1:.*]]: {{.*}})
+func.func @op_case(%arg0: tensor<i32>, %arg1: tensor<f32>) -> tensor<f32> {
+  //      CHECK: "vhlo.case_v1"(%[[ARG0]]) ({
+  // CHECK-NEXT:   "vhlo.return_v1"(%[[ARG1]]) : (!vhlo.tensor_v1<!vhlo.f32_v1>) -> ()
+  // CHECK-NEXT: }) : (!vhlo.tensor_v1<!vhlo.i32_v1>) -> !vhlo.tensor_v1<!vhlo.f32_v1>
+  %0 = "stablehlo.case"(%arg0) ({
+    "stablehlo.return"(%arg1) : (tensor<f32>) -> ()
+  }) : (tensor<i32>) -> tensor<f32>
+  func.return %0 : tensor<f32>
+}
+
+// CHECK-LABEL: "op_cbrt"
+// CHECK-NEXT: (%[[ARG0:.*]]: {{.*}})
+func.func @op_cbrt(%arg0: tensor<f32>) -> tensor<f32> {
+  // CHECK: "vhlo.cbrt_v2"(%[[ARG0]]) <{result_accuracy = #vhlo.result_accuracy_v1<atol = 0.000000e+00, rtol = 0.000000e+00, ulps = 0, mode = #vhlo<result_accuracy_mode_v1 DEFAULT>>}> : (!vhlo.tensor_v1<!vhlo.f32_v1>) -> !vhlo.tensor_v1<!vhlo.f32_v1>
+  %0 = "stablehlo.cbrt"(%arg0) : (tensor<f32>) -> tensor<f32>
+  func.return %0 : tensor<f32>
+}
+
+// CHECK-LABEL: "op_ceil"
+// CHECK-NEXT: (%[[ARG0:.*]]: {{.*}})
+func.func @op_ceil(%arg0: tensor<f32>) -> tensor<f32> {
+  // CHECK: "vhlo.ceil_v1"(%[[ARG0]]) : (!vhlo.tensor_v1<!vhlo.f32_v1>) -> !vhlo.tensor_v1<!vhlo.f32_v1>
+  %0 = "stablehlo.ceil"(%arg0) : (tensor<f32>) -> tensor<f32>
+  func.return %0 : tensor<f32>
+}
+
+// CHECK-LABEL: "op_cholesky"
+// CHECK-NEXT: (%[[ARG0:.*]]: {{.*}})
+func.func @op_cholesky(%arg0: tensor<1x16x16xf32>) -> tensor<1x16x16xf32> {
+  //      CHECK: "vhlo.cholesky_v1"(%[[ARG0]]) <{
+  // CHECK-SAME:   lower = #vhlo.bool_v1<true>
+  // CHECK-SAME: }> : (!vhlo.tensor_v1<1x16x16x!vhlo.f32_v1>) -> !vhlo.tensor_v1<1x16x16x!vhlo.f32_v1>
+  %0 = "stablehlo.cholesky"(%arg0) {
+    lower = true
+  } : (tensor<1x16x16xf32>) -> tensor<1x16x16xf32>
+  func.return %0 : tensor<1x16x16xf32>
+}
+
+// CHECK-LABEL: "op_clamp"
+// CHECK-NEXT: (%[[ARG0:.*]]: {{.*}}, %[[ARG1:.*]]: {{.*}}, %[[ARG2:.*]]: {{.*}})
+func.func @op_clamp(%arg0: tensor<f32>, %arg1: tensor<f32>, %arg2: tensor<f32>) -> tensor<f32> {
+  // CHECK: "vhlo.clamp_v1"(%[[ARG0]], %[[ARG1]], %[[ARG2]]) : (!vhlo.tensor_v1<!vhlo.f32_v1>, !vhlo.tensor_v1<!vhlo.f32_v1>, !vhlo.tensor_v1<!vhlo.f32_v1>) -> !vhlo.tensor_v1<!vhlo.f32_v1>
+  %0 = "stablehlo.clamp"(%arg0, %arg1, %arg2) : (tensor<f32>, tensor<f32>, tensor<f32>) -> tensor<f32>
+  func.return %0 : tensor<f32>
+}
+
+// CHECK-LABEL: "op_count_leading_zeros"
+// CHECK-NEXT: (%[[ARG0:.*]]: {{.*}})
+func.func @op_count_leading_zeros(%arg0: tensor<i32>) -> tensor<i32> {
+  // CHECK: "vhlo.count_leading_zeros_v1"(%[[ARG0]]) : (!vhlo.tensor_v1<!vhlo.i32_v1>) -> !vhlo.tensor_v1<!vhlo.i32_v1>
+  %0 = "stablehlo.count_leading_zeros"(%arg0) : (tensor<i32>) -> tensor<i32>
+  func.return %0 : tensor<i32>
+}
+
+// CHECK-LABEL: "op_collective_permute"
+// CHECK-NEXT: (%[[ARG0:.*]]: {{.*}})
+func.func @op_collective_permute(%arg0: tensor<16x8xf32>) -> tensor<16x8xf32> {
+  //               CHECK: "vhlo.collective_permute_v1"(%[[ARG0]]) <{
+  //          CHECK-SAME:   channel_id = #vhlo.integer_v1<1 : i64>,
+  // CHECK-SAME{LITERAL}:   source_target_pairs = #vhlo.tensor_v1<dense<[[0, 1], [1, 2], [2, 3]]> : tensor<3x2xi64>>
+  //          CHECK-SAME: }> : (!vhlo.tensor_v1<16x8x!vhlo.f32_v1>) -> !vhlo.tensor_v1<16x8x!vhlo.f32_v1>
+  %0 = "stablehlo.collective_permute"(%arg0) {
+    source_target_pairs = dense<[[0, 1], [1, 2], [2, 3]]> : tensor<3x2xi64>,
+    channel_handle = #stablehlo.channel_handle<handle = 1, type = 0>
+  } : (tensor<16x8xf32>) -> tensor<16x8xf32>
+  func.return %0 : tensor<16x8xf32>
+}
+
+// CHECK-LABEL: "op_compare"
+// CHECK-NEXT: (%[[ARG0:.*]]: {{.*}}, %[[ARG1:.*]]: {{.*}})
+func.func @op_compare(%arg0: tensor<f32>, %arg1: tensor<f32>) -> tensor<i1> {
+  //      CHECK: "vhlo.compare_v1"(%[[ARG0]], %[[ARG1]]) <{
+  // CHECK-SAME:   compare_type = #vhlo<comparison_type_v1 TOTALORDER>,
+  // CHECK-SAME:   comparison_direction = #vhlo<comparison_direction_v1 EQ>
+  // CHECK-SAME: }> : (!vhlo.tensor_v1<!vhlo.f32_v1>, !vhlo.tensor_v1<!vhlo.f32_v1>) -> !vhlo.tensor_v1<!vhlo.bool_v1>
+  %0 = "stablehlo.compare"(%arg0, %arg1) {
+    comparison_direction = #stablehlo<comparison_direction EQ>,
+    compare_type = #stablehlo<comparison_type TOTALORDER>
+  } : (tensor<f32>, tensor<f32>) -> tensor<i1>
+  func.return %0 : tensor<i1>
+}
+
+// CHECK-LABEL: "op_complex"
+// CHECK-NEXT: (%[[ARG0:.*]]: {{.*}}, %[[ARG1:.*]]: {{.*}})
+func.func @op_complex(%arg0: tensor<f32>, %arg1: tensor<f32>) -> tensor<complex<f32>> {
+  // CHECK: "vhlo.complex_v1"(%[[ARG0]], %[[ARG1]]) : (!vhlo.tensor_v1<!vhlo.f32_v1>, !vhlo.tensor_v1<!vhlo.f32_v1>) -> !vhlo.tensor_v1<!vhlo.complex_v1<!vhlo.f32_v1>>
+  %0 = "stablehlo.complex"(%arg0, %arg1) : (tensor<f32>, tensor<f32>) -> tensor<complex<f32>>
+  func.return %0 : tensor<complex<f32>>
+}
+
+// CHECK-LABEL: "op_composite"
+// CHECK-NEXT: (%[[ARG0:.*]]: {{.*}})
+func.func @op_composite(%arg0: tensor<f32>) -> tensor<f32> {
+  //               CHECK: "vhlo.composite_v1"(%[[ARG0]]) <{
+  //          CHECK-SAME:   composite_attributes = #vhlo.dict_v1<{#vhlo.string_v1<"my_int"> = #vhlo.integer_v1<1 : i64>, #vhlo.string_v1<"my_string"> = #vhlo.string_v1<"foo">}>
+  //          CHECK-SAME:   decomposition = #vhlo.string_v1<"composite_target">
+  //          CHECK-SAME:   name = #vhlo.string_v1<"stablehlo.composite_target">
+  //          CHECK-SAME:   version = #vhlo.integer_v1<1 : i32>
+  //          CHECK-SAME: }> : (!vhlo.tensor_v1<!vhlo.f32_v1>) -> !vhlo.tensor_v1<!vhlo.f32_v1>
+  %0 = "stablehlo.composite"(%arg0) {
+    name = "stablehlo.composite_target",
+    decomposition = @composite_target,
+    version = 1 : i32,
+    composite_attributes = {
+      my_string = "foo",
+      my_int = 1 : i64
+    }
+  } : (tensor<f32>) -> tensor<f32>
+  func.return %0 : tensor<f32>
+}
+
+// CHECK-LABEL: "op_concatenate"
+// CHECK-NEXT: (%[[ARG0:.*]]: {{.*}}, %[[ARG1:.*]]: {{.*}})
+func.func @op_concatenate(%arg0: tensor<8xf32>, %arg1: tensor<8xf32>) -> tensor<16xf32> {
+  //      CHECK: "vhlo.concatenate_v1"(%[[ARG0]], %[[ARG1]]) <{
+  // CHECK-SAME:   dimension = #vhlo.integer_v1<0 : i64>
+  // CHECK-SAME: }> : (!vhlo.tensor_v1<8x!vhlo.f32_v1>, !vhlo.tensor_v1<8x!vhlo.f32_v1>) -> !vhlo.tensor_v1<16x!vhlo.f32_v1>
+  %0 = "stablehlo.concatenate"(%arg0, %arg1) {
+    dimension = 0 : i64
+  } : (tensor<8xf32>, tensor<8xf32>) -> tensor<16xf32>
+  func.return %0 : tensor<16xf32>
+}
+
+// CHECK-LABEL: "op_constant"
+// CHECK-NEXT: (%[[ARG0:.*]]: {{.*}})
+func.func @op_constant(%arg0: tensor<f32>) -> tensor<f32> {
+  //      CHECK: "vhlo.constant_v1"() <{
+  // CHECK-SAME:   value = #vhlo.tensor_v1<dense<0.000000e+00> : tensor<f32>>
+  // CHECK-SAME: }> : () -> !vhlo.tensor_v1<!vhlo.f32_v1>
+  %0 = "stablehlo.constant"() {
+    value = dense<0.0> : tensor<f32>
+  } : () -> tensor<f32>
+  func.return %0 : tensor<f32>
+}
+
+// CHECK-LABEL: "op_convert"
+// CHECK-NEXT: (%[[ARG0:.*]]: {{.*}})
+func.func @op_convert(%arg0: tensor<i32>) -> tensor<f32> {
+  // CHECK: "vhlo.convert_v1"(%[[ARG0]]) : (!vhlo.tensor_v1<!vhlo.i32_v1>) -> !vhlo.tensor_v1<!vhlo.f32_v1>
+  %0 = "stablehlo.convert"(%arg0) : (tensor<i32>) -> tensor<f32>
+  func.return %0 : tensor<f32>
+}
+
+// CHECK-LABEL: "op_convolution"
+// CHECK-NEXT: (%[[ARG0:.*]]: {{.*}}, %[[ARG1:.*]]: {{.*}})
+func.func @op_convolution(%arg0: tensor<1x8x8x207xf32>, %arg1: tensor<3x3x207x16xf32>) -> tensor<1x7x7x16xf32> {
+  //      CHECK: "vhlo.convolution_v1"(%[[ARG0]], %[[ARG1]]) <{
+  // CHECK-SAME:   batch_group_count = #vhlo.integer_v1<1 : i64>,
+  // CHECK-SAME:   feature_group_count = #vhlo.integer_v1<1 : i64>,
+  // CHECK-SAME:   input_batch_dimension = #vhlo.integer_v1<0 : i64>,
+  // CHECK-SAME:   input_feature_dimension = #vhlo.integer_v1<3 : i64>,
+  // CHECK-SAME:   input_spatial_dimensions = #vhlo.tensor_v1<dense<[1, 2]> : tensor<2xi64>>,
+  // CHECK-SAME:   kernel_input_feature_dimension = #vhlo.integer_v1<2 : i64>,
+  // CHECK-SAME:   kernel_output_feature_dimension = #vhlo.integer_v1<3 : i64>,
+  // CHECK-SAME:   kernel_spatial_dimensions = #vhlo.tensor_v1<dense<[0, 1]> : tensor<2xi64>>,
+  // CHECK-SAME:   lhs_dilation = #vhlo.tensor_v1<dense<2> : tensor<2xi64>>,
+  // CHECK-SAME:   output_batch_dimension = #vhlo.integer_v1<0 : i64>,
+  // CHECK-SAME:   output_feature_dimension = #vhlo.integer_v1<3 : i64>,
+  // CHECK-SAME:   output_spatial_dimensions = #vhlo.tensor_v1<dense<[1, 2]> : tensor<2xi64>>,
+  // CHECK-SAME:   padding = #vhlo.tensor_v1<dense<1> : tensor<2x2xi64>>,
+  // CHECK-SAME:   precision_config = #vhlo.array_v1<[#vhlo<precision_v1 HIGHEST>, #vhlo<precision_v1 HIGHEST>]>,
+  // CHECK-SAME:   rhs_dilation = #vhlo.tensor_v1<dense<2> : tensor<2xi64>>,
+  // CHECK-SAME:   window_reversal = #vhlo.tensor_v1<dense<true> : tensor<2xi1>>,
+  // CHECK-SAME:   window_strides = #vhlo.tensor_v1<dense<2> : tensor<2xi64>>
+  // CHECK-SAME: }> : (!vhlo.tensor_v1<1x8x8x207x!vhlo.f32_v1>, !vhlo.tensor_v1<3x3x207x16x!vhlo.f32_v1>) -> !vhlo.tensor_v1<1x7x7x16x!vhlo.f32_v1>
+  %0 = "stablehlo.convolution"(%arg0, %arg1) {
+    window_strides = array<i64: 2, 2>,
+    padding = dense<1> : tensor<2x2xi64>,
+    lhs_dilation = array<i64: 2, 2>,
+    rhs_dilation = array<i64: 2, 2>,
+    window_reversal = array<i1: true, true>,
+    dimension_numbers = #stablehlo.conv<[b, 0, 1, f]x[0, 1, i, o]->[b, 0, 1, f]>,
+    feature_group_count = 1 : i64,
+    batch_group_count = 1 : i64,
+    precision_config = [#stablehlo<precision HIGHEST>, #stablehlo<precision HIGHEST>]
+  } : (tensor<1x8x8x207xf32>, tensor<3x3x207x16xf32>) -> tensor<1x7x7x16xf32>
+  func.return %0 : tensor<1x7x7x16xf32>
+}
+
+// CHECK-LABEL: "op_cosine"
+// CHECK-NEXT: (%[[ARG0:.*]]: {{.*}})
+func.func @op_cosine(%arg0: tensor<f32>) -> tensor<f32> {
+  // CHECK: "vhlo.cosine_v2"(%[[ARG0]]) <{result_accuracy = #vhlo.result_accuracy_v1<atol = 0.000000e+00, rtol = 0.000000e+00, ulps = 0, mode = #vhlo<result_accuracy_mode_v1 DEFAULT>>}> : (!vhlo.tensor_v1<!vhlo.f32_v1>) -> !vhlo.tensor_v1<!vhlo.f32_v1>
+  %0 = "stablehlo.cosine"(%arg0) : (tensor<f32>) -> tensor<f32>
+  func.return %0 : tensor<f32>
+}
+
+// CHECK-LABEL: "op_create_token"
+func.func @op_create_token() -> !stablehlo.token {
+  // CHECK: "vhlo.create_token_v1"() : () -> !vhlo.token_v1
+  %0 = "stablehlo.create_token"() : () -> !stablehlo.token
+  func.return %0 : !stablehlo.token
+}
+
+// CHECK-LABEL: "op_cross_replica_sum"
+// CHECK-NEXT: (%[[ARG0:.*]]: {{.*}})
+func.func @op_cross_replica_sum(%arg0: tensor<f32>) -> tensor<f32> {
+  //               CHECK: "vhlo.cross-replica-sum_v1"(%[[ARG0]]) <{
+  // CHECK-SAME{LITERAL}:   replica_groups = #vhlo.tensor_v1<dense<[[0], [1]]> : tensor<2x1xi64>>
+  //          CHECK-SAME: }> : (!vhlo.tensor_v1<!vhlo.f32_v1>) -> !vhlo.tensor_v1<!vhlo.f32_v1>
+  %0 = "stablehlo.cross-replica-sum"(%arg0) {
+    replica_groups = dense<[[0], [1]]> : tensor<2x1xi64>
+  } : (tensor<f32>) -> tensor<f32>
+  func.return %0 : tensor<f32>
+}
+
+// CHECK-LABEL: "op_custom_call"
+// CHECK-NEXT: (%[[ARG0:.*]]: {{.*}})
+func.func @op_custom_call(%arg0: tensor<f32>) -> tensor<f32> {
+  //      CHECK: "vhlo.custom_call_v1"(%[[ARG0]]) <{
+  // CHECK-SAME:   api_version = #vhlo<api_version_v1 API_VERSION_STATUS_RETURNING>,
+  // CHECK-SAME:   backend_config = #vhlo.string_v1<"\08\03\1A\02">,
+  // CHECK-SAME:   call_target_name = #vhlo.string_v1<"foo">,
+  // CHECK-SAME:   called_computations = #vhlo.array_v1<[#vhlo.string_v1<"foo">]>,
+  // CHECK-SAME:   has_side_effect = #vhlo.bool_v1<true>,
+  // CHECK-SAME:   operand_layouts = #vhlo.array_v1<[#vhlo.tensor_v1<dense<> : tensor<0xindex>>]>,
+  // CHECK-SAME:   output_operand_aliases = #vhlo.array_v1<[
+  // CHECK-SAME:     #vhlo.output_operand_alias_v1<
+  // CHECK-SAME:       outputTupleIndices = [],
+  // CHECK-SAME:       operandIndex = 0,
+  // CHECK-SAME:       operandTupleIndices = []>]>
+  // CHECK-SAME:   result_layouts = #vhlo.array_v1<[#vhlo.tensor_v1<dense<> : tensor<0xindex>>]>
+  // CHECK-SAME: }> : (!vhlo.tensor_v1<!vhlo.f32_v1>) -> !vhlo.tensor_v1<!vhlo.f32_v1>
+  %0 = "stablehlo.custom_call"(%arg0) {
+    call_target_name = "foo",
+    has_side_effect = true,
+    backend_config = "\08\03\1A\02",
+    api_version = 2 : i32,
+    called_computations = [@foo],
+    operand_layouts = [dense<> : tensor<0xindex>],
+    output_operand_aliases = [
+      #stablehlo.output_operand_alias<output_tuple_indices = [],
+                                 operand_index = 0,
+                                 operand_tuple_indices = []>],
+    result_layouts = [dense<> : tensor<0xindex>]
+  } : (tensor<f32>) -> tensor<f32>
+  func.return %0 : tensor<f32>
+}
+
+// CHECK-LABEL: "op_custom_call_empty_result_layout"
+// CHECK-NEXT: (%[[ARG0:.*]]: {{.*}})
+func.func public @op_custom_call_empty_result_layout(%arg0: tensor<i64>) -> tensor<i64> {
+  // %0 = "vhlo.custom_call_v1"(%arg0) <{>}> : (!vhlo.tensor_v1<!vhlo.i64_v1>) -> !vhlo.tuple_v1<>
+  //      CHECK: "vhlo.custom_call_v1"(%[[ARG0]]) <{
+  // CHECK-SAME:   api_version = #vhlo<api_version_v1 API_VERSION_STATUS_RETURNING>,
+  // CHECK-SAME:   backend_config = #vhlo.string_v1<"">,
+  // CHECK-SAME:   call_target_name = #vhlo.string_v1<"empty_output">,
+  // CHECK-SAME:   called_computations = #vhlo.array_v1<[]>,
+  // CHECK-SAME:   has_side_effect = #vhlo.bool_v1<true>,
+  // CHECK-SAME:   operand_layouts = #vhlo.array_v1<[#vhlo.tensor_v1<dense<> : tensor<0xindex>>]>,
+  // CHECK-SAME:   output_operand_aliases = #vhlo.array_v1<[]>,
+  // CHECK-SAME:   result_layouts = #vhlo.array_v1<[]>
+  // CHECK-SAME: }> : (!vhlo.tensor_v1<!vhlo.i64_v1>) -> !vhlo.tuple_v1<>
+  %0 = "stablehlo.custom_call"(%arg0) <{
+    api_version = 2 : i32,
+    call_target_name = "empty_output",
+    has_side_effect = true,
+    operand_layouts = [dense<> : tensor<0xindex>],
+    result_layouts = []
+  }> : (tensor<i64>) -> tuple<>
+  return %arg0 : tensor<i64>
+}
+
+// CHECK-LABEL: "op_divide"
+// CHECK-NEXT: (%[[ARG0:.*]]: {{.*}}, %[[ARG1:.*]]: {{.*}})
+func.func @op_divide(%arg0: tensor<f32>, %arg1: tensor<f32>) -> tensor<f32> {
+  // CHECK: "vhlo.divide_v1"(%[[ARG0]], %[[ARG1]]) : (!vhlo.tensor_v1<!vhlo.f32_v1>, !vhlo.tensor_v1<!vhlo.f32_v1>) -> !vhlo.tensor_v1<!vhlo.f32_v1>
+  %0 = "stablehlo.divide"(%arg0, %arg1) : (tensor<f32>, tensor<f32>) -> tensor<f32>
+  func.return %0 : tensor<f32>
+}
+
+// CHECK-LABEL: "op_dot_general"
+// CHECK-NEXT: (%[[ARG0:.*]]: {{.*}}, %[[ARG1:.*]]: {{.*}})
+func.func @op_dot_general(%arg0: tensor<8x8x16xf32>, %arg1: tensor<8x16x8xf32>) -> tensor<8x8x8xf32> {
+  //      CHECK: "vhlo.dot_general_v2"(%[[ARG0]], %[[ARG1]]) <{
+  // CHECK-SAME:   accumulation_type = #vhlo.type_v1<!vhlo.none_v1>,
+  // CHECK-SAME:   allow_imprecise_accumulation = #vhlo.type_v1<!vhlo.none_v1>,
+  // CHECK-SAME:   lhs_batching_dimensions = #vhlo.tensor_v1<dense<0> : tensor<1xi64>>,
+  // CHECK-SAME:   lhs_component_count = #vhlo.type_v1<!vhlo.none_v1>,
+  // CHECK-SAME:   lhs_contracting_dimensions = #vhlo.tensor_v1<dense<2> : tensor<1xi64>>,
+  // CHECK-SAME:   lhs_precision_type = #vhlo.type_v1<!vhlo.none_v1>,
+  // CHECK-SAME:   num_primitive_operations = #vhlo.type_v1<!vhlo.none_v1>,
+  // CHECK-SAME:   precision_config = #vhlo.array_v1<[#vhlo<precision_v1 HIGHEST>, #vhlo<precision_v1 HIGHEST>]>,
+  // CHECK-SAME:   rhs_batching_dimensions = #vhlo.tensor_v1<dense<0> : tensor<1xi64>>,
+  // CHECK-SAME:   rhs_component_count = #vhlo.type_v1<!vhlo.none_v1>,
+  // CHECK-SAME:   rhs_contracting_dimensions = #vhlo.tensor_v1<dense<1> : tensor<1xi64>>,
+  // CHECK-SAME:   rhs_precision_type = #vhlo.type_v1<!vhlo.none_v1>
+  // CHECK-SAME: }> : (!vhlo.tensor_v1<8x8x16x!vhlo.f32_v1>, !vhlo.tensor_v1<8x16x8x!vhlo.f32_v1>) -> !vhlo.tensor_v1<8x8x8x!vhlo.f32_v1>
+  %0 = "stablehlo.dot_general"(%arg0, %arg1) {
+    dot_dimension_numbers = #stablehlo.dot<
+      lhs_batching_dimensions = [0],
+      lhs_contracting_dimensions = [2],
+      rhs_batching_dimensions = [0],
+      rhs_contracting_dimensions = [1]
+    >,
+    precision_config = [#stablehlo<precision HIGHEST>, #stablehlo<precision HIGHEST>]
+  } : (tensor<8x8x16xf32>, tensor<8x16x8xf32>) -> tensor<8x8x8xf32>
+  func.return %0 : tensor<8x8x8xf32>
+}
+
+// CHECK-LABEL: "op_dot"
+// CHECK-NEXT: (%[[ARG0:.*]]: {{.*}}, %[[ARG1:.*]]: {{.*}})
+func.func @op_dot(%arg0: tensor<8x16xf32>, %arg1: tensor<16x8xf32>) -> tensor<8x8xf32> {
+  //      CHECK: "vhlo.dot_v1"(%[[ARG0]], %[[ARG1]]) <{
+  // CHECK-SAME:   precision_config = #vhlo.array_v1<[#vhlo<precision_v1 HIGHEST>, #vhlo<precision_v1 HIGHEST>]>
+  // CHECK-SAME: }> : (!vhlo.tensor_v1<8x16x!vhlo.f32_v1>, !vhlo.tensor_v1<16x8x!vhlo.f32_v1>) -> !vhlo.tensor_v1<8x8x!vhlo.f32_v1>
+  %0 = "stablehlo.dot"(%arg0, %arg1) {
+    precision_config = [#stablehlo<precision HIGHEST>, #stablehlo<precision HIGHEST>]
+  } : (tensor<8x16xf32>, tensor<16x8xf32>) -> tensor<8x8xf32>
+  func.return %0 : tensor<8x8xf32>
+}
+
+// CHECK-LABEL: "op_dynamic_broadcast_in_dim"
+// CHECK-NEXT: (%[[ARG0:.*]]: {{.*}}, %[[ARG1:.*]]: {{.*}})
+func.func @op_dynamic_broadcast_in_dim(%arg0: tensor<?x?xf32>, %arg1: tensor<2xindex>) -> tensor<?x?xf32> {
+  //      CHECK: "vhlo.dynamic_broadcast_in_dim_v1"(%[[ARG0]], %[[ARG1]]) <{
+  // CHECK-SAME:   broadcast_dimensions = #vhlo.tensor_v1<dense<[0, 1]> : tensor<2xi64>>,
+  // CHECK-SAME:   known_expanding_dimensions = #vhlo.tensor_v1<dense<0> : tensor<1xi64>>,
+  // CHECK-SAME:   known_nonexpanding_dimensions = #vhlo.tensor_v1<dense<1> : tensor<1xi64>>
+  // CHECK-SAME: }> : (!vhlo.tensor_v1<?x?x!vhlo.f32_v1>, !vhlo.tensor_v1<2x!vhlo.index_v1>) -> !vhlo.tensor_v1<?x?x!vhlo.f32_v1>
+  %0 = "stablehlo.dynamic_broadcast_in_dim"(%arg0, %arg1) {
+    broadcast_dimensions = array<i64: 0, 1>,
+    known_expanding_dimensions = array<i64: 0>,
+    known_nonexpanding_dimensions = array<i64: 1>
+  } : (tensor<?x?xf32>, tensor<2xindex>) -> tensor<?x?xf32>
+  func.return %0 : tensor<?x?xf32>
+}
+
+// CHECK-LABEL: "op_dynamic_conv"
+// CHECK-NEXT: (%[[ARG0:.*]]: {{.*}}, %[[ARG1:.*]]: {{.*}}, %[[ARG2:.*]]: {{.*}})
+func.func @op_dynamic_conv(%arg0: tensor<1x8x8x207xf32>, %arg1: tensor<3x3x207x16xf32>, %arg2: tensor<2x2xi64>) -> tensor<1x?x?x16xf32> {
+  //      CHECK: "vhlo.dynamic_conv_v2"(%[[ARG0]], %[[ARG1]], %[[ARG2]]) <{
+  // CHECK-SAME:   batch_group_count = #vhlo.integer_v1<1 : i64>,
+  // CHECK-SAME:   feature_group_count = #vhlo.integer_v1<1 : i64>,
+  // CHECK-SAME:   input_batch_dimension = #vhlo.integer_v1<0 : i64>,
+  // CHECK-SAME:   input_feature_dimension = #vhlo.integer_v1<3 : i64>,
+  // CHECK-SAME:   input_spatial_dimensions = #vhlo.tensor_v1<dense<[1, 2]> : tensor<2xi64>>,
+  // CHECK-SAME:   kernel_input_feature_dimension = #vhlo.integer_v1<2 : i64>,
+  // CHECK-SAME:   kernel_output_feature_dimension = #vhlo.integer_v1<3 : i64>,
+  // CHECK-SAME:   kernel_spatial_dimensions = #vhlo.tensor_v1<dense<[0, 1]> : tensor<2xi64>>,
+  // CHECK-SAME:   lhs_dilation = #vhlo.tensor_v1<dense<2> : tensor<2xi64>>,
+  // CHECK-SAME:   output_batch_dimension = #vhlo.integer_v1<0 : i64>,
+  // CHECK-SAME:   output_feature_dimension = #vhlo.integer_v1<3 : i64>,
+  // CHECK-SAME:   output_spatial_dimensions = #vhlo.tensor_v1<dense<[1, 2]> : tensor<2xi64>>,
+  // CHECK-SAME:   precision_config = #vhlo.array_v1<[#vhlo<precision_v1 HIGHEST>, #vhlo<precision_v1 HIGHEST>]>,
+  // CHECK-SAME:   rhs_dilation = #vhlo.tensor_v1<dense<2> : tensor<2xi64>>,
+  // CHECK-SAME:   window_reversal = #vhlo.tensor_v1<dense<true> : tensor<2xi1>>,
+  // CHECK-SAME:   window_strides = #vhlo.tensor_v1<dense<2> : tensor<2xi64>>
+  // CHECK-SAME: }> : (!vhlo.tensor_v1<1x8x8x207x!vhlo.f32_v1>, !vhlo.tensor_v1<3x3x207x16x!vhlo.f32_v1>, !vhlo.tensor_v1<2x2x!vhlo.i64_v1>) -> !vhlo.tensor_v1<1x?x?x16x!vhlo.f32_v1>
+  %0 = "stablehlo.dynamic_conv"(%arg0, %arg1, %arg2) {
+    window_strides = array<i64: 2, 2>,
+    lhs_dilation = array<i64: 2, 2>,
+    rhs_dilation = array<i64: 2, 2>,
+    window_reversal = array<i1: true, true>,
+    dimension_numbers = #stablehlo.conv<[b, 0, 1, f]x[0, 1, i, o]->[b, 0, 1, f]>,
+    feature_group_count = 1 : i64,
+    batch_group_count = 1 : i64,
+    precision_config = [#stablehlo<precision HIGHEST>, #stablehlo<precision HIGHEST>]
+  } : (tensor<1x8x8x207xf32>, tensor<3x3x207x16xf32>, tensor<2x2xi64>) -> tensor<1x?x?x16xf32>
+  func.return %0 : tensor<1x?x?x16xf32>
+}
+
+// CHECK-LABEL: "op_dynamic_gather"
+// CHECK-NEXT: (%[[ARG0:.*]]: {{.*}}, %[[ARG1:.*]]: {{.*}}, %[[ARG2:.*]]: {{.*}})
+func.func @op_dynamic_gather(%arg0 : tensor<2x4x9xf32>, %arg1 : tensor<1x5x2xi32>, %arg2 : tensor<3xi32>) -> tensor<1x5x8xf32> {
+  //      CHECK: "vhlo.dynamic_gather_v2"(%[[ARG0]], %[[ARG1]], %[[ARG2]]) <{
+  // CHECK-SAME:   collapsed_slice_dims = #vhlo.tensor_v1<dense<[0, 1]> : tensor<2xi64>>,
+  // CHECK-SAME:   index_vector_dim = #vhlo.integer_v1<2 : i64>,
+  // CHECK-SAME:   indices_are_sorted = #vhlo.bool_v1<true>,
+  // CHECK-SAME:   offset_dims = #vhlo.tensor_v1<dense<2> : tensor<1xi64>>,
+  // CHECK-SAME:   operand_batching_dims = #vhlo.tensor_v1<dense<> : tensor<0xi64>>,
+  // CHECK-SAME:   start_index_map = #vhlo.tensor_v1<dense<[0, 1]> : tensor<2xi64>>,
+  // CHECK-SAME:   start_indices_batching_dims = #vhlo.tensor_v1<dense<> : tensor<0xi64>>
+  // CHECK-SAME: }> : (!vhlo.tensor_v1<2x4x9x!vhlo.f32_v1>, !vhlo.tensor_v1<1x5x2x!vhlo.i32_v1>, !vhlo.tensor_v1<3x!vhlo.i32_v1>) -> !vhlo.tensor_v1<1x5x8x!vhlo.f32_v1>
+  %0 = "stablehlo.dynamic_gather"(%arg0, %arg1, %arg2) {
+    dimension_numbers = #stablehlo.gather<
+      offset_dims = [2],
+      collapsed_slice_dims = [0, 1],
+      start_index_map = [0, 1],
+      index_vector_dim = 2
+    >,
+    indices_are_sorted = true
+  } : (tensor<2x4x9xf32>, tensor<1x5x2xi32>, tensor<3xi32>) -> tensor<1x5x8xf32>
+  func.return %0 : tensor<1x5x8xf32>
+}
+
+// CHECK-LABEL: "op_dynamic_gather_with_batching_dims"
+// CHECK-NEXT: (%[[ARG0:.*]]: {{.*}}, %[[ARG1:.*]]: {{.*}}, %[[ARG2:.*]]: {{.*}})
+func.func @op_dynamic_gather_with_batching_dims(%arg0 : tensor<5x2x4x9xf32>, %arg1 : tensor<1x5x2xi32>, %arg2 : tensor<4xi32>) -> tensor<1x5x8xf32> {
+  //      CHECK: "vhlo.dynamic_gather_v2"(%[[ARG0]], %[[ARG1]], %[[ARG2]]) <{
+  // CHECK-SAME:   collapsed_slice_dims = #vhlo.tensor_v1<dense<[1, 2]> : tensor<2xi64>>,
+  // CHECK-SAME:   index_vector_dim = #vhlo.integer_v1<2 : i64>,
+  // CHECK-SAME:   indices_are_sorted = #vhlo.bool_v1<true>,
+  // CHECK-SAME:   offset_dims = #vhlo.tensor_v1<dense<2> : tensor<1xi64>>,
+  // CHECK-SAME:   operand_batching_dims = #vhlo.tensor_v1<dense<0> : tensor<1xi64>>,
+  // CHECK-SAME:   start_index_map = #vhlo.tensor_v1<dense<[1, 2]> : tensor<2xi64>>,
+  // CHECK-SAME:   start_indices_batching_dims = #vhlo.tensor_v1<dense<1> : tensor<1xi64>>
+  // CHECK-SAME: }> : (!vhlo.tensor_v1<5x2x4x9x!vhlo.f32_v1>, !vhlo.tensor_v1<1x5x2x!vhlo.i32_v1>, !vhlo.tensor_v1<4x!vhlo.i32_v1>) -> !vhlo.tensor_v1<1x5x8x!vhlo.f32_v1>
+  %0 = "stablehlo.dynamic_gather"(%arg0, %arg1, %arg2) {
+    dimension_numbers = #stablehlo.gather<
+      offset_dims = [2],
+      collapsed_slice_dims = [1, 2],
+      operand_batching_dims = [0],
+      start_indices_batching_dims = [1],
+      start_index_map = [1, 2],
+      index_vector_dim = 2
+    >,
+    indices_are_sorted = true
+  } : (tensor<5x2x4x9xf32>, tensor<1x5x2xi32>, tensor<4xi32>) -> tensor<1x5x8xf32>
+  func.return %0 : tensor<1x5x8xf32>
+}
+
+// CHECK-LABEL: "op_dynamic_iota"
+// CHECK-NEXT: (%[[ARG0:.*]]: {{.*}})
+func.func @op_dynamic_iota(%arg0: tensor<1xindex>) -> tensor<?xf32> {
+  //      CHECK: "vhlo.dynamic_iota_v1"(%[[ARG0]]) <{
+  // CHECK-SAME:   iota_dimension = #vhlo.integer_v1<0 : i64>
+  // CHECK-SAME: }> : (!vhlo.tensor_v1<1x!vhlo.index_v1>) -> !vhlo.tensor_v1<?x!vhlo.f32_v1>
+  %0 = "stablehlo.dynamic_iota"(%arg0) {
+    iota_dimension = 0 : i64
+  } : (tensor<1xindex>) -> tensor<?xf32>
+  func.return %0 : tensor<?xf32>
+}
+
+// CHECK-LABEL: "op_dynamic_pad"
+// CHECK-NEXT: (%[[ARG0:.*]]: {{.*}}, %[[ARG1:.*]]: {{.*}}, %[[ARG2:.*]]: {{.*}}, %[[ARG3:.*]]: {{.*}}, %[[ARG4:.*]]: {{.*}})
+func.func @op_dynamic_pad(%arg0: tensor<?xf32>, %arg1: tensor<f32>, %arg2: tensor<1xindex>, %arg3: tensor<1xindex>, %arg4: tensor<1xindex>) -> tensor<?xf32> {
+  // CHECK: "vhlo.dynamic_pad_v1"(%[[ARG0]], %[[ARG1]], %[[ARG2]], %[[ARG3]], %[[ARG4]]) : (!vhlo.tensor_v1<?x!vhlo.f32_v1>, !vhlo.tensor_v1<!vhlo.f32_v1>, !vhlo.tensor_v1<1x!vhlo.index_v1>, !vhlo.tensor_v1<1x!vhlo.index_v1>, !vhlo.tensor_v1<1x!vhlo.index_v1>) -> !vhlo.tensor_v1<?x!vhlo.f32_v1>
+  %0 = "stablehlo.dynamic_pad"(%arg0, %arg1, %arg2, %arg3, %arg4) : (tensor<?xf32>, tensor<f32>, tensor<1xindex>, tensor<1xindex>, tensor<1xindex>) -> tensor<?xf32>
+  func.return %0 : tensor<?xf32>
+}
+
+// CHECK-LABEL: "op_dynamic_reshape"
+// CHECK-NEXT: (%[[ARG0:.*]]: {{.*}}, %[[ARG1:.*]]: {{.*}})
+func.func @op_dynamic_reshape(%arg0: tensor<16xf32>, %arg1: tensor<2xindex>) -> tensor<?x?xf32> {
+  // CHECK: "vhlo.dynamic_reshape_v1"(%[[ARG0]], %[[ARG1]]) : (!vhlo.tensor_v1<16x!vhlo.f32_v1>, !vhlo.tensor_v1<2x!vhlo.index_v1>) -> !vhlo.tensor_v1<?x?x!vhlo.f32_v1>
+  %0 = "stablehlo.dynamic_reshape"(%arg0, %arg1) : (tensor<16xf32>, tensor<2xindex>) -> tensor<?x?xf32>
+  func.return %0 : tensor<?x?xf32>
+}
+
+// CHECK-LABEL: "op_dynamic_slice"
+// CHECK-NEXT: (%[[ARG0:.*]]: {{.*}}, %[[ARG1:.*]]: {{.*}})
+func.func @op_dynamic_slice(%arg0: tensor<16xf32>, %arg1: tensor<i64>) -> tensor<4xf32> {
+  //      CHECK: "vhlo.dynamic_slice_v1"(%[[ARG0]], %[[ARG1]]) <{
+  // CHECK-SAME:   slice_sizes = #vhlo.tensor_v1<dense<4> : tensor<1xi64>>
+  // CHECK-SAME: }> : (!vhlo.tensor_v1<16x!vhlo.f32_v1>, !vhlo.tensor_v1<!vhlo.i64_v1>) -> !vhlo.tensor_v1<4x!vhlo.f32_v1>
+  %0 = "stablehlo.dynamic_slice"(%arg0, %arg1) {
+    slice_sizes = array<i64: 4>
+  } : (tensor<16xf32>, tensor<i64>) -> tensor<4xf32>
+  func.return %0 : tensor<4xf32>
+}
+
+// CHECK-LABEL: "op_dynamic_update_slice"
+// CHECK-NEXT: (%[[ARG0:.*]]: {{.*}}, %[[ARG1:.*]]: {{.*}}, %[[ARG2:.*]]: {{.*}})
+func.func @op_dynamic_update_slice(%arg0: tensor<16xf32>, %arg1: tensor<4xf32>, %arg2: tensor<i64>) -> tensor<16xf32> {
+  // CHECK: "vhlo.dynamic_update_slice_v1"(%[[ARG0]], %[[ARG1]], %[[ARG2]]) : (!vhlo.tensor_v1<16x!vhlo.f32_v1>, !vhlo.tensor_v1<4x!vhlo.f32_v1>, !vhlo.tensor_v1<!vhlo.i64_v1>) -> !vhlo.tensor_v1<16x!vhlo.f32_v1>
+  %0 = "stablehlo.dynamic_update_slice"(%arg0, %arg1, %arg2) : (tensor<16xf32>, tensor<4xf32>, tensor<i64>) -> tensor<16xf32>
+  func.return %0 : tensor<16xf32>
+}
+
+// CHECK-LABEL: "op_einsum"
+// CHECK-NEXT: (%[[ARG0:.*]]: {{.*}}, %[[ARG1:.*]]: {{.*}})
+func.func @op_einsum(%arg0: tensor<8x16xf32>, %arg1: tensor<16x8xf32>) -> tensor<8x8xf32> {
+  //      CHECK: "vhlo.einsum_v1"(%[[ARG0]], %[[ARG1]]) <{
+  // CHECK-SAME:   einsum_config = #vhlo.string_v1<"ab,bc->ac">
+  // CHECK-SAME: }> : (!vhlo.tensor_v1<8x16x!vhlo.f32_v1>, !vhlo.tensor_v1<16x8x!vhlo.f32_v1>) -> !vhlo.tensor_v1<8x8x!vhlo.f32_v1>
+  %0 = "stablehlo.einsum"(%arg0, %arg1) {
+    einsum_config = "ab,bc->ac"
+  } : (tensor<8x16xf32>, tensor<16x8xf32>) -> tensor<8x8xf32>
+  func.return %0 : tensor<8x8xf32>
+}
+
+// CHECK-LABEL: "op_exponential_minus_one"
+// CHECK-NEXT: (%[[ARG0:.*]]: {{.*}})
+func.func @op_exponential_minus_one(%arg0: tensor<f32>) -> tensor<f32> {
+  // CHECK: "vhlo.exponential_minus_one_v2"(%[[ARG0]]) <{result_accuracy = #vhlo.result_accuracy_v1<atol = 0.000000e+00, rtol = 0.000000e+00, ulps = 0, mode = #vhlo<result_accuracy_mode_v1 DEFAULT>>}> : (!vhlo.tensor_v1<!vhlo.f32_v1>) -> !vhlo.tensor_v1<!vhlo.f32_v1>
+  %0 = "stablehlo.exponential_minus_one"(%arg0) : (tensor<f32>) -> tensor<f32>
+  func.return %0 : tensor<f32>
+}
+
+// CHECK-LABEL: "op_exponential"
+// CHECK-NEXT: (%[[ARG0:.*]]: {{.*}})
+func.func @op_exponential(%arg0: tensor<f32>) -> tensor<f32> {
+  // CHECK: "vhlo.exponential_v2"(%[[ARG0]]) <{result_accuracy = #vhlo.result_accuracy_v1<atol = 0.000000e+00, rtol = 0.000000e+00, ulps = 0, mode = #vhlo<result_accuracy_mode_v1 DEFAULT>>}> : (!vhlo.tensor_v1<!vhlo.f32_v1>) -> !vhlo.tensor_v1<!vhlo.f32_v1>
+  %0 = "stablehlo.exponential"(%arg0) : (tensor<f32>) -> tensor<f32>
+  func.return %0 : tensor<f32>
+}
+
+// CHECK-LABEL: "op_fft"
+// CHECK-NEXT: (%[[ARG0:.*]]: {{.*}})
+func.func @op_fft(%arg0: tensor<16xcomplex<f32>>) -> tensor<16xcomplex<f32>> {
+  //      CHECK: "vhlo.fft_v1"(%[[ARG0]]) <{
+  // CHECK-SAME:   fft_length = #vhlo.tensor_v1<dense<16> : tensor<1xi64>>,
+  // CHECK-SAME:   fft_type = #vhlo<fft_type_v1 FFT>
+  // CHECK-SAME: }> : (!vhlo.tensor_v1<16x!vhlo.complex_v1<!vhlo.f32_v1>>) -> !vhlo.tensor_v1<16x!vhlo.complex_v1<!vhlo.f32_v1>>
+  %0 = "stablehlo.fft"(%arg0) {
+    fft_type = #stablehlo<fft_type FFT>,
+    fft_length = array<i64: 16>
+  } : (tensor<16xcomplex<f32>>) -> tensor<16xcomplex<f32>>
+  func.return %0 : tensor<16xcomplex<f32>>
+}
+
+// CHECK-LABEL: "op_floor"
+// CHECK-NEXT: (%[[ARG0:.*]]: {{.*}})
+func.func @op_floor(%arg0: tensor<f32>) -> tensor<f32> {
+  // CHECK: "vhlo.floor_v1"(%[[ARG0]]) : (!vhlo.tensor_v1<!vhlo.f32_v1>) -> !vhlo.tensor_v1<!vhlo.f32_v1>
+  %0 = "stablehlo.floor"(%arg0) : (tensor<f32>) -> tensor<f32>
+  func.return %0 : tensor<f32>
+}
+
+func.func private @op_func(%arg0: tensor<f32> {stablehlo.arg = "0"}) -> (tensor<f32> {stablehlo.result = "0"}) {
+  // CHECK:      "vhlo.func_v1"() <{
+  // CHECK-SAME:   arg_attrs = #vhlo.array_v1<[#vhlo.dict_v1<{#vhlo.string_v1<"stablehlo.arg"> = #vhlo.string_v1<"0">}>]>,
+  // CHECK-SAME:   function_type = #vhlo.type_v1<!vhlo.func_v1<(!vhlo.tensor_v1<!vhlo.f32_v1>) -> !vhlo.tensor_v1<!vhlo.f32_v1>>>,
+  // CHECK-SAME:   res_attrs = #vhlo.array_v1<[#vhlo.dict_v1<{#vhlo.string_v1<"stablehlo.result"> = #vhlo.string_v1<"0">}>]>,
+  // CHECK-SAME:   sym_name = #vhlo.string_v1<"op_func">,
+  // CHECK-SAME:   sym_visibility = #vhlo.string_v1<"private">
+  // CHECK-SAME: }> ({
+  // CHECK-NEXT:   ^[[BB:bb.*]](%[[ARG0:.*]]: !vhlo.tensor_v1<!vhlo.f32_v1>):
+  // CHECK-NEXT:     "vhlo.return_v1"(%[[ARG0]]) : (!vhlo.tensor_v1<!vhlo.f32_v1>) -> ()
+  // CHECK-NEXT: }) : () -> ()
+
+  func.return %arg0 : tensor<f32>
+}
+
+// CHECK-LABEL: "op_gather"
+// CHECK-NEXT: (%[[ARG0:.*]]: {{.*}}, %[[ARG1:.*]]: {{.*}})
+func.func @op_gather(%arg0 : tensor<2x4x9xf32>, %arg1 : tensor<1x5x2xi32>) -> tensor<1x5x1xf32> {
+  //      CHECK: "vhlo.gather_v2"(%[[ARG0]], %[[ARG1]]) <{
+  // CHECK-SAME:   collapsed_slice_dims = #vhlo.tensor_v1<dense<[0, 1]> : tensor<2xi64>>,
+  // CHECK-SAME:   index_vector_dim = #vhlo.integer_v1<2 : i64>,
+  // CHECK-SAME:   indices_are_sorted = #vhlo.bool_v1<true>,
+  // CHECK-SAME:   offset_dims = #vhlo.tensor_v1<dense<2> : tensor<1xi64>>,
+  // CHECK-SAME:   operand_batching_dims = #vhlo.tensor_v1<dense<> : tensor<0xi64>>,
+  // CHECK-SAME:   slice_sizes = #vhlo.tensor_v1<dense<1> : tensor<3xi64>>,
+  // CHECK-SAME:   start_index_map = #vhlo.tensor_v1<dense<[0, 1]> : tensor<2xi64>>,
+  // CHECK-SAME:   start_indices_batching_dims = #vhlo.tensor_v1<dense<> : tensor<0xi64>>
+  // CHECK-SAME: }> : (!vhlo.tensor_v1<2x4x9x!vhlo.f32_v1>, !vhlo.tensor_v1<1x5x2x!vhlo.i32_v1>) -> !vhlo.tensor_v1<1x5x1x!vhlo.f32_v1>
+  %0 = "stablehlo.gather"(%arg0, %arg1) {
+    dimension_numbers = #stablehlo.gather<
+      offset_dims = [2],
+      collapsed_slice_dims = [0, 1],
+      start_index_map = [0, 1],
+      index_vector_dim = 2
+    >,
+    slice_sizes = array<i64: 1, 1, 1>,
+    indices_are_sorted = true
+  } : (tensor<2x4x9xf32>, tensor<1x5x2xi32>) -> tensor<1x5x1xf32>
+  func.return %0 : tensor<1x5x1xf32>
+}
+
+// CHECK-LABEL: "op_gather_with_batching_dims"
+// CHECK-NEXT: (%[[ARG0:.*]]: {{.*}}, %[[ARG1:.*]]: {{.*}})
+func.func @op_gather_with_batching_dims(%arg0 : tensor<5x2x4x9xf32>, %arg1 : tensor<1x5x2xi32>) -> tensor<1x5x1xf32> {
+  //      CHECK: "vhlo.gather_v2"(%[[ARG0]], %[[ARG1]]) <{
+  // CHECK-SAME:   collapsed_slice_dims = #vhlo.tensor_v1<dense<[1, 2]> : tensor<2xi64>>,
+  // CHECK-SAME:   index_vector_dim = #vhlo.integer_v1<2 : i64>,
+  // CHECK-SAME:   indices_are_sorted = #vhlo.bool_v1<true>,
+  // CHECK-SAME:   offset_dims = #vhlo.tensor_v1<dense<2> : tensor<1xi64>>,
+  // CHECK-SAME:   operand_batching_dims = #vhlo.tensor_v1<dense<0> : tensor<1xi64>>,
+  // CHECK-SAME:   slice_sizes = #vhlo.tensor_v1<dense<1> : tensor<4xi64>>,
+  // CHECK-SAME:   start_index_map = #vhlo.tensor_v1<dense<[1, 2]> : tensor<2xi64>>,
+  // CHECK-SAME:   start_indices_batching_dims = #vhlo.tensor_v1<dense<1> : tensor<1xi64>>
+  // CHECK-SAME: }> : (!vhlo.tensor_v1<5x2x4x9x!vhlo.f32_v1>, !vhlo.tensor_v1<1x5x2x!vhlo.i32_v1>) -> !vhlo.tensor_v1<1x5x1x!vhlo.f32_v1>
+  %0 = "stablehlo.gather"(%arg0, %arg1) {
+    dimension_numbers = #stablehlo.gather<
+      offset_dims = [2],
+      collapsed_slice_dims = [1, 2],
+      operand_batching_dims = [0],
+      start_indices_batching_dims = [1],
+      start_index_map = [1, 2],
+      index_vector_dim = 2
+    >,
+    slice_sizes = array<i64: 1, 1, 1, 1>,
+    indices_are_sorted = true
+  } : (tensor<5x2x4x9xf32>, tensor<1x5x2xi32>) -> tensor<1x5x1xf32>
+  func.return %0 : tensor<1x5x1xf32>
+}
+
+// CHECK-LABEL: "op_get_dimension_size"
+// CHECK-NEXT: (%[[ARG0:.*]]: {{.*}})
+func.func @op_get_dimension_size(%arg0: tensor<?xf32>) -> tensor<i32> {
+  //      CHECK: "vhlo.get_dimension_size_v1"(%[[ARG0]]) <{
+  // CHECK-SAME:   dimension = #vhlo.integer_v1<0 : i64>
+  // CHECK-SAME: }> : (!vhlo.tensor_v1<?x!vhlo.f32_v1>) -> !vhlo.tensor_v1<!vhlo.i32_v1>
+  %0 = "stablehlo.get_dimension_size"(%arg0) {
+    dimension = 0 : i64
+  } : (tensor<?xf32>) -> tensor<i32>
+  func.return %0 : tensor<i32>
+}
+
+// CHECK-LABEL: "op_get_tuple_element"
+// CHECK-NEXT: (%[[ARG0:.*]]: {{.*}})
+func.func @op_get_tuple_element(%arg0: tuple<tensor<f32>, tensor<i32>>) -> tensor<f32> {
+  //      CHECK: "vhlo.get_tuple_element_v1"(%[[ARG0]]) <{
+  // CHECK-SAME:   index = #vhlo.integer_v1<0 : i32>
+  // CHECK-SAME: }> : (!vhlo.tuple_v1<!vhlo.tensor_v1<!vhlo.f32_v1>, !vhlo.tensor_v1<!vhlo.i32_v1>>) -> !vhlo.tensor_v1<!vhlo.f32_v1>
+  %0 = "stablehlo.get_tuple_element"(%arg0) {
+    index = 0 : i32
+  } : (tuple<tensor<f32>, tensor<i32>>) -> tensor<f32>
+  func.return %0 : tensor<f32>
+}
+
+// CHECK-LABEL: "op_if"
+// CHECK-NEXT: (%[[ARG0:.*]]: {{.*}}, %[[ARG1:.*]]: {{.*}}, %[[ARG2:.*]]: {{.*}})
+func.func @op_if(%arg0: tensor<i1>, %arg1: tensor<f32>, %arg2: tensor<f32>) -> tensor<f32> {
+  //      CHECK: "vhlo.if_v1"(%[[ARG0]]) ({
+  // CHECK-NEXT:   "vhlo.return_v1"(%[[ARG1]]) : (!vhlo.tensor_v1<!vhlo.f32_v1>) -> ()
+  // CHECK-NEXT: }, {
+  // CHECK-NEXT:   "vhlo.return_v1"(%[[ARG2]]) : (!vhlo.tensor_v1<!vhlo.f32_v1>) -> ()
+  // CHECK-NEXT: }) : (!vhlo.tensor_v1<!vhlo.bool_v1>) -> !vhlo.tensor_v1<!vhlo.f32_v1>
+  %0 = "stablehlo.if"(%arg0) ({
+    "stablehlo.return"(%arg1) : (tensor<f32>) -> ()
+  }, {
+    "stablehlo.return"(%arg2) : (tensor<f32>) -> ()
+  }) : (tensor<i1>) -> tensor<f32>
+  func.return %0 : tensor<f32>
+}
+
+// CHECK-LABEL: "op_imag"
+// CHECK-NEXT: (%[[ARG0:.*]]: {{.*}})
+func.func @op_imag(%arg0: tensor<complex<f32>>) -> tensor<f32> {
+  // CHECK: "vhlo.imag_v1"(%[[ARG0]]) : (!vhlo.tensor_v1<!vhlo.complex_v1<!vhlo.f32_v1>>) -> !vhlo.tensor_v1<!vhlo.f32_v1>
+  %0 = "stablehlo.imag"(%arg0) : (tensor<complex<f32>>) -> tensor<f32>
+  func.return %0 : tensor<f32>
+}
+
+// CHECK-LABEL: "op_infeed"
+// CHECK-NEXT: (%[[ARG0:.*]]: {{.*}})
+func.func @op_infeed(%arg0: !stablehlo.token) -> (tensor<f32>, !stablehlo.token) {
+  //               CHECK: "vhlo.infeed_v1"(%[[ARG0]]) <{
+  //          CHECK-SAME:   infeed_config = #vhlo.string_v1<"foo">,
+  // CHECK-SAME{LITERAL}:   layout = #vhlo.array_v1<[#vhlo.array_v1<[]>]>
+  //          CHECK-SAME: }> : (!vhlo.token_v1) -> (!vhlo.tensor_v1<!vhlo.f32_v1>, !vhlo.token_v1)
+  %0:2 = "stablehlo.infeed"(%arg0) {
+    infeed_config = "foo",
+    layout = [[]]
+  } : (!stablehlo.token) -> (tensor<f32>, !stablehlo.token)
+  func.return %0#0, %0#1 : tensor<f32>, !stablehlo.token
+}
+
+// CHECK-LABEL: "op_iota"
+func.func @op_iota() -> tensor<16xf32> {
+  //      CHECK: "vhlo.iota_v1"() <{
+  // CHECK-SAME:   iota_dimension = #vhlo.integer_v1<0 : i64>
+  // CHECK-SAME: }> : () -> !vhlo.tensor_v1<16x!vhlo.f32_v1>
+  %0 = "stablehlo.iota"() {
+    iota_dimension = 0 : i64
+  } : () -> tensor<16xf32>
+  func.return %0 : tensor<16xf32>
+}
+
+// CHECK-LABEL: "op_is_finite"
+// CHECK-NEXT: (%[[ARG0:.*]]: {{.*}})
+func.func @op_is_finite(%arg0: tensor<f32>) -> tensor<i1> {
+  // CHECK: "vhlo.is_finite_v1"(%[[ARG0]]) : (!vhlo.tensor_v1<!vhlo.f32_v1>) -> !vhlo.tensor_v1<!vhlo.bool_v1>
+  %0 = "stablehlo.is_finite"(%arg0) : (tensor<f32>) -> tensor<i1>
+  func.return %0 : tensor<i1>
+}
+
+// CHECK-LABEL: "op_log"
+// CHECK-NEXT: (%[[ARG0:.*]]: {{.*}})
+func.func @op_log(%arg0: tensor<f32>) -> tensor<f32> {
+  // CHECK: "vhlo.log_v2"(%[[ARG0]]) <{result_accuracy = #vhlo.result_accuracy_v1<atol = 0.000000e+00, rtol = 0.000000e+00, ulps = 0, mode = #vhlo<result_accuracy_mode_v1 DEFAULT>>}> : (!vhlo.tensor_v1<!vhlo.f32_v1>) -> !vhlo.tensor_v1<!vhlo.f32_v1>
+  %0 = "stablehlo.log"(%arg0) : (tensor<f32>) -> tensor<f32>
+  func.return %0 : tensor<f32>
+}
+
+// CHECK-LABEL: "op_log_plus_one"
+// CHECK-NEXT: (%[[ARG0:.*]]: {{.*}})
+func.func @op_log_plus_one(%arg0: tensor<f32>) -> tensor<f32> {
+  // CHECK: "vhlo.log_plus_one_v2"(%[[ARG0]]) <{result_accuracy = #vhlo.result_accuracy_v1<atol = 0.000000e+00, rtol = 0.000000e+00, ulps = 0, mode = #vhlo<result_accuracy_mode_v1 DEFAULT>>}> : (!vhlo.tensor_v1<!vhlo.f32_v1>) -> !vhlo.tensor_v1<!vhlo.f32_v1>
+  %0 = "stablehlo.log_plus_one"(%arg0) : (tensor<f32>) -> tensor<f32>
+  func.return %0 : tensor<f32>
+}
+
+// CHECK-LABEL: "op_logistic"
+// CHECK-NEXT: (%[[ARG0:.*]]: {{.*}})
+func.func @op_logistic(%arg0: tensor<f32>) -> tensor<f32> {
+  // CHECK: "vhlo.logistic_v2"(%[[ARG0]]) <{result_accuracy = #vhlo.result_accuracy_v1<atol = 0.000000e+00, rtol = 0.000000e+00, ulps = 0, mode = #vhlo<result_accuracy_mode_v1 DEFAULT>>}> : (!vhlo.tensor_v1<!vhlo.f32_v1>) -> !vhlo.tensor_v1<!vhlo.f32_v1>
+  %0 = "stablehlo.logistic"(%arg0) : (tensor<f32>) -> tensor<f32>
+  func.return %0 : tensor<f32>
+}
+
+// CHECK-LABEL: "op_map"
+// CHECK-NEXT: (%[[ARG0:.*]]: {{.*}})
+func.func @op_map(%arg0: tensor<16xf32>) -> tensor<16xf32> {
+  //      CHECK: "vhlo.map_v1"(%[[ARG0]]) <{
+  // CHECK-SAME:   dimensions = #vhlo.tensor_v1<dense<0> : tensor<1xi64>>
+  // CHECK-SAME: }> ({
+  // CHECK-NEXT:   ^[[BB:bb.*]](%[[ARG1:arg.*]]: !vhlo.tensor_v1<!vhlo.f32_v1>):
+  // CHECK-NEXT:     %[[VAL1:.*]] = "vhlo.abs_v1"(%[[ARG1]]) : (!vhlo.tensor_v1<!vhlo.f32_v1>) -> !vhlo.tensor_v1<!vhlo.f32_v1>
+  // CHECK-NEXT:     "vhlo.return_v1"(%[[VAL1]]) : (!vhlo.tensor_v1<!vhlo.f32_v1>) -> ()
+  // CHECK-NEXT: }) : (!vhlo.tensor_v1<16x!vhlo.f32_v1>) -> !vhlo.tensor_v1<16x!vhlo.f32_v1>
+  %0 = "stablehlo.map"(%arg0) ({
+    ^bb0(%arg1: tensor<f32>):
+      %1 = "stablehlo.abs"(%arg1) : (tensor<f32>) -> tensor<f32>
+      "stablehlo.return"(%1) : (tensor<f32>) -> ()
+  }) {
+    dimensions = array<i64: 0>
+  } : (tensor<16xf32>) -> tensor<16xf32>
+  func.return %0 : tensor<16xf32>
+}
+
+// CHECK-LABEL: "op_maximum"
+// CHECK-NEXT: (%[[ARG0:.*]]: {{.*}}, %[[ARG1:.*]]: {{.*}})
+func.func @op_maximum(%arg0: tensor<f32>, %arg1: tensor<f32>) -> tensor<f32> {
+  // CHECK: "vhlo.maximum_v1"(%[[ARG0]], %[[ARG1]]) : (!vhlo.tensor_v1<!vhlo.f32_v1>, !vhlo.tensor_v1<!vhlo.f32_v1>) -> !vhlo.tensor_v1<!vhlo.f32_v1>
+  %0 = "stablehlo.maximum"(%arg0, %arg1) : (tensor<f32>, tensor<f32>) -> tensor<f32>
+  func.return %0 : tensor<f32>
+}
+
+// CHECK-LABEL: "op_minimum"
+// CHECK-NEXT: (%[[ARG0:.*]]: {{.*}}, %[[ARG1:.*]]: {{.*}})
+func.func @op_minimum(%arg0: tensor<f32>, %arg1: tensor<f32>) -> tensor<f32> {
+  // CHECK: "vhlo.minimum_v1"(%[[ARG0]], %[[ARG1]]) : (!vhlo.tensor_v1<!vhlo.f32_v1>, !vhlo.tensor_v1<!vhlo.f32_v1>) -> !vhlo.tensor_v1<!vhlo.f32_v1>
+  %0 = "stablehlo.minimum"(%arg0, %arg1) : (tensor<f32>, tensor<f32>) -> tensor<f32>
+  func.return %0 : tensor<f32>
+}
+
+// CHECK-LABEL: "op_multiply"
+// CHECK-NEXT: (%[[ARG0:.*]]: {{.*}}, %[[ARG1:.*]]: {{.*}})
+func.func @op_multiply(%arg0: tensor<f32>, %arg1: tensor<f32>) -> tensor<f32> {
+  // CHECK: "vhlo.multiply_v1"(%[[ARG0]], %[[ARG1]]) : (!vhlo.tensor_v1<!vhlo.f32_v1>, !vhlo.tensor_v1<!vhlo.f32_v1>) -> !vhlo.tensor_v1<!vhlo.f32_v1>
+  %0 = "stablehlo.multiply"(%arg0, %arg1) : (tensor<f32>, tensor<f32>) -> tensor<f32>
+  func.return %0 : tensor<f32>
+}
+
+// CHECK-LABEL: "op_negate"
+// CHECK-NEXT: (%[[ARG0:.*]]: {{.*}})
+func.func @op_negate(%arg0: tensor<f32>) -> tensor<f32> {
+  // CHECK: "vhlo.negate_v1"(%[[ARG0]]) : (!vhlo.tensor_v1<!vhlo.f32_v1>) -> !vhlo.tensor_v1<!vhlo.f32_v1>
+  %0 = "stablehlo.negate"(%arg0) : (tensor<f32>) -> tensor<f32>
+  func.return %0 : tensor<f32>
+}
+
+// CHECK-LABEL: "op_not"
+// CHECK-NEXT: (%[[ARG0:.*]]: {{.*}})
+func.func @op_not(%arg0: tensor<i1>) -> tensor<i1> {
+  // CHECK: "vhlo.not_v1"(%[[ARG0]]) : (!vhlo.tensor_v1<!vhlo.bool_v1>) -> !vhlo.tensor_v1<!vhlo.bool_v1>
+  %0 = "stablehlo.not"(%arg0) : (tensor<i1>) -> tensor<i1>
+  func.return %0 : tensor<i1>
+}
+
+// CHECK-LABEL: "op_optimization_barrier"
+// CHECK-NEXT: (%[[ARG0:.*]]: {{.*}})
+func.func @op_optimization_barrier(%arg0: tensor<f32>) -> tensor<f32> {
+  // CHECK: "vhlo.optimization_barrier_v1"(%[[ARG0]]) : (!vhlo.tensor_v1<!vhlo.f32_v1>) -> !vhlo.tensor_v1<!vhlo.f32_v1>
+  %0 = "stablehlo.optimization_barrier"(%arg0) : (tensor<f32>) -> tensor<f32>
+  func.return %0 : tensor<f32>
+}
+
+// CHECK-LABEL: "op_or"
+// CHECK-NEXT: (%[[ARG0:.*]]: {{.*}}, %[[ARG1:.*]]: {{.*}})
+func.func @op_or(%arg0: tensor<i1>, %arg1: tensor<i1>) -> tensor<i1> {
+  // CHECK: "vhlo.or_v1"(%[[ARG0]], %[[ARG1]]) : (!vhlo.tensor_v1<!vhlo.bool_v1>, !vhlo.tensor_v1<!vhlo.bool_v1>) -> !vhlo.tensor_v1<!vhlo.bool_v1>
+  %0 = "stablehlo.or"(%arg0, %arg1) : (tensor<i1>, tensor<i1>) -> tensor<i1>
+  func.return %0 : tensor<i1>
+}
+
+// CHECK-LABEL: "op_outfeed"
+// CHECK-NEXT: (%[[ARG0:.*]]: {{.*}}, %[[ARG1:.*]]: {{.*}})
+func.func @op_outfeed(%arg0: tensor<f32>, %arg1: !stablehlo.token) -> !stablehlo.token {
+  //      CHECK: "vhlo.outfeed_v1"(%[[ARG0]], %[[ARG1]]) <{
+  // CHECK-SAME:   outfeed_config = #vhlo.string_v1<"foo">
+  // CHECK-SAME: }> : (!vhlo.tensor_v1<!vhlo.f32_v1>, !vhlo.token_v1) -> !vhlo.token_v1
+  %0 = "stablehlo.outfeed"(%arg0, %arg1) {
+    outfeed_config = "foo"
+  } : (tensor<f32>, !stablehlo.token) -> !stablehlo.token
+  func.return %0 : !stablehlo.token
+}
+
+// CHECK-LABEL: "op_pad"
+// CHECK-NEXT: (%[[ARG0:.*]]: {{.*}}, %[[ARG1:.*]]: {{.*}})
+func.func @op_pad(%arg0: tensor<8xf32>, %arg1: tensor<f32>) -> tensor<16xf32> {
+  //      CHECK: "vhlo.pad_v1"(%[[ARG0]], %[[ARG1]]) <{
+  // CHECK-SAME:   edge_padding_high = #vhlo.tensor_v1<dense<4> : tensor<1xi64>>,
+  // CHECK-SAME:   edge_padding_low = #vhlo.tensor_v1<dense<4> : tensor<1xi64>>,
+  // CHECK-SAME:   interior_padding = #vhlo.tensor_v1<dense<0> : tensor<1xi64>>
+  // CHECK-SAME: }> : (!vhlo.tensor_v1<8x!vhlo.f32_v1>, !vhlo.tensor_v1<!vhlo.f32_v1>) -> !vhlo.tensor_v1<16x!vhlo.f32_v1>
+  %0 = "stablehlo.pad"(%arg0, %arg1) {
+    edge_padding_high = array<i64: 4>,
+    edge_padding_low = array<i64: 4>,
+    interior_padding = array<i64: 0>
+  } : (tensor<8xf32>, tensor<f32>) -> tensor<16xf32>
+  func.return %0 : tensor<16xf32>
+}
+
+// CHECK-LABEL: "op_popcnt"
+// CHECK-NEXT: (%[[ARG0:.*]]: {{.*}})
+func.func @op_popcnt(%arg0: tensor<i32>) -> tensor<i32> {
+  // CHECK: "vhlo.popcnt_v1"(%[[ARG0]]) : (!vhlo.tensor_v1<!vhlo.i32_v1>) -> !vhlo.tensor_v1<!vhlo.i32_v1>
+  %0 = "stablehlo.popcnt"(%arg0) : (tensor<i32>) -> tensor<i32>
+  func.return %0 : tensor<i32>
+}
+
+// CHECK-LABEL: "op_power"
+// CHECK-NEXT: (%[[ARG0:.*]]: {{.*}}, %[[ARG1:.*]]: {{.*}})
+func.func @op_power(%arg0: tensor<f32>, %arg1: tensor<f32>) -> tensor<f32> {
+  // CHECK: "vhlo.power_v1"(%[[ARG0]], %[[ARG1]]) : (!vhlo.tensor_v1<!vhlo.f32_v1>, !vhlo.tensor_v1<!vhlo.f32_v1>) -> !vhlo.tensor_v1<!vhlo.f32_v1>
+  %0 = "stablehlo.power"(%arg0, %arg1) : (tensor<f32>, tensor<f32>) -> tensor<f32>
+  func.return %0 : tensor<f32>
+}
+
+// CHECK-LABEL: "op_real_dynamic_slice"
+// CHECK-NEXT: (%[[ARG0:.*]]: {{.*}}, %[[ARG1:.*]]: {{.*}}, %[[ARG2:.*]]: {{.*}}, %[[ARG3:.*]]: {{.*}})
+func.func @op_real_dynamic_slice(%arg0: tensor<?xf32>, %arg1: tensor<1xindex>, %arg2: tensor<1xindex>, %arg3: tensor<1xindex>) -> tensor<?xf32> {
+  // CHECK: "vhlo.real_dynamic_slice_v1"(%[[ARG0]], %[[ARG1]], %[[ARG2]], %[[ARG3]]) : (!vhlo.tensor_v1<?x!vhlo.f32_v1>, !vhlo.tensor_v1<1x!vhlo.index_v1>, !vhlo.tensor_v1<1x!vhlo.index_v1>, !vhlo.tensor_v1<1x!vhlo.index_v1>) -> !vhlo.tensor_v1<?x!vhlo.f32_v1>
+  %0 = "stablehlo.real_dynamic_slice"(%arg0, %arg1, %arg2, %arg3) : (tensor<?xf32>, tensor<1xindex>, tensor<1xindex>, tensor<1xindex>) -> tensor<?xf32>
+  func.return %0 : tensor<?xf32>
+}
+
+// CHECK-LABEL: "op_real"
+// CHECK-NEXT: (%[[ARG0:.*]]: {{.*}})
+func.func @op_real(%arg0: tensor<complex<f32>>) -> tensor<f32> {
+  // CHECK: "vhlo.real_v1"(%[[ARG0]]) : (!vhlo.tensor_v1<!vhlo.complex_v1<!vhlo.f32_v1>>) -> !vhlo.tensor_v1<!vhlo.f32_v1>
+  %0 = "stablehlo.real"(%arg0) : (tensor<complex<f32>>) -> tensor<f32>
+  func.return %0 : tensor<f32>
+}
+
+// CHECK-LABEL: "op_recv_no_source_target_pairs"
+// CHECK-NEXT: (%[[ARG0:.*]]: {{.*}})
+func.func @op_recv_no_source_target_pairs(%arg0: !stablehlo.token) -> (tensor<f32>, !stablehlo.token) {
+  //      CHECK: "vhlo.recv_v2"(%[[ARG0]]) <{
+  // CHECK-SAME:   channel_id = #vhlo.integer_v1<0 : i64>,
+  // CHECK-SAME:   channel_type = #vhlo.integer_v1<3 : i64>,
+  // CHECK-SAME:   is_host_transfer = #vhlo.bool_v1<true>,
+  // CHECK-SAME{LITERAL}:   source_target_pairs = #vhlo.tensor_v1<dense<> : tensor<0xi64>
+  // CHECK-SAME{LITERAL}: }> : (!vhlo.token_v1) -> (!vhlo.tensor_v1<!vhlo.f32_v1>, !vhlo.token_v1)
+  %0:2 = "stablehlo.recv"(%arg0) {
+    channel_handle = #stablehlo.channel_handle<handle = 0, type = 3>,
+    is_host_transfer = true
+  } : (!stablehlo.token) -> (tensor<f32>, !stablehlo.token)
+  func.return %0#0, %0#1 : tensor<f32>, !stablehlo.token
+}
+
+// CHECK-LABEL: "op_reduce"
+// CHECK-NEXT: (%[[ARG0:.*]]: {{.*}}, %[[ARG1:.*]]: {{.*}})
+func.func @op_reduce(%arg0: tensor<16xf32>, %arg1: tensor<f32>) -> tensor<f32> {
+  //  CHECK: "vhlo.reduce_v1"(%[[ARG0]], %[[ARG1]])
+  //  CHECK:   ^[[BB:bb.*]](%[[ARG1:arg.*]]: !vhlo.tensor_v1<!vhlo.f32_v1>, %[[ARG2:arg.*]]: !vhlo.tensor_v1<!vhlo.f32_v1>):
+  //  CHECK:     "vhlo.return_v1"(%[[VAL1:.*]]) : (!vhlo.tensor_v1<!vhlo.f32_v1>) -> ()
+  //  CHECK: }) : (!vhlo.tensor_v1<16x!vhlo.f32_v1>, !vhlo.tensor_v1<!vhlo.f32_v1>) -> !vhlo.tensor_v1<!vhlo.f32_v1>
+  %0 = "stablehlo.reduce"(%arg0, %arg1) ({
+    ^bb0(%arg2: tensor<f32>, %arg3: tensor<f32>):
+      %1 = "stablehlo.add"(%arg2, %arg3) : (tensor<f32>, tensor<f32>) -> tensor<f32>
+      "stablehlo.return"(%1) : (tensor<f32>) -> ()
+  }) {
+    dimensions = array<i64: 0>
+  } : (tensor<16xf32>, tensor<f32>) -> tensor<f32>
+  func.return %0 : tensor<f32>
+}
+
+// CHECK-LABEL: "op_reduce_precision"
+// CHECK-NEXT: (%[[ARG0:.*]]: {{.*}})
+func.func @op_reduce_precision(%arg0: tensor<f32>) -> tensor<f32> {
+  //      CHECK: "vhlo.reduce_precision_v1"(%[[ARG0]]) <{
+  // CHECK-SAME:   exponent_bits = #vhlo.integer_v1<8 : i32>
+  // CHECK-SAME:   mantissa_bits = #vhlo.integer_v1<10 : i32>
+  // CHECK-SAME: }> : (!vhlo.tensor_v1<!vhlo.f32_v1>) -> !vhlo.tensor_v1<!vhlo.f32_v1>
+  %0 = "stablehlo.reduce_precision"(%arg0) {
+    exponent_bits = 8 : i32,
+    mantissa_bits = 10 : i32
+  } : (tensor<f32>) -> tensor<f32>
+  func.return %0 : tensor<f32>
+}
+
+// CHECK_lABEL: "op_reduce_with_promotable_types"
+func.func @op_reduce_with_promotable_types(%arg0: tensor<4x4xf32>, %arg1 : tensor<f32>)
+    -> (tensor<4xf64>) {
+  //  CHECK: "vhlo.reduce_v1"(%[[ARG0:.*]], %[[ARG1:.*]])
+  //  CHECK:   ^[[BB:bb.*]](%[[ARG1:arg.*]]: !vhlo.tensor_v1<!vhlo.f64_v1>, %[[ARG2:arg.*]]: !vhlo.tensor_v1<!vhlo.f64_v1>):
+  //  CHECK:     "vhlo.return_v1"(%[[VAL1:.*]]) : (!vhlo.tensor_v1<!vhlo.f64_v1>) -> ()
+  //  CHECK: }) : (!vhlo.tensor_v1<4x4x!vhlo.f32_v1>, !vhlo.tensor_v1<!vhlo.f32_v1>) -> !vhlo.tensor_v1<4x!vhlo.f64_v1>
+  %0 = "stablehlo.reduce"(%arg0, %arg1) ({
+  ^bb0(%arg2: tensor<f64>, %arg3: tensor<f64> ):
+    %1 = "stablehlo.add"(%arg2, %arg3) : (tensor<f64>, tensor<f64>) -> tensor<f64>
+    "stablehlo.return"(%1) : (tensor<f64>) -> ()
+
+  }) {dimensions = array<i64: 0>} : (tensor<4x4xf32>, tensor<f32>) -> tensor<4xf64>
+
+  func.return %0: tensor<4xf64>
+}
+
+// CHECK-LABEL: "op_reduce_scatter"
+// CHECK-NEXT: (%[[ARG0:.*]]: {{.*}})
+func.func @op_reduce_scatter(%arg0: tensor<16xf32>) -> tensor<16xf32> {
+  //               CHECK: "vhlo.reduce_scatter_v1"(%[[ARG0]]) <{
+  //          CHECK-SAME:   channel_id = #vhlo.integer_v1<1 : i64>,
+  // CHECK-SAME{LITERAL}:   replica_groups = #vhlo.tensor_v1<dense<[[0], [1]]> : tensor<2x1xi64>>,
+  //          CHECK-SAME:   scatter_dimension = #vhlo.integer_v1<0 : i64>
+  //          CHECK-SAME:   use_global_device_ids = #vhlo.bool_v1<true>
+  //          CHECK-SAME: }> ({
+  //          CHECK-NEXT:   ^[[BB:bb.*]](%[[ARG1:arg.*]]: !vhlo.tensor_v1<!vhlo.f32_v1>, %[[ARG2:arg.*]]: !vhlo.tensor_v1<!vhlo.f32_v1>):
+  //          CHECK-NEXT:     %[[VAL1:.*]] = "vhlo.add_v1"(%[[ARG1]], %[[ARG2]]) : (!vhlo.tensor_v1<!vhlo.f32_v1>, !vhlo.tensor_v1<!vhlo.f32_v1>) -> !vhlo.tensor_v1<!vhlo.f32_v1>
+  //          CHECK-NEXT:     "vhlo.return_v1"(%[[VAL1]]) : (!vhlo.tensor_v1<!vhlo.f32_v1>) -> ()
+  //          CHECK-NEXT: }) : (!vhlo.tensor_v1<16x!vhlo.f32_v1>) -> !vhlo.tensor_v1<16x!vhlo.f32_v1>
+  %0 = "stablehlo.reduce_scatter"(%arg0) ({
+    ^bb0(%arg1: tensor<f32>, %arg2: tensor<f32>):
+      %1 = "stablehlo.add"(%arg1, %arg2) : (tensor<f32>, tensor<f32>) -> tensor<f32>
+      "stablehlo.return"(%1) : (tensor<f32>) -> ()
+  }) {
+    scatter_dimension = 0 : i64,
+    replica_groups = dense<[[0], [1]]> : tensor<2x1xi64>,
+    channel_handle = #stablehlo.channel_handle<handle = 1, type = 0>,
+    use_global_device_ids
+  } : (tensor<16xf32>) -> tensor<16xf32>
+  func.return %0 : tensor<16xf32>
+}
+
+// CHECK_lABEL: "op_reduce_scatter_with_promotable_types"
+func.func @op_reduce_scatter_with_promotable_types(%data: tensor<4x16xf32>) -> tensor<4x4xf64> {
+  //  CHECK: "vhlo.reduce_scatter_v1"(%[[ARG0:.*]])
+  //  CHECK:   ^[[BB:bb.*]](%[[ARG1:arg.*]]: !vhlo.tensor_v1<!vhlo.f64_v1>, %[[ARG2:arg.*]]: !vhlo.tensor_v1<!vhlo.f64_v1>):
+  //  CHECK:     "vhlo.return_v1"(%[[VAL1:.*]]) : (!vhlo.tensor_v1<!vhlo.f64_v1>) -> ()
+  //  CHECK: }) : (!vhlo.tensor_v1<4x16x!vhlo.f32_v1>) -> !vhlo.tensor_v1<4x4x!vhlo.f64_v1>
+  %0 = "stablehlo.reduce_scatter"(%data) ({
+    ^bb0(%arg2: tensor<f64>, %arg3: tensor<f64>):
+    %1 = stablehlo.add %arg2, %arg3 : tensor<f64>
+    "stablehlo.return"(%1) : (tensor<f64>) -> ()
+  }) {replica_groups = dense<[[0, 1, 2, 3]]> : tensor<1x4xi64>,
+      scatter_dimension = 1 : i64,
+      channel_handle = #stablehlo.channel_handle<handle = 1, type = 0>,
+      use_global_device_ids} : (tensor<4x16xf32>) -> tensor<4x4xf64>
+  func.return %0 : tensor<4x4xf64>
+}
+
+
+// CHECK-LABEL: "op_reduce_window"
+// CHECK-NEXT: (%[[ARG0:.*]]: {{.*}}, %[[ARG1:.*]]: {{.*}})
+func.func @op_reduce_window(%arg0: tensor<2x17x31x7xf32>, %arg1: tensor<f32>) -> tensor<2x9x16x7xf32> {
+  //               CHECK: "vhlo.reduce_window_v1"(%[[ARG0]], %[[ARG1]]) <{
+  //          CHECK-SAME:   base_dilations = #vhlo.tensor_v1<dense<[1, 2, 2, 1]> : tensor<4xi64>>,
+  // CHECK-SAME{LITERAL}:   padding = #vhlo.tensor_v1<dense<[[0, 0], [2, 0], [0, 2], [0, 0]]> : tensor<4x2xi64>>,
+  //          CHECK-SAME:   window_dilations = #vhlo.tensor_v1<dense<[1, 2, 2, 1]> : tensor<4xi64>>,
+  //          CHECK-SAME:   window_dimensions = #vhlo.tensor_v1<dense<[1, 2, 2, 1]> : tensor<4xi64>>,
+  //          CHECK-SAME:   window_strides = #vhlo.tensor_v1<dense<[1, 4, 4, 1]> : tensor<4xi64>>
+  //          CHECK-SAME: }> ({
+  //          CHECK-NEXT:   ^[[BB:bb.*]](%[[ARG2:arg.*]]: !vhlo.tensor_v1<!vhlo.f32_v1>, %[[ARG3:arg.*]]: !vhlo.tensor_v1<!vhlo.f32_v1>):
+  //          CHECK-NEXT:     %[[VAL1:.*]] = "vhlo.maximum_v1"(%[[ARG2]], %[[ARG3]]) : (!vhlo.tensor_v1<!vhlo.f32_v1>, !vhlo.tensor_v1<!vhlo.f32_v1>) -> !vhlo.tensor_v1<!vhlo.f32_v1>
+  //          CHECK-NEXT:     "vhlo.return_v1"(%[[VAL1]]) : (!vhlo.tensor_v1<!vhlo.f32_v1>) -> ()
+  //          CHECK-NEXT: }) : (!vhlo.tensor_v1<2x17x31x7x!vhlo.f32_v1>, !vhlo.tensor_v1<!vhlo.f32_v1>) -> !vhlo.tensor_v1<2x9x16x7x!vhlo.f32_v1>
+  %0 = "stablehlo.reduce_window"(%arg0, %arg1) ({
+    ^bb0(%arg2: tensor<f32>, %arg3: tensor<f32>):
+      %1 = "stablehlo.maximum"(%arg2, %arg3) : (tensor<f32>, tensor<f32>) -> tensor<f32>
+      "stablehlo.return"(%1) : (tensor<f32>) -> ()
+  }) {
+    window_dimensions = array<i64: 1, 2, 2, 1>,
+    window_strides = array<i64: 1, 4, 4, 1>,
+    base_dilations = array<i64: 1, 2, 2, 1>,
+    window_dilations = array<i64: 1, 2, 2, 1>,
+    padding = dense<[[0, 0], [2, 0], [0, 2], [0, 0]]> : tensor<4x2xi64>
+  } : (tensor<2x17x31x7xf32>, tensor<f32>) -> tensor<2x9x16x7xf32>
+  func.return %0 : tensor<2x9x16x7xf32>
+}
+
+// CHECK-LABEL: "op_reduce_window_with_promotable_types"
+func.func @op_reduce_window_with_promotable_types(%arg0: tensor<4x2xf32>,
+    %arg1: tensor<4x2xf32>, %init0: tensor<f32>, %init1: tensor<f32>) ->
+    (tensor<2x2xf64>, tensor<2x2xf32>) {
+  //  CHECK: "vhlo.reduce_window_v1"(%[[ARG0:.*]], %[[ARG1:.*]], %[[ARG2:.*]], %[[ARG3:.*]])
+  //  CHECK:   ^[[BB:bb.*]](%[[ARG1:arg.*]]: !vhlo.tensor_v1<!vhlo.f64_v1>, %[[ARG2:arg.*]]: !vhlo.tensor_v1<!vhlo.f32_v1>, %[[ARG3:arg.*]]: !vhlo.tensor_v1<!vhlo.f64_v1>, %[[ARG4:arg.*]]: !vhlo.tensor_v1<!vhlo.f32_v1>):
+  //  CHECK:     "vhlo.return_v1"(%[[VAL1:.*]], %[[VAL2:.*]]) : (!vhlo.tensor_v1<!vhlo.f64_v1>, !vhlo.tensor_v1<!vhlo.f32_v1>) -> ()
+  //  CHECK: }) : (!vhlo.tensor_v1<4x2x!vhlo.f32_v1>, !vhlo.tensor_v1<4x2x!vhlo.f32_v1>, !vhlo.tensor_v1<!vhlo.f32_v1>, !vhlo.tensor_v1<!vhlo.f32_v1>) -> (!vhlo.tensor_v1<2x2x!vhlo.f64_v1>, !vhlo.tensor_v1<2x2x!vhlo.f32_v1>)
+  %0:2 = "stablehlo.reduce_window"(%arg0, %arg1, %init0, %init1) ({
+         ^bb0(%a0: tensor<f64>, %a1: tensor<f32>, %b0: tensor<f64>,
+                %b1: tensor<f32>):
+              %2 = stablehlo.add %a0, %b0 : tensor<f64>
+              %3 = stablehlo.add %a1, %b1 : tensor<f32>
+              "stablehlo.return"(%2,%3) : (tensor<f64>, tensor<f32>) -> ()
+            })
+         { padding = dense<[[2, 2], [0, 0]]> : tensor<2x2xi64>,
+         window_dimensions = array<i64: 5, 1>,
+         window_strides = array<i64: 3, 1> }
+         : (tensor<4x2xf32>, tensor<4x2xf32>, tensor<f32>, tensor<f32>) ->
+              (tensor<2x2xf64>, tensor<2x2xf32>)
+  func.return %0#0, %0#1 : tensor<2x2xf64>, tensor<2x2xf32>
+}
+
+// CHECK-LABEL: "op_remainder"
+// CHECK-NEXT: (%[[ARG0:.*]]: {{.*}}, %[[ARG1:.*]]: {{.*}})
+func.func @op_remainder(%arg0: tensor<f32>, %arg1: tensor<f32>) -> tensor<f32> {
+  // CHECK: "vhlo.remainder_v1"(%[[ARG0]], %[[ARG1]]) : (!vhlo.tensor_v1<!vhlo.f32_v1>, !vhlo.tensor_v1<!vhlo.f32_v1>) -> !vhlo.tensor_v1<!vhlo.f32_v1>
+  %0 = "stablehlo.remainder"(%arg0, %arg1) : (tensor<f32>, tensor<f32>) -> tensor<f32>
+  func.return %0 : tensor<f32>
+}
+
+// CHECK-LABEL: "op_replica_id"
+func.func @op_replica_id() -> tensor<ui32> {
+  // CHECK: "vhlo.replica_id_v1"() : () -> !vhlo.tensor_v1<!vhlo.ui32_v1>
+  %0 = "stablehlo.replica_id"() : () -> tensor<ui32>
+  func.return %0 : tensor<ui32>
+}
+
+// CHECK-LABEL: "op_partition_id"
+func.func @op_partition_id() -> tensor<ui32> {
+  // CHECK: "vhlo.partition_id_v1"() : () -> !vhlo.tensor_v1<!vhlo.ui32_v1>
+  %0 = "stablehlo.partition_id"() : () -> tensor<ui32>
+  func.return %0 : tensor<ui32>
+}
+
+// CHECK-LABEL: "op_reshape"
+// CHECK-NEXT: (%[[ARG0:.*]]: {{.*}})
+func.func @op_reshape(%arg0: tensor<16xf32>) -> tensor<4x4xf32> {
+  // CHECK: "vhlo.reshape_v1"(%[[ARG0]]) : (!vhlo.tensor_v1<16x!vhlo.f32_v1>) -> !vhlo.tensor_v1<4x4x!vhlo.f32_v1>
+  %0 = "stablehlo.reshape"(%arg0) : (tensor<16xf32>) -> tensor<4x4xf32>
+  func.return %0 : tensor<4x4xf32>
+}
+
+// CHECK-LABEL: "op_return"
+// CHECK-NEXT: (%[[ARG0:.*]]: {{.*}}, %[[ARG1:.*]]: {{.*}})
+func.func @op_return(%arg0: tensor<i32>, %arg1: tensor<f32>) -> tensor<f32> {
+  //      CHECK: "vhlo.case_v1"(%[[ARG0]]) ({
+  // CHECK-NEXT:   "vhlo.return_v1"(%[[ARG1]]) : (!vhlo.tensor_v1<!vhlo.f32_v1>) -> ()
+  // CHECK-NEXT: }) : (!vhlo.tensor_v1<!vhlo.i32_v1>) -> !vhlo.tensor_v1<!vhlo.f32_v1>
+  %0 = "stablehlo.case"(%arg0) ({
+    "stablehlo.return"(%arg1) : (tensor<f32>) -> ()
+  }) : (tensor<i32>) -> tensor<f32>
+  func.return %0 : tensor<f32>
+}
+
+// CHECK-LABEL: "op_reverse"
+// CHECK-NEXT: (%[[ARG0:.*]]: {{.*}})
+func.func @op_reverse(%arg0: tensor<16xf32>) -> tensor<16xf32> {
+  //      CHECK: "vhlo.reverse_v1"(%[[ARG0]]) <{
+  // CHECK-SAME:   dimensions = #vhlo.tensor_v1<dense<0> : tensor<1xi64>>
+  // CHECK-SAME: }> : (!vhlo.tensor_v1<16x!vhlo.f32_v1>) -> !vhlo.tensor_v1<16x!vhlo.f32_v1>
+  %0 = "stablehlo.reverse"(%arg0) {
+    dimensions = array<i64: 0>
+  } : (tensor<16xf32>) -> tensor<16xf32>
+  func.return %0 : tensor<16xf32>
+}
+
+// CHECK-LABEL: "op_rng_bit_generator"
+// CHECK-NEXT: (%[[ARG0:.*]]: {{.*}})
+func.func @op_rng_bit_generator(%arg0: tensor<f32>) -> (tensor<f32>, tensor<f32>) {
+  //      CHECK: "vhlo.rng_bit_generator_v1"(%[[ARG0]]) <{
+  // CHECK-SAME:   rng_algorithm = #vhlo<rng_algorithm_v1 PHILOX>
+  // CHECK-SAME: }> : (!vhlo.tensor_v1<!vhlo.f32_v1>) -> (!vhlo.tensor_v1<!vhlo.f32_v1>, !vhlo.tensor_v1<!vhlo.f32_v1>)
+  %0:2 = "stablehlo.rng_bit_generator"(%arg0) {
+    rng_algorithm = #stablehlo<rng_algorithm PHILOX>
+  } : (tensor<f32>) -> (tensor<f32>, tensor<f32>)
+  func.return %0#0, %0#1 : tensor<f32>, tensor<f32>
+}
+
+// CHECK-LABEL: "op_rng"
+// CHECK-NEXT: (%[[ARG0:.*]]: {{.*}}, %[[ARG1:.*]]: {{.*}}, %[[ARG2:.*]]: {{.*}})
+func.func @op_rng(%arg0: tensor<f32>, %arg1: tensor<f32>, %arg2: tensor<0xindex>) -> tensor<f32> {
+  //      CHECK: "vhlo.rng_v1"(%[[ARG0]], %[[ARG1]], %[[ARG2]]) <{
+  // CHECK-SAME:   rng_distribution = #vhlo<rng_distribution_v1 NORMAL>
+  // CHECK-SAME: }> : (!vhlo.tensor_v1<!vhlo.f32_v1>, !vhlo.tensor_v1<!vhlo.f32_v1>, !vhlo.tensor_v1<0x!vhlo.index_v1>) -> !vhlo.tensor_v1<!vhlo.f32_v1>
+  %0 = "stablehlo.rng"(%arg0, %arg1, %arg2) {
+    rng_distribution = #stablehlo<rng_distribution NORMAL>
+  } : (tensor<f32>, tensor<f32>, tensor<0xindex>) -> tensor<f32>
+  func.return %0 : tensor<f32>
+}
+
+// CHECK-LABEL: "op_round_nearest_afz"
+// CHECK-NEXT: (%[[ARG0:.*]]: {{.*}})
+func.func @op_round_nearest_afz(%arg0: tensor<f32>) -> tensor<f32> {
+  // CHECK: "vhlo.round_nearest_afz_v1"(%[[ARG0]]) : (!vhlo.tensor_v1<!vhlo.f32_v1>) -> !vhlo.tensor_v1<!vhlo.f32_v1>
+  %0 = "stablehlo.round_nearest_afz"(%arg0) : (tensor<f32>) -> tensor<f32>
+  func.return %0 : tensor<f32>
+}
+
+// CHECK-LABEL: "op_round_nearest_even"
+// CHECK-NEXT: (%[[ARG0:.*]]: {{.*}})
+func.func @op_round_nearest_even(%arg0: tensor<f32>) -> tensor<f32> {
+  // CHECK: "vhlo.round_nearest_even_v1"(%[[ARG0]]) : (!vhlo.tensor_v1<!vhlo.f32_v1>) -> !vhlo.tensor_v1<!vhlo.f32_v1>
+  %0 = "stablehlo.round_nearest_even"(%arg0) : (tensor<f32>) -> tensor<f32>
+  func.return %0 : tensor<f32>
+}
+
+// CHECK-LABEL: "op_rsqrt"
+// CHECK-NEXT: (%[[ARG0:.*]]: {{.*}})
+func.func @op_rsqrt(%arg0: tensor<f32>) -> tensor<f32> {
+  // CHECK: "vhlo.rsqrt_v2"(%[[ARG0]]) <{result_accuracy = #vhlo.result_accuracy_v1<atol = 0.000000e+00, rtol = 0.000000e+00, ulps = 0, mode = #vhlo<result_accuracy_mode_v1 DEFAULT>>}> : (!vhlo.tensor_v1<!vhlo.f32_v1>) -> !vhlo.tensor_v1<!vhlo.f32_v1>
+  %0 = "stablehlo.rsqrt"(%arg0) : (tensor<f32>) -> tensor<f32>
+  func.return %0 : tensor<f32>
+}
+
+// CHECK-LABEL: "op_scatter"
+// CHECK-NEXT: (%[[ARG0:.*]]: {{.*}}, %[[ARG1:.*]]: {{.*}}, %[[ARG2:.*]]: {{.*}})
+func.func @op_scatter(%arg0: tensor<200x100x300xf32>, %arg1: tensor<10x2xi32>, %arg2: tensor<10x300xf32>) -> tensor<200x100x300xf32> {
+  //      CHECK: "vhlo.scatter_v2"(%[[ARG0]], %[[ARG1]], %[[ARG2]]) <{
+  // CHECK-SAME:   index_vector_dim = #vhlo.integer_v1<1 : i64>,
+  // CHECK-SAME:   indices_are_sorted = #vhlo.bool_v1<true>,
+  // CHECK-SAME:   input_batching_dims = #vhlo.tensor_v1<dense<> : tensor<0xi64>>,
+  // CHECK-SAME:   inserted_window_dims = #vhlo.tensor_v1<dense<[0, 1]> : tensor<2xi64>>,
+  // CHECK-SAME:   scatter_dims_to_operand_dims = #vhlo.tensor_v1<dense<[0, 1]> : tensor<2xi64>>,
+  // CHECK-SAME:   scatter_indices_batching_dims = #vhlo.tensor_v1<dense<> : tensor<0xi64>>,
+  // CHECK-SAME:   unique_indices = #vhlo.bool_v1<true>,
+  // CHECK-SAME:   update_window_dims = #vhlo.tensor_v1<dense<1> : tensor<1xi64>>
+  // CHECK-SAME: }> ({
+  // CHECK-NEXT:   ^[[BB:bb.*]](%[[ARG3:arg.*]]: !vhlo.tensor_v1<!vhlo.f32_v1>, %[[ARG4:arg.*]]: !vhlo.tensor_v1<!vhlo.f32_v1>):
+  // CHECK-NEXT:     %[[VAL1:.*]] = "vhlo.add_v1"(%[[ARG3]], %[[ARG4]]) : (!vhlo.tensor_v1<!vhlo.f32_v1>, !vhlo.tensor_v1<!vhlo.f32_v1>) -> !vhlo.tensor_v1<!vhlo.f32_v1>
+  // CHECK-NEXT:     "vhlo.return_v1"(%[[VAL1]]) : (!vhlo.tensor_v1<!vhlo.f32_v1>) -> ()
+  // CHECK-NEXT: }) : (!vhlo.tensor_v1<200x100x300x!vhlo.f32_v1>, !vhlo.tensor_v1<10x2x!vhlo.i32_v1>, !vhlo.tensor_v1<10x300x!vhlo.f32_v1>) -> !vhlo.tensor_v1<200x100x300x!vhlo.f32_v1>
+  %0 = "stablehlo.scatter"(%arg0, %arg1, %arg2) ({
+    ^bb0(%arg3: tensor<f32>, %arg4: tensor<f32>):
+      %1 = "stablehlo.add"(%arg3, %arg4) : (tensor<f32>, tensor<f32>) -> tensor<f32>
+      "stablehlo.return"(%1) : (tensor<f32>) -> ()
+  }) {
+    scatter_dimension_numbers = #stablehlo.scatter<
+      update_window_dims = [1],
+      inserted_window_dims = [0, 1],
+      scatter_dims_to_operand_dims = [0, 1],
+      index_vector_dim = 1
+    >,
+    indices_are_sorted = true,
+    unique_indices = true
+  } : (tensor<200x100x300xf32>, tensor<10x2xi32>, tensor<10x300xf32>) -> tensor<200x100x300xf32>
+  func.return %0 : tensor<200x100x300xf32>
+}
+
+// CHECK-LABEL: "op_scatter_with_batching_dims"
+// CHECK-NEXT: (%[[ARG0:.*]]: {{.*}}, %[[ARG1:.*]]: {{.*}}, %[[ARG2:.*]]: {{.*}})
+func.func @op_scatter_with_batching_dims(%arg0: tensor<10x200x100x300xf32>, %arg1: tensor<10x2xi32>, %arg2: tensor<10x300xf32>) -> tensor<10x200x100x300xf32> {
+  //      CHECK: "vhlo.scatter_v2"(%[[ARG0]], %[[ARG1]], %[[ARG2]]) <{
+  // CHECK-SAME:   index_vector_dim = #vhlo.integer_v1<1 : i64>,
+  // CHECK-SAME:   indices_are_sorted = #vhlo.bool_v1<true>,
+  // CHECK-SAME:   input_batching_dims = #vhlo.tensor_v1<dense<0> : tensor<1xi64>>,
+  // CHECK-SAME:   inserted_window_dims = #vhlo.tensor_v1<dense<[1, 2]> : tensor<2xi64>>,
+  // CHECK-SAME:   scatter_dims_to_operand_dims = #vhlo.tensor_v1<dense<[1, 2]> : tensor<2xi64>>,
+  // CHECK-SAME:   scatter_indices_batching_dims = #vhlo.tensor_v1<dense<0> : tensor<1xi64>>,
+  // CHECK-SAME:   unique_indices = #vhlo.bool_v1<true>,
+  // CHECK-SAME:   update_window_dims = #vhlo.tensor_v1<dense<1> : tensor<1xi64>>
+  // CHECK-SAME: }> ({
+  // CHECK-NEXT:   ^[[BB:bb.*]](%[[ARG3:arg.*]]: !vhlo.tensor_v1<!vhlo.f32_v1>, %[[ARG4:arg.*]]: !vhlo.tensor_v1<!vhlo.f32_v1>):
+  // CHECK-NEXT:     %[[VAL1:.*]] = "vhlo.add_v1"(%[[ARG3]], %[[ARG4]]) : (!vhlo.tensor_v1<!vhlo.f32_v1>, !vhlo.tensor_v1<!vhlo.f32_v1>) -> !vhlo.tensor_v1<!vhlo.f32_v1>
+  // CHECK-NEXT:     "vhlo.return_v1"(%[[VAL1]]) : (!vhlo.tensor_v1<!vhlo.f32_v1>) -> ()
+  // CHECK-NEXT: }) : (!vhlo.tensor_v1<10x200x100x300x!vhlo.f32_v1>, !vhlo.tensor_v1<10x2x!vhlo.i32_v1>, !vhlo.tensor_v1<10x300x!vhlo.f32_v1>) -> !vhlo.tensor_v1<10x200x100x300x!vhlo.f32_v1>
+  %0 = "stablehlo.scatter"(%arg0, %arg1, %arg2) ({
+    ^bb0(%arg3: tensor<f32>, %arg4: tensor<f32>):
+      %1 = "stablehlo.add"(%arg3, %arg4) : (tensor<f32>, tensor<f32>) -> tensor<f32>
+      "stablehlo.return"(%1) : (tensor<f32>) -> ()
+  }) {
+    scatter_dimension_numbers = #stablehlo.scatter<
+      update_window_dims = [1],
+      inserted_window_dims = [1, 2],
+      input_batching_dims = [0],
+      scatter_dims_to_operand_dims = [1, 2],
+      scatter_indices_batching_dims = [0],
+      index_vector_dim = 1
+    >,
+    indices_are_sorted = true,
+    unique_indices = true
+  } : (tensor<10x200x100x300xf32>, tensor<10x2xi32>, tensor<10x300xf32>) -> tensor<10x200x100x300xf32>
+  func.return %0 : tensor<10x200x100x300xf32>
+}
+
+// CHECK_lABEL: "op_scatter_with_promotable_types"
+func.func @op_scatter_with_promotable_types(%input_tensor: tensor<200x100x300xf32>,
+    %scatter_indices: tensor<10x2xi32>, %updates: tensor<10x300xf32>) ->
+      tensor<200x100x300xf64> {
+  //  CHECK: "vhlo.scatter_v2"(%[[ARG0:.*]], %[[ARG1:.*]], %[[ARG2:.*]])
+  //  CHECK:   ^[[BB:bb.*]](%[[ARG1:arg.*]]: !vhlo.tensor_v1<!vhlo.f64_v1>, %[[ARG2:arg.*]]: !vhlo.tensor_v1<!vhlo.f64_v1>):
…
+      "stablehlo.return"(%arg1) : (tensor<i1>) -> ()
+  }) : (tensor<i1>) -> tensor<i1>
+  func.return %0: tensor<i1>
+}
+
+// CHECK-LABEL: "op_xor"
+// CHECK-NEXT: (%[[ARG0:.*]]: {{.*}}, %[[ARG1:.*]]: {{.*}})
+func.func @op_xor(%arg0: tensor<i1>, %arg1: tensor<i1>) -> tensor<i1> {
+  // CHECK: "vhlo.xor_v1"(%[[ARG0]], %[[ARG1]]) : (!vhlo.tensor_v1<!vhlo.bool_v1>, !vhlo.tensor_v1<!vhlo.bool_v1>) -> !vhlo.tensor_v1<!vhlo.bool_v1>
+  %0 = "stablehlo.xor"(%arg0, %arg1) : (tensor<i1>, tensor<i1>) -> tensor<i1>
+  func.return %0 : tensor<i1>
+}
+
+// ============ TYPES ============
+
+// CHECK-LABEL: "type_i1"
+// CHECK-NEXT: (%[[ARG0:.*]]: {{.*}}, %[[ARG1:.*]]: {{.*}})
+func.func @type_i1(%arg0: tensor<i1>, %arg1: tensor<i1>) -> tensor<i1> {
+  // CHECK: "vhlo.and_v1"(%[[ARG0]], %[[ARG1]]) : (!vhlo.tensor_v1<!vhlo.bool_v1>, !vhlo.tensor_v1<!vhlo.bool_v1>) -> !vhlo.tensor_v1<!vhlo.bool_v1>
+  %0 = "stablehlo.and"(%arg0, %arg1) : (tensor<i1>, tensor<i1>) -> tensor<i1>
+  func.return %0 : tensor<i1>
+}
+
+// CHECK-LABEL: "type_i2"
+// CHECK-NEXT: (%[[ARG0:.*]]: {{.*}}, %[[ARG1:.*]]: {{.*}})
+func.func @type_i2(%arg0: tensor<i2>, %arg1: tensor<i2>) -> tensor<i2> {
+  // CHECK: "vhlo.add_v1"(%[[ARG0]], %[[ARG1]]) : (!vhlo.tensor_v1<!vhlo.i2_v1>, !vhlo.tensor_v1<!vhlo.i2_v1>) -> !vhlo.tensor_v1<!vhlo.i2_v1>
+  %0 = "stablehlo.add"(%arg0, %arg1) : (tensor<i2>, tensor<i2>) -> tensor<i2>
+  func.return %0 : tensor<i2>
+}
+
+// CHECK-LABEL: "type_i4"
+// CHECK-NEXT: (%[[ARG0:.*]]: {{.*}}, %[[ARG1:.*]]: {{.*}})
+func.func @type_i4(%arg0: tensor<i4>, %arg1: tensor<i4>) -> tensor<i4> {
+  // CHECK: "vhlo.add_v1"(%[[ARG0]], %[[ARG1]]) : (!vhlo.tensor_v1<!vhlo.i4_v1>, !vhlo.tensor_v1<!vhlo.i4_v1>) -> !vhlo.tensor_v1<!vhlo.i4_v1>
+  %0 = "stablehlo.add"(%arg0, %arg1) : (tensor<i4>, tensor<i4>) -> tensor<i4>
+  func.return %0 : tensor<i4>
+}
+
+// CHECK-LABEL: "type_i8"
+// CHECK-NEXT: (%[[ARG0:.*]]: {{.*}}, %[[ARG1:.*]]: {{.*}})
+func.func @type_i8(%arg0: tensor<i8>, %arg1: tensor<i8>) -> tensor<i8> {
+  // CHECK: "vhlo.add_v1"(%[[ARG0]], %[[ARG1]]) : (!vhlo.tensor_v1<!vhlo.i8_v1>, !vhlo.tensor_v1<!vhlo.i8_v1>) -> !vhlo.tensor_v1<!vhlo.i8_v1>
+  %0 = "stablehlo.add"(%arg0, %arg1) : (tensor<i8>, tensor<i8>) -> tensor<i8>
+  func.return %0 : tensor<i8>
+}
+
+// CHECK-LABEL: "type_i16"
+// CHECK-NEXT: (%[[ARG0:.*]]: {{.*}}, %[[ARG1:.*]]: {{.*}})
+func.func @type_i16(%arg0: tensor<i16>, %arg1: tensor<i16>) -> tensor<i16> {
+  // CHECK: "vhlo.add_v1"(%[[ARG0]], %[[ARG1]]) : (!vhlo.tensor_v1<!vhlo.i16_v1>, !vhlo.tensor_v1<!vhlo.i16_v1>) -> !vhlo.tensor_v1<!vhlo.i16_v1>
+  %0 = "stablehlo.add"(%arg0, %arg1) : (tensor<i16>, tensor<i16>) -> tensor<i16>
+  func.return %0 : tensor<i16>
+}
+
+// CHECK-LABEL: "type_i32"
+// CHECK-NEXT: (%[[ARG0:.*]]: {{.*}}, %[[ARG1:.*]]: {{.*}})
+func.func @type_i32(%arg0: tensor<i32>, %arg1: tensor<i32>) -> tensor<i32> {
+  // CHECK: "vhlo.add_v1"(%[[ARG0]], %[[ARG1]]) : (!vhlo.tensor_v1<!vhlo.i32_v1>, !vhlo.tensor_v1<!vhlo.i32_v1>) -> !vhlo.tensor_v1<!vhlo.i32_v1>
+  %0 = "stablehlo.add"(%arg0, %arg1) : (tensor<i32>, tensor<i32>) -> tensor<i32>
+  func.return %0 : tensor<i32>
+}
+
+// CHECK-LABEL: "type_i64"
+// CHECK-NEXT: (%[[ARG0:.*]]: {{.*}}, %[[ARG1:.*]]: {{.*}})
+func.func @type_i64(%arg0: tensor<i64>, %arg1: tensor<i64>) -> tensor<i64> {
+  // CHECK: "vhlo.add_v1"(%[[ARG0]], %[[ARG1]]) : (!vhlo.tensor_v1<!vhlo.i64_v1>, !vhlo.tensor_v1<!vhlo.i64_v1>) -> !vhlo.tensor_v1<!vhlo.i64_v1>
+  %0 = "stablehlo.add"(%arg0, %arg1) : (tensor<i64>, tensor<i64>) -> tensor<i64>
+  func.return %0 : tensor<i64>
+}
+
+// CHECK-LABEL: "type_ui2"
+// CHECK-NEXT: (%[[ARG0:.*]]: {{.*}}, %[[ARG1:.*]]: {{.*}})
+func.func @type_ui2(%arg0: tensor<ui2>, %arg1: tensor<ui2>) -> tensor<ui2> {
+  // CHECK: "vhlo.add_v1"(%[[ARG0]], %[[ARG1]]) : (!vhlo.tensor_v1<!vhlo.ui2_v1>, !vhlo.tensor_v1<!vhlo.ui2_v1>) -> !vhlo.tensor_v1<!vhlo.ui2_v1>
+  %0 = "stablehlo.add"(%arg0, %arg1) : (tensor<ui2>, tensor<ui2>) -> tensor<ui2>
+  func.return %0 : tensor<ui2>
+}
+
+// CHECK-LABEL: "type_ui4"
+// CHECK-NEXT: (%[[ARG0:.*]]: {{.*}}, %[[ARG1:.*]]: {{.*}})
+func.func @type_ui4(%arg0: tensor<ui4>, %arg1: tensor<ui4>) -> tensor<ui4> {
+  // CHECK: "vhlo.add_v1"(%[[ARG0]], %[[ARG1]]) : (!vhlo.tensor_v1<!vhlo.ui4_v1>, !vhlo.tensor_v1<!vhlo.ui4_v1>) -> !vhlo.tensor_v1<!vhlo.ui4_v1>
+  %0 = "stablehlo.add"(%arg0, %arg1) : (tensor<ui4>, tensor<ui4>) -> tensor<ui4>
+  func.return %0 : tensor<ui4>
+}
+
+// CHECK-LABEL: "type_ui8"
+// CHECK-NEXT: (%[[ARG0:.*]]: {{.*}}, %[[ARG1:.*]]: {{.*}})
+func.func @type_ui8(%arg0: tensor<ui8>, %arg1: tensor<ui8>) -> tensor<ui8> {
+  // CHECK: "vhlo.add_v1"(%[[ARG0]], %[[ARG1]]) : (!vhlo.tensor_v1<!vhlo.ui8_v1>, !vhlo.tensor_v1<!vhlo.ui8_v1>) -> !vhlo.tensor_v1<!vhlo.ui8_v1>
+  %0 = "stablehlo.add"(%arg0, %arg1) : (tensor<ui8>, tensor<ui8>) -> tensor<ui8>
+  func.return %0 : tensor<ui8>
+}
+
+// CHECK-LABEL: "type_ui16"
+// CHECK-NEXT: (%[[ARG0:.*]]: {{.*}}, %[[ARG1:.*]]: {{.*}})
+func.func @type_ui16(%arg0: tensor<ui16>, %arg1: tensor<ui16>) -> tensor<ui16> {
+  // CHECK: "vhlo.add_v1"(%[[ARG0]], %[[ARG1]]) : (!vhlo.tensor_v1<!vhlo.ui16_v1>, !vhlo.tensor_v1<!vhlo.ui16_v1>) -> !vhlo.tensor_v1<!vhlo.ui16_v1>
+  %0 = "stablehlo.add"(%arg0, %arg1) : (tensor<ui16>, tensor<ui16>) -> tensor<ui16>
+  func.return %0 : tensor<ui16>
+}
+
+// CHECK-LABEL: "type_ui32"
+// CHECK-NEXT: (%[[ARG0:.*]]: {{.*}}, %[[ARG1:.*]]: {{.*}})
+func.func @type_ui32(%arg0: tensor<ui32>, %arg1: tensor<ui32>) -> tensor<ui32> {
+  // CHECK: "vhlo.add_v1"(%[[ARG0]], %[[ARG1]]) : (!vhlo.tensor_v1<!vhlo.ui32_v1>, !vhlo.tensor_v1<!vhlo.ui32_v1>) -> !vhlo.tensor_v1<!vhlo.ui32_v1>
+  %0 = "stablehlo.add"(%arg0, %arg1) : (tensor<ui32>, tensor<ui32>) -> tensor<ui32>
+  func.return %0 : tensor<ui32>
+}
+
+// CHECK-LABEL: "type_ui64"
+// CHECK-NEXT: (%[[ARG0:.*]]: {{.*}}, %[[ARG1:.*]]: {{.*}})
+func.func @type_ui64(%arg0: tensor<ui64>, %arg1: tensor<ui64>) -> tensor<ui64> {
+  // CHECK: "vhlo.add_v1"(%[[ARG0]], %[[ARG1]]) : (!vhlo.tensor_v1<!vhlo.ui64_v1>, !vhlo.tensor_v1<!vhlo.ui64_v1>) -> !vhlo.tensor_v1<!vhlo.ui64_v1>
+  %0 = "stablehlo.add"(%arg0, %arg1) : (tensor<ui64>, tensor<ui64>) -> tensor<ui64>
+  func.return %0 : tensor<ui64>
+}
+
+// CHECK-LABEL: "type_f4E2M1FN"
+// CHECK-NEXT: (%[[ARG0:.*]]: {{.*}}, %[[ARG1:.*]]: {{.*}})
+func.func @type_f4E2M1FN(%arg0: tensor<f4E2M1FN>, %arg1: tensor<f4E2M1FN>) -> tensor<f4E2M1FN> {
+  // CHECK: "vhlo.add_v1"(%[[ARG0]], %[[ARG1]]) : (!vhlo.tensor_v1<!vhlo.f4E2M1FN_v1>, !vhlo.tensor_v1<!vhlo.f4E2M1FN_v1>) -> !vhlo.tensor_v1<!vhlo.f4E2M1FN_v1>
+  %0 = "stablehlo.add"(%arg0, %arg1) : (tensor<f4E2M1FN>, tensor<f4E2M1FN>) -> tensor<f4E2M1FN>
+  func.return %0 : tensor<f4E2M1FN>
+}
+
+// CHECK-LABEL: "type_f6E2M3FN"
+// CHECK-NEXT: (%[[ARG0:.*]]: {{.*}}, %[[ARG1:.*]]: {{.*}})
+func.func @type_f6E2M3FN(%arg0: tensor<f6E2M3FN>, %arg1: tensor<f6E2M3FN>) -> tensor<f6E2M3FN> {
+  // CHECK: "vhlo.add_v1"(%[[ARG0]], %[[ARG1]]) : (!vhlo.tensor_v1<!vhlo.f6E2M3FN_v1>, !vhlo.tensor_v1<!vhlo.f6E2M3FN_v1>) -> !vhlo.tensor_v1<!vhlo.f6E2M3FN_v1>
+  %0 = "stablehlo.add"(%arg0, %arg1) : (tensor<f6E2M3FN>, tensor<f6E2M3FN>) -> tensor<f6E2M3FN>
+  func.return %0 : tensor<f6E2M3FN>
+}
+
+// CHECK-LABEL: "type_f6E3M2FN"
+// CHECK-NEXT: (%[[ARG0:.*]]: {{.*}}, %[[ARG1:.*]]: {{.*}})
+func.func @type_f6E3M2FN(%arg0: tensor<f6E3M2FN>, %arg1: tensor<f6E3M2FN>) -> tensor<f6E3M2FN> {
+  // CHECK: "vhlo.add_v1"(%[[ARG0]], %[[ARG1]]) : (!vhlo.tensor_v1<!vhlo.f6E3M2FN_v1>, !vhlo.tensor_v1<!vhlo.f6E3M2FN_v1>) -> !vhlo.tensor_v1<!vhlo.f6E3M2FN_v1>
+  %0 = "stablehlo.add"(%arg0, %arg1) : (tensor<f6E3M2FN>, tensor<f6E3M2FN>) -> tensor<f6E3M2FN>
+  func.return %0 : tensor<f6E3M2FN>
+}
+
+// CHECK-LABEL: "type_f8E3M4"
+// CHECK-NEXT: (%[[ARG0:.*]]: {{.*}}, %[[ARG1:.*]]: {{.*}})
+func.func @type_f8E3M4(%arg0: tensor<f8E3M4>, %arg1: tensor<f8E3M4>) -> tensor<f8E3M4> {
+  // CHECK: "vhlo.add_v1"(%[[ARG0]], %[[ARG1]]) : (!vhlo.tensor_v1<!vhlo.f8E3M4_v1>, !vhlo.tensor_v1<!vhlo.f8E3M4_v1>) -> !vhlo.tensor_v1<!vhlo.f8E3M4_v1>
+  %0 = "stablehlo.add"(%arg0, %arg1) : (tensor<f8E3M4>, tensor<f8E3M4>) -> tensor<f8E3M4>
+  func.return %0 : tensor<f8E3M4>
+}
+
+// CHECK-LABEL: "type_f8E4M3"
+// CHECK-NEXT: (%[[ARG0:.*]]: {{.*}}, %[[ARG1:.*]]: {{.*}})
+func.func @type_f8E4M3(%arg0: tensor<f8E4M3>, %arg1: tensor<f8E4M3>) -> tensor<f8E4M3> {
+  // CHECK: "vhlo.add_v1"(%[[ARG0]], %[[ARG1]]) : (!vhlo.tensor_v1<!vhlo.f8E4M3_v1>, !vhlo.tensor_v1<!vhlo.f8E4M3_v1>) -> !vhlo.tensor_v1<!vhlo.f8E4M3_v1>
+  %0 = "stablehlo.add"(%arg0, %arg1) : (tensor<f8E4M3>, tensor<f8E4M3>) -> tensor<f8E4M3>
+  func.return %0 : tensor<f8E4M3>
+}
+
+// CHECK-LABEL: "type_f8E4M3FN"
+// CHECK-NEXT: (%[[ARG0:.*]]: {{.*}}, %[[ARG1:.*]]: {{.*}})
+func.func @type_f8E4M3FN(%arg0: tensor<f8E4M3FN>, %arg1: tensor<f8E4M3FN>) -> tensor<f8E4M3FN> {
+  // CHECK: "vhlo.add_v1"(%[[ARG0]], %[[ARG1]]) : (!vhlo.tensor_v1<!vhlo.f8E4M3FN_v1>, !vhlo.tensor_v1<!vhlo.f8E4M3FN_v1>) -> !vhlo.tensor_v1<!vhlo.f8E4M3FN_v1>
+  %0 = "stablehlo.add"(%arg0, %arg1) : (tensor<f8E4M3FN>, tensor<f8E4M3FN>) -> tensor<f8E4M3FN>
+  func.return %0 : tensor<f8E4M3FN>
+}
+
+// CHECK-LABEL: "type_f8E5M2"
+// CHECK-NEXT: (%[[ARG0:.*]]: {{.*}}, %[[ARG1:.*]]: {{.*}})
+func.func @type_f8E5M2(%arg0: tensor<f8E5M2>, %arg1: tensor<f8E5M2>) -> tensor<f8E5M2> {
+  // CHECK: "vhlo.add_v1"(%[[ARG0]], %[[ARG1]]) : (!vhlo.tensor_v1<!vhlo.f8E5M2_v1>, !vhlo.tensor_v1<!vhlo.f8E5M2_v1>) -> !vhlo.tensor_v1<!vhlo.f8E5M2_v1>
+  %0 = "stablehlo.add"(%arg0, %arg1) : (tensor<f8E5M2>, tensor<f8E5M2>) -> tensor<f8E5M2>
+  func.return %0 : tensor<f8E5M2>
+}
+
+// CHECK-LABEL: "type_f8E4M3FNUZ"
+// CHECK-NEXT: (%[[ARG0:.*]]: {{.*}}, %[[ARG1:.*]]: {{.*}})
+func.func @type_f8E4M3FNUZ(%arg0: tensor<f8E4M3FNUZ>, %arg1: tensor<f8E4M3FNUZ>) -> tensor<f8E4M3FNUZ> {
+  // CHECK: "vhlo.add_v1"(%[[ARG0]], %[[ARG1]]) : (!vhlo.tensor_v1<!vhlo.f8E4M3FNUZ_v1>, !vhlo.tensor_v1<!vhlo.f8E4M3FNUZ_v1>) -> !vhlo.tensor_v1<!vhlo.f8E4M3FNUZ_v1>
+  %0 = "stablehlo.add"(%arg0, %arg1) : (tensor<f8E4M3FNUZ>, tensor<f8E4M3FNUZ>) -> tensor<f8E4M3FNUZ>
+  func.return %0 : tensor<f8E4M3FNUZ>
+}
+
+// CHECK-LABEL: "type_f8E4M3B11FNUZ"
+// CHECK-NEXT: (%[[ARG0:.*]]: {{.*}}, %[[ARG1:.*]]: {{.*}})
+func.func @type_f8E4M3B11FNUZ(%arg0: tensor<f8E4M3B11FNUZ>, %arg1: tensor<f8E4M3B11FNUZ>) -> tensor<f8E4M3B11FNUZ> {
+  // CHECK: "vhlo.add_v1"(%[[ARG0]], %[[ARG1]]) : (!vhlo.tensor_v1<!vhlo.f8E4M3B11FNUZ_v1>, !vhlo.tensor_v1<!vhlo.f8E4M3B11FNUZ_v1>) -> !vhlo.tensor_v1<!vhlo.f8E4M3B11FNUZ_v1>
+  %0 = "stablehlo.add"(%arg0, %arg1) : (tensor<f8E4M3B11FNUZ>, tensor<f8E4M3B11FNUZ>) -> tensor<f8E4M3B11FNUZ>
+  func.return %0 : tensor<f8E4M3B11FNUZ>
+}
+
+// CHECK-LABEL: "type_f8E5M2FNUZ"
+// CHECK-NEXT: (%[[ARG0:.*]]: {{.*}}, %[[ARG1:.*]]: {{.*}})
+func.func @type_f8E5M2FNUZ(%arg0: tensor<f8E5M2FNUZ>, %arg1: tensor<f8E5M2FNUZ>) -> tensor<f8E5M2FNUZ> {
+  // CHECK: "vhlo.add_v1"(%[[ARG0]], %[[ARG1]]) : (!vhlo.tensor_v1<!vhlo.f8E5M2FNUZ_v1>, !vhlo.tensor_v1<!vhlo.f8E5M2FNUZ_v1>) -> !vhlo.tensor_v1<!vhlo.f8E5M2FNUZ_v1>
+  %0 = "stablehlo.add"(%arg0, %arg1) : (tensor<f8E5M2FNUZ>, tensor<f8E5M2FNUZ>) -> tensor<f8E5M2FNUZ>
+  func.return %0 : tensor<f8E5M2FNUZ>
+}
+
+// CHECK-LABEL: "type_f8E8M0FNU"
+// CHECK-NEXT: (%[[ARG0:.*]]: {{.*}}, %[[ARG1:.*]]: {{.*}})
+func.func @type_f8E8M0FNU(%arg0: tensor<f8E8M0FNU>, %arg1: tensor<f8E8M0FNU>) -> tensor<f8E8M0FNU> {
+  // CHECK: "vhlo.add_v1"(%[[ARG0]], %[[ARG1]]) : (!vhlo.tensor_v1<!vhlo.f8E8M0FNU_v1>, !vhlo.tensor_v1<!vhlo.f8E8M0FNU_v1>) -> !vhlo.tensor_v1<!vhlo.f8E8M0FNU_v1>
+  %0 = "stablehlo.add"(%arg0, %arg1) : (tensor<f8E8M0FNU>, tensor<f8E8M0FNU>) -> tensor<f8E8M0FNU>
+  func.return %0 : tensor<f8E8M0FNU>
+}
+
+// CHECK-LABEL: "type_bf16"
+// CHECK-NEXT: (%[[ARG0:.*]]: {{.*}}, %[[ARG1:.*]]: {{.*}})
+func.func @type_bf16(%arg0: tensor<bf16>, %arg1: tensor<bf16>) -> tensor<bf16> {
+  // CHECK: "vhlo.add_v1"(%[[ARG0]], %[[ARG1]]) : (!vhlo.tensor_v1<!vhlo.bf16_v1>, !vhlo.tensor_v1<!vhlo.bf16_v1>) -> !vhlo.tensor_v1<!vhlo.bf16_v1>
+  %0 = "stablehlo.add"(%arg0, %arg1) : (tensor<bf16>, tensor<bf16>) -> tensor<bf16>
+  func.return %0 : tensor<bf16>
+}
+
+// CHECK-LABEL: "type_f16"
+// CHECK-NEXT: (%[[ARG0:.*]]: {{.*}}, %[[ARG1:.*]]: {{.*}})
+func.func @type_f16(%arg0: tensor<f16>, %arg1: tensor<f16>) -> tensor<f16> {
+  // CHECK: "vhlo.add_v1"(%[[ARG0]], %[[ARG1]]) : (!vhlo.tensor_v1<!vhlo.f16_v1>, !vhlo.tensor_v1<!vhlo.f16_v1>) -> !vhlo.tensor_v1<!vhlo.f16_v1>
+  %0 = "stablehlo.add"(%arg0, %arg1) : (tensor<f16>, tensor<f16>) -> tensor<f16>
+  func.return %0 : tensor<f16>
+}
+
+// CHECK-LABEL: "type_f32"
+// CHECK-NEXT: (%[[ARG0:.*]]: {{.*}}, %[[ARG1:.*]]: {{.*}})
+func.func @type_f32(%arg0: tensor<f32>, %arg1: tensor<f32>) -> tensor<f32> {
+  // CHECK: "vhlo.add_v1"(%[[ARG0]], %[[ARG1]]) : (!vhlo.tensor_v1<!vhlo.f32_v1>, !vhlo.tensor_v1<!vhlo.f32_v1>) -> !vhlo.tensor_v1<!vhlo.f32_v1>
+  %0 = "stablehlo.add"(%arg0, %arg1) : (tensor<f32>, tensor<f32>) -> tensor<f32>
+  func.return %0 : tensor<f32>
+}
+
+// CHECK-LABEL: "type_f64"
+// CHECK-NEXT: (%[[ARG0:.*]]: {{.*}}, %[[ARG1:.*]]: {{.*}})
+func.func @type_f64(%arg0: tensor<f64>, %arg1: tensor<f64>) -> tensor<f64> {
+  // CHECK: "vhlo.add_v1"(%[[ARG0]], %[[ARG1]]) : (!vhlo.tensor_v1<!vhlo.f64_v1>, !vhlo.tensor_v1<!vhlo.f64_v1>) -> !vhlo.tensor_v1<!vhlo.f64_v1>
+  %0 = "stablehlo.add"(%arg0, %arg1) : (tensor<f64>, tensor<f64>) -> tensor<f64>
+  func.return %0 : tensor<f64>
+}
+
+// CHECK-LABEL: "type_complex_f32"
+// CHECK-NEXT: (%[[ARG0:.*]]: {{.*}}, %[[ARG1:.*]]: {{.*}})
+func.func @type_complex_f32(%arg0: tensor<complex<f32>>, %arg1: tensor<complex<f32>>) -> tensor<complex<f32>> {
+  // CHECK: "vhlo.add_v1"(%[[ARG0]], %[[ARG1]]) : (!vhlo.tensor_v1<!vhlo.complex_v1<!vhlo.f32_v1>>, !vhlo.tensor_v1<!vhlo.complex_v1<!vhlo.f32_v1>>) -> !vhlo.tensor_v1<!vhlo.complex_v1<!vhlo.f32_v1>>
+  %0 = "stablehlo.add"(%arg0, %arg1) : (tensor<complex<f32>>, tensor<complex<f32>>) -> tensor<complex<f32>>
+  func.return %0 : tensor<complex<f32>>
+}
+
+// CHECK-LABEL: "type_complex_f64"
+// CHECK-NEXT: (%[[ARG0:.*]]: {{.*}}, %[[ARG1:.*]]: {{.*}})
+func.func @type_complex_f64(%arg0: tensor<complex<f64>>, %arg1: tensor<complex<f64>>) -> tensor<complex<f64>> {
+  // CHECK: "vhlo.add_v1"(%[[ARG0]], %[[ARG1]]) : (!vhlo.tensor_v1<!vhlo.complex_v1<!vhlo.f64_v1>>, !vhlo.tensor_v1<!vhlo.complex_v1<!vhlo.f64_v1>>) -> !vhlo.tensor_v1<!vhlo.complex_v1<!vhlo.f64_v1>>
+  %0 = "stablehlo.add"(%arg0, %arg1) : (tensor<complex<f64>>, tensor<complex<f64>>) -> tensor<complex<f64>>
+  func.return %0 : tensor<complex<f64>>
+}
+
+// CHECK-LABEL: "type_tf32"
+// CHECK: #vhlo.type_v1<!vhlo.tf31_v1>
+func.func @type_tf32() attributes {stablehlo.attr = tf32 } {
+  return
+}
+
+// CHECK-LABEL: "type_none"
+// CHECK: #vhlo.type_v1<!vhlo.none_v1>
+func.func @type_none() attributes {stablehlo.attr = none } {
+  return
+}
+
+// CHECK-LABEL: "type_dynamism_ranked"
+// CHECK-NEXT: (%[[ARG0:.*]]: {{.*}})
+func.func @type_dynamism_ranked(%arg0: tensor<?xf32>) -> tensor<?xf32> {
+  // CHECK: "vhlo.abs_v1"(%[[ARG0]]) : (!vhlo.tensor_v1<?x!vhlo.f32_v1>) -> !vhlo.tensor_v1<?x!vhlo.f32_v1>
+  %0 = "stablehlo.abs"(%arg0) : (tensor<?xf32>) -> tensor<?xf32>
+  func.return %0 : tensor<?xf32>
+}
+
+// CHECK-LABEL: "type_per_tensor_quantization"
+// CHECK-NEXT: (%[[ARG0:.*]]: {{.*}}, %[[ARG1:.*]]: {{.*}})
+func.func @type_per_tensor_quantization(%arg0: tensor<!quant.uniform<i8:f32, 34.0:16>>, %arg1: tensor<!quant.uniform<i8:f32, 34.0:16>>) -> tensor<!quant.uniform<i8:f32, 34.0:16>> {
+  // CHECK: "vhlo.add_v1"(%[[ARG0]], %[[ARG1]]) : (!vhlo.tensor_v1<!vhlo.quant_v1<!vhlo.i8_v1:!vhlo.f32_v1, 3.400000e+01:16, -128:127, 1>>, !vhlo.tensor_v1<!vhlo.quant_v1<!vhlo.i8_v1:!vhlo.f32_v1, 3.400000e+01:16, -128:127, 1>>) -> !vhlo.tensor_v1<!vhlo.quant_v1<!vhlo.i8_v1:!vhlo.f32_v1, 3.400000e+01:16, -128:127, 1>>
+  %0 = "stablehlo.add"(%arg0, %arg1) : (tensor<!quant.uniform<i8:f32, 34.0:16>>, tensor<!quant.uniform<i8:f32, 34.0:16>>) -> tensor<!quant.uniform<i8:f32, 34.0:16>>
+  func.return %0 : tensor<!quant.uniform<i8:f32, 34.0:16>>
+}
+
+// CHECK-LABEL: "type_per_axis_quantization"
+// CHECK-NEXT: (%[[ARG0:.*]]: {{.*}})
+func.func @type_per_axis_quantization(%arg0: tensor<2x!quant.uniform<i8:f32:0, {34.0:16, 34.0:16}>>) -> tensor<2x!quant.uniform<i8:f32:0, {34.0:16, 34.0:16}>> {
+  // CHECK: "vhlo.add_v1"(%[[ARG0]], %[[ARG0]]) : (!vhlo.tensor_v1<2x!vhlo.quant_per_axis_v1<!vhlo.i8_v1:!vhlo.f32_v1, 0, [3.400000e+01, 3.400000e+01], [16, 16], -128:127, 1>>, !vhlo.tensor_v1<2x!vhlo.quant_per_axis_v1<!vhlo.i8_v1:!vhlo.f32_v1, 0, [3.400000e+01, 3.400000e+01], [16, 16], -128:127, 1>>) -> !vhlo.tensor_v1<2x!vhlo.quant_per_axis_v1<!vhlo.i8_v1:!vhlo.f32_v1, 0, [3.400000e+01, 3.400000e+01], [16, 16], -128:127, 1>>
+  %0 = stablehlo.add %arg0, %arg0 : tensor<2x!quant.uniform<i8:f32:0, {34.0:16, 34.0:16}>>
+  func.return %0 : tensor<2x!quant.uniform<i8:f32:0, {34.0:16, 34.0:16}>>
+}
+
+//       CHECK: function_type = #vhlo.type_v1<!vhlo.func_v1<(!vhlo.token_v1) -> !vhlo.token_v1>>
+// CHECK-LABEL: "type_token_callee"
+// CHECK-NEXT: (%[[ARG0:.*]]: {{.*}})
+func.func @type_token_callee(%arg0: !stablehlo.token) -> !stablehlo.token {
+  // CHECK: "vhlo.return_v1"(%[[ARG0]]) : (!vhlo.token_v1) -> ()
+  return %arg0 : !stablehlo.token
+}
+
+//       CHECK: function_type = #vhlo.type_v1<!vhlo.func_v1<(!vhlo.token_v1) -> !vhlo.token_v1>>
+// CHECK-LABEL: "type_token_caller"
+// CHECK-NEXT: (%[[ARG0:.*]]: {{.*}})
+func.func @type_token_caller(%arg0: !stablehlo.token) -> !stablehlo.token {
+  // CHECK:      "vhlo.call_v1"(%[[ARG0]]) <{callee = #vhlo.string_v1<"type_token_callee">}
+  // CHECK-SAME: (!vhlo.token_v1) -> !vhlo.token_v1
+  %0 = func.call @type_token_callee(%arg0) : (!stablehlo.token) -> !stablehlo.token
+  return %0 : !stablehlo.token
+}
+
+// CHECK-LABEL: "type_tuple"
+// CHECK-NEXT: (%[[ARG0:.*]]: {{.*}})
+func.func @type_tuple(%arg0: tuple<tensor<f32>>) -> tuple<!stablehlo.token> {
+  %0 = "stablehlo.custom_call"(%arg0) {
+    call_target_name = "foo"
+  // CHECK: (!vhlo.tuple_v1<!vhlo.tensor_v1<!vhlo.f32_v1>>) -> !vhlo.tuple_v1<!vhlo.token_v1>
+  } : (tuple<tensor<f32>>) -> tuple<!stablehlo.token>
+  return %0 : tuple<!stablehlo.token>
+}
+
+// ============ DEPENDENCIES  ============
+
+func.func @composite_target(%arg0: tensor<f32>) -> tensor<f32> {
+  return %arg0: tensor<f32>
+}
diff --ruN a/stablehlo/stablehlo/tests/vhlo/stablehlo_legalize_to_vhlo.mlir b/stablehlo/stablehlo/tests/vhlo/stablehlo_legalize_to_vhlo.mlir
--- stablehlo/stablehlo/tests/vhlo/stablehlo_legalize_to_vhlo.mlir
+++ stablehlo/stablehlo/tests/vhlo/stablehlo_legalize_to_vhlo.mlir
@@ -411,6 +411,12 @@
   func.return %arg0 : tensor<?x?xf32, #stablehlo.type_extensions<bounds = [16, ?]>>
 }
 
+// CHECK-LABEL: "attr_frontend_attributes"
+func.func @attr_frontend_attributes(%arg0: tensor<f32>) -> tensor<f32> {
+  // CHECK: some.unregistered_attr
+  %1 = stablehlo.cosine %arg0 {some.unregistered_attr = 1 : i32} : tensor<f32>
+  return %1 : tensor<f32>
+}
 
 // ============ DEFAULTS ============
 
@@ -800,16 +806,18 @@
   func.return %0 : !stablehlo.token
 }
 
-// CHECK-LABEL: "default_recv"
-// CHECK-NEXT: (%[[ARG0:.*]]: {{.*}})
-func.func @default_recv(%arg0: !stablehlo.token) -> (tensor<f32>, !stablehlo.token) {
-  //      CHECK: "vhlo.recv_v1"(%[[ARG0]]) <{
+// CHECK-LABEL: "op_recv_with_source_target_pairs"
+// CHECK-NEXT: (%[[ARG0:.*]]: {{.*}})
+func.func @op_recv_with_source_target_pairs(%arg0: !stablehlo.token) -> (tensor<f32>, !stablehlo.token) {
+  //      CHECK: "vhlo.recv_v2"(%[[ARG0]]) <{
   // CHECK-SAME:   channel_id = #vhlo.integer_v1<0 : i64>,
   // CHECK-SAME:   channel_type = #vhlo.integer_v1<1 : i64>,
-  // CHECK-SAME:   is_host_transfer = #vhlo.bool_v1<false>
-  // CHECK-SAME: }> : (!vhlo.token_v1) -> (!vhlo.tensor_v1<!vhlo.f32_v1>, !vhlo.token_v1)
+  // CHECK-SAME:   is_host_transfer = #vhlo.bool_v1<false>,
+  // CHECK-SAME{LITERAL}:   source_target_pairs = #vhlo.tensor_v1<dense<[[0, 1], [1, 2]]> : tensor<2x2xi64>>
+  // CHECK-SAME{LITERAL}: }> : (!vhlo.token_v1) -> (!vhlo.tensor_v1<!vhlo.f32_v1>, !vhlo.token_v1)
   %0:2 = "stablehlo.recv"(%arg0) {
-    channel_handle = #stablehlo.channel_handle<handle = 0, type = 1>
+    channel_handle = #stablehlo.channel_handle<handle = 0, type = 1>,
+    source_target_pairs = dense<[[0, 1], [1, 2]]> : tensor<2x2xi64>
   } : (!stablehlo.token) -> (tensor<f32>, !stablehlo.token)
   func.return %0#0, %0#1 : tensor<f32>, !stablehlo.token
 }
@@ -817,13 +825,15 @@
 // CHECK-LABEL: "default_send"
 // CHECK-NEXT: (%[[ARG0:.*]]: {{.*}}, %[[ARG1:.*]]: {{.*}})
 func.func @default_send(%arg0: tensor<f32>, %arg1: !stablehlo.token) -> !stablehlo.token {
-  //      CHECK: "vhlo.send_v1"(%[[ARG0]], %[[ARG1]]) <{
+  //      CHECK: "vhlo.send_v2"(%[[ARG0]], %[[ARG1]]) <{
   // CHECK-SAME:   channel_id = #vhlo.integer_v1<0 : i64>,
   // CHECK-SAME:   channel_type = #vhlo.integer_v1<1 : i64>,
-  // CHECK-SAME:   is_host_transfer = #vhlo.bool_v1<false>
-  // CHECK-SAME: }> : (!vhlo.tensor_v1<!vhlo.f32_v1>, !vhlo.token_v1) -> !vhlo.token_v1
+  // CHECK-SAME:   is_host_transfer = #vhlo.bool_v1<false>,
+  // CHECK-SAME{LITERAL}:   source_target_pairs = #vhlo.tensor_v1<dense<[[0, 1], [1, 2]]> : tensor<2x2xi64>>
+  // CHECK-SAME{LITERAL}: }> : (!vhlo.tensor_v1<!vhlo.f32_v1>, !vhlo.token_v1) -> !vhlo.token_v1
   %0 = "stablehlo.send"(%arg0, %arg1) {
-    channel_handle = #stablehlo.channel_handle<handle = 0, type = 1>
+    channel_handle = #stablehlo.channel_handle<handle = 0, type = 1>,
+    source_target_pairs = dense<[[0, 1], [1, 2]]> : tensor<2x2xi64>
   } : (tensor<f32>, !stablehlo.token) -> !stablehlo.token
   func.return %0 : !stablehlo.token
 }
@@ -1988,14 +1998,15 @@
   func.return %0 : tensor<f32>
 }
 
-// CHECK-LABEL: "op_recv"
-// CHECK-NEXT: (%[[ARG0:.*]]: {{.*}})
-func.func @op_recv(%arg0: !stablehlo.token) -> (tensor<f32>, !stablehlo.token) {
-  //      CHECK: "vhlo.recv_v1"(%[[ARG0]]) <{
+// CHECK-LABEL: "op_recv_no_source_target_pairs"
+// CHECK-NEXT: (%[[ARG0:.*]]: {{.*}})
+func.func @op_recv_no_source_target_pairs(%arg0: !stablehlo.token) -> (tensor<f32>, !stablehlo.token) {
+  //      CHECK: "vhlo.recv_v2"(%[[ARG0]]) <{
   // CHECK-SAME:   channel_id = #vhlo.integer_v1<0 : i64>,
   // CHECK-SAME:   channel_type = #vhlo.integer_v1<3 : i64>,
-  // CHECK-SAME:   is_host_transfer = #vhlo.bool_v1<true>
-  // CHECK-SAME: }> : (!vhlo.token_v1) -> (!vhlo.tensor_v1<!vhlo.f32_v1>, !vhlo.token_v1)
+  // CHECK-SAME:   is_host_transfer = #vhlo.bool_v1<true>,
+  // CHECK-SAME{LITERAL}:   source_target_pairs = #vhlo.tensor_v1<dense<> : tensor<0xi64>
+  // CHECK-SAME{LITERAL}: }> : (!vhlo.token_v1) -> (!vhlo.tensor_v1<!vhlo.f32_v1>, !vhlo.token_v1)
   %0:2 = "stablehlo.recv"(%arg0) {
     channel_handle = #stablehlo.channel_handle<handle = 0, type = 3>,
     is_host_transfer = true
@@ -2408,14 +2419,15 @@
   func.return %0 : tensor<f32>
 }
 
-// CHECK-LABEL: "op_send"
-// CHECK-NEXT: (%[[ARG0:.*]]: {{.*}}, %[[ARG1:.*]]: {{.*}})
-func.func @op_send(%arg0: tensor<f32>, %arg1: !stablehlo.token) -> !stablehlo.token {
-  //      CHECK: "vhlo.send_v1"(%[[ARG0]], %[[ARG1]]) <{
+// CHECK-LABEL: "op_send_no_source_target_pairs"
+// CHECK-NEXT: (%[[ARG0:.*]]: {{.*}}, %[[ARG1:.*]]: {{.*}})
+func.func @op_send_no_source_target_pairs(%arg0: tensor<f32>, %arg1: !stablehlo.token) -> !stablehlo.token {
+  //      CHECK: "vhlo.send_v2"(%[[ARG0]], %[[ARG1]]) <{
   // CHECK-SAME:   channel_id = #vhlo.integer_v1<0 : i64>,
   // CHECK-SAME:   channel_type = #vhlo.integer_v1<2 : i64>,
-  // CHECK-SAME:   is_host_transfer = #vhlo.bool_v1<true>
-  // CHECK-SAME: }> : (!vhlo.tensor_v1<!vhlo.f32_v1>, !vhlo.token_v1) -> !vhlo.token_v1
+  // CHECK-SAME:   is_host_transfer = #vhlo.bool_v1<true>,
+  // CHECK-SAME{LITERAL}:   source_target_pairs = #vhlo.tensor_v1<dense<> : tensor<0xi64>>
+  // CHECK-SAME{LITERAL}: }> : (!vhlo.tensor_v1<!vhlo.f32_v1>, !vhlo.token_v1) -> !vhlo.token_v1
   %0 = "stablehlo.send"(%arg0, %arg1) {
     channel_handle = #stablehlo.channel_handle<handle = 0, type = 2>,
     is_host_transfer = true
diff --ruN a/stablehlo/stablehlo/tests/vhlo/vhlo_to_version_downgrade.1_11_0.mlir b/stablehlo/stablehlo/tests/vhlo/vhlo_to_version_downgrade.1_11_0.mlir
--- stablehlo/stablehlo/tests/vhlo/vhlo_to_version_downgrade.1_11_0.mlir
+++ stablehlo/stablehlo/tests/vhlo/vhlo_to_version_downgrade.1_11_0.mlir
@@ -0,0 +1,38 @@
+// RUN: stablehlo-opt --stablehlo-legalize-to-vhlo --vhlo-to-version='target=1.11.0' %s | FileCheck %s
+
+// SendOp and RecvOp were changed in v1.11.0 to have
+// source_target_pair attribute. Ensure that serializing for 1.10.0 is valid and targets the
+// v1.10.0 opset.
+//
+// This will catch issues in op `isLegal` checks:
+//   op.minVersion() <= target <= op.maxVersion()
+
+// CHECK-LABEL: vhlo.func_v1 @send_op
+// CHECK-NEXT: "vhlo.send_v1"(%arg0, %arg1) <{
+// CHECK-SAME:   channel_id = #vhlo.integer_v1<0 : i64>,
+// CHECK-SAME:   channel_type = #vhlo.integer_v1<2 : i64>,
+// CHECK-SAME:   is_host_transfer = #vhlo.bool_v1<true>
+// CHECK-SAME:   !vhlo.tensor_v1<!vhlo.f32_v1>, !vhlo.token_v1) -> !vhlo.token_v1
+func.func public @send_op(%arg0: tensor<f32>, %arg1: !stablehlo.token) -> !stablehlo.token {
+  %0 = "stablehlo.send"(%arg0, %arg1) {
+    source_target_pairs = dense<[]> : tensor<0xi64>,
+    channel_handle = #stablehlo.channel_handle<handle = 0, type = 2>,
+    is_host_transfer = true
+  } : (tensor<f32>, !stablehlo.token) -> !stablehlo.token
+  func.return %0 : !stablehlo.token
+}
+
+// CHECK-LABEL: vhlo.func_v1 @recv_op
+// CHECK-NEXT: "vhlo.recv_v1"(%arg0) <{
+// CHECK-SAME:   channel_id = #vhlo.integer_v1<0 : i64>,
+// CHECK-SAME:   channel_type = #vhlo.integer_v1<3 : i64>,
+// CHECK-SAME:   is_host_transfer = #vhlo.bool_v1<true>
+// CHECK-SAME:   !vhlo.token_v1) -> (!vhlo.tensor_v1<!vhlo.f32_v1>, !vhlo.token_v1)
+func.func public @recv_op(%arg0: !stablehlo.token) -> (tensor<f32>, !stablehlo.token) {
+  %0:2 = "stablehlo.recv"(%arg0) {
+    source_target_pairs = dense<[]> : tensor<0xi64>,
+    channel_handle = #stablehlo.channel_handle<handle = 0, type = 3>,
+    is_host_transfer = true
+  } : (!stablehlo.token) -> (tensor<f32>, !stablehlo.token)
+  func.return %0#0, %0#1 : tensor<f32>, !stablehlo.token
+}
diff --ruN a/stablehlo/stablehlo/tests/vhlo/vhlo_to_version_downgrade.1_8_0.mlir b/stablehlo/stablehlo/tests/vhlo/vhlo_to_version_downgrade.1_8_0.mlir
--- stablehlo/stablehlo/tests/vhlo/vhlo_to_version_downgrade.1_8_0.mlir
+++ stablehlo/stablehlo/tests/vhlo/vhlo_to_version_downgrade.1_8_0.mlir
@@ -22,3 +22,14 @@
   } : (tensor<f32>) -> tensor<f32>
   func.return %0 : tensor<f32>
 }
+
+// CHECK-LABEL: vhlo.func_v1 @exp_op_default_unregistered_attrs
+func.func @exp_op_default_unregistered_attrs(%arg0: tensor<f32>) -> tensor<f32> {
+  %0 = "stablehlo.exponential"(%arg0) {
+    // CHECK: vhlo.exponential_v1
+    // CHECK-SAME: some.unregistered_attr
+    result_accuracy = #stablehlo.result_accuracy<atol = 0.000000e+00, rtol = 0.000000e+00, ulps = 0, mode = #stablehlo.result_accuracy_mode<DEFAULT>>,
+    some.unregistered_attr = 1 : i32
+  } : (tensor<f32>) -> tensor<f32>
+  func.return %0 : tensor<f32>
+}
diff --ruN a/stablehlo/stablehlo/tests/vhlo/vhlo_to_version_downgrade.1_9_0.mlir b/stablehlo/stablehlo/tests/vhlo/vhlo_to_version_downgrade.1_9_0.mlir
--- stablehlo/stablehlo/tests/vhlo/vhlo_to_version_downgrade.1_9_0.mlir
+++ stablehlo/stablehlo/tests/vhlo/vhlo_to_version_downgrade.1_9_0.mlir
@@ -36,6 +36,16 @@
 
 // -----
 
+// CHECK-LABEL: vhlo.func_v1 @cosine_op_unregistered_attrs
+func.func public @cosine_op_unregistered_attrs(%arg0: tensor<f32>) -> tensor<f32> {
+  // CHECK: vhlo.cosine_v1
+  // CHECK-SAME: some.unregistered_attr
+  %0 = "stablehlo.cosine"(%arg0) { some.unregistered_attr = 1 : i32 } : (tensor<f32>) -> tensor<f32>
+  return %0 : tensor<f32>
+}
+
+// -----
+
 // CHECK-LABEL: vhlo.func_v1 @cosine_default
 func.func @cosine_default(%arg0: tensor<f32>) -> tensor<f32> {
   %0 = "stablehlo.cosine"(%arg0) {
diff --ruN a/stablehlo/stablehlo/tests/vhlo/vhlo_to_version_downgrade_invalid.1_11_0.mlir b/stablehlo/stablehlo/tests/vhlo/vhlo_to_version_downgrade_invalid.1_11_0.mlir
--- stablehlo/stablehlo/tests/vhlo/vhlo_to_version_downgrade_invalid.1_11_0.mlir
+++ stablehlo/stablehlo/tests/vhlo/vhlo_to_version_downgrade_invalid.1_11_0.mlir
@@ -0,0 +1,25 @@
+// RUN: stablehlo-opt --stablehlo-legalize-to-vhlo --vhlo-to-version='target=1.11.0' --verify-diagnostics --split-input-file %s
+
+// expected-error @-3 {{failed to convert VHLO to v1.11.0}}
+func.func public @send_op(%arg0: tensor<f32>, %arg1: !stablehlo.token) -> !stablehlo.token {
+  // expected-error @+1 {{failed to legalize operation 'vhlo.send_v2' that was explicitly marked illegal}}
+  %0 = "stablehlo.send"(%arg0, %arg1) {
+    source_target_pairs = dense<[[0,1],[1,2]]> : tensor<2x2xi64>,
+    channel_handle = #stablehlo.channel_handle<handle = 0, type = 2>,
+    is_host_transfer = true
+  } : (tensor<f32>, !stablehlo.token) -> !stablehlo.token
+  func.return %0 : !stablehlo.token
+}
+
+// -----
+
+// expected-error @-3 {{failed to convert VHLO to v1.11.0}}
+func.func public @recv_op(%arg0: !stablehlo.token) -> (tensor<f32>, !stablehlo.token) {
+  // expected-error @+1 {{failed to legalize operation 'vhlo.recv_v2' that was explicitly marked illegal}}
+  %0:2 = "stablehlo.recv"(%arg0) {
+    source_target_pairs = dense<[[0,1],[1,2]]> : tensor<2x2xi64>,
+    channel_handle = #stablehlo.channel_handle<handle = 0, type = 3>,
+    is_host_transfer = true
+  } : (!stablehlo.token) -> (tensor<f32>, !stablehlo.token)
+  func.return %0#0, %0#1 : tensor<f32>, !stablehlo.token
+}
diff --ruN a/stablehlo/stablehlo/transforms/MapStablehloToVhlo.h b/stablehlo/stablehlo/transforms/MapStablehloToVhlo.h
--- stablehlo/stablehlo/transforms/MapStablehloToVhlo.h
+++ stablehlo/stablehlo/transforms/MapStablehloToVhlo.h
@@ -123,7 +123,7 @@
 MAP_STABLEHLO_TO_VHLO(PowOp, V1)
 MAP_STABLEHLO_TO_VHLO(RealDynamicSliceOp, V1)
 MAP_STABLEHLO_TO_VHLO(RealOp, V1)
-MAP_STABLEHLO_TO_VHLO(RecvOp, V1)
+MAP_STABLEHLO_TO_VHLO(RecvOp, V2)
 MAP_STABLEHLO_TO_VHLO(ReduceOp, V1)
 MAP_STABLEHLO_TO_VHLO(ReducePrecisionOp, V1)
 MAP_STABLEHLO_TO_VHLO(ReduceScatterOp, V1)
@@ -141,7 +141,7 @@
 MAP_STABLEHLO_TO_VHLO(ScatterOp, V2)
 MAP_STABLEHLO_TO_VHLO(SelectAndScatterOp, V1)
 MAP_STABLEHLO_TO_VHLO(SelectOp, V1)
-MAP_STABLEHLO_TO_VHLO(SendOp, V1)
+MAP_STABLEHLO_TO_VHLO(SendOp, V2)
 MAP_STABLEHLO_TO_VHLO(SetDimensionSizeOp, V1)
 MAP_STABLEHLO_TO_VHLO(ShiftLeftOp, V1)
 MAP_STABLEHLO_TO_VHLO(ShiftRightArithmeticOp, V1)
diff --ruN a/stablehlo/stablehlo/transforms/StablehloLegalizeToVhlo.cpp b/stablehlo/stablehlo/transforms/StablehloLegalizeToVhlo.cpp
--- stablehlo/stablehlo/transforms/StablehloLegalizeToVhlo.cpp
+++ stablehlo/stablehlo/transforms/StablehloLegalizeToVhlo.cpp
@@ -910,6 +910,8 @@
                 std::is_same<StablehloOpTy, stablehlo::SendOp>::value) {
     if (!stablehloOp.getIsHostTransferAttr())
       addDefaultAttr("is_host_transfer", builder.getBoolAttr(false));
+    if (!stablehloOp.getSourceTargetPairsAttr())
+      addDefaultAttr("source_target_pairs", builder.getDenseI64ArrayAttr({}));
   }
   if constexpr (std::is_same<StablehloOpTy, stablehlo::ReduceWindowOp>::value) {
     auto numWindowDimensions =
diff --ruN a/stablehlo/stablehlo/transforms/VhloLegalizeToStablehlo.cpp b/stablehlo/stablehlo/transforms/VhloLegalizeToStablehlo.cpp
--- stablehlo/stablehlo/transforms/VhloLegalizeToStablehlo.cpp
+++ stablehlo/stablehlo/transforms/VhloLegalizeToStablehlo.cpp
@@ -529,8 +529,8 @@
                "input_batching_dims", "scatter_indices_batching_dims",
                "scatter_dims_to_operand_dims", "index_vector_dim");
   }
-  if constexpr (std::is_same<VhloOpTy, vhlo::RecvOpV1>::value ||
-                std::is_same<VhloOpTy, vhlo::SendOpV1>::value) {
+  if constexpr (std::is_same<VhloOpTy, vhlo::RecvOpV2>::value ||
+                std::is_same<VhloOpTy, vhlo::SendOpV2>::value) {
     auto stablehloAttr = convertChannelHandle(vhloOp, typeConverter);
     if (!stablehloAttr) return failure();
     stablehloAttrs.emplace_back(
@@ -890,10 +890,12 @@
     if (isEmptyString(vhloOp.getOutfeedConfig()))
       eraseAttrs(vhloAttrs, "outfeed_config");
   }
-  if constexpr (std::is_same<VhloOpTy, vhlo::RecvOpV1>::value ||
-                std::is_same<VhloOpTy, vhlo::SendOpV1>::value) {
+  if constexpr (std::is_same<VhloOpTy, vhlo::RecvOpV2>::value ||
+                std::is_same<VhloOpTy, vhlo::SendOpV2>::value) {
     if (isBoolean(vhloOp.getIsHostTransferAttr(), false))
       eraseAttrs(vhloAttrs, "is_host_transfer");
+    if (isEmptyTensor(vhloOp.getSourceTargetPairs()))
+      eraseAttrs(vhloAttrs, "source_target_pairs");
   }
   if constexpr (std::is_same<VhloOpTy, vhlo::ReduceWindowOpV1>::value) {
     if (isSplatTensor(pattern, vhloOp.getWindowStridesAttr(), 1ll))
diff --ruN a/stablehlo/stablehlo/transforms/VhloToVersion.cpp b/stablehlo/stablehlo/transforms/VhloToVersion.cpp
--- stablehlo/stablehlo/transforms/VhloToVersion.cpp
+++ stablehlo/stablehlo/transforms/VhloToVersion.cpp
@@ -336,6 +336,14 @@
 /// Upgrade and Downgrade Definitions ///
 /////////////////////////////////////////
 
+void copyDiscardableAttrs(Operation* src, Operation* dst){
+  dst->setDiscardableAttrs(src->getDiscardableAttrDictionary());
+}
+
+void copyDiscardableAttrs(Value src, Value dst){
+  copyDiscardableAttrs(src.getDefiningOp(), dst.getDefiningOp());
+}
+
 TensorV1Attr getEmptyI64Tensor(OpBuilder& builder) {
   auto shape = vhlo::RankedTensorV1Type::get(
       builder.getContext(), {0},
@@ -412,6 +420,7 @@
         op.getIndicesAreSorted(), op.getUniqueIndices());
     Region& body = newOp.getUpdateComputation();
     rewriter.inlineRegionBefore(op.getUpdateComputation(), body, body.begin());
+    copyDiscardableAttrs(op, newOp);
     return success();
   }
 };
@@ -429,6 +438,7 @@
         op.getIndicesAreSorted(), op.getUniqueIndices());
     Region& body = newOp.getUpdateComputation();
     rewriter.inlineRegionBefore(op.getUpdateComputation(), body, body.begin());
+    copyDiscardableAttrs(op, newOp);
     return success();
   }
 };
@@ -443,6 +453,7 @@
         op.getChannelId(), op.getUseGlobalDeviceIds());
     Region& body = newOp.getComputation();
     rewriter.inlineRegionBefore(op.getComputation(), body, body.begin());
+    copyDiscardableAttrs(op, newOp);
     return success();
   }
 };
@@ -460,6 +471,7 @@
         op.getReplicaGroups(), op.getChannelId(), op.getUseGlobalDeviceIds());
     Region& body = newOp.getComputation();
     rewriter.inlineRegionBefore(op.getComputation(), body, body.begin());
+    copyDiscardableAttrs(op, newOp);
     return success();
   }
 };
diff --ruN a/stablehlo/stablehlo/transforms/VhloToVersionPatterns.td b/stablehlo/stablehlo/transforms/VhloToVersionPatterns.td
--- stablehlo/stablehlo/transforms/VhloToVersionPatterns.td
+++ stablehlo/stablehlo/transforms/VhloToVersionPatterns.td
@@ -19,9 +19,9 @@
 include "stablehlo/dialect/VhloEnums.td"
 include "stablehlo/dialect/VhloAttrs.td"
 
-def VHLO_GetEmptyDims : NativeCodeCall<"getEmptyI64Tensor($_builder)">;
+def VHLO_GetEmptyTensor : NativeCodeCall<"getEmptyI64Tensor($_builder)">;
 
-def VHLO_EmptyDims : AttrConstraint<CPred<"isEmptyTensor($_self)">, "Empty dims">;
+def VHLO_EmptyTensor : AttrConstraint<CPred<"isEmptyTensor($_self)">, "Empty dims">;
 
 def VHLO_NoneType : AttrConstraint<CPred<"isNoneType($_self)">, "None type">;
 
@@ -37,60 +37,91 @@
 
 def VHLO_GetDefaultResultAccuracyAttr : NativeCodeCall<"getDefaultResultAccuracy($_builder)">;
 
-
 def VHLO_DefaultResultAccuracy : AttrConstraint<CPred<"isDefaultResultAccuracy($_self)">, "Default result accuracy">;
 
+def VHLO_CopyDiscardableAttrs: NativeCodeCallVoid<"copyDiscardableAttrs($0, $1)">;
+
 def DynamicConvUpgradeV1ToV2:
-  Pat<(VHLO_DynamicConvOpV1 $lhs, $rhs, $d_padding, $window_strides, $padding, $lhs_dilation, $rhs_dilation, $window_reversal, $input_batch_dimension, $input_feature_dimension, $input_spatial_dimensions, $kernel_input_feature_dimension, $kernel_output_feature_dimension, $kernel_spatial_dimensions, $output_batch_dimension, $output_feature_dimension, $output_spatial_dimensions, $feature_group_count, $batch_group_count, $precision_config),
-      (VHLO_DynamicConvOpV2 $lhs, $rhs, $d_padding, $window_strides, $lhs_dilation, $rhs_dilation, $window_reversal, $input_batch_dimension, $input_feature_dimension, $input_spatial_dimensions, $kernel_input_feature_dimension, $kernel_output_feature_dimension, $kernel_spatial_dimensions, $output_batch_dimension, $output_feature_dimension, $output_spatial_dimensions, $feature_group_count, $batch_group_count, $precision_config)>;
+  Pat<(VHLO_DynamicConvOpV1:$src $lhs, $rhs, $d_padding, $window_strides, $padding, $lhs_dilation, $rhs_dilation, $window_reversal, $input_batch_dimension, $input_feature_dimension, $input_spatial_dimensions, $kernel_input_feature_dimension, $kernel_output_feature_dimension, $kernel_spatial_dimensions, $output_batch_dimension, $output_feature_dimension, $output_spatial_dimensions, $feature_group_count, $batch_group_count, $precision_config),
+      (VHLO_DynamicConvOpV2:$dst $lhs, $rhs, $d_padding, $window_strides, $lhs_dilation, $rhs_dilation, $window_reversal, $input_batch_dimension, $input_feature_dimension, $input_spatial_dimensions, $kernel_input_feature_dimension, $kernel_output_feature_dimension, $kernel_spatial_dimensions, $output_batch_dimension, $output_feature_dimension, $output_spatial_dimensions, $feature_group_count, $batch_group_count, $precision_config),
+      [], [(VHLO_CopyDiscardableAttrs $src, $dst)]>;
 
 def DynamicConvDowngradeV2ToV1:
-  Pat<(VHLO_DynamicConvOpV2 $lhs, $rhs, $d_padding, $window_strides, $lhs_dilation, $rhs_dilation, $window_reversal, $input_batch_dimension, $input_feature_dimension, $input_spatial_dimensions, $kernel_input_feature_dimension, $kernel_output_feature_dimension, $kernel_spatial_dimensions, $output_batch_dimension, $output_feature_dimension, $output_spatial_dimensions, $feature_group_count, $batch_group_count, $precision_config),
-      (VHLO_DynamicConvOpV1 $lhs, $rhs, $d_padding, $window_strides, (VHLO_GetDefaultConvPadding $lhs), $lhs_dilation, $rhs_dilation, $window_reversal, $input_batch_dimension, $input_feature_dimension, $input_spatial_dimensions, $kernel_input_feature_dimension, $kernel_output_feature_dimension, $kernel_spatial_dimensions, $output_batch_dimension, $output_feature_dimension, $output_spatial_dimensions, $feature_group_count, $batch_group_count, $precision_config)>;
+  Pat<(VHLO_DynamicConvOpV2:$src $lhs, $rhs, $d_padding, $window_strides, $lhs_dilation, $rhs_dilation, $window_reversal, $input_batch_dimension, $input_feature_dimension, $input_spatial_dimensions, $kernel_input_feature_dimension, $kernel_output_feature_dimension, $kernel_spatial_dimensions, $output_batch_dimension, $output_feature_dimension, $output_spatial_dimensions, $feature_group_count, $batch_group_count, $precision_config),
+      (VHLO_DynamicConvOpV1:$dst $lhs, $rhs, $d_padding, $window_strides, (VHLO_GetDefaultConvPadding $lhs), $lhs_dilation, $rhs_dilation, $window_reversal, $input_batch_dimension, $input_feature_dimension, $input_spatial_dimensions, $kernel_input_feature_dimension, $kernel_output_feature_dimension, $kernel_spatial_dimensions, $output_batch_dimension, $output_feature_dimension, $output_spatial_dimensions, $feature_group_count, $batch_group_count, $precision_config),
+      [], [(VHLO_CopyDiscardableAttrs $src, $dst)]>;
 
 def GatherOpUpgradeV1ToV2:
-  Pat<(VHLO_GatherOpV1 $operand, $start_indices, $offset_dims, $collapsed_slice_dims, $start_index_map, $index_vector_dim, $slice_sizes, $indices_are_sorted),
-      (VHLO_GatherOpV2 $operand, $start_indices, $offset_dims, $collapsed_slice_dims, (VHLO_GetEmptyDims), (VHLO_GetEmptyDims), $start_index_map, $index_vector_dim, $slice_sizes, $indices_are_sorted)>;
+  Pat<(VHLO_GatherOpV1:$src $operand, $start_indices, $offset_dims, $collapsed_slice_dims, $start_index_map, $index_vector_dim, $slice_sizes, $indices_are_sorted),
+      (VHLO_GatherOpV2:$dst $operand, $start_indices, $offset_dims, $collapsed_slice_dims, (VHLO_GetEmptyTensor), (VHLO_GetEmptyTensor), $start_index_map, $index_vector_dim, $slice_sizes, $indices_are_sorted),
+      [], [(VHLO_CopyDiscardableAttrs $src, $dst)]>;
 
 def GatherOpDowngradeV2ToV1 :
-  Pat<(VHLO_GatherOpV2 $operand, $start_indices, $offset_dims, $collapsed_slice_dims, VHLO_EmptyDims:$operand_batching_dims, VHLO_EmptyDims:$start_indices_batching_dims, $start_index_map, $index_vector_dim, $slice_sizes, $indices_are_sorted),
-      (VHLO_GatherOpV1 $operand, $start_indices, $offset_dims, $collapsed_slice_dims, $start_index_map, $index_vector_dim, $slice_sizes, $indices_are_sorted)>;
+  Pat<(VHLO_GatherOpV2:$src $operand, $start_indices, $offset_dims, $collapsed_slice_dims, VHLO_EmptyTensor:$operand_batching_dims, VHLO_EmptyTensor:$start_indices_batching_dims, $start_index_map, $index_vector_dim, $slice_sizes, $indices_are_sorted),
+      (VHLO_GatherOpV1:$dst $operand, $start_indices, $offset_dims, $collapsed_slice_dims, $start_index_map, $index_vector_dim, $slice_sizes, $indices_are_sorted),
+      [], [(VHLO_CopyDiscardableAttrs $src, $dst)]>;
 
 def DynamicGatherOpUpgradeV1ToV2:
-  Pat<(VHLO_DynamicGatherOpV1 $operand, $start_indices, $slice_sizes, $offset_dims, $collapsed_slice_dims, $start_index_map, $index_vector_dim, $indices_are_sorted),
-      (VHLO_DynamicGatherOpV2 $operand, $start_indices, $slice_sizes, $offset_dims, $collapsed_slice_dims, (VHLO_GetEmptyDims), (VHLO_GetEmptyDims), $start_index_map, $index_vector_dim, $indices_are_sorted)>;
+  Pat<(VHLO_DynamicGatherOpV1:$src $operand, $start_indices, $slice_sizes, $offset_dims, $collapsed_slice_dims, $start_index_map, $index_vector_dim, $indices_are_sorted),
+      (VHLO_DynamicGatherOpV2:$dst $operand, $start_indices, $slice_sizes, $offset_dims, $collapsed_slice_dims, (VHLO_GetEmptyTensor), (VHLO_GetEmptyTensor), $start_index_map, $index_vector_dim, $indices_are_sorted),
+      [], [(VHLO_CopyDiscardableAttrs $src, $dst)]>;
 
 def DynamicGatherOpDowngradeV2ToV1 :
-  Pat<(VHLO_DynamicGatherOpV2 $operand, $start_indices, $slice_sizes, $offset_dims, $collapsed_slice_dims, VHLO_EmptyDims:$operand_batching_dims, VHLO_EmptyDims:$start_indices_batching_dims, $start_index_map, $index_vector_dim, $indices_are_sorted),
-      (VHLO_DynamicGatherOpV1 $operand, $start_indices, $slice_sizes, $offset_dims, $collapsed_slice_dims, $start_index_map, $index_vector_dim, $indices_are_sorted)>;
+  Pat<(VHLO_DynamicGatherOpV2:$src $operand, $start_indices, $slice_sizes, $offset_dims, $collapsed_slice_dims, VHLO_EmptyTensor:$operand_batching_dims, VHLO_EmptyTensor:$start_indices_batching_dims, $start_index_map, $index_vector_dim, $indices_are_sorted),
+      (VHLO_DynamicGatherOpV1:$dst $operand, $start_indices, $slice_sizes, $offset_dims, $collapsed_slice_dims, $start_index_map, $index_vector_dim, $indices_are_sorted),
+      [], [(VHLO_CopyDiscardableAttrs $src, $dst)]>;
 
 def AllGatherOpUpgradeV1ToV2 :
-  Pat<(VHLO_AllGatherOpV1 $operand, $all_gather_dim, $replica_groups, $channel_id, $use_global_device_ids),
-      (VHLO_AllGatherOpV2 (VHLO_WrapInVector $operand), $all_gather_dim, $replica_groups, $channel_id, $use_global_device_ids)>;
+  Pat<(VHLO_AllGatherOpV1:$src $operand, $all_gather_dim, $replica_groups, $channel_id, $use_global_device_ids),
+      (VHLO_AllGatherOpV2:$dst (VHLO_WrapInVector $operand), $all_gather_dim, $replica_groups, $channel_id, $use_global_device_ids),
+      [], [(VHLO_CopyDiscardableAttrs $src, (VHLO_GetFirstOperand $dst))]>;
 
 def AllGatherOpDowngradeV2ToV1 :
-  Pat<(VHLO_AllGatherOpV2 $operand, $all_gather_dim, $replica_groups, $channel_id, $use_global_device_ids),
-      (VHLO_AllGatherOpV1 (VHLO_GetFirstOperand $operand), $all_gather_dim, $replica_groups, $channel_id, $use_global_device_ids),
-      [(VHLO_IsSingleOperand $operand)]>;
+  Pat<(VHLO_AllGatherOpV2:$src $operand, $all_gather_dim, $replica_groups, $channel_id, $use_global_device_ids),
+      (VHLO_AllGatherOpV1:$dst (VHLO_GetFirstOperand $operand), $all_gather_dim, $replica_groups, $channel_id, $use_global_device_ids),
+      [(VHLO_IsSingleOperand $operand)], [(VHLO_CopyDiscardableAttrs (VHLO_GetFirstOperand $src), $dst)]>;
 
 def AllToAllOpUpgradeV1ToV2 :
-  Pat<(VHLO_AllToAllOpV1 $operand, $split_dimension, $concat_dimension, $split_count, $replica_groups, $channel_id),
-      (VHLO_AllToAllOpV2 (VHLO_WrapInVector $operand), $split_dimension, $concat_dimension, $split_count, $replica_groups, $channel_id)>;
+  Pat<(VHLO_AllToAllOpV1:$src $operand, $split_dimension, $concat_dimension, $split_count, $replica_groups, $channel_id),
+      (VHLO_AllToAllOpV2:$dst (VHLO_WrapInVector $operand), $split_dimension, $concat_dimension, $split_count, $replica_groups, $channel_id),
+      [], [(VHLO_CopyDiscardableAttrs $src, (VHLO_GetFirstOperand $dst))]>;
 
 def AllToAllOpDowngradeV2ToV1 :
-  Pat<(VHLO_AllToAllOpV2 $operand, $split_dimension, $concat_dimension, $split_count, $replica_groups, $channel_id),
-      (VHLO_AllToAllOpV1 (VHLO_GetFirstOperand $operand), $split_dimension, $concat_dimension, $split_count, $replica_groups, $channel_id),
-      [(VHLO_IsSingleOperand $operand)]>;
+  Pat<(VHLO_AllToAllOpV2:$src $operand, $split_dimension, $concat_dimension, $split_count, $replica_groups, $channel_id),
+      (VHLO_AllToAllOpV1:$dst (VHLO_GetFirstOperand $operand), $split_dimension, $concat_dimension, $split_count, $replica_groups, $channel_id),
+      [(VHLO_IsSingleOperand $operand)], [(VHLO_CopyDiscardableAttrs (VHLO_GetFirstOperand $src), $dst)]>;
 
 def DotGeneralOpDowngradeV2ToV1 :
-  Pat<(VHLO_DotGeneralOpV2 $lhs, $rhs, $lhs_batching_dimensions, $rhs_batching_dimensions, $lhs_contracting_dimensions, $rhs_contracting_dimensions, $precision_config,
+  Pat<(VHLO_DotGeneralOpV2:$src $lhs, $rhs, $lhs_batching_dimensions, $rhs_batching_dimensions, $lhs_contracting_dimensions, $rhs_contracting_dimensions, $precision_config,
          VHLO_NoneType:$lhs_precision_type, VHLO_NoneType:$rhs_precision_type, VHLO_NoneType:$accumulation_type, VHLO_NoneType:$lhs_component_count, VHLO_NoneType:$rhs_component_count, VHLO_NoneType:$num_primitive_operations, VHLO_NoneType:$allow_imprecise_accumulation),
-      (VHLO_DotGeneralOpV1 $lhs, $rhs, $lhs_batching_dimensions, $rhs_batching_dimensions, $lhs_contracting_dimensions, $rhs_contracting_dimensions, $precision_config)>;
+      (VHLO_DotGeneralOpV1:$dst $lhs, $rhs, $lhs_batching_dimensions, $rhs_batching_dimensions, $lhs_contracting_dimensions, $rhs_contracting_dimensions, $precision_config),
+      [], [(VHLO_CopyDiscardableAttrs $src, $dst)]>;
 
 def DotGeneralOpUpradeV1ToV2 :
-  Pat<(VHLO_DotGeneralOpV1 $lhs, $rhs, $lhs_batching_dimensions, $rhs_batching_dimensions, $lhs_contracting_dimensions, $rhs_contracting_dimensions, $precision_config),
-      (VHLO_DotGeneralOpV2 $lhs, $rhs, $lhs_batching_dimensions, $rhs_batching_dimensions, $lhs_contracting_dimensions, $rhs_contracting_dimensions, $precision_config,
-         (VHLO_GetNoneType), (VHLO_GetNoneType), (VHLO_GetNoneType), (VHLO_GetNoneType), (VHLO_GetNoneType), (VHLO_GetNoneType), (VHLO_GetNoneType))>;
+  Pat<(VHLO_DotGeneralOpV1:$src $lhs, $rhs, $lhs_batching_dimensions, $rhs_batching_dimensions, $lhs_contracting_dimensions, $rhs_contracting_dimensions, $precision_config),
+      (VHLO_DotGeneralOpV2:$dst $lhs, $rhs, $lhs_batching_dimensions, $rhs_batching_dimensions, $lhs_contracting_dimensions, $rhs_contracting_dimensions, $precision_config,
+         (VHLO_GetNoneType), (VHLO_GetNoneType), (VHLO_GetNoneType), (VHLO_GetNoneType), (VHLO_GetNoneType), (VHLO_GetNoneType), (VHLO_GetNoneType)),
+         [], [(VHLO_CopyDiscardableAttrs $src, $dst)]>;
+
+def SendOpDowngradeV2ToV1 :
+  Pat<(VHLO_SendOpV2:$src $operand, $token, $channel_id, $channel_type, $is_host_transfer, VHLO_EmptyTensor:$source_target_pairs),
+      (VHLO_SendOpV1:$dst $operand, $token, $channel_id, $channel_type, $is_host_transfer),
+      [], [(VHLO_CopyDiscardableAttrs $src, $dst)]>;
+
+def SendOpUpgradeV1ToV2 :
+  Pat<(VHLO_SendOpV1:$src $operand, $token, $channel_id, $channel_type, $is_host_transfer),
+      (VHLO_SendOpV2:$dst $operand, $token, $channel_id, $channel_type, $is_host_transfer, (VHLO_GetEmptyTensor)),
+      [], [(VHLO_CopyDiscardableAttrs $src, $dst)]>;
+
+def RecvOpDowngradeV2ToV1 :
+  Pat<(VHLO_RecvOpV2:$src $token, $channel_id, $channel_type, $is_host_transfer, VHLO_EmptyTensor:$source_target_pairs),
+      (VHLO_RecvOpV1:$dst $token, $channel_id, $channel_type, $is_host_transfer),
+      [], [(VHLO_CopyDiscardableAttrs (VHLO_GetFirstOperand $src), (VHLO_GetFirstOperand $dst))]>;
+
+def RecvOpUpgradeV1ToV2 :
+  Pat<(VHLO_RecvOpV1:$src $token, $channel_id, $channel_type, $is_host_transfer),
+      (VHLO_RecvOpV2:$dst $token, $channel_id, $channel_type, $is_host_transfer, (VHLO_GetEmptyTensor)),
+      [], [(VHLO_CopyDiscardableAttrs (VHLO_GetFirstOperand $src), (VHLO_GetFirstOperand $dst))]>;
 
 foreach resultAccuracyOpV1V2Pair = [
   [VHLO_CbrtOpV1, VHLO_CbrtOpV2],
@@ -105,8 +136,10 @@
   [VHLO_SqrtOpV1, VHLO_SqrtOpV2],
   [VHLO_TanOpV1, VHLO_TanOpV2],
   [VHLO_TanhOpV1, VHLO_TanhOpV2]] in {
-  def : Pat<(resultAccuracyOpV1V2Pair[0] $operand),
-            (resultAccuracyOpV1V2Pair[1] $operand, (VHLO_GetDefaultResultAccuracyAttr))>;
-  def : Pat<(resultAccuracyOpV1V2Pair[1] $operand, VHLO_DefaultResultAccuracy:$result_accuracy),
-            (resultAccuracyOpV1V2Pair[0] $operand)>;
+  def : Pat<(resultAccuracyOpV1V2Pair[0]:$src $operand),
+            (resultAccuracyOpV1V2Pair[1]:$dst $operand, (VHLO_GetDefaultResultAccuracyAttr)),
+            [], [(VHLO_CopyDiscardableAttrs $src, $dst)]>;
+  def : Pat<(resultAccuracyOpV1V2Pair[1]:$src $operand, VHLO_DefaultResultAccuracy:$result_accuracy),
+            (resultAccuracyOpV1V2Pair[0]:$dst $operand),
+            [], [(VHLO_CopyDiscardableAttrs $src, $dst)]>;
 }

