diff --ruN a/stablehlo/stablehlo/dialect/StablehloOps.h b/stablehlo/stablehlo/dialect/StablehloOps.h
--- stablehlo/stablehlo/dialect/StablehloOps.h
+++ stablehlo/stablehlo/dialect/StablehloOps.h
@@ -141,16 +141,16 @@
 namespace side_effects {
 
 struct SendResource : ::mlir::SideEffects::Resource::Base<SendResource> {
-  StringRef getName() final { return "SendResource"; }
+  StringRef getName() const final { return "SendResource"; }
 };
 struct RecvResource : ::mlir::SideEffects::Resource::Base<RecvResource> {
-  StringRef getName() final { return "RecvResource"; }
+  StringRef getName() const final { return "RecvResource"; }
 };
 struct InfeedResource : ::mlir::SideEffects::Resource::Base<InfeedResource> {
-  StringRef getName() final { return "InfeedResource"; }
+  StringRef getName() const final { return "InfeedResource"; }
 };
 struct OutfeedResource : ::mlir::SideEffects::Resource::Base<OutfeedResource> {
-  StringRef getName() final { return "OutfeedResource"; }
+  StringRef getName() const final { return "OutfeedResource"; }
 };
 
 }  // end namespace side_effects
diff --ruN a/stablehlo/stablehlo/integrations/cpp/builder/MlirBuilderTest.cpp b/stablehlo/stablehlo/integrations/cpp/builder/MlirBuilderTest.cpp
--- stablehlo/stablehlo/integrations/cpp/builder/MlirBuilderTest.cpp
+++ stablehlo/stablehlo/integrations/cpp/builder/MlirBuilderTest.cpp
@@ -203,7 +203,7 @@
     %c = stablehlo.constant dense<1> : tensor<i64>
     %0 = stablehlo.while(%iterArg = %arg0) : tensor<i64>
     cond {
-      %1 = stablehlo.compare  LT, %iterArg, %c : (tensor<i64>, tensor<i64>) -> tensor<i1>
+      %1 = stablehlo.compare LT, %iterArg, %c : (tensor<i64>, tensor<i64>) -> tensor<i1>
       stablehlo.return %1 : tensor<i1>
     } do {
       %1 = stablehlo.subtract %iterArg, %c : tensor<i64>
diff --ruN a/stablehlo/stablehlo/integrations/cpp/builder/StablehloBuilderTest.cpp b/stablehlo/stablehlo/integrations/cpp/builder/StablehloBuilderTest.cpp
--- stablehlo/stablehlo/integrations/cpp/builder/StablehloBuilderTest.cpp
+++ stablehlo/stablehlo/integrations/cpp/builder/StablehloBuilderTest.cpp
@@ -347,7 +347,7 @@
     %c = stablehlo.constant dense<1> : tensor<i64>
     %0 = stablehlo.while(%iterArg = %arg0) : tensor<i64>
     cond {
-      %1 = stablehlo.compare  LT, %iterArg, %c : (tensor<i64>, tensor<i64>) -> tensor<i1>
+      %1 = stablehlo.compare LT, %iterArg, %c : (tensor<i64>, tensor<i64>) -> tensor<i1>
       stablehlo.return %1 : tensor<i1>
     } do {
       %1 = stablehlo.subtract %iterArg, %c : tensor<i64>
diff --ruN a/stablehlo/stablehlo/reference/Ops.cpp b/stablehlo/stablehlo/reference/Ops.cpp
--- stablehlo/stablehlo/reference/Ops.cpp
+++ stablehlo/stablehlo/reference/Ops.cpp
@@ -1864,9 +1864,9 @@
     return result;
   } else if (fftType == FftType::IRFFT) {
     Tensor result(operand);
-    auto renormFactor = std::transform_reduce(
-        fftDims.begin(), fftDims.end(), 1, std::multiplies<int64_t>(),
-        [&](int64_t d) { return resultType.getDimSize(d); });
+    int64_t renormFactor = std::accumulate(
+        fftDims.begin(), fftDims.end(), static_cast<int64_t>(1),
+        [&](int64_t acc, int64_t d) { return acc * resultType.getDimSize(d); });
 
     // use FFT to compute the IFFT steps
     auto d_irfft = fftDims.pop_back_val();
diff --ruN a/stablehlo/stablehlo/tests/ops_stablehlo.mlir b/stablehlo/stablehlo/tests/ops_stablehlo.mlir
--- stablehlo/stablehlo/tests/ops_stablehlo.mlir
+++ stablehlo/stablehlo/tests/ops_stablehlo.mlir
@@ -1113,7 +1113,7 @@
 
 // -----
 
-func.func @dynamic_broadcast_in_dim_c1(%arg0: tensor<?x?xi32>, %shape: tensor<3xi64>) -> tensor<?x?x?xi62> {
+func.func @dynamic_broadcast_in_dim_c1(%arg0: tensor<?x?xi32>, %shape: tensor<3xi64>) -> tensor<?x?x?xi64> {
   // expected-error@+1 {{expects operand and result to have compatible element type}}
   %0 = "stablehlo.dynamic_broadcast_in_dim"(%arg0, %shape) {broadcast_dimensions = array<i64: 1, 2>} : (tensor<?x?xi32>, tensor<3xi64>) -> tensor<?x?x?xi64>
   func.return %0 : tensor<?x?x?xi64>
@@ -2008,7 +2008,7 @@
 
 // -----
 
-func.func @infeed_c1(%token: !stablehlo.token) -> tensor<3x3xi32> {
+func.func @infeed_c1(%token: !stablehlo.token) {
   // expected-error@+1 {{result is expected to be at least of size 1, but got 0}}
   "stablehlo.infeed"(%token) {infeed_config = "foobar", layout=[[[0]], [0]]} : (!stablehlo.token) -> ()
   func.return
@@ -2243,7 +2243,7 @@
 
 // -----
 
-func.func @recv_c3(%token: !stablehlo.token) -> (!stablehlo.token, !stablehlo.token) {
+func.func @recv_c3(%token: !stablehlo.token) -> !stablehlo.token {
   // expected-error@+1 {{everything but the last element of result types is expected to be of tensor type, but got '!stablehlo.token'}}
   %0:2 = "stablehlo.recv"(%token) {
     channel_handle = #stablehlo.channel_handle<
@@ -2295,7 +2295,7 @@
 
 // -----
 
-func.func @rng_bit_generator(%arg0: tensor<2xui64>) -> (tensor<2xui64>, tensor<10x12xui32>) {
+func.func @rng_bit_generator(%arg0: tensor<2xui64>) -> (tensor<3xui64>, tensor<10x12xui32>) {
   // expected-error@+1 {{output state shape must be compatible with initial state shape. Got: 'tensor<2xui64>' and 'tensor<3xui64>'}}
   %0, %1 = "stablehlo.rng_bit_generator"(%arg0) {rng_algorithm = #stablehlo<rng_algorithm DEFAULT>} : (tensor<2xui64>) -> (tensor<3xui64>, tensor<10x12xui32>)
   func.return %0, %1 : tensor<3xui64>, tensor<10x12xui32>
diff --ruN a/stablehlo/stablehlo/tests/ops_stablehlo_quantized.mlir b/stablehlo/stablehlo/tests/ops_stablehlo_quantized.mlir
--- stablehlo/stablehlo/tests/ops_stablehlo_quantized.mlir
+++ stablehlo/stablehlo/tests/ops_stablehlo_quantized.mlir
@@ -726,7 +726,7 @@
 
 // -----
 
-func.func @negative_dynamic_update_slice_pertensor_quantization(%operand: tensor<3x4x!quant.uniform<i8:f32:0, {0.1:-30}>>, %update: tensor<1x4x!quant.uniform<i8:f32:0, {0.1:-30}>>, %start_indices0: tensor<i64>, %start_indices1: tensor<i64>) -> tensor<3x4x!quant.uniform<i8:f32, 1.0:17>> {
+func.func @negative_dynamic_update_slice_pertensor_quantization(%operand: tensor<3x4x!quant.uniform<i8:f32:0, {0.1:-30}>>, %update: tensor<1x4x!quant.uniform<i8:f32:0, {0.1:-30}>>, %start_indices0: tensor<i64>, %start_indices1: tensor<i64>) -> tensor<3x4x!quant.uniform<i8:f32:0, {0.1:-30}>> {
   // expected-error-re@+1 {{operand #0 must be ranked tensor of {{.*}}, but got 'tensor<3x4x!quant.uniform<i8:f32:0, {1.000000e-01:-30}>>'}}
   %0 = "stablehlo.dynamic_update_slice"(%operand, %update, %start_indices0, %start_indices1) : (tensor<3x4x!quant.uniform<i8:f32:0, {0.1:-30}>>, tensor<1x4x!quant.uniform<i8:f32:0, {0.1:-30}>>, tensor<i64>, tensor<i64>) -> tensor<3x4x!quant.uniform<i8:f32:0, {0.1:-30}>>
   func.return %0 : tensor<3x4x!quant.uniform<i8:f32:0, {0.1:-30}>>
@@ -1198,7 +1198,7 @@
 
 func.func @dot_general_c16(
   %arg0: tensor<2x3x4x!quant.uniform<i8:f32, 1.0:17>>,
-  %arg1: tensor<2x3x5x!quant.uniform<i8:f32:0, {0.1:0, 0.1:0}>>) -> tensor<2x4x5x!quant.uniform<i8:f32:0, {0.1:-30, 0.1:-30, 0.1:-30}>> {
+  %arg1: tensor<2x3x5x!quant.uniform<i8:f32:0, {0.1:0, 0.1:0}>>) -> tensor<3x4x5x!quant.uniform<i8:f32:0, {0.1:-30, 0.1:-30, 0.1:-30}>> {
   // expected-error@+1 {{Quantization dimension of rhs should not be in the contracting dimension of rhs}}
   %0 = "stablehlo.dot_general"(%arg0, %arg1) {
     dot_dimension_numbers = #stablehlo.dot<
diff --ruN a/stablehlo/stablehlo/tests/transforms/stablehlo_aggressive_folder.mlir b/stablehlo/stablehlo/tests/transforms/stablehlo_aggressive_folder.mlir
--- stablehlo/stablehlo/tests/transforms/stablehlo_aggressive_folder.mlir
+++ stablehlo/stablehlo/tests/transforms/stablehlo_aggressive_folder.mlir
@@ -1,4 +1,62 @@
 // RUN: stablehlo-opt --stablehlo-aggressive-folder=fold-op-element-limit=100 --split-input-file --verify-diagnostics %s | FileCheck %s
+
+////////
+// ReverseOp
+
+// CHECK-LABEL: @reverse_fold_empty_dim_cst
+func.func @reverse_fold_empty_dim_cst() -> tensor<2xi32> {
+  // CHECK: stablehlo.constant dense<[1, 2]>
+  // CHECK-NEXT: stablehlo.reverse
+  %operand = stablehlo.constant dense<[1, 2]> : tensor<2xi32>
+  %result = stablehlo.reverse %operand, dims = [] : tensor<2xi32>
+  return %result : tensor<2xi32>
+}
+
+// -----
+
+// CHECK-LABEL: @reverse_fold_single_dim_cst
+func.func @reverse_fold_single_dim_cst() -> tensor<2xi32> {
+  // CHECK: stablehlo.constant dense<[2, 1]>
+  // CHECK-NOT: stablehlo.reverse
+  %operand = stablehlo.constant dense<[1, 2]> : tensor<2xi32>
+  %result = stablehlo.reverse %operand, dims = [0] : tensor<2xi32>
+  return %result : tensor<2xi32>
+}
+
+// -----
+
+// CHECK-LABEL: @reverse_fold_multiple_dim_cst
+func.func @reverse_fold_multiple_dim_cst() -> tensor<3x2xf32> {
+  // CHECK: stablehlo.constant dense<{{\[\[6\.0.*, 5\.0.*\], \[4\.0.*, 3\.0.*\], \[2\.0.*, 1\.0.*\]\]}}> : tensor<3x2xf32>
+  // CHECK-NOT: stablehlo.reverse
+  %operand = stablehlo.constant dense<[[1.0, 2.0],[3.0, 4.0],[5.0, 6.0]]> : tensor<3x2xf32>
+  %result = stablehlo.reverse %operand, dims = [0, 1] : (tensor<3x2xf32>) -> tensor<3x2xf32>
+  return %result : tensor<3x2xf32>
+}
+
+// -----
+
+// CHECK-LABEL: @reverse_fold_one_dim_cst
+func.func @reverse_fold_one_dim_cst() -> tensor<1x2xi32> {
+  // CHECK: stablehlo.constant dense<{{\[\[1, 2\]\]}}>
+  // CHECK-NEXT: stablehlo.reverse
+  %operand = stablehlo.constant dense<[[1,2]]> : tensor<1x2xi32>
+  %result = stablehlo.reverse %operand, dims = [0] : tensor<1x2xi32>
+  return %result : tensor<1x2xi32>
+}
+
+// -----
+
+// CHECK-LABEL: @reverse_fold_splat_cst
+func.func @reverse_fold_splat_cst() -> tensor<3x2xi32> {
+  // CHECK: stablehlo.constant dense<1> : tensor<3x2xi32>
+  // CHECK-NEXT: stablehlo.reverse
+  %operand = stablehlo.constant dense<1> : tensor<3x2xi32>
+  %result = stablehlo.reverse %operand, dims = [0] : tensor<3x2xi32>
+  return %result : tensor<3x2xi32>
+}
+
+// -----
 
 ////////
 // AddOp
diff --ruN a/stablehlo/stablehlo/tests/transforms/stablehlo_aggressive_simplification.mlir b/stablehlo/stablehlo/tests/transforms/stablehlo_aggressive_simplification.mlir
--- stablehlo/stablehlo/tests/transforms/stablehlo_aggressive_simplification.mlir
+++ stablehlo/stablehlo/tests/transforms/stablehlo_aggressive_simplification.mlir
@@ -1688,6 +1688,74 @@
 // -----
 
 /////////
+// ReverseOp
+
+// CHECK-LABEL: @reverse_empty_dim
+// CHECK-SAME: [[ARG:%.+]]: tensor<1x2x3xi32>
+func.func @reverse_empty_dim(%arg0: tensor<1x2x3xi32>) -> tensor<1x2x3xi32> {
+  // CHECK-NOT: stablehlo.reverse
+  %0 = stablehlo.reverse %arg0, dims = [] : (tensor<1x2x3xi32>) -> tensor<1x2x3xi32>
+  // CHECK: return [[ARG]] : tensor<1x2x3xi32>
+  return %0 : tensor<1x2x3xi32>
+}
+// -----
+
+// CHECK-LABEL: @reverse_dyn_shape_with_zero_dim
+// CHECK-SAME: [[ARG:%.+]]: tensor<0x?x1xi32>
+func.func @reverse_dyn_shape_with_zero_dim(%arg0: tensor<0x?x1xi32>) -> tensor<0x?x1xi32> {
+  // CHECK: %[[RES:.*]] = stablehlo.reverse
+  %0 = stablehlo.reverse %arg0, dims = [0, 1] : (tensor<0x?x1xi32>) -> tensor<0x?x1xi32>
+  // CHECK: return %[[RES]] : tensor<0x?x1xi32>
+  return %0 : tensor<0x?x1xi32>
+}
+
+// -----
+
+// CHECK-LABEL: @reverse_zero_element_any_dim
+// CHECK-SAME: [[ARG:%.+]]: tensor<1x0x1xi32>
+func.func @reverse_zero_element_any_dim(%arg0: tensor<1x0x1xi32>) -> tensor<1x0x1xi32> {
+  // CHECK-NOT: stablehlo.reverse
+  %0 = stablehlo.reverse %arg0, dims = [0, 1] : (tensor<1x0x1xi32>) -> tensor<1x0x1xi32>
+  // CHECK: return [[ARG]] : tensor<1x0x1xi32>
+  return %0 : tensor<1x0x1xi32>
+}
+
+// -----
+
+// CHECK-LABEL: @reverse_one_element_in_all_dim
+// CHECK-SAME: [[ARG:%.+]]: tensor<1x1x1xi32>
+func.func @reverse_one_element_in_all_dim(%arg0: tensor<1x1x1xi32>) -> tensor<1x1x1xi32> {
+  // CHECK-NOT: stablehlo.reverse
+  %0 = stablehlo.reverse %arg0, dims = [0, 1] : (tensor<1x1x1xi32>) -> tensor<1x1x1xi32>
+  // CHECK: return [[ARG]] : tensor<1x1x1xi32>
+  return %0 : tensor<1x1x1xi32>
+}
+
+// -----
+
+// CHECK-LABEL: @reverse_all_dim_to_reverse_equals_one
+// CHECK-SAME: [[ARG:%.+]]: tensor<1x1x3xi32>
+func.func @reverse_all_dim_to_reverse_equals_one(%arg0: tensor<1x1x3xi32>) -> tensor<1x1x3xi32> {
+  // CHECK-NOT: stablehlo.reverse
+  %0 = stablehlo.reverse %arg0, dims = [0, 1] : (tensor<1x1x3xi32>) -> tensor<1x1x3xi32>
+  // CHECK: return [[ARG]] : tensor<1x1x3xi32>
+  return %0 : tensor<1x1x3xi32>
+}
+
+// -----
+
+// CHECK-LABEL: @reverse_splat_cst
+func.func @reverse_splat_cst() -> tensor<3x2xi32> {
+  // CHECK: stablehlo.constant dense<1> : tensor<3x2xi32>
+  // CHECK-NOT: stablehlo.reverse
+  %operand = stablehlo.constant dense<1> : tensor<3x2xi32>
+  %result = stablehlo.reverse %operand, dims = [0] : tensor<3x2xi32>
+  return %result : tensor<3x2xi32>
+}
+
+// -----
+
+/////////
 // SelectOp
 
 // CHECK-LABEL: func.func @select
diff --ruN a/stablehlo/stablehlo/tests/verify_reduce.mlir b/stablehlo/stablehlo/tests/verify_reduce.mlir
--- stablehlo/stablehlo/tests/verify_reduce.mlir
+++ stablehlo/stablehlo/tests/verify_reduce.mlir
@@ -146,7 +146,7 @@
 // -----
 
 func.func @reduce_c2(%arg0: tensor<?x?xf32>, %arg1: tensor<?x?xi32>,
-    %arg2: tensor<f32>, %arg3: tensor<f32>) -> (tensor<?xf32>, tensor<?xf32>) {
+    %arg2: tensor<f32>, %arg3: tensor<f32>) -> (tensor<?xf32>, tensor<?xi32>) {
 
   // expected-error@+1 {{The type of reduction-region's parameter at index 3 is different than the corresponding result type: 'tensor<i32>' vs 'tensor<f32>'}}
   %0:2 = "stablehlo.reduce"(%arg0, %arg1, %arg2, %arg3) ({
diff --ruN a/stablehlo/stablehlo/tests/verify_reduce_window.mlir b/stablehlo/stablehlo/tests/verify_reduce_window.mlir
--- stablehlo/stablehlo/tests/verify_reduce_window.mlir
+++ stablehlo/stablehlo/tests/verify_reduce_window.mlir
@@ -100,8 +100,7 @@
 // -----
 
 func.func @reduce_window_c1(%arg0: tensor<4x2xf32>, %arg1: tensor<4x2xi32>,
-                    %init0: tensor<f32>, %init1: tensor<i32>) ->
-                      (tensor<2x2xf32>, tensor<2x2xi32>) {
+                    %init0: tensor<f32>, %init1: tensor<i32>) {
   // expected-error@+1 {{requires at least 1 input value}}
   "stablehlo.reduce_window"() ({
     ^bb0():
diff --ruN a/stablehlo/stablehlo/transforms/optimization/StablehloAggressiveFolder.cpp b/stablehlo/stablehlo/transforms/optimization/StablehloAggressiveFolder.cpp
--- stablehlo/stablehlo/transforms/optimization/StablehloAggressiveFolder.cpp
+++ stablehlo/stablehlo/transforms/optimization/StablehloAggressiveFolder.cpp
@@ -1268,6 +1268,132 @@
   }
 };
 
+// foldReverseHelper handles the three cases:
+//   - If the input is a splat, the reverse is a no-op.
+//   - If the input has 0 elements, the reverse is a no-op. Note that,
+//   this also handles cases where any dimension has size 0. If any
+//   dimension is 0 then the product of all dimensions is 0.
+//   - If the input is compile-time constant, and its elements are either
+//   integer or float, then reverse the elements.
+//
+// Before calling this function, matchAndRewrite has handled input that have
+// empty dimensions to reverse, or all dimensions of tensor have size 1.
+template <typename T>
+static DenseElementsAttr foldReverseHelper(const DenseElementsAttr attr,
+                                           const ShapedType type,
+                                           ArrayRef<int64_t> dims) {
+  // flat array representation of the input tensor
+  SmallVector<T> result(attr.getValues<T>().begin(), attr.getValues<T>().end());
+  int64_t numElements = attr.getNumElements();
+
+  size_t rank = type.getRank();
+  // stride[i] is the number of elements contained within Dimension i and all
+  // dimensions that follow it. It is the "jump size" required to skip over one
+  // full unit of the previous dimension
+  SmallVector<int64_t> stride(rank + 1, numElements);
+
+  for (size_t i = 0; i < rank; i++) {
+    stride[i + 1] = stride[i] / type.getDimSize(i);
+  }
+
+  for (int64_t dim : dims) {
+    // For example, given:
+    //   * tensor: tensor<2x3x2xi32>
+    //     [[[1, 2], [3, 4], [5, 6]], [[7, 8], [9,10], [11, 12]]]
+    //   * dim: [1]
+    //
+    // We're going to reverse the tensor with respect to dim as follows:
+    //   1) Split the tensor into blocks, i.e. smaller tensors whose type is
+    //   derived from the tensor by dropping the first `dim` dimensions, i.e.
+    //   tensor<3x2xi32> for the running example.
+    //   2) Split each block into windows, i.e. even smaller tensors whose type
+    //   is derived from the block by dropping the first dimension of the
+    //   block, i.e. tensor<2xi32> for the running example.
+    //   3) Within each block, swap windows but don't change the order of
+    //   elements within the windows: 0th window goes to N-1st spot, 1st window
+    //   goes to N-2nd spot etc.
+    //
+    // For the running example, the result will be:
+    //   [[[5, 6], [3, 4], [1, 2]], [[11, 12], [9, 10], [7, 8]]].
+    //
+    // Note how elements within windows haven't changed their order with respect
+    // to each other and how blocks haven't changed their order with respect to
+    // each other.
+
+    // numWindows is the dimension size of the dimension to reverse.
+    int64_t numWindows = type.getDimSize(dim);
+    // windowSize is the number of slices to cut the block
+    int64_t windowSize = stride[dim] / numWindows;
+    // numBlocks can be viewed as the contiguous block elements on a flat array
+    // to reverse
+    int64_t numBlocks = numElements / stride[dim];
+
+    for (int64_t block = 0; block < numBlocks; ++block) {
+      for (int64_t window = 0; window < numWindows / 2; ++window) {
+        // reversedWindow is the window that will be swapped with the window.
+        int64_t reversedWindow = numWindows - window - 1;
+
+        // windowStart is the starting index of the window in the result array.
+        int64_t windowStart = block * stride[dim] + window * windowSize;
+        // reversedWindowStart is the starting index of the reversed window in
+        // the result array.
+        int64_t reversedWindowStart =
+            block * stride[dim] + reversedWindow * windowSize;
+
+        // Swap elements along the window with the elements along the reversed
+        // window.
+        for (int64_t i = 0; i < windowSize; ++i) {
+          std::swap(result[windowStart + i], result[reversedWindowStart + i]);
+        }
+      }
+    }
+  }
+  return DenseElementsAttr::get(type, result);
+}
+
+struct FoldReverseOpPattern : public ShapeOpRewritePattern<ReverseOp> {
+  using ShapeOpRewritePattern::ShapeOpRewritePattern;
+
+  LogicalResult matchAndRewrite(ReverseOp op,
+                                PatternRewriter& rewriter) const override {
+    Value input = op.getOperand();
+    auto shapedType = cast<ShapedType>(input.getType());
+
+    // Validate shapedType and element count of resultType
+    if (failed(validateStaticShapeResult(rewriter, op, shapedType)) ||
+        failed(validateElementCountForFold(rewriter, op, shapedType)))
+      return failure();
+
+    DenseElementsAttr inputAttr;
+    if (!matchPattern(input, m_Constant(&inputAttr))) {
+      return rewriter.notifyMatchFailure(op, "expected constant operand");
+    }
+
+    // Handle trivial reverses in simplifier
+    ArrayRef<int64_t> dims = op.getDimensions();
+    bool allReverseDimsOne = llvm::all_of(
+        dims, [&](int64_t dim) { return shapedType.getDimSize(dim) == 1; });
+    if (dims.empty() || shapedType.getNumElements() <= 1 ||
+        inputAttr.isSplat() || allReverseDimsOne) {
+      return rewriter.notifyMatchFailure(
+          op, "trivial reverse handled by simplifier");
+    }
+
+    auto elementType = shapedType.getElementType();
+    DenseElementsAttr resultAttr;
+    if (isa<IntegerType>(elementType)) {
+      resultAttr = foldReverseHelper<APInt>(inputAttr, shapedType, dims);
+    } else if (isa<FloatType>(elementType)) {
+      resultAttr = foldReverseHelper<APFloat>(inputAttr, shapedType, dims);
+    } else {
+      return rewriter.notifyMatchFailure(op,
+                                         "unsupported element type to reverse");
+    }
+    rewriter.replaceOpWithNewOp<ConstantOp>(op, resultAttr);
+    return success();
+  }
+};
+
 struct FoldSelectOpPattern : public ShapeOpRewritePattern<SelectOp> {
   using ShapeOpRewritePattern::ShapeOpRewritePattern;
 
@@ -2039,6 +2165,7 @@
                 FoldReduceOpReducingZeroDims,         //
                 FoldReduceOpToConstantInitializer,    //
                 FoldReduceOpWithRedundantResults,     //
+                FoldReverseOpPattern,                 //
                 FoldRoundOpPattern,                   //
                 FoldRoundNearestEvenOpPattern,        //
                 FoldRsqrtOpPattern,                   //
diff --ruN a/stablehlo/stablehlo/transforms/optimization/StablehloAggressiveSimplificationPatterns.td b/stablehlo/stablehlo/transforms/optimization/StablehloAggressiveSimplificationPatterns.td
--- stablehlo/stablehlo/transforms/optimization/StablehloAggressiveSimplificationPatterns.td
+++ stablehlo/stablehlo/transforms/optimization/StablehloAggressiveSimplificationPatterns.td
@@ -16,6 +16,11 @@
 
 ///////////
 //// Op & Type Constraints
+
+class AllDimSizeEquals<int dimSize> : Constraint<
+    CPred<"llvm::all_of($1.asArrayRef(), [&](int64_t dim) { "
+          "return llvm::cast<ShapedType>($0.getType()).getDimSize(dim) == " # dimSize # "; })">,
+    "all dimensions sizes in dim are " # dimSize>;
 
 class DimSizeEquals<int dimSize> : Constraint<
     CPred<"llvm::cast<ShapedType>($0.getType()).getDimSize($1.getInt()) == " # dimSize>,
@@ -64,10 +69,15 @@
 
 def TypesEqual : Constraint<CPred<"$0.getType() == $1.getType()">, "operands are equal">;
 
+def ZeroElement : Constraint<CPred<"llvm::cast<ShapedType>($0.getType()).getNumElements() == 0">, "operand has 0 elements">;
+
 ///////////
 //// Attribute Constraints
 
-def AnySplat : AttrConstraint<CPred<"$_self.isSplat()">, "is any splat">;
+def ElementsAttrSplat : AttrConstraint<
+    CPred<"llvm::isa<mlir::ElementsAttr>($_self) && "
+          "llvm::cast<mlir::ElementsAttr>($_self).isSplat()">,
+    "is any splat elements attribute">;
 
 def AnyZero : AttrConstraint<
     CPred<"::mlir::matchPattern($_self, m_AnyAttrOf(m_Zero(), m_AnyZeroFloat()))">,
@@ -189,6 +199,32 @@
   : Pat<(StableHLO_AndOp:$op $lhs, (StableHLO_ConstantOp:$one IntAllOnes:$value)),
         (replaceWithValue $lhs), [],
         [(MergeDiscardableAttributes $op, $lhs)]>;
+
+////////
+// ReverseOp
+
+// Pattern: reverse(X, dims=[]) -> X
+def ReverseOp_EmptyDim
+  : Pat<(StableHLO_ReverseOp $operands, EmptyI64Array:$dims),
+        (replaceWithValue $operands)>;
+
+// Pattern: reverse(X, dims=[...]) -> X [if X has 0 element]
+def ReverseOp_ZeroElements
+  : Pat<(StableHLO_ReverseOp AnyStaticShapeTensor:$operands, $dims),
+        (replaceWithValue $operands),
+        [(ZeroElement $operands)]>;
+
+// Pattern: reverse(X, dims=[...]) -> X [size of dim in X equals 1]
+def ReverseOp_AllDimsEqualOne
+  : Pat<(StableHLO_ReverseOp AnyStaticShapeTensor:$operands, $dims),
+        (replaceWithValue $operands),
+        [(AllDimSizeEquals<1> $operands, $dims)]>;
+
+
+// Pattern: reverse(X, dims=[...]) -> X
+def ReverseOp_SplatToNoop
+  : Pat<(StableHLO_ReverseOp:$op (StableHLO_ConstantOp:$cst ElementsAttrSplat:$value), $dims),
+        (replaceWithValue $cst)>;
 
 ////////
 // BroadcastInDimOp

