diff --ruN a/stablehlo/BUILD.bazel b/stablehlo/BUILD.bazel
--- stablehlo/BUILD.bazel
+++ stablehlo/BUILD.bazel
@@ -349,6 +349,7 @@
     deps = [
         ":base",
         ":interpreter_ops_inc_gen",
+        ":reference_configuration",
         ":reference_numpy",
         ":reference_ops",
         ":reference_process",
diff --ruN a/stablehlo/stablehlo/conversions/linalg/tests/miscellaneous.mlir b/stablehlo/stablehlo/conversions/linalg/tests/miscellaneous.mlir
--- stablehlo/stablehlo/conversions/linalg/tests/miscellaneous.mlir
+++ stablehlo/stablehlo/conversions/linalg/tests/miscellaneous.mlir
@@ -815,7 +815,6 @@
 // -----
 
 func.func @pad_interior(%arg0: tensor<12x4xui32>, %arg1: tensor<ui32>) -> tensor<29x15xui32> {
-  %0 = arith.constant dense<0> : tensor<ui32>
   %1 = "stablehlo.pad"(%arg0, %arg1) {
     edge_padding_high = array<i64: 2, 3>,
     edge_padding_low = array<i64: 4, 5>,
@@ -836,7 +835,6 @@
 // -----
 
 func.func @pad_interior_negative(%arg0: tensor<12x4xui32>, %arg1: tensor<ui32>) -> tensor<25x9xui32> {
-  %0 = arith.constant dense<0> : tensor<ui32>
   %1 = "stablehlo.pad"(%arg0, %arg1) {
     edge_padding_high = array<i64: -2, 3>,
     edge_padding_low = array<i64: 4, -1>,
diff --ruN a/stablehlo/stablehlo/dialect/Version.cpp b/stablehlo/stablehlo/dialect/Version.cpp
--- stablehlo/stablehlo/dialect/Version.cpp
+++ stablehlo/stablehlo/dialect/Version.cpp
@@ -85,7 +85,7 @@
     case CompatibilityRequirement::WEEK_4:
       return Version(1, 16, 1);  // WEEK_4 ANCHOR: DO NOT MODIFY
     case CompatibilityRequirement::WEEK_12:
-      return Version(1, 13, 8);  // WEEK_12 ANCHOR: DO NOT MODIFY
+      return Version(1, 14, 0);  // WEEK_12 ANCHOR: DO NOT MODIFY
     case CompatibilityRequirement::MAX:
       return Version::getMinimumVersion();
   }
diff --ruN a/stablehlo/stablehlo/reference/Api.cpp b/stablehlo/stablehlo/reference/Api.cpp
--- stablehlo/stablehlo/reference/Api.cpp
+++ stablehlo/stablehlo/reference/Api.cpp
@@ -14,6 +14,7 @@
 ==============================================================================*/
 #include "stablehlo/reference/Api.h"
 
+#include <atomic>
 #include <cstdint>
 #include <iterator>
 #include <queue>
@@ -123,7 +124,7 @@
 
       SymbolTable symbolTable{op.getParentOfType<ModuleOp>()};
       auto results = stablehlo::interpreter::evalRunParallelOp(
-          runtimeOperands, infeed, programs, symbolTable);
+          runtimeOperands, infeed, programs, symbolTable, this);
       scope.add(runParallelOp.getResults(), results);
       return wrapFallbackStatus(llvm::Error::success(), funcName,
                                 "interpreter.run_parallel");
@@ -138,7 +139,7 @@
 
   /// Probe instrumentation counter for uniquely identifying instrumented tensor
   /// filenames.
-  int64_t serializedProbeFileId = 0;
+  std::atomic<int64_t> serializedProbeFileId{0};
 };
 
 LogicalResult validateEntrySignature(func::FuncOp func,
diff --ruN a/stablehlo/stablehlo/reference/InterpreterOps.cpp b/stablehlo/stablehlo/reference/InterpreterOps.cpp
--- stablehlo/stablehlo/reference/InterpreterOps.cpp
+++ stablehlo/stablehlo/reference/InterpreterOps.cpp
@@ -19,6 +19,7 @@
 #include <cstdint>
 #include <functional>
 #include <future>
+#include <mutex>
 #include <queue>
 #include <string>
 
@@ -171,7 +172,8 @@
 
 SmallVector<InterpreterValue> evalRunParallelOp(
     ArrayRef<InterpreterValue> inputs, std::queue<StringAttr>& infeed,
-    SmallVector<SmallVector<StringAttr>> programs, SymbolTable& symbolTable) {
+    SmallVector<SmallVector<StringAttr>> programs, SymbolTable& symbolTable,
+    InterpreterFallback* fallback) {
   llvm::DefaultThreadPool threadPool;
   SmallVector<std::shared_future<SmallVector<InterpreterValue>>> futures;
 
@@ -188,7 +190,7 @@
       auto evalWrapper = [&](Region& region, ArrayRef<InterpreterValue> args,
                              ProcessId processId) {
         Process process{processId, &processGrid};
-        return eval(region, args, /*config=*/nullptr, &process,
+        return eval(region, args, fallback, &process,
                     /*parent=*/nullptr);
       };
 
@@ -208,6 +210,9 @@
 }
 
 llvm::Error evalPrintOp(PrintOp& op, InterpreterValue operand) {
+  static std::mutex printing_lock;
+  std::lock_guard<std::mutex> lock(printing_lock);
+
   std::string ssaValueStr;
   llvm::raw_string_ostream stream(ssaValueStr);
   stream << op.getOperand();
diff --ruN a/stablehlo/stablehlo/reference/InterpreterOps.h b/stablehlo/stablehlo/reference/InterpreterOps.h
--- stablehlo/stablehlo/reference/InterpreterOps.h
+++ stablehlo/stablehlo/reference/InterpreterOps.h
@@ -23,6 +23,7 @@
 #include "mlir/IR/Dialect.h"
 #include "mlir/IR/MLIRContext.h"
 #include "mlir/Support/LLVM.h"
+#include "stablehlo/reference/Configuration.h"
 #include "stablehlo/reference/Value.h"
 
 #define GET_OP_CLASSES
@@ -39,8 +40,9 @@
 };
 
 SmallVector<InterpreterValue> evalRunParallelOp(
-    ArrayRef<InterpreterValue> inputs, std::queue<StringAttr> &infeed,
-    SmallVector<SmallVector<StringAttr>> programs, SymbolTable &symbolTable);
+    ArrayRef<InterpreterValue> inputs, std::queue<StringAttr>& infeed,
+    SmallVector<SmallVector<StringAttr>> programs, SymbolTable& symbolTable,
+    InterpreterFallback* fallback);
 
 // Print the SSA name followed by its type and value like:
 // >>> %0 = tensor<i1> {
diff --ruN a/stablehlo/stablehlo/tests/interpret/printing.mlir b/stablehlo/stablehlo/tests/interpret/printing.mlir
--- stablehlo/stablehlo/tests/interpret/printing.mlir
+++ stablehlo/stablehlo/tests/interpret/printing.mlir
@@ -123,3 +123,35 @@
   %complex_f64 = stablehlo.constant dense<(3.140000e+00, 1.0)> : tensor<4xcomplex<f64>>
   func.return %complex_f32, %complex_f64 : tensor<4xcomplex<f32>>, tensor<4xcomplex<f64>>
 }
+
+// -----
+
+// This test checks that printing works correctly when called from multiple
+// threads in parallel using the `interpreter.run_parallel` op.
+//
+// By "correctly", we mean the following:-
+// 1. `interpreter.print` is recognised as a valid op within the
+//    `interpreter.run_parallel` context (no "Unsupported op" errors).
+// 2. The outputs of different threads are not interleaved, i.e., each output of
+//    an `interpreter.print` is completed before the other thread's output is
+//    printed.
+
+func.func @iota_printing_called_inside_run_parallel() -> tensor<2xi32> {
+  %0 = stablehlo.iota dim = 0 : tensor<2xi32>
+  interpreter.print %0 : tensor<2xi32>
+  return %0 : tensor<2xi32>
+}
+
+func.func @main() {
+  // CHECK:      %0 = tensor<2xi32> {
+  // CHECK-NEXT:   [0, 1]
+  // CHECK-NEXT: }
+  // CHECK:      %0 = tensor<2xi32> {
+  // CHECK-NEXT:   [0, 1]
+  // CHECK-NEXT: }
+
+  %results:2 = "interpreter.run_parallel"() {
+    programs = [[@iota_printing_called_inside_run_parallel, @iota_printing_called_inside_run_parallel]]
+  } : () -> (tensor<2xi32>, tensor<2xi32>)
+  func.return
+}
diff --ruN a/stablehlo/stablehlo/tests/ops_stablehlo_roundtrip.mlir b/stablehlo/stablehlo/tests/ops_stablehlo_roundtrip.mlir
--- stablehlo/stablehlo/tests/ops_stablehlo_roundtrip.mlir
+++ stablehlo/stablehlo/tests/ops_stablehlo_roundtrip.mlir
@@ -1,9 +1,10 @@
+// REQUIRES: asserts
 // RUN: stablehlo-opt %s | stablehlo-opt
 // RUN: stablehlo-opt %s > %t.0
 // RUN: stablehlo-opt -emit-bytecode %s | stablehlo-opt > %t.1
 // RUN: diff %t.0 %t.1
-// RUN: stablehlo-opt --help-hidden | grep -q "debug-only" && stablehlo-opt -emit-bytecode -debug-only=stablehlo-bytecode %s 2>&1 | FileCheck --check-prefix=CHECK-WARN %s || echo "Skip in release mode"
-// RUN: stablehlo-opt --help-hidden | grep -q "debug-only" && stablehlo-opt -emit-bytecode %s | stablehlo-opt -debug-only=stablehlo-bytecode 2>&1 | FileCheck --check-prefix=CHECK-WARN %s || echo "Skip in release mode"
+// RUN: stablehlo-opt -emit-bytecode -debug-only=stablehlo-bytecode %s 2>&1 | FileCheck --check-prefix=CHECK-WARN %s
+// RUN: stablehlo-opt -emit-bytecode %s | stablehlo-opt -debug-only=stablehlo-bytecode 2>&1 | FileCheck --check-prefix=CHECK-WARN %s
 
 // CHECK-WARN-NOT: Not Implemented
 
@@ -182,7 +183,7 @@
   %cst_3 = arith.constant dense<[1, 2, 3, 4]> : tensor<4xi32>
   %cst_4 = arith.constant dense<[[1, 2], [3, 4]]> : tensor<2x2xi32>
   %cst_5 = arith.constant dense<[[3, 2], [1, 4]]> : tensor<2x2xi32>
-  %cst_6 = arith.constant dense<[[1, 2], [4, 8]]> : tensor<2x2xui32>
+  %cst_6 = stablehlo.constant dense<[[1, 2], [4, 8]]> : tensor<2x2xui32>
   %cst_18 = arith.constant dense<[1.0, 2.0, 3.0, 4.0]> : tensor<4xf4E2M1FN>
   %cst_19 = arith.constant dense<[1.0, 2.0, 3.0, 4.0]> : tensor<4xf6E2M3FN>
   %cst_20 = arith.constant dense<[1.0, 2.0, 3.0, 4.0]> : tensor<4xf6E3M2FN>
diff --ruN a/stablehlo/stablehlo/tests/transforms/stablehlo_convert_to_signless.mlir b/stablehlo/stablehlo/tests/transforms/stablehlo_convert_to_signless.mlir
--- stablehlo/stablehlo/tests/transforms/stablehlo_convert_to_signless.mlir
+++ stablehlo/stablehlo/tests/transforms/stablehlo_convert_to_signless.mlir
@@ -20,7 +20,8 @@
   // CHECK: %[[CST:.*]] = arith.constant dense<[0, 1, -1]> : tensor<3xi8>
   // CHECK: %[[ADD:.*]] = stablehlo.add %arg0, %[[CST]] : tensor<3xi8>
   // CHECK: return %[[ADD]] : tensor<3xi8>
-  %cst = arith.constant dense<[0, 1, 255]> : tensor<3xui8>
+  %cst_signless = arith.constant dense<[0, 1, 255]> : tensor<3xi8>
+  %cst = builtin.unrealized_conversion_cast %cst_signless : tensor<3xi8> to tensor<3xui8>
   %0 = stablehlo.add %arg0, %cst : tensor<3xui8>
   return %0 : tensor<3xui8>
 }

