diff --ruN a/stablehlo/CMakeLists.txt b/stablehlo/CMakeLists.txt
--- stablehlo/CMakeLists.txt
+++ stablehlo/CMakeLists.txt
@@ -13,154 +13,20 @@
 # See the License for the specific language governing permissions and
 # limitations under the License.
 #
-cmake_minimum_required(VERSION 3.15.0)
 
-if(POLICY CMP0068)
-  cmake_policy(SET CMP0068 NEW)
-  set(CMAKE_BUILD_WITH_INSTALL_NAME_DIR ON)
-endif()
-
-if(POLICY CMP0075)
-  cmake_policy(SET CMP0075 NEW)
-endif()
-
-if(POLICY CMP0077)
-  cmake_policy(SET CMP0077 NEW)
-endif()
-
-# CMP0116: Ninja generators transform `DEPFILE`s from `add_custom_command()`
-# New in CMake 3.20. https://cmake.org/cmake/help/latest/policy/CMP0116.html
-if(POLICY CMP0116)
-  cmake_policy(SET CMP0116 OLD)
-endif()
-
-# Support for return(PROPAGATE ...) in functions.
-if (POLICY CMP0140)
-  cmake_policy(SET CMP0140 NEW)
-endif()
+# This build of StableHLO is meant to be embedded in MLIR-HLO.
+# As a result, its root CMakeLists.txt is different from the original
+# CMakeLists.txt from https://github.com/openxla/stablehlo.
+# All other files of this build of StableHLO except for this one are the same
+# as the original files.
+# To get access to a standalone build of StableHLO, check out the
+# openxla/stablehlo repository.
 
 #-------------------------------------------------------------------------------
 # Options and settings
 #-------------------------------------------------------------------------------
-option(STABLEHLO_BUILD_EMBEDDED "Build StableHLO as part of another project" OFF)
-option(STABLEHLO_ENABLE_BINDINGS_PYTHON "Enables StableHLO Python bindings" OFF)
-option(STABLEHLO_ENABLE_PYTHON_TF_TESTS "Enables StableHLO to SavedModel tests requiring TF" OFF)
-option(STABLEHLO_ENABLE_STRICT_BUILD "Build StableHLO with strict warnings and warnings as errors" OFF)
-option(STABLEHLO_ENABLE_SANITIZER "Enable a sanitizer [OFF, address]" OFF)
-option(STABLEHLO_ENABLE_SPLIT_DWARF "Enable split DWARF if the platform supports it" OFF)
-option(STABLEHLO_ENABLE_LLD "Use LLD as the linker if available" OFF)
 
-#-------------------------------------------------------------------------------
-# Project setup and globals
-#-------------------------------------------------------------------------------
-set(STABLEHLO_EXTERNAL_PROJECT_BUILD OFF)
-
-if(NOT (CMAKE_SOURCE_DIR STREQUAL CMAKE_CURRENT_SOURCE_DIR) AND NOT MLIR_BINARY_DIR)
-  # Building as part of LLVM via the external project mechanism.
-  set(STABLEHLO_EXTERNAL_PROJECT_BUILD ON)
-else()
-  # Building standalone.
-  project(stablehlo LANGUAGES CXX C)
-  set(CMAKE_C_STANDARD 11)
-  set(CMAKE_CXX_STANDARD 17)
-endif()
-
-#-------------------------------------------------------------------------------
-# MLIR/LLVM Configuration
-#-------------------------------------------------------------------------------
-if (STABLEHLO_ENABLE_STRICT_BUILD)
-  set(LLVM_ENABLE_WARNINGS ON)
-  set(LLVM_ENABLE_WERROR ON)
-  set(LLVM_ENABLE_PEDANTIC ON)
-endif()
-
-# Find MLIR to install if we are building standalone. If building as part of
-# another project, let it handle the MLIR dependency. The dependent project
-# might use a bundled version of MLIR instead of installing, for instance.
-if(STABLEHLO_EXTERNAL_PROJECT_BUILD)
-  message(STATUS "Building StableHLO as an external LLVM project")
-  set(MLIR_MAIN_SRC_DIR ${LLVM_MAIN_SRC_DIR}/../mlir ) # --src-root
-  set(MLIR_INCLUDE_DIR ${MLIR_MAIN_SRC_DIR}/include ) # --includedir
-  set(MLIR_GENERATED_INCLUDE_DIR ${LLVM_BINARY_DIR}/tools/mlir/include)
-  include_directories(SYSTEM ${MLIR_INCLUDE_DIR})
-  include_directories(SYSTEM ${MLIR_GENERATED_INCLUDE_DIR})
-  include_directories(SYSTEM ${MLIR_TABLEGEN_OUTPUT_DIR})
-
-  set(BACKEND_PACKAGE_STRING "${PACKAGE_STRING}")
-  list(APPEND CMAKE_MODULE_PATH "${MLIR_MAIN_SRC_DIR}/cmake/modules")
-elseif(NOT STABLEHLO_BUILD_EMBEDDED)
-  message(STATUS "Building StableHLO with an installed MLIR")
-  find_package(MLIR REQUIRED CONFIG)
-  message(STATUS "Using MLIRConfig.cmake in: ${MLIR_DIR}")
-  message(STATUS "Using LLVMConfig.cmake in: ${LLVM_DIR}")
-  set(LLVM_RUNTIME_OUTPUT_INTDIR ${CMAKE_BINARY_DIR}/bin)
-  set(LLVM_LIBRARY_OUTPUT_INTDIR ${CMAKE_BINARY_DIR}/lib)
-  list(APPEND CMAKE_MODULE_PATH "${MLIR_CMAKE_DIR}")
-  list(APPEND CMAKE_MODULE_PATH "${LLVM_CMAKE_DIR}")
-else()
-  message(STATUS "Building StableHLO embedded in another project")
-endif()
-
-# Add the CMake modules specific to StableHLO
-list(APPEND CMAKE_MODULE_PATH "${CMAKE_CURRENT_LIST_DIR}/cmake")
-
-if(LLVM_ENABLE_ZLIB)
-  find_package(ZLIB)
-endif()
-
-#-------------------------------------------------------------------------------
-# Performance configuration
-#-------------------------------------------------------------------------------
-
-include(CheckCXXCompilerFlag)
-include(CheckLinkerFlag)
-if (STABLEHLO_ENABLE_LLD)
-  message(STATUS "Enabling LLD as the linker")
-  add_link_options("-fuse-ld=lld")
-endif()
-
-if(STABLEHLO_ENABLE_SPLIT_DWARF)
-    check_cxx_compiler_flag(-gsplit-dwarf STABLEHLO_SUPPORTS_SPLIT_DWARF)
-    if (STABLEHLO_SUPPORTS_SPLIT_DWARF)
-      message(STATUS "Enabling split-dwarf build")
-      add_compile_options(-gsplit-dwarf -ggnu-pubnames)
-    endif()
-    check_linker_flag(CXX "-Wl,--gdb-index" STABLEHLO_SUPPORTS_GDB_INDEX)
-    # If we set LLD it doesn't seem to affect the check_linker_flag above.
-    # Account for it with the generator expression OR
-    if (STABLEHLO_SUPPORTS_GDB_INDEX OR STABLEHLO_ENABLE_LLD)
-      message(STATUS "Enabling GDB index in binary")
-      add_link_options("-Wl,--gdb-index")
-    endif()
-endif()
-
-include(TableGen)
-include(AddLLVM)
-include(AddMLIR)
-include(HandleLLVMOptions)
-include_directories(${LLVM_INCLUDE_DIRS})
-include_directories(${MLIR_INCLUDE_DIRS})
-include_directories(${CMAKE_CURRENT_SOURCE_DIR})
-include_directories(${CMAKE_CURRENT_BINARY_DIR})
-link_directories(${LLVM_BUILD_LIBRARY_DIR})
-add_definitions(${LLVM_DEFINITIONS})
-
-
-#-------------------------------------------------------------------------------
-# Sanitizer configuration
-#-------------------------------------------------------------------------------
-
-include(SetupSanitizers)
-setup_sanitizers()
-
-#-------------------------------------------------------------------------------
-# Python configuration
-#-------------------------------------------------------------------------------
-
-if(STABLEHLO_ENABLE_BINDINGS_PYTHON)
-  include(MLIRDetectPythonEnv)
-  mlir_configure_python_dev_packages()
-endif()
+set(STABLEHLO_ENABLE_BINDINGS_PYTHON ${MHLO_ENABLE_BINDINGS_PYTHON})
 
 #-------------------------------------------------------------------------------
 # Directory setup
diff --ruN a/stablehlo/docs/spec.md b/stablehlo/docs/spec.md
--- stablehlo/docs/spec.md
+++ stablehlo/docs/spec.md
@@ -2532,10 +2532,10 @@
         rhs_batching_dimensions, lhs_contracting_dimensions,
         rhs_contracting_dimensions, precision_config), lhs, rhs, type(result))`.
 
-For hybrid quantized types, performs `hybrid_dequantize_then_op(
-    lambda lhs, rhs: dot_general(lhs, rhs, lhs_batching_dimensions,
-        rhs_batching_dimensions, lhs_contracting_dimensions,
-        rhs_contracting_dimensions, precision_config), lhs, rhs)`.
+This only specifies semantics for per-tensor quantization. Per-axis quantization
+is work in progress ([#1574](https://github.com/openxla/stablehlo/issues/1574)).
+Also, in the future we may consider adding support for hybrid quantization
+ ([#1575](https://github.com/openxla/stablehlo/issues/1575)).
 
 `precision_config` controls the tradeoff between speed and accuracy for
 computations on accelerator backends. This can be one of the following (at the
@@ -2552,21 +2552,21 @@
 
 #### Inputs
 
-| Label | Name                         | Type                                                         | Constraints                                    |
-|-------|------------------------------|--------------------------------------------------------------|------------------------------------------------|
-| (I1)  | `lhs`                        | tensor or per-tensor quantized tensor                        | (C5-C6), (C9-C10), (C12-C14), (C17-C18), (C20) |
-| (I2)  | `rhs`                        | tensor or quantized tensor                                   | (C7-C10), (C12-C20)                            |
-| (I3)  | `lhs_batching_dimensions`    | 1-dimensional tensor constant of type `si64`                 | (C1), (C3), (C5), (C9), (C12)                  |
-| (I4)  | `rhs_batching_dimensions`    | 1-dimensional tensor constant of type `si64`                 | (C1), (C4), (C7), (C9)                         |
-| (I5)  | `lhs_contracting_dimensions` | 1-dimensional tensor constant of type `si64`                 | (C2), (C3), (C6), (C10)                        |
-| (I6)  | `rhs_contracting_dimensions` | 1-dimensional tensor constant of type `si64`                 | (C2), (C4), (C8), (C10), (C16)                 |
-| (I7)  | `precision_config`           | variadic number of enums of `DEFAULT`, `HIGH`, and `HIGHEST` | (C11)                                          |
+| Label | Name                         | Type                                                         | Constraints                    |
+|-------|------------------------------|--------------------------------------------------------------|--------------------------------|
+| (I1)  | `lhs`                        | tensor or per-tensor quantized tensor                        | (C5-C6), (C9-C10), (C12-C16)   |
+| (I2)  | `rhs`                        | tensor or quantized tensor                                   | (C7-C10), (C12), (C18-C19)     |
+| (I3)  | `lhs_batching_dimensions`    | 1-dimensional tensor constant of type `si64`                 | (C1), (C3), (C5), (C9), (C12)  |
+| (I4)  | `rhs_batching_dimensions`    | 1-dimensional tensor constant of type `si64`                 | (C1), (C4), (C7), (C9)         |
+| (I5)  | `lhs_contracting_dimensions` | 1-dimensional tensor constant of type `si64`                 | (C2), (C3), (C6), (C10)        |
+| (I6)  | `rhs_contracting_dimensions` | 1-dimensional tensor constant of type `si64`                 | (C2), (C4), (C8), (C10), (C19) |
+| (I7)  | `precision_config`           | variadic number of enums of `DEFAULT`, `HIGH`, and `HIGHEST` | (C11)                          |
 
 #### Outputs
 
 | Name     | Type                       | Constraints                |
 |----------|----------------------------|----------------------------|
-| `result` | tensor or quantized tensor | (C12), (C14), (C18-C20)    |
+| `result` | tensor or quantized tensor | (C12), (C14), (C16), (C18) |
 
 #### Constraints
 
@@ -2589,17 +2589,14 @@
 * If the operation uses non-quantized tensors:
   * (C13) `element_type(lhs) = element_type(rhs)`.
 * If the operation uses quantized tensors:
-  * (C14) `is_quantized(lhs) = is_quantized(result) and is_quantized(rhs)`.
-  * (C15) `zero_points(rhs) = 0`.
-  * (C16) If `is_per_axis_quantized(rhs)`, then
+  * (C14) `is_quantized(lhs) and is_quantized(rhs) and is_quantized(result)`.
+  * (C15) `storage_type(lhs) = storage_type(rhs)`.
+  * (C16) `expressed_type(lhs) = expressed_type(rhs) = expressed_type(result)`.
+  * (C17) `zero_points(rhs) = 0`.
+  * (C18) If `is_per_tensor_quantized(rhs)`, then
+    `is_per_tensor_quantized(result)`.
+  * (C19) If `is_per_axis_quantized(rhs)`, then
     `quantization_dimension(rhs)` not in `rhs_contracting_dimensions`.
-  * If `is_quantized(lhs)`:
-    * (C17) `storage_type(lhs) = storage_type(rhs)`.
-    * (C18) `expressed_type(lhs) = expressed_type(rhs) = expressed_type(result)`.
-    * (C19) If `is_per_tensor_quantized(rhs)`, then
-      `is_per_tensor_quantized(result)`.
-  * If `!is_quantized(lhs)`:
-    * (C20) `element_type(lhs) = expressed_type(rhs) = element_type(result)`.
 
 #### Examples
 
diff --ruN a/stablehlo/stablehlo/CMakeLists.txt b/stablehlo/stablehlo/CMakeLists.txt
--- stablehlo/stablehlo/CMakeLists.txt
+++ stablehlo/stablehlo/CMakeLists.txt
@@ -15,6 +15,7 @@
 add_subdirectory(api)
 add_subdirectory(conversions)
 add_subdirectory(dialect)
+add_subdirectory(experimental)
 add_subdirectory(integrations)
 add_subdirectory(reference)
 add_subdirectory(tests)
diff --ruN a/stablehlo/stablehlo/conversions/linalg/tests/convolution.mlir b/stablehlo/stablehlo/conversions/linalg/tests/convolution.mlir
--- stablehlo/stablehlo/conversions/linalg/tests/convolution.mlir
+++ stablehlo/stablehlo/conversions/linalg/tests/convolution.mlir
@@ -356,7 +356,7 @@
 }
 // CHECK-DAG:       %[[CST:.+]] = arith.constant 0.000000e+00 : f32
 // CHECK:       %[[COLLAPSE:.+]] = tensor.collapse_shape %[[FILTER]] {{\[}}[0, 1, 2, 3]] : tensor<2x2x1x6xf32> into tensor<24xf32>
-// CHECK:       %[[EXPAND:.+]] = tensor.expand_shape %[[COLLAPSE]] {{\[}}[0, 1, 2, 3]] : tensor<24xf32> into tensor<2x2x2x3xf32>
+// CHECK:       %[[EXPAND:.+]] = tensor.expand_shape %[[COLLAPSE]] {{\[}}[0, 1, 2, 3]] output_shape [2, 2, 2, 3] : tensor<24xf32> into tensor<2x2x2x3xf32>
 // CHECK:       %[[INIT:.+]] = tensor.empty() : tensor<2x3x4x2x3xf32>
 // CHECK:       %[[FILL:.+]] = linalg.fill ins(%[[CST]] : f32) outs(%[[INIT]] : tensor<2x3x4x2x3xf32>) -> tensor<2x3x4x2x3xf32>
 // CHECK:       %[[OUT:.+]] = linalg.depthwise_conv_2d_nhwc_hwcm
diff --ruN a/stablehlo/stablehlo/conversions/linalg/tests/miscellaneous.mlir b/stablehlo/stablehlo/conversions/linalg/tests/miscellaneous.mlir
--- stablehlo/stablehlo/conversions/linalg/tests/miscellaneous.mlir
+++ stablehlo/stablehlo/conversions/linalg/tests/miscellaneous.mlir
@@ -865,7 +865,7 @@
   %0 = "stablehlo.reshape"(%arg0) : (tensor<i32>) -> tensor<1xi32>
   func.return %0 : tensor<1xi32>
 }
-// CHECK: tensor.expand_shape %{{.*}} [] : tensor<i32> into tensor<1xi32>
+// CHECK: tensor.expand_shape %{{.*}} [] output_shape [1] : tensor<i32> into tensor<1xi32>
 
 // -----
 
@@ -876,7 +876,7 @@
   func.return %0 : tensor<1xui32>
 }
 // CHECK:         %[[ARG_SIGNLESS:.*]] = builtin.unrealized_conversion_cast %[[ARG_UNSIGNED]] : tensor<ui32> to tensor<i32>
-// CHECK:         %[[RET_SIGNLESS:.*]] = tensor.expand_shape %[[ARG_SIGNLESS]] [] : tensor<i32> into tensor<1xi32>
+// CHECK:         %[[RET_SIGNLESS:.*]] = tensor.expand_shape %[[ARG_SIGNLESS]] [] output_shape [1] : tensor<i32> into tensor<1xi32>
 // CHECK:         %[[RET_UNSIGNED:.*]] = builtin.unrealized_conversion_cast %[[RET_SIGNLESS]] : tensor<1xi32> to tensor<1xui32>
 // CHECK:         return %[[RET_UNSIGNED]] : tensor<1xui32>
 
@@ -978,7 +978,7 @@
 }
 // CHECK: %[[FLATTEN:.*]] = tensor.collapse_shape %{{.*}} {{\[}}[0, 1]] : tensor<?x?xf32> into tensor<?xf32>
 // CHECK: %[[CAST:.*]] = tensor.cast %[[FLATTEN]] : tensor<?xf32> to tensor<40xf32>
-// CHECK: tensor.expand_shape %[[CAST]] {{\[}}[0, 1, 2]] : tensor<40xf32> into tensor<2x4x5xf32>
+// CHECK: tensor.expand_shape %[[CAST]] {{\[}}[0, 1, 2]] output_shape [2, 4, 5] : tensor<40xf32> into tensor<2x4x5xf32>
 
 // -----
 
@@ -988,7 +988,7 @@
   func.return %0 : tensor<1x3xi32>
 }
 // CHECK: %[[CAST:.*]] = tensor.cast %{{.*}} : tensor<?xi32> to tensor<3xi32>
-// CHECK: tensor.expand_shape %[[CAST]] {{\[}}[0, 1]] : tensor<3xi32> into tensor<1x3xi32>
+// CHECK: tensor.expand_shape %[[CAST]] {{\[}}[0, 1]] output_shape [1, 3] : tensor<3xi32> into tensor<1x3xi32>
 
 // -----
 
diff --ruN a/stablehlo/stablehlo/conversions/linalg/tests/random.mlir b/stablehlo/stablehlo/conversions/linalg/tests/random.mlir
--- stablehlo/stablehlo/conversions/linalg/tests/random.mlir
+++ stablehlo/stablehlo/conversions/linalg/tests/random.mlir
@@ -480,8 +480,8 @@
 // CHECK-DAG:   %[[VAL_101:.*]] = arith.xori %[[VAL_100]], %[[VAL_87]] : i32
 
 // CHECK: linalg.yield %[[YIELDED_1:.*]], %[[YIELDED_2:.*]] : i64, i64
-// CHECK-DAG: %[[VAL_206:.*]] = tensor.expand_shape %[[VAL_207:.*]]#0 {{\[\[}}0, 1]] : tensor<4xi64> into tensor<4x1xi64>
-// CHECK-DAG: %[[VAL_208:.*]] = tensor.expand_shape %[[VAL_207]]#1 {{\[\[}}0, 1]] : tensor<4xi64> into tensor<4x1xi64>
+// CHECK-DAG: %[[VAL_206:.*]] = tensor.expand_shape %[[VAL_207:.*]]#0 {{\[\[}}0, 1]]
+// CHECK-DAG: %[[VAL_208:.*]] = tensor.expand_shape %[[VAL_207]]#1 {{\[\[}}0, 1]]
 // CHECK-DAG: %[[VAL_209:.*]] = tensor.empty() : tensor<4x2xi64>
 // CHECK-DAG: %[[VAL_213:.*]] = tensor.insert %[[VAL_30]] into %[[VAL_0]]{{\[}}%[[VAL_19]]] : tensor<2xi64>
 
@@ -575,10 +575,10 @@
 // CHECK: %[[COLLAPSE:.+]] = tensor.collapse_shape %[[CONCAT]]
 
 
-// CHECK: %[[VAL_213:.*]] = tensor.expand_shape %[[COLLAPSE]] {{\[\[}}0, 1]] : tensor<80xi32> into tensor<80x1xi32>
+// CHECK: %[[VAL_213:.*]] = tensor.expand_shape %[[COLLAPSE]] {{\[\[}}0, 1]]
 // CHECK: %[[VAL_214:.*]] = tensor.extract_slice %[[VAL_213]][0, 0] [77, 1] [1, 1] : tensor<80x1xi32> to tensor<77x1xi32>
 // CHECK: %[[VAL_215:.*]] = tensor.collapse_shape %[[VAL_214]] {{\[\[}}0, 1]] : tensor<77x1xi32> into tensor<77xi32>
-// CHECK: %[[VAL_216:.*]] = tensor.expand_shape %[[VAL_215]] {{\[\[}}0, 1]] : tensor<77xi32> into tensor<7x11xi32>
+// CHECK: %[[VAL_216:.*]] = tensor.expand_shape %[[VAL_215]] {{\[\[}}0, 1]]
 // CHECK: %[[VAL_217:.*]] = tensor.insert %[[NEWSTATE]] into %[[ARG0]]{{\[}}%[[C1]]] : tensor<2xi64>
 // CHECK: return %[[VAL_217]], %[[VAL_216]] : tensor<2xi64>, tensor<7x11xi32>
 
@@ -616,10 +616,10 @@
 // CHECK-DAG: %[[COLLAPSE:.+]] = tensor.collapse_shape %[[CONCAT]] {{\[\[}}0, 1]] : tensor<8x2xi64> into tensor<16xi64>
 
 
-// CHECK-DAG: %[[EXPANDED:.*]] = tensor.expand_shape %[[COLLAPSE]] {{\[\[}}0, 1]] : tensor<16xi64> into tensor<16x1xi64>
+// CHECK-DAG: %[[EXPANDED:.*]] = tensor.expand_shape %[[COLLAPSE]] {{\[\[}}0, 1]]
 // CHECK-DAG: %[[SLICE:.*]] = tensor.extract_slice %[[EXPANDED]][0, 0] [15, 1] [1, 1] : tensor<16x1xi64> to tensor<15x1xi64>
 // CHECK-DAG: %[[EXPAND_2:.*]] = tensor.collapse_shape %[[SLICE]] {{\[\[}}0, 1]] : tensor<15x1xi64> into tensor<15xi64>
-// CHECK-DAG: %[[RESHAPE:.*]] = tensor.expand_shape %[[EXPAND_2]] {{\[\[}}0, 1]] : tensor<15xi64> into tensor<3x5xi64>
+// CHECK-DAG: %[[RESHAPE:.*]] = tensor.expand_shape %[[EXPAND_2]] {{\[\[}}0, 1]]
 // CHECK-DAG: %[[INSERTED:.+]] = tensor.insert %[[NEWSTATE]] into %[[ARG0]][%[[C1]]] : tensor<2xi64>
 // CHECK: return %[[INSERTED]], %[[RESHAPE]]
 
diff --ruN a/stablehlo/stablehlo/conversions/tosa/tests/binary.mlir b/stablehlo/stablehlo/conversions/tosa/tests/binary.mlir
--- stablehlo/stablehlo/conversions/tosa/tests/binary.mlir
+++ stablehlo/stablehlo/conversions/tosa/tests/binary.mlir
@@ -45,14 +45,14 @@
 
 // CHECK-LABEL: @divide
 func.func @divide(%arg0 : tensor<10xi32>, %arg1 : tensor<10xi32>) -> tensor<10xi32> {
-  // CHECK: tosa.div
+  // CHECK: tosa.int_div
   %0 = "stablehlo.divide"(%arg0, %arg1) : (tensor<10xi32>, tensor<10xi32>) -> tensor<10xi32>
   return %0 : tensor<10xi32>
 }
 
 // CHECK-LABEL: @divide_f32
 func.func @divide_f32(%arg0 : tensor<10xf32>, %arg1 : tensor<10xf32>) -> tensor<10xf32> {
-  // tosa.div only supports i32, so this should not legalize.
+  // tosa.int_div only supports i32, so this should not legalize.
   // CHECK: stablehlo.divide
   %0 = "stablehlo.divide"(%arg0, %arg1) : (tensor<10xf32>, tensor<10xf32>) -> tensor<10xf32>
   return %0 : tensor<10xf32>
diff --ruN a/stablehlo/stablehlo/conversions/tosa/transforms/StablehloLegalizeToTosa.pdll b/stablehlo/stablehlo/conversions/tosa/transforms/StablehloLegalizeToTosa.pdll
--- stablehlo/stablehlo/conversions/tosa/transforms/StablehloLegalizeToTosa.pdll
+++ stablehlo/stablehlo/conversions/tosa/transforms/StablehloLegalizeToTosa.pdll
@@ -125,7 +125,7 @@
 Pattern =>
   replace op<stablehlo.divide>(input0 : Value<_: Tosa_Int32Tensor>,
                           input1 : Value<_: Tosa_Int32Tensor>)
-     with op<tosa.div>(input0, input1);
+     with op<tosa.int_div>(input0, input1);
 Pattern =>
   replace op<stablehlo.maximum>(input0 : Value<_: Tosa_Tensor>,
                            input1 : Value<_: Tosa_Tensor>)
diff --ruN a/stablehlo/stablehlo/dialect/Base.cpp b/stablehlo/stablehlo/dialect/Base.cpp
--- stablehlo/stablehlo/dialect/Base.cpp
+++ stablehlo/stablehlo/dialect/Base.cpp
@@ -651,14 +651,14 @@
 
   // quantized_type_c5
   auto maxPosFiniteNum =
-      APFloat::getLargest(quantizedElementType.getExpressedType()
-                              .cast<FloatType>()
-                              .getFloatSemantics())
+      APFloat::getLargest(
+          cast<FloatType>(quantizedElementType.getExpressedType())
+              .getFloatSemantics())
           .convertToDouble();
   auto minPosFiniteNum =
-      APFloat::getSmallest(quantizedElementType.getExpressedType()
-                               .cast<FloatType>()
-                               .getFloatSemantics())
+      APFloat::getSmallest(
+          cast<FloatType>(quantizedElementType.getExpressedType())
+              .getFloatSemantics())
           .convertToDouble();
   if (llvm::any_of(scales, [&](double scale) {
         return scale < minPosFiniteNum || scale > maxPosFiniteNum;
diff --ruN a/stablehlo/stablehlo/dialect/TypeInference.cpp b/stablehlo/stablehlo/dialect/TypeInference.cpp
--- stablehlo/stablehlo/dialect/TypeInference.cpp
+++ stablehlo/stablehlo/dialect/TypeInference.cpp
@@ -171,7 +171,7 @@
 LogicalResult verifyConvolutionDotGeneralCommonQuantizationConstraints(
     std::optional<Location> location, Type lhsElementType, Type rhsElementType,
     Type resultElementType) {
-  // convolution_c28 and dot_general_c14
+  // convolution_c28
   if (!isa<quant::QuantizedType>(rhsElementType) ||
       (isa<quant::QuantizedType>(lhsElementType) !=
        isa<quant::QuantizedType>(resultElementType))) {
@@ -184,19 +184,19 @@
   auto rhsQuantType = cast<quant::QuantizedType>(rhsElementType);
   if (auto lhsQuantType = dyn_cast<quant::QuantizedType>(lhsElementType)) {
     auto resultQuantType = cast<quant::QuantizedType>(resultElementType);
-    // convolution_c31 and dot_general_c17
+    // convolution_c31
     if (lhsQuantType.getStorageType() != rhsQuantType.getStorageType()) {
       return emitOptionalError(
           location, "mismatched lhs and rhs quantization storage types");
     }
-    // convolution_c32 and dot_general_c18
+    // convolution_c32
     if (lhsQuantType.getExpressedType() != rhsQuantType.getExpressedType() ||
         lhsQuantType.getExpressedType() != resultQuantType.getExpressedType()) {
       return emitOptionalError(
           location,
           "mismatched lhs, rhs and result quantization expressed types");
     }
-    // convolution_c33 and dot_general_c19
+    // convolution_c33
     if (isa<quant::UniformQuantizedType>(rhsQuantType) &&
         !isa<quant::UniformQuantizedType>(resultQuantType)) {
       return emitOptionalError(
@@ -204,7 +204,7 @@
     }
   } else {
     Type rhsExpressedType = rhsQuantType.getExpressedType();
-    // convolution_c34 and dot_general_c20
+    // convolution_c34
     if (lhsElementType != rhsExpressedType ||
         lhsElementType != resultElementType) {
       return emitOptionalError(location,
@@ -3559,7 +3559,7 @@
     }
   }
 
-  // convolution_c28, convolution_c31 - convolution_c34
+  // convolution_c31 - convolution_c34
   return verifyConvolutionDotGeneralCommonQuantizationConstraints(
       location, lhsElementType, rhsElementType, resultElementType);
 }
@@ -3626,41 +3626,6 @@
   return success();
 }
 
-LogicalResult verifyDotGeneralOpQuantizationConstraints(
-    std::optional<Location> location, Type lhsType, Type rhsType,
-    Type resultType, ArrayRef<int64_t> rhsContractingDimensions) {
-  Type lhsElementType = getElementTypeOrSelf(lhsType);
-  Type rhsElementType = getElementTypeOrSelf(rhsType);
-  Type resultElementType = getElementTypeOrSelf(resultType);
-
-  // dot_general_c15
-  if (auto rhsPerTensorQuantType =
-          dyn_cast<quant::UniformQuantizedType>(rhsElementType)) {
-    if (rhsPerTensorQuantType.getZeroPoint() != 0) {
-      return emitOptionalError(location, "Zero point of rhs should be 0");
-    }
-  } else if (auto rhsPerAxisQuantType =
-                 dyn_cast<quant::UniformQuantizedPerAxisType>(rhsElementType)) {
-    if (llvm::any_of(rhsPerAxisQuantType.getZeroPoints(),
-                     [](int64_t zero_point) { return zero_point != 0; })) {
-      return emitOptionalError(location, "Zero points of rhs should be 0");
-    }
-
-    // dot_general_c16
-    if (llvm::is_contained(rhsContractingDimensions,
-                           rhsPerAxisQuantType.getQuantizedDimension())) {
-      return emitOptionalError(
-          location,
-          "Quantization dimension of rhs should not be in the "
-          "contracting dimension of rhs");
-    }
-  }
-
-  // dot_general_c14, dot_general_c17 - dot_general_c20
-  return verifyConvolutionDotGeneralCommonQuantizationConstraints(
-      location, lhsElementType, rhsElementType, resultElementType);
-}
-
 LogicalResult verifyDotGeneralOp(std::optional<Location> location, Value lhs,
                                  Value rhs,
                                  ArrayRef<int64_t> lhsBatchingDimensions,
@@ -3683,13 +3648,6 @@
     return emitOptionalError(
         location, "inferred shape '", dimSizesToString(inferredShape.getDims()),
         "' ", "is incompatible with return type of operation ", resultType, "");
-
-  Type lhsType = lhs.getType();
-  Type rhsType = rhs.getType();
-  if (anyQuantized<quant::QuantizedType>({lhsType, rhsType, resultType})) {
-    return verifyDotGeneralOpQuantizationConstraints(
-        location, lhsType, rhsType, resultType, rhsContractingDimensions);
-  }
   return success();
 }
 
diff --ruN a/stablehlo/stablehlo/experimental/BUILD.bazel b/stablehlo/stablehlo/experimental/BUILD.bazel
--- stablehlo/stablehlo/experimental/BUILD.bazel
+++ stablehlo/stablehlo/experimental/BUILD.bazel
@@ -0,0 +1,115 @@
+# Copyright 2023 The StableHLO Authors. All Rights Reserved.
+#
+# Licensed under the Apache License, Version 2.0 (the "License");
+# you may not use this file except in compliance with the License.
+# You may obtain a copy of the License at
+#
+#      https://www.apache.org/licenses/LICENSE-2.0
+#
+# Unless required by applicable law or agreed to in writing, software
+# distributed under the License is distributed on an "AS IS" BASIS,
+# WITHOUT WARRANTIES OR CONDITIONS OF ANY KIND, either express or implied.
+# See the License for the specific language governing permissions and
+# limitations under the License.
+load("@llvm-project//mlir:tblgen.bzl", "gentbl_cc_library")
+
+package(
+    default_visibility = ["//visibility:public"],
+    licenses = ["notice"],
+)
+
+cc_library(
+    name = "experimental_base",
+    srcs = [
+        "dialect/Base.cpp",
+    ],
+    hdrs = [
+        "dialect/Base.h",
+    ],
+    deps = [
+        "@llvm-project//llvm:Support",
+        "@llvm-project//mlir:IR",
+    ],
+)
+
+cc_library(
+    name = "experimental_stablehlo_ops",
+    srcs = [
+        "dialect/StablehloOps.cpp",
+    ],
+    hdrs = [
+        "dialect/StablehloOps.h",
+    ],
+    deps = [
+        ":experimental_base",
+        "//:stablehlo_ops",
+        "@llvm-project//llvm:Support",
+        "@llvm-project//mlir:FuncDialect",
+        "@llvm-project//mlir:IR",
+        "@llvm-project//mlir:Support",
+    ],
+)
+
+gentbl_cc_library(
+    name = "experimental_stablehlo_pass_inc_gen",
+    tbl_outs = [
+        (
+            [
+                "-gen-pass-decls",
+            ],
+            "transforms/Passes.h.inc",
+        ),
+    ],
+    tblgen = "@llvm-project//mlir:mlir-tblgen",
+    td_file = "transforms/Passes.td",
+    deps = ["@llvm-project//mlir:PassBaseTdFiles"],
+)
+
+cc_library(
+    name = "experimental_stablehlo_passes",
+    srcs = [
+        "transforms/ChloRecomposeOps.cpp",
+        "transforms/StablehloCanonicalizeDynamism.cpp",
+        "transforms/StablehloRefineShapes.cpp",
+    ],
+    hdrs = [
+        "transforms/Passes.h",
+    ],
+    deps = [
+        ":experimental_stablehlo_ops",
+        ":experimental_stablehlo_pass_inc_gen",
+        "//:base",
+        "//:chlo_ops",
+        "//:stablehlo_ops",
+        "//:stablehlo_ops_inc_gen",
+        "//:stablehlo_passes",
+        "//:stablehlo_type_inference",
+        "@llvm-project//llvm:Support",
+        "@llvm-project//mlir:FuncDialect",
+        "@llvm-project//mlir:IR",
+        "@llvm-project//mlir:InferTypeOpInterface",
+        "@llvm-project//mlir:Pass",
+        "@llvm-project//mlir:Support",
+        "@llvm-project//mlir:TransformUtils",
+        "@llvm-project//mlir:Transforms",
+    ],
+)
+
+cc_binary(
+    name = "experimental-stablehlo-opt",
+    srcs = [
+        "tools/StablehloOptMain.cpp",
+    ],
+    deps = [
+        ":experimental_stablehlo_passes",
+        "//:interpreter_ops",
+        "//:register",
+        "//:stablehlo_passes",
+        "//:test_utils",
+        "//:tosa_passes",
+        "@llvm-project//mlir:AllExtensions",
+        "@llvm-project//mlir:AllPassesAndDialects",
+        "@llvm-project//mlir:MlirOptLib",
+        "@llvm-project//mlir:TosaDialect",
+    ],
+)
diff --ruN a/stablehlo/stablehlo/experimental/CMakeLists.txt b/stablehlo/stablehlo/experimental/CMakeLists.txt
--- stablehlo/stablehlo/experimental/CMakeLists.txt
+++ stablehlo/stablehlo/experimental/CMakeLists.txt
@@ -0,0 +1,18 @@
+# Copyright 2023 The StableHLO Authors.
+#
+# Licensed under the Apache License, Version 2.0 (the "License");
+# you may not use this file except in compliance with the License.
+# You may obtain a copy of the License at
+#
+#      https://www.apache.org/licenses/LICENSE-2.0
+#
+# Unless required by applicable law or agreed to in writing, software
+# distributed under the License is distributed on an "AS IS" BASIS,
+# WITHOUT WARRANTIES OR CONDITIONS OF ANY KIND, either express or implied.
+# See the License for the specific language governing permissions and
+# limitations under the License.
+
+add_subdirectory(dialect)
+add_subdirectory(tests)
+add_subdirectory(tools)
+add_subdirectory(transforms)
diff --ruN a/stablehlo/stablehlo/experimental/dialect/Base.cpp b/stablehlo/stablehlo/experimental/dialect/Base.cpp
--- stablehlo/stablehlo/experimental/dialect/Base.cpp
+++ stablehlo/stablehlo/experimental/dialect/Base.cpp
@@ -0,0 +1,39 @@
+/* Copyright 2020 The TensorFlow Authors. All Rights Reserved.
+   Copyright 2022 The StableHLO Authors.
+
+Licensed under the Apache License, Version 2.0 (the "License");
+you may not use this file except in compliance with the License.
+You may obtain a copy of the License at
+
+    http://www.apache.org/licenses/LICENSE-2.0
+
+Unless required by applicable law or agreed to in writing, software
+distributed under the License is distributed on an "AS IS" BASIS,
+WITHOUT WARRANTIES OR CONDITIONS OF ANY KIND, either express or implied.
+See the License for the specific language governing permissions and
+limitations under the License.
+==============================================================================*/
+
+#include "stablehlo/experimental/dialect/Base.h"
+
+#include "mlir/IR/BuiltinAttributes.h"
+#include "mlir/IR/BuiltinTypes.h"
+
+namespace mlir {
+namespace hlo {
+
+DenseIntElementsAttr getPaddingAttr(MLIRContext* context,
+                                    ArrayRef<int64_t> values) {
+  return DenseIntElementsAttr::get(
+      RankedTensorType::get({static_cast<int64_t>(values.size()) / 2, 2},
+                            IntegerType::get(context, 64)),
+      values);
+}
+
+DenseIntElementsAttr getPaddingAttr(Builder* builder,
+                                    ArrayRef<int64_t> values) {
+  return getPaddingAttr(builder->getContext(), values);
+}
+
+}  // namespace hlo
+}  // namespace mlir
diff --ruN a/stablehlo/stablehlo/experimental/dialect/Base.h b/stablehlo/stablehlo/experimental/dialect/Base.h
--- stablehlo/stablehlo/experimental/dialect/Base.h
+++ stablehlo/stablehlo/experimental/dialect/Base.h
@@ -0,0 +1,35 @@
+/* Copyright 2021 The TensorFlow Authors. All Rights Reserved.
+   Copyright 2022 The StableHLO Authors.
+
+Licensed under the Apache License, Version 2.0 (the "License");
+you may not use this file except in compliance with the License.
+You may obtain a copy of the License at
+
+    http://www.apache.org/licenses/LICENSE-2.0
+
+Unless required by applicable law or agreed to in writing, software
+distributed under the License is distributed on an "AS IS" BASIS,
+WITHOUT WARRANTIES OR CONDITIONS OF ANY KIND, either express or implied.
+See the License for the specific language governing permissions and
+limitations under the License.
+==============================================================================*/
+
+#ifndef STABLEHLO_EXPERIMENTAL_DIALECT_BASE_H
+#define STABLEHLO_EXPERIMENTAL_DIALECT_BASE_H
+
+#include "llvm/ADT/ArrayRef.h"
+#include "mlir/IR/Builders.h"
+#include "mlir/IR/BuiltinAttributes.h"
+#include "mlir/IR/MLIRContext.h"
+
+namespace mlir {
+namespace hlo {
+
+DenseIntElementsAttr getPaddingAttr(MLIRContext *context,
+                                    ArrayRef<int64_t> value);
+DenseIntElementsAttr getPaddingAttr(Builder *builder, ArrayRef<int64_t> value);
+
+}  // namespace hlo
+}  // namespace mlir
+
+#endif  // STABLEHLO_EXPERIMENTAL_DIALECT_BASE_H
diff --ruN a/stablehlo/stablehlo/experimental/dialect/CMakeLists.txt b/stablehlo/stablehlo/experimental/dialect/CMakeLists.txt
--- stablehlo/stablehlo/experimental/dialect/CMakeLists.txt
+++ stablehlo/stablehlo/experimental/dialect/CMakeLists.txt
@@ -0,0 +1,42 @@
+# Copyright 2020 The TensorFlow Authors. All Rights Reserved.
+# Copyright 2023 The StableHLO Authors.
+#
+# Licensed under the Apache License, Version 2.0 (the "License");
+# you may not use this file except in compliance with the License.
+# You may obtain a copy of the License at
+#
+#      https://www.apache.org/licenses/LICENSE-2.0
+#
+# Unless required by applicable law or agreed to in writing, software
+# distributed under the License is distributed on an "AS IS" BASIS,
+# WITHOUT WARRANTIES OR CONDITIONS OF ANY KIND, either express or implied.
+# See the License for the specific language governing permissions and
+# limitations under the License.
+
+add_mlir_library(ExperimentalStablehloBase
+  PARTIAL_SOURCES_INTENDED
+  Base.cpp
+
+  LINK_LIBS PUBLIC
+  MLIRIR
+)
+
+add_mlir_dialect_library(ExperimentalStablehloOps
+  PARTIAL_SOURCES_INTENDED
+  StablehloOps.cpp
+
+  DEPENDS
+  StablehloOpsIncGen
+
+  LINK_LIBS PUBLIC
+  ExperimentalStablehloBase
+  MLIRFuncDialect
+  MLIRIR
+  MLIRSupport
+  StablehloOps
+)
+
+target_include_directories(ExperimentalStablehloOps INTERFACE
+  $<BUILD_INTERFACE:${STABLEHLO_SOURCE_DIR}>
+  $<BUILD_INTERFACE:${STABLEHLO_BINARY_DIR}>
+)
diff --ruN a/stablehlo/stablehlo/experimental/dialect/StablehloOps.cpp b/stablehlo/stablehlo/experimental/dialect/StablehloOps.cpp
--- stablehlo/stablehlo/experimental/dialect/StablehloOps.cpp
+++ stablehlo/stablehlo/experimental/dialect/StablehloOps.cpp
@@ -0,0 +1,505 @@
+/* Copyright 2023 The StableHLO Authors.
+
+Licensed under the Apache License, Version 2.0 (the "License");
+you may not use this file except in compliance with the License.
+You may obtain a copy of the License at
+
+    http://www.apache.org/licenses/LICENSE-2.0
+
+Unless required by applicable law or agreed to in writing, software
+distributed under the License is distributed on an "AS IS" BASIS,
+WITHOUT WARRANTIES OR CONDITIONS OF ANY KIND, either express or implied.
+See the License for the specific language governing permissions and
+limitations under the License.
+==============================================================================*/
+
+#include "stablehlo/experimental/dialect/StablehloOps.h"
+
+#include <cstdint>
+#include <optional>
+
+#include "llvm/ADT/ArrayRef.h"
+#include "llvm/ADT/STLExtras.h"
+#include "mlir/Dialect/Func/IR/FuncOps.h"
+#include "mlir/IR/BuiltinAttributes.h"
+#include "mlir/IR/BuiltinOps.h"
+#include "mlir/IR/BuiltinTypeInterfaces.h"
+#include "mlir/IR/Types.h"
+
+namespace mlir {
+namespace stablehlo {
+namespace experimental {
+
+LogicalResult DynamicReduceWindowOpAdaptor::verify() {
+  // Before checking the constraints inherited from ReduceWindowOp,
+  // make sure that the operands and the attributes of the underlying custom
+  // call make sense.
+  if (op_->getNumOperands() != 2 * op_->getNumResults() + 5)
+    return op_.emitError("expects size(operands) = 2 * size(results) + 5");
+  if (op_->getNumResults() == 0)
+    return op_.emitError("expects size(results) > 0");
+  for (const auto& attr : op_->getAttrs()) {
+    // api_version and backend_config have default values.
+    // call_target_name should be "stablehlo.dynamic_reduce_window".
+    // called_computations carries the body.
+    if (attr.getName() != "api_version" && attr.getName() != "backend_config" &&
+        attr.getName() != "call_target_name" &&
+        attr.getName() != "called_computations")
+      return op_.emitError()
+             << attr.getName() << " is not a supported attribute";
+  }
+  if (!op_.getBackendConfig().empty())
+    return op_.emitError() << "expects an empty backend_config";
+  if (op_.getCallTargetName() != "stablehlo.dynamic_reduce_window")
+    return op_.emitError() << "expects @stablehlo.dynamic_reduce_window";
+
+  // Unpack operands and attributes of the underlying custom call into
+  // operation-specific inputs.
+  auto numInputs = getInputs().size();
+  auto inputs = op_.getInputs().slice(0, numInputs);
+  auto initValues = op_.getInputs().slice(numInputs, numInputs);
+  auto windowDimensions = op_.getInputs()[op_.getInputs().size() - 5];
+  auto windowStrides = op_.getInputs()[op_.getInputs().size() - 4];
+  auto baseDilations = op_.getInputs()[op_.getInputs().size() - 3];
+  auto windowDilations = op_.getInputs()[op_.getInputs().size() - 2];
+  auto padding = op_.getInputs()[op_.getInputs().size() - 1];
+  auto results = op_.getResults();
+
+  // reduce_window_c1
+  // This constraint hold automatically thanks to the checks that we have
+  // performed above.
+
+  // reduce_window_i1
+  SmallVector<ShapedType> inputTypes;
+  for (auto [index, input] : llvm::enumerate(inputs)) {
+    auto inputType = dyn_cast<ShapedType>(input.getType());
+    inputTypes.push_back(inputType);
+    if (!inputType)
+      return op_.emitError()
+             << "expects inputs (e.g. operand #" << index << ") to be tensors";
+  }
+
+  // reduce_window_i2
+  SmallVector<ShapedType> initValueTypes;
+  for (auto [index, initValue] : llvm::enumerate(initValues)) {
+    auto initValueType = dyn_cast<ShapedType>(initValue.getType());
+    initValueTypes.push_back(initValueType);
+    if (!initValueType || !initValueType.hasRank() ||
+        initValueType.getRank() != 0)
+      return op_.emitError() << "expects init_values (e.g. operand #"
+                             << numInputs + index << ") "
+                             << "to be 0-dimensional tensors";
+  }
+
+  // reduce_window_i3...reduce_window_i7
+  auto checkRank = [&](StringRef name, int64_t index, Value dynamicAttr,
+                       int64_t expectedRank) -> LogicalResult {
+    auto type = dyn_cast<ShapedType>(dynamicAttr.getType());
+    if (!type || !type.hasRank() || type.getRank() != expectedRank ||
+        !type.getElementType().isIntOrIndex()) {
+      if (index < 0) index += op_->getNumOperands();
+      return op_.emitError()
+             << "expects " << name << " (operand #" << index << ") "
+             << "to be a " << expectedRank << "-dimensional tensor "
+             << "of integer or index type";
+    }
+    return success();
+  };
+  if (failed(checkRank("window_dimensions", -5, windowDimensions, 1)) ||
+      failed(checkRank("window_strides", -4, windowStrides, 1)) ||
+      failed(checkRank("base_dilations", -3, baseDilations, 1)) ||
+      failed(checkRank("window_dilations", -2, windowDilations, 1)) ||
+      failed(checkRank("padding", -1, padding, 2)))
+    return failure();
+
+  // reduce_window_i7
+  auto paddingType = dyn_cast<ShapedType>(getPadding().getType());
+  if (!paddingType || !paddingType.hasRank() || paddingType.getRank() != 2 ||
+      paddingType.getDimSize(1) != 2 ||
+      !paddingType.getElementType().isIntOrIndex())
+    return op_.emitError()
+           << "expects padding_type (operand #" << op_.getNumOperands() - 1
+           << ") to be a 2-dimensional tensor of integer or index type";
+
+  // reduce_window_c2
+  std::optional<ArrayRef<int64_t>> inputShape;
+  for (auto inputType : inputTypes) {
+    if (!inputType.hasRank()) continue;
+    if (!inputShape) inputShape = inputType.getShape();
+    if (failed(verifyCompatibleShape(inputType.getShape(), *inputShape)))
+      return op_.emitError() << "expects all inputs (operands 0.." << numInputs
+                             << ") to have compatible shapes";
+  }
+
+  // reduce_window_c3
+  for (auto [inputType, initValueType] :
+       llvm::zip(inputTypes, initValueTypes)) {
+    if (inputType.getElementType() != initValueType.getElementType())
+      return op_.emitError() << "expects inputs (operands 0.." << numInputs
+                             << ") and init_values (operands " << numInputs
+                             << ".." << numInputs * 2 << ") to have pairwise "
+                             << "the same element types";
+  }
+
+  // reduce_window_c4...reduce_window_c12
+  // In this range, we only verify the constraints with even numbers.
+  // Verifying the constraints with odd numbers would require knowing the
+  // actual values of window_dimensions, window_strides, etc.
+  // While we certainly can try to check whether they are constants and
+  // verify them in that case, that seems like too much at this point.
+  auto checkShape = [&](StringRef name, int64_t index, Value dynamicAttr,
+                        ArrayRef<int64_t> expectedShape) -> LogicalResult {
+    auto type = cast<ShapedType>(dynamicAttr.getType());
+    if (type.getShape() != expectedShape) {
+      if (index < 0) index += op_->getNumOperands();
+      return op_.emitError()
+             << "expects " << name << " (operand #" << index << ") "
+             << "to have shape [" << expectedShape << "]";
+    }
+    return success();
+  };
+  if (inputShape) {
+    auto inputRank = static_cast<int64_t>(inputShape->size());
+    if (failed(checkShape("window_dimensions", -5, windowDimensions,
+                          {inputRank})) ||
+        failed(checkShape("window_strides", -4, windowStrides, {inputRank})) ||
+        failed(checkShape("base_dilations", -3, baseDilations, {inputRank})) ||
+        failed(
+            checkShape("window_dilations", -2, windowDilations, {inputRank})) ||
+        failed(checkShape("padding", -1, padding, {inputRank, 2})))
+      return failure();
+  }
+
+  // reduce_window_c13
+  if (op_.getCalledComputations().size() != 1)
+    return op_.emitError() << "expects called_computations to have 1 element";
+  auto bodyAttr = cast<FlatSymbolRefAttr>(op_.getCalledComputations()[0]);
+  auto bodyFunc =
+      op_->getParentOfType<ModuleOp>().lookupSymbol<func::FuncOp>(bodyAttr);
+  if (!bodyFunc)
+    return op_.emitError() << "expects called_computations to refer to "
+                           << "a function that exists within a parent module";
+
+  // reduce_window_c13
+  SmallVector<Type> expectedBodyInputs;
+  llvm::append_range(expectedBodyInputs, initValueTypes);
+  llvm::append_range(expectedBodyInputs, initValueTypes);
+  SmallVector<Type> expectedBodyOutputs;
+  llvm::append_range(expectedBodyOutputs, initValueTypes);
+  auto expectedBodyType = FunctionType::get(
+      op_.getContext(), expectedBodyInputs, expectedBodyOutputs);
+  if (bodyFunc.getFunctionType() != expectedBodyType)
+    return op_.emitError() << "expects body to have type " << expectedBodyType;
+
+  // reduce_window_c14
+  SmallVector<ShapedType> resultTypes;
+  std::optional<ArrayRef<int64_t>> resultShape;
+  for (auto result : results) {
+    auto resultType = dyn_cast<ShapedType>(result.getType());
+    resultTypes.push_back(resultType);
+    if (!resultType) return op_.emitError() << "expects results to be tensors";
+
+    if (!resultType.hasRank()) continue;
+    if (!resultShape) resultShape = resultType.getShape();
+    if (failed(verifyCompatibleShape(resultType.getShape(), *resultShape)))
+      return op_.emitError() << "expects all results to have compatible shapes";
+  }
+
+  // reduce_window_c15
+  // Verifying this constraint would require knowing the actual values of
+  // window_dimensions, window_strides, etc.
+  // While we certainly can try to check whether they are constants and
+  // verify them in that case, that seems like too much at this point.
+
+  // reduce_window_c16
+  for (auto [resultType, initValueType] :
+       llvm::zip(resultTypes, initValueTypes)) {
+    if (resultType.getElementType() != initValueType.getElementType())
+      return op_.emitError() << "expects results and init_values (operands "
+                             << numInputs << ".." << numInputs * 2 << ") "
+                             << "to have pairwise the same element types";
+  }
+
+  return success();
+}
+
+ValueRange DynamicReduceWindowOpAdaptor::getInputs() {
+  auto numInputs = (op_.getInputs().size() - 5) / 2;
+  return op_.getInputs().slice(0, numInputs);
+}
+
+ValueRange DynamicReduceWindowOpAdaptor::getInitValues() {
+  auto numInputs = (op_.getInputs().size() - 5) / 2;
+  return op_.getInputs().slice(numInputs, numInputs);
+}
+
+TypedValue<ShapedType> DynamicReduceWindowOpAdaptor::getWindowDimensions() {
+  return cast<TypedValue<ShapedType>>(
+      op_.getInputs()[op_.getInputs().size() - 5]);
+}
+
+TypedValue<ShapedType> DynamicReduceWindowOpAdaptor::getWindowStrides() {
+  return cast<TypedValue<ShapedType>>(
+      op_.getInputs()[op_.getInputs().size() - 4]);
+}
+
+TypedValue<ShapedType> DynamicReduceWindowOpAdaptor::getBaseDilations() {
+  return cast<TypedValue<ShapedType>>(
+      op_.getInputs()[op_.getInputs().size() - 3]);
+}
+
+TypedValue<ShapedType> DynamicReduceWindowOpAdaptor::getWindowDilations() {
+  return cast<TypedValue<ShapedType>>(
+      op_.getInputs()[op_.getInputs().size() - 2]);
+}
+
+TypedValue<ShapedType> DynamicReduceWindowOpAdaptor::getPadding() {
+  return cast<TypedValue<ShapedType>>(
+      op_.getInputs()[op_.getInputs().size() - 1]);
+}
+
+Region& DynamicReduceWindowOpAdaptor::getBody() {
+  auto bodyAttr = cast<FlatSymbolRefAttr>(op_.getCalledComputations()[0]);
+  auto bodyFunc =
+      op_->getParentOfType<ModuleOp>().lookupSymbol<func::FuncOp>(bodyAttr);
+  return bodyFunc.getBody();
+}
+
+ValueRange DynamicReduceWindowOpAdaptor::getResults() {
+  return op_.getResults();
+}
+
+std::optional<DynamicReduceWindowOpAdaptor> getDynamicReduceWindowOp(
+    CustomCallOp op) {
+  if (op.getCallTargetName() != "stablehlo.dynamic_reduce_window") return {};
+  return DynamicReduceWindowOpAdaptor(op);
+}
+
+LogicalResult DynamicRngBitGeneratorOpAdaptor::verify() {
+  // Before checking the constraints inherited from RngBitGeneratorOp,
+  // make sure that the operands and the attributes of the underlying custom
+  // call make sense.
+  if (op_->getNumOperands() != 2)
+    return op_.emitError("expects size(operands) = 2");
+  if (op_->getNumResults() != 2)
+    return op_.emitError("expects size(results) = 2");
+  for (const auto& attr : op_->getAttrs()) {
+    // api_version and backend_config have default values.
+    // call_target_name should be "stablehlo.dynamic_rng_bit_generator".
+    // rng_algorithm comes from the operation.
+    if (attr.getName() != "api_version" && attr.getName() != "backend_config" &&
+        attr.getName() != "call_target_name" &&
+        attr.getName() != "rng_algorithm")
+      return op_.emitError()
+             << attr.getName() << " is not a supported attribute";
+  }
+  if (!op_.getBackendConfig().empty())
+    return op_.emitError() << "expects an empty backend_config";
+  if (op_.getCallTargetName() != "stablehlo.dynamic_rng_bit_generator")
+    return op_.emitError() << "expects @stablehlo.dynamic_rng_bit_generator";
+  if (!op_->hasAttr("rng_algorithm"))
+    return op_.emitError() << "expects an rng_algorithm";
+
+  // Unpack operands and attributes of the underlying custom call into
+  // operation-specific inputs.
+  auto rngAlgorithmAttr = op_->getDiscardableAttr("rng_algorithm");
+  auto initialState = op_.getInputs()[0];
+  auto outputShape = op_.getInputs()[1];
+  auto outputState = op_.getResults()[0];
+  auto output = op_.getResults()[1];
+
+  // dynamic_rng_bit_generator_i1
+  if (!isa<RngAlgorithmAttr>(rngAlgorithmAttr))
+    return op_.emitError()
+           << "expects a #stablehlo<rng_algorithm ...> rng_algorithm";
+
+  // dynamic_rng_bit_generator_i2
+  // TODO(#643): Clarify supported types for RngBitGeneratorOp.
+  auto initialStateType = dyn_cast<ShapedType>(initialState.getType());
+  if (!initialStateType || !initialStateType.getElementType().isIntOrFloat())
+    return op_.emitError()
+           << "expects initial_state (operand #0) "
+           << "to be a tensor of integer or floating-point type";
+
+  // dynamic_rng_bit_generator_i3
+  auto outputShapeType = dyn_cast<ShapedType>(outputShape.getType());
+  if (!outputShapeType || !outputShapeType.hasRank() ||
+      outputShapeType.getRank() != 1 ||
+      !outputShapeType.getElementType().isIntOrIndex())
+    return op_.emitError()
+           << "expects output_shape (operand #1) "
+           << "to be a 1-dimensional tensor of integer or index type";
+
+  // dynamic_rng_bit_generator_o1
+  // TODO(#643): Clarify supported types for RngBitGeneratorOp.
+  auto outputStateType = dyn_cast<ShapedType>(outputState.getType());
+  if (!outputStateType || !outputStateType.getElementType().isIntOrFloat())
+    return op_.emitError()
+           << "expects output_state (result #0) "
+           << "to be a tensor of integer or floating-point type";
+
+  // dynamic_rng_bit_generator_o2
+  auto outputType = dyn_cast<ShapedType>(output.getType());
+  if (!outputType || !outputType.getElementType().isIntOrFloat())
+    return op_.emitError()
+           << "expects output (result #1) "
+           << "to be a tensor of integer or floating-point type";
+
+  // dynamic_rng_bit_generator_c1
+  if (!hlo::isCompatibleForHloTypeInference(initialStateType, outputStateType))
+    return op_.emitError()
+           << "expects initial_state (operand #0) and output_state (result #0) "
+           << "to have compatible shapes";
+
+  // dynamic_rng_bit_generator_c2
+  // TODO(#486): Verify rng_algorithm in RngBitGeneratorOp.
+
+  // dynamic_rng_bit_generator_c3
+  if (!hlo::isCompatibleForHloTypeInference(outputShape, outputType))
+    return op_.emitError() << "expects output (result #1) to have shape  "
+                           << "compatible with output_shape (operand #2)";
+
+  return success();
+}
+
+RngAlgorithm DynamicRngBitGeneratorOpAdaptor::getRngAlgorithm() {
+  return cast<RngAlgorithmAttr>(op_->getDiscardableAttr("rng_algorithm"))
+      .getValue();
+}
+
+TypedValue<ShapedType> DynamicRngBitGeneratorOpAdaptor::getInitialState() {
+  return cast<TypedValue<ShapedType>>(op_.getInputs()[0]);
+}
+
+TypedValue<ShapedType> DynamicRngBitGeneratorOpAdaptor::getOutputShape() {
+  return cast<TypedValue<ShapedType>>(op_.getInputs()[1]);
+}
+
+TypedValue<ShapedType> DynamicRngBitGeneratorOpAdaptor::getOutputState() {
+  return cast<TypedValue<ShapedType>>(op_.getResults()[0]);
+}
+
+TypedValue<ShapedType> DynamicRngBitGeneratorOpAdaptor::getOutput() {
+  return cast<TypedValue<ShapedType>>(op_.getResults()[1]);
+}
+
+std::optional<DynamicRngBitGeneratorOpAdaptor> getDynamicRngBitGeneratorOp(
+    CustomCallOp op) {
+  if (op.getCallTargetName() != "stablehlo.dynamic_rng_bit_generator")
+    return {};
+  return DynamicRngBitGeneratorOpAdaptor(op);
+}
+
+LogicalResult DynamicTopKOpAdaptor::verify() {
+  if (op_->getNumOperands() != 2)
+    return op_.emitError("expects size(operands) = 2");
+  if (op_->getNumResults() != 2)
+    return op_.emitError("expects size(results) = 2");
+  for (const auto& attr : op_->getAttrs()) {
+    // api_version and backend_config have default values.
+    // call_target_name should be "stablehlo.dynamic_top_k".
+    if (attr.getName() != "api_version" && attr.getName() != "backend_config" &&
+        attr.getName() != "call_target_name")
+      return op_.emitError()
+             << attr.getName() << " is not a supported attribute";
+  }
+  if (!op_.getBackendConfig().empty())
+    return op_.emitError() << "expects an empty backend_config";
+  if (op_.getCallTargetName() != "stablehlo.dynamic_top_k")
+    return op_.emitError() << "expects @stablehlo.dynamic_top_k";
+
+  auto operand = op_.getInputs()[0];
+  auto k = op_.getInputs()[1];
+  auto values = op_.getResults()[0];
+  auto indices = op_.getResults()[1];
+
+  // dynamic_top_k_i1
+  auto operandType = dyn_cast<ShapedType>(operand.getType());
+  if (!operandType || !operandType.hasRank() || operandType.getRank() < 1 ||
+      !operandType.getElementType().isIntOrFloat())
+    return op_.emitError()
+           << "expects operand #0 "
+           << "to be a tensor of integer or floating-point type "
+           << "of rank at least 1";
+
+  // dynamic_top_k_i2
+  auto kType = dyn_cast<ShapedType>(k.getType());
+  if (!kType || !kType.hasRank() || kType.getRank() != 0 ||
+      !kType.getElementType().isIntOrIndex())
+    return op_.emitError()
+           << "expects k (operand #1) "
+           << "to be a 0-dimensional tensor of integer or index type";
+
+  // dynamic_top_k_o1
+  auto valuesType = dyn_cast<ShapedType>(values.getType());
+  if (!valuesType || !valuesType.hasRank() || valuesType.getRank() < 1 ||
+      !valuesType.getElementType().isIntOrFloat())
+    return op_.emitError()
+           << "expects values (result #0) "
+           << "to be a tensor of integer or floating-point type "
+           << "of rank at least 1";
+
+  // dynamic_top_k_o2
+  auto indicesType = dyn_cast<ShapedType>(indices.getType());
+  if (!indicesType || !indicesType.hasRank() || indicesType.getRank() < 1 ||
+      !indicesType.getElementType().isSignlessInteger(32))
+    return op_.emitError() << "expects indices (result #1) "
+                           << "to be a tensor of si32 of rank at least 1";
+
+  // dynamic_top_k_c1
+  auto operandLastDim = operandType.getRank() - 1;
+  SmallVector<int64_t> expectedValuesShape(operandType.getShape());
+  expectedValuesShape[operandLastDim] =
+      valuesType.getDimSize(valuesType.getRank() - 1);
+  if (failed(verifyCompatibleShape(expectedValuesShape, valuesType.getShape())))
+    return op_.emitError() << "expects the values shape to match the operand "
+                              "shape in all but the last dimension";
+
+  // dynamic_top_k_c2
+  if (valuesType.getElementType() != operandType.getElementType())
+    return op_.emitError()
+           << "expects the values element type to be the same as the operand "
+           << "element type";
+
+  // dynamic_top_k_c3
+  if (!operandType.isDynamicDim(operandLastDim) &&
+      !valuesType.isDynamicDim(operandLastDim) &&
+      operandType.getDimSize(operandLastDim) <
+          valuesType.getDimSize(operandLastDim))
+    return op_.emitError() << "expects the values last dimension to have size "
+                              "at least as large "
+                           << "as operand last dimension";
+
+  // dynamic_top_k_c4
+  if (failed(
+          verifyCompatibleShape(indicesType.getShape(), valuesType.getShape())))
+    return op_.emitError()
+           << "expects the indices shape to match the values shape";
+
+  return success();
+}
+
+TypedValue<ShapedType> DynamicTopKOpAdaptor::getOperand() {
+  return cast<TypedValue<ShapedType>>(op_.getInputs()[0]);
+}
+
+TypedValue<ShapedType> DynamicTopKOpAdaptor::getK() {
+  return cast<TypedValue<ShapedType>>(op_.getInputs()[1]);
+}
+
+TypedValue<ShapedType> DynamicTopKOpAdaptor::getValues() {
+  return cast<TypedValue<ShapedType>>(op_.getResults()[0]);
+}
+
+TypedValue<ShapedType> DynamicTopKOpAdaptor::getIndices() {
+  return cast<TypedValue<ShapedType>>(op_.getResults()[1]);
+}
+
+std::optional<DynamicTopKOpAdaptor> getDynamicTopKOp(CustomCallOp op) {
+  if (op.getCallTargetName() != "stablehlo.dynamic_top_k") return {};
+  return DynamicTopKOpAdaptor(op);
+}
+
+}  // namespace experimental
+}  // namespace stablehlo
+}  // namespace mlir
diff --ruN a/stablehlo/stablehlo/experimental/dialect/StablehloOps.h b/stablehlo/stablehlo/experimental/dialect/StablehloOps.h
--- stablehlo/stablehlo/experimental/dialect/StablehloOps.h
+++ stablehlo/stablehlo/experimental/dialect/StablehloOps.h
@@ -0,0 +1,230 @@
+/* Copyright 2023 The StableHLO Authors.
+
+Licensed under the Apache License, Version 2.0 (the "License");
+you may not use this file except in compliance with the License.
+You may obtain a copy of the License at
+
+    http://www.apache.org/licenses/LICENSE-2.0
+
+Unless required by applicable law or agreed to in writing, software
+distributed under the License is distributed on an "AS IS" BASIS,
+WITHOUT WARRANTIES OR CONDITIONS OF ANY KIND, either express or implied.
+See the License for the specific language governing permissions and
+limitations under the License.
+==============================================================================*/
+
+#ifndef STABLEHLO_EXPERIMENTAL_DIALECT_STABLEHLO_OPS_H
+#define STABLEHLO_EXPERIMENTAL_DIALECT_STABLEHLO_OPS_H
+
+// This file supports XLA-specific experiments with the StableHLO opset.
+// These experiments are not yet ready to be upstreamed to openxla/stablehlo
+// and are incubating towards the respective StableHLO RFCs.
+//
+// Custom calls (which are the implementation vehicle of these experiments)
+// don't have compatibility guarantees within the StableHLO process, but
+// the StableHLO team at Google provides out-of-band guarantees for these
+// custom calls, with the same compatibility window as StableHLO upstream.
+
+#include "mlir/IR/Operation.h"
+#include "mlir/IR/Region.h"
+#include "mlir/IR/Value.h"
+#include "mlir/IR/ValueRange.h"
+#include "mlir/Support/LogicalResult.h"
+#include "stablehlo/dialect/StablehloOps.h"
+#include "stablehlo/experimental/dialect/Base.h"
+
+namespace mlir {
+namespace stablehlo {
+namespace experimental {
+
+// The DynamicReduceWindowOp experiment provides a dynamic version of
+// ReduceWindowOp. Once the dynamism RFC is figured out, we expect to have an
+// upstream representation for this notion.
+//
+// Within this experiment, DynamicReduceWindowOp is represented via the
+// `stablehlo.custom_call @stablehlo.dynamic_reduce_window` custom call.
+// This custom call has the following operands which represent a dynamic version
+// of operands and attributes of ReduceWindowOp:
+//   * [0:N]   => inputs
+//   * [N:2*N] => init_values
+//   * [-5]    => window_dimensions
+//   * [-4]    => window_strides
+//   * [-3]    => base_dilations
+//   * [-2]    => window_dilations
+//   * [-1]    => padding
+// Additionally, to represent the body of DynamicReduceWindowOp, the custom call
+// has a satellite function attached to the custom call via called_computations.
+//
+// Semantics of DynamicReduceWindowOp are inherited from semantics of
+// https://github.com/openxla/stablehlo/blob/main/docs/spec.md#reduce_window
+// with the following exceptions:
+//   1) All tensor constants, i.e. window_dimensions, window_strides,
+//      base_dilations, window_dilations and padding, become tensors of
+//      integer type.
+//   2) As a result, some of the constraints can no longer be validated
+//      statically. However, this operation still expects these constraints
+//      to hold dynamically, and if they don't hold, the behavior is undefined.
+class DynamicReduceWindowOpAdaptor {
+ public:
+  DynamicReduceWindowOpAdaptor(CustomCallOp op) : op_(op) {}
+  operator Operation*() { return op_; }
+  Operation* operator->() { return op_; }
+
+  // Same accessors as for stablehlo::ReduceWindowOp, except that all the
+  // std::optional<DenseIntElementsAttr> attributes have turned into values.
+  // These accessors assume that the operation is well-formed (i.e. that it
+  // can pass verification).
+  ValueRange getInputs();
+  ValueRange getInitValues();
+  TypedValue<ShapedType> getWindowDimensions();
+  TypedValue<ShapedType> getWindowStrides();
+  TypedValue<ShapedType> getBaseDilations();
+  TypedValue<ShapedType> getWindowDilations();
+  TypedValue<ShapedType> getPadding();
+  Region& getBody();
+  ValueRange getResults();
+
+  // Verifies the constraints documented above.
+  // Emits errors if errors are detected.
+  LogicalResult verify();
+
+ private:
+  CustomCallOp op_;
+};
+
+// Wraps a custom call in a DynamicReduceWindowOpAdaptor.
+// Fails if the call_target_name of the custom call doesn't match
+// "stablehlo.dynamic_reduce_window".
+std::optional<DynamicReduceWindowOpAdaptor> getDynamicReduceWindowOp(
+    CustomCallOp op);
+
+// The DynamicRngBitGeneratorOp experiment provides a dynamic version of
+// RngBitGeneratorOp. Once the dynamism RFC is figured out, we expect to have an
+// upstream representation for this notion.
+//
+// Within this experiment, DynamicRngBitGeneratorOp is represented via the
+// `stablehlo.custom_call @stablehlo.dynamic_rng_bit_generator` custom call.
+// This custom call has the regular operand of RngBitGeneratorOp plus an
+// additional `output_shape` operand that determines the shape of the output:
+//   * [0] => initial_state
+//   * [1] => output_shape
+//
+// Semantics of DynamicRngBitGeneratorOp are inherited from semantics of
+// https://github.com/openxla/stablehlo/blob/main/docs/spec.md#rng_bit_generator
+// extended with an additional input (I3) and an additional constraint (C3):
+//
+// #### Inputs
+//
+// | Label | Name            | Type                                         |
+// |-------|-----------------|----------------------------------------------|
+// | (I1)  | `rng_algorithm` | enum of `DEFAULT`, `THREE_FRY`, and `PHILOX` |
+// | (I2)  | `initial_state` | 1-dimensional tensor of type `ui64`          |
+// | (I3)  | `output_shape`  | 1-dimensional tensor of integer type         |
+//
+// #### Outputs
+//
+// | Name           | Type                                     |
+// |----------------|------------------------------------------|
+// | `output_state` | 1-dimensional tensor of type `ui64`      |
+// | `output`       | tensor of integer or floating-point type |
+//
+// #### Constraints
+//
+// * (C1) `type(initial_state) = type(output_state)`.
+// * (C2) `size(initial_state)` is defined as:
+//   * implementation-defined if `rng_algorithm = DEFAULT`.
+//   * `2` if `rng_algorithm = THREE_FRY`.
+//   * `2` or `3` if `rng_algorithm = PHILOX`.
+// * (C3) `shape(output) = output_shape`.
+class DynamicRngBitGeneratorOpAdaptor {
+ public:
+  DynamicRngBitGeneratorOpAdaptor(CustomCallOp op) : op_(op) {}
+  operator Operation*() { return op_; }
+  Operation* operator->() { return op_; }
+
+  // Same accessors as for stablehlo::RngBitGeneratorOp, extended with the
+  // additional `output_shape` operand.
+  // These accessors assume that the operation is well-formed (i.e. that it
+  // can pass verification).
+  RngAlgorithm getRngAlgorithm();
+  TypedValue<ShapedType> getInitialState();
+  TypedValue<ShapedType> getOutputShape();
+  TypedValue<ShapedType> getOutputState();
+  TypedValue<ShapedType> getOutput();
+
+  // Verifies the constraints documented above.
+  // Emits errors if errors are detected.
+  LogicalResult verify();
+
+ private:
+  CustomCallOp op_;
+};
+
+// Wraps a custom call in a DynamicRngBitGeneratorOpAdaptor.
+// Fails if the call_target_name of the custom call doesn't match
+// "stablehlo.dynamic_rng_bit_generator".
+std::optional<DynamicRngBitGeneratorOpAdaptor> getDynamicRngBitGeneratorOp(
+    CustomCallOp op);
+
+// The DynamicTopKOp experiment provides a dynamic version of
+// TopKOp. Once the dynamism RFC is figured out, we expect to have an
+// upstream representation for this notion.
+//
+// Within this experiment, DynamicTopKOp is represented via the
+// `stablehlo.custom_call @stablehlo.dynamic_top_k` custom call.
+// This custom call has the regular operand of TopKOp plus an
+// additional `k` operand that determines the shape of the output.
+//
+// Semantics of DynamicTopKOp are inherited from semantics of Chlo.TopKOp.
+//
+// #### Inputs
+//
+// | Label | Name            | Type                                         |
+// |-------|-----------------|----------------------------------------------|
+// | (I1)  | `operand`       | tensor of integer or floating-point type     |
+// | (I2)  | `k`             | 0-dimensional tensor of integer or index type|
+//
+// #### Outputs
+//
+// | Name           | Type                                     |
+// |----------------|------------------------------------------|
+// | `values`       | tensor of integer or floating-point type |
+// | `indices`      | tensor of si32 type                      |
+//
+// #### Constraints
+//
+// * (C1) `shape(values)[:-1] = shape(operand)[:-1]`
+// * (C2) `element_type(values) = element_type(operand)`
+// * (C3) `shape(values)[-1] <= shape(operand)[-1]`
+// * (C4) `shape(indices) = shape(values)`
+class DynamicTopKOpAdaptor {
+ public:
+  DynamicTopKOpAdaptor(CustomCallOp op) : op_(op) {}
+  operator Operation*() { return op_; }
+  Operation* operator->() { return op_; }
+
+  // These accessors assume that the operation is well-formed (i.e. that it
+  // can pass verification).
+  TypedValue<ShapedType> getOperand();
+  TypedValue<ShapedType> getK();
+  TypedValue<ShapedType> getValues();
+  TypedValue<ShapedType> getIndices();
+
+  // Verifies the constraints documented above.
+  // Emits errors if errors are detected.
+  LogicalResult verify();
+
+ private:
+  CustomCallOp op_;
+};
+
+// Wraps a custom call in a DynamicTopKOpAdaptor.
+// Fails if the call_target_name of the custom call doesn't match
+// "stablehlo.dynamic_top_k".
+std::optional<DynamicTopKOpAdaptor> getDynamicTopKOp(CustomCallOp op);
+
+}  // namespace experimental
+}  // namespace stablehlo
+}  // namespace mlir
+
+#endif  // STABLEHLO_EXPERIMENTAL_DIALECT_STABLEHLO_OPS_H
diff --ruN a/stablehlo/stablehlo/experimental/tests/BUILD.bazel b/stablehlo/stablehlo/experimental/tests/BUILD.bazel
--- stablehlo/stablehlo/experimental/tests/BUILD.bazel
+++ stablehlo/stablehlo/experimental/tests/BUILD.bazel
@@ -0,0 +1,59 @@
+# Copyright 2023 The StableHLO Authors. All Rights Reserved.
+#
+# Licensed under the Apache License, Version 2.0 (the "License");
+# you may not use this file except in compliance with the License.
+# You may obtain a copy of the License at
+#
+#      https://www.apache.org/licenses/LICENSE-2.0
+#
+# Unless required by applicable law or agreed to in writing, software
+# distributed under the License is distributed on an "AS IS" BASIS,
+# WITHOUT WARRANTIES OR CONDITIONS OF ANY KIND, either express or implied.
+# See the License for the specific language governing permissions and
+# limitations under the License.
+load("@bazel_skylib//rules:expand_template.bzl", "expand_template")
+load("@llvm-project//llvm:lit_test.bzl", "lit_test", "package_path")
+
+package(
+    default_visibility = ["//visibility:public"],
+    licenses = ["notice"],
+)
+
+# Equivalent of configure_lit_site_cfg from CMakeLists.txt.
+expand_template(
+    name = "lit_site_cfg_py_gen",
+    testonly = True,
+    out = "lit.site.cfg.py",
+    substitutions = {
+        "@LIT_SITE_CFG_IN_HEADER@": "# Autogenerated, do not edit.",
+        "@LLVM_TOOLS_DIR@": package_path("@llvm-project//llvm:BUILD"),
+        "\"@STABLEHLO_TOOLS_DIR@\"": "os.path.join(os.environ['TEST_SRCDIR'], 'stablehlo')",
+        "\"@STABLEHLO_SOURCE_DIR@\"": "os.path.join(os.environ['TEST_SRCDIR'], 'stablehlo')",
+    },
+    template = "lit.site.cfg.py.in",
+)
+
+# Equivalent of add_lit_testsuite from CMakeLists.txt.
+[
+    lit_test(
+        name = "%s.test" % src,
+        size = "small",
+        srcs = [src],
+        data = [
+            "lit.cfg.py",
+            "lit.site.cfg.py",
+            "//:stablehlo-opt",
+            "//:stablehlo-translate",
+            "//stablehlo/experimental:experimental-stablehlo-opt",
+            "@llvm-project//llvm:FileCheck",
+            "@llvm-project//llvm:not",
+        ] + glob(["%s.bc" % src]),
+        tags = ["stablehlo_tests"],
+    )
+    for src in glob(["**/*.mlir"])
+]
+
+test_suite(
+    name = "experimental_stablehlo_tests",
+    tags = ["experimental_stablehlo_tests"],
+)
diff --ruN a/stablehlo/stablehlo/experimental/tests/CMakeLists.txt b/stablehlo/stablehlo/experimental/tests/CMakeLists.txt
--- stablehlo/stablehlo/experimental/tests/CMakeLists.txt
+++ stablehlo/stablehlo/experimental/tests/CMakeLists.txt
@@ -0,0 +1,29 @@
+# Copyright 2020 The TensorFlow Authors. All Rights Reserved.
+# Copyright 2023 The StableHLO Authors.
+#
+# Licensed under the Apache License, Version 2.0 (the "License");
+# you may not use this file except in compliance with the License.
+# You may obtain a copy of the License at
+#
+#      https://www.apache.org/licenses/LICENSE-2.0
+#
+# Unless required by applicable law or agreed to in writing, software
+# distributed under the License is distributed on an "AS IS" BASIS,
+# WITHOUT WARRANTIES OR CONDITIONS OF ANY KIND, either express or implied.
+# See the License for the specific language governing permissions and
+# limitations under the License.
+
+configure_lit_site_cfg(
+  ${CMAKE_CURRENT_SOURCE_DIR}/lit.site.cfg.py.in
+  ${CMAKE_CURRENT_BINARY_DIR}/lit.site.cfg.py
+  MAIN_CONFIG
+  ${CMAKE_CURRENT_SOURCE_DIR}/lit.cfg.py
+)
+add_lit_testsuite(check-experimental-stablehlo-tests "Running the experimental/tests/ suite"
+  ${CMAKE_CURRENT_BINARY_DIR}
+  DEPENDS
+  FileCheck
+  experimental-stablehlo-opt
+  stablehlo-translate
+)
+add_dependencies(check-stablehlo-quick check-experimental-stablehlo-tests)
diff --ruN a/stablehlo/stablehlo/experimental/tests/chlo_recompose_ops.mlir b/stablehlo/stablehlo/experimental/tests/chlo_recompose_ops.mlir
--- stablehlo/stablehlo/experimental/tests/chlo_recompose_ops.mlir
+++ stablehlo/stablehlo/experimental/tests/chlo_recompose_ops.mlir
@@ -0,0 +1,51 @@
+// RUN: experimental-stablehlo-opt --experimental-chlo-recompose-ops --split-input-file --verify-diagnostics %s | FileCheck %s
+
+// -----
+
+// CHECK-LABEL: func @recompose_topk
+func.func @recompose_topk(%arg0: tensor<5x16xf32>) -> (tensor<?x?xf32>, tensor<?x?xi32>) {
+  // CHECK: %values, %indices = chlo.top_k(%arg0, k = 4) {largest = true} : tensor<5x16xf32> -> (tensor<?x?xf32>, tensor<?x?xi32>)
+  %0:2 = stablehlo.custom_call @mhlo.topk(%arg0) {
+    mhlo.attributes = { k = 4 : i64, largest = true}
+  } : (tensor<5x16xf32>) -> (tensor<?x?xf32>, tensor<?x?xi32>)
+  return %0#0, %0#1 : tensor<?x?xf32>, tensor<?x?xi32>
+}
+
+// -----
+
+// CHECK-LABEL: func @recompose_topk_invalid_attr
+func.func @recompose_topk_invalid_attr(%arg0: tensor<5x16xf32>) -> (tensor<?x?xf32>, tensor<?x?xi32>) {
+  // CHECK: stablehlo.custom_call @mhlo.topk
+  %0:2 = stablehlo.custom_call @mhlo.topk(%arg0) {
+    mhlo.attributes = { k = 4 : i64, largest = false}
+  } : (tensor<5x16xf32>) -> (tensor<?x?xf32>, tensor<?x?xi32>)
+  return %0#0, %0#1 : tensor<?x?xf32>, tensor<?x?xi32>
+}
+
+// -----
+
+// CHECK-LABEL: @recompose_tan
+func.func @recompose_tan(%arg0: tensor<16xf32>) -> tensor<?xf32> {
+  // CHECK: %0 = chlo.tan %arg0 : tensor<16xf32> -> tensor<?xf32>
+  %0 = "stablehlo.custom_call"(%arg0) {
+    call_target_name = "mhlo.tan",
+    mhlo.attributes = {},
+    mhlo.version = 1 : i64
+  } : (tensor<16xf32>) -> tensor<?xf32>
+  func.return %0 : tensor<?xf32>
+}
+
+// -----
+
+// CHECK-LABEL: @recompose_erf
+func.func @recompose_erf(%arg0: tensor<3x20x20xbf16>) -> tensor<?x20x20xbf16> {
+  // CHECK: %0 = chlo.erf %arg0 : tensor<3x20x20xbf16> -> tensor<?x20x20xbf16>
+  %0 = "stablehlo.custom_call"(%arg0) {
+    backend_config = "",
+    call_target_name = "mhlo.erf",
+    mhlo.attributes = {},
+    mhlo.version = 1 : i64
+  } : (tensor<3x20x20xbf16>) -> tensor<?x20x20xbf16>
+  func.return %0 : tensor<?x20x20xbf16>
+}
+
diff --ruN a/stablehlo/stablehlo/experimental/tests/lit.cfg.py b/stablehlo/stablehlo/experimental/tests/lit.cfg.py
--- stablehlo/stablehlo/experimental/tests/lit.cfg.py
+++ stablehlo/stablehlo/experimental/tests/lit.cfg.py
@@ -0,0 +1,46 @@
+"""Lit configuration to drive test in this repo."""
+# Copyright 2020 The TensorFlow Authors. All Rights Reserved.
+# Copyright 2023 The StableHLO Authors.
+# Licensed under the Apache License, Version 2.0 (the "License");
+# you may not use this file except in compliance with the License.
+# You may obtain a copy of the License at
+#
+#     http://www.apache.org/licenses/LICENSE-2.0
+#
+# Unless required by applicable law or agreed to in writing, software
+# distributed under the License is distributed on an "AS IS" BASIS,
+# WITHOUT WARRANTIES OR CONDITIONS OF ANY KIND, either express or implied.
+# See the License for the specific language governing permissions and
+# limitations under the License.
+
+# -*- Python -*-
+# pylint: disable=undefined-variable
+
+import os
+
+import lit.formats
+from lit.llvm import llvm_config
+
+# Populate Lit configuration with the minimal required metadata.
+# Some metadata is populated in lit.site.cfg.py.in.
+config.name = 'STABLEHLO_TESTS_SUITE'
+config.test_format = lit.formats.ShTest(not llvm_config.use_lit_shell)
+config.suffixes = ['.mlir']
+config.test_source_root = os.path.dirname(__file__)
+
+# Disallow reusing variables across CHECK-LABEL matches.
+# A variable can eschew this (be made "global") by prefixing its name with $.
+config.environment['FILECHECK_OPTS'] = '-enable-var-scope'
+
+# Make LLVM and StableHLO tools available in RUN directives
+tools = [
+  'FileCheck',
+  'experimental-stablehlo-opt',
+  'stablehlo-translate',
+  'not',
+]
+tool_dirs = [
+  config.llvm_tools_dir,
+  config.stablehlo_tools_dir,
+]
+llvm_config.add_tool_substitutions(tools, tool_dirs)
diff --ruN a/stablehlo/stablehlo/experimental/tests/lit.site.cfg.py.in b/stablehlo/stablehlo/experimental/tests/lit.site.cfg.py.in
--- stablehlo/stablehlo/experimental/tests/lit.site.cfg.py.in
+++ stablehlo/stablehlo/experimental/tests/lit.site.cfg.py.in
@@ -0,0 +1,21 @@
+# Copyright 2020 The TensorFlow Authors. All Rights Reserved.
+# Copyright 2023 The StableHLO Authors.
+# Licensed under the Apache License, Version 2.0 (the "License");
+# you may not use this file except in compliance with the License.
+# You may obtain a copy of the License at
+#
+#     http://www.apache.org/licenses/LICENSE-2.0
+#
+# Unless required by applicable law or agreed to in writing, software
+# distributed under the License is distributed on an "AS IS" BASIS,
+# WITHOUT WARRANTIES OR CONDITIONS OF ANY KIND, either express or implied.
+# See the License for the specific language governing permissions and
+# limitations under the License.
+
+@LIT_SITE_CFG_IN_HEADER@
+
+import lit.llvm
+lit.llvm.initialize(lit_config, config)
+config.llvm_tools_dir = "@LLVM_TOOLS_DIR@"
+config.stablehlo_tools_dir = "@STABLEHLO_TOOLS_DIR@"
+lit_config.load_config(config, "@STABLEHLO_SOURCE_DIR@" + "/stablehlo/experimental/tests/lit.cfg.py")
diff --ruN a/stablehlo/stablehlo/experimental/tests/stablehlo_canonicalize_dynamism.mlir b/stablehlo/stablehlo/experimental/tests/stablehlo_canonicalize_dynamism.mlir
--- stablehlo/stablehlo/experimental/tests/stablehlo_canonicalize_dynamism.mlir
+++ stablehlo/stablehlo/experimental/tests/stablehlo_canonicalize_dynamism.mlir
@@ -0,0 +1,344 @@
+// RUN: experimental-stablehlo-opt --experimental-stablehlo-canonicalize-dynamism --split-input-file --verify-diagnostics %s | FileCheck %s
+
+// CHECK-LABEL: func @dynamic_reduce_window_success_static_result_type
+func.func @dynamic_reduce_window_success_static_result_type(%arg0: tensor<3x2xf32>, %arg1: tensor<f32>) -> tensor<2x2xf32> {
+  //           CHECK-NOT: stablehlo.dynamic_reduce_window
+  //               CHECK: "stablehlo.reduce_window"(%arg0, %arg1) <{
+  //          CHECK-SAME:   base_dilations = array<i64: 2, 1>,
+  // CHECK-SAME{LITERAL}:   padding = dense<[[2, 1], [0, 0]]> : tensor<2x2xi64>,
+  //          CHECK-SAME:   window_dilations = array<i64: 3, 1>,
+  //          CHECK-SAME:   window_dimensions = array<i64: 2, 1>,
+  //          CHECK-SAME:   window_strides = array<i64: 4, 1>
+  //          CHECK-SAME: }> ({
+  //          CHECK-NEXT:   ^[[BB:bb.*]](%[[ARG2:arg.*]]: tensor<f32>, %[[ARG3:arg.*]]: tensor<f32>):
+  //          CHECK-NEXT:     %[[VAL1:.*]] = stablehlo.add %arg2, %arg3 : tensor<f32>
+  //          CHECK-NEXT:     stablehlo.return %[[VAL1]] : tensor<f32>
+  //          CHECK-NEXT: }) : (tensor<3x2xf32>, tensor<f32>) -> tensor<2x2xf32>
+  %0 = stablehlo.constant dense<[2, 1]> : tensor<2xi64>
+  %1 = stablehlo.constant dense<[4, 1]> : tensor<2xi64>
+  %2 = stablehlo.constant dense<[2, 1]> : tensor<2xi64>
+  %3 = stablehlo.constant dense<[3, 1]> : tensor<2xi64>
+  %4 = stablehlo.constant dense<[[2, 1], [0, 0]]> : tensor<2x2xi64>
+  %5 = stablehlo.custom_call @stablehlo.dynamic_reduce_window(%arg0, %arg1, %0, %1, %2, %3, %4) {
+    called_computations = [@dynamic_reduce_window0]
+  } : (tensor<3x2xf32>, tensor<f32>, tensor<2xi64>, tensor<2xi64>, tensor<2xi64>, tensor<2xi64>, tensor<2x2xi64>) -> tensor<2x2xf32>
+  func.return %5 : tensor<2x2xf32>
+}
+
+func.func private @dynamic_reduce_window0(%arg0: tensor<f32>, %arg1: tensor<f32>) -> tensor<f32> {
+  %0 = stablehlo.add %arg0, %arg1 : tensor<f32>
+  func.return %0 : tensor<f32>
+}
+
+// -----
+
+// CHECK-LABEL: func @dynamic_reduce_window_success_dynamic_result_type
+func.func @dynamic_reduce_window_success_dynamic_result_type(%arg0: tensor<?x2xf32>, %arg1: tensor<f32>) -> tensor<?x2xf32> {
+  //           CHECK-NOT: stablehlo.dynamic_reduce_window
+  //               CHECK: "stablehlo.reduce_window"(%arg0, %arg1) <{
+  //          CHECK-SAME:   base_dilations = array<i64: 2, 1>,
+  // CHECK-SAME{LITERAL}:   padding = dense<[[2, 1], [0, 0]]> : tensor<2x2xi64>,
+  //          CHECK-SAME:   window_dilations = array<i64: 3, 1>,
+  //          CHECK-SAME:   window_dimensions = array<i64: 2, 1>,
+  //          CHECK-SAME:   window_strides = array<i64: 4, 1>
+  //          CHECK-SAME: }> ({
+  //          CHECK-NEXT:   ^[[BB:bb.*]](%[[ARG2:arg.*]]: tensor<f32>, %[[ARG3:arg.*]]: tensor<f32>):
+  //          CHECK-NEXT:     %[[VAL1:.*]] = stablehlo.add %arg2, %arg3 : tensor<f32>
+  //          CHECK-NEXT:     stablehlo.return %[[VAL1]] : tensor<f32>
+  //          CHECK-NEXT: }) : (tensor<?x2xf32>, tensor<f32>) -> tensor<?x2xf32>
+  %0 = stablehlo.constant dense<[2, 1]> : tensor<2xi64>
+  %1 = stablehlo.constant dense<[4, 1]> : tensor<2xi64>
+  %2 = stablehlo.constant dense<[2, 1]> : tensor<2xi64>
+  %3 = stablehlo.constant dense<[3, 1]> : tensor<2xi64>
+  %4 = stablehlo.constant dense<[[2, 1], [0, 0]]> : tensor<2x2xi64>
+  %5 = stablehlo.custom_call @stablehlo.dynamic_reduce_window(%arg0, %arg1, %0, %1, %2, %3, %4) {
+    called_computations = [@dynamic_reduce_window0]
+  } : (tensor<?x2xf32>, tensor<f32>, tensor<2xi64>, tensor<2xi64>, tensor<2xi64>, tensor<2xi64>, tensor<2x2xi64>) -> tensor<?x2xf32>
+  func.return %5 : tensor<?x2xf32>
+}
+
+func.func private @dynamic_reduce_window0(%arg0: tensor<f32>, %arg1: tensor<f32>) -> tensor<f32> {
+  %0 = stablehlo.add %arg0, %arg1 : tensor<f32>
+  func.return %0 : tensor<f32>
+}
+
+// TODO(burmako): Implement tests for verification failures for dynamic_reduce_window.
+
+// -----
+
+// CHECK-LABEL: func @dynamic_reduce_window_inapplicable_dynamic_window_dimensions
+func.func @dynamic_reduce_window_inapplicable_dynamic_window_dimensions(%arg0: tensor<3x2xf32>, %arg1: tensor<f32>, %arg2: tensor<2xi64>) -> tensor<2x2xf32> {
+  // CHECK: stablehlo.dynamic_reduce_window
+  %0 = stablehlo.constant dense<[4, 1]> : tensor<2xi64>
+  %1 = stablehlo.constant dense<[2, 1]> : tensor<2xi64>
+  %2 = stablehlo.constant dense<[3, 1]> : tensor<2xi64>
+  %3 = stablehlo.constant dense<[[2, 1], [0, 0]]> : tensor<2x2xi64>
+  %4 = stablehlo.custom_call @stablehlo.dynamic_reduce_window(%arg0, %arg1, %arg2, %0, %1, %2, %3) {
+    called_computations = [@dynamic_reduce_window0]
+  } : (tensor<3x2xf32>, tensor<f32>, tensor<2xi64>, tensor<2xi64>, tensor<2xi64>, tensor<2xi64>, tensor<2x2xi64>) -> tensor<2x2xf32>
+  func.return %4 : tensor<2x2xf32>
+}
+
+func.func private @dynamic_reduce_window0(%arg0: tensor<f32>, %arg1: tensor<f32>) -> tensor<f32> {
+  %0 = stablehlo.add %arg0, %arg1 : tensor<f32>
+  func.return %0 : tensor<f32>
+}
+
+// -----
+
+// CHECK-LABEL: func @dynamic_reduce_window_inapplicable_dynamic_window_strides
+func.func @dynamic_reduce_window_inapplicable_dynamic_window_strides(%arg0: tensor<3x2xf32>, %arg1: tensor<f32>, %arg2: tensor<2xi64>) -> tensor<2x2xf32> {
+  // CHECK: stablehlo.dynamic_reduce_window
+  %0 = stablehlo.constant dense<[2, 1]> : tensor<2xi64>
+  %1 = stablehlo.constant dense<[2, 1]> : tensor<2xi64>
+  %2 = stablehlo.constant dense<[3, 1]> : tensor<2xi64>
+  %3 = stablehlo.constant dense<[[2, 1], [0, 0]]> : tensor<2x2xi64>
+  %4 = stablehlo.custom_call @stablehlo.dynamic_reduce_window(%arg0, %arg1, %0, %arg2, %1, %2, %3) {
+    called_computations = [@dynamic_reduce_window0]
+  } : (tensor<3x2xf32>, tensor<f32>, tensor<2xi64>, tensor<2xi64>, tensor<2xi64>, tensor<2xi64>, tensor<2x2xi64>) -> tensor<2x2xf32>
+  func.return %4 : tensor<2x2xf32>
+}
+
+func.func private @dynamic_reduce_window0(%arg0: tensor<f32>, %arg1: tensor<f32>) -> tensor<f32> {
+  %0 = stablehlo.add %arg0, %arg1 : tensor<f32>
+  func.return %0 : tensor<f32>
+}
+
+// -----
+
+// CHECK-LABEL: func @dynamic_reduce_window_inapplicable_dynamic_base_dilations
+func.func @dynamic_reduce_window_inapplicable_dynamic_base_dilations(%arg0: tensor<3x2xf32>, %arg1: tensor<f32>, %arg2: tensor<2xi64>) -> tensor<2x2xf32> {
+  // CHECK: stablehlo.dynamic_reduce_window
+  %0 = stablehlo.constant dense<[2, 1]> : tensor<2xi64>
+  %1 = stablehlo.constant dense<[4, 1]> : tensor<2xi64>
+  %2 = stablehlo.constant dense<[3, 1]> : tensor<2xi64>
+  %3 = stablehlo.constant dense<[[2, 1], [0, 0]]> : tensor<2x2xi64>
+  %4 = stablehlo.custom_call @stablehlo.dynamic_reduce_window(%arg0, %arg1, %0, %1, %arg2, %2, %3) {
+    called_computations = [@dynamic_reduce_window0]
+  } : (tensor<3x2xf32>, tensor<f32>, tensor<2xi64>, tensor<2xi64>, tensor<2xi64>, tensor<2xi64>, tensor<2x2xi64>) -> tensor<2x2xf32>
+  func.return %4 : tensor<2x2xf32>
+}
+
+func.func private @dynamic_reduce_window0(%arg0: tensor<f32>, %arg1: tensor<f32>) -> tensor<f32> {
+  %0 = stablehlo.add %arg0, %arg1 : tensor<f32>
+  func.return %0 : tensor<f32>
+}
+
+// -----
+
+// CHECK-LABEL: func @dynamic_reduce_window_inapplicable_dynamic_window_dilations
+func.func @dynamic_reduce_window_inapplicable_dynamic_window_dilations(%arg0: tensor<3x2xf32>, %arg1: tensor<f32>, %arg2: tensor<2xi64>) -> tensor<2x2xf32> {
+  // CHECK: stablehlo.dynamic_reduce_window
+  %0 = stablehlo.constant dense<[2, 1]> : tensor<2xi64>
+  %1 = stablehlo.constant dense<[4, 1]> : tensor<2xi64>
+  %2 = stablehlo.constant dense<[2, 1]> : tensor<2xi64>
+  %3 = stablehlo.constant dense<[[2, 1], [0, 0]]> : tensor<2x2xi64>
+  %4 = stablehlo.custom_call @stablehlo.dynamic_reduce_window(%arg0, %arg1, %0, %1, %2, %arg2, %3) {
+    called_computations = [@dynamic_reduce_window0]
+  } : (tensor<3x2xf32>, tensor<f32>, tensor<2xi64>, tensor<2xi64>, tensor<2xi64>, tensor<2xi64>, tensor<2x2xi64>) -> tensor<2x2xf32>
+  func.return %4 : tensor<2x2xf32>
+}
+
+func.func private @dynamic_reduce_window0(%arg0: tensor<f32>, %arg1: tensor<f32>) -> tensor<f32> {
+  %0 = stablehlo.add %arg0, %arg1 : tensor<f32>
+  func.return %0 : tensor<f32>
+}
+
+// -----
+
+// CHECK-LABEL: func @dynamic_reduce_window_inapplicable_dynamic_padding
+func.func @dynamic_reduce_window_inapplicable_dynamic_padding(%arg0: tensor<3x2xf32>, %arg1: tensor<f32>, %arg2: tensor<2x2xi64>) -> tensor<2x2xf32> {
+  // CHECK: stablehlo.dynamic_reduce_window
+  %0 = stablehlo.constant dense<[2, 1]> : tensor<2xi64>
+  %1 = stablehlo.constant dense<[4, 1]> : tensor<2xi64>
+  %2 = stablehlo.constant dense<[2, 1]> : tensor<2xi64>
+  %3 = stablehlo.constant dense<[3, 1]> : tensor<2xi64>
+  %4 = stablehlo.custom_call @stablehlo.dynamic_reduce_window(%arg0, %arg1, %0, %1, %2, %3, %arg2) {
+    called_computations = [@dynamic_reduce_window0]
+  } : (tensor<3x2xf32>, tensor<f32>, tensor<2xi64>, tensor<2xi64>, tensor<2xi64>, tensor<2xi64>, tensor<2x2xi64>) -> tensor<2x2xf32>
+  func.return %4 : tensor<2x2xf32>
+}
+
+func.func private @dynamic_reduce_window0(%arg0: tensor<f32>, %arg1: tensor<f32>) -> tensor<f32> {
+  %0 = stablehlo.add %arg0, %arg1 : tensor<f32>
+  func.return %0 : tensor<f32>
+}
+
+// -----
+
+// CHECK-LABEL: func @dynamic_rng_bit_generator_success
+func.func @dynamic_rng_bit_generator_success(%arg0: tensor<2xui64>) -> tensor<1x4xf32> {
+  // CHECK-NOT: stablehlo.dynamic_rng_bit_generator
+  // CHECK: stablehlo.rng_bit_generator %arg0, algorithm = DEFAULT : (tensor<2xui64>) -> (tensor<2xui64>, tensor<1x4xf32>)
+  %0 = stablehlo.constant dense<[1, 4]> : tensor<2xi64>
+  %1:2 = stablehlo.custom_call @stablehlo.dynamic_rng_bit_generator(%arg0, %0) {
+    rng_algorithm = #stablehlo<rng_algorithm DEFAULT>
+  } : (tensor<2xui64>, tensor<2xi64>) -> (tensor<2xui64>, tensor<1x4xf32>)
+  return %1#1 : tensor<1x4xf32>
+}
+
+// TODO(burmako): Implement tests for verification failures for dynamic_rng_bit_generator.
+
+// -----
+
+// CHECK-LABEL: func @dynamic_rng_bit_generator_inapplicable_dynamic_output_shape
+func.func @dynamic_rng_bit_generator_inapplicable_dynamic_output_shape(%arg0: tensor<2xui64>, %arg1: tensor<2xi64>) -> tensor<1x4xf32> {
+  // CHECK: stablehlo.dynamic_rng_bit_generator
+  %1:2 = stablehlo.custom_call @stablehlo.dynamic_rng_bit_generator(%arg0, %arg1) {
+    rng_algorithm = #stablehlo<rng_algorithm DEFAULT>
+  } : (tensor<2xui64>, tensor<2xi64>) -> (tensor<2xui64>, tensor<1x4xf32>)
+  return %1#1 : tensor<1x4xf32>
+}
+
+// -----
+
+// CHECK-LABEL: func @dynamic_rng_bit_generator_inapplicable_dynamic_output_type
+func.func @dynamic_rng_bit_generator_inapplicable_dynamic_output_type(%arg0: tensor<2xui64>) -> tensor<?x?xf32> {
+  // CHECK: stablehlo.dynamic_rng_bit_generator
+  %0 = stablehlo.constant dense<[1, 4]> : tensor<2xi64>
+  %1:2 = stablehlo.custom_call @stablehlo.dynamic_rng_bit_generator(%arg0, %0) {
+    rng_algorithm = #stablehlo<rng_algorithm DEFAULT>
+  } : (tensor<2xui64>, tensor<2xi64>) -> (tensor<2xui64>, tensor<?x?xf32>)
+  return %1#1 : tensor<?x?xf32>
+}
+
+// -----
+
+// CHECK-LABEL: func @dynamic_top_k_success
+func.func @dynamic_top_k_success(%arg0: tensor<16xf32>) -> (tensor<3xf32>, tensor<3xi32>) {
+  // CHECK: chlo.top_k
+  %k = stablehlo.constant dense<3> : tensor<ui64>
+  %1:2 = stablehlo.custom_call @stablehlo.dynamic_top_k(%arg0, %k) : (tensor<16xf32>, tensor<ui64>) -> (tensor<3xf32>, tensor<3xi32>)
+  return %1#0, %1#1 : tensor<3xf32>, tensor<3xi32>
+}
+
+// -----
+
+// CHECK-LABEL: func @dynamic_top_k_failure_k_mismatch
+func.func @dynamic_top_k_failure_k_mismatch(%arg0: tensor<16xf32>) -> (tensor<3xf32>, tensor<3xi32>) {
+  // CHECK: @stablehlo.dynamic_top_k
+  %k = stablehlo.constant dense<4> : tensor<ui64>
+  %1:2 = stablehlo.custom_call @stablehlo.dynamic_top_k(%arg0, %k) : (tensor<16xf32>, tensor<ui64>) -> (tensor<3xf32>, tensor<3xi32>)
+  return %1#0, %1#1 : tensor<3xf32>, tensor<3xi32>
+}
+
+// -----
+
+// dynamic_top_k I1
+// CHECK-LABEL: func @dynamic_top_k_error_operand_not_float
+func.func @dynamic_top_k_error_operand_not_float(%arg0: tensor<16xcomplex<f64>>) -> (tensor<3xcomplex<f64>>, tensor<3xi32>) {
+  // expected-error@+2{{expects operand #0 to be a tensor of integer or floating-point type}}
+  %k = stablehlo.constant dense<3> : tensor<ui64>
+  %1:2 = stablehlo.custom_call @stablehlo.dynamic_top_k(%arg0, %k) : (tensor<16xcomplex<f64>>, tensor<ui64>) -> (tensor<3xcomplex<f64>>, tensor<3xi32>)
+  return %1#0, %1#1 : tensor<3xcomplex<f64>>, tensor<3xi32>
+}
+
+// -----
+
+// dynamic_top_k I1
+// CHECK-LABEL: func @dynamic_top_k_error_operand_unranked
+func.func @dynamic_top_k_error_operand_unranked(%arg0: tensor<*xf32>) -> (tensor<3xf32>, tensor<3xi32>) {
+  // expected-error@+2{{expects operand #0 to be a tensor of integer or floating-point type of rank at least 1}}
+  %k = stablehlo.constant dense<3> : tensor<ui64>
+  %1:2 = stablehlo.custom_call @stablehlo.dynamic_top_k(%arg0, %k) : (tensor<*xf32>, tensor<ui64>) -> (tensor<3xf32>, tensor<3xi32>)
+  return %1#0, %1#1 : tensor<3xf32>, tensor<3xi32>
+}
+
+// -----
+
+// dynamic_top_k I1
+// CHECK-LABEL: func @dynamic_top_k_error_scalar_operand
+func.func @dynamic_top_k_error_scalar_operand(%arg0: tensor<f32>) -> (tensor<3xf32>, tensor<3xi32>) {
+  // expected-error@+2{{expects operand #0 to be a tensor of integer or floating-point type of rank at least 1}}
+  %k = stablehlo.constant dense<3> : tensor<ui64>
+  %1:2 = stablehlo.custom_call @stablehlo.dynamic_top_k(%arg0, %k) : (tensor<f32>, tensor<ui64>) -> (tensor<3xf32>, tensor<3xi32>)
+  return %1#0, %1#1 : tensor<3xf32>, tensor<3xi32>
+}
+
+// -----
+
+// dynamic_top_k I2
+// CHECK-LABEL: func @dynamic_top_k_error_k_not_integer
+func.func @dynamic_top_k_error_k_not_integer(%arg0: tensor<16xf32>) -> (tensor<3xf32>, tensor<3xi32>) {
+  // expected-error@+2{{expects k (operand #1) to be a 0-dimensional tensor of integer or index type}}
+  %k = stablehlo.constant dense<3.> : tensor<f32>
+  %1:2 = stablehlo.custom_call @stablehlo.dynamic_top_k(%arg0, %k) : (tensor<16xf32>, tensor<f32>) -> (tensor<3xf32>, tensor<3xi32>)
+  return %1#0, %1#1 : tensor<3xf32>, tensor<3xi32>
+}
+
+// -----
+
+// dynamic_top_k I2
+// CHECK-LABEL: func @dynamic_top_k_error_k_not_scalar
+func.func @dynamic_top_k_error_k_not_scalar(%arg0: tensor<16xf32>) -> (tensor<3xf32>, tensor<3xi32>) {
+  // expected-error@+2{{expects k (operand #1) to be a 0-dimensional tensor of integer or index type}}
+  %k = stablehlo.constant dense<3> : tensor<1xui64>
+  %1:2 = stablehlo.custom_call @stablehlo.dynamic_top_k(%arg0, %k) : (tensor<16xf32>, tensor<1xui64>) -> (tensor<3xf32>, tensor<3xi32>)
+  return %1#0, %1#1 : tensor<3xf32>, tensor<3xi32>
+}
+
+// -----
+
+// dynamic_top_k O1
+// CHECK-LABEL: func @dynamic_top_k_error_values_not_float
+func.func @dynamic_top_k_error_values_not_float(%arg0: tensor<16xf32>) -> (tensor<3xcomplex<f64>>, tensor<3xi32>) {
+  // expected-error@+2{{expects values (result #0) to be a tensor of integer or floating-point type}}
+  %k = stablehlo.constant dense<3> : tensor<ui64>
+  %1:2 = stablehlo.custom_call @stablehlo.dynamic_top_k(%arg0, %k) : (tensor<16xf32>, tensor<ui64>) -> (tensor<3xcomplex<f64>>, tensor<3xi32>)
+  return %1#0, %1#1 : tensor<3xcomplex<f64>>, tensor<3xi32>
+}
+
+// -----
+
+// dynamic_top_k O2
+// CHECK-LABEL: func @dynamic_top_k_error_indices_not_i32
+func.func @dynamic_top_k_error_indices_not_i32(%arg0: tensor<16xf32>) -> (tensor<3xf32>, tensor<3xi64>) {
+  // expected-error@+2{{expects indices (result #1) to be a tensor of si32}}
+  %k = stablehlo.constant dense<3> : tensor<ui64>
+  %1:2 = stablehlo.custom_call @stablehlo.dynamic_top_k(%arg0, %k) : (tensor<16xf32>, tensor<ui64>) -> (tensor<3xf32>, tensor<3xi64>)
+  return %1#0, %1#1 : tensor<3xf32>, tensor<3xi64>
+}
+
+// -----
+
+// dynamic_top_k C1
+// CHECK-LABEL: func @dynamic_top_k_error_values_bad_rank
+func.func @dynamic_top_k_error_values_bad_rank(%arg0: tensor<16xf32>) -> (tensor<3x4xf32>, tensor<3xi32>) {
+  // expected-error@+2{{expects the values shape to match the operand shape in all but the last dimension}}
+  %k = stablehlo.constant dense<3> : tensor<ui64>
+  %1:2 = stablehlo.custom_call @stablehlo.dynamic_top_k(%arg0, %k) : (tensor<16xf32>, tensor<ui64>) -> (tensor<3x4xf32>, tensor<3xi32>)
+  return %1#0, %1#1 : tensor<3x4xf32>, tensor<3xi32>
+}
+
+// -----
+
+// dynamic_top_k C2
+// CHECK-LABEL: func @dynamic_top_k_error_values_bad_element_type
+func.func @dynamic_top_k_error_values_bad_element_type(%arg0: tensor<16xf32>) -> (tensor<3xf64>, tensor<3xi32>) {
+  // expected-error@+2{{expects the values element type to be the same as the operand element type}}
+  %k = stablehlo.constant dense<3> : tensor<ui64>
+  %1:2 = stablehlo.custom_call @stablehlo.dynamic_top_k(%arg0, %k) : (tensor<16xf32>, tensor<ui64>) -> (tensor<3xf64>, tensor<3xi32>)
+  return %1#0, %1#1 : tensor<3xf64>, tensor<3xi32>
+}
+
+// -----
+
+// dynamic_top_k C3
+// CHECK-LABEL: func @dynamic_top_k_error_values_last_dim_too_large
+func.func @dynamic_top_k_error_values_last_dim_too_large(%arg0: tensor<16xf32>) -> (tensor<17xf32>, tensor<3xi32>) {
+  // expected-error@+2{{expects the values last dimension to have size at least as large as operand last dimension}}
+  %k = stablehlo.constant dense<17> : tensor<ui64>
+  %1:2 = stablehlo.custom_call @stablehlo.dynamic_top_k(%arg0, %k) : (tensor<16xf32>, tensor<ui64>) -> (tensor<17xf32>, tensor<3xi32>)
+  return %1#0, %1#1 : tensor<17xf32>, tensor<3xi32>
+}
+
+// -----
+
+// dynamic_top_k C4
+// CHECK-LABEL: func @dynamic_top_k_error_indices_shape_mismatch
+func.func @dynamic_top_k_error_indices_shape_mismatch(%arg0: tensor<16xf32>) -> (tensor<3xf32>, tensor<4xi32>) {
+  // expected-error@+2{{expects the indices shape to match the values shape}}
+  %k = stablehlo.constant dense<3> : tensor<ui64>
+  %1:2 = stablehlo.custom_call @stablehlo.dynamic_top_k(%arg0, %k) : (tensor<16xf32>, tensor<ui64>) -> (tensor<3xf32>, tensor<4xi32>)
+  return %1#0, %1#1 : tensor<3xf32>, tensor<4xi32>
+}
diff --ruN a/stablehlo/stablehlo/experimental/tests/stablehlo_refine_shapes.mlir b/stablehlo/stablehlo/experimental/tests/stablehlo_refine_shapes.mlir
--- stablehlo/stablehlo/experimental/tests/stablehlo_refine_shapes.mlir
+++ stablehlo/stablehlo/experimental/tests/stablehlo_refine_shapes.mlir
@@ -0,0 +1,42 @@
+// RUN: experimental-stablehlo-opt --experimental-stablehlo-refine-shapes --split-input-file --verify-diagnostics %s | FileCheck %s
+
+// CHECK-LABEL: @main
+func.func @main(%arg0: tensor<3x2xf32>, %arg1: tensor<f32>) -> tensor<?x?xf32> {
+  // CHECK: stablehlo.dynamic_reduce_window{{.*}} -> tensor<2x2xf32>
+  %0 = stablehlo.constant dense<[2, 1]> : tensor<2xi64>
+  %1 = stablehlo.constant dense<[4, 1]> : tensor<2xi64>
+  %2 = stablehlo.constant dense<[2, 1]> : tensor<2xi64>
+  %3 = stablehlo.constant dense<[3, 1]> : tensor<2xi64>
+  %4 = stablehlo.constant dense<[[2, 1], [0, 0]]> : tensor<2x2xi64>
+  %5 = stablehlo.custom_call @stablehlo.dynamic_reduce_window(%arg0, %arg1, %0, %1, %2, %3, %4) {
+    called_computations = [@dynamic_reduce_window0]
+  } : (tensor<3x2xf32>, tensor<f32>, tensor<2xi64>, tensor<2xi64>, tensor<2xi64>, tensor<2xi64>, tensor<2x2xi64>) -> tensor<?x?xf32>
+  func.return %5 : tensor<?x?xf32>
+}
+
+func.func private @dynamic_reduce_window0(%arg0: tensor<f32>, %arg1: tensor<f32>) -> tensor<f32> {
+  %0 = stablehlo.add %arg0, %arg1 : tensor<f32>
+  func.return %0 : tensor<f32>
+}
+
+// -----
+
+// CHECK-LABEL: @refine_dynamic_rng_bit_generator
+func.func @refine_dynamic_rng_bit_generator(%arg0: tensor<2xui64>) -> (tensor<?xui64>, tensor<?x?xf32>) {
+  // CHECK: stablehlo.dynamic_rng_bit_generator{{.*}} -> (tensor<2xui64>, tensor<1x4xf32>)
+  %0 = stablehlo.constant dense<[1, 4]> : tensor<2xi64>
+  %1:2 = stablehlo.custom_call @stablehlo.dynamic_rng_bit_generator(%arg0, %0) {
+    rng_algorithm = #stablehlo<rng_algorithm DEFAULT>
+  } : (tensor<2xui64>, tensor<2xi64>) -> (tensor<?xui64>, tensor<?x?xf32>)
+  func.return %1#0, %1#1 : tensor<?xui64>, tensor<?x?xf32>
+}
+
+// -----
+
+// CHECK-LABEL: func @refine_dynamic_top_k
+func.func @refine_dynamic_top_k(%arg0: tensor<16xf32>) -> (tensor<?xf32>, tensor<?xi32>) {
+  // CHECK: stablehlo.dynamic_top_k{{.*}} -> (tensor<4xf32>, tensor<4xi32>)
+  %k = stablehlo.constant dense<4> : tensor<ui64>
+  %1:2 = stablehlo.custom_call @stablehlo.dynamic_top_k(%arg0, %k) : (tensor<16xf32>, tensor<ui64>) -> (tensor<?xf32>, tensor<?xi32>)
+  return %1#0, %1#1 : tensor<?xf32>, tensor<?xi32>
+}
diff --ruN a/stablehlo/stablehlo/experimental/tools/CMakeLists.txt b/stablehlo/stablehlo/experimental/tools/CMakeLists.txt
--- stablehlo/stablehlo/experimental/tools/CMakeLists.txt
+++ stablehlo/stablehlo/experimental/tools/CMakeLists.txt
@@ -0,0 +1,41 @@
+# Copyright 2020 The TensorFlow Authors. All Rights Reserved.
+# Copyright 2023 The StableHLO Authors.
+#
+# Licensed under the Apache License, Version 2.0 (the "License");
+# you may not use this file except in compliance with the License.
+# You may obtain a copy of the License at
+#
+#      https://www.apache.org/licenses/LICENSE-2.0
+#
+# Unless required by applicable law or agreed to in writing, software
+# distributed under the License is distributed on an "AS IS" BASIS,
+# WITHOUT WARRANTIES OR CONDITIONS OF ANY KIND, either express or implied.
+# See the License for the specific language governing permissions and
+# limitations under the License.
+
+set(LLVM_OPTIONAL_SOURCES
+  StablehloOptMain.cpp
+)
+
+# stablehlo-opt
+get_property(dialect_libs GLOBAL PROPERTY MLIR_DIALECT_LIBS)
+get_property(conversion_libs GLOBAL PROPERTY MLIR_CONVERSION_LIBS)
+get_property(extension_libs GLOBAL PROPERTY MLIR_EXTENSION_LIBS)
+set(LIBS
+        ${dialect_libs}
+        ${conversion_libs}
+        ${extension_libs}
+        ExperimentalStablehloPasses
+        MLIROptLib
+        StablehloRegister
+        StablehloTestUtils
+        StablehloPasses
+        InterpreterOps
+        StablehloTOSATransforms
+        )
+add_llvm_executable(experimental-stablehlo-opt StablehloOptMain.cpp)
+llvm_update_compile_flags(experimental-stablehlo-opt)
+target_link_libraries(experimental-stablehlo-opt PRIVATE ${LIBS})
+
+mlir_check_all_link_libraries(experimental-stablehlo-opt)
+
diff --ruN a/stablehlo/stablehlo/experimental/tools/StablehloOptMain.cpp b/stablehlo/stablehlo/experimental/tools/StablehloOptMain.cpp
--- stablehlo/stablehlo/experimental/tools/StablehloOptMain.cpp
+++ stablehlo/stablehlo/experimental/tools/StablehloOptMain.cpp
@@ -0,0 +1,46 @@
+/* Copyright 2023 The StableHLO Authors.
+
+Licensed under the Apache License, Version 2.0 (the "License");
+you may not use this file except in compliance with the License.
+You may obtain a copy of the License at
+
+    http://www.apache.org/licenses/LICENSE-2.0
+
+Unless required by applicable law or agreed to in writing, software
+distributed under the License is distributed on an "AS IS" BASIS,
+WITHOUT WARRANTIES OR CONDITIONS OF ANY KIND, either express or implied.
+See the License for the specific language governing permissions and
+limitations under the License.
+==============================================================================*/
+
+#include "mlir/Dialect/Tosa/IR/TosaOps.h"
+#include "mlir/Dialect/Tosa/Transforms/Passes.h"
+#include "mlir/InitAllDialects.h"
+#include "mlir/InitAllExtensions.h"
+#include "mlir/InitAllPasses.h"
+#include "mlir/Tools/mlir-opt/MlirOptMain.h"
+#include "stablehlo/conversions/tosa/transforms/Passes.h"
+#include "stablehlo/dialect/Register.h"
+#include "stablehlo/experimental/transforms/Passes.h"
+#include "stablehlo/reference/InterpreterOps.h"
+#include "stablehlo/tests/TestUtils.h"
+#include "stablehlo/transforms/Passes.h"
+
+int main(int argc, char **argv) {
+  mlir::registerAllPasses();
+  mlir::hlo::registerAllTestPasses();
+  mlir::stablehlo::registerPassPipelines();
+  mlir::stablehlo::registerPasses();
+  mlir::stablehlo::experimental::registerPasses();
+  mlir::tosa::registerStablehloLegalizeToTosaPassPass();
+  mlir::tosa::registerStablehloPrepareForTosaPassPass();
+
+  mlir::DialectRegistry registry;
+  mlir::registerAllDialects(registry);
+  mlir::registerAllExtensions(registry);
+  mlir::stablehlo::registerAllDialects(registry);
+  registry.insert<mlir::stablehlo::interpreter::InterpreterDialect>();
+
+  return failed(
+      mlir::MlirOptMain(argc, argv, "Experimental StableHLO optimizer driver\n", registry));
+}
diff --ruN a/stablehlo/stablehlo/experimental/transforms/CMakeLists.txt b/stablehlo/stablehlo/experimental/transforms/CMakeLists.txt
--- stablehlo/stablehlo/experimental/transforms/CMakeLists.txt
+++ stablehlo/stablehlo/experimental/transforms/CMakeLists.txt
@@ -0,0 +1,40 @@
+# Copyright 2023 The StableHLO Authors.
+#
+# Licensed under the Apache License, Version 2.0 (the "License");
+# you may not use this file except in compliance with the License.
+# You may obtain a copy of the License at
+#
+#      https://www.apache.org/licenses/LICENSE-2.0
+#
+# Unless required by applicable law or agreed to in writing, software
+# distributed under the License is distributed on an "AS IS" BASIS,
+# WITHOUT WARRANTIES OR CONDITIONS OF ANY KIND, either express or implied.
+# See the License for the specific language governing permissions and
+# limitations under the License.
+
+set(LLVM_TARGET_DEFINITIONS Passes.td)
+mlir_tablegen(Passes.h.inc -gen-pass-decls)
+add_public_tablegen_target(ExperimentalPassesIncGen)
+
+add_mlir_dialect_library(ExperimentalStablehloPasses
+  PARTIAL_SOURCES_INTENDED
+  ChloRecomposeOps.cpp
+  StablehloCanonicalizeDynamism.cpp
+  StablehloRefineShapes.cpp
+
+  DEPENDS
+  ExperimentalPassesIncGen
+
+  LINK_LIBS PUBLIC
+  ChloOps
+  MLIRFuncDialect
+  MLIRIR
+  MLIRInferTypeOpInterface
+  MLIRSupport
+  MLIRTransformUtils
+  ExperimentalStablehloOps
+  StablehloBase
+  StablehloOps
+  StablehloPasses
+  StablehloTypeInference
+)
diff --ruN a/stablehlo/stablehlo/experimental/transforms/ChloRecomposeOps.cpp b/stablehlo/stablehlo/experimental/transforms/ChloRecomposeOps.cpp
--- stablehlo/stablehlo/experimental/transforms/ChloRecomposeOps.cpp
+++ stablehlo/stablehlo/experimental/transforms/ChloRecomposeOps.cpp
@@ -0,0 +1,180 @@
+/* Copyright 2024 The StableHLO Authors.
+Licensed under the Apache License, Version 2.0 (the "License");
+you may not use this file except in compliance with the License.
+You may obtain a copy of the License at
+
+    http://www.apache.org/licenses/LICENSE-2.0
+
+Unless required by applicable law or agreed to in writing, software
+distributed under the License is distributed on an "AS IS" BASIS,
+WITHOUT WARRANTIES OR CONDITIONS OF ANY KIND, either express or implied.
+See the License for the specific language governing permissions and
+limitations under the License.
+==============================================================================*/
+
+#include <cstdint>
+#include <functional>
+
+#include "llvm/ADT/SmallVector.h"
+#include "llvm/Support/Casting.h"
+#include "mlir/Dialect/Func/IR/FuncOps.h"
+#include "mlir/IR/Attributes.h"
+#include "mlir/IR/BuiltinAttributes.h"
+#include "mlir/IR/PatternMatch.h"
+#include "mlir/Pass/PassManager.h"
+#include "mlir/Support/LogicalResult.h"
+#include "mlir/Transforms/GreedyPatternRewriteDriver.h"
+#include "stablehlo/dialect/ChloOps.h"
+#include "stablehlo/dialect/StablehloOps.h"
+#include "stablehlo/experimental/dialect/StablehloOps.h"
+#include "stablehlo/experimental/transforms/Passes.h"
+#include "stablehlo/transforms/Passes.h"
+
+namespace mlir {
+namespace stablehlo {
+namespace experimental {
+
+#define GEN_PASS_DEF_CHLORECOMPOSEOPSPASS
+#include "stablehlo/experimental/transforms/Passes.h.inc"
+
+namespace {
+
+FailureOr<DictionaryAttr> getCustomCallOpAttributes(CustomCallOp op,
+                                                    PatternRewriter& rewriter) {
+  auto attrs = llvm::dyn_cast_or_null<DictionaryAttr>(
+      op->getDiscardableAttr("mhlo.attributes"));
+  if (!attrs)
+    return rewriter.notifyMatchFailure(
+        op, "Expected mhlo.attributes dictionary attribute.");
+  return attrs;
+}
+
+LogicalResult verifyCustomCallOpAttributes(
+    CustomCallOp op, PatternRewriter& rewriter,
+    std::function<LogicalResult(NamedAttribute)> verifyFn) {
+  auto attrs = getCustomCallOpAttributes(op, rewriter);
+  if (failed(attrs)) return failure();
+
+  for (auto attr : attrs->getValue()) {
+    if (failed(verifyFn(attr))) return failure();
+  }
+  return success();
+}
+
+// Experimental and public ops in MHLO that do not exist yet in StableHLO
+// can be encoded as a StableHLO CustomCallOp to allow round-tripping
+// between dialects. Some of these ops are CHLO ops that are accelerated by XLA.
+// For these ops we can recompose to CHLO.
+//
+// Example:
+//  %0 = stablehlo.custom_call @mhlo.topk(...) {...}
+//  ==>
+//   %0 = "chlo.topk"(...) {...}
+template <typename OpType>
+LogicalResult recomposeChloOpFromCustomCall(stablehlo::CustomCallOp op,
+                                            PatternRewriter& rewriter) {
+  // Only call_target_name, backend_config, called_computations, mhlo.version,
+  // and mhlo.attributes are compatible with the extensibility protocol.
+  auto isSupportedAttrName = [](NamedAttribute attr) {
+    auto name = attr.getName();
+    return name == "call_target_name" || name == "backend_config" ||
+           name == "called_computations" || name == "mhlo.attributes" ||
+           name == "mhlo.version";
+  };
+  if (!llvm::all_of(op->getAttrs(), isSupportedAttrName) ||
+      !op.getBackendConfig().empty()) {
+    return rewriter.notifyMatchFailure(
+        op, "CHLO Recompose custom call did not have required attributes.");
+  }
+  if (!op.getCalledComputations().empty())
+    return rewriter.notifyMatchFailure(op, "Ops with regions not supported.");
+
+  auto attrs = getCustomCallOpAttributes(op, rewriter);
+  if (failed(attrs)) return failure();
+
+  rewriter.replaceOpWithNewOp<OpType>(op, op->getResultTypes(),
+                                      op->getOperands(), attrs->getValue());
+  return success();
+}
+
+struct TopKOpRecomposePattern : public OpRewritePattern<CustomCallOp> {
+  using OpRewritePattern::OpRewritePattern;
+  LogicalResult matchAndRewrite(CustomCallOp op,
+                                PatternRewriter& rewriter) const override {
+    if (op.getCallTargetName() != "mhlo.topk") return failure();
+    auto res = verifyCustomCallOpAttributes(
+        op, rewriter, [&](NamedAttribute attr) -> LogicalResult {
+          if (attr.getName() != "largest") return success();
+          if (cast<BoolAttr>(attr.getValue()).getValue() == false)
+            return rewriter.notifyMatchFailure(
+                op, "largest = false is not supported.");
+          return success();
+        });
+    if (failed(res)) return failure();
+    return recomposeChloOpFromCustomCall<chlo::TopKOp>(op, rewriter);
+  }
+};
+
+struct TanOpRecomposePattern : public OpRewritePattern<CustomCallOp> {
+  using OpRewritePattern::OpRewritePattern;
+  LogicalResult matchAndRewrite(CustomCallOp op,
+                                PatternRewriter& rewriter) const override {
+    if (op.getCallTargetName() != "mhlo.tan") return failure();
+    return recomposeChloOpFromCustomCall<chlo::TanOp>(op, rewriter);
+  }
+};
+
+struct ErfOpRecomposePattern : public OpRewritePattern<CustomCallOp> {
+  using OpRewritePattern::OpRewritePattern;
+  LogicalResult matchAndRewrite(CustomCallOp op,
+                                PatternRewriter& rewriter) const override {
+    if (op.getCallTargetName() != "mhlo.erf") return failure();
+    return recomposeChloOpFromCustomCall<chlo::ErfOp>(op, rewriter);
+  }
+};
+
+}  // namespace
+
+struct ChloRecomposeOpsPass
+    : public impl::ChloRecomposeOpsPassBase<ChloRecomposeOpsPass> {
+  using ChloRecomposeOpsPassBase::ChloRecomposeOpsPassBase;
+
+  void runOnOperation() override {
+    // Do a single traversal to recompose CustomCallOp to CHLO ops.
+    GreedyRewriteConfig config;
+    config.useTopDownTraversal = true;
+    config.enableRegionSimplification = true;
+    config.maxIterations = 1;
+    config.maxNumRewrites = GreedyRewriteConfig::kNoLimit;
+    config.strictMode = GreedyRewriteStrictness::ExistingOps;
+
+    RewritePatternSet patterns(&getContext());
+    patterns.add<TopKOpRecomposePattern>(&getContext());
+    patterns.add<TanOpRecomposePattern>(&getContext());
+    patterns.add<ErfOpRecomposePattern>(&getContext());
+
+    // Only apply to CustomCallOps
+    auto moduleOp = getOperation();
+    llvm::SmallVector<Operation*> candidateOps;
+    moduleOp.walk([&](CustomCallOp op) { candidateOps.push_back(op); });
+
+    if (failed(applyOpPatternsAndFold(candidateOps, std::move(patterns),
+                                      config))) {
+      moduleOp.emitError("Failed to converge ChloRecomposeOps in ")
+          << config.maxIterations << " iterations";
+      return signalPassFailure();
+    }
+  }
+};
+
+void createChloLegalizeToStablehloPipeline(OpPassManager& pm) {
+  pm.addPass(mlir::stablehlo::experimental::createChloRecomposeOpsPass());
+  pm.addNestedPass<mlir::func::FuncOp>(
+      mlir::stablehlo::createChloLegalizeToStablehloPass());
+  pm.addNestedPass<mlir::func::FuncOp>(
+      mlir::stablehlo::createShapeLegalizeToStablehloPass());
+}
+
+}  // namespace experimental
+}  // namespace stablehlo
+}  // namespace mlir
diff --ruN a/stablehlo/stablehlo/experimental/transforms/Passes.h b/stablehlo/stablehlo/experimental/transforms/Passes.h
--- stablehlo/stablehlo/experimental/transforms/Passes.h
+++ stablehlo/stablehlo/experimental/transforms/Passes.h
@@ -0,0 +1,38 @@
+/* Copyright 2023 The StableHLO Authors.
+
+Licensed under the Apache License, Version 2.0 (the "License");
+you may not use this file except in compliance with the License.
+You may obtain a copy of the License at
+
+    http://www.apache.org/licenses/LICENSE-2.0
+
+Unless required by applicable law or agreed to in writing, software
+distributed under the License is distributed on an "AS IS" BASIS,
+WITHOUT WARRANTIES OR CONDITIONS OF ANY KIND, either express or implied.
+See the License for the specific language governing permissions and
+limitations under the License.
+==============================================================================*/
+
+#ifndef STABLEHLO_EXPERIMENTAL_TRANSFORMS_PASSES_H
+#define STABLEHLO_EXPERIMENTAL_TRANSFORMS_PASSES_H
+
+#include <memory>
+
+#include "mlir/Pass/Pass.h"
+#include "mlir/Transforms/DialectConversion.h"
+
+namespace mlir {
+namespace stablehlo {
+namespace experimental {
+
+#define GEN_PASS_DECL
+#define GEN_PASS_REGISTRATION
+#include "stablehlo/experimental/transforms/Passes.h.inc"
+
+void createChloLegalizeToStablehloPipeline(OpPassManager &pm);
+
+}  // namespace experimental
+}  // namespace stablehlo
+}  // namespace mlir
+
+#endif  // STABLEHLO_EXPERIMENTAL_TRANSFORMS_PASSES_H
diff --ruN a/stablehlo/stablehlo/experimental/transforms/Passes.td b/stablehlo/stablehlo/experimental/transforms/Passes.td
--- stablehlo/stablehlo/experimental/transforms/Passes.td
+++ stablehlo/stablehlo/experimental/transforms/Passes.td
@@ -0,0 +1,39 @@
+/* Copyright 2023 The StableHLO Authors.
+
+Licensed under the Apache License, Version 2.0 (the "License");
+you may not use this file except in compliance with the License.
+You may obtain a copy of the License at
+
+    http://www.apache.org/licenses/LICENSE-2.0
+
+Unless required by applicable law or agreed to in writing, software
+distributed under the License is distributed on an "AS IS" BASIS,
+WITHOUT WARRANTIES OR CONDITIONS OF ANY KIND, either express or implied.
+See the License for the specific language governing permissions and
+limitations under the License.
+==============================================================================*/
+
+include "mlir/Pass/PassBase.td"
+
+def StablehloCanonicalizeDynamismPass : Pass<"experimental-stablehlo-canonicalize-dynamism", "func::FuncOp"> {
+  let summary = "(Experimental) Canonicalizes dynamic StableHLO ops into static ops.";
+  let description = [{
+    Experimental version of the --stablehlo-canonicalize-dynamism pass.
+  }];
+  let dependentDialects = ["mlir::chlo::ChloDialect"];
+}
+
+def StablehloRefineShapesPass : Pass<"experimental-stablehlo-refine-shapes", "ModuleOp"> {
+  let summary = "(Experimental) Refines shapes across a StableHLO program.";
+  let description = [{
+    Experimental version of the --stablehlo-refine-shapes pass.
+  }];
+}
+
+def ChloRecomposeOpsPass : Pass<"experimental-chlo-recompose-ops", "ModuleOp"> {
+  let summary = "(Experimental) Recompose CHLO ops serialized as custom calls.";
+  let description = [{
+    Experimental version of CHLO serialization support.
+  }];
+  let dependentDialects = ["chlo::ChloDialect"];
+}
diff --ruN a/stablehlo/stablehlo/experimental/transforms/StablehloCanonicalizeDynamism.cpp b/stablehlo/stablehlo/experimental/transforms/StablehloCanonicalizeDynamism.cpp
--- stablehlo/stablehlo/experimental/transforms/StablehloCanonicalizeDynamism.cpp
+++ stablehlo/stablehlo/experimental/transforms/StablehloCanonicalizeDynamism.cpp
@@ -0,0 +1,171 @@
+/* Copyright 2019 The TensorFlow Authors. All Rights Reserved.
+   Copyright 2023 The StableHLO Authors.
+Licensed under the Apache License, Version 2.0 (the "License");
+you may not use this file except in compliance with the License.
+You may obtain a copy of the License at
+
+    http://www.apache.org/licenses/LICENSE-2.0
+
+Unless required by applicable law or agreed to in writing, software
+distributed under the License is distributed on an "AS IS" BASIS,
+WITHOUT WARRANTIES OR CONDITIONS OF ANY KIND, either express or implied.
+See the License for the specific language governing permissions and
+limitations under the License.
+==============================================================================*/
+
+#include <cstdint>
+
+#include "llvm/ADT/STLExtras.h"
+#include "llvm/ADT/SmallVector.h"
+#include "mlir/Dialect/Func/IR/FuncOps.h"
+#include "mlir/IR/PatternMatch.h"
+#include "mlir/Interfaces/InferTypeOpInterface.h"
+#include "mlir/Support/LogicalResult.h"
+#include "mlir/Transforms/GreedyPatternRewriteDriver.h"
+#include "stablehlo/dialect/ChloOps.h"
+#include "stablehlo/dialect/StablehloOps.h"
+#include "stablehlo/experimental/dialect/StablehloOps.h"
+#include "stablehlo/experimental/transforms/Passes.h"
+#include "stablehlo/transforms/Passes.h"
+
+namespace mlir {
+namespace stablehlo {
+namespace experimental {
+
+#define GEN_PASS_DEF_STABLEHLOCANONICALIZEDYNAMISMPASS
+#include "stablehlo/experimental/transforms/Passes.h.inc"
+
+namespace {
+
+struct CanonicalizeDynamicReduceWindowOpPattern
+    : public OpRewritePattern<CustomCallOp> {
+  using OpRewritePattern::OpRewritePattern;
+  LogicalResult matchAndRewrite(CustomCallOp impl,
+                                PatternRewriter& rewriter) const override {
+    auto maybeOp = getDynamicReduceWindowOp(impl);
+    if (!maybeOp || failed(maybeOp->verify())) return failure();
+    DynamicReduceWindowOpAdaptor op = *maybeOp;
+
+    // ReduceWindowOp supports dynamic shapes for operands and results, so we
+    // don't check for that here unlike in some other patterns in this pass.
+    SmallVector<int64_t> windowDimensions, windowStrides, baseDilations,
+        windowDilations, padding;
+    if (failed(hlo::matchInts(op.getWindowDimensions(), windowDimensions)))
+      return rewriter.notifyMatchFailure(op,
+                                         "expected static window_dimensions");
+    if (failed(hlo::matchInts(op.getWindowStrides(), windowStrides)))
+      return rewriter.notifyMatchFailure(op, "expected static window_strides");
+    if (failed(hlo::matchInts(op.getBaseDilations(), baseDilations)))
+      return rewriter.notifyMatchFailure(op, "expected static base_dilations");
+    if (failed(hlo::matchInts(op.getWindowDilations(), windowDilations)))
+      return rewriter.notifyMatchFailure(op,
+                                         "expected static window_dilations");
+    if (failed(hlo::matchInts(op.getPadding(), padding)))
+      return rewriter.notifyMatchFailure(op, "expected static padding");
+    auto newOp = rewriter.create<ReduceWindowOp>(
+        op->getLoc(), op->getResultTypes(), op.getInputs(), op.getInitValues(),
+        rewriter.getDenseI64ArrayAttr(windowDimensions),
+        rewriter.getDenseI64ArrayAttr(windowStrides),
+        rewriter.getDenseI64ArrayAttr(baseDilations),
+        rewriter.getDenseI64ArrayAttr(windowDilations),
+        hlo::getPaddingAttr(&rewriter, padding));
+
+    // Inline the called computation into newOp.
+    // This is somewhat annoying because we also have to rewrite the original
+    // func::ReturnOp into stablehlo::ReturnOp.
+    rewriter.cloneRegionBefore(op.getBody(), newOp.getBody(),
+                               newOp.getBody().end());
+    auto funcReturnOp =
+        cast<func::ReturnOp>(newOp.getBody().front().getTerminator());
+    rewriter.setInsertionPointToEnd(&newOp.getBody().front());
+    rewriter.replaceOpWithNewOp<stablehlo::ReturnOp>(
+        funcReturnOp, funcReturnOp.getOperands());
+    rewriter.replaceOp(op, newOp->getResults());
+    return success();
+  }
+};
+
+struct CanonicalizeDynamicRngBitGeneratorOpPattern
+    : public OpRewritePattern<CustomCallOp> {
+  using OpRewritePattern::OpRewritePattern;
+  LogicalResult matchAndRewrite(CustomCallOp impl,
+                                PatternRewriter& rewriter) const override {
+    auto maybeOp = getDynamicRngBitGeneratorOp(impl);
+    if (!maybeOp || failed(maybeOp->verify())) return failure();
+    DynamicRngBitGeneratorOpAdaptor op = *maybeOp;
+
+    // This pattern ignores and discards the output_shape operand. We rely on
+    // the verifier to make sure that its value is consistent with result type.
+    if (!succeeded(hlo::matchInts(op.getOutputShape())))
+      return rewriter.notifyMatchFailure(op, "expected static output_shape");
+    if (!cast<ShapedType>(op.getOutput().getType()).hasStaticShape())
+      return rewriter.notifyMatchFailure(op, "expected static output type");
+    rewriter.replaceOpWithNewOp<RngBitGeneratorOp>(
+        op, op->getResultTypes(), op.getRngAlgorithm(), op.getInitialState());
+    return success();
+  }
+};
+
+struct CanonicalizeDynamicTopKOpPattern
+    : public OpRewritePattern<CustomCallOp> {
+  using OpRewritePattern::OpRewritePattern;
+  LogicalResult matchAndRewrite(CustomCallOp impl,
+                                PatternRewriter& rewriter) const override {
+    auto maybeOp = getDynamicTopKOp(impl);
+    if (!maybeOp || failed(maybeOp->verify())) return failure();
+    DynamicTopKOpAdaptor op = *maybeOp;
+
+    SmallVector<int64_t> k;
+    if (failed(hlo::matchInts(op.getK(), k)))
+      return rewriter.notifyMatchFailure(impl, "expected constant k");
+
+    // We rely on many of the properties checked by verification.
+    auto valuesType = cast<ShapedType>(op.getValues().getType());
+    auto valuesLastDimSize = valuesType.getShape()[valuesType.getRank() - 1];
+    if (hlo::isDynamicDimSize(valuesLastDimSize) ||
+        valuesLastDimSize != k[0])
+      return rewriter.notifyMatchFailure(
+          op,
+          "expected value of k to match the values last dimension size of "
+          "static values type (result #0)");
+
+    rewriter.replaceOpWithNewOp<chlo::TopKOp>(
+        op, op->getResultTypes(), op.getOperand(), k[0]);
+    return success();
+  }
+};
+
+struct StablehloCanonicalizeDynamismPass
+    : public impl::StablehloCanonicalizeDynamismPassBase<
+          StablehloCanonicalizeDynamismPass> {
+  using StablehloCanonicalizeDynamismPassBase::
+      StablehloCanonicalizeDynamismPassBase;
+
+  void runOnOperation() override {
+    GreedyRewriteConfig config;
+    config.useTopDownTraversal = true;
+    config.enableRegionSimplification = true;
+    config.maxIterations = 2;
+    config.maxNumRewrites = GreedyRewriteConfig::kNoLimit;
+    config.strictMode = GreedyRewriteStrictness::AnyOp;
+
+    RewritePatternSet patterns(&getContext());
+    populateStablehloCanonicalizeDynamismPatterns(&patterns, &getContext());
+    patterns.add<CanonicalizeDynamicReduceWindowOpPattern>(&getContext());
+    patterns.add<CanonicalizeDynamicRngBitGeneratorOpPattern>(&getContext());
+    patterns.add<CanonicalizeDynamicTopKOpPattern>(&getContext());
+
+    auto funcOp = getOperation();
+    if (failed(applyPatternsAndFoldGreedily(funcOp, std::move(patterns),
+                                            config))) {
+      funcOp.emitError("Failed to converge StablehloCanonicalizeDynamism in ")
+          << config.maxIterations << " iterations";
+      return signalPassFailure();
+    }
+  }
+};
+
+}  // namespace
+}  // namespace experimental
+}  // namespace stablehlo
+}  // namespace mlir
diff --ruN a/stablehlo/stablehlo/experimental/transforms/StablehloRefineShapes.cpp b/stablehlo/stablehlo/experimental/transforms/StablehloRefineShapes.cpp
--- stablehlo/stablehlo/experimental/transforms/StablehloRefineShapes.cpp
+++ stablehlo/stablehlo/experimental/transforms/StablehloRefineShapes.cpp
@@ -0,0 +1,170 @@
+/* Copyright 2022 The StableHLO Authors.
+Licensed under the Apache License, Version 2.0 (the "License");
+you may not use this file except in compliance with the License.
+You may obtain a copy of the License at
+
+    http://www.apache.org/licenses/LICENSE-2.0
+
+Unless required by applicable law or agreed to in writing, software
+distributed under the License is distributed on an "AS IS" BASIS,
+WITHOUT WARRANTIES OR CONDITIONS OF ANY KIND, either express or implied.
+See the License for the specific language governing permissions and
+limitations under the License.
+==============================================================================*/
+
+#include "stablehlo/transforms/StablehloRefineShapes.h"
+
+#include <cstdint>
+
+#include "llvm/ADT/SmallVector.h"
+#include "mlir/Dialect/Func/IR/FuncOps.h"
+#include "mlir/IR/PatternMatch.h"
+#include "mlir/Interfaces/InferTypeOpInterface.h"
+#include "mlir/Support/LogicalResult.h"
+#include "mlir/Transforms/GreedyPatternRewriteDriver.h"
+#include "stablehlo/dialect/Base.h"
+#include "stablehlo/dialect/StablehloOps.h"
+#include "stablehlo/dialect/TypeInference.h"
+#include "stablehlo/experimental/dialect/StablehloOps.h"
+#include "stablehlo/experimental/transforms/Passes.h"
+#include "stablehlo/transforms/Passes.h"
+
+namespace mlir {
+namespace stablehlo {
+namespace experimental {
+
+#define GEN_PASS_DEF_STABLEHLOREFINESHAPESPASS
+#include "stablehlo/experimental/transforms/Passes.h.inc"
+
+namespace {
+
+struct RefineDynamicReduceWindowOpPattern
+    : public OpRewritePattern<CustomCallOp> {
+  using OpRewritePattern::OpRewritePattern;
+  LogicalResult matchAndRewrite(CustomCallOp impl,
+                                PatternRewriter& rewriter) const override {
+    auto maybeOp = getDynamicReduceWindowOp(impl);
+    if (!maybeOp || failed(maybeOp->verify())) return failure();
+    DynamicReduceWindowOpAdaptor op = *maybeOp;
+
+    // At the moment, we only support refining return types using fully static
+    // shape values which serves the current use cases well.
+    // Support for partially static shape values is left for future work.
+    SmallVector<int64_t> windowDimensions, windowStrides, baseDilations,
+        windowDilations, padding;
+    if (failed(hlo::matchInts(op.getWindowDimensions(), windowDimensions)))
+      return rewriter.notifyMatchFailure(op,
+                                         "expected constant window_dimensions");
+    if (failed(hlo::matchInts(op.getWindowStrides(), windowStrides)))
+      return rewriter.notifyMatchFailure(op,
+                                         "expected constant window_strides");
+    if (failed(hlo::matchInts(op.getBaseDilations(), baseDilations)))
+      return rewriter.notifyMatchFailure(op,
+                                         "expected constant base_dilations");
+    if (failed(hlo::matchInts(op.getWindowDilations(), windowDilations)))
+      return rewriter.notifyMatchFailure(op,
+                                         "expected constant window_dilations");
+    if (failed(hlo::matchInts(op.getPadding(), padding)))
+      return rewriter.notifyMatchFailure(op, "expected constant padding");
+
+    SmallVector<ShapedTypeComponents> inferredReturnTypes;
+    if (failed(hlo::inferReduceWindowOp(
+            /*location=*/{}, op.getInputs(), op.getInitValues(),
+            llvm::to_vector(rewriter.getI64TensorAttr(windowDimensions)
+                                .getValues<int64_t>()),
+            llvm::to_vector(
+                rewriter.getI64TensorAttr(windowStrides).getValues<int64_t>()),
+            llvm::to_vector(
+                rewriter.getI64TensorAttr(baseDilations).getValues<int64_t>()),
+            llvm::to_vector(rewriter.getI64TensorAttr(windowDilations)
+                                .getValues<int64_t>()),
+            hlo::getPaddingAttr(&rewriter, padding), op.getBody(),
+            inferredReturnTypes)))
+      return rewriter.notifyMatchFailure(op, "inferReduceWindowOp failed");
+    return refineReturnTypes(rewriter, op, inferredReturnTypes);
+  }
+};
+
+struct RefineDynamicRngBitGeneratorOpPattern
+    : public OpRewritePattern<CustomCallOp> {
+  using OpRewritePattern::OpRewritePattern;
+  LogicalResult matchAndRewrite(CustomCallOp impl,
+                                PatternRewriter& rewriter) const override {
+    auto maybeOp = getDynamicRngBitGeneratorOp(impl);
+    if (!maybeOp || failed(maybeOp->verify())) return failure();
+    DynamicRngBitGeneratorOpAdaptor op = *maybeOp;
+
+    // At the moment, we only support refining return types using fully static
+    // shape values which serves the current use cases well.
+    // Support for partially static shape values is left for future work.
+    auto initialStateType = cast<ShapedType>(op.getInitialState().getType());
+    SmallVector<int64_t> outputShape;
+    if (failed(hlo::matchInts(op.getOutputShape(), outputShape)))
+      return rewriter.notifyMatchFailure(op, "expected constant output_shape");
+
+    // We only need to refine the shape of `output` (the second result).
+    // The shape of `output_state` (the first result) is determined by the shape
+    // of `initial_state`, so we ignore it and provide an empty refinement.
+    return refineReturnTypes(rewriter, op, {{initialStateType}, {outputShape}});
+  }
+};
+
+struct RefineDynamicTopKOpPattern : public OpRewritePattern<CustomCallOp> {
+  using OpRewritePattern::OpRewritePattern;
+  LogicalResult matchAndRewrite(CustomCallOp impl,
+                                PatternRewriter& rewriter) const override {
+    auto maybeOp = getDynamicTopKOp(impl);
+    if (!maybeOp || failed(maybeOp->verify())) return failure();
+    DynamicTopKOpAdaptor op = *maybeOp;
+
+    auto operandType = cast<ShapedType>(op.getOperand().getType());
+    SmallVector<int64_t> outputShape(operandType.getShape());
+    SmallVector<int64_t> k;
+    if (failed(hlo::matchInts(op.getK(), k)))
+      return rewriter.notifyMatchFailure(op, "expected constant k");
+
+    outputShape[operandType.getRank() - 1] = k[0];
+    return refineReturnTypes(rewriter, op, {{outputShape}, {outputShape}});
+  }
+};
+
+struct StablehloRefineShapesPass
+    : public impl::StablehloRefineShapesPassBase<StablehloRefineShapesPass> {
+  using StablehloRefineShapesPassBase::StablehloRefineShapesPassBase;
+
+  void runOnOperation() override {
+    auto func = getStablehloRefineShapesTarget(getOperation());
+    if (!func) return signalPassFailure();
+
+    // The algorithm behind this pass consists of a single traversal of the
+    // function. This is sufficient because we only support one function per
+    // program at the moment.
+    // TODO(#1048): Find out why .maxIterations = 1 no longer works.
+    // There have been recent refactors to applyPatternsAndFoldGreedily
+    // upstream, and that might be the reason.
+    GreedyRewriteConfig config;
+    config.useTopDownTraversal = true;
+    config.enableRegionSimplification = true;
+    config.maxIterations = 3;
+    config.maxNumRewrites = GreedyRewriteConfig::kNoLimit;
+    config.strictMode = GreedyRewriteStrictness::AnyOp;
+
+    RewritePatternSet patterns(&getContext());
+    populateStablehloRefineShapesPatterns(&patterns, &getContext());
+    patterns.add<RefineDynamicReduceWindowOpPattern>(&getContext());
+    patterns.add<RefineDynamicRngBitGeneratorOpPattern>(&getContext());
+    patterns.add<RefineDynamicTopKOpPattern>(&getContext());
+    if (failed(
+            applyPatternsAndFoldGreedily(func, std::move(patterns), config))) {
+      func.emitError()
+          << "Greedy rewriter in StablehloRefineShapes does not converge after "
+          << config.maxIterations << " iterations.";
+      return signalPassFailure();
+    }
+  }
+};
+
+}  // namespace
+}  // namespace experimental
+}  // namespace stablehlo
+}  // namespace mlir
diff --ruN a/stablehlo/stablehlo/integrations/python/tests/stablehlo.py b/stablehlo/stablehlo/integrations/python/tests/stablehlo.py
--- stablehlo/stablehlo/integrations/python/tests/stablehlo.py
+++ stablehlo/stablehlo/integrations/python/tests/stablehlo.py
@@ -241,18 +241,18 @@
   # Formatted as (tensor_type, np_value)
   # Program runs arg + arg, which is used for expected value
   tests = [
-    # No numpy types for f8 - skipping fp8 tests
-    ("f16", np.asarray(1, np.float16)),
-    ("f32", np.asarray(2, np.float32)),
-    ("f64", np.asarray(3, np.double)),
-    ("1xi8", np.asarray([4], np.int8)),
-    ("1xi16", np.asarray([5], np.int16)),
-    ("1xi32", np.asarray([-6], np.int32)),
-    # Numpy's uint treated as int by DenseElementsAttr, skipping np.uint tests
-    ("2x2xf16", np.asarray([1, 2, 3, 4], np.float16).reshape(2,2)),
-    ("2x1x2xf16", np.asarray([1, 2, 3, 4], np.float16).reshape(2,1,2)),
-    ("?x?xf16", np.asarray([1, 2, 3, 4], np.float16).reshape(2,2)),
-    ("?x2xf16", np.asarray([1, 2, 3, 4], np.float16).reshape(2,2)),
+      # No numpy types for f8 - skipping fp8 tests
+      ("f16", np.asarray(1, np.float16)),
+      ("f32", np.asarray(2, np.float32)),
+      ("f64", np.asarray(3, np.double)),
+      ("1xi8", np.asarray([4], np.int8)),
+      ("1xi16", np.asarray([5], np.int16)),
+      ("1xi32", np.asarray([-6], np.int32)),
+      # Numpy's uint treated as int by DenseElementsAttr, skipping np.uint tests
+      ("2x2xf16", np.asarray([1, 2, 3, 4], np.float16).reshape(2, 2)),
+      ("2x1x2xf16", np.asarray([1, 2, 3, 4], np.float16).reshape(2, 1, 2)),
+      ("?x?xf16", np.asarray([1, 2, 3, 4], np.float16).reshape(2, 2)),
+      ("?x2xf16", np.asarray([1, 2, 3, 4], np.float16).reshape(2, 2)),
   ]
   for test in tests:
     tensor_type, arg = test
diff --ruN a/stablehlo/stablehlo/tests/ops_stablehlo_quantized.mlir b/stablehlo/stablehlo/tests/ops_stablehlo_quantized.mlir
--- stablehlo/stablehlo/tests/ops_stablehlo_quantized.mlir
+++ stablehlo/stablehlo/tests/ops_stablehlo_quantized.mlir
@@ -1066,146 +1066,6 @@
 
 // -----
 
-func.func @dot_general_hybrid_quantized(%arg0: tensor<2x3x4xf32>, %arg1: tensor<2x3x5x!quant.uniform<i8:f32, 1.0:0>>) -> tensor<2x4x5xf32> {
-  %0 = "stablehlo.dot_general"(%arg0, %arg1) {
-    dot_dimension_numbers = #stablehlo.dot<
-      lhs_batching_dimensions = [0],
-      rhs_batching_dimensions = [0],
-      lhs_contracting_dimensions = [1],
-      rhs_contracting_dimensions = [1]
-    >
-  } : (tensor<2x3x4xf32>, tensor<2x3x5x!quant.uniform<i8:f32, 1.0:0>>) -> tensor<2x4x5xf32>
-  func.return %0 : tensor<2x4x5xf32>
-}
-
-// -----
-
-func.func @dot_general_c14(%arg0: tensor<2x3x4xf32>, %arg1: tensor<2x3x5x!quant.uniform<i8:f32, 1.0:0>>) -> tensor<2x4x5x!quant.uniform<i8:f32, 1.0:17>> {
-  // expected-error@+1 {{rhs should be quantized for quantized operations and is_quantized(lhs)=is_quantized(result) should hold}}
-  %0 = "stablehlo.dot_general"(%arg0, %arg1) {
-    dot_dimension_numbers = #stablehlo.dot<
-      lhs_batching_dimensions = [0],
-      rhs_batching_dimensions = [0],
-      lhs_contracting_dimensions = [1],
-      rhs_contracting_dimensions = [1]
-    >
-  } : (tensor<2x3x4xf32>, tensor<2x3x5x!quant.uniform<i8:f32, 1.0:0>>) -> tensor<2x4x5x!quant.uniform<i8:f32, 1.0:17>>
-  func.return %0 : tensor<2x4x5x!quant.uniform<i8:f32, 1.0:17>>
-}
-
-// -----
-
-func.func @dot_general_c15_per_tensor(%arg0: tensor<2x3x4xf32>, %arg1: tensor<2x3x5x!quant.uniform<i8:f32, 1.0:30>>) -> tensor<2x4x5xf32> {
-  // expected-error@+1 {{Zero point of rhs should be 0}}
-  %0 = "stablehlo.dot_general"(%arg0, %arg1) {
-    dot_dimension_numbers = #stablehlo.dot<
-      lhs_batching_dimensions = [0],
-      rhs_batching_dimensions = [0],
-      lhs_contracting_dimensions = [1],
-      rhs_contracting_dimensions = [1]
-    >
-  } : (tensor<2x3x4xf32>, tensor<2x3x5x!quant.uniform<i8:f32, 1.0:30>>) -> tensor<2x4x5xf32>
-  func.return %0 : tensor<2x4x5xf32>
-}
-
-// -----
-
-func.func @dot_general_c15_per_axis(
-  %arg0: tensor<2x3x4x!quant.uniform<i8:f32, 1.0:17>>,
-  %arg1: tensor<2x3x5x!quant.uniform<i8:f32:0, {0.1:10, 0.1:10}>>) -> tensor<2x4x5x!quant.uniform<i8:f32:0, {0.1:-30, 0.1:-30}>> {
-  // expected-error@+1 {{Zero points of rhs should be 0}}
-  %0 = "stablehlo.dot_general"(%arg0, %arg1) {
-    dot_dimension_numbers = #stablehlo.dot<
-      lhs_batching_dimensions = [0],
-      rhs_batching_dimensions = [0],
-      lhs_contracting_dimensions = [1],
-      rhs_contracting_dimensions = [1]
-    >
-  } : (tensor<2x3x4x!quant.uniform<i8:f32, 1.0:17>>,
-  tensor<2x3x5x!quant.uniform<i8:f32:0, {0.1:10, 0.1:10}>>) -> tensor<2x4x5x!quant.uniform<i8:f32:0, {0.1:-30, 0.1:-30}>>
-  func.return %0 : tensor<2x4x5x!quant.uniform<i8:f32:0, {0.1:-30, 0.1:-30}>>
-}
-
-// -----
-
-func.func @dot_general_c16(
-  %arg0: tensor<2x3x4x!quant.uniform<i8:f32, 1.0:17>>,
-  %arg1: tensor<2x3x5x!quant.uniform<i8:f32:0, {0.1:0, 0.1:0}>>) -> tensor<2x4x5x!quant.uniform<i8:f32:0, {0.1:-30, 0.1:-30, 0.1:-30}>> {
-  // expected-error@+1 {{Quantization dimension of rhs should not be in the contracting dimension of rhs}}
-  %0 = "stablehlo.dot_general"(%arg0, %arg1) {
-    dot_dimension_numbers = #stablehlo.dot<
-      lhs_batching_dimensions = [1],
-      rhs_batching_dimensions = [1],
-      lhs_contracting_dimensions = [0],
-      rhs_contracting_dimensions = [0]
-    >
-  } : (tensor<2x3x4x!quant.uniform<i8:f32, 1.0:17>>,
-  tensor<2x3x5x!quant.uniform<i8:f32:0, {0.1:0, 0.1:0}>>) -> tensor<3x4x5x!quant.uniform<i8:f32:0, {0.1:-30, 0.1:-30, 0.1:-30}>>
-  func.return %0 : tensor<3x4x5x!quant.uniform<i8:f32:0, {0.1:-30, 0.1:-30, 0.1:-30}>>
-}
-
-// -----
-
-func.func @dot_general_c17(%arg0: tensor<2x3x4x!quant.uniform<i16:f32, 1.0:17>>, %arg1: tensor<2x3x5x!quant.uniform<i8:f32, 1.0:0>>) -> tensor<2x4x5x!quant.uniform<i8:f32, 1.0:17>> {
-  // expected-error@+1 {{mismatched lhs and rhs quantization storage types}}
-  %0 = "stablehlo.dot_general"(%arg0, %arg1) {
-    dot_dimension_numbers = #stablehlo.dot<
-      lhs_batching_dimensions = [0],
-      rhs_batching_dimensions = [0],
-      lhs_contracting_dimensions = [1],
-      rhs_contracting_dimensions = [1]
-    >
-  } : (tensor<2x3x4x!quant.uniform<i16:f32, 1.0:17>>, tensor<2x3x5x!quant.uniform<i8:f32, 1.0:0>>) -> tensor<2x4x5x!quant.uniform<i8:f32, 1.0:17>>
-  func.return %0 : tensor<2x4x5x!quant.uniform<i8:f32, 1.0:17>>
-}
-
-// -----
-
-func.func @dot_general_c18(%arg0: tensor<2x3x4x!quant.uniform<i8:f32, 1.0:17>>, %arg1: tensor<2x3x5x!quant.uniform<i8:f16, 1.0:0>>) -> tensor<2x4x5x!quant.uniform<i8:f32, 1.0:17>> {
-  // expected-error@+1 {{mismatched lhs, rhs and result quantization expressed types}}
-  %0 = "stablehlo.dot_general"(%arg0, %arg1) {
-    dot_dimension_numbers = #stablehlo.dot<
-      lhs_batching_dimensions = [0],
-      rhs_batching_dimensions = [0],
-      lhs_contracting_dimensions = [1],
-      rhs_contracting_dimensions = [1]
-    >
-  } : (tensor<2x3x4x!quant.uniform<i8:f32, 1.0:17>>, tensor<2x3x5x!quant.uniform<i8:f16, 1.0:0>>) -> tensor<2x4x5x!quant.uniform<i8:f32, 1.0:17>>
-  func.return %0 : tensor<2x4x5x!quant.uniform<i8:f32, 1.0:17>>
-}
-
-// -----
-
-func.func @dot_general_c19(%arg0: tensor<2x3x4x!quant.uniform<i8:f32, 1.0:17>>, %arg1: tensor<2x3x5x!quant.uniform<i8:f32, 1.0:0>>) -> tensor<2x4x5x!quant.uniform<i8:f32:0, {0.1:-30, 0.1:-30}>> {
-  // expected-error@+1 {{mismatched rhs and result quantization granularity}}
-  %0 = "stablehlo.dot_general"(%arg0, %arg1) {
-    dot_dimension_numbers = #stablehlo.dot<
-      lhs_batching_dimensions = [0],
-      rhs_batching_dimensions = [0],
-      lhs_contracting_dimensions = [1],
-      rhs_contracting_dimensions = [1]
-    >
-  } : (tensor<2x3x4x!quant.uniform<i8:f32, 1.0:17>>, tensor<2x3x5x!quant.uniform<i8:f32, 1.0:0>>) -> tensor<2x4x5x!quant.uniform<i8:f32:0, {0.1:-30, 0.1:-30}>>
-  func.return %0 : tensor<2x4x5x!quant.uniform<i8:f32:0, {0.1:-30, 0.1:-30}>>
-}
-
-// -----
-
-func.func @dot_general_c20(%arg0: tensor<2x3x4xf32>, %arg1: tensor<2x3x5x!quant.uniform<i8:f16, 1.0:0>>) -> tensor<2x4x5xf32> {
-  // expected-error@+1 {{mismatched rhs quantization expressed type and lhs and result element type}}
-  %0 = "stablehlo.dot_general"(%arg0, %arg1) {
-    dot_dimension_numbers = #stablehlo.dot<
-      lhs_batching_dimensions = [0],
-      rhs_batching_dimensions = [0],
-      lhs_contracting_dimensions = [1],
-      rhs_contracting_dimensions = [1]
-    >
-  } : (tensor<2x3x4xf32>, tensor<2x3x5x!quant.uniform<i8:f16, 1.0:0>>) -> tensor<2x4x5xf32>
-  func.return %0 : tensor<2x4x5xf32>
-}
-
-// -----
-
 func.func @quantized_element_type_c8(%arg0: tensor<1x2x!quant.uniform<i8<-128:127>:f32, 1.0:300>>) {
   // expected-error-re@+1 {{operand #0 must be ranked tensor of {{.*}} 4/8/16/32-bit uniform quantized signed integer or 4/8/16/32-bit uniform quantized unsigned integer or 4/8/16/32-bit uniform quantized per axis signed integer or 4/8/16/32-bit uniform quantized per axis unsigned integer values, but got 'tensor<1x2x!quant.uniform<i8:f32, 1.000000e+00:300>>'}}
   %0 = stablehlo.add %arg0,  %arg0 : tensor<1x2x!quant.uniform<i8<-128:127>:f32, 1.0:300>>
diff --ruN a/stablehlo/stablehlo/tests/vhlo/stablehlo_legalize_to_vhlo.0_10_0.mlir b/stablehlo/stablehlo/tests/vhlo/stablehlo_legalize_to_vhlo.0_10_0.mlir
--- stablehlo/stablehlo/tests/vhlo/stablehlo_legalize_to_vhlo.0_10_0.mlir
+++ stablehlo/stablehlo/tests/vhlo/stablehlo_legalize_to_vhlo.0_10_0.mlir
@@ -13,6 +13,7 @@
 // ============ ATTRIBUTES ============
 
 // CHECK-LABEL: "attr_comparison_direction_eq"
+// CHECK-NEXT: (%[[ARG0:.*]]: {{.*}}, %[[ARG1:.*]]: {{.*}})
 func.func @attr_comparison_direction_eq(%arg0: tensor<f32>, %arg1: tensor<f32>) -> tensor<i1> {
   %0 = "stablehlo.compare"(%arg0, %arg1) {
     // CHECK: comparison_direction = #vhlo<comparison_direction_v1 EQ>
@@ -22,6 +23,7 @@
 }
 
 // CHECK-LABEL: "attr_comparison_direction_ne"
+// CHECK-NEXT: (%[[ARG0:.*]]: {{.*}}, %[[ARG1:.*]]: {{.*}})
 func.func @attr_comparison_direction_ne(%arg0: tensor<f32>, %arg1: tensor<f32>) -> tensor<i1> {
   %0 = "stablehlo.compare"(%arg0, %arg1) {
     // CHECK: comparison_direction = #vhlo<comparison_direction_v1 NE>
@@ -31,6 +33,7 @@
 }
 
 // CHECK-LABEL: "attr_comparison_direction_ge"
+// CHECK-NEXT: (%[[ARG0:.*]]: {{.*}}, %[[ARG1:.*]]: {{.*}})
 func.func @attr_comparison_direction_ge(%arg0: tensor<f32>, %arg1: tensor<f32>) -> tensor<i1> {
   %0 = "stablehlo.compare"(%arg0, %arg1) {
     // CHECK: comparison_direction = #vhlo<comparison_direction_v1 GE>
@@ -40,6 +43,7 @@
 }
 
 // CHECK-LABEL: "attr_comparison_direction_gt"
+// CHECK-NEXT: (%[[ARG0:.*]]: {{.*}}, %[[ARG1:.*]]: {{.*}})
 func.func @attr_comparison_direction_gt(%arg0: tensor<f32>, %arg1: tensor<f32>) -> tensor<i1> {
   %0 = "stablehlo.compare"(%arg0, %arg1) {
     // CHECK: comparison_direction = #vhlo<comparison_direction_v1 GT>
@@ -49,6 +53,7 @@
 }
 
 // CHECK-LABEL: "attr_comparison_direction_le"
+// CHECK-NEXT: (%[[ARG0:.*]]: {{.*}}, %[[ARG1:.*]]: {{.*}})
 func.func @attr_comparison_direction_le(%arg0: tensor<f32>, %arg1: tensor<f32>) -> tensor<i1> {
   %0 = "stablehlo.compare"(%arg0, %arg1) {
     // CHECK: comparison_direction = #vhlo<comparison_direction_v1 LE>
@@ -58,6 +63,7 @@
 }
 
 // CHECK-LABEL: "attr_comparison_direction_lt"
+// CHECK-NEXT: (%[[ARG0:.*]]: {{.*}}, %[[ARG1:.*]]: {{.*}})
 func.func @attr_comparison_direction_lt(%arg0: tensor<f32>, %arg1: tensor<f32>) -> tensor<i1> {
   %0 = "stablehlo.compare"(%arg0, %arg1) {
     // CHECK: comparison_direction = #vhlo<comparison_direction_v1 LT>
@@ -67,6 +73,7 @@
 }
 
 // CHECK-LABEL: "attr_comparison_type_notype"
+// CHECK-NEXT: (%[[ARG0:.*]]: {{.*}}, %[[ARG1:.*]]: {{.*}})
 func.func @attr_comparison_type_notype(%arg0: tensor<f32>, %arg1: tensor<f32>) -> tensor<i1> {
   %0 = "stablehlo.compare"(%arg0, %arg1) {
     comparison_direction = #stablehlo<comparison_direction EQ>
@@ -76,6 +83,7 @@
 }
 
 // CHECK-LABEL: "attr_comparison_type_float"
+// CHECK-NEXT: (%[[ARG0:.*]]: {{.*}}, %[[ARG1:.*]]: {{.*}})
 func.func @attr_comparison_type_float(%arg0: tensor<f32>, %arg1: tensor<f32>) -> tensor<i1> {
   %0 = "stablehlo.compare"(%arg0, %arg1) {
     comparison_direction = #stablehlo<comparison_direction EQ>,
@@ -86,6 +94,7 @@
 }
 
 // CHECK-LABEL: "attr_comparison_type_totalorder"
+// CHECK-NEXT: (%[[ARG0:.*]]: {{.*}}, %[[ARG1:.*]]: {{.*}})
 func.func @attr_comparison_type_totalorder(%arg0: tensor<f32>, %arg1: tensor<f32>) -> tensor<i1> {
   %0 = "stablehlo.compare"(%arg0, %arg1) {
     comparison_direction = #stablehlo<comparison_direction EQ>,
@@ -96,6 +105,7 @@
 }
 
 // CHECK-LABEL: "attr_comparison_type_signed"
+// CHECK-NEXT: (%[[ARG0:.*]]: {{.*}}, %[[ARG1:.*]]: {{.*}})
 func.func @attr_comparison_type_signed(%arg0: tensor<f32>, %arg1: tensor<f32>) -> tensor<i1> {
   %0 = "stablehlo.compare"(%arg0, %arg1) {
     comparison_direction = #stablehlo<comparison_direction EQ>,
@@ -106,6 +116,7 @@
 }
 
 // CHECK-LABEL: "attr_comparison_type_unsigned"
+// CHECK-NEXT: (%[[ARG0:.*]]: {{.*}}, %[[ARG1:.*]]: {{.*}})
 func.func @attr_comparison_type_unsigned(%arg0: tensor<f32>, %arg1: tensor<f32>) -> tensor<i1> {
   %0 = "stablehlo.compare"(%arg0, %arg1) {
     comparison_direction = #stablehlo<comparison_direction EQ>,
@@ -118,6 +129,7 @@
 // ConvDimensionNumbers aka #stablehlo.conv is covered below.
 
 // CHECK-LABEL: "attr_custom_call_api_version_unspecified"
+// CHECK-NEXT: (%[[ARG0:.*]]: {{.*}})
 func.func @attr_custom_call_api_version_unspecified(%arg0: tensor<f32>) -> tensor<f32> {
   %0 = "stablehlo.custom_call"(%arg0) {
     call_target_name = "foo",
@@ -128,6 +140,7 @@
 }
 
 // CHECK-LABEL: "attr_custom_call_api_version_original"
+// CHECK-NEXT: (%[[ARG0:.*]]: {{.*}})
 func.func @attr_custom_call_api_version_original(%arg0: tensor<f32>) -> tensor<f32> {
   %0 = "stablehlo.custom_call"(%arg0) {
     call_target_name = "foo",
@@ -138,6 +151,7 @@
 }
 
 // CHECK-LABEL: "attr_custom_call_api_version_status_returning"
+// CHECK-NEXT: (%[[ARG0:.*]]: {{.*}})
 func.func @attr_custom_call_api_version_status_returning(%arg0: tensor<f32>) -> tensor<f32> {
   %0 = "stablehlo.custom_call"(%arg0) {
     call_target_name = "foo",
@@ -148,6 +162,7 @@
 }
 
 // CHECK-LABEL: "attr_custom_call_api_version_status_returning_unified"
+// CHECK-NEXT: (%[[ARG0:.*]]: {{.*}})
 func.func @attr_custom_call_api_version_status_returning_unified(%arg0: tensor<f32>) -> tensor<f32> {
   %0 = "stablehlo.custom_call"(%arg0) {
     call_target_name = "foo",
@@ -160,6 +175,7 @@
 // DotDimensionNumbers aka #stablehlo.dot is covered below.
 
 // CHECK-LABEL: "attr_fft_type_fft"
+// CHECK-NEXT: (%[[ARG0:.*]]: {{.*}})
 func.func @attr_fft_type_fft(%arg0: tensor<16xcomplex<f32>>) -> tensor<16xcomplex<f32>> {
   %0 = "stablehlo.fft"(%arg0) {
     // CHECK: fft_type = #vhlo<fft_type_v1 FFT>
@@ -170,6 +186,7 @@
 }
 
 // CHECK-LABEL: "attr_fft_type_ifft"
+// CHECK-NEXT: (%[[ARG0:.*]]: {{.*}})
 func.func @attr_fft_type_ifft(%arg0: tensor<16xcomplex<f32>>) -> tensor<16xcomplex<f32>> {
   %0 = "stablehlo.fft"(%arg0) {
     // CHECK: fft_type = #vhlo<fft_type_v1 IFFT>
@@ -180,6 +197,7 @@
 }
 
 // CHECK-LABEL: "attr_fft_type_rfft"
+// CHECK-NEXT: (%[[ARG0:.*]]: {{.*}})
 func.func @attr_fft_type_rfft(%arg0: tensor<16xf32>) -> tensor<9xcomplex<f32>> {
   %0 = "stablehlo.fft"(%arg0) {
     // CHECK: fft_type = #vhlo<fft_type_v1 RFFT>
@@ -190,6 +208,7 @@
 }
 
 // CHECK-LABEL: "attr_fft_type_irfft"
+// CHECK-NEXT: (%[[ARG0:.*]]: {{.*}})
 func.func @attr_fft_type_irfft(%arg0: tensor<9xcomplex<f32>>) -> tensor<16xf32> {
   %0 = "stablehlo.fft"(%arg0) {
     // CHECK: fft_type = #vhlo<fft_type_v1 IRFFT>
@@ -202,6 +221,7 @@
 // GatherDimensionNumbers aka #stablehlo.gather is covered below.
 
 // CHECK-LABEL: "attr_precision_config_default"
+// CHECK-NEXT: (%[[ARG0:.*]]: {{.*}}, %[[ARG1:.*]]: {{.*}})
 func.func @attr_precision_config_default(%arg0: tensor<8x16xf32>, %arg1: tensor<16x8xf32>) -> tensor<8x8xf32> {
   %0 = "stablehlo.dot"(%arg0, %arg1) {
     // CHECK: precision_config = #vhlo.array_v1<[#vhlo<precision_v1 DEFAULT>, #vhlo<precision_v1 DEFAULT>]>
@@ -210,6 +230,7 @@
 }
 
 // CHECK-LABEL: "attr_precision_config_high"
+// CHECK-NEXT: (%[[ARG0:.*]]: {{.*}}, %[[ARG1:.*]]: {{.*}})
 func.func @attr_precision_config_high(%arg0: tensor<8x16xf32>, %arg1: tensor<16x8xf32>) -> tensor<8x8xf32> {
   %0 = "stablehlo.dot"(%arg0, %arg1) {
     // CHECK: precision_config = #vhlo.array_v1<[#vhlo<precision_v1 HIGH>, #vhlo<precision_v1 HIGH>]>
@@ -219,6 +240,7 @@
 }
 
 // CHECK-LABEL: "attr_precision_config_highest"
+// CHECK-NEXT: (%[[ARG0:.*]]: {{.*}}, %[[ARG1:.*]]: {{.*}})
 func.func @attr_precision_config_highest(%arg0: tensor<8x16xf32>, %arg1: tensor<16x8xf32>) -> tensor<8x8xf32> {
   %0 = "stablehlo.dot"(%arg0, %arg1) {
     // CHECK: precision_config = #vhlo.array_v1<[#vhlo<precision_v1 HIGHEST>, #vhlo<precision_v1 HIGHEST>]>
@@ -228,6 +250,7 @@
 }
 
 // CHECK-LABEL: "attr_rng_algorithm_default"
+// CHECK-NEXT: (%[[ARG0:.*]]: {{.*}})
 func.func @attr_rng_algorithm_default(%arg0: tensor<f32>) -> (tensor<f32>, tensor<f32>) {
   %0:2 = "stablehlo.rng_bit_generator"(%arg0) {
     // CHECK: rng_algorithm = #vhlo<rng_algorithm_v1 DEFAULT>
@@ -237,6 +260,7 @@
 }
 
 // CHECK-LABEL: "attr_rng_algorithm_three_fry"
+// CHECK-NEXT: (%[[ARG0:.*]]: {{.*}})
 func.func @attr_rng_algorithm_three_fry(%arg0: tensor<f32>) -> (tensor<f32>, tensor<f32>) {
   %0:2 = "stablehlo.rng_bit_generator"(%arg0) {
     // CHECK: rng_algorithm = #vhlo<rng_algorithm_v1 THREE_FRY>
@@ -246,6 +270,7 @@
 }
 
 // CHECK-LABEL: "attr_rng_algorithm_philox"
+// CHECK-NEXT: (%[[ARG0:.*]]: {{.*}})
 func.func @attr_rng_algorithm_philox(%arg0: tensor<f32>) -> (tensor<f32>, tensor<f32>) {
   %0:2 = "stablehlo.rng_bit_generator"(%arg0) {
     // CHECK: rng_algorithm = #vhlo<rng_algorithm_v1 PHILOX>
@@ -255,6 +280,7 @@
 }
 
 // CHECK-LABEL: "attr_rng_distribution_uniform"
+// CHECK-NEXT: (%[[ARG0:.*]]: {{.*}}, %[[ARG1:.*]]: {{.*}}, %[[ARG2:.*]]: {{.*}})
 func.func @attr_rng_distribution_uniform(%arg0: tensor<f32>, %arg1: tensor<f32>, %arg2: tensor<0xindex>) -> tensor<f32> {
   %0 = "stablehlo.rng"(%arg0, %arg1, %arg2) {
     // CHECK: rng_distribution = #vhlo<rng_distribution_v1 UNIFORM>
@@ -264,6 +290,7 @@
 }
 
 // CHECK-LABEL: "attr_rng_distribution_normal"
+// CHECK-NEXT: (%[[ARG0:.*]]: {{.*}}, %[[ARG1:.*]]: {{.*}}, %[[ARG2:.*]]: {{.*}})
 func.func @attr_rng_distribution_normal(%arg0: tensor<f32>, %arg1: tensor<f32>, %arg2: tensor<0xindex>) -> tensor<f32> {
   %0 = "stablehlo.rng"(%arg0, %arg1, %arg2) {
     // CHECK: rng_distribution = #vhlo<rng_distribution_v1 NORMAL>
@@ -275,6 +302,7 @@
 // ScatterDimensionNumbers aka #stablehlo.scatter is covered below.
 
 // CHECK-LABEL: "attr_transpose_no_transpose"
+// CHECK-NEXT: (%[[ARG0:.*]]: {{.*}}, %[[ARG1:.*]]: {{.*}})
 func.func @attr_transpose_no_transpose(%arg0: tensor<16x16xf32>, %arg1: tensor<16x16xf32>) ->  tensor<16x16xf32> {
   %0 = "stablehlo.triangular_solve"(%arg0, %arg1) {
     left_side = true,
@@ -287,6 +315,7 @@
 }
 
 // CHECK-LABEL: "attr_transpose_transpose"
+// CHECK-NEXT: (%[[ARG0:.*]]: {{.*}}, %[[ARG1:.*]]: {{.*}})
 func.func @attr_transpose_transpose(%arg0: tensor<16x16xf32>, %arg1: tensor<16x16xf32>) ->  tensor<16x16xf32> {
   %0 = "stablehlo.triangular_solve"(%arg0, %arg1) {
     left_side = true,
@@ -299,6 +328,7 @@
 }
 
 // CHECK-LABEL: "attr_transpose_adjoint"
+// CHECK-NEXT: (%[[ARG0:.*]]: {{.*}}, %[[ARG1:.*]]: {{.*}})
 func.func @attr_transpose_adjoint(%arg0: tensor<16x16xf32>, %arg1: tensor<16x16xf32>) ->  tensor<16x16xf32> {
   %0 = "stablehlo.triangular_solve"(%arg0, %arg1) {
     left_side = true,
@@ -313,10 +343,9 @@
 // TypeExtensionsAttr aka #stablehlo.type_extensions is covered below.
 
 // CHECK-LABEL: "attr_type_extensions_bounds"
-func.func @attr_type_extensions_bounds(
-    %arg0: tensor<?x?xf32, #stablehlo.type_extensions<bounds = [16, ?]>>)
-    -> tensor<?x?xf32, #stablehlo.type_extensions<bounds = [16, ?]>> {
-  // CHECK: "vhlo.return_v1"(%arg0) : (!vhlo.tensor_v1<?x?x!vhlo.f32_v1, #vhlo.type_extensions_v1<bounds = [16, ?]>>) -> ()
+// CHECK-NEXT: (%[[ARG0:.*]]: {{.*}})
+func.func @attr_type_extensions_bounds(%arg0: tensor<?x?xf32, #stablehlo.type_extensions<bounds = [16, ?]>>) -> tensor<?x?xf32, #stablehlo.type_extensions<bounds = [16, ?]>> {
+  // CHECK: "vhlo.return_v1"(%[[ARG0]]) : (!vhlo.tensor_v1<?x?x!vhlo.f32_v1, #vhlo.type_extensions_v1<bounds = [16, ?]>>) -> ()
   func.return %arg0 : tensor<?x?xf32, #stablehlo.type_extensions<bounds = [16, ?]>>
 }
 
@@ -324,8 +353,9 @@
 // ============ DEFAULTS ============
 
 // CHECK-LABEL: "default_all_gather"
+// CHECK-NEXT: (%[[ARG0:.*]]: {{.*}})
 func.func @default_all_gather(%arg0: tensor<16x8xf32>) -> tensor<16x16xf32> {
-  //               CHECK: "vhlo.all_gather_v1"(%arg0) <{
+  //               CHECK: "vhlo.all_gather_v1"(%[[ARG0]]) <{
   //          CHECK-SAME:   all_gather_dim = #vhlo.integer_v1<1 : i64>
   //          CHECK-SAME:   channel_id = #vhlo.integer_v1<0 : i64>,
   // CHECK-SAME{LITERAL}:   replica_groups = #vhlo.tensor_v1<dense<[[0], [1]]> : tensor<2x1xi64>>,
@@ -339,8 +369,9 @@
 }
 
 // CHECK-LABEL: "default_all_reduce"
+// CHECK-NEXT: (%[[ARG0:.*]]: {{.*}})
 func.func @default_all_reduce(%arg0: tensor<f32>) -> tensor<f32> {
…
+// CHECK-NEXT: (%[[ARG0:.*]]: {{.*}}, %[[ARG1:.*]]: {{.*}})
 func.func @op_maximum(%arg0: tensor<f32>, %arg1: tensor<f32>) -> tensor<f32> {
-  // CHECK: "vhlo.maximum_v1"(%arg0, %arg1) : (!vhlo.tensor_v1<!vhlo.f32_v1>, !vhlo.tensor_v1<!vhlo.f32_v1>) -> !vhlo.tensor_v1<!vhlo.f32_v1>
+  // CHECK: "vhlo.maximum_v1"(%[[ARG0]], %[[ARG1]]) : (!vhlo.tensor_v1<!vhlo.f32_v1>, !vhlo.tensor_v1<!vhlo.f32_v1>) -> !vhlo.tensor_v1<!vhlo.f32_v1>
   %0 = "stablehlo.maximum"(%arg0, %arg1) : (tensor<f32>, tensor<f32>) -> tensor<f32>
   func.return %0 : tensor<f32>
 }
 
 // CHECK-LABEL: "op_minimum"
+// CHECK-NEXT: (%[[ARG0:.*]]: {{.*}}, %[[ARG1:.*]]: {{.*}})
 func.func @op_minimum(%arg0: tensor<f32>, %arg1: tensor<f32>) -> tensor<f32> {
-  // CHECK: "vhlo.minimum_v1"(%arg0, %arg1) : (!vhlo.tensor_v1<!vhlo.f32_v1>, !vhlo.tensor_v1<!vhlo.f32_v1>) -> !vhlo.tensor_v1<!vhlo.f32_v1>
+  // CHECK: "vhlo.minimum_v1"(%[[ARG0]], %[[ARG1]]) : (!vhlo.tensor_v1<!vhlo.f32_v1>, !vhlo.tensor_v1<!vhlo.f32_v1>) -> !vhlo.tensor_v1<!vhlo.f32_v1>
   %0 = "stablehlo.minimum"(%arg0, %arg1) : (tensor<f32>, tensor<f32>) -> tensor<f32>
   func.return %0 : tensor<f32>
 }
 
 // CHECK-LABEL: "op_multiply"
+// CHECK-NEXT: (%[[ARG0:.*]]: {{.*}}, %[[ARG1:.*]]: {{.*}})
 func.func @op_multiply(%arg0: tensor<f32>, %arg1: tensor<f32>) -> tensor<f32> {
-  // CHECK: "vhlo.multiply_v1"(%arg0, %arg1) : (!vhlo.tensor_v1<!vhlo.f32_v1>, !vhlo.tensor_v1<!vhlo.f32_v1>) -> !vhlo.tensor_v1<!vhlo.f32_v1>
+  // CHECK: "vhlo.multiply_v1"(%[[ARG0]], %[[ARG1]]) : (!vhlo.tensor_v1<!vhlo.f32_v1>, !vhlo.tensor_v1<!vhlo.f32_v1>) -> !vhlo.tensor_v1<!vhlo.f32_v1>
   %0 = "stablehlo.multiply"(%arg0, %arg1) : (tensor<f32>, tensor<f32>) -> tensor<f32>
   func.return %0 : tensor<f32>
 }
 
 // CHECK-LABEL: "op_negate"
+// CHECK-NEXT: (%[[ARG0:.*]]: {{.*}})
 func.func @op_negate(%arg0: tensor<f32>) -> tensor<f32> {
-  // CHECK: "vhlo.negate_v1"(%arg0) : (!vhlo.tensor_v1<!vhlo.f32_v1>) -> !vhlo.tensor_v1<!vhlo.f32_v1>
+  // CHECK: "vhlo.negate_v1"(%[[ARG0]]) : (!vhlo.tensor_v1<!vhlo.f32_v1>) -> !vhlo.tensor_v1<!vhlo.f32_v1>
   %0 = "stablehlo.negate"(%arg0) : (tensor<f32>) -> tensor<f32>
   func.return %0 : tensor<f32>
 }
 
 // CHECK-LABEL: "op_not"
+// CHECK-NEXT: (%[[ARG0:.*]]: {{.*}})
 func.func @op_not(%arg0: tensor<i1>) -> tensor<i1> {
-  // CHECK: "vhlo.not_v1"(%arg0) : (!vhlo.tensor_v1<!vhlo.bool_v1>) -> !vhlo.tensor_v1<!vhlo.bool_v1>
+  // CHECK: "vhlo.not_v1"(%[[ARG0]]) : (!vhlo.tensor_v1<!vhlo.bool_v1>) -> !vhlo.tensor_v1<!vhlo.bool_v1>
   %0 = "stablehlo.not"(%arg0) : (tensor<i1>) -> tensor<i1>
   func.return %0 : tensor<i1>
 }
 
 // CHECK-LABEL: "op_optimization_barrier"
+// CHECK-NEXT: (%[[ARG0:.*]]: {{.*}})
 func.func @op_optimization_barrier(%arg0: tensor<f32>) -> tensor<f32> {
-  // CHECK: "vhlo.optimization_barrier_v1"(%arg0) : (!vhlo.tensor_v1<!vhlo.f32_v1>) -> !vhlo.tensor_v1<!vhlo.f32_v1>
+  // CHECK: "vhlo.optimization_barrier_v1"(%[[ARG0]]) : (!vhlo.tensor_v1<!vhlo.f32_v1>) -> !vhlo.tensor_v1<!vhlo.f32_v1>
   %0 = "stablehlo.optimization_barrier"(%arg0) : (tensor<f32>) -> tensor<f32>
   func.return %0 : tensor<f32>
 }
 
 // CHECK-LABEL: "op_or"
+// CHECK-NEXT: (%[[ARG0:.*]]: {{.*}}, %[[ARG1:.*]]: {{.*}})
 func.func @op_or(%arg0: tensor<i1>, %arg1: tensor<i1>) -> tensor<i1> {
-  // CHECK: "vhlo.or_v1"(%arg0, %arg1) : (!vhlo.tensor_v1<!vhlo.bool_v1>, !vhlo.tensor_v1<!vhlo.bool_v1>) -> !vhlo.tensor_v1<!vhlo.bool_v1>
+  // CHECK: "vhlo.or_v1"(%[[ARG0]], %[[ARG1]]) : (!vhlo.tensor_v1<!vhlo.bool_v1>, !vhlo.tensor_v1<!vhlo.bool_v1>) -> !vhlo.tensor_v1<!vhlo.bool_v1>
   %0 = "stablehlo.or"(%arg0, %arg1) : (tensor<i1>, tensor<i1>) -> tensor<i1>
   func.return %0 : tensor<i1>
 }
 
 // CHECK-LABEL: "op_outfeed"
+// CHECK-NEXT: (%[[ARG0:.*]]: {{.*}}, %[[ARG1:.*]]: {{.*}})
 func.func @op_outfeed(%arg0: tensor<f32>, %arg1: !stablehlo.token) -> !stablehlo.token {
-  //      CHECK: "vhlo.outfeed_v1"(%arg0, %arg1) <{
+  //      CHECK: "vhlo.outfeed_v1"(%[[ARG0]], %[[ARG1]]) <{
   // CHECK-SAME:   outfeed_config = #vhlo.string_v1<"foo">
   // CHECK-SAME: }> : (!vhlo.tensor_v1<!vhlo.f32_v1>, !vhlo.token_v1) -> !vhlo.token_v1
   %0 = "stablehlo.outfeed"(%arg0, %arg1) {
@@ -1605,8 +1725,9 @@
 }
 
 // CHECK-LABEL: "op_pad"
+// CHECK-NEXT: (%[[ARG0:.*]]: {{.*}}, %[[ARG1:.*]]: {{.*}})
 func.func @op_pad(%arg0: tensor<8xf32>, %arg1: tensor<f32>) -> tensor<16xf32> {
-  //      CHECK: "vhlo.pad_v1"(%arg0, %arg1) <{
+  //      CHECK: "vhlo.pad_v1"(%[[ARG0]], %[[ARG1]]) <{
   // CHECK-SAME:   edge_padding_high = #vhlo.tensor_v1<dense<4> : tensor<1xi64>>,
   // CHECK-SAME:   edge_padding_low = #vhlo.tensor_v1<dense<4> : tensor<1xi64>>,
   // CHECK-SAME:   interior_padding = #vhlo.tensor_v1<dense<0> : tensor<1xi64>>
@@ -1620,36 +1741,41 @@
 }
 
 // CHECK-LABEL: "op_popcnt"
+// CHECK-NEXT: (%[[ARG0:.*]]: {{.*}})
 func.func @op_popcnt(%arg0: tensor<i32>) -> tensor<i32> {
-  // CHECK: "vhlo.popcnt_v1"(%arg0) : (!vhlo.tensor_v1<!vhlo.i32_v1>) -> !vhlo.tensor_v1<!vhlo.i32_v1>
+  // CHECK: "vhlo.popcnt_v1"(%[[ARG0]]) : (!vhlo.tensor_v1<!vhlo.i32_v1>) -> !vhlo.tensor_v1<!vhlo.i32_v1>
   %0 = "stablehlo.popcnt"(%arg0) : (tensor<i32>) -> tensor<i32>
   func.return %0 : tensor<i32>
 }
 
 // CHECK-LABEL: "op_power"
+// CHECK-NEXT: (%[[ARG0:.*]]: {{.*}}, %[[ARG1:.*]]: {{.*}})
 func.func @op_power(%arg0: tensor<f32>, %arg1: tensor<f32>) -> tensor<f32> {
-  // CHECK: "vhlo.power_v1"(%arg0, %arg1) : (!vhlo.tensor_v1<!vhlo.f32_v1>, !vhlo.tensor_v1<!vhlo.f32_v1>) -> !vhlo.tensor_v1<!vhlo.f32_v1>
+  // CHECK: "vhlo.power_v1"(%[[ARG0]], %[[ARG1]]) : (!vhlo.tensor_v1<!vhlo.f32_v1>, !vhlo.tensor_v1<!vhlo.f32_v1>) -> !vhlo.tensor_v1<!vhlo.f32_v1>
   %0 = "stablehlo.power"(%arg0, %arg1) : (tensor<f32>, tensor<f32>) -> tensor<f32>
   func.return %0 : tensor<f32>
 }
 
 // CHECK-LABEL: "op_real_dynamic_slice"
+// CHECK-NEXT: (%[[ARG0:.*]]: {{.*}}, %[[ARG1:.*]]: {{.*}}, %[[ARG2:.*]]: {{.*}}, %[[ARG3:.*]]: {{.*}})
 func.func @op_real_dynamic_slice(%arg0: tensor<?xf32>, %arg1: tensor<1xindex>, %arg2: tensor<1xindex>, %arg3: tensor<1xindex>) -> tensor<?xf32> {
-  // CHECK: "vhlo.real_dynamic_slice_v1"(%arg0, %arg1, %arg2, %arg3) : (!vhlo.tensor_v1<?x!vhlo.f32_v1>, !vhlo.tensor_v1<1x!vhlo.index_v1>, !vhlo.tensor_v1<1x!vhlo.index_v1>, !vhlo.tensor_v1<1x!vhlo.index_v1>) -> !vhlo.tensor_v1<?x!vhlo.f32_v1>
+  // CHECK: "vhlo.real_dynamic_slice_v1"(%[[ARG0]], %[[ARG1]], %[[ARG2]], %[[ARG3]]) : (!vhlo.tensor_v1<?x!vhlo.f32_v1>, !vhlo.tensor_v1<1x!vhlo.index_v1>, !vhlo.tensor_v1<1x!vhlo.index_v1>, !vhlo.tensor_v1<1x!vhlo.index_v1>) -> !vhlo.tensor_v1<?x!vhlo.f32_v1>
   %0 = "stablehlo.real_dynamic_slice"(%arg0, %arg1, %arg2, %arg3) : (tensor<?xf32>, tensor<1xindex>, tensor<1xindex>, tensor<1xindex>) -> tensor<?xf32>
   func.return %0 : tensor<?xf32>
 }
 
 // CHECK-LABEL: "op_real"
+// CHECK-NEXT: (%[[ARG0:.*]]: {{.*}})
 func.func @op_real(%arg0: tensor<complex<f32>>) -> tensor<f32> {
-  // CHECK: "vhlo.real_v1"(%arg0) : (!vhlo.tensor_v1<!vhlo.complex_v1<!vhlo.f32_v1>>) -> !vhlo.tensor_v1<!vhlo.f32_v1>
+  // CHECK: "vhlo.real_v1"(%[[ARG0]]) : (!vhlo.tensor_v1<!vhlo.complex_v1<!vhlo.f32_v1>>) -> !vhlo.tensor_v1<!vhlo.f32_v1>
   %0 = "stablehlo.real"(%arg0) : (tensor<complex<f32>>) -> tensor<f32>
   func.return %0 : tensor<f32>
 }
 
 // CHECK-LABEL: "op_recv"
+// CHECK-NEXT: (%[[ARG0:.*]]: {{.*}})
 func.func @op_recv(%arg0: !stablehlo.token) -> (tensor<f32>, !stablehlo.token) {
-  //      CHECK: "vhlo.recv_v1"(%arg0) <{
+  //      CHECK: "vhlo.recv_v1"(%[[ARG0]]) <{
   // CHECK-SAME:   channel_id = #vhlo.integer_v1<0 : i64>,
   // CHECK-SAME:   channel_type = #vhlo.integer_v1<3 : i64>,
   // CHECK-SAME:   is_host_transfer = #vhlo.bool_v1<true>
@@ -1662,8 +1788,9 @@
 }
 
 // CHECK-LABEL: "op_reduce"
+// CHECK-NEXT: (%[[ARG0:.*]]: {{.*}}, %[[ARG1:.*]]: {{.*}})
 func.func @op_reduce(%arg0: tensor<16xf32>, %arg1: tensor<f32>) -> tensor<f32> {
-  //  CHECK: "vhlo.reduce_v1"(%arg0, %arg1)
+  //  CHECK: "vhlo.reduce_v1"(%[[ARG0]], %[[ARG1]])
   //  CHECK:   ^[[BB:bb.*]](%[[ARG1:arg.*]]: !vhlo.tensor_v1<!vhlo.f32_v1>, %[[ARG2:arg.*]]: !vhlo.tensor_v1<!vhlo.f32_v1>):
   //  CHECK:     "vhlo.return_v1"(%[[VAL1:.*]]) : (!vhlo.tensor_v1<!vhlo.f32_v1>) -> ()
   //  CHECK: }) : (!vhlo.tensor_v1<16x!vhlo.f32_v1>, !vhlo.tensor_v1<!vhlo.f32_v1>) -> !vhlo.tensor_v1<!vhlo.f32_v1>
@@ -1678,8 +1805,9 @@
 }
 
 // CHECK-LABEL: "op_reduce_precision"
+// CHECK-NEXT: (%[[ARG0:.*]]: {{.*}})
 func.func @op_reduce_precision(%arg0: tensor<f32>) -> tensor<f32> {
-  //      CHECK: "vhlo.reduce_precision_v1"(%arg0) <{
+  //      CHECK: "vhlo.reduce_precision_v1"(%[[ARG0]]) <{
   // CHECK-SAME:   exponent_bits = #vhlo.integer_v1<8 : i32>
   // CHECK-SAME:   mantissa_bits = #vhlo.integer_v1<10 : i32>
   // CHECK-SAME: }> : (!vhlo.tensor_v1<!vhlo.f32_v1>) -> !vhlo.tensor_v1<!vhlo.f32_v1>
@@ -1693,7 +1821,7 @@
 // CHECK_lABEL: "op_reduce_with_promotable_types"
 func.func @op_reduce_with_promotable_types(%arg0: tensor<4x4xf32>, %arg1 : tensor<f32>)
     -> (tensor<4xf64>) {
-  //  CHECK: "vhlo.reduce_v1"(%arg0, %arg1)
+  //  CHECK: "vhlo.reduce_v1"(%[[ARG0:.*]], %[[ARG1:.*]])
   //  CHECK:   ^[[BB:bb.*]](%[[ARG1:arg.*]]: !vhlo.tensor_v1<!vhlo.f64_v1>, %[[ARG2:arg.*]]: !vhlo.tensor_v1<!vhlo.f64_v1>):
   //  CHECK:     "vhlo.return_v1"(%[[VAL1:.*]]) : (!vhlo.tensor_v1<!vhlo.f64_v1>) -> ()
   //  CHECK: }) : (!vhlo.tensor_v1<4x4x!vhlo.f32_v1>, !vhlo.tensor_v1<!vhlo.f32_v1>) -> !vhlo.tensor_v1<4x!vhlo.f64_v1>
@@ -1708,8 +1836,9 @@
 }
 
 // CHECK-LABEL: "op_reduce_scatter"
+// CHECK-NEXT: (%[[ARG0:.*]]: {{.*}})
 func.func @op_reduce_scatter(%arg0: tensor<16xf32>) -> tensor<16xf32> {
-  //               CHECK: "vhlo.reduce_scatter_v1"(%arg0) <{
+  //               CHECK: "vhlo.reduce_scatter_v1"(%[[ARG0]]) <{
   //          CHECK-SAME:   channel_id = #vhlo.integer_v1<1 : i64>,
   // CHECK-SAME{LITERAL}:   replica_groups = #vhlo.tensor_v1<dense<[[0], [1]]> : tensor<2x1xi64>>,
   //          CHECK-SAME:   scatter_dimension = #vhlo.integer_v1<0 : i64>
@@ -1734,7 +1863,7 @@
 
 // CHECK_lABEL: "op_reduce_scatter_with_promotable_types"
 func.func @op_reduce_scatter_with_promotable_types(%data: tensor<4x16xf32>) -> tensor<4x4xf64> {
-  //  CHECK: "vhlo.reduce_scatter_v1"(%arg0)
+  //  CHECK: "vhlo.reduce_scatter_v1"(%[[ARG0:.*]])
   //  CHECK:   ^[[BB:bb.*]](%[[ARG1:arg.*]]: !vhlo.tensor_v1<!vhlo.f64_v1>, %[[ARG2:arg.*]]: !vhlo.tensor_v1<!vhlo.f64_v1>):
   //  CHECK:     "vhlo.return_v1"(%[[VAL1:.*]]) : (!vhlo.tensor_v1<!vhlo.f64_v1>) -> ()
   //  CHECK: }) : (!vhlo.tensor_v1<4x16x!vhlo.f32_v1>) -> !vhlo.tensor_v1<4x4x!vhlo.f64_v1>
@@ -1751,8 +1880,9 @@
 
 
 // CHECK-LABEL: "op_reduce_window"
+// CHECK-NEXT: (%[[ARG0:.*]]: {{.*}}, %[[ARG1:.*]]: {{.*}})
 func.func @op_reduce_window(%arg0: tensor<2x17x31x7xf32>, %arg1: tensor<f32>) -> tensor<2x9x16x7xf32> {
-  //               CHECK: "vhlo.reduce_window_v1"(%arg0, %arg1) <{
+  //               CHECK: "vhlo.reduce_window_v1"(%[[ARG0]], %[[ARG1]]) <{
   //          CHECK-SAME:   base_dilations = #vhlo.tensor_v1<dense<[1, 2, 2, 1]> : tensor<4xi64>>,
   // CHECK-SAME{LITERAL}:   padding = #vhlo.tensor_v1<dense<[[0, 0], [2, 0], [0, 2], [0, 0]]> : tensor<4x2xi64>>,
   //          CHECK-SAME:   window_dilations = #vhlo.tensor_v1<dense<[1, 2, 2, 1]> : tensor<4xi64>>,
@@ -1777,11 +1907,11 @@
   func.return %0 : tensor<2x9x16x7xf32>
 }
 
-// CHECK_lABEL: "op_reduce_window_with_promotable_types"
+// CHECK-LABEL: "op_reduce_window_with_promotable_types"
 func.func @op_reduce_window_with_promotable_types(%arg0: tensor<4x2xf32>,
     %arg1: tensor<4x2xf32>, %init0: tensor<f32>, %init1: tensor<f32>) ->
     (tensor<2x2xf64>, tensor<2x2xf32>) {
-  //  CHECK: "vhlo.reduce_window_v1"(%arg0, %arg1, %arg2, %arg3)
+  //  CHECK: "vhlo.reduce_window_v1"(%[[ARG0:.*]], %[[ARG1:.*]], %[[ARG2:.*]], %[[ARG3:.*]])
   //  CHECK:   ^[[BB:bb.*]](%[[ARG1:arg.*]]: !vhlo.tensor_v1<!vhlo.f64_v1>, %[[ARG2:arg.*]]: !vhlo.tensor_v1<!vhlo.f32_v1>, %[[ARG3:arg.*]]: !vhlo.tensor_v1<!vhlo.f64_v1>, %[[ARG4:arg.*]]: !vhlo.tensor_v1<!vhlo.f32_v1>):
   //  CHECK:     "vhlo.return_v1"(%[[VAL1:.*]], %[[VAL2:.*]]) : (!vhlo.tensor_v1<!vhlo.f64_v1>, !vhlo.tensor_v1<!vhlo.f32_v1>) -> ()
   //  CHECK: }) : (!vhlo.tensor_v1<4x2x!vhlo.f32_v1>, !vhlo.tensor_v1<4x2x!vhlo.f32_v1>, !vhlo.tensor_v1<!vhlo.f32_v1>, !vhlo.tensor_v1<!vhlo.f32_v1>) -> (!vhlo.tensor_v1<2x2x!vhlo.f64_v1>, !vhlo.tensor_v1<2x2x!vhlo.f32_v1>)
@@ -1801,8 +1931,9 @@
 }
 
 // CHECK-LABEL: "op_remainder"
+// CHECK-NEXT: (%[[ARG0:.*]]: {{.*}}, %[[ARG1:.*]]: {{.*}})
 func.func @op_remainder(%arg0: tensor<f32>, %arg1: tensor<f32>) -> tensor<f32> {
-  // CHECK: "vhlo.remainder_v1"(%arg0, %arg1) : (!vhlo.tensor_v1<!vhlo.f32_v1>, !vhlo.tensor_v1<!vhlo.f32_v1>) -> !vhlo.tensor_v1<!vhlo.f32_v1>
+  // CHECK: "vhlo.remainder_v1"(%[[ARG0]], %[[ARG1]]) : (!vhlo.tensor_v1<!vhlo.f32_v1>, !vhlo.tensor_v1<!vhlo.f32_v1>) -> !vhlo.tensor_v1<!vhlo.f32_v1>
   %0 = "stablehlo.remainder"(%arg0, %arg1) : (tensor<f32>, tensor<f32>) -> tensor<f32>
   func.return %0 : tensor<f32>
 }
@@ -1822,16 +1953,18 @@
 }
 
 // CHECK-LABEL: "op_reshape"
+// CHECK-NEXT: (%[[ARG0:.*]]: {{.*}})
 func.func @op_reshape(%arg0: tensor<16xf32>) -> tensor<4x4xf32> {
-  // CHECK: "vhlo.reshape_v1"(%arg0) : (!vhlo.tensor_v1<16x!vhlo.f32_v1>) -> !vhlo.tensor_v1<4x4x!vhlo.f32_v1>
+  // CHECK: "vhlo.reshape_v1"(%[[ARG0]]) : (!vhlo.tensor_v1<16x!vhlo.f32_v1>) -> !vhlo.tensor_v1<4x4x!vhlo.f32_v1>
   %0 = "stablehlo.reshape"(%arg0) : (tensor<16xf32>) -> tensor<4x4xf32>
   func.return %0 : tensor<4x4xf32>
 }
 
 // CHECK-LABEL: "op_return"
+// CHECK-NEXT: (%[[ARG0:.*]]: {{.*}}, %[[ARG1:.*]]: {{.*}})
 func.func @op_return(%arg0: tensor<i32>, %arg1: tensor<f32>) -> tensor<f32> {
-  //      CHECK: "vhlo.case_v1"(%arg0) ({
-  // CHECK-NEXT:   "vhlo.return_v1"(%arg1) : (!vhlo.tensor_v1<!vhlo.f32_v1>) -> ()
+  //      CHECK: "vhlo.case_v1"(%[[ARG0]]) ({
+  // CHECK-NEXT:   "vhlo.return_v1"(%[[ARG1]]) : (!vhlo.tensor_v1<!vhlo.f32_v1>) -> ()
   // CHECK-NEXT: }) : (!vhlo.tensor_v1<!vhlo.i32_v1>) -> !vhlo.tensor_v1<!vhlo.f32_v1>
   %0 = "stablehlo.case"(%arg0) ({
     "stablehlo.return"(%arg1) : (tensor<f32>) -> ()
@@ -1840,8 +1973,9 @@
 }
 
 // CHECK-LABEL: "op_reverse"
+// CHECK-NEXT: (%[[ARG0:.*]]: {{.*}})
 func.func @op_reverse(%arg0: tensor<16xf32>) -> tensor<16xf32> {
-  //      CHECK: "vhlo.reverse_v1"(%arg0) <{
+  //      CHECK: "vhlo.reverse_v1"(%[[ARG0]]) <{
   // CHECK-SAME:   dimensions = #vhlo.tensor_v1<dense<0> : tensor<1xi64>>
   // CHECK-SAME: }> : (!vhlo.tensor_v1<16x!vhlo.f32_v1>) -> !vhlo.tensor_v1<16x!vhlo.f32_v1>
   %0 = "stablehlo.reverse"(%arg0) {
@@ -1851,8 +1985,9 @@
 }
 
 // CHECK-LABEL: "op_rng_bit_generator"
+// CHECK-NEXT: (%[[ARG0:.*]]: {{.*}})
 func.func @op_rng_bit_generator(%arg0: tensor<f32>) -> (tensor<f32>, tensor<f32>) {
-  //      CHECK: "vhlo.rng_bit_generator_v1"(%arg0) <{
+  //      CHECK: "vhlo.rng_bit_generator_v1"(%[[ARG0]]) <{
   // CHECK-SAME:   rng_algorithm = #vhlo<rng_algorithm_v1 PHILOX>
   // CHECK-SAME: }> : (!vhlo.tensor_v1<!vhlo.f32_v1>) -> (!vhlo.tensor_v1<!vhlo.f32_v1>, !vhlo.tensor_v1<!vhlo.f32_v1>)
   %0:2 = "stablehlo.rng_bit_generator"(%arg0) {
@@ -1862,8 +1997,9 @@
 }
 
 // CHECK-LABEL: "op_rng"
+// CHECK-NEXT: (%[[ARG0:.*]]: {{.*}}, %[[ARG1:.*]]: {{.*}}, %[[ARG2:.*]]: {{.*}})
 func.func @op_rng(%arg0: tensor<f32>, %arg1: tensor<f32>, %arg2: tensor<0xindex>) -> tensor<f32> {
-  //      CHECK: "vhlo.rng_v1"(%arg0, %arg1, %arg2) <{
+  //      CHECK: "vhlo.rng_v1"(%[[ARG0]], %[[ARG1]], %[[ARG2]]) <{
   // CHECK-SAME:   rng_distribution = #vhlo<rng_distribution_v1 NORMAL>
   // CHECK-SAME: }> : (!vhlo.tensor_v1<!vhlo.f32_v1>, !vhlo.tensor_v1<!vhlo.f32_v1>, !vhlo.tensor_v1<0x!vhlo.index_v1>) -> !vhlo.tensor_v1<!vhlo.f32_v1>
   %0 = "stablehlo.rng"(%arg0, %arg1, %arg2) {
@@ -1873,29 +2009,33 @@
 }
 
 // CHECK-LABEL: "op_round_nearest_afz"
+// CHECK-NEXT: (%[[ARG0:.*]]: {{.*}})
 func.func @op_round_nearest_afz(%arg0: tensor<f32>) -> tensor<f32> {
-  // CHECK: "vhlo.round_nearest_afz_v1"(%arg0) : (!vhlo.tensor_v1<!vhlo.f32_v1>) -> !vhlo.tensor_v1<!vhlo.f32_v1>
+  // CHECK: "vhlo.round_nearest_afz_v1"(%[[ARG0]]) : (!vhlo.tensor_v1<!vhlo.f32_v1>) -> !vhlo.tensor_v1<!vhlo.f32_v1>
   %0 = "stablehlo.round_nearest_afz"(%arg0) : (tensor<f32>) -> tensor<f32>
   func.return %0 : tensor<f32>
 }
 
 // CHECK-LABEL: "op_round_nearest_even"
+// CHECK-NEXT: (%[[ARG0:.*]]: {{.*}})
 func.func @op_round_nearest_even(%arg0: tensor<f32>) -> tensor<f32> {
-  // CHECK: "vhlo.round_nearest_even_v1"(%arg0) : (!vhlo.tensor_v1<!vhlo.f32_v1>) -> !vhlo.tensor_v1<!vhlo.f32_v1>
+  // CHECK: "vhlo.round_nearest_even_v1"(%[[ARG0]]) : (!vhlo.tensor_v1<!vhlo.f32_v1>) -> !vhlo.tensor_v1<!vhlo.f32_v1>
   %0 = "stablehlo.round_nearest_even"(%arg0) : (tensor<f32>) -> tensor<f32>
   func.return %0 : tensor<f32>
 }
 
 // CHECK-LABEL: "op_rsqrt"
+// CHECK-NEXT: (%[[ARG0:.*]]: {{.*}})
 func.func @op_rsqrt(%arg0: tensor<f32>) -> tensor<f32> {
-  // CHECK: "vhlo.rsqrt_v1"(%arg0) : (!vhlo.tensor_v1<!vhlo.f32_v1>) -> !vhlo.tensor_v1<!vhlo.f32_v1>
+  // CHECK: "vhlo.rsqrt_v1"(%[[ARG0]]) : (!vhlo.tensor_v1<!vhlo.f32_v1>) -> !vhlo.tensor_v1<!vhlo.f32_v1>
   %0 = "stablehlo.rsqrt"(%arg0) : (tensor<f32>) -> tensor<f32>
   func.return %0 : tensor<f32>
 }
 
 // CHECK-LABEL: "op_scatter"
+// CHECK-NEXT: (%[[ARG0:.*]]: {{.*}}, %[[ARG1:.*]]: {{.*}}, %[[ARG2:.*]]: {{.*}})
 func.func @op_scatter(%arg0: tensor<200x100x300xf32>, %arg1: tensor<10x2xi32>, %arg2: tensor<10x300xf32>) -> tensor<200x100x300xf32> {
-  //      CHECK: "vhlo.scatter_v1"(%arg0, %arg1, %arg2) <{
+  //      CHECK: "vhlo.scatter_v1"(%[[ARG0]], %[[ARG1]], %[[ARG2]]) <{
   // CHECK-SAME:   index_vector_dim = #vhlo.integer_v1<1 : i64>,
   // CHECK-SAME:   indices_are_sorted = #vhlo.bool_v1<true>,
   // CHECK-SAME:   inserted_window_dims = #vhlo.tensor_v1<dense<[0, 1]> : tensor<2xi64>>,
@@ -1928,7 +2068,7 @@
 func.func @op_scatter_with_promotable_types(%input_tensor: tensor<200x100x300xf32>,
     %scatter_indices: tensor<10x2xi32>, %updates: tensor<10x300xf32>) ->
       tensor<200x100x300xf64> {
-  //  CHECK: "vhlo.scatter_v1"(%arg0, %arg1, %arg2)
+  //  CHECK: "vhlo.scatter_v1"(%[[ARG0:.*]], %[[ARG1:.*]], %[[ARG2:.*]])
   //  CHECK:   ^[[BB:bb.*]](%[[ARG1:arg.*]]: !vhlo.tensor_v1<!vhlo.f64_v1>, %[[ARG2:arg.*]]: !vhlo.tensor_v1<!vhlo.f64_v1>):
   //  CHECK:     "vhlo.return_v1"(%[[VAL1:.*]]) : (!vhlo.tensor_v1<!vhlo.f64_v1>) -> ()
   //  CHECK: }) : (!vhlo.tensor_v1<200x100x300x!vhlo.f32_v1>, !vhlo.tensor_v1<10x2x!vhlo.i32_v1>, !vhlo.tensor_v1<10x300x!vhlo.f32_v1>) -> !vhlo.tensor_v1<200x100x300x!vhlo.f64_v1>
@@ -1951,8 +2091,9 @@
 }
 
 // CHECK-LABEL: "op_select_and_scatter"
+// CHECK-NEXT: (%[[ARG0:.*]]: {{.*}}, %[[ARG1:.*]]: {{.*}}, %[[ARG2:.*]]: {{.*}})
 func.func @op_select_and_scatter(%arg0: tensor<10x24x24x64xf32>, %arg1: tensor<12x13x13x66xf32>, %arg2: tensor<f32>) -> tensor<10x24x24x64xf32> {
-  //      CHECK: "vhlo.select_and_scatter_v1"(%arg0, %arg1, %arg2) <{
+  //      CHECK: "vhlo.select_and_scatter_v1"(%[[ARG0]], %[[ARG1]], %[[ARG2]]) <{
   // CHECK-SAME:   padding = #vhlo.tensor_v1<dense<1> : tensor<4x2xi64>>,
   // CHECK-SAME:   window_dimensions = #vhlo.tensor_v1<dense<[1, 2, 2, 1]> : tensor<4xi64>>,
   // CHECK-SAME:   window_strides = #vhlo.tensor_v1<dense<[1, 2, 2, 1]> : tensor<4xi64>>
@@ -1982,8 +2123,9 @@
 }
 
 // CHECK-LABEL: "op_select_and_scatter_with_promotable_types"
+// CHECK-NEXT: (%[[ARG0:.*]]: {{.*}}, %[[ARG1:.*]]: {{.*}}, %[[ARG2:.*]]: {{.*}})
 func.func @op_select_and_scatter_with_promotable_types(%arg0: tensor<10x24x24x64xf32>, %arg1: tensor<12x13x13x66xf32>, %arg2: tensor<f32>) -> tensor<10x24x24x64xf64> {
-  // CHECK: "vhlo.select_and_scatter_v1"(%arg0, %arg1, %arg2)
+  // CHECK: "vhlo.select_and_scatter_v1"(%[[ARG0]], %[[ARG1]], %[[ARG2]])
   // CHECK:   ^[[BB:bb.*]](%[[ARG1:arg.*]]: !vhlo.tensor_v1<!vhlo.f64_v1>, %[[ARG2:arg.*]]: !vhlo.tensor_v1<!vhlo.f64_v1>):
   // CHECK:     %[[VAL:.*]] = "vhlo.add_v1"(%[[ARG1]], %[[ARG2]]) : (!vhlo.tensor_v1<!vhlo.f64_v1>, !vhlo.tensor_v1<!vhlo.f64_v1>) -> !vhlo.tensor_v1<!vhlo.f64_v1>
   // CHECK:     "vhlo.return_v1"(%[[VAL]]) : (!vhlo.tensor_v1<!vhlo.f64_v1>) -> ()
@@ -2005,15 +2147,17 @@
 }
 
 // CHECK-LABEL: "op_select"
+// CHECK-NEXT: (%[[ARG0:.*]]: {{.*}}, %[[ARG1:.*]]: {{.*}}, %[[ARG2:.*]]: {{.*}})
 func.func @op_select(%arg0: tensor<i1>, %arg1: tensor<f32>, %arg2: tensor<f32>) -> tensor<f32> {
-  // CHECK: "vhlo.select_v1"(%arg0, %arg1, %arg2) : (!vhlo.tensor_v1<!vhlo.bool_v1>, !vhlo.tensor_v1<!vhlo.f32_v1>, !vhlo.tensor_v1<!vhlo.f32_v1>) -> !vhlo.tensor_v1<!vhlo.f32_v1>
+  // CHECK: "vhlo.select_v1"(%[[ARG0]], %[[ARG1]], %[[ARG2]]) : (!vhlo.tensor_v1<!vhlo.bool_v1>, !vhlo.tensor_v1<!vhlo.f32_v1>, !vhlo.tensor_v1<!vhlo.f32_v1>) -> !vhlo.tensor_v1<!vhlo.f32_v1>
   %0 = "stablehlo.select"(%arg0, %arg1, %arg2) : (tensor<i1>, tensor<f32>, tensor<f32>) -> tensor<f32>
   func.return %0 : tensor<f32>
 }
 
 // CHECK-LABEL: "op_send"
+// CHECK-NEXT: (%[[ARG0:.*]]: {{.*}}, %[[ARG1:.*]]: {{.*}})
 func.func @op_send(%arg0: tensor<f32>, %arg1: !stablehlo.token) -> !stablehlo.token {
-  //      CHECK: "vhlo.send_v1"(%arg0, %arg1) <{
+  //      CHECK: "vhlo.send_v1"(%[[ARG0]], %[[ARG1]]) <{
   // CHECK-SAME:   channel_id = #vhlo.integer_v1<0 : i64>,
   // CHECK-SAME:   channel_type = #vhlo.integer_v1<2 : i64>,
   // CHECK-SAME:   is_host_transfer = #vhlo.bool_v1<true>
@@ -2026,8 +2170,9 @@
 }
 
 // CHECK-LABEL: "op_set_dimension_size"
+// CHECK-NEXT: (%[[ARG0:.*]]: {{.*}}, %[[ARG1:.*]]: {{.*}})
 func.func @op_set_dimension_size(%arg0: tensor<?xf32>, %arg1: tensor<i32>) -> tensor<16xf32> {
-  //      CHECK: "vhlo.set_dimension_size_v1"(%arg0, %arg1) <{
+  //      CHECK: "vhlo.set_dimension_size_v1"(%[[ARG0]], %[[ARG1]]) <{
   // CHECK-SAME:   dimension = #vhlo.integer_v1<0 : i64>
   // CHECK-SAME: }> : (!vhlo.tensor_v1<?x!vhlo.f32_v1>, !vhlo.tensor_v1<!vhlo.i32_v1>) -> !vhlo.tensor_v1<16x!vhlo.f32_v1>
   %0 = "stablehlo.set_dimension_size"(%arg0, %arg1) {
@@ -2037,43 +2182,49 @@
 }
 
 // CHECK-LABEL: "op_shift_left"
+// CHECK-NEXT: (%[[ARG0:.*]]: {{.*}}, %[[ARG1:.*]]: {{.*}})
 func.func @op_shift_left(%arg0: tensor<i32>, %arg1: tensor<i32>) -> tensor<i32> {
-  // CHECK: "vhlo.shift_left_v1"(%arg0, %arg1) : (!vhlo.tensor_v1<!vhlo.i32_v1>, !vhlo.tensor_v1<!vhlo.i32_v1>) -> !vhlo.tensor_v1<!vhlo.i32_v1>
+  // CHECK: "vhlo.shift_left_v1"(%[[ARG0]], %[[ARG1]]) : (!vhlo.tensor_v1<!vhlo.i32_v1>, !vhlo.tensor_v1<!vhlo.i32_v1>) -> !vhlo.tensor_v1<!vhlo.i32_v1>
   %0 = "stablehlo.shift_left"(%arg0, %arg1) : (tensor<i32>, tensor<i32>) -> tensor<i32>
   func.return %0 : tensor<i32>
 }
 
 // CHECK-LABEL: "op_shift_right_arithmetic"
+// CHECK-NEXT: (%[[ARG0:.*]]: {{.*}}, %[[ARG1:.*]]: {{.*}})
 func.func @op_shift_right_arithmetic(%arg0: tensor<i32>, %arg1: tensor<i32>) -> tensor<i32> {
-  // CHECK: "vhlo.shift_right_arithmetic_v1"(%arg0, %arg1) : (!vhlo.tensor_v1<!vhlo.i32_v1>, !vhlo.tensor_v1<!vhlo.i32_v1>) -> !vhlo.tensor_v1<!vhlo.i32_v1>
+  // CHECK: "vhlo.shift_right_arithmetic_v1"(%[[ARG0]], %[[ARG1]]) : (!vhlo.tensor_v1<!vhlo.i32_v1>, !vhlo.tensor_v1<!vhlo.i32_v1>) -> !vhlo.tensor_v1<!vhlo.i32_v1>
   %0 = "stablehlo.shift_right_arithmetic"(%arg0, %arg1) : (tensor<i32>, tensor<i32>) -> tensor<i32>
   func.return %0 : tensor<i32>
 }
 
 // CHECK-LABEL: "op_shift_right_logical"
+// CHECK-NEXT: (%[[ARG0:.*]]: {{.*}}, %[[ARG1:.*]]: {{.*}})
 func.func @op_shift_right_logical(%arg0: tensor<i32>, %arg1: tensor<i32>) -> tensor<i32> {
-  // CHECK: "vhlo.shift_right_logical_v1"(%arg0, %arg1) : (!vhlo.tensor_v1<!vhlo.i32_v1>, !vhlo.tensor_v1<!vhlo.i32_v1>) -> !vhlo.tensor_v1<!vhlo.i32_v1>
+  // CHECK: "vhlo.shift_right_logical_v1"(%[[ARG0]], %[[ARG1]]) : (!vhlo.tensor_v1<!vhlo.i32_v1>, !vhlo.tensor_v1<!vhlo.i32_v1>) -> !vhlo.tensor_v1<!vhlo.i32_v1>
   %0 = "stablehlo.shift_right_logical"(%arg0, %arg1) : (tensor<i32>, tensor<i32>) -> tensor<i32>
   func.return %0 : tensor<i32>
 }
 
 // CHECK-LABEL: "op_sign"
+// CHECK-NEXT: (%[[ARG0:.*]]: {{.*}})
 func.func @op_sign(%arg0: tensor<f32>) -> tensor<f32> {
-  // CHECK: "vhlo.sign_v1"(%arg0) : (!vhlo.tensor_v1<!vhlo.f32_v1>) -> !vhlo.tensor_v1<!vhlo.f32_v1>
+  // CHECK: "vhlo.sign_v1"(%[[ARG0]]) : (!vhlo.tensor_v1<!vhlo.f32_v1>) -> !vhlo.tensor_v1<!vhlo.f32_v1>
   %0 = "stablehlo.sign"(%arg0) : (tensor<f32>) -> tensor<f32>
   func.return %0 : tensor<f32>
 }
 
 // CHECK-LABEL: "op_sine"
+// CHECK-NEXT: (%[[ARG0:.*]]: {{.*}})
 func.func @op_sine(%arg0: tensor<f32>) -> tensor<f32> {
-  // CHECK: "vhlo.sine_v1"(%arg0) : (!vhlo.tensor_v1<!vhlo.f32_v1>) -> !vhlo.tensor_v1<!vhlo.f32_v1>
+  // CHECK: "vhlo.sine_v1"(%[[ARG0]]) : (!vhlo.tensor_v1<!vhlo.f32_v1>) -> !vhlo.tensor_v1<!vhlo.f32_v1>
   %0 = "stablehlo.sine"(%arg0) : (tensor<f32>) -> tensor<f32>
   func.return %0 : tensor<f32>
 }
 
 // CHECK-LABEL: "op_slice"
+// CHECK-NEXT: (%[[ARG0:.*]]: {{.*}})
 func.func @op_slice(%arg0: tensor<16xf32>) -> tensor<4xf32> {
-  //      CHECK: "vhlo.slice_v1"(%arg0) <{
+  //      CHECK: "vhlo.slice_v1"(%[[ARG0]]) <{
   // CHECK-SAME:   limit_indices = #vhlo.tensor_v1<dense<4> : tensor<1xi64>>,
   // CHECK-SAME:   start_indices = #vhlo.tensor_v1<dense<0> : tensor<1xi64>>,
   // CHECK-SAME:   strides = #vhlo.tensor_v1<dense<1> : tensor<1xi64>>
@@ -2087,8 +2238,9 @@
 }
 
 // CHECK-LABEL: "op_sort"
+// CHECK-NEXT: (%[[ARG0:.*]]: {{.*}})
 func.func @op_sort(%arg0: tensor<16xf32>) -> tensor<16xf32> {
-  //      CHECK: "vhlo.sort_v1"(%arg0) <{
+  //      CHECK: "vhlo.sort_v1"(%[[ARG0]]) <{
   // CHECK-SAME:   dimension = #vhlo.integer_v1<0 : i64>
   // CHECK-SAME:   is_stable = #vhlo.bool_v1<true>
   // CHECK-SAME: }> ({
@@ -2108,29 +2260,33 @@
 }
 
 // CHECK-LABEL: "op_sqrt"
+// CHECK-NEXT: (%[[ARG0:.*]]: {{.*}})
 func.func @op_sqrt(%arg0: tensor<f32>) -> tensor<f32> {
-  // CHECK: "vhlo.sqrt_v1"(%arg0) : (!vhlo.tensor_v1<!vhlo.f32_v1>) -> !vhlo.tensor_v1<!vhlo.f32_v1>
+  // CHECK: "vhlo.sqrt_v1"(%[[ARG0]]) : (!vhlo.tensor_v1<!vhlo.f32_v1>) -> !vhlo.tensor_v1<!vhlo.f32_v1>
   %0 = "stablehlo.sqrt"(%arg0) : (tensor<f32>) -> tensor<f32>
   func.return %0 : tensor<f32>
 }
 
 // CHECK-LABEL: "op_subtract"
+// CHECK-NEXT: (%[[ARG0:.*]]: {{.*}}, %[[ARG1:.*]]: {{.*}})
 func.func @op_subtract(%arg0: tensor<f32>, %arg1: tensor<f32>) -> tensor<f32> {
-  // CHECK: "vhlo.subtract_v1"(%arg0, %arg1) : (!vhlo.tensor_v1<!vhlo.f32_v1>, !vhlo.tensor_v1<!vhlo.f32_v1>) -> !vhlo.tensor_v1<!vhlo.f32_v1>
+  // CHECK: "vhlo.subtract_v1"(%[[ARG0]], %[[ARG1]]) : (!vhlo.tensor_v1<!vhlo.f32_v1>, !vhlo.tensor_v1<!vhlo.f32_v1>) -> !vhlo.tensor_v1<!vhlo.f32_v1>
   %0 = "stablehlo.subtract"(%arg0, %arg1) : (tensor<f32>, tensor<f32>) -> tensor<f32>
   func.return %0 : tensor<f32>
 }
 
 // CHECK-LABEL: "op_tanh"
+// CHECK-NEXT: (%[[ARG0:.*]]: {{.*}})
 func.func @op_tanh(%arg0: tensor<f32>) -> tensor<f32> {
-  // CHECK: "vhlo.tanh_v1"(%arg0) : (!vhlo.tensor_v1<!vhlo.f32_v1>) -> !vhlo.tensor_v1<!vhlo.f32_v1>
+  // CHECK: "vhlo.tanh_v1"(%[[ARG0]]) : (!vhlo.tensor_v1<!vhlo.f32_v1>) -> !vhlo.tensor_v1<!vhlo.f32_v1>
   %0 = "stablehlo.tanh"(%arg0) : (tensor<f32>) -> tensor<f32>
   func.return %0 : tensor<f32>
 }
 
 // CHECK-LABEL: "op_torch_index_select"
+// CHECK-NEXT: (%[[ARG0:.*]]: {{.*}}, %[[ARG1:.*]]: {{.*}})
 func.func @op_torch_index_select(%arg0: tensor<5x1x5xf32>, %arg1: tensor<2xi32>) ->  tensor<2x1x5xf32> {
-  //      CHECK: "vhlo.torch_index_select_v1"(%arg0, %arg1) <{
+  //      CHECK: "vhlo.torch_index_select_v1"(%[[ARG0]], %[[ARG1]]) <{
   // CHECK-SAME:   batch_dims = #vhlo.integer_v1<0 : i64>
   // CHECK-SAME:   dim = #vhlo.integer_v1<0 : i64>
   // CHECK-SAME: }> : (!vhlo.tensor_v1<5x1x5x!vhlo.f32_v1>, !vhlo.tensor_v1<2x!vhlo.i32_v1>) -> !vhlo.tensor_v1<2x1x5x!vhlo.f32_v1>
@@ -2142,8 +2298,9 @@
 }
 
 // CHECK-LABEL: "op_trace"
+// CHECK-NEXT: (%[[ARG0:.*]]: {{.*}})
 func.func @op_trace(%arg0: tensor<f32>) {
-  //      CHECK: "vhlo.trace_v1"(%arg0) <{
+  //      CHECK: "vhlo.trace_v1"(%[[ARG0]]) <{
   // CHECK-SAME:   tag = #vhlo.string_v1<"foo">
   // CHECK-SAME: }> : (!vhlo.tensor_v1<!vhlo.f32_v1>) -> ()
   "stablehlo.trace"(%arg0) {
@@ -2153,8 +2310,9 @@
 }
 
 // CHECK-LABEL: "op_transpose"
+// CHECK-NEXT: (%[[ARG0:.*]]: {{.*}})
 func.func @op_transpose(%arg0: tensor<16x8xf32>) ->  tensor<8x16xf32> {
-  //      CHECK: "vhlo.transpose_v1"(%arg0) <{
+  //      CHECK: "vhlo.transpose_v1"(%[[ARG0]]) <{
   // CHECK-SAME:   permutation = #vhlo.tensor_v1<dense<[1, 0]> : tensor<2xi64>>
   // CHECK-SAME: }> : (!vhlo.tensor_v1<16x8x!vhlo.f32_v1>) -> !vhlo.tensor_v1<8x16x!vhlo.f32_v1>
   %0 = "stablehlo.transpose"(%arg0) {
@@ -2164,8 +2322,9 @@
 }
 
 // CHECK-LABEL: "op_triangular_solve"
+// CHECK-NEXT: (%[[ARG0:.*]]: {{.*}}, %[[ARG1:.*]]: {{.*}})
 func.func @op_triangular_solve(%arg0: tensor<16x16xf32>, %arg1: tensor<16x16xf32>) ->  tensor<16x16xf32> {
-  //      CHECK: "vhlo.triangular_solve_v1"(%arg0, %arg1) <{
+  //      CHECK: "vhlo.triangular_solve_v1"(%[[ARG0]], %[[ARG1]]) <{
   // CHECK-SAME:   left_side = #vhlo.bool_v1<true>,
   // CHECK-SAME:   lower = #vhlo.bool_v1<true>,
   // CHECK-SAME:   transpose_a = #vhlo<transpose_v1 NO_TRANSPOSE>,
@@ -2181,15 +2340,17 @@
 }
 
 // CHECK-LABEL: "op_tuple"
+// CHECK-NEXT: (%[[ARG0:.*]]: {{.*}})
 func.func @op_tuple(%arg0: tensor<f32>) -> tuple<tensor<f32>> {
-  // CHECK: "vhlo.tuple_v1"(%arg0) : (!vhlo.tensor_v1<!vhlo.f32_v1>) -> !vhlo.tuple_v1<!vhlo.tensor_v1<!vhlo.f32_v1>>
+  // CHECK: "vhlo.tuple_v1"(%[[ARG0]]) : (!vhlo.tensor_v1<!vhlo.f32_v1>) -> !vhlo.tuple_v1<!vhlo.tensor_v1<!vhlo.f32_v1>>
   %0 = "stablehlo.tuple"(%arg0) : (tensor<f32>) -> tuple<tensor<f32>>
   func.return %0 : tuple<tensor<f32>>
 }
 
 // CHECK-LABEL: "op_unary_einsum"
+// CHECK-NEXT: (%[[ARG0:.*]]: {{.*}})
 func.func @op_unary_einsum(%arg0: tensor<8x16xf32>) -> tensor<8xf32> {
-  //      CHECK: "vhlo.unary_einsum_v1"(%arg0) <{
+  //      CHECK: "vhlo.unary_einsum_v1"(%[[ARG0]]) <{
   // CHECK-SAME:   einsum_config = #vhlo.string_v1<"ab->a">
   // CHECK-SAME: }> : (!vhlo.tensor_v1<8x16x!vhlo.f32_v1>) -> !vhlo.tensor_v1<8x!vhlo.f32_v1>
   %0 = "stablehlo.unary_einsum"(%arg0) {
@@ -2199,22 +2360,25 @@
 }
 
 // CHECK-LABEL: "op_uniform_dequantize"
+// CHECK-NEXT: (%[[ARG0:.*]]: {{.*}})
 func.func @op_uniform_dequantize(%arg0: tensor<!quant.uniform<i8:f32, 34.0:16>>) -> tensor<f32> {
-  // CHECK: "vhlo.uniform_dequantize_v1"(%arg0) : (!vhlo.tensor_v1<!vhlo.quant_v1<!vhlo.i8_v1:!vhlo.f32_v1, 3.400000e+01:16, -128:127, 1>>) -> !vhlo.tensor_v1<!vhlo.f32_v1>
+  // CHECK: "vhlo.uniform_dequantize_v1"(%[[ARG0]]) : (!vhlo.tensor_v1<!vhlo.quant_v1<!vhlo.i8_v1:!vhlo.f32_v1, 3.400000e+01:16, -128:127, 1>>) -> !vhlo.tensor_v1<!vhlo.f32_v1>
   %0 = "stablehlo.uniform_dequantize"(%arg0) : (tensor<!quant.uniform<i8:f32, 34.0:16>>) -> tensor<f32>
   func.return %0 : tensor<f32>
 }
 
 // CHECK-LABEL: "op_uniform_quantize"
+// CHECK-NEXT: (%[[ARG0:.*]]: {{.*}})
 func.func @op_uniform_quantize(%arg0: tensor<f32>) -> tensor<!quant.uniform<i8:f32, 34.0:16>> {
-  // CHECK: "vhlo.uniform_quantize_v1"(%arg0) : (!vhlo.tensor_v1<!vhlo.f32_v1>) -> !vhlo.tensor_v1<!vhlo.quant_v1<!vhlo.i8_v1:!vhlo.f32_v1, 3.400000e+01:16, -128:127, 1>>
+  // CHECK: "vhlo.uniform_quantize_v1"(%[[ARG0]]) : (!vhlo.tensor_v1<!vhlo.f32_v1>) -> !vhlo.tensor_v1<!vhlo.quant_v1<!vhlo.i8_v1:!vhlo.f32_v1, 3.400000e+01:16, -128:127, 1>>
   %0 = "stablehlo.uniform_quantize"(%arg0) : (tensor<f32>) -> tensor<!quant.uniform<i8:f32, 34.0:16>>
   func.return %0 : tensor<!quant.uniform<i8:f32, 34.0:16>>
 }
 
 // CHECK-LABEL: "op_while"
+// CHECK-NEXT: (%[[ARG0:.*]]: {{.*}})
 func.func @op_while(%arg0: tensor<i1>) -> tensor<i1> {
-  //      CHECK: "vhlo.while_v1"(%arg0) ({
+  //      CHECK: "vhlo.while_v1"(%[[ARG0]]) ({
   // CHECK-NEXT:   ^[[BB:bb.*]](%[[ARG1:arg.*]]: !vhlo.tensor_v1<!vhlo.bool_v1>):
   // CHECK-NEXT:     "vhlo.return_v1"(%[[ARG1]]) : (!vhlo.tensor_v1<!vhlo.bool_v1>) -> ()
   // CHECK-NEXT:   }, {
@@ -2232,8 +2396,9 @@
 }
 
 // CHECK-LABEL: "op_xor"
+// CHECK-NEXT: (%[[ARG0:.*]]: {{.*}}, %[[ARG1:.*]]: {{.*}})
 func.func @op_xor(%arg0: tensor<i1>, %arg1: tensor<i1>) -> tensor<i1> {
-  // CHECK: "vhlo.xor_v1"(%arg0, %arg1) : (!vhlo.tensor_v1<!vhlo.bool_v1>, !vhlo.tensor_v1<!vhlo.bool_v1>) -> !vhlo.tensor_v1<!vhlo.bool_v1>
+  // CHECK: "vhlo.xor_v1"(%[[ARG0]], %[[ARG1]]) : (!vhlo.tensor_v1<!vhlo.bool_v1>, !vhlo.tensor_v1<!vhlo.bool_v1>) -> !vhlo.tensor_v1<!vhlo.bool_v1>
   %0 = "stablehlo.xor"(%arg0, %arg1) : (tensor<i1>, tensor<i1>) -> tensor<i1>
   func.return %0 : tensor<i1>
 }
@@ -2241,197 +2406,225 @@
 // ============ TYPES ============
 
 // CHECK-LABEL: "type_i1"
+// CHECK-NEXT: (%[[ARG0:.*]]: {{.*}}, %[[ARG1:.*]]: {{.*}})
 func.func @type_i1(%arg0: tensor<i1>, %arg1: tensor<i1>) -> tensor<i1> {
-  // CHECK: "vhlo.and_v1"(%arg0, %arg1) : (!vhlo.tensor_v1<!vhlo.bool_v1>, !vhlo.tensor_v1<!vhlo.bool_v1>) -> !vhlo.tensor_v1<!vhlo.bool_v1>
+  // CHECK: "vhlo.and_v1"(%[[ARG0]], %[[ARG1]]) : (!vhlo.tensor_v1<!vhlo.bool_v1>, !vhlo.tensor_v1<!vhlo.bool_v1>) -> !vhlo.tensor_v1<!vhlo.bool_v1>
   %0 = "stablehlo.and"(%arg0, %arg1) : (tensor<i1>, tensor<i1>) -> tensor<i1>
   func.return %0 : tensor<i1>
 }
 
 // CHECK-LABEL: "type_i4"
+// CHECK-NEXT: (%[[ARG0:.*]]: {{.*}}, %[[ARG1:.*]]: {{.*}})
 func.func @type_i4(%arg0: tensor<i4>, %arg1: tensor<i4>) -> tensor<i4> {
-  // CHECK: "vhlo.add_v1"(%arg0, %arg1) : (!vhlo.tensor_v1<!vhlo.i4_v1>, !vhlo.tensor_v1<!vhlo.i4_v1>) -> !vhlo.tensor_v1<!vhlo.i4_v1>
+  // CHECK: "vhlo.add_v1"(%[[ARG0]], %[[ARG1]]) : (!vhlo.tensor_v1<!vhlo.i4_v1>, !vhlo.tensor_v1<!vhlo.i4_v1>) -> !vhlo.tensor_v1<!vhlo.i4_v1>
   %0 = "stablehlo.add"(%arg0, %arg1) : (tensor<i4>, tensor<i4>) -> tensor<i4>
   func.return %0 : tensor<i4>
 }
 
 // CHECK-LABEL: "type_i8"
+// CHECK-NEXT: (%[[ARG0:.*]]: {{.*}}, %[[ARG1:.*]]: {{.*}})
 func.func @type_i8(%arg0: tensor<i8>, %arg1: tensor<i8>) -> tensor<i8> {
-  // CHECK: "vhlo.add_v1"(%arg0, %arg1) : (!vhlo.tensor_v1<!vhlo.i8_v1>, !vhlo.tensor_v1<!vhlo.i8_v1>) -> !vhlo.tensor_v1<!vhlo.i8_v1>
+  // CHECK: "vhlo.add_v1"(%[[ARG0]], %[[ARG1]]) : (!vhlo.tensor_v1<!vhlo.i8_v1>, !vhlo.tensor_v1<!vhlo.i8_v1>) -> !vhlo.tensor_v1<!vhlo.i8_v1>
   %0 = "stablehlo.add"(%arg0, %arg1) : (tensor<i8>, tensor<i8>) -> tensor<i8>
   func.return %0 : tensor<i8>
 }
 
 // CHECK-LABEL: "type_i16"
+// CHECK-NEXT: (%[[ARG0:.*]]: {{.*}}, %[[ARG1:.*]]: {{.*}})
 func.func @type_i16(%arg0: tensor<i16>, %arg1: tensor<i16>) -> tensor<i16> {
-  // CHECK: "vhlo.add_v1"(%arg0, %arg1) : (!vhlo.tensor_v1<!vhlo.i16_v1>, !vhlo.tensor_v1<!vhlo.i16_v1>) -> !vhlo.tensor_v1<!vhlo.i16_v1>
+  // CHECK: "vhlo.add_v1"(%[[ARG0]], %[[ARG1]]) : (!vhlo.tensor_v1<!vhlo.i16_v1>, !vhlo.tensor_v1<!vhlo.i16_v1>) -> !vhlo.tensor_v1<!vhlo.i16_v1>
   %0 = "stablehlo.add"(%arg0, %arg1) : (tensor<i16>, tensor<i16>) -> tensor<i16>
   func.return %0 : tensor<i16>
 }
 
 // CHECK-LABEL: "type_i32"
+// CHECK-NEXT: (%[[ARG0:.*]]: {{.*}}, %[[ARG1:.*]]: {{.*}})
 func.func @type_i32(%arg0: tensor<i32>, %arg1: tensor<i32>) -> tensor<i32> {
-  // CHECK: "vhlo.add_v1"(%arg0, %arg1) : (!vhlo.tensor_v1<!vhlo.i32_v1>, !vhlo.tensor_v1<!vhlo.i32_v1>) -> !vhlo.tensor_v1<!vhlo.i32_v1>
+  // CHECK: "vhlo.add_v1"(%[[ARG0]], %[[ARG1]]) : (!vhlo.tensor_v1<!vhlo.i32_v1>, !vhlo.tensor_v1<!vhlo.i32_v1>) -> !vhlo.tensor_v1<!vhlo.i32_v1>
   %0 = "stablehlo.add"(%arg0, %arg1) : (tensor<i32>, tensor<i32>) -> tensor<i32>
   func.return %0 : tensor<i32>
 }
 
 // CHECK-LABEL: "type_i64"
+// CHECK-NEXT: (%[[ARG0:.*]]: {{.*}}, %[[ARG1:.*]]: {{.*}})
 func.func @type_i64(%arg0: tensor<i64>, %arg1: tensor<i64>) -> tensor<i64> {
-  // CHECK: "vhlo.add_v1"(%arg0, %arg1) : (!vhlo.tensor_v1<!vhlo.i64_v1>, !vhlo.tensor_v1<!vhlo.i64_v1>) -> !vhlo.tensor_v1<!vhlo.i64_v1>
+  // CHECK: "vhlo.add_v1"(%[[ARG0]], %[[ARG1]]) : (!vhlo.tensor_v1<!vhlo.i64_v1>, !vhlo.tensor_v1<!vhlo.i64_v1>) -> !vhlo.tensor_v1<!vhlo.i64_v1>
   %0 = "stablehlo.add"(%arg0, %arg1) : (tensor<i64>, tensor<i64>) -> tensor<i64>
   func.return %0 : tensor<i64>
 }
 
 // CHECK-LABEL: "type_ui4"
+// CHECK-NEXT: (%[[ARG0:.*]]: {{.*}}, %[[ARG1:.*]]: {{.*}})
 func.func @type_ui4(%arg0: tensor<ui4>, %arg1: tensor<ui4>) -> tensor<ui4> {
-  // CHECK: "vhlo.add_v1"(%arg0, %arg1) : (!vhlo.tensor_v1<!vhlo.ui4_v1>, !vhlo.tensor_v1<!vhlo.ui4_v1>) -> !vhlo.tensor_v1<!vhlo.ui4_v1>
+  // CHECK: "vhlo.add_v1"(%[[ARG0]], %[[ARG1]]) : (!vhlo.tensor_v1<!vhlo.ui4_v1>, !vhlo.tensor_v1<!vhlo.ui4_v1>) -> !vhlo.tensor_v1<!vhlo.ui4_v1>
   %0 = "stablehlo.add"(%arg0, %arg1) : (tensor<ui4>, tensor<ui4>) -> tensor<ui4>
   func.return %0 : tensor<ui4>
 }
 
 // CHECK-LABEL: "type_ui8"
+// CHECK-NEXT: (%[[ARG0:.*]]: {{.*}}, %[[ARG1:.*]]: {{.*}})
 func.func @type_ui8(%arg0: tensor<ui8>, %arg1: tensor<ui8>) -> tensor<ui8> {
-  // CHECK: "vhlo.add_v1"(%arg0, %arg1) : (!vhlo.tensor_v1<!vhlo.ui8_v1>, !vhlo.tensor_v1<!vhlo.ui8_v1>) -> !vhlo.tensor_v1<!vhlo.ui8_v1>
+  // CHECK: "vhlo.add_v1"(%[[ARG0]], %[[ARG1]]) : (!vhlo.tensor_v1<!vhlo.ui8_v1>, !vhlo.tensor_v1<!vhlo.ui8_v1>) -> !vhlo.tensor_v1<!vhlo.ui8_v1>
   %0 = "stablehlo.add"(%arg0, %arg1) : (tensor<ui8>, tensor<ui8>) -> tensor<ui8>
   func.return %0 : tensor<ui8>
 }
 
 // CHECK-LABEL: "type_ui16"
+// CHECK-NEXT: (%[[ARG0:.*]]: {{.*}}, %[[ARG1:.*]]: {{.*}})
 func.func @type_ui16(%arg0: tensor<ui16>, %arg1: tensor<ui16>) -> tensor<ui16> {
-  // CHECK: "vhlo.add_v1"(%arg0, %arg1) : (!vhlo.tensor_v1<!vhlo.ui16_v1>, !vhlo.tensor_v1<!vhlo.ui16_v1>) -> !vhlo.tensor_v1<!vhlo.ui16_v1>
+  // CHECK: "vhlo.add_v1"(%[[ARG0]], %[[ARG1]]) : (!vhlo.tensor_v1<!vhlo.ui16_v1>, !vhlo.tensor_v1<!vhlo.ui16_v1>) -> !vhlo.tensor_v1<!vhlo.ui16_v1>
   %0 = "stablehlo.add"(%arg0, %arg1) : (tensor<ui16>, tensor<ui16>) -> tensor<ui16>
   func.return %0 : tensor<ui16>
 }
 
 // CHECK-LABEL: "type_ui32"
+// CHECK-NEXT: (%[[ARG0:.*]]: {{.*}}, %[[ARG1:.*]]: {{.*}})
 func.func @type_ui32(%arg0: tensor<ui32>, %arg1: tensor<ui32>) -> tensor<ui32> {
-  // CHECK: "vhlo.add_v1"(%arg0, %arg1) : (!vhlo.tensor_v1<!vhlo.ui32_v1>, !vhlo.tensor_v1<!vhlo.ui32_v1>) -> !vhlo.tensor_v1<!vhlo.ui32_v1>
+  // CHECK: "vhlo.add_v1"(%[[ARG0]], %[[ARG1]]) : (!vhlo.tensor_v1<!vhlo.ui32_v1>, !vhlo.tensor_v1<!vhlo.ui32_v1>) -> !vhlo.tensor_v1<!vhlo.ui32_v1>
   %0 = "stablehlo.add"(%arg0, %arg1) : (tensor<ui32>, tensor<ui32>) -> tensor<ui32>
   func.return %0 : tensor<ui32>
 }
 
 // CHECK-LABEL: "type_ui64"
+// CHECK-NEXT: (%[[ARG0:.*]]: {{.*}}, %[[ARG1:.*]]: {{.*}})
 func.func @type_ui64(%arg0: tensor<ui64>, %arg1: tensor<ui64>) -> tensor<ui64> {
-  // CHECK: "vhlo.add_v1"(%arg0, %arg1) : (!vhlo.tensor_v1<!vhlo.ui64_v1>, !vhlo.tensor_v1<!vhlo.ui64_v1>) -> !vhlo.tensor_v1<!vhlo.ui64_v1>
+  // CHECK: "vhlo.add_v1"(%[[ARG0]], %[[ARG1]]) : (!vhlo.tensor_v1<!vhlo.ui64_v1>, !vhlo.tensor_v1<!vhlo.ui64_v1>) -> !vhlo.tensor_v1<!vhlo.ui64_v1>
   %0 = "stablehlo.add"(%arg0, %arg1) : (tensor<ui64>, tensor<ui64>) -> tensor<ui64>
   func.return %0 : tensor<ui64>
 }
 
 // CHECK-LABEL: "type_f8E4M3FN"
+// CHECK-NEXT: (%[[ARG0:.*]]: {{.*}}, %[[ARG1:.*]]: {{.*}})
 func.func @type_f8E4M3FN(%arg0: tensor<f8E4M3FN>, %arg1: tensor<f8E4M3FN>) -> tensor<f8E4M3FN> {
-  // CHECK: "vhlo.add_v1"(%arg0, %arg1) : (!vhlo.tensor_v1<!vhlo.f8E4M3FN_v1>, !vhlo.tensor_v1<!vhlo.f8E4M3FN_v1>) -> !vhlo.tensor_v1<!vhlo.f8E4M3FN_v1>
+  // CHECK: "vhlo.add_v1"(%[[ARG0]], %[[ARG1]]) : (!vhlo.tensor_v1<!vhlo.f8E4M3FN_v1>, !vhlo.tensor_v1<!vhlo.f8E4M3FN_v1>) -> !vhlo.tensor_v1<!vhlo.f8E4M3FN_v1>
   %0 = "stablehlo.add"(%arg0, %arg1) : (tensor<f8E4M3FN>, tensor<f8E4M3FN>) -> tensor<f8E4M3FN>
   func.return %0 : tensor<f8E4M3FN>
 }
 
 // CHECK-LABEL: "type_f8E5M2"
+// CHECK-NEXT: (%[[ARG0:.*]]: {{.*}}, %[[ARG1:.*]]: {{.*}})
 func.func @type_f8E5M2(%arg0: tensor<f8E5M2>, %arg1: tensor<f8E5M2>) -> tensor<f8E5M2> {
-  // CHECK: "vhlo.add_v1"(%arg0, %arg1) : (!vhlo.tensor_v1<!vhlo.f8E5M2_v1>, !vhlo.tensor_v1<!vhlo.f8E5M2_v1>) -> !vhlo.tensor_v1<!vhlo.f8E5M2_v1>
+  // CHECK: "vhlo.add_v1"(%[[ARG0]], %[[ARG1]]) : (!vhlo.tensor_v1<!vhlo.f8E5M2_v1>, !vhlo.tensor_v1<!vhlo.f8E5M2_v1>) -> !vhlo.tensor_v1<!vhlo.f8E5M2_v1>
   %0 = "stablehlo.add"(%arg0, %arg1) : (tensor<f8E5M2>, tensor<f8E5M2>) -> tensor<f8E5M2>
   func.return %0 : tensor<f8E5M2>
 }
 
 // CHECK-LABEL: "type_f8E4M3FNUZ"
+// CHECK-NEXT: (%[[ARG0:.*]]: {{.*}}, %[[ARG1:.*]]: {{.*}})
 func.func @type_f8E4M3FNUZ(%arg0: tensor<f8E4M3FNUZ>, %arg1: tensor<f8E4M3FNUZ>) -> tensor<f8E4M3FNUZ> {
-  // CHECK: "vhlo.add_v1"(%arg0, %arg1) : (!vhlo.tensor_v1<!vhlo.f8E4M3FNUZ_v1>, !vhlo.tensor_v1<!vhlo.f8E4M3FNUZ_v1>) -> !vhlo.tensor_v1<!vhlo.f8E4M3FNUZ_v1>
+  // CHECK: "vhlo.add_v1"(%[[ARG0]], %[[ARG1]]) : (!vhlo.tensor_v1<!vhlo.f8E4M3FNUZ_v1>, !vhlo.tensor_v1<!vhlo.f8E4M3FNUZ_v1>) -> !vhlo.tensor_v1<!vhlo.f8E4M3FNUZ_v1>
   %0 = "stablehlo.add"(%arg0, %arg1) : (tensor<f8E4M3FNUZ>, tensor<f8E4M3FNUZ>) -> tensor<f8E4M3FNUZ>
   func.return %0 : tensor<f8E4M3FNUZ>
 }
 
 // CHECK-LABEL: "type_f8E4M3B11FNUZ"
+// CHECK-NEXT: (%[[ARG0:.*]]: {{.*}}, %[[ARG1:.*]]: {{.*}})
 func.func @type_f8E4M3B11FNUZ(%arg0: tensor<f8E4M3B11FNUZ>, %arg1: tensor<f8E4M3B11FNUZ>) -> tensor<f8E4M3B11FNUZ> {
-  // CHECK: "vhlo.add_v1"(%arg0, %arg1) : (!vhlo.tensor_v1<!vhlo.f8E4M3B11FNUZ_v1>, !vhlo.tensor_v1<!vhlo.f8E4M3B11FNUZ_v1>) -> !vhlo.tensor_v1<!vhlo.f8E4M3B11FNUZ_v1>
+  // CHECK: "vhlo.add_v1"(%[[ARG0]], %[[ARG1]]) : (!vhlo.tensor_v1<!vhlo.f8E4M3B11FNUZ_v1>, !vhlo.tensor_v1<!vhlo.f8E4M3B11FNUZ_v1>) -> !vhlo.tensor_v1<!vhlo.f8E4M3B11FNUZ_v1>
   %0 = "stablehlo.add"(%arg0, %arg1) : (tensor<f8E4M3B11FNUZ>, tensor<f8E4M3B11FNUZ>) -> tensor<f8E4M3B11FNUZ>
   func.return %0 : tensor<f8E4M3B11FNUZ>
 }
 
 // CHECK-LABEL: "type_f8E5M2FNUZ"
+// CHECK-NEXT: (%[[ARG0:.*]]: {{.*}}, %[[ARG1:.*]]: {{.*}})
 func.func @type_f8E5M2FNUZ(%arg0: tensor<f8E5M2FNUZ>, %arg1: tensor<f8E5M2FNUZ>) -> tensor<f8E5M2FNUZ> {
-  // CHECK: "vhlo.add_v1"(%arg0, %arg1) : (!vhlo.tensor_v1<!vhlo.f8E5M2FNUZ_v1>, !vhlo.tensor_v1<!vhlo.f8E5M2FNUZ_v1>) -> !vhlo.tensor_v1<!vhlo.f8E5M2FNUZ_v1>
+  // CHECK: "vhlo.add_v1"(%[[ARG0]], %[[ARG1]]) : (!vhlo.tensor_v1<!vhlo.f8E5M2FNUZ_v1>, !vhlo.tensor_v1<!vhlo.f8E5M2FNUZ_v1>) -> !vhlo.tensor_v1<!vhlo.f8E5M2FNUZ_v1>
   %0 = "stablehlo.add"(%arg0, %arg1) : (tensor<f8E5M2FNUZ>, tensor<f8E5M2FNUZ>) -> tensor<f8E5M2FNUZ>
   func.return %0 : tensor<f8E5M2FNUZ>
 }
 
 // CHECK-LABEL: "type_bf16"
+// CHECK-NEXT: (%[[ARG0:.*]]: {{.*}}, %[[ARG1:.*]]: {{.*}})
 func.func @type_bf16(%arg0: tensor<bf16>, %arg1: tensor<bf16>) -> tensor<bf16> {
-  // CHECK: "vhlo.add_v1"(%arg0, %arg1) : (!vhlo.tensor_v1<!vhlo.bf16_v1>, !vhlo.tensor_v1<!vhlo.bf16_v1>) -> !vhlo.tensor_v1<!vhlo.bf16_v1>
+  // CHECK: "vhlo.add_v1"(%[[ARG0]], %[[ARG1]]) : (!vhlo.tensor_v1<!vhlo.bf16_v1>, !vhlo.tensor_v1<!vhlo.bf16_v1>) -> !vhlo.tensor_v1<!vhlo.bf16_v1>
   %0 = "stablehlo.add"(%arg0, %arg1) : (tensor<bf16>, tensor<bf16>) -> tensor<bf16>
   func.return %0 : tensor<bf16>
 }
 
 // CHECK-LABEL: "type_f16"
+// CHECK-NEXT: (%[[ARG0:.*]]: {{.*}}, %[[ARG1:.*]]: {{.*}})
 func.func @type_f16(%arg0: tensor<f16>, %arg1: tensor<f16>) -> tensor<f16> {
-  // CHECK: "vhlo.add_v1"(%arg0, %arg1) : (!vhlo.tensor_v1<!vhlo.f16_v1>, !vhlo.tensor_v1<!vhlo.f16_v1>) -> !vhlo.tensor_v1<!vhlo.f16_v1>
+  // CHECK: "vhlo.add_v1"(%[[ARG0]], %[[ARG1]]) : (!vhlo.tensor_v1<!vhlo.f16_v1>, !vhlo.tensor_v1<!vhlo.f16_v1>) -> !vhlo.tensor_v1<!vhlo.f16_v1>
   %0 = "stablehlo.add"(%arg0, %arg1) : (tensor<f16>, tensor<f16>) -> tensor<f16>
   func.return %0 : tensor<f16>
 }
 
 // CHECK-LABEL: "type_f32"
+// CHECK-NEXT: (%[[ARG0:.*]]: {{.*}}, %[[ARG1:.*]]: {{.*}})
 func.func @type_f32(%arg0: tensor<f32>, %arg1: tensor<f32>) -> tensor<f32> {
-  // CHECK: "vhlo.add_v1"(%arg0, %arg1) : (!vhlo.tensor_v1<!vhlo.f32_v1>, !vhlo.tensor_v1<!vhlo.f32_v1>) -> !vhlo.tensor_v1<!vhlo.f32_v1>
+  // CHECK: "vhlo.add_v1"(%[[ARG0]], %[[ARG1]]) : (!vhlo.tensor_v1<!vhlo.f32_v1>, !vhlo.tensor_v1<!vhlo.f32_v1>) -> !vhlo.tensor_v1<!vhlo.f32_v1>
   %0 = "stablehlo.add"(%arg0, %arg1) : (tensor<f32>, tensor<f32>) -> tensor<f32>
   func.return %0 : tensor<f32>
 }
 
 // CHECK-LABEL: "type_f64"
+// CHECK-NEXT: (%[[ARG0:.*]]: {{.*}}, %[[ARG1:.*]]: {{.*}})
 func.func @type_f64(%arg0: tensor<f64>, %arg1: tensor<f64>) -> tensor<f64> {
-  // CHECK: "vhlo.add_v1"(%arg0, %arg1) : (!vhlo.tensor_v1<!vhlo.f64_v1>, !vhlo.tensor_v1<!vhlo.f64_v1>) -> !vhlo.tensor_v1<!vhlo.f64_v1>
+  // CHECK: "vhlo.add_v1"(%[[ARG0]], %[[ARG1]]) : (!vhlo.tensor_v1<!vhlo.f64_v1>, !vhlo.tensor_v1<!vhlo.f64_v1>) -> !vhlo.tensor_v1<!vhlo.f64_v1>
   %0 = "stablehlo.add"(%arg0, %arg1) : (tensor<f64>, tensor<f64>) -> tensor<f64>
   func.return %0 : tensor<f64>
 }
 
 // CHECK-LABEL: "type_complex_f32"
+// CHECK-NEXT: (%[[ARG0:.*]]: {{.*}}, %[[ARG1:.*]]: {{.*}})
 func.func @type_complex_f32(%arg0: tensor<complex<f32>>, %arg1: tensor<complex<f32>>) -> tensor<complex<f32>> {
-  // CHECK: "vhlo.add_v1"(%arg0, %arg1) : (!vhlo.tensor_v1<!vhlo.complex_v1<!vhlo.f32_v1>>, !vhlo.tensor_v1<!vhlo.complex_v1<!vhlo.f32_v1>>) -> !vhlo.tensor_v1<!vhlo.complex_v1<!vhlo.f32_v1>>
+  // CHECK: "vhlo.add_v1"(%[[ARG0]], %[[ARG1]]) : (!vhlo.tensor_v1<!vhlo.complex_v1<!vhlo.f32_v1>>, !vhlo.tensor_v1<!vhlo.complex_v1<!vhlo.f32_v1>>) -> !vhlo.tensor_v1<!vhlo.complex_v1<!vhlo.f32_v1>>
   %0 = "stablehlo.add"(%arg0, %arg1) : (tensor<complex<f32>>, tensor<complex<f32>>) -> tensor<complex<f32>>
   func.return %0 : tensor<complex<f32>>
 }
 
 // CHECK-LABEL: "type_complex_f64"
+// CHECK-NEXT: (%[[ARG0:.*]]: {{.*}}, %[[ARG1:.*]]: {{.*}})
 func.func @type_complex_f64(%arg0: tensor<complex<f64>>, %arg1: tensor<complex<f64>>) -> tensor<complex<f64>> {
-  // CHECK: "vhlo.add_v1"(%arg0, %arg1) : (!vhlo.tensor_v1<!vhlo.complex_v1<!vhlo.f64_v1>>, !vhlo.tensor_v1<!vhlo.complex_v1<!vhlo.f64_v1>>) -> !vhlo.tensor_v1<!vhlo.complex_v1<!vhlo.f64_v1>>
+  // CHECK: "vhlo.add_v1"(%[[ARG0]], %[[ARG1]]) : (!vhlo.tensor_v1<!vhlo.complex_v1<!vhlo.f64_v1>>, !vhlo.tensor_v1<!vhlo.complex_v1<!vhlo.f64_v1>>) -> !vhlo.tensor_v1<!vhlo.complex_v1<!vhlo.f64_v1>>
   %0 = "stablehlo.add"(%arg0, %arg1) : (tensor<complex<f64>>, tensor<complex<f64>>) -> tensor<complex<f64>>
   func.return %0 : tensor<complex<f64>>
 }
 
 // CHECK-LABEL: "type_dynamism_ranked"
+// CHECK-NEXT: (%[[ARG0:.*]]: {{.*}})
 func.func @type_dynamism_ranked(%arg0: tensor<?xf32>) -> tensor<?xf32> {
-  // CHECK: "vhlo.abs_v1"(%arg0) : (!vhlo.tensor_v1<?x!vhlo.f32_v1>) -> !vhlo.tensor_v1<?x!vhlo.f32_v1>
+  // CHECK: "vhlo.abs_v1"(%[[ARG0]]) : (!vhlo.tensor_v1<?x!vhlo.f32_v1>) -> !vhlo.tensor_v1<?x!vhlo.f32_v1>
   %0 = "stablehlo.abs"(%arg0) : (tensor<?xf32>) -> tensor<?xf32>
   func.return %0 : tensor<?xf32>
 }
 
 // CHECK-LABEL: "type_per_tensor_quantization"
+// CHECK-NEXT: (%[[ARG0:.*]]: {{.*}}, %[[ARG1:.*]]: {{.*}})
 func.func @type_per_tensor_quantization(%arg0: tensor<!quant.uniform<i8:f32, 34.0:16>>, %arg1: tensor<!quant.uniform<i8:f32, 34.0:16>>) -> tensor<!quant.uniform<i8:f32, 34.0:16>> {
-  // CHECK: "vhlo.add_v1"(%arg0, %arg1) : (!vhlo.tensor_v1<!vhlo.quant_v1<!vhlo.i8_v1:!vhlo.f32_v1, 3.400000e+01:16, -128:127, 1>>, !vhlo.tensor_v1<!vhlo.quant_v1<!vhlo.i8_v1:!vhlo.f32_v1, 3.400000e+01:16, -128:127, 1>>) -> !vhlo.tensor_v1<!vhlo.quant_v1<!vhlo.i8_v1:!vhlo.f32_v1, 3.400000e+01:16, -128:127, 1>>
+  // CHECK: "vhlo.add_v1"(%[[ARG0]], %[[ARG1]]) : (!vhlo.tensor_v1<!vhlo.quant_v1<!vhlo.i8_v1:!vhlo.f32_v1, 3.400000e+01:16, -128:127, 1>>, !vhlo.tensor_v1<!vhlo.quant_v1<!vhlo.i8_v1:!vhlo.f32_v1, 3.400000e+01:16, -128:127, 1>>) -> !vhlo.tensor_v1<!vhlo.quant_v1<!vhlo.i8_v1:!vhlo.f32_v1, 3.400000e+01:16, -128:127, 1>>
   %0 = "stablehlo.add"(%arg0, %arg1) : (tensor<!quant.uniform<i8:f32, 34.0:16>>, tensor<!quant.uniform<i8:f32, 34.0:16>>) -> tensor<!quant.uniform<i8:f32, 34.0:16>>
   func.return %0 : tensor<!quant.uniform<i8:f32, 34.0:16>>
 }
 
 // CHECK-LABEL: "type_per_axis_quantization"
+// CHECK-NEXT: (%[[ARG0:.*]]: {{.*}})
 func.func @type_per_axis_quantization(%arg0: tensor<2x!quant.uniform<i8:f32:0, {34.0:16, 34.0:16}>>) -> tensor<2x!quant.uniform<i8:f32:0, {34.0:16, 34.0:16}>> {
-  // CHECK: "vhlo.add_v1"(%arg0, %arg0) : (!vhlo.tensor_v1<2x!vhlo.quant_per_axis_v1<!vhlo.i8_v1:!vhlo.f32_v1, 0, 3.400000e+01, 3.400000e+01, 16, 16, -128:127, 1>>, !vhlo.tensor_v1<2x!vhlo.quant_per_axis_v1<!vhlo.i8_v1:!vhlo.f32_v1, 0, 3.400000e+01, 3.400000e+01, 16, 16, -128:127, 1>>) -> !vhlo.tensor_v1<2x!vhlo.quant_per_axis_v1<!vhlo.i8_v1:!vhlo.f32_v1, 0, 3.400000e+01, 3.400000e+01, 16, 16, -128:127, 1>>
+  // CHECK: "vhlo.add_v1"(%[[ARG0]], %[[ARG0]]) : (!vhlo.tensor_v1<2x!vhlo.quant_per_axis_v1<!vhlo.i8_v1:!vhlo.f32_v1, 0, 3.400000e+01, 3.400000e+01, 16, 16, -128:127, 1>>, !vhlo.tensor_v1<2x!vhlo.quant_per_axis_v1<!vhlo.i8_v1:!vhlo.f32_v1, 0, 3.400000e+01, 3.400000e+01, 16, 16, -128:127, 1>>) -> !vhlo.tensor_v1<2x!vhlo.quant_per_axis_v1<!vhlo.i8_v1:!vhlo.f32_v1, 0, 3.400000e+01, 3.400000e+01, 16, 16, -128:127, 1>>
   %0 = stablehlo.add %arg0, %arg0 : tensor<2x!quant.uniform<i8:f32:0, {34.0:16, 34.0:16}>>
   func.return %0 : tensor<2x!quant.uniform<i8:f32:0, {34.0:16, 34.0:16}>>
 }
 
 //       CHECK: function_type = #vhlo.type_v1<!vhlo.func_v1<(!vhlo.token_v1) -> !vhlo.token_v1>>
 // CHECK-LABEL: "type_token_callee"
+// CHECK-NEXT: (%[[ARG0:.*]]: {{.*}})
 func.func @type_token_callee(%arg0: !stablehlo.token) -> !stablehlo.token {
-  // CHECK: "vhlo.return_v1"(%arg0) : (!vhlo.token_v1) -> ()
+  // CHECK: "vhlo.return_v1"(%[[ARG0]]) : (!vhlo.token_v1) -> ()
   return %arg0 : !stablehlo.token
 }
 
 //       CHECK: function_type = #vhlo.type_v1<!vhlo.func_v1<(!vhlo.token_v1) -> !vhlo.token_v1>>
 // CHECK-LABEL: "type_token_caller"
+// CHECK-NEXT: (%[[ARG0:.*]]: {{.*}})
 func.func @type_token_caller(%arg0: !stablehlo.token) -> !stablehlo.token {
-  // CHECK:      "vhlo.call_v1"(%arg0) <{callee = #vhlo.string_v1<"type_token_callee">}
+  // CHECK:      "vhlo.call_v1"(%[[ARG0]]) <{callee = #vhlo.string_v1<"type_token_callee">}
   // CHECK-SAME: (!vhlo.token_v1) -> !vhlo.token_v1
   %0 = func.call @type_token_callee(%arg0) : (!stablehlo.token) -> !stablehlo.token
   return %0 : !stablehlo.token
 }
 
 // CHECK-LABEL: "type_tuple"
+// CHECK-NEXT: (%[[ARG0:.*]]: {{.*}})
 func.func @type_tuple(%arg0: tuple<tensor<f32>>) -> tuple<!stablehlo.token> {
   %0 = "stablehlo.custom_call"(%arg0) {
     call_target_name = "foo"

