/* This file is autogenerated! Please don't edit! */
HloModule xla_computation_unknown, entry_computation_layout={(pred[],s8[6]{0},u8[4,3,8,13,11]{4,3,2,1,0})->(u8[4,3,8,4,11]{4,3,2,1,0})}

region_1.7 {
  Arg_0.8 = u8[] parameter(0)
  Arg_1.9 = u8[] parameter(1)
  ROOT add.10 = u8[] add(Arg_0.8, Arg_1.9)
}

region_0.11 {
  Arg_.12 = s8[6]{0} parameter(0)
  convert.14 = u8[6]{0} convert(Arg_.12)
  broadcast.15 = u8[4,3,8,4,6]{4,3,2,1,0} broadcast(convert.14), dimensions={4}
  constant.13 = u8[] constant(0)
  reduce.16 = u8[4,3,8,4]{3,2,1,0} reduce(broadcast.15, constant.13), dimensions={4}, to_apply=region_1.7
  broadcast.17 = u8[13,4,3,8,4]{4,3,2,1,0} broadcast(reduce.16), dimensions={1,2,3,4}
  ROOT reshape.18 = u8[4,3,8,4,13]{4,3,2,1,0} reshape(broadcast.17)
}

region_3.19 {
  Arg_0.20 = u8[] parameter(0)
  Arg_1.21 = u8[] parameter(1)
  ROOT add.22 = u8[] add(Arg_0.20, Arg_1.21)
}

region_2.23 {
  Arg_.24 = s8[6]{0} parameter(0)
  convert.26 = u8[6]{0} convert(Arg_.24)
  broadcast.27 = u8[4,3,8,4,6]{4,3,2,1,0} broadcast(convert.26), dimensions={4}
  constant.25 = u8[] constant(0)
  reduce.28 = u8[4,3,8,4]{3,2,1,0} reduce(broadcast.27, constant.25), dimensions={4}, to_apply=region_3.19
  broadcast.29 = u8[13,4,3,8,4]{4,3,2,1,0} broadcast(reduce.28), dimensions={1,2,3,4}
  ROOT reshape.30 = u8[4,3,8,4,13]{4,3,2,1,0} reshape(broadcast.29)
}

ENTRY main.35 {
  Arg_0.1 = pred[] parameter(0)
  convert.6 = s32[] convert(Arg_0.1)
  Arg_1.2 = s8[6]{0} parameter(1)
  conditional.31 = u8[4,3,8,4,13]{4,3,2,1,0} conditional(convert.6, Arg_1.2, Arg_1.2), branch_computations={region_0.11, region_2.23}
  Arg_2.3 = u8[4,3,8,13,11]{4,3,2,1,0} parameter(2)
  constant.4 = u8[] constant(1)
  broadcast.5 = u8[4,3,8,13,11]{4,3,2,1,0} broadcast(constant.4), dimensions={}
  subtract.32 = u8[4,3,8,13,11]{4,3,2,1,0} subtract(Arg_2.3, broadcast.5)
  dot.33 = u8[4,3,8,4,11]{4,3,2,1,0} dot(conditional.31, subtract.32), lhs_batch_dims={0,1,2}, lhs_contracting_dims={4}, rhs_batch_dims={0,1,2}, rhs_contracting_dims={3}
  ROOT tuple.34 = (u8[4,3,8,4,11]{4,3,2,1,0}) tuple(dot.33)
}

