# RUN: not tf_tfl_translate -mlir-pretty-debuginfo -tf-input-arrays=input -tf-input-data-types=DT_FLOAT -tf-input-shapes=1,224,224,3 -tf-output-arrays=MobilenetV1/MobilenetV1/Conv2d_0/BatchNorm/FusedBatchNorm -tf-debug-info=%s.debug %s -o - 2>&1 | FileCheck %s

# CHECK: fake/user/code/file_C.py: error: 'tf.Conv2D' op attribute 'data_format' failed to satisfy constraint: 'NHWC' or 'NCHW' convnet data format

node {
  name: "input"
  op: "Placeholder"
  attr {
    key: "dtype"
    value {
      type: DT_FLOAT
    }
  }
  attr {
    key: "shape"
    value {
      shape {
        dim {
          size: -1
        }
        dim {
          size: 224
        }
        dim {
          size: 224
        }
        dim {
          size: 3
        }
      }
    }
  }
}
node {
  name: "MobilenetV1/Conv2d_0/weights"
  op: "Const"
  attr {
    key: "dtype"
    value {
      type: DT_FLOAT
    }
  }
  attr {
    key: "value"
    value {
      tensor {
        dtype: DT_FLOAT
        tensor_shape {
          dim {
            size: 3
          }
          dim {
            size: 3
          }
          dim {
            size: 3
          }
          dim {
            size: 32
          }
        }
        tensor_content: "…"
      }
    }
  }
}
node {
  name: "MobilenetV1/Conv2d_0/weights/read"
  op: "Identity"
  input: "MobilenetV1/Conv2d_0/weights"
  attr {
    key: "T"
    value {
      type: DT_FLOAT
    }
  }
  attr {
    key: "_class"
    value {
      list {
        s: "loc:@MobilenetV1/Conv2d_0/weights"
      }
    }
  }
}
node {
  name: "MobilenetV1/MobilenetV1/Conv2d_0/Conv2D"
  op: "Conv2D"
  input: "input"
  input: "MobilenetV1/Conv2d_0/weights/read"
  attr {
    key: "T"
    value {
      type: DT_FLOAT
    }
  }
  attr {
    key: "data_format"
    value {
      s: "NDHWC"
    }
  }
  attr {
    key: "dilations"
    value {
      list {
        i: 1
        i: 1
        i: 1
        i: 1
      }
    }
  }
  attr {
    key: "padding"
    value {
      s: "SAME"
    }
  }
  attr {
    key: "strides"
    value {
      list {
        i: 1
        i: 2
        i: 2
        i: 1
      }
    }
  }
  attr {
    key: "use_cudnn_on_gpu"
    value {
      b: true
    }
  }
}
node {
  name: "MobilenetV1/Conv2d_0/BatchNorm/gamma"
  op: "Const"
  attr {
    key: "dtype"
    value {
      type: DT_FLOAT
    }
  }
  attr {
    key: "value"
    value {
      tensor {
        dtype: DT_FLOAT
        tensor_shape {
          dim {
            size: 32
          }
        }
        tensor_content: "…"
      }
    }
  }
}
node {
  name: "MobilenetV1/Conv2d_0/BatchNorm/gamma/read"
  op: "Identity"
  input: "MobilenetV1/Conv2d_0/BatchNorm/gamma"
  attr {
    key: "T"
    value {
      type: DT_FLOAT
    }
  }
  attr {
    key: "_class"
    value {
      list {
        s: "loc:@MobilenetV1/Conv2d_0/BatchNorm/gamma"
      }
    }
  }
}
node {
  name: "MobilenetV1/Conv2d_0/BatchNorm/beta"
  op: "Const"
  attr {
    key: "dtype"
    value {
      type: DT_FLOAT
    }
  }
  attr {
    key: "value"
    value {
      tensor {
        dtype: DT_FLOAT
        tensor_shape {
          dim {
            size: 32
          }
        }
        tensor_content: "…"
      }
    }
  }
}
node {
  name: "MobilenetV1/Conv2d_0/BatchNorm/beta/read"
  op: "Identity"
  input: "MobilenetV1/Conv2d_0/BatchNorm/beta"
  attr {
    key: "T"
    value {
      type: DT_FLOAT
    }
  }
  attr {
    key: "_class"
    value {
      list {
        s: "loc:@MobilenetV1/Conv2d_0/BatchNorm/beta"
      }
    }
  }
}
node {
  name: "MobilenetV1/Conv2d_0/BatchNorm/moving_mean"
  op: "Const"
  attr {
    key: "dtype"
    value {
      type: DT_FLOAT
    }
  }
  attr {
    key: "value"
    value {
      tensor {
        dtype: DT_FLOAT
        tensor_shape {
          dim {
            size: 32
          }
        }
        tensor_content: "…"
      }
    }
  }
}
node {
  name: "MobilenetV1/Conv2d_0/BatchNorm/moving_mean/read"
  op: "Identity"
  input: "MobilenetV1/Conv2d_0/BatchNorm/moving_mean"
  attr {
    key: "T"
    value {
      type: DT_FLOAT
    }
  }
  attr {
    key: "_class"
    value {
      list {
        s: "loc:@MobilenetV1/Conv2d_0/BatchNorm/moving_mean"
      }
    }
  }
}
node {
  name: "MobilenetV1/Conv2d_0/BatchNorm/moving_variance"
  op: "Const"
  attr {
    key: "dtype"
    value {
      type: DT_FLOAT
    }
  }
  attr {
    key: "value"
    value {
      tensor {
        dtype: DT_FLOAT
        tensor_shape {
          dim {
            size: 32
          }
        }
        tensor_content: "…"
      }
    }
  }
}
node {
  name: "MobilenetV1/Conv2d_0/BatchNorm/moving_variance/read"
  op: "Identity"
  input: "MobilenetV1/Conv2d_0/BatchNorm/moving_variance"
  attr {
    key: "T"
    value {
      type: DT_FLOAT
    }
  }
  attr {
    key: "_class"
    value {
      list {
        s: "loc:@MobilenetV1/Conv2d_0/BatchNorm/moving_variance"
      }
    }
  }
}
node {
  name: "MobilenetV1/MobilenetV1/Conv2d_0/BatchNorm/FusedBatchNorm"
  op: "FusedBatchNorm"
  input: "MobilenetV1/MobilenetV1/Conv2d_0/Conv2D"
  input: "MobilenetV1/Conv2d_0/BatchNorm/gamma/read"
  input: "MobilenetV1/Conv2d_0/BatchNorm/beta/read"
  input: "MobilenetV1/Conv2d_0/BatchNorm/moving_mean/read"
  input: "MobilenetV1/Conv2d_0/BatchNorm/moving_variance/read"
  attr {
    key: "T"
    value {
      type: DT_FLOAT
    }
  }
  attr {
    key: "data_format"
    value {
      s: "NHWC"
    }
  }
  attr {
    key: "is_training"
    value {
      b: false
    }
  }
}
library {
}
versions {
}
