node {
  name: "Const_0"
  op: "Const"
  attr {
    key: "value"
    value {
      tensor {
        dtype: DT_FLOAT
        tensor_shape {
          dim {
            size: 14
          }
        }
        tensor_content: "…"
      }
    }
  }
}
node {
  name: "Const_1"
  op: "Const"
  attr {
    key: "value"
    value {
      tensor {
        dtype: DT_FLOAT
        tensor_shape {
          dim {
            size: 14
          }
        }
        tensor_content: "…"
      }
    }
  }
}
node {
  name: "Const_2"
  op: "Const"
  attr {
    key: "value"
    value {
      tensor {
        dtype: DT_FLOAT
        tensor_shape {
          dim {
            size: 14
          }
        }
        tensor_content: "…"
      }
    }
  }
}
node {
  name: "Const_3"
  op: "Const"
  attr {
    key: "value"
    value {
      tensor {
        dtype: DT_FLOAT
        tensor_shape {
          dim {
            size: 14
          }
        }
        tensor_content: "…"
      }
    }
  }
}
node {
  name: "Const_4"
  op: "Const"
  attr {
    key: "value"
    value {
      tensor {
        dtype: DT_FLOAT
        tensor_shape {
          dim {
            size: 14
          }
        }
        tensor_content: "…"
      }
    }
  }
}
node {
  name: "Const_5"
  op: "Const"
  attr {
    key: "value"
    value {
      tensor {
        dtype: DT_FLOAT
        tensor_shape {
          dim {
            size: 14
          }
        }
        tensor_content: "…"
      }
    }
  }
}
node {
  name: "Const_6"
  op: "Const"
  attr {
    key: "value"
    value {
      tensor {
        dtype: DT_FLOAT
        tensor_shape {
          dim {
            size: 14
          }
        }
        tensor_content: "…"
      }
    }
  }
}
node {
  name: "Const_7"
  op: "Const"
  attr {
    key: "value"
    value {
      tensor {
        dtype: DT_FLOAT
        tensor_shape {
          dim {
            size: 14
          }
        }
        tensor_content: "…"
      }
    }
  }
}
node {
  name: "Const_8"
  op: "Const"
  attr {
    key: "value"
    value {
      tensor {
        dtype: DT_FLOAT
        tensor_shape {
          dim {
            size: 14
          }
        }
        tensor_content: "…"
      }
    }
  }
}
node {
  name: "Const_9"
  op: "Const"
  attr {
    key: "value"
    value {
      tensor {
        dtype: DT_FLOAT
        tensor_shape {
          dim {
            size: 14
          }
        }
        tensor_content: "…"
      }
    }
  }
}
node {
  name: "Const_10"
  op: "Const"
  attr {
    key: "value"
    value {
      tensor {
        dtype: DT_FLOAT
        tensor_shape {
          dim {
            size: 14
          }
        }
        tensor_content: "…"
      }
    }
  }
}
node {
  name: "Const_11"
  op: "Const"
  attr {
    key: "value"
    value {
      tensor {
        dtype: DT_FLOAT
        tensor_shape {
          dim {
            size: 14
          }
        }
        tensor_content: "…"
      }
    }
  }
}
node {
  name: "Const_12"
  op: "Const"
  attr {
    key: "value"
    value {
      tensor {
        dtype: DT_FLOAT
        tensor_shape {
          dim {
            size: 14
          }
        }
        tensor_content: "…"
      }
    }
  }
}
node {
  name: "Const_13"
  op: "Const"
  attr {
    key: "value"
    value {
      tensor {
        dtype: DT_FLOAT
        tensor_shape {
          dim {
            size: 14
          }
        }
        tensor_content: "…"
      }
    }
  }
}
node {
  name: "Const_14"
  op: "Const"
  attr {
    key: "value"
    value {
      tensor {
        dtype: DT_FLOAT
        tensor_shape {
          dim {
            size: 14
          }
        }
        tensor_content: "…"
      }
    }
  }
}
